statedicts/pl_statedict_db_2022-05-02_T3_90deg_P0_R1_s2_seed_2.ckpt (torch, 193785 bytes, 29 tensors)

nn.input_batch.weight f4 [5]
000000 3a 41 80 3f a5 64 81 3f 66 eb 7d 3f eb f3 81 3f
       1.0019906 1.0108839 0.99187315 1.0152563
000010 fe cf 7f 3f
       0.99926746

nn.input_batch.bias f4 [5]
000000 20 53 64 bb 09 69 38 3d 6a 65 a8 bc 5f 9f a7 3c
       -0.0034839585 0.045022044 -0.02055617 0.020461736
000010 f7 6e 28 3c
       0.010280362

nn.input_batch.running_mean f4 [5]
000000 4b 0a 28 40 c2 d5 84 3d f7 08 3f 40 81 e4 3a 40
       2.6256282 0.064860836 2.9849222 2.9201968
000010 bc c3 48 3e
       0.19605917

nn.input_batch.running_var f4 [5]
000000 f5 fe 2a 3d 8e 36 b3 35 97 8c 9d 3b e6 6f 65 3b
       0.041747052 1.3352417e-06 0.0048080194 0.0035009324
000010 4f a4 9d 3b
       0.004810847

nn.block1.linear.weight f4 [96, 5]
000000 f0 3e 4c 3e 84 6f b6 be 1b 4f d6 bd b5 31 d3 be
       0.19945884 -0.35631955 -0.10464307 -0.4124886
000010 d9 35 8e bc f4 7e ae 3e 92 a2 b6 be b0 e0 22 3b
       -0.017359661 0.34081233 -0.35670906 0.0024853162
000020 da 31 04 3e 82 54 cd be 4a 81 fd bd e7 5a a4 be
       0.12909642 -0.40103537 -0.123781756 -0.32100603
000030 c8 b4 de be f9 1a 9c be 16 a0 c5 bd a8 ab c0 3d
       -0.434973 -0.30489329 -0.096496746 0.09407741
000040 b2 41 d1 3e de 76 df be b1 9d c5 be 85 7c 0d be
       0.40870434 -0.43645376 -0.38596871 -0.13817032
000050 01 44 5e 3e 74 72 0d 3e e9 4e b1 bd be 5c 89 be
       0.21705629 0.13813192 -0.08657629 -0.2682857
000060 bd 90 6d be b1 8d be bd d2 78 17 be 80 fd df be
       -0.23199745 -0.09304369 -0.14792183 -0.43748093
000070 a2 a9 c9 be 18 d5 d1 be 0f 6c 0f be 8d b3 65 be
       -0.39387232 -0.4098289 -0.14006065 -0.22431774
000080 96 e5 e3 3e 4c 76 2e 3e 9d 59 c3 3e d6 a6 ce bd
       0.44511098 0.17037314 0.38154307 -0.10090415
000090 9d 65 02 3e 00 ad c0 bd bd ae 79 be d1 90 ce be
       0.12734075 -0.09407997 -0.24383064 -0.4034486
0000a0 7b 0b be be aa d5 7b be 26 a6 35 be d7 54 51 be
       -0.37118134 -0.24593225 -0.17739162 -0.2044252
0000b0 c4 d5 50 be da 0c 6f 3e b6 f2 05 be e7 ab 88 be
       -0.20394045 0.23344746 -0.13080868 -0.2669365
0000c0 52 6e be 3c 45 20 0d be b5 fe 74 be d1 bd d5 be
       0.023245964 -0.13781841 -0.23925288 -0.4174638
0000d0 f8 fd cb bd 3e 83 56 be a0 fd b0 3e 63 32 e9 bd
       -0.0996055 -0.20948502 0.345685 -0.11386564
0000e0 1f aa a9 3e 90 e9 7e be 9d b1 85 3e 3e 09 a0 3e
       0.33137605 -0.24893785 0.2611207 0.3125705
0000f0 17 ea 5f be e2 c6 68 be 20 7f 2b bd 6c 74 46 bc
       -0.21866642 -0.22732118 -0.041869283 -0.012112718
000100 9d 4d 05 be 90 90 8f 3e 73 38 e2 3d e4 b9 96 be
       -0.13017888 0.2803998 0.11045923 -0.29438698
000110 19 62 2b 3e 07 35 85 3e 4f e4 4e 3e 35 06 1b 3e
       0.1673664 0.2601702 0.2020428 0.15139087
000120 d5 a7 02 be b7 ab ce 3d d9 b2 d9 3e 0d 8a 8e be
       -0.12759335 0.10091346 0.42519262 -0.278397
000130 88 2e 63 be c4 e4 27 be d9 95 b8 be 86 dc db be
       -0.22185719 -0.16395861 -0.36051825 -0.42941684
000140 48 5f 95 3e cb 7e a1 3e 2d 26 0a 3e 99 d1 57 be
       0.29174256 0.31542048 0.13491125 -0.21076049
000150 b2 fe b5 be 4f 49 3d be db d6 be be aa f0 6e 3e
       -0.3554588 -0.18484996 -0.37273297 0.23333994
000160 95 ea 8e be 07 a7 8a bc b8 ab 5b be 31 65 17 3e
       -0.27913347 -0.016925348 -0.21452224 0.14784695
000170 9b aa b6 be 19 69 84 be 0f 7b 73 3e b5 34 ad be
       -0.35677037 -0.25861433 0.23777412 -0.33829275
000180 6f 85 d7 bd ae e6 d5 3d 3b 08 9b 3e aa bd 0d 3d
       -0.10523497 0.10444389 0.30279717 0.034604706
000190 46 75 72 3e 53 10 75 3e 95 27 bf 3e e2 2b df 3d
       0.23677549 0.23932008 0.37334886 0.10897042
0001a0 63 66 c7 be cd b8 fa 3d 3c d4 b0 be cb 51 80 3e
       -0.38945302 0.12242279 -0.34536922 0.25062403
0001b0 f3 81 98 be 64 95 d2 be 1c 3d d1 3e 55 ce ba 3e
       -0.29786643 -0.411296 0.40866935 0.36485544
0001c0 90 e5 49 be 82 92 b5 3e 49 8e 88 3c b0 8e c9 be
       -0.19716477 0.3546334 0.01666941 -0.39366674
0001d0 d0 24 b0 3c 33 91 81 3e 2d 99 e4 be f1 b2 84 be
       0.021501929 0.2530609 -0.44648114 -0.2591777
0001e0 a8 99 d2 be 75 4b 07 be 5f bc 84 bd 1a 21 dc be
       -0.41132855 -0.13212378 -0.064812414 -0.42994004
0001f0 5c 2f 93 bd ae e0 e1 3d 80 b6 15 bd 68 fd c6 3e
       -0.071867675 0.110291824 -0.036551 0.3886521
000200 e6 f7 fc 3d ec 0f d5 be c4 91 78 3e b3 6f 3e be
       0.123519704 -0.4161371 0.24274355 -0.18597297
000210 55 54 b1 bd 61 4c 5b 3d 2c 3a 31 3e 3c c7 c1 be
       -0.08658663 0.053539637 0.17307347 -0.37847316
000220 86 09 06 be 60 fa a8 be 73 ba 21 3e ec f7 be be
       -0.1308957 -0.3300352 0.15793781 -0.37298524
000230 45 06 82 be f8 43 d0 3d ae 3a bc 3e bb 87 fc bc
       -0.25395408 0.10169214 0.3676352 -0.03082644
000240 9a f6 e0 be 64 ca f8 bd 97 35 a8 be b8 56 93 3d
       -0.43938142 -0.12147978 -0.32853386 0.07194275
000250 ed 53 de be 17 ab 82 3e 9a 53 b2 3d e9 4a 4c bd
       -0.43423405 0.25521156 0.08707352 -0.049876127
000260 91 cc 8b be ed 70 c0 3e 25 6c 00 3e c3 96 53 3e
       -0.2730451 0.37586156 0.12541254 0.2066298
000270 c0 26 dc bc 56 9c 75 be f2 b5 45 bd fc f8 ae 3e
       -0.026873946 -0.23985419 -0.04826922 0.34174335
000280 5d d8 40 3e 02 36 a4 3e aa 35 27 be d2 e6 c7 be
       0.18832536 0.32072455 -0.16329065 -0.3904329
000290 3d 18 42 be 01 aa 5b be ce 5d e2 3e 7e c6 b1 3e
       -0.18954559 -0.2145157 0.44212192 0.3472175
0002a0 79 65 a1 3c 80 64 14 be 2a 26 54 be 0a 92 70 3d
       0.019701706 -0.14491463 -0.20717683 0.058733024
0002b0 86 61 b1 be 56 6d b0 bc dd 77 c1 be 38 f0 f6 3d
       -0.34644717 -0.02153651 -0.3778676 0.12057537
0002c0 cf 0a a4 be 12 37 89 bd 2b 2a 16 be 1f cb b9 be
       -0.32039496 -0.06699957 -0.14664523 -0.36287782
0002d0 63 a4 77 3e 2a 3d 99 be a3 0a 52 be c9 7d 93 be
       0.24183802 -0.29929477 -0.2051187 -0.28806904
0002e0 1d 90 6e 3d 6c 32 9e be 99 f6 84 3e c8 c3 51 3e
       0.058242906 -0.30897844 0.2596939 0.20484841
0002f0 b1 52 bf be 84 8d a7 3e 5e 97 58 3d 51 d5 bd be
       -0.37367776 0.32725155 0.05287873 -0.3707681
000300 56 98 1d bd 3d dd 3a be 82 39 73 be 87 e3 ba 3e
       -0.038475357 -0.18248458 -0.23752406 0.36501715
000310 a4 85 0a 3d e7 7c c2 bd c9 c5 a8 3e 2e 8d 42 3e
       0.033818856 -0.094964795 0.32963398 0.18999168
000320 4a 78 db be ca c9 70 be b4 5a 1b 3d 38 c3 98 be
       -0.4286521 -0.23514476 0.037928298 -0.2983644
000330 a3 b4 be be b8 c8 8e 3e 2c 04 d5 be ec fb d0 bd
       -0.3724719 0.2788751 -0.41604745 -0.102043
000340 0d ec 86 3e 89 61 88 3e d8 0b a9 be 7d c6 49 3d
       0.26351967 0.26636913 -0.3301685 0.04926156
000350 fe b1 b8 be f1 98 97 3e a8 6b c2 3d 81 c0 5b be
       -0.36073297 0.29608873 0.0949319 -0.21460153
000360 b6 5d bb 3c 5d c9 c0 3e 20 77 db bb f0 89 27 be
       0.022871833 0.37653628 -0.0066975504 -0.16361213
000370 09 a0 2d be a4 34 8a 3e 80 fc 00 3e 44 21 8b bd
       -0.1695558 0.26993287 0.12596321 -0.06793454
000380 04 19 64 3e 88 07 70 3e a7 61 aa be 11 ea 9f 3d
       0.22275168 0.23440373 -0.33277628 0.078083165
000390 50 b5 a5 3e 3a 2f df be cc 99 c1 be 27 4f bc 3e
       0.32364893 -0.43590719 -0.3781265 0.36779138
0003a0 ed b6 0d 3e db 0e 04 3e ba 50 45 be 89 9e d9 be
       0.13839312 0.12896292 -0.19269076 -0.42503765
0003b0 bf 59 e4 3e 65 5d 73 be 8c 3e ce be 80 37 72 bc
       0.4459972 -0.23766096 -0.40282094 -0.01478374
0003c0 05 30 7b be 4a 13 2c 3e e8 a7 ce bd 2c be 4e be
       -0.24530037 0.16804233 -0.10090619 -0.20189732
0003d0 09 b5 92 be 6a 16 d8 be 9a fa a5 3d f3 bf bb be
       -0.28653744 -0.422046 0.08104439 -0.36669883
0003e0 14 83 d0 be 38 6f 84 be 14 60 8e be 06 56 9d be
       -0.40725005 -0.25866103 -0.27807677 -0.30729693
0003f0 a1 cb c4 3e 8d 23 a5 bd f9 9e 3f 3d af 76 77 3e
       0.38436607 -0.080634214 0.046782468 0.24166368

nn.block1.linear.bias f4 [96]
000000 6a 4d fd 3d 44 1e fa 3d fa bc b4 bd f2 fe c0 be
       0.12368281 0.12212804 -0.08825107 -0.37694508
000010 2e 3f e7 be a1 77 67 3e d4 b2 d4 be 2a 9a 8b be
       -0.4516539 0.22604229 -0.41542685 -0.27266055
000020 e6 ae 34 3e 4d 45 8b 3e 0f a3 db 3d 1f b0 92 be
       0.17644843 0.2720131 0.1072446 -0.28649995
000030 ec f1 bf 3e 18 50 0b 3e 60 ab 15 be 62 36 26 be
       0.3748926 0.13604772 -0.14616156 -0.16231683
000040 9e 1d f8 3c 14 c9 e2 bd 61 73 29 3e a3 e0 a2 3e
       0.03028756 -0.11073509 0.1654792 0.3181201
000050 38 89 b4 bd 4e f1 aa 3e 28 0e cf 3e 0e d1 af 3e
       -0.08815235 0.33387226 0.40440488 0.34339184
000060 15 fd 33 3e 7b 41 e3 3e 94 1c 0f bc d9 92 38 be
       0.17577012 0.44385895 -0.008734841 -0.18024768
000070 4a 61 08 3d 9c 63 bd 3e 09 a2 b3 3e d3 c3 13 be
       0.033295907 0.36990058 0.3508456 -0.1443017
000080 a6 bd b0 3e 7a b3 1c be 3e d8 5d be 31 06 2c 3e
       0.3451969 -0.1530284 -0.21664521 0.16799237
000090 ef 9b cf be da 2d 75 3e 7f 96 8e 3e d7 0e a0 3e
       -0.40548655 0.23943272 0.27849194 0.31261322
0000a0 be 12 1b 3d fd 9f 53 be 8e 18 2a 3e 8b 48 af 3d
       0.03785967 -0.206665 0.1661093 0.08558758
0000b0 7d 6a 3a 3d b7 51 dc 3e e4 b5 80 3e 54 01 ca 3e
       0.04551171 0.43031093 0.25138772 0.39454138
0000c0 7b 65 77 3e d2 52 b7 3e b7 92 24 be e8 81 94 3e
       0.24159805 0.35805374 -0.16071592 0.2900536
0000d0 f6 38 83 be d3 ed 7c be 97 06 94 3e d9 fe 14 3d
       -0.25629395 -0.24700098 0.28911278 0.036375854
0000e0 72 9d 32 be 84 0d ba be c9 c1 3a be c6 51 8d be
       -0.17442873 -0.36338437 -0.18237986 -0.2760145
0000f0 03 56 3b 3e f7 a2 d0 be 23 b7 77 be 55 a0 b9 bd
       0.1829453 -0.40749332 -0.24190955 -0.09063784
000100 3b 29 47 3e d3 39 43 3e c9 e8 ab be 96 42 9d 3d
       0.19449322 0.19065027 -0.33576038 0.07678716
000110 1b 99 10 be c3 1d 53 be ce 08 97 bc 1f 27 80 3e
       -0.14120905 -0.20616822 -0.018436816 0.25029847
000120 1b 68 bb 3e da c8 d7 3e fe 00 93 3e 33 9b a1 3e
       0.36602864 0.42145425 0.28711694 0.3156372
000130 a2 ea 17 3e 5f 9a 21 3e c1 b9 37 be c0 b3 7a be
       0.14835599 0.15781544 -0.17941953 -0.24482632
000140 60 e1 90 be 90 b5 b0 bc 73 49 62 3e 7c 6e ab be
       -0.28296947 -0.02157095 0.22098331 -0.3348273
000150 9a b2 a1 be 58 16 b9 3e 44 00 9a 3e 3f 68 b4 be
       -0.31581575 0.3614986 0.30078328 -0.35235783
000160 78 ff af be 6e 92 2d be 4d 32 a2 be 31 5e 7e 3d
       -0.34374595 -0.1695039 -0.31679 0.062101547
000170 11 94 0a be c7 a9 f7 3d ac dd 3e 3b 49 81 65 3e
       -0.13533045 0.12092929 0.0029123826 0.224126

nn.block1.batch.weight f4 [96]
000000 bc 34 80 3f cf bf 7f 3f 47 31 80 3f 12 60 80 3f
       1.0016093 0.9990205 1.0015038 1.0029318
000010 d6 fa 7f 3f e7 79 7f 3f 5e 86 7d 3f d6 1c 7f 3f
       0.9999212 0.99795383 0.99033153 0.99653375
000020 d4 37 7f 3f 1d 97 7f 3f c7 dd 7f 3f 9a e6 80 3f
       0.9969456 0.99839956 0.9994778 1.0070374
000030 cd 21 80 3f 3c 6d 80 3f 33 16 7f 3f 49 a0 7f 3f
       1.0010315 1.0033336 0.9964325 0.9985395
000040 30 1e 80 3f 33 d8 80 3f ca c8 7f 3f 4c a1 7f 3f
       1.0009212 1.0065979 0.99915755 0.99855494
000050 38 4d 7f 3f 85 8e 80 3f ac e5 7f 3f 09 30 80 3f
       0.997272 1.0043494 0.99959826 1.0014659
000060 d2 d7 7f 3f 25 30 80 3f 31 10 80 3f 1c 36 80 3f
       0.9993869 1.0014693 1.0004941 1.0016513
000070 6d 61 80 3f 0b 37 7f 3f 36 d1 7e 3f b1 a9 7f 3f
       1.0029732 0.99693364 0.9953798 0.99868304
000080 f4 fe 7f 3f 3e 04 80 3f 11 e0 7e 3f d1 1a 80 3f
       0.999984 1.0001295 0.9956065 1.0008184
000090 ac f9 7e 3f 4c 0a 80 3f e6 50 80 3f 0f d7 7f 3f
       0.9959972 1.0003142 1.0024688 0.9993753
0000a0 2f 9c 7f 3f e4 53 80 3f c2 77 80 3f 63 58 80 3f
       0.9984769 1.0025601 1.0036547 1.0026973
0000b0 0b 98 80 3f fd 05 80 3f 82 00 80 3f 02 b6 7e 3f
       1.00464 1.0001827 1.0000155 0.9949647
0000c0 5f 82 7f 3f 6f 1f 80 3f 84 0c 80 3f 77 3a 7f 3f
       0.99808306 1.0009593 1.000382 0.99698585
0000d0 af 32 80 3f b8 4d 7f 3f 2e 3a 80 3f ad 5d 80 3f
       1.0015467 0.99727964 1.0017755 1.0028588
0000e0 f8 d0 80 3f bf 86 7f 3f e3 46 7f 3f b0 b4 7f 3f
       1.0063772 0.9981498 0.9971754 0.9988508
0000f0 d2 c7 7f 3f c5 f8 7f 3f 9f 6e 7f 3f 30 28 7f 3f
       0.99914277 0.9998897 0.9977817 0.99670696
000100 fa 0b 80 3f ab 00 80 3f d4 3d 80 3f 03 91 7f 3f
       1.0003655 1.0000204 1.0018868 0.99830645
000110 0a ff 7f 3f 33 af 7f 3f 4f d2 7f 3f 7c 20 80 3f
       0.99998534 0.9987671 0.9993028 1.0009913
000120 f8 ab 7f 3f b6 49 7f 3f 85 98 81 3f 08 2c 80 3f
       0.9987178 0.9972185 1.012467 1.0013437
000130 e7 83 7f 3f 80 04 80 3f 90 67 80 3f 08 e8 7f 3f
       0.9981064 1.0001373 1.0031605 0.99963427
000140 83 8c 7f 3f eb 05 7f 3f d0 9d 7f 3f a8 ab 80 3f
       0.9982378 0.99618405 0.9985018 1.0052385
000150 ae c6 7f 3f ab ff 7f 3f 9c 4a 80 3f f7 47 7f 3f
       0.99912536 0.99999493 1.0022769 0.99719185
000160 1f 65 7f 3f bb e0 7f 3f 8d 51 7f 3f 99 07 80 3f
       0.99763674 0.99952286 0.9973381 1.0002319
000170 4d 10 80 3f 17 1a 80 3f 9e 85 80 3f 5d d4 7f 3f
       1.0004975 1.0007962 1.0040777 0.99933416

nn.block1.batch.bias f4 [96]
000000 5f 00 e8 3a 8a 97 64 ba aa 06 94 ba 0f 50 8d b9
       0.0017700306 -0.0008720091 -0.001129349 -0.00026953264
000010 03 d7 54 39 b6 7f 39 3a 01 6d 0d 3b a4 e8 ec 3a
       0.00020297994 0.00070762204 0.0021579864 0.0018074703
000020 45 f0 8d ba 7a 4e d6 3a aa eb b3 ba 45 22 10 b9
       -0.0010829052 0.0016350292 -0.001372685 -0.00013745677
000030 5a 0a 4a 39 03 79 ce 3a 2b f4 2f bb 09 0f 1e 3a
       0.00019268077 0.0015752617 -0.0026848416 0.0006029462
000040 ba 31 37 bb ec 37 88 ba 26 37 02 bb c9 51 39 3a
       -0.0027953223 -0.0010392643 -0.0019869297 0.0007069377
000050 3c 07 4f 3a db 4f e4 39 57 3d 77 b7 f3 e1 a6 ba
       0.00078975013 0.00043547046 -1.4736629e-05 -0.0012732133
000060 50 5e 75 3a 21 57 a6 ba d1 6f 16 3b f4 fc c0 b9
       0.0009360062 -0.0012690761 0.0022954831 -0.00036809559
000070 eb dd 7e 3a d1 6e 06 bb 1b 74 16 3b 7e 9e 29 3b
       0.00097223994 -0.002051283 0.0022957388 0.0025881822
000080 60 c3 8a 3b 51 0a cb 3a 26 b0 07 3b 57 a3 ac 3a
       0.0042347163 0.0015490745 0.0020704358 0.0013171238
000090 b5 5c 5a 3b 84 7e 9f 3a a0 89 9b bb 2a 59 b3 3a
       0.0033319418 0.0012168442 -0.004746631 0.0013683189
0000a0 4d ce 40 ba f7 8d 56 ba 1c 2c 0d b8 59 dd 3f ba
       -0.000735496 -0.00081846066 -3.36581e-05 -0.0007319055
0000b0 63 ea 8d 39 a3 57 7b b8 94 eb d5 ba e7 90 67 37
       0.00027068247 -5.992468e-05 -0.0016320818 1.3802411e-05
0000c0 31 3f 31 3a ba 09 95 ba e5 7f 50 3b 7b 68 2a 3a
       0.00067614304 -0.0011370697 0.0031814512 0.0006500554
0000d0 e7 72 35 3a ce 51 80 3a 12 a9 4b 3a 32 eb a2 ba
       0.0006921724 0.0009790005 0.0007769029 -0.0012429713
0000e0 05 59 1e 3a 18 73 4e 3b 30 87 8b 3a 9f 21 aa ba
       0.00060404866 0.0031501707 0.0010645147 -0.001297999
0000f0 3e cb 4b bb 65 20 5d ba 64 2f f8 39 4f b7 79 3b
       -0.0031096484 -0.0008435308 0.00047337555 0.0038103645
000100 b7 6a c7 3a 51 19 50 ba 5e 22 bc 3a 12 63 d8 ba
       0.0015214299 -0.0007938343 0.0014353504 -0.0016509017
000110 a5 86 23 39 07 bb 17 3b f1 ab d9 ba a2 c5 12 3b
       0.0001559505 0.0023152248 -0.0016607029 0.002239563
000120 40 4e da ba 8d e8 b2 ba 51 1f 08 ba 0b 00 41 3a
       -0.00166554 -0.0013649628 -0.0005192655 0.0007362372
000130 4f f8 f1 3a c4 83 33 39 a4 95 8d ba e6 a3 de ba
       0.0018460843 0.00017119857 -0.0010802043 -0.0016986101
000140 4b 45 27 3a e0 dc 28 3b c6 04 12 3a bc 4e 35 ba
       0.000638087 0.0025766417 0.00055701693 -0.00069163344
000150 9d 9f 30 3a 52 d7 0a 3a 24 15 8a 3a 59 98 90 39
       0.00067376514 0.00052963675 0.0010534865 0.00027579328
000160 26 bc 15 3a 95 95 4b ba 1e 6a 8b ba 65 ba 1c 3b
       0.0005711935 -0.0007766125 -0.0010636484 0.002391481
000170 b5 1b 6b 3a 62 37 c6 3a 42 29 81 b9 b2 8a 5c bb
       0.0008968667 0.0015122707 -0.00024635537 -0.0033652005

nn.block1.batch.running_mean f4 [96]
000000 a8 de 05 3e 48 2d 39 3e 2e 12 88 3e fa 2e 73 3e
       0.13073218 0.1808368 0.2657637 0.23748389
000010 9e cc 34 3d a5 36 0c 3f c4 3d d7 3d 08 a5 80 3e
       0.04414045 0.5477088 0.10509828 0.2512591
000020 f7 8e cd 3e 73 4a 8f 3e 8e 4f 0b 3e f4 52 8a 3d
       0.40148136 0.27986488 0.13604566 0.06754103
000030 f9 d1 be 3e fb f2 9f 3e 4f d0 3c 3e 55 ca ba 3e
       0.3726957 0.31240067 0.18438838 0.36482492
000040 d4 d4 57 3e f1 08 50 3d b3 ca b5 3e a6 2a a5 3e
       0.21077281 0.050789777 0.3550621 0.322591
000050 6b 79 14 3e f7 66 ca 3e 93 00 00 3f a6 f6 13 3f
       0.14499442 0.3953168 0.50000876 0.5779823
000060 98 45 e0 3e f0 33 ee 3e 74 9e 37 3e a2 17 77 3e
       0.43803096 0.46524 0.17931539 0.24130109
000070 e1 46 97 3e c2 e4 b2 3e 42 bf db 3e 3d 18 00 3e
       0.29546264 0.34940153 0.42919356 0.12509246
000080 18 98 da 3e 58 ac d7 3d 47 78 88 3e 33 91 54 3e
       0.42694163 0.10530919 0.26654264 0.20758514
000090 c2 f7 e6 38 b8 bc a3 3e 16 29 88 3e 8a f4 07 3f
       0.00011013403 0.31979918 0.26593846 0.5310751
0000a0 78 f6 c5 3e 4a d9 78 3e 27 63 95 3e 36 1f 47 3e
       0.38664603 0.24301639 0.2917721 0.194455
0000b0 6d df 9e 3d 71 ff de 3e aa 70 b5 3e a5 15 2e 3f
       0.07757459 0.4355426 0.35437518 0.68001777
0000c0 30 fc e4 3e 3f 10 38 3f aa 85 61 3d 3a f0 d2 3e
       0.44723654 0.7189979 0.055059113 0.41198903
0000d0 bb 81 d2 3d 6f 29 00 3d 17 1b e8 3e 02 ef 56 3e
       0.102786504 0.031289514 0.45333168 0.20989612
0000e0 5d bb 91 3c 29 df 54 3e 7a 51 8e 3c e3 74 4f 3e
       0.017789537 0.20788254 0.017372835 0.20259432
0000f0 59 33 99 3e 7b c8 12 3d 6c 3a 53 3d d0 0e 6b 3e
       0.29921988 0.035835724 0.051569387 0.2295487
000100 c4 17 80 3e eb ac 91 3e cf d6 c5 3d ee 7f ce 3e
       0.25018132 0.28452238 0.09660112 0.40331978
000110 8c f5 1d 3e 01 ff d9 3d 15 da 30 3e 71 c7 77 3e
       0.154257 0.10644341 0.17270692 0.24197175
000120 5d 4c cc 3e 7b e4 e6 3e f0 ed 9d 3e 21 14 dc 3e
       0.3990201 0.45096192 0.30845594 0.42984107
000130 20 1c 33 3e f3 4f 40 3e f7 1d 90 3e 00 00 00 00
       0.17491198 0.18780498 0.2814786 0.0
000140 33 06 88 3e 81 7d e6 3d 08 ad 6a 3e 24 94 61 3e
       0.2656723 0.11254407 0.22917569 0.22029167
000150 e0 f7 7c 3d af e4 b7 3e 27 83 a5 3e c9 e6 83 3e
       0.06175983 0.3591666 0.32326624 0.25762013
000160 a9 46 30 3e 22 17 c3 3d 0e 4e fc 3c f5 0c 0f 3e
       0.17214455 0.095258966 0.030798938 0.13969786
000170 69 19 27 3e df 2f dc 3e d3 aa a6 3d e3 3b ff 3e
       0.16318287 0.43005273 0.08138051 0.49850377

nn.block1.batch.running_var f4 [96]
000000 ce 50 e7 3c 39 03 20 3d 9b cf 4e 3e cf 2a 64 3e
       0.028236773 0.039065573 0.20196383 0.22281955
000010 4c 14 27 3c c3 17 38 3f 20 96 cd 3c 59 ab 58 3e
       0.01019771 0.7191126 0.025096 0.21159114
000020 07 5a ac 3e 3a 07 cc 3c 7d b4 17 3d bd b9 2f 3c
       0.33662435 0.02490579 0.03703736 0.010725436
000030 76 67 ad 3d dd 8d 11 3e 25 c9 90 3d 0a 18 dc 3e
       0.08466999 0.14214273 0.07069615 0.4298709
000040 7f fd 42 3d 93 a7 a2 3b 6c d2 42 3e 13 42 c1 3c
       0.047605034 0.004963824 0.19025582 0.023591077
000050 64 30 53 3d c0 3f f0 3d 17 af 5a 3e e1 d9 ea 3e
       0.05155982 0.11730909 0.21355854 0.45869353
000060 2d d7 ca 3e fb b2 13 3e 4a 2e 7f 3d f9 3b 56 3e
       0.3961729 0.14423744 0.062300004 0.20921315
000070 c5 ef db 3d 9a f7 07 3d 5a e8 46 3e 87 15 ff 3c
       0.10739092 0.033195116 0.19424573 0.031138195
000080 68 41 95 3e 21 c8 94 3c 92 4b 85 3e a5 5a 9d 3d
       0.29151464 0.018161835 0.26034218 0.07683305
000090 63 da 3c 37 ee b8 73 3d d1 4a 84 3d c0 00 8f 3e
       1.125652e-05 0.059502535 0.064595826 0.2793026
0000a0 42 90 d0 3e 1d 3c 18 3e fb e5 b5 3d 6f e5 3a 3d
       0.4073506 0.14866681 0.08881756 0.04562896
0000b0 8a 81 90 3b ce 35 eb 3d 79 79 0e 3e 9c 67 48 3f
       0.0044099735 0.11484872 0.13913526 0.78283095
0000c0 35 2c d5 3e cf af 83 3f 77 a3 80 3c 08 00 5a 3e
       0.4163529 1.0288028 0.015702946 0.21289074
0000d0 07 13 0e 3d 67 a5 87 3b 71 47 27 3e 96 ec 81 3d
       0.034686115 0.0041395905 0.16335846 0.06343953
0000e0 75 2e c6 3a 92 c1 bb 3d 17 9e e1 3a 32 c1 19 3e
       0.0015120046 0.0916778 0.0017213252 0.15015104
0000f0 93 36 f0 3d bb 14 fc 3b 9a 54 1d 3c c5 cb b8 3d
       0.11729159 0.007692901 0.00960269 0.09023241
000100 d2 43 f8 3c e6 55 19 3e d6 59 13 3d 58 ce e6 3e
       0.030305777 0.14974174 0.035974346 0.45079303
000110 ad b7 75 3d de 3f 3e 3d b6 0f a5 3d 8f a6 51 3c
       0.05998962 0.046447627 0.08059637 0.012796058
000120 3a 15 8a 3d d0 c9 18 3e 37 85 92 3b 32 68 0d 3e
       0.0674233 0.14920735 0.004471447 0.13809279
000130 c0 fb d8 3c 11 e7 23 3d 30 1c 41 3e 00 00 00 00
       0.026487231 0.040015284 0.18858409 0.0
000140 9c 04 85 3e 8c 4a b3 3c 22 14 fe 3c 1c a0 31 3e
       0.2598008 0.021886133 0.03101546 0.17346233
000150 41 63 a6 3c 58 74 dd 3c 4b ad f8 3c 4e fe f5 3d
       0.020311 0.027033016 0.03035607 0.120113954
000160 cc 28 fa 3d e4 01 be 3c 92 0f c0 3b 05 64 a2 3c
       0.12214813 0.02319426 0.005861231 0.019823084
000170 3b 3c 36 3d b0 0b b7 3e 91 dd 15 3c e1 8d 09 3f
       0.044491034 0.35751104 0.009147064 0.53732115

nn.block2.linear.weight f4 [256, 96]
000000 f8 dd df bc 8e 2d a1 3c fc 78 88 bc 76 ed c8 3c
       -0.027327523 0.019675042 -0.016659252 0.024527293
000010 50 ba 58 ba 76 b3 87 3d cd ed 36 bd 02 93 1d 3d
       -0.0008267509 0.06626026 -0.04466038 0.038470276
000020 9f 00 b6 bc 25 53 53 3d 82 d6 9e bd e8 cc 95 bd
       -0.022217093 0.051592965 -0.07755758 -0.073144734
000030 43 0a c7 bc dc bd 43 3d 59 37 2c 3d ec aa d5 3c
       -0.024296885 0.047788486 0.04204497 0.026082478
000040 52 d0 34 bd 11 7c 93 3d 92 82 82 bd c6 42 d2 3c
       -0.044143982 0.07201398 -0.063725606 0.025666606
000050 79 cf 70 3d cc ae c9 3d f8 0f 1a 3c c7 a9 2f bd
       0.05879161 0.09847793 0.009403221 -0.04288652
000060 87 38 2b 3d 5f 90 c1 3d 96 5a af bd e4 41 cd bd
       0.041801956 0.09451365 -0.085622 -0.10022333
000070 3d 04 39 bc ad fa 55 bd 51 b2 42 bd 93 42 90 bd
       -0.011292514 -0.052241016 -0.047533337 -0.07043948
000080 95 a8 88 3c f0 1b 3d bd ad 3f 65 3d a9 3e bb 3d
       0.016681949 -0.04616922 0.05596893 0.09142811
000090 ff da b8 bd 23 be a6 3b 25 ca bf 3d 66 15 d2 3d
       -0.09026145 0.005088584 0.09364728 0.10257988
0000a0 07 f2 d1 bc 96 1d 79 3d b9 b2 45 3d fa 33 96 3d
       -0.025628103 0.06081923 0.048266146 0.073341325
0000b0 83 c9 e7 bb c7 ac 91 bc 4e a6 42 bd a7 2b 5c 3c
       -0.0070735826 -0.017782582 -0.04752188 0.013438142
0000c0 df da cd 3c 12 f1 25 bd a7 e5 93 bd 8d 22 c3 3d
       0.02512878 -0.040513106 -0.07221537 0.095280744
0000d0 94 7b 78 bd 3a 3f ef bb ff ae 30 bd fc da 98 bc
       -0.06066473 -0.0073012384 -0.04313564 -0.018659107
0000e0 47 3a d1 bd 20 fc 2e bd 63 f2 05 3d 63 6d 91 3d
       -0.10216194 -0.042720914 0.03270186 0.07100942
0000f0 fb ce ce 3d 8a d0 19 bd f7 6a 7d bd 0e f0 b9 bd
       0.10098072 -0.037552394 -0.061869588 -0.0907899
000100 13 ab 17 bd cf 2d b4 bd f9 65 7c bd 20 c2 0a bd
       -0.037028383 -0.087978 -0.061620686 -0.03387654
000110 84 e5 cd 3d cc 2e 86 bd 0d 53 98 bd cd 2b a9 bc
       0.10053542 -0.065518945 -0.07437716 -0.020650769
000120 f6 93 6e 3d 27 eb 33 bc 7b 90 67 ba 52 2e 98 3d
       0.058246575 -0.010981358 -0.000883348 0.0743071
000130 fb 64 66 3d 82 bd a7 3d 44 0e 75 bd da 97 9e 3d
       0.056248646 0.081904426 -0.059828058 0.07743807
000140 9b 70 c6 bd 9b ed 84 bd bd d6 a2 bb 14 40 10 3d
       -0.096894465 -0.06490632 -0.0049694465 0.03521736
000150 8e 24 50 bb fa f7 bf 3d a3 79 44 bc bc 52 21 bd
       -0.003176007 0.0937347 -0.011991891 -0.039385542
000160 9e 88 88 bc 32 ac 6c bc f4 5f a8 3c 23 1b 67 3d
       -0.016666707 -0.014445351 0.020553567 0.056422364
000170 0a ee af bd a6 48 45 3c 0f ab b8 3d 81 3f a3 bc
       -0.08590324 0.0120412465 0.09017002 -0.019927742
000180 18 3f 3f 3d 13 2d 68 bc c3 3a cf 3d 7a 3a b5 ba
       0.04669103 -0.014170903 0.1011863 -0.0013826631
000190 a1 41 87 3d 3c 24 06 bd 6c f1 be bd de 5a 2d bd
       0.066043146 -0.0327494 -0.09323391 -0.042322986
0001a0 d5 22 91 3d 12 9d d6 38 ee 9e 87 bc 06 68 a6 3d
       0.07086722 0.00010233572 -0.016555276 0.0812531
0001b0 71 6d 88 bd d0 9d 90 bd d1 0a 18 3d 9b 7c cc 3d
       -0.06661499 -0.0706135 0.03711969 0.09984704
0001c0 34 99 05 3d 3a ac 13 bd 3b c1 2f 3d b4 d2 4b 3d
       0.03261681 -0.03605292 0.04290889 0.04976149
0001d0 fe a3 ab bd 86 83 b6 3d 8b d1 11 3c 7b 16 2d bd
       -0.083808884 0.08911805 0.008900057 -0.042257767
0001e0 a6 65 cc bd 91 d3 c9 3c 8f df db bc ee f8 b2 3c
       -0.099803254 0.024637016 -0.02684 0.021847215
0001f0 e5 04 a3 bd c8 1d 1d 3d 1c c2 9f bd f7 e4 a4 3d
       -0.07959918 0.03835848 -0.07800695 0.08051484
000200 55 ea cc 3b 12 61 55 3d 0a 71 79 3d 29 56 bb 3d
       0.0062535205 0.052094527 0.060898818 0.09147293
000210 2f 95 7c 3c ca f3 a7 3d 89 e1 ae bd 64 52 96 3d
       0.0154164275 0.08200796 -0.08539111 0.073399335
000220 5f d1 98 3d cd 95 58 bd ee c8 57 bd 5d 6a ae 3d
       0.07461809 -0.052877236 -0.052681856 0.08516381
000230 dd 40 aa 3d 2b a8 ac bd 9f 0d fb 3a 56 bc 9c bd
       0.08313153 -0.08430513 0.001915384 -0.0765311
000240 fc cd 61 3d 8b e0 ae bd 2a 29 48 bd a0 0e 9e 3d
       0.055128083 -0.08538922 -0.048867382 0.07717633
000250 8c 98 b0 3d 70 2c b9 3d fa 89 3b 3c 97 65 b8 bd
       0.08622846 0.09041679 0.01144647 -0.09003752
000260 27 e5 82 3d 0b e8 ac 3d 42 0c 9f 3d 9c bc 83 3d
       0.063913636 0.08442696 0.0776601 0.06432459
000270 8f 67 f7 bb 33 bb 57 3d a4 d4 b2 3c 85 1d 45 bd
       -0.007550187 0.05266876 0.02182991 -0.048123855
000280 3f 2b 86 3d 4f b0 18 bd aa 60 78 3d 5f 24 19 bc
       0.06551217 -0.037277516 0.06063906 -0.00934705
000290 2c 45 05 bc c9 9f 30 3d 1a f6 5f bc fc 55 2f 3d
       -0.008134168 0.043121133 -0.013669515 0.04280661
0002a0 75 f0 b4 bd 71 70 c8 bd bc 2b 88 3c 22 2b ab bc
       -0.08834926 -0.097870715 0.016622417 -0.02089459
0002b0 b1 d3 32 bd 65 d0 bb bd a3 ab 16 3c f3 4c 4c bd
       -0.043658916 -0.091706075 0.009196195 -0.049878072
0002c0 0f 79 bc 3d f7 cf a2 bd 66 00 18 bd fb ed 9a bc
       0.092027776 -0.079498224 -0.037109755 -0.018912306
0002d0 77 a0 a2 3c e4 96 c0 bd 9a 8e 6a 3d 3a fc c2 bd
       0.019851906 -0.0940378 0.0572649 -0.09520765
0002e0 06 32 5e bd 31 13 a5 3c b1 c5 53 bc cb 57 60 3c
       -0.054246925 0.020150753 -0.012925551 0.0136928065
0002f0 13 85 d0 bd 1d e0 92 bd d1 bb 8e 3d f9 1f 21 3d
       -0.10181632 -0.071716525 0.06969417 0.039337132
000300 61 0c 36 3d e9 3a 52 3d ab bd 90 3d be 2c 44 3d
       0.0444454 0.051325712 0.07067426 0.047894232
000310 86 d1 0b bd f2 bb 52 bd 97 89 95 bd 90 60 e2 3c
       -0.034135364 -0.05144877 -0.07301634 0.027633935
000320 e9 e9 75 bb 64 a0 33 bd 8b a6 8e 3d 01 f9 45 3c
       -0.0037523455 -0.043854132 0.06965359 0.012083293
000330 ab a2 1c bc 6d 7e c1 bc 22 b9 92 bd 8c e3 a5 3d
       -0.009560267 -0.023619855 -0.071642175 0.08100042
000340 7d da cc bd 77 6b c9 bd 60 b0 bc 3c d2 15 37 bd
       -0.10002611 -0.098349504 0.02303332 -0.044698544
000350 93 ae 97 3d cf 00 07 bc 37 d9 47 bd 19 fd 55 bb
       0.07406344 -0.008239939 -0.048791137 -0.0032652079
000360 b9 c7 93 bc 75 0e ab bc 7e 91 60 bc 49 d0 8c bd
       -0.018039571 -0.020880917 -0.013706563 -0.06875665
000370 a1 d0 10 bd bb 9e c6 bd bd da 7c bd c9 0b 44 3c
       -0.035355214 -0.09698244 -0.061732043 0.0119657
000380 9e 91 86 3d fa 88 dc bb 55 3e 9e 3d 51 54 a9 bd
       0.06570743 -0.006730196 0.07726733 -0.08268035
000390 57 45 19 3d 9b 16 b4 3c f4 7e 2e bd a3 b0 25 3d
       0.037419643 0.021983435 -0.04260154 0.040451657
0003a0 c8 11 8a bd 4c 4c 8e 3b ab ea 24 3d 30 14 54 bd
       -0.06741673 0.0043425914 0.04026286 -0.051777065
0003b0 41 4e 96 bd be e3 78 3d b8 39 ac bd 07 05 cd 3d
       -0.073391445 0.060764067 -0.084094465 0.100107245
0003c0 ff a3 1d bd 11 0b 85 bc 65 f5 64 bd 85 a2 86 3c
       -0.038486477 -0.016240628 -0.05589809 0.016434917
0003d0 af 6e 98 3d b3 bf 2c 3d ab 1d 64 bd 45 d4 09 bd
       0.07442986 0.042175006 -0.055692356 -0.0336497
0003e0 04 af 52 3d 0a b2 93 3b e9 39 1e 3c 60 27 cb bd
       0.05143644 0.004507308 0.009657362 -0.099196196
0003f0 8b 4a 86 3d bc 67 97 bd a4 84 9e 3a 5b b3 1a 3c
       0.06557187 -0.07392833 0.0012093973 0.009442176

nn.block2.linear.bias f4 [256]
000000 9f 51 4c bd 2d cc b0 3b 0f 01 3e bd c4 b7 17 bd
       -0.049882527 0.0053954334 -0.04638773 -0.037040487
000010 bd 18 97 bd 41 6f d8 3c 27 d1 b1 3d f9 af 45 bd
       -0.07377765 0.026420237 0.08682471 -0.048263524
000020 3f 68 28 3d 85 82 13 3d c4 d6 4f bd cb ba fb 39
       0.04111504 0.036013145 -0.050741926 0.00048013622
000030 63 4e ca bd fc 01 2c bd 4d 94 04 bd 2d f1 17 3d
       -0.09878232 -0.04199408 -0.032367993 0.037095238
000040 8a df 87 bd db 02 c6 3d 37 ec 92 3a ca b1 90 3c
       -0.066344336 0.096685134 0.0011209314 0.017662901
000050 f6 5a 86 bd 90 11 bf 3d ac 9b 2d bd d4 3f 67 3d
       -0.06560318 0.09329522 -0.04238479 0.056457356
000060 31 c9 56 bc 86 7e 65 bc e5 61 bc bd c0 d4 42 bd
       -0.013109491 -0.014007216 -0.091983594 -0.047566175
000070 81 85 07 bd 7a 5b a3 3b 0d 51 c4 bc ef b5 3a bd
       -0.033086304 0.00498527 -0.02396443 -0.04558366
000080 6b 8e 2d bd d2 39 40 bc c3 53 54 3c 54 6f 77 bd
       -0.04237215 -0.011732535 0.0129594235 -0.060408905
000090 84 70 23 bd b0 30 84 3d 80 26 d3 bc 49 a2 a1 bd
       -0.039902225 0.06454599 -0.025775194 -0.078922816
0000a0 fa ec 22 3b 18 c0 cc 3d 34 7c 88 3b 3a 78 6d bc
       0.0024860487 0.099975765 0.004165197 -0.014493996
0000b0 00 e0 20 3d bf bc 08 bd ad 53 65 bd f6 96 f9 bc
       0.039276123 -0.033383127 -0.055988003 -0.030467492
0000c0 c6 15 f7 bc 98 bf 90 3d 9b 05 b8 3d ec 29 1a bd
       -0.03016175 0.070677936 0.08985444 -0.037637636
0000d0 8d c2 8e 3c c7 73 6a 3d ea 5f 9b bc 86 45 1d 3d
       0.017426753 0.05723932 -0.018966634 0.03839638
0000e0 10 70 a1 3d 5d f0 cf 3d fb 07 e8 bc c5 ca 23 bd
       0.07882702 0.101532675 -0.028324118 -0.039988298
0000f0 a6 fa b6 bd e9 a3 52 3d 54 18 80 3d f1 23 5d 3d
       -0.08934526 0.05142585 0.0625464 0.053989355
000100 82 0a 11 bd fd fe 97 3d d1 1f 9b bd 36 8e 62 3d
       -0.03541041 0.07421682 -0.07574428 0.055311404
000110 4d fa 4a bd 74 d4 a2 bd 94 f1 a0 3d 77 40 0a 3c
       -0.04955511 -0.079506785 0.07858577 0.008438221
000120 fb 14 b6 3d 0f 52 e5 3b 03 5a cb 3d 4d f6 20 3d
       0.088907205 0.0069983075 0.09929278 0.03929739
000130 4c 3d ba 3d a5 55 11 3c ab 4a 57 3d 2a 8d b7 3d
       0.09093723 0.008870517 0.052561443 0.08962472
000140 e9 04 bc bd 7c 1a c5 bd 33 ff a2 3d 48 98 9c 3b
       -0.09180624 -0.09624192 0.07958832 0.0047788955
000150 5b 3d 58 bc c4 f5 c3 3d 61 19 8f 3d 85 46 3c bd
       -0.013198222 0.095683604 0.069872625 -0.04596569
000160 b2 f8 ce 3d 14 ab a2 bd 8f 45 80 3c c2 bc 89 bd
       0.101060286 -0.07942787 0.015658168 -0.06725456
000170 e0 08 96 bb f8 bf 0a bd 3e d4 4d 3d 9b a5 bb bc
       -0.0045786947 -0.033874482 0.050251238 -0.022906115
000180 3f 3e 0a bd a5 67 ac bc fa 12 c1 3c c3 cd a4 bd
       -0.03375077 -0.021045515 0.023568619 -0.080470584
000190 7a 42 2a bc 53 30 52 3d 63 f5 de bb 1f 81 9e bd
       -0.010391826 0.051315617 -0.0068041547 -0.07739472
0001a0 6e 30 a8 bd 3f ce 18 3c 05 7b 86 bd 12 dd 2c bd
       -0.08212362 0.009326517 -0.06566433 -0.042203017
0001b0 48 3b 6b 3d 65 1b 33 3d 79 91 a2 3d 25 cd c4 3d
       0.057429582 0.043727297 0.07937903 0.09609441
0001c0 3d 5b a2 bd f4 eb 37 3d 31 44 d6 bd 84 dc 69 3d
       -0.079275586 0.044902757 -0.10462225 0.057095066
0001d0 9d a8 1c 3c d0 47 d6 3d 54 cf 5a 3d b8 e3 3e 3d
       0.009561685 0.10462916 0.05342038 0.04660389
0001e0 a3 61 0f bc 75 77 11 3d f4 b4 48 bd 23 26 a8 3d
       -0.008751306 0.035514314 -0.049000695 0.08210399
0001f0 51 9a 58 bd 34 da 86 3d 1c ce 85 bd da 91 c4 3d
       -0.052881543 0.06584588 -0.06533453 0.095981315
000200 00 33 24 3d d0 2d ae bd 9a 28 6a 3d f4 2f 95 3c
       0.0400877 -0.08504832 0.057167627 0.018211342
000210 a5 04 fd 3c 39 d9 8b bd ed d7 db 3c 9f 5f 76 3d
       0.030886004 -0.06828541 0.02683636 0.060149785
000220 ce b5 c2 bc 19 19 95 bd 84 4d 8f bc 8f 87 1a 3d
       -0.023768332 -0.072801776 -0.017493017 0.037726935
000230 2c 19 96 3d a6 a6 21 3d 4e 44 08 bd 37 60 b0 bd
       0.0732902 0.03946557 -0.033268265 -0.086121015
000240 ce 4c a6 bd 74 44 43 bd 4d ff fb bc ad c2 f4 3c
       -0.08120118 -0.047672704 -0.030761385 0.029877985
000250 39 9b ba bd 70 98 b1 3d b9 24 ad bd 6e 9b 40 3d
       -0.091116376 0.08671653 -0.0845427 0.04702323
000260 ba a6 c6 3d fb b8 8a bd 0c b3 cb 3c 91 24 40 3d
       0.09699769 -0.067735635 0.02486565 0.046909872
000270 fb 00 11 3d b7 ea b4 3d 5c dd 14 bd 17 e5 87 bd
       0.035401326 0.08833831 -0.036343917 -0.06635492
000280 87 d8 cc bd 81 38 88 bc a4 80 0b 3d 80 34 c1 bd
       -0.10002237 -0.016628506 0.034058228 -0.09433842
000290 82 06 c7 3d b6 99 aa bd 02 b0 8b bd 2b f1 8a bd
       0.09718038 -0.08330099 -0.0682068 -0.067842804
0002a0 24 c5 60 3d 9f c3 bb bd 36 40 09 3d 04 60 31 bd
       0.054875508 -0.09168171 0.033508502 -0.04330446
0002b0 eb 8d c0 3d 2a 35 94 3d d3 50 b1 3d af fe bb bd
       0.09402069 0.07236703 0.08657994 -0.091794364
0002c0 c6 38 53 3d d8 76 8b bd dc 89 b1 3d 7e 32 f1 bb
       0.051567815 -0.06809777 0.08668873 -0.0073607555
0002d0 d3 c2 48 3c c2 12 cd bd 60 72 f6 bc 5e d7 a1 3d
       0.012253481 -0.100133434 -0.030083835 0.07902406
0002e0 11 e3 bf bc a4 cb 5b bc 8b e8 b5 bb ee 42 c5 3d
       -0.023423703 -0.013415251 -0.005551403 0.096319064
0002f0 e5 d9 31 3d 24 23 60 3d 8d 1f 97 bd dc 2a ba bd
       0.04342069 0.054721013 -0.07379065 -0.09090206
000300 4d bd 8c bc a8 6b 24 3d 98 76 b2 3d ef ff b3 3d
       -0.01718011 0.04014173 0.08714026 0.0878905
000310 59 e8 ef 3c 3c 20 d3 3d 6a cd 98 bc b9 37 e5 bb
       0.029285597 0.103088826 -0.018652637 -0.006995168
000320 aa 8c 4f 3d f3 65 a1 3c 29 3b 82 3d 8d b9 cc bd
       0.050671257 0.019701933 0.0635894 -0.099963285
000330 b6 fd b5 3d a3 b6 8c bc 0e 1b 85 3d e8 8e d1 bc
       0.08886282 -0.017176932 0.06499301 -0.025580838
000340 bd 77 ad 3d 61 b1 33 bd e3 e8 d1 bd 74 fe b9 3d
       0.08470104 -0.043870334 -0.10249498 0.09081736
000350 5a 80 a5 bb 8f b0 8d bd 1a 9d 8e bd 30 ff c7 3d
       -0.005050701 -0.069184415 -0.069635585 0.0976547
000360 9b 12 93 bd f7 0c 48 bd 52 30 9f bd 8f 3c 2c 3d
       -0.07181283 -0.04884049 -0.07772888 0.04204994
000370 27 d6 1f bd ce b1 af bd aa c6 b8 bd 8c 83 b0 3b
       -0.03902259 -0.085788354 -0.09022267 0.0053867754
000380 cb b8 42 3d 59 ed d2 3d 79 80 b9 3d 04 0a 59 3d
       0.047539514 0.10299177 0.09057707 0.052988067
000390 c4 fd 7d bd 6c 4e 1b 3d 53 73 a9 3d 77 a3 29 bd
       -0.062009588 0.037916586 0.082739495 -0.041415658
0003a0 c1 1c 05 bd 39 85 60 3d ba ef 60 bd 30 9b bc 3d
       -0.032498125 0.05481455 -0.05491612 0.09209287
0003b0 ce eb b5 3d be 04 b2 3d 92 15 5c bc f6 c9 96 bd
       0.08882867 0.08692311 -0.013432877 -0.0736274
0003c0 e9 fd 07 3d 5e 6f 5b 3d ce 06 a8 bb dd 5a 78 bd
       0.033201132 0.053573005 -0.0051277643 -0.06063353
0003d0 0f fe 12 3c 7e 09 6c 3d 7f 89 ce bd de 72 4d bd
       0.008971705 0.05762624 -0.10084819 -0.050158374
0003e0 44 a5 68 bd f4 9f 0d 3d 87 4b e9 39 1d 62 cd bd
       -0.056798235 0.03457637 0.00044497495 -0.10028479
0003f0 d9 54 a6 3d 64 5d 52 bc 6a 87 ce 3d 49 7d 2e bd
       0.08121652 -0.012839649 0.10084422 -0.04259995

nn.block2.batch.weight f4 [256]
000000 79 ba 7f 3f 6f 32 80 3f b7 f8 7f 3f 0d 0d 80 3f
       0.9989391 1.0015391 0.99988884 1.0003983
000010 af f1 7f 3f 2a c3 7f 3f bb eb 7f 3f 97 c1 7f 3f
       0.99978155 0.9990717 0.9996907 0.9990477
000020 06 e7 7f 3f 12 9a 7f 3f 7d ba 7f 3f 55 bf 7f 3f
       0.9996189 0.9984447 0.99893934 0.99901325
000030 e8 0d 80 3f 71 e2 7f 3f c2 13 80 3f 9f ea 7f 3f
       1.0004244 0.999549 1.000603 0.9996738
000040 5c c5 7f 3f 08 1e 80 3f f0 11 80 3f f4 00 80 3f
       0.9991052 1.0009165 1.0005474 1.0000291
000050 84 ab 7f 3f 9e 25 80 3f 14 2c 80 3f 4a d0 7f 3f
       0.9987109 1.001148 1.0013452 0.999272
000060 9b 95 7f 3f 3e f6 7f 3f 76 f1 7f 3f 7d b9 7f 3f
       0.99837655 0.9998511 0.99977815 0.9989241
000070 14 2a 80 3f 2a f3 7f 3f 33 3c 80 3f a3 ea 7f 3f
       1.0012841 0.99980414 1.0018371 0.999674
000080 65 ed 7f 3f dc 0f 80 3f f4 2b 80 3f 44 dc 7f 3f
       0.9997161 1.000484 1.0013413 0.99945474
000090 2a f3 7f 3f d1 b2 7f 3f 48 06 80 3f 94 05 80 3f
       0.99980414 0.9988223 1.0001917 1.0001702
0000a0 8a 74 80 3f 16 02 80 3f 3e 48 80 3f 31 93 7f 3f
       1.0035565 1.0000637 1.0022047 0.9983397
0000b0 f9 36 80 3f 49 f1 7f 3f 55 03 80 3f ad 28 80 3f
       1.0016776 0.99977547 1.0001017 1.0012413
0000c0 6b c0 7f 3f dc 16 80 3f e9 0a 80 3f e1 95 7f 3f
       0.9990298 1.0006976 1.000333 0.9983807
0000d0 6c 2b 80 3f ac fd 7e 3f 77 43 80 3f c7 3a 80 3f
       1.0013251 0.9960582 1.0020589 1.0017937
0000e0 d5 9b 7f 3f 86 29 80 3f 2c 37 80 3f eb 8f 7f 3f
       0.99847156 1.0012672 1.0016837 0.99828976
0000f0 52 72 7f 3f 9a d9 7f 3f 79 f5 7f 3f af 0e 80 3f
       0.99783814 0.9994141 0.99983937 1.0004481
000100 ed 1d 80 3f 09 2c 80 3f 69 89 7f 3f 5c 15 80 3f
       1.0009133 1.0013438 0.99819046 1.0006518
000110 9d fd 7f 3f fb fe 7f 3f 40 0b 80 3f 0d 20 80 3f
       0.9999636 0.99998444 1.0003433 1.0009781
000120 d8 b1 7f 3f 5e 95 7f 3f 54 24 80 3f c9 1a 80 3f
       0.99880743 0.9983729 1.0011086 1.0008174
000130 75 e3 7f 3f dc 15 80 3f ea 1f 80 3f 85 23 80 3f
       0.99956447 1.0006671 1.0009739 1.001084
000140 79 d2 7f 3f 38 c9 7f 3f ea b4 7f 3f 76 aa 7f 3f
       0.9993053 0.9991641 0.9988543 0.9986948
000150 b2 cb 7f 3f 22 22 80 3f 05 20 80 3f 16 d5 7f 3f
       0.9992019 1.0010417 1.0009772 0.9993452
000160 56 02 80 3f a1 a9 7f 3f 26 2d 80 3f 9b 14 80 3f
       1.0000713 0.9986821 1.0013778 1.0006288
000170 a3 f8 7f 3f 57 74 7f 3f 9b 40 80 3f e1 10 80 3f
       0.99988765 0.99786896 1.0019716 1.0005151
000180 47 e9 7f 3f f7 03 80 3f 9d 2b 7f 3f 25 fe 7f 3f
       0.9996533 1.000121 0.99675924 0.9999717
000190 83 2a 80 3f d0 a4 7f 3f c7 86 7f 3f c6 1f 80 3f
       1.0012974 0.9986086 0.9981503 1.0009696
0001a0 df 0d 80 3f ed 1e 80 3f 58 1a 80 3f 29 12 80 3f
       1.0004233 1.0009438 1.000804 1.0005542
0001b0 7d f2 7f 3f 18 b8 7e 3f b1 f8 7f 3f 82 24 80 3f
       0.9997938 0.99499655 0.9998885 1.0011141
0001c0 7f 06 80 3f 24 d5 7f 3f fe 0a 80 3f 2b 91 7f 3f
       1.0001982 0.999346 1.0003355 0.99830884
0001d0 33 3c 80 3f e5 d0 7f 3f 8d c6 7f 3f 5d 17 80 3f
       1.0018371 0.9992812 0.9991234 1.000713
0001e0 05 48 80 3f 28 26 80 3f 23 f2 7f 3f 00 da 7f 3f
       1.0021979 1.0011644 0.99978846 0.99942017
0001f0 fe b3 7f 3f 0a 5d 80 3f 06 89 7f 3f ff b7 7f 3f
       0.9988402 1.0028393 0.99818456 0.9989013
000200 cb 04 80 3f 1f e9 7f 3f 91 62 7f 3f fe 14 80 3f
       1.0001463 0.9996509 0.99759775 1.0006406
000210 4d 31 80 3f c1 0a 80 3f 9c 1b 80 3f dd 06 7f 3f
       1.0015045 1.0003282 1.0008426 0.9961985
000220 44 ed 7f 3f 2e e2 7f 3f 48 3a 80 3f e5 0a 80 3f
       0.99971414 0.999545 1.0017786 1.0003325
000230 e4 38 80 3f 1d ca 7f 3f 63 1d 80 3f 63 b0 7f 3f
       1.0017362 0.99917775 1.0008968 0.9987852
000240 ec e1 7f 3f 37 33 80 3f eb 0f 80 3f d8 e4 7f 3f
       0.99954104 1.001563 1.0004858 0.9995856
000250 b5 a8 7f 3f 80 ed 7f 3f ec 1a 80 3f 43 00 80 3f
       0.998668 0.9997177 1.0008216 1.000008
000260 c4 f9 7f 3f f4 12 80 3f 48 b7 7f 3f 3d bc 7f 3f
       0.9999049 1.0005784 0.9988904 0.99896604
000270 7b 19 80 3f 17 d1 7f 3f 0b 55 80 3f 61 09 80 3f
       1.0007776 0.9992842 1.0025953 1.0002862
000280 7f 68 7f 3f 41 01 80 3f ec 32 80 3f 13 1f 80 3f
       0.99768823 1.0000383 1.001554 1.0009483
000290 a8 dc 7f 3f 87 01 80 3f 46 3a 80 3f 51 df 7f 3f
       0.9994607 1.0000466 1.0017784 0.9995013
0002a0 f8 1f 80 3f c5 cd 7f 3f d5 e1 7f 3f 27 81 7f 3f
       1.0009756 0.99923354 0.9995397 0.99806446
0002b0 c2 1a 80 3f 76 1b 80 3f f4 05 80 3f a2 c7 7f 3f
       1.0008166 1.000838 1.0001817 0.9991399
0002c0 9f f7 7f 3f 4f 33 80 3f f7 b1 7f 3f c8 3d 80 3f
       0.99987215 1.0015658 0.9988093 1.0018854
0002d0 00 20 80 3f 95 e6 7f 3f e8 fa 7f 3f b1 3b 7f 3f
       1.0009766 0.99961215 0.9999223 0.99700457
0002e0 f3 91 7f 3f cd e8 7f 3f 88 c5 7f 3f b9 29 7f 3f
       0.99832076 0.999646 0.99910784 0.9967304
0002f0 3d 0a 80 3f 83 d0 7f 3f b5 f0 7f 3f 71 c6 7f 3f
       1.0003124 0.9992754 0.99976665 0.9991217
000300 00 0d 80 3f 48 06 80 3f df e4 7f 3f d2 3a 80 3f
       1.0003967 1.0001917 0.99958605 1.001795
000310 86 0e 80 3f 45 75 7f 3f fa 40 80 3f ed b3 7f 3f
       1.0004432 0.99788314 1.0019829 0.9988392
000320 9d bd 7f 3f d5 0c 80 3f f2 82 7f 3f b0 1b 80 3f
       0.998987 1.0003916 0.9980918 1.000845
000330 dc 96 7f 3f 68 08 80 3f b0 71 80 3f ed b7 7f 3f
       0.9983957 1.0002565 1.0034695 0.99890023
000340 32 15 80 3f 93 af 7f 3f 00 c6 7f 3f 56 bb 7f 3f
       1.0006468 0.9987728 0.999115 0.99895227
000350 c4 74 7f 3f d2 dc 7e 3f 9d 34 80 3f b1 83 7f 3f
       0.99787545 0.99555695 1.0016056 0.9981032
000360 5d 1e 80 3f c3 f1 7f 3f 9f 0c 80 3f ec 10 80 3f
       1.0009266 0.99978274 1.0003852 1.0005164
000370 9f 4b 80 3f 3a fa 7f 3f bf 13 80 3f 61 0e 80 3f
       1.0023078 0.9999119 1.0006026 1.0004388
000380 79 53 80 3f c2 02 80 3f 3c 12 80 3f 7c 1d 80 3f
       1.0025474 1.0000842 1.0005565 1.0008998
000390 de 07 80 3f 66 38 80 3f 39 94 7f 3f 41 1e 80 3f
       1.0002401 1.0017211 0.99835545 1.0009233
0003a0 95 2b 80 3f d1 13 80 3f 90 2d 80 3f cd 0b 80 3f
       1.00133 1.0006047 1.0013905 1.0003601
0003b0 d5 38 80 3f c2 8b 7f 3f c2 39 80 3f 48 aa 7f 3f
       1.0017344 0.9982263 1.0017626 0.99869204
0003c0 46 63 80 3f 03 ba 7f 3f 46 11 80 3f 0a 05 80 3f
       1.0030296 0.99893206 1.0005271 1.0001538
0003d0 f2 01 80 3f 7c c1 7f 3f 7c 08 80 3f 42 1d 80 3f
       1.0000594 0.9990461 1.0002589 1.0008929
0003e0 f8 e9 7f 3f cd 23 80 3f 1d 6f 7f 3f b3 3e 80 3f
       0.99966383 1.0010926 0.9977892 1.0019134
0003f0 4c 29 80 3f 82 2d 80 3f 34 b0 7f 3f d6 3b 80 3f
       1.0012603 1.0013888 0.9987824 1.001826

nn.block2.batch.bias f4 [256]
000000 f6 01 30 b9 8d 46 a9 b9 c5 40 e4 3a 87 2d a9 b9
       -0.00016785398 -0.00032286756 0.0017414322 -0.00032268112
000010 ce ac 27 b8 85 64 8a b9 39 f9 5c ba 9d cb fc 38
       -3.997684e-05 -0.00026396304 -0.0008429471 0.00012054222
000020 da 83 47 3a f8 c7 7f 39 89 2a 0d b9 7e 64 90 3a
       0.0007610895 0.00024393189 -0.00013462653 0.0011016277
000030 e9 da 0e b9 2c 6c f5 b8 27 b6 05 ba 62 39 30 3a
       -0.00013623726 -0.00011702659 -0.000510069 0.0006722418
000040 4c 47 d8 39 2b d3 4e 3a 0c 53 56 3a aa 14 4b 3a
       0.0004125185 0.0007889743 0.0008175827 0.00077469146
000050 42 ab 65 3a 04 95 35 39 2e 60 8f 39 17 b0 67 3a
       0.0008761176 0.00017317018 0.00027346745 0.000883819
000060 96 43 04 3b 45 d4 4d ba e0 50 4d 3a ba 07 15 ba
       0.0020181886 -0.000785176 0.00078321807 -0.000568505
000070 19 0d 41 3a 42 fb 5f ba 47 8a 3a ba 66 06 9a ba
       0.00073643174 -0.0008544215 -0.0007115942 -0.0011751174
000080 7c 3a d0 39 81 f7 07 ba b6 3f bc ba c7 e6 89 3a
       0.00039716426 -0.0005186722 -0.0014362249 0.0010521048
000090 ca 20 0c 3a ec 90 3c 39 4f dd 8b ba 51 c6 98 3a
       0.0005345462 0.00017983065 -0.0010670813 0.0011655783
0000a0 93 d9 56 3a 03 21 f9 3a e8 b2 52 ba 09 49 24 3a
       0.0008195873 0.0019007031 -0.00080375234 0.00062669866
0000b0 de ba 8d 3a 2e 4d 5c 37 7b b3 dc b9 da 7b 77 b9
       0.0010813137 1.3130992e-05 -0.00042095393 -0.00023601894
0000c0 91 f7 9c ba 42 be 09 ba 83 af 8e ba 9c 15 af 3a
       -0.0011975636 -0.0005254486 -0.0010886047 0.001335788
0000d0 0c 13 2d ba d2 74 60 3a 76 b8 b9 b9 ad 5e bf b9
       -0.00066022645 0.00085623295 -0.00035423384 -0.00036500898
0000e0 eb 67 59 ba fe d5 a9 b9 d1 2b 36 ba 13 75 2a ba
       -0.0008293378 -0.00032393628 -0.0006949278 -0.0006502431
0000f0 be 50 56 ba e0 23 a2 3a d6 21 54 b9 68 76 4e ba
       -0.00081754837 0.0012370311 -0.000202305 -0.000787592
000100 7f ae 64 3a 49 3c 2f ba d1 e5 99 39 b6 61 e5 39
       0.0008723512 -0.00066847034 0.0002935366 0.00043751084
000110 c4 29 a6 3a 36 61 c5 b9 38 d7 59 38 34 86 5d 3a
       0.0012677242 -0.00037647196 5.193727e-05 0.0008450479
000120 c3 01 05 ba 88 83 87 3a 92 90 a2 b9 21 73 56 ba
       -0.000507381 0.0010338882 -0.0003100676 -0.00081806077
000130 a6 7a b6 3a 3b f7 af ba 7b 11 8e 39 24 cf 3c 39
       0.001392205 -0.0013425121 0.00027097375 0.00018006243
000140 03 a9 23 b9 9a e4 45 3a ca ef bf b7 45 7c 3c 39
       -0.00015607853 0.0007549018 -2.2880635e-05 0.00017975371
000150 8e 37 7e 3a f6 fd a9 3a 44 57 5e b9 2e 23 81 39
       0.00096976093 0.0012969363 -0.00021204079 0.00024631008
000160 fd e9 c0 b9 64 5d 60 ba ed 84 7c ba 74 72 a6 39
       -0.0003679543 -0.0008558838 -0.00096328446 0.00031747262
000170 f3 e4 0b 3b 64 f3 2e 3a 45 c2 5a b9 fb 08 f3 b9
       0.0021346181 0.0006673841 -0.00020862471 -0.00046355263
000180 15 15 c0 3a 17 aa 30 ba 1b ef 46 ba db 78 8d ba
       0.001465472 -0.00067392125 -0.000758873 -0.0010793464
000190 ea bc 69 39 84 f8 8f 39 a7 a8 33 ba 1d 62 23 38
       0.00022290988 0.00027460244 -0.0006853439 3.8953604e-05
0001a0 41 f1 31 3a e2 79 22 ba f8 df cf b9 56 45 ba b9
       0.0006787964 -0.00061979715 -0.00039648986 -0.00035528344
0001b0 5c 22 9b b8 c1 4f cd ba 09 f3 c5 ba c5 06 d1 ba
       -7.397376e-05 -0.0015664027 -0.0015102337 -0.0015947452
0001c0 28 65 a0 b8 fc ab 40 39 3e c1 45 b9 17 a3 12 3a
       -7.648236e-05 0.00018374616 -0.00018859372 0.000559376
0001d0 94 63 4d b9 09 ac a0 3a 00 69 63 ba 4d 92 3c ba
       -0.00019587419 0.0012258302 -0.0008675009 -0.00071934314
0001e0 20 26 68 ba 58 d1 8a 3a ae 68 4e ba 5b a6 5b ba
       -0.0008855779 0.0010590954 -0.0007873875 -0.0008378976
0001f0 7b ab 68 3a b6 26 72 b9 bf 69 12 3a c9 2e 1b b9
       0.000887565 -0.0002309334 0.00055852154 -0.00014799381
000200 57 42 d9 b4 66 f3 a5 b9 6c 09 ad ba 23 2c 61 3a
       -4.0467668e-07 -0.00031652598 -0.001320166 0.0008589646
000210 8a 8b 34 3a 52 e4 aa ba 9e f4 25 3a 83 87 4a ba
       0.0006887248 -0.0013038015 0.0006330701 -0.00077258813
000220 b8 27 e3 b9 10 b1 99 ba 4f 86 47 3a 64 32 08 3a
       -0.00043326407 -0.0011725742 0.0007611261 0.0005195497
000230 7b 64 09 bb 42 50 ba 3a 9a 31 8f 3a e7 3d a9 3a
       -0.0020964432 0.0014214593 0.0010924817 0.0012912125
000240 0f cf 54 b9 ed b9 d6 3a a6 d2 09 3a 99 31 b0 39
       -0.00020295031 0.0016382314 0.00052575243 0.0003360629
000250 83 ef c7 3a 11 7a 4b 38 e1 03 69 3a 8f ac 93 ba
       0.0015253875 4.8512655e-05 0.00088888226 -0.0011266636
000260 a8 37 1b ba d5 72 d6 b9 f0 79 ad b9 34 02 ff b9
       -0.0005921074 -0.00040902817 -0.00033087982 -0.00048639032
000270 b6 bf 5b 39 24 ed 64 3a 5d 87 29 3a 29 ab eb b8
       0.00020956885 0.00087328465 0.0006467009 -0.00011237554
000280 7d 54 94 3a ac fe bd b7 ae e0 cc b8 c5 bf 82 3a
       0.0011316683 -2.2649147e-05 -9.769328e-05 0.0009975365
000290 1c 19 86 39 b0 e3 9b 39 45 3c e2 3a c4 9b e4 39
       0.0002557718 0.00029733544 0.0017260393 0.00043603603
0002a0 64 82 14 ba 1b 79 9f b9 97 d1 fb 3a 47 bb 92 b9
       -0.00056651817 -0.00030417074 0.0019212243 -0.00027986823
0002b0 6e a3 f3 b9 73 4f a1 3a b9 08 1c 39 4d 7e 9a 3a
       -0.00046470336 0.0012307003 0.00014880569 0.0011786908
0002c0 52 8f 87 38 6b 86 97 ba 54 3a 6b ba 1b 35 98 39
       6.463997e-05 -0.0011560445 -0.000897323 0.00029031266
0002d0 92 f6 23 b7 30 58 bc b9 5d 79 0a 37 e4 c1 19 39
       -9.772966e-06 -0.0003592386 8.253698e-06 0.00014663447
0002e0 35 53 a0 3a 26 8c 26 39 56 19 29 ba 96 35 d9 ba
       0.0012231829 0.00015883203 -0.0006450614 -0.0016571756
0002f0 c2 17 9c ba 34 b4 27 3a 66 c2 0e ba 5d d5 84 b8
       -0.0011908936 0.0006397397 -0.0005445838 -6.3339925e-05
000300 75 3b a4 b9 21 6b 58 b9 92 fe ca b8 5a 54 f1 ba
       -0.00031324817 -0.00020639274 -9.679528e-05 -0.001841198
000310 9d c6 f5 38 84 c4 47 3a f1 1b d7 39 38 04 7e ba
       0.00011719505 0.00076205307 0.00041028814 -0.00096899597
000320 d3 d2 0a 3a 3d ac bf 3a f3 e9 f1 37 ea 98 af ba
       0.00052956975 0.0014623475 2.883838e-05 -0.0013397012
000330 6d 92 ff 38 6c 73 01 bb a9 a3 1a b9 4b 57 73 b8
       0.000121866215 -0.0019752635 -0.00014747553 -5.8017013e-05
000340 c1 7e d6 b9 d9 25 be 3a 1f 48 8f b9 ae 4c 83 3a
       -0.000409117 0.0014507129 -0.0002732882 0.0010017359
000350 29 35 ab 39 29 a4 11 3a 63 5d 72 39 85 4b 26 ba
       0.0003265527 0.0005555773 0.00023113708 -0.0006343651
000360 e2 47 92 3a 40 89 20 ba 26 69 b0 ba f8 c9 91 ba
       0.0011160339 -0.00061239675 -0.0013459071 -0.0011122813
000370 b5 e0 52 3a e8 3d 36 ba b7 cf 10 38 c5 00 25 3a
       0.0008044348 -0.0006951974 3.4525725e-05 0.0006294365
000380 fb da 69 ba 8f 55 de b9 2b d5 e3 b7 7f 02 8e ba
       -0.0008920875 -0.00042406886 -2.7159773e-05 -0.0010834484
000390 8b 83 1b 38 60 74 75 3a a1 e7 24 ba 92 24 a1 3a
       3.707739e-05 0.00093633495 -0.0006290619 0.0012294224
0003a0 ee 80 82 b9 e4 74 84 ba 57 4c 8b 3a 39 7d d7 39
       -0.00024891592 -0.0010105637 0.001062761 0.00041101294
0003b0 10 e9 47 ba e6 e2 25 39 47 f9 d5 37 94 30 ca 3a
       -0.00076259766 0.00015820152 2.5507657e-05 0.0015425854
0003c0 18 9a 6c b8 8c 7a 4e ba f0 a9 2c ba 23 a5 4e b9
       -5.6410296e-05 -0.0007876537 -0.0006586602 -0.00019707209
0003d0 78 08 86 38 56 bd a1 b8 77 e8 d7 39 20 4e 15 ba
       6.391195e-05 -7.712345e-05 0.00041181195 -0.00056955405
0003e0 e9 74 04 39 97 d2 5a 37 35 88 f9 39 88 65 be b9
       0.00012632053 1.3042844e-05 0.00047594463 -0.0003631527
0003f0 eb fb 84 3a 57 c8 9a 3a eb 3e e7 35 9a 47 1c b9
       0.0010145878 0.0011808974 1.7229153e-06 -0.00014903993
