statedicts/pl_statedict_db_2022-05-02_T1_90deg_P0_R1_s2_seed_2.ckpt (torch, 193785 bytes, 29 tensors)

nn.input_batch.weight f4 [5]
00000000: 76da 813f 856d 803f f93a 7e3f 70ff 813f
00000010: 93b7 7b3f
1.0144794 1.0033423 0.99308735 1.0156078 0.9832699

nn.input_batch.bias f4 [5]
00000000: ea89 1d3c 0d67 01bb bc83 d53a 18f9 2dbc
00000010: 81d7 1dbc
0.009615401 -0.001974526 0.001628987 -0.010618471 -0.0096339

nn.input_batch.running_mean f4 [5]
00000000: f8c7 3340 e43c 833d 5ed9 4540 b9ce 3c40
00000010: ab2a 613e
2.8090801 0.06408098 3.091392 2.9501173 0.21988933

nn.input_batch.running_var f4 [5]
00000000: edb9 3d3b ca89 6f33 eba6 983a d055 ab38
00000010: 7c4a 3639
0.0028949932 5.5771842e-08 0.0011646425 8.169899e-05 0.0001738462

nn.block1.linear.weight f4 [96, 5]
00000000: a124 893e bb50 52be 1cae 30be d4f2 3cbe
00000010: 70e7 57be dcfd 75be 3350 9f3e bf67 d4be
00000020: d2a9 283e 74f9 973e ac5e 63be 3e6e 4cbe
00000030: 30fb 79be 4112 153e a1b0 0a3e 52af 77be
00000040: d6b3 eb3d adc7 3dbe 1825 d33e 76be 6fbe
00000050: 83c1 0e3e 5897 df3e e730 8f3e f471 a33e
00000060: 3bfb 0d3d cc2e 443e 062c b7be ea5f dabd
00000070: 1934 d3be ab49 eabc 8289 b33e a86a b4be
00000080: 61a7 d3bb e45a 123e a916 c7be ab6d f1bd
00000090: 5cf5 a4be a734 e2be c1d3 97be 2e30 bbbd
000000a0: cdba ce3d a23e d03e ee67 e3be b200 c3be
000000b0: 71bb 05be 0ee9 4b3e 82c4 123e 2017 bebd
000000c0: 3a85 90be daea 78be 3e98 b6bd 6b40 18be
000000d0: c16a e1be f35a c8be 679a d0be 18ed 1abe
000000e0: 6fe3 64be 3166 e13e 7134 2d3e 09c5 c03e
000000f0: 299e c1bd b582 023e 3ca3 bfbd d890 76be
00000100: 1a1a cebe 005f bebe 2b65 7bbe 382b 34be
00000110: 48bf 52be 29d1 50be 6cce 643e 423d 04be
00000120: 1a35 90be 3f1f 8c3c 4e6a 13be 0d4c 68be
00000130: 8a38 d5be 689d c9bd da24 52be 298b b73e
00000140: 86ac 0ebe 9a25 ac3e e4b7 84be d650 743e
00000150: cfed 963e b995 61be 1994 6bbe d746 13bd
00000160: d868 76bc be98 09be a2b2 8d3e 48a6 e23d
00000170: a39a 98be dbde 2a3e c270 853e 8e95 493e
00000180: 6e26 1a3e cdc9 09be 1a8b c53d 1a3e da3e
00000190: a9c4 8ebe b2c4 63be fc86 27be f35b b8be
000001a0: 5f4f dbbe c84f 943e 2756 a13e 1eeb 183e
000001b0: de3e 54be 2ece b4be fba7 34be 6f1a bebe
000001c0: 6b2c 6c3e b340 95be c2ed cfbc 165a 74be
000001d0: a3f2 183e 5e1e acbe 395f 84be 0598 833e
000001e0: 73b8 b2be dcb7 d7bd 4cd5 d33d 579a 943e
000001f0: d3af c73c b10d 6b3e bcf6 783e 74b6 bc3e
00000200: 4308 dd3d c59b c8be bc15 f53d d8fb b0be
00000210: c8b4 7d3e 3c75 9abe aafc d3be adef d13e
00000220: a7c2 ba3e c567 45be 7583 b53e 7177 8c3c
00000230: f6e0 c9be b9b6 ae3c 9dd7 813e 4597 e4be
00000240: f306 85be 6ef0 d2be a734 07be 157c 88bd
00000250: fc0c dcbe 999a 93bd 8d31 e13d 2e05 15bd
00000260: bf02 ca3e 7c75 fe3d 8248 d4be 04d3 7b3e
00000270: 3078 3ebe 4fc0 ccbd 3cb1 663d 85d3 343e
00000280: 2c5c c1be 1e8f 06be fb70 a8be 6865 203e
00000290: ba4d c0be c40c 82be 4334 d03d 72a1 ba3e
000002a0: 6fb4 0fbd 94df e1be a13a 01be dd59 a8be
000002b0: 53df 853d 067b ddbe f6a0 853e 5aaa bf3d
000002c0: 2456 54bd 7174 85be 603b c33e ecec 023e
000002d0: d8ca 493e 5a53 debc 3410 7abe 8a4d 56bd
000002e0: 1b77 af3e c599 433e a5b0 a33e f825 22be
000002f0: 4a31 c8be a9e2 41be 181e 5cbe 2d3c e33e
00000300: 2485 af3e 5903 813c 81a5 1bbe 8a6c 5bbe
00000310: 8a8e 723d 5e24 aebe bf18 dbbc b663 c3be
00000320: b81c 003e 655a a4be e0df 9dbd 2c3d 14be
00000330: 140e b7be 36ec 773e a062 9abe b955 4ebe
00000340: 9840 91be 07ad 823d e93f 9bbe 4631 843e
00000350: b84c 673e 956b c0be 7807 a33e 66ad 9d3d
00000360: 009f c0be 952c 01bd 2185 26be b986 62be
00000370: 164c bc3e afc7 0a3d b084 b9bd 83d9 a83e
00000380: d0e7 413e dba1 dabe 186b 70be 5451 1f3d
00000390: f51f 99be 6c53 bfbe 2988 8e3e cff5 d4be
000003a0: 5c24 dabd 2f18 873e 35f9 873e ed9f a6be
000003b0: 945b 443d bf26 bcbe 882f 983e c72a c03d
000003c0: cfe4 62be 589e cb3c 684f bd3e b007 1cbc
000003d0: b8bb 2abe cabe 13be bd6e 873e e8a3 283e
000003e0: 60cc 7abd 8562 633e 3d36 843e 579e abbe
000003f0: 9881 5f3d fa22 b23e 4653 d0be 1550 c2be
0.26785758 -0.20538609 -0.17253917 -0.18452007 -0.2108438 -0.24022621 0.31115875 -0.41485402
0.16471031 0.29682505 -0.22204083 -0.19963929 -0.24412227 0.14557745 0.13543941 -0.24187973
0.1150891 -0.18533202 0.41239238 -0.23412499 0.13941006 0.43670154 0.27966997 0.31922877
0.03466342 0.19158477 -0.35775775 -0.106628254 -0.41250685 -0.02859958 0.35065848 -0.35237622
-0.006459162 0.14292485 -0.38884476 -0.11788496 -0.32218444 -0.44180796 -0.29653743 -0.09140049
0.10094223 0.40672785 -0.4441523 -0.38086468 -0.13059784 0.19913122 0.14332774 -0.092817545
-0.28226644 -0.24308339 -0.08915757 -0.14868324 -0.4402676 -0.3913189 -0.407428 -0.15129507
-0.22352384 0.44023278 0.16914536 0.37650326 -0.09453995 0.12745173 -0.09357306 -0.24078691
-0.4025429 -0.37181854 -0.24550311 -0.17594612 -0.2058078 -0.20392288 0.22344369 -0.12913993
-0.28165513 0.017104743 -0.14396021 -0.22685261 -0.41644698 -0.09844476 -0.2052187 0.35848358
-0.13933 0.33622438 -0.25921547 0.23858961 0.2947831 -0.22029771 -0.23005714 -0.03595623
-0.015039645 -0.13437173 0.2767535 0.11066872 -0.29805478 0.16686575 0.2606259 0.19685957
0.15053722 -0.13455887 0.09645672 0.42625505 -0.27884415 -0.22243002 -0.16360086 -0.36007652
-0.42833993 0.28967118 0.31511042 0.1493344 -0.20727107 -0.35313553 -0.17642204 -0.37129542
0.23063819 -0.29150924 -0.025381926 -0.2386249 0.14936309 -0.33616918 -0.258539 0.2570192
-0.3490635 -0.10533115 0.103434175 0.29024002 0.024375832 0.22954442 0.24312872 0.3685795
0.107925914 -0.39181343 0.11967036 -0.34567142 0.24775994 -0.30167568 -0.41403705 0.4100317
0.36476633 -0.19277866 0.35451856 0.017146798 -0.39429444 0.021327363 0.25359812 -0.4464666
-0.25981864 -0.41199058 -0.13203679 -0.06664292 -0.42978656 -0.072072215 0.10995779 -0.036381893
0.3945522 0.12424752 -0.4146157 0.24592215 -0.18600535 -0.099976175 0.056321368 0.17658813
-0.37765634 -0.13140532 -0.32898697 0.15663683 -0.375593 -0.25400364 0.10166218 0.36451298
-0.035084184 -0.4411589 -0.12620021 -0.3288106 0.06536736 -0.43257922 0.26099366 0.09358664
-0.051839963 -0.260654 0.38131237 0.12785691 0.19706285 -0.027139354 -0.24420244 -0.05232004
0.34270558 0.19101627 0.31970707 -0.15834796 -0.39100105 -0.1893412 -0.21495855 0.44381848
0.34281266 0.015748667 -0.15199853 -0.21428123 0.059217967 -0.3401212 -0.026745198 -0.3816201
0.12510955 -0.32100216 -0.077087164 -0.1447646 -0.35752928 0.24211201 -0.3015337 -0.20149888
-0.28369594 0.063806586 -0.30322197 0.25818843 0.2258786 -0.3758208 0.31841636 0.07699089
-0.37621307 -0.031536657 -0.16261722 -0.22121705 0.367768 0.03388184 -0.09058511 0.32978448
0.18936086 -0.4270161 -0.23478353 0.03889592 -0.29907194 -0.37368333 0.27838257 -0.41593787
-0.10651466 0.26385638 0.26557317 -0.3254389 0.0479389 -0.3674831 0.29723763 0.09383159
-0.22157596 0.024855778 0.36974645 -0.009523317 -0.16673172 -0.14428249 0.26451674 0.16468775
-0.061230063 0.22205551 0.2582263 -0.3351924 0.05456695 0.3479231 -0.40688533 -0.37951723

nn.block1.linear.bias f4 [96]
00000000: 0968 34be 3d49 b33e 1da2 7f3e 2bdd bfbc
00000010: fc90 e53c a68c 27be cd81 423e c596 b0bc
00000020: fb86 b03e 7bca c03e 044d b9be 682e abbc
00000030: 86aa afbe 5afe c1be d53e dd3d 09ae 0bbe
00000040: bb87 963e d2f1 043e cfd0 753e 533c e53b
00000050: 6add 9ebe db1c 2c3d 5d84 1e3d 25b4 bebe
00000060: f794 b2be 8a24 113e 2e67 053e 8813 c0bd
00000070: 91a6 c1be 13c9 e2be d2cb 643e e06b d5be
00000080: 120f 8bbe 0afd 353e f1c7 863e e24a e43d
00000090: b12c 9cbe abc5 be3e 84bd 0b3e 0472 15be
000000a0: 1865 26be dd16 253d 3ea3 c2bd 0265 353e
000000b0: 382b a33e 0031 c6bd 759c a83e d448 cd3e
000000c0: e8c7 af3e 8ee9 2e3e 2b42 e23e 6cbd 0ebc
000000d0: 7941 3dbe f876 2c3d 58ed ba3e 7360 b23e
000000e0: 42e7 12be e5e3 ae3e c950 1fbe e7a8 5fbe
000000f0: 8f9f 303e 112a d6be 4dee 743e d3f1 913e
00000100: 703e 9f3e a343 203d 27cf 4fbe f155 2e3e
00000110: d94f b03d 27c6 823d 2439 db3e 8802 803e
00000120: 91f1 cb3e d626 773e 872e b83e adb6 24be
00000130: 0aec 953e 0f9e 83be 18e4 7fbe 0b86 943e
00000140: 390c 253d e8bc 48be 357d b9be e315 53be
00000150: fa51 90be 160b 3e3e d15f d8be 29fa 7bbe
00000160: 8eec c4bd b763 473e 8815 3e3e 0acb a5be
00000170: 092a 9a3d 1528 10be 1f25 5abe f388 9dbc
-0.17617811 0.35016814 0.24964185 -0.02342089 0.028023235 -0.16362247 0.18994828 -0.021556268
0.34477982 0.3765448 -0.3619157 -0.020896152 -0.34309787 -0.37889367 0.10803 -0.13640608
0.2940043 0.12982872 0.24005435 0.0069957166 -0.310283 0.042019706 0.03870045 -0.37246814
-0.34879276 0.14174095 0.13027641 -0.09378725 -0.37822393 -0.44294032 0.22343376 -0.41683865
-0.27159935 0.17772308 0.26324418 0.11147095 -0.30502847 0.37260184 0.13646513 -0.14594275
-0.16249502 0.040305007 -0.09503792 0.17714313 0.3186891 -0.09677315 0.32931867 0.40094626
0.34332204 0.17081282 0.44191107 -0.008712154 -0.18482007 0.042105645 0.36509204 0.3483921
-0.1434603 0.34158245 -0.15558161 -0.21841775 0.17248367 -0.4182897 0.2391903 0.2850481
0.31102324 0.039127003 -0.20293866 0.17024972 0.0860898 0.06385451 0.42817032 0.2500193
0.39832738 0.24135908 0.35972998 -0.1608531 0.29281646 -0.25706527 -0.24989355 0.29008517
0.04029486 -0.19603312 -0.36228338 -0.20613818 -0.28187543 0.18558916 -0.42260602 -0.24607147
-0.09615432 0.19471632 0.18562901 -0.3238147 0.07527549 -0.1407779 -0.21303223 -0.019230342

nn.block1.batch.weight f4 [96]
00000000: aff5 7e3f 5774 7f3f 3a92 7f3f e123 7f3f
00000010: cc17 803f 2e53 803f bbe2 7f3f b0f7 7f3f
00000020: 8810 803f 248d 7f3f f70b 803f 4a9d 7f3f
00000030: 1a18 803f 27eb 7f3f c6b8 7f3f 07ed 7f3f
00000040: d8a9 7f3f 9246 803f 9503 803f 3029 803f
00000050: 7a42 803f b76a 803f 51ec 7f3f da50 803f
00000060: 7495 7f3f c5ca 7f3f 355d 803f 6b8a 7f3f
00000070: ec48 7f3f 3dae 7f3f 64e3 7f3f 9fa1 803f
00000080: 5a5f 803f 4010 803f fc1a 803f b4e8 7f3f
00000090: e340 7f3f 3106 803f 0a90 7f3f 48a1 7f3f
000000a0: 5a73 7f3f aa8e 7f3f 853d 7f3f 5a1a 803f
000000b0: e9ca 7f3f 47f0 7f3f 7b0e 803f 0404 803f
000000c0: 1751 7f3f 4d7a 803f 8970 7f3f a08c 7f3f
000000d0: 7f30 803f f822 803f 5f76 7f3f cd14 803f
000000e0: 72f0 7f3f db0d 803f 8e25 803f 8a09 803f
000000f0: 17c8 7f3f e7f4 7f3f 6c06 803f 51fe 7f3f
00000100: 2624 803f 781c 803f 6695 7f3f 0b0e 803f
00000110: 7a1d 803f ba43 803f 55b8 7f3f 5cdd 7f3f
00000120: a8e5 7f3f 7cc6 7f3f 878e 7e3f 2344 803f
00000130: 4505 803f 2c6f 803f 297b 7f3f 583f 803f
00000140: 8f49 7f3f db2e 803f 14c6 7f3f ae2f 803f
00000150: b355 803f 4406 803f 2823 803f f74d 803f
00000160: 6e05 803f 3614 803f 234f 803f a10b 803f
00000170: 57ac 7f3f d146 803f b24f 803f cc00 803f
0.99593633 0.99786896 0.998325 0.9966412 1.0007262 1.0025384 0.9995534 0.99987316
1.0005045 0.9982474 1.0003651 0.9984938 1.0007355 0.9996819 0.99891317 0.9997105
0.99868536 1.0021536 1.0001093 1.001257 1.0020287 1.0032567 0.99969965 1.0024674
0.9983742 0.99918777 1.0028445 0.99820584 0.99720645 0.9987524 0.99956346 1.0049323
1.0029099 1.0004959 1.0008235 0.9996445 0.99708384 1.000189 0.9982916 0.9985547
0.9978539 0.99827063 0.99703246 1.0008042 0.9991899 0.9997601 1.0004419 1.0001225
0.9973311 1.0037323 0.9978109 0.9982395 1.00148 1.0010672 0.99789995 1.0006348
0.99976265 1.0004228 1.0011461 1.0002911 0.9991469 0.99983066 1.000196 0.9999743
1.0011032 1.0008688 0.9983734 1.0004286 1.0008996 1.0020669 0.99890643 0.9994714
0.999598 0.9991224 0.9943623 1.0020794 1.0001608 1.0033927 0.997973 1.0019331
0.99721617 1.0014299 0.9991162 1.0014551 1.0026153 1.0001912 1.0010729 1.0023793
1.0001657 1.0006168 1.0024151 1.0003549 0.99872345 1.0021611 1.0024321 1.0000243

nn.block1.batch.bias f4 [96]
00000000: 42cf 943a 9b68 bb39 a312 0e3b 1073 9a39
00000010: 4eac 123a 1a1a bdba b1e8 01ba b822 a1b9
00000020: 29bf abb8 8244 8c3b a43d 6539 3296 273a
00000030: d19d 3a39 0356 39bb 9db7 023b dfe0 8d3a
00000040: 2b37 3aba 8dda 123a 2f98 d33a 7c5b 1cb9
00000050: 5e7b 81ba 1129 fb3a 64ac 6439 c8cc cb37
00000060: 79a9 dfba 04b4 af38 d500 abb8 c123 a83a
00000070: 98f0 28ba f6b5 b5b8 08d8 5fbb a89b 0f3a
00000080: e14f c0ba f808 03ba 0842 4a3a f7f2 9b3a
00000090: 5c73 9a39 73bd fd3a 9756 82b8 225c 4aba
000000a0: bc02 113a c6d3 9a3a 484d fcb9 2e5d 08ba
000000b0: 2342 36bb 1158 d9ba 9e7a 5939 5a39 ef3a
000000c0: 7adb 75ba 70ed 243a 265b c6ba 33f6 953a
000000d0: a555 f3ba b122 bc3a 2d4b a3b8 f8c5 3e3a
000000e0: 7584 3abb b648 25ba 2ce2 5939 6c72 0fba
000000f0: f16e 713a 145f db39 10c7 acb8 36a4 893a
00000100: 52ff 2239 c34e 8fba 9bfc 29ba ab9d ddba
00000110: 82aa 0fbb 3b99 d33a 73f0 5bba 2cd3 45ba
00000120: 2b99 873a bcb2 bc3a 4bff 1b3a 1f40 40bb
00000130: cfed 55bb 9077 113a a26b 8c3a 9341 533b
00000140: 5497 d13a 1dce be3a d518 49bb 738a 793a
00000150: da85 83ba 45b6 daba 8d1d 05bb d3e4 703a
00000160: 4859 41ba 790c 003a a6fc 2ebb d6fd 9dba
00000170: f972 543a aa3f bab8 be6b b63a 81b6 8cba
0.0011353272 0.00035745357 0.0021678589 0.00029458897 0.00055951334 -0.0014427335 -0.0004955633 -0.0003073418
-8.189522e-05 0.0042806277 0.00021862105 0.0006392925 0.00017797133 -0.0028280027 0.0019945868 0.0010824463
-0.00071035576 0.00056020246 0.0016143377 -0.000149114 -0.0009878685 0.0019162019 0.00021807995 2.4294844e-05
-0.0017064057 8.378181e-05 -8.1540704e-05 0.0012828038 -0.00064445427 -8.6646454e-05 -0.0034155864 0.00054782117
-0.0014672243 -0.000499859 0.0007715528 0.0011897971 0.00029459118 0.0019358828 -6.215012e-05 -0.00077194173
0.00055317185 0.0011812381 -0.00048122765 -0.0005201873 -0.0027810417 -0.0016582032 0.00020740411 0.0018251345
-0.0009378713 0.00062914845 -0.0015133366 0.0011441171 -0.0018564953 0.00143536 -7.786448e-05 0.00072774244
-0.0028460298 -0.0006305085 0.00020778988 -0.0005472067 0.0009209952 0.00041841774 -8.2386774e-05 0.0010501209
0.00015544638 -0.0010933507 -0.00064844795 -0.0016907951 -0.00219217 0.0016143689 -0.0008390017 -0.00075464207
0.001034533 0.0014396529 0.00059508224 -0.0029335094 -0.0032642966 0.0005549127 0.001071323 0.003223513
0.0015990534 0.0014557276 -0.0030684967 0.0009519227 -0.0010034398 -0.0016686401 -0.0020311803 0.0009189371
-0.00073756697 0.0004884671 -0.0026700883 -0.0012053798 0.00081042905 -8.8810295e-05 0.0013917608 -0.0010735543

nn.block1.batch.running_mean f4 [96]
00000000: 6239 8f3a f7e4 e53e 6c70 8d3e a9ae 0a3d
00000010: 5bb8 bf3d 3708 263c 183a 553e dc3e 1f3d
00000020: e7ff b23e 8976 c43e 4299 8e3d 44d6 173d
00000030: 47a8 093e 8398 dc3d 6762 6d3e a45e 3c3b
00000040: 0e39 d83e c756 533e 5e78 0d3f b9d7 b73e
00000050: 7c4a 773e 92e1 533e 6b29 a33e 029b 903a
00000060: 3665 063a f1df 8b3e afb3 d43e 5492 b73e
00000070: 0d4f d13e 42a6 383e 1513 c13e b9dc ae3d
00000080: acd1 103d b11d 113f 11b5 993e 728b d83e
00000090: f655 393e 6d90 c23e c211 c63e f805 8a3d
000000a0: 00cd 443d a031 0c3e 296a 603e e594 583e
000000b0: 93a9 173f 4726 dd3e 3fb4 153f 681c d63e
000000c0: 53fc 063f 41d4 393e ca60 e43e 564e 843e
000000d0: 5b2c 433e ca6a 963e c27a 013f 1f1b 003f
000000e0: b3fe cc3e 2d74 de3e 3015 1b3b 86f7 a83a
000000f0: 5644 7b3e 0000 0000 f882 b83e fd4f a53e
00000100: 1afe b63e 154a 3d3e 4b34 023c 43b3 923e
00000110: 5baa e03e de2b 953e b1ee de3e 5711 7d3e
00000120: c206 ee3e 7e28 753e 1f8f b93e 8159 563e
00000130: 530c a33e f9db b63d c77c c93d 0d3d 923e
00000140: 8f60 6b3e 8a9c ee3d ddfd c839 f362 e83e
00000150: 367f 193d 1786 9f3e e19b 1d3d 3aff c93d
00000160: 7f76 c33c 7824 903e 6adf 393e 33f7 853a
00000170: 2d02 443e 38c9 bf3c bcff 4c3e d1ee 253e
0.0010927136 0.4490125 0.27624834 0.033857975 0.09361335 0.0101337945 0.20822942 0.038878307
0.34960863 0.38371685 0.06962825 0.037069574 0.13443099 0.10771277 0.23182069 0.0028742934
0.4223103 0.20638572 0.5526179 0.3590677 0.24149507 0.20691517 0.31867537 0.0011032524
0.0005126776 0.2731929 0.41543338 0.35853827 0.40880623 0.18032172 0.3770987 0.08538193
0.03535621 0.5668593 0.30020955 0.42293888 0.18099198 0.38000813 0.38685423 0.0673942
0.048047066 0.13690805 0.21915497 0.21150549 0.59243125 0.43193266 0.5847816 0.41818547
0.52728766 0.18147375 0.44605094 0.25841016 0.19059889 0.2937835 0.5057794 0.50041384
0.4003807 0.4344801 0.0023663752 0.001289115 0.24537787 0.0 0.3603742 0.3228759
0.3574074 0.18485291 0.007947038 0.2865239 0.4387997 0.2913503 0.43541482 0.24713646
0.4648953 0.23941228 0.36242005 0.2093258 0.3184534 0.08928675 0.098382525 0.28562203
0.22986053 0.11650951 0.00038336116 0.45387992 0.037474833 0.3115699 0.038478736 0.09863134
0.023860214 0.28152823 0.18151632 0.0010220766 0.19141455 0.023411378 0.2001943 0.16204382

nn.block1.batch.running_var f4 [96]
00000000: 7f32 3e39 b806 633e 0bef 903d 265f 403b
00000010: 8928 0a3c 9296 b03a 17ad a03c 3515 393c
00000020: 6c88 903c 87cf 533d d68e 093d 1e18 7c3b
00000030: 07a6 703d 2b31 433d e0ad 8c3d 9c75 403a
00000040: 376a 4e3e b8eb 5d3d 184d cc3e d2d8 553e
00000050: 169c 233e 2cee 713d eaa4 203e c33b 4e39
00000060: 0ace 0b39 5a0a 993d 9636 6e3e 3015 5e3e
00000070: 0ed6 b73e 911f d83d 5ab6 0f3e 727f c73c
00000080: 4986 303c 2c73 dd3e 342e b33d 5eec 813e
00000090: d34a a73d 6276 713d 8763 463e 8601 c73c
000000a0: bf8a 113c b4e4 ee3c a7fe c03d 4c15 203d
000000b0: 67d6 ce3e 9b85 b53e 03c7 c83e 9a6a 113e
000000c0: 17d6 953e 2007 ca3c 50a6 113d 838e df3d
000000d0: ae35 e03d 3c53 1d3e 1880 b33e f342 833e
000000e0: 8ea6 9a3e f710 3b3e 41f9 813a 4ffb 083a
000000f0: 0068 643d 0000 0000 3d2c fa3d 1cd3 b13d
00000100: bf4b fb3d 4987 373d 554f 833a ce77 c63d
00000110: ec00 993e ae1d 053e ef0c da3c 3587 ae3c
00000120: 910b 5f3e 1ab0 fa3c bef7 783b 70d2 aa3d
00000130: f43b 853d 065f c53c 770c a73c f484 8f3c
00000140: 376f 953d 7170 013d 47cf 8138 2daa c13e
00000150: 8a3a 9f3b 43b5 1d3e 7e0b ed3b b294 d13c
00000160: 8fff ca3b fb65 933d 4809 cb3b 5858 a239
00000170: 3cf3 173d ac79 b33b cc90 aa3d 46c8 243d
0.00018138623 0.22170532 0.07076844 0.0029353588 0.008432516 0.0013472608 0.019613786 0.01129656
0.017643176 0.051711585 0.033583485 0.0038466523 0.058752086 0.047654312 0.068691015 0.0007341744
0.20157705 0.054179877 0.39902568 0.20883492 0.15977511 0.05906503 0.1568791 0.00019667954
0.00013332829 0.074726775 0.2326301 0.2168777 0.35905498 0.10552896 0.14034405 0.024352763
0.010774204 0.43251932 0.08749047 0.25375646 0.081685685 0.05895079 0.19373904 0.024292719
0.008883177 0.029161789 0.09423571 0.03908281 0.4039795 0.35453495 0.39214334 0.14200822
0.292649 0.0246616 0.035559 0.10915854 0.109477386 0.15363783 0.35058665 0.25637016
0.30205196 0.1826819 0.0009916202 0.0005225436 0.055763245 0.0 0.12215469 0.08682844
0.12270307 0.044806752 0.001001815 0.0969082 0.29883516 0.12999603 0.026617495 0.021304706
0.21781756 0.03060155 0.0037989463 0.08340919 0.06505576 0.024093162 0.020391686 0.017519452
0.07296603 0.031601373 6.189808e-05 0.37825146 0.0048592733 0.15401177 0.007234036 0.025583599
0.0061950157 0.071971856 0.006196175 0.0003096487 0.0370972 0.005477151 0.08328399 0.040230058

nn.block2.linear.weight f4 [256, 96]
00000000: 9926 753d ce40 a93d 8aa9 c43d 174a 8d3d
00000010: c1da 913d 27bb 113d 105a 163d 8975 28bd
00000020: 1abb 42bd abb6 83bd b0ee 4dbb 6c4f 5d3d
00000030: 62b4 9cbd 93b8 92bd fe20 a83d 8413 893d
00000040: 7733 a7bd bf4a 9fbd fedc 16bd b4a6 95bd
00000050: 0393 693c 1dfd ecbc 859c e53c 39b0 7d3b
00000060: 0291 583d c852 c4bc 2a17 903c f039 8dbc
00000070: 308b c13c 27a9 03bb 55e2 8a3d e553 52bd
00000080: 26f2 1b3d 36a9 a4bc 53cf 623d bf81 9ebd
00000090: 8b61 95bd c08f b2bc 071f 493d 0a5b 2b3d
000000a0: aae4 d53c 4b4e 38bd 5cd8 8d3d e793 7dbd
000000b0: 1d09 be3c e932 673d 79be c43d b9e9 0c3c
000000c0: c04f 28bd 2252 323d f76a b93d 8d2c b0bd
000000d0: 9763 cfbd 9e12 49bc 5564 50bd aed4 3dbd
000000e0: 01b5 8fbd 7902 9e3c b62c 3cbd c16b 6d3d
000000f0: 23dc bb3d 29e6 b8bd bd9c c53b 79bb c03d
00000100: 916e ce3d a55a bebc 0161 723d db1a 493d
00000110: e1a3 8e3d 5a1a 16bc c395 a2bc 8a42 3ebd
00000120: c127 7b3c e8ac d23c d780 1ebd a484 9fbd
00000130: 20f7 c53d 1bf3 79bd 958d 0fbc cadf 3ebd
00000140: 48cc bcbc e414 cebd d47c 3ebd 32bc 043d
00000150: 2c5e 8d3d 7c57 c63d dc77 13bd f60f 7cbd
00000160: 5c6e b8bd cef7 09bd 8749 b4bd e282 77bd
00000170: 3045 0dbd 9e92 cf3d 5544 88bd 7ad3 96bd
00000180: a6b0 b3bc 0779 773d 6b42 78bc 1603 90b8
00000190: c4be 933d d8f3 6e3d 8474 a83d 4237 75bd
000001a0: c5f0 a03d 8b39 c7bd ac8c 86bd d05a 79bb
000001b0: 9568 123d a070 16bc 826e c43d f124 2cbc
000001c0: b333 38bd f989 88bc 81cb 5fbc f19d 533c
000001d0: d092 5e3d b308 b0bd 8576 613c 28b9 ac3d
000001e0: 7fb3 94bc 5e1a 493d ea83 63bc bfb6 cf3d
000001f0: 789c c8ba 55fe 873d 578a 02bd d099 bdbd
00000200: df0b 2cbd 9782 923d 6c2e c73a ba5e 84bc
00000210: 9d6e a93d 0857 86bd d4ea 8ebd a423 1c3d
00000220: 2d22 ce3d d8d9 013d 03d5 0abd 0631 313d
00000230: db8f 453d e3f2 aebd 08ea b63d b294 083c
00000240: dee3 29bd 892a cbbd 192c c33c 00f6 d2bc
00000250: 3137 b43c 677a a2bd 815a 253d f3f4 9dbd
00000260: 45ad a63d d5fe eb3b b016 483d 6c5e 763d
00000270: 0fc1 bb3d c5af 803c e64c a73d c6d8 adbd
00000280: 802e 973d dcba 9a3d 736f 59bd 5efc 57bd
00000290: c5d8 ac3d f027 a83d c35d adbd 0987 c33a
000002a0: 1d12 9cbd 8afc 603d acc9 aebd 753b 4bbd
000002b0: 6c54 9f3d ac9b b23d b674 ba3d 0bfd 323c
000002c0: 48e2 b8bd 5d3d 853d 4f7a ae3d 805d a13d
000002d0: 8566 843d b684 f6bb c587 563d b501 bb3c
000002e0: dd15 44bd e573 893d bd68 1abd 97d9 733d
000002f0: c699 1bbc 8db3 0fbc 38cf 333d bcd1 4ebc
00000300: 624b 1d3d 5e18 b3bd 0e54 c8bd 40b5 7f3c
00000310: 0b22 98bc b2db 3dbd 883a bdbd cb84 193c
00000320: 76c0 59bd ad87 b63d a1cd a4bd e046 fbbc
00000330: 2e5f b2bc 731d 883c 7913 bfbd 98a9 6f3d
00000340: 5ef3 c1bd ba46 62bd 7b62 ae3c fe32 5cbc
00000350: 2b59 313c 2dae d3bd 682d 95bd 5cfe 8c3d
00000360: 1d6b 263d 1d41 303d 2b9f 643d 86c1 943d
00000370: a8b0 483d 3fa2 08bd 6d91 56bd 62e0 8cbd
00000380: c00a f63c 3fb3 87bb 661d 50bd 5826 823d
00000390: 94ca aa3b ea31 5fbc 87b1 dfbc 975d 9abd
000003a0: 5d98 a53d 99e4 cbbd 6942 c1bd 2230 953c
000003b0: 0517 36bd 1ba3 973d eb5d 33bb 37d1 3dbd
000003c0: 4618 9aba 3c92 85bc 8909 82bc afcb 49bc
000003d0: 4fc7 8cbd 22b2 09bd 3a9c cbbd 9279 89bd
000003e0: fed5 133c c170 853d 89a3 a1ba e51e ab3d
000003f0: 5e1e a5bd 73f4 143d d99a cd3c 0e6d 23bd
0.059851263 0.08264314 0.096026495 0.06898897 0.07121802 0.035578873 0.036706984 -0.041127715
-0.047541715 -0.064313255 -0.0031422786 0.05403082 -0.07651593 -0.07164111 0.08209418 0.066931754
-0.08164113 -0.077779286 -0.03683185 -0.07307187 0.014256242 -0.028929288 0.028028736 0.0038709773
0.052872665 -0.023965254 0.01758917 -0.01723954 0.02362594 -0.0020089836 0.06781451 -0.05134954
0.038072728 -0.020100217 0.0553735 -0.07739591 -0.072939955 -0.021797061 0.049101856 0.04183487
0.026110012 -0.04499654 0.06926033 -0.06190863 0.023197705 0.056445036 0.09606642 0.008600646
-0.04109168 0.04353536 0.09053605 -0.086022474 -0.10126417 -0.012272505 -0.050876934 -0.046345405
-0.07016946 0.019288288 -0.045941077 0.05796409 0.09172847 -0.090282746 0.0060306475 0.094107576
0.100796826 -0.023236582 0.05917454 0.049097877 0.06964851 -0.009161556 -0.019846803 -0.046450175
0.015329302 0.025717214 -0.03869709 -0.07788971 0.09666276 -0.06102286 -0.008761783 -0.04660014
-0.023046628 -0.10062578 -0.046505764 0.03240604 0.069027275 0.09684655 -0.03600298 -0.06153866
-0.090054244 -0.03368359 -0.08803087 -0.060427554 -0.03448981 0.10135387 -0.06653658 -0.07364555
-0.021934818 0.060418155 -0.015152554 -6.86703e-05 0.0721412 0.058338016 0.082253486 -0.05986715
0.07858423 -0.09727772 -0.065698 -0.0038048513 0.03574427 -0.009182125 0.0959139 -0.010506854
-0.04497118 -0.016667353 -0.013659359 0.012916074 0.05433923 -0.08595409 0.013761167 0.08433753
-0.018151997 0.04909741 -0.013886431 0.10142278 -0.001530542 0.06640307 -0.031870212 -0.09257853
-0.04200351 0.07153814 0.001519633 -0.01615845 0.08273051 -0.06559569 -0.06978384 0.038119927
0.10065112 0.031701893 -0.03389455 0.043259643 0.048232894 -0.08542421 0.08931357 0.008336233
-0.041477077 -0.09920222 0.023824738 -0.025752068 0.021998974 -0.07933503 0.040369514 -0.07712736
0.08138517 0.007202009 0.04884976 0.06014864 0.091676824 0.015708813 0.08168964 -0.08488612
0.07381916 0.07555172 -0.053084802 -0.05273091 0.08439783 0.082107425 -0.08465149 0.0014917563
-0.07620642 0.05492834 -0.085345596 -0.04961725 0.07779774 0.08721098 0.09104292 0.010924588
-0.09027535 0.06505845 0.08519422 0.07879162 0.064648665 -0.0075231446 0.052375574 0.022827962
-0.047872413 0.06711558 -0.037697542 0.05953368 -0.009497112 -0.008770836 0.04389879 -0.012623247
0.03840197 -0.08744882 -0.09781657 0.015607178 -0.01857092 -0.046352096 -0.092396796 0.009370039
-0.05316206 0.08912597 -0.08047033 -0.030673444 -0.0217739 0.016615605 -0.09329886 0.058511347
-0.09470247 -0.05524323 0.021287194 -0.013439892 0.010824482 -0.10335956 -0.07284051 0.06884453
0.040629495 0.043030847 0.055815857 0.07263474 0.048996598 -0.033357855 -0.052384783 -0.06878735
0.030034423 -0.004141241 -0.050809287 0.0635497 0.0052121375 -0.01362274 -0.027306331 -0.07537382
0.080857016 -0.09955711 -0.09436495 0.018211428 -0.044455547 0.07404157 -0.0027369212 -0.0463421
-0.0011756502 -0.016305082 -0.015873687 -0.012316628 -0.068739526 -0.033617146 -0.09941907 -0.06712641
0.009023188 0.06515647 -0.0012332062 0.08355502 -0.08062433 0.036365937 0.025098251 -0.039898925

nn.block2.linear.bias f4 [256]
00000000: d604 bf3d 6744 93bc 00e4 94bd b0fe 38bd
00000010: 5a55 1d3d 3a44 5abc cdf4 79bd ca27 743d
00000020: 51fe 1d3d 61f5 afbd bd66 84bd f357 cd3d
00000030: 6708 b83b 60fe 21bd 7841 73bb b79e 32bd
00000040: 5e22 cc3d 08f8 34bd e259 923d 095c a33d
00000050: d6b0 0e3d 81b5 173d baa8 903d 04bb 63bd
00000060: b497 c6bd 44f8 4fbd 56e8 cf3a 1565 4cbd
00000070: 8038 1bbd 3034 94bd 6627 013d 1956 b33d
00000080: d655 54bd 5683 253d 1be2 173d 8fd3 48bd
00000090: 5171 a73b 0a42 cdbd e607 29bd e795 00bd
000000a0: 3056 023d 5876 87bd ff4d c53d 4a5a 8a3a
000000b0: f1e4 9b3c 3b0e 8ebd 866d bf3d 74ff 2ebd
000000c0: 8e15 633d 5e93 5abc 04a6 8abc e217 babd
000000d0: 2506 49bd 4a78 0bbd 8c9c 5d3b 2230 e1bc
000000e0: bee0 36bd c04b 29bd 48a9 19bc f310 1d3c
000000f0: 3701 7ebd b705 29bd cbd7 7e3d 13eb a6bc
00000100: 7293 a1bd 6a8a 1f3a 70f4 cc3d 7604 063c
00000110: b674 8bbc 859f 283d e6ce 11bd 0c95 65bd
00000120: 5ab7 d4bc 464a 02bd 6aa2 8b3d de0e b73d
00000130: 54b0 18bd 8e86 8e3c 34e1 653d 4528 b4bc
00000140: f76c 133d 83d5 a33d 9285 d13d 0ff8 f2bc
00000150: 1fa8 1abd 5cdf b4bd 089a 453d c6af 773d
00000160: d66f 663d 5b93 0ebd 51f6 9c3d b61d a6bd
00000170: 745f 663d ee9f 54bd b4e3 9cbd 4a7d a23d
00000180: 2c54 183c 6e42 b23d 6aad b33b 7b25 cc3d
00000190: b6f2 183d eaf6 c73d 0910 373c 8e81 5b3d
000001a0: 0784 b63d 6585 c1bd f95b c3bd 3244 a13d
000001b0: a0b5 8b3b 6891 37bc eebe c53d 08dc 833d
000001c0: 7d88 3bbd 8e56 cf3d 2f06 a4bd 806a 973c
000001d0: 23d4 80bd 45b9 92bb 677b 0dbd c923 503d
000001e0: 9077 c9bc 6343 17bd eb5d bbbc 2a74 c43c
000001f0: 764c a2bd fef6 1cbc 3b4e 4e3d 82cf bebb
00000200: 40a1 a2bd 0169 a8bd c95b 123c e629 87bd
00000210: 1e04 38bd 15b2 613d 300f 263d fdac a23d
00000220: 76c1 bf3d 682d a6bd 3045 303d d908 d2bd
00000230: d0bf 643d e015 3c3c fe19 cd3d a5b5 4e3d
00000240: a4c2 423d 1571 01bc 4656 103d 66d5 4abd
00000250: 1051 a43d f00f 66bd 0c77 883d b66a 88bd
00000260: 39e3 c73d 7c73 1b3d e3a9 b3bd 273a 653d
00000270: 4c5f a03c f8bd e53c 8ee0 82bd e787 ef3c
00000280: 7e35 733d 0ff5 b8bc faa2 94bd 1323 8abc
00000290: a75c 183d b23a 973d 5945 1c3d ccd4 00bd
000002a0: 06dc abbd 06a8 a3bd 0136 39bd eb78 01bd
000002b0: 0987 dd3c 760c aebd 3839 b03d f105 a0bd
000002c0: ce3f 313d 7fd7 c13d d38a 87bd b315 c23c
000002d0: 6c6e 3c3d de4a 133d c939 b83d eb44 22bd
000002e0: 0e5e 85bd 1691 c6bd e600 92bc e8c1 f83c
000002f0: b6e8 bcbd c254 cd3d ca70 afbd c4ed 89bd
00000300: 9320 91bd 78c2 653d d695 b7bd 2881 123d
00000310: d2ec 48bd 89a9 c03d 314d a23d 823f b13d
00000320: 2ebf c3bd f3a0 613d 600f 91bd 5276 af3d
00000330: 410a 3ebc b370 343c fe15 cebd ebdd fabc
00000340: cd3b 9b3d 1ca0 b4bc d17a 64bc 49f5 e3ba
00000350: 82cf cd3d 7c47 3c3d ed7b 613d aac0 94bd
00000360: bf13 b7bd 0ac4 5ebc 6601 1b3d d697 b03d
00000370: 5564 b33d bdb4 063d e0cd cd3d 6f3e a4bc
00000380: ce7a d8bb 0306 463d 7e3a a63c 3962 883d
00000390: 3d74 c2bd b829 b23d b336 a1bc 46ad 8a3d
000003a0: 40c9 d1bc 4b08 b23d afcc 34bd 7e85 cebd
000003b0: 4174 bd3d 5364 e4bb b56c 8dbd 3673 8fbd
000003c0: 1bc4 c53d 677b 91bd 30f1 3ebd 4ea5 a7bd
000003d0: 6dd2 273d bc8f 1ebd 8ef9 a7bd 4b71 b5bd
000003e0: 2405 963b c23e 393d 3da9 d23d 8f06 b93d
000003f0: 968e 553d 2226 7cbd 55f6 1e3d 68c9 b43d
0.09327094 -0.017976953 -0.0727005 -0.045164764 0.038411476 -0.013321931 -0.061024476 0.05960826
0.038572613 -0.08591724 -0.06464908 0.100265406 0.005616236 -0.03954923 -0.003711788 -0.043608394
0.099674925 -0.044181854 0.0714605 0.07976539 0.034836613 0.03703833 0.07063432 -0.055598274
-0.09696904 -0.050773874 0.0015862088 -0.049901087 -0.03789568 -0.072365165 0.031531714 0.08756656
-0.051839672 0.040408455 0.037080865 -0.049029883 0.005109944 -0.100223616 -0.0412673 -0.031392958
0.031820476 -0.06614369 0.09634017 0.0010555473 0.019030066 -0.06936308 0.09347062 -0.042724088
0.055440478 -0.013340799 -0.016924866 -0.090865865 -0.049078126 -0.034050263 0.0033815233 -0.027488772
-0.044647925 -0.041332006 -0.009378739 0.009586561 -0.062012877 -0.041265216 0.062217515 -0.020375764
-0.07889451 0.0006085994 0.1000756 0.0081797745 -0.017023426 0.041167755 -0.035597704 -0.056050345
-0.025966335 -0.031809114 0.068180874 0.089383826 -0.037277535 0.017398145 0.056122974 -0.021991858
0.03599259 0.079997085 0.10230555 -0.0296593 -0.03775799 -0.08831665 0.0482426 0.060470365
0.056259 -0.034808498 0.076641686 -0.08111136 0.056243375 -0.051910333 -0.076606184 0.07934053
0.009297412 0.08704077 0.005483319 0.09968086 0.037340842 0.09763892 0.011173257 0.05359035
0.08911901 -0.09449271 -0.09539027 0.07874335 0.0042635947 -0.011204101 0.096555576 0.06438452
-0.045784462 0.10123931 -0.08008992 0.0184834 -0.06290462 -0.0044776523 -0.034541514 0.050815377
-0.024593145 -0.0369295 -0.022871932 0.023981173 -0.0792474 -0.009580372 0.050367575 -0.0058230767
-0.07940912 -0.08223153 0.008933016 -0.06599788 -0.0449258 0.055101473 0.040541828 0.07943151
0.093630716 -0.08114129 0.043034732 -0.10255594 0.05584699 0.011479825 0.10014723 0.0504662
0.047548905 -0.007900496 0.035238527 -0.04951992 0.08023274 -0.056167543 0.066633314 -0.066609785
0.09760136 0.03795193 -0.08772638 0.05596366 0.019576691 0.028044686 -0.06390487 0.029239608
0.059377186 -0.02257779 -0.07257648 -0.016862428 0.037197735 0.07384242 0.038152073 -0.03145294
-0.083915755 -0.07991032 -0.045217518 -0.031609457 0.027041929 -0.084984705 0.086046636 -0.07813633
0.04327374 0.09464931 -0.066182755 0.023691988 0.046003744 0.03596007 0.08995397 -0.039616507
-0.0651208 -0.09695642 -0.017822694 0.0303659 -0.092240736 0.10025932 -0.08566435 -0.06734803
-0.07086291 0.056093663 -0.08964126 0.035767704 -0.049053974 0.09407336 0.07924879 0.08654691
-0.09557949 0.055085134 -0.07083011 0.0856749 -0.011599124 0.011013198 -0.100627884 -0.030623397
0.075797655 -0.022049002 -0.013945297 -0.0017391826 0.100493446 0.04596661 0.055049825 -0.0726331
-0.08939313 -0.013596544 0.03784313 0.086227104 0.08759371 0.03288721 0.10049033 -0.020049302
-0.0066064363 0.048345577 0.020291563 0.066593595 -0.09494827 0.086993635 -0.019679403 0.067713305
-0.025608659 0.08692988 -0.044140514 -0.10084055 0.09250689 -0.0069699674 -0.069055 -0.070043966
0.09656545 -0.07103615 -0.046616733 -0.08185826 0.040972162 -0.038711295 -0.08201896 -0.088594995
0.0045782495 0.045225866 0.10286186 0.09034454 0.052137934 -0.061559804 0.03880914 0.08827478

nn.block2.batch.weight f4 [256]
00000000: 6bb9 7f3f 1807 803f 6149 803f 0f38 803f
00000010: b37d 7f3f 0134 803f dd37 803f 88da 7f3f
00000020: c21c 803f 452a 803f d5ac 7f3f 6e01 803f
00000030: e5f4 7f3f 5252 803f 15fb 7f3f 229d 7f3f
00000040: b001 803f f2d8 7f3f 2f0b 803f a820 803f
00000050: fc04 803f e909 803f 7da8 7f3f 3982 7f3f
00000060: 173b 803f 8b13 803f 1605 803f 4a33 803f
00000070: dda4 7f3f 1e08 803f 1e32 803f fad7 7f3f
00000080: 4beb 7f3f 52c9 7f3f a6ed 7f3f 8117 803f
00000090: eca1 7f3f 6ef5 7f3f df06 803f 7810 803f
000000a0: 410e 803f ba09 803f 9009 803f a8da 7f3f
000000b0: e5ff 7f3f 818b 7f3f de09 803f 5c12 803f
000000c0: 25e3 7f3f 4c14 803f 72f4 7f3f b442 803f
000000d0: f1f3 7f3f f6eb 7f3f 9a2e 803f 5f91 7f3f
000000e0: b011 803f 6403 803f f20d 803f ac15 803f
000000f0: 8e15 803f 41e4 7f3f f527 7f3f 8b00 803f
00000100: a618 803f 11f0 7f3f f389 7f3f 80ac 7f3f
00000110: 4e07 803f 661f 803f 6502 803f 41fc 7f3f
00000120: ed16 803f 6f25 803f c379 7f3f a40a 803f
00000130: 95b4 7f3f 7228 803f f012 803f 1806 803f
00000140: 452a 803f 102a 803f 2d10 803f b6e6 7f3f
00000150: 0bf2 7f3f 280d 803f 06e6 7f3f 60ee 7f3f
00000160: 0f4c 7f3f e0c7 7f3f acf8 7f3f 8ac2 7f3f
00000170: e6ad 7f3f 261a 803f fd3d 803f 7cff 7f3f
00000180: 62cb 7f3f 302e 803f bad3 7f3f 3237 803f
00000190: 43dc 7f3f 13f2 7f3f 832d 803f 91f0 7f3f
000001a0: 48a7 7f3f 9003 803f c5bf 7f3f cf27 803f
000001b0: ea0a 803f e41d 803f d62b 803f f4e8 7f3f
000001c0: 88b9 7f3f 09e6 7f3f 7830 803f 37f4 7f3f
000001d0: 1912 803f ceea 7f3f 8b23 803f 020c 803f
000001e0: 7bc0 7f3f 7aa7 7f3f d72a 803f 7408 803f
000001f0: df0f 803f 71dc 7f3f 3203 803f 4bfd 7f3f
00000200: 2c1c 803f 92aa 7f3f 7aac 7f3f fddd 7f3f
00000210: 9d3a 803f 4739 803f a31f 803f a909 803f
00000220: e6ed 7f3f 6130 803f ea04 803f 6ac0 7f3f
00000230: 5209 803f a6c9 7f3f 2291 7f3f 5df4 7f3f
00000240: ee09 803f 0fba 7f3f cbbc 7f3f 32d8 7f3f
00000250: 1ff2 7f3f 8e22 803f ceeb 7f3f 66f9 7f3f
00000260: 9190 7f3f 0f24 803f 5e16 803f 3fbe 7f3f
00000270: 84e3 7f3f afd4 7f3f d498 7f3f 41d7 7f3f
00000280: 81d5 7f3f 7bb7 7f3f 2d0d 803f 2309 803f
00000290: 59f1 7f3f f634 803f 6e09 803f 0e0d 803f
000002a0: 99bb 7f3f d823 803f bd22 803f c907 803f
000002b0: 723b 803f 699b 7f3f e303 803f c9f8 7f3f
000002c0: d2fd 7f3f 6d9f 7f3f c8c0 7f3f 20f1 7f3f
000002d0: 1a10 803f 62de 7f3f d143 7f3f 40df 7f3f
000002e0: 3392 7f3f 6ecd 7f3f c01d 803f 5433 803f
000002f0: dac4 7f3f 4306 803f 72fb 7f3f 60d7 7f3f
00000300: cabf 7f3f 1e42 803f c0fd 7f3f bd18 803f
00000310: 603c 803f 1a08 803f 9d97 7f3f 1505 803f
00000320: 8b08 803f 77f8 7f3f 0b0f 803f 9d02 803f
00000330: c236 803f a1d8 7f3f 34ba 7f3f 72c8 7f3f
00000340: fb08 803f 84b5 7f3f 30e1 7f3f 4718 803f
00000350: 7ad1 7f3f b918 803f de00 803f 1607 803f
00000360: b574 7f3f c918 803f 28ee 7f3f 080e 803f
00000370: b10b 803f ae26 803f 77f1 7f3f 950a 803f
00000380: 6f9b 7f3f 70fe 7f3f a201 803f 5e12 803f
00000390: 8355 7f3f 4bef 7f3f b83d 803f 7c0d 803f
000003a0: efc6 7f3f 93e1 7f3f 8ce1 7f3f 661f 803f
000003b0: 2cbc 7f3f 9215 803f 8e1b 803f 9c38 803f
000003c0: 5904 803f b710 803f b9e1 7f3f 260f 803f
000003d0: f9e9 7f3f 5be2 7f3f 89de 7f3f 43d0 7f3f
000003e0: 53f0 7f3f 6dd4 7f3f f545 803f 402e 803f
000003f0: 4fdd 7f3f 06fb 7f3f 5eb0 7f3f f316 803f
0.998923 1.0002165 1.0022393 1.0017108 0.99801177 1.001587 1.0017048 0.9994283
1.0008776 1.00129 0.99873096 1.0000436 0.99983054 1.0025122 0.99992496 0.9984914
1.0000515 0.9994041 1.0003413 1.0009966 1.0001521 1.0003024 0.9986647 0.9980808
1.0018033 1.0005964 1.0001552 1.0015652 0.99860936 1.0002477 1.0015295 0.9993893
0.99968404 0.99916565 0.99972 1.0007173 0.9985645 0.9998387 1.0002097 1.0005026
1.000435 1.0002968 1.0002918 0.9994302 0.9999984 0.9982224 1.0003011 1.0005603
0.9995597 1.0006194 0.9998237 1.0020356 0.999816 0.9996942 1.0014222 0.99831194
1.0005398 1.0001035 1.0004256 1.0006614 1.0006578 0.9995766 0.99670345 1.0000166
1.0007522 0.9997569 0.9981987 0.9987259 1.0002229 1.0009582 1.0000731 0.99994284
1.0006996 1.0011424 0.9979517 1.0003247 0.9988492 1.0012343 1.0005779 1.000186
1.00129 1.0012836 1.0004936 0.9996141 0.99978703 1.0004015 0.9996036 0.99973106
0.9972543 0.9991436 0.9998882 0.9990622 0.9987472 1.000798 1.0018917 0.99999213
0.9991971 1.0014095 0.99932444 1.0016844 0.9994547 0.9997875 1.0013889 0.9997645
0.99864626 1.0001087 0.9990199 1.0012149 1.0003331 1.0009122 1.0013378 0.99964833
0.99892473 0.9996038 1.0014791 0.9998202 1.0005523 0.9996766 1.0010847 1.0003664
0.99903077 0.99864924 1.0013074 1.000258 1.0004843 0.9994574 1.0000975 0.9999587
1.0008597 0.99869645 0.99872553 0.999481 1.0017887 1.001748 1.0009655 1.0002948
0.9997238 1.0014764 1.00015 0.99902976 1.0002844 0.99917066 0.9983083 0.99982244
1.000303 0.9989328 0.9989745 0.9993926 0.9997882 1.0010545 0.99969184 0.99989927
0.99829966 1.0011004 1.0006826 0.9989967 0.99956536 0.99933904 0.9984257 0.99937826
0.99935156 0.99889344 1.0004021 1.0002788 0.9997764 1.0016162 1.0002878 1.0003984
0.99895626 1.0010939 1.0010601 1.0002376 1.0018141 0.9984651 1.0001186 0.9998899
0.99996674 0.9985264 0.99903536 0.999773 1.0004914 0.99948704 0.99712855 0.9995003
0.9983246 0.99922836 1.0009079 1.0015664 0.99909747 1.0001911 0.9999305 0.9993801
0.9990202 1.0020177 0.99996567 1.000755 1.0018425 1.0002472 0.9984072 1.0001551
1.0002607 0.999885 1.0004591 1.0000798 1.0016711 0.99939924 0.998935 0.9991523
1.0002741 0.99886346 0.99952984 1.0007409 0.9992901 1.0007545 1.0000265 1.0002162
0.99787456 1.0007564 0.9997277 1.0004282 1.0003568 1.0011804 0.9997782 1.0003229
0.9984655 0.99997616 1.0000498 1.0005605 0.99739856 0.9997451 1.0018835 1.0004115
0.99912924 0.99953574 0.9995353 1.0009582 0.998965 1.0006583 1.0008409 1.0017276
1.0001327 1.0005101 0.999538 1.0004623 0.9996639 0.99954766 0.99948937 0.9992716
0.9997608 0.9993351 1.0021349 1.0014114 0.99947065 0.99992406 0.9987849 1.0007004

nn.block2.batch.bias f4 [256]
00000000: 8c33 74ba f418 3aba dbe6 daba f846 a0b9
00000010: 2825 303a b39c 333a 6a82 88ba 9a2c 073a
00000020: 9ac6 2f38 61b0 a5b7 2eca cab9 997e 0eba
00000030: cb8a 963a a977 0dbb 3629 e9b7 3217 123a
00000040: 1409 9fba 4e03 893a a2fa 0fb9 b200 2eb9
00000050: c790 e739 ce9e cbb8 2a7d c0b8 2b8b aa3a
00000060: b78b 3cb9 ef4b 643a dc36 e0b9 36ad 6aba
00000070: 82f7 05ba 8e8f 2639 78ba 03ba e6f5 023a
00000080: 7668 0c39 c457 fa38 d7a2 ee38 1b63 9339
00000090: f3e8 8eba 19c6 bfba 592a 513a 485e cb39
000000a0: 5708 bbb9 d926 9fb9 811b 2236 5169 ccb9
000000b0: 74f5 b539 e93b a0ba 45f6 a039 66f6 5fba
000000c0: 6f3e 073a d5ad 5d39 999d 0aba 0fcf 8bba
000000d0: b10d 63ba b355 1fb9 fd41 363a 6ae6 843a
000000e0: 74a4 893a b58e 82b9 5631 4eba fc55 87ba
000000f0: 756e 7539 486d b83a 15af 90ba fc95 86ba
00000100: 6a16 0dba 436b c73a 8dbf adba a63c 9039
00000110: 286a aeba d045 243a ed24 8eb9 eb24 92b9
00000120: a1a6 403a ca35 bdb8 ae28 7d3a 0e8d 8ab9
00000130: 159b 7c3a a579 b9b9 0e44 813a aef5 13ba
00000140: 18f2 04ba a2e0 0bba ec70 b03a 6307 92b9
00000150: 73b1 943a e7f0 443a bd5f 063a 4283 87ba
00000160: d4c7 1db9 fcee d4b8 1fdf 5839 c9ba 073a
00000170: 5b61 99b9 782d 0bba e638 033a 3f06 823a
00000180: 6295 63ba 64b9 9939 f68e 86ba 14ea 06bb
00000190: d818 c439 2f6c b2b9 c635 9bb9 1356 72ba
000001a0: be46 04b9 4bb7 383a 9a87 bd39 e374 4239
000001b0: fe32 e7ba b46f 0eb9 403e 8c38 83b8 d0b8
000001c0: 2167 91ba 700a 803a 5b6f 2638 b73e 69ba
000001d0: 0b68 dbb9 6d15 6b3a c121 4f3a 3ede 6e3a
000001e0: b1f4 a2ba 606a 04ba c4ef 2c3a f6f7 b3ba
000001f0: 3806 333a 2f48 43ba 515f 9fb9 8f34 e7b8
00000200: e7c8 ef3a fbec 22b7 558e bf3a a734 1bba
00000210: 1bea 2fba dadf cfb9 594f bcb8 886f 37ba
00000220: b8a4 a3b9 4e30 23b9 b579 49ba 3e62 7f3a
00000230: 7f58 8639 9a3d ca3a 3cc4 b239 5665 91ba
00000240: f65e a63a 54cc fd3a 1898 943a 34a6 64ba
00000250: 5b49 f839 6318 b7b9 9a7c 493a 64a8 6cba
00000260: fa38 9db8 51a3 18bb a491 fc39 d991 63ba
00000270: 066a 59b9 21eb aa3a bc77 4d3a abbb ae3a
00000280: 7f2e cd39 24d3 fbb9 e8b4 ceb9 2280 613a
00000290: 3d3f 15ba 6a3d 4db9 ae09 70ba 3c5a 3f3a
000002a0: 38b2 13ba 2fd9 89ba 3bd7 0939 c084 6d37
000002b0: f09a d1b8 a658 7e3a 070f 62ba 1acb e5b9
000002c0: a78a f7b9 28ff 803a ddd9 70b9 a1bc 9339
000002d0: e8d9 78b9 52d1 f4b9 37ab a83a 7a4f e039
000002e0: 1c25 98b9 d973 b0b7 f264 2739 d6b9 cb39
000002f0: ec1c 0cba 5803 6f3a ef5f 42ba 8d62 92ba
00000300: 2b2b 0f39 8149 aeba 2490 123a 9052 40b9
00000310: 17ba 85ba ff95 433a 09a8 1b3a a4cc 8038
00000320: 87a9 b9b9 4abb 2c3a 0d06 36b9 da2c c538
00000330: b882 1538 8a0b 00ba c1b3 01ba b8a6 083a
00000340: 6d5b 10b9 f7b6 8c3a cf20 433a 2733 a639
00000350: 3382 79b7 6880 8c39 0004 383a 1ccf 563a
00000360: 1c9c 70b9 3f68 ee39 617f e639 6ec8 e439
00000370: 8557 65ba ab38 50b9 fd6d 64b9 9c46 ddb8
00000380: c19d 513a 77ef 6d3a d3e4 14b8 0ccc 2e38
00000390: 13de 353a c69f 6cb9 4258 ae39 4497 06bb
000003a0: 53bf 3db8 302c bcba 4fe7 fc37 77d8 35ba
000003b0: 9a49 a23a 495a 2938 beed 093a 94bc 17b9
000003c0: 0a68 95b9 dd12 f6ba 4bbf 68b9 2495 233a
000003d0: 8d35 f938 7f05 433a 8387 2aba 4639 e7b9
000003e0: 6763 38ba e1fb 713a 8dd6 d9b8 65c9 b53a
000003f0: aa7e adb9 946c 5bba 5ff9 4dba da41 a039
-0.00093155424 -0.0007099055 -0.001670088 -0.00030570454 0.0006719404 0.0006851658 -0.0010414843 0.00051564875
4.1908213e-05 -1.9751666e-05 -0.00038679078 -0.00054357346 0.0011485455 -0.0021586216 -2.7794955e-05 0.00055729144
-0.0012133443 0.0010453255 -0.0001373091 -0.00016594192 0.0004416762 -9.709374e-05 -9.178587e-05 0.0013011446
-0.00017981125 0.0008708825 -0.00042765483 -0.0008952202 -0.0005110429 0.00015884472 -0.00050250394 0.0004995748
0.00013390355 0.000119372766 0.00011379056 0.00028111864 -0.0010903165 -0.0014631181 0.00079790276 0.00038789422
-0.00035673633 -0.00030355787 2.415589e-06 -0.0003898838 0.00034705887 -0.0012224886 0.00030701063 -0.0008543491
0.00051591446 0.0002114096 -0.0005287766 -0.0010666567 -0.0008661403 -0.00015195347 0.0006952582 0.001013947
0.0010501281 -0.00024901857 -0.0007865628 -0.0010325308 0.00023406169 0.0014070654 -0.0011038507 -0.0010268087
-0.0005382063 0.0015214462 -0.0013255939 0.00027511007 -0.0013306784 0.00062665064 -0.00027111862 -0.00027874796
0.00073490484 -9.022241e-05 0.0009657246 -0.00026426505 0.0009636146 -0.00035376582 0.0009862201 -0.0005644214
-0.0005071475 -0.0005335902 0.0013461388 -0.00027852794 0.0011344388 0.0007512704 0.00051259605 -0.00103388
-0.00015047129 -0.00010153462 0.00020682484 0.00051776745 -0.0002925497 -0.00053092046 0.0005005732 0.0009920074
-0.00086816226 0.0002932056 -0.0010265994 -0.0020586299 0.00037402543 -0.0003403141 -0.00029603968 -0.00092443934
-0.00012614854 0.0007046356 0.0003614992 0.00018544825 -0.0017639098 -0.00013583788 6.687315e-05 -9.952581e-05
-0.0011093357 0.0009768736 3.9681192e-05 -0.000889759 -0.00041848453 0.0008967731 0.0007901453 0.0009112096
-0.0012432543 -0.00050512515 0.0006597007 -0.0013730514 0.0006829235 -0.0007449416 -0.0003039786 -0.00011024728
0.0018294126 -9.711129e-06 0.0014614562 -0.00059206266 -0.00067106046 -0.000396489 -8.979318e-05 -0.00069975154
-0.00031212508 -0.00015562886 -0.0007685677 0.0009742117 0.00025624406 0.0015429736 0.00034097012 -0.0011092823
0.0012693095 0.0019363263 0.0011336831 -0.0008722276 0.000473569 -0.0003492265 0.00076861086 -0.00090277777
-7.496956e-05 -0.0023290704 0.00048173696 -0.0008681096 -0.0002073423 0.0013040045 0.0007837971 0.0013331076
0.0003913529 -0.00048031763 -0.00039426167 0.0008602162 -0.0005693322 -0.00019573202 -0.0009156716 0.0007299518
-0.00056341616 -0.0010516996 0.00013145518 1.4157209e-05 -9.994756e-05 0.00097025407 -0.0008623455 -0.00043829606
-0.00047214815 0.0009841667 -0.00022969344 0.00028178564 -0.000237323 -0.00046695262 0.0012868409 0.00042783824
-0.00029019348 -2.103478e-05 0.00015963966 0.00038857636 -0.0005344886 0.0009117625 -0.0007414808 -0.0011168286
0.00013653624 -0.0013297052 0.00055909366 -0.00018341304 -0.0010202554 0.0007461011 0.000593782 6.141633e-05
-0.00035412257 0.00065891875 -0.00017359127 9.402046e-05 3.564611e-05 -0.0004884532 -0.0004947745 0.00052128313
-0.00013766969 0.001073568 0.00074435485 0.000317001 -1.4871871e-05 0.0002679855 0.0007019639 0.0008194314
-0.00022946339 0.00045472567 0.00043963923 0.0004363688 -0.0008748698 -0.00019857536 -0.00021784748 -0.00010551253
0.00079962244 0.00090765156 -3.549906e-05 4.1674866e-05 0.00069376937 -0.00022566234 0.00033253623 -0.0020536939
-4.5239296e-05 -0.0014356431 3.0148452e-05 -0.0006936858 0.0012381554 4.0376824e-05 0.00052615616 -0.00014470733
-0.0002849701 -0.0018773932 -0.00022196506 0.000624018 0.0001188322 0.00074394786 -0.0006505178 -0.00044102425
-0.0007033855 0.00092309533 -0.000103873295 0.0013869224 -0.00033091503 -0.00083703664 -0.00078572886 0.0003056664

nn.block2.batch.running_mean f4 [256]
00000000: 5ef2 643e 0104 f73e 717e 433e df9c d43d
00000010: bc7b 433e f997 293e 3051 343e 2435 9b3e
00000020: b006 663e 4c3c 2f3e 1400 623e a709 1a3f
00000030: 3f4c 0e3e 32fb 863e e37e 5b3e de0d ae3e
00000040: dfc1 8c3e 762e 633e 5ce6 8a3e 9b79 7d3e
00000050: 1bd8 ae3e f3be 143e 4aae ca3e 1c97 043e
00000060: 77e2 9f3e 6dae ac3e eac2 3f3e 6465 083e
00000070: e71d 403e 9dd8 eb3e 51d6 613e 6c9d 0f3e
00000080: 3c9c b73e cef5 073e d442 233e d1af ec3d
00000090: 9a36 873e ac25 3e3d 58b6 6a3e 50fa a83e
000000a0: a0df 323e bd40 9a3e caf8 e13e 9263 fb3e
000000b0: c653 9b3e 5dca 583e 704d b93e 9129 673e
000000c0: f50a 283e 24b3 913d f941 6c3e 605e 603d
000000d0: fa4a b33e f1d4 513e 1f2f 493e 8ca0 f13d
000000e0: a01e ef3e bf6f cc3d d582 093e 7678 463e
000000f0: 97b7 4b3e eb15 3b3e 9555 dd3d b027 303e
00000100: dee5 6c3e c064 963e c3d5 923e 2ab0 d53d
00000110: f69c 813e a9df 8e3e d9b6 433e 469a 263e
00000120: 4fa7 b53d 7c4b af3d bb16 6d3e 92e2 213e
00000130: d03b 583e 89ef 283e e6bf a33e 4f52 223e
00000140: a400 503e e61e 133e b829 133e 45fd 163e
00000150: 6d9c fa3d d99d 3d3e b3cd 2a3e 109b 893e
00000160: 0258 8c3e 018a d93d b52c 033f e2e8 6a3e
00000170: 309e 513e eeaa 9c3e 0724 1d3e 3585 d43e
00000180: d4b6 4c3e 160b 963e f755 5b3e c6b7 793e
00000190: 3bc8 5c3e d1ce 9f3e edc9 1b3e afe5 1b3e
000001a0: 98dd d03e b551 423e 7bb5 ef3e b254 803e
000001b0: cb2d 593e 7524 973e cda4 dc3e 8089 2d3e
000001c0: 1cb5 693e 3b61 c63e 2a4a 893e 8d41 183e
000001d0: 6288 813d f3e0 633e 6527 543e 6aae 103e
000001e0: e457 e13d 945e ef3d 84f5 d23d f05c f73d
000001f0: d7be 8f3e 61ac aa3e a0ce 8a3e c8b2 d73d
00000200: 809a 4a3e a5ef 493e 5881 733e 0c29 813e
00000210: 2fb6 583e 2b79 c33e 7660 b13e e7d3 e43e
00000220: 7574 093e d435 dd3d d6bd 523e 0357 273e
00000230: 2f4b a43e ad3d e63d 703a 433e 2244 2d3e
00000240: 61ce a03e 9d48 bd3d 94da 9b3e 86b7 bb3e
00000250: 8210 353e 6089 ab3e c67d a43e 7a02 a33e
00000260: 4768 cc3e 90a7 163e 422b 203e 4a62 343e
00000270: 27e2 ac3e 842f 1e3e 0ed7 b93d 2faa 323e
00000280: ef26 523e a93f b53d a511 713e e355 5d3e
00000290: a605 113e b43b 073f 796c 8d3e 60de 883e
000002a0: 4dd5 1c3e 2d8d d63d a3ab 843e c4c9 1a3e
000002b0: 426c 813e 7772 353e 7b74 8c3e e0aa e43d
000002c0: 564e e03d e2e4 9f3e 52bb 3b3e 722d 083e
000002d0: 4d6c 0c3e a2c4 193e bb21 853e 0951 0c3e
000002e0: 5098 503e 1a93 b83e c06e 4e3e 15a4 be3d
000002f0: c207 fd3d a1e2 993e 5984 d63d e0f1 2e3f
00000300: e906 763d 875d f73d 7ce4 913d 2e21 2d3e
00000310: 9fda 3d3e c89c ee3e 579c 643e d0e9 5f3e
00000320: ec7e 1d3e e824 dd3d 4e06 9d3d 9a8c ae3e
00000330: 3a9d 133e d23f 523e 80fc 563d 80ef 183e
00000340: 4098 613e 7f14 8c3e 7234 a33e 8278 983e
00000350: 0d7a 2f3e 063d 8d3e fe69 103e 092c 7c3d
00000360: 6917 253e 625f 5c3e 3ed7 f83d eba7 193e
00000370: 17b8 b73e ac80 093e bdc8 c93e 3f33 f63d
00000380: 823f 963e 7e16 803e 5af4 af3e 6288 3a3e
00000390: c7c0 c03d ebb5 aa3e 6674 6e3e 38cd fa3e
000003a0: 247d a13e 5e9e 663e 1ddc 183e b74a 963e
000003b0: 6b34 9a3e d106 6a3e 17b2 113e cec7 4c3e
000003c0: b0b5 ae3e e053 b63e 7b20 8e3e 7120 8f3d
000003d0: 8853 ed3d 9b31 923e 340e 693e 7cc5 663d
000003e0: c857 9d3e 72c3 5f3e 35b2 273e bd66 6d3e
000003f0: 9dc1 343e b69b 373e 68ec d93e 718e 3c3e
0.2235808 0.48245242 0.19091202 0.10381483 0.1909017 0.16561879 0.17609096 0.3031398
0.22463489 0.17112845 0.22070342 0.6017098 0.13896273 0.26363522 0.21435122 0.33994955
0.27491662 0.22185692 0.27128875 0.2475342 0.3414925 0.14525966 0.39586097 0.12948269
0.31227466 0.33726826 0.18726698 0.13319927 0.18761407 0.460637 0.22054411 0.14024895
0.35861385 0.13277361 0.15943462 0.11556972 0.26408845 0.046422645 0.22921121 0.33003473
0.17468119 0.30127516 0.44135123 0.49099404 0.30337352 0.21170945 0.36191893 0.2257445
0.1641043 0.071142465 0.23072042 0.054777503 0.3501814 0.20491387 0.19646882 0.117982
0.46703053 0.099822514 0.13428815 0.1938189 0.19894253 0.1827008 0.10807339 0.1720264
0.23134562 0.2937374 0.28678712 0.10433991 0.25315064 0.27905014 0.1911272 0.16269788
0.08869802 0.085593194 0.23153202 0.15809086 0.21116567 0.16497625 0.31982344 0.1585171
0.20312744 0.14367256 0.14371383 0.14745052 0.12236867 0.18517245 0.1668003 0.26876116
0.27410895 0.10622025 0.5124009 0.229404 0.204705 0.3059916 0.15345775 0.4150788
0.19991618 0.29305333 0.21419512 0.2438651 0.21560757 0.31212476 0.15213747 0.15224336
0.40794063 0.18976481 0.46818146 0.25064617 0.21208875 0.29520002 0.43094483 0.16946983
0.22822994 0.38746056 0.26814395 0.14868756 0.06324841 0.2225378 0.20718153 0.14129034
0.11003092 0.11687961 0.10300735 0.12078273 0.28075287 0.3333464 0.27110767 0.10532147
0.197855 0.19720323 0.2377981 0.2522663 0.21163248 0.3817838 0.34643906 0.4469292
0.13423331 0.108012825 0.20580229 0.16341786 0.3208861 0.112422325 0.19065261 0.16920522
0.31407455 0.092423655 0.304402 0.36663455 0.17682078 0.33503246 0.32127208 0.31837827
0.39923307 0.14712358 0.15641502 0.1761562 0.3376629 0.15447813 0.090742216 0.17447732
0.20522664 0.08850033 0.23541887 0.21614794 0.14162311 0.52825475 0.2762182 0.2673216
0.15315743 0.10476146 0.25912198 0.1511603 0.25277907 0.17719446 0.27432618 0.11165404
0.109524414 0.3122931 0.18333176 0.13298586 0.13713188 0.15016416 0.26002297 0.13702787
0.20370603 0.3604973 0.20159435 0.0930864 0.12354995 0.30055717 0.10474462 0.6833782
0.060065184 0.12078386 0.07123658 0.16907188 0.18540429 0.4660399 0.22325264 0.21866536
0.15380448 0.10798055 0.07667218 0.34091645 0.14415446 0.20532158 0.052486897 0.14935112
0.22030735 0.27359387 0.3187595 0.2977944 0.17136402 0.2758562 0.14102933 0.061565433
0.16122212 0.2152076 0.12150429 0.15005462 0.35882637 0.1342799 0.39410964 0.12021493
0.29345328 0.2501716 0.34366113 0.18216088 0.09411769 0.33341917 0.2328659 0.48984694
0.31540787 0.2252135 0.14927717 0.29353878 0.30118117 0.22854163 0.14228092 0.19998094
0.34122992 0.35610867 0.27759156 0.069886096 0.11588198 0.2855347 0.22759324 0.05634068
0.30731034 0.218519 0.16376574 0.23183723 0.17651983 0.17930493 0.42563176 0.18413712
