statedicts/pl_statedict_db_2022-04-21_STAR_NOMINAL_400s_P0_R1_s1_seed_1.ckpt (torch, 193785 bytes, 29 tensors)

nn.input_batch.weight f4 [5]
000000 e3 65 83 3f 54 b6 80 3f bb a7 7b 3f ea 86 80 3f
       1.0265468 1.0055642 0.9830281 1.0041173
000010 89 36 7c 3f
       0.98520714

nn.input_batch.bias f4 [5]
000000 c4 95 8b bb 79 df 25 bc 28 74 9b bc 2b 0c 30 bd
       -0.004259797 -0.010124081 -0.018976286 -0.042980354
000010 79 84 1e 3c
       0.009675139

nn.input_batch.running_mean f4 [5]
000000 4a 0a c9 3f 48 ec 83 3d c9 75 42 40 0d 58 3d 40
       1.5706265 0.064415514 3.038439 2.9584992
000010 a1 6e 6c 3e
       0.23089077

nn.input_batch.running_var f4 [5]
000000 fa b6 9a 3c 9d 7e 35 34 51 8c 32 3b cf 8b 83 3a
       0.018886078 1.6903e-07 0.002724428 0.0010036173
000010 ea 08 a4 3a
       0.0012514864

nn.block1.linear.weight f4 [96, 5]
000000 fa 04 84 bd 57 57 82 3e 96 db 3a be 1c 02 99 be
       -0.06446262 0.2545726 -0.18247828 -0.29884422
000010 ae a3 c2 be 04 f6 21 bd 40 f5 76 3d 77 bf 31 be
       -0.38015503 -0.03954126 0.060292482 -0.17358194
000020 c9 60 b4 be 5c 9b d4 3e 31 cc 00 3e 6a ef 81 be
       -0.3523009 0.4152478 0.12577893 -0.2537797
000030 71 3c 24 be 05 8d c6 be fa 62 13 3e 2f cb df be
       -0.16038682 -0.38779464 0.14393225 -0.43709704
000040 40 33 20 be 88 b4 ab be d5 c9 b2 be 2b b2 02 be
       -0.1564455 -0.33536172 -0.3491961 -0.12763278
000050 de 35 5a 3e ad cf d1 3e 4f 1e 85 3e 5d 61 c9 3c
       0.21309611 0.40978757 0.25999686 0.02458256
000060 94 4e d7 bd b6 30 27 3e b7 53 a1 3b 0d 24 a1 be
       -0.105130345 0.16327175 0.0049233097 -0.31472817
000070 83 5c b8 be d7 ee b8 3d 85 f4 6f be 27 a1 bc be
       -0.3600808 0.0902993 -0.2343312 -0.368417
000080 c7 6c 9d 3e c9 c7 dd bd e4 f1 b0 be 15 32 e7 bd
       0.30747053 -0.108291216 -0.34559548 -0.11288849
000090 dc 9f c4 3e 92 8d b4 be 35 0d d3 3e d0 16 01 3e
       0.38403213 -0.3526426 0.41221014 0.12606359
0000a0 a5 71 c2 be 0c 61 46 be 60 c7 85 3d f0 23 84 3e
       -0.3797733 -0.19372958 0.065321684 0.25808668
0000b0 4b 0f c7 bd 35 0f 96 3e 33 a7 4d 3e f1 ec 8b 3e
       -0.09719714 0.29308477 0.20083313 0.2732921
0000c0 40 19 31 bd 41 b9 c9 bd 1a 82 af be fd 42 e3 be
       -0.04323697 -0.098497875 -0.34278947 -0.44387046
0000d0 bd af 91 be e7 40 6b be b6 a7 93 3d a7 75 9d 3e
       -0.2845439 -0.22973977 0.07209723 0.30753824
0000e0 f0 f7 65 bd 21 e9 c7 bd da 7a f8 bd 84 90 cd 3e
       -0.056144655 -0.09761263 -0.12132807 0.4014932
0000f0 59 db 94 3e e6 c2 c6 be d5 4f 81 3e 16 4a c0 bd
       0.290736 -0.3882057 0.2525622 -0.09389131
000100 cf e7 8a be d5 92 30 3e bd 27 81 3e 62 ff dd 3e
       -0.2712998 0.17243512 0.2522563 0.43358904
000110 83 7e 01 3c ee 75 38 3e 71 48 18 3d 2e 47 ae 3e
       0.007903698 0.18013737 0.03717846 0.3403868
000120 6c c7 9a be 30 52 e4 be dc d1 02 3e ac 7f 8a 3d
       -0.30230272 -0.44593954 0.12775367 0.06762633
000130 df d4 33 3e 54 12 80 3e 76 60 cc bd e8 ac b6 be
       0.17561673 0.25013983 -0.09979336 -0.35678792
000140 4a 2a 12 be b1 92 c3 bc fc ca a8 be 8c 5c a2 3d
       -0.14273944 -0.023873659 -0.32967365 0.07927808
000150 04 8c 91 3e d9 fa 60 bd 4a 1b 34 3e 4c e8 3f 3e
       0.28427136 -0.054926727 0.17588535 0.18740958
000160 88 a2 df 3e 02 d8 af bb 99 74 99 bd 7e 92 34 3d
       0.4367869 -0.0053663263 -0.07492942 0.04408502
000170 2d e3 38 be 6a 48 b0 3e 1b ac e3 3c 1b 64 be be
       -0.1805541 0.34430248 0.027792027 -0.3718575
000180 3f 08 92 be 61 ed 3d be 37 85 64 3d 75 fa 62 bd
       -0.28521916 -0.18547584 0.055791106 -0.055414636
000190 d8 3b 7d 3e 3d 17 b0 3e 83 97 97 bd 78 34 dc bc
       0.2472986 0.3439273 -0.074019454 -0.026880488
0001a0 8d 6a cf 3e a0 c8 a1 bd 4b 5f 8b 3e 6e aa 96 be
       0.4051098 -0.07899594 0.2722114 -0.29426903
0001b0 db 42 86 3c 73 c2 86 3e 36 be cb be 6b 60 9c be
       0.016389301 0.26320228 -0.39793557 -0.3054231
0001c0 57 10 d8 bd 3a 05 b8 be 1b 89 d5 3e d4 48 da 3c
       -0.105499916 -0.35941488 0.41706166 0.026646055
0001d0 aa 8e 2f 3e ba 3f df be 3f e4 99 be df d9 14 be
       0.17144266 -0.43603307 -0.3005695 -0.14536236
0001e0 1f 91 3c bd 36 b2 bd be ba b4 d7 3d 6d 18 61 3e
       -0.046036836 -0.37050027 0.10532518 0.21981974
0001f0 f8 86 da be 28 55 a5 be 72 07 2c 3d 62 c4 ba 3c
       -0.42681098 -0.32291532 0.041999288 0.02279872
000200 cc 22 9f be 2b 93 93 3e 58 74 9a bd 01 89 83 3e
       -0.31081235 0.28823218 -0.07541722 0.25690463
000210 de c9 b4 be c1 5b ac bd da dd 8f be 3e 4d 76 bd
       -0.35310262 -0.08415938 -0.28098947 -0.060132258
000220 f6 4e 98 3e de 48 2c 3e a5 8b db be c9 14 23 3e
       0.29747742 0.16824672 -0.42879978 0.15925898
000230 da 9d b5 be da 10 74 be 51 30 81 3e b4 e3 8c 3e
       -0.35471994 -0.23834553 0.25232175 0.27517474
000240 a0 9b 7a 3e ac 42 88 3d 95 a5 fa 3c 05 8c 88 be
       0.24473429 0.06653342 0.030596534 -0.26669326
000250 fb 17 c3 be 90 b5 16 be b8 88 9f be 18 a1 d2 3e
       -0.38104233 -0.14717698 -0.31158996 0.4113853
000260 10 3d 09 3e 13 22 b9 3d f6 e8 32 3e b2 53 83 3e
       0.134022 0.09039702 0.1747168 0.25649792
000270 7d fe 0e bd 82 e6 0c 3e b1 a2 d4 be 9a b7 c0 3e
       -0.034910668 0.13759807 -0.41530374 0.37640077
000280 17 89 cf 3e ca 14 93 3e 07 7d 48 3e dd 9d 64 3e
       0.4053428 0.28726798 0.19578944 0.22325845
000290 f6 2a 12 3e 3f 80 28 3e 2d 69 15 bd ff 49 f7 3c
       0.14274201 0.16455172 -0.036477257 0.030186651
0002a0 5d ab bd be aa da 9f bd bf 3b bc 3d e6 ff d4 be
       -0.37044802 -0.07805379 0.09191083 -0.41601485
0002b0 db b3 45 be 86 71 20 bd 6a ba c9 3e e8 41 df 3e
       -0.1930689 -0.039170764 0.39400035 0.4360497
0002c0 ba 8f ce 3e c7 50 a2 3d 5a de b5 be 2d 69 a3 be
       0.4034403 0.07925563 -0.35521203 -0.3191618
0002d0 97 7b d4 3d d5 29 95 3d d0 09 28 3e 49 04 e1 be
       0.103751354 0.072833695 0.16409993 -0.43948582
0002e0 5f 27 89 be 42 01 92 be a3 0e bd 3e 51 8d e1 be
       -0.2678785 -0.28516585 0.3692523 -0.44053128
0002f0 9f c3 61 be af e9 9a 3e 46 ad 96 bd f9 b4 ac be
       -0.2204728 0.3025641 -0.07357268 -0.3373182
000300 2b 10 a8 be f4 16 9d 3d 32 79 b9 3e b1 38 72 3e
       -0.32824835 0.076703936 0.36225277 0.23654439
000310 00 a1 46 3e ea 5d 64 be 95 1e a2 3d 1f 7b a7 be
       0.19397354 -0.2230145 0.07915989 -0.3271112
000320 c3 ed 8d be 2b ac 65 be 9c 71 74 3e 08 4d 1f be
       -0.2772046 -0.22428958 0.23871464 -0.15556729
000330 18 6e c4 be 93 ab 71 3e 82 b3 50 bd 0a f6 bf 3d
       -0.38365245 0.23600607 -0.050952442 0.093731
000340 c5 e9 42 3e 4e 53 97 bd e6 2d 20 3e c4 5e 9f 3e
       0.19034488 -0.07388936 0.15642509 0.31126988
000350 1f ac 06 be 93 20 ac 3e 30 a2 e4 3d 0c 8e 18 3c
       -0.13151596 0.33618602 0.11163747 0.00931121
000360 af 3a bc be b7 a2 ad 3e 75 9e d0 3d d1 b5 90 3e
       -0.36763522 0.33913204 0.10186473 0.28263715
000370 13 c4 7e 3d 6a da 6d 3e 75 fc b4 3e 58 b6 56 3d
       0.06219871 0.2322785 0.3534886 0.05241999
000380 cc e4 67 3d c4 6b d0 be e5 7f c9 bd 64 66 9d be
       0.056614682 -0.4070722 -0.09838847 -0.3074218
000390 fe 00 c1 3e 70 e4 c4 3d 88 15 ad be f7 39 f4 bd
       0.3769607 0.096138835 -0.3380549 -0.119251184
0003a0 0c f4 13 be 96 76 bc 3e 60 f0 80 3e b3 6e 35 3e
       -0.14448565 0.36809224 0.25183392 0.1771801
0003b0 a0 7b a3 3e d1 a6 89 be c5 7e 41 3e f1 d6 5a be
       0.31930256 -0.26885083 0.18896015 -0.21371056
0003c0 ea 90 a0 bd 4c 08 06 be b7 68 08 3e b9 06 e2 3e
       -0.0784014 -0.13089103 0.13321196 0.44145754
0003d0 0b fe c5 3e 85 f7 62 be b9 d8 b9 3e c2 e9 17 be
       0.38670382 -0.22164734 0.3629816 -0.14835265
0003e0 c4 92 68 bd 03 bc 53 be f3 45 b7 be 21 3d 16 be
       -0.05678059 -0.2067719 -0.35795555 -0.14671756
0003f0 f7 b3 9e bd 38 80 d9 be 44 13 47 3e c0 24 57 bd
       -0.07749169 -0.42480636 0.19440943 -0.052525282

nn.block1.linear.bias f4 [96]
000000 90 24 95 be 5a c3 b4 be f2 9a 54 bc 95 07 bd be
       -0.29129457 -0.3530529 -0.012976395 -0.36919847
000010 bc 74 6f be d8 54 90 3e 4f c0 2e 3e 90 42 a6 be
       -0.23384374 0.2818973 0.17065547 -0.32472658
000020 74 f2 95 bd 97 99 4a be ac 0a 1d 3e 92 01 37 bd
       -0.07321635 -0.19785152 0.15336102 -0.044679232
000030 f0 d9 3a 3e 24 fc e5 3d c4 fc c1 3d 72 59 96 3e
       0.18247199 0.11229733 0.09472039 0.29365116
000040 dc 3b 2d 3e f8 99 e5 be 10 72 c5 3e 77 54 b8 be
       0.16917366 -0.4484403 0.38563585 -0.36001942
000050 8a e0 87 3e 1c b6 2d bd 28 7a 65 3e ff d5 31 be
       0.26538497 -0.04241 0.2240988 -0.1736679
000060 fb 20 50 bd ae ac f3 bd 8f f3 d2 3e 5a e1 80 be
       -0.050812703 -0.118981704 0.41201445 -0.2517193
000070 3b 2b 8d 3e 9e 74 c3 be 4a 20 07 3e d7 f4 b9 be
       0.27572045 -0.3817491 0.13195911 -0.3631961
000080 1d cc 84 be bb 79 76 3e 8f 6f 92 3e 10 e6 89 bd
       -0.25936976 0.24069874 0.28600737 -0.06733334
000090 3d e1 b8 be 1c 85 af be d6 50 b1 3d f5 24 81 3e
       -0.36109343 -0.34281242 0.08657996 0.25223508
0000a0 9d 5c 36 3e d7 8f e8 be f0 de 5c be a8 a4 37 3e
       0.17808767 -0.4542224 -0.21569419 0.17933905
0000b0 c6 c2 a0 3e 95 e4 63 3e f9 4f d5 bd cf fa 80 bd
       0.313986 0.22255166 -0.10415644 -0.06297838
0000c0 6a 65 19 be 8d 36 28 be bc ef 90 bd 5a f6 14 3e
       -0.14980093 -0.1642706 -0.07076976 0.145471
0000d0 a8 ae 84 bc 2e 90 ce 3d 91 74 3a bd 96 38 6e 3e
       -0.016196564 0.10086094 -0.045521323 0.23263773
0000e0 cd df 39 be 96 0d 44 3d 24 2c b9 bc 5c 1d 9a be
       -0.1815178 0.04786452 -0.022604056 -0.30100524
0000f0 7e c0 8c bb 1b da c3 3d 40 38 a2 3d ed c3 bf 3d
       -0.004295408 0.09563085 0.07920885 0.09363542
000100 f0 73 54 be 01 30 ad be 94 0a 1f 3e fc 11 18 3d
       -0.20747352 -0.33825687 0.15531379 0.037126526
000110 db 70 61 be 36 a4 e3 3e 28 27 2a 3e a9 54 c1 3e
       -0.22015707 0.4446122 0.166165 0.37759903
000120 67 4c c0 be fc 36 dc 3d ef 0e da be 6e 2a 85 be
       -0.3755829 0.10752675 -0.42589518 -0.26008934
000130 0b 76 ee 3d 59 71 3d 3e 42 d3 27 3e cc b8 68 3e
       0.11643609 0.1850027 0.16389182 0.22726744
000140 a9 28 7d be fc 52 21 be ae 0d a4 bd 0e 05 82 3d
       -0.24722542 -0.15754312 -0.08010422 0.0634862
000150 e1 f4 6a 3d 4c a3 60 be 68 e2 ac 3e 44 5e d8 be
       0.05736244 -0.21937293 0.33766484 -0.4225942
000160 fc e7 7c 3e 68 e3 d6 be 22 17 e0 be c7 e7 0e bb
       0.2469787 -0.41970372 -0.4376765 -0.002180563
000170 cf f7 cd 3e 3b 7c 19 bd 19 f4 ca bc 6e 06 a6 3e
       0.40228125 -0.03747199 -0.024774598 0.3242678

nn.block1.batch.weight f4 [96]
000000 c0 7b 7f 3f 6f 5d 80 3f 9f 2c 80 3f 55 62 80 3f
       0.997982 1.0028514 1.0013617 1.0030009
000010 66 d4 7f 3f d9 cb 7e 3f 40 f1 7f 3f 55 ba 7f 3f
       0.9993347 0.99529797 0.99977493 0.99893695
000020 d1 cf 7f 3f cb 42 80 3f 10 46 80 3f 8c 96 7f 3f
       0.9992648 1.0020384 1.0021381 0.9983909
000030 ae 3b 80 3f 71 ac 80 3f ee 18 80 3f d0 ca 7e 3f
       1.0018213 1.0052625 1.0007608 0.9952822
000040 d9 21 80 3f 1f 75 7f 3f 8a 37 7f 3f 39 51 80 3f
       1.001033 0.9978809 0.9969412 1.0024787
000050 33 2f 80 3f 37 2b 80 3f f2 ed 7f 3f 73 e1 7f 3f
       1.0014404 1.0013188 0.9997245 0.99953383
000060 11 02 80 3f 17 d9 7f 3f 83 1f 80 3f fa 85 7f 3f
       1.0000631 0.9994063 1.0009617 0.99813807
000070 8c 38 80 3f cf 08 80 3f fb 0f 80 3f f4 06 7f 3f
       1.0017257 1.0002688 1.0004877 0.99619985
000080 82 5d 80 3f 45 ee 7f 3f 3d 3f 80 3f 42 16 80 3f
       1.0028536 0.99972945 1.0019299 1.0006793
000090 30 b3 7e 3f 0f 22 80 3f e9 86 7f 3f 2b 5d 7f 3f
       0.9949217 1.0010394 0.9981523 0.9975154
0000a0 c8 6c 80 3f d2 92 7f 3f 28 cd 7f 3f 14 4d 80 3f
       1.0033197 0.99833405 0.9992242 1.0023522
0000b0 0e 57 80 3f 23 b5 80 3f 41 8b 7f 3f 44 ac 80 3f
       1.0026567 1.0055279 0.9982186 1.0052571
0000c0 59 46 80 3f fd 2e 80 3f f2 65 80 3f 1c bf 7f 3f
       1.0021468 1.001434 1.0031111 0.99900985
0000d0 83 15 81 3f 68 04 80 3f 27 1f 7f 3f 35 0a 80 3f
       1.008469 1.0001345 0.9965691 1.0003115
0000e0 2b 1f 80 3f 05 b9 80 3f 7b 32 80 3f 2b 3a 7f 3f
       1.0009512 1.0056463 1.0015405 0.9969813
0000f0 65 46 80 3f 10 ee 7f 3f ce ed 7e 3f 34 91 7f 3f
       1.0021483 0.9997263 0.9958161 0.9983094
000100 c1 92 7e 3f b2 53 80 3f 21 94 80 3f 62 44 80 3f
       0.9944268 1.0025542 1.0045205 1.0020869
000110 fd 2d 7f 3f fa b0 7f 3f b7 ec 7f 3f 5a 58 80 3f
       0.9967955 0.9987942 0.99970573 1.0026963
000120 b0 02 7f 3f 32 26 80 3f 48 7a 80 3f 1c d4 7f 3f
       0.99613476 1.0011656 1.0037317 0.9993303
000130 80 dc 7e 3f ca e2 7f 3f 00 fc 7e 3f 6a df 7f 3f
       0.99555206 0.9995543 0.9960327 0.9995028
000140 3a 4e 7e 3f 7a 90 7f 3f ec 08 80 3f e0 d8 7e 3f
       0.99338114 0.9982983 1.0002723 0.99549675
000150 6f 18 80 3f e4 3d 80 3f 87 b2 7f 3f 78 ec 7f 3f
       1.0007457 1.0018888 0.99881786 0.999702
000160 a1 73 80 3f 7b 02 7f 3f c8 bc 7f 3f cb 4e 80 3f
       1.0035287 0.9961316 0.9989743 1.0024046
000170 51 62 7f 3f b8 b7 7f 3f 27 53 7f 3f bc b8 7f 3f
       0.99759394 0.9988971 0.99736255 0.9989126

nn.block1.batch.bias f4 [96]
000000 cc 3e aa 3b 9a b5 74 3b 49 f5 81 3a ff 5b 5c 38
       0.0051954743 0.0037339688 0.000991502 5.2537765e-05
000010 28 b3 5d ba bc f3 1e ba 26 ab 2f bb dc 4f 0a 3a
       -0.00084571773 -0.0006063541 -0.0026804893 0.0005276182
000020 f5 af d6 ba 7c 60 16 bb 76 eb d6 ba 91 a8 d0 ba
       -0.0016379344 -0.0022945693 -0.0016397077 -0.0015919377
000030 87 df fa 3a d3 a1 f0 b9 26 c5 b2 38 56 9a 6c 39
       0.0019140103 -0.00045896936 8.524423e-05 0.00022564208
000040 97 ca 0c 3b a9 70 4a 3b 41 68 d8 b8 40 a0 87 3b
       0.0021483058 0.0030889905 -0.000103191014 0.0041389763
000050 12 fa 19 ba 17 27 08 bb ad 96 29 ba e8 96 3c 3b
       -0.000587375 -0.0020775252 -0.0006469291 0.002877647
000060 c3 80 52 3b 41 ed fb ba dc 3c 78 3b 1b 1b 50 3b
       0.0032120205 -0.0019220487 0.0037878072 0.0031754437
000070 47 d8 58 bb db 8a 90 ba 16 a6 6d 3a c5 d3 cc ba
       -0.0033087896 -0.001102771 0.0009065581 -0.0015627077
000080 44 0f 95 b9 48 09 5b 3a be 51 4d 3b f4 de a6 38
       -0.00028430868 0.000835557 0.003132924 7.957025e-05
000090 3d 37 0d ba a9 9d 9d 3a dc 10 c5 b9 59 38 5d 38
       -0.0005386954 0.0012025136 -0.0003758733 5.2742984e-05
0000a0 8c ec 8b ba 2c 88 fe ba 5d 70 49 bb 40 54 29 3b
       -0.0010675355 -0.0019419244 -0.003073714 0.002583757
0000b0 f7 40 47 3b 43 91 64 ba 19 7a 5b 3a 7d 11 0a 3b
       0.0030403712 -0.00087191554 0.0008372381 0.0021067553
0000c0 e9 6d f5 b9 ff 2d 42 ba 05 4d 6f ba 16 8d 4a 3b
       -0.0004681193 -0.00074073666 -0.0009128603 0.0030906848
0000d0 77 51 3f b9 58 b7 34 3a 7a 86 23 3a 91 06 da ba
       -0.00018245527 0.00068937754 0.0006237995 -0.0016634037
0000e0 73 71 ad 38 c5 9d ad bb 8c 28 00 3b 39 fa 7d 3a
       8.2704144e-05 -0.0052983486 0.0019555418 0.000968847
0000f0 8c 5c f6 38 4e a6 55 ba a3 d3 1e b9 61 74 9c 3a
       0.00011747432 -0.00081500865 -0.00015146895 0.0011936539
000100 f1 c0 4d 3a be 74 37 bb 8e 62 71 3a f2 1c be b9
       0.000784888 -0.0027993168 0.0009208106 -0.0003626119
000110 36 45 e7 39 07 95 eb 3a b4 17 4c 3b 63 b1 35 39
       0.0004411132 0.0017973491 0.0031142058 0.00017327587
000120 ad 87 c1 3b 0f 4a c5 3a 75 fe 84 3b f0 88 e1 39
       0.0059060664 0.0015051978 0.004058654 0.0004301737
000130 e5 9c 09 3b 0a cc 8b 39 eb 94 61 3b 15 cd a0 3a
       0.0020998057 0.00026664167 0.0034421037 0.001226815
000140 37 e4 ab 3a 0d c3 ef ba dc 25 3b ba f5 f3 3d bb
       0.0013114278 -0.0018292383 -0.00071391254 -0.002898452
000150 fe 12 da b9 32 be 53 bb 89 47 f1 ba 15 f8 65 3a
       -0.0004159435 -0.003230941 -0.001840816 0.0008772624
000160 58 79 45 3b 84 30 04 ba ff e5 a8 3a d9 38 dc ba
       0.003013214 -0.000504263 0.0012885927 -0.001680161
000170 1f 30 6c 3a 7c 04 87 3a 27 63 0b bb 75 42 af ba
       0.0009009856 0.0010301019 -0.0021268816 -0.0013371246

nn.block1.batch.running_mean f4 [96]
000000 a1 6e 0a 3e 37 a4 b5 3c 59 af df 3d 05 2b ed 3d
       0.13518764 0.02217303 0.10922117 0.11580471
000010 f6 46 73 3d eb aa a2 3e a0 8a cd 3e f1 3a 41 3e
       0.059393845 0.31771025 0.40144825 0.1887014
000020 81 c2 13 3e d9 25 d2 3d 41 67 82 3e 66 03 37 3e
       0.14429666 0.10261125 0.254694 0.1787239
000030 f6 9d b4 3e 8d ef 51 3e ce c2 51 3e f2 e2 e5 3e
       0.35276765 0.20501538 0.20484468 0.44899708
000040 cd 82 b8 3e 51 98 d0 3b 66 f7 dd 3e 10 3e 89 3d
       0.36037293 0.006365814 0.43352813 0.067012906
000050 65 18 b2 3e db 9b 4a 3e 08 31 a2 3e 26 c2 e6 3d
       0.34784237 0.19786017 0.31678033 0.112674996
000060 a3 e3 b8 3d a3 c1 c2 3d 63 df d5 3e 1b bc 8e 3d
       0.09027793 0.095095895 0.41771993 0.06969472
000070 be 1b d5 3e d6 6e 8a 3d 3a 56 5f 3e cf 67 80 3c
       0.41622728 0.067594215 0.21810237 0.0156745
000080 01 a9 9c 3d c9 c3 b6 3e da e6 ca 3e 23 a6 ae 3e
       0.076494224 0.35696247 0.3962925 0.34111127
000090 31 ba 42 3e 50 f6 e3 3d 14 cf b4 3e 0e 4d 8f 3e
       0.19016339 0.11130965 0.35314238 0.27988476
0000a0 89 c2 d6 3e 73 24 01 38 5a f3 08 3e 36 54 7f 3e
       0.41945294 3.0789943e-05 0.13374081 0.24934468
0000b0 b8 2c a8 3e 36 bb e5 3e 29 b8 90 3e a4 d3 d5 3d
       0.32846618 0.44869393 0.28265503 0.10440758
0000c0 af 3a 68 3e 97 6a 72 3d e6 f9 1b 3e 83 77 5b 3e
       0.22678636 0.059183683 0.15232047 0.21432309
0000d0 ac 1b 53 3e cf 1f af 3e 45 ee 90 3e 0c 8c 8a 3e
       0.20616025 0.34203956 0.28306785 0.27059972
0000e0 c6 aa 00 3e 5a b0 4e 3e 93 70 b4 3e 86 96 6e 3d
       0.12565145 0.2018446 0.35242137 0.05824902
0000f0 2c 2e 4c 3e b8 0e 3b 3e 48 36 89 3e 67 13 4c 3e
       0.19939488 0.18267334 0.26799226 0.19929276
000100 75 dd 2a 3c 36 d2 9e 3c 19 b2 39 3e 64 10 3c 3e
       0.010428776 0.019387346 0.18134345 0.18365628
000110 b2 a6 0a 3d 4d 09 e9 3e 5f 87 cb 3e 63 c6 0a 3f
       0.03385038 0.45514908 0.39751717 0.54208964
000120 cd d4 1a 3d da fe 66 3e 86 f7 e3 3d 63 42 26 3d
       0.0378006 0.22558156 0.11131196 0.040590655
000130 b3 d6 3e 3e c7 3a a5 3e 9c 62 99 3e 10 a0 90 3e
       0.18636589 0.32271406 0.29958045 0.28247118
000140 6b e3 6a 3e ef af 10 3e f9 d4 a1 3d d2 29 5f 3e
       0.22938316 0.14129613 0.079019494 0.21793297
000150 09 55 4f 3e 2e 70 85 3e 61 e1 c4 3e ff 34 ba 3b
       0.20247282 0.2606215 0.384532 0.005682587
000160 71 38 eb 3e 97 2e 85 3c d0 7c d4 3d c1 e6 59 3e
       0.459415 0.016257567 0.103753686 0.21279432
000170 fc ad fd 3e 93 a4 e6 3d 75 61 6b 3e 60 d4 bb 3e
       0.49546802 0.11261859 0.22986396 0.36685467

nn.block1.batch.running_var f4 [96]
000000 88 d4 a3 3d f8 67 a4 3b b1 0d fb 3c 28 ff 79 3d
       0.079995215 0.005017277 0.030646177 0.06103435
000010 ac db 1e 3c 97 32 f9 3d 75 f1 2e 3e 1f bc f8 3d
       0.009695929 0.12167852 0.17084296 0.12145256
000020 e2 5d 29 3d 5e 0d b8 3c 98 16 07 3e 21 46 d2 3d
       0.0413493 0.022467311 0.13192213 0.10267282
000030 46 30 08 3e 38 d5 50 3d 68 f2 9d 3d e9 79 51 3e
       0.13299665 0.05098459 0.07712251 0.20456661
000040 b7 61 54 3e b0 80 6a 3a 9e ee 3a 3e 97 75 d3 3c
       0.207404 0.00089455675 0.18255088 0.025812907
000050 8b 13 2f 3e d9 f9 b5 3d 69 d0 2e 3e fa 0c 31 3d
       0.17097299 0.08885545 0.1707169 0.043225266
000060 3e 6f 72 3c cd 24 fd 3c cb fd b0 3d 74 6a 66 3c
       0.01479703 0.030901337 0.08642157 0.014063466
000070 de 42 1d 3e 5a b1 d4 3c 6e 9e 46 3d 9d 0b 4d 3b
       0.15357539 0.025963474 0.048490934 0.003128744
000080 78 cf a4 3c 60 08 08 3e 94 69 3e 3e 47 1e 62 3e
       0.02011846 0.13284445 0.18594962 0.22081862
000090 4b a9 d6 3d 2d 8d 5e 3d 35 0a 67 3e c5 ab c2 3d
       0.10481509 0.054333854 0.22562487 0.09505419
0000a0 15 96 4b 3e 11 a4 e1 35 3c 28 84 3d 47 17 24 3d
       0.1988147 1.6811556e-06 0.064529866 0.04006126
0000b0 1a 8a 86 3d 72 bc b0 3e f4 c2 4c 3e 8f 1e 22 3d
       0.065693095 0.34518772 0.19996244 0.039579924
0000c0 9e aa fe 3d 0e 68 83 3c cc ea 82 3d 16 98 65 3d
       0.124348864 0.016040828 0.0639244 0.056053244
0000d0 8a ad f1 3d 45 d5 78 3e 20 0d 1c 3e d9 c9 db 3d
       0.11800678 0.24300106 0.15239382 0.10731859
0000e0 a0 ad 5e 3d 06 cf a5 3d 65 fd 8d 3e ca 75 a4 3c
       0.0543648 0.08096127 0.27732387 0.020075697
0000f0 3c 00 35 3d 7c b1 09 3d 97 9f b2 3d 7e 38 a0 3d
       0.044189677 0.033616528 0.087218456 0.07823275
000100 b7 42 77 3a 86 b8 33 3b 5a b4 11 3d e3 51 5b 3d
       0.00094322435 0.0027423217 0.035572387 0.05354489
000110 75 05 be 3b 20 22 87 3c 2d d6 26 3e a6 cb f7 3e
       0.0057989904 0.016495764 0.16292639 0.4839756
000120 66 a6 14 3c 94 13 d8 3d 46 bb 9d 3d 68 55 c9 3b
       0.009072876 0.10550609 0.07701735 0.0061442144
000130 15 68 4f 3d db 4c 32 3e 4f 42 e2 3d 10 fd c9 3d
       0.05063637 0.1741213 0.110478036 0.09862721
000140 05 cb 1c 3e 20 27 22 3d b7 a2 8c 3c 2e de 71 3d
       0.15311821 0.039588094 0.017167432 0.059049778
000150 d6 a9 26 3d 34 d8 45 3e d5 41 16 3e af 7e 1d 3a
       0.040689312 0.19320756 0.1467355 0.0006007952
000160 d8 cb cc 3e 1f c2 83 3b 6e 98 59 3d f9 37 da 3d
       0.3999927 0.004020944 0.053123884 0.10655207
000170 77 07 a4 3e 05 79 85 3c 0c 6a 8c 3d 00 36 d7 3d
       0.32036945 0.016293058 0.06856164 0.105083466

nn.block2.linear.weight f4 [256, 96]
000000 bb 5d 0d 3d 44 f1 af 3d 54 ee 95 3d 5b 18 0d bd
       0.034513216 0.0859094 0.07320848 -0.034447055
000010 06 38 02 3d 42 20 94 bd c0 80 a9 3d e1 33 0e bd
       0.03179171 -0.07232715 0.0827651 -0.034717444
000020 08 f1 b1 3d ae 90 8c bd e2 22 01 3d 50 fc 8d 3b
       0.08688551 -0.06863533 0.031527407 0.0043330565
000030 60 d0 ad 3d ba 54 97 3d 03 c3 8d bd 02 20 8b bd
       0.0848701 0.07389207 -0.06921961 -0.067932144
000040 59 e6 4f bd f0 35 8d bd 53 41 4c 3c 66 f2 f7 bc
       -0.050756786 -0.068950534 0.012466746 -0.030266952
000050 2f a1 8c 3c 8b 44 aa 3d 5d 10 7a bd 61 6f ba bd
       0.017166702 0.08313855 -0.06105076 -0.09103275
000060 4f 42 2a 3d 8f a1 9d bd 1b fe b6 bd 69 c4 a0 bd
       0.041567143 -0.076968305 -0.089351855 -0.07849962
000070 8c 98 fe 3c 2a cd cd bd 57 9e 7b 3c bb fe c1 3d
       0.0310786 -0.100488976 0.015357575 0.09472414
000080 81 8a 60 3b fe f6 8a 3d e8 c6 9c 3d 80 5f ac bd
       0.0034262242 0.06785391 0.07655126 -0.08416653
000090 6f 18 3b 3d 50 02 53 3d de 8f ae 3c cb 9d c3 bd
       0.0456776 0.051515877 0.021308836 -0.09551581
0000a0 70 aa ac 3d 04 f7 9a bd 8b 5d 93 3d 64 34 be bd
       0.08430946 -0.07566646 0.07195576 -0.092873365
0000b0 f6 3d 8f 3b db 00 b3 3d 6a fa 1f bc 75 66 c5 bd
       0.0043714 0.087403975 -0.009764293 -0.09638683
0000c0 7b 88 55 bd 8a b1 a9 3d 06 0b d4 bb d7 d8 83 3d
       -0.05213211 0.08285816 -0.0064710407 0.06437843
0000d0 38 18 63 3c 87 c3 96 3d 85 bd e9 bc 3f 5c 92 3d
       0.013860755 0.07361513 -0.028532753 0.07146501
0000e0 17 e3 2d 3b 25 8b 84 3d e5 82 1f 3c 99 a8 af 3d
       0.0026533061 0.06471852 0.0097357975 0.08577079
0000f0 26 bc d2 3d 2a 69 c9 bd f2 5e 1c 3d b6 96 de 3c
       0.10289793 -0.098345116 0.038176484 0.027171474
000100 3b 14 36 bc 58 6c 0b 3d a5 04 a7 3d 9a ef 24 bd
       -0.011113222 0.03403887 0.08155183 -0.040267564
000110 e2 cc bd 3d 96 ad 80 3d 94 27 3a 3d 04 6e 94 bd
       0.09267594 0.06283109 0.0454479 -0.07247546
000120 8a 4f c2 3d 0d 7f 92 3d a8 da dc bb 63 a2 ac bd
       0.09487827 0.07153139 -0.006739933 -0.0842941
000130 0c df a4 bc 1c c0 90 3d 1e b1 8a bd a7 38 e5 3c
       -0.020125888 0.07067892 -0.06772064 0.027981116
000140 37 04 89 bd 30 52 ce bc ac 57 0c 3d 3f 44 4a 3d
       -0.06690257 -0.025185674 0.034263298 0.04938149
000150 60 47 7c bd ac ea 93 bd 82 a9 74 3b 22 4e 07 bc
       -0.061591506 -0.072224945 0.003733248 -0.008258374
000160 1b ed a4 bd ec 1a 20 bd a1 b0 c2 bd e1 72 99 3b
       -0.08053037 -0.039088175 -0.095063455 0.004682884
000170 6b 77 75 3d 5d f0 be bc a0 20 db 3b 12 7c fb 3c
       0.05992834 -0.023307974 0.006687239 0.03069881
000180 7a d9 35 bd 7e a6 a0 3d bc 7a 1e 3c d8 0d 7f 3d
       -0.044396855 0.07844256 0.009672817 0.06226906
000190 59 4b 8a bd 1f b0 9a 3c f1 65 b2 bd 00 68 bc bc
       -0.06752653 0.01888281 -0.0871085 -0.02299881
0001a0 f7 cd cd 3c 78 9f 93 bd c5 9c 8d bd be a7 9d bd
       0.025122626 -0.072081506 -0.06914667 -0.0769801
0001b0 87 62 34 bd a1 2a 82 3d ec dd f3 3c 7a e9 4d bd
       -0.044039275 0.06355787 0.029768907 -0.05027149
0001c0 ca 4e 34 3c e0 ed a4 bd 6b 2b 9e bd d6 07 bd bc
       0.011005113 -0.080531836 -0.07723125 -0.023075026
0001d0 c9 25 3f bd f2 f9 4e 3b d5 c1 dc 3c 40 8d ac bd
       -0.046666894 0.0031582084 0.026947895 -0.08425379
0001e0 e6 cb 3d bd 43 42 25 bd 96 f2 90 bd 73 c3 28 3d
       -0.04633703 -0.040346395 -0.070775196 0.04120202
0001f0 de 5b a0 3b 74 a7 5d bc 47 45 28 bd ff 79 c9 3d
       0.004893764 -0.0135286935 -0.041081693 0.09837722
000200 3f 94 c4 bd 47 00 5b bd 63 5c c5 bd 94 2f 0b 3d
       -0.09598588 -0.05346706 -0.09636762 0.03398092
000210 ea e2 92 bd af cc 5c 3c 24 f8 5d bd b7 d7 ba bd
       -0.07172187 0.013476535 -0.054191723 -0.091231756
000220 73 cd b2 bd f7 5c 24 bd 97 de f5 3c be f2 8c bd
       -0.087305926 -0.04012772 0.030013366 -0.06882237
000230 34 84 04 bc 16 b1 66 3b e2 27 9c 3c 0f 8a 68 bd
       -0.00808816 0.0035200766 0.019061986 -0.056772288
000240 a6 fe 9d bd 82 d4 47 3d 08 9e d1 3c d9 06 15 bb
       -0.07714586 0.048786648 0.02558805 -0.0022739677
000250 09 fa 70 3d 97 14 87 3d d7 fa 1a 3d d5 6b e8 3c
       0.058832202 0.06595724 0.037836876 0.02837173
000260 b1 c9 55 bd 7a ef a3 3d d0 97 b5 bc b0 7b b2 3d
       -0.0521943 0.08004661 -0.022167116 0.08714998
000270 f9 ba 3a bd 7f 30 b3 bd e3 0a 95 bd 9e 19 98 3b
       -0.045588467 -0.08749484 -0.07277467 0.0046417257
000280 08 2e 06 3c 25 2f bb 3b b5 62 c0 3d 74 90 b5 bd
       0.008189686 0.005712407 0.09393827 -0.08865443
000290 2b 56 01 3c 41 29 d8 3d dc ce 10 37 fc 55 b1 bd
       0.007894079 0.105547436 8.631232e-06 -0.08658978
0002a0 54 ab 5e 3c 8a 9f bc bd e8 66 7e bd 66 1a 5d bd
       0.0135906525 -0.09210117 -0.062109858 -0.053980254
0002b0 80 eb a9 3d fc 0e 2d 3d 38 8a 46 bd fb 43 59 3d
       0.08296871 0.04225062 -0.04847166 0.053043347
0002c0 ff b1 9f bd 7e 05 99 bd 75 5e bd 39 f5 97 dc bc
       -0.07797622 -0.07471751 0.00036119265 -0.026927928
0002d0 25 64 54 3d ef 15 58 3d ea ff be 3d ab 29 c7 bc
       0.051853318 0.052755293 0.093261555 -0.024311861
0002e0 8e 83 a3 3d 78 cd 2b bc c4 87 85 bd e9 b4 c8 bc
       0.079840764 -0.010485999 -0.06520036 -0.024500327
0002f0 eb 26 16 3c 1c 4a 82 3d 69 13 a7 3d 33 9a 95 bd
       0.009164552 0.063617915 0.08157999 -0.07304802
000300 6c 60 b9 3d c6 d0 6a 3d 71 09 49 3b d5 c4 c8 bd
       0.09051594 0.057328008 0.0030675794 -0.09803168
000310 3e 1f 10 3c c1 92 51 3c e8 9e 51 bd bf 1e 64 bd
       0.008796511 0.0127913365 -0.051176935 -0.055693384
000320 05 00 a3 bd 77 62 b6 bb a5 e3 60 3c bc f5 b0 3d
       -0.07958988 -0.005565937 0.01372615 0.0864062
000330 0d 7c 90 3d 6c d8 03 bd 96 bf 63 3c f5 99 bb 3d
       0.07054911 -0.032188818 0.013900658 0.09160224
000340 16 a2 72 3d e6 fd d9 3b 68 42 89 3d d3 22 81 bd
       0.05923661 0.0066525815 0.06702119 -0.0630547
000350 b3 c5 5d 3c 21 06 69 3b 90 b6 9c 3d 0f 80 ab bc
       0.013535905 0.0035556632 0.076520085 -0.020935087
000360 06 21 c2 bd 9e e3 79 bc 0a 7a 0b bc 10 61 a0 3c
       -0.09478955 -0.015252022 -0.008512983 0.019577533
000370 11 e0 c8 bd 65 da 8f bd 8d ca 60 3d ea 0d 9f 3d
       -0.09808362 -0.07024077 0.054880667 0.07766326
000380 07 64 64 3c 5e 75 e8 3b cb ef cc 3d 72 ec c3 bd
       0.013939864 0.0070940694 0.100066744 -0.09566583
000390 99 54 19 bc c3 4c cb 3d 69 aa c0 3d a7 e2 d0 bc
       -0.009358549 0.099267505 0.09407503 -0.025498701
0003a0 f0 ed 8a 3b af 80 a6 bd c9 f1 93 3b c2 ab 35 3d
       0.00423979 -0.08130013 0.004514907 0.044353254
0003b0 45 eb 84 3c 1d e8 1c bd 5c f3 c6 bd 7b 15 41 3b
       0.016225467 -0.038307298 -0.09714386 0.0029462266
0003c0 d9 7b a5 bd 7f 89 cb 3c ee f7 aa bd 0f b8 86 3d
       -0.08080263 0.024845837 -0.0834807 0.06578075
0003d0 cb 31 bb bd 18 84 8f 3c 34 af 1f 3d 5d 83 b0 3d
       -0.09140357 0.017519042 0.038985446 0.086188056
0003e0 4e 0a c2 3d de cf 8b ba 09 70 8a 3d db 63 9b bc
       0.09474622 -0.0010666808 0.0675965 -0.018968513
0003f0 c2 dc 87 3d fa 77 a6 3d 6a 79 3d bd 50 a3 39 3d
       0.06633903 0.081283525 -0.046258368 0.045321763

nn.block2.linear.bias f4 [256]
000000 ca a0 1a bd 6e 41 97 3d 2f a0 87 bd dc 57 15 3d
       -0.037750997 0.073855266 -0.066223495 0.036460742
000010 34 fe c6 3b cf 93 dc 3c bc 7b 2e bb d6 e0 16 bd
       0.006072784 0.02692595 -0.0026624044 -0.036835514
000020 94 03 5a bd 04 6a 2f 3d 13 c2 f4 3c 32 bd 6b bb
       -0.05322607 0.042825714 0.029877698 -0.0035970923
000030 27 56 d6 3a ca e8 bf bd 26 e0 a1 3d bb b5 04 bd
       0.001635258 -0.09370573 0.07904081 -0.032399874
000040 46 ff 16 3d 6d 44 93 bd f6 1d 5f 3d 46 b0 86 3c
       0.03686454 -0.071907856 0.054471932 0.016441476
000050 0d b0 19 bd 77 b1 56 bd 21 b8 71 3d c1 4f 2c bc
       -0.03752141 -0.052415337 0.05901349 -0.010517062
000060 98 03 26 bb ab 5b b4 3d 06 bb b1 bd 81 3c c2 bd
       -0.0025331732 0.08806547 -0.0867825 -0.094841965
000070 db be af bd 0e 20 90 bc e7 3c b3 bd f5 f7 22 bd
       -0.08581325 -0.01759341 -0.087518506 -0.03978725
000080 38 fd 4b bd ec df 9e 3d e5 ea ef 3c 89 4b c2 bd
       -0.049802035 0.077575535 0.029286811 -0.094870634
000090 27 d2 83 bd 3f 24 bd bc f5 3a ac 3d c2 eb 8e bc
       -0.06436568 -0.023088573 0.08409683 -0.017446402
0000a0 25 46 85 3d cb 1d aa 3d fb 8b 81 bd 90 49 91 bd
       0.0650752 0.08306464 -0.06325527 -0.07094109
0000b0 56 dd e9 bc f7 3d 5d 3b 0a 6e 18 bc c3 b3 85 bd
       -0.028547924 0.0033758858 -0.009303579 -0.065284275
0000c0 ad 58 9e 3b 25 a9 a9 3d 5d d4 22 3d 86 25 95 3d
       0.0048323483 0.08284215 0.039753307 0.07282548
0000d0 db ad aa 3d 32 24 87 3d 9f cb 8f 3c f1 4a 0a 3d
       0.083339415 0.065987006 0.017553149 0.033762876
0000e0 97 b9 19 3d 05 50 dc 3b f7 1e ca bd 74 4d 86 3a
       0.037530508 0.0067234063 -0.09869187 0.0010246472
0000f0 58 98 4c 3d 39 a6 7e 3d 18 70 77 3d 8f 0b 9b bd
       0.049949974 0.06217024 0.060409635 -0.07570564
000100 60 67 e7 3b 50 b4 92 b9 b2 68 b6 bd 13 fa 9e 3c
       0.007061884 -0.00027981633 -0.08906688 0.019406354
000110 f8 f6 b2 bc 9e 33 26 bc b3 7b 97 3c ff b6 8d bc
       -0.02184628 -0.010144142 0.018491602 -0.017299173
000120 1b af ee bc 0d 12 a9 bb d1 45 87 bd 8e 0d b4 bd
       -0.029136231 -0.0051596225 -0.06605113 -0.08791648
000130 3b 1b 98 bd b8 2c ce bd 9b 90 4c bd 75 cc 67 bd
       -0.07427069 -0.10067123 -0.049942594 -0.05659147
000140 af 1c 95 bd 55 ba 04 3d e5 47 1c bd 7d d0 b0 3d
       -0.072808616 0.032404263 -0.0381545 0.08633516
000150 0a b1 ce 3d de 68 3e bc 98 be 61 3d 4b 64 a1 3d
       0.10092361 -0.011621682 0.055113405 0.078804575
000160 7b 02 01 3d 90 50 71 bc 56 7a 8d 3a bf 7d 7a bd
       0.031496506 -0.01472868 0.0010793905 -0.061155077
000170 dc c6 cd bc 59 65 47 3b d4 47 aa bd 5f f0 9b bb
       -0.025119238 0.0030425398 -0.083144814 -0.004758879
000180 4f fa cc 3d f9 ab cd bd b0 9e 87 3d 28 54 ae 3d
       0.1000868 -0.10042567 0.06622064 0.08512145
000190 09 d8 01 bd ac a3 74 3d 2f 6d ca bd 48 67 9e bd
       -0.031700168 0.059726402 -0.09884106 -0.07734543
0001a0 0e fa 93 bb 12 90 c1 3d 15 88 2e 3d 3f b3 92 bd
       -0.004515893 0.09451307 0.042610247 -0.07163095
0001b0 3b 65 44 bd a1 59 3b bd 69 ba 71 bd 07 4d cf bc
       -0.047948103 -0.045739774 -0.059015665 -0.025305284
0001c0 50 36 b9 bd 32 8b 76 bc c1 2f a1 bc fb 59 6d 3c
       -0.090435624 -0.015047835 -0.019676091 0.014486785
0001d0 4a b3 ad 3c ae 75 17 bd ff a7 b4 bd 42 ef 6b 3d
       0.021203656 -0.036977462 -0.08821105 0.05760122
0001e0 d0 df 93 bd ba f9 40 bd 5f 1e d0 3d 39 85 c1 bd
       -0.07220423 -0.047113158 0.10162043 -0.09449238
0001f0 be 89 cf bc 00 3f c7 bc 30 d6 5d 3d b4 aa b7 3d
       -0.025334235 -0.024322033 0.054159343 0.08968106
000200 d7 0c 92 bd de 9f b6 3b 8a 3d a4 3b a1 f9 87 bd
       -0.07131355 0.005573257 0.005012219 -0.0663941
000210 0b 54 39 bd 00 a8 a0 bd ac ef 93 3c 8c 8e ac 3b
       -0.045246165 -0.078445435 0.01805862 0.0052660163
000220 a9 25 49 3d 25 9a 99 bd ea 93 89 bd 41 05 ae bd
       0.04910818 -0.07500104 -0.067176655 -0.08497096
000230 5d 32 40 bd 0a 6d 38 bd ae 90 7d bc 20 46 c4 bd
       -0.04692303 -0.045025863 -0.015476389 -0.09583688
000240 a4 20 85 bd 1c 5b ec bb 19 77 cc bc 43 31 b7 bd
       -0.06500366 -0.0072130095 -0.024959134 -0.08944943
000250 ae b9 ba bd 90 ed 1e bd bd 22 35 3d 14 82 12 3d
       -0.09117447 -0.038800776 0.044222582 0.035768583
000260 30 9e 1a 3d cb 9b ed 3b 78 0e 0f 3c 13 02 b0 3d
       0.037748516 0.007251238 0.008731477 0.085941456
000270 b2 07 03 bd 41 46 5e bb e2 5c c0 bd b1 fa c4 bd
       -0.03198976 -0.0033916386 -0.09392716 -0.09618128
000280 7c dd 17 3d e3 4d a7 bd 79 1a b9 3d ec c0 6f bd
       0.03707646 -0.081691526 0.090382524 -0.058533594
000290 5f 41 91 3d 9f cd df bc 3a 20 ae bd c6 ec b0 bd
       0.07092547 -0.027319727 -0.085022405 -0.08638911
0002a0 6b 12 00 bd 86 6c 06 3d 6d f6 90 3d 09 9a 10 bd
       -0.031267565 0.03281834 0.07078252 -0.03530315
0002b0 e1 33 d3 bc ef 75 2c bd 5e eb c4 3c 4b 35 2e bd
       -0.025781574 -0.042104658 0.024038013 -0.042531293
0002c0 20 82 87 bd cd 52 d4 3d c8 db c1 3d 95 41 ac 3d
       -0.06616616 0.103673555 0.09465748 0.08410946
0002d0 4b 00 27 bd 90 28 44 bc 28 93 83 bd 57 c0 bb bd
       -0.040771764 -0.0119725615 -0.06424552 -0.09167545
0002e0 c8 27 b8 bd 87 fd c1 bc 19 ef 2e bd 0c 97 40 bd
       -0.08991963 -0.023680462 -0.04270849 -0.04701905
0002f0 eb 16 c4 3c ea 98 31 bc b3 55 af 3d 07 e0 a8 3d
       0.02393671 -0.01083968 0.08561268 0.08245855
000300 f4 2f 5a 3d 28 05 ae 3d 49 d1 80 bd c3 d1 9f bc
       0.053268388 0.08497077 -0.06289918 -0.019509202
000310 73 a8 9e bd 1b 77 a9 3c d7 99 93 3b 7b 8a 2c 3d
       -0.07746973 0.020686677 0.004504423 0.042124253
000320 3e 6f fa bc bd be ab 3d db 0c 4b 3c eb 82 6b 3d
       -0.030570623 0.0838599 0.012393202 0.0574979
000330 b8 2d 6d 3d d0 2f 52 3d a0 83 91 3d 1a 3d 5f bd
       0.05790493 0.05131513 0.071051836 -0.05450163
000340 55 75 ac 3c 3d d9 96 3d 64 6f 34 bd 78 49 a8 bd
       0.021052042 0.07365654 -0.044051543 -0.08217138
000350 ab c7 89 3d 05 02 48 3c d1 a5 98 3b 2b 3e 0c 3d
       0.06727537 0.012207513 0.0046584387 0.034238975
000360 0a 82 94 3d b8 9b 55 3d 4a aa 7b bc c7 6e 8e bd
       0.072513655 0.052150458 -0.015360424 -0.06954723
000370 d6 5b a9 bd b9 26 5d bd 73 4e c1 3d 26 2d 0a bd
       -0.082694694 -0.053992007 0.09438791 -0.033734463
000380 6c ec 25 bd 0f 55 28 3d d1 87 b3 bd 4c 19 4f 3d
       -0.040508673 0.041096743 -0.08766139 0.050561234
000390 53 d5 8d 3d e6 1f c3 3d d6 b1 2c 3d 39 66 17 bd
       0.06925454 0.095275685 0.042161785 -0.03696272
0003a0 19 f5 8f 3c 8c 31 b0 3d 28 3e bd bb 6a 0c b4 bd
       0.017572926 0.086032 -0.005775232 -0.0879143
0003b0 70 b2 62 bd 0c e9 82 bc 44 dd d7 3b c1 8e 29 bd
       -0.055345953 -0.015980266 0.006587656 -0.041395906
0003c0 86 24 56 3d b0 60 8e 3d 17 e3 ea bc 9e f2 0a 3d
       0.052280925 0.069520354 -0.028672738 0.033922784
0003d0 fb 74 f1 3c 37 99 38 3d 92 f7 2c 3d df 6f dc bb
       0.029474726 0.045067992 0.04222829 -0.0067272033
0003e0 1a 74 3b 3d 7a 87 d4 bc 78 9a cd 3d b0 a0 97 bd
       0.04576502 -0.025943507 0.10039228 -0.074036956
0003f0 dc 9f cf 3d ff fe 45 3d c4 fa 6f bd 84 f1 b4 bd
       0.10137913 0.048338886 -0.058588758 -0.08835128

nn.block2.batch.weight f4 [256]
000000 ec c8 7f 3f 74 0d 80 3f 9d 16 80 3f 8d d7 7f 3f
       0.9991596 1.0004106 1.0006901 0.9993828
000010 66 cd 7f 3f 78 52 80 3f 18 58 80 3f ab e2 7f 3f
       0.9992279 1.0025167 1.0026884 0.9995524
000020 aa ad 7f 3f 29 20 80 3f 05 80 80 3f 5d 09 80 3f
       0.99874365 1.0009815 1.0039068 1.0002857
000030 78 cb 7f 3f df 39 80 3f 44 0a 80 3f c3 14 80 3f
       0.99919844 1.0017661 1.0003133 1.0006336
000040 e0 24 80 3f e6 21 80 3f 8c 5e 7f 3f 27 f1 7f 3f
       1.0011253 1.0010345 0.9975364 0.99977344
000050 9c 52 80 3f 04 f4 7f 3f f4 35 80 3f 13 3c 80 3f
       1.002521 0.99981713 1.0016465 1.0018333
000060 5f 7a 7f 3f 68 1c 80 3f 50 22 80 3f 2e 0d 80 3f
       0.997961 1.0008669 1.0010471 1.0004022
000070 5d 6b 80 3f cf 1f 80 3f 2f b0 7f 3f c3 9c 7f 3f
       1.0032765 1.0009707 0.9987821 0.99848574
000080 75 9a 7f 3f 6b 2e 80 3f 36 06 80 3f 59 b5 7f 3f
       0.9984506 1.0014166 1.0001895 0.9988609
000090 ea 3c 80 3f 94 00 80 3f 67 f0 7f 3f 81 22 80 3f
       1.001859 1.0000176 0.999762 1.001053
0000a0 5b b9 7f 3f 03 94 7f 3f 68 da 7f 3f 15 73 7f 3f
       0.99892205 0.9983522 0.99942636 0.99784976
0000b0 6a ef 7f 3f ce 01 80 3f f2 b1 7f 3f 34 9c 7f 3f
       0.9997469 1.0000551 0.998809 0.9984772
0000c0 6d 00 80 3f 40 35 80 3f 22 10 80 3f c6 18 80 3f
       1.000013 1.0016251 1.0004923 1.000756
0000d0 3a a6 7f 3f d1 c6 7f 3f bf 31 80 3f b9 92 7f 3f
       0.99863017 0.99912745 1.0015181 0.99833256
0000e0 67 df 7f 3f cc f4 7f 3f b5 5e 7f 3f c7 23 80 3f
       0.9995026 0.99982905 0.99753886 1.0010918
0000f0 5f a8 7f 3f cd 0d 80 3f e7 01 80 3f 11 46 7f 3f
       0.9986629 1.0004212 1.000058 0.9971629
000100 c4 10 80 3f 72 59 7f 3f 4d 01 80 3f 93 ec 7f 3f
       1.0005116 0.9974586 1.0000397 0.9997036
000110 ce 15 80 3f f4 d5 7f 3f e1 f4 7f 3f ee 9d 7f 3f
       1.0006654 0.9993584 0.9998303 0.99850357
000120 de d8 7f 3f c1 bb 7f 3f 04 24 80 3f 43 a0 7f 3f
       0.9994029 0.99895865 1.0010991 0.99853915
000130 06 ec 7f 3f df 17 80 3f e6 0f 80 3f 9f df 7f 3f
       0.9996952 1.0007285 1.0004852 0.99950594
000140 6c 00 80 3f f6 ad 7f 3f 36 48 80 3f 27 ff 7f 3f
       1.0000129 0.9987482 1.0022037 0.99998707
000150 ab f2 7f 3f a1 4f 7f 3f 21 b7 7f 3f b9 b2 7f 3f
       0.99979657 0.9973088 0.9988881 0.99882084
000160 77 14 80 3f cb 25 80 3f 99 0c 7f 3f 72 2f 80 3f
       1.0006245 1.0011533 0.996286 1.0014479
000170 44 24 80 3f 0c 1e 80 3f c6 16 80 3f 60 b5 7f 3f
       1.0011067 1.000917 1.000695 0.9988613
000180 de 95 7f 3f 37 c0 7f 3f 79 d8 7f 3f 82 a3 7f 3f
       0.99838054 0.9990267 0.99939686 0.9985887
000190 1e be 7f 3f c7 db 7f 3f 0b 9b 7f 3f d2 3b 80 3f
       0.9989947 0.9994473 0.9984595 1.0018256
0001a0 0e 0e 80 3f 20 1b 80 3f 23 32 80 3f c5 81 80 3f
       1.0004289 1.0008278 1.00153 1.0039603
0001b0 82 38 80 3f ec b3 7f 3f 04 27 80 3f bf e3 7f 3f
       1.0017245 0.99883914 1.0011907 0.9995689
0001c0 1b 4f 80 3f 22 00 80 3f fc 08 80 3f 3a 02 80 3f
       1.0024141 1.000004 1.0002742 1.000068
0001d0 96 0b 80 3f 7c c4 7f 3f 10 ad 7f 3f 38 0a 80 3f
       1.0003536 0.99909186 0.9987345 1.0003119
0001e0 2e 00 80 3f 12 fe 7f 3f 26 18 80 3f 1a 38 80 3f
       1.0000055 0.99997056 1.000737 1.0017121
0001f0 37 50 80 3f 9f f4 7f 3f 3e 08 80 3f 32 76 7f 3f
       1.002448 0.9998264 1.0002515 0.99789727
000200 68 0b 80 3f c7 f7 7f 3f b5 92 7f 3f c3 1c 80 3f
       1.0003481 0.99987453 0.9983323 1.0008777
000210 45 1e 80 3f 7f 73 80 3f ef 9d 7f 3f 50 e8 7f 3f
       1.0009238 1.0035247 0.9985036 0.99963856
000220 bf ed 7f 3f cd c0 7f 3f db 3a 80 3f 33 63 80 3f
       0.99972147 0.99903566 1.0017961 1.0030273
000230 23 cd 7f 3f 60 ff 7f 3f 80 0d 80 3f d7 91 7f 3f
       0.9992239 0.99999046 1.000412 0.9983191
000240 2b 0b 80 3f bc ba 7f 3f 04 4c 80 3f 5f ff 7f 3f
       1.0003408 0.9989431 1.0023198 0.9999904
000250 9d 18 80 3f d8 f5 7f 3f a5 b0 7f 3f 62 60 7f 3f
       1.0007511 0.999845 0.99878913 0.99756444
000260 4e 45 7f 3f 75 77 7f 3f 3b 63 80 3f d8 c9 7f 3f
       0.99715126 0.9979165 1.0030283 0.99917364
000270 f1 2d 80 3f 50 db 7f 3f 56 34 80 3f be 20 80 3f
       1.001402 0.9994402 1.0015972 1.0009992
000280 73 69 80 3f e2 fd 7f 3f 36 c7 7f 3f ee ca 7f 3f
       1.003218 0.9999677 0.99913347 0.9991902
000290 a7 2b 80 3f 94 1d 80 3f 1b 0c 80 3f ca 86 7f 3f
       1.0013322 1.0009027 1.0003694 0.99815047
0002a0 df f0 7f 3f a3 19 80 3f d2 05 80 3f 41 ec 7f 3f
       0.99976915 1.0007824 1.0001776 0.9996987
0002b0 47 1c 80 3f 74 f5 7f 3f 98 43 80 3f 15 4a 80 3f
       1.000863 0.99983907 1.0020628 1.0022608
0002c0 94 dd 7f 3f 8c 18 80 3f d1 a4 7f 3f 45 a3 7f 3f
       0.99947476 1.0007491 0.99860865 0.99858505
0002d0 b6 c2 7f 3f 39 8d 7f 3f be d4 7f 3f 4e ac 7f 3f
       0.9990648 0.99824864 0.99933994 0.9987229
0002e0 a2 2b 80 3f 8f df 7f 3f 76 41 80 3f 0a 6c 80 3f
       1.0013316 0.999505 1.0019977 1.0032971
0002f0 77 53 80 3f 64 48 7f 3f d3 02 80 3f b4 72 7f 3f
       1.0025471 0.99719834 1.0000862 0.997844
000300 a4 25 80 3f 1d ff 7f 3f 17 b4 7f 3f ca 34 80 3f
       1.0011487 0.99998647 0.9988417 1.001611
000310 ab 0a 80 3f 4c 13 80 3f a3 f1 7f 3f 2d 7b 7f 3f
       1.0003256 1.0005889 0.99978083 0.99797326
000320 ff 02 80 3f 4f 26 80 3f bd f5 7f 3f ba 0c 80 3f
       1.0000914 1.0011691 0.9998434 1.0003884
000330 8a 4a 7f 3f 74 7e 80 3f a9 6a 7f 3f a0 f5 7f 3f
       0.9972311 1.003859 0.99772125 0.9998417
000340 da 5b 7f 3f 67 d3 7f 3f 11 7c 7f 3f e0 0c 80 3f
       0.9974953 0.9993195 0.99798685 1.0003929
000350 23 f1 7f 3f b1 34 80 3f f5 23 80 3f 9e ce 7f 3f
       0.9997732 1.001608 1.0010973 0.9992465
000360 d5 93 7f 3f e3 04 80 3f 22 39 80 3f 15 d7 7f 3f
       0.9983495 1.0001491 1.0017436 0.99937564
000370 2b 18 80 3f 23 0b 80 3f 56 7b 7f 3f 27 f1 7f 3f
       1.0007375 1.0003399 0.9979757 0.99977344
000380 49 c0 7f 3f 26 19 80 3f bc 04 80 3f 09 14 7f 3f
       0.9990278 1.0007675 1.0001445 0.99639946
000390 e7 9b 7f 3f 7e f8 7f 3f 96 43 7f 3f 5a 91 7f 3f
       0.99847263 0.99988544 0.997125 0.99831164
0003a0 68 bc 7f 3f 36 ed 7f 3f 31 f2 7f 3f ad 18 80 3f
       0.9989686 0.9997133 0.9997893 1.000753
0003b0 5e 3a 80 3f 77 a1 7f 3f 4a 70 7f 3f 15 24 80 3f
       1.0017812 0.9985575 0.99780715 1.0011011
0003c0 19 c0 7f 3f bd 70 80 3f 34 c1 7f 3f 6f e1 7f 3f
       0.9990249 1.0034405 0.9990418 0.9995336
0003d0 19 46 80 3f e0 a1 7f 3f bd ef 7f 3f 9d 08 80 3f
       1.0021392 0.99856377 0.99975187 1.0002629
0003e0 3c c3 7f 3f 69 b7 7f 3f 4a 32 80 3f 9d 3b 80 3f
       0.9990728 0.99889237 1.0015347 1.0018193
0003f0 f4 38 80 3f 08 f9 7f 3f 47 1c 80 3f ec e1 7f 3f
       1.0017381 0.99989367 1.000863 0.99954104

nn.block2.batch.bias f4 [256]
000000 4b a6 81 3a 3f 55 94 ba 08 db 2f 3a a7 15 6f 3a
       0.0009891478 -0.0011316909 0.00067083584 0.0009120353
000010 eb b6 b8 b8 65 1b 98 ba 32 c7 1b b9 02 cb 6e ba
       -8.807875e-05 -0.0011604844 -0.00014856158 -0.000910923
000020 cf f6 62 b7 e6 f1 a1 3a 1e 83 34 ba f0 99 b7 3a
       -1.3528114e-05 0.0012355417 -0.0006885993 0.0014007669
000030 d6 cf 29 b9 e7 a0 5e ba e7 51 c6 39 2b 2e 96 3a
       -0.00016194521 -0.0008492604 0.00037826525 0.0011457851
000040 47 85 59 3a 41 ea 1f 3b 5c 60 2c 3a f6 be f4 b9
       0.0008297753 0.00244011 0.0006575638 -0.00046681584
000050 98 ca 1c ba c3 22 78 39 8a 9f a4 b9 96 ad 2c 3a
       -0.00059811166 0.00023664073 -0.00031399383 0.00065871456
000060 e5 f4 93 ba 57 90 9f b9 61 6f 2e 3a b9 37 da 3a
       -0.0011288194 -0.00030434385 0.000665417 0.0016648687
000070 c7 8e d4 39 61 fe 88 3a b8 32 6b 39 46 d3 2c 3a
       0.00040542168 0.0010451787 0.0002243024 0.00065927615
000080 d6 2e a8 ba d3 7b 1e 3a d4 d6 a0 b9 5e 45 9b b9
       -0.0012831341 0.0006045673 -0.00030677638 -0.00029615586
000090 15 7f 01 b7 4c b5 80 b9 a7 6b c3 3a c4 ce 2f b9
       -7.718588e-06 -0.0002454914 0.0014909402 -0.00016766327
0000a0 37 35 80 3a 86 74 22 3a 4c fc 46 3a 2a 51 6c ba
       0.0009781484 0.0006197173 0.0007590696 -0.000901478
0000b0 4d 58 08 3a af 32 0b b8 11 6d 36 b9 11 05 bf b9
       0.0005201146 -3.3187385e-05 -0.00017397503 -0.00036434134
0000c0 aa 82 d5 b9 92 fb 5b ba af d1 91 b8 b2 72 4f ba
       -0.00040723878 -0.0008391674 -6.9531954e-05 -0.0007913514
0000d0 c1 6d ad 3a 59 d0 ce 39 6e 12 84 3a ee 2a 28 3a
       0.0013231562 0.00039446613 0.0010076293 0.00064150884
0000e0 36 55 85 3a 96 5b a1 37 e2 5e b6 ba 1b d5 b2 39
       0.001017249 1.9235344e-05 -0.0013913775 0.00034109582
0000f0 48 ac 4a ba 97 40 14 3a 81 80 b7 b9 cf a2 bd 39
       -0.00077313604 0.00056553766 -0.00035000223 0.0003617019
000100 49 01 f5 39 b2 d0 49 b8 ab cc 1a 3a ab 58 92 b9
       0.00046731 -4.8116497e-05 0.00059051317 -0.00027913353
000110 d0 9e 8c 3a 07 d0 99 39 20 b0 84 3a b5 4f 06 3a
       0.0010728482 0.00029337427 0.001012329 0.00051235716
000120 fd c9 4e 3a 0c 1d bd 3a 1d 6a c5 3a 14 4b 7d ba
       0.0007888375 0.0014428212 0.0015061531 -0.00096623716
000130 3f ec aa ba 81 fb 7b 3a 3d c5 09 bb 98 d9 8e 39
       -0.0013040378 0.0009612367 -0.0021022104 0.0002724647
000140 a4 a2 bd b9 53 bd c8 39 39 eb 59 36 43 dd 03 39
       -0.00036170066 0.0003828803 3.2472437e-06 0.0001257556
000150 6f 7a 35 3a 6b ad 4b 3a dd 8a 17 39 34 56 0c 3b
       0.0006922846 0.0007769677 0.00014452213 0.0021413686
000160 21 ab 16 ba 96 ed da 3a f0 0c 1e ba 24 08 4e 3a
       -0.0005747546 0.0016702886 -0.00060291495 0.00078594894
000170 f0 1c 16 3a ab a6 a7 3a 23 73 d4 3a 7f 02 50 3a
       0.0005726358 0.001279076 0.001620863 0.0007934942
000180 0c b0 13 ba 72 13 39 3a 3d ec 80 ba dd b8 81 ba
       -0.0005633838 0.00070600875 -0.000983603 -0.0009897012
000190 1f 1e a5 39 13 48 35 3a 73 ef 09 bb 1e b3 85 3a
       0.00031493694 0.0006915342 -0.0021047264 0.0010200476
0001a0 9a 33 5c 3a 84 ef c9 39 b8 c0 1b ba 24 b0 3c 3a
       0.0008400023 0.0003851616 -0.0005941498 0.0007197878
0001b0 2a eb 15 ba 12 5e 16 3a 1c 28 99 39 d9 ab 16 3a
       -0.0005718941 0.00057360635 0.00029212318 0.0005747653
0001c0 04 1c 26 b8 c9 83 89 36 32 0a c5 38 3f b2 ee 37
       -3.9603576e-05 4.09826e-06 9.395591e-05 2.8454813e-05
0001d0 66 fe a4 b8 b6 61 c0 b9 0f d7 08 b9 c7 3f da b9
       -7.867515e-05 -0.00036693894 -0.00013050086 -0.00041627718
0001e0 d7 0a be ba 1a b2 10 ba a7 51 08 ba 4f 08 52 3a
       -0.001449908 -0.0005519703 -0.00052001554 0.00080121023
0001f0 81 b2 a6 ba 7f 8d 38 3a 59 16 77 39 26 8d 0c 3a
       -0.0012717993 0.00070401275 0.00023564081 0.0005361609
000200 40 c3 99 39 d8 6b be ba 70 50 1e b9 3e ec d7 39
       0.00029327907 -0.001452799 -0.0001509802 0.0004118401
000210 8c 1e a7 b8 20 91 74 ba 87 6a 48 39 9d 6e 77 3a
       -7.96887e-05 -0.00093294866 0.00019113171 0.0009438785
000220 e8 13 ae b7 06 b3 7a b9 e3 70 25 3a 8b d2 ba b9
       -2.0751686e-05 -0.0002390855 0.0006311072 -0.0003563355
000230 a7 ef b1 ba f0 68 64 ba ee e6 c1 ba 0c 5a 1c 39
       -0.001357545 -0.00087131467 -0.0014793554 0.00014910864
000240 2c 29 2d ba 40 5e 9c ba a8 0c 63 39 93 b6 93 3a
       -0.00066055614 -0.0011929944 0.00021653122 0.0011269621
000250 d2 45 4a 38 ed 56 04 3a 16 c6 db b9 de 24 04 ba
       4.822558e-05 0.00050483533 -0.0004191852 -0.0005040894
000260 1a e3 36 ba ce ea 70 ba 72 97 0e 3a 0a ef 46 3a
       -0.000697659 -0.0009190262 0.0005439437 0.000758872
000270 30 9e 91 39 e7 78 2d ba 31 5f 5e ba d6 ae 24 ba
       0.00027774414 -0.0006617442 -0.00084828126 -0.0006282156
000280 6f 8b 4e 3a c0 a9 79 ba 7c 9d b2 39 97 5a c8 ba
       0.00078790536 -0.0009523891 0.0003406814 -0.0015285787
000290 5f 57 20 3a 4c 97 a2 39 c5 e7 12 3a 28 61 0d ba
       0.0006116535 0.00031011773 0.00056039944 -0.00053932006
0002a0 6a f6 25 38 49 90 74 b9 70 e0 b2 3a c3 1b bc 38
       3.9568557e-05 -0.00023323404 0.001364721 8.9697096e-05
0002b0 ad f0 8e b9 93 45 c3 39 f5 f7 d8 ba 2c 77 09 3b
       -0.00027263668 0.00037245135 -0.0016553389 0.0020975573
0002c0 41 53 12 3a e2 43 68 3a 67 4b 9e 3a 9d f0 d2 3a
       0.0005581864 0.0008860213 0.0012076915 0.0016093437
0002d0 b0 17 9a ba 6f 33 bb 39 38 e6 09 3a fe 42 a0 3a
       -0.0011756327 0.0003570574 0.00052604405 0.0012226996
0002e0 ea 62 35 39 a7 6b dd 3a 5b c1 e8 ba d4 c8 8c 3a
       0.00017298353 0.0016893045 -0.001775782 0.0010741004
0002f0 74 8b 4d 3a 38 7f 76 b9 4e 0a 13 ba f4 43 00 b9
       0.00078409095 -0.00023507781 -0.00056091405 -0.00012232346
000300 23 24 c2 ba 26 d5 14 3a 68 bd a3 b9 9c 2f 8e 3a
       -0.0014811795 0.00056775135 -0.000312309 0.0010847929
000310 02 ce 69 3a b7 ce b9 b9 9f d2 41 b9 8a 24 a2 3a
       0.0008918942 -0.00035439964 -0.00018484377 0.0012370509
000320 0a a2 9f b9 32 a8 9d 3a a6 7c 06 bb f8 c2 45 b9
       -0.00030447572 0.0012028276 -0.0020521074 -0.00018860016
000330 f1 3f 8c b8 2d f4 e6 3a b2 5b 36 b9 cb 1e 4f ba
       -6.68763e-05 0.0017620377 -0.00017391032 -0.0007901012
000340 16 8c 06 ba b6 54 32 39 07 b0 95 b9 0a ee 26 ba
       -0.0005132569 0.0001700696 -0.00028550645 -0.0006367868
000350 1f ac b6 3a f9 ce 9c ba 75 3c 87 ba 30 e6 45 b8
       0.0013936794 -0.0011963538 -0.00103177 -4.718284e-05
000360 63 ce 93 3a e6 04 ea 39 a7 a8 3e 3a 40 ef f5 3a
       0.0011276718 0.00044635608 0.0007273056 0.0018763319
000370 79 ba 65 ba 4c 75 82 b7 8f 69 cd b9 75 58 ca b9
       -0.00087634433 -1.5551828e-05 -0.00039179294 -0.00038594348
000380 22 69 b3 ba 9e d8 82 ba 7f b1 3d 3a 33 b5 5e 3a
       -0.0013687948 -0.000998277 0.0007236227 0.0008495629
000390 7a f8 ca b9 60 bd 58 ba 1f 9e 3f ba f5 d5 3a ba
       -0.00038713572 -0.0008267965 -0.00073096337 -0.0007127219
0003a0 c0 6e 84 3a fe 8a 8b 39 1c 28 bf b8 02 5a 4e 3a
       0.0010103807 0.00026615703 -9.115061e-05 0.00078716886
0003b0 22 ce 0b 38 b0 21 9e 39 0e 40 23 3b 6c c8 9c 39
       3.333216e-05 0.00030161208 0.0024910006 0.00029903965
0003c0 99 8c 48 3a c1 c0 f4 39 1e 78 d6 b9 87 a9 2f 3a
       0.0007650345 0.0004668292 -0.00040906755 0.0006700982
0003d0 ac 00 6b ba e7 db ba b9 bc d5 d0 ba 41 2e 21 3a
       -0.00089646387 -0.00035640525 -0.0015932838 0.0006148555
0003e0 bc c1 69 ba b2 36 37 3a f8 6a e9 39 5a 1c 36 3a
       -0.00089171133 0.0006989046 0.0004452092 0.0006946974
0003f0 ef 60 4e 3a c3 9d 23 ba 2c 0a a0 ba d8 b9 1d 3a
       0.00078727206 -0.0006241465 -0.0012210063 0.00060167676
