statedicts/pl_statedict_db_2022-05-02_FLOWER_FAST_200mBar_200s_P0_R1_s2_seed_2.ckpt (torch, 193785 bytes, 29 tensors)

nn.input_batch.weight f4 [5]
0	0x3f79127d	0.97293836
1	0x3f817fbc	1.0117106
2	0x3f82d756	1.0221965
3	0x3f7fe23e	0.99954593
4	0x3f81a4b5	1.012839

nn.input_batch.bias f4 [5]
0	0x3d26f246	0.040758394
1	0xbd10158e	-0.035176806
2	0xbc944e6c	-0.0181038
3	0x3c1c7c41	0.009551109
4	0xbbdae75e	-0.006680413

nn.input_batch.running_mean f4 [5]
0	0x402a0a65	2.6568844
1	0x3d84b4fb	0.06479832
2	0x40426eda	3.0380158
3	0x403b25ce	2.9241824
4	0x3e464d54	0.19365436

nn.input_batch.running_var f4 [5]
0	0x3c94ca89	0.018162983
1	0x3529ec6a	6.3301434e-07
2	0x3b32b4ee	0.0027268487
3	0x3abd7b59	0.0014456316
4	0x3b00efb0	0.0019674115

nn.block1.linear.weight f4 [96, 5]
0	0xbe5a69a6	-0.21329364
1	0xbed93ef5	-0.42430845
2	0x3e04ea4d	0.12980004
3	0x3c61cc41	0.013781608
4	0xbc403371	-0.011731015
5	0xbe75faac	-0.24021405
6	0x3e9d3674	0.30705607
7	0x3eb4f998	0.35346675
8	0xbdec821b	-0.11548253
9	0xbed96b8e	-0.4246487
10	0x3e2f28dd	0.17105432
11	0xbedb49ea	-0.4282983
12	0x3e1d2365	0.15345533
13	0xbe9cee4b	-0.30650553
14	0xbea1eb6b	-0.31624922
15	0xbe765586	-0.24056062
16	0x3e668a33	0.22513656
17	0x3deda7f5	0.11604301
18	0x3dd94e7c	0.10610673
19	0x3ed1e378	0.40993857
20	0xbd4432b4	-0.047899917
21	0x3e32c419	0.17457618
22	0x3e9d2635	0.30693212
23	0x3ea73f1c	0.32665336
24	0xbed65868	-0.41864324
25	0xbe74fd3b	-0.23924725
26	0xbee12dfb	-0.43980393
27	0xbde488ea	-0.11158927
28	0x3e17b1e5	0.14813955
29	0xbe3d45bc	-0.18483633
30	0xbe86d6f3	-0.26335868
31	0xbe33f4eb	-0.17573898
32	0x3b76141d	0.003754861
33	0xbd88223b	-0.06647154
34	0xbc477281	-0.012173296
35	0x3e5d366b	0.2160279
36	0xbec5eb8a	-0.38656265
37	0xbe57122b	-0.21003024
38	0xbe2c6bc7	-0.16837989
39	0xbe64019a	-0.22266236
40	0x3e8eeb82	0.27914053
41	0xbe83c95b	-0.2573956
42	0xbe296876	-0.16543755
43	0x3e81c217	0.2534339
44	0x3e5a1467	0.21296845
45	0xbe089bb4	-0.13340646
46	0xbe17f9eb	-0.1484143
47	0x3c7a6f43	0.015285316
48	0x3b528235	0.0032121066
49	0xbe673461	-0.22578575
50	0xbe884454	-0.2661463
51	0x3e861631	0.26188806
52	0xbeb369ca	-0.35041648
53	0xbe975092	-0.29553658
54	0xbdd3c15d	-0.103396155
55	0x3ea2fbee	0.31832832
56	0xbe9c81ac	-0.30567682
57	0xbe073f5e	-0.13207766
58	0x3e4f9b3e	0.20274064
59	0x3e27b81c	0.16378826
60	0x3de5790e	0.1120473
61	0xbe4d9a1f	-0.20078324
62	0xbe300cfd	-0.17192455
63	0xbe3a2642	-0.18178657
64	0xbe121425	-0.14265497
65	0xbd373b19	-0.044734094
66	0xbdaa2ccb	-0.08309325
67	0xbd5df531	-0.05418891
68	0xbebde518	-0.37088847
69	0xbe5a5905	-0.21323021
70	0x3e256eb5	0.16155513
71	0xbe482098	-0.19543684
72	0x3d1d1965	0.038354296
73	0x3ed0aece	0.40758365
74	0x3eb5cd8c	0.35508382
75	0xbeaa5f81	-0.3327599
76	0x3cdd564f	0.027018694
77	0xbc8488c5	-0.016178498
78	0xbe6dd4fe	-0.23225781
79	0xbe2131b2	-0.15741614
80	0xbd9d7ee6	-0.076902196
81	0x3ea0864b	0.31352457
82	0x3dbf4858	0.0933997
83	0x3edca99f	0.4309816
84	0x3e138f27	0.14410077
85	0x3ecee3b8	0.4040811
86	0x3ea0084f	0.3125634
87	0x3d571ba4	0.052516595
88	0x3df58a18	0.1198923
89	0xbeca196d	-0.39472523
90	0xbcf4ce2a	-0.029883463
91	0x3ededfad	0.43530026
92	0x3ceaf799	0.028682517
93	0xbedadb13	-0.42745265
94	0xbd335d60	-0.04379022
95	0xbe4e2eac	-0.20134991
96	0xbe9f514f	-0.3111672
97	0x3e66af50	0.22527814
98	0x3dce6346	0.10077529
99	0x3eb9a55a	0.36258966
100	0xbe1eb055	-0.15496953
101	0x3e6002fe	0.21876141
102	0x3d2fb992	0.042901583
103	0x3e82e6fe	0.25566858
104	0xbec816fa	-0.3908003
105	0xbdd0f7ab	-0.10203489
106	0xbe1dc725	-0.15407999
107	0xbcd49352	-0.025949154
108	0x3e85d02a	0.2613538
109	0x3e60f686	0.21969041
110	0xbd0f70b3	-0.035019588
111	0x3c125e03	0.008933547
112	0xbedf2837	-0.4358537
113	0x3ee4b948	0.44672608
114	0xbe347d8b	-0.17626016
115	0xbda79989	-0.081835814
116	0x3c562e64	0.013072584
117	0xbed4f428	-0.41592526
118	0x3e914b21	0.2837763
119	0xbe35f254	-0.17768222
120	0xbe6a3c58	-0.22874582
121	0x3e744bbf	0.2385702
122	0x3dc7fc63	0.09764936
123	0xbe59d9fd	-0.21274562
124	0x3eea88e4	0.45807564
125	0x3e163065	0.14666899
126	0x3e92775f	0.28606698
127	0xbe233a39	-0.15940179
128	0x3e08a33f	0.13343523
129	0x3d49af91	0.0492397
130	0x3ea8e0a0	0.32983875
131	0xbe9a3fa6	-0.30126685
132	0x3d60a840	0.054847956
133	0xbd87421e	-0.06604408
134	0xbeb1ca3d	-0.34724608
135	0x3e8ade7a	0.2712286
136	0x3ecc678c	0.3992275
137	0x3e29e598	0.1659149
138	0x3e66b4e1	0.22529937
139	0xbd7cde11	-0.061735217
140	0x3d43e72f	0.047827896
141	0x3dd53d1e	0.10412048
142	0xbe1a287e	-0.15054509
143	0xbec1df7c	-0.37865818
144	0xbea5da89	-0.32393292
145	0x3e8c7036	0.2742936
146	0xbe759911	-0.23984171
147	0x3e8b33ad	0.27187863
148	0x3e784be8	0.24247706
149	0x3e32c73f	0.17458819
150	0xbdcd63ac	-0.100287765
151	0x3ecfe05b	0.40600857
152	0xbd35b4a7	-0.044361737
153	0xbe1b44dc	-0.15162987
154	0x3dc5b957	0.096544914
155	0x3e8bda6a	0.27315074
156	0x3e5fa19c	0.21838993
157	0x3d114e7c	0.03547524
158	0x3e3a4b9d	0.18192907
159	0xbea0758a	-0.31339675
160	0x3e572ee8	0.21013987
161	0xbe3f29ba	-0.18668261
162	0xbe902ddd	-0.2815999
163	0xbe97217a	-0.29517728
164	0xbe8a0c6c	-0.26962602
165	0xbd464efe	-0.048415177
166	0x3dc5064b	0.09620341
167	0xbe5d70c1	-0.21625043
168	0xbedd89dd	-0.43269244
169	0x3ee1d127	0.44104883
170	0x3ed21c94	0.41037428
171	0xbe6eadce	-0.23308489
172	0x3eaea9fa	0.34114057
173	0xbeb26dd8	-0.3484943
174	0xbe92e7de	-0.28692526
175	0x3ee1b86a	0.4408601
176	0x3c3ac360	0.01139912
177	0xbda9e6fd	-0.08296011
178	0xbe384993	-0.17996816
179	0xbe55f5dc	-0.20894569
180	0xbe31adbb	-0.17351429
181	0x3ee335d2	0.44377
182	0xbeb24ea0	-0.3482561
183	0xbea54a4d	-0.3228325
184	0xbdf9e5bd	-0.12202022
185	0xbd29bf42	-0.041442163
186	0x3ec26ca3	0.37973508
187	0x3d3ed7b2	0.04659242
188	0x3d090282	0.033449657
189	0x3e8a2f07	0.26989004
190	0x3eb04a93	0.34431896
191	0xbe8b140d	-0.27163735
192	0xbed74816	-0.42047185
193	0x3e3e6c41	0.18595983
194	0x3edabc6d	0.42721882
195	0xbe0edd20	-0.1395154
196	0xbe38170a	-0.17977539
197	0x3e614af1	0.22001244
198	0xbeda4486	-0.42630404
199	0xbc89f8b7	-0.01684223
200	0xbed8757c	-0.42277133
201	0x3d4fe201	0.050752643
202	0xbecd086a	-0.40045482
203	0x3db2a788	0.0872336
204	0x3ebedc48	0.37277436
205	0x3be0d631	0.006861471
206	0xbe088743	-0.13332848
207	0x3c80773f	0.015681861
208	0x3e27127f	0.1631565
209	0x3eda9b41	0.42696574
210	0xbe737fa3	-0.23779158
211	0x3e86ae39	0.26304796
212	0xbec1849a	-0.3779648
213	0x3ee12f2b	0.439813
214	0xbe4574cf	-0.1928284
215	0xbd84bdae	-0.06481491
216	0x3ea099c3	0.3136731
217	0x3e873377	0.26406452
218	0xbe5799a1	-0.21054699
219	0xbd2effc9	-0.042724404
220	0xbeb5cb92	-0.35506874
221	0x3c14b1c4	0.009075586
222	0xbecf5d00	-0.4050064
223	0xbeb5f9ef	-0.35542247
224	0x3e78570c	0.24251956
225	0xbe05f6d2	-0.13082436
226	0xbe3f27e8	-0.18667567
227	0xbda201a0	-0.07910466
228	0xbedfdc3f	-0.43722722
229	0x3ece3b42	0.40279585
230	0xbca7bedd	-0.020476753
231	0xbd71f9c1	-0.059076075
232	0xbe4c22d0	-0.19935155
233	0x3e7334ea	0.23750654
234	0xbeb0321e	-0.34413236
235	0x3e301b96	0.17198023
236	0xbea3b658	-0.31975055
237	0xbe328c47	-0.17436324
238	0xbe8ef783	-0.2792321
239	0xbe90d1a1	-0.28284934
240	0xbd82f8ac	-0.06395087
241	0xbea5e80d	-0.32403603
242	0xbe98dac2	-0.298544
243	0xbedf21a6	-0.4358036
244	0x3dea9a73	0.1145524
245	0xbeb073d1	-0.3446336
246	0xbd53b364	-0.051684752
247	0xbdd5d7bd	-0.104415394
248	0xbeb92dbf	-0.36167714
249	0xbe997146	-0.29969233
250	0xbd2b2bc9	-0.041789804
251	0x3ea7baa9	0.32759598
252	0xbdfa2c88	-0.12215525
253	0x3ec4a80d	0.38409463
254	0x3e239f18	0.15978658
255	0xbeac75c3	-0.33683595

nn.block1.linear.bias f4 [96]
0	0x3eb70778	0.35747886
1	0xbd9c11ee	-0.07620607
2	0xbd8ccdf7	-0.06875222
3	0xbdc61280	-0.09671497
4	0xbebdd06f	-0.37073085
5	0xbec08d89	-0.37607983
6	0xbee175af	-0.44035098
7	0x3eb16c0f	0.34652755
8	0xbecb6590	-0.39725924
9	0xbee15fc9	-0.4401839
10	0x3d27e302	0.040987976
11	0xbe1dc6c6	-0.15407857
12	0x3da53fad	0.08068786
13	0xbeb76569	-0.35819557
14	0xbdb1a1c8	-0.086734354
15	0x3ec8facb	0.3925384
16	0x3d848b59	0.06471891
17	0xbed2c726	-0.41167563
18	0xbe358718	-0.17727315
19	0xbebb8225	-0.3662273
20	0xbeade018	-0.33960032
21	0xbed32709	-0.4124072
22	0x3d219bfc	0.0394554
23	0xbe87b69c	-0.26506507
24	0x3e8e158d	0.27750817
25	0x3d141b82	0.036159046
26	0x3e928925	0.28620258
27	0xbedd952d	-0.43277875
28	0xbecd8e6b	-0.4014772
29	0x3e4a8858	0.19778574
30	0xbebd12f5	-0.36928526
31	0xbed2573f	-0.41082188
32	0xbebbfff6	-0.3671872
33	0x3d75c56f	0.06000274
34	0xbbfd8ce8	-0.0077377446
35	0xb9ca0caf	-0.00038537892
36	0xbebb6d49	-0.36606815
37	0x3e4739be	0.1945562
38	0x3e82a9bd	0.25520125
39	0x3ebe881b	0.37213215
40	0x3ebf5c5e	0.37375158
41	0x3ed2741f	0.41104218
42	0x3e1cc531	0.15309598
43	0x3d7c37d5	0.061576683
44	0xbdeb7431	-0.11496771
45	0x3d6d8982	0.057992466
46	0x3eaf8a52	0.34285218
47	0xbcf3d4be	-0.02976453
48	0xbd397cb1	-0.04528493
49	0xbe11e50b	-0.14247529
50	0x3ebcaf01	0.36852267
51	0xbe5a1c90	-0.21299958
52	0xbe7a2d30	-0.244313
53	0x3ebc7b92	0.36813027
54	0x3e942934	0.28937685
55	0xbe4be02d	-0.19909735
56	0xbe7ed6b2	-0.24886587
57	0xbeb17b41	-0.34664348
58	0xbe155fb6	-0.14587292
59	0xbe092655	-0.13393529
60	0xbe290a00	-0.16507721
61	0xb94d67ca	-0.00019588988
62	0xbe8f1580	-0.2794609
63	0x3ea49630	0.32145834
64	0xbeb1a0ab	-0.34692892
65	0x3e829748	0.25506043
66	0xbea68c6c	-0.32529008
67	0x3db63f13	0.08898749
68	0xbee2b4cb	-0.4427856
69	0x3eb80c02	0.3594666
70	0x3d7635fe	0.060110085
71	0xbe5a44b3	-0.21315269
72	0xbeb513da	-0.35366708
73	0xbed7e226	-0.42164725
74	0xbec3e16e	-0.38257927
75	0x3e855de1	0.26048186
76	0x3e41cf49	0.1892673
77	0xbe95c091	-0.2924848
78	0x3e16d6ae	0.14730331
79	0xbe379742	-0.17928794
80	0xbdba5dd0	-0.090999246
81	0xbea893d0	-0.32925272
82	0x3e9cd167	0.3062851
83	0xbe33afcb	-0.17547528
84	0x3dd2bd82	0.10290052
85	0xbdbd3abb	-0.092397176
86	0x3d9276e1	0.071515806
87	0xbde85a59	-0.113453574
88	0xbedbbc5a	-0.42917138
89	0xbe5508be	-0.20804116
90	0xbe6b95a9	-0.2300631
91	0xbe81b23b	-0.25331292
92	0xbc64ecc4	-0.013972465
93	0x3ed215aa	0.41032153
94	0xbd3970c9	-0.045273576
95	0xbe98fa41	-0.2987843

nn.block1.batch.weight f4 [96]
0	0x3f7fa0e6	0.99854887
1	0x3f807927	1.0036973
2	0x3f8009a0	1.0002937
3	0x3f80639e	1.0030401
4	0x3f80145e	1.0006216
5	0x3f7fb08b	0.9987876
6	0x3f80536f	1.0025462
7	0x3f8020a1	1.0009958
8	0x3f7f7c45	0.99798995
9	0x3f7fc4a1	0.99909407
10	0x3f8000a1	1.0000192
11	0x3f7fc4e9	0.99909836
12	0x3f800412	1.0001242
13	0x3f7f2b4b	0.99675435
14	0x3f7fc0fd	0.9990385
15	0x3f7f821d	0.9980791
16	0x3f804d97	1.0023679
17	0x3f7e80d6	0.9941534
18	0x3f804d04	1.0023503
19	0x3f80024d	1.0000702
20	0x3f7ef053	0.99585456
21	0x3f802fe8	1.001462
22	0x3f7fe450	0.9995775
23	0x3f8009a6	1.0002944
24	0x3f7f466c	0.9971683
25	0x3f7ffd19	0.9999557
26	0x3f806db7	1.0033482
27	0x3f801607	1.0006722
28	0x3f7fb646	0.998875
29	0x3f7f6c03	0.9977419
30	0x3f7ff5cf	0.9998445
31	0x3f7efd35	0.99605113
32	0x3f80154f	1.0006503
33	0x3f80bf1d	1.0058323
34	0x3f7e55a2	0.99349415
35	0x3f815f6e	1.0107248
36	0x3f7fba96	0.9989408
37	0x3f7fb4b0	0.9988508
38	0x3f7fb102	0.9987947
39	0x3f7fb097	0.9987883
40	0x3f802575	1.0011431
41	0x3f8001b5	1.0000521
42	0x3f8073d7	1.0035352
43	0x3f801807	1.0007333
44	0x3f7fd1b4	0.99929357
45	0x3f7f4f24	0.99730134
46	0x3f7f9584	0.9983752
47	0x3f800b84	1.0003514
48	0x3f802f2e	1.0014398
49	0x3f80047d	1.000137
50	0x3f7e5253	0.99344367
51	0x3f7fb60b	0.9988715
52	0x3f810c64	1.0081906
53	0x3f803317	1.0015591
54	0x3f806ab6	1.0032566
55	0x3f7f916c	0.9983127
56	0x3f7fc2ee	0.99906814
57	0x3f7f94b8	0.998363
58	0x3f8022b5	1.0010592
59	0x3f7fc7fe	0.9991454
60	0x3f803b30	1.0018063
61	0x3f800aab	1.0003256
62	0x3f7d941c	0.9905412
63	0x3f803d3d	1.0018688
64	0x3f8036ef	1.0016764
65	0x3f8060d1	1.0029546
66	0x3f809899	1.0046569
67	0x3f7f45db	0.99715966
68	0x3f802802	1.001221
69	0x3f8020b6	1.0009983
70	0x3f80067f	1.0001982
71	0x3f7f3dca	0.9970366
72	0x3f7f7ee3	0.9980299
73	0x3f7f30d9	0.9968391
74	0x3f7d0041	0.9882851
75	0x3f7faba8	0.998713
76	0x3f805f25	1.0029036
77	0x3f800c82	1.0003817
78	0x3f8036e4	1.0016751
79	0x3f7f2707	0.99668926
80	0x3f8045ad	1.0021263
81	0x3f804947	1.0022362
82	0x3f8028de	1.0012472
83	0x3f802645	1.0011679
84	0x3f800418	1.0001249
85	0x3f7fccf7	0.99922127
86	0x3f808dd0	1.0043278
87	0x3f7f783a	0.99792826
88	0x3f7f5115	0.99733096
89	0x3f802646	1.001168
90	0x3f8037ab	1.0016989
91	0x3f7fd764	0.99938035
92	0x3f801025	1.0004927
93	0x3f809610	1.0045795
94	0x3f809c5c	1.0047717
95	0x3f7ffc61	0.99994475

nn.block1.batch.bias f4 [96]
0	0xba8f9e95	-0.0010957295
1	0x3a68577d	0.00088631344
2	0x3b5389ee	0.0032278257
3	0xba59cf7e	-0.0008308812
4	0xbb05c320	-0.0020410493
5	0x3a911e89	0.0011071722
6	0x3a7b120b	0.0009577579
7	0xb754418e	-1.2651448e-05
8	0xb83705fa	-4.3636166e-05
9	0xbabf8be7	-0.0014613838
10	0x3af9c2e9	0.001905528
11	0x3b7b77df	0.003837101
12	0x3b137b78	0.0022504013
13	0xba8bd78d	-0.0010669098
14	0x3af00bdb	0.001831408
15	0xbacd4994	-0.0015662187
16	0x3adb74ec	0.001674322
17	0x3b24e105	0.0025158536
18	0x3a5f0b2c	0.00085084396
19	0x393582f7	0.00017310293
20	0xbba194bf	-0.004931062
21	0xbb650a37	-0.0034948715
22	0xba311394	-0.00067549315
23	0xbb956db2	-0.004560196
24	0x3ac85520	0.0015284158
25	0x39a1f008	0.0003088715
26	0x38d8d062	0.00010338497
27	0x392655c5	0.00015862945
28	0x3b64dab8	0.0034920406
29	0xba96929f	-0.0011487788
30	0x3b86fdb5	0.0041195997
31	0xbb074984	-0.0020643184
32	0xbb763866	-0.0037570237
33	0xb982a91e	-0.00024921534
34	0xbb36ec52	-0.0027911854
35	0xbaf867cb	-0.0018951831
36	0x3b3b7dc4	0.0028608898
37	0xb91fe0e9	-0.00015247207
38	0x387a61d6	5.969576e-05
39	0x383b8eae	4.4717155e-05
40	0x3b0cceae	0.0021485495
41	0x3a1681d7	0.00057413935
42	0x3a50bb35	0.00079624663
43	0xba8053d3	-0.0009790607
44	0xb9a5e6fa	-0.00031643343
45	0x3b633494	0.003466879
46	0xbb6f8832	-0.0036549685
47	0x3b04eac5	0.0020281535
48	0x390d8e3d	0.00013499796
49	0x3ae28c61	0.0017284268
50	0x3b3ae257	0.0028516257
51	0x3ac4460a	0.0014974487
52	0xba1a7b48	-0.0005893004
53	0xba8b6fdf	-0.0010638199
54	0x3a9104df	0.0011064074
55	0xbb3ee4cd	-0.0029128075
56	0xbb38317e	-0.0028105672
57	0x3ac4c394	0.00150119
58	0xbaa01e84	-0.0012216126
59	0xbb1f2b63	-0.0024287335
60	0x388127ef	6.1586376e-05
61	0x3a147dab	0.0005664478
62	0x3b469ab6	0.0030304617
63	0xb9b8acdd	-0.00035224008
64	0x3a24a822	0.0006281157
65	0x3abdd525	0.0014483078
66	0xb7f3f0a7	-2.907992e-05
67	0x3aae70fb	0.0013308817
68	0x3b1dd84a	0.0024085217
69	0x3a9b606e	0.00118543
70	0x3a23e2e4	0.0006251766
71	0x3ac50e43	0.0015034158
72	0x3b1f1557	0.0024274194
73	0x3b42fe05	0.0029753458
74	0x3ab24be8	0.0013602944
75	0xb9a84cd8	-0.0003210071
76	0xb9b1b64d	-0.00033895895
77	0x3ad762ed	0.001643268
78	0xbb251d78	-0.0025194567
79	0xbb023383	-0.001986713
80	0xba616bab	-0.00085991126
81	0x398a1663	0.0002633809
82	0x3aa4e581	0.0012580605
83	0x3b689957	0.0035491788
84	0xbbacf344	-0.005278023
85	0xbaa11217	-0.0012288716
86	0x3b317c22	0.0027082046
87	0xba0b03b3	-0.00053029804
88	0x3847d34a	4.7642076e-05
89	0x3b8a4caa	0.004220565
90	0x3a828ecb	0.0009960769
91	0x3ab1757b	0.001353904
92	0xba186fc1	-0.00058149925
93	0xbb830794	-0.003998706
94	0x3a3466d4	0.00068817777
95	0x3b1d5abf	0.0024010388

nn.block1.batch.running_mean f4 [96]
0	0x3eb976d4	0.3622347
1	0x3e81dcee	0.25363868
2	0x3e050d25	0.12993295
3	0x3d893163	0.06698873
4	0x3c3905d0	0.01129289
5	0x3c4a3b8e	0.0123433005
6	0x3c0cb58d	0.008588207
7	0x3ebe8313	0.37209377
8	0x3e17816d	0.14795466
9	0x3c49a7a7	0.012308038
10	0x3ec8d6b2	0.392263
11	0x3e5d2243	0.21595101
12	0x3e1cd330	0.15314937
13	0x3e04d0bc	0.12970251
14	0x3eb67fba	0.35644323
15	0x3efffd02	0.49997717
16	0x3e63aef1	0.22234704
17	0x3944f5e9	0.00018783625
18	0x3e219555	0.15779622
19	0x3cc65357	0.024209661
20	0x3ccc50ad	0.024940813
21	0x3d15b716	0.036551557
22	0x3e3f6e0e	0.18694326
23	0x3d9ea52f	0.0774635
24	0x3e834001	0.2563477
25	0x3dd4e35c	0.10394928
26	0x3ea90999	0.33015135
27	0x3c9c40ee	0.01907393
28	0x3e2e5a0f	0.17026542
29	0x3efd64b7	0.49490902
30	0x3c858dd6	0.016302984
31	0x38a41b67	7.8252335e-05
32	0x3dc710d5	0.09720007
33	0x3e244ee3	0.16045718
34	0x3e4d4434	0.20045549
35	0x3d97a962	0.07405354
36	0x3e7a2d8a	0.24431434
37	0x3e5445f7	0.20729814
38	0x3f00d455	0.5032399
39	0x3ee2c117	0.4428794
40	0x3edd4841	0.43219188
41	0x3f07d572	0.53060067
42	0x3e83c153	0.25733432
43	0x3e32421d	0.17408033
44	0x3e910395	0.28323045
45	0x3dff2772	0.124586955
46	0x3eb3c3ef	0.35110423
47	0x3e2a07a8	0.16604483
48	0x3e5176e7	0.20455514
49	0x3eb18f1a	0.3467949
50	0x3ec75a3c	0.3893603
51	0x3e43d923	0.191258
52	0x3cd5d6fb	0.026103487
53	0x3ed0c482	0.40774924
54	0x3f05c893	0.52259177
55	0x3e06ccfd	0.13164134
56	0x3c847a3b	0.016171565
57	0x3d12f87f	0.035881516
58	0x3ce4b791	0.027919563
59	0x3dad951f	0.08475708
60	0x3d1a4de8	0.037671953
61	0x3dfd4bda	0.12367983
62	0x39e7cfc5	0.00044214554
63	0x3eefe622	0.46855265
64	0x3d9a40f8	0.07531923
65	0x3e8226e1	0.25420287
66	0x3ca28a9c	0.019841485
67	0x3e50a5a0	0.20375681
68	0x3d958b83	0.073020004
69	0x3eb72c5d	0.35776034
70	0x3e39deb9	0.18151368
71	0x3daf8c32	0.08571662
72	0x3e21593b	0.15756695
73	0x3ce0f95b	0.027462652
74	0x3a05397d	0.0005082114
75	0x3eab13f1	0.33413652
76	0x3e8e972b	0.27849707
77	0x3d7d147c	0.061787114
78	0x3e7fd1c0	0.24982357
79	0x3e4f4f15	0.20245011
80	0x3ecc95a2	0.3995791
81	0x3dc53da9	0.09630901
82	0x3efba3d9	0.49148443
83	0x3e555343	0.20832543
84	0x3e297136	0.16547093
85	0x3cdb5de0	0.026778162
86	0x3e3d4787	0.18484317
87	0x3e2f6185	0.17127044
88	0x39e4aec7	0.00043617768
89	0x3e6ae8c3	0.22940354
90	0x39b9cfe3	0.00035440837
91	0x3e3c8188	0.18408787
92	0x3e134c2d	0.14384528
93	0x3ed570b3	0.41687545
94	0x3e8150fd	0.25257102
95	0x3e1485ce	0.14504167

nn.block1.batch.running_var f4 [96]
0	0x3c23bacb	0.009993265
1	0x3dc983bc	0.098395795
2	0x3cbd526a	0.023110587
3	0x3c303766	0.0107553955
4	0x3aadfbca	0.0013273892
5	0x3b1d1c43	0.0023973144
6	0x3aa02323	0.0012217503
7	0x3d6f8784	0.058478847
8	0x3db19cfd	0.08672521
9	0x3b0c94fb	0.0021451104
10	0x3ed54812	0.41656548
11	0x3dfcf807	0.12351995
12	0x3d5b3f8e	0.053527407
13	0x3d9f2e35	0.07772485
14	0x3e6683b2	0.22511175
15	0x3ea66003	0.32495126
16	0x3d773902	0.0603571
17	0x3834cd0d	4.3106313e-05
18	0x3dabda30	0.08391225
19	0x3b147137	0.002265049
20	0x3bbc4c64	0.005746411
21	0x3c134384	0.008988265
22	0x3d8d14ff	0.0688877
23	0x3cccada5	0.024985144
24	0x3c9dee3f	0.019278644
25	0x3cde5377	0.027139409
26	0x3d0d4f2c	0.034499332
27	0x3b1e7268	0.0024177078
28	0x3e0825a4	0.13295609
29	0x3e7800c4	0.24219042
30	0x3b496872	0.003073242
31	0x37a6f15c	1.9901134e-05
32	0x3d640bc2	0.055675276
33	0x3d6b09d9	0.05738244
34	0x3d5651dd	0.052324165
35	0x3c1b87a6	0.00949279
36	0x3e80e679	0.25175837
37	0x3cb7bb1e	0.022428092
38	0x3eee0627	0.4648907
39	0x3de9f38e	0.114234075
40	0x3e709c74	0.23497182
41	0x3e5ef5c0	0.21773434
42	0x3ddab8f8	0.10679811
43	0x3cccc551	0.024996432
44	0x3e6ed540	0.23323536
45	0x3d0532c0	0.032519102
46	0x3d81ef0b	0.06344422
47	0x3db11afb	0.08647724
48	0x3df6c2a8	0.120488465
49	0x3ebb114b	0.3653663
50	0x3e07402a	0.1320807
51	0x3df3a780	0.118971825
52	0x3b303315	0.0026885916
53	0x3e4169cc	0.18888015
54	0x3e658a4b	0.22416036
55	0x3cd053c6	0.025430571
56	0x3b06a0f0	0.0020542704
57	0x3c1b7127	0.009487427
58	0x3b5cee20	0.003371127
59	0x3cee45f7	0.029086096
60	0x3c220c70	0.009890661
61	0x3d1747b7	0.036933627
62	0x38bbf168	8.96182e-05
63	0x3e262ea2	0.16228727
64	0x3cde229f	0.027116118
65	0x3cf915ce	0.030405905
66	0x3b1b3d2a	0.002368758
67	0x3da5a0a4	0.080872804
68	0x3ceaf298	0.02868013
69	0x3d27a614	0.04092987
70	0x3d47020c	0.048585936
71	0x3c4522ae	0.012032194
72	0x3dbb4a9f	0.09145092
73	0x3bd67e9e	0.0065458557
74	0x38cc9760	9.755674e-05
75	0x3da2a145	0.07940916
76	0x3de40c2b	0.11135133
77	0x3c9137de	0.017726835
78	0x3ded2299	0.115788646
79	0x3d929e82	0.07159139
80	0x3ec95540	0.39322853
81	0x3cd4309b	0.025902083
82	0x3e4ad6c8	0.19808495
83	0x3db1c09f	0.08679318
84	0x3d317d6f	0.043332513
85	0x3b4400c8	0.0029907692
86	0x3d0b6ce5	0.034039397
87	0x3dcd21d8	0.10016221
88	0x38ece8a6	0.00011296691
89	0x3e3566a8	0.17714942
90	0x3809c65b	3.284808e-05
91	0x3dd7e082	0.10540868
92	0x3cc9ac73	0.024618363
93	0x3decbb86	0.11559205
94	0x3db40be6	0.08791332
95	0x3dad3463	0.084572576

nn.block2.linear.weight f4 [256, 96]
0	0xbce25f08	-0.027633205
1	0xbd449de2	-0.04800213
2	0x3d78a492	0.06070382
3	0xbdab2a57	-0.08357685
4	0x3db51d27	0.08843451
5	0xbcf68885	-0.030094394
6	0x3d6137f1	0.05498499
7	0x3d692728	0.056922108
8	0x3d9ca28b	0.0764819
9	0x3c8f96eb	0.017528018
10	0xbd64cae9	-0.055857573
11	0x3d33bcc2	0.043881185
12	0x3c1ab091	0.009441511
13	0x3d177be7	0.036983397
14	0xbc02885c	-0.007967081
15	0x3d573fa1	0.052550916
16	0xbba53dc0	-0.0050427616
17	0xbd94ff4b	-0.07275256
18	0xbbfb7ba7	-0.0076746526
19	0x3c5d0d00	0.013491869
20	0x3c9fc76f	0.019504277
21	0x3d785ea1	0.06063712
22	0xbd64aac5	-0.05582692
23	0xba8124f8	-0.0009852936
24	0x3dc12c42	0.0943227
25	0x3dc7c0c5	0.09753565
26	0xbdc707bc	-0.09718272
27	0xba86e208	-0.0010290751
28	0x3ab0b421	0.0013481417
29	0x3d8592e9	0.065221615
30	0xbcdce6e9	-0.026965575
31	0x3db5609a	0.08856316
32	0x3c77a292	0.015114443
33	0x3da1e5fb	0.079051934
34	0x3d46ae57	0.048506107
35	0xbd3e480b	-0.046455424
36	0xbd005c45	-0.031337995
37	0xbdb443a3	-0.08801963
38	0xbcd8c527	-0.026461197
39	0xbda26383	-0.079291366
40	0xbca764d4	-0.02043382
41	0x3d86bc64	0.065789014
42	0x3d7029c1	0.05863357
43	0x3d89e802	0.06733705
44	0x3cf9f4ba	0.030512203
45	0xbdbff5ab	-0.09373029
46	0x3dacac7a	0.08431335
47	0x3da1cc29	0.079002686
48	0x3af03359	0.001832585
49	0x3d920208	0.07129294
50	0xbc23a3e5	-0.009987806
51	0x3c39b524	0.011334691
52	0x3da2d4fe	0.07950781
53	0x3d2436b9	0.04009125
54	0x3dd00b54	0.10158411
55	0x3d9e9a2a	0.07744248
56	0xbc89571d	-0.016765172
57	0xbdcd024a	-0.10010202
58	0x3da211c5	0.079135455
59	0xbd29c0b2	-0.041443534
60	0xbd62b8df	-0.055352088
61	0xbdbf1694	-0.09330478
62	0xbd111651	-0.035421673
63	0x3dae1fc4	0.085021526
64	0x3d24fc40	0.040279627
65	0x3d61d69f	0.05513632
66	0x3dae4d76	0.08510868
67	0x3d9590f1	0.07303036
68	0xbd17258b	-0.03690104
69	0x3d284dbc	0.04108976
70	0x3bc668c5	0.00605497
71	0x3d882163	0.06646993
72	0x3d93ba12	0.072132245
73	0xbda6c7c0	-0.08143568
74	0x3db371fd	0.08761976
75	0xbd0f8fc3	-0.03504921
76	0xbd6408e2	-0.055672534
77	0xbd42ddba	-0.047574736
78	0x3c528a90	0.012850419
79	0x3d9c71a9	0.076388665
80	0xbd849a49	-0.0647474
81	0xbd4c7adf	-0.049921867
82	0xbdc1c124	-0.09460667
83	0x3d8ca85b	0.06868049
84	0xbd1bc1ce	-0.038026623
85	0xbd9e508d	-0.077302076
86	0xbd8d065e	-0.0688598
87	0x3dc0e4e6	0.09418659
88	0xbd620d16	-0.05518826
89	0x3da73228	0.081638634
90	0xbd073c25	-0.033016343
91	0x3d87ae2b	0.06625017
92	0xbdba32bb	-0.09091707
93	0xbca8a6ba	-0.020587314
94	0x3d492b98	0.04911384
95	0xbc8cc62b	-0.017184338
96	0x3cb276ed	0.021785224
97	0x3d2354ba	0.039875723
98	0x3ca1d6fa	0.01975583
99	0x3dac2d74	0.08407107
100	0x3d9162b5	0.07098905
101	0xbc4f04ac	-0.012635391
102	0x3dc721f3	0.09723272
103	0xbcd09338	-0.025460824
104	0x3d94722f	0.07248341
105	0xbdb8aaf1	-0.090169795
106	0xbda1796c	-0.078844875
107	0xbd8c896d	-0.068621494
108	0xbd283514	-0.041066244
109	0x3d8f1f18	0.069883525
110	0x3bacd87d	0.005274831
111	0xbd94dd68	-0.072687924
112	0x3d8bd403	0.068275474
113	0x3d1929c8	0.03739336
114	0x3d54882d	0.05188768
115	0x3c2be908	0.010492571
116	0x3d221f1e	0.039580457
117	0xbd697842	-0.056999452
118	0x3d731394	0.059344843
119	0x3c77a396	0.0151146855
120	0x3d30edff	0.04319572
121	0xbc3f6152	-0.011680918
122	0x3d8762ce	0.066106424
123	0xbd649a49	-0.0558112
124	0xbcf60375	-0.030030945
125	0x3ba8a62d	0.005146763
126	0x3d26eae9	0.04075137
127	0xbd6b991a	-0.057519056
128	0x3dcc7e0c	0.09984979
129	0x3d084bdb	0.033275466
130	0xbdba7c5f	-0.09105753
131	0x3bd2a36c	0.006428173
132	0x3bd00b51	0.0063490053
133	0xbd353d6d	-0.044248033
134	0x3d4bbe81	0.049742226
135	0x3c7f35a7	0.015576757
136	0x3c4dc128	0.012558259
137	0x3d434be2	0.04767979
138	0x3db67721	0.08909441
139	0x3d36bf7d	0.04461621
140	0x3d47a0cd	0.048737336
141	0xbd9ace26	-0.07558851
142	0x3d2295c5	0.039693613
143	0x3d977f5d	0.073973395
144	0xbc409886	-0.011755114
145	0xbdc37117	-0.095430546
146	0xbd944268	-0.072392285
147	0xbca27557	-0.019831343
148	0x3d4cae18	0.049970716
149	0xbd3488fa	-0.044075944
150	0xbcbc20f6	-0.022964936
151	0xbdc0b0a1	-0.09408689
152	0x3daedeb2	0.085385695
153	0xbd4ed8ad	-0.050499607
154	0x3da3cf48	0.0799852
155	0x3db1b2ff	0.08676719
156	0xbd85d968	-0.065356076
157	0xbd916eed	-0.071012355
158	0xbd92a107	-0.0715962
159	0x3be653b1	0.0070290198
160	0xbd8116fd	-0.06303213
161	0x3d7567e1	0.05991352
162	0x3c8a4b96	0.016881745
163	0x3d94881a	0.07252522
164	0xbd7ff432	-0.062488742
165	0x3d981b19	0.074270435
166	0x3d8baf26	0.06820516
167	0xbc8e8d59	-0.017401384
168	0x3dbcbcf6	0.09215729
169	0x3c3aa28b	0.011391292
170	0xbd20d684	-0.039267078
171	0x3d63924a	0.055559434
172	0xbdba2de2	-0.09090783
173	0xbd9b8a39	-0.07594723
174	0xbd9dd998	-0.07707518
175	0x3c5ede4d	0.013602805
176	0x3c88d917	0.016705079
177	0x3db4b53c	0.0882363
178	0xbdd063ed	-0.10175309
179	0xbce0c3fb	-0.0274372
180	0xbd65b99b	-0.05608521
181	0x3d932fc8	0.07186848
182	0x3da71136	0.081575796
183	0x3dcaaf37	0.09896701
184	0x3d0beb19	0.034159753
185	0x3d11006b	0.03540079
186	0xbc9d8962	-0.019230548
187	0x3c51b2e5	0.012798999
188	0xbc3d42e6	-0.011551594
189	0x3db0cc5f	0.08632731
190	0x3cd16e50	0.025565296
191	0x3c31ceb1	0.010852502
192	0x3d8ddec3	0.06927254
193	0x3cec1911	0.028820546
194	0x3cf57937	0.029965026
195	0xbc8fd0a7	-0.017555548
196	0xbda45707	-0.08024412
197	0x3d5fb03f	0.05461144
198	0x3cd09e19	0.025466012
199	0x3a8a2ad3	0.0010541327
200	0xbdbfceb8	-0.093656
201	0xbdb1d8e9	-0.086839505
202	0xbd1859c8	-0.037194997
203	0x3db9d014	0.09072891
204	0xbd00a587	-0.03140786
205	0xbc24eabf	-0.010065733
206	0xbcda6544	-0.026659615
207	0xbd8cd331	-0.06876219
208	0x3c872d2f	0.016501037
209	0xbc5d4af2	-0.013506638
210	0x3dc36475	0.09540645
211	0x3ab39967	0.0013702334
212	0xbdbe6b7e	-0.09297846
213	0x3d8f6e05	0.070034064
214	0xbd0d12f2	-0.034441896
215	0x3d2be231	0.04196376
216	0x3d879b5b	0.066214286
217	0xbdbeda13	-0.09318938
218	0x3cdcd138	0.026955232
219	0xbd863f76	-0.06555073
220	0xbd0662ca	-0.032809056
221	0xbcdbc104	-0.026825435
222	0xbb5cd172	-0.0033694175
223	0xbc71bb15	-0.0147540765
224	0xbc9622d4	-0.018327154
225	0x3db88c5c	0.090111464
226	0xbd9d9cc9	-0.0769592
227	0x3d5a9257	0.053362217
228	0x3bb64831	0.005562805
229	0x3d983d40	0.074335575
230	0xbd5ff9c2	-0.054681547
231	0x3c2c7bd5	0.010527571
232	0xbd7b6b98	-0.061381906
233	0x3cac40fa	0.021027077
234	0x3dd396d8	0.103315055
235	0x3cae5bb1	0.021283956
236	0x3cbbd21e	0.02292734
237	0x3ccafd27	0.024778916
238	0x3d67978f	0.056541022
239	0x3d9ce1f9	0.07660288
240	0xbbb76163	-0.005596326
241	0xbd230f23	-0.039809357
242	0x3d700ca5	0.05860581
243	0xbcad0ce2	-0.021124307
244	0xbc16096c	-0.00915752
245	0x3c3b04cd	0.011414719
246	0xbd6c9c9c	-0.05776654
247	0xbd8f255f	-0.0698955
248	0xbd441a1e	-0.04787647
249	0x3d30b41d	0.04314052
250	0xbd9e810f	-0.0773946
251	0x3d966da4	0.07345131
252	0xbdadeb23	-0.084921144
253	0x3d25a7ec	0.040443346
254	0xbdbe84a9	-0.09302647
255	0xbcf8575c	-0.030315094

nn.block2.linear.bias f4 [256]
0	0x3cda4864	0.026645847
1	0xbd6064e1	-0.054783706
2	0xbd5e1caf	-0.054226574
3	0xbb53e968	-0.0032335166
4	0x3b0a7b95	0.002113079
5	0xbcada39b	-0.021196177
6	0x3d6efe91	0.058348242
7	0xbbed7850	-0.0072470084
8	0x3cd54026	0.026031565
9	0xbda4ef36	-0.08053438
10	0xbdcd9481	-0.100380905
11	0xbd22f6b1	-0.039786045
12	0x3d63f6ec	0.055655405
13	0xbcf0009a	-0.029297162
14	0x39e4dffd	0.00043654433
15	0x3aec97e4	0.0018050638
16	0xbdb86e96	-0.090054676
17	0xbdc3dd92	-0.095637456
18	0x3d10be87	0.03533795
19	0xbca3997c	-0.019970648
20	0x3da2b8b2	0.07945384
21	0xbdaac2f5	-0.08337966
22	0x3adc65a9	0.0016814965
23	0x3c8e2935	0.017353633
24	0xbcf27410	-0.029596359
25	0xbd8531ba	-0.06503625
26	0x3c5094d3	0.012730795
27	0x3d7ccf3a	0.061721064
28	0xbceef2be	-0.029168483
29	0xbd4ed092	-0.050491877
30	0x3d24b896	0.040215097
31	0xbd6f0b1f	-0.058360215
32	0x3d552497	0.052036848
33	0xbd9910e7	-0.07473927
34	0xbbdb6417	-0.0066952812
35	0x3db5aa13	0.0887033
36	0xbd9a87a6	-0.07545404
37	0xbdb8d4a0	-0.0902493
38	0xbd834586	-0.06409745
39	0xbda5e7f4	-0.08100882
40	0xbdc33252	-0.09531082
41	0x3d97f131	0.074190505
42	0x3d69cb11	0.057078425
43	0x3d5a61cd	0.053315926
44	0xbcef79a5	-0.02923281
45	0x3d41b8d9	0.047295425
46	0x3bc89ecb	0.006122445
47	0x3d6368dd	0.055519927
48	0x3ad433c5	0.0016189745
49	0x3a07493c	0.0005160754
50	0xbd54fed7	-0.052000847
51	0xbdb18510	-0.08667958
52	0x3d4fc5e0	0.050725818
53	0x3d958303	0.07300379
54	0xbda5acfe	-0.08089636
55	0xbcce05ab	-0.025149187
56	0x3d5ccacc	0.05390434
57	0x3d13020e	0.03589063
58	0xbd3af587	-0.04564431
59	0x3c96e92f	0.018421737
60	0x3d150e18	0.036390394
61	0xbd395376	-0.04524561
62	0xbd389d13	-0.045071673
63	0xbb8c9d30	-0.004291199
64	0xbd623cd0	-0.055233777
65	0xbd2e2885	-0.04251911
66	0x3db99019	0.090606876
67	0xbd2780df	-0.040894385
68	0xbc8ff0f7	-0.017570956
69	0xbd6bd1e4	-0.057573214
70	0xbd09dd84	-0.03365852
71	0x3dd161c1	0.10223723
72	0xbcd517c3	-0.026012307
73	0x3da2642a	0.07929261
74	0x3d8c57a8	0.068526566
75	0x3d80a4e3	0.0628145
76	0xbdb84c6f	-0.089989536
77	0x3dc87017	0.097870044
78	0xbcb209ca	-0.021733183
79	0x3d24e9a2	0.040261872
80	0xbd54ca6a	-0.05195085
81	0xbd8c85c5	-0.06861452
82	0xbcf8cd9c	-0.03037148
83	0xbd870e2c	-0.065945
84	0x3b269e19	0.0025423823
85	0x3cf0aa91	0.029378207
86	0x3cc964b4	0.024584152
87	0xbd5d6610	-0.054052413
88	0x3baa2f62	0.0051936368
89	0x3d76589b	0.060143095
90	0xbdc59dda	-0.096492484
91	0x3d4bb95b	0.049737316
92	0xbda52d1d	-0.08065245
93	0xbcdf4d5c	-0.027258568
94	0xbc2a6a6f	-0.010401352
95	0x3d3dcf9c	0.04634057
96	0xbd75ce10	-0.06001097
97	0xbd5a4df5	-0.053297002
98	0xbcffd578	-0.03122972
99	0x3c1f8fd7	0.009738884
100	0xbd878a54	-0.06618181
101	0xbd21caa0	-0.03949988
102	0x3d98f1e7	0.07468014
103	0x3d359d39	0.044339392
104	0xbd9eefd9	-0.07760591
105	0xbdd5d54f	-0.10441076
106	0x3d47a14d	0.048737813
107	0xbda4b7bd	-0.08042858
108	0xbda300b2	-0.07959117
109	0xbdb69402	-0.08914949
110	0xbd43759e	-0.04771959
111	0xbd471143	-0.048600446
112	0xbdb83e0e	-0.08996211
113	0xbd1046df	-0.035223838
114	0x3d154f60	0.03645265
115	0xbdc21e09	-0.09478385
116	0x3d8ac493	0.06775775
117	0xbd86cd0d	-0.06582079
118	0xbc551d59	-0.013007485
119	0xbd8767d6	-0.06611602
120	0x3d39013a	0.045167185
121	0xbd67c376	-0.05658289
122	0x3d893697	0.06699865
123	0x3d7e697c	0.062112316
124	0xbd66dd0b	-0.056363147
125	0xbdc0631c	-0.093939036
126	0x3d7753e4	0.06038274
127	0x3d855aec	0.065114826
128	0xbd720cf7	-0.059094395
129	0x3dc4fe69	0.096188374
130	0x3c70e044	0.014701907
131	0xbbbda496	-0.0057874424
132	0x3daa4e92	0.08315767
133	0xbd13ff54	-0.03613217
134	0xbd79f56b	-0.061025064
135	0x3dd3b425	0.10337094
136	0x3db84819	0.089981265
137	0xbd971ba7	-0.07378321
138	0xbd227451	-0.03966171
139	0x3db9979b	0.090621196
140	0xbba26b90	-0.00495667
141	0x3daf6130	0.08563459
142	0x3dc31602	0.09525682
143	0xbd818ce4	-0.06325701
144	0xbcb49ca0	-0.02204734
145	0x3d4ff6b8	0.0507724
146	0xbdbf16c1	-0.09330512
147	0x3da0b7ac	0.07847533
148	0x3dc3075e	0.095228896
149	0x3cdc3a37	0.026883228
150	0xbd898f09	-0.06716735
151	0xbce47a63	-0.02789039
152	0x3d613807	0.054985072
153	0x3c64ba08	0.013960369
154	0xbc98ad64	-0.018637367
155	0xbd412347	-0.047152784
156	0xbd626643	-0.055273306
157	0xbda4c958	-0.08046216
158	0x3d55c515	0.052189905
159	0xbd828a6c	-0.06374058
160	0xbc348f54	-0.0110205
161	0xbd465b32	-0.048426814
162	0xbdc6c689	-0.09705836
163	0x3c673d8d	0.014113796
164	0xbda51ee1	-0.0806253
165	0x3d8afcb5	0.06786481
166	0x3db2990d	0.08720598
167	0x3c49968a	0.012303958
168	0xbd25920b	-0.04042248
169	0x3c492a51	0.012278155
170	0x3d727f58	0.059203476
171	0x3c3cc417	0.011521361
172	0xbdc5709f	-0.096406214
173	0xbb702ae8	-0.0036646668
174	0x3ce2450e	0.027620818
175	0xbd0c9d01	-0.034329418
176	0xbb9296bd	-0.004473536
177	0xb918ff90	-0.00014591054
178	0x3d55627f	0.052095886
179	0x3d98b582	0.07456495
180	0x3d3811cd	0.04493885
181	0x3d57dbbc	0.05269979
182	0x3d9f9fdb	0.07794162
183	0x3ce011d1	0.027352246
184	0xbd997a48	-0.074940264
185	0xbc72c7c7	-0.014818138
186	0xbd3aa37a	-0.04556606
187	0xbd9c9190	-0.07644951
188	0xbd620cf0	-0.05518812
189	0xbd8eae2d	-0.06966815
190	0xbb90dbd9	-0.004420739
191	0xbda72041	-0.08160449
192	0xbd6393cc	-0.055560872
193	0x3da1ff81	0.07910062
194	0xbce5d710	-0.028056651
195	0x3d2598c2	0.040428884
196	0x3dae1ba0	0.08501363
197	0xbbb08aa4	-0.005387621
198	0x3d43fd94	0.047849253
199	0xbcb592f2	-0.022164796
200	0xbdae139e	-0.084998354
201	0x3d831598	0.06400603
202	0xbd939569	-0.07206232
203	0xbd9b43e3	-0.07581308
204	0xbc5bc6af	-0.013414069
205	0xbc967ed6	-0.018371027
206	0x3da14687	0.0787478
207	0xbdb89500	-0.090127945
208	0x3d9a293e	0.075273976
209	0xbd207b9e	-0.03918039
210	0xbdb47635	-0.08811609
211	0xbc8fe1e7	-0.017563773
212	0xbd047aad	-0.032343555
213	0xbce1ef9d	-0.027580077
214	0x3c4c30bf	0.012462794
215	0x3dbc05f8	0.09180826
216	0x3d330b66	0.043712042
217	0xbd8dcc82	-0.069237724
218	0xbcc66d02	-0.0242219
219	0xbd8966ec	-0.06709084
220	0x3daa18c5	0.08305506
221	0xbc34356f	-0.010999068
222	0x3dc6c0f0	0.09704769
223	0xbd194e2f	-0.037428077
224	0xbdb9bd5c	-0.090693206
225	0x3d0dfbf5	0.034664113
226	0x3bb192be	0.0054191044
227	0x3db80e0e	0.08987056
228	0x3dbbd4e7	0.09171467
229	0x3dc72989	0.09724719
230	0x3d4ea711	0.050452296
231	0xbd8387f6	-0.06422417
232	0x3d7c218a	0.061555423
233	0x3b903bc6	0.004401657
234	0xbcfdcced	-0.030981505
235	0xbcd2a4ed	-0.025713408
236	0x3dc6598b	0.09685048
237	0xbc462409	-0.012093552
238	0x3a9c550e	0.0011927204
239	0x3d9a8e3e	0.07546662
240	0xbd34a7d6	-0.044105373
241	0xbda3738f	-0.079810254
242	0x3bc69490	0.0060601905
243	0xbc26a1d9	-0.010170423
244	0xbd9902a0	-0.07471204
245	0x3ce63087	0.028099312
246	0xbd6e4f44	-0.058181062
247	0x3d937367	0.071997456
248	0x3d18eea1	0.03733695
249	0xbd5caad0	-0.053873837
250	0x3d131097	0.035904493
251	0x3d516c8c	0.05112891
252	0x3d29e683	0.0414796
253	0x3dbb34ff	0.091409676
254	0xbd7a4d6d	-0.061108995
255	0x3db167a6	0.086623475

nn.block2.batch.weight f4 [256]
0	0x3f7fe9c6	0.99966085
1	0x3f80014d	1.0000397
2	0x3f7ff313	0.99980277
3	0x3f7f9416	0.99835336
4	0x3f7fd1ba	0.9992939
5	0x3f7fb927	0.99891895
6	0x3f7fc45b	0.9990899
7	0x3f7f8cdc	0.9982431
8	0x3f7fc1ff	0.9990539
9	0x3f801739	1.0007087
10	0x3f801862	1.0007441
11	0x3f8017c9	1.0007259
12	0x3f804234	1.0020204
13	0x3f7fd40f	0.9993295
14	0x3f7f3652	0.9969226
15	0x3f7f842f	0.9981107
16	0x3f7fd18b	0.9992911
17	0x3f7f6306	0.9976047
18	0x3f805f49	1.0029079
19	0x3f80266a	1.0011723
20	0x3f7f5d93	0.9975216
21	0x3f8026b5	1.0011812
22	0x3f7fe105	0.9995273
23	0x3f7fd770	0.99938107
24	0x3f7f7dae	0.99801147
25	0x3f80215f	1.0010184
26	0x3f803c60	1.0018425
27	0x3f8033ed	1.0015846
28	0x3f7f5891	0.99744517
29	0x3f7faae7	0.9987015
30	0x3f800ec3	1.0004505
31	0x3f802282	1.0010531
32	0x3f7fb160	0.9988003
33	0x3f806642	1.0031207
34	0x3f8034b6	1.0016086
35	0x3f7f2c40	0.99676895
36	0x3f801888	1.0007486
37	0x3f803dc8	1.0018854
38	0x3f7f928c	0.9983299
39	0x3f7fbfd1	0.99902064
40	0x3f8004c5	1.0001456
41	0x3f7fc6eb	0.999129
42	0x3f805537	1.0026006
43	0x3f80376b	1.0016912
44	0x3f7f73cd	0.9978607
45	0x3f7fe6ec	0.99961734
46	0x3f8008b3	1.0002655
47	0x3f8033e8	1.001584
48	0x3f7f1afb	0.99650544
49	0x3f8032a5	1.0015455
50	0x3f802b0f	1.001314
51	0x3f7ffccc	0.9999511
52	0x3f8036ce	1.0016725
53	0x3f7f62d5	0.9976018
54	0x3f801032	1.0004942
55	0x3f801e49	1.0009242
56	0x3f80042f	1.0001277
57	0x3f8023d1	1.001093
58	0x3f800f3b	1.0004648
59	0x3f80446e	1.0020883
60	0x3f800d0c	1.0003982
61	0x3f80289b	1.0012392
62	0x3f7fe92c	0.9996517
63	0x3f7f91bd	0.99831754
64	0x3f7fd03b	0.9992711
65	0x3f800030	1.0000057
66	0x3f7ef8b8	0.99598265
67	0x3f7ffd7c	0.9999616
68	0x3f7ff0e8	0.9997697
69	0x3f7f79cf	0.9979524
70	0x3f800a1a	1.0003083
71	0x3f7f94ee	0.99836624
72	0x3f7f5d9c	0.9975221
73	0x3f7fa1d7	0.99856323
74	0x3f7fc511	0.99910074
75	0x3f7fd43d	0.99933225
76	0x3f8022b0	1.0010586
77	0x3f806745	1.0031515
78	0x3f7feae0	0.99967766
79	0x3f802f34	1.0014405
80	0x3f8020ef	1.001005
81	0x3f7fb972	0.9989234
82	0x3f8027d3	1.0012153
83	0x3f7f6977	0.997703
84	0x3f803754	1.0016885
85	0x3f800ef5	1.0004565
86	0x3f800ba8	1.0003557
87	0x3f8015e6	1.0006683
88	0x3f7fdb9f	0.9994449
89	0x3f7fb6de	0.9988841
90	0x3f7fa9cc	0.99868464
91	0x3f7ffb83	0.9999315
92	0x3f800919	1.0002776
93	0x3f803f61	1.0019342
94	0x3f803d6c	1.0018744
95	0x3f80aa95	1.0052058
96	0x3f802c98	1.0013609
97	0x3f800f39	1.0004646
98	0x3f7f8633	0.99814147
99	0x3f800fc9	1.0004817
100	0x3f7fe7a8	0.99962854
101	0x3f8013a3	1.0005993
102	0x3f8017c5	1.0007254
103	0x3f7f698d	0.9977043
104	0x3f7fca23	0.9991781
105	0x3f800b87	1.0003518
106	0x3f803fe8	1.0019503
107	0x3f8012af	1.0005702
108	0x3f806b8f	1.0032824
109	0x3f801ac1	1.0008165
110	0x3f803007	1.0014657
111	0x3f80016b	1.0000433
112	0x3f7fb671	0.9988776
113	0x3f7ff16f	0.99977773
114	0x3f801546	1.0006492
115	0x3f803243	1.0015339
116	0x3f80268e	1.0011766
117	0x3f802985	1.0012671
118	0x3f802229	1.0010425
119	0x3f802878	1.001235
120	0x3f801c52	1.0008643
121	0x3f804d36	1.0023563
122	0x3f8022d9	1.0010635
123	0x3f7fcefc	0.9992521
124	0x3f7f6863	0.99768656
125	0x3f7fbfa0	0.9990177
126	0x3f804149	1.0019923
127	0x3f803d9d	1.0018803
128	0x3f7ffb12	0.9999248
129	0x3f802457	1.001109
130	0x3f8005af	1.0001734
131	0x3f7f4af1	0.99723727
132	0x3f7fd8ea	0.9994036
133	0x3f7f9448	0.99835634
134	0x3f7fef75	0.9997476
135	0x3f802389	1.0010844
136	0x3f802a6d	1.0012947
137	0x3f8034fc	1.001617
138	0x3f7fc4a4	0.99909425
139	0x3f807502	1.0035708
140	0x3f800f1b	1.000461
141	0x3f7fedbb	0.9997212
142	0x3f80359a	1.0016358
143	0x3f7fb973	0.9989235
144	0x3f80127b	1.000564
145	0x3f7ff452	0.9998218
146	0x3f7ff989	0.99990135
147	0x3f801ab2	1.0008147
148	0x3f7fa278	0.9985728
149	0x3f7f8724	0.99815583
150	0x3f8040fc	1.0019832
151	0x3f7f73c6	0.9978603
152	0x3f801c98	1.0008726
153	0x3f7fef6d	0.9997471
154	0x3f8022df	1.0010642
155	0x3f7fd3c9	0.99932534
156	0x3f7fc263	0.99905986
157	0x3f7fa835	0.9986604
158	0x3f7f6703	0.9976656
159	0x3f7f7800	0.9979248
160	0x3f7fe23e	0.99954593
161	0x3f804c6e	1.0023324
162	0x3f800495	1.0001398
163	0x3f80095b	1.0002855
164	0x3f7fe0b3	0.9995224
165	0x3f7fb8c5	0.9989131
166	0x3f805603	1.0026249
167	0x3f7fc932	0.99916375
168	0x3f804d8b	1.0023664
169	0x3f7f554e	0.9973954
170	0x3f7fef46	0.9997448
171	0x3f802c76	1.0013568
172	0x3f803504	1.0016179
173	0x3f800711	1.0002156
174	0x3f800ba0	1.0003548
175	0x3f7fdea1	0.9994908
176	0x3f80059f	1.0001715
177	0x3f7ffd0b	0.9999549
178	0x3f802263	1.0010494
179	0x3f7ffc33	0.999942
180	0x3f7ffb7e	0.9999312
181	0x3f7fa409	0.9985967
182	0x3f7ff9f1	0.99990755
183	0x3f7ff08d	0.99976426
184	0x3f801264	1.0005612
185	0x3f7fd829	0.9993921
186	0x3f7f8257	0.9980826
187	0x3f7fad08	0.998734
188	0x3f7f8090	0.99805546
189	0x3f7fc212	0.999055
190	0x3f801e3d	1.0009228
191	0x3f800302	1.0000918
192	0x3f7fa758	0.9986472
193	0x3f7fce00	0.99923706
194	0x3f80201e	1.0009801
195	0x3f8032a7	1.0015458
196	0x3f801f1c	1.0009494
197	0x3f7fd04d	0.99927217
198	0x3f8020f9	1.0010062
199	0x3f7f79d4	0.9979527
200	0x3f7fc650	0.99911976
201	0x3f7f5872	0.9974433
202	0x3f800d94	1.0004144
203	0x3f7fa0a4	0.99854493
204	0x3f8014b9	1.0006324
205	0x3f800f6b	1.0004705
206	0x3f7f6008	0.9975591
207	0x3f80108d	1.0005051
208	0x3f800790	1.0002308
209	0x3f7ff1bd	0.9997824
210	0x3f7f8b23	0.9982168
211	0x3f7fea85	0.99967223
212	0x3f800a0f	1.000307
213	0x3f7fdade	0.9994334
214	0x3f7fcb06	0.99919164
215	0x3f801d0f	1.0008868
216	0x3f7ff7cc	0.99987483
217	0x3f7f8052	0.99805176
218	0x3f7fe5d8	0.9996009
219	0x3f7fc0a5	0.9990333
220	0x3f800f60	1.0004692
221	0x3f7fdd52	0.99947083
222	0x3f7fe0eb	0.9995257
223	0x3f803c23	1.0018352
224	0x3f802dd1	1.0013982
225	0x3f7fec29	0.99969727
226	0x3f7fed7d	0.99971753
227	0x3f800383	1.0001072
228	0x3f8069bc	1.0032268
229	0x3f7f95a1	0.9983769
230	0x3f80350b	1.0016187
231	0x3f8012b6	1.000571
232	0x3f8017df	1.0007285
233	0x3f7fd0fd	0.99928266
234	0x3f800594	1.0001702
235	0x3f803219	1.0015289
236	0x3f8039fa	1.0017693
237	0x3f7fa663	0.9986326
238	0x3f806456	1.003062
239	0x3f7fd3f7	0.9993281
240	0x3f802a8d	1.0012985
241	0x3f8029ec	1.0012794
242	0x3f7f8c50	0.99823475
243	0x3f805cca	1.0028317
244	0x3f8002ef	1.0000895
245	0x3f7fa9b9	0.9986835
246	0x3f7fadce	0.9987458
247	0x3f7f4db5	0.99727947
248	0x3f80072a	1.0002186
249	0x3f7f9025	0.9982932
250	0x3f802db7	1.0013951
251	0x3f7fa2d3	0.99857825
252	0x3f7fc995	0.99916965
253	0x3f800f2a	1.0004628
254	0x3f7f8cdd	0.99824315
255	0x3f7fc3a4	0.999079

nn.block2.batch.bias f4 [256]
0	0x3935f2bc	0.00017351931
1	0xb9c90f2e	-0.00038349017
2	0x395db320	0.00021142932
3	0x3af7f020	0.0018916167
4	0xba840362	-0.0010071809
5	0xba3b1199	-0.0007136106
6	0xb99843fc	-0.00029042352
7	0xbafece9e	-0.0019440239
8	0xb9ce2c30	-0.00039324304
9	0xb9e887bc	-0.00044351618
10	0x3a9f7299	0.001216489
11	0xb8895bd3	-6.549773e-05
12	0xb972b057	-0.0002314461
13	0xba0b5be1	-0.000531612
14	0xba609b54	-0.00085680676
15	0xba027ac6	-0.0004977401
16	0x3ab08e9a	0.0013470233
17	0x3ae9710f	0.0017810183
18	0xb915cdbc	-0.0001428639
19	0xb974699e	-0.00023308999
20	0x39b91d32	0.00035307702
21	0x394e6bb8	0.0001968582
22	0xba9c5d75	-0.0011929708
23	0xb904c218	-0.00012660807
24	0x3ae87256	0.001773427
25	0xbae527ce	-0.0017483176
26	0xb73223b5	-1.06179405e-05
27	0xba2ad322	-0.00065164466
28	0xb9111e0a	-0.00013839468
29	0x3a926b0c	0.0011170818
30	0x3aa6d1ce	0.0012727322
31	0xba63df7a	-0.00086926634
32	0x39b9408d	0.00035334044
33	0xba167552	-0.0005739528
34	0xbb1a49a3	-0.0023542426
35	0xba4ff493	-0.0007932868
36	0x3a744262	0.0009317753
37	0x39a6f01f	0.00031840891
38	0x3a116cf6	0.00055475475
39	0x3abe302b	0.0014510205
40	0xbacc857c	-0.0015603746
41	0x38da3988	0.00010405766
42	0x3a4f8f79	0.00079178024
43	0xbb08230a	-0.0020772838
44	0x39356879	0.00017300424
45	0x3a245b9e	0.00062697555
46	0x3a37ad4d	0.000700672
47	0x3ae6af17	0.0017599788
48	0xba91c086	-0.0011119999
49	0xba152065	-0.0005688726
50	0x3a3afffa	0.00071334804
51	0x39eb0da3	0.00044832853
52	0xbab94307	-0.0014134356
53	0xb95d6a08	-0.00021115702
54	0x395b7369	0.00020928461
55	0xbac7e7ec	-0.0015251613
56	0x3897bf8d	7.23592e-05
57	0x3968d211	0.000222035
58	0xbaf05533	-0.0018335938
59	0x38b828dc	8.781414e-05
60	0xb9c7b8b2	-0.00038093847
61	0x3986a6ec	0.00025682838
62	0x39661c1f	0.00021944985
63	0x3b111789	0.0022139272
64	0xba4af3ff	-0.0007742047
65	0x3986d3ab	0.00025716177
66	0x38d53046	0.00010165623
67	0xba38d6e7	-0.0007051066
68	0xb7fe88a5	-3.034279e-05
69	0x3aa78ca8	0.0012783008
70	0x391ee186	0.00015152068
71	0xba66792c	-0.000879186
72	0x39868d5b	0.0002566379
73	0x3a4ba5c0	0.0007768534
74	0xb8c76626	-9.508086e-05
75	0xb926da9b	-0.0001591243
76	0x39ed8fd3	0.0004531132
77	0xba6c9bda	-0.0009025909
78	0xba81914c	-0.0009885221
79	0x387dee37	6.0541755e-05
80	0xba07630f	-0.0005164602
81	0x3ab875b0	0.001407316
82	0xb93ae452	-0.00017823398
83	0x39fd1aca	0.0004827588
84	0x3a06859d	0.0005131604
85	0xbabaffce	-0.001426691
86	0x3a873eda	0.0010318414
87	0x3920d655	0.00015338634
88	0x399a849f	0.0002947198
89	0x38e21433	0.00010780282
90	0xba060bfe	-0.00051134813
91	0xba63b345	-0.0008686076
92	0xbad18f82	-0.0015988203
93	0x39e197f6	0.00043028564
94	0xba0259db	-0.0004972496
95	0xba727e14	-0.00092503545
96	0x39441a14	0.00018701731
97	0xb9d3c62a	-0.000403927
98	0x3a84d266	0.0010133504
99	0xb6e57c4e	-6.839203e-06
100	0x3a5f26a3	0.0008512532
101	0x3aa22874	0.0012371675
102	0x3a3ac6b0	0.00071249437
103	0xbabfdebd	-0.0014638525
104	0xb8b8a4ce	-8.804501e-05
105	0xb8a2819a	-7.748902e-05
106	0xbadee030	-0.0017004069
107	0xba80ebaa	-0.0009835858
108	0xba5f827e	-0.000852622
109	0xba6b1bf6	-0.0008968705
110	0x3aa7a312	0.0012789688
111	0xb925b9c5	-0.00015804831
112	0x39e6e89f	0.00044042335
113	0xbaca1381	-0.001541719
114	0x3a19296e	0.00058426603
115	0xb8a28392	-7.749269e-05
116	0x3a530c37	0.00080508314
117	0xba0897f3	-0.00052106305
118	0x392a3a61	0.00016234211
119	0x38d254d7	0.00010029383
120	0x3a145d8e	0.00056596927
121	0x39735f93	0.0002320989
122	0xbb2fcc94	-0.002682482
123	0xb9d2f36d	-0.00040235688
124	0xb8cc82c3	-9.751834e-05
125	0x39793875	0.00023767522
126	0xb8cca693	-9.758505e-05
127	0x39ee40a2	0.00045443053
128	0x3ac78891	0.0015223195
129	0xba80b613	-0.0009819887
130	0xba810837	-0.0009844367
131	0xb9531e3e	-0.00020133794
132	0x3a8914bc	0.001045845
133	0x3a8dc805	0.0010817057
134	0xb91da0cf	-0.00015032593
135	0xb7b947a0	-2.2087072e-05
136	0xba5ab8e6	-0.0008343592
137	0x3a3be629	0.00071677804
138	0xba95c60c	-0.001142682
139	0x37d51efc	2.5406007e-05
140	0x3a354f3f	0.00069164106
141	0x3a18d8c1	0.00058306387
142	0x39f97725	0.0004758175
143	0x3a66e596	0.00088080147
144	0x3a0f8c94	0.0005475965
145	0x3a0bb4bc	0.0005329361
146	0x3a2b3125	0.00065304554
147	0xbb0a2808	-0.002108099
148	0x3a9c41e5	0.0011921494
149	0xb9fced05	-0.0004824178
150	0x39d6d8ff	0.00040978935
151	0x3909142a	0.0001307285
152	0x3b05891a	0.0020375908
153	0xba71002a	-0.0009193445
154	0xb8600588	-5.3410913e-05
155	0xba88ecd4	-0.0010446557
156	0xba5572e9	-0.0008142428
157	0x3a9ebe74	0.0012111203
158	0x3b44b051	0.003001232
159	0x3a997ca2	0.0011710117
160	0x39ed7449	0.00045290802
161	0xbb009597	-0.0019620412
162	0x3a28473d	0.0006419307
163	0xb9f05db2	-0.00045846176
164	0xba98ecf4	-0.0011667297
165	0x3ad6e8a6	0.0016396239
166	0xb9bc1fff	-0.00035881993
167	0x38ab331a	8.163434e-05
168	0xba8b722c	-0.0010638884
169	0xba90fac2	-0.001106106
170	0x3998fc17	0.0002917952
171	0x3a060be8	0.00051134685
172	0xbad6ac46	-0.0016378246
173	0x396a2ce0	0.00022332696
174	0xbab60cd1	-0.0013889318
175	0x3a61cf3e	0.00086139503
176	0xb94b4379	-0.00019384724
177	0x3aa5c87b	0.0012648249
178	0xba9b0368	-0.0011826577
179	0xb9aa202e	-0.00032448902
180	0xba53c493	-0.0008078303
181	0x3a435ac5	0.00074521854
182	0xbb244905	-0.0025067937
183	0xba80dd51	-0.0009831582
184	0xb9f97601	-0.000475809
185	0x3a316bb8	0.00067680655
186	0xb94527af	-0.00018802167
187	0x39c712b5	0.00037970176
188	0x3a3abf35	0.0007123829
189	0xb610695f	-2.1519006e-06
190	0xba71234e	-0.0009198681
191	0xb9a885f2	-0.00032143254
192	0xba83c62d	-0.0010053568
193	0xb9f8a147	-0.00047422407
194	0x38e22dc3	0.000107850436
195	0x39d21c3b	0.00040075355
196	0xb785354b	-1.5879652e-05
197	0xba394865	-0.00070679776
198	0x3a45878b	0.0007535151
199	0x393d8c08	0.0001807661
200	0x3a2c5c0b	0.0006574995
201	0x3a8f1bfb	0.0010918373
202	0xba85c699	-0.0010206281
203	0xba20b590	-0.00061305705
204	0xb93e597f	-0.00018153152
205	0x3a4f254a	0.000790198
206	0xb85b8e7f	-5.234638e-05
207	0xba9ec453	-0.0012112953
208	0x39e9ceb7	0.00044595238
209	0x39eda139	0.00045324283
210	0x39b1f75d	0.0003394437
211	0xba2102a1	-0.00061420543
212	0x3a95581d	0.0011394058
213	0xb91f05fc	-0.00015165651
214	0xbb15eb68	-0.0022875909
215	0xb926c7dd	-0.00015905449
216	0x39d41af3	0.0004045587
217	0xba00be45	-0.0004911165
218	0x3ad41097	0.001617926
219	0x38746ba0	5.8274367e-05
220	0x38cd5643	9.791229e-05
221	0x3b12ed5f	0.0022419316
222	0xbb262ca9	-0.002535621
223	0x3a28f0c0	0.0006444566
224	0x39c21f19	0.00037025733
225	0x39e07ff6	0.00042819948
226	0x399a4058	0.0002942111
227	0xb9fc0daf	-0.0004807538
228	0xba1c7918	-0.0005968972
229	0xb9698f37	-0.00022273963
230	0x3a5ab418	0.0008342876
231	0x3af0a999	0.0018361091
232	0xb9990bd4	-0.00029191247
233	0x3a2de224	0.0006633124
234	0x3aaf8166	0.0013390004
235	0x3a3ad5a2	0.00071271707
236	0xba0f5e38	-0.0005469057
237	0x39279073	0.00015980173
238	0x3a84d212	0.0010133407
239	0x3ab16430	0.0013533887
240	0x39d02800	0.00039702654
241	0xbb0f7a2b	-0.0021892886
242	0x3aa9df9e	0.001296032
243	0xb901fccf	-0.00012396577
244	0xba577893	-0.0008219566
245	0xba72e865	-0.0009266197
246	0xba88f5b8	-0.0010449206
247	0x3a9fd078	0.0012192866
248	0x3a1c0ca5	0.0005952812
249	0xbaa13736	-0.0012299779
250	0x3a82a7d7	0.0009968233
251	0xb808c4a8	-3.2608077e-05
252	0xba1e968c	-0.0006049655
253	0xb7ac669c	-2.0551779e-05
254	0x3a054b8d	0.00050848053
255	0xb89855e7	-7.263925e-05
