statedicts/pl_statedict_db_2022-05-02_SPIRAL_REVERSE_90s_P0_R1_s2_seed_2.ckpt (torch, 193785 bytes, 29 tensors)

nn.input_batch.weight f4 [5]
0	0x3f84b06e	1.0366342
1	0x3f80f132	1.0073607
2	0x3f7d4a30	0.98941326
3	0x3f7cb9cd	0.9872101
4	0x3f8083b0	1.0040188

nn.input_batch.bias f4 [5]
0	0x3bdbaf2e	0.0067042327
1	0xbb091c73	-0.0020921498
2	0xbc7423a6	-0.014901077
3	0x3c1769ea	0.0092415605
4	0xbaedde91	-0.0018147995

nn.input_batch.running_mean f4 [5]
0	0x40297fad	2.6484177
1	0x3d84c2f5	0.064824976
2	0x4040a8fe	3.0103145
3	0x403b05c2	2.9222264
4	0x3e479d84	0.19493681

nn.input_batch.running_var f4 [5]
0	0x3ceff7b1	0.029292913
1	0x357f531e	9.5115854e-07
2	0x3b4cecad	0.0031269
3	0x3b168661	0.002296828
4	0x3b4915d2	0.0030683172

nn.block1.linear.weight f4 [96, 5]
0	0x3e81c323	0.2534419
1	0xbe8bb960	-0.27289867
2	0xbea1e89c	-0.3162278
3	0xbecce006	-0.40014666
4	0xbe4691aa	-0.19391504
5	0x3d2a1cb7	0.04153129
6	0xbe6684d6	-0.2251161
7	0xbeb3a965	-0.35090175
8	0x3e4fd910	0.20297647
9	0x3ed0f1db	0.4080952
10	0x3da5ce2c	0.08095965
11	0x3e33cdc3	0.1755896
12	0x3e6f5533	0.23372345
13	0xbe247970	-0.1606195
14	0x3e651b6a	0.22373739
15	0xbe9c3d0d	-0.30515328
16	0xbecd5533	-0.40104064
17	0x3de94107	0.11389356
18	0xbedb3897	-0.42816612
19	0x3e2b7119	0.16742362
20	0x3c934e73	0.017981743
21	0x3da3a641	0.07990695
22	0xbe469a4f	-0.19394802
23	0xbc8436f2	-0.016139481
24	0xbe60de9b	-0.21959917
25	0x3e995de8	0.29954457
26	0xbe05aaf6	-0.13053498
27	0x3ae358fb	0.0017345244
28	0x3cd32873	0.025776124
29	0xbdee8d03	-0.116479896
30	0xbeb941ed	-0.3618311
31	0xbb8d099b	-0.0043041236
32	0xbeafaa8e	-0.3430981
33	0x3cb422f3	0.021989321
34	0xbe9d6cf1	-0.30747178
35	0xbe14e0a8	-0.14538825
36	0xbeb959fa	-0.3620146
37	0x3e2d1fe6	0.169067
38	0xbec08c30	-0.37606955
39	0xbe807cc5	-0.25095192
40	0xbd7f68ed	-0.062355924
41	0x3d3788b7	0.044808116
42	0x3eb64c23	0.35604963
43	0xbdb8b45d	-0.090187766
44	0x3ebd1331	0.36928704
45	0xbe6a2815	-0.22866853
46	0x3e054713	0.13015394
47	0x3d6f7eeb	0.058470648
48	0x3ebc19da	0.36738473
49	0x3d146f9c	0.03623925
50	0xbe2f971c	-0.17147487
51	0x3ec1741c	0.37783897
52	0x3ec09250	0.37611628
53	0xbed6b4b0	-0.4193473
54	0x3ebef894	0.37299025
55	0xbdb76cb4	-0.0895628
56	0x3ee49ef3	0.4465252
57	0x3eca9632	0.39567715
58	0xbeda0f29	-0.4258969
59	0x3eb10978	0.34577537
60	0xbdf07e75	-0.1174287
61	0x3e579c28	0.21055663
62	0xbd49f725	-0.04930796
63	0xbe7fbb41	-0.24973775
64	0xbebcaef4	-0.3685223
65	0x3e218f82	0.157774
66	0x3e1b63e1	0.1517482
67	0x3e1e5f03	0.15465932
68	0xbe9b6f15	-0.30358186
69	0xbedcc9ed	-0.43122807
70	0xbe9758be	-0.29559892
71	0xbeb21664	-0.34782708
72	0x3d4a313d	0.049363364
73	0xbeb0409a	-0.34424287
74	0xbe95116e	-0.2911486
75	0xbedc5547	-0.4303381
76	0x3e9c42e0	0.30519772
77	0xbead1e2a	-0.33812076
78	0xbdd799e4	-0.10527399
79	0xbc9d5623	-0.019206112
80	0x3e97f675	0.2968022
81	0x3e8fb513	0.28067836
82	0xbe93acc5	-0.2884275
83	0xbe0cb3d4	-0.13740474
84	0x3eddee17	0.4334571
85	0xbe0a7370	-0.13520598
86	0xbdac33f3	-0.08408346
87	0xbdfc7e53	-0.12328782
88	0x3e785bff	0.24253844
89	0x3d72e75d	0.059302676
90	0x3d0dbf52	0.034606285
91	0xbe76be7d	-0.24096103
92	0x3eced971	0.4040027
93	0x3e0d53d1	0.13801505
94	0xbe3626f6	-0.177883
95	0x3d9a32e5	0.075292386
96	0x3ea202a8	0.31642652
97	0xbda4d75c	-0.08048889
98	0xbec12f8a	-0.37731582
99	0xbeb8446c	-0.35989702
100	0x3ebea025	0.37231556
101	0xbe521b94	-0.20518333
102	0xbec5a722	-0.38604075
103	0xbed65484	-0.41861355
104	0x3ea1c96c	0.31598985
105	0xbdeff0c5	-0.11715845
106	0xbda12988	-0.078692496
107	0x3ea30b35	0.31844488
108	0x3e824886	0.25445956
109	0xbe8c0225	-0.27345386
110	0xbdccdb44	-0.10002759
111	0xbeadeda7	-0.33970377
112	0x3e9d2fc9	0.3070052
113	0x3e532c9c	0.20622486
114	0xbeb70c1b	-0.35751423
115	0x3e8c340c	0.2738346
116	0xba457e2a	-0.00075337535
117	0xbe40e5d9	-0.1883768
118	0xbeb43a46	-0.3520071
119	0x3eb36adf	0.35042474
120	0xbeb389ba	-0.35066015
121	0x3eceab64	0.40365136
122	0x3de091ff	0.109653465
123	0xbe9a73a3	-0.3016635
124	0xbe8c5cc1	-0.27414516
125	0xbe906b09	-0.2820666
126	0x3dc20d69	0.09475214
127	0x3dd413a4	0.10355309
128	0xbdec562f	-0.11539876
129	0x3dc5b137	0.09652942
130	0x3dec39d5	0.11534468
131	0x3e668805	0.22512825
132	0x3eb5a923	0.35480604
133	0x3ebdcdf2	0.37071186
134	0xbc9ebb7b	-0.019376507
135	0x3ed3d13d	0.41370574
136	0x3e602ced	0.21892138
137	0x3ec1488d	0.37750664
138	0xbe651889	-0.2237264
139	0xbdce2497	-0.10065573
140	0x3ced82b9	0.028992997
141	0xbec8913e	-0.3917331
142	0xbd838f01	-0.0642376
143	0xbe62e782	-0.22158626
144	0x3d35df27	0.044402268
145	0x3ee19f0e	0.44066662
146	0xbecd1ce5	-0.40061107
147	0xbe7cae36	-0.24675831
148	0xbecda22e	-0.40162796
149	0x3ece60e7	0.40308306
150	0x3d40a5b6	0.047033034
151	0x3e553104	0.20819479
152	0x3e91cd64	0.28477013
153	0xbe06152c	-0.13094014
154	0x3e5eb50a	0.21748748
155	0xbe991189	-0.2989619
156	0xbeab4358	-0.33449817
157	0x3cedca25	0.029027054
158	0x3edd77ad	0.43255368
159	0x3e9aae60	0.30211163
160	0x3ca22867	0.019794656
161	0x3cb56a74	0.022145487
162	0x3ea34610	0.3188939
163	0x3d91632c	0.07098994
164	0x3e8f60ea	0.28003627
165	0xbe57d91e	-0.21078917
166	0x3e380974	0.17972356
167	0x3e792fb4	0.24334604
168	0x3eddc980	0.43317795
169	0x3ed28fca	0.41125327
170	0x3eb0c3ce	0.34524387
171	0x3ed27c43	0.4111043
172	0xbe8d35e9	-0.27580193
173	0xbdd3650b	-0.10322007
174	0x3ec013f9	0.37515238
175	0x3d55ae29	0.052168045
176	0x3ea14592	0.3149839
177	0xbd7dc4f0	-0.061955392
178	0x3e9daf61	0.30797866
179	0x3ec83cf5	0.39109007
180	0xbdfe2d4d	-0.12410984
181	0xbecf271c	-0.40459526
182	0xbc6a0ea5	-0.014285718
183	0x3eb9a418	0.36258006
184	0xbea547f9	-0.32281473
185	0xbe20c880	-0.15701485
186	0x3e810fbc	0.25207317
187	0x3ea64b06	0.32479113
188	0xbe65662c	-0.22402257
189	0x3e5908ca	0.21194759
190	0x3dcbc07c	0.09948823
191	0x3ed4efc6	0.41589183
192	0x3ec9ca2f	0.39412066
193	0x3e1b72e7	0.1518055
194	0xbe45e954	-0.19327289
195	0x3e380488	0.17970479
196	0x3e7dfc99	0.2480339
197	0x3da74b3a	0.08168645
198	0x3e536204	0.20642859
199	0xbdb5eebe	-0.08883427
200	0xbed053ee	-0.40689033
201	0xbe7f0f2a	-0.24908128
202	0xbea48624	-0.3213359
203	0x3e6ed25d	0.23322435
204	0xbed77dbd	-0.42088118
205	0xbe66bb88	-0.22532475
206	0xbe625578	-0.22102916
207	0x3cf57986	0.029965173
208	0x3de01a12	0.109424725
209	0xbebd00da	-0.36914712
210	0xbd4b7ef0	-0.049681604
211	0x3ed531d3	0.41639575
212	0xbdf14dad	-0.117823936
213	0x3e0ac050	0.13549924
214	0xbeb9536d	-0.3619646
215	0x3d1339b8	0.035943717
216	0xbcca0835	-0.024662117
217	0x3e715337	0.235669
218	0x3d483cfa	0.048886277
219	0xbe7d99da	-0.24765721
220	0xbe984a39	-0.29744127
221	0xbe1d34ad	-0.15352125
222	0x3e3e6805	0.18594368
223	0xbe8c6723	-0.27422437
224	0x3e6be767	0.23037492
225	0xbe26a4f5	-0.16273864
226	0x3ea83f1a	0.32860643
227	0x3d88a08e	0.066712484
228	0xbdc9dfc0	-0.0985713
229	0xbe03f0c7	-0.12884818
230	0xbe861f2c	-0.26195657
231	0xbeb81869	-0.35956123
232	0x3ea4175c	0.32049072
233	0xbec8740a	-0.3915103
234	0x3eaeb0fe	0.3411941
235	0xbe9c2d3a	-0.30503255
236	0xbe4a8a0c	-0.19779223
237	0x3ea64501	0.3247452
238	0xbecbe26a	-0.39821178
239	0x3c86f87a	0.016475905
240	0x3eba770c	0.3641895
241	0xbed9a317	-0.4250724
242	0xbe9f78d1	-0.31146863
243	0xbe5be0ef	-0.21472524
244	0xbe6295a2	-0.22127393
245	0xbe09c6d2	-0.1345475
246	0xbed4ea7c	-0.41585147
247	0xbcdb5936	-0.026775938
248	0xbe7e2322	-0.2481809
249	0x3e9e0f66	0.30871123
250	0x3e94dcfb	0.29074845
251	0x3e61e782	0.2206097
252	0xbed25fdf	-0.4108877
253	0xbeab4feb	-0.3345941
254	0x3ea09cbe	0.31369585
255	0x3ed32678	0.41240287

nn.block1.linear.bias f4 [96]
0	0xbe3c6ffe	-0.18402097
1	0xbe3bf8b6	-0.18356594
2	0xbe067e8e	-0.13134214
3	0xbd6e86cd	-0.058234025
4	0xbdac92ba	-0.08426423
5	0xbd42db57	-0.04757246
6	0xbebc8e7f	-0.36827466
7	0xbe616554	-0.2201131
8	0x3e1f572d	0.15560599
9	0xbe380815	-0.17971833
10	0x3d4f2981	0.05057669
11	0x3ed338d3	0.4125429
12	0x3eb4730f	0.35244033
13	0xbeaa62f0	-0.33278608
14	0x3cc49cb2	0.0240005
15	0xbc68333f	-0.014172374
16	0xbe67513a	-0.22589579
17	0xbe1630cf	-0.14667057
18	0xbd9548fe	-0.07289313
19	0x3ea0766e	0.31340355
20	0x3dc6bc38	0.09703869
21	0x3edc52d8	0.43031955
22	0x3e181210	0.1485064
23	0x3ed678e3	0.41889104
24	0x3e9f9857	0.31170914
25	0x3d44abc8	0.048015386
26	0x3e0ac0a0	0.13550043
27	0xbec24e3b	-0.3795031
28	0xbcd8b62e	-0.026454058
29	0x3edead54	0.43491614
30	0x3d000922	0.03125871
31	0xbedbb601	-0.42912295
32	0xbd23f4d7	-0.04002842
33	0xbe3f8fa7	-0.18707143
34	0xbe98f923	-0.29877576
35	0x3e5642ec	0.20923966
36	0x3dc37048	0.095429
37	0x3ebbad09	0.36655453
38	0xbe1d92ae	-0.15387985
39	0x3e57cfce	0.21075365
40	0x3d3fba06	0.046808265
41	0x3e858d00	0.26084137
42	0xbec4b0d8	-0.3841617
43	0xbdf36ee3	-0.11886384
44	0xbe0d22dd	-0.1378283
45	0xbcd4158f	-0.025889186
46	0x3e816205	0.25270095
47	0x3e53169e	0.20614097
48	0xbd496ed6	-0.049177967
49	0x3a7aad1c	0.00095625385
50	0xbed53090	-0.41638613
51	0x3ee1a680	0.44072342
52	0xbe361c0f	-0.17784141
53	0xbda55bc7	-0.08074146
54	0x3c1a8db8	0.009433202
55	0xbecf91e5	-0.40540996
56	0x3e929948	0.2863257
57	0xbe3782b0	-0.17920947
58	0xbe4e3adf	-0.20139645
59	0x3e7fe139	0.2498826
60	0x3de0819f	0.10962223
61	0xbe691c97	-0.22764812
62	0x3edf626c	0.43629777
63	0x3e1f9cce	0.1558716
64	0x3e91d557	0.28483078
65	0xbe0f3f9e	-0.13989112
66	0x3e178e41	0.1480036
67	0x3d4b9848	0.049705774
68	0x3eaefb89	0.3417628
69	0xbe98317d	-0.29725257
70	0x3d6d05be	0.057866804
71	0xbd4ef277	-0.0505242
72	0xbeb41a82	-0.35176474
73	0x3e83d8d2	0.25751358
74	0x3ecb8700	0.39751434
75	0x3e2d8167	0.16943894
76	0x3e65e689	0.22451223
77	0xbd839416	-0.064247295
78	0x3d2f3d4e	0.042783074
79	0x3dc3138f	0.09525215
80	0xbe1a19b5	-0.15048869
81	0xbec60afd	-0.38680258
82	0xbea4eb3f	-0.3221073
83	0x3e8ce739	0.2752016
84	0xbe70074e	-0.23440287
85	0x3e8a2994	0.26984847
86	0x3e716fd7	0.2357782
87	0x3e34eacd	0.17667694
88	0xbde5837a	-0.11206718
89	0x3ed193b5	0.40933004
90	0xbd36e50b	-0.044652026
91	0xbe301d24	-0.17198616
92	0x3d9d1d52	0.07671608
93	0x3e8f4d74	0.2798878
94	0x3e5e60e5	0.2171665
95	0x3c76a72c	0.015054505

nn.block1.batch.weight f4 [96]
0	0x3f80549b	1.002582
1	0x3f804175	1.0019976
2	0x3f802fac	1.0014548
3	0x3f801ae3	1.0008205
4	0x3f7ffe11	0.9999705
5	0x3f80528a	1.0025189
6	0x3f807057	1.0034283
7	0x3f7ec41b	0.99517983
8	0x3f7f8470	0.9981146
9	0x3f8051d0	1.0024967
10	0x3f802fca	1.0014584
11	0x3f7fa9d9	0.9986854
12	0x3f803c12	1.0018332
13	0x3f7fd02d	0.99927026
14	0x3f7fc9c2	0.99917233
15	0x3f7f80a9	0.99805695
16	0x3f7f22b1	0.9966231
17	0x3f801479	1.0006248
18	0x3f7f0011	0.99609476
19	0x3f80433f	1.0020522
20	0x3f7fc2c0	0.9990654
21	0x3f804ced	1.0023476
22	0x3f7f16c7	0.9964413
23	0x3f7fece0	0.9997082
24	0x3f7f9c45	0.99847823
25	0x3f807ca2	1.0038035
26	0x3f7f624e	0.99759376
27	0x3f7fb7dd	0.9988993
28	0x3f806c7a	1.0033104
29	0x3f802df9	1.001403
30	0x3f7f4388	0.9971242
31	0x3f7fca04	0.99917626
32	0x3f8030fc	1.0014949
33	0x3f7fd8c3	0.9994013
34	0x3f80113b	1.0005258
35	0x3f804753	1.0021766
36	0x3f800af6	1.0003345
37	0x3f80506a	1.002454
38	0x3f8000b3	1.0000213
39	0x3f804652	1.002146
40	0x3f7ffcb4	0.9999497
41	0x3f7f6d83	0.99776477
42	0x3f80927e	1.0044706
43	0x3f7f5e1d	0.9975298
44	0x3f8087a0	1.004139
45	0x3f7f536e	0.9973668
46	0x3f802de2	1.0014002
47	0x3f800439	1.0001289
48	0x3f7f79e4	0.99795365
49	0x3f80c2ec	1.0059485
50	0x3f7f0733	0.9962036
51	0x3f7f86d9	0.99815136
52	0x3f7ff704	0.9998629
53	0x3f7f924a	0.99832594
54	0x3f800655	1.0001932
55	0x3f803810	1.0017109
56	0x3f7f2fe1	0.9968243
57	0x3f809014	1.0043969
58	0x3f7ffa05	0.99990875
59	0x3f7f9ac2	0.99845517
60	0x3f802589	1.0011455
61	0x3f80bcfe	1.0057676
62	0x3f803aa6	1.0017898
63	0x3f805204	1.0025029
64	0x3f80063b	1.0001901
65	0x3f7fa6f3	0.9986412
66	0x3f7fd7ed	0.9993885
67	0x3f8073f2	1.0035384
68	0x3f7f108b	0.9963462
69	0x3f7faa4b	0.9986922
70	0x3f7f67cd	0.9976776
71	0x3f7fdb1d	0.99943715
72	0x3f805205	1.002503
73	0x3f7fecaa	0.99970496
74	0x3f8021d5	1.0010325
75	0x3f7f8ab0	0.99820995
76	0x3f805d13	1.0028404
77	0x3f7f537f	0.9973678
78	0x3f807ca7	1.0038041
79	0x3f7ed6cc	0.99546504
80	0x3f804203	1.0020145
81	0x3f7eb6b4	0.9949753
82	0x3f7fe8cd	0.999646
83	0x3f7f91a1	0.9983159
84	0x3f801c5d	1.0008656
85	0x3f7fc7ee	0.99914443
86	0x3f7f198b	0.9964835
87	0x3f7fcdaf	0.99923223
88	0x3f7fa634	0.9986298
89	0x3f7fbc3d	0.99896604
90	0x3f7ef063	0.9958555
91	0x3f80175a	1.0007126
92	0x3f7fe2e9	0.9995561
93	0x3f7fba7b	0.9989392
94	0x3f7fbfe5	0.9990218
95	0x3f8082a8	1.0039873

nn.block1.batch.bias f4 [96]
0	0xbb96f389	-0.0046066684
1	0x3b1d223c	0.0023976704
2	0x3a5c40cf	0.0008401991
3	0x39a8b3f9	0.00032177547
4	0x3a572d7b	0.0008208376
5	0x3b1c1374	0.0023815306
6	0x3a70834d	0.0009174839
7	0x3b31edc9	0.0027149788
8	0xbaae55dc	-0.0013300735
9	0xba146fed	-0.000566243
10	0xba2a82b0	-0.00065044593
11	0x3af0505a	0.0018334494
12	0x3b0aebf2	0.0021197763
13	0x38d0a7c0	9.949459e-05
14	0xbb0d9511	-0.0021603743
15	0x3a469b50	0.0007576244
16	0xb8a5cf1f	-7.9063924e-05
17	0x3b15b452	0.0022843075
18	0x3a6fbd5b	0.00091453426
19	0x3ad999ec	0.0016601658
20	0x389b6d1d	7.4113e-05
21	0x3acd1db1	0.0015649108
22	0xba19b91b	-0.00058640697
23	0xb8c803aa	-9.537426e-05
24	0xbaacf6e5	-0.0013196139
25	0xbb56244e	-0.0032675448
26	0x3af2c7bf	0.0018522664
27	0x3af93cd3	0.0019015319
28	0xbafdd0e6	-0.0019364625
29	0xbb338823	-0.0027394376
30	0x3afb0e72	0.0019154085
31	0xba83b112	-0.0010047278
32	0x3953fd1a	0.00020216816
33	0xbab9e9c1	-0.0014184044
34	0x3a734e73	0.0009281404
35	0xba7b07e4	-0.0009576066
36	0x3ac8982d	0.0015304141
37	0x3a3a7302	0.00071124744
38	0xb8ee315a	-0.00011357917
39	0x3a937b0b	0.001125188
40	0x3ac68941	0.0015147106
41	0x3a0bd3e8	0.00053340057
42	0x39203697	0.00015279125
43	0xba57d23a	-0.00082329253
44	0x3ad763ff	0.0016432999
45	0x3ae18921	0.0017207005
46	0x395584f2	0.00020362789
47	0x3ab63f00	0.0013904274
48	0xb9c98f1d	-0.00038444335
49	0x39f749ab	0.00047166398
50	0x384f129f	4.9369988e-05
51	0xb98b9d70	-0.00026629446
52	0x3a599b8f	0.0008301073
53	0xbad16f08	-0.0015978524
54	0xbade7af5	-0.00169739
55	0xbab9d59f	-0.0014178044
56	0x39d4fc3f	0.0004062373
57	0x3a1fd88e	0.0006097638
58	0xb90b996c	-0.00013313227
59	0x396e5878	0.00022730406
60	0x39e092bf	0.00042833944
61	0xba6b66b0	-0.000897984
62	0x3ac93dda	0.0015353516
63	0x3a8395e2	0.0010039175
64	0x3884cad3	6.3320294e-05
65	0x3a0d0b89	0.0005380442
66	0xbb11c37f	-0.002224177
67	0x3a410119	0.0007362529
68	0x39cac6f3	0.0003867667
69	0x3b00d47f	0.0019657908
70	0xbb3513ab	-0.0027630131
71	0x3aad88ed	0.001323966
72	0xb97d68d1	-0.00024167007
73	0xbaa11b66	-0.001229149
74	0xbab857d6	-0.0014064263
75	0x3870fbaf	5.7454858e-05
76	0x3910e48c	0.0001381805
77	0xbb0e42ab	-0.0021707218
78	0xb9c21e32	-0.0003702506
79	0x3a8ede01	0.0010899903
80	0x3a7554d3	0.0009358648
81	0x3b5a40b9	0.0033302738
82	0xb9c2198e	-0.00037021603
83	0xbabb4ff5	-0.0014290797
84	0x3b062681	0.0020469727
85	0xbabf33b3	-0.0014587551
86	0xb8444fc7	-4.680434e-05
87	0x3af110cb	0.0018391846
88	0x3b1dbe93	0.002406989
89	0x37386795	1.0991372e-05
90	0x3b2a15f0	0.0025953017
91	0xba85d6a3	-0.0010211061
92	0x3a410a0d	0.00073638634
93	0xb970b4e7	-0.00022955575
94	0x3a5dea4c	0.0008465394
95	0x39617548	0.00021501363

nn.block1.batch.running_mean f4 [96]
0	0x3e04ab0e	0.12955877
1	0x3e53f96f	0.2070062
2	0x3d4e5cce	0.050381474
3	0x3e04aeca	0.12957302
4	0x3df53484	0.11972907
5	0x3dc3f297	0.09567755
6	0x3e68bb7e	0.22727773
7	0x3e13b438	0.14424217
8	0x3e8e0587	0.27738592
9	0x3c4ba62f	0.012429758
10	0x3e13324e	0.14374658
11	0x3ed628df	0.41828057
12	0x3f05b504	0.5222933
13	0x3ddd9159	0.108187385
14	0x3eac994e	0.33710712
15	0x3ebd9de0	0.37034512
16	0x3dd8c6fb	0.105848275
17	0x3d1db3e3	0.03850163
18	0x3e1c919f	0.15289925
19	0x3efaa012	0.4895025
20	0x3e4b577c	0.19857591
21	0x3edd969c	0.43278968
22	0x3e530217	0.20606266
23	0x3ed78d3b	0.42099938
24	0x3f12edfb	0.5739438
25	0x3e13740a	0.14399734
26	0x3eb5c3b2	0.35500866
27	0x3d60f779	0.05492351
28	0x3cdd6aa4	0.02702839
29	0x3ef12f21	0.4710627
30	0x3e0f0010	0.13964868
31	0x3d84c039	0.06481976
32	0x3e55560e	0.20833609
33	0x3e438af7	0.1909598
34	0x3d9a8221	0.07544351
35	0x3ec43426	0.38321036
36	0x3dd2d224	0.102939874
37	0x3ebb376d	0.36565724
38	0x3dce6a39	0.10078854
39	0x3e84f4e3	0.25968084
40	0x3ea99608	0.33122277
41	0x3ea38fa0	0.31945515
42	0x3d9c9adb	0.07646724
43	0x3d51551e	0.051106565
44	0x3cc1105f	0.023567377
45	0x3e332677	0.17495142
46	0x3e8676da	0.26262552
47	0x3eae177a	0.34002286
48	0x3da49729	0.08036644
49	0x3d5a30fc	0.05326937
50	0x3c1f9265	0.009739493
51	0x3ee8291a	0.45343858
52	0x3f063940	0.52431107
53	0x3e14c163	0.14526896
54	0x3ec14cfe	0.37754053
55	0x3b859094	0.004076073
56	0x3eeb10d1	0.45911267
57	0x3e076ce2	0.13225129
58	0x3c8f1458	0.017465755
59	0x3ea448d7	0.32086822
60	0x3e5f877e	0.2182903
61	0x3ec0c28b	0.37648425
62	0x3ef3e5aa	0.47636157
63	0x3e441e7c	0.19152254
64	0x3ec7e2fd	0.39040366
65	0x3da48032	0.08032264
66	0x3e82ad7e	0.2552299
67	0x3dd720f1	0.1050433
68	0x3ebfb294	0.37440932
69	0x3e124332	0.14283445
70	0x3e3dbd5e	0.18529269
71	0x3dc5c50d	0.09656725
72	0x3dbe3564	0.09287527
73	0x3e94ba21	0.29048255
74	0x3ee8b881	0.45453265
75	0x3e852514	0.2600485
76	0x3e660e2d	0.22466345
77	0x3dd337aa	0.103133515
78	0x3e0aff2c	0.13573903
79	0x3e8755ad	0.26432553
80	0x3ebccc04	0.36874402
81	0x3d20bf24	0.039244786
82	0x3d8337fa	0.06407161
83	0x3ed87e9c	0.42284095
84	0x3c88944b	0.016672274
85	0x3e9f75f4	0.3114468
86	0x3e8e4bf3	0.2779232
87	0x3ea48094	0.32129347
88	0x3e932b5f	0.28744027
89	0x3f0362f0	0.5132284
90	0x3d88f1ea	0.066867664
91	0x3d8de34e	0.069281206
92	0x3e68082e	0.2265937
93	0x3e962370	0.29323912
94	0x3e85cb95	0.26131883
95	0x3debc0d2	0.11511387

nn.block1.batch.running_var f4 [96]
0	0x3d8ecaa0	0.069722414
1	0x3de8fa54	0.11375871
2	0x3c017368	0.00790105
3	0x3d04275b	0.032264095
4	0x3d4c24df	0.04983985
5	0x3c9fa0e2	0.019485895
6	0x3e469a0e	0.19394705
7	0x3d5c739c	0.05382119
8	0x3d8509dd	0.06496022
9	0x3a998091	0.0011711289
10	0x3ceb371d	0.028712803
11	0x3da39b64	0.07988623
12	0x3ecee417	0.40408394
13	0x3d192501	0.037388805
14	0x3e6a1a29	0.22861542
15	0x3ea32aec	0.31868684
16	0x3d12f490	0.035877764
17	0x3beca154	0.0072213802
18	0x3d4c4b31	0.049876396
19	0x3ec2fde2	0.38084322
20	0x3d6ce580	0.057836056
21	0x3da7b343	0.08188488
22	0x3d4edbd6	0.05050262
23	0x3d77835c	0.06042801
24	0x3eef9184	0.46790707
25	0x3cd41bc9	0.025892155
26	0x3e057e95	0.13036568
27	0x3c6a5f2b	0.014304916
28	0x3b084e3b	0.0020798582
29	0x3e489fbe	0.19592187
30	0x3ceae5bd	0.028674
31	0x3c9ea34e	0.01936498
32	0x3d5b7c73	0.05358548
33	0x3d67c290	0.056582034
34	0x3cbd770b	0.023128053
35	0x3e2f74a7	0.17134343
36	0x3ba6b01c	0.005086912
37	0x3d609168	0.05482617
38	0x3d011cec	0.031521723
39	0x3d4daeca	0.05021552
40	0x3e8332da	0.25624734
41	0x3de147f7	0.11000054
42	0x3d039bb1	0.0321309
43	0x3c11eece	0.008907033
44	0x3ad52498	0.0016261516
45	0x3d813656	0.06309192
46	0x3d1ef6a7	0.038809445
47	0x3dbf528c	0.093419164
48	0x3ca35bcd	0.019941235
49	0x3c2ce7fd	0.010553357
50	0x3b052e19	0.0020321666
51	0x3dec7786	0.11546235
52	0x3f3ea830	0.74475384
53	0x3d45af73	0.048263025
54	0x3e3e474e	0.18581888
55	0x39c80b33	0.00038155317
56	0x3e8f3c5a	0.27975732
57	0x3d311c66	0.043239973
58	0x3b104a63	0.0022016994
59	0x3e1fb97d	0.15598102
60	0x3d473e6a	0.048643507
61	0x3e951864	0.2912017
62	0x3dc2f34f	0.09519064
63	0x3d1e4356	0.038638435
64	0x3e83b998	0.25727534
65	0x3ca655da	0.02030461
66	0x3d89b672	0.06724252
67	0x3c4645b9	0.012101584
68	0x3e201eac	0.156367
69	0x3d9f74fb	0.07785984
70	0x3d734a78	0.05939719
71	0x3c886542	0.016649846
72	0x3d2d9e84	0.0423875
73	0x3dafb853	0.08580079
74	0x3e33b7de	0.17550609
75	0x3dd31e07	0.10308462
76	0x3d0bf079	0.03416488
77	0x3cb465b6	0.022021156
78	0x3cc37c10	0.023862869
79	0x3d8db59e	0.06919406
80	0x3ec31ed3	0.38109455
81	0x3c11f1df	0.008907764
82	0x3cd0c9fe	0.025486942
83	0x3e8775e8	0.26457143
84	0x3af30525	0.0018540962
85	0x3d880968	0.06642419
86	0x3d7887c7	0.060676362
87	0x3dd55fac	0.104186386
88	0x3e89d453	0.26919803
89	0x3ebd57ee	0.36981148
90	0x3c575732	0.013143348
91	0x3cb88a72	0.022526953
92	0x3d62c84e	0.055366807
93	0x3d42bbf6	0.047542535
94	0x3d9bb5ae	0.07603012
95	0x3c7ba1fc	0.015358444

nn.block2.linear.weight f4 [256, 96]
0	0x3d3ab5be	0.04558348
1	0xbd934f88	-0.07192904
2	0x3d3a04c1	0.04541469
3	0xbd2df2e7	-0.042467978
4	0xbd79486f	-0.060860094
5	0xbd90c9ea	-0.07069762
6	0xbd7a9a65	-0.0611824
7	0xbc4a7a0c	-0.0123582
8	0x3ca42a1d	0.020039612
9	0xbd5474f9	-0.051869366
10	0xbdcfb2c6	-0.1014152
11	0x3dc76505	0.09736065
12	0x3dc67c8f	0.096917264
13	0xbd51aaf9	-0.051188443
14	0x3d9fe164	0.07806662
15	0xbda1b83e	-0.078964695
16	0xbd88c972	-0.06679048
17	0x3dca051f	0.09864258
18	0xb95e6b97	-0.0002121165
19	0xbcade9a9	-0.021229582
20	0xbd0f4723	-0.03497995
21	0xbd48b650	-0.04900199
22	0xbd2cc580	-0.04218054
23	0x3dd106e6	0.10206394
24	0xbd9d26d8	-0.076734245
25	0xbd965d42	-0.07342006
26	0xbd06ccec	-0.032910272
27	0xbc812065	-0.015762517
28	0x3db5b8e5	0.088731565
29	0x3bfc20ee	0.007694355
30	0x3b3d7710	0.0028910078
31	0x3d6f7a3f	0.058466192
32	0x3d96edf6	0.07369606
33	0xbd81f0dc	-0.063447684
34	0xbdc797d3	-0.09745755
35	0x3d209b48	0.039210588
36	0x3dbbbff8	0.091674745
37	0xbcfdeb00	-0.030995846
38	0xbd316647	-0.04331043
39	0x3d477a1e	0.048700444
40	0xbdc4a0d0	-0.09600985
41	0xbb2403d8	-0.0025026705
42	0xbdc5f80d	-0.096664526
43	0x3c3a9d69	0.011390069
44	0xbdbc50b0	-0.091950774
45	0x3cac4511	0.021029027
46	0x3daf5e5f	0.08562922
47	0x3b6a30aa	0.0035734572
48	0xbcef6b2d	-0.02922591
49	0x3c049e26	0.008094346
50	0x3d221898	0.039574236
51	0x3dbe2767	0.09284859
52	0xbd599f28	-0.0531303
53	0x3d789c56	0.06069597
54	0xbdbbea96	-0.09175603
55	0x3dc70d9b	0.09719392
56	0xbd442c43	-0.047893774
57	0xbca5f294	-0.020257272
58	0x3d891479	0.06693358
59	0x3d661f74	0.05618234
60	0xbd58c4f2	-0.052922197
61	0xbc3e6198	-0.011619948
62	0xbdab7d40	-0.08373499
63	0x3a8d3fc7	0.0010776453
64	0xbdb8224a	-0.08990915
65	0xbda76a56	-0.08174579
66	0x3d549ab0	0.051905334
67	0xbcdb14e5	-0.026743362
68	0xbd39f1b3	-0.045396518
69	0xbc91fcc7	-0.017820729
70	0xbdc765ee	-0.097362384
71	0x3dc48328	0.095953286
72	0xbb418a52	-0.0029531908
73	0xbc2276d0	-0.009916022
74	0xbd2e1fd1	-0.04251081
75	0x3d5602c1	0.05224872
76	0xbda7a506	-0.081857726
77	0x3d1e74be	0.038685553
78	0xbd9cecfd	-0.076623894
79	0xbd386447	-0.045017507
80	0xbd801dea	-0.06255706
81	0xbd8b6f0e	-0.068082914
82	0xbc5e65c2	-0.013574066
83	0xbd904c73	-0.070458315
84	0xbd8d9854	-0.0691382
85	0xbdcb47c3	-0.09925797
86	0x3cdb5e1a	0.02677827
87	0xbda5e5e7	-0.08100491
88	0xbc193b41	-0.009352506
89	0xbcae05b0	-0.021242946
90	0xbda7c977	-0.08192723
91	0xbd8c6da7	-0.06856852
92	0xbbe3db6e	-0.0069536483
93	0x3d9eca42	0.07753421
94	0xbcdf71b8	-0.027275905
95	0x3db70621	0.08936716
96	0x3d12f74c	0.035880372
97	0xbd9e4b90	-0.07729256
98	0x3d022522	0.031773694
99	0xbdc97835	-0.09837381
100	0xbd75333c	-0.059863314
101	0x3dd17f98	0.10229415
102	0x3dca1071	0.09866417
103	0xbd70f789	-0.058829818
104	0x3c61dd41	0.013785661
105	0xbdcd72b5	-0.10031644
106	0xbd67fb0a	-0.056635894
107	0x3c8c726f	0.01714441
108	0xbdc46768	-0.09590036
109	0xbd146724	-0.036231175
110	0xbd4836ae	-0.04888027
111	0xbda23900	-0.07921028
112	0x3d630d81	0.0554328
113	0xbd8a5cfa	-0.06756015
114	0x3db80133	0.08984604
115	0x3c8de11e	0.017319258
116	0x3d0fb672	0.035086103
117	0xbd92a757	-0.07160824
118	0x3bdb22de	0.006687506
119	0x3dc18ef9	0.09451098
120	0xbd5f5c40	-0.054531336
121	0xbd2a580f	-0.041587885
122	0xbd19779f	-0.037467595
123	0xbca82967	-0.020527555
124	0x3d7121ac	0.058870003
125	0x3d5bf5a4	0.053701058
126	0xbd0f8650	-0.0350402
127	0x3d8eadbe	0.069667324
128	0xbdbc6408	-0.09198767
129	0xbcfd88c5	-0.030949006
130	0xbc6de4c7	-0.014519877
131	0xbb5547c4	-0.0032543996
132	0xbb7349b3	-0.0037122786
133	0x3d0d8775	0.03455301
134	0x3d0b9614	0.034078673
135	0xbdac6265	-0.08417205
136	0x3d24d5e1	0.040243033
137	0x3c170f80	0.009220004
138	0x3d841618	0.064495265
139	0xbc567f96	-0.013091942
140	0xbdbdf587	-0.09275346
141	0x3cdf4119	0.02725272
142	0xbd30a43d	-0.04312538
143	0xbd86e44c	-0.06586513
144	0xbc8c5c4d	-0.017133856
145	0x3d9df9fc	0.07713696
146	0xbdade8b9	-0.08491654
147	0xbd15faad	-0.036616016
148	0xbdc9899d	-0.09840701
149	0xbcaac833	-0.020847416
150	0x3cfb42ae	0.030671444
151	0x3d527520	0.05138123
152	0xbcebaa55	-0.028767744
153	0x3d9fbe3b	0.077999555
154	0x3d310ba9	0.04322401
155	0x3d794dc4	0.06086518
156	0xbd4e5862	-0.050377257
157	0x3d951a02	0.07280351
158	0xbccd7324	-0.025079317
159	0x3da0119d	0.078158595
160	0x3d8f8816	0.07008378
161	0xbdb7ade2	-0.089687124
162	0x3c4ffdc3	0.012694779
163	0x3c6ec43b	0.014573152
164	0xbc871c33	-0.016492939
165	0x3d8cc6d6	0.068738624
166	0x3d0d4cc1	0.034497026
167	0xbdcf9d4e	-0.10137425
168	0x3d903a2b	0.07042345
169	0x3c9c9ad9	0.019116806
170	0x3ce839ec	0.028347932
171	0x3c8a173e	0.016856786
172	0x3b4703c6	0.003036724
173	0xbd563ade	-0.052302234
174	0x3cc1449f	0.023592291
175	0x3ba073b4	0.0048966054
176	0x3d19037a	0.03735683
177	0xbcb76dcd	-0.022391224
178	0x3d9a58ea	0.0753649
179	0xbb92cfb5	-0.004480327
180	0xbc7a03c1	-0.015259684
181	0xbd11a5e0	-0.03555858
182	0x3dba5fd9	0.09100313
183	0xbac09d34	-0.0014695288
184	0xbd261ace	-0.040552907
185	0xbd42e397	-0.047580328
186	0x3dc72a4d	0.09724865
187	0xbdbb329a	-0.09140511
188	0xbd85fb7a	-0.06542106
189	0x3a6c40a8	0.000901232
190	0x3ccfc0c5	0.025360474
191	0x3c6ba212	0.014381902
192	0xbd12ace1	-0.0358094
193	0xbd5102ea	-0.05102817
194	0x3cb5a45d	0.022173101
195	0xbdbe31db	-0.09286853
196	0x3cac9da0	0.021071255
197	0x3ce31f62	0.027724925
198	0xbda30967	-0.07960778
199	0x3d8731d6	0.06601302
200	0xbdbc26c3	-0.09187081
201	0xbd7ede16	-0.062223516
202	0xbdd2bbd4	-0.102897316
203	0x3db9b503	0.09067728
204	0x3d394db2	0.04524011
205	0x3c2ad438	0.010426573
206	0xbdc31a5c	-0.09526512
207	0x3d650002	0.05590821
208	0xbd5a0509	-0.05322746
209	0xbdb92753	-0.090407036
210	0xbd6eda65	-0.058313746
211	0x3c6ac8bb	0.014330084
212	0xbdb9e598	-0.09076995
213	0x3dc0eb85	0.09419922
214	0x3cc87366	0.024469089
215	0x3dd325a4	0.10309914
216	0xbb951f88	-0.004550878
217	0x3d3323f2	0.043735452
218	0x3d3f28bc	0.046669707
219	0x3d8603ee	0.06543718
220	0x3d373a3f	0.044733282
221	0xbda10102	-0.0786152
222	0x3da898c1	0.082322605
223	0xbda28921	-0.079363115
224	0xbd326c08	-0.043560058
225	0xbcb9b809	-0.022670763
226	0x3cec6bea	0.028860051
227	0x3d85887c	0.06520173
228	0xbd463c6f	-0.048397478
229	0xbbc6d525	-0.0060678893
230	0xbcdbb1ad	-0.02681812
231	0x3d477af9	0.04870126
232	0x3c6471e4	0.013943169
233	0xbda6858c	-0.08130941
234	0xbdc8d929	-0.09807045
235	0x3d5a774d	0.05333643
236	0xbadbbcf6	-0.0016764689
237	0x3dbc76ee	0.092023715
238	0x3c573ef0	0.013137564
239	0x3db9972f	0.09062039
240	0x3d95cc44	0.07314351
241	0xbdc2d9bd	-0.095141865
242	0x3db25e12	0.08709349
243	0xbdca0fdf	-0.098663084
244	0xbda0efad	-0.078582145
245	0x3d9036f9	0.07041735
246	0x3da7d4e6	0.08194904
247	0x3c4b6a4d	0.012415481
248	0x3db1ddb8	0.086848676
249	0x3dc218fb	0.09477421
250	0x3dc793e0	0.09745002
251	0xbc43f271	-0.011959658
252	0x3db945f9	0.09046549
253	0x3d851658	0.06498402
254	0x3d9fb01d	0.07797263
255	0xbc3cdc2e	-0.011527104

nn.block2.linear.bias f4 [256]
0	0x3d6e61ef	0.058198866
1	0x3d994f6c	0.07485852
2	0xbd8fa9de	-0.070148215
3	0xbd56605d	-0.052337993
4	0x3d5dd07d	0.054153908
5	0x3d24dc1c	0.040248975
6	0xbbc7e2b2	-0.0061000222
7	0xbca831e1	-0.020531597
8	0x3c38161b	0.011235739
9	0x3d9a8c7a	0.07546325
10	0xbd6e501f	-0.05818188
11	0xbd5314f5	-0.051533658
12	0xbdccb5b7	-0.09995597
13	0xbdbc77c4	-0.09202531
14	0xbd5f4e42	-0.05451799
15	0xbb97d148	-0.0046331026
16	0x3d519f38	0.051177233
17	0x3d5a8b7a	0.05335567
18	0x3d95e691	0.07319368
19	0xbb639a5e	-0.0034729461
20	0x3d8d145d	0.068886496
21	0x3d42ce37	0.047559943
22	0x3d62f36f	0.055407938
23	0xbd06e303	-0.03293134
24	0xbd01f862	-0.031731017
25	0x3d8459ae	0.064624175
26	0x3d6aacb3	0.057293605
27	0x3d595ffd	0.053070057
28	0x3d866ba7	0.06563502
29	0xbda2f566	-0.07956962
30	0x3d9eaa1d	0.0774729
31	0xbdba7f73	-0.0910634
32	0x3cde21b8	0.027115688
33	0x3bddf228	0.006773252
34	0x3cd3d9e9	0.025860744
35	0x3d6633c1	0.0562017
36	0x3c65ef2e	0.014034076
37	0xbd67e1d9	-0.05661187
38	0xbcfd1229	-0.030892448
39	0x3da6cd24	0.08144596
40	0xbdcbc9fa	-0.09950633
41	0x3d8a2010	0.06744397
42	0xbda80006	-0.082031295
43	0x3c28d1e2	0.010303946
44	0xbdb68837	-0.089127
45	0x3d7a5c86	0.061123393
46	0x3b68770b	0.0035471346
47	0xbd9ac2cd	-0.075566866
48	0xbd87b72f	-0.066267364
49	0x3d7e4dd3	0.062085938
50	0x3d9b2e8b	0.07577237
51	0xbd9e422b	-0.07727464
52	0xbd8d5adf	-0.06902098
53	0xbdc1cc89	-0.0946284
54	0x3d8e56ac	0.06950125
55	0xbd13f3ff	-0.036121365
56	0x3c063bad	0.008192939
57	0x3dcef23c	0.10104796
58	0x3baf387d	0.00534731
59	0x3da251f2	0.07925786
60	0xbd01ad8b	-0.031659644
61	0x3d62e1e7	0.05539122
62	0x3d98f140	0.0746789
63	0xbd927a85	-0.07152275
64	0xbd69481f	-0.056953546
65	0xbc416f8e	-0.011806382
66	0xbd59b094	-0.053146914
67	0x3d34b057	0.044113483
68	0x3d04510f	0.032303866
69	0xbd2f7e9a	-0.042845346
70	0x3ca5f2bb	0.020257344
71	0x3d38206d	0.0449528
72	0x3d6272c3	0.055285227
73	0xbdbfa6b6	-0.093579695
74	0xbcd8dc1d	-0.026472146
75	0xbcbfe353	-0.023423826
76	0xbd6acc4d	-0.057323743
77	0x3cfb415e	0.030670818
78	0x3d016613	0.031591486
79	0x3cd4b158	0.02596347
80	0xbd6a9d12	-0.0572787
81	0xbd02b5fd	-0.03191184
82	0xbdc6492d	-0.09681926
83	0x3da6178c	0.0810996
84	0xbdb4bde5	-0.08825282
85	0x3dca5e6f	0.09881293
86	0xbc9615d0	-0.018320948
87	0x3d88ee40	0.066860676
88	0xbd037dc4	-0.03210236
89	0x3c89e6dd	0.016833717
90	0x3d5830fc	0.05278109
91	0xbdb5c0a7	-0.08874636
92	0x3d886c2a	0.06661256
93	0xbd7f0c11	-0.062267367
94	0x3db0ab83	0.08626463
95	0x3dacbf9b	0.08434983
96	0xbc9ba739	-0.019000636
97	0xbdb80218	-0.08984774
98	0x3d74b8a3	0.059746396
99	0xba905072	-0.0011010303
100	0xbd4e74a5	-0.05040421
101	0x3c83d212	0.01609138
102	0x3da1963e	0.078899845
103	0xbbd8e35a	-0.0066188993
104	0xbcfe993f	-0.031078933
105	0xbd6883d1	-0.056766335
106	0xbc138fa5	-0.0090064155
107	0x3dc2421d	0.09485266
108	0x3d17ad7d	0.037030686
109	0xbd0733f6	-0.03300854
110	0x3c0b2ac1	0.00849408
111	0x3d7b410f	0.06134134
112	0x3d0e785e	0.03478276
113	0xbdc7bb81	-0.097525604
114	0x3bf47640	0.0074603856
115	0x3d93213e	0.07184075
116	0xbce2e2f3	-0.027696108
117	0x3d4d8aba	0.050181128
118	0xbbaa9324	-0.005205529
119	0x3cacd52e	0.021097746
120	0xbd1fc67f	-0.03900766
121	0x3d8a7262	0.06760098
122	0xbdbc99cd	-0.09209023
123	0x3d51eb6d	0.05124991
124	0x3d2ad241	0.04170442
125	0x3d9d05ba	0.07667108
126	0x3d86d036	0.06582682
127	0x3dab0871	0.083512194
128	0xbd29a221	-0.041414384
129	0x3cedc848	0.029026166
130	0x3d7c154b	0.061543744
131	0x3cf996ce	0.030467417
132	0xbd9253a0	-0.071448565
133	0x3d7b8efc	0.061415657
134	0xbb2672ef	-0.0025398096
135	0xbc208720	-0.009797841
136	0x3cab579c	0.020915799
137	0x3b33a7d3	0.0027413263
138	0x3dcab131	0.09897078
139	0xbd8f0ca6	-0.069848344
140	0x3cd15497	0.02555303
141	0xbd83aba9	-0.06429226
142	0xbd62fe5e	-0.055418365
143	0x3b91facb	0.0044549457
144	0xbd525a78	-0.05135581
145	0x3d4eea5a	0.050516464
146	0xbd1cfdcc	-0.038327977
147	0xbc3468c8	-0.01101131
148	0x3d984230	0.07434499
149	0xbc9722de	-0.018449243
150	0xbd7512c1	-0.05983234
151	0xbda53819	-0.080673404
152	0xbda5963b	-0.08085295
153	0xbd79d8e6	-0.060997866
154	0x3d5e39e2	0.05425442
155	0x3c0b5100	0.008503199
156	0xbc3020d6	-0.010750016
157	0xbcbe5576	-0.02323411
158	0x3db70007	0.08935552
159	0xbc4c1334	-0.01245575
160	0xbd9fec34	-0.07808724
161	0xbb1a6164	-0.0023556584
162	0xbd8fa50d	-0.07013903
163	0x3d548f1e	0.0518943
164	0xbc243c86	-0.010024196
165	0x3c2d10eb	0.010563116
166	0x3cb1eb49	0.021718638
167	0x3d196862	0.037453063
168	0x3d3baf9e	0.04582178
169	0x3d2fc786	0.04291489
170	0x3d8f912a	0.0701011
171	0xbbf3422c	-0.00742366
172	0x3d40ec06	0.04710009
173	0xbca3486c	-0.019931994
174	0xbd605066	-0.054764174
175	0xbd8be96b	-0.0683163
176	0x3dcea79a	0.10090561
177	0xbd68a532	-0.056798168
178	0xbd94a647	-0.072582774
179	0xbb86f11d	-0.0041180984
180	0xbcb5afd7	-0.022178574
181	0x3caad621	0.020854058
182	0x3db2bca9	0.0872739
183	0xbd7f791f	-0.06237137
184	0x3cdd14de	0.02698749
185	0xbd8906ea	-0.06690772
186	0xbd543b45	-0.051814336
187	0xbd6531a1	-0.055955533
188	0x3d8e16e6	0.06937961
189	0x3d969046	0.07351737
190	0xbd00cff7	-0.03144833
191	0x3d94c90e	0.07264911
192	0xbdbcc270	-0.092167735
193	0x3d4087ca	0.0470045
194	0xbdba8c5b	-0.09108802
195	0x3cc7230f	0.02430871
196	0x3d87ca8c	0.066304296
197	0xbd86b5f6	-0.06577675
198	0x3db1cca9	0.08681614
199	0x3cb29d08	0.021803394
200	0x3dc9e452	0.09858002
201	0xbdaf2778	-0.0855245
202	0x3cf73cae	0.030180302
203	0xbd7aa15c	-0.06118904
204	0xbcaf33d9	-0.021387028
205	0x3c79d762	0.015249105
206	0xbd81f223	-0.06345012
207	0xbd853b83	-0.065054916
208	0x3d3b27a7	0.045692112
209	0xbd5b4ea7	-0.053541806
210	0xbdafabea	-0.08577712
211	0xbd7c4cd1	-0.061596695
212	0x3d95100d	0.07278452
213	0xbd4d500f	-0.050125178
214	0xbd9cf4f2	-0.07663907
215	0xbdc865c0	-0.09785032
216	0xbc0facca	-0.0087692235
217	0xbd9852cf	-0.074376695
218	0x3d9d5d06	0.076837584
219	0x3d8eb450	0.06967986
220	0xbd6ec173	-0.058289956
221	0xbb07505d	-0.0020647265
222	0x3d970ff0	0.07376087
223	0x3d09aec2	0.033613928
224	0xbd5c127a	-0.053728558
225	0xbcc501ec	-0.024048768
226	0x3db952a0	0.090489626
227	0xbaf52e43	-0.0018705804
228	0xbd430c2c	-0.04761903
229	0xb9fefa66	-0.00048633217
230	0xbdbe74e8	-0.09299642
231	0xbcd92edf	-0.026511608
232	0x3d185452	0.03718979
233	0xbdc2c79d	-0.095107295
234	0xbd779aa5	-0.060450215
235	0x3d984ddd	0.07436726
236	0x3b154d21	0.0022781568
237	0x3c8f7f14	0.01751665
238	0x3bd05c7d	0.0063586817
239	0x3d802e24	0.062588006
240	0xbca5c894	-0.020237245
241	0xbcbf9dde	-0.023390707
242	0xbd838d24	-0.06423405
243	0xbc71839e	-0.014740853
244	0x3cfe775a	0.03106277
245	0xbdce651e	-0.1007788
246	0x3c19c418	0.009385131
247	0xbd05cf30	-0.032668293
248	0x3d0f70b7	0.035019603
249	0xbd80ed26	-0.062952325
250	0x3d84d3a3	0.06485679
251	0x3caa4bdf	0.020788131
252	0xbbc69798	-0.006060552
253	0xbd12dd93	-0.03585584
254	0xbdae35ca	-0.08506353
255	0x3d4fb0b8	0.05070564

nn.block2.batch.weight f4 [256]
0	0x3f7ffe31	0.9999724
1	0x3f804057	1.0019635
2	0x3f7fc7a2	0.9991399
3	0x3f7fd125	0.99928504
4	0x3f7fa039	0.99853855
5	0x3f7ffdee	0.9999684
6	0x3f801689	1.0006877
7	0x3f7fede4	0.9997237
8	0x3f7fc908	0.99916124
9	0x3f802edc	1.00143
10	0x3f7fc776	0.9991373
11	0x3f8040fe	1.0019834
12	0x3f7fe103	0.99952716
13	0x3f8049d9	1.0022537
14	0x3f804f00	1.0024109
15	0x3f80004e	1.0000093
16	0x3f802a77	1.0012959
17	0x3f80064a	1.0001919
18	0x3f8017f3	1.0007309
19	0x3f7ff5bc	0.99984336
20	0x3f8024a9	1.0011188
21	0x3f7f113b	0.99635667
22	0x3f7fb864	0.9989073
23	0x3f801e2b	1.0009207
24	0x3f80327c	1.0015407
25	0x3f80399c	1.0017581
26	0x3f7f8c27	0.9982323
27	0x3f7f79ef	0.9979543
28	0x3f800897	1.0002621
29	0x3f802118	1.00101
30	0x3f80216c	1.00102
31	0x3f7fc56b	0.9991061
32	0x3f7ef097	0.9958586
33	0x3f8016a3	1.0006908
34	0x3f7fbea1	0.9990025
35	0x3f7f8490	0.9981165
36	0x3f804229	1.002019
37	0x3f7fd243	0.9993021
38	0x3f8051f9	1.0025016
39	0x3f7f90ea	0.99830496
40	0x3f801d08	1.000886
41	0x3f8005e7	1.0001801
42	0x3f801b55	1.0008341
43	0x3f803f2e	1.0019281
44	0x3f8003fb	1.0001215
45	0x3f7fe13a	0.99953043
46	0x3f7fa2c2	0.99857724
47	0x3f7f8b47	0.99821895
48	0x3f7f3800	0.99694824
49	0x3f801b25	1.0008284
50	0x3f805d0e	1.0028398
51	0x3f802249	1.0010463
52	0x3f801c06	1.0008552
53	0x3f7ff2f5	0.999801
54	0x3f7fa83a	0.9986607
55	0x3f801512	1.000643
56	0x3f7f4646	0.99716604
57	0x3f7fc189	0.99904686
58	0x3f7fa82d	0.9986599
59	0x3f7fc5f8	0.9991145
60	0x3f7fce17	0.99923843
61	0x3f801547	1.0006493
62	0x3f7f7e98	0.9980254
63	0x3f803495	1.0016047
64	0x3f7ff60d	0.9998482
65	0x3f7fc21a	0.9990555
66	0x3f80293f	1.0012587
67	0x3f7ffe9f	0.99997896
68	0x3f8015f5	1.0006701
69	0x3f80402e	1.0019586
70	0x3f7fb74c	0.99889064
71	0x3f801064	1.0005002
72	0x3f7f00b9	0.9961048
73	0x3f801d62	1.0008967
74	0x3f7f9aed	0.99845773
75	0x3f8015c7	1.0006646
76	0x3f7f6a61	0.99771696
77	0x3f8011e4	1.000546
78	0x3f7fa144	0.99855447
79	0x3f7ffe48	0.9999738
80	0x3f7fe347	0.9995617
81	0x3f800319	1.0000945
82	0x3f800d2c	1.000402
83	0x3f800bd3	1.0003608
84	0x3f801caa	1.0008748
85	0x3f801ddc	1.0009112
86	0x3f800b45	1.0003439
87	0x3f7fee32	0.9997283
88	0x3f803a1d	1.0017735
89	0x3f803266	1.001538
90	0x3f802220	1.0010414
91	0x3f802801	1.0012208
92	0x3f7fb3e1	0.9988385
93	0x3f7fb486	0.9988483
94	0x3f805d49	1.0028468
95	0x3f7fd190	0.9992914
96	0x3f7f74c7	0.99787563
97	0x3f8017d5	1.0007273
98	0x3f7fa0aa	0.9985453
99	0x3f80067d	1.000198
100	0x3f801609	1.0006725
101	0x3f7ff684	0.9998553
102	0x3f7fd475	0.9993356
103	0x3f8007ca	1.0002377
104	0x3f7ff761	0.99986845
105	0x3f7f97a5	0.99840766
106	0x3f80209d	1.0009953
107	0x3f7f3f84	0.9970629
108	0x3f80169b	1.0006899
109	0x3f801b00	1.000824
110	0x3f804370	1.002058
111	0x3f801ef9	1.0009452
112	0x3f7fff82	0.9999925
113	0x3f802c19	1.0013458
114	0x3f7fc442	0.9990884
115	0x3f7fd4de	0.99934185
116	0x3f803362	1.0015681
117	0x3f801aab	1.0008138
118	0x3f7fcd01	0.99922186
119	0x3f8002e1	1.0000879
120	0x3f800493	1.0001396
121	0x3f800d73	1.0004104
122	0x3f7f9c68	0.9984803
123	0x3f8044eb	1.0021032
124	0x3f802246	1.001046
125	0x3f7fac06	0.9987186
126	0x3f7f9540	0.9983711
127	0x3f8010d7	1.0005139
128	0x3f7fad60	0.99873924
129	0x3f7fbec6	0.9990047
130	0x3f7fc48a	0.9990927
131	0x3f80076d	1.0002266
132	0x3f7fef74	0.9997475
133	0x3f80392e	1.001745
134	0x3f800c92	1.0003836
135	0x3f801000	1.0004883
136	0x3f804bb4	1.0023103
137	0x3f7fbdff	0.99899286
138	0x3f7ffe70	0.99997616
139	0x3f801b1e	1.0008276
140	0x3f7fbce7	0.9989762
141	0x3f80282d	1.0012261
142	0x3f804374	1.0020585
143	0x3f801ad1	1.0008184
144	0x3f7f91f7	0.998321
145	0x3f7fcf19	0.9992538
146	0x3f801689	1.0006877
147	0x3f7fd89d	0.999399
148	0x3f7f5195	0.9973386
149	0x3f8017fe	1.0007322
150	0x3f7fc525	0.99910194
151	0x3f7fb88f	0.9989099
152	0x3f7fd232	0.9993011
153	0x3f805a23	1.0027508
154	0x3f801f2e	1.0009515
155	0x3f801735	1.0007082
156	0x3f8038ce	1.0017335
157	0x3f7f92db	0.9983346
158	0x3f80070d	1.0002152
159	0x3f7fb213	0.99881095
160	0x3f800d9b	1.0004152
161	0x3f7fc309	0.99906975
162	0x3f7f6a3c	0.99771476
163	0x3f7fd17f	0.9992904
164	0x3f7fc0c8	0.99903536
165	0x3f800ca8	1.0003862
166	0x3f7fc7b3	0.9991409
167	0x3f7f9b3d	0.9984625
168	0x3f802dac	1.0013938
169	0x3f800b05	1.0003363
170	0x3f7fe261	0.999548
171	0x3f7ffb21	0.9999257
172	0x3f7fbe1c	0.9989946
173	0x3f80057f	1.0001677
174	0x3f7f97c9	0.9984098
175	0x3f7fc6ce	0.99912727
176	0x3f80149c	1.000629
177	0x3f7ff207	0.9997868
178	0x3f802893	1.0012382
179	0x3f805af5	1.0027758
180	0x3f7fe235	0.9995454
181	0x3f7f1683	0.99643725
182	0x3f800398	1.0001097
183	0x3f8020d8	1.0010023
184	0x3f80187a	1.000747
185	0x3f801ca4	1.000874
186	0x3f7f94fb	0.998367
187	0x3f7fd3b1	0.9993239
188	0x3f802834	1.0012269
189	0x3f7ff0a0	0.9997654
190	0x3f7fd702	0.9993745
191	0x3f8013c6	1.0006034
192	0x3f8044a4	1.0020947
193	0x3f80088d	1.000261
194	0x3f80314b	1.0015043
195	0x3f8023bb	1.0010904
196	0x3f7f470b	0.9971778
197	0x3f8029f3	1.0012802
198	0x3f801070	1.0005016
199	0x3f7fd25e	0.9993037
200	0x3f80391c	1.0017428
201	0x3f7faa40	0.99869156
202	0x3f8031a6	1.0015152
203	0x3f801c68	1.0008669
204	0x3f802543	1.0011371
205	0x3f80063c	1.0001903
206	0x3f7fd3eb	0.99932736
207	0x3f801e5b	1.0009264
208	0x3f7fe596	0.99959695
209	0x3f7f9b02	0.998459
210	0x3f7fd1f4	0.9992974
211	0x3f802799	1.0012084
212	0x3f7f9ef9	0.9985195
213	0x3f7f8426	0.9981102
214	0x3f7fd973	0.99941176
215	0x3f800353	1.0001014
216	0x3f8008bd	1.0002667
217	0x3f801750	1.0007114
218	0x3f7fe79f	0.999628
219	0x3f7fb664	0.9988768
220	0x3f7f55f8	0.9974055
221	0x3f800288	1.0000772
222	0x3f7fe973	0.9996559
223	0x3f8018a2	1.0007517
224	0x3f7fb07c	0.9987867
225	0x3f7fd1e0	0.9992962
226	0x3f80164a	1.0006802
227	0x3f7ff08f	0.9997644
228	0x3f8035b6	1.0016391
229	0x3f7fbd2f	0.99898046
230	0x3f802a27	1.0012864
231	0x3f802e8e	1.0014207
232	0x3f800475	1.000136
233	0x3f800d8a	1.0004132
234	0x3f80093f	1.0002822
235	0x3f7fadee	0.9987477
236	0x3f7fc6f6	0.99912965
237	0x3f7ffbc1	0.9999352
238	0x3f8002bc	1.0000834
239	0x3f8018c9	1.0007564
240	0x3f804442	1.0020831
241	0x3f804123	1.0019878
242	0x3f7ffc9a	0.99994814
243	0x3f801459	1.000621
244	0x3f8038d5	1.0017344
245	0x3f7fef09	0.99974114
246	0x3f802126	1.0010116
247	0x3f7fb91a	0.9989182
248	0x3f7fb4fe	0.9988555
249	0x3f7fb242	0.99881375
250	0x3f7fd642	0.99936306
251	0x3f800db1	1.0004178
252	0x3f80364c	1.001657
253	0x3f8012f6	1.0005786
254	0x3f8003f4	1.0001206
255	0x3f7fe186	0.99953496

nn.block2.batch.bias f4 [256]
0	0x392ffefa	0.00016784287
1	0xba975e1f	-0.0011548436
2	0x3883f6ac	6.292513e-05
3	0x3a0bb313	0.00053291133
4	0x3a826c7d	0.0009950545
5	0x39748ddf	0.00023322504
6	0x3adec54f	0.0016996058
7	0x3a235f43	0.00062321516
8	0x39c8e6ef	0.00038319032
9	0xbab0ef3b	-0.0013499031
10	0xb986cbf3	-0.00025710426
11	0xb9dceb83	-0.0004213714
12	0xb82e4a5f	-4.1554096e-05
13	0x39804dfd	0.00024472168
14	0x3a2994a9	0.00064689905
15	0xb995e9c0	-0.00028593652
16	0x3a3b242c	0.0007138874
17	0xb92ef66c	-0.00016685732
18	0xb9e8bd3c	-0.0004439148
19	0x3ab4e113	0.0013799988
20	0x3a461829	0.0007556701
21	0xba42e31c	-0.00074343546
22	0x39c88791	0.00038247977
23	0x3a34701a	0.00068831595
24	0xba0676aa	-0.00051293767
25	0x3a41997f	0.00073852384
26	0x3a15e823	0.000571849
27	0x3a1ff051	0.00061011786
28	0xb9f49469	-0.0004664988
29	0x3a946fb3	0.0011324793
30	0xba1af7a6	-0.0005911536
31	0xba17d28f	-0.00057915685
32	0xb8adaa5d	-8.2810155e-05
33	0x3a509984	0.0007957446
34	0x38f6db0e	0.00011770996
35	0x3ab97436	0.0014149013
36	0x3a503dea	0.0007943796
37	0xb98e7a58	-0.00027175504
38	0x3a3a1365	0.0007098227
39	0xb9b41bde	-0.00034353038
40	0xb8f8b84e	-0.00011859891
41	0x38aa16d0	8.110481e-05
42	0xbad9741e	-0.0016590392
43	0x3a8f8236	0.001094884
44	0xba5a2098	-0.0008320897
45	0xb8a562f7	-7.886247e-05
46	0xb9a0e9db	-0.00030691814
47	0xbabef88b	-0.0014569921
48	0xb9291a75	-0.00016126952
49	0xba2f0b76	-0.0006677428
50	0x3a851aac	0.0010155044
51	0xb91f0f2f	-0.00015169078
52	0xba16dff3	-0.0005755417
53	0xb9eb1ff2	-0.00044846494
54	0xba4b3fd2	-0.00077533454
55	0xb8b58ea6	-8.657323e-05
56	0xb90a3b32	-0.00013182758
57	0xb81050bd	-3.440747e-05
58	0xb8b335be	-8.5453954e-05
59	0xba939e57	-0.0011262399
60	0x3a961cca	0.0011452672
61	0xba1692c2	-0.00057439145
62	0x39a11ebe	0.00030731218
63	0xb9fb6ef3	-0.00047957114
64	0xb9cbbc38	-0.0003885941
65	0xb8d814cc	-0.00010303556
66	0xb890da7b	-6.90715e-05
67	0x3a084969	0.0005198927
68	0xb9d9b46b	-0.00041523887
69	0xba0c8ecc	-0.00053618546
70	0x3ab5c3ed	0.0013867595
71	0xb9b73a01	-0.00034947696
72	0x39be0cfe	0.00036249304
73	0x3933fb55	0.00017164399
74	0x395839a4	0.00020620838
75	0x3a0451a5	0.00050475664
76	0xb8a5077d	-7.869208e-05
77	0x3a50553c	0.0007947271
78	0x3a89ffec	0.0010528541
79	0xb9ab5fe2	-0.000326871
80	0xb929c666	-0.00016191005
81	0x3a0d8c58	0.0005399636
82	0x3a9ae35e	0.0011817028
83	0x39811097	0.00024617158
84	0x39a33bc4	0.00031134312
85	0xba9d3a58	-0.0011995537
86	0xba8b9fd8	-0.0010652496
87	0xba7b20d4	-0.0009579782
88	0xb935ae58	-0.00017326453
89	0xb8ab40fc	-8.16602e-05
90	0xb81a4088	-3.677656e-05
91	0xba38e315	-0.0007052881
92	0x3a0cbc80	0.0005368665
93	0xb9f0fbe5	-0.00045964043
94	0xba08a0d5	-0.0005211954
95	0x3a90a372	0.0011035039
96	0xba501d29	-0.00079389155
97	0xba10f5fd	-0.0005529819
98	0x3a2b8930	0.0006543575
99	0x3914ce0c	0.00014191138
100	0x39b1e145	0.0003392791
101	0x39ea2037	0.0004465596
102	0x3ab132b0	0.0013519134
103	0xb8b2963c	-8.515685e-05
104	0xb9b441a5	-0.00034381184
105	0xbab60720	-0.0013887621
106	0x393969c6	0.00017682379
107	0x39deaafe	0.0004247054
108	0x3adf61f1	0.0017042739
109	0x3a3caaf6	0.0007197106
110	0x3808aad1	3.2584012e-05
111	0xb9362e36	-0.00017374087
112	0xba80ffca	-0.0009841856
113	0x38aed4ad	8.3365805e-05
114	0xba60f716	-0.00085817405
115	0x399601e5	0.0002861164
116	0x3a9204f5	0.0011140393
117	0x3a30d7a1	0.00067459984
118	0xba78696e	-0.00094761595
119	0xb98ee60e	-0.00027255755
120	0xb982735b	-0.0002488148
121	0xba37d993	-0.0007013317
122	0xb9d90d3b	-0.00041399323
123	0xb8c8c37a	-9.5731535e-05
124	0x3a438ae3	0.00074593554
125	0xba2d6ac7	-0.00066153373
126	0x3aae0668	0.0013277056
127	0x383c215d	4.4853765e-05
128	0xba80c310	-0.0009823758
129	0x3a6aa48f	0.0008950913
130	0x3a618bf7	0.0008603925
131	0x3a078925	0.00051702774
132	0xba567985	-0.000818156
133	0x39ae2344	0.0003321414
134	0x3a05ee80	0.00051090866
135	0x3a05f6ad	0.0005110305
136	0xb9bb1408	-0.00035682344
137	0x3a1f62ea	0.0006080108
138	0x3a45b2c3	0.0007541591
139	0xba649ae4	-0.000872059
140	0x3a9cb831	0.0011956749
141	0xbadaa54f	-0.0016681346
142	0xb9ee8fcd	-0.00045502037
143	0xb9bb41d3	-0.00035716462
144	0x38b33d55	8.546809e-05
145	0xba876e0a	-0.0010332477
146	0x3a71b89a	0.0009220928
147	0x3a08ddd2	0.0005221042
148	0xbaa8bdfd	-0.0012874004
149	0xb9914ff5	-0.00027716128
150	0x3aeb87c2	0.0017969536
151	0xba48956c	-0.000765166
152	0xb968db72	-0.00022206994
153	0xbad24b9d	-0.0016044263
154	0x3a89614c	0.0010481267
155	0x3a169acd	0.0005745113
156	0x3a9d59ce	0.0012004913
157	0xba97fba6	-0.0011595383
158	0xba954f0b	-0.0011391354
159	0x38e0f1ce	0.00010726192
160	0x383acbec	4.4535773e-05
161	0x3a75b57d	0.0009373052
162	0xba22c37a	-0.0006208938
163	0xba46f44f	-0.00075895054
164	0x38286f5b	4.015803e-05
165	0xb867d0d5	-5.526918e-05
166	0x3a4ad9a4	0.00077381195
167	0xb9164bc2	-0.00014333337
168	0xb9c15feb	-0.00036883293
169	0x39e0537c	0.0004278681
170	0x3914e241	0.00014198666
171	0x3a4ee1f4	0.0007891946
172	0x3a8c9675	0.0010725992
173	0x39c95b01	0.0003840551
174	0xb961b863	-0.00021526362
175	0x3a2e1e29	0.00066420675
176	0x3a87fea7	0.0010375575
177	0x3a47d924	0.0007623604
178	0xba75eb5f	-0.00093810813
179	0x3a3c2fbb	0.0007178743
180	0xba0ba483	-0.00053269434
181	0x3a9424e6	0.00113025
182	0xba2b9256	-0.0006544938
183	0x3a2d688b	0.00066150044
184	0x3a023eda	0.0004968472
185	0xb93c8bda	-0.00017981176
186	0xba78479f	-0.00094711216
187	0x3a261866	0.0006336033
188	0x3a1699fa	0.000574499
189	0x3abe857d	0.0014535632
190	0x3a9c0e60	0.001190614
191	0xb9c35bc7	-0.00037261678
192	0x3a851235	0.0010152521
193	0xba9df996	-0.0012052532
194	0xb965aa2d	-0.00021902537
195	0xbafd2d87	-0.0019315936
196	0xb87746ba	-5.895526e-05
197	0xb9907d88	-0.00027559348
198	0x3a00b328	0.0004909509
199	0xba51084c	-0.00079739536
200	0xb9f96125	-0.0004756536
201	0xb8f720b6	-0.00011783971
202	0xb9b2dce0	-0.0003411537
203	0x3a0b9a43	0.0005325416
204	0xbae77cfc	-0.001766115
205	0xba8dbeda	-0.0010814324
206	0xb86221cd	-5.391408e-05
207	0xbaba7076	-0.001422419
208	0x3a122021	0.00055742456
209	0xb91c49af	-0.00014904769
210	0xbaec1af6	-0.0018013406
211	0x3a0daf28	0.00054048235
212	0x3a11a61d	0.0005556064
213	0xba1bd03a	-0.0005943809
214	0xba01755c	-0.00049384474
215	0x37c42ab1	2.33849e-05
216	0x39fc2f85	0.0004810059
217	0xb9d8ffdb	-0.00041389358
218	0x3a71421e	0.00092032726
219	0xbaa9eb9e	-0.0012963896
220	0xb9cb9073	-0.000388268
221	0xb8c3979f	-9.326566e-05
222	0xba148994	-0.00056662527
223	0xba4c4909	-0.00077928655
224	0x3a9f9ee5	0.0012178092
225	0xba8298ed	-0.0009963788
226	0xbae3746f	-0.0017353426
227	0x3a168d51	0.00057431037
228	0xb92d69dd	-0.00016538003
229	0x3a03a56e	0.00050219044
230	0x39fe8a8f	0.0004854989
231	0x3b2bbc6a	0.0026204833
232	0x3ac96bdd	0.0015367229
233	0xb86dd6df	-5.6705318e-05
234	0xb9bdea1c	-0.00036223314
235	0x39ef69fe	0.00045664603
236	0x38bb6035	8.934775e-05
237	0x3a4f1335	0.00078992854
238	0xb900cfeb	-0.00012284487
239	0xb9f4fd9b	-0.00046728257
240	0xb8b5b4dd	-8.664441e-05
241	0xba168d2f	-0.0005743084
242	0xba129732	-0.0005591988
243	0x3a02e352	0.000499298
244	0xb9efec1e	-0.00045761553
245	0x384b9d6e	4.854559e-05
246	0x39cdcf22	0.00039254973
247	0xba137a30	-0.00056258123
248	0xba3ab448	-0.0007122201
249	0xb7e4978a	-2.7250284e-05
250	0x3a959130	0.0011411067
251	0xba999e51	-0.0011720156
252	0xb9ebe02d	-0.00044989717
253	0x3abb0333	0.0014267921
254	0xb48884d0	-2.5428608e-07
255	0xba708afc	-0.0009175984
