statedicts/pl_statedict_db_2022-05-02_SPIRAL_REVERSE_120s_P0_R1_s1_seed_2.ckpt (torch, 193785 bytes, 29 tensors)

nn.input_batch.weight f4 [5]
00000000: 81c7 753f 9659 893f 2468 6e3f a267 813f
00000010: ce3a 7e3f
0.96007544 1.0730464 0.93127656 1.0109751 0.9930848

nn.input_batch.bias f4 [5]
00000000: ecbc 823b e0e3 f83d fa1c 81bd 3836 84bd
00000010: 627f 05bd
0.0039898064 0.12152839 -0.06304355 -0.06455654 -0.032592185

nn.input_batch.running_mean f4 [5]
00000000: 90ea 2940 0057 843d 9b55 4140 450d 3b40
00000010: 3689 4b3e
2.6549416 0.064619064 3.02085 2.922685 0.1987656

nn.input_batch.running_var f4 [5]
00000000: a560 e73c 51a0 5d35 0392 873b 30a0 cf3a
00000010: f820 113b
0.028244326 8.2562207e-07 0.004137279 0.0015840586 0.0022144895

nn.block1.linear.weight f4 [96, 5]
00000000: bf9c e6be 37d8 44be 0bb8 653e 64e8 0fbe
00000010: 5e2d 83be 37b8 82bd ac87 023e 43ec 293e
00000020: 6bd0 c23e 8302 a7bc 8959 a43e 67b7 6f3e
00000030: 92e5 aabe 866b b43d a033 d0be 37ee 22be
00000040: 09bf 003d b405 843e debf dfbe 4289 c53e
00000050: 978d 79bd 1b58 f0bd 986a 36bc 02e7 933e
00000060: 545b 08be 437e 3f3e 1404 f9bd e28e d3be
00000070: 6853 643d e70b 9fbe cdfc 98be 302d a7bd
00000080: 3253 e63e 802f cebe e433 87be 357f 043e
00000090: 1eb2 c63e a263 56be 1fb8 583e 927e dbbe
000000a0: 325c dbbc 68b2 40be 9bdb a1bd d972 0c3e
000000b0: afaa 883d 6e5a d43e 92fb e33e 489c dc3e
000000c0: 685f dfbe dfc1 7e3e 23b9 9c3e cfac 3b3d
000000d0: 9681 333e fed1 dbbe 9a25 a33d e142 d73d
000000e0: 62e9 bcbe a65b a5be 69d2 9a3e 8036 953e
000000f0: 8fe5 0bbe 31d2 4abe 045e 84bd 4adc 17bd
00000100: 778e 5fbe 8d47 83be 969c db3d 9d05 853d
00000110: 3d92 303e f306 c53d 77cd cebe e0ec 453e
00000120: b8b5 12bd fbb3 d7bd 53b3 243e 95f4 913e
00000130: 7354 14be 28fe 9fbe 0aaa 7bbe 620c 3f3e
00000140: f770 babe 38ff 313d 7d47 4fbe 6cce 4bbe
00000150: 406d a23e 56f8 613c a7ff 983c 42af 133e
00000160: 91ca 763e 2dba 393e 8d10 903e 01a6 243e
00000170: 076e 983e 540c c03e fcb0 a33e 3684 0d3e
00000180: 9c66 cdbe bbd1 8d3e 039d 3a3d 9cda c33e
00000190: 4e58 6fbd e12b cbbd 2cda 8b3e c843 343e
000001a0: 88bf 17be 730c 433d c4ac 4d3e 1d07 cfbe
000001b0: e34d c8be 1f81 8dbe bf1d dbbc ecff a33e
000001c0: 7cb1 93bd afc1 dabc 9d8c 01be 1f4c dabd
000001d0: 6eca c9be d560 95be a968 4dbe 61b3 abbe
000001e0: 2e76 473e fb9d bc3e 0cba 6abe b4d9 d9be
000001f0: 3f07 5bbd 4a74 343e 1c69 a03d d1a0 9d3e
00000200: 722c 36bd 813e 01be 1a67 a23e 11a5 9d3e
00000210: 4820 a9be 15d5 9d3e defa bcbd 1b4f 6a3b
00000220: 528b 773e 31fc c33c cd1e cebe d1ac 81be
00000230: c348 eb3d 01bc d23e ea68 b33e 4e12 1c3e
00000240: 2ea3 973e 5ec5 90be 93bf c63e cc37 60be
00000250: 3c00 df3e 72ac 093e 406d c9be a9ca c1be
00000260: 8f99 5c3d 18db ad3e 3464 403e fb0b 7b3e
00000270: 82cd e8be 6910 e73d b48d 4bbe f7d4 34be
00000280: 2297 e4bd beef b03e 9ad1 fdbd 5e9b 953a
00000290: 555a debc fa01 373c 7e2e 963e bcbe a1bd
000002a0: 697f 7ebe 177c a83e d971 cbbe 7715 62be
000002b0: fff5 16be 3379 acbe c9d1 bdbe 2683 d6bb
000002c0: 5cd6 b6be b1a8 6f3e 6b58 1bbe ae77 43be
000002d0: 2110 90be c50c b13e d56a 973e 0e22 babd
000002e0: fd2b 2dbe 5ebb e43e 72c8 8fbe 78f7 c7be
000002f0: 32ff 8bbe 7df6 0c3e 5518 c5be 70c8 263e
00000300: 9066 c3bd 5590 b93d 9ad8 713e d6c3 54bd
00000310: 22c8 0abe e173 74be b47c c13e d083 23bd
00000320: c48a 7d3e 3c4e 233e bf3a 8d3e 9acd 11be
00000330: 9ab4 6e3e 615d d1be a11e b43e bc60 6a3d
00000340: 4a61 8bbe dafe 4bbe 2e16 56be d050 153e
00000350: 1085 603e 7fad 513e 895a a73d fe88 94be
00000360: 586b a93e 68cc ab3d 73ab a03d 4b29 7539
00000370: ef8f cc3e d2f2 fdbc 4f7e 813e 7bd3 4bbd
00000380: abc7 b33e 6bdb e53e 840d 0f3c eacc 8f3e
00000390: c784 803e 553d ea3c abe2 2d3b 9b64 39be
000003a0: 7c03 47be 8970 97be 5aa4 b23d c712 373e
000003b0: f8e0 d0be 5438 5b3e f498 debd 6253 88be
000003c0: 4833 3abe 612b b43d 21ac 8fbc 9c02 26be
000003d0: 80b9 a6be 1acf 01be f765 a8be ea79 d4be
000003e0: a376 2e3e bfee 423e 9018 183e e22b 52be
000003f0: 5193 2cbe fb53 403e 0fda 74be b8d8 a13e
-0.45041463 -0.19223104 0.22433488 -0.14053494 -0.2562055 -0.063827924 0.12747067 0.16594033
0.38049635 -0.02038694 0.3209956 0.23409806 -0.33378273 0.08809571 -0.40664387 -0.15911184
0.031432185 0.257856 -0.4370107 0.38581282 -0.060926046 -0.11735555 -0.011133812 0.28887182
-0.13316089 0.18700509 -0.12158981 -0.41319948 0.055743605 -0.31063768 -0.29880372 -0.08162916
0.44985348 -0.40270615 -0.26406777 0.1293915 0.38807768 -0.20936444 0.21163987 -0.42870003
-0.02677736 -0.18818057 -0.079032145 0.13715686 0.0667318 0.41475242 0.4452787 0.43087983
-0.43627477 0.24878643 0.30609998 0.0458191 0.17529902 -0.4293365 0.07966156 0.10510803
-0.36896807 -0.32296485 0.30238655 0.29143143 -0.13661788 -0.19806744 -0.064632446 -0.03707532
-0.2183169 -0.25640526 0.10723226 0.06495211 0.17243285 0.09620466 -0.40391132 0.19328642
-0.03581783 -0.105323754 0.16084032 0.28506914 -0.1448534 -0.31248593 -0.24576584 0.18657067
-0.3641431 0.043456286 -0.20242114 -0.19902962 0.31723976 0.013792118 0.018676592 0.14422324
0.2410071 0.18137427 0.28137627 0.1607895 0.29771444 0.37509406 0.31970966 0.13819966
-0.40117347 0.27699074 0.045559894 0.38252723 -0.058433823 -0.099204786 0.2731489 0.17603981
-0.14819157 0.047619294 0.20085436 -0.40435115 -0.39121923 -0.27637574 -0.026747582 0.3203119
-0.07211587 -0.026703684 -0.12651296 -0.1065905 -0.39412254 -0.2917544 -0.20059456 -0.33535293
0.19478676 0.3683928 -0.22922534 -0.42548907 -0.053473707 0.17622486 0.07832548 0.30786756
-0.04447598 -0.126215 0.31719285 0.30789998 -0.3303244 0.3082663 -0.092275366 0.0035752717
0.2417424 0.023923965 -0.40257874 -0.2532716 0.114884876 0.4115906 0.3504098 0.15241358
0.29616684 -0.2827558 0.38818035 -0.21896285 0.43554866 0.13444689 -0.39341164 -0.3784993
0.053857382 0.33956218 0.18788224 0.24516289 -0.4546929 0.11282427 -0.19878274 -0.17659365
-0.11161639 0.3455791 -0.12393494 0.0011414101 -0.027142683 0.011169905 0.29332346 -0.07897708
-0.2485329 0.32907173 -0.39735296 -0.220785 -0.14742278 -0.33686218 -0.37074116 -0.006546396
-0.35710418 0.23404194 -0.15170448 -0.19088623 -0.28137305 0.34580055 0.29573694 -0.09088527
-0.16911311 0.446742 -0.28082615 -0.3905599 -0.27343136 0.13765903 -0.38495126 0.16287398
-0.095410466 0.09060732 0.23617783 -0.051944576 -0.13552907 -0.2387233 0.37790453 -0.039920628
0.24759966 0.15947813 0.27583882 -0.14238587 0.23311082 -0.40891555 0.35179618 0.05722116
-0.27222663 -0.19921437 -0.20906898 0.14581609 0.2192576 0.2047634 0.08171565 -0.29010767
0.3308971 0.08388597 0.07845201 0.00023380404 0.39953563 -0.030999575 0.25291678 -0.04976223
0.35113272 0.44893965 0.00873125 0.28086025 0.251013 0.028593699 0.002653281 -0.18104784
-0.19434923 -0.29578045 0.08722754 0.17878257 -0.40796638 0.21408206 -0.10869017 -0.26626116
-0.18183625 0.08797336 -0.017538132 -0.16211933 -0.325634 -0.12676659 -0.32890293 -0.41499263
0.17037444 0.19036387 0.1485312 -0.20524552 -0.16853072 0.18782036 -0.23911308 0.31610656

nn.block1.linear.bias f4 [96]
00000000: 73bf c83e 7304 d3be a59d d1be ad95 033e
00000010: 1747 2ebe 582f 2cbd 61d3 cfbe cc0c d53e
00000020: 35a2 c23d e0ea c53e b269 853e 0e15 773d
00000030: f0d1 22bd 4001 203e e55c bfbd 5fa4 9ebd
00000040: 2298 f5bd 1a25 68be f309 a2be 2592 49bd
00000050: 3f1c 44be d71e c9bd ec9a 78be 8de9 92be
00000060: 6c83 b6be dfc6 063e 509b 2dbe 4522 653d
00000070: 2c80 0c3e 60ef c83e 9c2e 813e 6dc7 c8bd
00000080: 9f66 583e d945 4ebe ea95 7f3e 22ee 67be
00000090: bede 9a3e 543d f43d ef39 b3be 9be0 0bbe
000000a0: 46a2 1abe 45cc cbbe cc62 0abe 09f8 3e3d
000000b0: 1a29 813e 8081 153d a13b e03e 7c0d c23e
000000c0: 0390 5c3d 66ca c53e 3761 04bc e0f7 233e
000000d0: 3df3 c9bd 6e7f 123e 4b2a 113e 7de3 96be
000000e0: 5ce9 f7bd 4a41 dc3c 2b45 80bd f1d8 d7be
000000f0: e29c 7a3d f070 7a3e 47f7 c7be c0e5 1d3c
00000100: ad24 57be 3786 80be 7426 af3e aa79 e1be
00000110: ac93 b9be eab1 22be 764a 25bd f051 e9be
00000120: 1f4f c13e f8a7 273c db2a b5be 50f0 cabe
00000130: 8f58 ccbe d5ba b1be ab1b 6ebe 0569 2cbe
00000140: 9bdb 73bc e269 c8bd 339d 2dbe 7761 d63d
00000150: b2af c0be 33b0 a6bd c826 00be 0504 1cbe
00000160: 1857 91bd b025 e93d 6dfd 883e 5417 a33e
00000170: efd8 a3be 4d01 993d 7745 e03e 8c12 a6be
0.39208564 -0.41214332 -0.40940586 0.12850066 -0.17019306 -0.042037338 -0.40590957 0.41611326
0.09503595 0.38655758 0.26057202 0.060322814 -0.039750993 0.15625477 -0.0934389 -0.07746195
-0.11991908 -0.22670403 -0.31648216 -0.04921164 -0.191514 -0.09820335 -0.24277848 -0.2869381
-0.35647142 0.13161801 -0.16953778 0.055940885 0.13720769 0.3924513 0.25230873 -0.098036624
0.21132897 -0.20143832 0.24959531 -0.22649434 0.30248064 0.1192576 -0.35005137 -0.13659899
-0.15100965 -0.39804283 -0.1351425 0.046623264 0.2522667 0.036500454 0.43795493 0.37900913
0.053848278 0.3863098 -0.008079818 0.16012526 -0.09860847 0.14306423 0.1417629 -0.29470435
-0.12105057 0.026886601 -0.06263193 -0.421577 0.06118477 0.24457145 -0.39055845 0.009637296
-0.21010084 -0.25102398 0.34209025 -0.44038135 -0.36245477 -0.15888181 -0.040354215 -0.45570326
0.37755677 0.010232918 -0.3538426 -0.3963647 -0.39911315 -0.34712854 -0.23252742 -0.16836937
-0.014883901 -0.097858205 -0.16954498 0.10467809 -0.37634045 -0.08139076 -0.12514794 -0.15235908
-0.0709669 0.113841414 0.2675585 0.31853735 -0.32001445 0.07470951 0.43802997 -0.32436025

nn.block1.batch.weight f4 [96]
00000000: cc0c 803f e319 7f3f 97ab 7f3f cc1d 803f
00000010: 3e8b 7f3f 300c 803f c617 803f 3b7a 7f3f
00000020: e764 7f3f 0800 803f ea7f 7f3f b355 7f3f
00000030: 59c6 7e3f 54c5 803f 8009 803f b195 7f3f
00000040: c50a 803f 119d 7f3f 52cc 7e3f a848 803f
00000050: 600d 7f3f 53ad 7f3f 433a 803f 5693 7e3f
00000060: 6610 7f3f 78b3 7e3f 58eb 7e3f 1af6 7e3f
00000070: 3e0a 7f3f fc02 803f c167 7f3f 86eb 7f3f
00000080: 4295 803f 62f3 7e3f 5943 7f3f e998 813f
00000090: b27a 7f3f 3c0e 803f 2091 803f 2d24 803f
000000a0: eb2d 7f3f 5d25 7f3f 0b28 803f 1417 803f
000000b0: 3044 7f3f afc0 7f3f 0bf4 7e3f f392 7f3f
000000c0: 5cdc 7e3f 76f7 7f3f f1e6 7f3f 7e2e 803f
000000d0: a495 7f3f f156 803f 5c99 803f e5b6 7e3f
000000e0: 9676 7f3f e911 813f 37fd 803f c504 803f
000000f0: 053c 803f 9b4b 803f fe11 803f cdcb 803f
00000100: 8218 813f 7b38 7f3f 44ad 803f 2d32 7f3f
00000110: 2af6 7e3f 9312 803f f1d1 803f 972b 803f
00000120: 24cd 7f3f f5a4 7f3f 1707 803f f1b7 7f3f
00000130: b4a1 7f3f 1247 813f 6446 803f 9295 803f
00000140: 9de8 7f3f 6cdc 7f3f 3d8c 803f d93c 803f
00000150: 7750 7e3f 9ca4 803f 5492 7f3f 5500 7f3f
00000160: 6ae4 803f d045 7e3f 36b3 803f 53e9 7e3f
00000170: 4d1c 803f 8017 803f f724 803f 5725 7f3f
1.0003905 0.99648875 0.998712 1.0009093 0.9982184 1.0003719 1.0007255 0.99795884
0.9976334 1.000001 0.99804556 0.9974014 0.99521405 1.006022 1.0002899 0.99837786
1.0003287 0.9984904 0.9953052 1.0022173 0.99629784 0.99873847 1.001778 0.99443567
0.996344 0.994926 0.99577856 0.9959427 0.99625003 1.0000911 0.9976769 0.99968755
1.004555 0.9959012 0.9971214 1.012479 0.99796593 1.0004344 1.0044289 1.001104
0.9967944 0.99666387 1.001222 1.0007043 0.9971342 0.99903387 0.9959113 0.998336
0.9955499 0.9998697 0.99961764 1.0014188 0.9983771 1.0026532 1.0046802 0.99497825
0.9979032 1.0083591 1.0077275 1.0001456 1.0018317 1.0023073 1.0005491 1.0062195
1.0085604 0.9969556 1.0052876 0.9968594 0.99594367 1.0005668 1.0064069 1.0013303
0.99922395 0.9986108 1.0002164 0.9989005 0.99856114 1.0099814 1.0021482 1.0045645
0.99964315 0.9994571 1.0042797 1.0018569 0.9934153 1.0050235 0.99832654 0.9960988
1.0069706 0.99325275 1.0054691 0.99574775 1.0008637 1.0007172 1.0011281 0.9966635

nn.block1.batch.bias f4 [96]
00000000: 783f 8839 8290 2b3b d2fe 133b 332b 8cba
00000010: 3737 c93b 06c3 5b3b e2ef 163b 5ac2 efba
00000020: 3905 64bb b4d7 0dbb ea24 30ba 589a 503b
00000030: 0f03 db39 b434 a2ba ded1 5ebb 0552 673b
00000040: 75f6 603a f35a 88ba 58d1 143b 50d4 45b9
00000050: 53e3 a1bb eab7 943a 3667 10bb 62a2 113b
00000060: 38f0 c039 6284 02bb 2785 083b 33d2 93bb
00000070: 5acc 0cbb 0c9c c43a b226 953a 4ae4 623a
00000080: 9598 e6b8 05b1 dbba 073b 05bb 7376 223b
00000090: 1f03 aebb 3c7d 09bb be2f 973b 25ea 4d3a
000000a0: d0ed ea3a 6f4d 093b 5d90 b4ba 2259 943a
000000b0: 3075 16ba a99d b2bb 2d5c 543b e490 ddba
000000c0: bdd7 873b d569 95bb 0548 fc3a cb07 7db9
000000d0: 7035 8b39 8a52 9d3b 4cf7 f3ba 98ad 52ba
000000e0: f0af ddbb f085 65bb b9ce 21bb ded3 23bb
000000f0: 1306 32ba f88b bc34 a5ff 52bb 9da7 3f3a
00000100: 2ee2 883a 05ae 20bb 2ab6 2a3b 639c a43a
00000110: df3e 59b9 6fc5 ce3a 86cc 46b9 6339 4c3b
00000120: eb17 caba c1e6 203b 83b7 f7b6 7f04 2abb
00000130: 36cf a33a 04f9 91bb d609 9dba 862e 7dbb
00000140: 0e96 bb3a 8a4b 41bb 689c c4ba 1bff 653a
00000150: 4885 773a 8d66 bcba c679 3c3a 29f0 bd3a
00000160: 23d7 0d3b df11 98bb 814e 3a3a 5e41 2a39
00000170: e882 c6b9 2ad6 d9bb d72b 75bb 345f 3fba
0.0002598723 0.0026178663 0.0022582305 -0.0010694027 0.0061406153 0.003353299 0.0023031165 -0.0018292174
-0.0034793152 -0.0021643462 -0.0006719368 0.0031830277 0.00041773214 -0.0012375326 -0.0033999602 0.003529669
0.0008581647 -0.0010403082 0.0022707786 -0.00018866477 -0.0049404292 0.0011346315 -0.0022034175 0.0022222032
0.0003680007 -0.0019915332 0.0020831318 -0.0045111417 -0.0021484108 0.0015000119 0.001137933 0.00086552335
-0.00010995675 -0.001676113 -0.0020329372 0.002478984 -0.0053104307 -0.0020979187 0.0046138456 0.00078550196
0.0017923657 0.0020950695 -0.0013775934 0.0011318068 -0.0005739508 -0.0054509235 0.0032403574 -0.0016904143
0.004145591 -0.0045597353 0.0019247538 -0.00024130863 0.0002655196 0.004801099 -0.0018613129 -0.0008036732
-0.006765358 -0.003502246 -0.0024689867 -0.002499811 -0.0006791066 3.511957e-07 -0.0032195833 0.0007311048
0.0010443383 -0.0024517786 0.002604852 0.0012558814 -0.00020718154 0.0015775393 -0.00018958942 0.0031162135
-0.0015418505 0.0024551603 -7.382537e-06 -0.0025942621 0.0012497667 -0.004454734 -0.0011981081 -0.0038632466
0.0014311688 -0.0029494488 -0.0015000226 0.00087736704 0.00094421627 -0.0014373824 0.00071897765 0.0014491129
0.0021643124 -0.0046408023 0.0007107035 0.00016236815 -0.00037863036 -0.006647845 -0.0037410164 -0.0007300258

nn.block1.batch.running_mean f4 [96]
00000000: 49f8 d93e e3d1 8e3c 81d6 cf3d 1215 233e
00000010: 6dbf 923c 5a78 213e 51fd 9d3d 63f4 fa3e
00000020: c70a 073e a580 0f3f 9857 cf3e 961e 873e
00000030: b5a0 a03d 13e3 723e f270 2b3e 4992 b83d
00000040: 3dad 4b3e 2866 8a3d 603f 293e f127 4b3e
00000050: 2260 153d 0e05 b33e dbf0 203d 4596 023e
00000060: ffd3 2b3e d314 873e 90ee 883d 19a4 ae3e
00000070: 6057 9c3e 75b1 013f 01b1 cb3e b191 073e
00000080: da5c 903e ae99 fb3c 1c0c e43e ab5f 053d
00000090: 09cf bd3e e155 643e e6d3 043e f3da db3d
000000a0: 3eb6 c73d 1dda 013e 2711 9f3d 6aeb 243e
000000b0: 854c c63e f120 9b3e 887e e33e e09b e13e
000000c0: 2127 7d3e e97c cf3e 6bd4 5b3d 82c2 863e
000000d0: 742c 343e 049f d13e 7fda 663e f982 3e3c
000000e0: 2cec 833e 2aaa 0f3e 42e3 e23d 6884 8e3d
000000f0: 9f10 203e 4d2a 733e d014 f73d fdef e33d
00000100: 5426 1c3e b7f6 9d3d ff35 ca3e 5d61 063e
00000110: 13d4 043d a6ed f13d 9e9b 813e ce0f 943d
00000120: 4eb1 e43e a852 a03e 083d c03d 74cc 9d3d
00000130: ca72 d23d c66e e83b 6de3 583d afaa c13d
00000140: a1e1 6e3e 872d 163e 43a2 0d3d 48e3 6c3e
00000150: 07c0 c33c bdaa 993e 7617 413e 54dc 3b3e
00000160: f097 903d 0697 4f3e 90d4 a63e 67dc c13e
00000170: fd31 b73d 70f0 6f3e 5532 fa3e a189 653d
0.4257224 0.017434066 0.10148335 0.15926006 0.017913545 0.15768567 0.07714332 0.49014577
0.13187705 0.5605567 0.40496516 0.26390523 0.078431524 0.23719434 0.16742304 0.09012277
0.19890304 0.06757766 0.16528082 0.19839455 0.036468633 0.34964794 0.039292198 0.12752636
0.16780089 0.26383075 0.06686127 0.34109572 0.30535412 0.506614 0.3978348 0.1323917
0.2819584 0.030712929 0.4454049 0.03256194 0.37072018 0.22298385 0.12971458 0.107351206
0.09751557 0.1268086 0.077669434 0.16105428 0.38730255 0.3029857 0.44432473 0.44064236
0.24721958 0.40524986 0.053669374 0.26320273 0.17595083 0.40941632 0.22544287 0.011627906
0.25766122 0.14029756 0.11078502 0.06958848 0.1563134 0.23746605 0.120645165 0.111297585
0.15248996 0.07713073 0.3949432 0.13123079 0.032428812 0.11812906 0.2531404 0.07229577
0.44666523 0.31313062 0.09386641 0.07705012 0.102758005 0.0070932833 0.052951265 0.094563834
0.23328258 0.14665805 0.034578573 0.23133576 0.023895277 0.30013075 0.18856606 0.18345767
0.0706023 0.20272455 0.32584047 0.37863466 0.089450814 0.23431563 0.48866525 0.056039456

nn.block1.batch.running_var f4 [96]
00000000: 6c32 d93d f1e8 2a3b 0c8c 333d 0070 c43c
00000010: 49ec 263b 049e 8c3d 3a2d 923c 7186 043e
00000020: 2995 e83c cabf 443e 4ebd e33d bf2b 213e
00000030: 4efe a73c 039e 933d 501a 9f3d 11a6 cb3c
00000040: 54b0 063e cea3 703c 259e 6f3d 2c69 8e3d
00000050: dccc d03b a223 9b3e edea 033c c84f 963d
00000060: 94c3 c03d ebae 623d f93a 7d3c 6727 5a3e
00000070: 3ab9 af3d e8f8 c03e efbc 633e fcf0 eb3c
00000080: 161d 6d3d 384b e23b c0ea ae3e 7ae9 013c
00000090: 2a93 963d e506 d43d dd28 943d 7594 303d
000000a0: c80c 883c 66b4 7c3d 06c3 593c 5bea 063d
000000b0: b9da 173e 3e61 e33d 5f80 aa3d 9246 ed3d
000000c0: e35c 013e af36 8c3e c6a3 e83b f42a b53d
000000d0: 9491 b33d 1a86 503e b68e 743d 34d9 963a
000000e0: 2e3e c93d b631 dc3c 112f ee3c 9071 cc3c
000000f0: a1ab 223d 81a0 263d e651 ee3c 8c29 633c
00000100: 298e fd3c b6ac a23c 301a ab3d 899f 693d
00000110: 19c0 ed3b 0dae eb3c c5ef 993d 3b98 b63c
00000120: 4824 233e ba0f d33d e617 283d 33d1 be3c
00000130: 6e5d 1d3d 8c18 6f3a 8407 153c ee58 f63c
00000140: 8f13 de3d d2d6 fe3c 98de a03b b13f 353d
00000150: d1d9 773b 5a3a 2a3e 52cf da3d 5d54 de3d
00000160: 229f 143c eda8 3c3d 22cb 383d d3b7 233e
00000170: 37a2 293d ee60 0c3e 4bf9 853e 087e 963c
0.1060532 0.0026078785 0.04383473 0.023979187 0.0025470427 0.068660766 0.017843831 0.1294191
0.028391438 0.19213787 0.111200914 0.15739344 0.020507004 0.07207873 0.077686906 0.02485946
0.13153201 0.014687492 0.058500428 0.06953654 0.0063720774 0.30300623 0.008051616 0.07339436
0.094123036 0.055342596 0.015455955 0.21304093 0.08580251 0.376899 0.22240041 0.028801434
0.057889067 0.0069059394 0.34163475 0.0079292 0.07352288 0.103528775 0.072343566 0.04311033
0.016607657 0.06169548 0.013291126 0.032938343 0.1482953 0.11102532 0.08325266 0.11585726
0.1263309 0.2738547 0.0070996014 0.08846083 0.08768001 0.20363656 0.059706412 0.0011508823
0.09826313 0.026879173 0.029075177 0.024956495 0.03971446 0.040680412 0.029091787 0.013864886
0.030951576 0.019857746 0.08354604 0.05703691 0.007255566 0.028769517 0.075164355 0.022289386
0.15931809 0.10305734 0.041038416 0.023293113 0.03841918 0.0009120784 0.00909603 0.030071702
0.10843574 0.031108294 0.0049093477 0.044250194 0.0037819038 0.16623822 0.106840745 0.10855935
0.009071143 0.046059538 0.045115598 0.15988092 0.041414466 0.1370885 0.26166758 0.018370643

nn.block2.linear.weight f4 [256, 96]
00000000: 77db d7bc 2259 6c3d 16c5 3ebc 9b20 b4bd
00000010: faac f53c a560 4cbc 314c 3b3d c1c5 8fbd
00000020: 7d76 923d 5b6e 453d 2a38 97bd a96d 863c
00000030: ef4a 2a3c 658c 3abd 4ac4 b8bd 290b 0fbd
00000040: 2811 9c3d 685c b5bd 4fa4 5bbd bcdc 01bd
00000050: c010 45bd 7a89 043d 6aaa b1bd e171 153d
00000060: 0a3f 2dbd 830b b8bd 8329 9a3d f3e9 1a3d
00000070: bafc b4bd 0fb5 a1bd ba9f c03d 7745 993d
00000080: 5903 cebd 2f38 b4bc d375 b93d 56a0 593d
00000090: 08cd 723d cbf5 23bd c486 943d 3690 813d
000000a0: 51a3 c9bb 3a65 26ba 2043 eb3c c765 38bc
000000b0: cd9e f63c cabb 20bb 6ca1 693d ce3f bcbd
000000c0: 1eff 37bb 8296 d33a b84f 903d d160 353d
000000d0: a0dc 44bd 8990 cd3d f2b4 083c cdd6 49bd
000000e0: b904 94bd bb20 39bb 46a6 963d f34b bcbd
000000f0: d2a1 a53d 389c 073d 7ca2 b33d 9140 c93d
00000100: 5143 a0bd 57d1 fc3c 4d40 a03d 09bd 943d
00000110: 5df3 10bd 258b 6c3d aeba 6dbd 110d d03d
00000120: 6fc5 c43d 826c 923d 092f 8e3d e6b2 43bd
00000130: bc84 76bd 6a1c 0fbd 207f 963d d650 94bd
00000140: 835d b0bd 3478 1939 9d11 afbc 388e 123a
00000150: 53f4 3ebd b3d5 6b3d 506c 8c3c aac7 27bd
00000160: b3a5 bdbd 81ef d1bd 5ea0 05bd 7ce6 7c3c
00000170: 096d 463b 15e0 06bd 1ceb f1bc 44af 583c
00000180: 2d68 9abd 9e67 a7bd 14a1 70bd f554 09bc
00000190: 9c1e 073d 2102 c8bd 19ef c53d f650 d73c
000001a0: 546f b9bd 612b 833d d843 9e3d 9524 babd
000001b0: 8b1d cf3d 8f5f 2bbd 091b 9dbd c304 bb3d
000001c0: e201 383d 4042 8abd 5c0d b3bd c4ac 25bd
000001d0: 99da 373b 1430 183c a772 b23d 3869 b6bd
000001e0: 670e aebd 9446 133d 9749 9abd a940 26bc
000001f0: e775 9abd 83e6 303d eddd bdbd 41fe 553d
00000200: 5c06 b7bd 8a13 9e3d 6ba6 893d 1241 a33b
00000210: 4dc3 d03d 89e5 843d 01cc 843d 944e a03b
00000220: 90f7 a8bd aafa 7f3d 417e 6cbd 66da 6e3d
00000230: 407b bebd 6bb9 423b 827c 803d 80de 9d3b
00000240: ca0c 2fbc bc6a 33bd 7429 bd3d f911 02bd
00000250: 3c1b 823d 6948 85bd 5815 8dbd 8ef6 01bd
00000260: 291e cdbc 516b a1bc cb2b 8dbd 422c 3a3d
00000270: bcec bfbd 98e7 a23d 2b51 313d e94b 373d
00000280: ddb2 47bd 724a 5b3c accd 8a3d 7435 98ba
00000290: e9ef 663d 2628 6f3d 84a5 a8bc 923a cabd
000002a0: 89ef 60bd f4af bd3d a09d a8bd 2217 a2bd
000002b0: 3ca5 bc39 301d 26bd fcde 2d3d a12a 19bc
000002c0: 1292 94bd 6b42 94bd ad90 0bbd f331 9a3a
000002d0: 6c71 cebc cab5 4c3d c4dc c2bd 8104 45bd
000002e0: 9bb1 61bc 3c4f 1e3a f1ae 463d f818 93bd
000002f0: 4652 39bc 4c94 223d a995 27bb 4cf1 1e3d
00000300: b0a5 ab3d 05ea 23bd 8d75 b7bd 8539 c8bd
00000310: a0ae 513d 86b5 ccbd 2aae 38bc 7f2e d73b
00000320: 81a6 a4bd 9a2d bfbd e1ea 23bc 5c57 d13d
00000330: 597f 693b 26d8 58bd 38b2 cb3d 6078 2ebd
00000340: 2e65 213d 56bf 413c bbd9 a13d 28a1 b53d
00000350: e32b c03d b718 d0bc 52c9 cbbd 8dde 31bd
00000360: 0063 21bd f658 38bd c72f 143b 4f37 cabd
00000370: 10eb c4bd cad2 b93c 4aa7 53bd a04c aa3d
00000380: 0707 aabd 7972 373d f55f e33c 13bc 153d
00000390: 9935 093c 4840 56bd 7802 373d 76a3 95bd
000003a0: 244f c53d 6a7e b2bd 98a5 a33c 85b2 68bd
000003b0: 3621 4e3d e6b8 acbd 4bc0 e73c 775b 923d
000003c0: 6622 8ebc 176d 8ebd 3a0e 523d 1b5c a63d
000003d0: 008c d5bc a8a1 68bc 24d8 cebd b63a c6bd
000003e0: 82c6 8fb8 75c9 963d 089b 9ebd 540f 163c
000003f0: bbed c4bd 6d2a 9d3d b6a7 4b3d 37ff 93bd
-0.026349766 0.05770219 -0.011643669 -0.087952815 0.029989708 -0.012474214 0.04572696 -0.070201404
0.07151506 0.048200946 -0.07383759 0.016409712 0.010393842 -0.045544047 -0.09021814 -0.034922753
0.0762046 -0.08855516 -0.053623494 -0.03170465 -0.048111677 0.03235767 -0.08675082 0.036485557
-0.042296447 -0.08986571 0.07527449 0.037820768 -0.08837266 -0.07895862 0.094054654 0.074839525
-0.10059232 -0.021999447 0.09055676 0.053131424 0.059277564 -0.04002933 0.07252267 0.06326334
-0.006153502 -0.00063474814 0.028718531 -0.011254734 0.030105019 -0.0024525994 0.05703871 -0.09191857
-0.0028075646 0.0016142877 0.07046455 0.044281784 -0.048061967 0.100373335 0.008343922 -0.049277116
-0.07227463 -0.0028248269 0.07355933 -0.09194174 0.080875054 0.033107966 0.08771226 0.09826768
-0.078253396 0.03086154 0.078247644 0.07262618 -0.03538834 0.057749886 -0.05803936 0.10158742
0.0960797 0.071496025 0.06942565 -0.047778033 -0.06018518 -0.034939207 0.07348466 -0.07241981
-0.08611586 0.00014635996 -0.021370703 0.000559065 -0.046619724 0.057576846 0.017141491 -0.0409619
-0.0926012 -0.1025076 -0.03262364 0.015435811 0.0030277392 -0.032928545 -0.029531054 0.01322538
-0.07539401 -0.0817406 -0.058747366 -0.008382072 0.032988176 -0.09766031 0.09664745 0.026283722
-0.09054437 0.06404758 0.07727784 -0.09089009 0.10113057 -0.04183918 -0.07671172 0.091317676
0.04492367 -0.067509174 -0.087427825 -0.040447965 0.0028053878 0.0092888065 0.087132744 -0.08906788
-0.08498841 0.03595598 -0.075335674 -0.010147252 -0.07542019 0.043188583 -0.092708446 0.05224443
-0.0893676 0.077185705 0.06721195 0.004982122 0.10193501 0.06489093 0.06484223 0.0048921797
-0.08250344 0.06249491 -0.057737593 0.05831375 -0.09300852 0.0029712569 0.06273748 0.004817784
-0.0106842015 -0.04380296 0.09236422 -0.03175542 0.06352851 -0.06507952 -0.068888366 -0.031729273
-0.025038796 -0.019704493 -0.068931185 0.045452364 -0.093713254 0.07954329 0.0432903 0.044750128
-0.04875456 0.013384448 0.0677751 -0.001161261 0.05638114 0.058387898 -0.020586737 -0.09874453
-0.05491594 0.09262076 -0.082331896 -0.079145685 0.00035981263 -0.04055518 0.042448983 -0.009348542
-0.07254423 -0.07239231 -0.03407352 0.0011764154 -0.025200568 0.049978055 -0.09514764 -0.0481
-0.013775255 0.00060390285 0.04850668 -0.07182497 -0.011311119 0.03969221 -0.0025571382 0.038804337
0.08381212 -0.0400181 -0.08957968 -0.09776596 0.051191926 -0.0999556 -0.011271993 0.006566822
-0.080395706 -0.0933487 -0.01000473 0.102217406 0.0035628884 -0.05294051 0.09946102 -0.042595267
0.039403133 0.011825403 0.07902857 0.08868629 0.09383371 -0.02540241 -0.09950508 -0.04342513
-0.039401054 -0.045006715 0.0022611485 -0.098738305 -0.09615147 0.02268352 -0.05167321 0.08315396
-0.083021216 0.044786904 0.027755717 0.036556315 0.008374595 -0.052307397 0.04468009 -0.07306568
0.096342355 -0.08715518 0.019976422 -0.056810874 0.05032464 -0.08433704 0.028289935 0.07146352
-0.017350387 -0.06954401 0.0512831 0.081230365 -0.026067734 -0.014198698 -0.10099819 -0.09679167
-6.855746e-05 0.07362644 -0.077444136 0.009158928 -0.09615656 0.07674108 0.04972049 -0.07226413

nn.block2.linear.bias f4 [256]
00000000: d889 b43c 5e2a bc3d 9236 4e3d dd85 9e3c
00000010: b2b0 5d3d 881c b93d 56c0 7bbd 1713 393d
00000020: d933 db3c 3b65 c4bd df10 683d 3e88 5fbd
00000030: f19d 7dbd d4a7 3fbd 22fe 83bd f57e b23d
00000040: 2179 8b3d 7228 23bd 1e39 0a3c 4a4c 46bc
00000050: bf90 4abd 4584 a03c 5540 ed3b cfc8 953d
00000060: dd0b bf3d 3a2a 8fbd 6e1d dbbc 780f 39ba
00000070: aa09 0abd 32ad a13d 3b8b a2bd 526e 98bd
00000080: cd51 503d 86ae 34bd 1e43 483d 320b 813d
00000090: 00e2 28bd d9c2 013c 6b08 533d bb14 783b
000000a0: 45e7 153d c7a3 2ebd 6a62 cabd 2dff c3bd
000000b0: 8fb0 9cbc c366 25bd 4014 743d 70ed 1dbd
000000c0: df0f 40bd 9319 80bd b202 cbbd f531 e63c
000000d0: 2664 b7bd 5c2f 8cbb 2ea2 a73c 2307 c13d
000000e0: 7178 90bd e8f8 40bd 6889 c03d cf5c 29bd
000000f0: e633 a5bd d102 dc3c 76d1 50bd 5926 4eba
00000100: 4a62 303c 9b4f b8bd 0500 28bd 9ee6 65bd
00000110: 4527 8bbd b3e0 51bd d10a 933d da77 983d
00000120: c74b b6bd ef61 a13d 7ea9 79bd c97f 6e3d
00000130: 9627 603d 95df 3b3d 655f 86bd ee33 acbd
00000140: a521 c2bd f230 743d 0f02 80bd 6925 74bd
00000150: 874b 28bd a2fc 2d3d ca84 863d e296 853d
00000160: 9ac2 593d 402f 7ebd 9132 e9bc 6f27 cebd
00000170: 4ae6 92bd 5226 d93b 612f 19bd 1d41 933d
00000180: 3162 0e3d bdd0 8fbd a654 bdbd 9f04 cc3a
00000190: fdc0 553d 87e8 89bd 55f4 08bd bbc2 e33b
000001a0: 41a6 aebd e11f 68bc 91d7 1ebd b4a8 cf3d
000001b0: 7a49 9e3c 5038 7e3d 23ec c53b f11a d2bc
000001c0: 68fe 16bb 5767 be3d df80 2a3c b7ca a73d
000001d0: 677f 053d 6735 ba3d c20b 773d a5d1 1fbd
000001e0: 8404 193d dc09 ab3d 6ee1 283c 6228 9fbc
000001f0: fccb 8f3d 20a2 4c3d bcda 4f3d 8dd9 a0bd
00000200: 3bf4 91bd 7636 8f3d 707c b4bd ec93 2e3d
00000210: 72fd cd3d ca5d ae3d d1a0 c4bd 8fe9 a63d
00000220: 645c 15bc dd40 9abd 3af8 13ba 0492 c73d
00000230: fc46 aebd edb1 8e3b de81 783c adea 90bd
00000240: f723 54bd e399 0b3c 0ebe 923b 4d4c a3bd
00000250: c91b 683d 628e d3bd cbfe 543d 5679 693d
00000260: 6658 55bd 5793 6fbd b6fe 9abd 609c 4abc
00000270: b190 6d3c 3550 afbd 74b2 82bd e6a0 553d
00000280: 75f7 963d dd1c c23d d127 21bd 1e3b 553d
00000290: 62b2 0dbd a06b b0bd 048a 04bd 7806 ac3a
000002a0: f707 6b3c 027c 47bd b7a6 89bc 42f4 0f3d
000002b0: 8cea aa3c 97c9 523d e3d1 c4bd 7b22 cdbb
000002c0: 786c 673d a948 a03d 39e7 a73d 2e4d db3c
000002d0: 1526 c13c 8fa4 a9bc 13e8 b33d 1c71 c03a
000002e0: f42b c33c 3e7f a6bc 2468 a6bd 3710 3ebc
000002f0: 2b2f ac3b 8131 e9bc 670c 6fbd 4ce0 af3d
00000300: 3c96 363b a4b0 c33d d1f3 06bc 14db 7fbb
00000310: fe8b 633d 82a7 5c3d d29f 5bbd e35e c3bd
00000320: 7876 16bc 453d f13c 0d3a b1bd 4ca5 373d
00000330: 8ceb 8dbc 0fee 403d 9041 cd3d dc3d 273d
00000340: c51b 853d e762 6b3c 05f2 03bd db70 afbd
00000350: dbe8 c73c a0cc b2bd e3a3 303d 78fc 2e3c
00000360: 2f91 58bd 4652 963b 083f 24bd 80bf 57bd
00000370: c4be 8d3d 0a6f 9439 76e3 473d 9e9b b1bd
00000380: 9b3b a83c 2862 83bd 87b0 243d 5d30 35bd
00000390: 8695 0f3d fbb8 993d a29a 2b3d ef23 dc3c
000003a0: fdaa f4bc aef8 9cbd 2c79 c6bb 1bba 1a3d
000003b0: 9a09 923d 6bbc c1bd c38b 3fbc dce7 223d
000003c0: feba bd3d de15 333d 9c5c bcbd 2383 ab3c
000003d0: 808e 973d 3993 a73d 6022 f63c d022 1fbd
000003e0: 1f2e 72bd 3285 443d f171 8b3b f8f6 a43d
000003f0: 3545 49bc 34b5 b73d b1d9 b93d 08f1 0ebd
0.022038385 0.091877684 0.05034501 0.01935094 0.054123588 0.09038645 -0.061462723 0.04518422
0.026758121 -0.09589621 0.056656715 -0.05457329 -0.061918203 -0.046790913 -0.06444956 0.087156214
0.06810213 -0.039833494 0.008436469 -0.01210315 -0.049454447 0.019594321 0.007240335 0.07313692
0.093284346 -0.06990476 -0.026747432 -0.0007059495 -0.033700623 0.078943625 -0.07936712 -0.07442917
0.05085926 -0.04411175 0.048892133 0.063009635 -0.041231155 0.00791999 0.0515217 0.0037854153
0.03659751 -0.04263666 -0.09882052 -0.09570155 -0.019127158 -0.040381204 0.059589624 -0.038556516
-0.046890136 -0.06254878 -0.099126235 0.028099993 -0.08954649 -0.0042781066 0.020463075 0.09425189
-0.070542224 -0.047112375 0.09401208 -0.041348275 -0.080665395 0.026856812 -0.050981008 -0.00078639906
0.010765621 -0.089995585 -0.041015644 -0.056128137 -0.067945994 -0.05123968 0.071797974 0.07444735
-0.08901172 0.078800075 -0.060952656 0.058227334 0.054725252 0.04586752 -0.06561164 -0.08408342
-0.094790734 0.05961699 -0.06250393 -0.05960599 -0.041087653 0.042477258 0.06568296 0.06522919
0.053164102 -0.06205678 -0.028466495 -0.10066115 -0.071728304 0.0066268826 -0.0373987 0.07190154
0.03476161 -0.070222355 -0.09244661 0.0015565342 0.052186 -0.06733804 -0.03343614 0.006950704
-0.08527804 -0.014167757 -0.0387798 0.101395994 0.019322146 0.062065423 0.0060401126 -0.025647612
-0.0023039822 0.09297054 0.010406702 0.08192962 0.032592203 0.09092217 0.060313947 -0.039018292
0.037357822 0.0835149 0.010307653 -0.019428436 0.07021329 0.049959302 0.05074571 -0.078539945
-0.071266614 0.069928095 -0.08812797 0.042621538 0.100581065 0.085139826 -0.09600986 0.081500165
-0.009116266 -0.07531903 -0.00056445936 0.09744647 -0.08509633 0.0043547065 0.0151676815 -0.07076011
-0.05179211 0.008520576 0.0044782227 -0.079735376 0.056667123 -0.10329892 0.052000802 0.05700048
-0.052086256 -0.058490124 -0.075681135 -0.012366384 0.014499829 -0.0856022 -0.063816935 0.052155398
0.073714174 0.094781615 -0.039344613 0.05205833 -0.034593947 -0.08614278 -0.032358184 0.0013124486
0.014345161 -0.048702247 -0.016803129 0.03514505 0.020863794 0.051461782 -0.09610345 -0.006260214
0.05649993 0.07826359 0.08198399 0.0267702 0.02357773 -0.02070835 0.08784499 0.0014682147
0.02382467 -0.020324346 -0.08125332 -0.011600546 0.0052546463 -0.028465988 -0.058361437 0.08587703
0.0027860543 0.09555176 -0.008236841 -0.0039040493 0.05555343 0.053870685 -0.053619213 -0.095395826
-0.009183519 0.02944816 -0.086536504 0.044835374 -0.017324232 0.04710203 0.10022271 0.040830478
0.06499437 0.014366842 -0.03221323 -0.08566447 0.024403026 -0.08730435 0.043125045 0.01068031
-0.052872833 0.0045874445 -0.040099174 -0.052672863 0.06921151 0.0002831149 0.048800908 -0.0867226
0.020536235 -0.06415206 0.040207412 -0.044235576 0.035054706 0.07505985 0.041895516 0.026872603
-0.02986669 -0.076646194 -0.0060569253 0.03777514 0.071307376 -0.09459766 -0.011691037 0.0397719
0.092641816 0.043722026 -0.09197351 0.020936554 0.074002266 0.08182377 0.030045688 -0.03885156
-0.059126016 0.047978587 0.0042555262 0.08054918 -0.012284567 0.08970109 0.090747245 -0.034897834

nn.block2.batch.weight f4 [256]
00000000: ee91 803f ac3e 803f ccf2 7f3f e75d 803f
00000010: 555f 7f3f 7e18 803f 00ce 7f3f a65c 7f3f
00000020: 3a91 7f3f f585 7f3f 1af9 7f3f a536 803f
00000030: 856d 803f c2c5 7f3f 4b44 7f3f a1f8 7f3f
00000040: 41eb 7f3f 3571 7f3f e36e 7f3f 2550 803f
00000050: e728 803f 79ee 7f3f 1b13 803f cc46 803f
00000060: 4df5 7f3f 7264 803f 7139 803f 1162 7f3f
00000070: f015 803f ef6f 803f 9d15 803f 76ad 7f3f
00000080: 2c13 803f 5b52 803f 0687 7f3f f93c 803f
00000090: 4a50 803f 3116 803f 34aa 7f3f 0b28 803f
000000a0: 33c3 803f 6357 803f a7c6 7f3f fb7e 7f3f
000000b0: 6ff4 7f3f 8801 803f a40b 803f d51a 803f
000000c0: 5531 803f 64f7 7f3f 3b11 803f 2738 803f
000000d0: 9eee 7f3f 83a3 7f3f 3a2f 803f 72ef 7f3f
000000e0: 4bce 7f3f cd90 7f3f a940 803f 1fc8 7f3f
000000f0: 63d5 7f3f 3420 803f fc9a 7f3f 652c 803f
00000100: d2ab 7f3f 5f12 803f 570a 803f 7566 7f3f
00000110: 0a95 7f3f d394 7f3f ad0a 803f 2c49 7f3f
00000120: 76e5 7f3f 6b89 7f3f ce02 803f 0413 803f
00000130: 871e 803f 4a31 803f b440 7f3f 0303 803f
00000140: 1412 803f e98c 7f3f e3b2 7f3f d3c5 7f3f
00000150: 4bf7 7f3f fe11 803f 23c8 7f3f 2515 7f3f
00000160: 2210 803f a204 803f f9fd 7f3f 8422 803f
00000170: d058 803f 4508 803f 6274 7f3f ff25 803f
00000180: f31b 803f 1c0e 803f 6a14 803f d10e 803f
00000190: b4dd 7f3f 7122 803f 4e4d 7f3f 3d17 803f
000001a0: a97e 7f3f b62c 803f c275 7f3f 5b5b 7f3f
000001b0: 0620 803f d7c7 7f3f 5d77 803f bfc6 7f3f
000001c0: 310e 803f c2f0 7f3f b325 803f b5f6 7f3f
000001d0: 3e34 803f 0c48 7f3f 792e 803f 7186 7f3f
000001e0: b165 803f a2de 7f3f 2207 803f a64e 803f
000001f0: e4ba 7f3f 8d31 803f 9731 803f def3 7f3f
00000200: 0214 803f 1ac4 7f3f 86ef 7f3f 8eeb 7f3f
00000210: 19ea 7f3f 3b2e 803f f90d 803f e604 803f
00000220: 562a 803f 6915 803f d028 803f f307 803f
00000230: ac18 803f 97cb 7f3f e22a 803f 9591 7f3f
00000240: a112 803f 4dac 7e3f 32e6 7f3f 8590 7f3f
00000250: 9712 803f 4fc8 7f3f 3b08 803f 4839 803f
00000260: ff1b 803f a783 7f3f f8e6 7f3f 7037 803f
00000270: 1373 803f 5bf9 7f3f 5037 803f ebfa 7e3f
00000280: 3c3f 7f3f e52b 803f 1e10 803f 24dc 7f3f
00000290: b2ee 7f3f 7f2b 803f 9050 803f 6f98 7f3f
000002a0: 5955 7f3f 4b75 7f3f 8725 7f3f c21c 803f
000002b0: 3337 803f bf0a 803f e833 803f e812 803f
000002c0: 031d 803f 5f9d 7f3f acea 7f3f 9edc 7f3f
000002d0: 71d3 7f3f fe88 803f cfa1 7f3f 0993 7f3f
000002e0: 5bc4 7f3f 8825 803f 2a09 803f ce0d 803f
000002f0: 1ff6 7f3f 9d32 803f 463e 803f 7fa6 7f3f
00000300: bee3 7f3f 428f 7f3f fed3 7f3f 0eb7 7f3f
00000310: 3a41 803f 8db4 7f3f b503 803f 7c24 803f
00000320: 99d1 7f3f 565d 7f3f 04d7 7f3f adeb 7e3f
00000330: 41db 7f3f 8145 7f3f ea03 803f 9e14 803f
00000340: 1432 803f e53b 803f ab13 803f 6831 803f
00000350: 4423 803f 8005 803f 522c 7f3f 1bba 7f3f
00000360: 06ce 7f3f 3b86 7f3f 3700 803f 9dc2 7f3f
00000370: 8615 803f 7d23 803f 322b 803f 35ea 7f3f
00000380: 1b14 803f 69bd 7f3f f7f4 7f3f 9835 7f3f
00000390: 1e5d 803f 2e13 803f c5f6 7f3f 4d0a 803f
000003a0: 110b 803f a023 803f 0b0f 803f 8891 7f3f
000003b0: 1a1f 803f 04f4 7f3f 432a 803f 4118 7f3f
000003c0: 26b0 7f3f 189c 7f3f c90e 803f c274 7f3f
000003d0: ee1d 803f 5eaa 7f3f f82e 803f f60e 803f
000003e0: fd14 803f 6cc8 7f3f 7745 803f 72c9 7f3f
000003f0: 5bc9 7f3f ca09 803f 4f1a 803f 3a6e 7f3f
1.0044534 1.0019126 0.99979854 1.0028657 0.9975484 1.0007474 0.99923706 0.99750745
0.99830973 0.9981378 0.99989474 1.0016676 1.0033423 0.9991113 0.9971358 0.9998875
0.99968344 0.99782115 0.99778575 1.0024458 1.0012482 0.99973255 1.000583 1.0021605
0.99983674 1.0030653 1.001753 0.9975901 1.0006695 1.003416 1.0006596 0.99874055
1.0005851 1.0025133 0.99815404 1.0018607 1.0024502 1.0006772 0.99869084 1.001222
1.005957 1.0026668 0.99912494 0.9980313 0.9998235 1.0000467 1.0003552 1.0008188
1.0015055 0.99986863 1.0005258 1.0017136 0.99973476 0.99858874 1.0014412 0.9997474
0.99924153 0.99830323 1.0019733 0.99914736 0.9993498 1.0009828 0.9984586 1.0013548
0.9987155 1.0005606 1.0003155 0.9976571 0.9983679 0.9983646 1.0003258 0.99721026
0.99959505 0.9981906 1.0000856 1.0005803 1.0009316 1.0015042 0.99708104 1.0000919
1.0005517 0.99824387 0.99882334 0.9991123 0.99986714 1.0005491 0.9991476 0.9964164
1.0004923 1.0001414 0.99996907 1.0010533 1.0027103 1.0002524 0.9978696 1.0011595
1.000853 1.0004306 1.000623 1.0004522 0.9994767 1.0010511 0.9972733 1.0007092
0.99802643 1.0013645 0.9978906 0.9974877 1.0009773 0.99914306 1.0036427 0.9991264
1.0004331 0.9997674 1.0011505 0.9998582 1.0015943 0.9971931 1.0014182 0.99814516
1.0031034 0.99949086 1.0002177 1.0024002 0.9989455 1.0015122 1.0015134 0.99981487
1.0006106 0.999086 0.9997486 0.999688 0.9996658 1.0014108 1.0004264 1.0001495
1.001292 1.0006534 1.0012455 1.0002426 1.0007529 0.9992003 1.0013087 0.99831516
1.0005685 0.9948166 0.99960625 0.99829894 1.0005673 0.9991502 1.0002512 1.0017481
1.0008544 0.9981026 0.99961805 1.0016918 1.0035118 0.9998986 1.001688 0.9960162
0.99705863 1.0013396 1.0004919 0.9994528 0.99973595 1.0013274 1.0024586 0.9984197
0.99739605 0.9978835 0.9966664 1.0008776 1.0016845 1.000328 1.001584 1.000577
1.0008854 0.99849504 0.99967456 0.9994601 0.9993201 1.0041807 0.99856275 0.9983373
0.9990899 1.0011454 1.0002797 1.0004213 0.99984926 1.0015446 1.0019004 0.9986343
0.9995688 0.9982797 0.9993285 0.99888694 1.0019906 0.99884874 1.0001131 1.0011134
0.99929196 0.99751794 0.9993746 0.9957836 0.9994393 0.9971543 1.0001194 1.0006292
1.0015283 1.0018278 1.0006002 1.0015078 1.0010762 1.0001678 0.99677 0.9989335
0.9992374 0.99814194 1.0000066 0.9990633 1.0006568 1.001083 1.0013182 0.99966747
1.0006136 0.9989839 0.9998316 0.9969115 1.0028417 1.0005853 0.99985915 1.0003144
1.0003377 1.0010872 1.0004591 0.9983144 1.0009491 0.99981713 1.0012897 0.99646384
0.99878156 0.99847555 1.0004512 0.99787533 1.0009134 0.99869335 1.0014334 1.0004566
1.0006405 0.99915195 1.0021199 0.99916756 0.9991662 1.0002987 1.0008029 0.9977757

nn.block2.batch.bias f4 [256]
00000000: b670 083b 035f 073a 70f5 b23a 765d ef3a
00000010: 1b89 d63a 22d2 f1ba e899 95ba 7021 163b
00000020: 1916 11bb a840 92b9 2679 0f38 1ca2 28bb
00000030: edb4 bc39 a7f1 f3b9 2db4 74b9 e450 a9bb
00000040: 1a18 09bb 6812 89ba b70a 3cbb d7f6 6bba
00000050: a2a0 213b 367e 92ba b2bf 9438 f055 9fb8
00000060: eb28 453a eeca adbb 1bb3 b7ba 59ff eeb9
00000070: 1833 183b e03f 1bbb bda9 02bb a415 cb39
00000080: b7bc 66b9 4bfb 62bb d665 d33a 97ba deba
00000090: c3d2 b63a be64 24b8 41d3 10ba 6af9 853a
000000a0: e876 24bb 76e0 073a c0a5 443b 8f79 2739
000000b0: a729 55bb 76d3 42ba c258 2abb eb77 0dbb
000000c0: 0c51 0fbb 40c5 fa3a c67d 6638 1643 56ba
000000d0: 6fe3 72ba a765 cc3a 076e cf39 f74f e6ba
000000e0: 2a7f 43ba b9a1 983a d65d 363a 3dff 10bb
000000f0: 7ee7 4d3b fd34 caba e308 07bb eb65 d8ba
00000100: 158b 6ebb f7cd 46bb a072 fdba aa1b 763a
00000110: f9e9 573b bb81 60b9 865f ebba 0745 0dba
00000120: a531 5d38 f351 ab3a 93d5 033b ce17 a2b9
00000130: 2f3b 353a a94d 20bb 4226 413a 63f4 00ba
00000140: fdf3 043a a7d3 103b 820f 9db9 2e8b 8a39
00000150: 7a0e edba 0794 7ebb c1b5 cab9 24ce 843a
00000160: 3f69 c4ba c7cd 8a3a 233a 273b b5bc b23a
00000170: c9a4 e939 cf1a 5e3b 3512 3738 7f54 76bb
00000180: 0b0b 693a 4399 33ba 6f00 e5ba 92b6 75bb
00000190: b498 b6ba 6cf3 fdba 8b4b 053b 11b7 0239
000001a0: e36a 77ba 9514 e0ba 50f2 9f3a f9f0 80ba
000001b0: 9766 0ab9 d4d9 f93a 61b5 8cbb 3b0e a73a
000001c0: 84ee c639 11ff db3a 7c1d 77ba 0bc9 f5b9
000001d0: 7989 97ba 7a3e c7b9 9e34 3e3a 0548 79ba
000001e0: 78d4 833b 9caa 1cba 192c 233b 5a55 f63a
000001f0: 9966 453a 33c6 b03a eb44 923a a171 5dbb
00000200: 210d 9cba 7103 35ba e6a5 92b9 a109 9839
00000210: 38cd 85bb a6b3 f039 43e1 0b3b d78f ff39
00000220: 088b 44bb 7658 253b abed 813a 5c3e a83a
00000230: 72fa b1b9 c9c0 bd3a 9547 a439 a674 b13a
00000240: 2698 833a dde0 1a3b 70e3 02ba e45d 87ba
00000250: 243e 683a 1745 7b38 e19e 40b9 53e8 b4ba
00000260: 80b2 573a 0bd3 1f3b 5f2f 0dbb 35eb e2ba
00000270: 56d3 53bb eedb e03a 8414 9739 8eca 01bb
00000280: d1f5 7c3a 06b3 b7b9 1413 f439 d6d4 9a3a
00000290: daab 7bba ec6d 0b3b 604f c638 51dd 96ba
000002a0: 7ecb 8039 ce5d 49ba 851a deba 94de 013b
000002b0: 85b9 cdba 7c3c d939 268c 633a 395c e83a
000002c0: cfcd 94ba 54d6 9dba dd6e e13a 5a26 0539
000002d0: 0601 d839 785a 99ba c425 ad3a 3eb8 d3b9
000002e0: 0c82 12b7 3d3a 29b9 7553 89b8 99a1 54bb
000002f0: a83b ec3a 4406 313a 85ee 7dbb c2bb 363b
00000300: b9ec ff38 ae81 3f3a 1fbe 6b3b 3f4b 673a
00000310: c71a 0ebb 8e27 343b 5120 4539 0cd3 7aba
00000320: e22f b93a c00f 9539 c1bb 653a 7eb7 7339
00000330: 87b7 bfba a001 903a 49b5 423b a6bb 8cbb
00000340: 5cd6 84ba 2c51 023b c42d 05ba 3b52 cf3a
00000350: 27df 6bba 23b1 3c3a e51c c738 04bd 8c3a
00000360: 7ea0 54bb d78b 5f3a 1ca7 543a 1135 28b9
00000370: ca53 16bb 7879 6abb 3ec9 d9b9 3acb 9e3a
00000380: 7243 9b3a a120 9fba e614 bbb7 6f1e 1bbb
00000390: 07d9 283a ac90 44bb 5d30 96b9 2352 3eb9
000003a0: 2455 303a 29bb 99ba 8966 44bb a8c0 453a
000003b0: 3570 7fbb ee3d 2aba 6838 96ba a8fe 1c3a
000003c0: 5593 0dbb 5286 7bba ac6c 913a ab74 483a
000003d0: 9acb ac38 0ade 6c3a d520 e7ba f2be a9ba
000003e0: 104f 883a 2f51 753a 4971 51bb d493 353b
000003f0: 7740 9439 bc9b 50bb 0605 323a a57b 21bb
0.0020819134 0.0005163999 0.0013653468 0.0018262106 0.0016367765 -0.0018449465 -0.0011413665 0.0022908114
-0.0022138415 -0.00027895463 3.4206685e-05 -0.002573139 0.00035992955 -0.00046528617 -0.00023336774 -0.0051671136
-0.0020918907 -0.0010457756 -0.002869291 -0.00090013206 0.0024662395 -0.001117653 7.092896e-05 -7.597718e-05
0.0007521051 -0.005303732 -0.001401517 -0.00045585146 0.0023223814 -0.0023689196 -0.0019937598 0.000387353
-0.00022004811 -0.0034634646 0.0016128372 -0.0016992864 0.001394831 -3.919447e-05 -0.00055246433 0.0010221426
-0.0025095288 0.00051832886 0.0030006021 0.00015971645 -0.0032526047 -0.0007432023 -0.0025992845 -0.002158637
-0.0021868376 0.0019132271 5.495341e-05 -0.0008173449 -0.00092654576 0.001559426 0.00039564093 -0.0017571439
-0.00074576086 0.0011644877 0.00069567317 -0.002212479 0.0031418498 -0.0015427169 -0.0020604662 -0.0016509866
-0.0036398817 -0.0030335167 -0.0019336529 0.00093882775 0.0032945855 -0.00021410633 -0.0017957545 -0.0005389009
5.273674e-05 0.0013070687 0.0020116314 -0.00030916784 0.0006913421 -0.0024460352 0.00073680666 -0.0004919229
0.00050717575 0.002209881 -0.00029956928 0.00026425108 -0.0018085979 -0.0038845555 -0.0003866386 0.0010132235
-0.0014984979 0.0010589891 0.002551683 0.0013636561 0.00044563998 0.003389049 4.3647557e-05 -0.0037586985
0.000888989 -0.0006851146 -0.0017471443 -0.0037492854 -0.0013931007 -0.0019374914 0.0020339217 0.00012465964
-0.00094382296 -0.0017095978 0.0012202952 -0.000983744 -0.00013198923 0.001906211 -0.004294083 0.001274533
0.0003794321 0.001678439 -0.0009426696 -0.0004687983 -0.0011561356 -0.00038002786 0.00072557654 -0.0009509328
0.004023131 -0.00059763505 0.002489811 0.0018793747 0.0007530242 0.0013486802 0.0011159455 -0.0033789652
-0.0011905768 -0.0006905115 -0.00027970894 0.00028998873 -0.004083302 0.00045910216 0.0021343983 0.0004874456
-0.0029990096 0.0025229729 0.000991275 0.0012835967 -0.00033946667 0.001447701 0.0003133385 0.0013538792
0.0010039851 0.0023632564 -0.0004992997 -0.0010327664 0.00088593573 5.990741e-05 -0.00018369734 -0.0013802148
0.00082281977 0.0024387266 -0.0021543128 -0.0017312529 -0.003232201 0.0017155388 0.0002881625 -0.001980457
0.00096496666 -0.00035037863 0.0004655352 0.0011812698 -0.0009600498 0.0021275235 9.4561605e-05 -0.0011510049
0.00024565676 -0.00076815195 -0.0016945159 0.0019816505 -0.0015695548 0.0004143453 0.00086802465 0.001772768
-0.001135284 -0.0012042024 0.0017199178 0.00012698155 0.00041199493 -0.0011699935 0.0013210108 -0.00040382327
-8.732557e-06 -0.00016138791 -6.548214e-05 -0.0032444953 0.001802315 0.0006752948 -0.0038746905 0.0027882908
0.000122034406 0.00073053956 0.0035971475 0.0008823163 -0.002168344 0.0027489397 0.00018799423 -0.00095681916
0.001412865 0.0002843123 0.0008763634 0.00023242642 -0.0014626839 0.0010986812 0.0029710105 -0.0042948304
-0.0010134685 0.0019884808 -0.0005080367 0.0015817353 -0.0008997791 0.0007198026 9.4944415e-05 0.0010737483
-0.0032444294 0.00085276127 0.00081120594 -0.00016041497 -0.0022938126 -0.0035777967 -0.00041539402 0.001211501
0.0011845662 -0.0012140461 -2.2301869e-05 -0.0023669263 0.0006441031 -0.0029993458 -0.00028646263 -0.0001815041
0.0006726554 -0.0011728752 -0.0029968342 0.00075436616 -0.0038976793 -0.00064942136 -0.0011460902 0.00059888745
-0.002160271 -0.00095949054 0.0011095009 0.00076467794 8.239523e-05 0.0009035772 -0.0017633686 -0.0012950583
0.0010399539 0.00093581056 -0.0031958392 0.002770652 0.0002827679 -0.0031831106 0.00067909097 -0.0024640348

nn.block2.batch.running_mean f4 [256]
00000000: ab84 733e 305c ec3e ac8a 683e 7a83 133e
00000010: 10b9 443e f6ff 9c3e b288 073e 6a45 4f3e
00000020: b8c9 983e ba20 813e cf69 843e bea3 ee3d
00000030: bdfd 3f3e 114b 933e 996d cb3d 0c22 843e
00000040: d7a4 883e 3d2f e93d fc8a 873e d788 163e
00000050: b695 1e3e cdee 183e f5f8 553e 400f 5e3e
00000060: d1c4 273e 84ce 893e 70d1 9e3e e01f 7b3e
00000070: dd0d b83e d2a3 ae3e 12c4 533e f13a 273e
00000080: 5185 923e 89b7 743e 9666 3d3e 3476 643e
00000090: 7816 a43e fafc 453e d1b2 9d3e 77ee 503e
000000a0: 2472 623e dfaa ee3d 178a 2b3e 7632 2f3e
000000b0: b84c 2c3e 11be 173e 5ef4 7f3e 8761 7e3e
000000c0: b3b4 cf3e 6fbb 5c3e 8baf 033e 8f3b 863e
000000d0: 9ecb 133e 295a 6f3e 0372 bf3e 3648 4d3e
000000e0: 228b 123e 5e82 0d3e 9cde a23e 3957 693e
000000f0: 6722 863e c9de 3b3e 186f 643e db00 bc3e
00000100: 9262 ba3e 1ee1 4d3e d33d 5e3e f350 1e3e
00000110: 0d12 183e 1dd4 433e 6c6b 693e 1c80 803e
00000120: 3eac 913e fe84 5b3e 92f6 493e a0db 733e
00000130: 86ad a23e 28b6 8f3e f3eb 853e 3ba6 863e
00000140: 7827 ea3d a80f 8a3e 7371 433e 45e0 1f3e
00000150: d2e0 643e c75d ae3e cd0c 623e a686 8f3e
00000160: b2ae 8d3e b385 943e 0a03 573e 107b 603e
00000170: ba0b df3d aa5d 4f3e 15a6 403e 351f 493e
00000180: a07b 383e 8bc1 233e 3c73 4e3e 6823 9d3e
00000190: 1bdc 863e c4d9 5a3e 5c10 593e 8e9d 863e
000001a0: 52a5 083e 1dd2 2c3e 01eb 523e 42cc 923e
000001b0: 42f6 153e 406a 823e 85c0 aa3e 6c2f 213e
000001c0: 86ed 513e 8dcd 683e 7ad2 033e 9905 973e
000001d0: 85bb f73e 18aa a83e ec61 2e3e 7406 183e
000001e0: 9fa3 963e e06a 5f3e 94d7 7c3e 6175 413e
000001f0: b291 463e e85f 863e 2efe 283e adcd 103e
00000200: c47f 073e 85aa b63e 3918 8b3e e926 5e3e
00000210: e4d1 c53e cf43 7e3e 0010 a23e df9e aa3e
00000220: f2fb 723e e190 093e baa4 663e 0782 523e
00000230: 8f11 463e 96d4 323e 9288 793e a7df 423e
00000240: b1e3 043e 7b5e 3b3e a989 d83e 4e13 143e
00000250: c325 243e 0d02 da3d d63a 593e c85e 383e
00000260: 23a4 3a3e a8ca 0b3e ccc0 c43d 9d9a b43e
00000270: ae09 813e 96ae 863e ef26 2a3e ff3a 793e
00000280: 5230 a43e d106 293e 7bcd 203e 5eaa 8d3e
00000290: 93df e83d fc4e 363e f08c 453e 6bce 393e
000002a0: cdfa 773e 7b5d 523e 1757 633e 2b87 6d3e
000002b0: c493 863e 909d 893e 14e9 e83e a47d 4a3e
000002c0: b6f5 c13e fd2b 6e3e d8bd 4d3e 39a3 203e
000002d0: 7b70 8f3e 96d5 e23d 922a 893e 4ce7 af3e
000002e0: 2cb6 973e 5247 223e 2d77 883d d062 493e
000002f0: cb76 423e e4fb d83d 5b5b 783e a638 ba3e
00000300: 9140 613e c6cb 9e3e 8a27 c83d d2c1 a13e
00000310: 1ccd 9c3e 5813 343e 6f23 7c3e 7f23 5b3e
00000320: d689 403e 200e 7e3e a0b9 843e 0e58 9d3e
00000330: 8631 623e 24bf 593e 96a6 933e 6b10 193e
00000340: 12f3 373e 7d5f 463e d93b 1b3e b41e 5c3e
00000350: 8704 153e d2b8 663e a96c 4d3e 5f6b 473e
00000360: 4fbb 4a3e 28f0 ce3e 5b9d 8f3e 949b aa3e
00000370: 1d6f b03e 520a a13e c0c2 653e 65b0 e93d
00000380: 246f 833e 776a 5f3e f64b 6c3e 38d2 183e
00000390: f52c 753e 4a1a 643e c1ff 813e 7fac 7d3e
000003a0: 4b85 4e3e fce2 1a3e 5d68 2e3e 5048 673e
000003b0: 0cf4 8c3e bcad ff3d 4ae0 be3e 8845 903e
000003c0: 51b3 633e 151d bb3e 4711 173e f90f a43e
000003d0: c656 b63e 8601 883e 262c 853e f4c6 613e
000003e0: db9c 053e 4fb3 1a3e 4a06 2a3e 8b7f 8b3e
000003f0: 26f3 103e 6aeb 633e fd90 753e 47bb 693e
0.23781078 0.46164083 0.22709149 0.14405623 0.1921122 0.30664033 0.13235739 0.20241323
0.298414 0.2522028 0.25861976 0.11652325 0.18749137 0.2876821 0.099330135 0.25807226
0.26688263 0.11385963 0.26473224 0.14700638 0.15486798 0.14934845 0.20895751 0.21685505
0.16383673 0.2691537 0.31019163 0.24523878 0.35948077 0.3410936 0.20680264 0.16331078
0.28617337 0.23898138 0.18496165 0.22310716 0.32048392 0.19334784 0.3080049 0.20403467
0.22113854 0.11653685 0.16751896 0.17109093 0.16826141 0.14818598 0.24995562 0.24841891
0.4056755 0.21555875 0.12859933 0.26217315 0.14433143 0.23374237 0.37391672 0.20047078
0.14310887 0.13819262 0.31810462 0.22787179 0.26198122 0.18346705 0.22308004 0.36719403
0.36403328 0.20105407 0.21703272 0.15460567 0.14850636 0.19123884 0.22794884 0.2509774
0.28451723 0.21437451 0.19722965 0.23814249 0.31773013 0.28068662 0.26156577 0.262987
0.11433309 0.2696507 0.19086246 0.15612896 0.22351387 0.3405592 0.22075196 0.28032416
0.27672344 0.29008254 0.20997253 0.21921945 0.108909085 0.20250574 0.18813355 0.19640811
0.18015909 0.159918 0.20161146 0.30691075 0.26339802 0.21372133 0.21197647 0.2629208
0.13344315 0.16877027 0.2059746 0.2867146 0.14644721 0.25471687 0.33350006 0.15740746
0.20500764 0.22734661 0.12873259 0.29496458 0.48385254 0.3294227 0.17029542 0.14846212
0.29421708 0.21818113 0.24691612 0.18892433 0.19391516 0.26245046 0.16503212 0.14140959
0.13232332 0.3567697 0.27166918 0.2169453 0.38636696 0.24830554 0.31652832 0.33324334
0.23728922 0.13434173 0.22523776 0.20557414 0.19342636 0.17463908 0.24368504 0.19030629
0.12977482 0.1829776 0.42292526 0.14460489 0.1603003 0.106449224 0.2121385 0.18004906
0.18226676 0.13651526 0.096070856 0.3527421 0.25202698 0.26305073 0.16616414 0.24338911
0.32068115 0.16506507 0.15703385 0.27669042 0.113707684 0.17803568 0.19292045 0.18145148
0.24216767 0.20543472 0.22201191 0.23196094 0.2628461 0.26878023 0.45490324 0.1977449
0.37882775 0.23258968 0.20091951 0.15687265 0.28015503 0.110758945 0.2679029 0.34356153
0.29631174 0.15847519 0.06663356 0.196666 0.18990628 0.10594919 0.242536 0.36371344
0.21997286 0.31014842 0.097731665 0.31593186 0.30625236 0.17585504 0.24622892 0.2140026
0.1880258 0.24810076 0.2592287 0.30731243 0.22089204 0.2126432 0.28838032 0.14947669
0.17963818 0.19372363 0.15159549 0.21496087 0.14552508 0.22531441 0.20060982 0.19474553
0.19798015 0.404176 0.2804974 0.33321822 0.34459773 0.31453186 0.22437572 0.11410598
0.2567073 0.21817957 0.23075852 0.14923942 0.23942931 0.22275653 0.25390437 0.24772833
0.20168035 0.1512565 0.17031999 0.22586179 0.27529943 0.12484309 0.37280494 0.28178048
0.22236373 0.36545625 0.14752685 0.32043436 0.35613078 0.26563662 0.26010245 0.22048551
0.13048117 0.15107463 0.16603962 0.27245745 0.14155254 0.22257772 0.2398109 0.22825347
