statedicts/pl_statedict_db_2022-05-02_FLOWER_FAST_200mBar_200s_P0_R1_s1_seed_2.ckpt (torch, 193785 bytes, 29 tensors)

nn.input_batch.weight f4 [5]
00000000: 50cc 763f e2d8 823f bbd2 843f e484 7e3f
00000010: bd68 7e3f
0.96405506 1.0222437 1.037681 0.99421525 0.9937857

nn.input_batch.bias f4 [5]
00000000: baa4 853b e595 fd3b a82b a53b 36b2 753c
00000010: 461d 47bc
0.004078475 0.007738816 0.0050406046 0.014996102 -0.012152975

nn.input_batch.running_mean f4 [5]
00000000: 650a 2a40 54ad 843d da6e 4240 7f27 3b40
00000010: a44f 483e
2.6568844 0.06478372 3.0380158 2.9242857 0.1956163

nn.input_batch.running_var f4 [5]
00000000: 89ca 943c 333b 8e34 eeb4 323b b7f2 953a
00000010: b00e cf3a
0.018162983 2.6492634e-07 0.0027268487 0.0011440133 0.0015797224

nn.block1.linear.weight f4 [96, 5]
00000000: f0eb 5dbe 25e9 d8be 8e6d fd3d eabc ca3b
00000010: 7479 02bb 9123 64be afc5 9b3e b0b7 c03e
00000020: c019 debd 6508 d7be 8844 2a3e a51b dbbe
00000030: e752 1c3e 7256 9dbe 67a3 a2be ef7f 6ebe
00000040: 5ade 633e 4b4e f13d eb29 e33d 4c26 d33e
00000050: 9807 85bd c106 353e 2dd8 8a3e dcc8 aa3e
00000060: 8049 d1be fa68 80be f259 e2be 7b04 04be
00000070: 998d 123e dfc4 49be 0ba3 62be ebe1 3dbe
00000080: d988 0a3d 5d50 45bd d4dc 95bb 3cd7 6d3e
00000090: 2ac8 c6be f9d0 4bbe 16d8 23be 119a 57be
000000a0: 6acf 883e 3ac2 83be 5841 3abe 8d1f 853e
000000b0: c676 693e efaf 00be 1370 1bbe fb59 133d
000000c0: 32bb 193c a60e 57be 687e 88be ccd6 853e
000000d0: b788 b4be 4e38 96be 573c d1bd a81a 9f3e
000000e0: 3493 9cbe 85c4 0dbe 85c4 533e 6783 303e
000000f0: 86ae e13d d59d 4fbe 769f 3bbe 4679 37be
00000100: 0801 04be b6f9 6cbd 9136 a6bd f875 64bd
00000110: fb5e bcbe 932a 55be ba14 263e e528 47be
00000120: d141 313d 0f3a d13e 8b58 b53e d68b a7be
00000130: 80da c03c 0017 3fbc bf3f 6fbe fe8f 23be
00000140: 214d 92bd eda2 a03e 8ee2 c73d 70ba db3e
00000150: 579a 153e fbbb db3e 8a61 9f3e 4499 9c3d
00000160: e87c 193e a21a bdbe 0fbc 10bd d551 df3e
00000170: a114 d23c 643d dbbe 4a58 2abd 6b10 52be
00000180: b258 9abe 43dc 4a3e fea8 cd3d f425 bf3e
00000190: 45d2 18be e4bb 633e f313 083d 5cb0 6c3e
000001a0: 9a9e cdbe a9cd ccbd 5d00 1dbe 18dc 07bc
000001b0: 8f51 823e 2602 533e c101 11bd 0fc6 2c3c
000001c0: b57f e2be f4f7 e03e 5005 39be 1290 83bd
000001d0: c210 1f3c 1faf d0be a242 933e 84cf 34be
000001e0: 99bd 74be 9839 773e ba5d fa3d 7edc 6dbe
000001f0: 6d09 dc3e f5c4 1c3e 4ada 923e dbfd 11be
00000200: 31fe 173e 470d 593d 40e3 aa3e 6dd3 97be
00000210: 5733 853d adc3 71bd 3141 b1be bcaf 603e
00000220: 30c7 cf3e 6f60 6c3e ddca 543e 5496 abbd
00000230: 9d3b 5b3d f4ec d23d 3fc7 1bbe f4ae c0be
00000240: 3a00 a4be 3c23 8d3e 1bbe 74be 7c0d 8c3e
00000250: 3edb 743e 912d 313e dbaa 1dbe 1c94 d23e
00000260: d46a a0bd 7c1f 28be 74f1 ce3d 2e1b 903e
00000270: d579 633e 7b70 1e3d 0905 2f3e f2f0 9bbe
00000280: f0ad 623e eb07 41be f54a 8bbe f7e1 96be
00000290: 6e5b 8abe 5754 7dbd ac04 cf3d c2ab 5abe
000002a0: e02e e6be 2603 d83e 3f20 d33e 89df 70be
000002b0: 3f20 ab3e 7612 b4be 3eb1 92be a49b e43e
000002c0: 040e 653c e353 e2bd 6d08 1bbe ec96 4fbe
000002d0: eb71 36be a1e2 e23e 0f82 b2be 1096 a4be
000002e0: 5b8d f3bd 118d 39bd a4f3 c43e 3da3 323d
000002f0: 0237 f33c 83d0 833e abaa ac3e 5ebe 8abe
00000300: 1d58 d9be 64fc 3d3e a5ac db3e 22e5 10be
00000310: 88ad 36be cc8f 6b3e 3e32 d9be ca8b 7abc
00000320: 9f65 d8be aab5 503d 3195 cebe 3525 b03d
00000330: a07e bf3e 7b29 5d3c 704b 09be 2da0 b23c
00000340: fe61 283e 1ec4 d83e 075d 71be 9dad 863e
00000350: d303 c5be a6c3 dd3e 9afe 4bbe de5b 56bd
00000360: ca49 a13e 308f 883e 4220 55be e540 1fbd
00000370: 3352 b4be faf2 1d3c 4809 d0be ab7b b5be
00000380: d7c5 7a3e 478b ffbd 413b 3fbe 20a0 9ebd
00000390: faaf dcbe e513 d33e 905c fcbb d1a8 7abd
000003a0: 5e8d 39be 930f 653e bc70 b8be 1818 2c3e
000003b0: 234b a4be 892f 39be b6ae 8fbe 2c80 8ebe
000003c0: c405 5fbd 304b a6be a134 99be 4930 debe
000003d0: ee9f f83d 4923 aebe 9529 56bd 15fa ddbd
000003e0: a904 babe 806c 99be a563 35bd e806 a83e
000003f0: d9f4 ecbd 51c8 c63e acbe 273e 78a4 abbe
-0.21672034 -0.42365375 0.123744115 0.006187071 -0.0019908817 -0.22279193 0.30424258 0.37640142
-0.10844755 -0.41998592 0.16627705 -0.4279453 0.15266 -0.30730015 -0.3176529 -0.2329099
0.22252789 0.11782511 0.110919796 0.41240156 -0.06495589 0.17678358 0.27118054 0.3335637
-0.4087639 -0.2508009 -0.44209248 -0.12892334 0.14311828 -0.19704007 -0.22132508 -0.18543212
0.033821914 -0.048172344 -0.004573444 0.23226637 -0.38824588 -0.19903935 -0.16000399 -0.21054865
0.26720744 -0.2573412 -0.18188989 0.26000634 0.22799215 -0.12567113 -0.15179472 0.035974484
0.00938301 -0.21001682 -0.2665894 0.2614044 -0.35260555 -0.29339832 -0.10216587 0.31075025
-0.30581057 -0.13844498 0.20680435 0.17237626 0.11019616 -0.20275052 -0.18322548 -0.17917356
-0.12891018 -0.05785533 -0.081158765 -0.055776566 -0.36791214 -0.20817022 0.16218844 -0.19449194
0.043275658 0.40864608 0.35419115 -0.32723874 0.023541689 -0.0116631985 -0.23364161 -0.15972897
-0.071436174 0.31374303 0.09760009 0.42915678 0.14609657 0.42916855 0.31129104 0.076464206
0.14989054 -0.36934382 -0.035335597 0.4361712 0.025644602 -0.42820275 -0.041588105 -0.20514075
-0.30145794 0.19810586 0.10041998 0.37333643 -0.14923961 0.22239643 0.03322215 0.23114151
-0.40160066 -0.10000164 -0.1533217 -0.0082922205 0.2545285 0.20606288 -0.035402063 0.010545268
-0.44238058 0.43939173 -0.18068433 -0.064239636 0.009708585 -0.40758607 0.28761774 -0.17657286
-0.23900451 0.24143064 0.12224908 -0.23228642 0.4297594 0.15309508 0.28682166 -0.14256994
0.1484306 0.052991178 0.33376503 -0.29653493 0.06503933 -0.0590245 -0.3462005 0.21942037
0.40581656 0.23083661 0.20780511 -0.08378282 0.05352365 0.102991015 -0.15212725 -0.3763348
-0.32031423 0.27565944 -0.23900644 0.27354038 0.2391176 0.17302538 -0.15397207 0.41128623
-0.07832876 -0.1641826 0.10104647 0.28145736 0.22214444 0.03868149 0.17091765 -0.30457264
0.22136664 -0.18850677 -0.27205625 -0.29469272 -0.2702288 -0.06184801 0.10108313 -0.21354583
-0.44957638 0.42189902 0.4123554 -0.23522772 0.3342304 -0.35170335 -0.2865085 0.44649994
0.013980392 -0.11051156 -0.15139933 -0.20272416 -0.17816894 0.4431353 -0.34864852 -0.3214574
-0.11892196 -0.045300547 0.38467133 0.043612707 0.029689316 0.2574502 0.3372396 -0.27098364
-0.42450038 0.1855331 0.42905155 -0.14149907 -0.17839634 0.23004073 -0.42421144 -0.015292117
-0.4226503 0.0509545 -0.403482 0.08600847 0.37401295 0.013498659 -0.13407683 0.021804893
0.16443631 0.42337126 -0.23570643 0.2630433 -0.3847948 0.4331333 -0.19921342 -0.052333705
0.3150161 0.26671743 -0.20813087 -0.038880248 -0.35218963 0.00964045 -0.4063208 -0.35445914
0.24489532 -0.12477737 -0.18674947 -0.07745385 -0.4310301 0.41226116 -0.007701464 -0.061196152
-0.18120334 0.22369222 -0.3602351 0.16806066 -0.32088575 -0.1808454 -0.2806298 -0.27832162
-0.054448858 -0.3247924 -0.29922965 -0.43396214 0.12139879 -0.34011295 -0.05228575 -0.10838715
-0.3633168 -0.2996559 -0.04428448 0.3281777 -0.115701385 0.38824704 0.1638133 -0.33523917

nn.block1.linear.bias f4 [96]
00000000: 4559 b73e 3136 88bd 3942 94bd 0a3f d2bd
00000010: ee34 cdbe a7b2 b5be c10c ebbe 243e b43e
00000020: 6e6c c5be 3510 e5be 641d 293d fd87 18be
00000030: 6044 a83d 5fa0 b9be 1d50 acbd 84ad ca3e
00000040: 614d 913d 00ba cbbe 4470 31be e0b5 c0be
00000050: f38c b1be fb97 d9be c1bb ca3c e0f5 8ebe
00000060: 74d9 913e dfed 963c 5ed0 923e 2957 ddbe
00000070: 19a0 cfbe 54dd 4c3e 7d93 a9be c1fd d4be
00000080: 79c9 bbbe 94d4 803d 095e afbb 3956 ffbc
00000090: 75a2 bbbe cc7e 4e3e 4609 833e e9a1 bc3e
000000a0: 733c bd3e ccbf d33e b3a4 193e 0f65 873d
000000b0: a4d9 efbd 4e7f 563d 351a b13e 0f4d fcbc
000000c0: f6ed 42bd 4585 15be b02d ba3e 2ee5 5dbe
000000d0: 0e1b 73be 71fe bc3e 50ec 943e f079 4ebe
000000e0: 4981 6bbe c86b b7be f39d 19be 7d73 edbd
000000f0: a6ba 29be f6ef 143b 9101 62be 0f5e a43e
00000100: b0f8 b3be 832a 883e 16d8 b4be aa92 b03d
00000110: 3684 debe 6380 b83e b4ce 753d fb5d 5dbe
00000120: 6222 b2be a55b e1be a089 c3be 4a0e 843e
00000130: 295e 513e ee07 9bbe 383f 193e 596c 39be
00000140: ef25 bfbd 6a96 a8be 5fe7 9c3e 22f7 34be
00000150: 624b c33d 2b37 b9bd b54a 9e3d 4986 00be
00000160: cbd4 d2be 677f 58be 3e6c 57be 34ae 83be
00000170: 1646 fcbb 988e d03e bfd7 41bd 845c 96be
0.35810295 -0.06650961 -0.072391935 -0.1026593 -0.40079445 -0.35487863 -0.45908168 0.3520366
-0.38559288 -0.44738927 0.041287795 -0.14895625 0.082161665 -0.36255166 -0.08413718 0.39585507
0.07094837 -0.39790344 -0.17327982 -0.3763876 -0.34677848 -0.42498764 0.024747731 -0.27921963
0.28486216 0.018423973 0.28674597 -0.4323056 -0.40551832 0.20006305 -0.33120337 -0.4159985
-0.3667715 0.06290546 -0.005351786 -0.031169044 -0.36647382 0.20165557 0.25593013 0.36842278
0.36960182 0.41357267 0.15004234 0.06611072 -0.117114335 0.0523675 0.34590307 -0.030798463
-0.04759022 -0.1460162 0.36362982 -0.21669456 -0.2374079 0.36912873 0.29086542 -0.20163703
-0.22998537 -0.35824418 -0.15001659 -0.11594293 -0.16575107 0.0022726036 -0.2207091 0.3210301
-0.3515067 0.26594934 -0.3532111 0.08621724 -0.43460244 0.3603545 0.06001158 -0.21617882
-0.34791857 -0.44015232 -0.38190937 0.25792152 0.20446075 -0.30279487 0.14965522 -0.18107738
-0.09333407 -0.32927257 0.30645272 -0.17672399 0.095358625 -0.090437256 0.07729093 -0.12551226
-0.41177973 -0.2114235 -0.21037385 -0.25718844 -0.0076987846 0.4073379 -0.047324892 -0.2936746

nn.block1.batch.weight f4 [96]
00000000: 3e2c 803f b0d9 7f3f 3fe7 7f3f 32d9 7f3f
00000010: e8ed 7e3f db35 803f 50cb 7f3f 83f9 7e3f
00000020: c493 7f3f d7f5 7f3f 47da 7f3f bb15 803f
00000030: 49cc 7f3f 8606 803f 8a19 803f b1d6 7f3f
00000040: 67c1 7e3f 2a79 7f3f 305c 803f 3898 803f
00000050: d9fa 7e3f 8c11 803f 2db6 803f aa65 803f
00000060: 7cd5 7e3f c774 803f 0032 803f 2415 813f
00000070: 3805 803f e45a 803f e1ff 7e3f 7c82 7f3f
00000080: 830c 803f 701d 803f 1a07 803f 03f6 7f3f
00000090: b432 803f ba2a 7f3f 4c66 7f3f 37cf 7f3f
000000a0: 6275 7f3f 7bb9 7f3f d91a 803f 1978 803f
000000b0: cf6b 803f cf42 803f 9874 7f3f 500f 803f
000000c0: 7baa 7f3f c33c 7f3f 31e5 7f3f 9b7d 7f3f
000000d0: 7c14 803f c9ea 7f3f 060b 803f b456 803f
000000e0: 249a 7e3f 1d1e 803f 0c32 803f 5a38 803f
000000f0: e869 7f3f e4b5 7f3f f989 7f3f 9d3e 803f
00000100: 1bea 7f3f 6c2a 803f c1fd 7f3f 7c02 803f
00000110: 742a 803f a57b 803f 083e 803f 6f0b 7f3f
00000120: a951 803f 7a56 7f3f 5f05 803f 1057 7f3f
00000130: 1c24 803f 4d27 803f 43f8 7f3f 581d 803f
00000140: 08a5 7f3f 790b 803f aa51 803f 237a 7f3f
00000150: 2cc1 7f3f ec7c 803f 46d8 7f3f f3fc 7f3f
00000160: 5c08 803f 9e85 7f3f 455c 803f 4704 803f
00000170: b395 7f3f 6480 7f3f aba1 7f3f b542 803f
1.0013502 0.9994154 0.9996223 0.9994079 0.99581766 1.0016435 0.99919605 0.99599475
0.9983485 0.99984497 0.9994244 1.0006632 0.9992109 1.0001991 1.0007794 0.9993697
0.9951386 0.99794257 1.0028133 1.0046453 0.99601513 1.0005355 1.0055596 1.0031025
0.995445 1.0035638 1.0015259 1.0084577 1.0001593 1.0027738 0.9960919 0.9980848
1.0003818 1.0008984 1.0002167 0.9998476 1.0015473 0.9967457 0.9976547 0.9992556
0.99788487 0.99892396 1.0008193 1.0036651 1.00329 1.0020388 0.9978728 1.0004673
0.9986951 0.9970209 0.99959093 0.99801034 1.0006251 0.9996763 1.0003364 1.002646
0.9945395 1.000919 1.0015273 1.0017197 0.99770975 0.9988692 0.99819905 1.0019108
0.9996659 1.0012946 0.9999657 1.0000758 1.0012956 1.0037733 1.001893 0.9962682
1.0024921 0.9974133 1.0001639 0.9974222 1.001102 1.0011994 0.9998819 1.0008955
0.9986119 1.0003501 1.0024922 0.9979574 0.9990413 1.0038123 0.9993938 0.99995345
1.0002551 0.9981326 1.0028158 1.0001305 0.998378 0.99805284 0.9985606 1.0020357

nn.block1.batch.bias f4 [96]
00000000: 4fe6 e5ba ec0c acba 2e64 82ba 0900 e63a
00000010: 0e6b f33a ee35 153b a9ac 2c3a 9cfc 4f3a
00000020: 1788 323a 4160 00ba 8b9e 1cbb a93a f33a
00000030: 69c8 c53a cbd4 163a 41be aeba 41c5 84b7
00000040: 84b5 dd3a 488c 7c3a 4c65 363a 3924 35ba
00000050: bcb8 76ba db60 15ba 277b c537 eb27 853a
00000060: 23e6 a53a 8df5 133b 1f10 bfba 58c3 2039
00000070: d44b 8fb7 1b31 7dba 8dd2 133b 4ce3 713a
00000080: 52e4 c73a 8396 3cba 3809 3dbb 730e 223b
00000090: 1318 2439 3c77 073a 8170 a4ba 0db5 983a
000000a0: 19b6 26bb b196 f13a 0958 5839 3095 78b9
000000b0: 3c9e 82ba c33f 09ba 364c c839 e13b 453a
000000c0: ebb8 81ba ba9d 6bba e691 7f3a e0f7 c43a
000000d0: de02 afba 282e 95ba 9f80 9aba 71db 73ba
000000e0: b295 183b 081b d8ba 4377 133a f04a 953a
000000f0: ec6e 00bb 3c72 9f3a 6b3e 63bb 0ca8 24b8
00000100: 9ca7 a1ba 0c4d bd3a 9fb8 4a3a 8782 7e3a
00000110: c00d 8c39 be3a dfb8 948b caba 5752 8938
00000120: f6b3 c63a 6d48 e93a 80ae 12bb 71d1 caba
00000130: 4743 b23a 7d59 d2ba 87ca 0cbb 7674 f3ba
00000140: a1c2 393a 400e 17ba 46bb 3b39 6c47 583a
00000150: e61f 3fbb ba66 b6ba 5185 3b3b ce66 183b
00000160: 2b36 8637 6c19 073a 09b5 3f3a c3b8 1a3b
00000170: 0998 11bb 291e a339 7632 8e3a b8b2 cfba
-0.0017539951 -0.001312641 -0.0009948069 0.0017547618 0.0018571333 0.002276774 0.00065870077 0.0007934065
0.000681044 -0.00048971554 -0.002389821 0.0018556911 0.0015089634 0.00057537545 -0.0013331847 -1.582748e-05
0.0016915058 0.00096339406 0.00069578434 -0.00069099996 -0.0009411683 -0.00056983315 2.3541577e-05 0.0010158991
0.0012657087 0.002257678 -0.0014576948 0.0001533156 -1.7082239e-05 -0.00096585014 0.0022555918 0.000922729
0.001525054 -0.0007194059 -0.0028844606 0.002472785 0.00015649227 0.00051676086 -0.0012545736 0.0011650637
-0.0025438129 0.001843175 0.00020632161 -0.000237067 -0.000996537 -0.00052356365 0.00038203754 0.0007523876
-0.0009897029 -0.00089880417 0.00097492186 0.0015027486 -0.0013352295 -0.0011381553 -0.00117876 -0.00093024137
0.0023282585 -0.0016487548 0.00056253764 0.0011390131 -0.0019597365 0.0012164782 -0.0034674655 -3.9257153e-05
-0.0012333277 0.0014442517 0.0007733199 0.0009708781 0.00026713125 -0.0001064441 -0.0015452974 6.548006e-05
0.0015159834 0.0017798074 -0.0022381842 -0.0015473795 0.0013600372 -0.0016048398 -0.002148302 -0.0018574137
0.0007086192 -0.0005762316 0.00017903475 0.0008250389 -0.00291633 -0.0013916113 0.0028613398 0.0023254636
1.5999269e-05 0.00051536295 0.0007313048 0.0023608662 -0.0022215864 0.00031112254 0.0010848779 -0.0015846109

nn.block1.batch.running_mean f4 [96]
00000000: de12 b73e 6f38 4a3e 7406 683e 1504 423e
00000010: a592 ea3b 3a47 803c 0000 0000 dd3d c33e
00000020: 4b5f 833d 8071 9a36 e8e3 a83e bf0b d73d
00000030: 840d 3d3e c4c6 cf3d c7c1 8b3e 139b e13e
00000040: 9fd0 8c3e 5d38 783d 9b8b 0b3e 6dc1 9c3d
00000050: 2590 a13b 2f72 663d 269b 473e 358f 9c3d
00000060: 0e6a a13e a886 923d a59d dc3e 2f75 523c
00000070: 0c18 243e 9940 ce3e b20b cb3c db4b eb3b
00000080: 5005 143e 723a 353e 3510 c03e 860f 693e
00000090: e867 353e ce40 743e 618c be3e ad08 d13e
000000a0: 14fc 073f fae3 013f 4fd8 9b3e 7dae 2f3e
000000b0: e1d7 883e 862f f43d bf8a b53e 96b4 6a3e
000000c0: c0cb 3a3e 9cd2 6b3e 4451 db3e 3631 743e
000000d0: 45e5 6f3e 11bc da3e ef25 eb3e f816 953d
000000e0: a8d0 0c3d 86fc bc3c b0bb 673c d840 c83d
000000f0: dd9d bc3c a4d0 413e 4e17 3d3c dcf8 fd3e
00000100: 951b 733d 6335 b73e 0000 0000 21c9 2a3e
00000110: d205 c13c ba0a d13e 8ec9 013e 03ce 263e
00000120: c7a3 463d 51b1 203d d873 a33d 91c0 cb3e
00000130: eb3c 563e 075c a53c d0c0 6d3e 52b0 723e
00000140: 1319 703e 4f5f f03d 08e8 ed3e 1370 4c3e
00000150: c8fa 183e 3ab8 f23d 5795 5f3e efaf 4b3e
00000160: 1201 5d3d 3958 5d3e 1526 ca3d fb69 9a3d
00000170: 12a9 933e e6a5 e13e 311a 873e dd01 a33d
0.35756582 0.1974809 0.22658712 0.1894687 0.0071585947 0.015658963 0.0 0.38133135
0.0641466 4.602771e-06 0.3298638 0.10500287 0.18462187 0.101453334 0.27296278 0.44063625
0.27502915 0.060600627 0.13627474 0.076540805 0.0049305134 0.056261238 0.19492778 0.07644502
0.31526226 0.0715459 0.43089023 0.012845322 0.16024798 0.4028366 0.02478585 0.0071806735
0.14455152 0.17698076 0.37512365 0.22759828 0.17715418 0.23852846 0.37216476 0.40826932
0.53119016 0.5073849 0.30438468 0.17156406 0.26727203 0.11923127 0.35457417 0.2292045
0.18241787 0.2302956 0.42835438 0.23846897 0.23427303 0.42721608 0.4592738 0.072797716
0.034378678 0.023069631 0.014143869 0.09777993 0.023024494 0.18927246 0.011541201 0.49603927
0.059352476 0.35782918 0.0 0.16678287 0.023562346 0.40828496 0.12674543 0.16289525
0.048496034 0.039231602 0.0798108 0.39795354 0.20921676 0.020185484 0.23218083 0.23700073
0.23447065 0.11736929 0.46466088 0.19964628 0.14939415 0.11851545 0.21834312 0.19891332
0.0539561 0.21615686 0.09870545 0.075397454 0.28839928 0.44071883 0.2638717 0.0795934

nn.block1.batch.running_var f4 [96]
00000000: 8321 f63c e6a6 403d a821 a43d ccc0 9c3d
00000010: 0ee2 2e3a 6ffd 373b 0000 0000 305f 273e
00000020: 5e1e b23c 47dc 9333 748a 753e b521 1b3d
00000030: 31cb 953d b0b6 5c3d 8720 103e 2edd 233e
00000040: 10e8 d03d 6d0b 5b3c 3a64 7d3d 0d31 ab3c
00000050: d51e 203a bb5a 963c 718b ce3d b62d eb3c
00000060: cfb0 a03d 4325 3e3c 7261 123e 0cee b13a
00000070: 3905 f13d f660 2c3e af93 9c3b 536e 1c3a
00000080: 9afc c13d 047d 9f3d 4917 1a3e 11f8 da3d
00000090: 9571 fe3d a427 273d fc98 713e adcc ab3d
000000a0: b883 173f 0d44 503e 020d 393e fcc8 be3c
000000b0: e8b8 593e 1685 403d e2b3 373d 6696 0e3e
000000c0: fe42 b13d ce55 2a3e f2eb 433e 0bab 6e3e
000000d0: 8361 ff3d eaa9 653e 8314 403e c01b 213c
000000e0: d1c8 a23b b461 a63b 9b02 a03a f561 023d
000000f0: ae63 8a3b 3e2a b63d 5d84 823a 340f 2c3e
00000100: 38ec 9b3c f75d f73d 0000 0000 86c1 403d
00000110: c393 fa3b 14ba 213e f6cb 893c 235b 2f3d
00000120: b61b 4f3c 0bfb 4c3c 4c58 da3c 254e c23d
00000130: 5f4c 863d ee38 8a3b ee04 be3d 65f2 aa3d
00000140: c09c 163e 99bf 133d 3900 3b3e 8078 b03d
00000150: df8d 4f3d 600d 343d 833f 2e3d 011a f13d
00000160: beba 893c 0978 1d3e 4d14 f83c 0a8e ef3c
00000170: 5879 fd3d ada5 2f3e 55ea bd3d 5f88 fd3c
0.030045277 0.047034167 0.08014232 0.076539606 0.0006671258 0.0028074642 0.0 0.16344905
0.021742996 6.885289e-08 0.23978597 0.037873942 0.07314146 0.053885162 0.14074908 0.16002342
0.102005124 0.013369423 0.06186316 0.020897413 0.000610811 0.01835381 0.1008519 0.02870832
0.078462236 0.011605564 0.14294985 0.0013574972 0.11768574 0.16833863 0.0047783474 0.00059673673
0.09472008 0.07787517 0.15047945 0.10691846 0.12424008 0.04080929 0.23593515 0.08388648
0.5918536 0.2033846 0.18071368 0.023289196 0.21261942 0.04700192 0.044849284 0.1392456
0.08655356 0.16634294 0.19132975 0.23307435 0.12469771 0.22428098 0.18757825 0.009833276
0.004967787 0.005077565 0.0012207808 0.0318317 0.0042233085 0.08894776 0.000995766 0.16802675
0.019033536 0.12078469 0.0 0.04705956 0.007647009 0.1579364 0.016820889 0.042811524
0.012640884 0.012511025 0.026653431 0.09487561 0.065575354 0.0042182123 0.09278284 0.08347014
0.14708233 0.036071394 0.18261804 0.086167336 0.05067241 0.043958068 0.04254104 0.11772538
0.016812678 0.15377821 0.030283118 0.029242534 0.1237666 0.17153044 0.09273211 0.030948816

nn.block2.linear.weight f4 [256, 96]
00000000: dac7 e9bc 6c99 46bd db9c 783d b52b abbd
00000010: b8ca b03d 82bd fabc 6ffc 663d c73f 6c3d
00000020: 0bbc a13d 3e0a 973c afee 68bd 4119 403d
00000030: d413 203c 1053 153d 2e5e d5bb 9c95 533d
00000040: d339 8fbb 6d90 95bd d11e fcbb d573 5c3c
00000050: 2234 993c f42d 783d 3784 65bd 0f50 f7ba
00000060: 7ca7 bf3d a4c9 ca3d 3dfa c7bd e0dd 39bb
00000070: 83ac c53a f397 883d db14 d5bc 28cb b43d
00000080: 9b70 723c 5ade a13d c471 453d 81a6 40bd
00000090: 6292 02bd 86fd b4bd 8315 ccbc b73d a3bd
000000a0: f8ec a8bc 33f8 873d c35f 6b3d 7981 873d
000000b0: 719f f63c e8d2 bfbd 9dee ab3d e704 a33d
000000c0: 0fa3 003b c230 913d 5112 1ebc 757e 3a3c
000000d0: 81b3 a23d 7c23 243d 2572 d23d d48e 9d3d
000000e0: 7bd3 9abc 5412 cdbd 87d7 a03d 7f8d 27bd
000000f0: 2932 6dbd dfcd bebd 617f 17bd 6666 b03d
00000100: 1d6e 283d 7f75 5b3d 1597 ae3d fdda 933d
00000110: 0399 13bd 16c6 263d 0aeb c63b 83ad 873d
00000120: 9bdf 8f3d 63be a3bd 99c8 aa3d 1545 11bd
00000130: fd77 5bbd fe0c 3fbd dca0 5c3c a59b 9b3d
00000140: badc 80bd 81a4 4dbd 0679 bfbd c3bc 8e3d
00000150: 553c 18bd 2652 a0bd 7cf0 8abd 5359 c13d
00000160: 2341 5ebd f17c a63d 3137 12bd 3394 8d3d
00000170: 575d bbbd f021 a7bc 3fe9 4a3d 9aee 91bc
00000180: 0d2e a93c 69ed 2b3d 7b31 973c 72bc a93d
00000190: f56a 853d 88ba 44bc 5b07 ca3d 7cf1 c4bc
000001a0: b4d7 953d 87f2 b5bd 4e58 a2bd ceb0 8cbd
000001b0: 78f4 22bd 49c7 8f3d 7dc4 c63b 56c1 93bd
000001c0: fca0 8a3d 2a47 1f3d 708c 5e3d df3a 4a3c
000001d0: cde5 2f3d d308 66bd 6fdc 6f3d de70 6f3c
000001e0: 0dea 243d 829e 47bc 3cd0 853d 1080 6ebd
000001f0: 8c03 edbc 0bc8 943b ef34 273d 1b47 67bd
00000200: 6e13 ca3d 2409 003d d40b bebd f429 c23b
00000210: 4ef9 d43b bb62 3dbd bd88 463d 003b 883c
00000220: 44d0 3b3c 29e9 3d3d 8ae7 b33d 1b0a 3a3d
00000230: 3e08 403d 0dc5 9ebd a8e8 273d 8e57 9a3d
00000240: 6c38 4bbc 7779 c1bd 1d0f 97bd 8cac aebc
00000250: 7a78 453d 02e6 30bd e938 c3bc 0ee7 bfbd
00000260: 073a aa3d ae3c 58bd 9c36 a73d bb35 b33d
00000270: f158 83bd 03d3 94bd 575e 98bd b664 d93b
00000280: 0f02 7fbd 14f9 6a3d c966 8a3c 35e5 973d
00000290: fd05 80bd a304 953d b865 8d3d 5b51 a4bc
000002a0: a1a4 c13d 07ea 443c 0c0a 29bd 7d94 603d
000002b0: bcec bcbd 03c8 9bbd e2b2 a1bd ceb4 4f3c
000002c0: e99f 903c 1e39 b33d 3960 d2bd 9788 ddbc
000002d0: bdff 6abd 70e6 8b3d 7eb7 a23d 9222 cd3d
000002e0: deca 043d f69c 0a3d 3a90 aebc 121f 513c
000002f0: 1def 46bc 3dfe ad3d 0c6f c23c 7a3a 593c
00000300: 4169 963d 8a47 053d 0ccf 0e3d 795b 98bc
00000310: 663f a4bd 8e69 4c3d f25d b23c c3a9 123b
00000320: 0ffe bfbd eab0 b7bd 78a9 0ebd f9d8 bb3d
00000330: 1c2d 00bd 96b2 18bc 58eb dabc 9aa3 86bd
00000340: 0a09 8d3c 962c 94bc 5932 c93d 9949 b03a
00000350: 34bb c6bd 6703 8a3d af90 1bbd 11fb 253d
00000360: 8951 823d 63d6 babd 806c e43c 49fc 86bd
00000370: d5a5 f8bc 5b31 ddbc 3368 cebb b559 98bc
00000380: 2fb5 99bc 3836 bc3d f72d a3bd efb8 4f3d
00000390: f04d ec3b cbd0 913d 26c7 63bd 4b0a 4c3c
000003a0: 66ae 81bd 312c ad3c 79aa ce3d 61be c33c
000003b0: 8351 d33c 6b65 e83c 9e44 673d 9901 a03d
000003c0: 1836 25bb 8fb4 12bd 19a8 653d 30d0 b7bc
000003d0: b0eb fcbb dd4b 293c f701 6ebd 9187 87bd
000003e0: 459c 45bd d72d 273d 74f3 8ebd 423f 9b3d
000003f0: 0b0f b4bd 34a7 1b3d 16cf c5bd d179 0abd
-0.02853768 -0.04848616 0.060696464 -0.08357946 0.086324155 -0.030607942 0.056393083 0.05767801
0.078971945 0.018437501 -0.05686825 0.046899084 0.009770352 0.036456168 -0.0065114712 0.05165635
-0.004370907 -0.07302938 -0.0076941033 0.013455351 0.018701617 0.0605907 -0.056034293 -0.0018868464
0.09358117 0.09901741 -0.09764526 -0.0028361008 0.001508132 0.06669607 -0.026010921 0.088278115
0.014797355 0.07903738 0.0482042 -0.04703379 -0.031877883 -0.08837418 -0.024912601 -0.079707555
-0.020620808 0.06639137 0.057464372 0.06616492 0.030105324 -0.09366399 0.08395121 0.079599194
0.001962844 0.07089378 -0.009647922 0.011382689 0.07944394 0.040072903 0.102756776 0.07693258
-0.01889967 -0.100132614 0.078536086 -0.040906426 -0.057909165 -0.093166105 -0.036986712 0.08613281
0.041120637 0.05357885 0.0852491 0.07219503 -0.036034595 0.040716253 0.0060704993 0.066248916
0.07025071 -0.07995298 0.08339042 -0.035466272 -0.053581227 -0.04664325 0.013466086 0.07598046
-0.062921 -0.05020571 -0.09349255 0.06969597 -0.037166912 -0.078281686 -0.0678415 0.09440865
-0.054261338 0.081292994 -0.035697166 0.069130324 -0.091486625 -0.020401925 0.049538847 -0.01781397
0.020651842 0.04197446 0.018456211 0.08287896 0.06514541 -0.012007363 0.09864684 -0.02404093
0.07316533 -0.08884149 -0.07926999 -0.0686966 -0.039783925 0.070204325 0.0060659037 -0.0721461
0.067689866 0.038886227 0.05433315 0.0123431375 0.042943764 -0.05616076 0.05855983 0.014614312
0.04026227 -0.012183787 0.06533858 -0.0582276 -0.028932355 0.0045404485 0.040821966 -0.056464296
0.09866987 0.031258717 -0.092796 0.0059254114 0.006499446 -0.046236735 0.048470248 0.016629696
0.011463229 0.046364937 0.08784397 0.045419794 0.04688286 -0.07752428 0.040993363 0.07536231
-0.012403589 -0.09446996 -0.073759295 -0.021322511 0.0482106 -0.043188103 -0.023830848 -0.09370242
0.08311849 -0.052792244 0.08164713 0.08750483 -0.064134486 -0.0726681 -0.07439869 0.00663432
-0.062257823 0.057366446 0.016894715 0.07416765 -0.06251142 0.07276275 0.06904167 -0.020058325
0.094552286 0.012018687 -0.041269347 0.05482911 -0.09224841 -0.076065086 -0.07895447 0.012677385
0.017654376 0.087511286 -0.10272259 -0.02704267 -0.057372797 0.06831062 0.079451546 0.100163594
0.03242003 0.033841096 -0.021309007 0.012763755 -0.01214197 0.08495758 0.023734592 0.013258571
0.07344294 0.032538928 0.034865424 -0.018598305 -0.08019905 0.049905352 0.021773312 0.0022379018
-0.0937463 -0.089692906 -0.034829587 0.091722436 -0.03129302 -0.009319922 -0.026723549 -0.06574173
0.017216224 -0.018087666 0.09824056 0.0013449668 -0.09703675 0.0673893 -0.037979778 0.04052264
0.06363208 -0.09122922 0.027883768 -0.06591088 -0.030352512 -0.027001074 -0.0062990426 -0.018597463
-0.018763153 0.09190029 -0.079677515 0.050713476 0.0072114393 0.07119902 -0.055609845 0.012453626
-0.06332092 0.021139236 0.10091109 0.02389449 0.025795704 0.028368672 0.056461923 0.07812805
-0.0025209244 -0.035816725 0.056068514 -0.022438139 -0.007718526 0.010333029 -0.058107343 -0.06617654
-0.048244733 0.0408152 -0.06980029 0.07580425 -0.08791932 0.038001254 -0.09658639 -0.03380758

nn.block2.linear.bias f4 [256]
00000000: 31c5 e53c bae2 5ebd 9d4d 57bd 534d 3abb
00000010: 2c38 fa3a 6ece 8fbc ea7e 6b3d cdfc 0bbc
00000020: e75b cf3c 33ff a3bd fa6d cfbd 5811 1dbd
00000030: 4824 7c3d e73a 19bd cc37 a43a 2471 7cb9
00000040: d69f b4bd 1008 c5bd bbc3 033d 61c3 a6bc
00000050: b9c8 993d 86c9 a7bd dc42 b0bb bd69 913c
00000060: d3d7 f6bc f9b5 86bd b897 773c d577 7a3d
00000070: c453 e6bc cda8 44bd c3dd 1c3d 2e8a 5fbd
00000080: 3e00 533d aa5f 94bd aeda 90bb 354a ae3d
00000090: 481f 9ebd 913b b9bd c9f7 86bd 0f56 a2bd
000000a0: 8c38 bfbd fc81 993d e13c 773d fa94 5c3d
000000b0: fd12 d8bc ed41 323d 08d4 213b cac1 6a3d
000000c0: 93b4 e5b9 50db a13a 4200 54bd 6ee1 aebd
000000d0: cdfd 473d 2703 963d 4abe a5bd 28ab d3bc
000000e0: d7ca 5e3d 8463 fa3c 724a 3fbd bacb 9f3c
000000f0: 86c4 123d d096 33bd 19ab 41bd 387c cabb
00000100: 6f9b 58bd e6f4 27bd d5ea bf3d 91d4 2abd
00000110: f140 a4bc 93c9 62bd 9579 10bd 7a16 cf3d
00000120: 7e91 dcbc d320 9f3d 77ba 893d 7ae8 813d
00000130: 2055 bdbd d352 cc3d db02 a5bc 1a3a 1e3d
00000140: 6ce2 58bd 64e0 8ebd d803 e6bc 6e40 81bd
00000150: 63db 7c3a e74b 093d 0809 c53c c266 5cbd
00000160: e9da f53b 7a2e 763d af1d c6bd 05a4 503d
00000170: a114 b1bd 3a67 d8bc 17af 1abc 512b 483d
00000180: b729 81bd 7930 67bd e3b9 09bd d5f0 033c
00000190: b7aa 8abd accb 1dbd ee7d 933d 7583 283d
000001a0: 7280 9ebd fa0e d4bd d0d3 463d ea49 9bbd
000001b0: 1fda 98bd 9818 bdbd 6bbf 4cbd f4ca 4fbd
000001c0: a518 b5bd 6794 07bd 95a1 193d 13ae c6bd
000001d0: 4d8a 883d a8bd 88bd e56e 39bc 106c 89bd
000001e0: 0d16 3d3d 7844 6bbd 7139 863d 9515 823d
000001f0: 7e20 63bd 5d93 c4bd add2 753d 52c3 853d
00000200: b82d 6ebd 21d8 c53d 08bd 103c 9e21 9abb
00000210: 64bd a33d d593 17bd 2383 83bd 70df cb3d
00000220: 0de7 c63d 3549 90bd 5683 18bd 8ce8 c43d
00000230: 16d1 bcbb 0b78 ad3d 4f7e c13d c13f 80bd
00000240: d744 d2bc 6ef0 5b3d 3ab4 c1bd 42e6 a13d
00000250: 761a c23d fa4f d83c 128e 8dbd 02cd c8bc
00000260: 9fb7 683d a339 583c 88ac 85bc 1e1a 42bd
00000270: 712a 6abd b851 a1bd dfdf 5e3d 62e8 85bd
00000280: fdb9 44bc 03d5 2abd 74fe c9bd b261 443c
00000290: 203e a5bd b55c 8d3d ad18 b13d 4adf 573c
000002a0: 65f1 1dbd 956d 673c 36d9 6e3d 5c07 9e3c
000002b0: 6cf7 c3bd 1980 06bc e41e 093d bc51 17bd
000002c0: f7f2 42b9 a400 d73b 431b 503d 6d56 993d
000002d0: 9fa1 373d 7fbe 553d d330 9f3d 3c05 d33c
000002e0: 02a4 91bd e576 6dbc 3a13 30bd be37 abbd
000002f0: d079 6abd bf8d 91bd 546b b5ba d59b a8bd
00000300: d7c7 63bd 3ce2 983d 5cdf f3bc b370 2b3d
00000310: 5dea af3d 79a9 babb d95d 443d 232b b3bc
00000320: c80c adbd b983 7c3d 6212 91bd 58dd 93bd
00000330: dba0 49bc 99c9 9abc fb00 a43d 91fb bbbd
00000340: 3e6c 8c3d 4359 1fbd 0e14 b5bd 2e7a 99bc
00000350: c3d3 dabc d3f2 c1bc 90b1 0e3c f4a4 ba3d
00000360: 22ab 3f3d 0b1f 91bd cb91 bbbc 5840 89bd
00000370: 6727 ae3d 301e 04bc 87d7 cb3d 6e2a 2cbd
00000380: e536 bebd 1e9a 093d b62b f53b bda9 b43d
00000390: dd25 b93d 5a76 c43d ee59 583d f38f 85bd
000003a0: a7e8 6a3d 84a0 5b3b 4ee2 09bd 23f6 c8bc
000003b0: 7fe9 c43d 4a11 05bc 66e8 36ba 7254 993d
000003c0: 63f9 2ebd 4b35 a8bd 1d7a 143c 148c 3dbc
000003d0: 1d1a 99bd e05a cc3c bb90 77bd 8cd2 853d
000003e0: 790f 163d b4ed 52bd 9a5e 103d 7eae 583d
000003f0: 2b66 233d d3fc bc3d e4f4 7dbd 0a7f b13d
0.02804813 -0.054415442 -0.052564252 -0.0028427436 0.0019090227 -0.017554488 0.05749408 -0.008544159
0.025312377 -0.0800766 -0.10128398 -0.03834662 0.061558038 -0.03740969 0.0012528836 -0.00024074741
-0.08819549 -0.096206784 0.032169085 -0.020356836 0.07508988 -0.081927344 -0.005379064 0.017750615
-0.03013221 -0.06577677 0.015111856 0.061149437 -0.028116114 -0.048012543 0.038297426 -0.054575138
0.051513903 -0.07244809 -0.0044206 0.085102476 -0.0772081 -0.090445645 -0.0659023 -0.079265706
-0.09336957 0.07495496 0.060360793 0.053853013 -0.026376242 0.043519903 0.002469303 0.057313718
-0.00043812822 0.0012348685 -0.05175806 -0.08539091 0.048826028 0.0732482 -0.080929354 -0.02583845
0.054392662 0.03056503 -0.046701856 0.019506324 0.03583195 -0.043844998 -0.047282312 -0.006179359
-0.052882608 -0.041005038 0.093709625 -0.041706625 -0.020050498 -0.055368017 -0.0352722 0.10111709
-0.026924845 0.077699326 0.067250185 0.063431695 -0.09244752 0.09976735 -0.020142963 0.03862963
-0.052950308 -0.06976393 -0.028078005 -0.06311117 0.0009645728 0.03351965 0.024052158 -0.053808935
0.0075029028 0.060102917 -0.096736304 0.05093767 -0.08646513 -0.02641641 -0.009441159 0.048869435
-0.063067846 -0.05644271 -0.03362454 0.008053024 -0.067708425 -0.038524315 0.072017536 0.041140992
-0.07739343 -0.10354419 0.048541844 -0.07582457 -0.07463478 -0.092332065 -0.049987238 -0.05073066
-0.08842591 -0.033100512 0.037507612 -0.09701171 0.06667004 -0.06676799 -0.011317943 -0.067100644
0.046163607 -0.057438344 0.06553925 0.06351773 -0.05545091 -0.0959842 0.06001537 0.06531395
-0.05814907 0.09660364 0.008834131 -0.0047037145 0.07995108 -0.037006218 -0.06421497 0.09954727
0.09712038 -0.07045213 -0.037234627 0.09614667 -0.0057622297 0.08470162 0.094479196 -0.0626216
-0.025667591 0.05369609 -0.094582036 0.07905246 0.09477703 0.026405323 -0.069118634 -0.024511818
0.05681574 0.013197335 -0.01631762 -0.04738819 -0.05716938 -0.07876915 0.05441272 -0.06538464
-0.012007234 -0.04170705 -0.09862986 0.011986183 -0.0806849 0.06902448 0.08647285 0.013175795
-0.03856029 0.0141252475 0.058312617 0.019290619 -0.09568676 -0.008209252 0.033476725 -0.036943182
-0.00018591793 0.0065613557 0.05080725 0.074871875 0.04483187 0.052183624 0.07772984 0.025759332
-0.0711136 -0.014493679 -0.042987086 -0.08360241 -0.057245076 -0.07107114 -0.001384119 -0.082328476
-0.055610504 0.07465026 -0.029769592 0.041855525 0.08589623 -0.0056964722 0.047941063 -0.021871155
-0.084497035 0.061649058 -0.07083584 -0.07219952 -0.012306417 -0.018894957 0.080079995 -0.09178842
0.06856583 -0.038903486 -0.08841716 -0.018735018 -0.026712304 -0.023675358 0.008709326 0.091134936
0.046794064 -0.07085999 -0.022896668 -0.06701726 0.08503609 -0.008063838 0.09953218 -0.04203265
-0.09287814 0.033594243 0.0074820174 0.088214375 0.09040425 0.09592886 0.05282014 -0.06521597
0.05735078 0.0033512423 -0.033663087 -0.02453143 0.09614848 -0.008121798 -0.0006977379 0.0748681
-0.042718302 -0.0821329 0.009062317 -0.011569042 -0.07475684 0.024945676 -0.06044076 0.06534299
0.03663585 -0.051496223 0.03524647 0.052900784 0.039892357 0.0922791 -0.062001124 0.08666809

nn.block2.batch.weight f4 [256]
00000000: f22f 803f 0f1f 803f d018 803f 1fc5 7f3f
00000010: 903b 803f a79c 7f3f 861f 803f 55f5 7f3f
00000020: 55b3 7f3f 57e2 7f3f 26cf 7f3f 83fb 7f3f
00000030: b0f4 7f3f f3e3 7f3f 14a6 7f3f a8ba 7f3f
00000040: 04bd 7f3f f5a8 7f3f 7624 803f 7f15 803f
00000050: 9a18 803f 2896 7f3f 03f5 7f3f 3613 803f
00000060: d716 803f 7a63 7f3f b3bc 7f3f 9b11 803f
00000070: 5a15 803f f806 803f 1027 803f 3eaf 7f3f
00000080: 8c16 7f3f dfde 7f3f 38f4 7f3f 2906 803f
00000090: 8ee9 7f3f 59be 7f3f 1509 803f e8d0 7f3f
000000a0: f729 803f c95d 803f 1966 7f3f 0513 803f
000000b0: e510 803f 8912 803f 08ad 7f3f a6b4 7f3f
000000c0: 0d3d 803f d5de 7f3f 972e 803f 54f6 7f3f
000000d0: a8d7 7f3f 711a 803f 2a29 803f fa14 803f
000000e0: 559a 7f3f 8050 803f 0811 803f 4013 803f
000000f0: 46b1 7f3f 2cce 7f3f 55e9 7f3f 75ed 7f3f
00000100: 53f0 7f3f d118 803f f2a6 7f3f d035 803f
00000110: 0c94 7f3f fd78 7f3f 7027 803f 3c03 803f
00000120: 3fe3 7f3f 4f04 803f 8ab1 7f3f f884 7f3f
00000130: 8468 7f3f bc36 803f 80f0 7f3f cfea 7f3f
00000140: 65d8 7f3f 8c76 803f fa68 7f3f 944d 7f3f
00000150: 65fc 7f3f ac00 803f 69a1 7f3f bf33 7f3f
00000160: 8ee7 7f3f 42a1 7f3f 3405 803f b0d3 7f3f
00000170: 1504 803f 52db 7f3f 7ab8 7f3f 5442 803f
00000180: d605 803f c8b0 7f3f 74f8 7f3f 06f1 7f3f
00000190: 3d36 803f afb6 7f3f d00c 803f a10d 803f
000001a0: df15 803f 27e0 7f3f acf3 7f3f bafd 7f3f
000001b0: a603 803f df13 803f c3bb 7f3f 2c2c 803f
000001c0: 41de 7f3f 15a9 7f3f fd06 803f 7609 803f
000001d0: 1242 803f 3fbf 7f3f 2ec6 7f3f 5912 803f
000001e0: d2ea 7f3f b7cc 7f3f dc1b 803f 11d9 7f3f
000001f0: dd34 803f e640 803f 6513 803f ce59 803f
00000200: a0bc 7f3f 614a 7f3f bcf4 7f3f ab11 803f
00000210: 9a2e 803f 7923 803f 0ee1 7f3f 1ed4 7f3f
00000220: a008 803f d4f1 7f3f 80f1 7f3f 24f3 7f3f
00000230: 472d 803f 9916 803f 2206 803f 9cef 7f3f
00000240: 30d6 7f3f d0a9 7f3f cf2e 803f c02b 803f
00000250: 373e 803f 4479 7f3f 6b27 803f ec06 803f
00000260: 9d19 803f 37bb 7f3f bffb 7f3f 5101 803f
00000270: 4611 803f cc80 7f3f da7a 7f3f f42e 803f
00000280: d8c9 7f3f 26cb 7f3f 7630 803f fe23 803f
00000290: 0a14 803f eafd 7f3f faad 7f3f 3c0e 803f
000002a0: 2d1b 803f 2306 803f 22ef 7f3f e2f4 7f3f
000002b0: 6e21 803f e421 803f adfb 7f3f ef01 803f
000002c0: 7e33 803f f82b 803f a823 803f 70f6 7f3f
000002d0: cad2 7f3f 9bda 7f3f d20b 803f 2525 803f
000002e0: d303 803f 611a 803f 8acb 7f3f 2915 803f
000002f0: d407 803f f9c3 7f3f e702 803f d017 803f
00000300: 17c9 7f3f 1211 803f 38c7 7f3f 8bc7 7f3f
00000310: aa1a 803f 532a 803f 470c 803f 8df6 7f3f
00000320: bceb 7f3f ad14 803f fa1c 803f 8ba1 7f3f
00000330: 57c9 7f3f 6fcd 7f3f 8bcc 7f3f f116 803f
00000340: ad0b 803f 1516 803f 1602 803f aa7f 7f3f
00000350: d642 803f 7ab6 7f3f e309 803f af04 803f
00000360: 8a1d 803f 8ae7 7f3f 6cb8 7f3f 9f07 803f
00000370: 991a 803f f4d3 7f3f 0910 803f 4427 803f
00000380: e02a 803f 9563 803f 7a54 803f 7f24 803f
00000390: ccfa 7f3f 3a37 803f a0e7 7f3f 91b5 7f3f
000003a0: ccfa 7f3f 8918 803f 1a14 803f 7dd2 7f3f
000003b0: 6b51 803f 3a0c 803f 3b1a 803f e801 803f
000003c0: a3fe 7f3f 56a7 7f3f 33b5 7f3f 9a7b 7f3f
000003d0: 65db 7f3f 67df 7f3f 46e6 7f3f 570a 7f3f
000003e0: 6602 803f f60b 803f 4ba8 7f3f fbae 7f3f
000003f0: 9a57 803f 1cef 7f3f 0ba6 7f3f 4e26 803f
1.0014632 1.0009478 1.0007572 0.9991016 1.0018177 0.9984841 1.000962 0.9998372
0.99883014 0.9995474 0.9992546 0.9999315 0.9998274 0.999572 0.9986279 0.9989419
0.9989779 0.9986718 1.0011127 1.000656 1.0007508 0.99838495 0.99983233 1.0005863
1.000697 0.99761164 0.9989731 1.0005373 1.0006516 1.0002127 1.0011921 0.99876773
0.9964378 0.9994945 0.99982023 1.000188 0.9996575 0.9989982 1.0002772 0.9992814
1.0012807 1.0028621 0.99765164 1.0005804 1.0005156 1.0005656 0.998734 0.9988502
1.0018631 0.9994939 1.0014218 0.9998524 0.9993844 1.0008069 1.0012562 1.0006402
0.99844867 1.0024567 1.0005198 1.0005875 0.9987987 0.9992397 0.9996541 0.99971706
0.9997608 1.0007573 0.99864113 1.0016422 0.99835277 0.9979399 1.0012035 1.0000987
0.99956125 1.0001315 0.9988028 0.9981227 0.99768853 1.0016704 0.9997635 0.99967664
0.99939567 1.0036178 0.99769557 0.9972775 0.999945 1.0000205 0.9985567 0.99688333
0.999627 0.99855435 1.0001588 0.99932384 1.0001246 0.9994403 0.99890864 1.0020242
1.0001781 0.9987912 0.99988484 0.9997715 1.0016552 0.9988813 1.000391 1.0004159
1.0006675 0.99951404 0.9998119 0.9999653 1.0001113 1.0006064 0.99895877 1.001348
0.9994851 0.99867374 1.0002133 1.0002887 1.0020163 0.99901193 0.99911773 1.0005599
0.9996768 0.99921745 1.0008502 0.9994059 1.0016133 1.0019805 1.0005919 1.0027406
0.99897194 0.9972287 0.9998281 1.0005392 1.0014222 1.0010825 0.9995278 0.9993304
1.0002632 0.99978375 0.99977875 0.9998038 1.0013818 1.0006896 1.0001872 0.9997499
0.999362 0.9986849 1.0014285 1.0013351 1.0018986 0.9979441 1.001203 1.0002112
1.0007817 0.9989504 0.9999351 1.0000402 1.0005271 0.99805903 0.9979683 1.0014329
0.99917364 0.99919355 1.0014789 1.0010984 1.0006115 0.9999682 0.9987484 1.0004344
1.0008293 1.0001873 0.9997426 0.99983037 1.0010202 1.0010343 0.999934 1.000059
1.0015714 1.0013418 1.0010881 0.9998541 0.99931014 0.9994294 1.0003607 1.0011336
1.0001167 1.000805 0.9991995 1.0006458 1.0002389 0.99908406 1.0000886 1.0007267
0.99916214 1.000521 0.9991336 0.99913853 1.0008137 1.0012916 1.0003747 0.9998558
0.9996908 1.000631 1.0008843 0.9985587 0.99916595 0.9992284 0.9992148 1.0007001
1.0003563 1.0006739 1.0000637 0.99804175 1.0020397 0.9988781 1.0003017 1.0001429
1.0009015 0.99962676 0.9989078 1.0002326 1.0008117 0.9993279 1.0004894 1.0011983
1.0013084 1.003039 1.002578 1.0011138 0.9999206 1.0016854 0.99962807 0.99886423
0.9999206 1.0007488 1.0006135 0.99930555 1.0024847 1.0003731 1.0008005 1.0000582
0.9999792 0.9986471 0.99885863 0.99797976 0.99944144 0.9995026 0.99960744 0.9962515
1.0000732 1.000365 0.9986617 0.99876374 1.0026734 0.99974227 0.99862736 1.001169

nn.block2.batch.bias f4 [256]
00000000: cd83 2fba 8de7 a0b9 fcbb 89ba 76f3 163a
00000010: 9251 0d38 3d3a 13ba 897a 5eba b20f c23a
00000020: 261f b9ba c66d 86b9 d34c f339 16db 8aba
00000030: 8a9a 8039 615d 8d3a e06b 76ba 7a58 103a
00000040: 3a99 e73a 0336 cf3a 435c 46ba 8724 1b38
00000050: bb3c ab39 8368 abb9 c635 9d39 2a57 bb3a
00000060: f9df 0e38 29f8 3c3a b348 8ab9 e81f 1f3a
00000070: 365b ac37 6d14 473a f3ce a83a 5348 a5ba
00000080: ca83 813a d6a3 b639 dc67 353a 59af 6a3a
00000090: 458d 67b9 a832 6439 edfe f239 728e cfb9
000000a0: 3789 56ba 616f be38 9ef8 6cba f91c b938
000000b0: d15c b2b8 efd8 28ba c70b ee39 b76b 77b8
000000c0: 6cbf e2b3 c801 d3b9 2445 30ba c004 5fba
000000d0: 3c50 0dba 1ffe 8e39 8327 94ba b3e0 06ba
000000e0: b006 4b3a 1054 f738 67ee 64ba 9022 73ba
000000f0: b88c 2eba 45d5 a4ba 668a 3e3a 631e 643a
00000100: cc56 a4b6 f015 e339 f767 8739 4038 fa39
00000110: 26ef 5139 68b3 613a 76bd deba 9007 15ba
00000120: 4d6b dc39 6596 f5b8 5368 4a39 433d b137
00000130: 3df6 2dba 2f5d dd39 705d 02bb ae97 2839
00000140: 65b4 fcb6 d67d 04bb c2f0 c4b9 afae 8d3a
00000150: 3a96 e037 ab0d a5ba b58f ca39 16bf ff39
00000160: faef 87ba deb3 ccba 18c5 eeb9 f336 d5b9
00000170: 48d3 63ba 5d8d c539 8057 2139 8484 6dba
00000180: 4b85 3639 e4b1 a8ba 9907 483a 50ec 143a
00000190: d7a2 10ba 7432 96b9 a9bb 183a 693e 55ba
000001a0: aa77 573a 0cf1 3bba 5176 8dba be04 d3b9
000001b0: e627 dcb9 fee3 6939 437c 613a 6b41 81ba
000001c0: 1595 bc3a 399c c4ba 194c 723a c8b7 62ba
000001d0: 5392 853a 3952 76ba 7fa0 0e3a 7121 8bb7
000001e0: 59aa 15ba 83b2 7339 173d 2a39 b433 6c3a
000001f0: 8414 f039 9b62 59ba e0c2 693a 96c9 8539
00000200: d2c6 0139 f515 a839 7c18 023a 155b e43a
00000210: fcc2 d9b8 f1d3 d339 6ee4 7fba e2f5 57ba
00000220: 777a 8bba f2bc fc38 e0cd e1b7 5452 d4b9
00000230: ce95 d23a bd62 203a 82d3 943a 9ed2 c83a
00000240: 9aee 1cba 9676 82b8 05dd 83ba e605 8cb9
00000250: c86e 18b9 1e56 8bba e733 8fb9 a99d 9aba
00000260: e559 093a e169 97ba 4d4f 0bba 5d93 133a
00000270: 0dc3 99ba 6b7b b5b9 2301 353a af48 793a
00000280: b3f2 c73a 9014 a039 64a5 d2b9 1d5d 213a
00000290: 7a60 aeb9 20d2 b4ba 9945 4938 9b90 f03a
000002a0: a7ce 49b8 a711 1d39 135e 5c3a 68ee 0dba
000002b0: e88b 73ba 8c64 a23a 9268 9b3a 8e77 513a
000002c0: 5c5d 5bb9 5e11 053a 088c 98b9 f7e9 6639
000002d0: d066 f63a be0e e537 d137 4e3a 6695 5cba
000002e0: 6d58 8639 c0c2 68b9 278c aaba 7938 8c3a
000002f0: bbf0 1db9 e3e2 e5b9 2d80 8b3a daa3 d339
00000300: 0b5a 9d3a cf6e 7138 5492 85b9 5534 663a
00000310: 3ec4 bd3a 814d 683a 7510 083a 2e58 d239
00000320: 7d60 38ba 218e abb9 5537 a7ba fbfd cd3a
00000330: eefc bd39 3741 f838 ca42 00ba bfc9 1639
00000340: bd0e 9fba 7b48 003a 7806 b5b9 b350 213a
00000350: 5679 503a d7b9 5eba 00dc 25ba 92f2 ecb9
00000360: 6207 053a d580 b9b9 7c0b ac3a 5a2c 8aba
00000370: e053 e9ba f8b6 953a a143 23b8 a4be 8a3a
00000380: 5dd7 493a bc4b 443a f089 a4ba 31dc 32b9
00000390: efaa a13a 80ef e0b9 86d4 f8b9 ae7b d239
000003a0: 4192 e738 199f e638 f68e 083b 43ad 69b9
000003b0: 250e c33a 5809 a2ba 8273 c23a 76bd aeb9
000003c0: a8ff 0eba b3bd fab9 7511 cab9 0564 2d3a
000003d0: 4dd5 38b9 7fdd 5cba 52e3 3db8 d8fa f6b9
000003e0: 3399 063a 791b 913a 80cf 5139 aaa2 59ba
000003f0: 5fad 6fba fad0 40ba 919d aaba f23e e6b7
-0.000669536 -0.00030690097 -0.0010508294 0.00057583244 3.3692988e-05 -0.0005616283 -0.0008486887 0.0014805703
-0.0014123663 -0.0002564026 0.0004640581 -0.0010593857 0.00024529203 0.0010785275 -0.000940023 0.0005506348
0.0017669566 0.0015808943 -0.00075668487 3.69889e-05 0.0003266091 -0.0003269353 0.00029985438 0.0014292945
3.406403e-05 0.00072086096 -0.00026375576 0.0006070123 2.0546471e-05 0.0007594291 0.0012879058 -0.0012610055
0.0009881195 0.00034835812 0.00069200783 0.00089525204 -0.00022082504 0.00021762645 0.0004634777 -0.00039588247
-0.0008183899 9.080652e-05 -0.00090397324 8.826884e-05 -8.50499e-05 -0.0006441017 0.00045403672 -5.8989706e-05
-1.05587645e-07 -0.00040246383 -0.000672417 -0.00085074827 -0.0005390679 0.00027273686 -0.0011303279 -0.0005145177
0.0007744832 0.00011793536 -0.00087330345 -0.00092748646 -0.0006658542 -0.0012575766 0.0007268548 0.0008702038
-4.8976854e-06 0.0004331316 0.00025826666 0.00047725625 0.00020020883 0.00086098025 -0.001699372 -0.0005685026
0.00042041615 -0.000117105235 0.00019303085 2.1128571e-05 -0.00066361186 0.00042221832 -0.001989212 0.00016078234
-7.531186e-06 -0.0020216606 -0.00037563412 0.0010809506 2.6772836e-05 -0.0012592574 0.00038635512 0.0004877976
-0.0010371201 -0.001561757 -0.00045541744 -0.00040667466 -0.0008690846 0.00037680092 0.00015386753 -0.0009060579
0.00017406528 -0.0012870398 0.00076305267 0.0005680965 -0.0005517429 -0.0002864782 0.00058263034 -0.0008134605
0.00082194305 -0.00071694027 -0.0010792707 -0.0004024859 -0.00041991397 0.00022305545 0.0008601585 -0.0009861415
0.0014387692 -0.0015000171 0.0009242907 -0.00086486014 0.0010190703 -0.00093964074 0.0005440786 -1.6585664e-05
-0.00057092827 0.00023240787 0.00016235221 0.000901039 0.00045791653 -0.00082925864 0.0008917283 0.0002551793
0.00012376465 0.00032059816 0.0004962755 0.0017422164 -0.00010383685 0.00040402965 -0.00097615167 -0.00082382385
-0.0010641356 0.0001205149 -2.6917958e-05 -0.0004049713 0.0016066374 0.0006118229 0.0011354538 0.0015321558
-0.0005986482 -6.2209714e-05 -0.0010060376 -0.00026707276 -0.00014537119 -0.0010630523 -0.00027313756 -0.0011796254
0.00052395306 -0.001155194 -0.0005314246 0.0005629564 -0.0011731103 -0.00034614964 0.00069047714 0.0009509427
0.0015254825 0.00030532898 -0.00040177547 0.00061555376 -0.00033259747 -0.0013795532 4.7986952e-05 0.0018353643
-4.8114594e-05 0.00014979263 0.0008406352 -0.00054142484 -0.0009290562 0.0012389584 0.0011856726 0.00079905323
-0.00020920247 0.0005076135 -0.0002909603 0.00022021668 0.0018798951 2.7305792e-05 0.00078665937 -0.0008414596
0.00025624354 -0.00022197794 -0.0013011739 0.0010697983 -0.00015062366 -0.00043847327 0.0010643058 0.00040367135
0.0012004984 5.7562076e-05 -0.0002547676 0.0008781602 0.001447804 0.00088616466 0.00051904406 0.0004012002
-0.0007033421 -0.00032721556 -0.0012757579 0.0015715951 0.00036237336 0.00011837709 -0.0004892765 0.00014380271
-0.001213513 0.0004893613 -0.0003452783 0.0006153688 0.0007952651 -0.000849632 -0.0006327033 -0.00045194157
0.00050746475 -0.00035381937 0.0013125981 -0.0010541782 -0.0017801486 0.0011422327 -3.8925213e-05 0.001058538
0.0007699633 0.0007488092 -0.0012553316 -0.0001705743 0.0012334267 -0.0004290305 -0.00047460588 0.0004014647
0.0001104218 0.00010996889 0.0020837164 -0.00022285157 0.0014881535 -0.0012362404 0.0014835449 -0.00033329026
-0.0005454966 -0.00047825053 -0.0003854145 0.00066143303 -0.00017627068 -0.00084253395 -4.527282e-05 -0.0004710767
0.0005134523 0.001107081 0.00020009093 -0.0008302132 -0.0009142961 -0.00073553587 -0.0013016929 -2.7447448e-05

nn.block2.batch.running_mean f4 [256]
00000000: 39cf 603e 67dd 423e e988 923e 04da b63d
00000010: 4297 a63e e15b 2f3e 3934 843e 6b84 763e
00000020: 0f8a 283e 5662 113e c70a c13d 93d7 c93d
00000030: eb6e 5e3e 3d06 443e a204 253e 9d04 1b3e
00000040: 4c94 163e 33eb bd3d bfc0 353e 39dc 5a3e
00000050: ac9b 833e 73ac 143e 825f 693e d0ef 953e
00000060: 5d77 fb3d 8d8d 8a3e 06e4 423e 62fa 833e
00000070: f14f 843e 8ad3 853e 9097 8c3e 0078 583e
00000080: 4fbe 6e3e 1a68 463e ce59 723e 2f18 923e
00000090: c3a1 033e 95c3 093e 82cb 403e 9e08 123e
000000a0: 7c95 143e dca7 ba3e af13 043e b6ec 143e
000000b0: 8f0e 0b3e aa60 203e 1112 4a3e c7ac 803e
000000c0: d1d2 543e 151e 1c3e bf2d 803e 6457 433e
000000d0: 3fc5 8d3e ec67 3f3e b357 d13d 4de8 443e
000000e0: ec7a 753e d602 933e c060 fa3d b2dd 813e
000000f0: 7daa 643e 8186 463e e1d6 383e 682e 8d3e
00000100: 7dae e63d 1684 503e df59 633e b384 373e
00000110: 6154 053e 40b3 0e3e 96f6 263e aeaa 503e
00000120: 4105 913e bcf4 ae3e 3a5f 493e 77f7 673e
00000130: 8398 6e3e f048 4f3e d12a 1a3e 219b 5a3e
00000140: ddcb 933e 18ad 4f3e 8bf0 4d3e 230b 3a3e
00000150: 9ebe 8f3e 0371 403e 0a5c a13e 3427 563e
00000160: d7b6 323e 6b5f 243e 3f92 593e 2347 363e
00000170: caea c83d 3a6c 073e 85d8 7f3e 3635 ab3e
00000180: e6b2 773e 2b6b 123e 6824 5b3e f132 6c3e
00000190: 0ac0 263e 85fc 313e 5193 8c3e 6f3c 663e
000001a0: e3b6 753e 5708 503e 06f6 363e 8402 ce3d
000001b0: a770 923e 145e 0e3e c933 2f3e 5584 183e
000001c0: 41d3 a73d 0ae7 5b3e 6139 963e 1a2f 7c3e
000001d0: 9473 763e f598 033e ba28 213e c67c 5f3e
000001e0: 21f2 863e 6aa8 133e ccff 4a3e 1d5c 543e
000001f0: 2132 5b3e 80fd d33d 61ba 443e 9362 ae3e
00000200: 1444 0d3e fcbb 7f3e db7d f43d d09d 223e
00000210: 3d74 163e ed4c a33e cf93 613e 8527 8c3e
00000220: fe56 613e 5251 753e 0ce7 af3d 5aac 573e
00000230: fa0e 513e a43a 893e e300 873e 90bc fc3d
00000240: 94af 913e 861c 413e 74b1 903e 65c7 b23e
00000250: 81fb 8d3e d612 403e b8c6 353e 12c2 2e3e
00000260: a921 583e e679 a43e 87eb 253e f407 4e3e
00000270: 23f8 983e bfd5 873d 9875 383e 7946 c33d
00000280: 12bb 693e 6756 423e 76e2 313e 803f 743e
00000290: c0a0 893e f873 9c3e 74b3 973e 2b54 aa3e
000002a0: 1847 263e 2071 313e 1c40 373e ad51 413e
000002b0: d63b 523e c0f3 3d3e 3270 d33d 695d de3d
000002c0: 7e5f 203e 8438 543e 1b87 413e dc70 6b3e
000002d0: 0fff 253e 6ee7 833e 5417 953e 833b 9a3e
000002e0: cfa9 2d3e 7fcb 8b3e 1ae3 5e3e 5103 123e
000002f0: 1b42 5f3e 3951 c83d 8555 843e 6773 013e
00000300: 6952 7a3e ecc2 823e 341f 503e 60f9 683e
00000310: 6ed7 933e 61a1 313e af52 7e3e 86fd 393e
00000320: 3ceb d53d 9b82 cc3e d0ce 753e 9b1b 313e
00000330: 0a76 453e d441 593e 258f 853e af57 523e
00000340: f904 243e 91f5 183e 461c 2f3e 1443 6b3e
00000350: 22af 513e eda2 1b3e c0f4 493e 6674 aa3e
00000360: fd06 8d3e 4365 403e bb15 063e 6b64 473e
00000370: 83fd 933e 25c1 5c3e 443a 693e 14dd 523e
00000380: 1639 663e ea56 333e 8216 943e 259b c83e
00000390: c549 873e 3149 a93e aa54 8f3e 8038 923e
000003a0: 11c6 793e f846 773e 4206 133e 31c4 a93e
000003b0: 693e b93e e102 243e 238c 003e 2ad4 963e
000003c0: b0e6 5d3e 4af7 323e 92f0 dd3e 86b1 643e
000003d0: ddb0 173e 07e5 5e3e 5cb0 833e 8f90 893e
000003e0: e110 a93e 8e07 b43e 51a2 393e 7d64 503e
000003f0: b74b b13e 40f7 7e3e f8b9 a73e 1d5b 763e
0.21954049 0.19029771 0.2862008 0.08928302 0.32537276 0.17124893 0.25821093 0.24073951
0.16458915 0.14197668 0.09425884 0.09855571 0.21722 0.19143005 0.16115049 0.15138479
0.14705008 0.09273376 0.17749308 0.21373071 0.25704706 0.14518909 0.2279034 0.29284525
0.12278626 0.2706112 0.19032297 0.25776964 0.2584224 0.26137954 0.27459383 0.21139526
0.23314784 0.19375649 0.2366707 0.28534076 0.12854676 0.13453515 0.18827632 0.142611
0.14510149 0.36456192 0.12898134 0.14543423 0.13579772 0.15661874 0.19733454 0.2513182
0.20783545 0.1524585 0.25034901 0.19076306 0.2768955 0.18691987 0.102218054 0.1922924
0.23972672 0.287131 0.12225485 0.25364453 0.22330661 0.19387247 0.1805072 0.27574468
0.1126375 0.20362887 0.22202252 0.17921714 0.13020469 0.13935566 0.16305003 0.20377609
0.2832432 0.34171093 0.19665232 0.22652994 0.23300366 0.20242667 0.15055396 0.2134824
0.28866473 0.20280874 0.20111291 0.18168311 0.28075117 0.1879311 0.31515533 0.20913392
0.1745256 0.16052024 0.21247195 0.17800574 0.098104075 0.13224879 0.2498494 0.33439034
0.24189338 0.14298694 0.21400607 0.23066308 0.16284195 0.17381485 0.27456143 0.22483991
0.23995547 0.20315681 0.17867288 0.100590736 0.28601572 0.13903075 0.17109598 0.1489423
0.0819459 0.21474853 0.29340652 0.24627343 0.24067527 0.12851317 0.15738192 0.21824941
0.26356605 0.14419714 0.19824141 0.20738263 0.21405841 0.10351086 0.19211723 0.3405958
0.13795501 0.24974054 0.119380675 0.15880513 0.14692779 0.31894627 0.22029041 0.273739
0.22005841 0.23956802 0.085889906 0.2106184 0.2041587 0.26802552 0.26367864 0.12340653
0.28454268 0.18858537 0.28260386 0.3491775 0.27730945 0.18757185 0.17751586 0.1706622
0.2110659 0.3212425 0.16203128 0.20120221 0.29876813 0.06632566 0.18013608 0.09534926
0.22825268 0.18978272 0.17371544 0.23852348 0.26880455 0.30557227 0.296291 0.3326734
0.16238058 0.1732831 0.1789555 0.18878813 0.20530638 0.18550014 0.10324134 0.1085766
0.15661427 0.20724684 0.18899195 0.22992271 0.16210578 0.25762504 0.2911936 0.3012353
0.16959308 0.27303693 0.2176632 0.14259078 0.21802561 0.09781117 0.25846496 0.12641679
0.244455 0.2553934 0.20324403 0.22751379 0.28875297 0.17346717 0.24836229 0.18163118
0.10445258 0.39943394 0.24004674 0.17295687 0.1928331 0.21216518 0.26085773 0.20541261
0.16017522 0.14937426 0.17100629 0.22974807 0.20476964 0.1519887 0.19722271 0.3329193
0.27544394 0.18788628 0.13094227 0.194719 0.28904352 0.21558054 0.22776133 0.20592147
0.22482714 0.17513624 0.28923422 0.39180866 0.2642347 0.33063653 0.2799428 0.2855873
0.24391963 0.24148166 0.14357856 0.33157495 0.36180428 0.16016723 0.12553458 0.29458743
0.21670032 0.17477146 0.43347603 0.22333345 0.14813562 0.21767054 0.2572049 0.26868102
0.3302069 0.35162014 0.18128325 0.20350833 0.34628078 0.24899006 0.3275907 0.24058194
