statedicts/pl_statedict_db_2022-05-02_T1_P0_R1_s1_seed_2.ckpt (torch, 193785 bytes, 29 tensors)

nn.input_batch.weight f4 [5]
00000000: a87b 823f ef0e 803f 6730 7b3f 3078 7e3f
00000010: 33d7 7f3f
1.0193987 1.0004557 0.9812073 0.9940214 0.9993774

nn.input_batch.bias f4 [5]
00000000: 5671 3a3a f013 06bc 2170 b3ba 162b 22bc
00000010: 62c9 78ba
0.0007112225 -0.008183464 -0.0013690033 -0.009897968 -0.00094904576

nn.input_batch.running_mean f4 [5]
00000000: d68a 2e40 3c81 853d fa9a 4140 8b8f 3840
00000010: 0823 133e
2.7272239 0.0651879 3.025084 2.8837612 0.14368832

nn.input_batch.running_var f4 [5]
00000000: a030 1d39 9b89 8a33 e092 e73a 5149 d239
00000010: 29e3 f139
0.00014990801 6.451156e-08 0.0017667674 0.00040108946 0.0004613635

nn.block1.linear.weight f4 [96, 5]
00000000: 5a40 a3be f9b9 debd d52e 973d 5e0d e53e
00000010: 3d6a cdbd ba72 d93e aa70 c13d a0e8 c8be
00000020: b2c6 54be e3b8 953e 3b39 debe e32b 863e
00000030: 002f 56be 6138 36be ef5f 3abe 7462 59be
00000040: 98b1 71be fe99 9f3e 613a d5be 8e1a 2e3e
00000050: 2d29 9b3e 70dd 61be 4664 48be 5c44 79be
00000060: dcfb 193e ba73 1f3e 996a 7bbe deb9 ef3d
00000070: 7729 2dbe 1d76 d33e 5ff3 6fbe 2db0 093e
00000080: a086 de3e 63cf 913e 29cd a23e 0445 143d
00000090: e99d 543e 3781 b8be aee4 e5bd 633f ccbe
000000a0: 7a02 84bc b573 ac3e f05f b1be 8a58 fa3b
000000b0: 30bd 093e 926d cfbe 3e68 fdbd 2293 a4be
000000c0: af48 ddbe 55e3 9bbe 33dd cebd bfc7 c03d
000000d0: 8681 d13e d00b dfbe fe1b c4be 0da9 12be
000000e0: 7b28 4d3e 4098 193e 7a16 b3bd 696e 8cbe
000000f0: f7fa 77be 2ca9 babd 7110 18be c217 e0be
00000100: f982 c9be 8796 d0be e432 14be 4b6b 66be
00000110: f3bf dc3e 1d7f 333e b7ce c33e 4dea c8bd
00000120: de3c f73d 71e0 c8bd d67d 80be b875 cebe
00000130: d4f9 bdbe d46a 7cbe 13c2 37be 0038 52be
00000140: bb8d 4bbe f8f8 643e 7194 08be a735 91be
00000150: 0230 4c3c fa92 18be 44bc 7abe f4d1 d4be
00000160: 24f9 cebd 66c7 5cbe c9b0 b03e a83b 10be
00000170: 679f a83e 79ff 85be b08b 6b3e f3d4 953e
00000180: f7aa 5fbe d55a 6ebe bdbc 1cbd d9b2 97bc
00000190: a09a 12be b083 8d3e e816 e03d 1066 97be
000001a0: 3c7e 2b3e f272 7e3e 8a09 4b3e e4cd 1b3e
000001b0: 6598 07be e934 c93d b616 db3e d8db 8ebe
000001c0: 57b4 61be 8234 27be 1bba b7be 61a6 dbbe
000001d0: ec88 933e ceed a23e 2f39 193e bc8b 52be
000001e0: 6a19 b4be 4422 35be 08a8 c1be ca72 623e
000001f0: f938 99be 1764 d6bc a963 5abe 69f3 173e
00000200: 69dd b5be 69b4 85be 17e2 683e e5ef b2be
00000210: f9a6 d5bd 0d0d d13d 5c47 953e 69d4 a73c
00000220: 30f2 693e d48d 783e 4222 be3e 7ae8 d93d
00000230: 3e3e c8be 1b07 f83d 2d6b b3be e62a 773e
00000240: ef6d 9cbe a704 d5be 9727 d23e cb16 ba3e
00000250: 4da6 45be 97b8 b53e ba6b 093d a733 cabe
00000260: 0f1d 8b3c 006d 7e3e e6f7 e4be cd2a 87be
00000270: bcdc d2be ef2d 03be e856 7fbd b79b d9be
00000280: a249 9dbd 11c6 e73d f528 1cbd 8dab c83e
00000290: 787c 003e f6b9 d0be 5187 783e ac20 45be
000002a0: 467d d2bd 2435 353d 46c2 423e 77e7 c0be
000002b0: 3f28 15be f6a5 b0be a22f 0d3e 4dbf bfbe
000002c0: 4ee5 81be 89eb cb3d c19d b93e 10b3 17bd
000002d0: a1da e1be 455e 02be 0638 a8be eb41 893d
000002e0: c6dd dcbe b8f9 813e 1d88 bb3d 3957 07bd
000002f0: 47a5 79be 5614 cc3e 71ba fe3d 62a9 4a3e
00000300: 28d1 fabc de6e 7bbe deac 5dbd 542a b23e
00000310: 9824 423e 04a0 a43e d50c 1dbe 4b41 c4be
00000320: 7842 43be 9da0 5bbe 68d8 e23e 1263 af3e
00000330: 35ae 7b3c 0c66 14be a878 56be 8df9 7a3d
00000340: f606 b1be 3024 abbc 5c51 c0be 15f6 f93d
00000350: 796d a6be bcd3 8dbd 3f05 16be d8f0 b8be
00000360: a223 783e 2fc2 99be 4282 4ebe 8ff4 90be
00000370: 8587 523d 5e7d 9bbe d1ed 863e cb0f 683e
00000380: f8e1 bdbe c7a4 a33e 49f7 8c3d 5bf8 bfbe
00000390: c578 d8bc 7800 2ebe f383 6abe e20c bc3e
000003a0: 139d 073d 23f5 b9bd 1b39 a83e 0d8d 433e
000003b0: 077b dabe 9351 6fbe 7f32 223d 81ac 98be
000003c0: b705 c2be 750f 8e3e c55d d3be 465b d1bd
000003d0: 207e 883e aa71 883e 0a95 a8be 71b5 593d
000003e0: 6624 b7be 28ea 983e 9952 c13d 30f8 61be
000003f0: 0c13 c53c c08c bd3e 1cd9 0abc 51f3 2dbe
-0.31885034 -0.10875315 0.073819794 0.4473676 -0.10030029 0.42470342 0.09445317 -0.3923998
-0.20778921 0.2924262 -0.43403038 0.26205358 -0.20916367 -0.17794944 -0.18200658 -0.21228963
-0.23602903 0.31172174 -0.41646102 0.17002317 0.30304852 -0.22057128 -0.19569501 -0.24342483
0.15037483 0.1557149 -0.24552383 0.11705373 -0.16910349 0.4130105 -0.23432682 0.13446112
0.43462086 0.28478536 0.3179715 0.03619863 0.20763363 -0.36036083 -0.11225258 -0.3989211
-0.016114462 0.33682027 -0.34643507 0.007639949 0.13451076 -0.40513283 -0.12373398 -0.32143503
-0.43219516 -0.30446878 -0.10100784 0.094130985 0.4091913 -0.435637 -0.38302606 -0.143223
0.20034973 0.14999485 -0.087445214 -0.27427986 -0.24216829 -0.09114298 -0.14850022 -0.43768126
-0.39357737 -0.40739843 -0.14472538 -0.22501867 0.43115196 0.17528959 0.38243648 -0.09810314
0.12072156 -0.09808434 -0.25096005 -0.40324187 -0.37104666 -0.24650127 -0.17945127 -0.20529175
-0.19878285 0.22360599 -0.13337876 -0.28361246 0.012462618 -0.14899817 -0.2448588 -0.41566432
-0.101061136 -0.2156044 0.34509876 -0.14085257 0.32934114 -0.26171473 0.23002505 0.2926403
-0.21842562 -0.23276837 -0.038265932 -0.018517898 -0.14316797 0.27639532 0.10941869 -0.29570055
0.16747373 0.24848536 0.19827858 0.1521526 -0.13241728 0.09824545 0.42790765 -0.27902102
-0.2204145 -0.16328624 -0.35884175 -0.42900375 0.288154 0.31822056 0.1496322 -0.20561117
-0.3517564 -0.17688853 -0.3782351 0.22114101 -0.2992628 -0.026170773 -0.2132708 0.14838947
-0.35520485 -0.26114205 0.22742496 -0.3494865 -0.10432238 0.10207567 0.29156005 0.020487027
0.22846293 0.24272853 0.37135512 0.106400445 -0.39109987 0.1211073 -0.35042706 0.24137458
-0.30552623 -0.41605112 0.4104583 0.36345515 -0.1930172 0.35492393 0.03355 -0.39492533
0.01698163 0.24846268 -0.44720381 -0.26399842 -0.41184032 -0.12810491 -0.06233874 -0.42501613
-0.0768006 0.11317075 -0.038124997 0.39193383 0.12547481 -0.40766877 0.24270369 -0.19250745
-0.102778 0.044240132 0.19019422 -0.37676594 -0.14566134 -0.34501618 0.13787702 -0.37450638
-0.25370258 0.09957034 0.3625317 -0.037036 -0.44112113 -0.12731273 -0.32855242 0.06702026
-0.4313795 0.25385833 0.09156821 -0.033042166 -0.24379455 0.39859265 0.124379046 0.19791177
-0.030617312 -0.24554011 -0.054119937 0.3479792 0.18959272 0.32153332 -0.15336926 -0.38331065
-0.19068325 -0.21447988 0.4430573 0.34255272 0.015361358 -0.14492053 -0.20944464 0.061273146
-0.34575623 -0.020891279 -0.37562072 0.122051395 -0.32505396 -0.06925151 -0.14650439 -0.3612125
0.24232343 -0.30030963 -0.20166877 -0.28311583 0.051398773 -0.30369085 0.26353315 0.22662275
-0.37086463 0.31961653 0.068831034 -0.37494168 -0.026424775 -0.16992366 -0.22901897 0.3672858
0.033108782 -0.09079959 0.32856068 0.19096775 -0.42671987 -0.23370962 0.039598938 -0.2981911
-0.37894985 0.27746168 -0.41282478 -0.10222487 0.26658726 0.2664922 -0.32926208 0.05315155
-0.35769957 0.29866147 0.094395824 -0.22067332 0.024056934 0.37021446 -0.0084746145 -0.16987349

nn.block1.linear.bias f4 [96]
00000000: 1e66 a5be 25b8 53bd 7d76 98be e228 183e
00000010: 01b8 c6bd 7886 dabe 0d2e ae3e 590b 083e
00000020: 7b9a 923e e928 b4be 227a e2bd 8dc7 3ebe
00000030: 4a77 b13e a867 7d3e bc88 1fbd 04cc 093d
00000040: cfed 24be 3973 423e 0f67 0fbc 6ed0 b03e
00000050: af0f c13e 246e bdbe ee62 14bd 97cf abbe
00000060: a1bf bfbe 5894 e53d 9bec 13be 5d6f 983e
00000070: cdc5 033e 337a 733e c7ca 953c 4aea a0be
00000080: 2868 1d3d f6bc 253d c926 b8be 6887 b4be
00000090: f286 0a3e 83c5 0d3e 1f40 babd 80e0 c4be
000000a0: bc66 e3be 21f5 6d3e 534f d8be c800 8cbe
000000b0: 8f0d 373e eb2f 873e 4dcf e13d bdaa 9bbe
000000c0: 873c bd3e 5f6e 0b3e 891c 17be c815 29be
000000d0: 7b7c b93c 12af cfbd 1de6 2a3e 84d1 a33e
000000e0: 8cd6 c9bd f3c7 a93e 1e32 cf3e 6916 ae3e
000000f0: 6f2e 333e b7ff e13e e01a 96bc 33f5 35be
00000100: c9c7 393d 336b bd3e fbd9 b13e 6af9 14be
00000110: e0ae b03e 7996 1ebe ecd5 58be 35b8 2f3e
00000120: 7ff5 d5be 5c57 783e c4f8 933e 97d5 a13e
00000130: c211 233d b44d 56be e181 2c3e 18a8 a83d
00000140: 469e 7f3d add9 db3e 1997 803e 8b3d ca3e
00000150: e9d6 743e 7cac b73e 5ddb 1bbe cf2d 973e
00000160: c82d 83be e411 7bbe 2dd4 943e 5ff5 213d
00000170: 85ad 56be ea4c bdbe de98 52be d61e 89be
-0.32304472 -0.051689286 -0.297779 0.14859346 -0.09703065 -0.42680717 0.3401951 0.13285579
0.28633484 -0.35187462 -0.11058451 -0.1863081 0.34661323 0.24746573 -0.03894876 0.03364183
-0.16106342 0.18989266 -0.008752598 0.3453402 0.37707278 -0.36998093 -0.03622716 -0.33556816
-0.3745089 0.11209935 -0.14445727 0.29772463 0.12868424 0.23777084 0.018285168 -0.31428748
0.03842941 0.04046341 -0.3596709 -0.35259557 0.1352804 0.13844876 -0.090942614 -0.3845253
-0.44414318 0.2323804 -0.4224802 -0.27344346 0.17876266 0.26403746 0.110258676 -0.304037
0.3696024 0.13616322 -0.14756979 -0.16512215 0.022642365 -0.10140814 0.16689344 0.31995785
-0.09855375 0.33160362 0.40467924 0.34001473 0.17498182 0.44140407 -0.018323362 -0.17769317
0.045356546 0.3699585 0.34736618 -0.14548269 0.3450842 -0.15487088 -0.21175355 0.17160113
-0.4178886 0.24252075 0.2890073 0.3160827 0.039811857 -0.20928079 0.1684642 0.08235186
0.0624068 0.4293951 0.25115278 0.3950008 0.23910107 0.35873783 -0.15220399 0.29527137
-0.25620866 -0.24518543 0.29068127 0.039540645 -0.2096463 -0.36972743 -0.20566127 -0.26781338

nn.block1.batch.weight f4 [96]
00000000: 192e 7f3f 4c52 803f 6e78 803f d36b 7f3f
00000010: 86dd 7f3f 6325 803f da19 803f 7d50 803f
00000020: dfe5 7f3f 6218 803f 8853 803f f1b3 7f3f
00000030: e91d 803f 44e5 7f3f 5188 7f3f b3fd 7f3f
00000040: 9b77 7f3f 6704 803f 2821 7f3f 7510 803f
00000050: 6be8 7f3f 4de3 803f ffd6 7f3f 699a 7f3f
00000060: 041f 803f 5a09 803f 2bd3 7f3f 43d5 7f3f
00000070: 4df4 7f3f a030 803f 2600 803f 69c0 7f3f
00000080: 8c22 803f 093c 803f c041 803f 697c 803f
00000090: c833 803f ed3f 803f e5b3 7f3f cfe3 7f3f
000000a0: 0213 803f 88a0 7f3f 5434 803f dd4f 7f3f
000000b0: 0d46 803f c16f 7f3f 0ebe 7f3f e93a 803f
000000c0: 98d0 7f3f df03 803f 3c90 7f3f e222 7f3f
000000d0: 0148 803f 2e0a 803f 5326 7f3f a122 803f
000000e0: bd5b 7f3f 5ed0 7f3f 08c3 7f3f 779c 7f3f
000000f0: 138f 7f3f 39ae 7f3f 4196 7f3f feae 7f3f
00000100: a5b5 7f3f 4663 803f b515 803f 2712 803f
00000110: dfb3 7f3f 8337 803f 74f3 7f3f 4d54 803f
00000120: 96f9 7f3f 3929 803f d13f 803f e706 803f
00000130: 21f6 7f3f b431 803f 9ab5 7f3f 94b5 803f
00000140: 3beb 7f3f 70b0 7f3f 650f 803f 27ce 7f3f
00000150: ab19 803f a7b9 7f3f 44a8 7e3f f393 7f3f
00000160: b26b 803f 2ace 7f3f f2d4 7f3f dfdd 7f3f
00000170: a39e 7e3f d9b5 7f3f 110b 803f 5604 803f
0.99679714 1.0025115 1.0036752 0.997739 0.9994739 1.001141 1.0007889 1.0024563
0.9996013 1.0007441 1.0025492 0.99883944 1.0009128 0.99959207 0.9981738 0.9999649
0.9979188 1.0001343 0.9965997 1.0005022 0.99964017 1.0069367 0.99937433 0.99844986
1.0009465 1.0002854 0.9993159 0.99934787 0.9998215 1.0014839 1.0000045 0.9990297
1.0010543 1.0018321 1.0020065 1.0037967 1.0015802 1.0019509 0.9988387 0.99956983
1.0005801 0.99854326 1.0015969 0.99731237 1.0021378 0.997799 0.99899375 1.0017978
0.99927664 1.0001181 0.9982946 0.996626 1.0021974 1.0003107 0.99667853 1.0010568
0.99749357 0.9992732 0.9990697 0.9984812 0.9982769 0.9987522 0.99838644 0.9987639
0.9988654 1.0030296 1.0006624 1.000554 0.99883837 1.0016941 0.99980855 1.0025727
0.9999021 1.001258 1.0019475 1.0002106 0.9998494 1.0015168 0.99886477 1.0055413
0.9996831 0.998786 1.0004698 0.9992394 1.0007833 0.9989266 0.994755 0.9983513
1.0032866 0.99923956 0.99934304 0.99947923 0.9946081 0.9988685 1.0003377 1.0001323

nn.block1.batch.bias f4 [96]
00000000: 0148 66ba deea 40ba f988 1dba e231 57b8
00000010: 32be 8b3a eb22 45ba e27d a939 2a1f eaba
00000020: df08 98ba 0e24 273a 63b6 1338 2073 fcb9
00000030: 0775 8cba d14b f33a 232a f538 3cc8 bbb6
00000040: d5d3 c839 20ef ccba dd89 ed3a d56e d13a
00000050: cb4c b5b9 eaed 02ba abcc 76ba 1ecb eeb9
00000060: 70c3 a1b9 9128 3cba df7b 053a f0bd 13b9
00000070: 01b7 b3b9 89c4 7eb9 0de9 d2ba 6770 36ba
00000080: 4ef3 6d3a 1f54 b5ba 5c85 4aba d127 68bb
00000090: aaa7 8939 c0fc 683a 6b98 4bb9 29b5 64ba
000000a0: 541b 0fbb b056 24b9 9768 e8b8 26a0 1eb8
000000b0: fe3b a63a 28f2 92b9 fffa 053b ee7b 393a
000000c0: 2840 67ba 9bff 703a 1158 50ba f449 9d3a
000000d0: 2658 9e3a 9d2a 1837 56c3 013b 1fb0 893a
000000e0: cbc4 d735 f332 fb39 005e 7338 f276 f3ba
000000f0: 8816 e3b6 b8b3 41b8 5ee8 24ba 4f54 8c3a
00000100: 4034 80ba 5073 9b39 89d1 b23a 61b9 7bba
00000110: b1a8 17bb 8f74 ea39 990c 2f3a 108f b8ba
00000120: 9402 0539 9d1d 3dba ad19 9039 58d5 d1b8
00000130: f8be 79b9 8506 dd39 29c1 b9b7 d636 29ba
00000140: 1b74 94ba 58da 8939 6fc9 5c37 0280 d139
00000150: 8ee8 ef3a 60c5 34b9 18ca 113b 6412 cfb9
00000160: bfaf 3c39 0c29 a038 2e0e 1639 2caa 773b
00000170: 9f61 d3b9 8230 d7ba 51df e838 fbd6 123a
-0.0008784533 -0.00073592167 -0.0006009485 -5.130645e-05 0.0010661541 -0.0007520157 0.00032327982 -0.0017862071
-0.0011599323 0.0006375917 3.5217392e-05 -0.0004815096 -0.0010716029 0.0018562024 0.00011690359 -5.5963446e-06
0.000383048 -0.001563523 0.0018122751 0.0015978465 -0.00034580225 -0.00049945584 -0.0009414653 -0.00045546232
-0.00030853925 -0.0007177676 0.00050920056 -0.0001408977 -0.0003427789 -0.00024296543 -0.0016091183 -0.0006959498
0.0009077088 -0.0013834274 -0.00077255606 -0.0035424123 0.00026255596 0.00088877603 -0.00019416369 -0.0008724505
-0.0021836357 -0.00015672552 -0.000110821034 -3.7819285e-05 0.0012682674 -0.0002802771 0.0020443795 0.0007075657
-0.0008821511 0.00091933616 -0.0007947693 0.0012000189 0.0012080714 9.069828e-06 0.0019800267 0.0010504759
1.6076023e-06 0.0004791241 5.802326e-05 -0.0018574877 -6.76775e-06 -4.6182162e-05 -0.0006290729 0.0010706278
-0.0009781197 0.00029649818 0.0013642769 -0.0009602514 -0.002314132 0.000447188 0.00066775974 -0.0014080722
0.00012684829 -0.00072141906 0.0002748495 -0.00010005635 -0.00023817632 0.00042157262 -2.2143666e-05 -0.00064550096
-0.0011326106 0.00026293355 1.3159922e-05 0.0003995896 0.001830356 -0.00017239666 0.0022245701 -0.0003949582
0.00017994548 7.63704e-05 0.00014310397 0.003779064 -0.0004031779 -0.0016417655 0.00011104218 0.00056014926

nn.block1.batch.running_mean f4 [96]
00000000: acfe 293e 96a4 6f3e 1637 db3d 97d3 383e
00000010: 195f 1d3e 40b8 143b ad2b 2b3f 1ab9 eb3e
00000020: 40b3 913e 6153 813e d356 ee3d a134 cd3c
00000030: dc58 0b3f b4ff cb3e 5973 483e 927b 603e
00000040: f084 bf3d 22a8 bd3e 4a66 033e 2764 e43e
00000050: a62f c13e 0ab8 9f3a b29d d43e 4ead 0c3e
00000060: 80fa 473d cb5c 803e 945b 223d 30cd ec3e
00000070: c5a2 663e 8681 e03e 3f9f b73d 3df4 d43d
00000080: 0a17 733e 11c0 283e 9a1e e43c 5fbf 3a3e
00000090: eb07 963e 42ac 303e 5e04 093e 55ba c53c
000000a0: c65f 653e a1d3 773e 2d3c 893d 30c0 413e
000000b0: f7fd 3f3e d7ca 003f bd08 613e 9b5f ce3d
000000c0: 6f0c c63e ca1b 493e 3f4b a13d ba48 123e
000000d0: 3dcf ad3d 128e bd3e 3186 3d3e efce a53e
000000e0: 06d2 4a3e 82cf ab3e b716 053f 76f1 ce3e
000000f0: b489 5f3e 6f7b 2c3f d6f3 413e ad02 4c3e
00000100: 9670 303e 8d7b de3e 5a7a b93e 86ea 1f3e
00000110: 19d5 d03e 69e2 f03c 59cf 853d 7589 ee3e
00000120: 0000 0000 889a 943e 4ee9 f13e ec4f ab3e
00000130: 1964 2c3e 99cc 743d 9971 323e 5a91 773e
00000140: a024 8d3e e643 0b3f 6709 c33e eec7 c93e
00000150: af84 763e bcec bb3e 5370 a53d 08b4 163f
00000160: 32f8 9b3c 4381 ed3d 5dd1 983e a328 be3e
00000170: 290b 2639 0b46 843d cf9e 1c3e 16dc b33c
0.16601056 0.23402628 0.10703866 0.18049465 0.15368308 0.002269283 0.6686352 0.4603966
0.2845707 0.25258926 0.11637654 0.02504951 0.54432464 0.39843524 0.19575252 0.21922138
0.09351528 0.37042338 0.12831989 0.4460766 0.37731665 0.0012185585 0.41526562 0.13737985
0.04882288 0.25070795 0.039638117 0.46250296 0.22523029 0.4384882 0.08965921 0.10398147
0.23739257 0.16479518 0.027846623 0.18237065 0.29302916 0.17253211 0.13380572 0.024136702
0.22399816 0.24201824 0.06700931 0.1892097 0.18749224 0.5030951 0.2197599 0.10076829
0.3868136 0.19639507 0.0787568 0.14285555 0.08486793 0.37022454 0.18508221 0.3238444
0.1980668 0.33556753 0.51987785 0.40418595 0.21829873 0.67375845 0.18940672 0.19922896
0.17230448 0.43453637 0.3622616 0.15616807 0.4078758 0.029404836 0.06533689 0.46589246
0.0 0.29024148 0.4724831 0.33459413 0.16835059 0.059765432 0.17426147 0.24176541
0.27567005 0.5440048 0.3809311 0.39410347 0.24074052 0.36704051 0.08078065 0.58868456
0.019039247 0.1159692 0.29847232 0.37140378 0.00015835151 0.06458672 0.15294956 0.021955531

nn.block1.batch.running_var f4 [96]
00000000: af1a d83d 8abb 673d 384b 4d3d b346 663d
00000010: 5a77 de3c 64c8 c539 9589 323f c47e 973e
00000020: d712 433d c386 4c3e 170f 113d cbe2 6b3b
00000030: ff8c e53e 9edb af3e a509 1e3d acd3 fc3d
00000040: 6177 f93c ed7c 613e 639f ef3c 29aa da3d
00000050: 37d6 883c 78ff 0639 5cd3 353e 1b63 b23d
00000060: c38c 6f3c 1e9c ae3d b365 cb3b 54f1 6c3e
00000070: cb33 af3d 92ae cd3e 1728 143c f282 2b3d
00000080: 3a46 d53d 2e15 453d fc3f 413b 35da 043e
00000090: 75ab 403e d41f db3c 3b73 d23c 324a 783b
000000a0: 56dc 1a3e 9027 5a3d a32b cc3c c08f f13d
000000b0: 2d59 663c 2dcc 4e3e 240c e03d a42c a23c
000000c0: ded0 c23d 2d5a f83c 30d0 3d3c 9d53 783d
000000d0: b270 423c 98a5 bb3e eafc ee3c 7334 033c
000000e0: 5b4f db3d 7ba7 963d 19df 763e 5077 b93d
000000f0: 9345 b73d be6e ce3e 369f 243d 8e01 943d
00000100: 5175 763d 636b d53d 6dd1 5a3d 9d1b ac3d
00000110: 1089 c33d 4317 7b3b 82b7 863c c085 2f3e
00000120: 0000 0000 352c c83d 37c5 2d3e af61 7d3d
00000130: eca9 be3c 45a7 883c a993 053d 47d3 243e
00000140: 6008 a53d 4497 ab3e 62b0 113e 9e83 c83c
00000150: bb1f 983c 57d2 3f3d 82ef 483c 41b9 c53e
00000160: 89a5 7c3b b6bf a43c a965 803c aa54 5a3e
00000170: a4a7 b737 9d8b 5a3c 29b1 2c3d 6554 0d3b
0.105519645 0.056575336 0.050120562 0.056219768 0.02715652 0.0003772407 0.69741184 0.29588902
0.04762539 0.19973283 0.03541478 0.0035993333 0.44834134 0.34347242 0.038583416 0.12345061
0.030452432 0.22020312 0.029250806 0.10676987 0.016703708 0.00012874405 0.17756408 0.08710309
0.014620963 0.08525871 0.006207192 0.23138934 0.085548006 0.4017225 0.009042761 0.041872926
0.10413785 0.0481159 0.00294876 0.12973864 0.18815406 0.026748575 0.025689712 0.003788602
0.15123114 0.053260386 0.024923151 0.11794996 0.014059347 0.20195074 0.10939816 0.019796677
0.095124945 0.030316437 0.01158528 0.060626615 0.011867689 0.36649776 0.029173333 0.00800811
0.10708495 0.07356163 0.24108543 0.0905596 0.08948817 0.40318865 0.040190898 0.07226859
0.060170475 0.10420873 0.05342238 0.08403704 0.09547627 0.0038313426 0.016444925 0.17140865
0.0 0.09774057 0.16969763 0.061860736 0.023274384 0.016681323 0.032611523 0.16096221
0.08058238 0.33513844 0.14227441 0.024476822 0.018569818 0.046831455 0.012264134 0.386179
0.0038550815 0.020110946 0.015673475 0.2132136 2.1893364e-05 0.01333895 0.04216114 0.0021565196

nn.block2.linear.weight f4 [256, 96]
00000000: cf30 2a3d ef44 c2bd 48c3 6cbd 352d b3bc
00000010: b70b 3c3d acdd 353d 91a1 9cbd fe31 953c
00000020: de5a 03bd 4cac 45bd 65a1 aabb 7f96 6a3d
00000030: c49b ab3d b741 c33d e2ab 8c3d 348f 913d
00000040: 351f 093d d65c 173d ff8b 23bd 309c 3abd
00000050: 6fcb 87bd 6a29 3cbb d00b 5b3d c9b2 9dbd
00000060: 367f 91bd 0617 ab3d 2bdc 8d3d 1519 a8bd
00000070: adb7 a1bd fb96 18bd 04cf 93bd 6b69 6a3c
00000080: ecf2 00bd 2a27 de3c 5d03 993b e74f 503d
00000090: 7871 d3bc d2fa 993c acc8 80bc a80f d93c
000000a0: 53c4 02bb 3ee9 893d 8258 54bd 8fc3 183d
000000b0: c4d6 a6bc 66d2 663d d784 9fbd ab76 92bd
000000c0: a09a c0bc d7a1 4e3d 3872 293d 2fa9 cb3c
000000d0: cec7 2fbd b8a2 8d3d 1297 80bd 8a95 ce3c
000000e0: 61f2 643d fad8 c13d 784a 223c 3efa 21bd
000000f0: 9132 2b3d 754c b73d 02a2 adbd 4e13 cfbd
00000100: 7994 5abc e8b2 4fbd 3568 3bbd 7133 91bd
00000110: 6d90 a43c 6ecb 41bd 62a8 643d 072e c13d
00000120: 3bdc b8bd d115 b53b 0dd6 c33d 5932 cb3d
00000130: 2797 babc 51a1 773d 4577 433d 10bd 8d3d
00000140: 4af7 27bc 75e4 b6bc 4e8a 40bd 38f5 773c
00000150: 7c31 cb3c 24ce 1fbd d9b9 99bd a8b1 c63d
00000160: 218b 7cbd d3c1 d6bb 7a41 41bd 4962 c0bc
00000170: 08b7 cebd 8300 41bd 93cb 023d 9c0a 943d
00000180: fd5c c43d 6592 1abd 449d 7abd 8f63 b9bd
00000190: c5a2 10bd 8d64 b1bd f31e 7dbd ea94 05bd
000001a0: aa63 d03d 594b 87bd e2e0 95bd d33a b0bc
000001b0: ad43 7d3d 3e46 7ebc 8c4d c3ba 8143 963d
000001c0: 1140 733d bf73 ac3d c9a4 7bbd 8c2a a13d
000001d0: 89c7 c7bd 5f2f 8abd c854 51bb c9bd 0a3d
000001e0: 496f 1abc f0a5 c63d 0c4e 32bc e945 3bbd
000001f0: f246 88bc 9c65 69bc a849 5c3c 72b0 603d
00000200: 5c50 b3bd 00d7 493c ad35 ae3d 4c8a a0bc
00000210: 78ff 4a3d dad4 80bc 0e0c d03d bcc3 4cbb
00000220: 843a 853d 6996 01bd 247c bfbd c31d 28bd
00000230: 4db9 8d3d 21c0 b83a f30c 8cbc a7a0 a83d
00000240: d643 86bd 2122 92bd c8b6 183d 5b15 cb3d
00000250: 0cc5 f73c 4912 11bd b910 343d f068 4a3d
00000260: 0380 acbd bbf2 b53d 3139 193c 2c19 2ebd
00000270: ba00 cebd 6515 be3c 1226 d6bc 03d4 ab3c
00000280: 19f3 a5bd 7388 1d3d 33ad 9dbd 0bd9 a33d
00000290: c1ae e83b 3c4d 493d 37d1 733d d84a bd3d
000002a0: 901b 813c 350a a63d 2189 abbd 5e4c 963d
000002b0: 2b41 993d ca0a 59bd 2181 5dbd 0799 aa3d
000002c0: 8199 a63d ff24 afbd d672 7339 8289 9ebd
000002d0: 46fe 5d3d effb b0bd 947e 4ebd 96cd a03d
000002e0: b2bf ae3d bdf5 b83d 28ea 3b3c c030 babd
000002f0: 2866 7e3d 3a99 ab3d 665e a03d 210f 823d
00000300: 9be9 21bc 6582 593d 044c b23c e9ec 4cbd
00000310: 4e26 8b3d 5137 1dbd 6c23 6c3d 29c3 22bc
00000320: a0ad 10bc 8b78 2d3d f164 57bc 15f6 2b3d
00000330: a48a b6bd 5793 cdbd 8823 8a3c 7d13 bdbc
00000340: ff42 3abd 294e bcbd 14e8 363c 4402 41bd
00000350: 1106 b63d 4587 a1bd 6393 12bd eabb a8bc
00000360: a0ed 933c 58cb c0bd abfb 683d e4ca c6bd
00000370: 7af0 65bd 9943 953c 8906 72bc 0395 453c
00000380: bf9f d4bd 8e99 97bd 5966 893d 81d2 1b3d
00000390: 3d8e 303d d307 763d 3eb1 913d b9a4 5b3d
000003a0: a1ea 09bd 24b1 4fbd 6445 8fbd 7636 f03c
000003b0: f107 20bb ce6d 43bd b7d3 753d aa65 be3b
000003c0: d021 64bc ec9f bebc c51b 9dbd 3b15 a83d
000003d0: 77da c5bd 0fc0 c2bd f620 9e3c 0ab9 37bd
000003e0: 22db 993d deed c8bb c693 42bd 6192 8c3b
000003f0: a425 90bc b52f 8ebc 8c69 39bc 08ee 8ebd
0.041550454 -0.09485804 -0.057803422 -0.021872142 0.04590961 0.044400856 -0.07648004 0.018212315
-0.03206908 -0.04826002 -0.005207228 0.05727243 0.08379319 0.095340185 0.068687215 0.07107392
0.033477027 0.03695377 -0.039928433 -0.04555911 -0.06630599 -0.0028711208 0.053478062 -0.07700116
-0.07104342 0.08354001 0.06926759 -0.08207909 -0.078963615 -0.03725336 -0.072172195 0.01430736
-0.03148167 0.027118284 0.0046695904 0.05085745 -0.025810942 0.018796358 -0.015720688 0.026496723
-0.0019953444 0.067339405 -0.05184222 0.037295874 -0.02036608 0.056352995 -0.07789009 -0.0715154
-0.023511231 0.05044731 0.041368693 0.024860946 -0.042915158 0.06915802 -0.062788144 0.02521779
0.055895213 0.09465213 0.00990545 -0.03954529 0.04179627 0.0895013 -0.08478166 -0.10111104
-0.013341063 -0.050707728 -0.045753676 -0.0708989 0.020088399 -0.047313146 0.055824645 0.09432607
-0.09026381 0.0055262824 0.09562311 0.099217124 -0.022777153 0.060456578 0.047721166 0.069208264
-0.010251829 -0.022325734 -0.047006898 0.015134148 0.02480387 -0.03901495 -0.07506151 0.09701854
-0.06165612 -0.0065538674 -0.047181584 -0.023484366 -0.10093504 -0.04711963 0.031932425 0.07228586
0.095880486 -0.03773727 -0.061185136 -0.090521924 -0.03531148 -0.08661757 -0.061797094 -0.03261272
0.101752594 -0.06606168 -0.073182836 -0.021512425 0.06183212 -0.015519677 -0.001490043 0.07337094
0.05938727 0.08420514 -0.06143645 0.07869443 -0.09754855 -0.067473166 -0.0031941403 0.0338724
-0.0094259465 0.09699619 -0.010882866 -0.04572097 -0.016635392 -0.014245417 0.013445295 0.05485577
-0.08755562 0.012319326 0.085063316 -0.019597195 0.04956004 -0.015726496 0.10158549 -0.0031244596
0.065053016 -0.031637583 -0.0934985 -0.041044008 0.06920109 0.0014095345 -0.017096018 0.08233767
-0.065559074 -0.07135416 0.03728369 0.099161826 0.030245326 -0.03541783 0.04396126 0.049416482
-0.08422854 0.08884188 0.009352014 -0.042504475 -0.10058732 0.023203561 -0.0261412 0.020975119
-0.08103008 0.038460206 -0.07699051 0.08000382 0.0071009104 0.049145922 0.059525695 0.09242791
0.015760213 0.081074156 -0.08375765 0.07338785 0.07483133 -0.052988805 -0.054078225 0.08329969
0.08134747 -0.08551978 0.00023217066 -0.07741071 0.054197572 -0.086418025 -0.050413683 0.078517124
0.08532657 0.09031246 0.011469401 -0.090913296 0.062109143 0.08378835 0.07830505 0.06350542
-0.009882356 0.05310287 0.021764763 -0.050030623 0.067944154 -0.038382832 0.05765097 -0.009934225
-0.008830458 0.042351287 -0.013146625 0.04198273 -0.08913162 -0.100378685 0.016862646 -0.023080582
-0.04547405 -0.09194595 0.01116373 -0.0471213 0.08887876 -0.07887129 -0.03578509 -0.020597417
0.018057644 -0.09413785 0.056880634 -0.09706667 -0.05613754 0.01822071 -0.014772066 0.012059453
-0.10382032 -0.07402335 0.067089744 0.03804255 0.0431044 0.060066056 0.071138844 0.05362389
-0.033671025 -0.050706044 -0.06995657 0.029322844 -0.0024418796 -0.04771214 0.06001636 0.005810459
-0.013924077 -0.023269616 -0.07671312 0.082071744 -0.096608095 -0.095092885 0.019302826 -0.0448542
0.075124994 -0.0061318716 -0.04750421 0.0042899107 -0.017596073 -0.017356733 -0.011316668 -0.069789946

nn.block2.linear.bias f4 [256]
00000000: e868 46bd 55ac dfbb 3d6a d03d f4f3 acbd
00000010: 309a 723d 151c 92bd 7e0c 6d3c 661b 903c
00000020: 6f09 103d 0b77 abbd b3c2 723d 9c1f c03d
00000030: de0a 7fbc 49ff 92bd 8718 34bd e692 233d
00000040: 1f4c 3bbc ddd6 81bd dede 773d f2b7 223d
00000050: 7aee b1bd 3a0e 79bd 4725 ce3d ad07 8b3b
00000060: 5502 22bd b998 85bb 82c4 32bd c783 cd3d
00000070: c508 38bd b436 933d e944 a33d bad6 0e3d
00000080: 023b 293d 9485 903d 7cbd 5cbd 469e c2bd
00000090: 2801 50bd 4415 f93b 53fd 44bd fe05 1cbd
000000a0: 4253 93bd ee94 eb3c db51 b43d 82e1 55bd
000000b0: 62b1 273d 53d0 133d 6c45 44bd 7dcc a63b
000000c0: 5a12 ccbd 7811 2abd 3882 0abd 1e53 0e3d
000000d0: 054d 89bd e625 c63d 8baa e639 cfb2 993c
000000e0: efb1 90bd 80f7 bd3d d5f2 2bbd 223c 643d
000000f0: 4f3a 3dbc 38ae 8dbc f151 bcbd 4060 3ebd
00000100: 0a79 12bd a45d d83b 8499 e2bc b1f7 32bd
00000110: 67c4 2cbd a0cb 3abc dc9f 463c 1649 7bbd
00000120: a881 2cbd 4e3c 803d 6f28 b8bc 5aaf a4bd
00000130: a64b b639 ae3d cc3d 46ab f53a aab8 a7bc
00000140: 5ae4 263d c162 01bd f296 64bd 40b6 e4bc
00000150: c84d 04bd 9e65 8f3d a1a5 b73d 8064 1cbd
00000160: 90fa 923c 10de 603d 2dc2 9cbc aed5 183d
00000170: 082e a83d 29cf cc3d d401 f7bc 7011 1fbd
00000180: 9859 b6bd cb64 413d 959b 813d 61d6 573d
00000190: 00b4 04bd c207 9e3d 2d7d a4bd 6efe 633d
000001a0: 06f6 42bd 0c28 9cbd ee1f a43d 5626 1b3c
000001b0: a70a b33d 8378 d73b 912b d53d bc5c 1b3d
000001c0: db2a c03d 07e4 ff3b 5f1c 613d eb1b bd3d
000001d0: 03a2 bebd 4be7 c6bd 5b6d 9b3d aaa8 333b
000001e0: 2350 58bc 8bed c63d 04d0 843d 8c71 45bd
000001f0: 9475 ce3d db42 9bbd a31f 803c 06bb 82bd
00000200: de4e e8bb 06b7 0cbd 667d 433d fb97 cabc
00000210: bcb0 15bd 9e40 adbc 0027 d13c ee0a a7bd
00000220: 1d3d 1ebc f843 543d 3a6d 12bc 99b9 a4bd
00000230: ac84 aabd a888 f03b 217f 81bd b76d 2dbd
00000240: ee42 643d 6b9b 213d 9b8b a13d 8451 c53d
00000250: 42ce a3bd 0f32 353d b040 d1bd 1222 6b3d
00000260: 6baf 4d3c d15a cf3d 421c 593d 9738 3d3d
00000270: 223c 15bc dcea 0a3d e5be 49bd 9ccb a63d
00000280: d949 58bd 0f9d 853d 70ec 88bd 1b17 c43d
00000290: 64db 233d e657 b1bd ea75 703d fd44 8c3c
000002a0: 395b df3c c195 82bd a06d c83c 1bc6 653d
000002b0: b8a5 b7bc dd5f 99bd b9d3 8abc 4742 273d
000002c0: 08f1 9a3d 971d 1a3d ce23 e7bc 0a3c b7bd
000002d0: 8e22 acbd 3491 48bd 02a3 0dbd 3520 d33c
000002e0: 9fdf b8bd 4ac1 ac3d 71fc a8bd 9ff5 3e3d
000002f0: 40cd bb3d 03f2 8abd 8ab7 bc3c edee 373d
00000300: a895 163d a3b6 b73d 9d8a 0cbd e920 88bd
00000310: 2f68 c9bd 6bc2 87bc de9f 093d e49e c0bd
00000320: d5ee c43d 6cef aebd 8b50 8abd c396 8ebd
00000330: a185 6c3d e1a2 c1bd 1d13 0b3d a4a6 36bd
00000340: 00fe be3d 2a24 983d 3bb2 ae3d 9d50 c2bd
00000350: f820 5b3d d537 88bd c8d3 ae3d defe 32bc
00000360: 269a 4b3c 62d8 cabd db72 04bd 9942 a13d
00000370: b39e b3bc 94ea 7fbc dd32 4fbb 485b c93d
00000380: 6cfd 333d a1be 603d a7cc 9abd e6dd babd
00000390: a2ed 86bc c608 213d 6823 b43d 6ffc b33d
000003a0: 25b2 ea3c bef0 d03d d816 adbc 4404 a0bb
000003b0: 6bf9 4f3d aa3e a83c 7f81 833d 51c9 ccbd
000003c0: 4d03 b43d d93a 80bc d9a5 883d a6e0 c4bc
000003d0: 6cf8 ad3d a06b 38bd c645 cabd f1ce be3d
000003e0: 560c dfbb f73e 93bd 341a 91bd e527 c73d
000003f0: 74fb 8fbd 2746 48bd a0da abbd 2403 283d
-0.04843989 -0.0068259635 0.10176513 -0.08444968 0.059229076 -0.071342625 0.01446831 0.01759119
0.035165247 -0.08372315 0.05926771 0.09381029 -0.015566556 -0.07177598 -0.043968704 0.039935015
-0.011431723 -0.0633981 0.060515277 0.039726205 -0.08688064 -0.060804583 0.10065704 0.0042428584
-0.039553005 -0.004077044 -0.043644436 0.100349 -0.04493024 0.07188168 0.07972128 0.034872748
0.04131604 0.07056728 -0.053891644 -0.095028445 -0.050782353 0.007601412 -0.04809315 -0.038091652
-0.071936145 0.028757539 0.08804675 -0.052217014 0.04094065 0.036087345 -0.04791777 0.005090295
-0.09964438 -0.041520566 -0.033815593 0.034747235 -0.067041434 0.09675197 0.00043996083 0.01876202
-0.07065188 0.092757225 -0.04197963 0.05572141 -0.011549546 -0.017294988 -0.091953166 -0.04647851
-0.035759963 0.0066029597 -0.027661093 -0.04369325 -0.04217949 -0.011401087 0.012123074 -0.061348997
-0.042115837 0.06261502 -0.022480218 -0.08041258 0.00034770108 0.09972702 0.001874306 -0.020473797
0.040745117 -0.03158832 -0.055808015 -0.027918935 -0.03230074 0.07001804 0.08967138 -0.03818178
0.017941743 0.054899275 -0.019135559 0.037313156 0.08211905 0.1000045 -0.030152239 -0.03883499
-0.089038074 0.047215264 0.06328503 0.052694682 -0.032398224 0.077163234 -0.08031688 0.055662565
-0.047597907 -0.07624826 0.080139026 0.009469589 0.08742266 0.0065756454 0.104087 0.037930235
0.09383174 0.0078091654 0.054958697 0.092338406 -0.09308245 -0.097120844 0.07589217 0.0027413764
-0.0132027 0.097132765 0.06484988 -0.04820399 0.1008102 -0.07581111 0.015640086 -0.06383328
-0.00708948 -0.034354232 0.04772701 -0.024730673 -0.0365455 -0.021148976 0.025531292 -0.081563815
-0.009658125 0.051822633 -0.008937174 -0.080432124 -0.083260864 0.0073405094 -0.06323076 -0.04234096
0.05572789 0.03945486 0.07887956 0.096346885 -0.07998325 0.044237193 -0.10217416 0.05740554
0.01255403 0.10124744 0.053005464 0.046196546 -0.009108575 0.033915386 -0.049254317 0.08144304
-0.0528048 0.06524097 -0.06685722 0.095747195 0.04000415 -0.086593434 0.0587062 0.01712274
0.027265178 -0.063762195 0.024466336 0.05609713 -0.022417888 -0.074889876 -0.01694666 0.04083469
0.07565504 0.037625875 -0.028215315 -0.089469984 -0.08405028 -0.0489666 -0.034579284 0.025772193
-0.09027027 0.084353045 -0.082512744 0.04662096 0.09170008 -0.06784441 0.023036737 0.04490559
0.036763817 0.08970382 -0.03431188 -0.06646902 -0.098343246 -0.016572198 0.033599727 -0.09405306
0.09615866 -0.0854176 -0.067536436 -0.06962349 0.057744626 -0.09454895 0.033953775 -0.044592515
0.093257904 0.07428773 0.085300885 -0.09488032 0.05349824 -0.06651274 0.08536488 -0.010925023
0.012426889 -0.09904553 -0.032336097 0.078740306 -0.02192626 -0.015619893 -0.003161601 0.09831864
0.043942854 0.054869298 -0.075585656 -0.09124355 -0.016470734 0.039315008 0.08795816 0.08788382
0.028649399 0.10202168 -0.021129057 -0.004883321 0.050774973 0.020537693 0.06421184 -0.099993356
0.08789692 -0.01565306 0.06672258 -0.024032902 0.08494648 -0.045024514 -0.098765895 0.09316815
-0.0068068905 -0.07189744 -0.07085076 0.09724406 -0.07030383 -0.048895027 -0.08391309 0.04101862

nn.block2.batch.weight f4 [256]
00000000: 47d7 7f3f 66f1 7f3f b88d 7f3f 123b 803f
00000010: fafb 7f3f cfe5 7f3f b30c 803f 291a 803f
00000020: 5307 803f 077f 7f3f f0c0 7f3f 119e 7f3f
00000030: 4b05 803f 2f04 803f 1315 803f 12c0 7f3f
00000040: 4907 803f e5c2 7f3f 9988 7f3f 6e21 803f
00000050: 79ee 7f3f 4aa3 7f3f d813 803f c6d3 7f3f
00000060: 0cfc 7f3f 4201 803f 2a0a 803f fed9 7f3f
00000070: 3a31 803f 1cd0 7f3f 7db5 7f3f c12b 803f
00000080: 66c3 7f3f 571d 803f becc 7f3f 5701 803f
00000090: ac18 803f 7a7e 7f3f d1c0 7f3f bd32 803f
000000a0: 1dd9 7f3f b3b6 7f3f 473e 803f e126 803f
000000b0: bc00 803f 3259 7f3f 22f2 7f3f f917 803f
000000c0: 7727 803f 52d9 7f3f c811 803f f139 7f3f
000000d0: 8356 7f3f 9ad3 7f3f 7912 803f f1f9 7f3f
000000e0: 75de 7f3f d901 803f c00c 803f e802 803f
000000f0: eba8 7f3f 9303 803f 3c01 803f 4900 803f
00000100: d2ff 7f3f 36ec 7f3f e8ef 7f3f 01d1 7f3f
00000110: 0bc1 7f3f 751e 803f be9d 7f3f d36f 7f3f
00000120: 492d 803f 54a5 7f3f 6502 803f ba11 803f
00000130: bfe9 7f3f 5011 803f 88eb 7f3f 8d00 803f
00000140: 0ccc 7f3f c900 803f 27d7 7f3f 1f15 803f
00000150: b408 803f 7bbc 7f3f a401 803f ae28 803f
00000160: de10 803f 6a2c 803f 7bf1 7f3f bfef 7f3f
00000170: 54a7 7f3f d720 803f 3d28 803f fe05 803f
00000180: 4211 803f 5c24 803f cbf2 7f3f d9bb 7f3f
00000190: 95ba 7f3f c904 803f ed47 803f 62fd 7f3f
000001a0: 3be1 7f3f cdc0 7f3f 9a83 7f3f 7abf 7f3f
000001b0: dc40 803f d103 803f 3129 803f 92d2 7f3f
000001c0: 3373 7f3f 9019 803f f62d 803f 06c3 7f3f
000001d0: a3e8 7f3f 4218 803f b72f 803f 57d0 7f3f
000001e0: 3116 803f 4f26 803f 61b4 7f3f dbf0 7f3f
000001f0: 1d02 803f 8912 803f 4187 7f3f c1ed 7f3f
00000200: 5af9 7f3f 1505 803f 031f 803f c6f8 7f3f
00000210: 5218 803f 8ac6 7f3f 8277 7f3f 273c 803f
00000220: 3616 803f ed10 803f 5047 803f 68e3 7f3f
00000230: 3cfe 7f3f cd52 803f 55f2 7f3f 0b9c 7f3f
00000240: 3bb7 7f3f a924 803f 080f 803f d50a 803f
00000250: fe11 803f f6f6 7f3f 9ed8 7f3f 0f0c 803f
00000260: e9ed 7f3f 3320 803f 6beb 7f3f 0fea 7f3f
00000270: 2436 803f 0c08 803f 0f24 803f 7122 803f
00000280: 9132 803f 6b0e 803f 3f10 803f 0016 803f
00000290: 7102 803f a328 803f 87b1 7f3f 7216 803f
000002a0: d8dc 7f3f 4e0b 803f cad0 7f3f b18e 7f3f
000002b0: e07a 7f3f 6bff 7f3f 2635 803f c611 803f
000002c0: 23f9 7f3f c02a 803f b5b9 7f3f e618 803f
000002d0: f120 803f f619 803f 3600 803f 4520 803f
000002e0: f60c 803f f70f 803f 567b 7f3f 9c26 803f
000002f0: 6300 803f cc05 803f d84c 803f 6dff 7f3f
00000300: 0e02 803f 5ba8 7f3f 8bc1 7f3f bb19 803f
00000310: 90ec 7f3f 210b 803f ad17 803f 5018 803f
00000320: fb30 803f e316 803f b1b3 7f3f b60c 803f
00000330: b3cf 7f3f 520d 803f 59bb 7f3f 0bce 7f3f
00000340: 7ad8 7f3f d40b 803f 7ef2 7f3f 5ef0 7f3f
00000350: deea 7f3f 740e 803f 1bc4 7f3f 0131 803f
00000360: 31bf 7f3f 4eed 7f3f a319 803f f5e2 7f3f
00000370: 2938 803f 2ac8 7f3f 8207 803f 6f17 803f
00000380: 75b1 7f3f 3708 803f 85d0 7f3f c418 803f
00000390: 840d 803f 97ff 7f3f 0f16 803f 3c19 803f
000003a0: 9887 7f3f c908 803f 4614 803f f9a3 7f3f
000003b0: f5fa 7f3f b8c9 7f3f 6ddb 7f3f 8b2c 803f
000003c0: c8fa 7f3f 2906 803f d7af 7f3f c96f 7f3f
000003d0: ea26 803f b8d4 7f3f b0a5 7f3f 5705 803f
000003e0: 1503 803f 2242 803f eb2b 803f 0810 803f
000003f0: 6e1e 803f 484b 803f 0ce2 7f3f bf01 803f
0.9993786 0.9997772 0.9982562 1.0018027 0.9999386 0.99960035 1.0003875 1.0007983
1.0002235 0.99803203 0.99903774 0.99850565 1.0001615 1.0001277 1.0006431 0.9990245
1.0002223 0.9990676 0.99817806 1.0010202 0.99973255 0.99858534 1.0006056 0.99932516
0.9999397 1.0000384 1.0003102 0.99942005 1.0015023 0.99926925 0.99886304 1.0013353
0.9990753 1.0008954 0.99921787 1.0000409 1.0007529 0.9980236 0.9990359 1.0015484
0.99940664 0.9988815 1.0019006 1.0011865 1.0000224 0.99745476 0.9997884 1.0007316
1.0012044 0.9994098 1.0005426 0.99697787 0.9974138 0.99932253 1.0005637 0.99990755
0.9994882 1.0000564 1.0003891 1.0000887 0.99867123 1.0001091 1.0000377 1.0000087
0.99999726 0.99969804 0.9997544 0.9992829 0.99903935 1.0009295 0.9985007 0.99780005
1.001382 0.99861646 1.0000731 1.000541 0.99966043 1.0005283 0.9996877 1.0000168
0.99920726 1.000024 0.9993767 1.0006446 1.0002656 0.99896973 1.0000501 1.0012414
1.0005147 1.0013554 0.99977845 0.999752 0.998647 1.0010022 1.001228 1.0001829
1.0005267 1.0011096 0.9997985 0.9989601 0.99894077 1.000146 1.002195 0.99996006
0.9995305 0.99903566 0.99810183 0.99901545 1.0019794 1.0001165 1.0012571 0.9993068
0.99785155 1.0007801 1.0014026 0.9990696 0.9996435 1.0007403 1.0014561 0.99927276
1.0006772 1.0011691 0.9988461 0.9997689 1.0000645 1.0005656 0.99815756 0.9997216
0.99989855 1.0001551 1.0009464 0.99988973 1.0007422 0.9991232 0.9979173 1.0018357
1.0006778 1.0005165 1.0021763 0.9995637 0.99997306 1.0025269 0.99979144 0.9984748
0.9988896 1.0011188 1.0004587 1.0003306 1.0005491 0.9998621 0.99939907 1.000368
0.999724 1.0009826 0.99968594 0.9996652 1.0016522 1.0002456 1.0011004 1.0010511
1.0015432 1.00044 1.0004958 1.0006714 1.0000745 1.0012401 0.9988026 1.000685
0.99946356 1.000345 0.9992796 0.99827105 0.9979687 0.9999911 1.001622 1.0005424
0.9998953 1.0013046 0.9989274 1.0007598 1.0010053 1.0007923 1.0000064 1.0009848
1.0003955 1.0004872 0.9979757 1.0011783 1.0000118 1.0001769 1.0023451 0.99999124
1.0000627 0.99866265 0.999047 1.0007852 0.9997034 1.0003396 1.0007225 1.000742
1.0014948 1.0006984 0.9988356 1.0003879 0.999263 1.0004065 0.99895245 0.9992377
0.9993969 1.000361 0.9997939 0.99976146 0.99967754 1.0004411 0.9990861 1.0014955
0.9990111 0.99971473 1.0007824 0.99955684 1.0017139 0.999148 1.0002291 1.0007151
0.9988015 1.0002507 0.9992755 1.0007558 1.0004125 0.99999374 1.0006732 1.0007701
0.99816275 1.0002681 1.0006187 0.9985958 0.99992305 0.99917173 0.9994419 1.0013593
0.99992037 1.000188 0.99877685 0.99779946 1.0011876 0.9993396 0.99862194 1.000163
1.000094 1.0020182 1.0013403 1.0004892 1.0009286 1.0022974 0.99954295 1.0000533

nn.block2.batch.bias f4 [256]
00000000: a385 ba39 3b27 22ba 7649 fdb9 cbb0 033a
00000010: ac00 39ba a26c 033a 6cde fdb9 bb95 dcb8
00000020: afb5 fcb9 356f 0b3a f53d 503a 7aef 4ab7
00000030: bf44 20ba ac99 17b9 a460 62b9 b086 9e39
00000040: adf8 3a39 e828 f8b9 cb2e b6b8 090c a739
00000050: 425a 8fb8 01b1 8039 1b8e a0b8 411b 073a
00000060: 0303 5dba e688 2b39 a7bb dd38 688c ff39
00000070: d729 a939 d337 963a 030e 94b9 fe3f 0fba
00000080: e1f9 2ab9 7dad d939 c223 023a dcc1 a8b7
00000090: 01b1 e338 01c8 84b9 89b2 2c39 217a 8bba
000000a0: 1a5e b1b8 b9b6 f138 e1c9 68b8 c0a6 f237
000000b0: 1bf0 a1ba de7e d8b9 d742 64b9 4816 e2b9
000000c0: 9c4f e0b9 e36f 57ba 125e 8db9 00c8 07b9
000000d0: 35ba 123a 1e13 ccb9 96eb 26b8 e259 b539
000000e0: 57d4 cf39 c2d9 1db9 de6c 6dba 0875 a939
000000f0: f5a3 cf38 69f5 67ba 9688 fb39 5372 a13a
00000100: a884 e6b9 4d15 183a 6f01 eeb9 6222 44ba
00000110: 40d6 c0b9 98ac 613a c4e3 8db9 e691 0d3a
00000120: 8ad3 3a39 93bc c438 88b5 c338 f557 fdb9
00000130: f6b6 16ba 7d09 23b9 c75a 0e38 b48d 3cba
00000140: c188 50b9 78e2 34ba 390a 343a db28 b93a
00000150: f0c9 fab9 fb17 943a 106c 1bba 69f6 20ba
00000160: 17dc 41b7 7f0d 2eb9 b945 4dba bb97 2539
00000170: 0ebe 0339 a009 4cb9 7b5b 0db9 383d 773a
00000180: 37ec 8c39 3631 e9b9 4ce5 22b9 20e4 f1b9
00000190: d8ba d5b9 ee41 1b39 4701 9439 610f 38ba
000001a0: a374 0fba bbb2 72b9 67ee 9438 05d1 02ba
000001b0: 77b9 49ba cc8e a1ba f91b f538 3dc1 0739
000001c0: 9cf4 c939 3e9b 133a 4e3b 8439 1553 cab9
000001d0: 5e9b 953a 03fa 8137 ec32 92ba 3395 02ba
000001e0: f459 b739 b74c 88b9 ae44 93b9 57a4 b6b9
000001f0: 37c4 cc39 6404 a238 6ead 53ba 46a6 9bb7
00000200: 6a37 8d3a 3ae5 5fb9 3298 f9b9 062a 0039
00000210: ce22 9eb8 40bf fc39 5e09 d4b9 0daa 943a
00000220: 779c 99b9 64c8 b2ba cafb 9338 a2e6 d538
00000230: 7ea9 0fb9 f5f6 a939 6d55 6eb9 604e 9f39
00000240: 37e8 16ba 24d0 6f39 f7c5 c439 73ac bbb6
00000250: 4bb8 9237 a536 4a38 0735 b239 bc95 4839
00000260: 96cf 973a 7063 9739 1b71 0939 9167 ffb9
00000270: f7a2 dcb8 21e1 593a 615f ce38 9fb5 4eba
00000280: 118f 70b9 e41d 3d3a cc8a 173a 57f9 27ba
00000290: 198b 8cba 4d64 5bba 3cdf 97b9 ab16 32b8
000002a0: 2d1b 153a 275e 8239 d28d f139 f9be 19ba
000002b0: 729a 93ba 5662 3bba c685 523a 9cf4 fd38
000002c0: 4462 a5b9 3d0a 33ba 1084 1a3a 4423 8d38
000002d0: df4b c5b8 2eca 0a39 a82b 1239 8858 e939
000002e0: fccd 743a 3e0f f538 afc2 27ba 3283 0db9
000002f0: 75f5 9239 8c84 abb9 3286 8439 cb3e 93b9
00000300: 3af6 efb9 eb54 5f39 e37e cd3a cceb 19ba
00000310: a55c 583a 53ee ba39 0b62 b3b9 3fe8 6139
00000320: abc3 c439 986c b039 2335 6cb9 3f6f dc39
00000330: a500 54ba 966d aab7 027c a339 b483 273a
00000340: 431c a03a b9d7 5538 244a bdb9 0165 98ba
00000350: 7b92 f3b9 6dfc 3aba 4bf4 99b9 a337 acb8
00000360: f2ad f9b9 6eb1 5939 b4bc 93b8 ab6e 5e39
00000370: 1546 7e3a 2082 493a 5759 48b9 f22c 4337
00000380: c283 2238 ede2 1f39 e960 ddb9 7fc9 6bb7
00000390: 6fa5 77ba 9e96 033a aec1 043a 72c9 2f39
000003a0: 6494 23ba 5dee b93a 4788 65ba 8755 29b9
000003b0: c3fb cf39 09b8 04ba 120c e039 9819 d6b9
000003c0: 663f 283a e3b9 8539 4091 56b6 80a3 f7b8
000003d0: 5fc4 5fba 1095 8238 1269 d83a c540 4fba
000003e0: fdde bfb9 7ee2 c9b9 3bfb e339 e763 4fba
000003f0: 5e93 dbb8 6f52 9039 2790 cb39 9458 973a
0.00035576252 -0.00061856554 -0.00048310653 0.00050235976 -0.000705729 0.0005013441 -0.00048421638 -0.00010518307
-0.0004820055 0.00053190003 0.00079438026 -1.2095896e-05 -0.00061137596 -0.0001445773 -0.00021589041 0.00030236458
0.00017830981 -0.00047332724 -8.687152e-05 0.0003186169 -6.835583e-05 0.0002454594 -7.655864e-05 0.00051539025
-0.000843093 0.0001635883 0.00010573054 0.00048742 0.00032265365 0.0011460729 -0.000282392 -0.00054645527
-0.0001630555 0.00041518724 0.0004964435 -2.0117433e-05 0.00010857173 -0.00025326016 0.00016469708 -0.0010641256
-8.4575455e-05 0.0001152581 -5.5501125e-05 2.8926297e-05 -0.0012354882 -0.00041293254 -0.00021768674 -0.0004312268
-0.00042783923 -0.00082182715 -0.00026963704 -0.00012949109 0.0005597205 -0.00038924156 -3.979689e-05 0.00034589978
0.00039640322 -0.00015053808 -0.0009057055 0.00032321387 9.9010686e-05 -0.00088485196 0.00047976215 0.0012317396
-0.00043967855 0.0005801514 -0.00045395966 -0.000748193 -0.00036780722 0.00086087873 -0.00027063314 0.00054004637
0.00017817147 9.381133e-05 9.3321374e-05 -0.00048321454 -0.0005749309 -0.00015548426 3.393998e-05 -0.0007192746
-0.0001988737 -0.00069002016 0.00068679784 0.0014126556 -0.0004783417 0.0011298651 -0.00059288833 -0.00061402336
-1.155494e-05 -0.00016598961 -0.0007830519 0.0001579215 0.00012563934 -0.00019458542 -0.00013480887 0.00094314246
0.00026878875 -0.00044477888 -0.00015534944 -0.00046137068 -0.00040765735 0.00014806513 0.00028229711 -0.00070213346
-0.00054723973 -0.00023145501 7.101596e-05 -0.0004990253 -0.0007695178 -0.0012325882 0.00011687721 0.0001294659
0.00038519956 0.0005630738 0.00025221187 -0.00038590343 0.0011414101 1.549442e-05 -0.0011154092 -0.0004981339
0.000349715 -0.00025997098 -0.00028089195 -0.00034836188 0.00039056104 7.72558e-05 -0.0008074854 -1.8554867e-05
0.0010773961 -0.00021352331 -0.00047606375 0.00012222686 -7.54051e-05 0.00048207678 -0.0004044277 0.0011342183
-0.0002929901 -0.0013640043 7.0564056e-05 0.0001019959 -0.00013700683 0.0003241819 -0.00022729272 0.00030385237
-0.00057566486 0.00022870355 0.00037531529 -5.59311e-06 1.7490374e-05 4.8211445e-05 0.00033990314 0.00019129267
0.0011582251 0.0002887505 0.00013107473 -0.00048714553 -0.00010520772 0.000831144 9.840611e-05 -0.000788534
-0.0002294148 0.0007214232 0.0005780875 -0.0006407699 -0.0010722607 -0.0008369133 -0.00028967287 -4.245962e-05
0.00056879484 0.0002486568 0.00046072766 -0.0005864944 -0.0011261238 -0.0007148137 0.0008030798 0.00012109542
-0.00031544466 -0.0006829834 0.00058943126 6.729973e-05 -9.407824e-05 0.00013236023 0.00013939908 0.00044507184
0.00093385554 0.000116853495 -0.00063995545 -0.00013495682 0.0002803017 -0.00032714417 0.00025276985 -0.0002808481
-0.00045769085 0.00021298572 0.0015678074 -0.0005871623 0.0008253551 0.0003565425 -0.00034214588 0.0002154419
0.00037529817 0.00033650245 -0.00022526509 0.00042044555 -0.0008087254 -2.031661e-05 0.00031182176 0.000639017
0.0012215454 5.0984065e-05 -0.00036104128 -0.0011626781 -0.00046457708 -0.0007132951 -0.00029364447 -8.211962e-05
-0.0004762258 0.0002076083 -7.044655e-05 0.00021212797 0.0009699774 0.00076869316 -0.00019106768 1.163337e-05
3.874652e-05 0.00015247958 -0.00042224608 -1.4054006e-05 -0.0009446954 0.0005019697 0.0005064261 0.00016764345
-0.00062400685 0.0014185418 -0.00087559636 -0.00016148957 0.00039669694 -0.0005062824 0.00042733602 -0.0004083633
0.00064181385 0.00025506233 -3.1973032e-06 -0.00011808332 -0.00085360365 6.226648e-05 0.0016510806 -0.0007906075
-0.00036596498 -0.00038506457 0.00043483995 -0.000791131 -0.00010470183 0.00027527238 0.0003882658 0.0011546784

nn.block2.batch.running_mean f4 [256]
00000000: 6974 453e a9b9 923e 9d7c 3d3e 283a e13d
00000010: 50fc 1d3e 0b26 ee3d 9c28 333e c064 213e
00000020: 1e5d 2e3e db07 943e 9603 313e e799 5b3e
00000030: 64c0 8a3e 3937 f73e f699 0d3e 11f9 353e
00000040: 38ee 923e 07ef 2c3e e9ac 5b3e a32d 7c3e
00000050: c15f 343e 26e7 363e 0d13 493e b1a2 883e
00000060: 5b6f 483e 2e8a 2c3e dd44 d73d 9a57 d13e
00000070: 675d a53e fe98 5a3e 8d35 a43e f978 b33e
00000080: 6ebf e63d 0e6d ae3e 10f1 823e 5cde 0b3e
00000090: 9673 ea3e 44f9 8e3e 2b67 403e 6267 3a3e
000000a0: 553e 833e 0164 4e3e 3fc2 a63e aa74 033e
000000b0: 991d af3e bbcf 803e ff11 093e 707e 0f3e
000000c0: 1c39 023e a61a 963e 6776 ec3d 24e3 803e
000000d0: 3748 323e c728 a63e bb3d ef3d f3a1 893e
000000e0: b14d 9a3e 61d2 3f3e a5bb be3e 9778 9b3e
000000f0: 3e7a 603e 89bd aa3d c6bc 1b3e c62d 353e
00000100: 1b9c 013e 0fea d63e db3f 0f3e 6f9a 073e
00000110: 73d7 fe3d 2353 533e 6c99 a73e 5b38 e23e
00000120: bd21 013e 27aa 413e 3e17 363e 2b5b b23e
00000130: fa16 623e f49f 693e 162a 863e 1875 003e
00000140: db23 193e 88af 3e3e 4d4f 533e 1e38 c63e
00000150: 8a72 6b3e c125 e63e 3fde 633e 09d9 713e
00000160: 616a 693e 4809 6b3e 3e2c 8b3e 4cfb 873e
00000170: e67e 6c3e 2817 973e 30fe 2c3e d7dc 863e
00000180: 4c08 7a3e 54af a43e ade2 9d3e 81b9 313e
00000190: 4f25 f63d 8061 393e 1823 a23e f186 bd3e
000001a0: ec22 143e f3ea e43d 5bd6 9c3e 85b4 cc3e
000001b0: 0aee 413e 5dfb 8c3e c502 263e 5aa5 f93d
000001c0: ef1e 913e b6ce 7d3e 011f 473e e96f 3c3e
000001d0: 2ab8 8b3e 3bee 7d3e 256a 5a3e f414 d53d
000001e0: 5057 863e a92e 7e3e f21f be3e fa67 983e
000001f0: 68c4 5f3e 8f3a 493e 67d0 923e df5a 933e
00000200: 0ad7 2e3e aaf3 ad3e 56fc 893e 1a38 773e
00000210: 495d 673e 9845 3e3e 6109 1b3e aa79 3c3e
00000220: 45ae ae3d 6c36 363e e852 0c3e e89b 693e
00000230: f19d 243e c1aa 7f3e 04b7 7e3e 31c2 ff3d
00000240: 7591 593e 8a74 ba3e e54e 8d3e 1714 7d3e
00000250: c117 863e ea6f be3e 0dbb f73d ae70 503e
00000260: a000 553e 7726 983e 3a86 9a3e 2af1 2c3e
00000270: 861a 1a3e 4a7f 4d3e b68f ac3e de35 a73e
00000280: 5d8d bb3d d958 3a3e c3e9 303e 5859 d23e
00000290: 2c41 ec3d 1205 253e 9fec 1f3e bbc8 053e
000002a0: 93c6 8e3e ac05 923e fa39 d53d 5b2c 443e
000002b0: b1d1 a63e 1a09 c63d c901 ce3e c029 803e
000002c0: 914e 553e 4180 bf3e 41f1 753e 2dfd ec3d
000002d0: ef05 5b3e 05c9 133e 79b2 7d3e 8aba 843e
000002e0: 0d9e 713e 6ba0 e73e c384 2d3e 6a49 893e
000002f0: f662 573e 0ed8 013f 8ee2 8d3e d656 803e
00000300: c26c 7c3e 8e01 9e3e a404 0f3e d39e a83e
00000310: ba59 323e 6586 843e 5e31 a13e bb49 d23d
00000320: 4a40 853e 8cd7 823e 7d5f 3c3e 531e 4d3e
00000330: 04b4 a53e b142 073e 2980 353e 552f f23d
00000340: a8f7 2a3e ee65 773e cb2b 2a3e b028 023e
00000350: 64a1 3b3e 1e6a b23d 25c7 163e d935 e53d
00000360: acaa a33e 52a6 0a3e ef8f 743e 7f76 6c3e
00000370: e914 853e 601a 3e3e a756 da3e 4596 673e
00000380: 7d91 8c3e 7223 4a3e a1fb 2f3e ba48 7b3e
00000390: faee 3a3e 416e b93e 8785 7d3e 5548 9f3e
000003a0: 281a ad3e 24ab ba3e 7a15 693e d88a 9c3e
000003b0: 5f7e 853e a544 3d3e d7e3 f13e a1c1 e43d
000003c0: 1d89 ca3e 3d22 1e3e 33b4 c43e e783 c53e
000003d0: faac 393e 5633 693e 2198 f43d dab8 5a3e
000003e0: ed4b 193e e987 e93d 2443 813e e846 353e
000003f0: 0eb8 223e 3d32 3d3e 6568 0c3d 11eb 213e
0.19282688 0.28657272 0.18504567 0.109974205 0.15428281 0.1162835 0.1749596 0.1576109
0.17027709 0.28912243 0.17286524 0.21445428 0.27099907 0.4828432 0.13828263 0.17770793
0.2869737 0.16888057 0.21452679 0.24626784 0.17614652 0.17861614 0.19636174 0.26686624
0.19573729 0.16849586 0.105111815 0.40887147 0.32297823 0.21347424 0.32072106 0.35053232
0.11266981 0.34067577 0.2557454 0.13659042 0.4579131 0.2792455 0.18789355 0.182035
0.25633493 0.20155336 0.32570073 0.12837473 0.3420227 0.25158486 0.13385771 0.14013076
0.12717098 0.29317206 0.11546021 0.25173295 0.1741036 0.32452986 0.11681696 0.2688137
0.301374 0.18732597 0.37252536 0.3036544 0.21921632 0.08336932 0.1520873 0.17693242
0.12657206 0.41975448 0.13989203 0.13242505 0.124434374 0.20637183 0.3273424 0.4418362
0.12610526 0.18912564 0.17782304 0.3483518 0.22079077 0.22814924 0.26203984 0.12544668
0.14955084 0.18621647 0.2063572 0.3871469 0.22992912 0.4495068 0.22252749 0.23617949
0.22794487 0.2295276 0.27182192 0.26558912 0.23095283 0.29509854 0.1689384 0.26340362
0.24417228 0.32165015 0.30837002 0.1735592 0.12018835 0.181036 0.316674 0.37017015
0.14466447 0.111776255 0.3063229 0.39981475 0.18938461 0.27535525 0.16211994 0.121897414
0.28343913 0.24785885 0.19445421 0.18402065 0.27288944 0.24797909 0.21329553 0.10404387
0.2623849 0.24822487 0.37133747 0.29766828 0.21852267 0.19651245 0.28674623 0.28780267
0.17074218 0.33974963 0.2695033 0.24142495 0.22594179 0.18581235 0.15140297 0.18405786
0.08529333 0.17794198 0.13703501 0.2281338 0.16075875 0.24967481 0.24874502 0.12488211
0.21246894 0.36417037 0.27599254 0.24714695 0.26189998 0.3719476 0.12096224 0.20355484
0.2080102 0.29716846 0.30180532 0.16888872 0.1504918 0.20068088 0.33703393 0.32658285
0.09157822 0.18197955 0.17276673 0.4108379 0.11535868 0.16115215 0.15617608 0.13064854
0.27885875 0.28519952 0.10411449 0.19157545 0.32581857 0.09669705 0.40235737 0.25031853
0.20830752 0.37402537 0.24017812 0.11571727 0.21388982 0.14432152 0.24775113 0.25923568
0.23595448 0.45239577 0.16945176 0.26813823 0.21033844 0.507203 0.2771191 0.2506625
0.24650863 0.3086056 0.13966614 0.32933673 0.1741704 0.25883785 0.31482977 0.10267969
0.2602561 0.25555074 0.18395801 0.20031099 0.32363904 0.13209035 0.1772467 0.11825434
0.16696036 0.24159977 0.16618268 0.12710834 0.18323284 0.087116465 0.14724405 0.11191911
0.3196615 0.13540009 0.23883031 0.23092078 0.25992516 0.18564749 0.42644235 0.22615917
0.2745475 0.19740084 0.17185833 0.24539462 0.18255225 0.3621693 0.24757968 0.31109872
0.33809018 0.36458695 0.22762099 0.3057468 0.26072976 0.18483217 0.4724414 0.11169744
0.39557734 0.15442748 0.3841873 0.38577196 0.18132392 0.2277349 0.11943079 0.21359578
0.1497037 0.11402876 0.25246537 0.1770283 0.15890524 0.18476196 0.034279246 0.15812327
