statedicts/pl_statedict_db_2022-04-21_T2_P0_R1_s1_seed_0.ckpt (torch, 193721 bytes, 29 tensors)

nn.input_batch.weight f4 [5]
000000 98 50 7f 3f 80 ca 7f 3f ea bc 7b 3f 1f 1f 7d 3f
       0.9973235 0.99918365 0.98335135 0.9887561
000010 c7 a1 81 3f
       1.0127496

nn.input_batch.bias f4 [5]
000000 1f cf 89 bc d9 a4 a3 3c c3 7d 84 bb 00 e0 8d bc
       -0.016822396 0.019976066 -0.0040433123 -0.017318726
000010 49 8f 7e 3c
       0.0155370915

nn.input_batch.running_mean f4 [5]
000000 65 34 e0 3f 6a c0 84 3d 59 4b 3d 40 c7 c6 3e 40
       1.751599 0.064820126 2.9577239 2.9808824
000010 2f e6 87 3e
       0.26542804

nn.input_batch.running_var f4 [5]
000000 6e 03 81 3c e1 64 a2 34 fb e9 4c 3b ec 5c f3 3a
       0.015748706 3.024825e-07 0.0031267393 0.0018567122
000010 e2 09 b5 3a
       0.0013812149

nn.block1.linear.weight f4 [96, 5]
000000 a2 e8 3d be 63 0f 6f be 4b 68 01 be 71 32 94 be
       -0.18545774 -0.23345713 -0.12637441 -0.28944734
000010 8d 84 41 3e 18 e0 25 3d af 4a 1c be 1b 3b 42 bd
       0.1889822 0.040496916 -0.15262865 -0.04741965
000020 97 c0 07 bc c0 67 c4 3e 38 c7 c8 3e 34 67 b1 be
       -0.008285663 0.38360405 0.39214492 -0.3464905
000030 a3 34 22 3e a6 36 39 3e 8b d8 3a 3e 47 5f 73 bd
       0.15840392 0.18087253 0.18246667 -0.059417035
000040 de 6e e3 3d d1 16 02 3e e7 a1 d9 3e c0 bc e0 be
       0.111051306 0.12704016 0.42506334 -0.43894005
000050 fd a3 2e be 35 c9 99 be c2 32 5d be 83 1c b2 3d
       -0.17054744 -0.3003632 -0.21601394 0.086968444
000060 69 d3 8b 3e a4 7a ad be a5 f3 94 3e 84 84 be 3e
       0.2730973 -0.3388263 0.29092136 0.37210476
000070 89 e4 61 be 1d 21 9e 3d 18 c5 68 be 31 c7 c2 3d
       -0.22059835 0.077211596 -0.22731435 0.09510649
000080 f0 dd 55 be 6e 32 35 be 3b 95 9a be 7c dd c2 be
       -0.20885444 -0.17695019 -0.3019198 -0.38059604
000090 44 fa b5 3e 66 91 82 bd 27 96 86 3b 77 f8 54 be
       0.355425 -0.06375389 0.004107255 -0.20797907
0000a0 d1 ad a0 3e b5 1f 83 be d7 6d 3b be f3 b6 b2 be
       0.3138261 -0.25610128 -0.1830362 -0.34905204
0000b0 86 72 bf be 49 96 c8 3e b5 7e b2 be 62 6b 8f bd
       -0.37392062 0.39177158 -0.34862295 -0.070029035
0000c0 cd ca ee bd 3e 78 3d 3e 7f 0d 02 3e 63 c9 ae be
       -0.11659775 0.185029 0.12700461 -0.3413802
0000d0 ad 4a cb 3e 30 9a e5 be de 26 34 3d 94 08 18 bd
       0.3970541 -0.44844198 0.04398238 -0.037117556
0000e0 d9 ea d2 bd f4 63 95 3e 07 bb c5 3e 84 2c 8e 3d
       -0.102987 0.2917782 0.38619253 0.069420844
0000f0 d8 27 28 be d0 9f a9 3e d9 ba 90 3e a4 6c ae 3d
       -0.16421449 0.3312974 0.28267553 0.08516815
000100 4f 30 f5 bd 61 71 13 3d d4 db ce 3e 19 3e 0b 3d
       -0.11972105 0.0359968 0.4040209 0.033994768
000110 ec 34 c0 bd 31 a3 c1 be a6 b7 83 be 4e 08 a4 3e
       -0.09385094 -0.37819818 -0.2572605 0.32037586
000120 5f c0 17 bd 78 93 43 3b 17 46 58 3e 45 d3 96 be
       -0.037048694 0.0029842537 0.21120487 -0.2945806
000130 fb 36 f6 bc c7 0b ff bd de 8a 6e 3e 01 fe b9 3e
       -0.030055514 -0.12453418 0.23295161 0.36326602
000140 6b 46 90 3e e8 f2 aa 3e 4a ed cc be 9e 94 25 be
       0.28178725 0.33388448 -0.40024787 -0.16169974
000150 f8 40 54 3d fb e9 c2 be d6 61 f8 3d ac b6 95 be
       0.05181977 -0.38069138 0.12128036 -0.2924093
000160 be 56 43 3e f4 ad b8 3e 22 1f cd be c0 38 be 3e
       0.19076058 0.36070216 -0.40062815 0.37152672
000170 82 80 5b 3e 8b 2c 93 be 10 bb da 3e d7 94 c8 be
       0.2143574 -0.2874492 0.42720842 -0.39176056
000180 3d 50 9a be da 2d 5d be e7 47 b1 bc 25 d1 9c 3d
       -0.30139342 -0.21599522 -0.021640731 0.07657079
000190 3a 07 03 be 41 c0 d8 be ef b4 60 bd 4d 9e ad 3e
       -0.12795725 -0.42334178 -0.05486005 0.33909836
0001a0 dd d7 b0 3e ba ef 66 3e 47 23 89 3d 2b c9 d0 3d
       0.3453969 0.22552386 0.06696182 0.1019462
0001b0 22 0a af be d0 73 41 3e 52 b0 e3 be 74 da 3c be
       -0.34187418 0.18891835 -0.4447046 -0.18442708
0001c0 38 62 f4 bd 4c 39 a8 3e b7 28 4f bc 14 65 4b be
       -0.11932796 0.32856214 -0.0126439845 -0.19862777
0001d0 83 a3 a0 3d f6 94 be be 29 8b f9 bd 54 71 00 3e
       0.078436874 -0.37223023 -0.12184746 0.12543231
0001e0 b1 95 1c bd 6c 29 46 bd 9a 8c 8f 3e 99 6f ab be
       -0.038228694 -0.048379347 0.28036958 -0.3348358
0001f0 4b 14 66 be 89 08 df 3e d4 39 b7 3d 50 0d 9e bd
       -0.22468679 0.435612 0.08946577 -0.07717383
000200 65 bf 6f 3e c2 bd 89 3e fb 41 aa bd 53 1f 40 be
       0.23412855 0.26902586 -0.08313366 -0.18761949
000210 90 70 85 bd 5b 5e 21 3e 33 bf 7f bd 93 1c 8a 3e
       -0.0651561 0.1575865 -0.0624382 0.26974925
000220 26 3e ba be b7 4a 62 be 7f 2d ab 3e bf d5 67 3d
       -0.3637554 -0.22098814 0.33433148 0.05660033
000230 52 5d b7 3d b5 dc 13 3e 98 9b cd bd 45 a1 37 be
       0.08953346 0.14439662 -0.10039443 -0.17932613
000240 8e bb 00 3e 79 bd f2 bd 43 2d 3d be e7 02 72 3d
       0.12571546 -0.11852545 -0.18474297 0.0590848
000250 9d 89 dd 3d 1f 65 25 bd d0 81 99 be 9c ca 89 bd
       0.10817263 -0.04037964 -0.29981852 -0.06728098
000260 d6 8b 81 be 10 a8 6b 3e d4 1e 9b be 03 88 b5 3e
       -0.25302 0.2301333 -0.30296957 0.3545533
000270 33 73 35 3e b2 c2 c6 be 67 c5 af 3e 1e a5 dc be
       0.17719726 -0.38820416 0.34330294 -0.43094724
000280 d4 76 5d 3c 99 63 8a be 89 2b c2 be 9c 14 43 3c
       0.0135171 -0.27029112 -0.3792384 0.011906769
000290 a2 fb 84 be 84 34 a4 3e d0 19 b2 be 60 db b6 3e
       -0.2597323 0.32071316 -0.34785318 0.35714245
0002a0 8f 7b 90 3e c7 d4 cd 3e 1c 4a 0a be 06 b3 8b be
       0.28219268 0.402014 -0.13504833 -0.27285022
0002b0 5c 45 94 be 07 9a bc 3e 3f d6 6b be 40 c7 89 bd
       -0.28959167 0.36836264 -0.23030947 -0.06727457
0002c0 f5 77 90 bd da ef 8c 3d 5a ea b3 be 7c a5 be 3e
       -0.0705413 0.068816856 -0.35139734 0.3723563
0002d0 80 0b a0 be 7d 79 df 3e c2 15 40 be 46 65 53 be
       -0.31258774 0.43647376 -0.187583 -0.20644102
0002e0 10 cd 0d bd 40 7d 0b 3e 74 33 a9 bd 1b 48 e5 be
       -0.03461939 0.13621998 -0.08261767 -0.44781575
0002f0 69 60 9f 3e 2f b4 e2 3e 9e 60 68 3e f2 b5 df 3e
       0.31128243 0.44278094 0.22693107 0.436935
000300 4a f8 f7 3d c6 22 0d bd 3d 42 b6 be 49 ec c9 be
       0.12107904 -0.03445699 -0.3559741 -0.39438084
000310 03 99 9d be 2d cf d6 bd 4e d1 81 3e fd b9 45 be
       -0.307808 -0.104887344 0.25355 -0.1930923
000320 c7 e0 b5 bc 45 f9 e2 bb ae 86 94 be 61 f0 08 bc
       -0.022201909 -0.006926688 -0.29009002 -0.008358092
000330 d4 e6 dd 3e be a1 b9 3e 6a a4 af 3e 4f fc 2c bd
       0.4334017 0.36256212 0.34305125 -0.042232808
000340 58 4f a4 3a f0 d9 72 3e 87 ce 1d be ce 90 3a be
       0.0012535853 0.23715949 -0.15410815 -0.18219301
000350 1c ba c3 3e 95 52 eb 3c fa db 98 be 48 dd c2 3e
       0.38227928 0.028725902 -0.2985533 0.3805945
000360 ca 24 9a 3d df 09 70 3e d0 52 c6 be 5d 8d aa 3d
       0.07526548 0.23441266 -0.38735056 0.08327744
000370 d1 52 89 3e cc a3 83 bd 7c d5 80 be 67 37 b9 3e
       0.26820996 -0.06427726 -0.25162876 0.3617508
000380 b9 ae 57 3e 21 37 de 3d d7 27 d0 3d a5 8d 08 3d
       0.21062745 0.10850359 0.10163849 0.033338208
000390 3e f1 86 3e fd f8 d4 bd 63 da 87 be c9 12 2e 3e
       0.26355928 -0.10399053 -0.26533803 0.16999353
0003a0 02 fe ec 3d f2 af 34 3e 71 86 26 bd da b6 7d bd
       0.11571886 0.17645243 -0.040655557 -0.06194196
0003b0 9f b0 12 bd 98 51 f5 3d f2 47 af be 38 4b d5 be
       -0.03581297 0.119784534 -0.34234577 -0.4165895
0003c0 c1 93 35 3e 7b fa 76 be b8 b3 2e bd 07 8a ed 3d
       0.17732145 -0.24118988 -0.042651862 0.11598592
0003d0 aa 44 88 3d 11 e0 8c 3e db eb 62 3d 91 ed e9 3d
       0.06653722 0.275147 0.05540071 0.11422265
0003e0 60 a6 ed bc e3 4b 8b 3d 95 32 27 3e 42 08 9c 3e
       -0.029009998 0.068015836 0.1632789 0.3047505
0003f0 5f 82 d8 be 50 6f 3e be 00 d1 cd be 8a bd 3d be
       -0.42286965 -0.1859715 -0.40198517 -0.18529335

nn.block1.linear.bias f4 [96]
000000 90 48 b2 be 1a a2 06 bc bb 4c b1 3d ee 57 2b 3e
       -0.34820986 -0.008217359 0.08657213 0.16732761
000010 5a 7a 8e be 40 91 86 3d e7 49 40 3e 32 fe c4 3e
       -0.27827722 0.06570673 0.18778192 0.38475186
000020 56 e9 ab be 33 ff 5b be 2b 3e 06 3e 96 80 6b bc
       -0.3357646 -0.2148407 0.13109653 -0.014373919
000030 27 85 98 be cb 78 bd be 95 16 bd be 2c 21 a1 be
       -0.29789087 -0.3700622 -0.3693129 -0.3147062
000040 6e 55 3d be 57 d9 9f be 60 1a c3 be 22 26 05 3d
       -0.1848962 -0.31220505 -0.3810606 0.03250707
000050 fd a6 86 3e 71 05 59 be b5 5e 33 3d f0 08 e0 3a
       0.26299277 -0.21193482 0.04379149 0.0017092507
000060 8f 15 54 3e e3 3f 9b be 91 b9 d4 3c 79 8a d5 3e
       0.20711349 -0.3032218 0.025967391 0.4170721
000070 ce 8b a5 3e 78 f0 e2 be fd 27 8f bd 65 46 d2 bb
       0.32333225 -0.44324088 -0.06990049 -0.006417083
000080 d8 95 f7 bd 97 6a 96 be 51 de a1 be 61 0f 9b 3e
       -0.12089127 -0.29378197 -0.31614926 0.3028517
000090 25 bf 31 be 20 b7 dd bc 6b 06 08 3e 8b 25 8c be
       -0.17358072 -0.02706486 0.13283698 -0.27372393
0000a0 38 9d 19 3d 94 bc 86 3e 98 12 86 be 6a 99 05 3e
       0.03750345 0.2631575 -0.2618606 0.13046804
0000b0 f7 a9 bd bc f3 23 7d 3e 6f 16 97 3e 2c 0f f3 3d
       -0.023152335 0.24720745 0.29509303 0.11868128
0000c0 06 69 7e 3c 9b f8 c9 be 08 7f 38 3e b1 e2 8c 3e
       0.015527969 -0.39447483 0.18017209 0.27516702
0000d0 01 ee 2a be 2b 46 e5 be e3 dc ba 3e 01 a3 d1 bd
       -0.16692354 -0.44780096 0.36496648 -0.10236169
0000e0 0b 41 bb 3d d5 d6 fb bd 2c 0c 93 3e 6e 41 e0 3e
       0.09143265 -0.12296835 0.28720224 0.4379992
0000f0 9c d8 90 3e db 19 15 be ff c4 a0 3e ac 37 61 3e
       0.2829026 -0.14560644 0.31400296 0.21993893
000100 00 1a 2a 3d 9f 03 ba be f2 49 46 be 9d ba dc be
       0.0415287 -0.36330888 -0.19364145 -0.43111125
000110 f6 3c 99 3e 7b bd e2 3e a1 45 85 3e b9 cc 18 3e
       0.29929322 0.44285187 0.26029685 0.14921845
000120 b7 ff dd 3d 05 c7 dc 3e ce 94 7a be 9b c5 19 be
       0.10839789 0.4312059 -0.24470827 -0.15016787
000130 b7 bf cc be c5 5c 41 bd 5c bb fe 3c b2 53 fb 3d
       -0.39990017 -0.047207613 0.0310952 0.12271823
000140 95 01 a1 be fc c4 4d bd 9d ac bc be 45 8c c4 be
       -0.3144652 -0.050236687 -0.36850443 -0.38388267
000150 99 b1 71 3d 6e 18 dd be 12 50 ee 3d 70 b5 dc be
       0.05900726 -0.431827 0.11636366 -0.43107176
000160 51 ef 9d be 21 69 bd bd 5f 3c e3 be c3 92 b8 3e
       -0.30846646 -0.092485674 -0.44381997 0.3604947
000170 4f f7 ba 3e 5f 38 6f be 17 e5 ba 3d 6b c4 6d 3e
       0.36516806 -0.23361348 0.09125727 0.23219459

nn.block1.batch.weight f4 [96]
000000 9d 04 80 3f 51 c9 7f 3f 20 b1 80 3f 17 1b 80 3f
       1.0001408 0.9991656 1.0054054 1.0008267
000010 12 0a 80 3f 95 1e 80 3f 35 e4 7f 3f 92 c5 7f 3f
       1.0003073 1.0009333 0.9995759 0.99910843
000020 49 4d 7f 3f 1f ec 7e 3f 87 0b 80 3f 9b b2 7f 3f
       0.997273 0.9957904 1.0003518 0.99881905
000030 44 d2 7f 3f 67 7f 80 3f 5e 5f 80 3f 12 b9 7f 3f
       0.99930215 1.003888 1.0029104 0.9989177
000040 3e 41 80 3f 9d 23 80 3f 5d 64 80 3f 53 f9 7f 3f
       1.001991 1.0010868 1.0030628 0.99989814
000050 c2 2f 80 3f 78 90 80 3f c4 f8 7f 3f be 81 7f 3f
       1.0014575 1.0044088 0.9998896 0.99807346
000060 49 15 7f 3f db 70 7f 3f 04 0d 80 3f 3d ec 7f 3f
       0.99641854 0.9978158 1.0003972 0.99969846
000070 4b 4b 7f 3f 00 00 80 3f d2 37 80 3f d5 35 80 3f
       0.9972426 1.0 1.0017035 1.0016428
000080 8b 1f 80 3f 11 5e 80 3f 56 1d 80 3f 34 31 80 3f
       1.0009626 1.0028707 1.0008953 1.0015016
000090 bf 29 7e 3f c5 ba 7f 3f 3f a2 7f 3f 57 28 80 3f
       0.9928245 0.9989436 0.9985694 1.0012311
0000a0 43 4e 7f 3f 17 0d 80 3f f2 6c 80 3f 62 84 7f 3f
       0.9972879 1.0003995 1.0033247 0.99811375
0000b0 05 da 7f 3f 4d 38 80 3f 7e ae 7f 3f f6 9a 7f 3f
       0.99942046 1.0017182 0.9987563 0.99845827
0000c0 8a 1a 81 3f 44 ed 7f 3f 6a df 7f 3f 53 a4 7f 3f
       1.0086224 0.99971414 0.9995028 0.99860114
0000d0 f3 c9 7f 3f cd 93 7f 3f 17 11 80 3f a4 23 80 3f
       0.99917525 0.998349 1.0005215 1.0010877
0000e0 35 9b 7f 3f 5f 94 7e 3f 7e 24 80 3f 6c 33 80 3f
       0.998462 0.99445146 1.0011137 1.0015693
0000f0 dd 9e 7f 3f be e2 7e 3f ac f0 7f 3f a5 88 80 3f
       0.9985178 0.9956473 0.9997661 1.0041701
000100 d3 2f 80 3f 4c 32 80 3f 28 7b 80 3f 0b 73 80 3f
       1.0014595 1.0015349 1.0037584 1.0035108
000110 42 fd 7f 3f ae bf 7f 3f 54 24 7f 3f c8 52 80 3f
       0.99995816 0.99901855 0.9966481 1.0025263
000120 a7 65 7f 3f 63 0f 80 3f ce d5 80 3f 9b bc 7f 3f
       0.99764484 1.0004696 1.0065248 0.99897164
000130 16 3c 80 3f 9a 15 80 3f 3b 4e 80 3f 08 40 80 3f
       1.0018337 1.0006592 1.0023874 1.0019541
000140 0c 55 7f 3f b6 4e 7f 3f 00 00 80 3f 72 09 7f 3f
       0.99739146 0.9972948 1.0 0.9962379
000150 60 0c 80 3f b6 01 80 3f 1a 1d 80 3f 42 02 7e 3f
       1.0003777 1.0000522 1.0008881 0.99222195
000160 3d 9c 7f 3f 36 fb 7f 3f 60 23 7f 3f 15 3e 80 3f
       0.99847776 0.9999269 0.9966335 1.0018946
000170 43 f5 7f 3f 27 ef 7f 3f 11 0c 80 3f ec e1 7f 3f
       0.99983615 0.9997429 1.0003682 0.99954104

nn.block1.batch.bias f4 [96]
000000 00 0f 7d ba 2c cc 8e ba 88 7f 4f 39 e3 d9 e8 b9
       -0.0009653419 -0.0010894588 0.00019788567 -0.00044412827
000010 35 63 c1 b9 9a fb 7a ba c8 84 8e ba 53 f9 c0 3a
       -0.00036885744 -0.0009574235 -0.0010873312 0.0014722742
000020 a1 e5 17 bb 45 90 4b b9 a0 e7 44 3a e9 ff 1c 39
       -0.002317764 -0.00019413333 0.00075113215 0.00014972653
000030 d8 d1 c3 39 5e 1a 9f 3a b8 de a8 39 c7 1b 46 3a
       0.00037349644 0.0012138595 0.00032209395 0.000755724
000040 63 a0 cd 39 49 1a a8 3a 78 7c 1d ba d3 cb bb ba
       0.00039220144 0.0012825216 -0.0006007622 -0.0014327712
000050 39 98 30 3a 04 d6 4f 3b c1 d5 cd b9 df 13 eb b9
       0.000673655 0.0031713257 -0.00039259906 -0.00044837498
000060 e3 bd b6 3a 9c c6 38 39 db de 14 3b c3 1d 80 ba
       0.0013942089 0.00017621595 0.002271584 -0.0009774495
000070 c8 7c d4 ba f5 d4 99 ba 94 fc ac ba 78 6e 40 3a
       -0.0016211504 -0.001173644 -0.0013197833 0.000734068
000080 e5 40 0e 3a 60 c3 ca 3a dc 11 05 ba 43 8d 7f b9
       0.000542654 0.0015469603 -0.00050762086 -0.00024371319
000090 e1 45 b2 ba a6 9a ec 39 03 32 92 3a 70 81 bc b9
       -0.0013601148 0.0004512865 0.0011153821 -0.00035954593
0000a0 52 c6 00 b9 0a 12 20 39 e3 16 35 bb 4e ef b8 3a
       -0.00012280911 0.00015265509 -0.002763205 0.0014109404
0000b0 3c 6f 1f 3a 1c ad 24 3a c4 bd a9 b8 54 ec 1f 3a
       0.0006081944 0.0006281899 -8.0938946e-05 0.0006100584
0000c0 05 cd 45 38 81 97 00 3a 4d 0b c8 ba 2d 3c 90 b8
       4.71594e-05 0.00049053883 -0.0015262157 -6.877664e-05
0000d0 84 95 9e 39 9d 14 84 ba 87 54 ed 39 d7 9c d0 3a
       0.00030247506 -0.0010076944 0.0004526714 0.0015915883
0000e0 71 ef af ba 0c e3 12 bb 32 c8 98 ba cf eb 48 bb
       -0.00134228 -0.0022413163 -0.0011656343 -0.003065813
0000f0 6c a8 ab ba a3 a1 11 3b 44 cd 54 b7 a6 ab 0f 3b
       -0.0013096458 0.0022221587 -1.2683977e-05 0.0021922379
000100 ab f1 1e ba 04 5e 93 ba bf ae a1 39 2f 13 53 3a
       -0.0006063233 -0.0011243229 0.0003083851 0.000805187
000110 ec 49 35 ba 4a 97 25 3b 65 1b fe ba c2 98 1c bb
       -0.0006915617 0.0025267177 -0.0019386826 -0.0023894762
000120 c6 3a 30 ba de e6 59 39 3f 6a c7 ba 70 4b 21 3b
       -0.0006722625 0.00020780737 -0.0015214159 0.0024611615
000130 95 c4 c6 3a 55 8b 95 3a d0 19 02 bb cf fa 73 39
       0.0015164787 0.0011409322 -0.0019851811 0.0002326772
000140 26 1c bf 3a a7 72 06 bb 0d 9d 18 3a bc 73 20 3b
       0.0014580532 -0.0020515115 0.0005821742 0.0024483046
000150 52 39 19 bb 6b 72 b2 39 7f 8b 87 3a 47 48 28 ba
       -0.0023380113 0.00034036054 0.0010341256 -0.00064194616
000160 0d 5a 1c 3b 13 09 16 bb e2 1b c8 3a 99 09 d7 ba
       0.0023857385 -0.0022893592 0.0015267099 -0.0016406059
000170 ce c2 33 b9 da bb 8e 3a 07 1b c5 37 89 89 aa 39
       -0.0001714334 0.0010889724 2.3496816e-05 0.00032527398

nn.block1.batch.running_mean f4 [96]
000000 f5 33 55 39 16 af 3b 3e e1 98 04 3e 77 86 5f 3e
       0.00020332618 0.18328509 0.12948944 0.21828638
000010 4c 3d 1d 3e 72 2a 85 3e 18 ea 60 3e de 74 c8 3e
       0.15355414 0.26008946 0.219643 0.39151663
000020 54 22 61 3e c3 bc ab 3d ff 14 bb 3e b6 a0 4c 3e
       0.21985751 0.08385613 0.36539456 0.19983181
000030 24 f7 93 3d f4 30 be 3d a5 6e 01 3d d8 1b 74 3e
       0.07224873 0.09286681 0.03159966 0.23838747
000040 09 03 3d 3e 05 b8 8c 3e 13 e6 22 3d 7b b1 65 3e
       0.18458189 0.27484146 0.039770197 0.22430985
000050 02 ee 01 3f a7 30 af 3d 6a 07 b4 3e dd ce 27 3e
       0.50753796 0.085542016 0.35161906 0.16387506
000060 2a 9e da 3e 76 aa a3 3d ff 17 d7 3d 31 a8 f5 3e
       0.42698795 0.07991497 0.10502624 0.47979882
000070 e5 d4 ab 3e 00 00 00 00 52 71 d0 3d e1 7a 4b 3e
       0.33560863 0.0 0.10177864 0.19871093
000080 af 02 15 3d c4 7c de 3c a7 0c 86 3d be 76 a2 3e
       0.036379512 0.027159102 0.06545382 0.31731218
000090 74 6f 71 3a 25 96 e3 3e fa 8d b6 3e 38 c5 e4 3d
       0.0009210028 0.4445049 0.35655195 0.11170429
0000a0 fd 1b a2 3e 55 8a b4 3e 78 83 32 3e e5 c7 c5 3e
       0.31661978 0.3526179 0.17432964 0.3862907
0000b0 55 2a 90 3e 38 d9 76 3e 49 c3 b1 3e 40 40 d2 3e
       0.28157297 0.241063 0.34719303 0.41064644
0000c0 36 2f bc 3d c3 6e 9d 37 5d 50 ca 3e d9 ee bd 3e
       0.09188692 1.8767436e-05 0.39514437 0.3709629
0000d0 b4 2e 32 3e ab 86 e6 3c 6a 17 c4 3e 62 00 5f 3e
       0.17400628 0.028140387 0.38299114 0.2177749
0000e0 dd af 5b 3e 63 72 0c 3e 38 9a d2 3e b9 5e e7 3e
       0.21453805 0.1371551 0.41133285 0.45189455
0000f0 39 a5 a7 3e 83 d8 fe 3c 75 b3 bd 3e 07 ca a9 3e
       0.32743242 0.0311091 0.37050977 0.33161947
000100 e9 41 9c 3e 35 d4 15 3d 31 ff 8c 3e d1 1a b0 3c
       0.30519035 0.03657933 0.27538446 0.021497162
000110 4e a2 c8 3e f8 1b f1 3e fb 33 d3 3e 08 63 33 3e
       0.3918633 0.4709165 0.41250595 0.17518246
000120 b1 bc 84 3e f2 9f 10 3f 13 58 db 3d c8 89 72 3e
       0.2592521 0.5649406 0.10710158 0.23685372
000130 0b 1b d6 3c 39 72 83 3e e0 80 5c 3e 10 d3 9b 3e
       0.026135942 0.25673082 0.21533537 0.30434465
000140 b1 aa ab 3d f2 4d a1 3e 00 00 00 00 00 00 00 00
       0.08382166 0.3150478 0.0 0.0
000150 03 04 5d 3e d9 bf a9 3d f3 2f 77 3e 26 67 ed 39
       0.21583562 0.08288545 0.24139385 0.00045281014
000160 c6 10 8b 3a 1e 3c 5e 3e b9 24 a0 39 62 7e c1 3e
       0.0010609857 0.2170262 0.0003054494 0.37791735
000170 ba 87 bc 3e 9c 07 28 3e d6 1f 71 3e 1b eb 8d 3e
       0.368223 0.16409153 0.235473 0.27718434

nn.block1.batch.running_var f4 [96]
000000 19 c7 2a 38 1e b3 43 3d 0d c7 b1 3c d3 c8 7f 3d
       4.0716583e-05 0.04777824 0.02170136 0.06244738
000010 73 54 5e 3d 01 61 1b 3e 6e 67 40 3d 5b 90 9b 3d
       0.054279756 0.15173723 0.04697364 0.07595893
000020 d4 34 be 3d 9d ee 7c 3c 41 5a 24 3e 95 69 4d 3d
       0.0928742 0.015437749 0.16050054 0.05014952
000030 38 93 c5 3c ee c4 ae 3c 9b e9 8b 3b a6 f9 00 3e
       0.024118051 0.021334138 0.0042697913 0.12595233
000040 ae 46 71 3d 46 38 2b 3e ef 07 b2 3b 05 ac a9 3d
       0.058905296 0.16720685 0.0054330747 0.08284763
000050 e2 a2 a8 3e cc 9e 77 3c 4d 80 43 3e 9d cb 19 3d
       0.3293677 0.015113544 0.19091912 0.037547696
000060 94 10 6c 3e d9 c9 5b 3c 4e c0 90 3c c7 3e 24 3e
       0.23053199 0.013414823 0.017669823 0.16039573
000070 6d e8 59 3d 00 00 00 00 14 10 c5 3c 47 c7 60 3d
       0.053200174 0.0 0.024055518 0.054877546
000080 37 0e 4f 3b 19 47 4f 3b a0 54 6b 3c 56 33 d1 3b
       0.0031594166 0.003162807 0.014363438 0.0063842935
000090 ad 9c 40 39 f1 35 93 3e 39 e5 1c 3e b4 3d e5 3c
       0.00018368913 0.28752092 0.15321817 0.027983524
0000a0 32 7f 08 3e 7a 58 c1 3d 98 12 d1 3d cf e8 1f 3e
       0.13329771 0.09440704 0.102086246 0.15616153
0000b0 af 99 e3 3d 8f 62 a5 3b 28 20 dc 3d ff 1e 65 3e
       0.11113297 0.0050471495 0.10748321 0.22375105
0000c0 ba 3b 29 3c 16 5e 38 35 dc 03 54 3e b5 4c 8c 3d
       0.010329181 6.8682255e-07 0.20704597 0.06850568
0000d0 70 df 60 3d b4 7d bb 3b a7 17 a8 3d aa 82 89 3d
       0.054900587 0.005721772 0.08207636 0.06714375
0000e0 87 41 54 3d f4 54 04 3d 4a 55 1a 3e 5c 7b 2b 3e
       0.051820304 0.03230758 0.15071598 0.16746277
0000f0 9b f7 99 3d 3f 8f 3a 3b 9f c1 d0 3d 62 67 d6 3d
       0.0751793 0.002846673 0.1019318 0.104689375
000100 37 94 01 3e 49 b2 84 3b c3 ef ed 3d 0e e4 78 3b
       0.12654196 0.0040495736 0.116179965 0.0037977728
000110 c7 59 58 3e 41 bb 82 3d 50 f0 2d 3e eb 6d bb 3c
       0.21127997 0.06383372 0.16986203 0.022879561
000120 3a 20 a8 3d b4 92 92 3e 04 07 06 3d ae 82 17 3e
       0.08209272 0.2862755 0.032721534 0.14795944
000130 eb ab 3b 3b 2d 4f ad 3d 76 38 92 3d 6a 38 0e 3e
       0.0028636407 0.08462367 0.07139675 0.13888708
000140 84 69 9f 3c 7f 56 5d 3e 00 00 00 00 00 00 00 00
       0.019459493 0.21615027 0.0 0.0
000150 df 18 db 3d 3e eb a4 3c 50 82 e4 3d c6 1b fe 38
       0.10698103 0.020131703 0.11157668 0.00012116837
000160 af b9 d8 38 1e 54 48 3d f8 32 f6 37 de 28 28 3c
       0.00010334269 0.048908345 2.934922e-05 0.01026365
000170 50 cf 7d 3d 29 49 49 3d c1 92 b0 3d 7e c1 d4 3d
       0.061965287 0.049142037 0.08621741 0.10388468

nn.block2.linear.weight f4 [256, 96]
000000 68 77 0c 3d 6e c8 50 bc 19 35 c4 bd b5 89 99 3d
       0.034293562 -0.012743099 -0.0958044 0.07496969
000010 0f b5 b5 bd 93 48 8e bc a9 93 83 3b d0 f1 05 bd
       -0.08872425 -0.01736859 0.004015405 -0.032701313
000020 2f 1e 25 bd f5 0f b4 bd 7b a5 83 3b bd 0b 24 bc
       -0.04031199 -0.08792106 0.0040175295 -0.010012564
000030 af 07 b8 3d 62 97 14 bd 9d 35 a2 3d fb 2e b6 3b
       0.089858405 -0.036277182 0.07920382 0.0055597997
000040 91 44 40 bd 83 43 c1 bc ef e6 2d bc db 2a 32 3b
       -0.04694039 -0.023591762 -0.010614141 0.0027186188
000050 43 fc 79 bc 1b ce e2 3c e4 47 af 3d c0 de 8c 3c
       -0.015257898 0.02768617 0.08558634 0.01719606
000060 d0 b9 10 3d 8c 86 82 3d 27 cc bf 3c f9 ab 43 3d
       0.035333455 0.06373319 0.023412777 0.047771428
000070 ad 93 54 3d 2e a6 c3 3d fd a1 bc bd fa 60 04 3d
       0.051898647 0.09553181 -0.09210584 0.032319047
000080 6c 65 c7 bb ed 44 99 bc f6 7f 1e bd b8 f2 82 3d
       -0.0060850885 -0.018709624 -0.03869625 0.06393951
000090 b8 f0 c1 3d a4 9d a8 bd f3 b9 55 3d 2c 4c 93 3d
       0.094697416 -0.082331926 0.052179288 0.07192263
0000a0 30 6b 99 3c fa ff 38 39 d0 b8 a2 3d 3b 2c 8f 38
       0.018727869 0.00017642966 0.079454064 6.82701e-05
0000b0 ed 7c ca bc 80 b4 e8 bb 5e 01 0f 3d cc a9 bf 3c
       -0.024717772 -0.0071015954 0.034913413 0.023396395
0000c0 56 ea 99 bb 11 40 04 3d c2 0d ca 3c 57 c3 a8 bd
       -0.0046971245 0.03228766 0.024664763 -0.08240383
0000d0 7c 6c db 3c 23 3b 80 3d b6 73 64 3c 35 8c 25 bc
       0.026785128 0.062612794 0.013943603 -0.010104229
0000e0 e7 c8 99 3d b5 28 b4 bd 60 d2 46 bd 86 e5 35 bd
       0.07509022 -0.08796827 -0.048540473 -0.044408344
0000f0 fa f9 b6 3d 63 87 c8 bd bb 3e 0a 3c cf 6f ce bd
       0.08934398 -0.09791448 0.008437808 -0.100799195
000100 83 55 ca bb 94 a3 1d 3d a9 ff b7 bc 38 47 cb 3d
       -0.0061747446 0.03848608 -0.022460775 0.09925693
000110 36 86 0a 3b ac 49 4a bd 77 31 df 3c 37 75 5d 3d
       0.0021137125 -0.049386665 0.027245266 0.054066863
000120 09 0a de 3a 05 e2 ae 3d a1 ba 87 bd 85 e6 36 3d
       0.0016940247 0.085392036 -0.066273935 0.044653434
000130 89 d5 6e 3d 73 7d 55 3d 2b 9b ad 3a be b9 f5 3c
       0.05830911 0.05212159 0.0013245096 0.029995795
000140 58 b0 a2 bd 59 fb a4 bd 6c e3 cf bb d4 f6 5c bc
       -0.07943791 -0.08055753 -0.0063442495 -0.013486583
000150 6d ec 9b 3d aa 49 9a 3d 6f ad 8e 3d 5d 4e 35 bd
       0.07613454 0.075335816 0.069666736 -0.044264186
000160 70 bd a3 bd fa 90 c2 bd af aa 17 3d ad 9c ba bd
       -0.07995117 -0.09500308 0.03702801 -0.09111915
000170 db c0 d4 bd e6 ca 55 bd f1 d3 ad bd 4b 73 1c bd
       -0.10388347 -0.052195452 -0.0848769 -0.03819589
000180 eb 19 84 bd 5e 33 46 bd a1 e9 d1 3d be cd ba bc
       -0.06450256 -0.04838883 0.10249639 -0.022803184
000190 53 fe b3 3d 3b fe 26 bb d7 d9 92 bc 64 9b 0c bd
       0.08788743 -0.0025481123 -0.01792614 -0.03432788
0001a0 ce 99 99 bd 7e 4d 9f bd f8 b6 86 3d eb 38 05 bd
       -0.07500039 -0.07778452 0.06577867 -0.032524984
0001b0 c6 26 d0 bd 9f 51 b6 3d 4d f5 0c 3c 4a ba 87 bd
       -0.101636454 0.08902287 0.008603406 -0.06627329
0001c0 85 5f 9a bd c7 98 a8 bd f8 2f c2 bd bb 76 be 3d
       -0.0753775 -0.08232265 -0.094818056 0.0929999
0001d0 3d 9a 94 3d ed 07 ad 3b 34 75 b0 bd 47 df ae bc
       0.07255981 0.005280486 -0.08616105 -0.021346701
0001e0 88 7d cd bd 9f f1 1a 3d b6 86 cd bc 70 4d 5d bc
       -0.10033709 0.037828084 -0.02508865 -0.013507232
0001f0 4a 6c e2 bc ae ff 43 3d 43 4f 68 3d b9 67 dc 3c
       -0.027639527 0.047851257 0.056716215 0.026904928
000200 67 b6 d8 bb 4f 51 2e bc c3 9b 78 3b 3b 07 9e bd
       -0.006613541 -0.010639503 0.0037934638 -0.07716223
000210 be 88 c5 3d 24 d5 1b bd 14 e5 63 3d 94 6a 66 bd
       0.09645222 -0.038045064 0.055638388 -0.056253985
000220 71 3b b0 3b 8a 72 26 3d f2 cb c3 bd 27 71 30 3d
       0.0053781797 0.040636577 -0.09560384 0.04307666
000230 d5 fb 91 bd 56 72 b4 3c 29 e9 b6 bc fe 16 5e 3d
       -0.07128111 0.022027176 -0.022327976 0.054221146
000240 6d 1e d9 3d 34 9d bb 3c 66 8e 71 bb da cf 32 bd
       0.106015064 0.022902109 -0.0036858558 -0.043655254
000250 79 5c 1c 3d f3 37 4c bd 32 c0 38 3d 44 6e 21 bd
       0.038174126 -0.049858045 0.045105167 -0.039411798
000260 e3 52 88 3d 16 22 9f 3d 1c 94 86 3d 1f 28 89 3b
       0.066564344 0.07770173 0.06571218 0.004185691
000270 7e 3d 5b 3d fe 44 ba bd 32 3d a2 3d 28 c2 c8 bc
       0.05352544 -0.090951905 0.07921828 -0.024506643
000280 40 3e 09 3d 47 f1 22 bc fa c0 0c bd d2 96 47 bd
       0.03350663 -0.00994522 -0.034363724 -0.048727818
000290 20 2c 76 3d 86 df 5e bd 8d 2b 2e bc 33 41 41 3d
       0.060100675 -0.054412387 -0.0106305005 0.04718132
0002a0 cf da 28 3c 99 8d b8 bd 34 99 da bd 01 4c 5d bd
       0.010306074 -0.090113826 -0.106737524 -0.05402756
0002b0 82 74 c6 3d b8 8b 95 bd 96 99 6f 3d e0 73 9f 3d
       0.09690191 -0.0730204 0.05849608 0.07785773
0002c0 05 c5 17 bd 95 b8 4a bd d7 60 96 bd fa f2 81 3c
       -0.037053127 -0.049492437 -0.073426895 0.01586293
0002d0 41 b3 a0 bc 55 2e 64 b9 2b ac 19 3d d2 13 29 3d
       -0.019616725 -0.00021761034 0.037517708 0.041278668
0002e0 0f ea 01 bd f3 18 66 3c 10 97 c2 3c d4 25 43 3b
       -0.031717356 0.014044034 0.023753673 0.0029777186
0002f0 e8 ba ac 3c 69 e4 11 bd 07 1e b0 3d 28 ab 76 bc
       0.021085218 -0.03561822 0.08599477 -0.015055455
000300 72 3b 89 bc ff d5 c2 bd 20 57 a5 bd 9a 31 cc ba
       -0.016751979 -0.09513473 -0.080732584 -0.0015578747
000310 37 61 93 bc dd ed 70 bd 79 9c 77 3d bd 6d 17 bc
       -0.017990692 -0.058820594 0.06045196 -0.009242472
000320 0f b6 3e 3d aa 83 a9 3d 49 4b 39 bd 6f d8 61 bd
       0.046560343 0.08277066 -0.045237813 -0.055138048
000330 64 ab c7 bc c4 ca 8a ba 15 9d 59 bd c3 99 d8 bc
       -0.024373718 -0.0010588993 -0.05312832 -0.026440507
000340 97 05 d7 3a c9 9b 35 3d 29 66 b5 3d 9e b4 95 3d
       0.0016404864 0.04433802 0.08857376 0.073098406
000350 2c d5 13 3c c2 02 bf 3b ef a7 c9 3c 0b c4 17 bc
       0.009022992 0.005829186 0.02461621 -0.009263049
000360 f3 ee 2d bc 6a 02 de 3c bd 96 aa bd 35 3f b6 bd
       -0.010616052 0.02710076 -0.08329532 -0.088987745
000370 ff e2 09 3c 27 6e fd bc 12 10 5b bd 4c 99 aa bd
       0.0084159365 -0.030936314 -0.053482123 -0.0833002
000380 9c a3 9b 3d e5 bd 14 bc ca 23 5d bd fa f4 45 bd
       0.075995654 -0.0090784775 -0.05398921 -0.04832933
000390 7a 34 06 3d 8d 6e a0 bd 9b a1 68 3c a2 31 03 bb
       0.03276489 -0.07833586 0.014198686 -0.0020018597
0003a0 0c 61 f2 3c d3 f9 34 3d c6 46 99 bd 29 43 58 3d
       0.029587291 0.044183563 -0.07484202 0.052798424
0003b0 6b ec 93 3d 85 8f 8b 3b 29 b1 37 3d 0f 9a 09 bd
       0.072228275 0.004259052 0.044846687 -0.033594187
0003c0 ac 18 4d 3c 1e 85 ed 3c 45 6b 18 bd 1f 7e 8a 3d
       0.012518089 0.02899414 -0.037211675 0.06762337
0003d0 b4 19 ca bd 88 6c 32 bd ea d2 88 bd 15 70 71 bd
       -0.09868184 -0.043560535 -0.06680854 -0.05894478
0003e0 f8 a0 63 bd 27 8e c7 bd 6b f6 cc 3c a4 6b cd bc
       -0.055573434 -0.0974391 0.025019845 -0.025075741
0003f0 f9 89 b0 bd 14 82 fb bb c0 b4 71 bc 46 7d 44 3d
       -0.08620066 -0.0076754186 -0.014752567 0.047971033

nn.block2.linear.bias f4 [256]
000000 07 1d c0 3d 5d f7 64 3d c9 62 46 ba 48 80 13 bc
       0.093805365 0.055899967 -0.0007567821 -0.009002753
000010 40 e1 88 bd af dd 72 3d 1b d3 02 bd 0f 6c a0 3d
       -0.06683588 0.059293445 -0.031939607 0.078331105
000020 25 49 a0 bd 67 2a b5 bd 59 da ab 3b e9 8c 95 bd
       -0.07826451 -0.08845978 0.005244535 -0.07302267
000030 74 c7 c6 3d e6 6b 97 3d f5 86 e1 bc 77 26 bb 3c
       0.097060114 0.07393627 -0.027530173 0.02284549
000040 4b 91 a9 3d 44 22 b9 bd 0d db 9d 3d 86 97 47 3d
       0.082796656 -0.09039739 0.07707796 0.04872849
000050 38 a7 87 3d 22 d3 28 bc 48 a1 be bd 50 eb 9b bd
       0.06623691 -0.010304244 -0.09308106 -0.07613242
000060 79 a2 c0 3d b5 51 a4 3c 6b 5e 57 3d cb 4e 5c 3d
       0.09405989 0.020058492 0.05258028 0.05378608
000070 0f 43 36 bd f9 e3 97 bd 63 c9 53 bd 9d ea 9d bd
       -0.044497546 -0.07416529 -0.05170573 -0.077107646
000080 47 f3 c2 3c 27 52 01 3d 7e 3d ca bd f4 9f 55 3d
       0.023797644 0.031572487 -0.0987501 0.052154496
000090 d5 4c 80 bd b1 49 46 bd 7e 89 71 3d ee d2 74 3d
       -0.062646545 -0.04841012 0.058969013 0.05977147
0000a0 9c 53 d1 3d 8a eb 92 3d b9 c2 8b bd 3d 89 91 bb
       0.10221025 0.07173832 -0.0682425 -0.004441409
0000b0 84 4d 95 bd 64 e1 88 bd ba c5 66 3d 0f 7c 3f bc
       -0.072901756 -0.06683615 0.05634091 -0.011687293
0000c0 44 94 d5 3c 50 b0 97 bd 0f d0 64 bd 2c de ff bb
       0.026071675 -0.07406676 -0.055862483 -0.0078084674
0000d0 11 0f b4 bc 92 99 3a 3d 82 9a ca bd 7d a5 98 3d
       -0.02197984 0.045556612 -0.09892751 0.074534394
0000e0 7b da 2d 3c 02 94 b4 3d 6e 94 ad 3d da 18 9c bd
       0.010611172 0.08817293 0.08475576 -0.076219276
0000f0 90 d0 a6 bd 74 dd b0 bd 3e 0a 96 bd 04 31 80 3d
       -0.08145249 -0.08635989 -0.07326172 0.06259349
000100 b0 e6 8d 3d 14 96 c7 bd 9a 28 97 3d 51 ad ed 3c
       0.06928766 -0.09745422 0.07380791 0.029013308
000110 e8 3a 81 bd 97 3b 92 3d 0f c1 9e 3d a0 c6 38 bd
       -0.063100636 0.07140272 0.07751667 -0.0451113
000120 70 ae 2a 3d 92 23 cc bd d5 9e b8 3d 02 ea 0a bd
       0.041670263 -0.09967722 0.0901467 -0.033914573
000130 3e 56 b1 bd dc ae 83 3d bd 92 50 bd af 22 49 3d
       -0.086590275 0.06429836 -0.05092119 0.049105342
000140 aa da bb bc 6b 62 86 3d 3a 62 aa 3d b4 a4 8d 3d
       -0.022931416 0.065617405 0.083195165 0.0691618
000150 21 7d 46 3d a3 86 3f 3d a1 73 4c 3d 98 cb a3 3d
       0.048459176 0.04675926 0.04991496 0.07997817
000160 1a c5 b8 bc ec 74 a4 3d fa 0a 64 bd 35 05 1d 3d
       -0.022554923 0.080301136 -0.05567453 0.038335044
000170 4c fe 0b 3d 30 b8 78 3d 36 51 d2 3b 35 be 8e bd
       0.034178063 0.06072253 0.0064183725 -0.06969873
000180 6c 9f 55 3c 68 46 46 3d 01 75 bf 3d d0 da 79 bd
       0.013038497 0.04840699 0.093484886 -0.06099969
000190 34 5c 73 3d 5d 0b a7 3c 7f 0a d2 3d 7b c9 85 bc
       0.059414104 0.02039116 0.10255908 -0.016331425
0001a0 9e d9 84 3d 5c 89 25 3d ec 47 9e 3d 39 36 be bd
       0.0648682 0.0404142 0.07728562 -0.09287686
0001b0 c9 5c a6 3b 99 be c2 3c 4b 88 15 3d fc 80 05 3d
       0.005076979 0.023772525 0.036506932 0.032593712
0001c0 ca ab f1 bc 7d 4f 85 bd 9e fe c7 bd 99 f9 a1 3d
       -0.02950086 -0.06509302 -0.09765361 0.07908935
0001d0 ef 2c 98 3b db 9e a7 bd 5d 33 47 3d 35 da 5f bd
       0.0046440284 -0.08184596 0.04863297 -0.054651458
0001e0 c8 76 b1 bd 2a fd ec 3b 92 2f 90 3d ea b7 ba bd
       -0.08665234 0.007232328 0.07040323 -0.0911711
0001f0 1d 46 2b 3d 42 f6 94 bd 37 bc a4 3c 5c ce f5 bc
       0.041814912 -0.072735325 0.02010928 -0.030005626
000200 68 41 6b bc 59 51 7f 3d 44 f6 e3 bb 6c c5 7a bd
       -0.014358856 0.06233344 -0.0069568474 -0.061223432
000210 04 2a 8e 3d 23 35 99 bd 55 2d fa bb c5 6b b4 3d
       0.069416076 -0.07480838 -0.0076347985 0.08809618
000220 73 a2 ca 3d 71 dc ac bd 99 8e 9a bc a7 6c 99 3d
       0.09894266 -0.08440483 -0.018866824 0.07491427
000230 33 eb 71 3d be 0e 61 bd 36 5f da bc 8c 93 c8 bc
       0.059062194 -0.0549457 -0.026656728 -0.024484418
000240 53 b2 62 3d b1 60 9f 3c 88 83 67 3d 20 65 9e 3d
       0.055345844 0.019455286 0.056521922 0.07734132
000250 5c 5d 5e bd 04 68 f8 3c 63 dd 09 3d 54 db 89 3d
       -0.054288253 0.030323036 0.033658396 0.06731287
000260 e2 20 b7 bd d4 55 9e 3c 18 04 2d 3d 5c bb b2 bc
       -0.08941819 0.019328035 0.042240232 -0.021817856
000270 0d f2 59 bd 31 5d cf bc 86 6e bf bd 0e d9 e6 ba
       -0.053209353 -0.025312992 -0.093472525 -0.0017612295
000280 16 26 f3 bc 40 00 8f bd 34 88 d2 3c 9f f6 cb bd
       -0.029681247 -0.069824696 0.025699712 -0.099591486
000290 fd 40 2b 3d f9 89 86 3c 7c 7b 89 3d 9d ec 8f bd
       0.041810025 0.016423212 0.06713006 -0.07027552
0002a0 60 fd a6 3a 2f 6b ca 3b 26 c2 8a bc 8c d4 7a bd
       0.0012740307 0.006177328 -0.01693828 -0.061237857
0002b0 e0 08 86 3d 53 f7 b1 3c 7d 70 70 3d a2 cc 06 bd
       0.065446615 0.021724379 0.058701027 -0.032909997
0002c0 f0 92 93 bd 12 03 cb 3c ef 6d aa bb bd 6c c7 bd
       -0.072057605 0.024781737 -0.0052010934 -0.09737537
0002d0 94 10 b5 bd 0a f6 92 3d 5f 7a 79 3d 59 45 c3 3d
       -0.08841053 0.071758345 0.060907718 0.095347114
0002e0 e2 44 b8 bc 5f b7 c1 bd f6 29 f7 bc 39 96 e7 bc
       -0.022493783 -0.094588034 -0.030171376 -0.028269874
0002f0 26 75 b9 3d bd b8 d0 bd 0a 40 9a bc 02 73 aa 3c
       0.090555474 -0.10191486 -0.018829364 0.020806793
000300 75 66 8c 3d f7 16 52 bd 66 3e d5 3c 99 ac 38 bd
       0.0685548 -0.051291432 0.02603073 -0.045086477
000310 a0 69 29 3d 2f 3b a7 bd de c8 4c 3d cd d5 91 3d
       0.041360497 -0.08165585 0.04999625 0.071208574
000320 bd b0 9b 3d a0 b4 71 3d af 44 91 bd ec cf 8d 3d
       0.076020695 0.059010148 -0.070931785 0.069244236
000330 83 52 c4 bc c5 ad 37 3c bd dd d0 bd dd 45 2e bd
       -0.023965126 0.0112108635 -0.10198543 -0.042547096
000340 16 d1 c3 3d 31 0d bb bc 00 58 21 bd bc 29 2c bd
       0.09561364 -0.022833439 -0.039390564 -0.04203199
000350 1e 04 3b bd c4 22 4f 3d 5a 89 69 bc a9 71 10 bd
       -0.045658223 0.050570264 -0.014253939 -0.035264645
000360 7e e8 aa 3d 11 92 b7 bb ce 3b 7c bd 8c 00 c7 bd
       0.083451256 -0.0056021293 -0.06158047 -0.09716901
000370 d5 ed c7 bd a8 2b ca bc e3 bc a9 3d b0 96 92 bd
       -0.0976216 -0.02467902 0.082879804 -0.071576476
000380 75 53 9d bd 39 ff 45 bc 40 15 a5 3d de 87 46 bd
       -0.07681934 -0.012084776 0.08060694 -0.048469417
000390 4a f1 37 3c 3f 67 1c 3c 45 2a 85 3d 3d 6a 01 bd
       0.011226961 0.0095461 0.06502203 -0.031595457
0003a0 cd 5a bf bc 98 85 17 3c f8 1e a8 3c f0 53 a5 3d
       -0.023358727 0.00924816 0.02052258 0.080726504
0003b0 98 ce 89 bc 92 c9 52 3b 33 a8 a3 3d f9 d3 a0 bc
       -0.016822144 0.0032163602 0.07991066 -0.019632326
0003c0 6b cc 43 3c 33 64 67 bd 34 bf 0e bb a6 7c 89 3d
       0.0119505925 -0.05649204 -0.0021781446 0.06713228
0003d0 c7 94 01 bc 83 41 32 bd b0 76 aa 3d c4 b2 e1 3c
       -0.007909006 -0.043519508 0.08323419 0.027551062
0003e0 e2 60 89 3c 6b 99 2d bd 31 c5 95 bc bd 1e 4a bd
       0.01676983 -0.04238264 -0.018282505 -0.04934572
0003f0 41 3f 3f bd 82 61 c1 bd b6 4e 5f 3d c8 bf b5 bd
       -0.046691183 -0.09442426 0.054518424 -0.0887447

nn.block2.batch.weight f4 [256]
000000 38 06 80 3f 29 89 7f 3f 6e 11 7f 3f 0a f0 7f 3f
       1.0001898 0.99818665 0.9963597 0.99975646
000010 67 06 80 3f 4e ca 7f 3f ca ec 7f 3f 89 06 80 3f
       1.0001954 0.9991807 0.99970686 1.0001994
000020 5f db 7f 3f 84 bc 7f 3f 17 70 7f 3f 59 00 80 3f
       0.9994411 0.99897027 0.9978041 1.0000106
000030 39 36 80 3f 0e eb 7f 3f 1c 33 80 3f 9b c7 7f 3f
       1.0016547 0.9996804 1.0015597 0.9991395
000040 f9 2a 80 3f 26 d6 7f 3f 53 9d 7f 3f 9e 2d 80 3f
       1.0013114 0.9993614 0.9984943 1.0013921
000050 e0 d7 7f 3f 2f 10 80 3f 5f cf 7f 3f e3 d9 7f 3f
       0.99938774 1.0004939 0.999258 0.99941844
000060 13 0e 80 3f b7 23 80 3f e0 de 7f 3f e8 d8 7f 3f
       1.0004295 1.0010899 0.99949455 0.9994035
000070 b4 b7 7f 3f 35 9a 7f 3f 54 e9 7f 3f e2 e0 7f 3f
       0.99889684 0.99844676 0.99965405 0.9995252
000080 f5 cb 7f 3f ae dd 7f 3f f8 da 7f 3f cf 1f 80 3f
       0.9992059 0.9994763 0.99943495 1.0009707
000090 65 0c 80 3f 6d 99 7f 3f a8 01 80 3f 12 0d 80 3f
       1.0003783 0.99843484 1.0000505 1.0003989
0000a0 64 a5 7f 3f c2 bd 7f 3f 31 fc 7f 3f 59 06 80 3f
       0.9986174 0.9989892 0.9999419 1.0001937
0000b0 1b 01 80 3f b9 d1 7f 3f 70 3f 80 3f 62 6b 80 3f
       1.0000337 0.99929386 1.001936 1.0032771
0000c0 dc d5 7f 3f 80 9a 7f 3f 37 bc 7f 3f d2 00 80 3f
       0.999357 0.99845123 0.9989657 1.000025
0000d0 d2 9d 7f 3f bd ec 7f 3f 6d 54 7f 3f ef b7 7f 3f
       0.9985019 0.9997061 0.997382 0.99890035
0000e0 32 ff 7f 3f 21 11 80 3f 63 90 7f 3f ee 1c 80 3f
       0.9999877 1.0005227 0.9982969 1.0008829
0000f0 b0 04 80 3f 1f 95 7f 3f 9b d6 7f 3f 3e 07 80 3f
       1.000143 0.99836916 0.99936837 1.000221
000100 a2 dd 7f 3f d7 3a 80 3f 46 36 80 3f a9 f5 7f 3f
       0.9994756 1.0017956 1.0016563 0.9998422
000110 76 e1 7f 3f a4 12 80 3f 87 65 80 3f 9b 06 80 3f
       0.999534 1.0005689 1.0030984 1.0002016
000120 1d 0e 80 3f f6 6c 7f 3f b2 9e 7f 3f 6c 2e 80 3f
       1.0004307 0.99775636 0.99851525 1.0014167
000130 91 02 80 3f 7c ed 7f 3f f1 0a 80 3f 03 27 80 3f
       1.0000783 0.9997175 1.0003339 1.0011905
000140 25 12 80 3f 81 17 80 3f 28 55 80 3f 26 2d 80 3f
       1.0005537 1.0007173 1.0025988 1.0013778
000150 0f ea 7f 3f 90 23 80 3f 42 fc 7f 3f ae e5 7f 3f
       0.9996652 1.0010853 0.9999429 0.9995984
000160 28 e5 7f 3f 4e 43 80 3f ea 08 80 3f b2 19 80 3f
       0.9995904 1.002054 1.000272 1.0007842
000170 07 5b 80 3f d7 00 80 3f b9 ef 7f 3f eb 20 80 3f
       1.0027779 1.0000256 0.9997516 1.0010046
000180 36 f2 7f 3f c3 14 80 3f aa 11 80 3f 35 a4 7f 3f
       0.9997896 1.0006336 1.0005391 0.99859935
000190 0b 21 80 3f 6f f6 7f 3f 81 1c 80 3f 5f d7 7f 3f
       1.0010084 0.999854 1.0008699 0.99938005
0001a0 6b 00 80 3f 5f 02 80 3f d8 41 80 3f 58 29 80 3f
       1.0000128 1.0000724 1.0020094 1.0012617
0001b0 a5 c2 7f 3f 35 db 7f 3f 11 24 80 3f a4 be 7f 3f
       0.9990638 0.9994386 1.0011007 0.9990027
0001c0 b7 12 80 3f 89 c5 7f 3f 83 1d 80 3f 55 33 80 3f
       1.0005711 0.9991079 1.0009006 1.0015665
0001d0 fe d8 7f 3f 1d 25 80 3f fb da 7f 3f 79 10 80 3f
       0.9994048 1.0011326 0.9994351 1.0005027
0001e0 b1 69 7f 3f e5 02 80 3f 1a 13 80 3f e5 c5 7f 3f
       0.9977065 1.0000883 1.0005829 0.9991134
0001f0 02 28 80 3f f8 14 80 3f f5 82 7f 3f dd 0d 80 3f
       1.001221 1.0006399 0.998092 1.0004231
000200 cd b7 7f 3f 8f e0 7f 3f 24 cc 7f 3f f0 e5 7f 3f
       0.9988983 0.99952024 0.9992087 0.9996023
000210 64 0c 80 3f 35 1c 80 3f 83 1b 80 3f 8e e5 7f 3f
       1.0003781 1.0008608 1.0008396 0.9995965
000220 b4 17 80 3f 9d fc 7f 3f 52 cd 7f 3f 58 41 80 3f
       1.0007234 0.9999483 0.9992267 1.0019941
000230 e0 34 80 3f 6a c7 7f 3f 50 26 80 3f bb 1f 80 3f
       1.0016136 0.99913657 1.0011692 1.0009683
000240 3b ae 7f 3f 0a 7f 80 3f 16 37 80 3f ad 0b 80 3f
       0.9987523 1.0038769 1.0016811 1.0003563
000250 f6 f7 7f 3f 7a 27 80 3f 35 ff 7f 3f 72 09 80 3f
       0.99987733 1.0012047 0.9999879 1.0002882
000260 a6 94 7f 3f 67 8c 7f 3f 7f bf 7f 3f d4 e8 7f 3f
       0.99836195 0.9982361 0.99901575 0.9996464
000270 d3 20 80 3f 4f 29 80 3f f7 b9 7f 3f d1 25 80 3f
       1.0010017 1.0012606 0.99893135 1.0011541
000280 d8 fb 7f 3f 73 43 80 3f 11 b0 7f 3f ce f3 7f 3f
       0.9999366 1.0020584 0.9987803 0.9998139
000290 90 24 80 3f a2 8d 7f 3f 23 de 7f 3f 8a 91 7f 3f
       1.0011158 0.9982549 0.9994833 0.9983145
0002a0 b0 f7 7f 3f c5 11 80 3f 1e 3b 80 3f b7 dc 7f 3f
       0.99987316 1.0005423 1.0018041 0.9994616
0002b0 db 0b 80 3f 57 d7 7f 3f e4 cc 7f 3f 5d e8 7f 3f
       1.0003618 0.9993796 0.99922013 0.99963933
0002c0 2e f0 7f 3f ea de 7f 3f 31 bf 7f 3f 8a 9c 7f 3f
       0.9997586 0.99949515 0.9990111 0.99848235
0002d0 54 1e 80 3f 23 14 80 3f 68 fb 7f 3f ec 6a 7f 3f
       1.0009255 1.0006145 0.9999299 0.99772525
0002e0 f0 de 7f 3f 67 cf 7f 3f 8b c4 7f 3f f8 e8 7f 3f
       0.9994955 0.99925846 0.99909276 0.9996486
0002f0 8a 1b 80 3f e7 ec 7f 3f a1 ba 7f 3f 1b be 7f 3f
       1.0008404 0.9997086 0.9989415 0.9989945
000300 87 dd 7f 3f d6 ae 7f 3f de 28 80 3f e9 77 7f 3f
       0.999474 0.99876153 1.0012472 0.99792343
000310 3d 8d 7f 3f ab fe 7f 3f 2e bc 7f 3f 18 b2 7f 3f
       0.9982489 0.9999797 0.99896514 0.99881124
000320 00 03 80 3f a8 0a 80 3f e1 15 80 3f 5e f4 7f 3f
       1.0000916 1.0003252 1.0006677 0.9998225
000330 da 0a 80 3f 66 11 80 3f c4 dd 7f 3f 95 b8 7f 3f
       1.0003312 1.000531 0.9994776 0.99891025
000340 57 07 80 3f 15 68 80 3f 4e d8 7f 3f 10 c5 7f 3f
       1.000224 1.0031763 0.9993943 0.9991007
000350 93 f9 7f 3f 0b ec 7f 3f e1 bb 7f 3f 5b 36 80 3f
       0.99990195 0.9996955 0.99896055 1.0016588
000360 b6 0e 80 3f 28 1c 80 3f d2 f3 7f 3f 67 1b 80 3f
       1.000449 1.0008593 0.99981415 1.0008363
000370 33 29 80 3f 4c b3 7f 3f b6 04 80 3f ce 86 7f 3f
       1.0012573 0.9988296 1.0001438 0.9981507
000380 e2 17 80 3f b9 1f 80 3f ba 36 80 3f 17 f1 7f 3f
       1.0007288 1.0009681 1.0016701 0.9997725
000390 54 36 80 3f a3 d9 7f 3f 59 30 80 3f 4a fa 7f 3f
       1.001658 0.9994146 1.0014755 0.99991286
0003a0 41 05 80 3f 9b 1b 80 3f 39 2f 80 3f 9e ff 7f 3f
       1.0001603 1.0008425 1.0014411 0.99999416
0003b0 05 af 7f 3f 3f 58 7f 3f a4 da 7f 3f bf e3 7f 3f
       0.99876434 0.9974403 0.99942994 0.9995689
0003c0 1c c2 7f 3f 6f 0e 80 3f c4 13 80 3f 5a 3b 80 3f
       0.9990556 1.0004405 1.0006032 1.0018113
0003d0 ab 22 80 3f 63 98 7f 3f 41 ed 7f 3f 77 1d 80 3f
       1.001058 0.998419 0.99971396 1.0008992
0003e0 7e 03 80 3f 5d e1 7f 3f 5e 08 80 3f f8 1f 80 3f
       1.0001066 0.9995325 1.0002553 1.0009756
0003f0 1c c1 7f 3f 4f 3b 80 3f 7d c6 7f 3f 51 2d 80 3f
       0.99904037 1.00181 0.99912244 1.001383

nn.block2.batch.bias f4 [256]
000000 3f c8 b3 ba 35 56 54 39 fd 70 73 39 ab bf 03 b8
       -0.0013716294 0.0002025001 0.00023216377 -3.141134e-05
000010 e2 e8 78 39 8e e5 7a 39 7e 34 0c 3b b2 47 2c 3a
       0.00023737879 0.00023927374 0.0021393592 0.0006571963
000020 7d fd e8 ba af 32 96 3a ec cb 04 ba ef 1d 36 3a
       -0.0017775741 0.0011459197 -0.0005065787 0.00069472095
000030 23 c1 16 3a 7f b6 a1 39 28 d9 e9 ba f8 08 fa 39
       0.00057508255 0.00030844283 -0.0017841207 0.00047690398
000040 63 c4 bf 3a 33 37 55 3a 60 68 2c b8 6b 55 7e 39
       0.0014630671 0.00081335305 -4.1105202e-05 0.00024255148
000050 50 af c5 39 ab 58 8e 3a df 99 9c 3a 51 8d 2b ba
       0.00037705386 0.0010860165 0.0011947713 -0.000654419
000060 0d 40 09 ba 08 74 5d ba f6 90 1e 3a c8 9f 32 ba
       -0.00052356796 -0.0008447771 0.00060488225 -0.00068139704
000070 ae f6 1b 3a 79 26 dd 3a 24 d1 2f 37 47 8a 08 3a
       0.0005949539 0.0016872428 1.0479507e-05 0.0005208593
000080 dd 32 de 39 f8 ee ed ba 48 54 78 39 82 7d 7b 3a
       0.00042381036 -0.0018152883 0.0002368252 0.0009593592
000090 b8 f8 fa b9 4c c8 66 ba b7 fc 5f b9 de 70 bd 38
       -0.00047869026 -0.000880365 -0.00021361081 9.0332454e-05
0000a0 fe 86 a9 ba d6 e8 e1 ba 2c 96 59 b8 fc 01 10 3a
       -0.0012933908 -0.0017235528 -5.187669e-05 0.000549346
0000b0 71 b2 8c ba 2c 45 eb b8 cc ec a4 b9 82 5d f1 ba
       -0.0010734332 -0.000112185575 -0.00031456945 -0.0018414708
0000c0 1b d4 c1 38 03 c0 2b 3a f6 7e 91 3a e6 c6 03 ba
       9.242465e-05 0.00065517443 0.0011100459 -0.00050268916
0000d0 6c 21 64 ba fc 51 9f 39 de 5e 6e 3a 5d 02 fc b9
       -0.000870249 0.00030387926 0.0009093116 -0.00048066946
0000e0 3e c2 a3 ba e9 06 d3 b9 a5 eb 59 39 a7 44 d6 b9
       -0.0012493802 -0.00040250205 0.00020782517 -0.0004086841
0000f0 be 43 04 ba 35 c6 d7 ba b7 13 55 ba 24 93 7c 39
       -0.0005045495 -0.0016462269 -0.0008128243 0.00024087407
000100 3b 7d a9 ba ea 13 ca b8 25 6a d6 38 14 90 05 ba
       -0.0012930998 -9.63582e-05 0.00010224086 -0.00050950167
000110 8a 26 4e b9 ef 60 29 b9 cb 1a 00 3a 03 04 2b ba
       -0.00019660048 -0.00016153207 0.0004886805 -0.000652373
000120 32 91 7c b9 01 36 d1 39 a0 91 01 3a e5 7c 2b b8
       -0.00024086682 0.00039903822 0.0004942659 -4.0885894e-05
000130 c5 30 19 b8 13 95 12 b9 ba 0d 9a ba 73 96 d2 b9
       -3.6523463e-05 -0.0001397918 -0.0011753358 -0.00040166415
000140 68 ed 0e ba d6 df 1e 38 d3 ee e5 ba f1 0a f2 3a
       -0.00054522464 3.78786e-05 -0.0017542489 0.0018466396
000150 f0 02 af b9 6e 57 32 3a cb c0 99 b9 83 a6 85 b9
       -0.0003338079 0.0006803189 -0.00029326076 -0.00025491798
000160 d9 bb 93 ba 83 e0 e4 3a 44 d3 04 bb 9c bd 48 b8
       -0.0011271193 0.0017461929 -0.0020267526 -4.7860303e-05
000170 51 09 01 ba 1c a0 8f 39 f9 e1 9c 3a b6 bf bf 3a
       -0.0004922348 0.00027394376 0.00119692 0.0014629278
000180 57 18 d0 ba 1c b4 99 39 ba b2 96 b9 0a e6 69 3a
       -0.0015876394 0.00029316626 -0.0002874339 0.0008922523
000190 a5 bf ac 3a 48 b6 a9 ba d8 0d 06 36 46 67 8d 39
       0.0013179673 -0.0012948001 1.9975614e-06 0.0002697056
0001a0 a5 96 9a 37 e7 56 47 b9 d7 f5 0b ba af 4d 1c ba
       1.842838e-05 -0.00019010493 -0.0005339062 -0.00059625035
0001b0 f1 29 81 39 9e 30 be 3a f8 64 8d 3a cd f2 18 bb
       0.00024636046 0.0014510339 0.0010787537 -0.002333808
0001c0 74 8e 40 b9 a7 d8 ea b8 fc 23 a1 39 a5 17 01 ba
       -0.00018363615 -0.00011198344 0.00030735123 -0.0004924483
0001d0 21 d9 88 ba e6 95 31 39 c3 d2 fa ba 56 5f 65 b9
       -0.0010440686 0.00016935877 -0.0019136298 -0.00021874657
0001e0 24 3a 58 ba f3 6c 9b 3a d8 de d3 3a 2c 5d 48 39
       -0.000824841 0.0011858031 0.0016164435 0.00019108196
0001f0 16 08 d6 38 e6 11 d8 b9 01 21 19 ba bc b8 78 39
       0.00010205821 -0.00041212066 -0.0005841405 0.00023719942
000200 d7 d3 bd 3a 24 77 84 ba 7c 5b 7c 38 6e 14 0b b9
       0.0014482689 -0.0010106307 6.0166683e-05 -0.00013263684
000210 f7 14 c1 39 4c b2 97 39 f8 97 a6 ba 09 50 14 ba
       0.0003682745 0.00028933806 -0.0012710085 -0.0005657678
000220 44 8e 0e b8 53 63 c7 3a b9 19 c6 b9 be 7e 10 3b
       -3.3987933e-05 0.0015212096 -0.00037784668 0.00220482
000230 3d e5 ab ba 45 05 6f 3a 5c c7 20 39 db a1 2d ba
       -0.0013114583 0.00091179117 0.00015333056 -0.00066235446
000240 e4 89 9c b7 86 f6 57 38 e0 7a 28 b9 ab 8b c2 3a
       -1.866086e-05 5.1489587e-05 -0.00016067503 0.001484265
000250 5e da 56 ba 87 bb 4a 3a 09 d3 a0 39 1e 29 21 ba
       -0.00081959914 0.0007733632 0.00030674812 -0.00061477895
000260 52 6e f0 39 cd 7d fa ba 10 e6 39 ba 9b 90 ac 38
       0.00045858562 -0.0019110978 -0.0007091472 8.228534e-05
000270 04 3e 28 3a e7 64 0d 3a 8a 4a 43 ba bc 85 2d 39
       0.00064179325 0.0005393759 -0.0007449767 0.00016548386
000280 97 0a f9 38 7d a4 97 b9 9a d6 f0 39 79 d1 49 3a
       0.00011875218 -0.00028923518 0.00045936258 0.00076987554
000290 d3 b1 8d ba 07 63 30 ba f3 08 19 b8 0d 62 3e 39
       -0.0010810442 -0.00067286234 -3.6486377e-05 0.00018156339
0002a0 5f 58 88 ba b8 67 b9 3a e1 ab 0c 3a 91 8d 27 ba
       -0.0010402313 0.001414529 0.0005366188 -0.00063916395
0002b0 bf be 99 ba 4e bc f3 39 23 56 c5 b9 8a 7c 42 ba
       -0.001172982 0.0004648887 -0.00037638945 -0.00074190705
0002c0 12 09 89 ba 74 f7 3e 39 27 22 15 3a af 30 77 3a
       -0.0010454974 0.00018211995 0.0005688988 0.00094295567
0002d0 ec fa 27 b8 f9 41 38 3a 4e 0d bf ba 69 92 11 ba
       -4.0049592e-05 0.00070288737 -0.0014576109 -0.0005553128
0002e0 63 6d 73 b9 f7 50 54 ba c0 3e d4 39 5e 31 99 39
       -0.00023215036 -0.0008099223 0.00040482543 0.00029219216
0002f0 82 a3 81 3a b0 cf f1 3a 1c b1 34 ba d3 47 07 3b
       0.0009890648 0.0018448737 -0.00068928464 0.0020642176
000300 45 3e 02 ba 89 21 b5 38 c1 26 68 39 e6 6c f3 ba
       -0.00049683853 8.636999e-05 0.00022139681 -0.0018571883
000310 9a 9e a6 b9 b5 14 ed b7 46 ad 26 39 7f 11 c5 b9
       -0.00031780155 -2.8262244e-05 0.00015895543 -0.00037587804
000320 af 90 23 3a 68 38 26 b9 6e c4 b1 39 ad b1 2c 38
       0.0006239516 -0.00015852007 0.00033906422 4.117347e-05
000330 7e f0 e0 b9 c2 d3 01 bb 8e 74 1e 3a dd f3 0f ba
       -0.0004290379 -0.0019810055 0.00060445897 -0.00054913556
000340 a1 2a 12 ba e0 36 e3 ba d8 59 0b b8 b3 45 5e 39
       -0.000557581 -0.001733508 -3.3223856e-05 0.00021197535
000350 45 f6 00 ba f0 92 cb b9 9f 9e 8f 3a 57 57 22 ba
       -0.00049195095 -0.00038828654 0.0010957307 -0.0006192824
000360 0b cc 08 3a ba 8a 11 ba 19 b7 4c 3a 56 97 2c 3a
       0.0005218393 -0.0005551983 0.0007809266 0.000658383
000370 d8 67 04 3b 03 79 e6 39 7e d9 6d b8 d4 3e 40 ba
       0.0020203497 0.0004395918 -5.670776e-05 -0.0007333581
000380 ba 02 55 3a da 29 27 ba c4 a5 6a 39 9f 4f 74 ba
       0.00081257115 -0.0006376781 0.00022377732 -0.0009319726
000390 f5 4f 4c ba 49 06 98 39 65 99 60 b9 cf ba 6e ba
       -0.0007793897 0.00028996382 -0.00021419449 -0.0009106816
0003a0 03 64 90 b8 ca 76 5d 3a 94 60 36 ba 77 f0 bf 3a
       -6.885084e-05 0.0008448182 -0.000695714 0.0014643808
0003b0 26 93 23 3a f9 8c ac 39 d8 7f 34 ba a9 56 57 ba
       0.00062398834 0.0003291143 -0.0006885505 -0.00082145125
0003c0 04 0c b1 3a 74 9c e4 39 e5 e1 5f b9 03 f1 40 ba
       0.0013507609 0.00043604115 -0.0002135109 -0.00073601323
0003d0 f1 c2 5f b9 57 ce 9b b7 f8 ba 74 3a c9 4d 4a b8
       -0.00021339559 -1.8573524e-05 0.0009335722 -4.8232996e-05
0003e0 89 b3 37 b9 7b c5 98 3a 2a 15 12 b9 ea de 09 ba
       -0.00017519122 0.0011655533 -0.00013931529 -0.0005259352
0003f0 c6 de 76 3a e3 35 2a b9 db d7 30 3a 38 12 8e ba
       0.0009417351 -0.00016232538 0.0006746032 -0.001083917
