statedicts/torchscript_pl_db_2022-04-21_STAR_NOMINAL_400s_P0_R1_s0_seed_2.pt (torch, 224681 bytes, 29 tensors)

weight f4 [5]
000000 9a 5b 7f 3f 3e 91 7f 3f ae 04 85 3f f4 cd 77 3f
       0.9974915 0.99830997 1.0392053 0.96798635
000010 02 2e 81 3f
       1.0092165

bias f4 [5]
000000 7d 84 9e 3c 0c 20 73 3b 26 a7 0d bc f8 7d 3c 3c
       0.019350285 0.003709796 -0.008645808 0.011504643
000010 59 11 6a 3c
       0.014286363

running_mean f4 [5]
000000 13 06 c9 3f 1b fb 84 3d b2 5f 42 40 82 f1 3a 40
       1.5704979 0.06493207 3.0370908 2.9209905
000010 46 88 42 3e
       0.18997297

running_var f4 [5]
000000 27 07 9d 3c f1 d3 48 35 c2 8f 33 3b 17 b9 ac 3a
       0.01916845 7.481422e-07 0.0027398919 0.001317772
000010 3f 88 f5 3a
       0.0018732621

weight f4 [96, 5]
000000 b8 9b 85 3e 26 d3 2e be c9 2e 6c 3e bd a6 34 be
       0.26095366 -0.17072734 0.23064722 -0.1764173
000010 6b db a1 3e 1f e6 95 bd 0e 0a ab bc 23 4c 8b be
       0.31612715 -0.07319283 -0.020878818 -0.27206525
000020 41 5b 83 3e b5 9b b6 3e c1 60 a6 3e d5 40 ee bd
       0.2565556 0.3566567 0.32495692 -0.116334595
000030 a3 0d c7 3e 0b 22 b1 be 92 f9 c2 bd 5c 4b d2 be
       0.38877591 -0.34596285 -0.09520258 -0.4107312
000040 c3 0a c5 be e1 ff 50 3e 32 c7 a8 be a2 cf 89 be
       -0.38484773 0.2041011 -0.32964474 -0.26916224
000050 d4 97 ae be c5 69 ad be 44 89 dc 3d b2 c9 bd 3e
       -0.3410021 -0.33869758 0.10768369 0.37067944
000060 67 b0 da 3e 4e f9 1e 3e d2 2b c0 be b9 24 31 3b
       0.4271271 0.1552479 -0.37533432 0.0027029945
000070 63 1e 24 bd f9 c4 f4 bc 09 dd 1a be 3d d2 cd 3d
       -0.04006804 -0.02987908 -0.1512338 0.100498654
000080 ae b6 44 be b1 4b 75 3c dd 0d b0 3e 82 d3 f6 3d
       -0.19210312 0.0149716595 0.34385577 0.12052061
000090 ed 5a ca 3d 97 6e 8b bc 5d 83 e2 3b 2f eb b9 be
       0.09880624 -0.017020507 0.0069126324 -0.36312243
0000a0 03 ef 8b 3d 53 ea 0b 3e 52 e0 a1 3e bf 04 ce be
       0.06832697 0.13663606 0.31616455 -0.40237996
0000b0 84 96 a8 3e 5a 56 56 3e 15 41 98 be 86 a7 c5 be
       0.32927334 0.20931378 -0.29737154 -0.38604373
0000c0 f9 1e 08 be 1c cd 69 3e 38 64 0e 3d cd fb c6 be
       -0.13293065 0.2283215 0.034763545 -0.38863984
0000d0 a7 10 03 3e 94 b7 c2 3e 14 1c e5 be 31 ef b3 be
       0.12799321 0.38030684 -0.44747984 -0.35143426
0000e0 0e ee 2f 3e 50 23 af be 1f cb 7e be 22 13 c5 3d
       0.17180654 -0.3420663 -0.24882172 0.0962279
0000f0 23 6d 3b 3e e0 cb a9 be da c4 08 3e 18 b3 94 3d
       0.18303351 -0.33163357 0.13356343 0.07260722
000100 37 6e c5 3e bd 5b e3 be c8 62 45 bd ce 41 3c be
       0.3856065 -0.44405928 -0.04818991 -0.18384477
000110 7f 36 08 be db 6d b7 3e ad a5 ff 3c 9b 94 72 be
       -0.13302039 0.35826 0.03120693 -0.23689501
000120 24 f1 99 3e df 6c dc 3e 69 2e 8f bd a5 50 d7 3e
       0.30066788 0.43051812 -0.06991274 0.42053714
000130 61 55 71 be 66 66 a7 3e 55 89 e1 bb ec c7 79 3d
       -0.23567726 0.3269531 -0.0068828263 0.060981676
000140 55 55 a9 be 7f 39 b8 be 23 b3 d3 bd 6d 1d 29 3e
       -0.33072916 -0.35981366 -0.10336902 0.16515131
000150 1d 20 92 3e ae 02 cf 3d c6 76 8b be 5b de 37 3e
       0.28540125 0.10107933 -0.27239054 0.17955916
000160 c8 9a 0b 3e 42 03 71 3e f1 12 87 be c8 f1 02 be
       0.13633263 0.23536399 -0.2638164 -0.12787545
000170 38 19 24 3e 39 ec 83 be 04 fb 12 3d 44 56 23 3e
       0.16025245 -0.2576616 0.03588392 0.15950876
000180 7a b3 d4 bd b8 87 b1 3e 96 59 38 be 25 6b a2 3e
       -0.10385795 0.34673858 -0.18002924 0.3172237
000190 3b c8 29 3e 65 7f c6 be ff c0 aa be 77 06 ba 3e
       0.16580288 -0.3876907 -0.3335037 0.36333057
0001a0 eb b1 83 3e 8d 7a 6f 3e 97 63 e1 bd f4 c4 e0 be
       0.25721678 0.23386593 -0.110053234 -0.43900263
0001b0 7d 3b 03 be c7 99 f8 bc 91 7a d2 be 94 9d 99 3e
       -0.12815662 -0.030346764 -0.41109136 0.30003035
0001c0 94 e3 32 be 3b ce de be af 4a 99 bd e9 29 97 3e
       -0.17469627 -0.43516716 -0.07484948 0.29524162
0001d0 ed 18 05 3e f4 8d 09 3e 41 45 95 be 7d a4 74 be
       0.1299779 0.13433057 -0.291544 -0.23890872
0001e0 2c e1 15 3e 78 72 79 3d d9 e8 24 bd 2f b6 6c be
       0.14636678 0.06090018 -0.040261123 -0.23116373
0001f0 d7 cb 46 3b 34 bb 1a be 81 79 a8 bd 07 2e d6 be
       0.00303339 -0.15110475 -0.082263 -0.4183199
000200 04 6a b6 bd 6c f0 91 bd 56 11 68 be 3e 14 26 be
       -0.089069396 -0.07125935 -0.22662863 -0.1621866
000210 f9 54 1f 3e 5f 23 26 bd 2c 81 58 3e 69 cb 9f bd
       0.15559758 -0.040561076 0.21143025 -0.07802469
000220 f7 75 27 3e 3d c1 9f 3e e4 35 97 3e b9 c4 49 be
       0.16353594 0.31202117 0.29533303 -0.1970395
000230 47 c4 cf 3e f4 9c 36 3e 5b ea 24 3d 28 2b da 3e
       0.40579435 0.1783331 0.04026256 0.4261105
000240 40 dd 65 3e ab 88 07 3d a8 cc d2 3e f1 dc 7e 3e
       0.22447681 0.03308932 0.41171765 0.2488897
000250 57 ea e3 3c 7c 7d 04 be b6 43 06 3e 6c ac b0 3e
       0.027821703 -0.12938493 0.13111767 0.34506547
000260 1c 96 9d 3e e0 34 61 3e 9a 71 a9 be e8 b2 d9 3d
       0.30778587 0.21992826 -0.33094484 0.10629827
000270 3d 6b d7 bd 9a a0 90 bd c4 13 c4 bd 60 13 7e be
       -0.10518501 -0.07061882 -0.095740825 -0.24812078
000280 86 b4 a1 be 6e 8f c2 be 40 65 a2 3e 43 e6 e4 3e
       -0.3158304 -0.38000053 0.31717873 0.44706926
000290 de a0 c6 3e ff 9b 2e 3e 2a 6a 99 bd 36 72 58 be
       0.38794607 0.17051695 -0.07490952 -0.21137318
0002a0 4a 77 32 3e f1 d9 ca be db f9 a6 3e 53 10 06 be
       0.17428318 -0.396194 0.326125 -0.13092165
0002b0 01 18 ac be ec 98 b8 be 42 f3 75 be 61 82 ba 3c
       -0.33612064 -0.3605417 -0.24018577 0.022767248
0002c0 9e 44 c0 be c3 e1 89 be b1 19 28 bd a0 61 68 be
       -0.3755235 -0.26930055 -0.041040126 -0.22693491
0002d0 83 1a 99 be 86 e9 22 be cb b1 b9 be ae 22 96 3e
       -0.2990304 -0.15909395 -0.36268458 0.29323334
0002e0 74 c1 3d 3e c3 57 3e be 73 cf a6 3e 0b b7 90 be
       0.18530828 -0.18588166 0.32580146 -0.2826465
0002f0 a3 13 25 3e 9d 0f 4a 3e af ee bc 3d d5 bd 8a 3e
       0.16120772 0.19732518 0.09225213 0.27097955
000300 9c bb 88 3e cc 9d 07 be 43 75 b3 3e f1 20 a5 be
       0.26705635 -0.13243788 0.350504 -0.32251695
000310 fe 41 bc 3d 56 c5 0a 3d c4 9f c9 3d a8 32 85 3d
       0.091922745 0.0338796 0.09844926 0.065038025
000320 b3 c3 b1 bd f0 6c bf 3e ef 41 50 3e c3 32 e1 3d
       -0.08679905 0.373878 0.20337652 0.1099601
000330 d1 44 ee bd fb b1 6b 3e 9e 39 af 3e 34 23 a7 be
       -0.116342194 0.23017113 0.34223646 -0.32644045
000340 ea 86 82 be 0c 3e 9e be 42 75 21 be 53 36 a9 bd
       -0.25493556 -0.30906713 -0.15767387 -0.08262315
000350 17 f6 99 be f5 ba 9d 3c 90 3d 57 3e 36 d8 c9 3e
       -0.30070564 0.019254187 0.21019578 0.39422768
000360 31 0e b1 3d 58 50 b4 bd 4c d0 ae 3e b8 ca cc be
       0.08645285 -0.08804387 0.34143293 -0.39998412
000370 94 15 91 3d e8 02 9d 3d b4 7b f6 bd 77 09 b0 3c
       0.07084194 0.0766657 -0.12035313 0.021488888
000380 90 d4 24 be db 25 9e be 91 2f 65 be 1d 36 79 be
       -0.16096711 -0.30888256 -0.22381426 -0.24337049
000390 b9 b8 6b 3d 8d 55 d7 be a5 ee 95 3e 46 63 cf 3e
       0.057549212 -0.42057458 0.29283634 0.40505427
0003a0 2e 99 88 3e 61 9f 7d be d3 59 8f 3e 6f d5 9e 3d
       0.26679367 -0.2476783 0.27998218 0.07755553
0003b0 e3 2f 75 be 7e a3 81 3e 33 a4 89 3e da 37 c4 3e
       -0.23944049 0.25320047 0.26883087 0.3832386
0003c0 cb e3 97 3d c8 dd b3 3e 83 16 cf be de 90 91 be
       0.07416495 0.35130143 -0.40446863 -0.28430837
0003d0 56 dd 75 be 1c 7d 7b 3e f0 ed 96 3e bd 88 b6 3e
       -0.24010214 0.24559444 0.29478407 0.35651198
0003e0 83 19 71 3c 71 f1 dd 3e 6b 10 32 be a3 91 3a 3c
       0.014715555 0.43348268 -0.17389075 0.011387262
0003f0 94 e3 04 3e 06 11 56 3e 47 89 b0 3e 29 78 a1 3e
       0.12977439 0.20904931 0.34479734 0.31536987

bias f4 [96]
000000 3d c8 a2 3e a3 05 2c be 46 4f 1d 3e 6c 6a b9 3e
       0.31793395 -0.16799025 0.15362272 0.36214006
000010 91 73 a3 bd 0e eb 40 bd 0a a3 87 be 9a a5 5a 3e
       -0.07981027 -0.047099166 -0.26491576 0.21352234
000020 eb b9 66 3e d8 6d c4 be ca 5d 88 3e c5 aa de 3e
       0.2253186 -0.38365054 0.26634055 0.43489662
000030 35 8b d2 3e 0d 54 26 3e df 14 dd 3e 09 04 a2 3d
       0.41121832 0.16243 0.43179986 0.07910926
000040 5e a2 6a be 29 46 ac be da 50 be be 19 c3 36 3e
       -0.229135 -0.33647278 -0.3717106 0.17847861
000050 e8 8b 44 3e d7 e0 66 be 5c 3c 05 3d 32 bb 41 be
       0.19193995 -0.22546707 0.032528266 -0.18919066
000060 45 6b 42 3e f9 8c 9c be b5 44 66 3d a1 77 f2 bd
       0.18986233 -0.30576304 0.056217868 -0.11839224
000070 a7 ac 7c be 8d f6 08 be 8b 4f de 3e 79 fd c9 3d
       -0.24675237 -0.13375302 0.4342006 0.09862799
000080 db 52 b9 be 34 d6 2d 3e e7 64 c4 be cb 7b b6 3e
       -0.36196026 0.16976243 -0.38358232 0.35641322
000090 6c 99 c2 be d3 df 16 be 71 9d d5 be 1c d5 22 be
       -0.38007677 -0.1473382 -0.4172168 -0.15901607
0000a0 d2 dd a1 3e 2c 37 4e 3e 99 b5 ba 3c dd 69 9f be
       0.31614548 0.20138234 0.02279167 -0.31135455
0000b0 34 a5 ad 3e 02 54 20 bd 90 f3 8b bd 10 e0 58 3e
       0.33915102 -0.039142616 -0.06833565 0.21179223
0000c0 04 d5 68 3e de 3f 9c be b7 18 91 3c e7 50 9a be
       0.22737509 -0.30517477 0.01771198 -0.3013985
0000d0 51 07 95 be 24 2e 1f 3a 1b 4f a6 bc 82 a8 e4 3d
       -0.29107144 0.0006072244 -0.020301392 0.11164953
0000e0 63 e3 8d be 82 3e ed 3d 87 7e 8f 3e b2 3c 0c 3d
       -0.27712545 0.11584188 0.2802622 0.03423757
0000f0 a6 1e c7 3e 28 1b 86 3b 57 3d a4 be a2 7e 48 be
       0.3889057 0.0040925927 -0.3207805 -0.19579557
000100 04 a5 03 3e 30 9f a2 be e0 01 84 be 9b 79 d0 3e
       0.12855917 -0.31762075 -0.2578268 0.40717778
000110 65 a7 cb 3e f4 d3 ad 3e b5 05 d4 3d 5b b2 6e 3d
       0.3977615 0.3395077 0.10352651 0.05827556
000120 ba cd d0 be fd b1 b0 3d 87 48 82 3e 9b 16 d1 3e
       -0.40781957 0.086276986 0.2544596 0.4083756
000130 f2 c7 2a be 54 a3 c8 be 0d 0d f2 3d b2 6a ed 3d
       -0.16677836 -0.3918711 0.118188955 0.11592616
000140 d2 39 2a be 4b fd 82 be e5 21 9e be 8e 45 46 3d
       -0.16623619 -0.25583872 -0.30885234 0.048406176
000150 c3 f3 ca 3e e5 60 5d 3e 92 8e 6d be e8 a7 b6 3e
       0.396391 0.21618994 -0.23198918 0.35674977
000160 6a ab cc 3e 46 85 0c 3e f5 74 c4 3e 72 77 a2 be
       0.3997453 0.13722715 0.3837048 -0.31731755
000170 65 26 58 3e 62 6c 78 be 61 ac ca 3e 9b b1 99 3e
       0.21108396 -0.24260095 0.3958464 0.30018315

weight f4 [96]
000000 9b 89 7f 3f 7f 10 80 3f 5c 05 80 3f 25 14 80 3f
       0.99819344 1.0005034 1.0001636 1.0006148
000010 b5 61 7f 3f a8 ee 7f 3f 95 36 80 3f 65 f7 7e 3f
       0.99758464 0.99973536 1.0016657 0.99596244
000020 4e d7 80 3f 1a 29 7f 3f be 85 80 3f 7c 23 80 3f
       1.0065706 0.9967209 1.0040815 1.0010829
000030 10 b5 7f 3f ba fd 7f 3f f5 2f 80 3f 06 13 7f 3f
       0.99885654 0.9999653 1.0014635 0.996384
000040 33 6c 80 3f 61 29 80 3f 3c 67 7f 3f cd 1e 7f 3f
       1.003302 1.0012628 0.997669 0.99656373
000050 99 54 80 3f 26 2a 80 3f d2 0e 80 3f 32 51 80 3f
       1.0025817 1.0012863 1.0004523 1.0024779
000060 43 39 80 3f 51 11 80 3f 0d 6d 80 3f d0 34 7f 3f
       1.0017475 1.0005285 1.003328 0.9968996
000070 b4 88 7f 3f 00 af 7f 3f 39 7c 7f 3f ea 9f 7f 3f
       0.9981797 0.99876404 0.99798924 0.99853384
000080 e3 09 80 3f d2 84 7f 3f b6 6c 80 3f 93 29 80 3f
       1.0003017 0.9981204 1.0033176 1.0012687
000090 50 70 80 3f 44 11 80 3f ba a5 7f 3f 36 7e 80 3f
       1.0034275 1.0005269 0.99862254 1.0038517
0000a0 13 d9 7f 3f cf f7 7e 3f 38 58 80 3f 36 a0 7f 3f
       0.99940604 0.99596876 1.0026922 0.9985384
0000b0 bc ff 7f 3f 6e e6 7e 3f 95 72 7f 3f 64 13 80 3f
       0.99999595 0.9957036 0.99784213 1.0005918
0000c0 a6 a2 7f 3f 5b fa 7e 3f 26 ee 7f 3f b7 14 80 3f
       0.99857557 0.9960076 0.9997276 1.0006322
0000d0 99 0e 7f 3f a4 59 80 3f d2 bb 7f 3f c7 ef 7f 3f
       0.9963165 1.0027356 0.99895966 0.99975246
0000e0 50 29 80 3f 04 0c 80 3f b0 74 80 3f be b7 7f 3f
       1.0012608 1.0003667 1.003561 0.99889743
0000f0 0f a2 7f 3f 2d b3 7f 3f 91 55 80 3f 82 5a 80 3f
       0.99856657 0.99882776 1.0026113 1.0027621
000100 47 11 80 3f e3 eb 7e 3f 99 af 7f 3f e4 c7 7f 3f
       1.0005273 0.99578685 0.99877316 0.99914384
000110 39 dd 7f 3f bb 92 7f 3f 3c 35 80 3f 27 07 80 3f
       0.99946934 0.9983327 1.0016246 1.0002183
000120 cc 5d 7f 3f e0 36 80 3f 58 8b 7f 3f d0 74 80 3f
       0.997525 1.0016747 0.99821997 1.0035648
000130 9f 3a 80 3f 22 6f 80 3f e3 3c 80 3f b6 6e 80 3f
       1.001789 1.0033915 1.0018581 1.0033786
000140 12 28 7f 3f dd c2 7e 3f cc 36 80 3f 3f 6b 7f 3f
       0.9967052 0.9951609 1.0016723 0.9977302
000150 a7 81 80 3f db 28 80 3f e0 35 80 3f fd d8 7f 3f
       1.0039567 1.0012468 1.0016441 0.9994047
000160 dc b3 7f 3f d0 39 80 3f 16 6e 7f 3f 5d 7f 7f 3f
       0.9988382 1.0017643 0.9977735 0.99803716
000170 3b ff 7f 3f e8 3f 7f 3f 43 07 80 3f 45 f8 7f 3f
       0.99998826 0.9970689 1.0002216 0.99988204

bias f4 [96]
000000 57 cc 80 3b 68 aa 12 3b 76 6c 02 bb b1 4d d4 ba
       0.003930609 0.0022379402 -0.0019901074 -0.001619747
000010 5d 61 bd ba 53 ec 54 bb 4e a9 97 3a 4c 82 e6 ba
       -0.0014448572 -0.0032489493 0.0011570842 -0.0017586439
000020 50 8f 9b 37 23 a9 c9 3a a6 aa 08 3b 0b 0c c7 ba
       1.8544175e-05 0.001538549 0.0020853668 -0.0015186084
000030 b8 3a 20 3b 0d 4b 76 ba 5c c8 0d 3a 5e 86 23 3b
       0.0024449062 -0.0009395339 0.0005408579 0.0024951915
000040 99 cc 6b ba 31 a1 37 bb 07 66 8e ba 0b 1b 52 3a
       -0.0008995026 -0.0028019662 -0.0010864147 0.0008014894
000050 78 02 2f 3b 03 90 90 3a 44 7b 92 ba 43 76 dd 3a
       0.0026704352 0.0011029247 -0.0011175652 0.0016896207
000060 b2 45 75 3b 88 62 b7 b9 57 1c 2f 3a 02 3b 25 ba
       0.0037425575 -0.00034977891 0.0006679943 -0.00063030433
000070 5e 3d 46 ba 97 e9 07 bb bd 0b 62 3a 9c 5e ed ba
       -0.0007562245 -0.0020738596 0.0008622965 -0.0018109861
000080 0a 24 4f ba db 8e 8f b9 ef 53 14 3b cb 4d 45 3b
       -0.00079017936 -0.0002738152 0.0022633036 0.0030106183
000090 4a ba 39 3b 14 3e 0d 3a 29 f0 ad 37 42 df 0f bb
       0.0028339797 0.00053879735 2.073504e-05 -0.002195314
0000a0 b7 a0 e6 ba ef ec 18 ba fb 7a 1a 39 8f 2c ad 39
       -0.0017595504 -0.00058336457 0.00014732398 0.0003303033
0000b0 97 2b 51 3a 57 14 0a 3a 04 6e 57 ba 41 45 3c 3b
       0.00079792127 0.0005267313 -0.0008217993 0.0028727802
0000c0 ff 4e 20 3b f3 98 5a 3b a5 2b ee b9 11 b4 2e 38
       0.0024461148 0.0033355325 -0.00045427415 4.1652533e-05
0000d0 95 fb 3c 3b 27 7f 96 ba 74 69 e8 3a 26 a0 8b 3a
       0.0028836478 -0.0011481986 0.0017731623 0.0010652586
0000e0 2b 99 0d ba fa 4a d5 3a b4 04 bf 3a 66 d1 7c 3a
       -0.0005401547 0.0016272955 0.0014573545 0.000964424
0000f0 a0 7a bc ba 58 fb d8 3a 02 31 f0 b8 b5 23 09 3b
       -0.0014379807 0.0016554398 -0.0001145322 0.0020925824
000100 b4 36 d0 ba d1 28 38 ba f7 27 6b b7 83 22 ee 39
       -0.0015885443 -0.0007025125 -1.4016397e-05 0.0004542061
000110 95 3a 98 ba 62 a8 1b b8 a4 cb 08 3b 6d 46 27 3b
       -0.0011614138 -3.71117e-05 0.0020873332 0.0025524155
000120 1a 26 66 39 51 11 8f bb 58 58 b9 39 3d a4 bb 39
       0.00021948703 -0.004366078 0.0003535177 0.00035789786
000130 23 35 a4 ba 98 02 0e 3b 7d 10 ad ba f3 25 f6 ba
       -0.0012528043 0.0021669026 -0.0013203766 -0.001877962
000140 30 83 0c bb 01 bf 35 bb 31 8e 85 37 03 11 e1 39
       -0.0021440499 -0.0027732255 1.5921049e-05 0.0004292802
000150 49 b2 c5 ba d6 99 ac 3a f9 89 24 3b 14 83 08 39
       -0.001508304 0.0013168405 0.0025106652 0.00013018801
000160 5b 58 c7 b9 5f 90 5e 3a b4 51 cc ba 9d cf 14 3b
       -0.00038022068 0.0008490141 -0.0015588314 0.0022706755
000170 77 89 52 ba ef 1b a0 3a 24 a9 83 3b 12 be 1f ba
       -0.0008031348 0.0012215356 0.004017966 -0.00060936913

running_mean f4 [96]
000000 4c 03 af 3e 32 af 43 3e fd 9a be 3e 7f 10 b4 3e
       0.34182203 0.191098 0.37227622 0.35168836
000010 51 18 e8 3e 7b c0 05 3d 0c ad c8 3d 33 71 a1 3e
       0.45331052 0.032654267 0.09798631 0.31531677
000020 47 86 82 3e bd 68 1c 3d 92 b3 91 3e 50 2e ed 3e
       0.2549307 0.038185824 0.28457314 0.46324396
000030 4d 9a fb 3e 74 d4 b5 3e 85 63 0c 3f 30 b2 79 3e
       0.4914116 0.3551365 0.54839355 0.2438438
000040 7f fe 66 3e f5 d6 3f 3d c2 fa 45 38 19 3c 8c 3e
       0.2255802 0.04683586 4.7201996e-05 0.273896
000050 ca 28 99 3e c4 15 38 3e 39 99 58 3e 4e 5d 6b 3e
       0.29913932 0.17977053 0.211522 0.22984812
000060 f2 40 83 3e fe 38 bc 3d ad 42 70 3e 50 bf d0 3d
       0.25635487 0.09190558 0.23462935 0.1019274
000070 0a 86 75 3d c2 f9 36 3d 8c ab f7 3e 83 7e 64 3e
       0.059942283 0.04467178 0.48373067 0.22313885
000080 27 fd b6 3e 2d ad 89 3e 7a 10 90 3e 77 18 bd 3e
       0.35740015 0.26889935 0.2813757 0.36932728
000090 ee 30 30 3e f9 1e 08 3e ec b6 6c 3b 25 fe d7 3d
       0.17206165 0.13293065 0.0036119772 0.10546521
0000a0 5d 2e a2 3e bf 30 01 3f 9f 70 3d 3e c9 56 e0 3d
       0.31675997 0.50465006 0.18499993 0.10954053
0000b0 81 fb ad 3e 1f 81 fa 3d 48 55 e7 3d 40 b3 ec 3e
       0.33980945 0.12231659 0.11295563 0.46230507
0000c0 4e 5f f5 3e d3 bf 9c 3d ed d2 a3 3e 46 58 a4 3e
       0.47924274 0.07653775 0.3199686 0.32098597
0000d0 b0 2e 0c 3d 5b 6b 94 3e 8d 8b 17 3e fa 80 3d 3e
       0.034224212 0.28988156 0.14799328 0.18506232
0000e0 20 57 09 3e 7a 8a 50 3e 57 46 96 3e af 57 3c 3e
       0.13412142 0.20365325 0.2935054 0.18392824
0000f0 30 51 e1 3e ee 0c 94 3e 56 26 20 3e 19 ae 1b 3e
       0.44007254 0.28916115 0.15639624 0.15203132
000100 f3 84 10 3e 4b b8 b1 3d e2 55 3a 3e a5 64 ec 3e
       0.14113216 0.08677729 0.18196824 0.46170536
000110 f8 9e e3 3e c3 c9 ab 3e 9a b9 e2 3d 49 83 97 3e
       0.4445722 0.3355237 0.11070557 0.2959235
000120 6d 76 92 3d 61 db 93 3e 53 1c ac 3e bc 31 0d 3f
       0.07151494 0.2887831 0.3361536 0.55154014
000130 fe 16 07 3e 5d 2a 9e 3d 03 a8 53 3e d3 72 0e 3e
       0.13192365 0.07722924 0.2066956 0.1391099
000140 e4 01 a0 3e 53 b6 24 3d 25 0b 1c 3d 88 aa cc 3e
       0.31251442 0.04021294 0.038096566 0.39973855
000150 bf d0 ea 3e 83 8c 8c 3e 92 70 aa 3c 0d bf 0f 3f
       0.45862386 0.27450952 0.02080563 0.56150895
000160 2e 0d fe 3e a4 4d 30 3e 01 0c 12 3f 36 3f 44 3e
       0.4961943 0.17217118 0.57049567 0.19164738
000170 5c e8 95 3e 3c e3 33 3e 3e 94 c6 3e b7 03 ca 3e
       0.2927884 0.17567152 0.38784975 0.3945596

running_var f4 [96]
000000 0c a4 86 3d e4 d7 e5 3d 63 cb fe 3d bd 67 11 3d
       0.06574258 0.112228185 0.12441137 0.035499323
000010 4d 72 a6 3e bc 19 55 3b 39 92 26 3d 5a 0d 20 3e
       0.3250908 0.003251656 0.040666793 0.15630093
000020 99 bd 45 3d c8 a5 3a 3c 99 05 0d 3d 9d 88 49 3e
       0.048276518 0.011392064 0.034429166 0.1968102
000030 88 09 02 3e 6e 74 6c 3e 81 a8 3f 3e b3 ba 87 3d
       0.12698948 0.2309129 0.18716623 0.06627407
000040 ac e7 0e 3e 7e 7f e9 3b 12 82 4a 36 0f d1 91 3d
       0.13955563 0.007125794 3.0176056e-06 0.07119953
000050 3d 29 22 3e 0a f0 11 3e 7f 88 c1 3d 9c b0 15 3e
       0.15836044 0.14251724 0.09449863 0.14618152
000060 bc 3d ca 3d 6d 8f 0c 3d 79 9c 5c 3d dc f4 b5 3c
       0.09875056 0.03431647 0.05386016 0.022211485
000070 83 db 68 3c 79 e2 bd 3b 7c c7 d1 3d 37 7f df 3d
       0.014212492 0.00579482 0.10243127 0.10912936
000080 af f5 67 3e 9f 3b 2a 3e 0b cd ad 3e 4d 4b 0d 3e
       0.22652315 0.16624306 0.33945498 0.13798256
000090 9a 06 f5 3d ef ab 80 3d 91 ad 90 39 c0 a5 f8 3c
       0.1196415 0.06282794 0.00027595137 0.030352473
0000a0 9d c1 06 3d 19 12 1f 3f 89 f8 b7 3d 25 a6 73 3d
       0.032899488 0.6213699 0.08982951 0.05948462
0000b0 13 41 b0 3d e2 34 14 3d b3 ed a1 3c 28 99 44 3e
       0.08606162 0.036183245 0.019766664 0.1919905
0000c0 7e d8 08 3f 97 70 8e 3c a9 62 06 3e 6f 98 c7 3e
       0.5345534 0.017387671 0.13123573 0.38983485
0000d0 f1 78 9d 3b 5c e5 e5 3d db b4 13 3d 5b 4b f0 3c
       0.004805677 0.112253875 0.03606115 0.029332807
0000e0 52 6f 8a 3d 34 cc d1 3d 93 92 97 3d fa 3a 5d 3d
       0.06759514 0.10244027 0.07401004 0.054011323
0000f0 0d 67 01 3e b3 9f 03 3e b9 9f b9 3d ec 3d 2c 3d
       0.12636967 0.12853889 0.09063668 0.04205124
000100 73 ae 84 3c 85 59 2c 3d 6a bc 99 3d c3 2a 06 3e
       0.016196465 0.04207756 0.0750664 0.1310225
000110 a9 77 bb 3d 3d 14 64 3d c4 62 0c 3c b5 10 bd 3d
       0.09153683 0.055683363 0.008568469 0.09231702
000120 52 50 dc 3c 89 0b 68 3e e2 75 dc 3d c7 ae 0f 3f
       0.026893768 0.2266065 0.10764672 0.56126064
000130 41 fa 0e 3d c2 bc 14 3d ff 3a 29 3d 7e 51 80 3c
       0.03490663 0.036312826 0.04131603 0.015663859
000140 04 59 a5 3e 37 51 2d 3c aa e1 db 3b 94 1e e3 3e
       0.32294476 0.010578445 0.006710251 0.44359267
000150 cc 2f 97 3e 47 c8 a9 3d 52 99 46 3b b8 c9 b8 3e
       0.29528654 0.08290153 0.0030303788 0.360914
000160 2a c1 29 3e b7 a9 4f 3d 2a b3 ce 3e 05 e5 28 3e
       0.16577592 0.050698962 0.40371066 0.16493614
000170 99 7c a5 3d 5c 17 07 3e 21 cd 13 3d c3 66 c6 3d
       0.08080406 0.13192505 0.036084298 0.09687569

weight f4 [256, 96]
000000 70 37 57 3d d5 69 b1 3d f5 14 17 3c 87 e8 6f bc
       0.052543104 0.08662764 0.009221305 -0.014642841
000010 1e 95 de bc c6 96 7e 3c b4 d7 24 bd 52 47 ab bd
       -0.027170714 0.015538877 -0.040244773 -0.08363213
000020 3b f6 d2 3b 1d 53 aa bd 59 6a 46 bd 20 d3 ba 3c
       0.0064380444 -0.08316634 -0.048441265 0.02280575
000030 f0 76 33 bd 36 fa 14 3d 64 66 8d bd 20 d1 a6 3d
       -0.0438146 0.036371432 -0.06904295 0.08145356
000040 82 4b 46 bd 00 31 76 bd 6b bb 7a bd 71 be 90 3d
       -0.048411854 -0.060105324 -0.061213892 0.07067574
000050 a0 e7 b9 3d 78 00 4f 3d 5a 31 03 bd 73 38 89 3d
       0.09077382 0.050537556 -0.032029487 0.0670022
000060 e7 67 87 bd 63 d1 4c 3d 1a c7 59 3d 06 f2 97 bd
       -0.06611615 0.050004374 0.053168394 -0.07419209
000070 bb da 8f bc 02 c7 54 bd 18 a8 b2 3c 04 88 54 3d
       -0.017560354 -0.0519476 0.021808669 0.051887527
000080 76 5f 59 bd 44 e4 24 bd 9a 64 39 3d 2d 10 1c 3d
       -0.053069554 -0.040256754 0.045261957 0.038101364
000090 7f 3e 40 bd 7a d6 f3 bc ec 2f 98 3d 6b 91 8e bd
       -0.0469346 -0.029765356 0.07431015 -0.0696133
0000a0 ea 6a de bb 2e 8c 2c bd 53 27 91 3d db b0 ef 3c
       -0.0067876475 -0.042125873 0.070875786 0.029259136
0000b0 c6 fe 99 bd de 87 42 3d 67 af 41 3d bd 6a 4b 3d
       -0.07519297 0.047492854 0.047286417 0.04966234
0000c0 8a 31 70 3d aa 66 f9 bc 8b 52 8d 3d 2c 5b a1 bd
       0.058640994 -0.030444462 0.069005094 -0.07878718
0000d0 a7 d8 5c 3c 2f d0 ab 3d f6 c0 a3 bd d0 8a 90 bd
       0.013479388 0.08389317 -0.07995789 -0.070577264
0000e0 c6 ca cd 3d c6 b2 a0 3c 61 c5 c6 3d 86 c1 ed bc
       0.100484416 0.019616496 0.09705616 -0.029022943
0000f0 5c f1 ac 3d cb 21 32 bc d4 9a 25 3d 01 6e 93 bd
       0.08444473 -0.010872315 0.04043086 -0.07198716
000100 60 ad 1f 3d b4 a2 bf bd fd 21 b8 bd 36 29 6f bd
       0.038983703 -0.09357205 -0.08990858 -0.05838891
000110 fc d6 b9 3d 5d 97 9b bc 33 6f d5 bd 09 05 6d 3d
       0.09074208 -0.018993074 -0.104216 0.05786613
000120 3a 16 bf bd d8 b6 44 3d 25 28 68 3d c9 e0 9d bd
       -0.09330411 0.048025936 0.05667891 -0.0770889
000130 3c 44 4d bd 59 32 48 3d 62 10 e4 bc 79 e7 46 bd
       -0.0501139 0.04887614 -0.027839843 -0.048560593
000140 c1 33 d1 bc 93 ee 33 3d 87 b5 bf bd ab eb 6b bc
       -0.025537373 0.043928694 -0.093607955 -0.014399449
000150 13 34 ad bd a8 79 6b bd e6 da 7d bc a7 f1 ce bd
       -0.08457198 -0.057489067 -0.015494084 -0.10104685
000160 7f 61 0f 3d 7c a5 96 3d 29 22 e1 3c 3c 82 90 3d
       0.03500509 0.073557824 0.02748211 0.0705609
000170 b6 d8 ab bd 2e 86 c5 3c aa a9 70 3d 1f 78 ca 3c
       -0.08390944 0.024111833 0.058755554 0.024715481
000180 37 0f 72 3d 40 20 a6 3d 59 fa 9b 3d 8d 07 11 3d
       0.05909654 0.0811162 0.076161094 0.03540759
000190 8d 28 7b bd 2f 93 b9 bd b0 b9 95 3d 52 2a 71 bd
       -0.06131797 -0.09061276 0.07310808 -0.05887825
0001a0 29 98 3b bc 6e 41 9c bd 4f 8c 88 bd 0a 0f bd 3d
       -0.011449852 -0.07629667 -0.06667387 0.09231384
0001b0 77 62 79 3d a8 60 28 bc 44 ba b7 3c ad a5 6b bd
       0.06088492 -0.010276951 0.022427686 -0.057531048
0001c0 8f d4 87 bd 16 f1 d2 3b 05 19 89 bd 07 63 79 3d
       -0.06632339 0.006437431 -0.06694225 0.060885455
0001d0 c0 40 89 3d c0 87 12 3d 73 0b 7e 3d 02 a2 7e 3d
       0.06701803 0.035773993 0.062022638 0.06216622
0001e0 95 33 b0 bc 72 18 5e bd 74 f1 2d 3d 4e 65 ed 3c
       -0.021508971 -0.05422253 0.042466596 0.02897897
0001f0 3b 05 06 3d 33 29 84 bd f5 3d 6c 3b 26 93 0c 3d
       0.032719832 -0.064531706 0.0036047671 0.03432002
000200 4c ff 93 bb 1a 4e 80 3d 68 55 81 3c 1e dd 21 3d
       -0.0045165177 0.06264897 0.015787795 0.039517514
000210 05 e1 0f bd 9f ef 80 bd 7a c6 cb 3d 4c a3 b7 bd
       -0.035126705 -0.06295704 0.09949966 -0.08966693
000220 01 4b ed bc f3 d9 ac 3d 86 5c ee 3c f9 cb b1 3d
       -0.028966429 0.08440008 0.029096853 0.08681483
000230 4d 73 a0 bd 8d c0 b1 bd 32 9d 87 bd 50 14 aa bb
       -0.07834492 -0.08679304 -0.066217795 -0.0051904097
000240 1e 4e 02 3d 76 d0 a1 bd fb 16 38 3b af a8 8d 3d
       0.03181278 -0.07901089 0.002808987 0.069169395
000250 24 83 b2 bd 57 7c 5f 3d 4c 67 24 bc 76 3e 8f bd
       -0.08716419 0.05456194 -0.0100343935 -0.06994335
000260 27 1d 50 3d ae 30 a7 bd 69 d0 3d 3a 49 55 4b 3c
       0.05080905 -0.08163582 0.00072408334 0.01241047
000270 1c 91 9b 3d d2 f4 d4 3d 0e 12 75 bd aa 49 d6 3c
       0.07596037 0.10398258 -0.05983167 0.026158173
000280 0e a5 cd 3d 52 33 1e 3d bb fe 87 bd 57 0b aa bd
       0.10041247 0.03862316 -0.06640383 -0.08302944
000290 ec 86 83 bc f5 3d b5 bc ad 53 48 bd 67 da 54 3d
       -0.016055547 -0.02212427 -0.048907924 0.051966097
0002a0 97 14 95 3d 90 6e f4 3c 3c 7f 85 bd 0f 6d 3d 3d
       0.07279318 0.029837877 -0.06518409 0.046246585
0002b0 04 f1 5f 3d 1d 77 cf bc a3 4a 4c 3c 50 aa cd 3d
       0.05467321 -0.025325352 0.012468967 0.1004225
0002c0 40 cb ad 3d c8 32 a5 bd cb a1 b5 3c 46 26 4d bc
       0.084860325 -0.080663264 0.022171875 -0.012521332
0002d0 d1 62 b2 3c fe 29 ac 3d 31 b1 91 3b 70 0d 93 3d
       0.021775635 0.08406447 0.0044461717 0.071802974
0002e0 bc dd ef 3c 16 b6 0f 3d 83 3c 71 bc 4d e5 88 bd
       0.029280536 0.03508576 -0.0147239 -0.06684361
0002f0 b4 73 ab bd e5 91 83 bd 8b b4 94 3a b7 3c 87 bd
       -0.08371678 -0.064243115 0.001134531 -0.06603377
000300 ad ac a8 3d f8 01 9e bd 61 38 b9 3c c1 ed c4 3d
       0.0823606 -0.07715219 0.022609891 0.096156605
000310 6d b9 f3 3c 3c f6 eb 3c 88 43 a5 3d 07 e5 3c bd
       0.029751504 0.028803937 0.08069521 -0.046116855
000320 57 cc 20 3d 95 42 92 3d 05 7c 9f 3d e4 97 4b 3d
       0.039257374 0.07141606 0.07787327 0.0497054
000330 72 a3 79 bd cf 69 4b bd 88 14 32 bd e7 85 af 3d
       -0.06094689 -0.049661454 -0.04347661 0.08570462
000340 a5 db 1f 3d 3f 46 b3 bd ca 7d 3b 3b 3c ce 33 bd
       0.03902783 -0.08753633 0.0028608912 -0.043897852
000350 db 3b 78 bd 84 a6 2b 3d c2 2f 1b bd b7 98 c1 bd
       -0.060603958 0.04190685 -0.037887342 -0.09452956
000360 1f d3 ac 3d 30 33 90 3d 9b 28 6c bd 98 a4 84 3d
       0.08438706 0.07041013 -0.057655912 0.06476706
000370 58 09 87 bc a8 c3 cb bc 2e 72 d3 3c d4 07 06 bd
       -0.016483948 -0.02487357 0.025811281 -0.03272231
000380 a4 ae 59 bb 7c f9 c7 bd ff f4 31 bd a7 fa 57 3d
       -0.0033215666 -0.09764382 -0.043446537 0.052729275
000390 66 b9 09 bd 71 bd 6e bd d3 27 39 bd 40 94 88 3c
       -0.033624075 -0.058286134 -0.045203995 0.016672254
0003a0 7a 7c be bd e8 b4 bf 3d 91 1f 2b bd 4f 84 ba bd
       -0.09301086 0.09360677 -0.04177815 -0.09107267
0003b0 3c be 4d bd 0d 15 8d 3d 5f 75 d3 3c f0 bd 19 3d
       -0.05023025 0.06888781 0.025812803 0.037534654
0003c0 bb 69 b3 bc 57 9a 5c bd 8f 20 f4 bb 36 22 7c 3d
       -0.021901002 -0.053858127 -0.0074501703 0.061556064
0003d0 36 40 76 bd 09 9e 53 bd ab 72 88 bd b3 bb 5a bd
       -0.06011983 -0.051664386 -0.06662496 -0.05340166
0003e0 67 98 63 bd 75 2c 55 bd fa 95 8c 3d 08 cf c4 bd
       -0.055565264 -0.05204435 0.06864543 -0.096098006
0003f0 1d 38 43 bb e0 6c 09 3d 61 5c b7 3b 6c 7c d8 bc
       -0.0029788085 0.033551097 0.005595729 -0.026426516

bias f4 [256]
000000 6e e2 22 3d 49 f2 52 3d 28 e0 8d bd da d7 97 bd
       0.03976672 0.051500592 -0.0692752 -0.07414217
000010 4e 03 8c bd 39 f0 69 bd 2a cd a9 bd 6c bb a2 bb
       -0.06836568 -0.05711386 -0.08291085 -0.00496619
000020 2c e4 44 3b 54 fa 92 bd b8 ed 80 3d 9a 1a 89 3d
       0.0030043228 -0.071766526 0.06295341 0.06694527
000030 6e 77 a5 3d 34 bb 86 bd 3d 41 9a bd f3 f4 c7 3d
       0.0807942 -0.06578675 -0.075319745 0.09763517
000040 9c 32 b8 3d 74 1a f8 bc d8 b0 b2 3d 3d ff 87 3d
       0.08994028 -0.030286051 0.087251365 0.0664048
000050 f5 f9 e9 3c 1c 67 c3 3d 8a a5 ae bd 8d c6 00 3d
       0.028561572 0.09541151 -0.08527668 0.031439353
000060 84 ab 58 ba 11 32 72 bd 01 84 49 3d 18 26 0d bd
       -0.0008265304 -0.05912978 0.049198154 -0.034460157
000070 c7 22 18 3c 6d 2c 92 bc 8e 8a de 3c 1b e9 1e 3d
       0.009285635 -0.01784345 0.027165677 0.038796525
000080 7b 84 58 3c 65 c9 65 3d 2b 5d c8 bd 44 f4 12 bd
       0.01321518 0.056100268 -0.097833954 -0.03587748
000090 a8 c8 6a bd 76 90 ea 3c f2 bd 09 3d d0 0c 9c 3c
       -0.057320267 0.028633337 0.03362841 0.019049078
0000a0 46 8a e3 3c af 40 2c 3d 8b b2 9f bd f1 0c c3 3d
       0.027775895 0.042053875 -0.07797726 0.09523953
0000b0 14 8e 20 3d c2 30 c7 bc e1 e0 b8 bc 3a 2c 83 bc
       0.039197996 -0.024315242 -0.022568168 -0.0160123
0000c0 c3 03 5e 3d 34 de 34 bd 37 17 81 3d 8b 35 16 bd
       0.054202806 -0.044157222 0.06303256 -0.036672156
0000d0 95 da c4 3d 60 23 9d 3c 99 41 a5 bd f6 84 36 ba
       0.09612004 0.019181907 -0.080691524 -0.0006962562
0000e0 e3 29 bb 3d fc 74 22 bc 44 c1 2a 3d 05 c9 f7 bc
       0.09138849 -0.009915587 0.04168822 -0.03024722
0000f0 e5 40 31 3d fb 3a 9f 3d a8 b9 ea 3c 0d 93 90 bc
       0.04327478 0.077749215 0.02865298 -0.017648244
000100 92 92 f7 bb a4 7c 53 bd 1c 58 ee 3c 74 ad 34 3c
       -0.0075553143 -0.05163254 0.029094748 0.011027683
000110 ff e5 a8 3d f4 0b 72 3d 2c 3f f7 bc ab 4a 7e 3d
       0.08246993 0.05909343 -0.03018149 0.062082928
000120 07 de 9d 3c af aa 80 3d 95 30 3a 3d e0 8f 1a bd
       0.01927091 0.06282555 0.045456488 -0.037734866
000130 c7 7a 3d bd 61 d9 53 3d cb fd 52 3d 09 78 ac bc
       -0.046259668 0.05172098 0.051511567 -0.021053331
000140 df 55 b3 bc 79 c0 bb bd ae ec 85 bd 70 73 7c 3d
       -0.021891532 -0.091675706 -0.06539284 0.061633527
000150 e4 f4 9f 3d 1c 87 aa bd 9d ac ad bd 0a 39 88 bd
       0.07810381 -0.08326551 -0.08480189 -0.06651504
000160 c0 e6 90 bd 56 c6 4c 3d 09 dd c5 3d 07 01 11 3c
       -0.07075262 0.049993835 0.096613 0.008850343
000170 f8 f9 a6 3d ca 23 93 bd 28 79 cf bc 4e f8 6d bc
       0.081531465 -0.071845606 -0.025326326 -0.0145245325
000180 57 03 e8 3c 09 87 b3 bd ef 4f 98 bd ca 21 a0 3d
       0.028321905 -0.0876599 -0.07437121 0.07818945
000190 46 ce 1a 3d 8b 44 5e bc 72 f0 91 bc 3a 28 cd bd
       0.037794374 -0.013566147 -0.017814849 -0.10017438
0001a0 00 3c 43 3d 3a 56 a0 3d 4e ca 97 bd fe f2 a7 3b
       0.047664642 0.078289464 -0.074116334 0.0051254025
0001b0 8e 3b 32 bd 22 a3 bb 3d 9d 98 3c bd 00 6f 27 3d
       -0.043513827 0.091619745 -0.04604398 0.040877342
0001c0 46 27 a4 bb c7 c1 28 3d c1 b1 67 bd e0 f0 b3 3d
       -0.0050095646 0.041200425 -0.056566004 0.08786178
0001d0 3c fc 90 3d 90 29 a9 bd 9c 51 b9 bc 6c 97 99 bc
       0.0707936 -0.082598805 -0.022621922 -0.018748961
0001e0 2b 95 b9 bc a8 87 d2 3d e5 47 4c 3d bd 09 7b 3d
       -0.022654137 0.102797806 0.04987325 0.061288584
0001f0 ec 85 97 3c b9 3e bf 3c 95 30 a6 bd 97 96 6a 3c
       0.018496476 0.023345338 -0.08114735 0.01431813
000200 72 d3 2c 3d 68 7b af 3c 28 ea b2 bc 2d b9 5a 3d
       0.042193837 0.02142115 -0.02184017 0.053399254
000210 f6 b5 75 3d 32 17 cc 3d 54 6d de 3c 5d f6 88 3d
       0.059987985 0.09965362 0.027151741 0.06687615
000220 2c ae 44 bd 6b f6 3f 3d 35 a2 29 bd 44 66 85 3d
       -0.048017666 0.046865862 -0.04141446 0.06513646
000230 58 fa 47 3d 24 e5 af 3d 8e 9e ba 3a c5 5b 6f bd
       0.04882273 0.08588627 0.0014237927 -0.058437128
000240 07 4f ad 3d 6c fc 74 bd e3 4f b4 3d 77 52 8a 3d
       0.08462339 -0.05981104 0.088043 0.0675401
000250 55 bb ac 3d 38 6a 4f bc f2 45 96 bd 21 6c 23 3d
       0.08434168 -0.012659602 -0.0733756 0.03989804
000260 32 1f 09 bd 2d 5e bb 3d d2 e3 43 bd 6f 10 07 bd
       -0.033477016 0.09148822 -0.04782469 -0.032974657
000270 6b 7c 84 3d ae e2 39 bd 5f d4 f6 3c 4c 45 3b bd
       0.06469043 -0.045382194 0.030130563 -0.045720384
000280 b9 76 6a 3d 09 07 fc 3a b8 d6 54 3d 37 e3 05 bd
       0.05724213 0.0019228171 0.051962584 -0.032687392
000290 20 38 09 3d 13 2c 57 bc 31 98 eb bc 49 e8 5e 3d
       0.03350079 -0.013133067 -0.028759094 0.054420743
0002a0 c7 5e b0 bb a3 0f 9d bd 7d 67 8c bd 1d 75 78 bd
       -0.005382392 -0.07668998 -0.06855676 -0.060658563
0002b0 80 c5 39 3d ec aa 91 bc dc e9 2c bd c4 4b 06 bd
       0.045354366 -0.017781697 -0.042215213 -0.0327871
0002c0 b9 0b bb bd 3f 31 ad 3d 54 32 63 bd 01 a9 95 3d
       -0.09133095 0.084566586 -0.05546792 0.073076256
0002d0 1b 03 0c bd 47 fa ca bc 8c 90 d0 3c bb 5f 95 3d
       -0.03418265 -0.024777545 0.02545955 0.0729365
0002e0 bc d8 5f 3d 70 5b 59 3d f4 04 ce 3d 78 29 2c bd
       0.054650053 0.053065717 0.100595385 -0.042031735
0002f0 26 a9 9c 3d 87 2a ae bd 5a 90 59 3c b2 41 a4 bc
       0.0764945 -0.08504205 0.013279045 -0.020050857
000300 40 e9 75 bd 8d 76 68 3d bd bf 9c 3d cb 86 a3 3d
       -0.060036898 0.056753684 0.07653759 0.07984694
000310 63 f0 c9 bd 57 55 14 bd 2b db d0 3d ee 88 44 3c
       -0.09860303 -0.0362142 0.10198053 0.011995537
000320 08 6d c0 3d 81 50 92 bd b2 cf 31 3c 90 04 c7 bc
       0.09395796 -0.07144261 0.010852741 -0.024294168
000330 4e 63 f3 bc 11 4c 58 3d d7 16 bd bc a1 2c 64 3d
       -0.029710438 0.052806918 -0.02308218 0.055706624
000340 0b f0 18 3d 66 6c ad 3d 79 25 b7 3d 54 c9 be 3c
       0.037338298 0.08467941 0.08942694 0.02328936
000350 42 34 41 3a ed 5a 45 3d 52 b9 23 3c ca 36 1f 3d
       0.0007370153 0.048182417 0.009992914 0.03887061
000360 40 3c 83 3d 0a a5 9d bc a4 cc 27 3d f8 a1 4d 3c
       0.06407976 -0.019243736 0.040966645 0.012550823
000370 ac 6d 1c bd fd 32 0e bc de 97 af bd f0 98 19 bd
       -0.03819053 -0.008679149 -0.08573888 -0.03749937
000380 2b 97 5e bd a1 6a c6 bd 5e 57 85 3d b8 64 73 bd
       -0.054343384 -0.096883066 0.065108046 -0.059422225
000390 6c 5b 7e 3d 6f 24 43 bb 26 89 07 bd c3 b9 6b bd
       0.062098905 -0.0029776355 -0.03308978 -0.057550203
0003a0 fb c8 c1 3c 5a d8 7d bd 6a 34 a2 3d 28 b8 10 3d
       0.023655405 -0.061973907 0.079201534 0.035331875
0003b0 a2 01 69 3d 69 c3 1e 3d 81 73 c2 bd 14 d5 ce bd
       0.056886323 0.038760576 -0.09494687 -0.10099235
0003c0 7d e6 c5 3d aa 66 a4 bd 84 2d 8f 3d 5b 95 b7 bd
       0.09663103 -0.08027394 0.06991103 -0.08964034
0003d0 2b 7f 99 bc 7a e0 7f bc a3 b9 d1 bd db 19 37 bd
       -0.018737396 -0.015617484 -0.102404855 -0.044702392
0003e0 3d ed 9b bd 79 88 29 bd 16 c6 2f bd 9d 37 57 bd
       -0.07613609 -0.041389916 -0.04291352 -0.05254327
0003f0 61 79 2a 3d d4 29 4b bd 8f 2c 54 bc 71 c8 56 3d
       0.041619662 -0.049600437 -0.012950077 0.05243725

weight f4 [256]
000000 95 fb 7f 3f e3 34 80 3f f9 5f 7f 3f 9b 08 80 3f
       0.9999326 1.001614 0.9975582 1.0002626
000010 1f f9 7f 3f 46 0e 80 3f 58 1e 80 3f 26 09 80 3f
       0.99989504 1.0004356 1.000926 1.0002792
000020 22 05 80 3f f9 0b 80 3f fd d4 7f 3f d0 f1 7f 3f
       1.0001566 1.0003654 0.9993437 0.9997835
000030 b4 f7 7f 3f c4 14 80 3f 47 41 80 3f 74 1b 80 3f
       0.9998734 1.0006337 1.0019921 1.0008378
000040 e4 02 80 3f bf 25 80 3f ba e2 7f 3f 12 c6 7f 3f
       1.0000882 1.0011519 0.9995533 0.99911606
000050 b8 28 80 3f e1 28 80 3f 1c 15 80 3f 6d 44 80 3f
       1.0012426 1.0012475 1.0006442 1.0020882
000060 bf 22 80 3f bd 2f 80 3f c0 10 80 3f 19 dd 7f 3f
       1.0010604 1.0014569 1.0005112 0.99946743
000070 97 2e 7f 3f b4 0d 80 3f b5 23 80 3f b6 15 80 3f
       0.99680465 1.0004182 1.0010897 1.0006626
000080 e1 56 80 3f 84 c5 7e 3f 74 eb 7f 3f 56 27 80 3f
       1.0026513 0.99520135 0.9996865 1.0012004
000090 63 10 80 3f 10 49 80 3f 7c 28 80 3f 7c 83 7f 3f
       1.0005001 1.0022297 1.0012355 0.99810004
0000a0 a2 24 80 3f 48 8a 7f 3f 69 2d 80 3f 30 e8 7f 3f
       1.001118 0.99820375 1.0013858 0.99963665
0000b0 7e 11 80 3f 95 36 80 3f 00 04 80 3f d5 05 80 3f
       1.0005338 1.0016657 1.0001221 1.000178
0000c0 a5 3a 80 3f 4e d0 7f 3f 8c 54 80 3f 37 de 7f 3f
       1.0017897 0.9992722 1.0025802 0.9994845
0000d0 77 29 80 3f c6 7d 7f 3f f8 e9 7f 3f 7b de 7f 3f
       1.0012654 0.9980129 0.99966383 0.99948853
0000e0 52 e2 7f 3f d2 0b 80 3f cc 35 80 3f 1f e7 7f 3f
       0.9995471 1.0003607 1.0016418 0.9996204
0000f0 45 48 80 3f aa bf 7f 3f cd cf 7f 3f 96 3b 80 3f
       1.0022055 0.9990183 0.99926454 1.0018184
000100 00 1f 80 3f 4d fe 7f 3f 43 ef 7f 3f eb 26 80 3f
       1.000946 0.9999741 0.9997446 1.0011877
000110 22 52 80 3f ec f2 7f 3f 13 e2 7f 3f 24 d7 7f 3f
       1.0025065 0.99980044 0.99954337 0.99937654
000120 72 40 80 3f b5 50 7f 3f 07 0b 80 3f b6 aa 7f 3f
       1.0019667 0.99732524 1.0003365 0.9986986
000130 06 e3 7f 3f 99 13 80 3f c8 f4 7f 3f d7 45 80 3f
       0.99955785 1.0005981 0.9998288 1.0021313
000140 42 15 80 3f fc 06 80 3f 7d b6 7f 3f 39 e3 7f 3f
       1.0006487 1.0002131 0.9988783 0.9995609
000150 39 fe 7f 3f d4 43 80 3f 7c b2 7f 3f c5 ee 7f 3f
       0.9999729 1.00207 0.9988172 0.9997371
000160 d0 ec 7f 3f fe 85 7f 3f a7 8e 7f 3f 99 6f 7f 3f
       0.9997072 0.9981383 0.99827045 0.9977966
000170 a8 fc 7f 3f 5d 7c 7f 3f e2 91 7f 3f 61 be 7f 3f
       0.999949 0.9979914 0.99831975 0.9989987
000180 cb 0a 80 3f b5 03 80 3f e8 eb 7f 3f 7e 0e 80 3f
       1.0003294 1.0001131 0.9996934 1.0004423
000190 81 05 80 3f 43 0f 80 3f 20 19 80 3f bf 05 80 3f
       1.000168 1.0004658 1.0007668 1.0001754
0001a0 42 1c 80 3f c1 e7 7f 3f d3 a7 7f 3f 60 cc 7f 3f
       1.0008624 0.99963003 0.99865454 0.99921227
0001b0 39 48 80 3f 95 c6 7f 3f b5 d7 7f 3f a8 10 80 3f
       1.0022041 0.9991239 0.9993852 1.0005083
0001c0 40 02 80 3f 04 c3 7f 3f 74 ce 7f 3f 70 f5 7f 3f
       1.0000687 0.99906945 0.999244 0.9998388
0001d0 3a e2 7f 3f 5e da 7f 3f 5f 83 80 3f 2e 92 7f 3f
       0.9995457 0.99942577 1.0040091 0.9983243
0001e0 f8 d4 7f 3f db 82 7f 3f 33 2a 80 3f 26 1d 80 3f
       0.9993434 0.99809045 1.0012878 1.0008895
0001f0 e4 a8 7f 3f cc 2d 80 3f 8b ac 7f 3f eb 1a 80 3f
       0.9986708 1.0013976 0.99872655 1.0008215
000200 b4 51 7f 3f fb c2 7f 3f 01 3a 80 3f 27 f4 7f 3f
       0.99734044 0.9990689 1.0017701 0.9998192
000210 26 20 80 3f a0 12 80 3f 22 04 80 3f 5a 7a 7f 3f
       1.0009811 1.0005684 1.0001261 0.9979607
000220 44 54 80 3f d5 a7 7f 3f 01 2a 80 3f 7d 17 80 3f
       1.0025716 0.99865466 1.0012819 1.0007168
000230 a1 33 80 3f ea df 7f 3f 01 1f 80 3f be d2 7f 3f
       1.0015756 0.9995104 1.0009462 0.9993094
000240 47 08 80 3f 24 83 7f 3f 30 a8 7f 3f b7 aa 7f 3f
       1.0002526 0.9980948 0.9986601 0.99869865
000250 a0 73 7f 3f fa 11 80 3f 93 dc 7f 3f ef c6 7f 3f
       0.99785805 1.0005486 0.99945945 0.99912924
000260 70 15 80 3f a1 09 80 3f 33 be 7f 3f 02 1e 80 3f
       1.0006542 1.0002939 0.99899596 1.0009158
000270 96 8a 7f 3f 64 4f 80 3f 27 37 80 3f 90 d6 7f 3f
       0.9982084 1.0024228 1.0016831 0.9993677
000280 48 33 80 3f ec 36 80 3f 33 16 80 3f 07 9c 7f 3f
       1.001565 1.0016761 1.0006775 0.99847454
000290 6f cd 7f 3f b1 fe 7f 3f c6 0c 80 3f 89 60 80 3f
       0.9992284 0.99998003 1.0003898 1.002946
0002a0 c8 71 7f 3f cb 16 80 3f 29 18 80 3f 36 22 80 3f
       0.9978299 1.0006956 1.0007373 1.001044
0002b0 55 f1 7f 3f d9 09 80 3f 5b 01 80 3f 1f d0 7f 3f
       0.9997762 1.0003005 1.0000414 0.9992694
0002c0 b9 00 80 3f 28 5f 80 3f de 9b 7f 3f da 33 80 3f
       1.000022 1.0029039 0.9984721 1.0015824
0002d0 6a 0b 80 3f 6d 07 80 3f 8a 10 80 3f 4d 02 80 3f
       1.0003483 1.0002266 1.0005047 1.0000702
0002e0 2c ac 7f 3f ee 22 80 3f d3 bb 7f 3f 1b ab 7f 3f
       0.9987209 1.001066 0.9989597 0.9987046
0002f0 9f e9 7f 3f d7 29 7f 3f c4 1a 80 3f 04 ab 7f 3f
       0.9996585 0.9967322 1.0008168 0.99870324
000300 66 a7 7f 3f c3 dc 7f 3f da 18 80 3f 54 03 80 3f
       0.99864805 0.9994623 1.0007584 1.0001016
000310 8e eb 7f 3f 63 28 80 3f e5 fd 7f 3f e8 52 80 3f
       0.999688 1.0012325 0.9999679 1.0025301
000320 89 14 80 3f 18 0c 80 3f 5a 0e 80 3f 0c c3 7f 3f
       1.0006267 1.0003691 1.000438 0.9990699
000330 b4 9a 7f 3f 02 14 80 3f 73 c0 7f 3f 33 7d 7f 3f
       0.99845433 1.0006106 0.9990303 0.99800414
000340 9c 95 7f 3f d0 ca 7f 3f 61 68 7f 3f 59 9c 7f 3f
       0.9983766 0.9991884 0.99768645 0.9984794
000350 70 eb 7f 3f 3f a8 7f 3f 8b 1a 80 3f 5b c3 7f 3f
       0.99968624 0.998661 1.00081 0.99907464
000360 b4 00 80 3f 3c ea 7f 3f 62 d7 7f 3f 8c 9f 7f 3f
       1.0000215 0.9996679 0.99938023 0.99852824
000370 47 d1 7f 3f e5 1e 80 3f 82 bd 7f 3f c3 f3 7f 3f
       0.99928707 1.0009428 0.9989854 0.99981326
000380 d1 e4 7f 3f 35 f7 7f 3f 53 2a 80 3f fa 33 80 3f
       0.9995852 0.99986583 1.0012916 1.0015862
000390 d8 a7 7f 3f 34 d4 7f 3f 84 cc 7f 3f 7c da 7f 3f
       0.99865484 0.9993317 0.9992144 0.99942756
0003a0 58 ba 7f 3f 98 1a 80 3f a1 eb 7f 3f 2a f9 7f 3f
       0.99893713 1.0008116 0.99968916 0.9998957
0003b0 4b 6d 7f 3f b1 e0 7f 3f de 1e 80 3f 60 0f 80 3f
       0.9977614 0.99952227 1.000942 1.0004692
0003c0 cd bf 7f 3f dc 34 80 3f a8 d1 7f 3f 4d ea 7f 3f
       0.9990204 1.0016131 0.99929285 0.9996689
0003d0 52 04 80 3f 39 9d 7f 3f fd d5 7f 3f 17 b4 7f 3f
       1.0001318 0.9984928 0.99935895 0.9988417
0003e0 6a 1b 80 3f 7a 24 80 3f 12 2b 80 3f 26 25 80 3f
       1.0008366 1.0011132 1.0013144 1.0011337
0003f0 92 48 80 3f 97 f0 7f 3f 3d 20 80 3f b8 f2 7f 3f
       1.0022147 0.99976486 1.0009838 0.99979734

bias f4 [256]
000000 65 5f 2e ba 48 dc 2b 3a d2 73 11 39 69 17 fe ba
       -0.0006651788 0.0006555957 0.00013871424 -0.0019385639
000010 bc 6e 3a ba 93 e2 6f ba b9 ee bd ba 91 0b dd 3a
       -0.00071118376 -0.00091508887 -0.00144907 0.0016864409
000020 d4 43 a1 39 fe 25 52 38 6f 9b 64 3a 48 fa 67 39
       0.0003075885 5.0103285e-05 0.0008720671 0.00022123114
000030 4c 9b 31 3a 13 3f 16 3a 36 c6 c2 b9 93 d3 b7 3a
       0.0006775155 0.00057314447 -0.00037150242 0.0014024846
000040 07 bf 0b b9 d2 78 5c ba d5 48 3f 3b 5f 89 dc 39
       -0.00013327236 -0.00084103376 0.0029187698 0.0004206402
000050 ac 88 9a b9 0f c7 a2 ba ff 51 6e 3a 64 00 04 3b
       -0.00029474997 -0.0012418943 0.0009091198 0.0020141834
000060 3d 49 ba ba 75 8e 0b ba fb 5f 7c b8 47 df 6d ba
       -0.00142125 -0.0005323657 -6.017087e-05 -0.00090741034
000070 26 df cb ba 27 c6 63 ba 86 9e a7 ba 9f 09 db 39
       -0.0015554174 -0.000868889 -0.0012788333 0.00041778103
000080 85 93 36 b8 ee 51 e0 39 a0 81 fb b9 04 d9 50 b9
       -4.352957e-05 0.00042785652 -0.0004797103 -0.0001991727
000090 18 0a b7 3a 50 73 e5 b8 b6 47 24 b9 bc b4 1b b8
       0.00139648 -0.000109410495 -0.00015666973 -3.71232e-05
0000a0 de 65 e1 b9 68 13 79 ba 33 59 e0 ba 38 fe 8b ba
       -0.0004299124 -0.0009501488 -0.0017116427 -0.0010680621
0000b0 e0 2d a4 39 47 7e c7 3a 77 98 b2 3a 01 26 5a b9
       0.00031314697 0.0015220129 0.001362576 -0.00020804258
0000c0 fb 33 5e b9 42 d8 e5 38 36 d2 80 b9 ed e6 89 39
       -0.00021190934 0.00010959852 -0.00024570682 0.0002630273
0000d0 aa ce 8c 3a 52 1f 84 3a a3 06 29 3a 23 f9 49 3a
       0.0010742743 0.0010080135 0.00064478273 0.0007704666
0000e0 44 7b a9 b9 2a ae 07 bb 9e 68 d4 ba 1d e6 75 3a
       -0.00032326032 -0.0020703175 -0.0016205495 0.0009380298
0000f0 79 dc 25 ba 40 40 1a 3b ae 09 18 3b f1 b3 d1 3a
       -0.00063271035 0.002353683 0.002319913 0.0015999061
000100 ad a7 89 3a 13 1c 9c 3a 11 6f 89 b8 ce 18 02 bb
       0.0010502242 0.0011910222 -6.553357e-05 -0.001985121
000110 73 96 ca 38 74 8b e8 b9 2e ec 27 39 e1 c3 64 b9
       9.660134e-05 -0.0004435439 0.00016014345 -0.00021816745
000120 b4 9f 14 bb d1 70 25 3a 5b 51 32 ba 66 53 14 b9
       -0.0022678198 0.00063110614 -0.0006802284 -0.00014145448
000130 29 e2 52 3a 99 3b ac 3a d2 4a 5c 39 f8 22 68 ba
       0.0008044565 0.001314032 0.00021008708 -0.00088553084
000140 95 c6 8c b9 ea f7 72 ba 4d d7 f6 3a f2 b4 36 3a
       -0.00026850836 -0.00092685095 0.0018832475 0.0006969712
000150 e2 fb ea 3a bd 13 da 3a 58 06 ce 3a 75 d6 c7 3a
       0.001792785 0.0016637963 0.0015718443 0.0015246408
000160 e0 a7 f8 36 86 fc 30 39 0d 4b 23 ba 4c a6 8e 39
       7.410519e-06 0.0001687874 -0.000622914 0.0002720825
000170 92 18 e9 b9 e8 48 c1 3a a8 57 df ba ac da 2f 3a
       -0.0004445953 0.0014746459 -0.0017039673 0.0006708305
000180 ea bb ba 3a 31 7a d3 39 53 fc 28 ba 9a 82 5a b8
       0.0014246677 0.00040336096 -0.00064462906 -5.2096882e-05
000190 a3 c4 da b9 11 8f f3 b9 8b 85 33 ba 5a 12 26 3a
       -0.00041726706 -0.00046455165 -0.00068482076 0.0006335132
0001a0 8d f3 e2 37 6e 02 30 b9 8d 71 5e 39 22 18 d8 38
       2.7054712e-05 -0.00016785573 0.00021213871 0.00010304178
0001b0 a5 e6 95 ba ae 38 bf 39 90 b5 82 3a 74 dd 21 b8
       -0.0011436535 0.00036472589 0.0009972323 -3.8591636e-05
0001c0 d0 30 b3 39 a6 8a 72 3a 42 6d 05 ba 5f 9a a7 39
       0.0003417791 0.00092522276 -0.0005089828 0.00031967738
0001d0 34 c2 96 37 4c b5 de b9 9f cf 89 3a 08 32 aa 3a
       1.7971826e-05 -0.00042478216 0.0010514146 0.0012984881
0001e0 1c bc 39 3a 53 68 6d 39 f7 6a 11 ba 11 4c 13 bb
       0.00070852204 0.00022640945 -0.000554725 -0.002247576
0001f0 d9 93 fe ba 64 6d 2d ba b5 e8 72 3a a8 90 9d b9
       -0.0019422724 -0.0006615727 0.00092662434 -0.0003005315
000200 13 5f 7a ba a6 8c 1e ba eb 0c 85 ba 6d 6b 89 ba
       -0.00095509103 -0.000604818 -0.0010150945 -0.0010484286
000210 46 3e da b8 a8 94 b2 3a 84 c0 92 3a 61 47 ee 3a
       -0.000104066494 0.0013624625 0.001119629 0.0018179232
000220 49 32 6b 3a 92 25 b1 ba e6 d2 8a ba f8 fa 01 3a
       0.00089720316 -0.0013515225 -0.0010591417 0.0004958357
000230 ac 81 c1 b9 d6 86 a4 b9 02 c7 99 ba 87 49 40 3a
       -0.00036908442 -0.00031380978 -0.0011732283 0.0007335175
000240 2a 53 d0 3a 78 5b 35 b9 fb 3a de 3a a8 1b a7 3a
       0.0015893925 -0.0001729558 0.0016954833 0.0012749331
000250 93 e5 ca 3a 9b b0 ba ba 2c b1 9f b9 46 87 a2 3a
       0.0015479795 -0.0014243306 -0.00030458847 0.0012399934
000260 0d 59 b1 39 48 1f 96 ba 41 b8 fe 39 63 83 8d ba
       0.0003382642 -0.0011453414 0.00048583935 -0.0010796603
000270 2d 83 3b b9 55 57 52 3a 2d 7b ba 39 d3 3b 38 37
       -0.00017882577 0.0008023878 0.00035568458 1.0981184e-05
000280 ae f3 2f ba 3f 4c a9 3a 09 3c 81 b9 d0 16 6f b9
       -0.00067120313 0.00129164 -0.00024649527 -0.00022801314
000290 27 17 ca 39 5b d6 13 39 08 25 95 b9 32 b7 5b ba
       0.00038545692 0.00014098866 -0.00028447085 -0.0008381485
0002a0 87 a1 89 39 a8 e2 90 b9 f1 3e 92 3a 1e c4 7f ba
       0.00026251024 -0.00027634692 0.0011157674 -0.0009756702
0002b0 0a 10 ab ba 4a 51 7b 38 f2 b7 90 ba b9 50 16 3a
       -0.0013051045 5.991877e-05 -0.0011041148 0.00057340745
0002c0 55 4a bc 3a 2d ff a2 ba 9d 5c 57 b8 a2 bc 78 3a
       0.0014365414 -0.0012435667 -5.1346247e-05 0.00094885577
0002d0 1a 07 2c 3a f1 70 73 3a bb ba cb 39 a1 42 0a ba
       0.00065623375 0.0009286544 0.00038858302 -0.00052742107
0002e0 d7 e3 a2 3a 96 b2 1c 3a bd 96 a1 b9 df 56 3f 3a
       0.0012427521 0.0005977539 -0.00030820622 0.00072990166
0002f0 e9 75 e4 39 79 e2 a7 ba 00 35 bc 39 15 53 14 ba
       0.000435754 -0.0012808583 0.00035897642 -0.0005658132
000300 b9 4c 41 b9 87 e4 4c ba 91 22 b1 b9 48 16 2d 35
       -0.00018434496 -0.00078160356 -0.00033785825 6.4479946e-07
000310 30 97 60 ba 32 85 26 b9 ba 83 2d 3a f9 1e 93 38
       -0.00085674506 -0.00015880613 0.0006619055 7.015275e-05
000320 88 79 9a b8 72 3d 48 39 bc cb 30 b9 80 43 06 ba
       -7.365929e-05 0.00019096376 -0.00016860565 -0.00051217526
000330 59 c0 65 3a fe 41 9a b9 05 e8 bb ba 72 bf 89 ba
       0.0008764319 -0.00029422337 -0.0014336115 -0.0010509326
000340 2d e2 a6 3a 5d 4f 99 ba b3 ba 23 39 3d 9f f2 39
       0.00127322 -0.0011696626 0.00015614442 0.0004627648
000350 d3 d5 c4 b9 ce 52 5f b7 58 d0 ab 3a 5b 96 cd 39
       -0.00037543345 -1.3311115e-05 0.0013108356 0.0003921267
000360 66 ae 47 3a e2 1e ac ba a8 3b 1a ba 05 08 31 3a
       0.0007617235 -0.0013131762 -0.0005883523 0.0006753209
000370 2e 7d 8d 3a d7 80 a2 b9 0e 95 e5 39 95 37 72 b9
       0.0010794753 -0.0003099504 0.00043789338 -0.00023099624
000380 55 1b 53 3a a2 a5 b9 3a c7 84 5f ba a4 a0 f9 3a
       0.0008053084 0.0014163742 -0.000852656 0.0019045067
000390 98 e3 23 b9 8d 62 65 ba f9 0e 29 ba 84 72 21 3a
       -0.00015629677 -0.0008750342 -0.00064490695 0.0006158727
0003a0 c0 88 e3 39 8f 53 3e b9 d6 4f 99 38 28 cd 57 ba
       0.000433987 -0.0001815094 7.310479e-05 -0.000823217
0003b0 81 b6 02 38 7d ef 13 ba 65 75 8f 37 19 97 0f ba
       3.1164385e-05 -0.00056432915 1.7101594e-05 -0.00054775324
0003c0 89 ed 0d ba e2 7b 04 bb 5b 18 2a ba a0 a9 7e b8
       -0.00054141186 -0.0020215441 -0.00064886146 -6.0716295e-05
0003d0 42 cf 36 39 4e db b9 b9 00 19 3f 39 c9 9e ce ba
       0.00017434082 -0.00035449344 0.00018224493 -0.0015763874
0003e0 22 21 8a b8 e5 59 fa ba c5 11 e3 39 39 01 f0 b8
       -6.586524e-05 -0.0019100277 0.00043310053 -0.000114443195
0003f0 d8 b6 33 ba 39 b6 9a 3a 64 65 b4 b8 12 44 4e 3a
       -0.0006855554 0.0011803574 -8.601954e-05 0.00078684196
