statedicts/torchscript_pl_db_2022-04-21_SPIRAL_REVERSE_90s_P0_R1_s2_seed_2.pt (torch, 224745 bytes, 29 tensors)

weight f4 [5]
000000 cf 63 7f 3f 9e 86 83 3f 39 c2 6e 3f 3d d3 80 3f
       0.9976167 1.0275457 0.9326511 1.0064465
000010 37 db 80 3f
       1.0066899

bias f4 [5]
000000 0c 40 dc bb f6 11 d9 3c 38 56 a4 bc 65 8a 29 bd
       -0.006721502 0.026497822 -0.020060644 -0.04139175
000010 7a f9 1c bc
       -0.009580964

running_mean f4 [5]
000000 67 6a c6 3f 07 70 84 3d 4d bb 43 40 3f 01 3b 40
       1.5501221 0.0646668 3.058307 2.921951
000010 0d 20 43 3e
       0.19055195

running_var f4 [5]
000000 19 2e 38 3c 16 b0 02 35 31 27 f2 3a 54 e1 44 3a
       0.011241459 4.868501e-07 0.0018474815 0.0007510383
000010 56 ac 77 3a
       0.00094479823

weight f4 [96, 5]
000000 72 e2 c8 be 61 78 be bd b9 f3 77 3e 66 ef 78 be
       -0.39235264 -0.09300304 0.24214067 -0.24310073
000010 99 f2 11 3e 57 2f df be c3 aa 62 3d 9d e7 2d 3e
       0.142527 -0.43590805 0.055338632 0.16982885
000020 14 dc 4e be a4 62 45 3e 6b 79 00 3d 6f 61 d7 be
       -0.2020114 0.1927591 0.031365793 -0.42066523
000030 e9 af d3 3e 7b df b6 be e8 2d 6c 3e 83 ec 9c bc
       0.41345146 -0.35717377 0.23064387 -0.019155746
000040 7c 5e 1c 3e 04 ac 33 bd 78 08 3b 3d a1 56 12 be
       0.15270418 -0.04386522 0.045662373 -0.14290859
000050 9c a4 cd be 21 87 94 3e 64 3c ce 3d 9e 15 70 3e
       -0.4016465 0.29009345 0.10070112 0.23445746
000060 53 a9 a2 be 49 ae 4c be b2 e2 d6 3e fc 8e 57 3e
       -0.3176981 -0.1998836 0.4196983 0.21050638
000070 b3 01 e0 be 18 11 ce 3d 46 9d 8b be 1a ef d8 3e
       -0.43751296 0.10061854 -0.27268428 0.4236992
000080 90 aa 38 3e d6 1b 84 3e 94 80 a3 bb ea 33 c6 3d
       0.18033814 0.25802487 -0.004989693 0.096778706
000090 b7 fc ce bd 0c e8 dd 3e e1 0d 7f 3e e5 bd d1 3e
       -0.10106795 0.433411 0.24907638 0.4096519
0000a0 08 22 b7 be bf 3e cf 3e 9a 89 ea 3d 41 98 fe 3d
       -0.3576815 0.4047756 0.11452027 0.12431384
0000b0 2a ba d4 be c0 45 d1 be 77 12 c2 3e 52 db 1c 3e
       -0.41548282 -0.40873528 0.37904713 0.15318039
0000c0 3e b2 70 3e 83 7d cf 3d a1 e3 48 3e ec 29 e0 be
       0.23505494 0.10131361 0.19618084 -0.43781984
0000d0 24 0a 15 3e 22 7b 6b bd 94 85 8c bd e9 9e 70 3e
       0.1455465 -0.057490475 -0.068614155 0.2349812
0000e0 9b 4d 84 3d c7 be 0b bd 01 a8 48 be b6 84 47 be
       0.064601146 -0.034117486 -0.19595338 -0.19484219
0000f0 cb 11 dd be 5a 92 4f 3e 0c 55 a8 3e f9 54 cb bd
       -0.43177637 0.20270672 0.32877386 -0.099283166
000100 0e 6b 3a 3e e1 06 aa 3e 98 70 98 3e ce 76 5c be
       0.182049 0.33208373 0.29773402 -0.21529695
000110 41 90 86 3e 36 b4 70 3e 34 bb cf bc 4d ad b7 3c
       0.26281932 0.23506245 -0.02535782 0.022421503
000120 d0 7d b4 be 06 be 24 be 16 f2 7b 3e 8e ab 8b 3e
       -0.35252237 -0.16088113 0.24604067 0.27279323
000130 51 fc b8 bd 16 11 d5 3e ea 64 b5 be f0 c4 da 3e
       -0.090325005 0.41614598 -0.35428554 0.42728376
000140 98 df d5 be be 46 be 3e 0b e7 92 be 4b 16 c3 be
       -0.4177215 0.37163347 -0.28691897 -0.38102946
000150 c0 8f 45 be 1b b3 c3 3e 2c 80 9b bd f8 43 3f 3e
       -0.19293118 0.38222584 -0.07592806 0.18678272
000160 26 39 e6 3c ea 4e e5 be 0c 24 cf be 47 17 1e be
       0.028103422 -0.4478677 -0.4045719 -0.15438567
000170 7e ec 33 3e de 4d bd 3e 6b 11 62 3e 8e 74 7f be
       0.17570683 0.3697347 0.22076957 -0.24946806
000180 fc f9 83 bd 39 58 25 3e 67 cc d5 bd 1b 4d c5 3e
       -0.06444165 0.16146936 -0.10439377 0.3853539
000190 34 87 e3 be 1f 0c c7 3e c4 24 d3 3d d1 77 f0 bc
       -0.4443909 0.38876435 0.10309747 -0.029354008
0001a0 a7 cf 60 be d0 60 65 3d 9c b2 d9 be 74 8d 68 3e
       -0.21954213 0.05600053 -0.4251908 0.2271021
0001b0 87 57 9a 3d 30 81 75 3e 73 24 78 3e 26 00 2c 3e
       0.07536226 0.23975062 0.24232654 0.16796932
0001c0 f8 83 c4 3e 00 ac 68 3e 90 d9 76 3e 85 38 57 3c
       0.38381934 0.22721863 0.24106431 0.013136034
0001d0 13 61 ad 3e b1 57 5a 3e 6f 14 72 3e b2 b4 c5 3d
       0.33863124 0.21322514 0.23640607 0.096536055
0001e0 aa 17 fc bd cd fc c9 3e 3e ac e1 be 57 f7 c1 3e
       -0.12309201 0.39450684 -0.44076723 0.37884018
0001f0 df 55 0c 3c 6a f6 97 be 82 46 95 3e 96 7b cc bd
       0.008565395 -0.29680187 0.29155356 -0.0998451
000200 bf b7 c9 bd 3c ed 58 bd a3 0f de bd 23 42 66 be
       -0.098495 -0.05296062 -0.10842826 -0.22486167
000210 23 7f 22 3e 1b 64 a6 3d 2b 05 a4 3e 01 c4 90 3e
       0.15868811 0.08124562 0.32035193 0.2827454
000220 e3 73 c4 bd 40 e4 a6 bd 6c 71 2c 3e 24 bf eb 3d
       -0.09592416 -0.08149004 0.16840142 0.115110666
000230 58 a1 c6 3e c6 09 2d be 71 d6 81 3e 43 c0 19 bd
       0.3879497 -0.1689826 0.25358918 -0.03753687
000240 4e 5f a5 be 4b b8 22 3e 56 57 37 be ce f9 d8 3e
       -0.32299274 0.15890615 -0.1790441 0.42378086
000250 b7 09 89 be 00 d8 9a be 1b 11 c4 3e 15 3e 9d be
       -0.26765224 -0.3024292 0.382943 -0.30711427
000260 92 47 6c be 81 09 c6 be 74 1b bb 3e 21 cf ca 3d
       -0.23074177 -0.38679126 0.36544383 0.09902788
000270 7b eb ca 3e c2 d8 89 be 46 80 ba bd d3 8e d0 3d
       0.39632782 -0.26923186 -0.091064975 0.101834916
000280 d0 d9 ba 3e 3f 4e d5 be 94 6b d6 3e 84 8b f8 bd
       0.36494303 -0.4166126 0.4187895 -0.121359855
000290 f4 60 cc be 17 9b 96 3d b2 fe 6a be 6b ce 17 3c
       -0.3991772 0.073538 -0.22948721 0.0092655225
0002a0 b6 4c 10 bc 7b 63 77 3e a7 fb f0 bd b3 82 51 3e
       -0.008807352 0.24159043 -0.11766749 0.20460014
0002b0 e2 e7 cf be 8a ff db 3d be e9 1f 3e ee 5d b4 bc
       -0.406066 0.107420996 0.1561651 -0.022017445
0002c0 91 99 de be 19 65 8d bd 45 90 57 bd cf 3c 87 3e
       -0.43476537 -0.069040485 -0.05262782 0.2641358
0002d0 06 d1 a1 be 2b 6c 72 3e 6f 24 a2 be 07 18 70 3e
       -0.31604785 0.23674075 -0.31668422 0.23446666
0002e0 25 b5 6b 3b 1b 06 fe bd 97 5c 0d be da ad 93 3e
       0.0035966125 -0.12403508 -0.13804851 0.28843576
0002f0 d7 0d 4c 3e 95 18 1c 3d 7c 93 d7 3b 1b 98 30 be
       0.19927154 0.03810938 0.006578861 -0.17245524
000300 e1 87 21 3e 13 02 b6 3e d7 47 a3 be 4d f6 97 bd
       0.1577449 0.35548458 -0.31890747 -0.07420025
000310 04 86 b3 bd 76 9b 1b 3e 1c bb c0 3e 53 49 5c 3e
       -0.08765796 0.15196022 0.37642753 0.21512346
000320 fb 0a af 3e 88 fb c5 bc 96 b1 75 be f5 60 a4 3b
       0.34188065 -0.024167791 -0.23993525 0.005016441
000330 91 24 37 be 31 35 d1 bd c6 2a ae 3e f1 b2 0d 3a
       -0.17885043 -0.102152236 0.3401701 0.00054053875
000340 7f a4 d2 be 94 97 9d 3e 56 11 62 bd de 7f 07 be
       -0.41141126 0.30779707 -0.055192314 -0.13232371
000350 f0 9a 02 be f5 59 23 bd 64 af b3 bd 50 a1 bc 3e
       -0.12754416 -0.03988071 -0.087736875 0.36841822
000360 da f8 1e 3d 6d 7b ac bd fa 21 c3 be 2e 0f ca 3e
       0.038811542 -0.08421979 -0.3811186 0.39464706
000370 e3 84 13 3e 0f b8 d4 3e 05 7d b5 3d ad 4e e1 be
       0.14406161 0.41546676 0.08861736 -0.44005337
000380 62 ec 79 bd 6f 62 b6 be 6f 47 c8 3d ef 24 5c be
       -0.061016448 -0.35621974 0.0977925 -0.21498464
000390 6d f6 2b be 6e b9 a3 3e cc 92 5d bd 3a 26 11 3e
       -0.16793223 0.3197741 -0.054095075 0.14174739
0003a0 8b 82 92 3e ff 0d ce 3e d6 c7 a5 be 75 2f 83 be
       0.2861522 0.40245053 -0.32379025 -0.25622144
0003b0 b3 79 29 3e 27 76 90 be 32 90 1b be 77 fc 7a be
       0.16550331 -0.28215143 -0.15191725 -0.2451037
0003c0 1a 06 ac be c0 85 bc 3e e7 11 e0 3e 43 ba a7 be
       -0.33598405 0.36820793 0.43763658 -0.32759294
0003d0 5f 8b 4d be 05 99 ae bd fd ca 8a be 56 0b d0 be
       -0.20072697 -0.0852528 -0.27107993 -0.4063365
0003e0 10 3f a6 bd 49 34 d2 bd 05 6f 5d be d7 02 cd 3c
       -0.08117497 -0.10263879 -0.21624382 0.025025768
0003f0 5a 8f 9e bc d4 1e 90 3e b9 ce ba ba 1a c7 1b bd
       -0.019355465 0.2814852 -0.0014252282 -0.038031675

bias f4 [96]
000000 4f ab 60 be 21 21 76 be 12 90 a1 3e 48 4c dc be
       -0.21940349 -0.24036075 0.3155523 -0.43026948
000010 58 48 29 3e 1b 62 97 3e 0b a4 38 be c3 55 4a be
       0.16531503 0.29567036 -0.18031327 -0.19759278
000020 da d5 7b be 13 f7 0c 3e 84 6e 1a 3e 7f e0 75 be
       -0.24593297 0.13766126 0.15081221 -0.2401142
000030 cb 66 dd 3d d2 e6 3d be c3 f5 d4 3e d5 88 73 be
       0.10810622 -0.18545082 0.4159375 -0.23782666
000040 af b0 09 3e 6e d0 de 3e ee ef 92 3e f9 c1 a3 3e
       0.13446306 0.43518394 0.28698677 0.31983927
000050 90 d1 06 3d 1c 3f 52 3e 65 f9 b6 be 81 2e fd bd
       0.032914698 0.20531887 -0.35737148 -0.123623855
000060 b7 8f c9 be ce 58 02 bc d9 22 ab 3e 86 41 b6 be
       -0.39367458 -0.007955743 0.33425024 -0.35596865
000070 69 7d e0 3b 29 59 06 3e b8 18 d0 be f1 31 d4 bd
       0.0068508876 0.1311995 -0.4064386 -0.10361088
000080 b9 76 a5 be 6e 14 e3 be 96 2c 9b be a5 d9 9b bd
       -0.3231714 -0.44351524 -0.30307454 -0.07609872
000090 c0 5f c4 3d 60 c1 ce 3e b7 ea e6 be 78 b2 c6 be
       0.09588575 0.40381908 -0.45100948 -0.38808036
0000a0 35 7e 00 be e4 04 4b 3e a9 d6 0f 3e 83 5e b3 bd
       -0.12548144 0.19826084 0.1404673 -0.08758261
0000b0 b6 9e 8b be 15 78 71 be d1 64 da bd 83 8c 19 be
       -0.27269524 -0.23580964 -0.106637605 -0.14995007
0000c0 75 d2 dd be 25 d4 cb be bc 7f dc be 5c e2 15 be
       -0.43324628 -0.3981029 -0.43066204 -0.1463713
0000d0 3c 93 7f be 23 96 db 3e 9d af 2d 3e 8e 75 c7 3e
       -0.24958509 0.42887983 0.16961522 0.38956875
0000e0 92 80 c7 bd 5a 6c 02 3e 91 e1 a2 bd 47 d8 7d be
       -0.0974132 0.12736645 -0.0795318 -0.24789535
0000f0 e1 8a d4 be 19 a0 bd be d9 e7 76 be f3 6c 37 be
       -0.41512206 -0.37036207 -0.2411188 -0.17912655
000100 28 ad 64 be 9f 01 56 be c3 17 65 3e 48 27 e5 bd
       -0.22331679 -0.20899056 0.22372346 -0.11189133
000110 f8 d1 90 be c4 51 9b 3c 73 68 0f be 91 38 76 be
       -0.28285193 0.018959887 -0.14004688 -0.24045016
000120 97 12 d6 be d9 84 cb bd 08 8b 5a be 60 37 ac 3e
       -0.41811058 -0.09937448 -0.21342099 0.33635998
000130 48 ee 15 be 40 83 ab 3e 5e 58 7b be 74 be 75 3e
       -0.14641678 0.33498573 -0.24545428 0.23998433
000140 cd ef 94 3e 79 82 48 be 7d 19 7c be a0 20 0f bd
       0.29089203 -0.19581021 -0.24619098 -0.034943223
000150 82 23 d1 bc 9b f1 09 be fe 50 8b 3e b9 6f e7 3d
       -0.025529627 -0.13471071 0.2721023 0.11300606
000160 ce d9 9b be 99 d6 2e 3e 00 7e 89 3e 1f 0d 4d 3e
       -0.3043961 0.1707405 0.26853943 0.20024537
000170 0a f2 19 3e d0 0a 0b be f4 c5 c0 3d 8c 1e d9 3e
       0.15033737 -0.13578343 0.094127566 0.42406118

weight f4 [96]
000000 2c 43 80 3f 77 88 7f 3f 88 c2 7f 3f 23 9e 7f 3f
       1.0020499 0.99817604 0.99906206 0.9985067
000010 46 2a 80 3f 8d 82 80 3f 1a 35 80 3f ef 47 80 3f
       1.0012901 1.0039841 1.0016205 1.0021952
000020 da bc 80 3f ca 32 7f 3f da 59 7e 3f 0a 57 80 3f
       1.0057633 0.9968687 0.9935585 1.0026562
000030 b0 4e 80 3f cb dd 7e 3f 78 89 7f 3f 54 9d 7f 3f
       1.0024014 0.9955718 0.99819136 0.9984944
000040 4d d8 7f 3f f2 0a 80 3f 23 4d 80 3f 15 25 80 3f
       0.99939424 1.000334 1.002354 1.0011317
000050 cb 2e 7f 3f 5b a6 7f 3f d6 e3 7f 3f ac 16 80 3f
       0.99680775 0.99863213 0.99957025 1.0006919
000060 05 cb 7e 3f 07 fc 7e 3f 9f 2b 80 3f 9e 47 80 3f
       0.99528533 0.99603313 1.0013312 1.0021856
000070 a9 7b 80 3f 70 87 7f 3f 0f 02 80 3f ab 1d 80 3f
       1.0037738 0.99816036 1.0000628 1.0009054
000080 d7 32 7e 3f 5a 46 81 3f 99 cd 7f 3f 17 33 80 3f
       0.99296325 1.0099595 0.9992309 1.0015591
000090 b5 0f 80 3f ce ad 7f 3f a1 2b 7e 3f 10 0f 7f 3f
       1.0004793 0.9987458 0.9928532 0.9963236
0000a0 57 a0 80 3f eb a3 7f 3f bc a2 7f 3f 5a 4b 7f 3f
       1.0048932 0.99859494 0.9985769 0.9972435
0000b0 9a 51 7f 3f 01 15 7f 3f c4 02 81 3f e3 17 80 3f
       0.9973389 0.99641424 1.0078969 1.000729
0000c0 a0 db 7e 3f f9 df 80 3f 88 73 7f 3f a9 e0 7f 3f
       0.9955387 1.0068351 0.9978566 0.9995218
0000d0 d1 43 80 3f 28 44 80 3f 39 31 7f 3f 8d cc 7f 3f
       1.0020696 1.00208 0.9968448 0.99921495
0000e0 35 ed 7f 3f 9d 0e 80 3f e5 62 80 3f 81 5c 7e 3f
       0.99971324 1.000446 1.003018 0.993599
0000f0 dd 34 7f 3f ca 04 80 3f 91 90 7f 3f 77 a0 7f 3f
       0.9969004 1.0001462 0.99829966 0.99854225
000100 06 ca 80 3f c2 68 80 3f 84 1c 80 3f ba 88 80 3f
       1.0061653 1.003197 1.0008702 1.0041726
000110 e9 fb 7f 3f c1 7e 80 3f b2 44 80 3f 47 28 80 3f
       0.9999376 1.0038682 1.0020964 1.0012292
000120 f1 9f 7f 3f 72 a7 7f 3f 4e 1a 80 3f 4a 18 7f 3f
       0.99853426 0.99864876 1.0008028 0.9964644
000130 e7 1c 80 3f 6d b9 7e 3f 49 62 80 3f 13 15 80 3f
       1.000882 0.9950169 1.0029994 1.0006431
000140 3f 04 80 3f b7 74 7e 3f 97 48 80 3f f1 43 7f 3f
       1.0001296 0.9939684 1.0022153 0.99713045
000150 26 ce 80 3f 8e b1 7f 3f 0c 55 80 3f b8 29 7f 3f
       1.0062912 0.998803 1.0025954 0.9967303
000160 ae 88 7f 3f 4e cd 7f 3f 69 2a 80 3f 84 19 80 3f
       0.9981793 0.99922645 1.0012943 1.0007787
000170 8f 73 80 3f ee 96 80 3f 39 7b 7f 3f fa 0c 80 3f
       1.0035266 1.004606 0.997974 1.000396

bias f4 [96]
000000 7c 93 81 ba 01 77 18 bb 16 92 6e bb 13 93 30 ba
       -0.0009885873 -0.0023264291 -0.0036402992 -0.0006735783
000010 ee 3e 5f ba a0 11 40 b8 d4 29 4c bb 6e 2e d7 ba
       -0.0008516152 -4.579278e-05 -0.0031152861 -0.0016417035
000020 4e 6b 69 b9 c2 4a ae ba d1 c2 53 ba 12 06 dd b9
       -0.00022260586 -0.0013297426 -0.0008078041 -0.00042156928
000030 5d 72 58 3b bc 4c 10 ba 6b 7b a6 ba a3 fd a1 ba
       0.003302715 -0.00055045984 -0.0012701576 -0.0012358915
000040 b9 7b 28 ba 4d a2 77 ba b6 7f 24 b9 ee e5 3b 3a
       -0.00064271275 -0.0009446487 -0.00015687835 0.0007167746
000050 3b 5a ad 38 b8 4b 87 bb 85 db 6f 3a 7e 71 84 ba
       8.2660896e-05 -0.0041288994 0.00091498374 -0.0010104624
000060 6c 86 00 3b 18 8d 48 ba 70 87 7d ba a0 3e 4a 3a
       0.0019611372 -0.0007650419 -0.0009671366 0.00077150203
000070 ef 63 e2 3a cf 4a 13 bb 64 72 09 bb 68 83 16 ba
       0.0017272214 -0.002247501 -0.0020972723 -0.0005741627
000080 60 43 05 3b e3 6d aa bb f3 d0 18 3b 27 d7 02 bb
       0.0020334348 -0.005201088 0.0023317903 -0.0019964667
000090 3b 4b b9 3a 84 0c 00 3a 66 bf e4 ba 88 10 8c 3a
       0.00141368 0.00048846775 -0.0017452061 0.0010686079
0000a0 fb 95 dc 3a 2f f1 5b ba 75 98 ee 3a 22 8a 86 b9
       0.0016829366 -0.0008390126 0.0018203395 -0.0002566139
0000b0 3e 10 d9 3a b9 22 62 ba 22 39 b5 ba 3a 00 0a bb
       0.0016560627 -0.000862639 -0.0013826231 -0.0021057264
0000c0 13 7f 84 3a 1f 0a 3a 3a a3 fc 30 3b c6 13 a0 b9
       0.0010108672 0.0007096845 0.0027006052 -0.0003053231
0000d0 0a e7 25 3b eb 24 94 38 22 09 f4 39 9a 90 39 3b
       0.0025314712 7.0640664e-05 0.0004654611 0.002831495
0000e0 14 a0 6a 3b 0d 75 32 3b b0 66 2c ba d4 df f1 38
       0.003580098 0.0027230412 -0.0006576581 0.00011533467
0000f0 ac 67 07 3b 63 72 1c ba c6 ff 8a 3b 17 db 12 bb
       0.0020661158 -0.00059679727 0.0042419164 -0.002240842
000100 fb e3 f8 3a ff ad 4d ba a6 7d d6 ba a4 f6 49 bb
       0.0018988842 -0.0007846057 -0.001636435 -0.0030817175
000110 f5 69 82 bb ae c8 43 bb 3e f7 70 ba 1d 3c cd ba
       -0.003979916 -0.0029874253 -0.00091921154 -0.0015658174
000120 96 7d 64 ba e6 1d 04 3b c3 74 9c 3a 93 04 56 ba
       -0.00087162235 0.0020159422 0.0011936653 -0.0008164134
000130 c6 36 05 bb 98 51 28 ba 25 5a 9c 3a 29 a9 c2 3a
       -0.0020326837 -0.000642085 0.0011928721 0.0014851439
000140 08 00 5a b9 89 95 1b 3b c6 51 93 b9 fd 88 4f bb
       -0.00020790112 0.0023740253 -0.0002809895 -0.0031667345
000150 6e ad 08 bb a3 66 ec 39 9b f2 2c 3b 64 bb 4d 3a
       -0.0020855325 0.00045089898 0.0026389721 0.0007848053
000160 d9 e3 51 bb e0 29 f4 ba 8a 1f e7 ba 30 5a 4a ba
       -0.0032026677 -0.0018628202 -0.0017633301 -0.00077191275
000170 20 a0 14 39 21 97 5c 3a ef 3e 37 3b db bc 83 3b
       0.00014174031 0.0008414854 0.0027961095 0.004020316

running_mean f4 [96]
000000 50 66 b6 3d fb e2 89 3d 4e 37 b3 3e 00 00 00 00
       0.08906233 0.06732746 0.35003132 0.0
000010 7b e3 9c 3e e4 e7 d8 3e 45 e5 95 3c 64 30 96 3e
       0.30642304 0.42364419 0.0182978 0.29333794
000020 d9 79 2f 3e 21 96 3f 3e 74 94 2f 3e 54 53 a6 3c
       0.17136325 0.18709613 0.17146474 0.020303406
000030 b6 47 80 3e 47 7a 7e 3e cb f2 df 3e 8c c3 e7 3d
       0.2505471 0.24851333 0.43739924 0.113165945
000040 9f 6e 0e 3f 60 0f db 3e 20 29 af 3e 63 13 a6 3e
       0.55637544 0.42785168 0.34211063 0.32436666
000050 19 aa a0 3e 06 32 ad 3e 0b 28 2d 3e bf bc d6 3d
       0.31379774 0.33827227 0.16909806 0.10485219
000060 83 70 21 3d d8 b8 5f 3e 9e 7e c6 3e d3 81 bd 3d
       0.03941394 0.21847856 0.38768476 0.09253278
000070 b0 18 b6 3d 9e 92 86 3e 5b c5 8b 3d 96 ba c5 3d
       0.088914275 0.26283735 0.06824752 0.09654729
000080 a6 69 22 3d c0 9d 86 3b 9a 20 2b 3d 0b 31 77 3d
       0.039651535 0.0041081607 0.04177914 0.060349505
000090 24 e1 39 3e 0a 49 d8 3e 4c 93 32 3a 18 38 98 3d
       0.1815229 0.42243224 0.000681211 0.07432574
0000a0 f0 51 a1 3d 96 0f 7c 3e 2f c4 2d 3e 7a 59 0b 3e
       0.078769565 0.2461532 0.1696937 0.13608351
0000b0 1b 2f 81 3d 72 f6 66 3d 1d 08 99 3d 91 ae 8e 3e
       0.06307813 0.056387372 0.074722506 0.2786756
0000c0 58 ec 09 3e 68 44 91 3d ff 72 16 32 05 e1 2e 3e
       0.13469064 0.070931256 8.757296e-09 0.17078026
0000d0 cc 15 44 3c ae f8 03 3f f3 e5 81 3e d1 76 e5 3e
       0.011968087 0.5155133 0.2537075 0.44817212
0000e0 17 7e c0 3d 6a 79 ea 3e c6 73 26 3d b8 33 bb 3d
       0.0939905 0.45795757 0.040637754 0.09140724
0000f0 5d 43 99 3d 29 f9 40 3d a4 bd 13 3e 5f c3 fe 3d
       0.07483552 0.047112618 0.14427811 0.12439608
000100 26 ae 15 3d 7d 50 84 3d 92 f1 a2 3e 91 6c 7f 3d
       0.036543034 0.064606644 0.3182493 0.062359396
000110 1a f8 a2 3d 74 e6 d8 3e cc c5 28 3e f1 43 a3 3d
       0.07957478 0.42363322 0.16481704 0.07971943
000120 c5 2f d0 39 b5 b9 51 3d 11 84 35 3e f2 0d d0 3e
       0.00039708443 0.051202495 0.1772616 0.4063564
000130 07 c6 fb 3d 2f 8d b0 3e 90 05 c6 3c 57 37 76 3e
       0.1229363 0.34482715 0.024172574 0.24044548
000140 0f 7d d2 3e 69 72 1d 3b fc e0 75 3c 90 1e b0 3e
       0.41111037 0.0024024493 0.015007254 0.34398317
000150 3c cf cc 3d d7 63 d9 3d a3 bb 86 3e d7 92 82 3e
       0.10000464 0.10614746 0.2631503 0.25502655
000160 97 74 27 3e fa a8 75 3e 01 6c 95 3e 6e 31 9b 3e
       0.16353069 0.2399024 0.29183963 0.3031115
000170 c6 90 46 3e 09 73 e1 3c 9a b3 92 3e 6c 3b 1a 3f
       0.19391164 0.027520673 0.2865265 0.6024692

running_var f4 [96]
000000 00 01 80 3c 06 8f 63 3c ea 8a 02 3e 00 00 00 00
       0.015625477 0.01388908 0.12748304 0.0
000010 1e 9d df 3d ee 10 09 3e 10 7f dd 3a 1d 52 10 3e
       0.109186396 0.13385364 0.001689883 0.14093824
000020 1d 2a 9c 3d c6 b3 d4 3c a2 82 01 3d 14 39 55 3b
       0.0762522 0.025964629 0.03161872 0.0032535242
000030 ef 95 46 3d d4 fc 3c 3e 94 9f d6 3d ac 10 0f 3d
       0.04848283 0.18455821 0.10479656 0.03492801
000040 62 f9 19 3f b8 13 a4 3c af 46 ca 3d c7 93 47 3d
       0.6014615 0.020028934 0.09876763 0.048724916
000050 b3 6b 2a 3e f1 dc eb 3d 80 85 82 3d 41 c9 ca 3c
       0.16642646 0.115167506 0.06373119 0.024754168
000060 2c bd 50 3c 34 11 ce 3d 92 db d0 3d d2 d6 19 3d
       0.012740415 0.10061875 0.1019813 0.037558384
000070 96 1a 85 3c 68 7c 61 3d 26 0a 03 3d b5 05 dd 3c
       0.016248029 0.055050284 0.0319921 0.02698026
000080 05 70 4b 3c 89 65 b9 39 64 84 35 3c d3 ed 24 3c
       0.012416844 0.000353616 0.011078928 0.010066467
000090 dd e8 36 3d ac 10 e7 3d 9f bb fb 38 2b 4a ba 3c
       0.04465567 0.11282477 0.0001200356 0.022740444
0000a0 03 e3 c7 3c 0b b2 3f 3d db fa 20 3d 67 b2 7e 3d
       0.02440024 0.046800654 0.039301734 0.062181856
0000b0 a3 ee 81 3c 56 18 6d 3c c0 9f 55 3c 4c e7 51 3e
       0.015860861 0.014471134 0.013038576 0.20498389
0000c0 bc f0 3f 3d d5 b1 ea 3c b1 5f 28 2a eb e8 8b 3d
       0.04686044 0.02864925 1.4954597e-13 0.06831535
0000d0 c7 13 ee 3a f2 59 35 3e ff 09 12 3e 46 49 de 3d
       0.0018163853 0.17710093 0.14261626 0.108538195
0000e0 f4 d1 22 3c a2 8b 62 3e 1d 0e f8 3b dd 3b c4 3c
       0.009937752 0.22123578 0.007570042 0.023954326
0000f0 0d 6e dc 3c c9 26 8b 3c e3 c9 63 3d 9d 04 2b 3d
       0.026907945 0.016986268 0.055612456 0.041752446
000100 64 5c b5 3b 86 bc a2 3c cf f7 46 3e 93 a8 2c 3c
       0.0055346955 0.019865286 0.19430469 0.010538238
000110 ee 2e b5 3c cc 59 67 3e 2d c2 95 3d 8e 34 9a 3c
       0.022117104 0.22592849 0.07312427 0.018823888
000120 84 5a ec 38 58 cc 2b 3c 94 b8 5d 3d 03 96 e4 3d
       0.00011270217 0.010485731 0.054131106 0.11161425
000130 d5 a9 3c 3d 3c bb a0 3d 07 13 73 3b 0c be 0e 3d
       0.046060402 0.07848212 0.0037090199 0.03484921
000140 ee f6 cc 3d 9e 41 11 39 ce 8d db 3a 66 88 9d 3e
       0.100080356 0.00013852722 0.0016750635 0.30768126
000150 ca 4b 87 3c 97 c6 3c 3d 15 5e fb 3c 33 79 bc 3d
       0.016515631 0.046087828 0.03068451 0.092028044
000160 13 2a 4e 3d c7 f1 22 3d f9 72 0e 3d ec 61 bd 3d
       0.050333094 0.039781358 0.034777615 0.09247193
000170 d1 dc 58 3d d1 84 52 3b b6 9d 59 3e 48 d4 02 3f
       0.052944962 0.0032122622 0.21251568 0.51105165

weight f4 [256, 96]
000000 ad 47 8c bd 9e ef 4c bd ac 77 3f bd 29 b2 a8 bd
       -0.068496086 -0.050033204 -0.046744987 -0.08237106
000010 b1 da c1 bd 62 4d 87 3d 4c 00 90 3d 04 6c fd 3c
       -0.0946554 0.066065565 0.070313066 0.030935295
000020 f4 e0 35 bd f9 cf a8 bd 06 73 50 bd 70 d1 ae bd
       -0.044403985 -0.08242793 -0.050890945 -0.08536041
000030 5e f1 3c 3d e4 c5 83 bd a8 d7 85 ba ce f4 61 bd
       0.046128623 -0.06434229 -0.0010211365 -0.055165105
000040 61 af 16 3d 42 ac b1 bd 55 22 89 bd f6 e6 3e 3d
       0.036788348 -0.08675434 -0.066960014 0.04660698
000050 ac 42 9b bd 07 4d fb bc 6d 74 c4 3c 44 7a 8a 3d
       -0.07581076 -0.030676378 0.023981297 0.067616016
000060 70 8e cf 3b 56 11 62 3d 40 fb 49 3d e9 c2 ae 3d
       0.0063341185 0.055192314 0.049311876 0.0853327
000070 fe cd 66 3c 60 9d c8 bd 2f 24 e6 3c 08 e5 a0 bd
       0.014087198 -0.09795642 0.028093426 -0.07856184
000080 88 e3 33 3d de 75 90 bd aa 86 c0 bd 29 64 b1 3d
       0.043918163 -0.070537314 -0.09400685 0.08661682
000090 a6 6e b2 3d f2 ff 4f bd 12 56 9c 3d 67 f7 a9 3b
       0.08712511 -0.050781198 0.07633604 0.0051869634
0000a0 57 be b6 bd 7f 48 ef 3b 97 8b 79 3d 4e 93 ca bd
       -0.08923023 0.0073023434 0.06092414 -0.098913774
0000b0 73 cc 6e bd 62 cb bf bd ad 24 11 bd b0 d9 4e bc
       -0.058300447 -0.09364964 -0.035435367 -0.012625143
0000c0 b1 bd c4 bd 92 cf 8d bc f2 c0 c2 3c 4c fb a1 bb
       -0.09606493 -0.017310891 0.023773644 -0.004943287
0000d0 f7 d1 a0 3d d8 82 ae 3c 3d 16 bc bd 1b 6c 41 3d
       0.078525476 0.021302626 -0.09183929 0.047222238
0000e0 91 ab 3b bd 4c eb c9 bc 07 bb 5a 3c fb 9e 16 3d
       -0.045817915 -0.024648331 0.013350255 0.03677271
0000f0 27 41 ad bd 32 38 2c bd c3 4d 94 bd 12 26 1d 3d
       -0.084596924 -0.04204578 -0.07241394 0.038366385
000100 fb 41 bd bd 80 e0 69 bd bf 12 da 3c da 88 ae 3d
       -0.092411004 -0.057098866 0.026620267 0.08522196
000110 d6 45 c7 bb 1a c3 d1 bd 85 64 ed bc 1a 87 b3 bd
       -0.006081323 -0.10242291 -0.028978596 -0.08766003
000120 a3 c1 67 3c 3b 0a c5 bd 17 95 6f 3d 11 74 98 3c
       0.014145288 -0.09621092 0.058491793 0.018610032
000130 b8 49 27 bc db 09 89 bd b7 8f b2 3d 49 2e c7 3c
       -0.010210447 -0.06691333 0.08718818 0.024314063
000140 a6 9e 33 3d 84 4a ef bb 07 7c 5c bd bd b1 12 bc
       0.04385247 -0.007302584 -0.05382922 -0.008953509
000150 43 50 9d 3d 13 30 37 3d 2d 91 9a 3d 35 32 0a bd
       0.07681324 0.04472358 0.07547221 -0.033739287
000160 0e cd b6 bd 67 f1 4d bd de aa 36 bd fc 93 c0 3d
       -0.0892583 -0.050279047 -0.044596545 0.09403226
000170 b8 6b a7 3d 6b 87 2a 3b 75 94 06 bd 5f a3 34 bd
       0.081748426 0.0026020657 -0.032856423 -0.044101115
000180 72 8f 58 3c aa b8 a2 bd 5b f7 bc bb db f1 b0 bd
       0.013217794 -0.07945378 -0.0057667918 -0.0863988
000190 ef d9 e8 3c bd 13 97 bd af b5 31 bc 35 61 f9 bc
       0.028424231 -0.07376812 -0.010846539 -0.03044186
0001a0 69 4e ab bd 0e 9b 69 3d d3 50 8e bd 2a d9 41 bd
       -0.08364565 0.057032637 -0.0694901 -0.047326244
0001b0 98 35 83 bd 34 d7 6b 3c 39 b8 8f bd e5 5e 72 3d
       -0.064067066 0.01439457 -0.070175596 0.05917253
0001c0 df 59 4a 3d 54 7c a6 bd fd 91 97 3d d8 64 73 3c
       0.049402114 -0.081291825 0.07400892 0.014855586
0001d0 b6 2d b0 bd f3 7f bf bb a5 a8 0f bd d0 ee 40 bd
       -0.08602469 -0.00584411 -0.03507294 -0.04710275
0001e0 e4 dc a7 3d 76 c2 c9 3b 63 05 a8 bc be 80 97 3d
       0.081964284 0.0061572148 -0.020510381 0.073976025
0001f0 73 87 35 3d 53 d0 c6 bd 39 1c 65 bd 83 59 09 3c
       0.044318628 -0.097077034 -0.05593512 0.008383158
000200 69 e2 8e bd 41 a2 ad bd 58 ae 79 3d 3a f5 ca bd
       -0.06976778 -0.08478213 0.060957283 -0.099100545
000210 9a 02 d2 bc c6 7e 7c 3d 0a f4 76 3d 6d 71 96 bd
       -0.025636006 0.061644338 0.060291328 -0.07345853
000220 27 88 2d 3c 64 81 ac bd b0 07 84 3d 7f cf a7 3c
       0.010591543 -0.08423117 0.06446779 0.020484684
000230 29 02 54 bd 64 f1 89 3b cf ba b6 3d 7c 1a 5a bb
       -0.051759873 0.004209684 0.0892235 -0.0033279946
000240 6c 25 1a bd 42 f4 06 bd 55 4d 7b 3d 4c 36 10 3d
       -0.037633345 -0.032947786 0.061353046 0.03520803
000250 3d a4 6b bc 78 fc 52 3d 43 92 56 3d d6 17 9d bd
       -0.014382419 0.051510304 0.05238558 -0.07670562
000260 8e ff a3 3c 8f 02 9b 3d a4 11 d0 bd a8 4e b2 bd
       0.020019319 0.075688474 -0.10159615 -0.08706409
000270 88 74 ac 3d b0 19 04 3d 69 db e7 3c a1 38 27 bd
       0.08420664 0.03225106 0.028302865 -0.04082549
000280 08 c1 c0 bd 01 ab cf 3d 38 f7 59 bd 1d 41 bf bd
       -0.09411818 0.10140038 -0.05321428 -0.09338591
000290 72 b4 6b bb 8e 88 5f bd f2 f5 16 3d 8a e4 c9 bc
       -0.0035965708 -0.054573588 0.036855645 -0.024645109
0002a0 53 75 36 bd 80 4b 86 bd d5 f4 c7 bd bb 6e af 3c
       -0.044545483 -0.06557369 -0.09763495 0.021415105
0002b0 02 bd ae bd 8d bd bd bd 12 81 73 bd d3 69 6e bd
       -0.08532144 -0.092646696 -0.059449263 -0.05820639
0002c0 f7 15 8e bd 4a 1c b3 3d 04 1f 62 bc 4e c7 0f 3c
       -0.06937783 0.0874563 -0.01380134 0.008775545
0002d0 d8 fc 71 3d 53 8e f5 bc 5a f0 d0 bd 01 da f2 bb
       0.05907902 -0.029975092 -0.102020934 -0.007411242
0002e0 c2 ca c9 3d 26 2c 37 ba 92 96 44 3d 7b 2c ba 3c
       0.09853126 -0.00069874746 0.047995158 0.022726288
0002f0 1d b9 6f bd 53 77 19 bd 29 5a cc bd c6 be 38 bd
       -0.058526147 -0.037467312 -0.09978134 -0.04510381
000300 97 5e 9b 3b 71 74 9b 3d 56 56 3d 3d 36 4a 98 3c
       0.0047415006 0.07590569 0.046224914 0.018590074
000310 8e 43 d2 3d d4 06 b7 3d 4a ce 57 3d 41 55 33 3d
       0.10266791 0.08936849 0.052686967 0.043782476
000320 d0 b9 6a 3d 99 a0 b8 bd 66 e8 93 3c 21 28 91 3b
       0.05730611 -0.090150066 0.018055152 0.0044298326
000330 6c 66 a3 3c 78 6a 04 3c d9 f1 bc 3d 87 15 3e 3b
       0.0199463 0.008082025 0.09225816 0.002900453
000340 ac a7 7e 3d 6d b8 92 bc 9d fb 99 3d cf ff 86 bc
       0.062171623 -0.017910207 0.075186945 -0.0164794
000350 84 42 7e 3d 67 4d fc 3c e4 41 a5 3d 8b 03 98 bc
       0.062075153 0.030798627 0.08069208 -0.018556377
000360 7a 4a ae 3d 11 6c 12 bd 8a d5 81 3d 34 e9 fb 3b
       0.08510299 -0.03574759 0.063395575 0.007687712
000370 8f f1 f0 bc 82 8e f3 3c 99 56 39 bd f4 59 1e bd
       -0.02941206 0.029731039 -0.0452486 -0.038660005
000380 a6 9f 81 bd 92 7d 6f 3d f6 e3 06 3d 34 90 d2 3d
       -0.06329279 0.058469363 0.032932244 0.10281411
000390 eb 59 91 bd 66 85 fe 3c 3c 8d d2 3b 21 7b 1b 3d
       -0.070972286 0.031069469 0.006425528 0.03795922
0003a0 df 0a de bc 79 9f ba bd b8 7b 49 3d 20 48 da 3c
       -0.027104793 -0.09112448 0.049190253 0.02664572
0003b0 83 5c 9f 3d b2 cc 83 ba e0 b4 fe ba ac d3 a9 3d
       0.07781317 -0.0010055511 -0.0019432567 0.08292326
0003c0 d1 cb 38 bd c0 a9 9c 3d e6 c8 9f bd 7c 78 c7 3d
       -0.04511625 0.07649565 -0.0780199 0.097397774
0003d0 59 a7 c4 3d c4 bf 9f 3d 8d 49 06 3c a3 eb a1 bd
       0.096022315 0.07800248 0.008196247 -0.07906272
0003e0 2a aa 2a bd 12 8c 70 3c 68 66 77 3d 3b 37 8e 3d
       -0.041666187 0.014681833 0.060400397 0.06944128
0003f0 ed f0 e7 bc 6b b9 04 bd dd bf bf bd 93 41 8c bd
       -0.028313125 -0.03240339 -0.09362767 -0.06848445

bias f4 [256]
000000 4d 35 a1 3d 1b 27 4e 3d 05 8f 32 3d 27 8a d5 3c
       0.078714944 0.050330263 0.043593425 0.026066853
000010 40 7f 11 3d d3 37 4a 3c 96 ad 1a 3c a8 6e 4f 3d
       0.035521746 0.012342411 0.0094408 0.05064264
000020 89 8d 14 bd be 22 8f 3d 06 29 8b 3c 53 39 43 bd
       -0.03626779 0.069890484 0.016987335 -0.04766209
000030 26 fd b5 bd ad d7 67 3c c9 73 40 3d 83 06 d4 bd
       -0.08886175 0.014150542 0.04698542 -0.103528045
000040 84 f9 73 3d 75 fd bc bd 34 36 46 3d 83 e7 0b bd
       0.05956413 -0.092280306 0.048391536 -0.034156334
000050 ef cf b4 bd 7c 9f b0 bd 8e 1f de bc a7 12 42 bb
       -0.08828723 -0.08624169 -0.027114656 -0.0029613168
000060 23 6b 68 3b aa dd 9e bd 9b d5 66 bd 26 19 3b bd
       0.003546425 -0.07757123 -0.056356054 -0.04567828
000070 47 0a 5d 3d d7 05 c2 3d 0d 50 6a 3d 8f de 3c bd
       0.05396488 0.0947377 0.05720525 -0.046110686
000080 bd e9 02 3d d0 d3 bd bd 6c ba 81 bc 4d b5 81 3d
       0.03196119 -0.09268916 -0.015835963 0.063334085
000090 d9 b0 19 3d f1 39 89 bd 2d 87 31 bd 8c e0 83 3d
       0.03752217 -0.067005046 -0.043341804 0.06439313
0000a0 a9 2b 2e bd d6 be 77 3c 79 28 20 bc bd 16 83 3b
       -0.042522106 0.015121182 -0.009775274 0.0040005133
0000b0 bc 20 bb 3d 24 52 95 3d 40 27 c3 bd 0e b2 4d 3d
       0.09137103 0.07291058 -0.09528971 0.050218634
0000c0 59 f4 bf bc 45 de c1 bb 1e 00 e9 bc 1b 51 87 3d
       -0.023431944 -0.005916389 -0.028442439 0.066072665
0000d0 97 71 4c 3d 75 87 71 3d b7 1a 30 3d 04 f9 4e bd
       0.049913015 0.058967073 0.042994227 -0.05053045
0000e0 db f5 bf 3d fc 99 90 bd f4 c1 92 3d b2 97 ca bc
       0.09373065 -0.0706062 0.071659 -0.024730537
0000f0 1e 0d 96 bd 8e 34 2c bd 0c 06 90 3d 4c d7 6a 3d
       -0.07326721 -0.042042308 0.07032403 0.05733423
000100 15 b4 83 bc 13 d9 ec 3c cb 4c ad 3c ae d4 6a 3d
       -0.01607708 0.028912103 0.021154782 0.057331733
000110 94 c9 0b bc 0c 18 a1 3d 16 49 99 bd 4a b1 a2 bc
       -0.008531947 0.07865915 -0.07484643 -0.019859929
000120 49 2b 7c 3d 11 b5 13 3d 48 74 92 3d a4 17 f0 bc
       0.061564717 0.03606135 0.07151085 -0.029308148
000130 e2 ac 19 bd ee 1c b9 bd d0 5d b2 3d e4 c9 90 3d
       -0.03751839 -0.09038721 0.087092996 0.070697576
000140 e2 d9 0e 3d 72 65 da bc 00 02 28 bb c4 3e cf 3c
       0.034875758 -0.026659701 -0.0025635958 0.025298484
000150 2b d5 44 3d e8 59 1b 3d 09 50 5f 3c 26 df 9d bd
       0.048054855 0.03792754 0.013629922 -0.07708578
000160 39 14 3e 3b 85 0a ca 3b 5e 2f df bc b9 40 91 3d
       0.0029003753 0.006165805 -0.027244266 0.07092423
000170 1c de b9 3d db c9 26 3d 11 78 0b 3d c0 aa 64 3d
       0.09075567 0.040719848 0.03405005 0.055826902
000180 15 75 22 bc 8b 18 03 3d 6c a3 8b bd 95 30 b3 bd
       -0.00991561 0.032005828 -0.068182796 -0.08749501
000190 ca 11 30 bd 67 42 98 bd b6 8c 92 3d ab 6e 5d bd
       -0.042985715 -0.0743454 0.07155745 -0.05406062
0001a0 f9 51 03 bd ea 8e 72 bc 9b 8b bb bd 14 d7 81 bd
       -0.032060597 -0.014804581 -0.09157487 -0.06339851
0001b0 1d 89 dc 3c 8e 0f 33 3d 91 84 fa 3c 9b 51 9c bd
       0.02692085 0.043716006 0.03058079 -0.076327525
0001c0 e7 a6 d7 3c a9 ce bb bd f1 90 80 bd 65 7c 9d bd
       0.026324702 -0.09170277 -0.062776454 -0.07689742
0001d0 1e 3b ab bc 50 34 c9 bd 78 b6 76 3c ff e3 17 bd
       -0.020902213 -0.09824431 0.015058152 -0.03708267
0001e0 2a bb 37 3d 6e 0c 16 3d 9e 48 aa 3d b9 45 73 3d
       0.044856228 0.036632948 0.08314632 0.059392665
0001f0 a8 93 c4 3d f7 14 65 bd 0c 00 59 bd e7 53 b0 3d
       0.09598476 -0.055928197 -0.05297856 0.08609753
000200 87 ee 54 3d 71 2c b4 3d db af 8f 3c 4d df 36 bd
       0.05198529 0.08797539 0.01753991 -0.04464655
000210 71 6c be bd 08 12 c3 bd e0 85 b9 3d 18 28 97 3d
       -0.09298027 -0.095249236 0.09058738 0.07380694
000220 64 4a ca 3d 69 08 88 bd 2b 39 99 3d 68 90 88 bd
       0.0987747 -0.06642229 0.07481607 -0.06668168
000230 d4 93 48 3d d5 e8 99 bc e8 bb 1a ba 3d ce cf bd
       0.048969105 -0.01878778 -0.0005902634 -0.10146759
000240 67 9a b3 bd 7f e2 a7 bd f5 86 bf bc 3b ba 81 3d
       -0.08769684 -0.081974976 -0.023379782 0.06334349
000250 df dd 8f 3d 20 ff 88 bd 05 db 48 bc 49 7f d0 3a
       0.070247404 -0.06689286 -0.01225925 0.0015907075
000260 5b 25 13 bc 03 cc 87 3c c0 63 a7 bd f4 8f c0 3d
       -0.008981074 0.016576773 -0.08173323 0.09402457
000270 c2 10 b8 3c 62 23 02 3d f3 e2 17 bd a3 a9 90 3d
       0.022468928 0.031772025 -0.03708167 0.07063606
000280 cb 79 31 3b 8c d5 93 3d b6 30 ed bc 16 de 2b 3d
       0.002708065 0.07218465 -0.028953891 0.041959845
000290 09 0f e6 3b fc 08 bb bc 38 4d 18 bd 93 e3 4b bc
       0.0070208353 -0.022831433 -0.037183017 -0.012444395
0002a0 92 05 a6 3d a0 dd 10 bd df 9a af bd c7 1f b4 bd
       0.08106531 -0.035367608 -0.08574461 -0.087951235
0002b0 a7 68 a5 bd 52 eb a0 bc 4d db 2e 3d 74 63 92 bb
       -0.080766015 -0.01964346 0.04268961 -0.004467422
0002c0 7c 1b 9f bd 16 37 ba 3c b7 24 6e 3d 17 ce 19 3d
       -0.07768914 0.022731345 0.058140483 0.03755006
0002d0 7e 3d a5 3d 1e e6 d6 ba 46 74 28 bd c6 77 b2 3d
       0.08068369 -0.0016395485 -0.041126512 0.08714251
0002e0 7b 7d 14 bd a2 a4 3b bd ab 71 2c 3d a9 43 bc 3d
       -0.03625248 -0.045811303 0.04210059 0.09192593
0002f0 1b ea b1 bb 7c 3b 30 3d 29 8d 67 bd 4a 8e 3e bd
       -0.005429519 0.04302548 -0.056531105 -0.046522416
000300 f6 ae 83 39 b0 c9 24 bd b3 3c 14 bd 93 79 9e bc
       0.00025116623 -0.040231407 -0.0361907 -0.01934508
000310 a5 22 89 3c 15 64 9f 3d 07 43 b3 bd ef 3e 97 bd
       0.016740153 0.07782761 -0.08753019 -0.073850505
000320 87 d6 8d bd 21 47 35 bb 8f 81 81 3c fc 28 aa bd
       -0.069256835 -0.0027660804 0.015808849 -0.083085984
000330 1a 03 ca bd 7e 97 53 3d 9e d6 03 bc f1 b6 d2 ba
       -0.09863873 0.051658146 -0.008046774 -0.0016076249
000340 be 8e b6 bc 4d e6 14 3d a9 42 ca bd 5a 77 9d 3d
       -0.022284862 0.036352444 -0.09875996 0.0768878
000350 fe 31 42 bd 2d ab 33 bd 5c a1 43 bd 2b 7f c5 bd
       -0.047410958 -0.043864418 -0.047761306 -0.09643396
000360 47 49 25 3d 0c 49 9b bd 6c 76 47 bd 0a 91 83 3d
       0.040353086 -0.07582292 -0.04869692 0.064241484
000370 73 a2 ad bd 8c 53 4d 3d e5 45 f4 3c 66 fe 48 3d
       -0.0847825 0.050128505 0.029818485 0.04907074
000380 1e 94 ae bd f4 fb ad bd 70 d2 5a bd f8 89 1e 3d
       -0.08524345 -0.08495322 -0.053423345 0.038705796
000390 23 db b9 bd d0 50 2a 3d c6 74 eb 3c e1 c1 38 3d
       -0.09075 0.041580975 0.028742205 0.045106772
0003a0 a1 d3 dd 3c 9f 7f 6d 3c 97 1a 68 bd f2 32 c3 bd
       0.027078452 0.014495759 -0.056665983 -0.095312014
0003b0 f2 e6 b8 3d c3 96 80 bd 55 f6 61 3d da ad 85 3c
       0.09028424 -0.062787555 0.05516656 0.01631825
0003c0 39 58 30 3c a3 ea 8c 3d fb 90 b2 bd 34 aa 17 bd
       0.010763221 0.06880691 -0.08719059 -0.037027553
0003d0 42 30 3d 3d c7 16 36 3b e3 c8 94 3d ab d2 7f bd
       0.0461886 0.0027784572 0.072648786 -0.062456768
0003e0 34 e6 ca bc 1f 4d 74 bd ff ec 64 3a 16 89 0c bc
       -0.024767973 -0.05964386 0.0008732825 -0.008577606
0003f0 00 44 b6 bd fa 0e c6 bc 7e 33 95 bd 9e 73 00 bd
       -0.08899689 -0.024177063 -0.07285212 -0.03136026

weight f4 [256]
000000 7d ad 7f 3f 48 f6 7f 3f 86 29 80 3f 1a 07 80 3f
       0.998741 0.9998517 1.0012672 1.0002167
000010 21 87 7f 3f ba 1e 80 3f 14 b0 7f 3f 1b 1b 7f 3f
       0.99815565 1.0009377 0.9987805 0.99650735
000020 7c a6 7f 3f 8a 4d 80 3f 20 33 80 3f 42 08 80 3f
       0.9986341 1.0023663 1.0015602 1.000252
000030 f6 37 80 3f d7 1d 80 3f c6 4d 80 3f 51 bb 80 3f
       1.0017078 1.0009106 1.0023735 1.0057164
000040 bf 24 80 3f e5 0d 80 3f 63 85 7f 3f 73 5c 80 3f
       1.0011214 1.000424 0.99812907 1.0028213
000050 75 07 80 3f 57 27 80 3f d5 0b 80 3f 30 4a 80 3f
       1.0002276 1.0012006 1.0003611 1.002264
000060 c7 63 80 3f 96 74 80 3f 86 df 7f 3f ec f9 7f 3f
       1.003045 1.0035579 0.99950445 0.99990726
000070 b3 2b 80 3f 17 b7 7f 3f d8 d4 7f 3f 67 ed 7f 3f
       1.0013336 0.9988875 0.9993415 0.9997162
000080 99 35 7f 3f 3a 18 80 3f 5d 91 7f 3f 76 21 80 3f
       0.9969116 1.0007393 0.9983118 1.0010211
000090 75 1c 80 3f 76 a6 7f 3f ad bd 7f 3f 5d be 7f 3f
       1.0008684 0.99863374 0.998988 0.99899846
0000a0 16 df 7f 3f bb 1b 7f 3f 38 29 7f 3f 7e ef 7f 3f
       0.9994978 0.9965169 0.9967227 0.9997481
0000b0 2a 11 80 3f 48 ff 7f 3f c6 f5 7f 3f 9a c1 7f 3f
       1.0005238 0.99998903 0.99984396 0.9990479
0000c0 a4 b9 7f 3f 8e 00 80 3f 5e 94 7f 3f 56 86 7f 3f
       0.9989264 1.0000169 0.99835765 0.99814355
0000d0 e4 9b 7f 3f bd 2d 80 3f fe 19 80 3f 2a 02 80 3f
       0.99847245 1.0013958 1.0007932 1.000066
0000e0 c4 eb 7f 3f 56 08 80 3f 24 fc 7f 3f 8c 2d 80 3f
       0.99969125 1.0002544 0.9999411 1.00139
0000f0 9e 23 80 3f 09 14 80 3f 8f 69 80 3f 4c ef 7f 3f
       1.001087 1.0006114 1.0032214 0.99974513
000100 4c 8a 7f 3f 05 ed 7f 3f fd 3d 80 3f 9c d8 7f 3f
       0.998204 0.9997104 1.0018917 0.99939895
000110 53 74 7f 3f 16 15 80 3f f2 82 7f 3f 58 13 80 3f
       0.9978687 1.0006435 0.9980918 1.0005903
000120 97 fb 7f 3f 76 6e 7f 3f 13 12 80 3f 03 ba 7f 3f
       0.9999327 0.99777925 1.0005516 0.99893206
000130 9a bc 7f 3f a8 8a 7f 3f 7d 28 80 3f c8 4f 80 3f
       0.9989716 0.9982095 1.0012356 1.0024347
000140 2b 39 80 3f 25 d3 7f 3f b5 16 80 3f 4b 09 80 3f
       1.0017446 0.99931556 1.000693 1.0002836
000150 bc 93 7f 3f 45 0e 80 3f 97 2d 7f 3f be b1 7f 3f
       0.998348 1.0004355 0.9967894 0.9988059
000160 76 07 80 3f 61 a8 7f 3f f5 71 80 3f d0 79 7f 3f
       1.0002277 0.998663 1.0034777 0.99795246
000170 90 29 80 3f 8e 0b 80 3f 5e e2 7f 3f 7c 16 80 3f
       1.0012684 1.0003526 0.99954784 1.0006862
000180 30 7e 7f 3f db 10 80 3f 44 21 80 3f e3 2b 80 3f
       0.9980192 1.0005144 1.0010152 1.0013393
000190 93 1c 80 3f 7f b8 7f 3f a4 0b 80 3f d0 e6 7f 3f
       1.000872 0.99890894 1.0003552 0.99961567
0001a0 ea f5 7f 3f 1b 76 7f 3f 50 8f 7f 3f f4 4d 7f 3f
       0.9998461 0.9978959 0.9982805 0.9972832
0001b0 ec ed 7f 3f b0 07 80 3f 1b 96 7f 3f 72 24 80 3f
       0.99972415 1.0002346 0.9983842 1.0011122
0001c0 8c e1 7f 3f 36 05 80 3f b8 a0 7f 3f 59 28 80 3f
       0.9995353 1.000159 0.9985461 1.0012313
0001d0 e5 06 80 3f 83 03 80 3f 03 ae 7f 3f f4 01 80 3f
       1.0002104 1.0001072 0.99874896 1.0000596
0001e0 7e 6b 7f 3f 38 91 7f 3f a3 93 7f 3f 94 1b 80 3f
       0.99773395 0.9983096 0.9983465 1.0008416
0001f0 77 67 7f 3f ab 2e 7f 3f f8 12 80 3f c2 7d 80 3f
       0.9976725 0.99680585 1.0005789 1.0038378
000200 73 3b 80 3f 6f a8 7f 3f 09 f2 7f 3f b3 3e 80 3f
       1.0018142 0.99866384 0.9997869 1.0019134
000210 13 80 7f 3f 8b 94 7f 3f 94 f8 7f 3f 7e 10 80 3f
       0.998048 0.99836034 0.99988675 1.0005033
000220 51 a8 7f 3f ea aa 7f 3f 60 23 80 3f a5 04 80 3f
       0.99866205 0.9987017 1.0010796 1.0001417
000230 c9 26 80 3f 6a 24 80 3f ce 15 80 3f fd 13 80 3f
       1.0011836 1.0011113 1.0006654 1.00061
000240 ef 19 80 3f 02 15 80 3f 86 2b 80 3f f1 3e 80 3f
       1.0007914 1.0006411 1.0013282 1.0019208
000250 23 f5 7f 3f f6 b6 7f 3f cf 04 80 3f 06 93 7f 3f
       0.99983424 0.9988855 1.0001467 0.99833715
000260 70 8f 7f 3f d1 17 80 3f 24 da 7f 3f 3f 00 80 3f
       0.99828243 1.0007268 0.9994223 1.0000075
000270 23 21 80 3f 9a 22 80 3f 69 bd 7f 3f 30 4d 80 3f
       1.0010113 1.001056 0.9989839 1.0023556
000280 3b b9 7f 3f 51 cd 7f 3f 85 ba 7f 3f d5 d4 7f 3f
       0.99892014 0.9992266 0.9989398 0.9993413
000290 ba a2 7f 3f 84 37 80 3f d3 3e 80 3f 48 0f 80 3f
       0.99857676 1.0016942 1.0019172 1.0004663
0002a0 48 16 80 3f d0 99 7f 3f 22 b5 7f 3f f1 80 7f 3f
       1.00068 0.99844074 0.9988576 0.99806124
0002b0 d1 18 80 3f a0 d1 7f 3f 4d 1a 80 3f 92 3e 80 3f
       1.0007573 0.9992924 1.0008026 1.0019095
0002c0 12 2b 80 3f d0 28 80 3f 11 14 80 3f b5 15 80 3f
       1.0013144 1.0012455 1.0006124 1.0006624
0002d0 de 64 7f 3f 24 f8 7f 3f 1c 12 80 3f 2a 01 80 3f
       0.99763286 0.9998801 1.0005527 1.0000355
0002e0 f9 0f 80 3f 6f 10 80 3f 92 58 7f 3f 77 d0 7f 3f
       1.0004874 1.0005015 0.9974452 0.9992747
0002f0 84 8a 7f 3f 5d 3e 80 3f 88 ba 7f 3f 01 e5 7f 3f
       0.99820733 1.0019032 0.99894 0.9995881
000300 36 57 7f 3f 69 0b 80 3f 04 cd 7f 3f 7a 12 80 3f
       0.9974245 1.0003482 0.99922204 1.0005639
000310 00 0a 80 3f 1e e3 7f 3f a2 f5 7f 3f d5 24 80 3f
       1.0003052 0.9995593 0.9998418 1.001124
000320 89 22 80 3f d3 5d 80 3f 9b 25 80 3f 6a 0a 80 3f
       1.0010539 1.0028633 1.0011476 1.0003178
000330 10 38 80 3f 88 65 80 3f af 1e 80 3f 28 b3 7f 3f
       1.0017109 1.0030985 1.0009364 0.99882746
000340 51 bb 7f 3f c6 84 7f 3f 99 02 80 3f eb e6 7f 3f
       0.998952 0.9981197 1.0000793 0.9996173
000350 63 2d 80 3f 30 06 80 3f 3b 4d 80 3f 31 43 80 3f
       1.0013851 1.0001888 1.0023569 1.0020505
000360 5b 0c 80 3f 94 ea 7f 3f fc 6c 7f 3f f6 c7 7f 3f
       1.000377 0.9996731 0.9977567 0.9991449
000370 b5 88 7f 3f 8e f5 7f 3f 4f 2a 80 3f cf 38 80 3f
       0.99817973 0.9998406 1.0012912 1.0017337
000380 a6 d0 7f 3f bc cc 7f 3f 0e d2 7f 3f 4f c5 7f 3f
       0.9992775 0.99921775 0.99929893 0.99910444
000390 76 26 80 3f 87 fe 7f 3f 73 3c 80 3f c0 18 80 3f
       1.0011737 0.9999775 1.0018448 1.0007553
0003a0 f8 db 7f 3f 37 ca 7f 3f 39 ee 7f 3f a1 18 80 3f
       0.9994502 0.9991793 0.99972874 1.0007516
0003b0 ed e6 7f 3f 97 0b 80 3f 33 2a 80 3f 5b fb 7f 3f
       0.9996174 1.0003537 1.0012878 0.99992913
0003c0 64 d0 7f 3f 24 d1 7f 3f 6e ed 7f 3f b5 37 80 3f
       0.99927354 0.999285 0.99971664 1.0017
0003d0 69 24 80 3f 1c f5 7f 3f 5f 12 80 3f d4 9b 7f 3f
       1.0011111 0.9998338 1.0005606 0.9984715
0003e0 dc f4 7f 3f c0 db 7f 3f 93 12 80 3f a4 b5 7f 3f
       0.99983 0.99944687 1.0005668 0.99886537
0003f0 29 03 80 3f b4 12 80 3f 9a 43 80 3f 3e 80 7f 3f
       1.0000964 1.0005708 1.002063 0.9980506

bias f4 [256]
000000 27 ae 98 b8 a1 a3 eb 3a 5b 9b 5a bb 5a 55 a3 b9
       -7.280363e-05 0.0017977842 -0.003335676 -0.00031153375
000010 25 d6 fc 3a ec 9c 75 39 30 23 04 bb 71 be 2a 39
       0.0019289894 0.00023423479 -0.0020162575 0.00016283408
000020 ff 55 c4 b7 e1 fd 7c ba c1 4f 43 ba d9 7c 1d bb
       -2.3405066e-05 -0.0009650868 -0.0007450544 -0.0024030714
000030 bb 34 03 bb fd 42 86 b9 ef 22 e1 ba 78 5a b2 ba
       -0.0020020443 -0.00025608382 -0.0017176549 -0.0013607284
000040 75 60 07 3b 48 d5 91 39 72 91 5e 3a eb 42 01 3b
       0.0020656858 0.00027815462 0.0008490301 0.0019723724
000050 d6 64 35 3a 0b e1 9e 3a ff 4d 35 39 c1 14 d9 ba
       0.0006919628 0.0012121511 0.00017290561 -0.0016561971
000060 c5 60 9f ba 2b 33 b8 3a ab 57 8b 38 42 2e 29 3a
       -0.0012159577 0.0014053335 6.644366e-05 0.00064537313
000070 44 3c a9 ba 05 a2 76 ba 8e 94 52 3a 58 eb 6f ba
       -0.0012911637 -0.0009408298 0.00080330006 -0.00091521954
000080 05 bc 07 39 3d bc 86 3a fc db 9c b9 2e 97 09 b9
       0.00012944646 0.0010279488 -0.0002991854 -0.00013121657
000090 07 fe a4 b8 aa 23 aa b7 13 be 81 39 61 ca 89 37
       -7.867446e-05 -2.0282187e-05 0.00024746414 1.6425913e-05
0000a0 7c 25 ad ba bc 56 69 3a ec 2d 54 ba f4 54 3d b9
       -0.0013210024 0.0008901169 -0.0008094001 -0.00018056092
0000b0 f2 b7 4f 39 41 3d a3 b7 87 70 c6 39 d2 2e 01 ba
       0.00019809583 -1.9459638e-05 0.00037849342 -0.0004927936
0000c0 9e 1d a1 b9 c3 5d 12 bb 08 e7 08 bb 84 cb 8a 3a
       -0.0003073038 -0.0022333718 -0.0020889658 0.0010589217
0000d0 81 6c c0 3a eb ac 82 ba a4 82 02 3b 5f 4b 6a 3a
       0.0014680774 -0.0009969746 0.0019914294 0.0008937623
0000e0 21 e4 da 39 3b 4c 16 ba 35 f2 aa 3a 26 21 83 39
       0.0004175017 -0.0005733405 0.0013042154 0.00025010965
0000f0 ee 78 a2 38 75 f9 e2 b8 7b 67 d2 3a b3 e4 1f 3b
       7.747287e-05 -0.00010822985 0.0016052568 0.002439779
000100 7b 74 0f b8 b3 9a e4 b8 74 f7 35 3b bc 55 bd 39
       -3.4202338e-05 -0.00010900702 0.0027765902 0.00036112766
000110 02 c8 c5 3a dc 36 8d ba 14 b6 68 38 42 aa 26 bb
       0.0015089514 -0.0010773796 5.5482684e-05 -0.0025431071
000120 f1 c2 a3 b9 a9 04 65 ba 7f 69 69 3a 92 f4 44 bb
       -0.00031235025 -0.0008736351 0.0008903965 -0.0030053002
000130 fe 72 cf ba e1 84 c0 39 69 76 e1 3a 42 af 06 3b
       -0.0015827117 0.00036720096 0.0017201427 0.002055124
000140 ba 65 65 ba 5d 17 d0 b9 ab c3 40 3a 33 bd 0d bb
       -0.0008750815 -0.0003969026 0.00073533755 -0.0021627664
000150 c2 7a 81 b9 89 6a 02 bb ea 55 c1 ba 03 d4 08 3b
       -0.0002469626 -0.0019899926 -0.0014750336 0.0020878322
000160 cd 9a de b9 a9 f3 18 3a 7d a1 65 39 66 0e e7 3a
       -0.00042458475 0.0005834648 0.00021899301 0.0017628192
000170 80 05 ac b9 65 e9 f0 b9 73 de 1e 3b a5 4a 96 3a
       -0.00032810494 -0.0004595026 0.0024241477 0.0011466338
000180 8d 61 70 ba 89 b5 98 3a e2 ec 6d b9 f3 7e b1 39
       -0.00091698096 0.0011650781 -0.00022690327 0.00033854655
000190 5f 53 a3 3a 94 dc c3 b9 c8 51 4e 38 33 66 65 ba
       0.001246076 -0.00037357642 4.9190392e-05 -0.00087508856
0001a0 61 d5 d4 3a 68 89 18 3a dc 79 ad ba 1a f9 0e 3b
       0.0016237908 0.0005818815 -0.001323517 0.0021815957
0001b0 56 5c 52 b9 4d 36 1a b7 46 f1 1d 3b c0 e1 17 3a
       -0.00020061558 -9.191758e-06 0.002410011 0.0005793832
0001c0 15 f6 dc 39 ac ee 68 bb 1c 33 5d ba d1 c8 0e 3b
       0.00042145015 -0.003554265 -0.0008438097 0.0021787176
0001d0 b4 fb e4 3a 58 83 9a 3a e4 19 3c b9 dc 3c cd 3a
       0.0017470033 0.0011788411 -0.00017938722 0.0015658396
0001e0 39 27 d2 39 dd 58 6e 3a 21 fd c9 39 4a 11 28 bb
       0.00040083544 0.0009092221 0.00038526303 -0.002564507
0001f0 c4 ff 2b bb fe 10 ea ba 84 5d 7b 3a 20 5f d6 3a
       -0.0026244977 -0.0017857847 0.0009588825 0.0016355254
000200 ce f8 bd 3a 49 be 33 38 9b e7 15 36 05 77 1b b9
       0.0014493705 4.2854143e-05 2.2337542e-06 -0.0001482629
000210 3a ee 3f 3a 29 08 76 ba e0 4c 66 ba 8a bb 29 3a
       0.00073215703 -0.0009385371 -0.0008785259 0.0006474784
000220 b0 ea 1c ba 64 b9 06 3b 18 9e b3 ba b3 bc 1a 3a
       -0.0005985899 0.0020557279 -0.0013703732 0.0005902752
000230 a3 e8 20 39 68 95 c7 ba 66 34 67 b7 96 d6 20 3a
       0.00015345453 -0.0015227022 -1.3780873e-05 0.00061354914
000240 b5 c2 07 bb 34 6b 0f 3b 87 2c 6a 39 9f 6b e4 ba
       -0.002071542 0.0021883966 0.00022332567 -0.0017427093
000250 6e d7 90 39 72 ed ba 38 ec 8f e8 37 f2 9f 59 3a
       0.00027626328 8.913399e-05 2.7723574e-05 0.0008301727
000260 ef 8f b9 ba 94 07 1a 3b 18 73 1f ba 1e c9 18 b9
       -0.0014157275 0.0023503052 -0.0006082519 -0.00014570772
000270 18 11 aa 3a da 13 67 b9 12 1c a4 ba 97 f0 e2 ba
       0.0012975065 -0.00022037272 -0.0012520573 -0.0017314133
000280 fb 59 8f b9 1b c5 7c 3a 52 e5 01 ba 18 79 5e 3a
       -0.00027342126 0.0009642408 -0.0004955131 0.00084866723
000290 9c cd 6c ba 36 59 23 b9 c9 ec 9a 3a 7f ba 3f 3a
       -0.0009033324 -0.00015578125 0.0011819835 0.0007313862
0002a0 2c 8f 27 3b 92 ce 4b b8 36 90 01 bb 36 cb 6a 3a
       0.0025567515 -4.8591355e-05 -0.0019769794 0.00089566724
0002b0 a3 f0 af ba 5e 6a 06 ba cc c7 d4 b6 8d bb 05 bb
       -0.0013423156 -0.0005127544 -6.3413518e-06 -0.0020405978
0002c0 09 34 e2 b9 a7 38 b4 3a 9b 23 ef 39 0b 64 a2 b9
       -0.00043144848 0.0013749794 0.0004561216 -0.00030973586
0002d0 92 30 fc 39 f2 07 b7 ba 9d 90 04 3a 4a bf 71 3a
       0.00048101373 -0.001396416 0.00050569494 0.00092219247
0002e0 b8 01 46 ba 83 30 1d 3b 72 71 7a 3a 94 37 d7 b9
       -0.00075533567 0.0023985214 0.0009553648 -0.00041049405
0002f0 56 bf b0 ba 7b c5 53 ba a1 fe f1 b8 ae c7 06 ba
       -0.0013484757 -0.0008078438 -0.00011539204 -0.0005141449
000300 9e a2 12 3a 41 4f dc 3a c7 02 14 3a 01 80 3a b9
       0.000559369 0.0016808287 0.0005646166 -0.00017786027
000310 03 6b 0d 3b d0 4f ea ba e8 f9 a2 b9 02 60 f6 39
       0.0021578677 -0.0017876569 -0.00031085243 0.00046992308
000320 20 d8 eb b9 35 60 78 ba 3b 9c 32 39 68 ac a4 3a
       -0.00044983719 -0.0009474785 0.00017033603 0.0012563588
000330 40 8f 67 ba ca 66 48 39 0d 75 92 ba 4a e4 8a ba
       -0.00088332966 0.00019111778 -0.00111738 -0.00105966
000340 20 dd 9d 3a 2d 47 01 ba 7a 1f c6 b8 a0 35 20 39
       0.001204405 -0.00049315655 -9.447239e-05 0.00015278766
000350 af f0 08 ba 63 1b a0 3a 6c ce ae b9 bc f0 03 ba
       -0.0005223853 0.0012215193 -0.00033341662 -0.00050331256
000360 f9 8c a0 ba 88 74 9e ba 94 2b 5a 3a 08 77 98 ba
       -0.0012249044 -0.0012089172 0.00083225337 -0.0011632154
000370 db 18 a5 b8 da e0 21 3a 3f 0c 9e 3a 72 7f 85 ba
       -7.872443e-05 0.0006175168 0.0012058093 -0.0010185076
000380 e5 da e2 3a e6 6f 96 3a 7a 45 42 37 a8 0c cb 3a
       0.0017307667 0.001147744 1.1579477e-05 0.0015491443
000390 6d 33 6b 39 36 d0 11 39 b1 a8 c5 ba 58 98 e7 3a
       0.00022430504 0.00013905842 -0.0015080181 0.0017669303
0003a0 1d 29 49 3a f0 0f 7b b9 30 12 35 3a 0f 77 57 3a
       0.0007673668 -0.00023943163 0.0006907312 0.000821934
0003b0 b3 a5 ad 39 86 2b a0 ba da 4c ec ba ad 07 c7 b9
       0.00033120587 -0.0012220002 -0.0018028275 -0.00037961957
0003c0 15 b5 2d ba 31 c7 60 39 d6 76 a6 b9 98 61 73 39
       -0.00066264096 0.00021436509 -0.00031750527 0.00023210642
0003d0 98 84 99 ba 10 8e f5 3a c9 18 da ba ce 30 9e ba
       -0.001171249 0.0018734355 -0.0016639467 -0.0012068988
0003e0 a4 14 cd 38 9a 1f 11 ba 0c 53 11 bb 4e 17 7c 3a
       9.779006e-05 -0.000553602 -0.0022174744 0.000961651
0003f0 60 87 f0 3a 0b 4e 93 ba 98 96 2a ba 5d 55 f2 3a
       0.0018350892 -0.0011238469 -0.00065074256 0.0018488575
