statedicts/torchscript_pl_db_2022-05-02_FLOWER_SLOW_NOMINAL_P0_R1_s0_seed_1.pt (torch, 225905 bytes, 29 tensors)

weight f4 [5]
000000 a0 41 8b 3f 6d d0 96 3f 4d e1 60 3f 56 20 70 3f
       1.0879402 1.1782357 0.8784378 0.9379934
000010 1b 74 68 3f
       0.9080216

bias f4 [5]
000000 1b 7b 1a be b2 b9 dd 3d 29 0b eb bd 7d f8 f2 3b
       -0.15086024 0.10826434 -0.11476738 0.007414876
000010 fb 0d 95 3d
       0.07278057

running_mean f4 [5]
000000 4d 66 29 40 13 ed 83 3d f7 66 41 40 dc 3d 3d 40
       2.646869 0.06441703 3.0219095 2.9569006
000010 4d b4 6e 3e
       0.23310967

running_var f4 [5]
000000 37 9f ba 3c 5f 2b a6 33 be 37 67 3b 99 47 a4 3a
       0.022780998 7.7378665e-08 0.0035281028 0.0012533545
000010 74 7c cd 3a
       0.0015677349

weight f4 [96, 5]
000000 58 41 84 be 52 40 51 be 8e 2a 86 be 23 c2 83 be
       -0.25831103 -0.20434693 -0.26204342 -0.25734052
000010 ea 51 56 be e1 01 31 3e 90 49 3d bd b6 b5 93 3e
       -0.20929685 0.17285873 -0.046212733 0.28849572
000020 1e 0a 18 bd c2 50 8e be 18 ac 1a be 4d 73 55 3e
       -0.037119024 -0.27795988 -0.15104711 0.20844765
000030 14 21 7f be 15 3a 9c be af 4c 1f 3e 86 26 a8 be
       -0.24914962 -0.30513063 0.15556596 -0.3284189
000040 eb d3 96 3e dd 2e 95 3e 0e 63 a0 bd 51 20 b0 bd
       0.29458556 0.29137316 -0.07831393 -0.08599914
000050 96 99 8c be de 60 24 be af 73 03 be 46 fa e3 bd
       -0.27460927 -0.16052577 -0.12837099 -0.1113172
000060 7c 68 5f 3e f4 13 a6 3e 48 7c 7b be 56 1f a2 3e
       0.21817201 0.32437098 -0.24559128 0.31664532
000070 3d 05 f0 be ce 8f 93 3d 19 85 a5 3e d1 7a 84 3e
       -0.46878996 0.07205163 0.32328108 0.2587495
000080 93 3b 9c 3d 74 d0 60 be a0 9d 8d bc 86 24 6e 3d
       0.076285504 -0.21954519 -0.017287076 0.0581403
000090 88 c9 37 3e 9e f1 cc be 3f eb 67 bd a4 d7 a0 be
       0.17947972 -0.4002809 -0.056620833 -0.3141452
0000a0 32 16 6a 3e ae ca f9 3e 6e 02 c0 3c 0d a9 65 3c
       0.2286003 0.48787445 0.023438659 0.014017356
0000b0 31 1e 75 3e 32 e5 a1 3e f5 f8 25 be aa 2b 3b be
       0.23937298 0.31620175 -0.16208251 -0.18278375
0000c0 15 ab 70 be 66 ce bd be 62 ec 30 3e 93 cd 4a 3e
       -0.23502763 -0.37071532 0.17277673 0.19804983
0000d0 82 16 db 3e 01 3e bd bd 9f a0 c7 3e 05 4d dd 3e
       0.4279061 -0.09240342 0.38989732 0.43222824
0000e0 3e 2e 6f 3e 6d ea ba be 44 ec a9 3e 2d 84 b9 3d
       0.23357484 -0.36506978 0.3318807 0.09058414
0000f0 40 d4 96 3e 1f b6 1a be b2 4a ae be 16 01 07 be
       0.2945881 -0.15108536 -0.34041363 -0.13184008
000100 74 7d 26 bd 52 71 ae be ce a4 d5 3d 3d c3 5e be
       -0.040646985 -0.34070832 0.104318246 -0.21754165
000110 b3 90 9b be df c9 ac be 07 b6 38 bd e9 3f 70 3d
       -0.30383834 -0.33747765 -0.04509547 0.0586547
000120 be 8c 97 3e fc 57 b6 3e 49 22 cb 3e 78 66 23 3d
       0.29599565 0.35614002 0.39674595 0.039892644
000130 57 08 c3 3e 95 13 5b 3e cb ea 8c 3e 62 cd a5 be
       0.380923 0.21394189 0.27522883 -0.32383257
000140 a7 ba ab be 7c 2d a3 bd 55 39 eb 3d 97 c3 80 3e
       -0.33540842 -0.0796766 0.114855446 0.25149223
000150 69 a3 37 be 4e b3 6d be 1c 5d b6 bc 29 3d 8a be
       -0.1793343 -0.2321293 -0.022261195 -0.26999786
000160 34 22 a9 bd f1 4a b1 3d 04 8f 50 3e c2 8f 46 be
       -0.08258477 0.08656872 0.20367056 -0.19390777
000170 5a 57 9b 3e 58 5a 81 be ef 7c 93 be 43 6b 17 3e
       0.3034008 -0.2526424 -0.28806254 0.14787011
000180 c1 8b d3 be f0 d8 87 bd 09 c3 b6 be 4e 4e 6d 3d
       -0.4131756 -0.066331744 -0.35695675 0.057936005
000190 23 0d ae be 27 8f 6a be 15 44 8a be 2c cf 14 3d
       -0.33994398 -0.22906171 -0.27005067 0.036330387
0001a0 a0 8d ba be ac e3 65 3d 1f e7 89 3e 43 9c 40 be
       -0.36436176 0.056125328 0.26934144 -0.18809609
0001b0 3e 96 dc bd bd 93 b2 3d 69 bb d2 3d 4c b3 85 bd
       -0.10770844 0.08719585 0.10289652 -0.06528339
0001c0 56 5d b1 be 88 3a 1b be de 60 65 be 01 b9 a8 be
       -0.34641522 -0.15159047 -0.22400233 -0.32953647
0001d0 4d 7a fc 3d 85 00 9d 3e ef fb 2e 39 8f 56 2f be
       0.123280145 0.3066446 0.00016687786 -0.17122863
0001e0 df 3a a2 be 9b e7 26 3e 7d 40 91 be 04 de 58 be
       -0.3168554 0.16299288 -0.28369513 -0.21178442
0001f0 e8 83 b6 be 6f 3e 80 3e 37 bd b2 3d 28 e0 8f be
       -0.3564751 0.25047633 0.08727496 -0.28100705
000200 c0 d5 bd bd 18 94 5d 3d 89 20 a9 be af eb 8c bd
       -0.09269285 0.05409631 -0.33032635 -0.068808906
000210 1a 97 08 be 6a 61 a1 be e3 e3 95 be c0 85 98 bc
       -0.1333889 -0.31519634 -0.29275426 -0.018618464
000220 82 9a 72 be ef 81 a6 3e 6f 09 a7 3d eb 88 e6 bd
       -0.23691753 0.32521006 0.08156096 -0.11256584
000230 d2 00 1e bb 8e 65 70 3e bd d0 85 bd 2b 9f 84 3e
       -0.0024109376 0.2347624 -0.06533954 0.25902686
000240 04 72 ab be 84 25 f5 bb ff 66 cf 3d f8 bb 29 bd
       -0.33485425 -0.007481279 0.10127067 -0.041439027
000250 98 a2 8d be 79 0b 10 be 33 31 b2 3e fa 1c 66 bd
       -0.27663112 -0.14066876 0.3480316 -0.056179978
000260 e9 94 90 be 47 7a 10 3e 8c 31 da be 7b 92 cf bc
       -0.2823861 0.14109145 -0.42615926 -0.025338402
000270 e1 06 ba 3e 3a 95 ca bd 22 9a 2e be 48 cc ae be
       0.36333373 -0.09891744 -0.17050985 -0.3414023
000280 ac d2 86 3d 60 a7 9e 3e 82 30 a7 bd 3d 94 d8 3e
       0.06583151 0.30987072 -0.08163549 0.42300597
000290 b3 83 cd 3e ab 48 46 3e 3a 1f 48 3e 8f 8a bd bd
       0.4013954 0.19363658 0.19543162 -0.092549436
0002a0 93 9c 46 3e 14 c6 94 3e 88 5f 88 be cb d5 ca 3e
       0.19395666 0.29057372 -0.26635385 0.39616236
0002b0 21 9a 24 be 13 be 35 3e 1e 0f 98 be b0 ad a8 be
       -0.1607442 0.17748289 -0.29699033 -0.32945013
0002c0 47 45 5c 3e 86 90 00 be d4 ed 87 be e5 5c f1 bd
       0.21510802 -0.12555131 -0.26548636 -0.11785296
0002d0 85 bd b5 be fa be 8d be 56 c8 4c be 93 08 db 3e
       -0.35496154 -0.27684766 -0.19998297 0.4277998
0002e0 95 ea d1 3d 5c 2a 96 3e c6 f4 a7 bd 95 1d e0 bb
       0.10249821 0.29329193 -0.08200984 -0.006839464
0002f0 42 81 a4 bd 0c ff aa 3e 85 84 34 be 4b 6f aa 3e
       -0.080324665 0.3339771 -0.17628677 0.33288035
000300 8b c4 d8 be 3b d6 db 3e 12 00 b7 be e4 eb c9 be
       -0.4233745 0.42936882 -0.3574224 -0.39437783
000310 96 42 3d 3d db 79 db 3e e3 7b 7f 3e d3 72 13 be
       0.04620608 0.42866406 0.24949603 -0.1439927
000320 c4 c9 c3 bd ab 02 11 be 16 97 78 bd dc bc 35 3e
       -0.09559968 -0.14161174 -0.06069096 0.17747825
000330 57 ba b7 3e ce df d5 3e a7 33 36 be 2b e9 65 bd
       0.35884354 0.41772312 -0.17793141 -0.05613057
000340 48 46 52 be 95 e0 8e be 7b de f9 bb 3d ef 67 be
       -0.20534623 -0.27905717 -0.0076253987 -0.22649856
000350 ab a9 b3 be 73 dd a6 3e 07 a8 52 3d e9 a2 af be
       -0.35090384 0.32590827 0.051429775 -0.34303978
000360 2d 48 05 bd f0 44 a2 be 12 db fd 3d d2 43 e1 3e
       -0.032539535 -0.3169322 0.123953 0.43997055
000370 72 d6 05 3b 85 c6 7b be 49 a0 d2 bc cc cf b2 3e
       0.0020422009 -0.24587448 -0.025711196 0.3492416
000380 98 0e c2 be 2e 92 8b be 8b 22 0d bd 47 75 aa 3e
       -0.3790176 -0.27259964 -0.03445677 0.332926
000390 38 32 b1 3e a8 fb 1b be 8e 06 9e be 2b 74 82 be
       0.34608626 -0.15232718 -0.30864376 -0.25479254
0003a0 ee 10 05 3e 9f 47 31 3e 68 1c c3 be 0b 1e b8 3e
       0.1299474 0.17312478 -0.3810761 0.3596042
0003b0 4c 96 51 be 5a 7b 29 be 8a 01 d1 3e 44 4d aa be
       -0.2046749 -0.16550961 0.40821487 -0.33262074
0003c0 03 31 27 be 6d 43 b4 3e f2 a1 12 be 31 f2 1b be
       -0.1632729 0.35207692 -0.1431959 -0.15229107
0003d0 70 f2 25 3e 39 e1 8f 3e 91 44 d1 be 3d 6a 7a be
       0.16205764 0.2810152 -0.40872625 -0.24454589
0003e0 e1 46 e8 3d 89 c3 7e be 67 c4 78 be 64 09 8b be
       0.11341644 -0.24879278 -0.24293672 -0.27155602
0003f0 79 78 a4 3e 75 5f ab 3e 18 b0 00 bd 15 28 51 3d
       0.32123163 0.33471265 -0.031417936 0.051063616

bias f4 [96]
000000 45 f3 d3 3e 27 34 12 be 49 13 52 be 34 d9 af bd
       0.41396537 -0.14277707 -0.20515169 -0.0858635
000010 b4 19 c7 bd c7 45 d9 be 10 3d c7 bd bc 48 dc be
       -0.09721699 -0.42436048 -0.097284436 -0.43024242
000020 0a 9c 01 be c2 f4 3c be d1 5b 95 bd ba 6e b6 3e
       -0.1265718 -0.18452743 -0.07292903 0.35631353
000030 23 e4 a6 3e 08 ce 9e 3e d4 30 78 3e e2 cc b2 3d
       0.3259593 0.31016564 0.24237376 0.087304845
000040 1a 2f 64 3e e3 c8 54 be 25 c7 42 be 04 12 7d 3e
       0.22283593 -0.20779757 -0.1902128 0.24713904
000050 7e ed 7b be 26 05 22 bd 77 37 e2 3e 0d 4b 9e 3e
       -0.24602315 -0.03955569 0.4418294 0.30916634
000060 65 b7 8f 3e 11 cb a2 3e e6 50 0f be fe 88 90 3e
       0.28069606 0.31795552 -0.13995704 0.28229517
000070 c1 74 ad 3c c8 a1 6c bd e2 11 5e 3e 4d 30 ae be
       0.021173837 -0.057771474 0.21686509 -0.34021226
000080 e1 de b0 be 67 ab 65 be 05 8e aa be b0 66 d4 be
       -0.34545043 -0.22428666 -0.33311477 -0.41484594
000090 0a 78 cf 3e 35 d2 bb 3e fa 3a 64 be 58 b1 10 3d
       0.4052127 0.36683813 -0.22288123 0.03532538
0000a0 d1 1c bb 3d 4c 4e a2 3e 60 1b 4c bd bc ba 9b be
       0.09136356 0.3170036 -0.049830794 -0.30415905
0000b0 bb 1a 1b 3e f2 02 af 3d c1 8d d3 be a0 a3 60 3e
       0.15146916 0.08545484 -0.41319087 0.21937418
0000c0 98 20 cf 3e c5 d8 c5 be 3a 1c d5 bd bc 53 ab 3d
       0.40454555 -0.38641945 -0.104057744 0.083655804
0000d0 32 de ef bd 31 ac 4c bc 4b 8d dc be 78 e0 b6 3e
       -0.11712302 -0.0124922255 -0.43076548 0.3571813
0000e0 0e 96 9f be 24 42 cd 3e e3 65 bc be 0b 2e c2 3d
       -0.3116917 0.40089524 -0.36796483 0.09481438
0000f0 b1 52 a1 be 65 d7 3e 3e ba 7b 6e 3e 6b 9d a3 be
       -0.315084 0.18636854 0.23289385 -0.31956038
000100 27 d5 ad 3d 5f 59 ba be f4 24 af be 18 22 38 3e
       0.08487921 -0.3639631 -0.3420788 0.17981756
000110 51 8f 92 be 43 d6 c2 3d 66 93 c7 3e 9d 7b 26 be
       -0.28624967 0.095135234 0.38979644 -0.16258092
000120 91 3a 2d 3a c4 3d ab 3c 44 88 cc 3e 9c 57 5c 3e
       0.00066081533 0.020903476 0.39947712 0.21517795
000130 b2 59 ae 3c 5d 5a 05 3e 54 77 8a be 79 7b 14 be
       0.021283004 0.13022752 -0.27044165 -0.14500226
000140 82 ee dd 3e 06 0f 4b be bd 3f a4 3e 96 99 04 be
       0.4334603 -0.1982995 0.32079878 -0.12949213
000150 b1 4e 58 bd ae da a7 3d 20 b0 a1 3e 43 bc 88 bd
       -0.05280942 0.08196007 0.31579685 -0.06676533
000160 b4 67 b8 be 34 29 dc 3e 87 03 62 3e e0 4a 6e 3e
       -0.3601662 0.43000185 0.22071658 0.2327075
000170 9d 30 5d be 60 b2 c7 be 56 c4 b5 3e d7 45 6a 3d
       -0.21600576 -0.39003277 0.35501355 0.05719551

weight f4 [96]
000000 29 6b 7d 3f 37 02 7f 3f a8 13 7c 3f e3 78 81 3f
       0.9899164 0.99612755 0.98467493 1.0115017
000010 01 6c 80 3f 79 3d 7e 3f a2 4a 7e 3f 68 ee 7f 3f
       1.003296 0.9931255 0.9933263 0.99973154
000020 fe d6 82 3f 4e c6 7f 3f f7 06 7e 3f 78 f5 7e 3f
       1.022186 0.99911964 0.9922938 0.99593306
000030 c0 c7 7f 3f 84 16 7f 3f 55 f9 7f 3f 29 37 7d 3f
       0.9991417 0.9964373 0.99989825 0.9891229
000040 08 66 80 3f 22 23 80 3f da 00 7f 3f e4 91 7f 3f
       1.0031137 1.0010722 0.99610674 0.99831986
000050 fd 00 81 3f e3 31 81 3f 86 c0 7d 3f 61 1f 80 3f
       1.0078427 1.0093349 0.9912189 1.0009576
000060 8c 54 7f 3f 54 11 7f 3f 4a 2d 80 3f cd 6f 7f 3f
       0.99738383 0.99635816 1.0013821 0.9977997
000070 e4 56 80 3f 76 49 7e 3f 84 ee 7f 3f 22 21 7e 3f
       1.0026517 0.9933084 0.9997332 0.99269307
000080 57 dd 7e 3f 8d d6 80 3f e6 35 81 3f a4 05 7f 3f
       0.9955649 1.0065476 1.0094573 0.9961798
000090 c0 b8 7f 3f 88 e9 81 3f e8 bb 7f 3f cf de 80 3f
       0.9989128 1.0149393 0.998961 1.0067996
0000a0 d0 cb 7e 3f 88 75 7f 3f a4 24 7f 3f 43 88 80 3f
       0.99529743 0.99788713 0.99665284 1.0041584
0000b0 05 17 80 3f 4a 2b 80 3f 6b c0 7a 3f 06 66 82 3f
       1.0007025 1.0013211 0.97949857 1.0187385
0000c0 47 9b 81 3f c7 e8 7f 3f 5e 04 7f 3f f6 ab 7f 3f
       1.0125512 0.99964565 0.9961604 0.99871767
0000d0 3c 3d 7e 3f 5a 37 7f 3f 22 21 80 3f a5 02 7f 3f
       0.99312186 0.99693835 1.0010111 0.9961341
0000e0 37 fa 7a 3f 7e c4 7e 3f 86 97 7e 3f af 72 80 3f
       0.9803805 0.99518573 0.99449956 1.0034999
0000f0 31 79 80 3f 66 d2 8a 3f 8d 90 80 3f ff 79 7f 3f
       1.0036985 1.0845459 1.0044113 0.99795526
000100 8c 94 7f 3f 17 79 7e 3f 9e 5d 7f 3f 88 71 80 3f
       0.9983604 0.9940352 0.99752223 1.0034647
000110 53 6b 80 3f 99 0c 80 3f e8 4a 7f 3f 7f c2 7f 3f
       1.0032753 1.0003844 0.9972367 0.9990615
000120 5e 31 7f 3f 87 43 80 3f 81 1f 7f 3f 01 70 80 3f
       0.99684703 1.0020608 0.99657446 1.0034181
000130 d0 56 80 3f 40 3c 82 3f 83 78 7d 3f b9 7d 7f 3f
       1.0026493 1.0174637 0.9901201 0.9980121
000140 23 23 7f 3f 69 bb 80 3f 54 0d 80 3f 22 eb 80 3f
       0.9966299 1.0057193 1.0004067 1.0071757
000150 ce fa 7f 3f 92 bc 7d 3f ef 17 7e 3f d7 1f 7f 3f
       0.9999207 0.9911586 0.9925527 0.9965796
000160 bd 63 7e 3f 02 a4 7e 3f 8e 48 7e 3f 44 ad 7e 3f
       0.9937094 0.99469006 0.9932946 0.9948313
000170 c6 32 80 3f df b8 7d 3f 65 49 80 3f 88 46 7f 3f
       1.0015495 0.99110216 1.0022398 0.99717

bias f4 [96]
000000 28 61 1c b8 a1 ae 77 ba ad 46 53 3a 41 d0 8d 3b
       -3.7283782e-05 -0.0009448324 0.0008059543 0.0043278043
000010 16 ce a8 3b ef fe 42 3b e7 4c 93 3b 46 80 a0 ba
       0.0051515205 0.0029754003 0.0044952515 -0.001224526
000020 08 c7 ec 3b 12 f5 58 3b dd 21 bb ba 6b a0 06 3b
       0.007225875 0.0033105058 -0.001427706 0.0020542394
000030 d7 b1 98 3b 4b 8e 08 bc 22 62 e0 3b f6 3c 9d bb
       0.004659872 -0.008334707 0.006847636 -0.004798527
000040 fa 5f 9a bb 31 14 90 bb 11 73 1a bb 6e a5 9a bb
       -0.0047111483 -0.0043969383 -0.002356712 -0.004719428
000050 a2 41 9a 3a 43 26 22 3c cc b8 fb 39 00 cf 4d 3b
       0.0011768828 0.009896818 0.00048012135 0.00314039
000060 55 58 a5 ba 28 dc a2 bb fd 87 12 bc de fa db 39
       -0.0012614826 -0.0049700923 -0.008943555 0.00041957846
000070 6b 66 ce 3a b5 5c cf b8 10 b1 da 3b e8 9f aa 3a
       0.0015747076 -9.887797e-05 0.0066739395 0.0013017626
000080 ed b8 a0 3b 8e 92 4c ba 03 f7 8d 3b 63 b4 75 ba
       0.0049048574 -0.0007803821 0.0043324246 -0.0009372888
000090 4d cf 85 bb b7 60 c6 3b f9 9c b8 3b a2 1e 3d bb
       -0.00408355 0.00605401 0.005633947 -0.002885737
0000a0 a9 6c f6 bb 0c 42 b0 3b 19 ef 4a ba bc 30 bf bb
       -0.0075202775 0.005378967 -0.0007741317 -0.005834667
0000b0 e9 95 2d 3c 00 c3 40 3b 35 01 af 3a 7d 38 0a 3c
       0.010594823 0.0029413104 0.00133518 0.008436319
0000c0 70 d2 9f 3a 32 8d e2 3a 64 e8 62 bb 33 38 f1 3a
       0.0012193453 0.0017284511 -0.003462338 0.001840359
0000d0 05 61 68 3a e4 25 13 bb 2b 86 d1 38 68 75 3b bb
       0.00088645547 -0.0022453004 9.990887e-05 -0.0028603915
0000e0 88 76 8f 3b de 04 20 bb 7c ce 75 3b 9f 74 0c 3b
       0.0043781437 -0.0024416964 0.0037507107 0.0021431816
0000f0 14 b0 49 3a b5 1c 55 bc d8 b0 ee bb d9 9c 25 3b
       0.0007693779 -0.013007333 -0.007284265 0.002527049
000100 17 6b 71 bb b6 4e a8 3b c9 84 d8 ba 00 8e b6 3b
       -0.0036837512 0.005136336 -0.0016519065 0.005571127
000110 c2 f8 10 3c 68 50 91 3a e2 69 ff b9 c8 ff 41 3c
       0.008848371 0.0011086585 -0.0004871628 0.011840768
000120 fb 3b a3 3b 38 1b d1 3b 82 1f 1d 3b c4 f8 89 bb
       0.0049815155 0.0063814186 0.002397508 -0.0042105634
000130 57 d4 71 3b 10 12 3a bb 0a f2 bd 39 c6 6a f5 bb
       0.0036900246 -0.0028392114 0.00036229222 -0.007489535
000140 26 78 d4 ba f4 c0 fe 39 92 d9 50 bb c2 9b 66 ba
       -0.0016210123 0.00048590417 -0.0031867963 -0.00087970134
000150 a3 34 c3 38 09 cd b9 bb 58 5c 8e 3b ce 48 38 bb
       9.308129e-05 -0.005670194 0.0043445043 -0.0028119567
000160 b4 44 6d 3b 32 6e 44 bb 0a 00 e7 ba 28 e1 af 3a
       0.003620428 -0.0029972908 -0.0017623913 0.0013418542
000170 2d 6c 97 b9 a3 35 09 3c 99 3b 00 3b ea 82 34 3b
       -0.00028881562 0.008374604 0.0019566773 0.0027543851

running_mean f4 [96]
000000 54 34 e3 3e d6 88 25 3e 84 35 a1 3d 99 de a9 3d
       0.4437586 0.1616548 0.078715354 0.0829441
000010 6d 70 38 3e 32 f2 01 3e 21 31 3f 3e c9 2d d6 3c
       0.18011637 0.12690046 0.18671085 0.026144879
000020 a4 f8 5b 3c 38 15 4a 3e 56 1c ae 3d bd dd c3 3e
       0.01342598 0.19734657 0.085014984 0.3825511
000030 d7 c1 a0 3e 3b dd bf 3e b4 8f cd 3e ce 0b 39 3e
       0.31397888 0.37473473 0.401487 0.1807091
000040 b2 8b 9f 3e 4d 6b 0a 3e ca 95 5f 3e f7 37 85 3e
       0.31161267 0.13517494 0.21834484 0.2601926
000050 c9 0b 84 3d 6e 8f 8d 3d d2 47 e2 3e 80 a9 b2 3e
       0.0644756 0.06912123 0.4419542 0.34894943
000060 bb aa b4 3e a2 a4 a6 3e 24 d6 b4 3d 01 84 87 3e
       0.35286507 0.3254748 0.088299066 0.26467898
000070 d9 c0 54 3d 13 5d fb 3d 51 51 8a 3e 54 82 88 3d
       0.051941726 0.12273612 0.27015164 0.06665483
000080 35 ed 2e 3e 0f e5 5c 3d 5e b7 27 3d 8f f2 f7 3c
       0.17082675 0.053929385 0.040946357 0.030267028
000090 f3 b0 28 3f 44 7f ad 3e bd fb 21 3e de 0b 52 3e
       0.65895003 0.33886158 0.15818687 0.2051234
0000a0 47 8b a4 3e 8f e2 e7 3e 07 60 71 3e d4 94 b6 3e
       0.3213751 0.45290038 0.23571788 0.35660422
0000b0 b7 ed f4 3d cd 3c 58 3e b9 2b ac 39 43 51 4e 3e
       0.11959403 0.21116944 0.00032838972 0.20148186
0000c0 da 25 fd 3e ee 38 4e 3c be 87 e8 3d 32 7d 52 3e
       0.4944294 0.012586815 0.11354016 0.2055557
0000d0 34 79 8e 3d 37 28 63 3d db ad 18 3e 5f 55 fe 3e
       0.069567114 0.055458274 0.1491007 0.49674508
0000e0 48 a9 12 3c 22 00 e7 3e 99 f4 9e 3d ca 34 01 3e
       0.008951493 0.4511729 0.07761497 0.12617794
0000f0 f4 43 17 3e c2 c1 76 3e f9 24 db 3e 96 6f 3e 3e
       0.14772016 0.2409735 0.42801645 0.18597254
000100 74 62 db 3d 76 e5 2d 3e 67 ba 32 3e 92 0a 50 3e
       0.10712138 0.16982064 0.1745392 0.20316532
000110 49 79 5f 3c 06 55 c7 3e 18 8a e9 3e 8a c8 4a 3d
       0.0136397565 0.38932055 0.4561317 0.049507655
000120 cc 03 08 3e 4d 71 94 3d 78 46 03 3f 1e f0 83 3e
       0.13282698 0.07248173 0.512794 0.25769132
000130 3d 89 1d 3e cd e9 70 3e aa 11 02 3c 42 75 af 3e
       0.15384383 0.23526688 0.007938782 0.34269148
000140 c3 42 e8 3e e9 94 92 3d 1e 85 fb 3e 48 bc cc 3d
       0.45363435 0.071573086 0.49124998 0.09996849
000150 0b 07 49 3e be c5 23 3e 73 4e b4 3e 96 98 83 3e
       0.19631593 0.15993401 0.35216102 0.2570235
000160 ac 73 54 3d 46 ff f0 3e 5e ce 68 3e 56 28 89 3e
       0.051868126 0.47069758 0.22734973 0.26788586
000170 0a 16 9a 3c d0 ef 96 3c 19 c5 39 3f 8f 7b 09 3e
       0.018809337 0.018424898 0.7256637 0.1342604

running_var f4 [96]
000000 29 71 a5 3d d1 64 6c 3d f0 4e fa 3c 51 bb 2f 3c
       0.08078224 0.057713334 0.030555218 0.010725812
000010 8b ef b2 3d 74 7c 57 3d 99 16 9f 3d 83 0b f3 3b
       0.087370954 0.052608922 0.07767982 0.007417144
000020 ab 88 8b 3a 61 ad 0a 3e 2a 17 93 3c 74 53 d1 3d
       0.0010645589 0.13542701 0.017955381 0.102209955
000030 f8 02 f0 3d b9 a6 f1 3d 3a 07 1a 3e 00 ec 06 3d
       0.11719316 0.11799378 0.15041819 0.03293991
000040 60 00 a4 3d 26 41 84 3d f1 26 e3 3d 12 35 9f 3d
       0.08007884 0.064577386 0.11091412 0.07773794
000050 20 95 c2 3c ce 4c 1f 3c 1b a2 e7 3d 79 9e 52 3d
       0.023752749 0.0097229015 0.11310216 0.051420663
000060 71 6b dd 3d 64 2e 88 3d 5b 24 fd 3c 45 9f 54 3d
       0.108115084 0.06649473 0.030901125 0.051909704
000070 48 a0 6f 3b 38 c6 22 3d 27 10 07 3e 4c 6e d5 3c
       0.003656404 0.039739817 0.13189755 0.02605357
000080 31 88 cd 3d 1e 4c 5e 3c ab ca 28 3c 85 14 16 3c
       0.10035742 0.013567952 0.010302226 0.009160166
000090 23 bd 0e 3f cb 5b 0a 3d 15 61 a8 3d 82 ce 24 3d
       0.5575735 0.033778947 0.08221642 0.040236004
0000a0 c0 60 2b 3e f6 3a 96 3e 27 c2 08 3e 32 14 b2 3e
       0.16736126 0.2934186 0.13355313 0.34781033
0000b0 d1 76 eb 3b 90 2c 31 3d 9a 2e c3 38 df 6e 10 3d
       0.007185795 0.04325539 9.307005e-05 0.035261985
0000c0 48 3b ac 3d 33 a1 31 3b c5 86 ce 3c 2b a3 8d 3d
       0.084097445 0.002710414 0.025210747 0.069158874
0000d0 b3 83 43 3c 19 e8 9c 3b fb 71 9d 3d 20 e2 4a 3e
       0.011933255 0.0047884104 0.07687756 0.19812822
0000e0 32 ac d9 3a d3 e0 b6 3d f5 62 1d 3d ba 14 92 3c
       0.0016607104 0.089296006 0.03842445 0.017832149
0000f0 c3 7d c3 3d 47 fa cc 39 9e ef 71 3e ec 45 cd 3d
       0.095454715 0.00039096383 0.23626563 0.10023102
000100 fe 8b 76 3c 5f 14 fb 3d 82 eb cb 3d ed 19 50 3d
       0.015048025 0.12259745 0.09957029 0.050805975
000110 12 e6 03 3b 91 e7 90 3e 38 28 f3 3d bb 20 54 3c
       0.0020126146 0.2830167 0.118729055 0.012947257
000120 fb 0e db 3c 09 a9 fb 3b 3a 35 66 3e 3e 7d 3d 3d
       0.026740542 0.0076800627 0.22481242 0.04626202
000130 25 10 47 3d 71 ee 9f 3d 5f 7c 25 3a 5d 38 8a 3e
       0.04859938 0.07809151 0.0006312783 0.26996127
000140 0b a4 ba 3d 5b 52 d8 3c fe c0 9a 3e d2 38 29 3d
       0.0911332 0.026406458 0.30225366 0.041313954
000150 35 66 aa 3d 5d 5b 1d 3d cc 59 4b 3d f2 c6 36 3e
       0.08320276 0.03841721 0.049646184 0.17849329
000160 96 5e 85 3c 65 61 1b 3e ca ac 3d 3d 44 81 51 3d
       0.016280454 0.15173872 0.046307363 0.051148668
000170 27 ca 11 3b 04 d3 9a 3b 82 2e 42 3f f6 eb 1e 3d
       0.0022245736 0.004724862 0.75852215 0.03879925

weight f4 [256, 96]
000000 c1 90 3c bc b2 10 b7 3d af 64 39 3d de 98 0b 3d
       -0.011509121 0.08938731 0.045262035 0.034081332
000010 38 ab 2c bd 48 3c 20 bd d4 4d e0 3c 9a e4 19 bd
       -0.042155474 -0.03911999 0.027380861 -0.037571527
000020 37 cc fc bd e6 42 ba 3d 61 4c d9 3a 01 c5 be bd
       -0.123436384 0.09094791 0.0016578549 -0.09314919
000030 7c e1 7e bd ee 24 59 3d 51 e9 5e 3d 83 86 ad bd
       -0.062226757 0.053013735 0.054421727 -0.08472922
000040 ac 91 2a bb 47 9f 07 bc 1e 4f 03 3d 7e 79 b8 bd
       -0.0026026769 -0.008277721 0.032057874 -0.09007548
000050 89 1a b1 bd 4b f0 97 bc 6d 87 74 bd 70 5a 7e 3d
       -0.08647639 -0.018547198 -0.059699465 0.062097967
000060 2f a3 45 bd 56 63 2a 3d 23 6b 34 3d 33 f9 67 bc
       -0.048251327 0.04159864 0.044047486 -0.014158535
000070 b5 9d f4 bc de 2e 89 3d a7 3b 06 3d ce 86 ad 3d
       -0.029860357 0.06698392 0.032771733 0.084729776
000080 c1 73 70 3c 07 38 9e 3d 64 e8 61 bc 4a 76 23 bd
       0.014676035 0.0772553 -0.013788316 -0.03990773
000090 35 1c 82 bc 2a 44 c8 3d 23 bf b7 bd c6 30 62 bd
       -0.01588259 0.09778626 -0.08972003 -0.055222295
0000a0 2a 58 50 3d 1a d9 52 bd 96 ca 4f 3d 8f 2f 14 bd
       0.05086533 -0.051476575 0.05073031 -0.036178168
0000b0 df f5 52 bd ba c0 cd bd 9f 19 23 3d 77 71 0c 3d
       -0.051504012 -0.10046525 0.039819356 0.034287896
0000c0 8c 23 89 3c ba 42 1c 3d ee 49 56 3d 73 82 b9 bd
       0.016740583 0.038149573 0.0523166 -0.09058084
0000d0 12 cd 08 3d 57 63 24 bd 04 a4 a2 bd bc a3 48 3d
       0.033398695 -0.0401338 -0.0794144 0.048984274
0000e0 e9 6a 85 3b 1c c4 a5 3d 27 e0 e6 3b 36 4a b5 bd
       0.0040715826 0.080940455 0.007045764 -0.08852045
0000f0 28 1d ab bb 1f d7 8d 3d ff 8e 4b bd b7 25 bf bd
       -0.0052219816 0.06925797 -0.04969692 -0.093333654
000100 6e 92 90 3d 4b f8 2f 3b c1 42 b1 bd 7e de 28 bd
       0.07059179 0.0026850875 -0.086553104 -0.04122781
000110 18 96 af 3d 15 33 7d bd 4b 37 4f 3c 9b 43 a3 3d
       0.0857355 -0.061816294 0.01264746 0.07971879
000120 6d 45 63 3d 2f 8d 85 bd 00 e9 b0 bd 8e 03 b2 bc
       0.05548613 -0.06521069 -0.08638191 -0.02173021
000130 e3 9c 19 bc e8 72 ae 3d d8 c4 d2 bc 3a 79 f4 3c
       -0.009375784 0.085180104 -0.025728628 0.029842962
000140 ee af e8 3c 3d 08 8d bd 50 8a fa bc 1e a5 a8 bd
       0.028404202 -0.06886337 -0.03058353 -0.082346186
000150 0e ed 72 3c b0 6d b1 3d 47 04 cd bd 57 70 05 bc
       0.014827026 0.08663499 -0.100105815 -0.00814446
000160 d8 3b 69 bd 0c b5 b1 3d bf f7 c0 3d e0 0f 55 bd
       -0.056941837 0.0867711 0.09422254 -0.052017093
000170 3d 02 50 3d a2 e3 66 bb 7e 78 c3 bd e6 50 4b bd
       0.050783385 -0.0035230895 -0.095444664 -0.049637698
000180 49 aa 51 3d d7 ac b5 3d 5f 1f 14 3d 99 45 86 3c
       0.051187787 0.08870857 0.03616273 0.016390609
000190 ad b7 a4 3c 46 5d 12 bc 83 6a a5 3c cb 68 da 3b
       0.020107115 -0.008933371 0.02019239 0.0066653243
0001a0 b7 6b bf bd 0f b6 8a bd f7 e0 a3 3d 9c 36 9d bd
       -0.09346717 -0.06773006 0.08001893 -0.076764315
0001b0 1b c5 30 3d f6 76 a0 3d 5b 7e 32 ba d0 3e 5e bd
       0.043156724 0.0783519 -0.00068089896 -0.05425912
0001c0 39 5d d4 3c 98 68 a4 bd ed a8 34 3c 4f 7c d3 3d
       0.025923358 -0.08027762 0.011026603 0.10326444
0001d0 1c b5 48 bd d3 a5 b8 bd fc f3 96 3d 85 c5 9d bc
       -0.049000844 -0.090160035 0.07370755 -0.019259224
0001e0 05 40 86 3d 06 ab 25 bc 54 a4 a6 3d 2b 1f a0 bd
       0.065551795 -0.010111576 0.08136812 -0.07818445
0001f0 a9 d2 b1 bd 28 30 38 bc a0 02 6f 3d 60 5a ad 3d
       -0.08682758 -0.01124195 0.058352113 0.08464503
000200 2a 6c b4 bd 51 28 aa bd 86 26 7f 3d 88 02 68 3c
       -0.08809693 -0.08308471 0.0622926 0.01416076
000210 c6 f9 8f bd 76 17 cb bc 85 ac 5d 3d 12 c2 58 bd
       -0.070300624 -0.02479146 0.054119606 -0.052919455
000220 d1 bb e0 3c fa bd 6e 3d 9e 7a cb 3b b6 6b a8 bc
       0.027433308 0.058286645 0.0062096855 -0.020559173
000230 39 8d f9 3b 8f f8 b6 3d 69 fe d1 bc 7f 69 9f bd
       0.007615712 0.089341275 -0.025634008 -0.07783794
000240 24 0e 92 bd 9c 10 99 3d 43 95 d2 3a 51 ec 07 3d
       -0.07131603 0.07473871 0.0016066212 0.033184353
000250 98 8b 7f ba 96 35 80 bd 4e ac f4 3a ff 77 44 3d
       -0.0009748279 -0.06260221 0.0018667073 0.047966
000260 9a a5 c8 bd 5c 08 91 bc 7b ac a3 bd b0 67 8c 3d
       -0.09797211 -0.017704181 -0.079918824 0.06855714
000270 b6 3d 8f 3d b7 ad 1b bd 3c 96 74 3d 98 d6 71 3d
       0.06994192 -0.038007464 0.059713587 0.059042543
000280 06 fc 7d 3d e0 3e cc 3d b4 15 82 3d 6b 7d 61 bb
       0.062007926 0.0997293 0.06351796 -0.003440703
000290 06 df a0 bb f1 91 8d bd 88 4f 79 3c 2a 8b 95 3d
       -0.004909399 -0.06912602 0.015216716 0.07301934
0002a0 74 6e bb bc 63 cc fb bc 29 82 62 3c 50 f8 2e 3d
       -0.022879817 -0.030737108 0.013824978 0.042717278
0002b0 b5 08 87 bb 11 ef 1f 3a 31 d7 21 3d 60 e6 51 bd
       -0.004120911 0.00061009923 0.039511863 -0.051245093
0002c0 fb 26 9b 3c 6f 2d 54 3c d3 54 bf 3d 21 9d 56 3d
       0.018939486 0.012950285 0.09342351 0.052395944
0002d0 57 58 c8 bd 96 3e 7a bc 97 37 57 3d 37 2a 33 3d
       -0.097824745 -0.015273711 0.05254325 0.04374143
0002e0 d6 26 df bb d6 70 0b 3c 31 00 1a 3d 5f d4 a5 3b
       -0.0068100495 0.008510789 0.03759784 0.005060717
0002f0 b6 be 18 3d ea a9 c6 3d 71 1f d3 3c 98 59 f5 bb
       0.03729125 0.09700377 0.025771828 -0.007487487
000300 a4 c3 66 bc 94 44 80 3d dc 27 8f 3d 00 ed 24 bd
       -0.01408473 0.0626308 0.069900244 -0.040265083
000310 65 d0 65 3d ce 5c 84 3d b3 ac ca 3c f0 a6 aa bc
       0.056106944 0.064630136 0.024740553 -0.020831555
000320 28 5c d6 3d f3 72 2a bd 50 03 93 bd c4 80 a1 bc
       0.10466796 -0.04161353 -0.07178366 -0.01971472
000330 d0 dd bd 3d 60 81 99 bd c1 e0 cc 3d 41 96 be 3d
       0.09270823 -0.074953794 0.10003806 0.093060024
000340 4f 28 84 bd 19 cb 6e bd 30 20 5c bd 13 79 19 3d
       -0.06453001 -0.058299158 -0.053741634 0.03746898
000350 fb 56 36 bd 8f 3d 80 bd 7e f9 c3 3d f1 19 f7 bb
       -0.044516545 -0.06261741 0.09569071 -0.0075409343
000360 e2 45 35 3d 8a 2a 1e bd 6f f9 6c 3c b1 a2 8d 3d
       0.0442561 -0.038614787 0.0144637665 0.069157965
000370 94 08 a7 3d 94 91 d1 bd 56 fd 69 bc c6 16 08 bc
       0.08155933 -0.10232845 -0.014281591 -0.008306211
000380 6b e6 7a 3d 3a 2b 48 3d ff b3 8d 3d 2b 12 90 3c
       0.0612549 0.04886935 0.06919097 0.017586788
000390 b8 87 c6 3d 49 b0 bf bc 95 11 5c bd 90 f2 9a 3d
       0.09693855 -0.023399489 -0.053727705 0.075657964
0003a0 f3 25 86 bd f9 ce aa bc 2b d6 73 bd b3 4b 82 bc
       -0.06550207 -0.020850645 -0.05953042 -0.015905237
0003b0 b7 c1 b2 3d 95 2e c4 3d 62 ec f6 bb 0c 0b 62 3d
       0.087283544 0.09579197 -0.0075355032 0.055186316
0003c0 c8 df b0 bc 53 4e 64 3d ba b3 9a bb 57 9d 9f 3d
       -0.021591082 0.05573876 -0.004721132 0.07793682
0003d0 0f f6 ad 3d 32 9a 8e 3d 1b 6e 99 bd a2 e0 65 bd
       0.084941976 0.06963004 -0.07491704 -0.05612243
0003e0 f9 6c ac 3d 97 b3 82 bd 76 be 46 bc 47 78 bf bd
       0.084192224 -0.0638191 -0.01213037 -0.09349113
0003f0 88 09 86 ba a8 1a 90 bd f3 64 7e bd 58 2e 95 3d
       -0.0010226229 -0.07036334 -0.06210799 0.0728423

bias f4 [256]
000000 0b b4 36 bc 66 97 75 3d 6b ef 24 bd d5 a0 94 bd
       -0.011151324 0.059958838 -0.04026739 -0.07257239
000010 37 bb 82 3a 9a 12 86 3d bb 38 73 bd 40 9b b5 bc
       0.0009974007 0.06546517 -0.059380274 -0.022168756
000020 d3 bb 3f 3d f1 56 78 bd 4c f9 f6 bc 1a 1a a1 3c
       0.046809983 -0.06062979 -0.03014817 0.019665767
000030 72 ce 73 3d cf cf a9 3d 70 77 a7 3d 67 a8 b0 3c
       0.059523053 0.082915895 0.08177078 0.021564675
000040 41 5a de bc d9 ad 94 3d 54 a8 86 3c be 56 be 3d
       -0.027142646 0.07259721 0.016437687 0.092938885
000050 f0 de 61 3d 79 7d 82 bd cb 95 68 bd 00 9e 69 3c
       0.05514425 -0.06371588 -0.05678348 0.014258862
000060 a9 70 95 bd de 9d 65 bc 7e 05 4d 3d 9e a2 f0 3b
       -0.07296879 -0.014014689 0.050054066 0.007343604
000070 f2 52 a9 3d f2 2b 7e 3d f9 22 18 3d 55 95 b3 3d
       0.08267774 0.06205363 0.037142728 0.08768717
000080 dd 1a 24 bd a2 32 c6 bd a4 d7 a9 bb bd 68 0e 3d
       -0.04006468 -0.09677626 -0.005183177 0.034767855
000090 e2 d1 72 3c d5 0d d3 bb 47 34 7f bd c8 86 90 bd
       0.014820548 -0.006440858 -0.062305715 -0.070569575
0000a0 82 12 4d bc 3e 31 bf 3d a2 af d8 3d 14 9e f6 3c
       -0.01251662 0.09335564 0.10580374 0.030104674
0000b0 70 5a 0b bd dd 52 91 bd b9 3a aa bd d5 65 a5 3d
       -0.034021795 -0.07095883 -0.08311982 0.080760635
0000c0 56 9c 73 bc 25 3c 70 bd 4d f0 85 bd b7 81 a4 3d
       -0.014868816 -0.05865111 -0.06539974 0.08032554
0000d0 ff 31 b1 3d d2 d8 e1 bc 48 0e be bc c0 38 3d bd
       0.08652114 -0.027569208 -0.02320017 -0.0461967
0000e0 a6 4e 7e bd c0 ec f9 bc 23 8f 49 3d a0 5a 92 3c
       -0.062086724 -0.030508399 0.04920877 0.017865479
0000f0 11 2d c7 3c 38 4e 43 bd 1e 32 41 3c 79 a8 d6 3b
       0.024313482 -0.047682017 0.011791734 0.006550845
000100 c1 75 98 bd 4b 37 67 3d 0b 30 96 bd 12 95 f3 bc
       -0.07444335 0.056449216 -0.07333382 -0.029734168
000110 a8 d1 ab 3d 63 07 4d 3d 02 c6 62 bc bf e5 64 3c
       0.08389598 0.050055873 -0.013841154 0.013970791
000120 8f 27 81 bd 5f 5f 8a 3d 17 0c bb 3d 15 f9 ba bc
       -0.06306373 0.06756472 0.09133165 -0.02282385
000130 73 7f b3 bd 47 59 94 3d 2c d3 61 bd 97 2c ae bc
       -0.087645434 0.07243591 -0.05513303 -0.021261496
000140 14 74 02 3c 08 cd e7 bc ef 6d a1 bd b0 8c 35 3d
       0.0079622455 -0.028296009 -0.07882296 0.044323623
000150 dc cb 10 3c bd 94 93 3d 05 66 ba bd 6b 2f b5 3d
       0.008837666 0.07206104 -0.0910149 0.08846935
000160 c2 11 0a bd 81 45 6f 3d 6d bf 87 bd 9d 9f 5d bc
       -0.03370834 0.058415893 -0.066283084 -0.013526824
000170 a5 27 58 bd da f3 b6 3d 8f 41 8d bc dc da 01 3d
       -0.052772183 0.0893323 -0.017243175 0.03170286
000180 34 27 51 3a aa 15 af bd 43 6e 3c bd 4d eb b0 bc
       0.0007978559 -0.08549054 -0.04600359 -0.021596575
000190 ab 1e 21 bd 33 21 6d bd 03 57 35 3d 40 3d 95 3d
       -0.039335888 -0.05789299 0.044272434 0.07287073
0001a0 53 98 f4 3c ed 02 81 bd 1a 58 87 3d 51 47 73 3c
       0.02985779 -0.06299386 0.06608601 0.014848546
0001b0 13 85 c8 3d ec dc 40 bd 81 c4 54 3b 98 8c 94 bb
       0.09791007 -0.047085688 0.0032465758 -0.0045333616
0001c0 8c c3 5a bc 05 b3 bb 3d 20 c0 b8 3c 0d 4c 1b 3d
       -0.013352286 0.09165005 0.02255255 0.037914325
0001d0 95 c1 66 3d e1 d8 84 bd 4a 85 16 3d 0f 11 5c bd
       0.056336958 -0.06486679 0.036748208 -0.053727206
0001e0 cc 11 20 bd f8 f1 80 bd 21 49 9d bd ac 2f 5c bd
       -0.039079472 -0.06296152 -0.07679964 -0.0537564
0001f0 11 74 33 3c b6 da ae 3c d9 45 7e 3d 6a 9d fa 3b
       0.010952965 0.021344524 0.06207833 0.0076481597
000200 11 8d e7 3c d6 11 85 3d b0 28 00 3d 4c 77 d2 bd
       0.028265508 0.064975426 0.031288803 -0.1027666
000210 71 fe 90 3c 4f a0 23 bd 10 7c b7 bd 3a 0d e1 bc
       0.017699452 -0.039947804 -0.0895921 -0.027472127
000220 ce 58 22 bc fa 0e 8e bd c2 8e 8c bd 5c 71 2b bd
       -0.009908868 -0.0693645 -0.068631664 -0.041856155
000230 5e 39 34 3d d0 a2 ae 3d b1 5f 69 3c 6d 0b 94 3d
       0.044000022 0.08527148 0.014244006 0.07228742
000240 98 1e ac 3d d2 0a 3d bd d1 34 aa 3c 58 61 a7 3c
       0.08404273 -0.046152897 0.020777138 0.02043216
000250 73 48 a0 3d 8a 50 36 bc 1c 95 a3 3d 51 fd f3 3c
       0.078263186 -0.0111276 0.07987425 0.029783877
000260 c1 db b6 bd 5f 5f 61 bc 1a 30 70 3d 08 98 97 bd
       -0.089286335 -0.013755648 0.058639623 -0.074020445
000270 ec f1 de 3c 7f fe a9 3d d7 75 6b bd 81 00 16 bd
       0.027214967 0.083004944 -0.057485428 -0.036621574
000280 8f 45 1b 3c 29 9c 17 bc 03 b3 b7 3d 62 35 91 3d
       0.009477033 -0.00925354 0.08969691 0.0709026
000290 e5 7b d0 bc 45 0d f5 bc c5 60 38 bd 90 48 8e 3d
       -0.025449703 -0.029913554 -0.04501416 0.06947434
0002a0 15 c9 36 3d b2 ab 68 bd ba 4c 1e 3c 80 2e d8 bc
       0.04462536 -0.056804366 0.009661848 -0.02638936
0002b0 5b 8b bd bd 7c bc 41 3d 50 32 8e 3b 81 4e ca 3d
       -0.092550956 0.047298893 0.004339494 0.09878255
0002c0 2d a2 9c 3d 62 14 a6 bc 0d 4d 98 bc b2 45 89 bc
       0.0764812 -0.020273391 -0.018591428 -0.016756866
0002d0 2d 34 a9 3d 3f 30 be bd 34 80 ac 3d 0a d2 a5 bc
       0.08261905 -0.09286546 0.0842289 -0.020241756
0002e0 e3 22 a2 3d 53 54 a8 bd 6b dc a3 3d 2c 7c 0c bd
       0.0791681 -0.082192086 0.08001026 -0.034298107
0002f0 43 34 4a 3d a3 b8 77 bd 9a 4c f2 ba 97 da fa bc
       0.049366247 -0.060478818 -0.0018485964 -0.03062181
000300 a3 b5 2c bd 6f 6d 81 bd 96 45 a6 bd 66 33 12 bd
       -0.04216541 -0.06319701 -0.08118741 -0.03569355
000310 82 f2 91 bd 0a d5 c7 3d 73 a1 46 bd 45 ef 95 3d
       -0.07126333 0.09757431 -0.048493814 0.07321028
000320 09 e0 0a 3d 00 3a 34 bd e6 d3 6b 3c dd 50 ca 3d
       0.033905063 -0.044000626 0.014393782 0.09878705
000330 56 6c 06 bb ac b6 96 3c 3b 63 b8 bd c8 93 4a bd
       -0.002051135 0.018397652 -0.09003302 -0.04945734
000340 2f 14 37 bb a1 c8 7d bd c1 7c b6 bd 1a 55 ae bd
       -0.0027935614 -0.061958913 -0.08910514 -0.085123256
000350 ca 74 a2 3d 45 dd 56 bd cc 2d ff 3c a6 8e d9 bc
       0.07932432 -0.052457113 0.031149767 -0.026557278
000360 11 7b b4 bd 57 cf af bc 92 b2 a6 3d 0e 7d 6c bd
       -0.088125356 -0.021461172 0.08139528 -0.05773645
000370 b5 e4 d5 bd 70 9d 60 3d 59 9c a9 3d b9 4a 80 bd
       -0.10444013 0.054837644 0.08281774 -0.06264252
000380 df dd c1 3c ac 76 8f 3d 5a 03 82 bc c9 63 6a 37
       0.023665367 0.07005057 -0.015870739 1.397072e-05
000390 f4 cb 01 3a 46 2c 04 3b 03 8d ff 3b c2 95 49 3c
       0.0004951351 0.002016799 0.0077987923 0.012303771
0003a0 03 7f b2 3d 45 b3 c7 bc bd 8e b1 3d 90 a0 64 bc
       0.08715632 -0.024377475 0.08669803 -0.013954297
0003b0 66 d2 b8 3d 5d 7a b6 bd 08 e7 cb bd 7f 38 88 bd
       0.09024505 -0.08910058 -0.09956175 -0.06651401
0003c0 b7 99 8e bd 23 12 a0 bd b4 91 af bd 6c c7 15 3b
       -0.069629125 -0.07815959 -0.085727125 0.002285446
0003d0 2c 15 07 3d 83 3f b6 bb bf 55 3b bd cd 09 03 bc
       0.032979175 -0.0055617704 -0.04573607 -0.007997942
0003e0 41 33 30 3d af ec a1 3d de f4 4c 3d da 03 37 bd
       0.04301763 0.07906472 0.05003821 -0.044681408
0003f0 19 40 16 bd f0 bc c1 3d 0e a6 05 3b db 67 45 3d
       -0.036682222 0.09459865 0.0020393166 0.048194747

weight f4 [256]
000000 a4 4f 80 3f 59 a2 7f 3f 2f 7e 7f 3f 8b 0a 80 3f
       1.0024304 0.998571 0.99801916 1.0003217
000010 63 e2 7f 3f 87 1d 80 3f e6 13 80 3f eb 0b 80 3f
       0.99954814 1.0009011 1.0006073 1.0003637
000020 6e a2 7f 3f 0f a3 80 3f ca 16 7f 3f 64 c0 7e 3f
       0.99857223 1.0049762 0.9964415 0.99512315
000030 3f 16 80 3f 68 a0 7f 3f 5a 6d 7f 3f 19 a0 7f 3f
       1.0006789 0.99854136 0.9977623 0.99853665
000040 06 73 80 3f d2 43 80 3f 16 51 7f 3f 80 4f 7f 3f
       1.0035102 1.0020697 0.997331 0.9973068
000050 c1 34 80 3f e0 c4 7f 3f ff 32 80 3f 47 8f 80 3f
       1.0016099 0.9990978 1.0015563 1.0043725
000060 aa 5b 7f 3f 9c 70 80 3f f7 e5 7f 3f dc e2 7f 3f
       0.99749243 1.0034366 0.99960274 0.99955535
000070 03 08 7f 3f 23 96 7f 3f 5a a3 80 3f ff 4e 7f 3f
       0.996216 0.99838465 1.0049851 0.99729913
000080 29 35 80 3f 73 97 80 3f c0 1d 7f 3f 87 06 80 3f
       1.0016223 1.0046219 0.9965477 1.0001992
000090 07 8b 7f 3f 1d 1b 7f 3f a0 08 80 3f a5 3e 80 3f
       0.99821514 0.99650747 1.0002632 1.0019118
0000a0 f6 60 80 3f fe 41 80 3f 88 5f 7f 3f ee c7 7f 3f
       1.002959 1.0020139 0.99755144 0.99914443
0000b0 7e 2b 80 3f 3b 60 7f 3f 7a 11 80 3f 4d af 80 3f
       1.0013273 0.9975621 1.0005333 1.0053498
0000c0 b4 58 7f 3f 23 4e 7f 3f b9 52 80 3f a1 33 7f 3f
       0.99744725 0.997286 1.0025245 0.99688154
0000d0 50 c2 7f 3f af 09 80 3f 6d ad 7f 3f 9e d0 7f 3f
       0.9990587 1.0002955 0.99874 0.999277
0000e0 18 97 80 3f 8e 4d 80 3f 4d 82 80 3f 9b 18 80 3f
       1.004611 1.0023668 1.0039765 1.0007509
0000f0 a3 0d 80 3f 31 21 80 3f 14 c7 7f 3f 2a d1 80 3f
       1.0004162 1.0010129 0.99913144 1.0063832
000100 48 58 80 3f 16 56 7e 3f b7 ee 7f 3f 3e 1d 80 3f
       1.0026941 0.99350107 0.99973625 1.0008924
000110 4e 0f 80 3f a9 b1 7f 3f f2 55 80 3f 19 cf 7f 3f
       1.0004671 0.9988046 1.0026228 0.9992538
000120 98 b2 7f 3f 4f 18 80 3f 61 0d 80 3f ba ba 7f 3f
       0.9988189 1.0007418 1.0004083 0.998943
000130 59 51 7f 3f ad cc 7f 3f 8d 1d 7f 3f a1 ae 7f 3f
       0.997335 0.99921685 0.99654466 0.9987584
000140 93 c3 7f 3f 6d 2f 80 3f 62 60 80 3f 6e a3 7f 3f
       0.999078 1.0014473 1.0029414 0.9985875
000150 d5 9f 7f 3f 4d bb 7f 3f 64 76 7f 3f f4 62 80 3f
       0.9985326 0.99895173 0.99790025 1.0030198
000160 37 a4 7f 3f 05 cd 80 3f 5d 38 80 3f 18 f1 7e 3f
       0.99859947 1.0062567 1.0017201 0.9958663
000170 37 a4 7f 3f ad e6 7f 3f 2d 1f 80 3f a4 b9 7f 3f
       0.99859947 0.9996136 1.0009514 0.9989264
000180 7c 8c 80 3f e2 d0 7e 3f a4 a7 80 3f c5 1e 80 3f
       1.0042872 0.9953748 1.005116 1.000939
000190 99 28 80 3f 6d 83 7f 3f 79 cf 7f 3f 18 82 80 3f
       1.001239 0.99809915 0.99925953 1.0039701
0001a0 1d be 7f 3f 7a 42 80 3f 34 95 7f 3f 57 fd 7f 3f
       0.99899465 1.0020287 0.9983704 0.9999594
0001b0 9e c9 7f 3f 6d 06 80 3f dd 7d 7f 3f 89 19 80 3f
       0.9991702 1.0001961 0.9980143 1.0007793
0001c0 e5 f1 7f 3f fe e1 7f 3f 83 35 80 3f 53 e2 80 3f
       0.99978477 0.9995421 1.001633 1.0069069
0001d0 30 44 80 3f 67 f7 7f 3f 98 41 7f 3f 35 34 7f 3f
       1.0020809 0.9998688 0.99709463 0.99689037
0001e0 67 94 7f 3f d7 1f 7f 3f 32 c2 7f 3f ea 67 7f 3f
       0.9983582 0.9965796 0.99905694 0.99767935
0001f0 1f 13 7f 3f e6 7d 7f 3f d1 50 7f 3f 00 10 80 3f
       0.9963855 0.9980148 0.9973269 1.0004883
000200 44 22 80 3f f8 77 80 3f b3 d1 7f 3f f0 42 7f 3f
       1.0010457 1.0036612 0.9992935 0.99711514
000210 23 14 80 3f 5a 9d 80 3f e4 fe 7f 3f a5 eb 7f 3f
       1.0006145 1.004802 0.9999831 0.9996894
000220 e3 f0 7e 3f 33 10 80 3f 49 40 7f 3f 87 d0 7f 3f
       0.99586314 1.0004944 0.99707466 0.9992756
000230 fa 11 80 3f 14 3a 80 3f 35 8d 80 3f 25 79 7f 3f
       1.0005486 1.0017724 1.0043093 0.99794227
000240 6d 7c 7f 3f b6 e3 7f 3f 03 7e 7f 3f ec 13 80 3f
       0.99799234 0.99956834 0.99801654 1.000608
000250 09 59 7f 3f 2c 78 80 3f 7d 09 80 3f 79 7d 7f 3f
       0.9974523 1.0036674 1.0002896 0.9980083
000260 4c 0e 80 3f 80 94 7f 3f ef 79 80 3f 69 13 80 3f
       1.0004363 0.9983597 1.0037211 1.0005924
000270 2d 3d 80 3f 1e 17 80 3f 63 27 80 3f b9 95 7f 3f
       1.0018669 1.0007055 1.001202 0.99837834
000280 71 84 7f 3f bc 37 7f 3f 51 f7 7f 3f 0f fa 7f 3f
       0.99811465 0.9969442 0.9998675 0.99990934
000290 fa 10 80 3f 1e 1d 7f 3f 2d 37 80 3f 58 98 7f 3f
       1.0005181 0.99653804 1.0016838 0.99841833
0002a0 b4 c3 7f 3f ab 0f 80 3f 1b 93 7f 3f 80 1d 80 3f
       0.99907994 1.0004781 0.9983384 1.0009003
0002b0 65 c6 80 3f dd 09 80 3f 45 b1 7f 3f be df 7f 3f
       1.0060545 1.000301 0.99879867 0.9995078
0002c0 d5 7c 7f 3f 55 2f 80 3f dc ea 7f 3f 91 54 80 3f
       0.99799854 1.0014445 0.9996774 1.0025808
0002d0 69 1e 80 3f c2 56 7f 3f e5 1e 80 3f fe 2a 80 3f
       1.000928 0.99741757 1.0009428 1.001312
0002e0 eb 70 7f 3f 96 96 7f 3f 37 9f 7f 3f a7 1e 80 3f
       0.99781674 0.9983915 0.9985232 1.0009354
0002f0 22 1e 80 3f b8 67 80 3f 13 98 7f 3f 5b 28 80 3f
       1.0009196 1.0031652 0.9984142 1.0012316
000300 bc d0 7f 3f d1 f1 7f 3f c4 33 7f 3f 7d 47 7f 3f
       0.9992788 0.9997836 0.99688363 0.9971846
000310 16 7c 7f 3f 03 b6 7f 3f 79 48 7f 3f 5d 65 80 3f
       0.99798715 0.998871 0.9971996 1.0030934
000320 2a 03 80 3f ca d6 7f 3f 5f c8 80 3f 5a 71 80 3f
       1.0000966 0.9993712 1.0061148 1.0034592
000330 2a fe 7f 3f 60 fe 7e 3f 48 0e 80 3f dd 08 80 3f
       0.999972 0.99606895 1.0004358 1.0002705
000340 29 02 80 3f 82 de 7f 3f bb fd 7f 3f e5 2f 80 3f
       1.0000659 0.99948895 0.99996537 1.0014616
000350 0f 20 80 3f f8 81 7f 3f 98 57 7f 3f f3 31 7f 3f
       1.0009784 0.9980769 0.9974303 0.9968559
000360 6c c5 7f 3f a6 4a 7f 3f b2 c6 80 3f fb 2e 7f 3f
       0.99910617 0.9972328 1.0060637 0.9968106
000370 54 30 80 3f e9 2d 80 3f f9 0d 7f 3f 40 4c 80 3f
       1.0014749 1.0014011 0.99630696 1.002327
000380 5d 82 7f 3f e0 69 7f 3f 90 90 7f 3f 23 21 80 3f
       0.99808294 0.9977093 0.9982996 1.0010113
000390 db bf 7f 3f 9f ac 7f 3f 08 49 80 3f 1f 91 7f 3f
       0.99902123 0.99872774 1.0022287 0.9983081
0003a0 23 ce 7f 3f 57 67 81 3f 08 9b 7f 3f 12 60 80 3f
       0.99923915 1.0109662 0.99845934 1.0029318
0003b0 ab da 7f 3f 5a c1 7e 3f 9c 17 7f 3f 04 11 80 3f
       0.99943036 0.9951378 0.996454 1.0005193
0003c0 c8 60 80 3f 15 05 80 3f ba 09 80 3f 7d 54 80 3f
       1.0029535 1.0001551 1.0002968 1.0025784
0003d0 e9 d2 7f 3f e3 8d 7f 3f 12 f0 7f 3f 4f 0e 80 3f
       0.999312 0.99825877 0.99975693 1.0004367
0003e0 26 50 80 3f 83 22 80 3f 88 42 80 3f e1 53 80 3f
       1.0024459 1.0010532 1.0020304 1.0025598
0003f0 a0 0f 7f 3f 01 96 80 3f b6 7b 7f 3f 84 8c 7f 3f
       0.99633217 1.0045778 0.9979814 0.99823785

bias f4 [256]
000000 b7 df a8 ba 3b c3 71 3a d7 2b b0 ba 75 08 49 3b
       -0.0012884055 0.0009222512 -0.00134408 0.0030675207
000010 31 a2 a3 3b a7 b0 85 bb 71 16 ac 3b 65 d1 24 bb
       0.0049937 -0.0040798965 0.0052516987 -0.0025149223
000020 c6 6e bb 3a 42 46 24 bb 9e 5c 82 3b e5 3f f4 39
       0.0014299981 -0.002506629 0.003978326 0.00046586912
000030 a4 26 4d 3b f6 c3 15 3b 25 50 b6 b9 d6 32 8e bb
       0.003130355 0.0022852398 -0.00034773457 -0.004339556
000040 10 96 40 bb e8 52 d4 3b 4c 89 58 3b ea 12 27 b9
       -0.002938632 0.0064796098 0.003304082 -0.00015933407
000050 99 9f 76 bb 3c cb 9a ba 54 dc c0 3a d1 4a 60 bb
       -0.0037631749 -0.0011809836 0.00147141 -0.0034224282
000060 4c 05 52 bb 04 07 c0 ba 61 ab 26 b8 9f 55 0f 39
       -0.0032046614 -0.0014650528 -3.9737093e-05 0.00013669439
000070 f8 69 c9 3a af 3e b1 ba e0 c5 21 3a 9e ea 2f 3b
       0.0015366664 -0.001352271 0.0006171148 0.0026842724
000080 ca 2a 26 bb b0 57 63 3a 9d d7 a6 ba f8 7a 31 b8
       -0.0025355094 0.0008672429 -0.0012729053 -4.2314612e-05
000090 68 43 2b bb fd 72 58 bb 34 75 ac 3a 83 31 0a 3b
       -0.0026132707 -0.0033027523 0.0013157488 0.002108664
0000a0 86 e0 d0 bb 8a ca b9 bb 0e 1b f3 b9 9e 48 3d bb
       -0.0063744215 -0.0056698965 -0.0004636873 -0.0028882395
0000b0 c9 23 62 3b c4 d7 95 3b 6f 25 9f ba 1c 6f 3f b8
       0.0034506193 0.0045728404 -0.0012141893 -4.5641427e-05
0000c0 13 7d b1 bb df ff 02 3a f4 0c f8 39 9a 86 42 3a
       -0.0054165213 0.0004997234 0.00047311897 0.000742057
0000d0 2c 19 b4 3a c3 40 86 b9 ad 10 09 39 16 fd 69 3b
       0.0013740412 -0.00025606723 0.0001307155 0.003570383
0000e0 41 81 82 3b 8c 67 5a bb f8 c8 f0 b9 da 5f f5 38
       0.0039826934 -0.003332588 -0.000459261 0.00011700364
0000f0 3b c7 f2 3a 7f f6 47 3b 41 18 8e 3a 0e 22 87 bb
       0.001852251 0.0030511913 0.0010840968 -0.0041239327
000100 7d 82 54 bb 10 90 0e bb 86 5c c8 3a 85 a9 e2 ba
       -0.003242641 -0.0021753348 0.0015286363 -0.0017292952
000110 da 90 70 ba be 01 66 3a fe cc d4 3b 96 9c 50 bb
       -0.0009176858 0.00087740633 0.0064941635 -0.0031831614
000120 ee 32 b6 ba 53 a1 92 3b f9 86 13 3b 51 00 3c ba
       -0.0013900676 0.0044747978 0.002251087 -0.0007171678
000130 28 50 b8 36 18 bf 41 bb a2 47 34 3b e9 6f 12 bb
       5.4929587e-06 -0.0029563364 0.0027508517 -0.0022344536
000140 27 d3 8b 3a 7a b2 be 3a 7f 21 86 3b 7c df 84 bb
       0.0010667787 0.001454904 0.0040933485 -0.0040549617
000150 c9 bb 81 bb 62 ad 23 bb ee 58 b7 3a f0 78 90 bb
       -0.0039591533 -0.002497517 0.0013988295 -0.004408948
000160 2b 0f c0 b9 9d 4f e9 39 db 61 06 3a 47 e5 7d 3a
       -0.00036632395 0.0004450054 0.0005126276 0.0009685349
000170 3c 9a a9 3b fe da c6 bb 69 7e 2c ba ec 1f b7 b9
       0.005175857 -0.0060685864 -0.0006580116 -0.00034928264
000180 19 c6 33 3b 12 ea a9 ba 98 7b bc bb e3 79 d3 3a
       0.0027431308 -0.0012963435 -0.005752038 0.0016134348
000190 84 e3 28 bb 7b 3f dd 3a 41 1d 84 ba 58 2b 4c bb
       -0.0025770376 0.001687988 -0.0010079519 -0.0031153765
0001a0 ec 33 03 b9 8f 21 cc ba 0e d6 ae 3b 1a aa 90 3a
       -0.00012512476 -0.0015573966 0.005335576 0.0011037022
0001b0 e5 e3 29 bb a5 69 ef 39 6d ef 81 38 67 47 95 39
       -0.002592319 0.00045664344 6.195796e-05 0.00028472694
0001c0 46 05 dc 3a 91 e6 6c bb 13 34 22 bb 4f e3 bb 3b
       0.001678624 -0.003614817 -0.0024750277 0.0057338844
0001d0 41 c7 a9 bb db 2f 43 3a e0 ec 4b 3b d2 37 84 3b
       -0.0051812236 0.00074457907 0.003111653 0.0040349746
0001e0 cd b9 0d 3a b5 cc 8a 3b 69 02 cd 3a 19 06 13 3b
       0.00054064096 0.0042358288 0.0015640977 0.0022434054
0001f0 22 e0 4b 3b a9 72 ba ba 34 31 10 ba 5b 0f 2c bb
       0.0031108935 -0.0014224845 -0.0005500496 -0.002625427
000200 1f 76 0f 3b f9 3a 19 3b f8 6d 73 3a cc 90 71 3b
       0.0021890474 0.0023381098 0.0009286101 0.0036859987
000210 b3 27 5f ba c2 62 e8 ba 09 4f 24 3b 5a 01 a1 3a
       -0.00085126905 -0.0017729627 0.0025071523 0.0012283728
000220 da 33 2e 3a fb 3b b5 3b ee a5 93 bb fd 2a 15 3b
       0.00066453 0.005530832 -0.0045058643 0.0022761219
000230 9c 53 84 3a 99 97 9a 3a 62 a0 2c bb c0 8b b5 ba
       0.0010095718 0.0011794447 -0.0026340713 -0.0013850853
000240 ed e6 7a bb 76 6f 60 b8 c0 c1 47 ba c6 80 82 3b
       -0.0038284615 -5.3509568e-05 -0.00076201186 0.003982636
000250 3f d3 9e 3a 53 dd ff 3a 2f 67 73 3b fc 57 81 3a
       0.00121174 0.0019520916 0.003714036 0.000986814
000260 56 34 b6 ba 24 a2 8b 3b eb c3 53 bb 58 05 38 3a
       -0.0013901095 0.004261272 -0.003231282 0.0007019839
000270 38 6b 5c bb 49 a8 b3 bb 24 09 be 3b e7 7c 14 3b
       -0.0033633243 -0.0054827076 0.0057994295 0.0022657455
000280 d4 d9 95 3a 4b df de ba cb 06 72 3b 89 d9 3f ba
       0.0011432716 -0.0017003802 0.0036930318 -0.0007318487
000290 3b 11 45 3b 6f 1b 8b bb 08 90 34 3b 88 87 9f 3b
       0.0030070085 -0.0042452137 0.002755167 0.0048684515
0002a0 84 15 45 ba af 90 5a 39 67 33 23 ba 83 9e 4c 3a
       -0.00075181597 0.00020843999 -0.0006225616 0.00078056025
0002b0 c4 4e a6 39 b9 65 40 b9 b6 d1 d3 ba 6e 69 6e bb
       0.00031720672 -0.00018348442 -0.0016160521 -0.003637876
0002c0 b2 9b 26 ba d5 2e ac 3a 4f ae 0b ba 77 dd 36 bb
       -0.0006355598 0.0013136516 -0.0005328403 -0.0027903
0002d0 1b 7c b7 ba 59 d3 fc 3a bc 2d a3 3a 06 33 5f 3a
       -0.0013998778 0.0019289061 0.0012449543 0.0008514378
0002e0 6c ff e2 b8 af 9c 13 ba 5e 92 4b 3b 4a c2 c7 ba
       -0.00010824096 -0.00056309527 0.0031062583 -0.0015240398
0002f0 96 bf 85 3b 1c 33 18 3a 80 ae 85 ba 5e 71 ab bb
       0.0040816767 0.0005805956 -0.00101991 -0.0052320203
000300 54 9c 1f bb 5a b8 1e 3b e4 9f e9 ba d4 03 8e ba
       -0.0024354653 0.0024218769 -0.001782414 -0.0010834881
000310 dd 40 06 bb 5f fb 32 ba d8 94 dc 3b 28 30 14 ba
       -0.002048544 -0.00068276183 0.0067316107 -0.0005652928
000320 e6 a8 65 bb 5e 7b 70 3b c2 bc 4d bb ef ce 79 3b
       -0.0035043298 0.0036694626 -0.0031393026 0.0038117727
000330 59 ed 62 3b 5a 28 1e bb 77 03 0d 3c 36 c8 98 bb
       0.0034626334 -0.0024132938 0.008606783 -0.004662539
000340 bc 8f 03 3b 1b a6 d1 3b 23 20 cb 3a 12 eb a3 ba
       0.0020074686 0.006397975 0.0015497248 -0.001250597
000350 be 67 19 bb 08 fe 92 bb dd 75 d5 ba 46 11 09 39
       -0.0023407782 -0.0044858493 -0.0016285736 0.00013071773
000360 44 bd dc b8 dd 40 1a 3b f6 9f 9b bb 80 d1 c2 3a
       -0.00010525671 0.0023537197 -0.0047492934 0.0014863461
000370 15 f5 dd 3a 0c b9 c2 bb c5 b7 7d 3b 6c 37 33 3b
       0.0016934002 -0.0059424695 0.0038714272 0.0027346266
000380 23 30 50 bb 68 8c ca bb 7e e4 56 3a 4e e2 ac b9
       -0.0031766973 -0.0061812885 0.00081975 -0.00032975007
000390 4c 83 33 3b 42 52 e5 3b 81 8a ab 3b 54 34 42 3a
       0.0027391491 0.0069983313 0.005235017 0.000740831
0003a0 fa 62 90 37 23 70 2b 3b ee 7e de 3a 87 9e 38 ba
       1.7212227e-05 0.0026159368 0.0016975084 -0.00070426654
0003b0 05 c4 7e 38 57 ab db ba 22 7e c2 3b dc d2 82 3a
       6.0740877e-05 -0.0016759437 0.0059354464 0.0009981054
0003c0 28 ce dd ba 6f 4b 80 bb e2 70 02 bb 1c 50 9d bb
       -0.0016922401 -0.0039152424 -0.001990371 -0.0048008095
0003d0 18 96 7c 39 7c 78 89 3b ce 2e 2c 3b f4 98 e1 3a
       0.00024088507 0.004195271 0.0026273015 0.0017211721
0003e0 8d d7 01 3c 2d eb 41 ba ed 90 a8 39 22 a1 15 3b
       0.0079249265 -0.00073974096 0.00032151435 0.0022831638
0003f0 c7 73 14 3b ac 49 67 3b 99 3b 19 39 4a 7f 0c 3b
       0.0022652016 0.0035291715 0.00014613419 0.0021438175
