statedicts/torchscript_pl_db_analytical_db_n_b-3_n_s-9_n_m-3_T0_n_t-120000_b1_seed_0.pt (torch, 228777 bytes, 29 tensors)

weight f4 [13]
000000 c1 5b 08 3f 3c e5 c9 3f 2e eb 39 3f 31 af 4f 3f
       0.53265005 1.5773082 0.7262448 0.81126696
000010 2a 14 82 3f f5 05 bf 3f 8b 9e 4e 3f 33 14 6b 3f
       1.0162404 1.4923693 0.8071067 0.91827697
000020 0e f0 6c 3f 04 a7 90 3f 5f 95 33 3f ce 77 4f 3f
       0.92553794 1.1300969 0.701498 0.8104218
000030 f5 81 36 3f
       0.7129205

bias f4 [13]
000000 6f b0 85 3d 53 d7 ca be 1c f9 0e 3e 93 b0 ee 3c
       0.06527793 -0.39617404 0.13962215 0.029136932
000010 7e 1c 46 3e 88 3b e4 be 6c 54 81 3b 3c 10 a9 3b
       0.19346806 -0.4457667 0.0039468314 0.005159406
000020 b6 b7 4c bc 65 92 ba bd 81 ef 8b 3c ca d9 a5 ba
       -0.012494972 -0.09109954 0.017081978 -0.0012653407
000030 71 76 ca 3c
       0.02471468

running_mean f4 [13]
000000 7d e8 c8 3f 76 93 6c 3d 03 00 32 40 19 dd 37 40
       1.569595 0.057757817 2.7812507 2.8728697
000010 ac 36 8b 3e 59 99 6c 3d 63 fc 31 40 b6 b1 89 3e
       0.2719015 0.05776343 2.7810295 0.26893395
000020 e7 a9 37 40 e8 d7 27 3e 87 1f 17 40 ad 1c f9 3e
       2.869745 0.16390955 2.3612993 0.4865469
000030 07 10 31 40
       2.7666032

running_var f4 [13]
000000 a7 76 86 3e fd 63 80 36 76 e1 93 3c a7 09 5b 3c
       0.262624 3.8263374e-06 0.018051844 0.0133690005
000010 0d 05 7b 3c ea 62 80 36 59 d7 93 3c 05 0d 5b 3c
       0.015321028 3.8262124e-06 0.018047022 0.013369803
000020 ac 86 7a 3c d8 e1 27 38 da 1c ed 3d 81 d4 0e 3d
       0.015290897 4.0026236e-05 0.115777686 0.03487063
000030 99 fc 01 3d
       0.031735037

weight f4 [96, 13]
000000 b1 8e 9b 3d 66 b4 13 be 69 f6 50 be 1c 81 74 ba
       0.075955756 -0.14424285 -0.20406498 -0.00093271
000010 69 15 25 3e 3a 41 ff bd ad 32 54 bd 19 53 53 3d
       0.16121449 -0.12463613 -0.05180614 0.05159292
000020 19 1a 5a be 06 6f 63 be bb 4e a4 bd 4b 46 f6 bd
       -0.21299018 -0.22210321 -0.08022829 -0.12025126
000030 17 10 2c 3e a5 02 b4 3d 7b dd 12 be 52 aa 9c ba
       0.16803013 0.08789567 -0.143423 -0.0011952615
000040 10 ad 74 3d 2d 9a 0d 3e 85 6b b0 ba 32 c5 88 be
       0.059735358 0.13828345 -0.0013459778 -0.26712948
000050 82 27 5c be 76 1b 00 3e 8d 3e 83 3e 4d 91 ef 3c
       -0.21499446 0.12510476 0.2563366 0.02924409
000060 e3 ca 4e be 9a 7b 8d bc 6c c1 dd bc 73 12 76 3d
       -0.20194583 -0.017270852 -0.02706977 0.06007619
000070 f2 4b b3 3c 46 0d 82 be 9a 62 46 bd 6c 4f 34 bd
       0.0218868 -0.25400752 -0.048433878 -0.044021055
000080 52 ee 36 ba 33 9f 5f 3d 93 ab 7e 3e 50 49 90 3e
       -0.00069782615 0.054595184 0.24870138 0.28180933
000090 60 b0 c1 3d 1c 72 9a 3d 16 fc 2c be a5 a8 34 3e
       0.09457469 0.07541296 -0.16893038 0.17642458
0000a0 bc a2 1d be 7c 2b 7b bc 7a f8 31 be fc f8 41 3e
       -0.1539411 -0.015330192 -0.17379943 0.18942636
0000b0 3e 1b 84 3d 34 25 70 3c 3c fe 97 3e c0 c0 66 be
       0.064505085 0.014657307 0.29686153 -0.22534466
0000c0 5d dd e2 3d 26 ae c5 bd 4e 8c 4c 3d 4f 5a 07 3e
       0.11077378 -0.09652357 0.049938492 0.13218044
0000d0 ba be 6c 3e 79 cd 2a bc d7 ec 4f 3e 8d 65 02 3e
       0.23119631 -0.010424965 0.20305191 0.12734051
0000e0 3c 15 20 3e 41 ce 3b be 42 a9 94 bd 73 ea 10 be
       0.156331 -0.18340398 -0.07258846 -0.14151935
0000f0 f2 4d f6 bd bf fa 98 be f0 a5 75 3e 9a f7 49 3e
       -0.12026586 -0.29878804 0.23989081 0.19723359
000100 cb 8f 81 bc 73 c7 63 3d 00 52 90 be 01 f1 c5 3d
       -0.015815636 0.05561013 -0.2818756 0.096651085
000110 e1 2a 87 3e 1e 4b 6d 3d 8f 18 1c bd 55 6b 59 3d
       0.26399902 0.057932965 -0.03810936 0.053080875
000120 00 6d a3 bb 0e 2d 0f be a8 cb 97 bc 42 d8 1b 3e
       -0.004987359 -0.13982031 -0.018529728 0.15219215
000130 cc 86 db bd 61 de 57 3c 88 64 38 3e 62 35 26 3e
       -0.1071907 0.013175578 0.180071 0.16231301
000140 e3 e2 12 be 58 b2 01 be f8 c3 dc bd e7 61 e7 3d
       -0.14344363 -0.12665689 -0.107795656 0.1129797
000150 eb ee f9 bd d0 dd 9d 3d 12 b0 72 3e aa ea f9 3c
       -0.12203773 0.07708323 0.23699978 0.030507404
000160 84 b7 61 be d5 70 47 bc 70 df 40 3e 5e bf a9 bd
       -0.22042662 -0.012172897 0.18835235 -0.082884535
000170 f5 eb bb bd 9e 33 4f 3e 64 e2 fb bd 99 3d 2c be
       -0.091758646 0.20234534 -0.1229904 -0.16820373
000180 23 99 86 3e 1f 57 12 be 36 47 c8 3d 5c 73 d6 3d
       0.2628871 -0.14291047 0.097792074 0.10471222
000190 fc 1b 9a 3e 9f 02 c3 3d d7 56 91 3d 30 e7 48 3c
       0.30099475 0.09521984 0.070966415 0.012262151
0001a0 f8 03 80 be df 56 50 bd 71 d0 f1 bd 90 63 22 3e
       -0.25003028 -0.050864097 -0.11807335 0.15858293
0001b0 0f 51 b5 bc 46 b8 38 3e 10 9a ca 3d 8c 0d 5b bd
       -0.022133378 0.18039045 0.09892666 -0.053479716
0001c0 73 5e 0c be 79 97 dc 3d 7c 97 1d be 03 db 70 3e
       -0.13707905 0.107710786 -0.15389818 0.23521046
0001d0 c6 8e 36 3e 8d 1a 59 bc ee 88 9d 3e 14 1a 55 3d
       0.17827901 -0.013250959 0.30768532 0.052026823
0001e0 19 44 89 be 15 64 21 bc c1 e1 7c 3e 30 38 41 be
       -0.26809767 -0.009850522 0.24695493 -0.1886909
0001f0 86 16 93 be db 2e 53 3e 13 98 2b 3e f5 a8 bc 3d
       -0.28728122 0.20623343 0.1675723 0.092119135
000200 de d5 95 3d 9d 12 b2 bd 81 0b 7d be 80 fc 76 3d
       0.073161826 -0.086949565 -0.2471142 0.060299397
000210 de 9e b2 bd 38 80 d6 bb fe f8 25 3e c9 1e 2d be
       -0.08721708 -0.0065460466 0.16208264 -0.16906275
000220 ca ae 38 be 06 80 64 be cb 12 c2 3c a1 d8 a4 3d
       -0.18035427 -0.22314462 0.023690602 0.08049131
000230 92 1f 7c be d1 66 e6 3d 5a 78 67 bd c9 18 6f be
       -0.24621418 0.112500794 -0.05651126 -0.23349299
000240 84 71 7c bd c7 6c 68 3e 56 d5 59 3e 9f 19 50 3e
       -0.061631694 0.22697745 0.21272787 0.20322274
000250 04 19 1d be 93 39 67 bd 84 17 15 3e 9d 35 81 be
       -0.15341574 -0.05645139 0.14559752 -0.25236216
000260 ce 8c f4 bd f2 b4 69 3e ba 9a 8b be cd 78 0b be
       -0.11940919 0.22822931 -0.27266484 -0.136203
000270 36 bc 32 3c da 00 91 3c 11 93 db 3b f2 af 30 be
       0.010909131 0.017700601 0.0067008813 -0.17254618
000280 1d 1e 28 3b 81 f2 62 be 84 35 8d be 38 f4 ee bd
       0.0025652715 -0.2216282 -0.27579892 -0.11667675
000290 45 52 1b 3e e0 f3 9a 3e f0 8a 59 3e 44 ef 8a 3e
       0.15168102 0.30264187 0.21244407 0.2713567
0002a0 50 4c 49 be 9a 65 57 3d 1a 95 99 be 98 b3 bf 3b
       -0.19658017 0.05258713 -0.29996568 0.0058502667
0002b0 cf 2c cb 3b 8e b1 df bd 92 29 d6 be c4 46 fd bb
       0.00620041 -0.10922538 -0.4182859 -0.007729383
0002c0 00 72 29 3e 53 b8 e1 bd 5f 44 48 3e 1e 8d 64 be
       0.16547394 -0.11021485 0.19557332 -0.22319457
0002d0 da a0 1d be 60 39 0a 3d c2 6b c8 3d cc 52 13 be
       -0.15393391 0.033746123 0.09786178 -0.14387053
0002e0 0a 51 fb 3d 80 b2 42 3e c8 cd 58 bd 42 2f fd 3d
       0.12271316 0.19013405 -0.052930623 0.12362529
0002f0 ff b5 09 3e 6f fe 46 be 98 a1 88 3e 8b bd e2 3c
       0.13448332 -0.19432996 0.26685786 0.027678272
000300 11 1f f3 3d 3b 63 78 be 82 db 71 bd 64 9a 77 be
       0.1187116 -0.24256603 -0.05904723 -0.24179989
000310 ab a8 a1 be a7 c2 63 3e 2a 28 73 3e c8 96 4c 3e
       -0.31573996 0.22242223 0.2374579 0.19979393
000320 ee 3a c2 3d ad 2a 78 3d 4f 46 87 3d cb af 9f bd
       0.09483896 0.060587574 0.06605207 -0.07797202
000330 7a 21 06 bc 15 89 01 be f7 73 a3 bd 94 ef 8b 3e
       -0.008186692 -0.12649949 -0.07981103 0.2733122
000340 8f 28 7a be a1 d8 ad 3e 23 d5 dd 3d ec e4 c1 3c
       -0.24429534 0.33954337 0.10831668 0.023668729
000350 42 61 4d be c4 ee 0f 3d 5f a3 17 3e e8 54 91 3e
       -0.20056632 0.035139814 0.14808415 0.2838509
000360 11 00 a7 3d f8 31 90 3e e0 81 10 be c0 1d 46 be
       0.081543095 0.28163123 -0.14112043 -0.19347286
000370 84 0c 97 3d 1f 1e 92 3d e4 08 37 be 22 82 1f 3e
       0.07375434 0.071346514 -0.17874485 0.15576985
000380 6b 39 26 3e 76 09 6a 3e b1 e4 8b be c2 bf 89 3c
       0.1623284 0.22855172 -0.27322915 0.01681507
000390 a1 3e 6d be 59 5b 40 3e 95 e5 96 bd 58 07 31 3e
       -0.23168422 0.18784846 -0.07368008 0.17287958
0003a0 03 d9 79 3d b3 e3 a7 bd ea 8c 51 3d 95 c8 ff bd
       0.060997974 -0.08197727 0.051159777 -0.1248943
0003b0 19 78 ce 3c 06 37 30 3e 30 7b 63 3e 62 0a 36 be
       0.025203751 0.1720849 0.22214961 -0.17777398
0003c0 bb 48 0c bd 4d 44 67 be 33 76 1b 3e 84 3b 6f 3e
       -0.03424905 -0.22584648 0.15181808 0.23362547
0003d0 4f da de bd 2c 8e 84 3c ca 86 c0 3d 51 e7 06 3d
       -0.10881483 0.016181074 0.09400709 0.032935444
0003e0 c8 2a 52 3e 47 67 6d 3e 5b 3a 30 be 20 1c 9b 3d
       0.20524132 0.23183928 -0.17209761 0.07573724
0003f0 88 89 14 3e d9 85 50 3e bb a4 18 3e 38 4b 4e 3e
       0.14505589 0.20363559 0.1490659 0.20145881

bias f4 [96]
000000 a0 4e 2a 3e 4f 0a 7d be 76 ea 23 3e e3 3c 82 3d
       0.16631556 -0.24710964 0.16007408 0.063592695
000010 3a 8b 84 be 55 94 80 3d 8f cc e7 bc 48 3a 12 3e
       -0.2588747 0.06278292 -0.028295783 0.14280045
000020 ac a1 bc 3d a4 3d 44 be be 3d 21 3e f2 f8 15 3e
       0.09210524 -0.19164139 0.15746209 0.14645746
000030 48 57 27 bd f0 32 3b 3e 2d ee 33 3e 12 6e 55 3e
       -0.040854722 0.1828115 0.17571326 0.2084277
000040 98 6b 99 bd 83 e7 8f 3d 08 5e 76 3d c0 cc 15 3e
       -0.07491225 0.07026579 0.06014827 0.14628887
000050 32 08 1f 3e b3 99 10 3c af d1 71 be 2e 04 45 bd
       0.1553047 0.008825707 -0.23615144 -0.04809969
000060 6a a5 18 bd b5 9f e5 bd bb a1 e4 bc d2 1a 4d be
       -0.037267126 -0.11212102 -0.02790915 -0.20029762
000070 1f 9a 2a 3e 00 cd f6 3d 31 5a 41 3e 16 df 40 be
       0.16660355 0.120508194 0.18882062 -0.188351
000080 da 32 72 bd c8 81 bf bc ad f2 63 3d 99 3c 40 3e
       -0.059130527 -0.023377314 0.055651356 0.18773116
000090 52 8f ea 3d 1c d8 30 3c 36 f8 9e 3e 28 66 ed 3d
       0.114531174 0.010793712 0.31048745 0.115917504
0000a0 27 aa 6b 3e cd 6b 97 bd 52 2f 1f be 1f 1a e9 bd
       0.23014127 -0.07393608 -0.15545395 -0.11381935
0000b0 9a 84 89 3d 71 54 06 be 9a 8e 56 be 69 34 2a 3e
       0.06714745 -0.1311815 -0.20952836 0.16621555
0000c0 a7 87 97 bd c2 34 76 3d 59 e4 35 3e ab f2 a2 3d
       -0.073989205 0.060108908 0.17762889 0.079564415
0000d0 3a f6 53 3e 37 dd 4f bd 4f df 94 3e c0 69 6e be
       0.20699397 -0.050748076 0.2907662 -0.23282528
0000e0 e0 51 cd 3c f0 e8 71 3e 92 ba 1d 3e 1d 93 0b be
       0.025063455 0.23624015 0.15403202 -0.13630338
0000f0 ad 5f 80 be 4f eb 17 3e df 6c 22 3d c5 f5 2c 3e
       -0.25072995 0.14835857 0.03965461 0.16890629
000100 92 3a 83 bd 56 b3 0c be 88 46 03 be 0a 7f c2 3d
       -0.06407656 -0.13740286 -0.12819874 0.09496887
000110 a5 35 1e bd 39 0d b5 3c ac bc d8 3d b6 61 03 3e
       -0.03862538 0.022101032 0.10582861 0.12830243
000120 ae 01 b4 bc 1b ae cf 3e 9f 5a d5 bd f5 20 55 3e
       -0.021973457 0.4056252 -0.10417675 0.20813353
000130 38 3a 6a 3e fb 89 4b 3e 95 c8 9c bc 27 bf da 3d
       0.22873771 0.19876854 -0.019138614 0.10680991
000140 30 81 eb 3a c0 a3 3b 3e 3a 9f fc 39 c3 2c a9 3c
       0.0017967578 0.18324184 0.0004818382 0.020651227
000150 4a 7c 2c bd c8 ab 10 be 70 50 5b 3d a5 aa 5c 3d
       -0.04211072 -0.1412803 0.053543508 0.053873677
000160 20 f1 e5 3a b2 69 f9 3d 90 b8 c6 3d 75 b9 64 be
       0.0017543174 0.12178363 0.09703171 -0.22336371
000170 c4 1d f9 bd 28 68 eb 3d 08 81 37 3e 4a ed 3f b9
       -0.121638805 0.114944756 0.17920315 -0.00018303577

weight f4 [96]
000000 18 ca 83 3f 44 e1 7d 3f 0c ea 80 3f 9f 2e 78 3f
       1.0296049 0.99171853 1.0071425 0.9694614
000010 23 6f 7e 3f 9c c8 80 3f b7 4c 84 3f c9 e8 6d 3f
       0.9938833 1.0061221 1.0335912 0.92933327
000020 bb 5b 75 3f a7 f4 82 3f f8 7a 7f 3f 08 81 7c 3f
       0.95843095 1.0230912 0.9979701 0.98634386
000030 8a 40 81 3f e1 ac 86 3f 9a 27 7b 3f 36 da 7d 3f
       1.0097821 1.0521508 0.981073 0.9916109
000040 54 2b 82 3f 5a ba 82 3f 6b 29 7f 3f c3 f2 7a 3f
       1.0169473 1.021312 0.99672574 0.98026675
000050 c6 b0 7c 3f 5e dc 7f 3f 68 36 7b 3f 55 99 82 3f
       0.98707235 0.9994563 0.9812989 1.0203043
000060 75 c4 7a 3f 41 4b 80 3f 31 5f 7b 3f 82 9c 80 3f
       0.9795602 1.0022966 0.98192126 1.0047762
000070 38 47 83 3f 0e b1 77 3f 58 87 80 3f b2 0d 80 3f
       1.0256109 0.9675454 1.0041304 1.000418
000080 72 36 7a 3f a0 b9 78 3f 79 df 80 3f 99 81 7e 3f
       0.97739327 0.9715824 1.0068198 0.994165
000090 0d ba 7a 3f 7c 1b 86 3f 8d fa 78 3f 23 95 76 3f
       0.9794014 1.0477138 0.9725731 0.96321315
0000a0 48 74 83 3f 64 fe 78 3f d4 05 7e 3f 33 cb 78 3f
       1.0269861 0.9726317 0.99227643 0.9718506
0000b0 9b 24 7a 3f 16 bc 7a 3f cb 10 7f 3f cc 4f 7b 3f
       0.97712106 0.97943246 0.99635 0.98168635
0000c0 86 89 7c 3f 23 34 7d 3f 6e 5b 80 3f 5d 7b 81 3f
       0.98647344 0.9890768 1.0027902 1.0115772
0000d0 e6 37 7d 3f cd 50 7e 3f 7d 06 87 3f b3 84 7e 3f
       0.9891342 0.9934204 1.0548855 0.9942123
0000e0 25 97 81 3f 1f 63 86 3f 82 05 77 3f 5f ea 82 3f
       1.0124251 1.0498999 0.9649278 1.0227774
0000f0 a9 b3 80 3f fa 2c 7f 3f bb 44 81 3f 9c 79 7b 3f
       1.0054828 0.99678004 1.00991 0.98232436
000100 8e 1f 7b 3f f2 d7 78 3f e8 11 82 3f b6 c8 81 3f
       0.98095024 0.97204506 1.0161715 1.0139377
000110 d6 79 7b 3f 37 a1 7f 3f 09 31 81 3f 43 d2 76 3f
       0.9823278 0.9985537 1.0093089 0.96414584
000120 8c 0a 7d 3f ca 95 8b 3f 44 3e 75 3f 70 b7 82 3f
       0.9884422 1.0905087 0.95798135 1.0212231
000130 e3 a1 87 3f 22 8b 81 3f 2f 22 79 3f 53 76 89 3f
       1.0596279 1.0120585 0.97317785 1.0739235
000140 96 9a 7f 3f 7f af 76 3f 98 05 81 3f c6 f8 8b 3f
       0.99845254 0.96361536 1.0079832 1.0935295
000150 b2 9b 82 3f 67 db 7e 3f dd 56 7a 3f c7 57 80 3f
       1.0203764 0.9955353 0.9778879 1.0026788
000160 fe 34 78 3f 13 c7 81 3f 40 a1 7b 3f 70 b3 83 3f
       0.9695586 1.0138878 0.9829292 1.0289135
000170 83 a9 7d 3f ac bb 7a 3f 00 c8 80 3f 81 22 80 3f
       0.9908678 0.97942615 1.0061035 1.001053

bias f4 [96]
000000 b3 bb f9 bb be 85 13 bc ff 47 60 3c 12 40 15 3b
       -0.0076212524 -0.009004055 0.01368904 0.0022773785
000010 13 81 44 bb 7d a0 8d 3c 6d d8 c4 bb 07 de 49 3c
       -0.002998416 0.01728844 -0.0060072453 0.012321002
000020 3b 10 44 3c 9d bf 86 bc 64 72 43 3c 1a 61 44 3c
       0.01196676 -0.01644879 0.011929128 0.011986041
000030 ae 57 f5 bb 23 05 40 3a 85 fa ae 3a bf a9 10 3c
       -0.007487259 0.0007324984 0.0013349807 0.008829533
000040 9e 05 88 bc b1 ab d8 bb 5c a3 ae 3b be 91 a4 3c
       -0.016604241 -0.006612264 0.0053295325 0.020089027
000050 75 fe 28 3c ca 7d 44 3b c9 6f b5 bc 72 fa 01 3b
       0.0103145735 0.0029982203 -0.02214803 0.0019833115
000060 ce 02 2b bc 7f a7 a6 3b 2d 56 61 b9 21 b4 8c bc
       -0.01043768 0.005085885 -0.00021489775 -0.017175736
000070 40 a1 32 bc ce 24 d2 3a 9f a7 de 3b 7e 8c cc bb
       -0.010902703 0.0016032697 0.0067948843 -0.006242334
000080 c0 44 ea bb 07 94 54 bb 45 82 a0 bc 65 fb 43 3c
       -0.007149309 -0.0032436864 -0.019593367 0.011961793
000090 c1 ed d8 bb 5f 4b 92 bc 5c 27 f5 3c 70 58 9a 3c
       -0.0066201393 -0.017858205 0.029925995 0.018840998
0000a0 b6 a7 1f bc 1a d9 28 3c 87 6e 69 3c 50 a4 0e 3b
       -0.009744575 0.010305667 0.014247543 0.0021765418
0000b0 cd 84 2c 3a 8e 9e 84 ba d6 8c 15 bb e7 7e 8f 3a
       0.0006581068 -0.0010118054 -0.002281954 0.0010947854
0000c0 2e 5b da 3c 5e d6 88 3b 23 39 53 bd f3 ae 1a bc
       0.026654806 0.004175945 -0.05156816 -0.009441125
0000d0 f2 37 df ba 4c 40 87 bb 2a 69 94 bc 00 37 21 3b
       -0.0017030223 -0.004127538 -0.018116552 0.0024599433
0000e0 fc c8 d1 bc ff 81 8c bb 8b b6 40 bc 2d f9 31 bc
       -0.025608532 -0.0042879577 -0.011762272 -0.010862631
0000f0 17 bb 1f ba 03 87 8a 3c 99 c1 d8 bc 8d f2 0b bc
       -0.0006093247 0.016910082 -0.026459502 -0.008541715
000100 7e 5a 50 3c 4b 5b e8 3b 01 72 a5 38 c9 eb 82 3c
       0.0127168875 0.007090961 7.889048e-05 0.015981572
000110 73 6c 34 3a 70 20 b7 3b 87 00 aa 3b d0 7d 7a bb
       0.0006882615 0.0055885836 0.005188051 -0.0038221963
000120 c6 4a 91 bb 0f 52 2b bc ea 5e b7 ba 3a ff 7a 3b
       -0.0044339625 -0.010456576 -0.0013990079 0.00382991
000130 f9 fa 78 bc 45 71 ae 3b 0f b7 f5 3b 35 72 49 bc
       -0.015196555 0.0053235614 0.007498629 -0.0122952955
000140 79 6e 9a bb e3 2e 19 3c 55 db 1d bc ad 48 77 bd
       -0.0047128764 0.009349558 -0.009634812 -0.060372043
000150 9a 87 d2 38 8f c6 30 3c 96 19 65 bc db 20 8f 3c
       0.00010038838 0.010789528 -0.013983151 0.017471721
000160 3f 0c 62 3b 62 17 ca 39 c4 6d 84 ba 8f 31 ff bb
       0.0034492163 0.00038545864 -0.0010103513 -0.0077878903
000170 96 c1 14 3c 27 11 c5 ba ef 53 81 bc 73 1b 7d 3c
       0.009079358 -0.0015035019 -0.015787093 0.015448439

running_mean f4 [96]
000000 bc 54 d2 3e 44 34 a6 3d fe d5 92 3e f5 8c 5f 3e
       0.41080272 0.081154376 0.28678888 0.21831115
000010 af 86 81 3e 9f b6 b9 3e ed 1f 14 3e 7c 9f 95 3e
       0.25298068 0.3627214 0.14465304 0.2922324
000020 2e 2f d9 3d 94 52 71 3d 61 d8 92 3e e8 f5 df 3e
       0.10604702 0.058916643 0.2868071 0.437423
000030 29 a8 f0 3d 9f fc e9 3e cb 0d ad 3e a0 df fc 3e
       0.11750824 0.45700547 0.33799586 0.49389362
000040 43 29 41 3e bd bd e5 3e d9 82 a6 3e 5c 93 5c 3e
       0.18863396 0.4487132 0.32521704 0.21540588
000050 b1 32 96 3e e5 da 50 3e d8 54 ad 3d f9 35 c8 3e
       0.2933555 0.20396002 0.08463448 0.39103678
000060 60 c0 08 3e 98 7e 68 3d 31 ba 1e 3d ab b9 85 3e
       0.13354635 0.056761354 0.038751785 0.26118216
000070 c2 9f dd 3e 38 dd 10 3e ef c3 16 3e 18 98 62 3d
       0.43285948 0.14146888 0.1472318 0.05532083
000080 03 a9 4a 3e 74 27 67 3e f7 e4 33 3e 30 d1 b6 3e
       0.19791035 0.22573644 0.17567812 0.35706472
000090 2e 75 8f 3e a2 d7 41 3c d9 66 a2 3e 45 d7 ba 3e
       0.28019089 0.011831196 0.31719092 0.36492363
0000a0 14 38 cf 3e 85 83 47 3e 62 67 66 3d a9 ec 12 3e
       0.40472472 0.19483764 0.056250937 0.14348091
0000b0 8a a2 44 3e e5 77 46 3e 84 8d 0e 3d 5c 48 7e 3e
       0.19202629 0.19381674 0.03480293 0.2483229
0000c0 b0 23 36 3e fa 51 0f 3e 3a 6f e7 3e d9 b0 d8 3e
       0.17787051 0.13996115 0.45202047 0.42322424
0000d0 21 77 8c 3e 90 68 91 3e 63 18 75 3e 98 4d 84 3e
       0.27434638 0.28400087 0.23935084 0.2584045
0000e0 93 ff 8f 3e b7 cf 68 3e 9a 7a 06 3e 7e b7 41 3e
       0.28124675 0.22735487 0.13132706 0.18917653
0000f0 e5 c5 93 3d a6 4a a2 3e f2 fb c6 3e be 03 98 3e
       0.0721548 0.31697577 0.38864094 0.29690355
000100 58 81 19 3e ba 71 10 3e e5 1f 29 3e ba ef 8b 3e
       0.14990747 0.14105883 0.16516073 0.27331334
000110 18 a2 a0 3e 0e 22 b9 3e 78 05 76 3e 3b b5 26 3e
       0.31373668 0.36158794 0.24025524 0.16280071
000120 6a ce 96 3e c6 0d 85 3e 60 cf 91 3d 3c b7 c0 3e
       0.29454356 0.2598707 0.07119632 0.37639797
000130 fb 1a f8 3e da 75 25 3e 25 3e 99 3e 8b f6 17 3d
       0.48458084 0.16158238 0.29930225 0.037100356
000140 4c ed df 3d 55 fc 52 3e 1a f0 14 3e 6f 1d 70 3e
       0.10933933 0.2060407 0.14544716 0.23448728
000150 cf 0c cb 3e 8a b8 b9 3d e4 e9 50 3e 22 8d 70 3e
       0.3965821 0.09068401 0.20401722 0.23491338
000160 67 09 2b 3e 15 da b9 3e 74 a0 58 3e 11 1d 0a 3a
       0.16702805 0.36299196 0.21154958 0.00052686135
000170 3c 63 01 3d 9e 25 a8 3e ab c5 9b 3e d7 57 8c 3d
       0.031588778 0.328412 0.30424246 0.068526916

running_var f4 [96]
000000 0d 0d 47 3e 47 e1 c4 3c d1 8e ee 3d 90 b9 84 3d
       0.19438572 0.024033202 0.11648334 0.06480706
000010 db 34 31 3e c0 ac 1c 3e 3f 90 91 3d 0c 01 18 3e
       0.17305319 0.15300274 0.07107591 0.1484415
000020 cf 63 e6 3c 56 40 b4 3c 3a c0 e5 3d 30 b8 3b 3e
       0.028123764 0.022003334 0.11218305 0.1833198
000030 3a 41 d9 3c 6e 74 71 3d 4d 79 16 3e d7 c4 70 3e
       0.02652036 0.058948927 0.1469471 0.23512588
000040 94 c4 c2 3d c1 78 43 3e 98 ef f6 3d 2f 3d a1 3d
       0.095101506 0.19089033 0.12057418 0.07872998
000050 62 57 cb 3d 6e ba 68 3d 5a ea cd 3c 77 cf 47 3e
       0.09928776 0.05681842 0.025136162 0.19512735
000060 16 85 28 3d c9 4a 8d 3c f7 24 ef 3b 38 17 fd 3d
       0.041142546 0.017247574 0.0072981077 0.12357944
000070 df ff 10 3e 48 24 31 3d 29 af e8 3c 7c 55 af 3c
       0.14160107 0.04324749 0.028403835 0.021403067
000080 cc 23 f3 3d 7d 78 92 3d 9a bd 5e 3d f4 69 68 3e
       0.11872062 0.071518876 0.054380037 0.22696668
000090 f6 05 53 3d a4 10 db 3a cd 2e cd 3d e6 ee 3a 3e
       0.051519357 0.0016713333 0.10018692 0.18255195
0000a0 45 fc 39 3e ea d2 9e 3d c7 c2 73 3c 22 a2 16 3d
       0.1816264 0.077550724 0.0148779815 0.036775716
0000b0 4d 58 af 3d 30 66 d6 3d 16 59 0a 3c 8f e7 ad 3d
       0.08561764 0.104687095 0.008444091 0.08491432
0000c0 98 8c bf 3d 58 91 69 3d 5b 18 6a 3e d3 a1 04 3e
       0.09352988 0.057023376 0.22860853 0.12952356
0000d0 f6 14 1b 3e a3 d9 27 3e 1c f3 8e 3d 7c 49 2b 3e
       0.15144715 0.16391616 0.06979963 0.16727251
0000e0 7d d3 a9 3d 84 3f c8 3c 68 6a d3 3c 19 b0 b2 3d
       0.08292291 0.02444435 0.025807574 0.08724994
0000f0 e9 75 fb 3c 3b 7a e6 3d e5 b0 79 3e 5a c3 42 3e
       0.030695872 0.11253782 0.24383886 0.19019833
000100 e7 5c 82 3d 15 b2 95 3d ac a1 92 3d f1 26 ec 3d
       0.06365376 0.07309357 0.07159743 0.11530865
000110 eb b9 26 3e 88 e7 7c 3e 9a 38 cf 3d 47 72 65 3d
       0.1628186 0.24697697 0.10118218 0.056017186
000120 50 56 e0 3d c4 94 3b 3c 9a d3 8c 3c 55 e7 f4 3d
       0.10953963 0.011449043 0.017190743 0.119581856
000130 13 5a 53 3d f0 95 17 3d 4f 12 0e 3e b0 bd ec 3b
       0.051599573 0.037008226 0.13874172 0.007224761
000140 84 5f c8 3c aa ba 9b 3d 36 f2 8e 3d 53 e5 8b 3c
       0.024459608 0.07603963 0.06979792 0.017077124
000150 fe 44 4d 3e 5d e0 08 3d 43 24 9b 3d f6 9c 95 3d
       0.2004585 0.033417094 0.07575276 0.073053285
000160 7e 53 9b 3d eb 09 16 3e 0d 09 b8 3d f2 46 c3 38
       0.07584284 0.14652221 0.08986101 9.311539e-05
000170 ad cb fd 3b cd 4f df 3d 67 fb f1 3d b7 c8 9c 3c
       0.0077452273 0.10903893 0.11815529 0.019138677

weight f4 [256, 96]
000000 49 65 a7 3c bd 44 a5 bd 75 2b 5c 3d 16 d3 3c 3d
       0.020434039 -0.080697514 0.05375238 0.046099745
000010 09 0f d1 bb bb b3 47 bd e0 5a e2 3a 9d 71 85 3d
       -0.006379966 -0.04875539 0.0017269515 0.06515811
000020 40 b7 c1 bc 2e 1e ff bc 21 88 98 bd b2 bb 87 bd
       -0.02364695 -0.03114232 -0.074478395 -0.06627597
000030 86 72 7a bd 5a a8 65 bd ad bc 5c 3c 7b fc be bd
       -0.061144374 -0.056068756 0.013472718 -0.093255006
000040 a6 bd e6 bc 2c ba 96 bc da 46 60 3d 72 0e 8b 3d
       -0.028166603 -0.01839932 0.05475507 0.067898646
000050 ba 89 dc bc fb 46 8d bd 12 93 9e 3c 1d b7 e8 bd
       -0.026921142 -0.06898304 0.019357238 -0.11363051
000060 00 61 cc 3c 6c aa 4d 3d d1 a1 c0 bc 3b 1c 3d bd
       0.024948597 0.050211355 -0.02351466 -0.0461695
000070 53 b1 c5 bd b1 c8 23 bd 09 dd ba bd 71 71 b6 3d
       -0.096529625 -0.039986316 -0.0912419 0.08908356
000080 07 c4 48 3d d9 5f 30 3c 40 e0 4a bd e3 7c ce 3d
       0.04901507 0.010765039 -0.049530268 0.10082414
000090 b1 0a 3a bd 18 78 39 3d b8 c3 6a 3d 87 0e 96 3d
       -0.045420352 0.045280546 0.05731556 0.073269896
0000a0 a5 6a 97 bd 93 0e 49 3d c1 ba 9a 3b b5 be 9b 3d
       -0.07393388 0.049086165 0.00472197 0.07604734
0000b0 2b 91 15 3d f6 df 05 3d 96 a3 b7 3d 0e e1 8b bd
       0.036515396 0.03268429 0.089667484 -0.06830035
0000c0 ef 85 ab bd ff 0d 86 3d 55 7d 03 3d 4c a0 b6 bd
       -0.08375155 0.06545638 0.032101948 -0.08917293
0000d0 57 60 cb bc 78 55 98 3d de 98 71 3d 80 ef 64 3d
       -0.024826212 0.07438177 0.058983676 0.055892467
0000e0 27 9e 9f bd 14 b5 12 3b 03 9c ce 3d e6 07 16 3d
       -0.07793837 0.0022385763 0.100883506 0.036628626
0000f0 1c 71 20 3d 80 18 95 3d 93 73 9e 3d af 26 59 bd
       0.03917037 0.07280064 0.07736888 -0.053015407
000100 e2 9b 28 3d e6 e4 8b 3c 21 7d 45 3b 3b e2 71 3d
       0.041164286 0.01707692 0.0030134397 0.05905364
000110 f4 51 b8 3d 2a 6c 74 bd bf cb 82 bd 45 6c cb bc
       0.09000006 -0.059673466 -0.06386518 -0.0248319
000120 c3 e7 ab bc 60 70 ba 3d e5 0f 8f bd e0 e9 79 bc
       -0.020984536 0.09103465 -0.069854535 -0.015253514
000130 22 60 80 bc fa 9f 1e 3d 71 0a 8a bd 76 bd d2 bd
       -0.01567084 0.038726784 -0.06740273 -0.10290043
000140 49 f9 9a 3d e7 d4 0c 3d 57 62 bf 3d ed 05 a0 3d
       0.075670786 0.034382727 0.09344929 0.0781363
000150 b9 7d 1e 3d 62 21 08 3d 2f 8c 41 3c e6 04 d8 3d
       0.038694117 0.03323496 0.0118132075 0.10547809
000160 3a ab 89 3d ce 89 58 3d bd 12 4e bd 70 b6 81 3d
       0.06722112 0.052865796 -0.05031084 0.06333625
000170 ba 29 03 bd 1b bb 1b 3b 4d 82 81 bd 07 f9 7d bd
       -0.032022215 0.0023762647 -0.06323681 -0.06200507
000180 12 47 44 3c 24 3a b3 bb 33 1f e6 3c e7 32 c0 bc
       0.011979835 -0.0054695774 0.028091049 -0.023461772
000190 d6 ba bf 3c ec 0d bb 3d 81 0d 92 bd e1 5f 95 3d
       0.02340452 0.09133515 -0.07131482 0.07293678
0001a0 ea 0d 56 bd df 72 61 3d 7a 1e 3f bd e2 42 17 3b
       -0.052259363 0.05504119 -0.046659924 0.0023080637
0001b0 bb 0b 1f 3d b6 1d 87 bd d6 74 40 bd f4 5d 4d bd
       0.038829546 -0.06597464 -0.046986423 -0.05013843
0001c0 29 97 19 bd eb f8 98 3d 07 4c c3 bc df 70 60 3d
       -0.037497673 0.07469352 -0.023839964 0.054795142
0001d0 c1 01 bf 3d 42 fc 07 bd 0f 73 64 3d ec f9 fb bc
       0.093265064 -0.033199556 0.05577379 -0.03075882
0001e0 01 e4 93 3d 34 c5 9d 3d f5 b0 82 bc a5 9c 85 3c
       0.07221223 0.07703629 -0.01595352 0.016310045
0001f0 ac b8 b8 bd 6b dc 30 3c 2a 94 78 bb df 5a 98 3d
       -0.09019598 0.010794739 -0.003793011 0.07439207
000200 7f 15 2d bd 26 66 6b 3d d2 59 5b 3c 06 65 9d bd
       -0.04225683 0.057470463 0.013388114 -0.07685284
000210 83 61 7e bd aa bc 7d 3d 46 ae 8b 3a 02 42 57 bd
       -0.062104713 0.061947502 0.0010656796 -0.052553184
000220 ae a8 9f bc 83 06 99 bd dd 2b 16 3d c7 b5 84 bc
       -0.019489612 -0.07471945 0.036662925 -0.01619996
000230 13 d0 70 bc 1d 3d d3 3d 50 10 0a bd 05 84 6d bd
       -0.014698046 0.10314391 -0.033706963 -0.05798723
000240 6c 55 b9 3d bf f2 a7 3b a6 a3 44 bd 1e f5 d0 bc
       0.09049496 0.005125373 -0.04800763 -0.025507506
000250 86 f0 a5 3c 43 31 84 3d 05 c5 02 3e b8 f7 d4 3d
       0.020256292 0.064547084 0.1277047 0.10398811
000260 f6 25 6e bd 99 d7 17 bd 9f 1a 86 ba 32 46 de 3c
       -0.05814167 -0.037070844 -0.0010231322 0.027133081
000270 e7 6c 88 bc c9 8e 9a bd dd 38 62 bd 38 d0 04 3d
       -0.016653491 -0.07546765 -0.05523001 0.032425135
000280 69 14 b7 bb 7e 0b 01 3d ba 89 fc bb 0e 57 8d 3d
       -0.00558715 0.0315051 -0.007706848 0.0690137
000290 93 6c 74 3d ae a0 2f 3d 3d 6c 2a bd 00 7b 34 3c
       0.059673857 0.042877845 -0.04160713 0.011015654
0002a0 14 b0 87 3d c6 b9 74 3d 76 76 1f bd 0f 9e 77 bd
       0.06625381 0.05974748 -0.038931333 -0.06045347
0002b0 e4 2f 95 3d 46 72 5e 3c 93 ee 9a bc b9 85 bd 3d
       0.07284525 0.01357705 -0.01891259 0.09254021
0002c0 73 94 b8 3d bf 57 c7 bd 90 47 9e bd 76 97 b8 bd
       0.090126894 -0.09733533 -0.07728493 -0.09013264
0002d0 c4 b0 b7 bd dc 72 e7 3d be a9 c8 bd b3 ec fc 3c
       -0.08969262 0.113012046 -0.09798001 0.030874586
0002e0 9a 4b 8c 3d 9a d5 54 bd 05 ca 9e bb ac 24 87 3d
       0.06850357 -0.05196152 -0.00484586 0.065987915
0002f0 f9 77 81 bd d3 c5 af bd 4d 8b 49 3d 59 83 fd bc
       -0.06321711 -0.08582654 0.049205113 -0.03094642
000300 46 7f 81 bd 89 85 7f bd 18 eb 59 bd d4 26 91 3d
       -0.063231036 -0.06238321 -0.05320272 0.07087484
000310 75 4e c6 3c 2e 97 a3 ba bd 04 6e bd a0 d4 be 39
       0.024207333 -0.0012480968 -0.058109988 0.00036398042
000320 99 ac af 3d ed 5b 91 bb d4 8b c5 3d 94 05 9a 3d
       0.08577842 -0.0044360072 0.09645811 0.07520595
000330 a2 d5 65 bd c6 ba 6a bd a1 12 7a 3d 1b 36 b3 3d
       -0.05611194 -0.057307027 0.061052922 0.08750554
000340 81 f2 c1 bd 72 ca 34 bd 60 5a ca bc df be 6e 3d
       -0.09470082 -0.04413838 -0.024701297 0.058287498
000350 00 27 2f bc 0e 04 93 3a cc f4 9a 3d d7 e7 99 bd
       -0.010690451 0.0011216418 0.075662225 -0.07514923
000360 80 f5 ce bd 66 58 4b bd 74 53 6e 3d 63 cf a6 3c
       -0.10105419 -0.04964485 0.058185056 0.020362562
000370 91 32 6e bd 45 b8 f0 3c 2a a2 76 3d 99 74 0c 3d
       -0.058153693 0.029384742 0.060213245 0.034290884
000380 2c eb c7 bd 2e a4 84 bc e5 36 04 3d 3c 96 58 3d
       -0.09761652 -0.016191568 0.032278914 0.05287765
000390 e6 97 b2 bd ad c7 95 bd bf 35 37 3d c4 65 50 bd
       -0.087203786 -0.07313476 0.04472899 -0.0508783
0003a0 fe c3 82 bd 42 45 c3 bc 8a 32 b6 3d 85 2f 27 bd
       -0.06385039 -0.023836736 0.08896358 -0.040816803
0003b0 36 19 f6 bc 16 2b 90 3d e4 37 17 3d 02 ed 4e 3d
       -0.030041318 0.07039468 0.036918536 0.050518997
0003c0 0f a4 9d bd 45 1f 30 3d b5 d9 03 bd 4f 5b 9c bd
       -0.07697307 0.04299857 -0.032190043 -0.07634603
0003d0 60 d5 ea 3c 1d 20 f1 bc 75 8a 90 bd b1 ce fe bc
       0.028666198 -0.029434258 -0.070576586 -0.031104418
0003e0 6b 20 84 3d 8a 58 ae bd 53 0d fe bc b5 4e bc 3c
       0.06451496 -0.08512981 -0.031012213 0.02298675
0003f0 61 6a 7a bd 9e c4 ac 3d 28 83 a5 3d b2 c9 94 3d
       -0.061136607 0.08435939 0.08081657 0.07265033

bias f4 [256]
000000 b9 92 b4 bd b5 f6 98 bd 98 ec bd bd 2a 72 0a bd
       -0.088170476 -0.07468931 -0.09273642 -0.03380028
000010 d7 84 2b 3d 7a bf d3 3d 9d ea 16 be f6 99 9c bc
       0.041874733 0.10339256 -0.14737935 -0.019116383
000020 3a d5 8e 3d bd 51 cb bd 56 90 39 3d 2c e0 53 3d
       0.069742635 -0.099277 0.045303665 0.05172746
000030 9d 7f 76 bd 95 eb ba 3d 00 80 36 3a a0 de ac 3c
       -0.060180295 0.09126965 0.00069618225 0.02110225
000040 84 c8 b2 3c 51 57 cc 3c fb 6f 6f 3d 0e 4d 72 bb
       0.021824129 0.02494398 0.058456402 -0.0036972198
000050 1e 18 5d bd e8 d0 33 bd 7f da 5e bd 83 fd 83 bd
       -0.053978078 -0.0439004 -0.054407593 -0.06444838
000060 cf b3 a6 3d b2 cb 41 3d 24 31 82 bd e0 f2 d1 3c
       0.081397645 0.0473134 -0.06357029 0.025628507
000070 b4 c0 f5 bc b9 96 a0 3d 26 72 e2 3c 88 ad 8e 3c
       -0.029999115 0.07841248 0.02764232 0.01741673
000080 a1 fb cd 3d d9 1c 25 3d 1f d6 37 3c 36 72 17 3d
       0.1005776 0.040310714 0.011220484 0.036974154
000090 5f c5 4a 3d c7 af 98 3d f6 df b4 3d 8d 48 c3 3d
       0.049504634 0.07455402 0.0883178 0.09535322
0000a0 81 f5 ab bd 1e 66 c6 bd d4 eb 59 bd af fe b8 3c
       -0.083964355 -0.09687446 -0.05320342 0.02258238
0000b0 d2 9c 47 bd 88 91 16 3d fa d1 cc 3d 87 5c 23 3d
       -0.04873354 0.036759883 0.10000987 0.039883163
0000c0 b3 47 cc 3d 62 08 c8 bc d9 75 9c bd 98 3b 7a bd
       0.09974613 -0.02441806 -0.07639665 -0.06109199
0000d0 5e 5b a4 bd 30 1a 14 3d 5e 53 b1 3b 8b 8f a3 3d
       -0.080252394 0.036157787 0.0054115495 0.07986363
0000e0 0a 2e 89 3d e5 01 9c bd 5c 97 a3 3d 18 bb fc 3c
       0.066982344 -0.07617549 0.07987854 0.030850932
0000f0 04 57 c3 3d 8f 11 76 bd 73 a8 f8 bc 6f 50 b8 bd
       0.09538081 -0.06007534 -0.03035376 -0.089997165
000100 cf 85 37 bd 04 3d d1 3c a3 4a 34 3d bf b9 c5 bc
       -0.044805344 0.02554179 0.04401649 -0.024136422
000110 61 ba 0e 3d e6 90 43 bd 59 29 95 bd df 2a b1 3d
       0.034845714 -0.047745608 -0.07283277 0.08650755
000120 7e 1f 96 3c 6c 52 51 bd 04 c6 37 bd df c4 bd 3d
       0.018325564 -0.051103994 -0.044866577 0.09266066
000130 f1 85 84 bd 1e 1e 91 bd 25 88 cf 3b 41 29 82 3b
       -0.0647086 -0.070858225 0.0063333684 0.003972203
000140 d7 9b 18 3d e8 23 34 3d 6c e6 72 bd 74 0e f6 3c
       0.037257995 0.043979555 -0.05930178 0.030036189
000150 da b7 d8 3c 12 b0 56 bd f8 23 54 bd da 7c 54 bd
       0.026454855 -0.052414007 -0.051792115 -0.05187688
000160 62 18 27 3d 51 7f d1 bd 4d 42 26 3d 02 25 72 3d
       0.040794738 -0.10229362 0.040590573 0.059117325
000170 1c 60 85 3d b0 06 b1 3d 1c fc d2 bb e8 b2 11 3d
       0.06512472 0.08643854 -0.006438745 0.03557101
000180 d4 8e 9f 3d 93 82 7e bc b9 82 a6 3d af 60 cc bd
       0.07790914 -0.015534061 0.08130402 -0.099793784
000190 68 1a 00 3d e4 e3 9e 3d c9 e5 c6 bc 0e c7 d4 bc
       0.031275183 0.077583104 -0.024279492 -0.025973823
0001a0 5a 13 3c bd 44 ee 29 bc e9 fc 43 bd 23 ef 2a bd
       -0.045916893 -0.010371748 -0.047848616 -0.041731965
0001b0 80 dd 9d bd c0 44 40 3d fc 21 64 bd f8 47 53 3d
       -0.077082634 0.046940565 -0.055696473 0.051582307
0001c0 2e 97 a8 bd 24 08 3e 3d 1d 41 2a 3b 86 f3 b2 bd
       -0.0823196 0.046394482 0.0025978752 -0.08737855
0001d0 51 bc 0c 3d 82 2c 0a bc f6 90 ce 3d b5 be 34 3d
       0.03435928 -0.008433463 0.10086243 0.044127185
0001e0 97 b8 51 3d 23 e8 8f 3c 86 b2 cb 3d 2b 53 cb bd
       0.05120143 0.017566746 0.0994616 -0.099279724
0001f0 d8 5f 55 3d fd 51 96 3d 2e 3a c4 3c 13 fe 82 3c
       0.052093357 0.07339857 0.023953523 0.015990293
000200 5a b6 9d 3d 13 15 7e bd 6d 98 60 3c 1a 9f 30 bd
       0.077007964 -0.062031817 0.013708216 -0.04312048
000210 2c 96 4f 3d a8 9a 3a bc f5 24 e6 ba 7a f0 6b 3d
       0.050680324 -0.011389412 -0.0017558621 0.057602383
000220 ba 38 8b 3d 9c 1a d0 bd 6a 6c c2 ba 65 73 b7 bd
       0.06797929 -0.10161325 -0.0014833335 -0.08957557
000230 fd c8 06 3d d8 0d c7 bc 23 76 23 3d c6 70 d3 bd
       0.03290652 -0.024298593 0.039907586 -0.10324244
000240 df 19 b0 bd 7f ca 0b 3d d3 f9 13 bd 0a 70 c2 bc
       -0.085986845 0.034128662 -0.036126923 -0.023735065
000250 bc 37 6d 3d c9 5f b3 bd 3b df 65 bd c8 01 62 bd
       0.05791448 -0.08758504 -0.056121092 -0.05517748
000260 7d 39 e2 bd e9 86 ce 3d a8 a0 00 bd 09 2a 8d bd
       -0.11046121 0.10084326 -0.031403214 -0.06892783
000270 46 28 9e 3d 59 1c 97 bd 62 76 ce 3c 8f e6 c4 3d
       0.07722525 -0.07378454 0.025202934 0.09614288
000280 d1 4c 96 3c df a0 38 3d 43 44 d2 3d e0 01 e0 3d
       0.018347176 0.045075294 0.10266926 0.10937858
000290 1a d8 11 3d 83 d7 d7 3d e8 50 b7 3c ac 56 99 bd
       0.03560648 0.105391525 0.022377446 -0.074872345
0002a0 eb 83 97 3c d2 28 b6 bc 84 1b e5 3c fb 9e ce 3d
       0.01849552 -0.022236262 0.027967222 0.10088917
0002b0 39 57 80 bd fb 65 b5 bc 60 78 36 bd 15 38 ab bd
       -0.062666364 -0.022143355 -0.044548392 -0.08360306
0002c0 3c 5b 24 bd 9e a4 1e 3d c6 01 8b bc 2b 93 7f 3d
       -0.04012607 0.03873121 -0.01696862 0.06239621
0002d0 5b 5b a3 bb 56 59 83 bd a0 af 9f 3d 27 ab 5a 3d
       -0.0049852557 -0.06413524 0.0779717 0.05338588
0002e0 f3 74 1e 3d 0e b5 3f bd f2 3d 22 3d b0 0b 50 3d
       0.03868575 -0.046803527 0.039609857 0.050792396
0002f0 1f b3 b1 3b 18 ae e1 3c 73 49 9d bd e2 b4 80 3d
       0.005422964 0.027548835 -0.07680025 0.06284501
000300 42 9c 2d bd c7 76 97 bd 46 86 02 bd 25 69 c4 3d
       -0.042385347 -0.07395702 -0.031866334 0.09590367
000310 bc e8 e5 bc 2c a7 db bc e8 93 c3 bc c5 54 6f 3d
       -0.028065078 -0.026813112 -0.023874238 0.058430452
000320 cf 20 b3 3d 60 f1 8c bd 84 6e 23 3d e7 c4 d7 3c
       0.08746492 -0.06881976 0.039900318 0.026339008
000330 9e b1 7a bd 48 87 92 bd d4 c3 29 3d 6a 04 ef 3a
       -0.061204545 -0.07154709 0.041446522 0.0018235568
000340 6f a8 26 bb ae f0 94 bc 61 05 13 3d b3 67 32 bd
       -0.0025429984 -0.018181171 0.0358938 -0.043555927
000350 54 e9 7b 3d 18 d4 c1 bd ee a6 15 bc f1 9b 1a 3c
       0.061501816 -0.09464282 -0.009134037 0.009436593
000360 9e 4e 2f bd 27 5b 59 bc 96 c9 d9 3d 57 a6 28 bd
       -0.042799585 -0.013266361 0.106341526 -0.04117426
000370 da 9d 61 3d 00 2f d0 3d 7e b8 0e 3d 7a 0b c3 bd
       0.05508218 0.101652145 0.034843914 -0.09523673
000380 dc a8 8a 3c 72 f7 a6 3d a2 33 b2 3d f8 75 9f bc
       0.016926222 0.08152665 0.087012544 -0.019465432
000390 33 6a a0 3c a2 e5 18 bd ac a2 c1 bc c4 02 67 3d
       0.01958189 -0.03732837 -0.023637138 0.056399122
0003a0 95 15 4f bd 32 20 83 bd 03 7c da bc 09 5b 85 3d
       -0.05055769 -0.06402625 -0.026670462 0.06511504
0003b0 d0 04 3e bd 33 8d b1 bd 08 ef b7 bd 07 9b 03 bb
       -0.04639131 -0.0866951 -0.089811385 -0.0020081417
0003c0 f6 0f 31 3d fe 75 49 bd 76 d1 6c bd af 72 19 bd
       0.043228112 -0.04918479 -0.057816945 -0.037462886
0003d0 78 7a c3 bb ca 67 33 bd 43 8a 83 3d 32 d2 43 3d
       -0.005965527 -0.043800153 0.06422856 0.04780788
0003e0 0a a8 62 bd b9 fa 7b bd 06 cb 42 bd 05 af 65 bc
       -0.055336036 -0.061518405 -0.0475569 -0.014018779
0003f0 37 5f fc 3b bb a6 a3 3d b9 70 8a bd 44 e7 82 3d
       0.00770178 0.07990786 -0.067597814 0.06391767

weight f4 [256]
000000 cd 23 81 3f 25 2a 80 3f 6e f4 7d 3f 30 43 80 3f
       1.008905 1.0012861 0.99201095 1.0020504
000010 a9 23 80 3f 11 da 80 3f ce 9d 81 3f 68 7d 82 3f
       1.0010883 1.0066549 1.0126283 1.0194521
000020 4b 36 80 3f fd e5 7d 3f 63 85 7c 3f a5 00 7c 3f
       1.0016569 0.9917906 0.9864103 0.98438483
000030 c0 d6 81 3f ed ac 7e 3f 05 d3 7c 3f 80 2a 81 3f
       1.0143661 0.99482614 0.9875949 1.0091095
000040 b4 df 80 3f 86 30 7f 3f 25 e4 7e 3f b1 50 7f 3f
       1.0068269 0.99683416 0.9956687 0.997325
000050 a8 6f 7b 3f 3e 13 80 3f c4 4a 80 3f 59 6c 81 3f
       0.9821725 1.0005872 1.0022817 1.011119
000060 50 fc 80 3f d2 4d 7f 3f 5e 31 80 3f e0 45 7a 3f
       1.0077 0.9972812 1.0015066 0.9776287
000070 04 23 81 3f a3 4a 80 3f 3c 45 80 3f 88 83 80 3f
       1.0088811 1.0022777 1.0021129 1.004014
000080 dc 35 81 3f 1e 7d 81 3f 60 9c 80 3f d3 ea 7e 3f
       1.0094562 1.0116308 1.0047722 0.99577063
000090 f7 aa 7e 3f 69 de 7f 3f 97 50 81 3f 68 e6 79 3f
       0.9947962 0.99948746 1.0102719 0.976172
0000a0 f5 fb 7e 3f f5 cb 7f 3f 18 0e 80 3f ca cf 7e 3f
       0.99603206 0.9992059 1.0004301 0.9953581
0000b0 7a f5 81 3f 8c eb 7d 3f 65 4c 80 3f ec 20 80 3f
       1.0153039 0.9918754 1.0023314 1.0010047
0000c0 3c b3 7f 3f 35 5b 7f 3f 76 42 80 3f 17 1b 7e 3f
       0.99882865 0.99748546 1.0020282 0.99260086
0000d0 98 e4 7d 3f b4 20 80 3f 7f 22 7f 3f 04 dd 7f 3f
       0.9917693 1.000998 0.9966201 0.9994662
0000e0 d9 14 80 3f 6f 5c 7f 3f 78 4c 80 3f 3d 88 81 3f
       1.0006362 0.9975042 1.0023336 1.0119702
0000f0 66 3a 7d 3f fe f6 7c 3f 0a ac 7d 3f c5 5e 81 3f
       0.98917234 0.9881438 0.99090636 1.0107046
000100 fa 5e 80 3f 99 80 7f 3f ba b4 7d 3f e3 21 7f 3f
       1.0028985 0.998056 0.9910389 0.9966108
000110 55 38 7e 3f e3 1a 80 3f 86 04 7f 3f 11 05 7f 3f
       0.99304706 1.0008205 0.9961628 0.99617106
000120 88 22 7f 3f a7 c1 80 3f 51 db 80 3f 14 ca 7d 3f
       0.99662066 1.0059098 1.006693 0.9913647
000130 80 a3 7e 3f de 3a 81 3f 16 30 84 3f f5 88 81 3f
       0.9946823 1.009609 1.0327175 1.0119921
000140 a2 0a 82 3f 50 5e 80 3f c3 d4 7e 3f 4a 96 82 3f
       1.0159495 1.0028782 0.995434 1.0202115
000150 f8 a0 80 3f 73 9c 7f 3f 60 c0 80 3f 4a a9 7f 3f
       1.0049124 0.998481 1.0058708 0.9986769
000160 0e 72 7d 3f e7 52 80 3f 09 0d 7f 3f 92 47 7e 3f
       0.9900216 1.00253 0.99629265 0.9932796
000170 04 f6 82 3f 77 cf 81 3f f0 3d 80 3f e6 a7 7c 3f
       1.0231328 1.0141438 1.0018902 0.9869369
000180 8e 96 7c 3f de 43 7d 3f 96 25 7c 3f 94 80 7d 3f
       0.9866723 0.9893168 0.9849485 0.9902432
000190 ab 6d 84 3f f5 36 7d 3f 88 26 82 3f bd 7f 80 3f
       1.0345968 0.9891198 1.0168009 1.0038983
0001a0 35 ff 7f 3f 38 77 7e 3f 18 4d 7f 3f 42 a6 7e 3f
       0.9999879 0.99400663 0.9972701 0.9947244
0001b0 9f 43 7f 3f a9 c7 7e 3f 87 0c 80 3f 1c 78 80 3f
       0.99712557 0.9952341 1.0003823 1.0036654
0001c0 8e 33 81 3f d4 2a 7f 3f aa 87 81 3f c6 0d 81 3f
       1.0093858 0.99674726 1.0119526 1.0082328
0001d0 fb 69 7f 3f b2 b2 80 3f f9 72 80 3f 26 af 78 3f
       0.9977109 1.0054533 1.0035087 0.97142255
0001e0 b2 66 80 3f 0a a6 80 3f 19 10 80 3f 3c 0c 80 3f
       1.003134 1.0050671 1.0004913 1.0003734
0001f0 70 41 82 3f b7 e2 7d 3f 1e f7 7f 3f c5 32 80 3f
       1.017622 0.99174064 0.99986446 1.0015494
000200 bd 41 7a 3f 20 f7 7d 3f c2 34 7f 3f e2 32 80 3f
       0.9775656 0.9920521 0.9968988 1.0015528
000210 00 65 7b 3f 92 7c 7e 3f a3 1e 81 3f df c1 7d 3f
       0.9820099 0.9940883 1.0087475 0.9912395
000220 b2 93 80 3f ae 1e 7e 3f ac 86 7f 3f 6f 2c 7f 3f
       1.0045073 0.99265563 0.9981487 0.99677175
000230 c8 cb 7f 3f 50 73 81 3f c4 9b 81 3f 22 f1 80 3f
       0.9992032 1.0113316 1.0125661 1.0073588
000240 1d 09 7f 3f f1 ba 80 3f 70 6a 7e 3f e1 30 7e 3f
       0.9962328 1.005705 0.9938116 0.99293333
000250 fe 9a 80 3f 97 99 80 3f 39 84 7d 3f 63 8d 80 3f
       1.00473 1.0046872 0.9902988 1.0043148
000260 4b 48 7e 3f 7b 2c 7e 3f 8f cb 7d 3f 7a 1b 7e 3f
       0.9932906 0.9928662 0.9913873 0.99260676
000270 c7 82 80 3f 0e 6c 7f 3f 17 9d 7e 3f a7 b9 80 3f
       1.003991 0.99774253 0.9945845 1.0056657
000280 45 0a 81 3f 10 39 81 3f db ab 82 3f 66 51 81 3f
       1.0081259 1.0095539 1.0208696 1.0102966
000290 87 a9 7f 3f 6a ff 7d 3f c6 24 7e 3f 09 5e 7f 3f
       0.99868053 0.99217856 0.9927486 0.9975286
0002a0 c0 1d 7b 3f 1f 6c 80 3f 5e 42 7d 3f 50 05 78 3f
       0.9809227 1.0032996 0.98929393 0.96883106
0002b0 91 5d 7e 3f 18 bd 7d 3f 3a b9 7f 3f a2 3c 80 3f
       0.9936152 0.9911666 0.9989201 1.0018504
0002c0 4a b3 7e 3f eb c8 81 3f 18 bb 80 3f b5 08 81 3f
       0.99492323 1.013944 1.0057096 1.0080782
0002d0 b0 9c 80 3f bb 77 80 3f e5 f8 80 3f f8 5c 80 3f
       1.0047817 1.0036539 1.0075957 1.0028372
0002e0 8b 92 80 3f a9 fb 80 3f a4 43 7f 3f 2e 27 80 3f
       1.0044721 1.00768 0.99712586 1.0011957
0002f0 69 48 80 3f 47 11 81 3f e9 d9 81 3f a2 00 7c 3f
       1.0022098 1.0083398 1.0144626 0.98438466
000300 20 9d 7e 3f e7 ab 81 3f ec 71 7d 3f 1a 01 7e 3f
       0.99458504 1.0130585 0.99001956 0.9922043
000310 5e 02 7d 3f f6 b5 80 3f e9 bf 7d 3f 66 77 7c 3f
       0.9883174 1.005553 0.99120957 0.9861969
000320 b4 03 80 3f d5 e0 7b 3f 5d a4 7d 3f 0f 5d 81 3f
       1.000113 0.9838994 0.99078923 1.0106524
000330 17 1c 80 3f 1f d1 7e 3f b1 25 80 3f 72 34 7e 3f
       1.0008572 0.99537843 1.0011503 0.99298775
000340 c1 3f 82 3f 21 0c 81 3f 41 69 81 3f 6b 04 81 3f
       1.0175706 1.0081826 1.0110246 1.0079473
000350 85 81 80 3f a0 7f 7f 3f 33 f7 7d 3f 37 2f 80 3f
       1.0039526 0.99804115 0.9920532 1.0014409
000360 83 c4 7c 3f 68 ab 81 3f b8 1a 81 3f 38 59 81 3f
       0.98737353 1.0130434 1.0086279 1.0105352
000370 b3 f1 7f 3f 4c cc 7d 3f 66 d4 81 3f d4 41 81 3f
       0.9997818 0.9913986 1.0142944 1.0098214
000380 42 7b 7e 3f d9 77 80 3f bf 5c 80 3f 10 70 7c 3f
       0.99406826 1.0036575 1.0028304 0.98608494
000390 ab 8b 7e 3f 02 2c 7e 3f 6b 5e 80 3f d5 c3 80 3f
       0.99431866 0.992859 1.0028814 1.0059763
0003a0 6b c2 80 3f 57 41 7e 3f 88 87 80 3f 23 11 7f 3f
       1.0059332 0.9931845 1.0041361 0.99635524
0003b0 bd b6 7f 3f dd 60 81 3f 9b 6b 7e 3f 76 3d 7e 3f
       0.9988821 1.0107685 0.9938294 0.9931253
0003c0 db 92 7f 3f ae 00 81 3f a7 27 81 3f c5 cf 7d 3f
       0.9983346 1.0078332 1.0090226 0.99145156
0003d0 f2 d9 7f 3f 6e 23 82 3f eb ee 7d 3f 2a bc 81 3f
       0.99941933 1.0167062 0.99192685 1.0135548
0003e0 08 1b 7d 3f e0 3a 80 3f e1 49 7d 3f 2b af 7d 3f
       0.9886937 1.0017967 0.98940855 0.9909541
0003f0 c1 bc 7e 3f 63 46 7e 3f 86 6d 80 3f aa 74 80 3f
       0.99506766 0.9932615 1.0033424 1.0035603

bias f4 [256]
000000 5b ae d9 bb 7b 4d 20 3a 8c 70 69 3b a1 f3 a5 bb
       -0.0066430992 0.0006115061 0.0035620062 -0.005064443
000010 a2 10 f3 b9 f3 4b b2 bb 92 ec 39 3b f9 9d 8b 3a
       -0.00046360964 -0.0054411828 0.0028369767 0.0010651938
000020 01 94 2a 3b ee 5e 88 bb e4 dd 74 3b 65 7f 88 3b
       0.0026028159 -0.004161707 0.0037363702 0.0041655772
000030 f4 2c 76 bb c2 05 9e 3b 76 4e c6 3a f6 00 20 ba
       -0.0037563415 0.0048224637 0.0015129584 -0.0006103659
000040 bd 1e 4d 3b e2 13 df 3b 06 0d c4 3b 26 b9 a0 3b
       0.003129884 0.00680779 0.005982998 0.004904884
000050 cf 26 9d bb 6a 13 7c 3b 12 b3 08 3b 29 bc f0 ba
       -0.004795886 0.003846372 0.0020858687 -0.0018366623
000060 24 c0 a0 3b 91 87 1e 3b c9 1d 49 bb e4 a4 b7 bb
       0.0049057174 0.002418969 -0.003068792 -0.0056043733
000070 f1 84 a0 3b e1 cc 77 bb 61 b6 7f 3a 67 66 4e bb
       0.0048986604 -0.0037811326 0.00097546546 -0.0031494142
000080 9f b2 2e 3c 56 bb fc bb 58 ba e1 3b f4 0c 1b 3a
       0.010662704 -0.007712762 0.006888669 0.0005914711
000090 45 13 b8 3b 27 62 1d bc ee fe a5 3b 33 11 d4 bb
       0.0056175315 -0.009605921 0.0050657904 -0.006471777
0000a0 ef 14 cb 3b 7a c5 e8 ba ee dd 9a 3a af 34 17 bc
       0.006197564 -0.0017759048 0.0011815408 -0.009228869
0000b0 d6 20 1b bb c7 02 4d ba d2 25 d7 ba 0d 20 a7 bb
       -0.0023670695 -0.0007820543 -0.001641447 -0.0051002563
0000c0 5e df 86 3a a6 b1 c1 bb c1 b9 1a bc 41 15 3b 3b
       0.0010289957 -0.00591107 -0.009443701 0.0028546604
0000d0 49 8e e5 3b 9a 3e 85 bb 9b 0e 98 3b 6e 6d 24 bb
       0.007005487 -0.0040663006 0.004640413 -0.002508964
0000e0 ea 62 ae bb f7 c5 84 3b b3 fb 89 3b 02 69 69 3b
       -0.00532185 0.0040519196 0.004210913 0.0035615568
0000f0 12 3a b1 3b 27 b6 0e bc ee 33 6b bc 68 fb 59 3b
       0.005408534 -0.008710421 -0.014355643 0.0033261422
000100 25 d6 7f bb b0 ae b0 3b 7a 8d 4e 3b 4d 09 8c bb
       -0.0039037552 0.005391918 0.0031517432 -0.0042735697
000110 6b fa ec bb 36 44 ca 39 4f 24 36 ba 02 dd 23 bb
       -0.0072320006 0.00038579263 -0.00069481594 -0.0025003557
000120 7a 1e d1 3b 62 70 3c bb 5d 99 a0 bb 5b 81 f8 3b
       0.006381807 -0.0028753509 -0.004901095 0.0075837797
000130 a3 b2 de bb c9 db 4e bb c6 db 98 bb 36 77 2d bb
       -0.0067961975 -0.0031564108 -0.004664871 -0.002646876
000140 c0 52 b6 bb ab 70 56 b8 02 50 10 ba 6a 2b 4e 3a
       -0.005564064 -5.1126506e-05 -0.0005505086 0.00078647456
000150 2e 2d 57 bb ca 22 3f 3b 6e e1 85 3b 3b e6 d8 bb
       -0.0032833326 0.0029165023 0.004085711 -0.0066192425
000160 75 d5 0e 3a 91 d1 eb 3a 9c 39 32 bb d4 a7 d3 ba
       0.00054486777 0.0017991533 -0.0027194982 -0.0016148039
000170 c5 cf d4 ba e2 ff ad 3b 77 16 f3 3b 3c 23 02 3b
       -0.0016236237 0.0053100446 0.0074184495 0.0019857427
000180 aa 3b a2 3b 78 69 c6 3b 82 66 69 3b f2 87 0c bc
       0.00495096 0.0060550533 0.0035614078 -0.008577334
000190 8c d4 54 3b fb d8 80 3b 72 45 ce bb 2b 0a bb bb
       0.003247532 0.003932116 -0.0062948996 -0.005707999
0001a0 5a 46 1a 3c d3 84 3e 3c cd d5 5a 3a a3 e3 d9 ba
       0.009416187 0.011628347 0.0008347899 -0.0016623627
0001b0 5d 10 28 3b e6 8e 85 b9 15 d4 70 bb 41 e6 70 b9
       0.002564452 -0.00025474204 -0.0036747504 -0.0002297396
0001c0 f5 ba 49 3b 55 36 80 3a 5e 16 2a bc 51 f6 0e bb
       0.00307816 0.0009781817 -0.010381309 -0.0021814296
0001d0 d1 81 c5 bb 31 a4 66 3b 01 f3 68 bb 4e 01 2b ba
       -0.006027438 0.003519308 -0.0035545232 -0.0006523327
0001e0 19 c8 21 3c 1a d5 3b bb 04 2d cf ba e7 41 c0 bb
       0.009874367 -0.0028660954 -0.0015806262 -0.005867231
0001f0 7e 1e 58 bb de 4b d3 bb 9f 33 69 39 ca 78 f4 3a
       -0.003297716 -0.006448253 0.00022239842 0.0018651721
000200 02 fb 89 ba 86 c0 ad bb a9 77 1b bc 1e 13 49 3a
       -0.0010527077 -0.0053024916 -0.009488978 0.000767039
000210 20 28 08 3c fa 04 d0 3a 44 dc e0 ba e6 be 0b 3b
       0.008310348 0.0015870624 -0.0017155488 0.00213235
000220 af a2 4f 3b 1e d4 3e 3b ff 29 25 3c 88 11 45 3a
       0.003168266 0.002911813 0.010080813 0.0007517566
000230 85 0b 05 3c 96 13 9c 3b a2 0f 0f bb 93 81 92 bb
       0.008120422 0.004763077 -0.0021829386 -0.004471013
000240 4a bd 4e 3a 1f bb bc b9 c3 9b ae 3b 08 13 89 ba
       0.00078864826 -0.0003599757 0.005328627 -0.0010457942
000250 1e 38 20 bb f8 f6 6f bb 6b e7 87 39 17 6f ee ba
       -0.002444751 -0.003661571 0.00025921626 -0.0018191066
000260 86 1d 21 bb 74 1e e2 bb b5 6a 1f bb 30 cc cf b9
       -0.0024584248 -0.006900603 -0.0024325077 -0.00039634248
000270 d6 c6 b3 bb ce d7 82 3b 58 5a d2 3b c2 35 92 ba
       -0.0054863496 0.003993011 0.006419461 -0.0011154937
000280 2e d9 8a ba de 24 39 bc fc 30 b6 3b ec fc a7 38
       -0.0010593289 -0.011300294 0.0055600386 8.010291e-05
000290 26 e1 b8 b8 e2 47 f7 3b 7b 60 cf 3b 82 80 d3 bb
       -8.815741e-05 0.007546411 0.00632864 -0.0064545283
0002a0 13 04 81 3a 71 f2 52 3b 8c ad 74 38 ae 8c 8f ba
       0.0009843133 0.0032187963 5.833576e-05 -0.001095196
0002b0 da e7 8c 3b a7 c5 4e bb 21 1e 60 bb da 22 59 3a
       0.0043001 -0.0031550915 -0.0034197646 0.00082830864
0002c0 ec d8 85 3b 90 a7 ba bb b3 f5 0f 3b 54 da 06 3c
       0.004084697 -0.0056962445 0.0021966517 0.008230764
0002d0 9d 44 11 bc b0 74 d8 ba 48 e6 25 3c 44 64 c3 bb
       -0.008866456 -0.0016514268 0.010125704 -0.0059628803
0002e0 54 01 17 3b c1 3f cb 39 4e ad e0 3a df 98 2f bc
       0.0023041563 0.00038766678 0.0017141493 -0.0107176
0002f0 78 60 5c 3b a6 2a 02 bb 51 39 56 bb 0b 48 8b 3a
       0.0033626836 -0.0019861846 -0.0032687972 0.0010626329
000300 c4 7d 12 bb 5d ca db ba 46 fe 19 bc 43 5f 8d bb
       -0.0022352794 -0.0016768683 -0.009399002 -0.0043143346
000310 61 fa 81 3b 47 76 26 bc f5 58 95 bb 4b 4e 6d 3a
       0.003966615 -0.010160035 -0.0045577236 0.0009052499
000320 df b4 26 3c 9f 6f 83 bb c7 a8 d1 b9 b3 a0 e1 ba
       0.010174959 -0.004011109 -0.00039989335 -0.001721403
000330 d0 76 2e 3c bf 9c da 3b 67 46 7d 3b 17 70 28 bc
       0.010648444 0.0066715176 0.00386467 -0.010280631
000340 d6 a4 d0 bb 12 30 85 ba f0 65 67 3b e5 3c db 3b
       -0.006367306 -0.0010161421 0.0035308562 0.006690609
000350 b0 fc 97 ba 46 14 2d 3b e1 b5 1b 3b 56 d5 ec 3b
       -0.0011595692 0.002640979 0.0023759531 0.00722758
000360 92 93 82 3b f5 8e f3 bb ff 8b 30 3b 32 c6 9c bb
       0.003984877 -0.0074328133 0.0026938913 -0.004784369
000370 f3 4a aa bb f3 a3 a7 ba 7e b2 ce 3b 9b d6 60 bb
       -0.005196923 -0.001278995 0.006307899 -0.0034307602
000380 34 aa a7 bb 38 1a f4 3b d6 11 1d 3c c5 59 87 bb
       -0.0051167253 0.0074494146 0.009586772 -0.0041305744
000390 bc 99 cd ba eb 53 0f 3b c2 05 b7 3b 64 74 5c bb
       -0.0015686075 0.0021870087 0.005585403 -0.003363871
0003a0 7f 18 8b 3b 5d d2 85 bb 5f 63 89 3a bc 2d 3c 3b
       0.0042448635 -0.004083915 0.0010481885 0.0028713783
0003b0 d2 15 a5 bb 17 f1 d6 bb 93 d1 15 3c 6f ae d2 bb
       -0.0050380016 -0.006559502 0.009144205 -0.0064294855
0003c0 62 de 16 b9 23 51 9f 3b 5d 05 30 bc 9f 37 a0 3b
       -0.00014387959 0.004861967 -0.010743466 0.004889443
0003d0 2c 19 c9 3a a9 94 7c bb e2 05 c9 ba 72 ee 2c bc
       0.0015342585 -0.0038540757 -0.0015336836 -0.010554897
0003e0 5d 31 28 bc 1e 4a 36 3a d6 9c cc bb 90 ae 96 3b
       -0.010265675 0.00069537933 -0.0062442822 0.004598446
0003f0 41 90 df 3a fe 5c 2a 3c a7 d6 84 39 b0 de 0e 3c
       0.0017056541 0.010398148 0.0002533693 0.008720085
