statedicts/torchscript_pl_db_2022-05-02_T2_P0_R1_s0_seed_2.pt (torch, 225385 bytes, 29 tensors)

weight f4 [5]
00000000: df96 803f a9ad 833f 908c 7e3f a31c 793f
00000010: fde7 7d3f
1.0046042 1.0287372 0.9943323 0.9730932 0.9918211

bias f4 [5]
00000000: 2579 1e3d daed da3b ec7a 19bc 9a57 143c
00000010: 9ed4 603c
0.03868975 0.006681186 -0.009367686 0.009054089 0.013722567

running_mean f4 [5]
00000000: 043f 3240 d0d1 843d d423 4140 480e 3a40
00000010: 6c6f 3c3e
2.7850962 0.06485331 3.0178118 2.9071217 0.18401879

running_var f4 [5]
00000000: e697 8d3c 0886 d833 8a11 d83a 910a df39
00000010: 7d58 053a
0.017284345 1.0082664e-07 0.0016484719 0.00042541747 0.0005086733

weight f4 [96, 5]
00000000: 1ec9 0dbd 03d7 c1be 1110 ad3e ac30 c1bd
00000010: a3c1 a33e 0040 b4be aa2e 24be 2add bb3d
00000020: 1ec0 acbe 7901 bf3d 684d 1c3e aced bcbe
00000030: 2610 f5bd 4864 aebd 49a9 73be 7444 603d
00000040: c044 e03e 74bb d2be ecd2 35be 1e28 bd3e
00000050: 6762 aabe 6cdc 823e 2570 c9be 81d0 9cbe
00000060: 0c5c 1b3e 1077 bf3e bdc6 05bd 2ed8 8fbe
00000070: 7e3e 003d 6a14 633e 29ef 093e e0fb d63e
00000080: 9433 f63d d288 22be ecad 683e 54a9 4e3e
00000090: f22a 5ebe afe2 293e b6a9 67be d56f a4be
000000a0: f101 cebd 9c3d 943d a24a e53e 8e21 ccbd
000000b0: b6c6 d43e c94a ca3d ca01 d1be 116b 59be
000000c0: ff3b 923e 1f72 dcbe 0619 893e 2965 54be
000000d0: 1332 38be 41b7 36be c383 50be 8526 79be
000000e0: 0504 a03e 4e0c d3be d213 303e dc9f 993e
000000f0: ef1b 70be dd3c 4abe 98a7 84be 3989 113e
00000100: 85a2 0a3e a9f0 78be 7040 fa3d c2b1 3dbe
00000110: 74d9 d23e 7e85 6abe 8e35 0d3e f3a9 de3e
00000120: dbae 913e d439 a23e 60df 133d 6d2d 583e
00000130: cf5d b9be 0ad3 e3bd 25c8 cabe 2f4f 7ebb
00000140: e503 aa3e 3139 b6be 728f abbb 5bb4 fc3d
00000150: 7ad0 cfbe c9a5 fcbd 57fc a3be 9398 ddbe
00000160: 507d 9cbe 171f c8bd 060d bd3d 635c d23e
00000170: 9efc e0be 9006 c3be 5b1d 06be 7f3d 4e3e
00000180: 6148 153e 4619 bebd 88b8 8ebe b571 78be
00000190: 5c4b b3bd 5503 16be a5e8 e2be e3e5 c9be
000001a0: d598 d0be 290b 1fbe c3cf 64be 5995 da3e
000001b0: f364 333e 226d c53e 2c8f d4bd 5c45 043e
000001c0: 5171 bcbd bfbe 78be 9397 cebe 5c29 babe
000001d0: e8ab 7cbe 0d0c 3abe 8a89 54be cb06 52be
000001e0: 0fd7 693e 7bd5 04be 0fb6 8cbe 3b35 7b3c
000001f0: 664d 16be 219d 86be 681a d5be bf2b 05be
00000200: 6057 4bbe 6059 be3e 8a97 10be 850b af3e
00000210: 4700 7ebe 7bac 713e 142b 933e 04b2 5bbe
00000220: 640c 70be 8d66 bbbc cbef 42bc 0477 0dbe
00000230: 6e32 913e e097 da3d af6c 9abe 21d4 213e
00000240: 508f 823e 81bc 493e 1915 143e 4652 05be
00000250: ce83 c73d 652a dc3e e023 8cbe de08 65be
00000260: c3da 28be 7fc7 b8be 267a dcbe 06eb 943e
00000270: 3221 a13e d44f 183e e1c0 54be 525f b4be
00000280: 8011 32be a8a0 c1be eddc 603e 5c26 96be
00000290: 5b5e d2bc dc7b 51be 4b48 193e ec29 b7be
000002a0: 513a 86be 9090 6e3e 2185 b4be 9823 d3bd
000002b0: 1f12 ca3d 0f1b 933e 4b3d bc3c f083 733e
000002c0: 6748 773e 4e88 bc3e 0465 df3d 01c9 c7be
000002d0: 481a f23d 1456 b1be 5d66 7f3e 67d4 98be
000002e0: ee3b d4be 78c6 d13e 4469 b93e 3f4c 2ebe
000002f0: a1a7 c23e 2e95 f53c 514e cdbe 05ae ba3c
00000300: c7be 813e c362 e2be f8d8 82be f1ae d7be
00000310: ca4e 06be 8c89 80bd 0b0d dabe 7ad3 8dbd
00000320: 4209 e63d aa7b 14bd 19ae c73e 803f fb3d
00000330: de1e d5be cf2e 6e3e deb0 3cbe 42da bdbd
00000340: 5ddc 673d b4a4 333e 066b c4be daaf 07be
00000350: cdd4 a7be f9c9 233e 278a bdbe db06 85be
00000360: cf02 ce3d b2b6 c13e d12b 98bc cc14 dbbe
00000370: d200 02be f445 a8be bd0f 6e3d c6c9 d4be
00000380: 6dfe 823e d059 b53d 06b3 68bd 8f6f 83be
00000390: ec12 c63e 63ba 083e 38a1 3f3e b2fe f3bc
000003a0: b7bb 7cbe 4bd6 55bd 9dfd b13e ec83 443e
000003b0: 38c5 a23e 0dd3 23be 9028 c8be f685 43be
000003c0: 2a85 4dbe 04c3 e23e 298d ad3e 3e7b 0f3c
000003d0: 67c5 23be c8e8 5cbe ded5 813d 480e afbe
000003e0: cbcf 92bc 052c c1be 337c ef3d 7925 a4be
000003f0: 13c2 86bd 0df5 14be d7dd b8be 4a6c 7b3e
-0.03461563 -0.37859353 0.3380132 -0.094331115 0.3198367 -0.35205078 -0.16033426 0.09173043
-0.33740324 0.09326453 0.15263903 -0.3690008 -0.11965971 -0.08515221 -0.23795046 0.054752782
0.43802452 -0.4115864 -0.17756242 0.3694467 -0.332782 0.25558794 -0.39343372 -0.30627826
0.15171832 0.37395525 -0.032660235 -0.2809462 0.031309597 0.22175756 0.13470139 0.4198904
0.120215565 -0.15872505 0.22722596 0.20181781 -0.2169607 0.16590379 -0.22623333 -0.3211657
-0.10058964 0.072383136 0.44783503 -0.099673375 0.41557854 0.098775454 -0.40821677 -0.21232249
0.28561398 -0.43055817 0.26776904 -0.20741715 -0.17987852 -0.17843343 -0.20362763 -0.243311
0.31253067 -0.41220325 0.17195061 0.30004776 -0.23448156 -0.1974978 -0.25909114 0.14212503
0.13538559 -0.24310555 0.12219322 -0.1852484 0.4118153 -0.22902486 0.1378996 0.43489036
0.28453717 0.31684744 0.0361017 0.21111079 -0.36204383 -0.11124237 -0.39605823 -0.0038804521
0.33206096 -0.3559051 -0.005235606 0.123390876 -0.40588742 -0.123363085 -0.32028458 -0.43280467
-0.30564356 -0.09771555 0.09231 0.4108611 -0.43942732 -0.38090944 -0.13097136 0.20140646
0.14578392 -0.09282164 -0.2787516 -0.24262126 -0.08754608 -0.14649709 -0.4431812 -0.39433202
-0.40741602 -0.15531601 -0.2234488 0.42692068 0.17518978 0.38559824 -0.1037887 0.12917084
-0.09201301 -0.24291514 -0.40350017 -0.3635968 -0.24674952 -0.1816866 -0.20755592 -0.20510404
0.22835945 -0.12972061 -0.2748265 0.015332515 -0.14677963 -0.26291755 -0.4162171 -0.13004969
-0.1985755 0.37177563 -0.14120308 0.34188476 -0.24804793 0.23600952 0.28743804 -0.21454626
-0.23442227 -0.022876048 -0.011897991 -0.13814932 0.28358787 0.10673499 -0.30161044 0.15803577
0.25499964 0.19700815 0.14461173 -0.13019666 0.097419366 0.43001094 -0.2737112 -0.22366664
-0.16489701 -0.36089703 -0.43061942 0.2908556 0.3147064 0.14874202 -0.20776702 -0.35228974
-0.17389488 -0.37817883 0.21959276 -0.2932614 -0.025679758 -0.20457405 0.14968984 -0.3577417
-0.26216367 0.23297334 -0.3525782 -0.10309523 0.098667376 0.28731582 0.022978446 0.23780799
0.24148713 0.36822742 0.10907939 -0.3902054 0.11821419 -0.34635985 0.24941392 -0.2984955
-0.41451973 0.40971732 0.36213124 -0.17021273 0.38018516 0.029978361 -0.40098813 0.022788057
0.25340864 -0.44215974 -0.2555616 -0.42125657 -0.13115993 -0.06276235 -0.42588076 -0.069251016
0.112322345 -0.036250748 0.39000013 0.12267971 -0.41625112 0.23260044 -0.18426844 -0.09270145
0.05660664 0.17543298 -0.38362902 -0.13250676 -0.32779542 0.15995015 -0.37019464 -0.25981793
0.100591294 0.37834698 -0.01857558 -0.42789304 -0.12695625 -0.3286587 0.058120478 -0.4156019
0.25584736 0.08855021 -0.056811355 -0.2567105 0.3868631 0.13352351 0.18713844 -0.029784534
-0.24680983 -0.05220632 0.34763804 0.19190949 0.3179109 -0.15998478 -0.39093447 -0.19094071
-0.2007033 0.4428941 0.3389676 0.008757411 -0.15993272 -0.21573174 0.0633962 -0.34190583
-0.017921349 -0.37728897 0.11693611 -0.3205984 -0.065799855 -0.14546604 -0.3610675 0.24553028

bias f4 [96]
00000000: 2373 5a3e 3f96 ef3d 4c63 78bd bb9d debd
00000010: d063 963e 8860 b63e 5fe2 8fbd 8123 76be
00000020: 181a d5bc 0769 0bbe 958b bbbe 0a73 8f3e
00000030: f144 bfbe f35d e6bc d5cd 97bb f4be 333d
00000040: 3502 ae3e 41a1 da3e da5c 7b3d 265b e6bc
00000050: 7e16 94be 120e 84be 54a8 8cbd 4243 533e
00000060: a85f 473d c848 9abe df05 6b3e f81c 2a3c
00000070: 2062 a03e c5c8 1c3e b55c 6f3e f792 5cbd
00000080: 0b32 dd3e 55b4 a73e 7e69 453e ba32 ecbd
00000090: 8bdb b93d f961 a1be 275c 383b 5248 a3be
000000a0: 4d67 4bbd 35fa 9cbe 1c9d 133e c47c c1bd
000000b0: 936c e6be 38ec ab3e b9a6 073e c541 903e
000000c0: b2db b8be cd32 e0bd f508 3fbe 6ae6 ad3e
000000d0: 8087 7d3e 400f 19bd 334c 143d 8203 2ebe
000000e0: bc48 443e 0784 d0bb 4c81 b03e 981a c43e
000000f0: 461d b3be 1a47 0bbd 7748 aebe 70d7 c3be
00000100: 0cc1 e63d 70f9 0dbe f070 983e 10a4 063e
00000110: 8133 763e 769c 193c 72e5 a6be ed73 5e3d
00000120: bbcd 1e3d f3be c5be 1381 babe cc04 123e
00000130: 843d 053e 5b86 c5bd 3e90 c3be 5d29 e2be
00000140: 9cc4 6a3e a529 d7be 6b9c 8bbe 4aca 2f3e
00000150: 1708 873e 4af9 e03d 64ca a7be 2c65 bc3e
00000160: 9598 0a3e 5bc9 1dbe a29e 1dbe 30b7 1a3d
00000170: f578 d6bd 596c 2b3e 1a5b a43e ac75 cbbd
0.21332984 0.11698579 -0.060641572 -0.108699284 0.29373026 0.35620522 -0.07025599 -0.24036981
-0.026013419 -0.13614284 -0.3662993 0.28017455 -0.37357286 -0.02812097 -0.0046326914 0.04388328
0.3398606 0.42701152 0.061367847 -0.028119635 -0.2892341 -0.25791985 -0.068680435 0.20631126
0.04867521 -0.30133653 0.22951458 0.010382883 0.31324863 0.15310962 0.23375209 -0.053851094
0.43202242 0.3275477 0.19278523 -0.11533113 0.090750776 -0.3152006 0.00281311 -0.31891114
-0.049659062 -0.30659643 0.14415401 -0.09447625 -0.4500471 0.33578658 0.13247193 0.28175178
-0.36105114 -0.109471895 -0.1865576 0.33964854 0.2475872 -0.03736806 0.03620548 -0.16993526
0.19168371 -0.006363395 0.34473646 0.3830154 -0.3498327 -0.034003355 -0.3403966 -0.38250303
0.112672895 -0.13864684 0.29773664 0.13148522 0.24043085 0.009375682 -0.32596928 0.054309774
0.03877042 -0.38622245 -0.364266 0.14259642 0.13011748 -0.09644767 -0.38195986 -0.44172183
0.22926563 -0.4202396 -0.27267775 0.17167011 0.2637336 0.10985048 -0.327716 0.36795938
0.13534768 -0.15408842 -0.15392545 0.037772357 -0.104722895 0.1674055 0.32100755 -0.099345535

weight f4 [96]
00000000: c430 803f 9020 803f 75c1 7f3f 7a68 7f3f
00000010: 1264 803f 8c02 803f 46e2 7f3f 3023 803f
00000020: d62e 7f3f 9923 7f3f a848 803f 186d 803f
00000030: 5497 803f ccba 803f 4cba 7f3f c6d2 7f3f
00000040: 347e 803f c685 803f 6a26 803f 07e3 7e3f
00000050: 33be 7f3f 5e66 7f3f 7991 7e3f 74b5 7f3f
00000060: cc7d 7f3f 3489 7f3f 1054 7f3f 8cf3 7f3f
00000070: 012b 803f 1212 803f 4c0d 803f 96a1 7f3f
00000080: af74 803f 9c07 803f 7ced 803f a889 803f
00000090: 2b92 7f3f dfa8 7f3f 2334 803f 0d39 803f
000000a0: bec0 7e3f 8183 7f3f da40 803f e12c 803f
000000b0: b318 7f3f 2043 803f e4ec 7f3f 9ed9 7f3f
000000c0: 0f4d 7f3f c5f5 7f3f da49 803f 9930 803f
000000d0: 6a16 803f 37da 7f3f 5f19 7e3f 1241 803f
000000e0: ee6e 803f 9c82 7f3f 4260 803f f16e 803f
000000f0: 7d89 7f3f cdaf 803f 7cd6 7f3f 6a45 7f3f
00000100: bb09 803f 7569 7f3f 3f28 803f 55fe 7e3f
00000110: 1cdd 7f3f 67a4 803f 94f7 7f3f 9126 813f
00000120: bf8b 803f d3c2 7f3f 23b5 7f3f 38fe 7e3f
00000130: eb5d 803f fdc7 7f3f 116f 7f3f 643c 7f3f
00000140: 4725 803f 833b 803f e6ff 7e3f c20b 803f
00000150: 2e74 7f3f f121 803f 2b1c 7d3f 269c 803f
00000160: 1ffa 7f3f 771f 803f 2117 7f3f d3e5 7e3f
00000170: b301 803f d423 803f 6f80 803f a363 7f3f
1.0014882 1.0009937 0.99904567 0.99768794 1.0030539 1.0000777 0.9995464 1.0010738
0.9968084 0.9966369 1.0022173 1.0033293 1.0046182 1.0057006 0.9989364 0.9993099
1.0038514 1.0040824 1.0011723 0.99565166 0.99899596 0.99765575 0.99440724 0.9988625
0.99801326 0.9981873 0.99737644 0.99981 1.0013124 1.0005515 1.0004058 0.99855936
1.0035609 1.0002322 1.0072474 1.0042009 0.9983241 0.9986705 1.0015911 1.001741
0.9951285 0.99810034 1.0019791 1.0013696 0.99647063 1.0020485 0.9997084 0.9994143
0.9972696 0.9998439 1.0022538 1.0014831 1.000684 0.99942344 0.99257463 1.0019858
1.0033853 0.9980867 1.0029376 1.0033857 0.99819165 1.005365 0.9993665 0.9971529
1.000297 0.9977029 1.0012282 0.9960683 0.9994676 1.0050172 0.9998715 1.0089895
1.0042647 0.99906653 0.9988577 0.9960666 1.0028661 0.9991453 0.9977885 0.99701524
1.0011376 1.0018162 0.9960922 1.0003588 0.9978665 1.0010358 0.98871106 1.0047653
0.9999103 1.0009602 0.99644667 0.99569434 1.0000519 1.0010934 1.0039195 0.9976141

bias f4 [96]
00000000: 28dd ea38 821b b73a e641 45b9 b4ff 21bb
00000010: 2fbc a339 10f4 963a 956c 15bb 990c b83a
00000020: 20e3 9fba f131 c7ba 7d99 5dba d238 1e3b
00000030: 3ba8 0e39 88e1 9039 51ec 1f3a 73c0 05b9
00000040: dd95 f73a b9ba 2dba 8152 2e3b 8a5a c33a
00000050: e644 d4ba a3e5 ef3a a3c7 4aba eaff 29ba
00000060: 4b94 ea3a 5033 f1ba c8d3 52bb 0a07 f83a
00000070: 2c12 ab3a ac75 40b9 8c1a de3a 138a fa39
00000080: 32cd 06bb b77a a33a 3173 bfba 16b4 ebb9
00000090: b21f 3d3a 141b 4139 0f08 efb8 bf24 043b
000000a0: 70a5 17b9 0781 0e3b 1f97 633a e6bd 8aba
000000b0: 2f53 193a 363e d9ba 3fa5 c7ba 472f 003a
000000c0: 1346 eaba 7b28 43bb 9cbb 88ba 7b00 eeba
000000d0: ecd7 0e3b bc8a 123a e391 ceba ebf7 a73a
000000e0: 0d68 b23a a82d d4b9 5850 143b ff93 d838
000000f0: 1074 f939 7bd2 d4ba 9678 5cba a17b 2eba
00000100: b05e d33a 9d60 b1ba 7aff 3d3a 4837 5b3a
00000110: 12da 16ba f24a 11bb 99be 2e39 8715 e1b9
00000120: d8a3 80ba abd1 523a 4a7d 8eba 728d 233b
00000130: 2a20 1c3b bf23 2d3b 3eca 363b c362 353a
00000140: 3d63 a7ba ef00 363a b801 843b 3f54 353a
00000150: ccc1 7dba bf22 0cba 8110 203b 6095 4b3a
00000160: 8b8e 0abb 81ee 1dba 1bdf 98ba 13cd e9ba
00000170: 9dec af3a ca28 1cbb 7bc6 cfba 502e e03a
0.00011199183 0.001396999 -0.00018811933 -0.0024719061 0.0003122999 0.0011516828 -0.0022800316 0.001404184
-0.0012198426 -0.0015197379 -0.00084533525 0.0024142754 0.00013604846 0.00027633854 0.00061005825 -0.00012755561
0.0018889267 -0.000662725 0.002659947 0.0014904302 -0.001619485 0.001830269 -0.00077354367 -0.00064849725
0.0017896978 -0.0018402133 -0.0032169688 0.0018922996 0.001305168 -0.00018354383 0.0016945167 0.0004778659
-0.0020569083 0.0012472485 -0.0014606473 -0.00044956867 0.0007214501 0.00018416002 -0.00011397909 0.0020163504
-0.00014462112 0.0021744387 0.00086818816 -0.0010585159 0.0005848882 -0.0016574326 -0.0015231742 0.00048898574
-0.0017873667 -0.0029778767 -0.0010431889 -0.0018158102 0.002179618 0.0005590131 -0.001576003 0.0012814974
0.0013611332 -0.00040469808 0.0022630896 0.00010327249 0.00047579454 -0.0016237044 -0.00084103027 -0.00066559954
0.0016126242 -0.0013532821 0.0007247847 0.00083624246 -0.0005754541 -0.0022169915 0.00016664936 -0.00042931383
-0.0009814454 0.0008042107 -0.0010871079 0.0024956134 0.0023822882 0.0026419011 0.0027891542 0.00069193187
-0.0012770664 0.0006942888 0.004028525 0.00069171557 -0.0009680062 -0.0005345754 0.00244239 0.0007766094
-0.002114209 -0.00060246146 -0.001166317 -0.0017837606 0.0013421957 -0.0023828023 -0.0015851998 0.0017103646

running_mean f4 [96]
00000000: c9ec 963e 6ed1 403e c00a 223e bf14 233e
00000010: f674 d13e e596 cb3e dde8 f73c 8049 1e3e
00000020: a155 833e c126 8e3d 48c4 d33d 4232 ce3e
00000030: 7cf3 cd3c 1b50 e93d 57d7 543e ce08 8a3e
00000040: 1100 d93e a806 153f 6fa3 d73e 23f2 8a3e
00000050: dfb6 863e f9e2 923e aab3 773e 3165 9d3e
00000060: c223 673e 8ec8 1e3d bb96 b93e ccba be3d
00000070: 6a10 bb3e 98ed 973e e791 e73e 3e20 843e
00000080: fc43 d53e 9197 cd3e 7209 b53e c75e 243e
00000090: 42b3 9b3e 09db 503d 7fc2 723e 086e cf3d
000000a0: 0b0b 3c3e e737 913c 8631 853e 2c96 183e
000000b0: 6729 0839 077c cc3e 2561 673e e0b4 013f
000000c0: 2082 ef3c 25ad 2f3e c4fb 213e 80b5 e33e
000000d0: de28 8f3e 81af 1b3e 63d3 7a3e e73a 3e3e
000000e0: f193 aa3e fe9e 403e e592 c93e b74c c43e
000000f0: a662 313d c7e4 323e 14b8 053e 3faf 913d
00000100: b5a3 cf3e 2506 073e 2f99 cd3e 018c 6d3e
00000110: 5778 eb3e d5a3 853e 0000 0000 91e7 7a3d
00000120: b43e 903e dd23 a039 241a 4e3d 4fdf 773e
00000130: 1531 623e f4b8 b13d 6a70 d43d 2cab c93d
00000140: 7538 e93e 89e0 263d 45f8 273e 50ac 823e
00000150: 0194 be3e df39 813e 07a5 f739 cac6 d23e
00000160: 768e 8d3e 18c7 f83d bc64 cb3d 40b5 213e
00000170: 2062 0c3e b17c b33e c406 9f3e fdf8 7e3e
0.29477528 0.18829891 0.15824413 0.15925883 0.40909547 0.3976356 0.030262405 0.15457726
0.25651267 0.069409855 0.10340172 0.4027272 0.025140516 0.11392232 0.2078527 0.26959842
0.42382863 0.5821328 0.42116877 0.2713786 0.26311395 0.2868879 0.2418963 0.30741265
0.22572234 0.038765483 0.3624781 0.093129724 0.3653596 0.29673457 0.45228502 0.2580585
0.4165343 0.40154698 0.3535877 0.1605178 0.304102 0.05099014 0.23707007 0.10128409
0.18363588 0.017726852 0.26014346 0.14901036 0.00012985394 0.39938375 0.22595651 0.5066662
0.029236853 0.17155893 0.15818697 0.4447441 0.27960867 0.15203668 0.244947 0.18577157
0.33315995 0.1881065 0.39369884 0.3833978 0.04330697 0.17470084 0.13058501 0.07113504
0.40554586 0.13185938 0.40155932 0.23197939 0.4599025 0.26101556 0.0 0.061255995
0.2817284 0.00030544298 0.0503179 0.24206279 0.22089036 0.08677855 0.10373004 0.098471016
0.45550886 0.040741477 0.16403301 0.2552209 0.37222293 0.25239465 0.00047234466 0.4116729
0.27647752 0.12147349 0.09931323 0.15791798 0.13709307 0.3505607 0.3105985 0.24899669

running_var f4 [96]
00000000: a06e 363e c23a 603d 49a9 353d 6bb5 483d
00000010: 915c 373e 365c 423e 578e c73a 375f 933d
00000020: b274 483e 1f3e 663c 77cf e23c 757a 0d3e
00000030: 3137 613b dbe1 d03c 90b5 0e3e 7d0e a93d
00000040: 48cb 373e 4f48 1e3e baa0 013e 8f7f e53d
00000050: e1c3 c03d 4adc 8b3e de6f d43d f386 023e
00000060: 313e 693d 7671 f03b 18cb a43d ee54 613c
00000070: e902 083e ead7 953d 0727 783e 3cef 1f3e
00000080: e885 3e3d 71be 053e 597b 3b3e 765c 6f3d
00000090: f8e1 593e fc9e d03b 6858 d33d 67c8 ed3c
000000a0: 82ee 7d3d f61a a63a db5e e63d eca9 2e3d
000000b0: 025a 8e37 774e aa3d ac2c a13d 9ce1 643e
000000c0: 71b7 e43b f98a 553d c033 7c3d 1930 0a3e
000000d0: e91f a03d f59f 443d b848 843d 61e3 953d
000000e0: 9919 d03d 03a5 9b3d e6f4 e23d 8ea8 bc3d
000000f0: 42fd 223c 68b9 153d d77e 5e3d 0d9d 7a3c
00000100: 17b0 573e 8b31 8b3d 8d91 463e 20cd aa3d
00000110: fb45 903e f1de 593e 0000 0000 49f0 2a3a
00000120: fa83 203e 56bd 7738 613e 023c 00f8 733d
00000130: da46 e13c e50b 333c b36c ec3c 2487 ea3c
00000140: 94c6 833e cedc 133c f18e 533d cd34 8d3d
00000150: d9af c73d 7dd4 8e3d deb9 b138 9a06 aa3d
00000160: d67b 5e3e d3af 2a3d be5e 323c 565e 0e3d
00000170: 63dd 133d a1ac fa3d 1359 153d d920 a13d
0.17815638 0.054743536 0.044350896 0.04900114 0.17906405 0.18980488 0.0015224916 0.07195895
0.19575766 0.014052897 0.027686818 0.13816245 0.0034365172 0.025498321 0.13936448 0.082547165
0.1794864 0.15457271 0.12658969 0.112059705 0.09412361 0.27316505 0.103728995 0.12746792
0.056944076 0.0073377443 0.080465496 0.013753159 0.1328236 0.07316573 0.24233638 0.15618604
0.04651442 0.13060929 0.18308772 0.058437787 0.21277606 0.0063666087 0.103195965 0.029026223
0.061995037 0.001267283 0.11248561 0.04264252 1.6969632e-05 0.08315747 0.078698486 0.22351688
0.0069798757 0.052134488 0.06157279 0.1349491 0.078185864 0.04800411 0.064591825 0.0731876
0.10161132 0.07599833 0.11081867 0.09211837 0.009948077 0.03655377 0.054320183 0.015296233
0.21063267 0.06796559 0.1939146 0.08339906 0.2817839 0.21276452 0.0 0.00065207906
0.15675345 5.9065722e-05 0.007949443 0.059562683 0.027499605 0.010928129 0.028860426 0.028628893
0.2573744 0.009024812 0.05164999 0.068948366 0.09750337 0.06974123 8.474638e-05 0.083020404
0.21726927 0.041671585 0.010886846 0.034757935 0.036099803 0.122399576 0.0364619 0.07867593

weight f4 [256, 96]
00000000: 6157 963d 5aec bc3d 9ad5 a63d 0d63 203d
00000010: 0eb4 cc3d 1830 c5ba 36f9 22bd 4b7a 443c
00000020: 8df0 a63d 1c46 ab3d c9ae f2bc d019 9d3d
00000030: ef2f 06bd 2087 3ebd 91ff 1b3d f46d b8bd
00000040: 1416 6a3d 0620 8d3d 2521 9b3d ac41 4e3c
00000050: 38bd 35bd 0c18 193d 6f15 bb3c 240e 6a3c
00000060: 532b cf3d 15e9 633d a804 b03d 83eb 603d
00000070: a9a5 a63d 3e8c 1bbd 5f23 8e3d b291 65bd
00000080: 8343 67bd b82b 883d 580d d33b 1661 2dbd
00000090: a291 a2bd f791 3ebd 71a3 80bd 5e80 2f3d
000000a0: 2516 c2bd e056 6cbd 5b35 96bc 0add 343d
000000b0: 8f46 443d 8865 9ebd 12b3 913c b5a5 f3bc
000000c0: 3544 4bbd 23fb 29ba ae9d 753d c0c0 ae3d
000000d0: 8a85 be3d 52b1 8e3d d125 913d 419b 143d
000000e0: 397a 163d f0e8 27bd 8d03 4abd d6e5 8bbd
000000f0: 9540 dfba 42a0 453d 6ad4 9dbd 613c 90bd
00000100: 7c9b ad3d 4906 883d 0565 a4bd 5e39 99bd
00000110: 0d6c 22bd 1a87 98bd 9a18 733c 580b 00bd
00000120: 0fd9 d53c eb22 9a3b 04d7 5e3d 5142 bdbc
00000130: b0bc 9d3c 190c 94bc 42b6 b23c 5f6a 3239
00000140: 5ad0 8f3d 6ebd 4cbd ccc6 273d f3b2 adbc
00000150: 3a8b 713d 4d9c 98bd 3db6 93bd 3747 c7bc
00000160: a96d 3e3d 8040 223d d832 da3c 4591 32bd
00000170: f707 8a3d 18bc 81bd 70b4 ad3c dfde 713d
00000180: 45e8 c73d a947 db3b c2cf 22bd f833 2b3d
00000190: aab7 b23d a196 adbd f7ae ccbd 5d55 39bc
000001a0: c059 4dbd c35e 3ebd fd4b 8ebd cca8 7e3c
000001b0: ba65 46bd 970c 563d 49d9 be3d 713e b3bd
000001c0: 8471 063c a87b bf3d 9fda cd3d f5ac bfbc
000001d0: 39b0 793d 79f7 503d dba6 8e3d 6a9f 3abc
000001e0: eeed a2bc 190b 44bd 4299 5a3c 1ad3 cb3c
000001f0: a92b 19bd 0194 9abd c1a9 c23d b273 78bd
00000200: 668b 0cbc e476 4abd 384e bdbc 99e5 cfbd
00000210: bd70 39bd d8ba 063d 7c2f 8d3d d138 c43d
00000220: 14dc 16bd 42eb 81bd 9c89 bcbd 4da5 0fbd
00000230: d649 b2bd 57e6 72bd 9c46 03bd ee35 d03d
00000240: 26e2 8bbd 8c4f 9bbd 6a62 aabc 4695 7e3d
00000250: e352 8ebc 8afa 403a 357e 983d 9ccc 6e3d
00000260: 6bfe ae3d 7f81 80bd e6b6 9e3d 4f2d cabd
00000270: 6be9 86bd bbe3 e4bb 4ff0 013d f1a0 28bc
00000280: 9b8b bf3d faf7 1abc 36a2 32bd 63aa 8dbc
00000290: d0c4 6abc e140 5a3c bd9c 5c3d 047e b7bd
000002a0: f632 6f3c eb48 b23d 6cc3 93bc b0f6 4a3d
000002b0: 916e 7fbc 0280 d03d 4087 8eba b5b5 883d
000002c0: 74f1 01bd 0bbc c7bd 9b99 2cbd 2308 8b3d
000002d0: f29d 9d3a 7fb1 69bc 2a1b a43d d2f7 8bbd
000002e0: f119 8fbd 9b33 1a3d 4f1a cf3d 7442 043d
000002f0: 6791 0abd eb64 393d cd16 433d f1e7 b1bd
00000300: 605b b63d 3a53 ee3b 343b 2abd 5d65 cbbd
00000310: d066 c33c 4c9d dabc 6c97 a33c 48e8 a0bd
00000320: 63a3 203d a0de 9abd eec5 a73d ac4b df3b
00000330: 61b0 4d3d 0ac2 7a3d 40f9 bb3d b378 7b3c
00000340: 363b ac3d 8975 aebd 73df 963d 4343 993d
00000350: 8b5a 55bd 36c2 5abd feec ae3d 64ef a73d
00000360: db05 aebd 0a77 a83a 3d71 9cbd 68bc 603d
00000370: 9c09 afbd faab 49bd 7c89 9f3d dcf8 b33d
00000380: a315 b73d a1b7 273c 0fb7 b9bd 09de 833d
00000390: d787 ac3d c1ca a33d 2638 853d 1bcd 19bc
000003a0: 0cef 563d 5997 b73c 260f 43bd 2af9 8c3d
000003b0: cb36 1fbd fb5c 793d 626c 14bc 3695 0cbc
000003c0: d7dd 2d3d 8db2 50bc 232e 2f3d 15fe b4bd
000003d0: 5de5 cdbd 63c0 5c3c 5a26 b0bc 09d3 31bd
000003e0: e66f babd f0f7 243c f506 4cbd ef60 ba3d
000003f0: 0d45 9fbd 3056 15bd cc31 a4bc fe3a a03c
0.07340885 0.09224768 0.0814621 0.039156962 0.0999528 -0.001504424 -0.039788447 0.011992048
0.0815135 0.08362982 -0.02962436 0.07670939 -0.032760557 -0.046515584 0.038085524 -0.09005347
0.05714996 0.068908736 0.07574681 0.0125889 -0.044369906 0.03737645 0.022837369 0.014285598
0.10115685 0.055642206 0.08594638 0.0549121 0.08137066 -0.037975542 0.0694034 -0.05604715
-0.05646087 0.06648964 0.0064407997 -0.042328916 -0.079379335 -0.04652592 -0.06281174 0.04284703
-0.0947688 -0.057700038 -0.018335989 0.04415611 0.047918852 -0.07734209 0.017785583 -0.029742101
-0.049625594 -0.00064842607 0.05996483 0.08532858 0.09302814 0.06967415 0.07087291 0.036280874
0.036737654 -0.04099363 -0.049319793 -0.06830947 -0.0017032797 0.048248537 -0.077065304 -0.07042766
0.08476922 0.06641824 -0.080270804 -0.07481645 -0.039653827 -0.074476436 0.014837408 -0.03126082
0.026104478 0.0047038696 0.054404274 -0.023102911 0.019255012 -0.018072175 0.021815423 0.00017015029
0.07022162 -0.04998534 0.04096107 -0.021203494 0.058970667 -0.07451687 -0.072124936 -0.02432595
0.0464913 0.039612293 0.026635572 -0.04359557 0.067398004 -0.06334704 0.021204203 0.059050437
0.09761099 0.006691892 -0.039748915 0.041797608 0.087264374 -0.08475996 -0.099943094 -0.011311856
-0.05013442 -0.04647709 -0.06948087 0.015543174 -0.048436858 0.0522581 0.093187876 -0.08752144
0.008205775 0.093497574 0.10051464 -0.023397902 0.060959075 0.05101726 0.06965419 -0.011390546
-0.019888844 -0.047862146 0.013342204 0.024880935 -0.037395153 -0.07547761 0.09505034 -0.06065721
-0.008578157 -0.04942979 -0.023108587 -0.10151214 -0.04527353 0.03289303 0.068938226 0.09581149
-0.036830977 -0.063437 -0.092059344 -0.035069752 -0.08705489 -0.0593017 -0.03204976 0.10166536
-0.06830244 -0.07583532 -0.02079888 0.062154077 -0.017373508 0.0007361552 0.07445947 0.0583006
0.0854462 -0.062746994 0.07749729 -0.09871923 -0.0658749 -0.0069851554 0.031723317 -0.010292278
0.093527995 -0.009458536 -0.043611728 -0.01729316 -0.01432915 0.013321132 0.053860415 -0.089595824
0.014599552 0.08705314 -0.01803752 0.049551666 -0.015590326 0.101806656 -0.0010874048 0.06675283
-0.03172441 -0.09752663 -0.042138677 0.06788661 0.0012025221 -0.01426351 0.08012994 -0.06834377
-0.0698737 0.03764687 0.1011244 0.032289937 -0.033830073 0.04526226 0.047629166 -0.086868174
0.08904147 0.007273105 -0.041560367 -0.09931443 0.023852736 -0.026686333 0.019969665 -0.07856804
0.039218318 -0.075619936 0.08192049 0.0068144407 0.050217036 0.061220206 0.091784 0.015348601
0.08409731 -0.08518512 0.07366838 0.07483532 -0.0520883 -0.05340787 0.085412964 0.08199957
-0.084972106 0.0012852859 -0.07638786 0.05486718 -0.08546755 -0.049236275 0.07789895 0.087877005
0.08939674 0.010236652 -0.09068119 0.06438834 0.08424347 0.079976566 0.0650485 -0.00938728
0.052474067 0.022411035 -0.04762187 0.06883462 -0.038870614 0.06087969 -0.009059044 -0.008580497
0.04244789 -0.012737882 0.04276861 -0.08837525 -0.10053513 0.013473603 -0.021502662 -0.04341415
-0.09103374 0.0100688785 -0.049811322 0.0910052 -0.07776842 -0.036459148 -0.020043276 0.01955938

bias f4 [256]
00000000: a883 803c 8cd7 c9bd 01e3 40bd 23ef 9dbd
00000010: 8f1d 883d 3083 183d 2678 bfbd 6ddf 303d
00000020: 37c4 31bd 2350 84bd a237 783d 6bcd dd3c
00000030: 10b6 9ebd c978 5b3d 302c 7f3d c1c7 c6bd
00000040: 2e3d 05bd dd6a 3c3d bf12 543d a267 bebc
00000050: 1594 4ebd ae8c 78bc 77d7 83bc 6192 a73d
00000060: 9f03 3b3b c8d8 5fbb a01f c1bc 453a 873d
00000070: 894b b23d b546 f03c e3fc d1bc 3ca0 9fbd
00000080: 0234 573b 67a7 253d 6c4c a83c 9456 92bd
00000090: c266 cbbd d964 243d bf10 bd3d 6ef3 4abd
000000a0: 819e ccbb cfed ca3d c9c0 abbd 9b9c 693d
000000b0: 760c 97bd c6f3 833c cbbd 963c debe 163d
000000c0: 5432 94bd f196 713d 9752 c03d 2b54 89bc
000000d0: e2ac 8dbd 55ed 30bd 917d 283d 9959 41bc
000000e0: dbed 80bd 1c23 723d e056 163d e24b afbd
000000f0: c472 7fbd 4109 cd3d ecdc 8b3b 12f7 1bbd
00000100: 561b c5ba cffa 34bd d9ef c13d 4b90 2fbd
00000110: 483e 873d 7386 a03d b8b7 0b3d a012 283d
00000120: 060c 983d a207 5cbd ad65 c6bd 3846 4ebd
00000130: 6341 b03b 5d23 44bd 2505 0abd 8cb1 8dbd
00000140: 4f95 eb3c 6a17 b03d 0567 59bd 650a 2b3d
00000150: 753b 133d 6ccd 49bd f412 6d3b fb2c c8bd
00000160: a21a 1dbd 0ce7 07bd 4363 103d f0e4 89bd
00000170: 1884 c33d bd23 07bb 2dd6 a23c d0b8 90bd
00000180: f6c2 c13d 91e4 2abd 0300 663d 6649 3ebc
00000190: d234 7fbc 5bdd bdbd 697b 3fbd f0b8 1abd
000001a0: 5875 d43b 101f d1bc 2fa8 30bd 315a 30bd
000001b0: 9ab0 2dbc 2153 293c d0c2 76bd 49f1 1dbd
000001c0: 737e 813d e28a babc c002 9ebd e4e8 173a
000001d0: 8789 c93d d4f0 723a 743a 84bc 992e 2e3d
000001e0: 9d8c 07bd 17de 63bd af6b ddbc 0986 0bbd
000001f0: 0667 903d fce6 b13d a294 13bd 8f5a 8b3c
00000200: 80b9 6b3d f3fd b6bc 5ab5 183d 4323 a63d
00000210: 82ce cd3d 5719 d9bc 84bd 1fbd 5273 adbd
00000220: 7cc3 443d dd20 7f3d 4483 633d 0533 0fbd
00000230: f355 a03d 10ad a0bd b40c 6b3d 1a6c 58bd
00000240: 021f 9ebd 5113 a33d d6a6 d53b d117 b43d
00000250: ce45 673b 85f8 cc3d 3723 183d 2c06 bc3d
00000260: 338b 043c f840 533d f90a b63d def1 bebd
00000270: f768 c3bd 8266 9f3d b13e 753b 8dac 98bc
00000280: 4f3c c83d b4bd 803d a666 39bd 46b5 cc3d
00000290: dacf a0bd 64ea 823c 3740 83bd d221 dcbb
000002a0: d64c 14bd 7c59 3f3d ace5 c9bc 2d86 17bd
000002b0: 675e abbc 5d18 ce3c d243 a2bd 1bed 20bc
000002c0: 1b32 443d 3cfb f1bb 5f38 aabd a845 a8bd
000002d0: 84f2 fc3b 4745 83bd dbf8 33bd 49f4 633d
000002e0: 1b6f 303d f076 a23d 76a5 c43d e0f6 a1bd
000002f0: 7a97 3a3d 7976 cfbd c5ec 673d 5c74 573c
00000300: 8e7d d73d 517b 5b3d d9c6 473d 30b9 25bc
00000310: cb3b fa3c d822 4dbd 4b9b a43d 558a 5bbd
00000320: 4db0 7f3d 018c 88bd cb42 c73d c03a 233d
00000330: 1d8c b8bd db79 603d 2fe7 a43c e5ca e83c
00000340: 1605 82bd 697d ec3c f43f 873d 188f b9bc
00000350: 3461 99bd 92f4 85bc bb1f 1f3d e48c 9b3d
00000360: ab37 253d e45e f5bc 4e1a aebd 0afe a2bd
00000370: 147e 3dbd 7b59 09bd f412 b03c 2173 bbbd
00000380: a9a1 ae3d 6355 a5bd c271 283d bb64 c93d
00000390: 3229 8bbd 083e c13c d7e3 253d d63f 133d
000003a0: 3aee b53d 0e3a 15bd a631 85bd 1c75 cabd
000003b0: c650 a5bc 44cf 133d 54dd c3bd 618a c43d
000003c0: 9308 b4bd f793 87bd c10e 88bd b318 693d
000003d0: 4866 c6bd 8722 093d ed2d 37bd fe92 bf3d
000003e0: 7cbb 9a3d 93da ae3d f2ad c1bd 0c4a 643d
000003f0: 6c12 8abd 2589 a73d d453 46bc b3a9 313c
0.015687779 -0.098555654 -0.047091488 -0.07711627 0.06646263 0.037234485 -0.09349088 0.043181825
-0.043400016 -0.06460597 0.06059993 0.02707549 -0.077495694 0.053581987 0.062298 -0.09706069
-0.03252905 0.04600035 0.05177569 -0.023242775 -0.05043419 -0.015170259 -0.016093953 0.081822164
0.0028536094 -0.0034156311 -0.02357465 0.06602911 0.087058134 0.02933059 -0.025633281 -0.07794234
0.0032837396 0.04044285 0.020544253 -0.0714542 -0.09931709 0.04013524 0.0923171 -0.04954856
-0.006244481 0.0990864 -0.0838638 0.057034116 -0.073754236 0.016107451 0.018401047 0.03680312
-0.07236162 0.05898184 0.09390753 -0.016763767 -0.069177404 -0.043195087 0.041135374 -0.011801147
-0.06295367 0.059115514 0.036703944 -0.085593954 -0.06236531 0.10011531 0.0042682793 -0.03807742
-0.0015038054 -0.044184502 0.094695754 -0.042862218 0.06603676 0.07838144 0.034110755 0.041033387
0.07424168 -0.053718217 -0.09687362 -0.050359935 0.0053788885 -0.047885288 -0.033696312 -0.0691863
0.02875772 0.08598216 -0.053076763 0.04175796 0.035945375 -0.04926817 0.0036174627 -0.09774204
-0.038355477 -0.033179328 0.035250913 -0.067331195 0.09546679 -0.0020620667 0.019877518 -0.070665
0.09461014 -0.041721884 0.056152355 -0.011614179 -0.015576558 -0.09270736 -0.046748552 -0.037774026
0.006483715 -0.025527507 -0.043129142 -0.043054763 -0.010601187 0.010334761 -0.06024438 -0.038560186
0.063229464 -0.022771303 -0.07715368 0.0005794896 0.098406844 0.00092674536 -0.016141154 0.042524908
-0.033093084 -0.055631723 -0.027028887 -0.034063373 0.070509 0.08686635 -0.03603042 0.017010955
0.057549953 -0.02233789 0.037282325 0.081121944 0.10049154 -0.02650134 -0.038999096 -0.08469261
0.04803799 0.0622872 0.055545107 -0.034960765 0.078288935 -0.07845509 0.05738516 -0.05283747
-0.07720758 0.07962669 0.0065201325 0.08793605 0.003528941 0.10008339 0.03714296 0.09180865
0.008089828 0.05157563 0.088888116 -0.09323476 -0.09541505 0.07783224 0.00374214 -0.018636966
0.09777128 0.06286183 -0.04526391 0.09995513 -0.078521445 0.015980907 -0.064087324 -0.006717899
-0.03620609 0.0467162 -0.024645649 -0.036993194 -0.020919038 0.025158102 -0.07923092 -0.009822155
0.047899347 -0.007384686 -0.08311533 -0.08216411 0.00771934 -0.06409698 -0.0439385 0.05565289
0.04307471 0.07932842 0.09601872 -0.07908416 0.045554616 -0.10130019 0.056622285 0.013150301
0.105219945 0.0535844 0.04877362 -0.010114953 0.03054609 -0.050082058 0.08037432 -0.05359872
0.062423993 -0.066673286 0.097295366 0.03985095 -0.090110995 0.05480371 0.020129768 0.02841706
-0.06348626 0.028868394 0.06603995 -0.02265124 -0.07489243 -0.016351972 0.03884862 0.07595232
0.040336292 -0.029952474 -0.08501111 -0.0795861 -0.046262816 -0.0335326 0.021493413 -0.091528185
0.08526928 -0.08072927 0.041124113 0.09833666 -0.06794967 0.02358915 0.040500488 0.03594955
0.08883329 -0.03643232 -0.0650361 -0.09885618 -0.020180117 0.036086336 -0.09563699 0.09596706
-0.08790698 -0.06620019 -0.06643439 0.05690832 -0.09687477 0.033480193 -0.044721533 0.093542084
0.07555291 0.085377835 -0.094570056 0.05573468 -0.06741795 0.08180455 -0.012104947 0.010843682

weight f4 [256]
00000000: d439 7f3f 1154 7f3f 7c67 7f3f bf06 803f
00000010: a72e 803f d86a 7f3f 4b35 803f a135 7f3f
00000020: fc0e 803f fff7 7f3f 67af 7f3f 489c 7f3f
00000030: 5ce6 7f3f 6dd9 7f3f bf21 803f 22e6 7f3f
00000040: 440d 803f 0f14 803f 1302 803f f3bb 7f3f
00000050: fb2f 803f d947 803f 1952 803f 27bd 7f3f
00000060: d1c0 7f3f 9d1e 803f 0e10 803f d322 803f
00000070: de0f 803f fddb 7f3f 1a40 803f 200d 803f
00000080: 2915 803f 6612 803f 5e05 803f 3271 7f3f
00000090: cad6 7f3f 8b01 803f 6768 803f 00e9 7f3f
000000a0: 73ff 7f3f 10c0 7f3f 4dc6 7f3f 9e1b 803f
000000b0: 88c1 7f3f 0bf5 7f3f c820 803f bce7 7f3f
000000c0: 30d6 7f3f dbb5 7f3f 9fd1 7f3f bfd7 7f3f
000000d0: ae07 803f 38ff 7f3f cbe5 7f3f d7c6 7f3f
000000e0: 0905 803f d234 803f a187 7f3f a6de 7f3f
000000f0: 8fd5 7f3f 5b18 803f 6944 803f 0602 803f
00000100: afd4 7f3f c723 803f ee24 803f dbfb 7f3f
00000110: 5014 803f e60f 803f ce6d 7f3f 2800 803f
00000120: bdce 7f3f c81d 803f 3227 803f 920c 803f
00000130: 835a 7f3f 9224 803f 2eeb 7f3f 2913 803f
00000140: 39e2 7f3f 318e 803f f0de 7f3f de05 803f
00000150: a5d9 7f3f ba2a 803f b94b 803f 2d1b 803f
00000160: f67b 7f3f 1f17 803f 2e18 803f fbb9 7f3f
00000170: 050a 803f 2c9c 7f3f 7f10 803f 3f2e 803f
00000180: 3d13 803f 8eec 7f3f c296 7f3f 8c1d 803f
00000190: abec 7f3f f742 803f e9c0 7f3f c166 803f
000001a0: 1e66 7f3f 41e2 7f3f e495 7f3f 7fbd 7f3f
000001b0: 854c 803f 3499 7f3f bea2 7f3f e804 803f
000001c0: 9333 803f 46ee 7f3f 2b29 803f 34e2 7f3f
000001d0: 2092 7f3f 7b0c 803f 52f0 7f3f c84c 803f
000001e0: b046 803f 67f6 7f3f 88cf 7f3f 5c97 7f3f
000001f0: 9713 803f 091f 803f ccbc 7f3f 83ae 7f3f
00000200: 8c09 803f 72f6 7f3f 4393 7f3f be26 803f
00000210: 8cc7 7f3f f953 803f a4ed 7f3f ec11 803f
00000220: 42df 7f3f f45b 803f a74a 803f 0431 803f
00000230: fdc5 7f3f 2902 803f 58ae 7f3f a954 803f
00000240: 282f 803f 110f 803f d31d 803f dc7f 7f3f
00000250: 7f01 803f 6e05 803f e927 803f 75ce 7f3f
00000260: 7702 803f 4118 803f ce23 803f 9aea 7f3f
00000270: 7319 803f 8684 7f3f b201 803f cd00 803f
00000280: b2d7 7f3f 20bc 7f3f aa0f 803f 89db 7f3f
00000290: 6af0 7f3f 5616 803f 8f69 7f3f 02a4 7f3f
000002a0: e5b0 7f3f f827 803f 58de 7f3f d385 7f3f
000002b0: e526 803f a2f8 7f3f 07f4 7f3f 7717 803f
000002c0: 9942 803f 1d3a 803f 3168 7f3f 7a17 803f
000002d0: b40a 803f eed2 7f3f 6cac 7f3f d30b 803f
000002e0: 6aee 7f3f c690 7f3f 4711 803f f9c8 7f3f
000002f0: aa00 803f e810 803f f788 7f3f bc32 803f
00000300: 924a 803f 893a 803f 4698 7f3f 3c56 7f3f
00000310: a1ee 7f3f 330d 803f 800d 803f cb30 803f
00000320: 2972 7f3f b9f6 7f3f 4e0a 803f a20f 803f
00000330: 262d 803f a5d4 7f3f 0bdd 7f3f 691b 803f
00000340: d530 803f 58b8 7f3f 5e25 803f 882c 803f
00000350: 268b 7f3f 8dab 7f3f d007 803f 04d1 7f3f
00000360: 34ea 7f3f effb 7f3f e05d 803f d66f 7f3f
00000370: cff7 7f3f bf0c 803f 6910 7f3f da1b 803f
00000380: fa8d 7f3f f504 803f 7cf5 7f3f 7be3 7f3f
00000390: 8694 7f3f f8dd 7f3f 65b4 7f3f a008 803f
000003a0: d22f 803f c74f 803f 72ac 7f3f d6c1 7f3f
000003b0: c4cf 7f3f 01d2 7f3f 4fe0 7f3f 3483 7f3f
000003c0: d01b 803f 1121 803f 8a33 803f 7a02 803f
000003d0: 5fc0 7f3f b118 803f ee02 803f 9eda 7f3f
000003e0: 1224 803f 6023 803f c1a2 7f3f b90f 803f
000003f0: 655f 7f3f 59cd 7f3f db42 803f 5a1f 803f
0.99697614 0.9973765 0.9976728 1.0002059 1.0014237 0.99772406 1.0016264 0.99691206
1.0004573 0.99987787 0.9987702 0.9984784 0.99960876 0.9994114 1.0010298 0.9996053
1.0004048 1.0006121 1.0000633 0.9989616 1.0014642 1.0021926 1.0025054 0.99898
0.9990359 1.0009342 1.00049 1.0010628 1.0004842 0.9994505 1.0019562 1.0004005
1.0006458 1.0005615 1.0001638 0.997821 0.9993712 1.0000471 1.0031861 0.99964905
0.9999916 0.9990244 0.9991196 1.0008428 0.9990468 0.9998328 1.0010004 0.99962974
0.999362 0.99886864 0.9992923 0.9993858 1.0002344 0.9999881 0.9996001 0.9991278
1.0001537 1.001612 0.9981633 0.9994911 0.9993524 1.0007433 1.0020877 1.0000618
0.99933904 1.0010918 1.001127 0.99993676 1.0006199 1.0004852 0.99776924 1.0000048
0.9992483 1.0009089 1.0011961 1.0003836 0.99747485 1.001116 0.9996823 1.0005847
0.99954563 1.0043393 0.9994955 1.000179 0.99941474 1.0013039 1.0023109 1.0008293
0.99798524 1.0007056 1.0007379 0.9989316 1.0003058 0.99847674 1.0005034 1.0014113
1.0005871 0.9997033 0.99839413 1.0009017 0.999705 1.0020436 0.9990373 1.0031358
0.99765193 0.9995461 0.9983809 0.99898523 1.0023352 0.99843144 0.998577 1.0001497
1.0015739 0.9997295 1.0012563 0.99954534 0.99832344 1.0003809 0.99976075 1.0023432
1.0021572 0.99985355 0.9992604 0.9984033 1.0005978 1.0009471 0.99897456 0.9987566
1.0002913 0.9998542 0.9983408 1.0011823 0.9991386 1.0025626 0.99971986 1.0005469
0.9995004 1.0028062 1.0022782 1.0014958 0.9991148 1.0000659 0.998754 1.0025836
1.0014391 1.0004598 1.0009102 0.9980447 1.0000457 1.0001657 1.001218 0.99924403
1.0000752 1.0007402 1.0010927 0.9996735 1.0007766 0.9981159 1.0000517 1.0000244
0.999385 0.9989643 1.000478 0.9994436 0.9997622 1.0006816 0.99770445 0.9985963
0.99879295 1.0012197 0.99948645 0.99813575 1.001187 0.9998876 0.9998173 1.0007161
1.0020324 1.0017735 0.9976836 1.0007164 1.0003266 0.9993123 0.9987247 1.0003608
0.99973166 0.9983028 1.0005273 0.99916035 1.0000203 1.0005159 0.99818367 1.0015483
1.0022757 1.0017864 0.99841726 0.9974096 0.99973494 1.0004028 1.000412 1.001489
0.9978357 0.99985844 1.0003145 1.0004771 1.0013778 0.99933845 0.9994666 1.0008365
1.0014902 0.9989066 1.0011404 1.001359 0.998217 0.9987114 1.0002384 0.9992831
0.9996674 0.99993795 1.0028648 0.99780023 0.999875 1.000389 0.99634415 1.00085
0.99826014 1.0001513 0.99983954 0.9995648 0.99836004 0.9994807 0.99884635 1.0002632
1.0014594 1.0024346 0.99872506 0.99905145 0.999264 0.99929816 0.9995164 0.99809575
1.0008488 1.0010091 1.0015728 1.0000756 0.9990291 1.0007535 1.0000894 0.9994296
1.0011008 1.0010796 0.9985772 1.0004798 0.99754936 0.9992271 1.0020403 1.0009568

bias f4 [256]
00000000: ab5f 29bb b12a f4b8 71db ce3a 71c5 aeba
00000010: c487 c9ba 1210 ffb9 91bf 4aba c07a b9ba
00000020: 16a6 913a 749f ae3a 896b 47b7 3b9c 513a
00000030: 968e 263a 1c2e 0fba b045 7eba 2b92 8239
00000040: c88e e738 b821 7139 18c2 41ba a30f 233a
00000050: 01d0 94b9 2752 c2ba d2d1 21b9 9934 29b9
00000060: 44b1 2aba 6441 20ba 7a75 203a 6061 d2ba
00000070: 303b d7b9 731f 013a 92a4 06ba baf5 8e3a
00000080: b2b4 983a 6f6b 11ba da72 3539 3793 bdba
00000090: 6d53 52ba 8fa5 82ba 6cdf ecb8 0fa9 403a
000000a0: 0e01 f1ba 0db2 61ba 5e2b 6039 fb7a af3a
000000b0: 7334 9539 0c77 073b 2711 9c39 a580 bf3a
000000c0: 3658 193a 7061 9839 ba02 343a 5972 36ba
000000d0: cec5 2739 5521 7bba 2c1c e13a 4d81 a7ba
000000e0: d7af 68ba 1121 4cb9 ba05 cf38 aee5 f3ba
000000f0: c6ed 48b9 1fe5 97b9 b904 bd38 cb09 99ba
00000100: 5dff a736 f3cd 663a dab3 b8b9 31c8 133a
00000110: 226a 88ba 8af6 d739 c2a3 e839 7632 0a3a
00000120: 09db 4bb7 5649 2fb7 15a8 79ba f0a6 383a
00000130: 4aca b13a 8a13 df39 179e c83a 2a05 29ba
00000140: be02 b0ba f0c0 643a 721d c4ba cb5a 1eba
00000150: 5b09 2f39 e00a 46b9 62ad 7039 3d5b 803a
00000160: da05 8639 9536 cf3a 684b b3ba c790 593a
00000170: 81fc 8d39 ebfc 3fba 601a 0eba 0cc0 8fb9
00000180: 01d5 9c3a 04f2 443a 3a05 e438 539f f939
00000190: e907 8eba d46e 093a 75e1 7ab9 6986 34ba
000001a0: ef43 8d3a 4206 7038 a1b0 90ba 0e72 eab9
000001b0: 8205 b1b9 d5af 83ba 2bcb 9039 f89f a7ba
000001c0: 65ee 673a 7993 5cba c2b5 0b39 df04 12ba
000001d0: a70a da38 bb77 373a 0936 e33a 5caa 753a
000001e0: d3c6 8db8 4c3b 15ba 5737 9db9 0824 41ba
000001f0: 35c3 89ba 174c 2d3a 2146 133a c896 0cbb
00000200: 2c94 20b9 c508 993a 1d21 4939 5323 39ba
00000210: 17e6 a539 020f 633a e6f4 763a 6d62 8639
00000220: 0f77 b63a 18da bdba 3837 fab9 fcc7 0839
00000230: da50 e0ba 6de1 75b9 a6e5 89b9 9ff0 09b9
00000240: b1fd 91ba 3554 fbb9 93c9 c13a e2c3 723a
00000250: 8614 ae3a a700 2dba 4299 36ba 20d9 a9ba
00000260: 34f5 81ba c8bf 273a 18f3 9b3a 540f 873a
00000270: ae62 9e39 3d0f 34b9 fd51 4fba d3bb 61b9
00000280: 05e3 78b9 8d54 27b8 ea79 8eba 9b8a 9db9
00000290: de8f c439 addf a3ba a1b0 0939 10b1 9b3a
000002a0: b19e cbb9 6d08 0a39 84b8 47b9 7720 afb9
000002b0: 9437 bbba 114a 27b9 60fb 27ba 2b54 333a
000002c0: f811 a9b8 7456 bdba 626e 8c3a 3495 bdb9
000002d0: 35ae bab9 2312 27ba 6c0c 523a ae2d 86ba
000002e0: abd8 d0ba 8825 5ab9 22b8 fa39 2d58 8d38
000002f0: aea0 54ba 6a25 413a 7371 a5b9 61d1 053a
00000300: 22c3 da3a 3daa 1f3a 9252 973a 15f0 d33a
00000310: 194a b139 c2e2 dfba 8211 a439 eabf 3c3a
00000320: eb26 28bb dc95 a4ba d37a 3939 d61e ab39
00000330: 52b4 d4b9 9e88 4139 80f4 03ba c1cf 323a
00000340: 9ebc 563a d801 dc3a e413 8b3a 9a05 183a
00000350: 13ac 8f39 3673 edb9 652a 20ba 068c c9ba
00000360: 3ec6 143a 10a4 9139 9e3a 37ba 62f9 cf39
00000370: aec5 4d3a bf53 a63a e70d 8c39 cd97 74ba
00000380: 6de7 0cba b3d1 d3b9 320c 3bb9 c3fc e638
00000390: d1fb c73a 5658 8bb9 f543 8cb9 a18b 39ba
000003a0: 85df 3d3a 7871 9cb8 3dab 203a 049d e039
000003b0: 260d e13a 5b89 5c39 94d2 683a 9eca 713a
000003c0: 0ceb 0cb7 51bd 893a ee90 84ba d0d2 2b39
000003d0: 9340 b43a fb11 69b9 6f8f 97ba 9876 2d3a
000003e0: 6673 b5b8 fa53 85ba b44f d53a 117d 77ba
000003f0: 823e a939 bca3 0739 8d22 45ba f4ba fbba
-0.0025844376 -0.000116427786 0.0015781951 -0.0013333989 -0.0015375544 -0.00048649363 -0.0007734234 -0.0014150962
0.001111212 0.0013322667 -1.1886362e-05 0.00079959974 0.00063536444 -0.0005461888 -0.00096997153 0.00024904436
0.000110415334 0.00022996112 -0.0007391288 0.00062202866 -0.00028383735 -0.0014825509 -0.0001543232 -0.0001613669
-0.00065114 -0.00061132596 0.0006121021 -0.0016050749 -0.00041052094 0.0004925646 -0.0005136217 0.0010906972
0.0011650531 -0.000554732 0.0001730429 -0.0014463429 -0.00080232957 -0.0009967553 -0.000112949725 0.00073494104
-0.0018387155 -0.00086096005 0.0002137846 0.0013388091 0.00028458572 0.0020670323 0.00029767418 0.0014610483
0.0005849631 0.00029064296 0.00068668614 -0.0006959788 0.00016000049 -0.0009579857 0.0017174534 -0.0012779624
-0.00088763 -0.00019467274 9.871596e-05 -0.0018607879 -0.00019162064 -0.00028971673 9.013102e-05 -0.0011675892
5.006716e-06 0.00088044925 -0.00035229215 0.0005637436 -0.0010407607 0.00041191682 0.00044372497 0.00052718015
-1.2150741e-05 -1.0447888e-05 -0.00095236424 0.00070439186 0.0013564315 0.00042548432 0.0015305904 -0.0006447608
-0.0013428552 0.00087262597 -0.0014962389 -0.0006040751 0.00016692786 -0.00018886803 0.00022952774 0.0009792816
0.0002556283 0.0015809113 -0.0013679089 0.00082994666 0.00027081746 -0.00073237595 -0.00054208003 -0.00027418172
0.0011965336 0.000751287 0.00010872861 0.00047611687 -0.0010836098 0.000524265 -0.00023925847 -0.0006886484
0.0010777692 5.7226287e-05 -0.0011038968 -0.00044716935 -0.00033764174 -0.0010046909 0.00027617192 -0.0012788763
0.0008847474 -0.0008414309 0.00013323783 -0.0005570184 0.00010397034 0.0006998737 0.0017334829 0.0009371394
-6.760438e-05 -0.0005692735 -0.00029986605 -0.0007367735 -0.0010510447 0.00066107645 0.0005618055 -0.0021452177
-0.00015313987 0.0011675587 0.0001918119 -0.00070624537 0.00031642683 0.0008661599 0.0009420648 0.00025631805
0.001392098 -0.0014484553 -0.00047724857 0.0001304447 -0.0017113939 -0.00023448998 -0.00026301778 -0.00013154976
-0.0011138228 -0.0004793719 0.0014784805 0.0009260756 0.0013281263 -0.00065995235 -0.0006965586 -0.0012958385
-0.0009914995 0.0006399122 0.0011898009 0.0010304251 0.0003020963 -0.00017171814 -0.00079086405 -0.00021527642
-0.00023735694 -3.9894647e-05 -0.0010870073 -0.00030048643 0.00037491223 -0.0012502574 0.00013131138 0.001187833
-0.00038837412 0.00013163844 -0.00019046856 -0.0003340279 -0.0014283531 -0.00015953953 -0.0006408002 0.000684085
-8.061895e-05 -0.0014445321 0.0010714049 -0.00036160054 -0.0003560648 -0.0006373247 0.0008012715 -0.0010237002
-0.0015933713 -0.00020804082 0.00047820905 6.739828e-05 -0.00081111013 0.0007367941 -0.0003155578 0.0005104747
0.0016690234 0.0006090736 0.0011544994 0.0016169572 0.00033815278 -0.0017081129 0.00031293562 0.0007200228
-0.0025657963 -0.0012556869 0.0001768873 0.00032638636 -0.0004057014 0.00018456808 -0.0005033687 0.0006821119
0.00081915583 0.0016785217 0.0010610786 0.00057991745 0.0002740329 -0.0004529 -0.0006109833 -0.0015376813
0.00056752923 0.0002777879 -0.00069896306 0.0003966792 0.0007849586 0.0012689753 0.0002671324 -0.00093304814
-0.00053750613 -0.00040401294 -0.00017838253 0.00011014335 0.0015257542 -0.0002657796 -0.00026753513 -0.0007077996
0.0007243085 -7.459795e-05 0.0006129032 0.00042841595 0.0017170056 0.00021032004 0.0008881476 0.0009223613
-8.399376e-06 0.0010508691 -0.0010113993 0.00016386365 0.0013752155 -0.0002222731 -0.0011563132 0.0006617098
-8.652247e-05 -0.0010172122 0.0016274364 -0.00094409386 0.00032280764 0.00012935599 -0.0007520102 -0.0019205497

running_mean f4 [256]
00000000: 5562 563e b433 0b3e 5c02 833e 4956 603e
00000010: 6541 863e 9233 cd3e a86a fb3d f2fa 703e
00000020: 00d9 183e 4d8d de3d c868 be3e 9699 073e
00000030: 9994 913e 8542 203e 3077 a23e 3135 5a3e
00000040: cea8 893e 091c b03e ca8f 323e c093 bd3e
00000050: 1371 5c3e 434a 483e d146 cf3e 8c62 793e
00000060: ac5a c33e 8040 8b3e 1ecb 8b3e 0ddf 1f3f
00000070: f89a 3b3e eb65 a13e 5a80 f33d 249d 893e
00000080: db10 733e 37ad 5a3e 0596 823e 10f0 013e
00000090: 6ed1 253e 1eb0 9b3e eb76 293e cba4 323e
000000a0: b05c 8b3e 5c7b 733e 29ba d53d 64fb 8c3e
000000b0: a3fa 143e 8869 4f3e 93e1 213e 468d 673e
000000c0: 0a8f df3d 79e6 b43e b6be 793e dddc 3e3e
000000d0: aa82 ef3d b3d0 533e cb2e 333e 05c1 ab3e
000000e0: 5f3b 983e e9d6 673e 5787 303e 836b 583e
000000f0: 5dbb e03d 416b be3e 720d ad3e 3813 463e
00000100: be80 483e 8b2b 233e 77f3 533e 8960 863e
00000110: 2037 3b3e 9138 8f3e 718d 453e c7b9 703e
00000120: 844e 363e 2ade e43d 761f 913e 1bc1 483e
00000130: c407 023e fcd8 b33e 6c9c 503e c25f 013e
00000140: 66d8 303e 1650 313e 88a6 713e 1c8e 743e
00000150: bae8 ca3e 64fe 893e bc88 7e3e a787 3b3e
00000160: 31e5 8a3e 9ea0 743e 8336 813e 2fdc 893e
00000170: 25b5 8b3e 352f 543e d6dd 1f3e da63 9b3d
00000180: 276d 023f fc76 803e 1982 a03e ea8e c23d
00000190: 706b 0c3e f689 943e 7ee9 993e d215 133e
000001a0: efac 8c3e 40a9 1f3e 2c11 763e e55d bf3e
000001b0: 1b30 213e 94aa 583e e2c3 b33d 7bc3 2d3e
000001c0: 7290 6e3e eac9 083e f7f0 453e edee c73d
000001d0: ceef e93e f90b 8c3e ea42 863e 8a06 6f3e
000001e0: e9f2 523e 1941 8e3e 68fe 993e 3ea3 033e
000001f0: 8a9c 3d3e 5f1c 7b3e 7176 563e 0c5b a53e
00000200: ef58 bd3e 34ad 1c3e 62ca 543e 7608 4f3e
00000210: 909c 7a3e 1290 433e 5722 a43e bcf3 063e
00000220: d701 323e 044b a93e 26ac b93e 5405 843e
00000230: a9f7 583e 4695 4f3e dcdc 3b3e 62ff 683e
00000240: 1fdf 5e3e 0ad8 a03e 4270 603e 53d5 8c3e
00000250: a471 643e 4041 e03e a1ab af3e b035 393e
00000260: 52e4 363e d7d3 883e b828 6b3e bef7 8a3e
00000270: 1a32 893e ef8b 353e 836c 653e eab0 033e
00000280: 5b53 953e bc45 983e c9ac 293e d84f 583e
00000290: 73be 103e 02a5 283e fc7a 323e 08f3 7b3e
000002a0: 1c75 d83d 5ccd 903e d1da 063f 1bcd 6e3e
000002b0: 3b59 823e 3624 a23e a650 953e 7630 2e3e
000002c0: acb9 6b3e 5531 453e 7deb 173e 16bb 833e
000002d0: 440d 5d3e bc06 113e dc49 283e 30e0 be3e
000002e0: 42f0 3b3e 31d4 8e3e c3d8 653e f55d a53e
000002f0: 4e90 e23e 842c 5b3e 0e58 cb3e 9855 9a3e
00000300: 46bd 3f3e 7644 b73e 0f09 073e 7a37 7b3e
00000310: 6328 853e ebb6 983e 9304 8f3e 5038 963e
00000320: 3307 163e 8fbf a83e 0afc aa3e 8099 993e
00000330: 381d 8c3e 27d2 3c3e 6e7a 8d3e 5de5 643e
00000340: 6533 cc3e 9c23 a53e ed3e 363e 7b13 5c3e
00000350: 9509 1b3e 948b 9d3e 6c37 553e 3f5f ba3e
00000360: b84e b13e 34b9 803e ccd9 153e adfe 483e
00000370: 8172 a33e 19e9 873e cfcf 3c3e a08f 5a3e
00000380: 39c9 983e 7c11 203e 53aa 103e ac51 3e3e
00000390: fff5 ac3e b264 713e 23c1 5c3e c9f6 ac3e
000003a0: ca51 793e 64f3 a93e 13ed 833e 18b5 373e
000003b0: c353 263e f37c 4d3e 6c88 9b3e c3ff 263e
000003c0: 4f24 353e eca1 8a3e dfaf 5c3e 881b 953e
000003d0: a7a4 943e 17f3 3a3e 5d26 7f3e f35b a23e
000003e0: 1e9a 403e 2c40 723e 2232 883e ef27 823e
000003f0: 7584 943e 73f4 803e 9f0e e33d 9d10 663e
0.20935948 0.13593942 0.25587738 0.21907915 0.26221767 0.40078408 0.122762024 0.23533228
0.14926529 0.10866795 0.37189317 0.13242182 0.28433684 0.15650375 0.31731558 0.21309353
0.268866 0.3439639 0.17437664 0.37026787 0.2152751 0.19559579 0.40483716 0.24353999
0.38155115 0.27197647 0.27303404 0.62449723 0.18320835 0.3152307 0.118897155 0.268777
0.23736899 0.21355139 0.2550508 0.12689233 0.16193172 0.30407804 0.1654927 0.17445676
0.27219152 0.23777527 0.10435898 0.27535546 0.14548735 0.202551 0.15808706 0.22612485
0.109159544 0.35332087 0.24389157 0.1863894 0.11694844 0.20685081 0.17498319 0.335457
0.29732797 0.22640575 0.17239128 0.21134762 0.10973237 0.37191203 0.3379932 0.19343269
0.19580361 0.15934579 0.20698343 0.26245525 0.18282747 0.27972844 0.19292237 0.23508368
0.17803389 0.11175187 0.28344315 0.19604914 0.12698275 0.35126483 0.2037217 0.12634185
0.1727005 0.17315707 0.23598683 0.23882335 0.3963068 0.26951897 0.24856848 0.18313466
0.27127984 0.23889396 0.25236902 0.269258 0.2728664 0.20721133 0.15611967 0.075874045
0.50947803 0.25090778 0.31349257 0.09499915 0.13712859 0.29011506 0.30060953 0.14363793
0.27475688 0.15591908 0.24029988 0.37376323 0.15741007 0.2115882 0.08777596 0.16969101
0.23297289 0.13358274 0.19330202 0.09762368 0.4569077 0.27352884 0.26222926 0.23342338
0.20600475 0.2778404 0.3007691 0.1285524 0.18516746 0.24522541 0.2094362 0.32296026
0.36981913 0.15300447 0.20780328 0.20218071 0.24473786 0.19097927 0.3205745 0.13178915
0.17383514 0.33065045 0.3626415 0.25785315 0.21188225 0.20271787 0.1834597 0.22753671
0.21764801 0.31414825 0.21917823 0.27506503 0.22308975 0.43799782 0.3431063 0.18086886
0.17860535 0.2672412 0.22964752 0.27142137 0.26796037 0.17729162 0.22404675 0.12860456
0.29165158 0.29740703 0.16569819 0.21124208 0.1413515 0.16469195 0.17429727 0.24604428
0.10569212 0.28281677 0.5267764 0.23320429 0.25458702 0.31668252 0.29163092 0.17010674
0.23020047 0.192571 0.14835925 0.25728673 0.21587092 0.14162725 0.16434425 0.37280416
0.1835337 0.27896264 0.2244597 0.32298246 0.4425072 0.214037 0.39715618 0.30143428
0.18724546 0.3579442 0.1318705 0.24532881 0.26007375 0.29827055 0.27933177 0.29339838
0.14651184 0.32958648 0.33395416 0.29999924 0.27366042 0.18439542 0.2763247 0.2235312
0.3988296 0.3225373 0.17797442 0.21491806 0.15140374 0.30770552 0.20821923 0.36400792
0.3463037 0.251413 0.14633864 0.19628401 0.31923297 0.26545027 0.18438648 0.21343851
0.2984102 0.1563167 0.14127474 0.18585843 0.3378143 0.23573568 0.21558051 0.33782032
0.24347606 0.33193505 0.2576681 0.17940176 0.1624289 0.20067196 0.3037752 0.16308503
0.17689632 0.27076662 0.21551464 0.29122567 0.2903187 0.18256794 0.24916978 0.31710777
0.18808791 0.23657292 0.26600748 0.25421092 0.29007307 0.251865 0.11086773 0.22467275
