statedicts/torchscript_pl_db_2022-04-21_SPIRAL_FORWARD_90s_P0_R1_s2_seed_0.pt (torch, 224745 bytes, 29 tensors)

weight f4 [5]
0.99562997 0.9876049 0.998859 0.9510277 0.9961882
00000000: 9be1 7e3f add3 7c3f 39b5 7f3f 8d76 733f
00000010: 3106 7f3f

bias f4 [5]
0.034251653 -0.017107772 0.028567653 -0.0074796495 -0.0246686
00000000: 764b 0c3d 9925 8cbc b606 ea3c d917 f5bb
00000010: ce15 cabc

running_mean f4 [5]
1.5628893 0.06467369 3.033785 2.9221277 0.19548528
00000000: c20c c83f a473 843d 8929 4240 2404 3b40
00000010: 4b2d 483e

running_var f4 [5]
0.020226905 7.269059e-07 0.0033775524 0.0012680225 0.0016348048
00000000: e5b2 a53c 9820 4335 ed59 5d3b c633 a63a
00000010: f246 d63a

weight f4 [96, 5]
-0.27546385 -0.055664916 -0.09764629 -0.24934085 0.3023092 0.39059547 -0.30861965 0.17997324
-0.2135939 -0.042175822 0.41680565 0.057704452 -0.4305482 0.4069457 -0.019139132 -0.2260758
-0.2315224 0.37978378 0.0014970761 0.24189788 0.30105853 -0.17271589 0.031453703 -0.29081628
0.37655854 -0.22719823 0.30078235 0.0989129 0.27662453 -0.31803465 -0.020170977 0.23450099
-0.031442937 -0.021066992 0.2055115 -0.33565733 -0.07987254 0.19396722 0.22780843 0.42964077
-0.09205243 0.10562943 -0.21690078 -0.07892397 -0.22539517 0.32589918 -0.0043936716 0.1905116
0.24374487 0.08087881 0.033017408 -0.033465113 -0.3538657 0.07244547 -0.09292244 -0.37565535
0.41593227 -0.045802414 -0.22142027 -0.4370421 -0.4058343 0.17191385 -0.21219432 -0.194764
-0.25964165 0.362009 -0.11357469 0.3047558 0.33777925 -0.35257015 0.35498142 -0.079725415
0.41590068 0.23444456 -0.43143892 0.07250143 0.15277748 -0.16102839 0.35541564 -0.35844156
-0.12411978 0.42726782 0.44187576 0.23536372 -0.2596957 -0.37576514 -0.3360334 -0.11213839
0.23917733 0.13758796 -0.032666605 0.40089 0.36773843 -0.1933245 -0.17999609 -0.0046150214
0.09810177 -0.0055121183 0.16823491 0.30714193 -0.08223881 0.21178773 0.07889789 0.17321368
0.18022208 -0.12370203 -0.19458082 0.19352517 -0.29753128 0.2205456 -0.27971023 0.29844686
0.19856113 -0.10430518 0.25938812 -0.1542266 0.0896403 0.13614555 0.04010476 0.074349545
-0.01589012 -0.13199504 0.26642147 0.1895612 0.16614796 0.29776847 -0.23194088 -0.10806711
-0.015941903 0.36225122 -0.35224828 -0.25700298 -0.098576516 -0.38289368 -0.3532869 0.30850437
0.022892382 -0.366808 -0.07268381 -0.0131824985 -0.15615965 -0.37512064 0.23931582 -0.055203892
0.4347075 -0.32304433 -0.24925198 -0.016143214 -0.29284036 0.34900758 0.34048265 0.4040276
-0.27965388 0.3225656 0.31256136 -0.14521761 0.058923498 0.22635268 0.3045099 -0.43066832
0.4807025 -0.10244607 0.16593967 -0.2527351 -0.33046225 -0.33356732 0.25609028 -0.20781189
0.24780001 0.12126962 0.1892598 -0.09651371 -0.14973886 -0.20799854 -0.24225067 0.40537336
-0.02239181 -0.19690712 -0.4231066 0.016770678 -0.4434263 -0.0073082433 0.2900979 -0.25178266
0.24460581 -0.1429677 -0.3463501 -0.43647543 0.2259881 -0.33786678 0.2159128 0.06072864
0.23561338 -0.3353747 0.3978707 -0.43429402 -0.34527797 0.28237963 0.024350742 -0.23948221
-0.1097624 -0.4032042 -0.38254347 -0.09518268 0.3396194 0.12753695 0.08257685 -0.11725634
0.40733802 0.007298195 0.14782174 0.00587935 0.072027974 0.14626457 0.34169418 0.25600386
0.052672915 0.19396707 -0.14835611 0.29232144 0.10089254 0.33622354 -0.057980675 -0.37747812
0.06362718 0.17755654 0.36201105 0.17841156 0.16272268 0.35468268 -0.1513442 0.39215136
0.22870263 0.29547516 0.3206938 -0.365531 0.23623453 0.41041988 -0.319925 -0.0459469
-0.29733273 -0.10738084 0.057170838 0.20871511 -0.11564885 -0.42014435 0.24891229 0.23604298
-0.060727984 0.38840348 0.33350387 -0.10689778 0.04923975 0.073189154 -0.09473427 -0.12822016
00000000: 9909 8dbe e500 64bd c7fa c7bd 3553 7fbe
00000010: 45c8 9a3e 21fc c73e 6503 9ebe e84a 383e
00000020: 5cb8 5abe 8ec0 2cbd 8d67 d53e 815b 6c3d
00000030: d070 dcbe 305b d03e abc9 9cbc 6a80 67be
00000040: 3514 6dbe 0573 c23e 8a39 c43a 14b4 773e
00000050: 5824 9a3e 6fdc 30be 99d5 003d dfe5 94be
00000060: 48cc c03e a7a6 68be 2500 9a3e d992 ca3d
00000070: bba1 8d3e 70d5 a2be 9b3d a5bc 0721 703e
00000080: 4fca 00bd af94 acbc 9b71 523e 47db abbe
00000090: 3794 a3bd 589f 463e 9d46 693e e0f9 db3e
000000a0: fc85 bcbd 3e54 d83d 3d1b 5ebe e4a2 a1bd
000000b0: fecd 66be 42dc a63e caf8 8fbb 7915 433e
000000c0: 4198 793e caa3 a53d 433d 073d b712 09bd
000000d0: e32d b5be 4a5e 943d 1f4e bebd e655 c0be
000000e0: 13f5 d43e 509b 3bbd ffbb 62be fbc3 dfbe
000000f0: 83c9 cfbe 2f0a 303e 7849 59be 3770 47be
00000100: c0ef 84be 3e59 b93e d999 e8bd f408 9c3e
00000110: 67f1 ac3e 1384 b4be 20c0 b53e 1447 a3bd
00000120: eff0 d43e 3c12 703e 90e5 dcbe a17b 943d
00000130: b371 1c3e a0e4 24be 0af9 b53e a785 b7be
00000140: 8332 febd d9c2 da3e 8a3d e23e 3003 713e
00000150: d6f6 84be 4a64 c0be 920c acbe d0a8 e5bd
00000160: e7ea 743e dce3 0c3e 6bcd 05bd 7441 cd3e
00000170: 3648 bc3e dcf6 45be e550 38be 9b39 97bb
00000180: 95e9 c83d 009f b4bb c645 2c3e b541 9d3e
00000190: d26c a8bd e2de 583e 3895 a13d ed5e 313e
000001a0: 238c 383e 7d57 fdbd 3240 47be 762b 463e
000001b0: 0556 98be b5d6 613e 2e36 8fbe 07ce 983e
000001c0: 9c53 4b3e f49d d5bd 85ce 843e 94ed 1dbe
000001d0: 5595 b73d bd69 0b3e e444 243d 9344 983d
000001e0: ff2b 82bc b529 07be 6568 883e 551c 423e
000001f0: b122 2a3e 1c75 983e e981 6dbe 4a52 ddbd
00000200: 9898 82bc fe78 b93e e359 b4be e595 83be
00000210: 7ce2 c9bd a40a c4be 05e2 b4be 49f4 9d3e
00000220: ce88 bb3c 42ce bbbe 40db 94bd 68fb 57bc
00000230: 51e8 1fbe d00f c0be 350f 753e 7a1d 62bd
00000240: fb91 de3e 1166 a5be e93b 7fbe c63e 84bc
00000250: 2cef 95be 1fb1 b23e be53 ae3e b5dc ce3e
00000260: cb2e 8fbe 5127 a53e 0b08 a03e edb3 14be
00000270: c459 713d ffc8 673e b9e8 9b3e 8f80 dcbe
00000280: a31e f63e 3fcf d1bd 17ec 293e 7f66 81be
00000290: 5932 a9be 56c9 aabe 441e 833e a4cc 54be
000002a0: 49bf 7d3e 355c f83d 52cd 413e fba8 c5bd
000002b0: 2555 19be 92fd 54be 8f10 78be 198d cf3e
000002c0: 076f b7bc 05a2 49be 6ea1 d8be a962 893c
000002d0: c608 e3be fd79 efbb b687 943e a8e9 80be
000002e0: f279 7a3e 2066 12be cd54 b1be b579 dfbe
000002f0: 6d69 673e e0fc acbe 3f18 5d3e 98be 783d
00000300: a244 713e 3cb6 abbe b5b5 cb3e c95b debe
00000310: 46c8 b0be 1094 903e 357b c73c d33a 75be
00000320: 1ccb e0bd c870 cebe bddc c3be 23ef c2bd
00000330: 98e2 ad3e 0c99 023e 0d1e a93d 1824 f0bd
00000340: 9c8e d03e b225 ef3b 955e 173e 90a7 c03b
00000350: 6783 933d 61c6 153e 8af2 ae3e f012 833e
00000360: 8ebf 573d 4e9f 463e aaea 17be 28ab 953e
00000370: bfa0 ce3d 7e25 ac3e 257d 6dbd d044 c1be
00000380: f84e 823d 62d1 353e 8359 b93e 85b1 363e
00000390: c6a0 263e f898 b53e f9f9 1abe 10c8 c83e
000003a0: 0631 6a3e 8548 973e fa31 a43e e126 bbbe
000003b0: 77e7 713e 8e22 d23e 36cd a3be d132 3cbd
000003c0: ff3b 98be 7cea dbbd f82b 6a3d 6ab9 553e
000003d0: 4ed9 ecbd 291d d7be dde2 7e3e 40b5 713e
000003e0: e8bd 78bd d2dc c63e 05c1 aa3e 39ed dabd
000003f0: 9faf 493d 32e4 953d 0a04 c2bd 254c 03be

bias f4 [96]
-0.10951883 0.22596629 0.29678825 -0.3320625 0.41788548 -0.0715751 0.1309732 -0.43462446
0.04862935 -0.22574562 -0.31777573 -0.18751585 -0.003509705 -0.11527622 -0.2786936 0.3233075
0.12431177 -0.45296398 0.10703206 0.116056904 0.04547337 0.11028369 -0.061555088 0.19922672
-0.29184136 -0.19463088 0.34018284 -0.26555946 0.22811371 0.42237002 -0.41139266 -0.20572416
0.37945083 -0.06548634 0.07857019 0.04759503 0.18352234 -0.19796498 0.062147878 0.310155
-0.022232657 -0.41274115 0.16267768 -0.113698564 -0.107914396 0.23539786 0.100554086 -0.26901385
-0.22172038 -0.10106715 -0.1257652 -0.06310004 -0.34091893 0.313802 0.2318512 0.09339829
0.09313964 0.062343705 0.33034277 0.10813121 0.06523936 -0.25083286 0.13618776 -0.42871884
0.14912553 -0.40229675 -0.14837806 0.22377151 -0.28615943 0.35440966 -0.25611755 0.42850325
0.14624394 -0.18263473 0.27315497 -0.41231638 -0.29185063 -0.28627554 0.051838607 0.05023636
-0.40417215 0.43015745 0.014160173 -0.2253362 0.001414517 -0.2088136 0.13323195 0.15241793
-0.11918311 0.046072435 0.23333593 -0.30066216 -0.10189529 -0.085941546 -0.30400127 0.030286664
00000000: 694b e0bd b563 673e a1f4 973e 1904 aabe
00000010: 16f5 d53e f795 92bd d71d 063e 1987 debe
00000020: 922f 473d dc29 67be 80b3 a2be 2804 40be
00000030: 1403 66bb f015 ecbd edb0 8ebe 9088 a53e
00000040: 2b97 fe3d e5ea e7be a033 db3d 3eaf ed3d
00000050: 4942 3a3d 6adc e13d 3021 7cbd 1702 4c3e
00000060: 3b6c 95be 514d 47be 722c ae3e 69f7 87be
00000070: a496 693e e240 d83e 0fa2 d2be 5ba9 52be
00000080: 6147 c23e b41d 86bd 68e9 a03d 02f3 423d
00000090: 48ed 3b3e 55b7 4abe c68e 7e3d a3cc 9e3e
000000a0: 4321 b6bc cf52 d3be fa94 263e cbda e8bd
000000b0: 3902 ddbd 230c 713e 4def cd3d 2fbc 89be
000000c0: ab0a 63be 4bfc cebd 98c8 00be 983a 81bd
000000d0: ed8c aebe a8aa a03e 676a 6d3e 9a47 bf3d
000000e0: ffbf be3d 1d5c 7f3d b022 a93e e573 dd3d
000000f0: 379c 853d 2a6d 80be ce74 0b3e 0981 dbbe
00000100: 5db4 183e d7f9 cdbe 6bf0 17be 5c24 653e
00000110: 7d83 92be 2f75 b53e d721 83be c764 db3e
00000120: f9c0 153e 9904 3bbe f8da 8b3e 221b d3be
00000130: 726d 95be b592 92be b854 543d a4c4 4d3d
00000140: a7ef cebe 993d dc3e 1200 683c 88be 66be
00000150: 5167 b93a 3bd3 55be f56d 083e 7213 1c3e
00000160: 4616 f4bd 73b6 3c3d 9def 6e3e 64f0 99be
00000170: 7aae d0bd 1f02 b0bd 0ea6 9bbe bd1b f83c

weight f4 [96]
1.0036216 1.0008273 0.99857944 1.0052688 0.99503714 0.99698013 0.9948541 1.011975
0.9969283 0.99721825 1.0056138 0.99592835 0.99178994 0.98980045 1.002828 0.9973203
1.001984 0.99115604 0.9988192 0.9989921 0.99501616 1.0013583 1.0100001 0.99915224
0.9949199 0.99928224 0.9974991 0.9992442 0.9990708 0.9946032 0.99849606 1.0071343
1.0057828 1.019208 0.9922862 1.004059 0.9929727 0.99813026 1.0000957 0.99629843
1.0037289 1.0078516 0.9971336 0.9987885 0.9953141 0.995355 0.9927071 0.9994602
0.9919177 1.0067275 1.0036105 1.0024257 1.0073507 0.99546486 0.9993506 0.99859226
1.0008419 0.99828786 0.9996184 1.0060134 0.9917483 1.0005044 1.0057634 0.9977596
1.001761 1.0032827 0.9988934 1.0056503 1.0005727 0.9974078 1.0032692 0.99807143
0.9981057 0.9973594 0.99739915 1.0070409 0.9969285 0.997321 0.99594057 0.9960575
1.0049229 0.9975397 1.0004041 0.9978783 0.9979752 0.99738646 0.9987265 0.9984047
1.0008767 1.0000241 1.0076056 1.0079154 1.0062898 1.0018289 1.0045129 0.9963642
00000000: ac76 803f 1c1b 803f e7a2 7f3f a6ac 803f
00000010: c1ba 7e3f 173a 7f3f c2ae 7e3f 6688 813f
00000020: b136 7f3f b249 7f3f f4b7 803f 29f5 7e3f
00000030: f2e5 7d3f 9063 7d3f ab5c 803f 6250 7f3f
00000040: 0341 803f 67bc 7d3f 9db2 7f3f f2bd 7f3f
00000050: 61b9 7e3f 822c 803f af47 813f 71c8 7f3f
00000060: 12b3 7e3f f6d0 7f3f 1a5c 7f3f 78ce 7f3f
00000070: 1bc3 7f3f 519e 7e3f 709d 7f3f c7e9 803f
00000080: 7ebd 803f 6875 823f 7806 7e3f 0185 803f
00000090: 7533 7e3f 7785 7f3f 2303 803f 6a0d 7f3f
000000a0: 307a 803f 4801 813f 2644 7f3f 9ab0 7f3f
000000b0: e8cc 7e3f 96cf 7e3f 0d22 7e3f a0dc 7f3f
000000c0: 52ee 7d3f 72dc 803f 4f76 803f 7c4f 803f
000000d0: def0 803f c9d6 7e3f 71d5 7f3f bea3 7f3f
000000e0: 961b 803f cb8f 7f3f fee6 7f3f 0cc5 803f
000000f0: 37e3 7d3f 8710 803f dbbc 803f 2c6d 7f3f
00000100: b439 803f 916b 803f 7ab7 7f3f 26b9 803f
00000110: c412 803f 1e56 7f3f 206b 803f 9c81 7f3f
00000120: db83 7f3f f252 7f3f 8d55 7f3f b7e6 803f
00000130: b536 7f3f 6e50 7f3f f6f5 7e3f a0fd 7e3f
00000140: 50a1 803f c35e 7f3f 3e0d 803f f474 7f3f
00000150: 4d7b 7f3f b854 7f3f 8aac 7f3f 7397 7f3f
00000160: ba1c 803f ca00 803f 38f9 803f 5f03 813f
00000170: 1bce 803f ee3b 803f e193 803f b911 7f3f

bias f4 [96]
0.0062125046 -0.00021406231 0.0036888367 0.0018676175 -0.011392922 0.0009889227 -0.000859025 -0.009004792
-0.0034530254 -0.009528936 -0.012275922 -0.005750868 0.0010920682 -0.0030285697 0.007999469 0.006238771
-0.0036614556 0.0023660362 -0.0019610676 0.002320318 -0.002389975 0.0008481469 -0.0065770093 -0.0029720392
0.003941556 -0.0027576345 -0.003868307 0.0013112599 0.015915219 -0.0060819522 0.0008056288 -0.0027136295
-0.0035664646 -0.0029431044 0.0003946762 0.0015907619 -0.0021524874 0.0028660663 -0.009699276 0.004375243
0.011380558 0.0016777847 -0.0010530581 0.006117184 0.0028507693 0.00021286638 -0.0065237703 9.253694e-05
0.001351276 0.0023924103 -0.005122552 0.002392601 0.005556849 0.005461875 0.004438005 0.0017118697
0.007962031 -0.002389685 0.00029858848 0.0038435673 0.0021840732 0.0026834963 0.0034944098 0.0055313217
0.0004817009 -0.0012634821 -0.007387697 -0.0061431136 -0.008939138 0.002119919 -0.007295538 -0.004129316
0.0043896283 0.00097156205 0.0041680564 0.0015199379 0.003323665 0.0019029282 -0.006710495 -0.0024587496
-0.0017021534 0.0031718977 0.0076205996 -0.0023698194 -0.00047317476 -0.000765239 0.0034451836 0.0031697506
-0.005363188 -0.006665542 0.0074170036 -0.00072660093 0.0025928123 0.0015007963 -0.007434977 -0.00021020381
00000000: 4492 cb3b ea75 60b9 69c0 713b d8ca f43a
00000010: 61a9 3abc bd9e 813a 3130 61ba d688 13bc
00000020: 274c 62bb 411f 1cbc f320 49bc c771 bcbb
00000030: ba23 8f3a f87a 46bb 3410 033c 9b6e cc3b
00000040: 08f5 6fbb 800f 1b3b 4185 00bb 7a10 183b
00000050: 20a1 1cbb 2d56 5e3a f483 d7bb 8bc6 42bb
00000060: 2b28 813b 6eb9 34bb 6c83 7dbb 95de ab3a
00000070: a260 823c 1d4b c7bb d530 533a 26d7 31bb
00000080: 59bb 69bb 19e1 40bb 8bec ce39 1d81 d03a
00000090: bf10 0dbb 9dd4 3b3b b6e9 1ebc 335e 8f3b
000000a0: 8575 3a3c 1de9 db3a c406 8aba a972 c83b
000000b0: f9d3 3a3b e234 5f39 5ac5 d5bb 6410 c238
000000c0: 4c1d b13a fcc9 1c3b 15db a7bb 2fcd 1c3b
000000d0: 3a16 b63b 87f9 b23b af6c 913b d160 e03a
000000e0: 2e73 023c 439c 1cbb de8b 9c39 5ce4 7b3b
000000f0: ab22 0f3b 99dd 2f3b 7802 653b 1740 b53b
00000100: cd8c fc39 6d9b a5ba 7f14 f2bb 2c4c c9bb
00000110: 7675 12bc 57ee 0a3b 690f efbb 374f 87bb
00000120: dfd6 8f3b 6db0 7e3a 3194 883b a738 c73a
00000130: d8d1 593b ad6b f93a b6e3 dbbb f922 21bb
00000140: ca1a dfba 9ddf 4f3b 39b6 f93b f94e 1bbb
00000150: 7114 f8b9 529a 48ba 97c8 613b 97bb 4f3b
00000160: afbd afbb 9e6a dabb 560a f33b 5d79 3eba
00000170: 2cec 293b 5eb6 c43a 1ca1 f3bb 286a 5cb9

running_mean f4 [96]
0.04903757 0.27678123 0.4812565 0.06870279 0.46619052 0.10163385 0.13754612 0.027271254
0.22252336 0.17048463 0.031162512 0.35524958 0.36932594 0.16321498 0.088703215 0.33273885
0.26925468 0.00027728907 0.26933587 0.24232346 0.13102737 0.17320865 0.052719086 0.20812139
0.07788998 0.1857725 0.6086178 0.106336065 0.32408068 0.41558665 0.24212003 0.05940398
0.41222242 0.028380647 0.18669724 0.18505538 0.32784498 0.09805235 0.19087206 0.5090878
0.12228736 0.07121714 0.3551407 0.12693882 0.088929765 0.41863212 0.26091176 0.17008409
0.012319938 0.06573736 0.07974196 0.03448799 0.03988289 0.45995906 0.25265494 0.36517215
0.1741547 0.22417167 0.4318152 0.17818491 0.3195439 0.08189219 0.12697402 0.008425497
0.23159668 0.1082883 0.13119107 0.32527643 0.1227201 0.66110045 0.044928048 0.4434265
0.22492218 0.18839361 0.48990825 0.0076351985 0.02855446 0.09484735 0.41436207 0.31994158
0.021340074 0.4569847 0.14715482 0.043885324 0.31361353 0.19368507 0.22204468 0.17585206
0.17844518 0.18119404 0.26717246 0.052025743 0.060218625 0.06740618 0.02073387 0.22063345
00000000: 9edb 483d 45b6 8d3e 4167 f63e 0cb4 8c3d
00000010: 86b0 ee3e 6825 d03d e4d8 0c3e f767 df3c
00000020: 2add 633e 8693 2e3e 8648 ff3c 46e3 b53e
00000030: 4a18 bd3e d421 273e 08aa b53d bf5c aa3e
00000040: c0db 893e 1c61 9139 64e6 893e a423 783e
00000050: 0a2c 063e 9c5d 313e f8ef 573d c61d 553e
00000060: c884 9f3d 253b 3e3e 60ce 1b3f b9c6 d93d
00000070: e7ed a53e c6c7 d43e 50ee 773e 9651 733d
00000080: d10e d33e 887e e83c 902d 3f3e 287f 3d3e
00000090: 4cdb a73e accf c83d f773 433e 9453 023f
000000a0: cc71 fa3d 4bda 913d 00d5 b53e 40fc 013e
000000b0: cf20 b63d f356 d63e 3a96 853e 862a 2e3e
000000c0: 91d9 493c 4fa1 863d c14f a33d 4743 0d3d
000000d0: 3e5c 233d c17f eb3e fd5b 813e d8f7 ba3e
000000e0: 9c55 323e 428d 653e e216 dd3e 1b76 363e
000000f0: 429b a33e 18b7 a73d 7a05 023e 190b 0a3c
00000100: ae27 6d3e 42c6 dd3d f456 063e a28a a63e
00000110: ad54 fb3d e13d 293f 7906 383d cc08 e33e
00000120: 0052 663e 41ea 403e 41d5 fa3e b030 fa3b
00000130: 0beb e93c 543f c23d 4427 d43e 62cf a33e
00000140: 61d1 ae3c e6f9 e93e c1af 163e 19c1 333d
00000150: f491 a03e 6155 463e ae5f 633e 9012 343e
00000160: 55ba 363e ee8a 393e d4ca 883e f218 553d
00000170: cea7 763d 400c 8a3d 14da a93c bced 613e

running_var f4 [96]
0.009001205 0.047586415 0.4692196 0.025113845 0.13985643 0.019838411 0.021122934 0.00380209
0.105487764 0.059761807 0.0053160023 0.30970168 0.30702895 0.042392656 0.023798544 0.022934498
0.0653391 5.02978e-05 0.054185238 0.08256281 0.022602485 0.029643588 0.0049683857 0.019530296
0.016185898 0.108938545 0.54222596 0.05288272 0.10415293 0.055937126 0.21655545 0.0067204935
0.0274545 0.0027455967 0.060240097 0.071940824 0.07811673 0.04049916 0.032665297 0.17857182
0.0496149 0.02775766 0.14684543 0.02410447 0.021259304 0.17570916 0.07638817 0.045400806
0.0009736464 0.008390674 0.016518135 0.0037034668 0.008950273 0.124221236 0.032046176 0.2614926
0.068424694 0.058227103 0.3219219 0.021389306 0.12471144 0.032462705 0.0063837916 0.0012382086
0.060638398 0.044360723 0.04977023 0.089421816 0.026028961 0.76954854 0.013534345 0.035542235
0.08507456 0.14131492 0.41935623 0.0007477079 0.0043888213 0.044880792 0.35331947 0.14434402
0.0028895189 0.08281012 0.050660267 0.008112057 0.12901652 0.10875133 0.03886093 0.02344152
0.08243406 0.044621628 0.06298713 0.019153874 0.008840917 0.010281635 0.004124125 0.1208237
00000000: ca79 133c f9e9 423d 8d3d f03e 8dbb cd3c
00000010: 8636 0f3e 2a84 a23c 010a ad3c 7c2c 793b
00000020: f809 d83d ccc8 743d dc31 ae3b 3891 9e3e
00000030: e632 9d3e eca3 2d3d 2af5 c23c 21e1 bb3c
00000040: 82d0 853d daf6 5238 57f1 5d3d b116 a93d
00000050: d928 b93c 1cd7 f23c d7cd a23b 00fe 9f3c
00000060: 4a98 843c 2c1b df3d 52cf 0a3f 8d9b 583d
00000070: 224e d53d 541e 653d b6c0 5d3e 9637 dc3b
00000080: 42e8 e03c 78ef 333b 52be 763d b655 933d
00000090: aafb 9f3d 72e2 253d 0ccc 053d 88db 363e
000000a0: fe38 4b3d 0864 e33c a65e 163e bd76 c53c
000000b0: fe27 ae3c 1aed 333e 6771 9c3d 32f6 393d
000000c0: 4e3c 7f3a 0a79 093c 0a51 873c ddb5 723b
000000d0: 2aa4 123c b467 fe3d da42 033d 5ce2 853e
000000e0: 3f22 8c3d 8b7f 6e3d f3d2 a43e a038 af3c
000000f0: b668 ff3d 9df7 043d 202f d13b 634b a23a
00000100: f85f 783d 97b3 353d dedb 4b3d c922 b73d
00000110: b03a d53c 2201 453f 28bf 5d3c bc94 113d
00000120: 923b ae3d dcb4 103e dcb5 d63e d401 443a
00000130: 1ad0 8f3b ecd4 373d 4ae6 b43e ebce 133e
00000140: 155e 3d3b 5a98 a93d 2481 4f3d 6fe8 043c
00000150: e81c 043e 04b9 de3d a32c 1f3d 6e08 c03c
00000160: 30d3 a83d 2bc5 363d 65ff 803d 96e8 9c3c
00000170: 7ed9 103c 4e74 283c ab23 873b 6b72 f73d

weight f4 [256, 96]
0.006738751 -0.08462884 0.020168122 0.09570589 0.05208173 -0.057283796 0.09272145 -0.070745796
-0.052172206 0.04480706 0.07594744 0.09481694 0.087495945 -0.05568469 0.02145775 -0.06469473
0.0028328788 0.088901706 0.047007523 -0.094569564 -0.043607183 -0.08762175 0.046119217 -0.013218419
-0.07909803 -0.034929216 0.031751104 0.006334921 0.09463113 -0.0009356094 0.027970435 -0.033497803
0.010460876 0.007165656 0.08477948 0.039672572 -0.05967336 -0.09270489 -0.0988327 -0.039521538
0.015151192 0.09175307 -0.011138458 0.038939063 0.049971454 -0.07942576 -0.08472201 0.03586809
0.049352568 -0.04948873 0.015801646 -0.10382179 -0.0017669841 0.021893093 0.0007270707 -0.016836427
0.041835714 -0.028222838 0.074004605 -0.08658475 -0.06129844 -0.08793093 -0.088939965 0.07630143
-0.027830575 -0.08395598 0.0163112 -0.07833306 0.001230076 0.047902666 -0.026432958 0.050848193
0.020555241 -0.08282621 0.018800605 0.064417675 -0.023256578 0.007051282 0.011606713 0.0089327125
0.0230569 -0.09943479 0.07791679 0.042763703 0.012276797 0.017256161 -0.08367573 -0.030574072
-0.007186707 0.023561038 -0.05742231 0.009416718 -0.039590485 0.073712036 -0.08774323 0.0088282125
0.066125445 -0.073973574 0.00037122 0.047545806 0.045462556 0.0071832635 0.043506477 -0.073085174
0.08122681 0.0057202885 0.07037478 0.019043071 -0.016129665 0.04664597 0.0983714 0.09916524
-0.084471144 0.0073293676 -0.07480134 0.061789893 0.07558228 -0.07223735 -0.006503952 0.070701666
0.06634666 -0.073418826 0.06492643 -0.013038272 -0.08528105 0.016760102 0.05014011 0.056845423
-0.06611784 -0.076577745 -0.0717722 0.060479 -0.09093336 -0.005845768 -0.025292207 0.041907534
0.022156956 -0.051176883 0.020897487 0.09768459 0.01727764 -0.047763668 0.005721261 -0.09590623
-0.07086247 -0.019138208 -0.059798617 0.081745714 0.019128783 0.07882708 -0.019460639 -0.017190393
0.027479516 -0.026146526 -0.031624217 -0.100137524 0.0736545 0.09569058 -0.09947608 -0.032383125
-0.076955736 -0.043423645 0.07674144 0.059037484 -0.009317986 0.039504677 0.034687243 0.06272145
-0.07843684 0.035089612 -0.09354496 -0.067802146 -0.040832426 -0.0054999506 -0.10035771 0.0062748226
0.015382849 -0.03835624 0.028112324 0.09215938 -0.014248183 -0.057363372 -0.091779545 -0.072262615
-0.052414402 -0.071839616 -0.04110553 0.056427978 0.029682541 0.09688885 0.10132779 -0.03392597
-0.038902603 0.012830145 -0.080187894 0.05437703 -0.018710619 -0.08309539 -0.0755658 -0.07179726
0.028144026 0.07855796 0.08355219 -0.027297316 -0.05838662 -0.04232885 -0.07110139 -0.025897939
-0.09287087 0.057812575 -0.09857283 -0.0628242 0.06932045 -0.07871151 0.022154931 0.07596227
0.098704316 0.05138133 -0.02602409 0.056920364 -0.0038558894 -0.03151657 -0.001803488 0.023173407
0.06579586 0.04644107 0.04826656 0.014071138 -0.0069970894 0.043909 0.024062488 -0.09922104
0.018950215 -0.051063232 -0.05369612 0.03983233 0.023230426 0.016912075 -0.04869331 0.047532473
0.097666375 0.010580301 0.043777544 -0.08880222 0.055723332 0.03278054 0.044747684 0.04394127
-0.025954869 -0.006184127 0.09899406 0.0760859 -0.072749995 0.078324 0.10298606 0.013328961
00000000: bed0 dc3b e351 adbd 9e37 a53c 7301 c43d
00000010: a753 553d 6aa2 6abd bee4 bd3d 2ce3 90bd
00000020: 86b2 55bd 9c87 373d 558a 9b3d 622f c23d
00000030: 1331 b33d a115 64bd 2ac8 af3c ac7e 84bd
00000040: d2a7 393b 1912 b63d f68a 403d b0ad c1bd
00000050: 729d 32bd 0873 b3bd 81e7 3c3d 1192 58bc
00000060: 26fe a1bd f011 0fbd 720d 023d 2b95 cf3b
00000070: f7cd c13d af43 75ba 4122 e53c fe34 09bd
00000080: 1864 2b3c e1cd ea3b dda0 ad3d b57f 223d
00000090: 0e6c 74bd 10dc bdbd cc68 cabd 56e1 21bd
000000a0: b53c 783c 09e9 bb3d 147e 36bc 917e 1f3d
000000b0: deae 4c3d f9a9 a2bd bc82 adbd 6bea 123d
000000c0: eb25 4a3d b2b4 4abd 7472 813c 85a0 d4bd
000000d0: 269a e7ba 2559 b33c e498 3e3a 8cec 89bc
000000e0: ed5b 2b3d 9533 e7bc ba8f 973d 5853 b1bd
000000f0: 1314 7bbd 2215 b4bd 2826 b6bd ed43 9c3d
00000100: f2fc e3bc 1df1 abbd 119f 853c 156d a0bd
00000110: 803a a13a 9635 443d ee89 d8bc 3246 503d
00000120: 7763 a83c caa0 a9bd ba03 9a3c 6aed 833d
00000130: 9484 bebc 710e e73b 152a 3e3c 835a 123c
00000140: d3e1 bc3c 78a4 cbbd d792 9f3d fe28 2f3d
00000150: 9e24 493c cb5c 8d3c 2e5e abbd 7a76 fabc
00000160: 787e ebbb 1403 c13c a833 6bbd 9448 1a3c
00000170: a229 22bd 56f6 963d b9b2 b3bd 35a4 103c
00000180: c76c 873d 757f 97bd 4ea0 c239 64bf 423d
00000190: f236 3a3d 9561 eb3b d933 323d aead 95bd
000001a0: 3e5a a63d 4271 bb3b a720 903d 3700 9c3c
000001b0: 5c22 84bc d80f 3f3d f276 c93d 2517 cb3d
000001c0: 35ff acbd 312b f03b 7231 99bd 6617 7d3d
000001d0: e2ca 9a3d 2df1 93bd 1b1f d5bb 09cc 903d
000001e0: c2e0 873d 9c5c 96bd 26f8 843d 7a9e 55bc
000001f0: d5a7 aebd 7b4c 893c b75f 4d3d bfd6 683d
00000200: ca68 87bd cbd4 9cbd 4efd 92bd d4b8 773d
00000210: 453b babd db8d bfbb 9a31 cfbc 3ca7 2b3d
00000220: 8182 b53c da9e 51bd 3531 ab3c dc0e c83d
00000230: d689 8d3c d6a3 43bd 6a79 bb3b 7c6a c4bd
00000240: 5820 91bd bbc7 9cbc 65ef 74bd 4c6a a73d
00000250: f7b3 9c3c 1870 a13d eb6b 9fbc ded2 8cbc
00000260: b91c e13c 3d31 d6bc 6588 01bd e714 cdbd
00000270: 2cd8 963d 6cf9 c33d 1dba cbbd 2ba4 04bd
00000280: f89a 9dbd fedc 31bd 9e2a 9d3d 4ad1 713d
00000290: 77aa 18bc a8cf 213d 3614 0e3d 1b74 803d
000002a0: 7ea3 a0bd 20ba 0f3d 8094 bfbd dadb 8abd
000002b0: e73f 27bd ee38 b4bb 5888 cdbd 079d cd3b
000002c0: 5808 7c3c 6f1b 1dbd d14b e63c 0fbe bc3d
000002d0: 3671 69bc dbf5 6abd eaf6 bbbd 6cfe 93bd
000002e0: 7cb0 56bd a620 93bd 465e 28bd 0621 673d
000002f0: cd28 f33c a96d c63d f284 cf3d f5f5 0abd
00000300: 5658 1fbd 8735 523c 8d39 a4bd 73ba 5e3d
00000310: 0347 99bc ea2d aabd 3ec2 9abd 710a 93bd
00000320: 4d8e e63c ffe2 a03d 691d ab3d 9f9e dfbc
00000330: cf26 6fbd 0461 2dbd 9b9d 91bd ea27 d4bc
00000340: 1533 bebd e1cc 6c3d 8de0 c9bd f9a9 80bd
00000350: e1f7 8d3d 8033 a1bd 427e b53c 1b92 9b3d
00000360: 7d25 ca3d 3b75 523d 7930 d5bc 5425 693d
00000370: 17b3 7cbb 8517 01bd 0463 ecba 28d6 bd3c
00000380: fbbf 863d fe38 3e3d 28b3 453d a18a 663c
00000390: d747 e5bb ecd9 333d b21e c53c 6734 cbbd
000003a0: 7b3d 9b3c ae27 51bd 76f0 5bbd 3a27 233d
000003b0: bc4d be3c 318b 8a3c a372 47bd 69b1 423d
000003c0: 4f05 c83d 0059 2d3c 1550 333d f0dd b5bd
000003d0: 263e 643d e344 063d 5949 373d c3fb 333d
000003e0: 4e9f d4bc 38a4 cabb 66bd ca3d edd2 9b3d
000003f0: f3fd 94bd 5568 a03d 5bea d23d b761 5a3c

bias f4 [256]
-0.05535348 0.03764778 -0.0735505 -0.07990572 -0.013658956 0.004586966 -0.07443053 0.08153896
-0.04522701 -0.01144038 -0.026360149 -0.0034275865 0.07856164 -0.050143424 -0.005339768 -0.009385305
-0.007438327 0.10044042 0.04637125 0.014967078 0.023844022 0.096522786 -0.10036619 0.0837635
-0.078100085 0.014763775 -0.041735366 0.077611014 -0.06723811 0.054296546 -0.07612719 -0.02688053
0.007443086 -0.06064094 -0.0268381 0.037390266 -0.060827665 -0.055316847 0.0368649 0.08487223
-0.015586432 -0.08082271 -0.091904655 -0.0258882 -0.032830097 -0.104628585 0.012327044 0.08358525
0.054561324 0.07885343 -0.043415435 -0.07876276 -0.07275474 -0.0007681333 -0.008788102 0.041682262
0.010258477 -0.034700215 -0.026780637 0.03219623 -0.035847653 -0.026377076 0.08001281 0.08273438
0.020677667 0.09859685 0.013792313 0.06952687 0.022326734 0.040486533 0.036575567 -0.029809138
0.06105893 -0.08910901 0.0058215745 0.0030083703 -0.0034246086 -0.029008152 -0.07114229 0.07076509
-0.085678995 -0.09730591 -0.086624265 0.03913339 -0.0077239578 -0.046001185 0.08783303 -0.09861207
-0.008602293 0.06108831 0.05827856 -0.07914846 -0.04042461 0.09589679 -0.041284103 -0.0683403
0.082132444 0.08111491 0.028575659 -0.04870709 0.054440238 -0.06821342 -0.08156042 -0.030218441
-0.08586019 0.021491624 0.06728952 0.08460247 -0.055732038 0.0033725936 -0.057947498 0.05281189
0.0153027885 0.09366886 -0.056157134 -0.029743765 -0.0024837416 -0.10820998 -0.00096130534 -0.010014999
0.064567804 0.00859855 0.06869703 -0.07247797 0.01574007 -0.06437109 -0.048334315 0.048485998
-0.09146827 0.092280544 -0.08065706 0.05328704 0.016282773 0.072646834 0.031507496 -0.02043126
-0.03482519 0.035830617 -0.043042295 -0.025607893 0.048015956 -0.027637638 -0.00940235 -0.058598604
-0.024858918 -0.041802365 -0.019985508 -0.0006274884 0.042635385 -0.074190125 -0.051178485 -0.029145407
-0.038169835 -0.01241976 0.05555436 0.07650602 -0.031023975 0.052529298 -0.024971731 0.046960656
-0.037535436 0.0026585143 -0.07707837 -0.011524159 -0.031242335 0.05424121 -0.012632406 -0.08583722
0.03414088 -0.06877835 0.083960086 0.010996965 0.027844915 -0.026950827 -0.09114606 0.06337192
-0.050992582 0.07958958 -0.06930024 -0.03415634 0.032101534 0.10438559 -0.02532872 0.05024124
0.07533569 -0.10038672 0.09353785 0.004125578 -0.04891005 -0.0005810005 0.031354744 0.04431411
-0.09685925 0.03867504 0.039650347 -0.07619939 0.031345244 0.09046368 -0.0046071876 -0.037707373
-0.029927295 -0.09806566 0.05956744 -0.024987822 -0.07667027 -0.030802337 -0.06948757 0.044894714
0.09149001 -0.09991712 0.007557405 -0.048188582 -0.04965848 0.01133776 -0.07485486 0.09445291
0.025953107 0.0038956234 -0.022330428 0.093280554 0.022952897 -0.09031068 -0.012969333 -0.039012793
-0.05048251 -0.06051671 0.054476254 -0.023105131 0.1031084 -0.06493055 -0.08065657 0.035926264
-0.07359241 0.07967687 0.074678876 -0.03319468 -0.026616689 0.03164174 -0.015218984 -0.07494375
-0.074863255 0.08221771 -0.022855472 -0.04029321 -0.017043756 0.034507085 -0.012420492 -0.057497602
-0.0015796291 0.07219486 -0.09274643 0.035390474 -0.040982872 -0.0727889 -0.005401378 0.027715579
00000000: 55ba 62bd 8f34 1a3d a5a1 96bd 9ca5 a3bd
00000010: d0c9 5fbc 424e 963b 096f 98bd e6fd a63d
00000020: f53f 39bd 6e70 3bbc 3df1 d7bc 5ca1 60bb
00000030: ede4 a03d 3163 4dbd 38f9 aebb d3c4 19bc
00000040: 36bd f3bb b5b3 cd3d c8ef 3d3d 7a38 753c
00000050: 8a54 c33c bdad c53d ca8c cdbd 338c ab3d
00000060: f0f2 9fbd c3e3 713c b4f2 2abd 86f2 9e3d
00000070: 22b4 89bd 0e66 5e3d 92e8 9bbd 8f34 dcbc
00000080: 21e5 f33b a262 78bd 93db dbbc 8926 193d
00000090: 6e26 79bd eb93 62bd a6ff 163d 7ed1 ad3d
000000a0: 3c5e 7fbc 6186 a5bd 8238 bcbd 7e13 d4bc
000000b0: da78 06bd 8347 d6bd 5ff7 493c be2e ab3d
000000c0: b27b 5f3d e87d a13d 62d4 31bd 5f4e a1bd
000000d0: 7000 95bd 8e5c 49ba f9fb 0fbc 05bb 2a3d
000000e0: 2c13 283c d021 0ebd 1163 dbbc 32e0 033d
000000f0: fdd4 12bd bd14 d8bc c2dd a33d a570 a93d
00000100: 3664 a93c 25ed c93d 27f9 613c 1b64 8e3d
00000110: 8ee6 b63c 35d5 253d 43d0 153d 4b32 f4bc
00000120: ee18 7a3d c97e b6bd e8c2 be3b 1428 453b
00000130: 666f 60bb 81a2 edbc 0db3 91bd 4aed 903d
00000140: 7878 afbd 5248 c7bd 1068 b1bd 554a 203d
00000150: 4119 fdbb bd6b 3cbd cee1 b33d 20f5 c9bd
00000160: a2f0 0cbc bc37 7a3d 80b5 6e3d 9618 a2bd
00000170: 4794 25bd 8965 c43d 8519 29bd 00f6 8bbd
00000180: 0e35 a83d 931f a63d 8017 ea3c 1681 47bd
00000190: bafc 5e3d 7ab3 8bbd 2609 a7bd aa8c f7bc
000001a0: 78d7 afbd 340f b03c 16cf 893d 0f44 ad3d
000001b0: 4747 64bd bb06 5d3b 5b5a 6dbd 4851 583d
000001c0: 8cb8 7a3c 76d5 bf3d 0605 66bd 32a9 f3bc
000001d0: 45c6 22bb 329d ddbd 1c00 7cba f315 24bc
000001e0: 203c 843d efe0 0c3c 07b1 8c3d 546f 94bd
000001f0: 52f1 803c fdd4 83bd 34fa 45bd 4199 463d
00000200: b753 bbbd 95fd bc3d 872f a5bd 8343 5a3d
00000210: 7363 853c ddc7 943d 010e 013d 755f a7bc
00000220: dca4 0ebd 20c3 123d 1e4d 30bd a5c7 d1bc
00000230: 61ac 443d 5468 e2bc 500c 1abc 1705 70bd
00000240: eea4 cbbc f538 2bbd a6b8 a3bc 097e 24ba
00000250: 71a2 2e3d fef0 97bd 88a0 51bd 59c2 eebc
00000260: f957 1cbd 407c 4bbc f88c 633d 30af 9c3d
00000270: fe25 febc f628 573d 8491 ccbc d159 403d
00000280: c2be 19bd 783a 2e3b 44db 9dbd d4cf 3cbc
00000290: edef ffbc 082c 5e3d 27f8 4ebc 6dcb afbd
000002a0: 4fd7 0b3d aadb 8cbd 44f3 ab3d 9d2c 343c
000002b0: 051b e43c fbc7 dcbc c9aa babd 23c9 813d
000002c0: 99dd 50bd ddff a23d 49ed 8dbd 85e7 0bbd
000002d0: e67c 033d 1dc8 d53d 2d7e cfbc c2c9 4d3d
000002e0: 9949 9a3d 8d97 cdbd c690 bf3d db2f 873b
000002f0: e855 48bd 494e 18ba d56d 003d b682 353d
00000300: 245e c6bd b869 1e3d 6768 223d 6d0e 9cbd
00000310: df63 003d 0645 b93d e4f7 96bb 0c73 1abd
00000320: 162a f5bc a6d6 c8bd fdfc 733d 43b3 ccbc
00000330: 4d05 9dbd 2f55 fcbc 804f 8ebd 85e3 373d
00000340: 1d5f bb3d 59a1 ccbd 1ca4 f73b 6461 45bd
00000350: b166 4bbd 03c2 393c 814d 99bd 8770 c13d
00000360: 9c9b d43c b74d 7f3b 4dee b6bc e009 bf3d
00000370: b707 bc3c cef4 b8bd 537d 54bc e1cb 1fbd
00000380: c0c6 4ebd 5fe0 77bd 7e22 5f3d f946 bdbc
00000390: 7f2a d33d 4ffa 84bd 462f a5bd 6b27 133d
000003a0: 9eb7 96bd a02d a33d 3df1 983d 25f7 07bd
000003b0: 3e0b dabc c59a 013d 0c59 79bc 1c7c 99bd
000003c0: e851 99bd c261 a83d 663b bbbc 7e0a 25bd
000003d0: 599f 8bbc 4d57 0d3d 527f 4bbc 9b82 6bbd
000003e0: 8f0b cfba e6da 933d d7f1 bdbd 9af5 103d
000003f0: a8dd 27bd 5912 95bd 0bfe b0bb c80b e33c

weight f4 [256]
0.99929863 0.9990873 0.99842113 0.99965805 0.99971807 0.99789697 0.99821836 0.99855894
1.0002891 0.9984583 0.9978734 1.0002656 0.9997667 1.00057 0.99973243 0.99834746
1.0006897 0.99934894 0.9967328 0.9981652 0.99842066 1.0016319 1.0002774 0.9998144
1.0007426 1.0000399 0.99905187 1.0017649 0.997952 1.0001088 0.99833506 0.99987024
0.9984715 1.0006796 1.0013995 1.0005953 1.0019695 1.0006967 0.9984606 1.0001184
0.9988116 0.99998856 0.9997787 0.997846 1.0010387 1.0009894 0.9992647 0.99916273
1.0014635 1.0000229 1.0008744 0.9986776 0.9997438 0.9978276 1.0021983 0.9996382
1.0013795 1.0001973 1.0000699 1.0003988 0.99848175 1.00153 0.9980536 0.99947524
1.0000527 1.0006398 0.99874914 0.99998236 0.9994189 0.99980336 0.99846756 1.000236
0.99897736 1.0010632 1.0004793 1.0047563 1.002448 0.9976663 0.9985409 0.9986523
0.9996385 1.00129 0.99939495 0.9966168 1.0018498 0.9955732 0.9980892 1.0000584
0.9971019 0.9992241 0.99903876 1.0005059 1.0015972 0.99775267 0.9984213 0.9989888
0.9988255 1.0019801 1.0012596 0.99807566 0.99842745 1.0011321 1.0011528 0.9997542
0.99723226 0.9989474 1.0006411 0.99877745 1.0020245 1.0006847 1.0026486 0.99799407
0.9999551 0.999407 1.0016502 1.0002456 0.99884456 1.0001764 0.9999474 1.0006278
0.99848694 1.0003175 0.9995675 0.99893045 1.0031615 0.99858755 0.9996534 1.0002439
1.0020531 0.9988483 0.99985915 0.9984579 0.9986456 0.99991685 1.0026294 1.0004722
0.9999367 1.0003296 0.9989521 1.0004108 1.0023837 0.9962435 1.0005674 0.99885786
1.0004973 1.0020493 0.9960527 1.0008653 1.0012447 1.0015205 0.9987624 1.0012906
0.9996975 0.999708 0.9987812 0.9982798 0.9987785 1.0001327 0.99823874 0.99910456
0.99922794 0.999335 0.9998117 0.9994832 0.9987273 1.0028393 1.000153 1.0008174
1.0016059 0.998579 0.9984899 1.0007758 1.0009122 1.0038683 0.9988577 1.00163
1.0011001 0.99638665 0.99876857 1.0088044 1.0016758 0.9991401 0.99995285 0.9994445
0.998364 1.0001875 1.0022683 1.001938 0.9995754 0.9996498 1.0000048 1.0019405
1.0028569 0.9980617 1.0021547 1.0023656 1.0016457 0.99708974 0.998227 1.0015167
0.9957785 0.999697 1.0015365 0.99799055 0.99863225 1.005782 1.0003644 1.0002416
0.9984987 0.99792445 1.0027257 0.99851584 0.99709576 0.9995277 1.0025588 0.9990631
0.999959 0.99885666 1.0061915 0.9991175 0.9996879 1.0022324 0.997728 1.0017439
0.9992817 1.0015645 1.0014886 0.99958277 1.0008638 1.0038764 1.0013123 1.000683
1.0004154 0.9995416 0.99848753 1.0002544 0.9999657 1.0018458 0.9978095 1.0026435
0.9986567 0.99935526 1.001872 1.0021455 1.0017926 1.0013717 1.0013969 1.0039086
0.9992694 0.99930006 1.0017568 0.99987215 0.99978375 1.002381 0.99989533 0.99949414
00000000: 09d2 7f3f 2fc4 7f3f 8798 7f3f 97e9 7f3f
00000010: 86ed 7f3f 2d76 7f3f 3d8b 7f3f 8fa1 7f3f
00000020: 7909 803f f79a 7f3f a274 7f3f b408 803f
00000030: b6f0 7f3f ae12 803f 77ee 7f3f b393 7f3f
00000040: 9a16 803f 55d5 7f3f e129 7f3f c187 7f3f
00000050: 7f98 7f3f 7935 803f 1709 803f d6f3 7f3f
00000060: 5518 803f 4f01 803f ddc1 7f3f d539 803f
00000070: c879 7f3f 9103 803f e392 7f3f 7ff7 7f3f
00000080: d49b 7f3f 4516 803f dc2d 803f 8213 803f
00000090: 8940 803f d416 803f 1d9b 7f3f e103 803f
000000a0: 1eb2 7f3f 40ff 7f3f 7ff1 7f3f d672 7f3f
000000b0: 0922 803f 6c20 803f d0cf 7f3f 21c9 7f3f
000000c0: f52f 803f c000 803f a71c 803f 56a9 7f3f
000000d0: 36ef 7f3f a171 7f3f 0948 803f 4ae8 7f3f
000000e0: 342d 803f 7706 803f 4a02 803f 110d 803f
000000f0: 809c 7f3f 2332 803f 7180 7f3f 9cdd 7f3f
00000100: ba01 803f f714 803f 06ae 7f3f d8fe 7f3f
00000110: ebd9 7f3f 1df3 7f3f 929b 7f3f bc07 803f
00000120: fbbc 7f3f d722 803f b50f 803f db9b 803f
00000130: 3750 803f 0f67 7f3f 60a0 7f3f ada7 7f3f
00000140: 4fe8 7f3f 452a 803f 59d8 7f3f 4722 7f3f
00000150: 9d3c 803f e3dd 7e3f c682 7f3f ea01 803f
00000160: 1242 7f3f 27cd 7f3f 01c1 7f3f 9410 803f
00000170: 5634 803f b86c 7f3f 8a98 7f3f bbbd 7f3f
00000180: 07b3 7f3f e240 803f 4629 803f e381 7f3f
00000190: f198 7f3f 1925 803f c625 803f e4ef 7f3f
000001a0: 9d4a 7f3f 04bb 7f3f 0215 803f e1af 7f3f
000001b0: 5742 803f 7016 803f ca56 803f 8a7c 7f3f
000001c0: 0ffd 7f3f 23d9 7f3f 1336 803f 0c08 803f
000001d0: 47b4 7f3f c805 803f 8efc 7f3f 9214 803f
000001e0: d79c 7f3f 670a 803f a8e3 7f3f e8b9 7f3f
000001f0: 9967 803f 6fa3 7f3f 49e9 7f3f fe07 803f
00000200: 4743 803f 86b4 7f3f c5f6 7f3f f09a 7f3f
00000210: 3da7 7f3f 8dfa 7f3f 2956 803f 790f 803f
00000220: dafb 7f3f cd0a 803f 53bb 7f3f 760d 803f
00000230: 1c4e 803f d009 7f3f 9812 803f 26b5 7f3f
00000240: 4c10 803f 2743 803f 4ffd 7e3f 5b1c 803f
00000250: c928 803f d331 803f e5ae 7f3f 4a2a 803f
00000260: 2dec 7f3f ddec 7f3f 20b0 7f3f 448f 7f3f
00000270: f3af 7f3f 5904 803f 938c 7f3f 51c5 7f3f
00000280: 67cd 7f3f 6bd4 7f3f a9f3 7f3f 22de 7f3f
00000290: 98ac 7f3f 0a5d 803f 0305 803f c91a 803f
000002a0: 9f34 803f e0a2 7f3f 099d 7f3f 6c19 803f
000002b0: e41d 803f c27e 803f 23b5 7f3f 6935 803f
000002c0: 0c24 803f 3213 7f3f 4caf 7f3f 8120 813f
000002d0: ea36 803f a5c7 7f3f e9fc 7f3f 98db 7f3f
000002e0: c894 7f3f 2506 803f 544a 803f 813f 803f
000002f0: 2ce4 7f3f 0de9 7f3f 2800 803f 963f 803f
00000300: 9d5d 803f f980 7f3f 9b46 803f 844d 803f
00000310: ed35 803f 4641 7f3f ce8b 7f3f b331 803f
00000320: 57eb 7e3f 25ec 7f3f 5932 803f 4f7c 7f3f
00000330: 5da6 7f3f 77bd 803f f10b 803f eb07 803f
00000340: 9c9d 7f3f fa77 7f3f 5159 803f bc9e 7f3f
00000350: ab41 7f3f 0ce1 7f3f d953 803f 99c2 7f3f
00000360: 50fd 7f3f 12b5 7f3f e2ca 803f 2ac6 7f3f
00000370: 8ceb 7f3f 2749 803f 1a6b 7f3f 2539 803f
00000380: edd0 7f3f 4433 803f c730 803f a8e4 7f3f
00000390: 4e1c 803f 067f 803f 002b 803f 6116 803f
000003a0: 9d0d 803f f5e1 7f3f e19c 7f3f 5608 803f
000003b0: c1fd 7f3f 7c3c 803f 7270 7f3f 9f56 803f
000003c0: f7a7 7f3f bfd5 7f3f 573d 803f 4e46 803f
000003d0: bd3a 803f f32c 803f c62d 803f 1480 803f
000003e0: 1fd0 7f3f 21d2 7f3f 9139 803f 9ff7 7f3f
000003f0: d4f1 7f3f 054e 803f 24f9 7f3f d9de 7f3f

bias f4 [256]
0.0008026018 -0.0012862814 0.00092367316 -0.0015924517 -0.00021318627 0.0024314204 0.0016054653 0.0011402303
0.0010185916 -0.0017498563 -0.0045711566 0.0019341611 0.0019398044 0.0026481708 -0.0013958457 -0.00096686324
-0.0010385724 0.0029899431 4.3251108e-05 0.0019214122 0.0027277046 -0.0023899893 -0.00013299931 0.0019121489
0.00202513 -0.0039635403 -8.597529e-05 -0.0015579467 0.0024459022 -0.0033668878 0.0027941708 0.00044137813
0.0025292463 -0.0010343214 -0.0002969988 0.00043738485 0.000433204 0.0025562819 0.002691688 0.0018773719
-0.002543259 -0.0011910986 0.001274555 -0.0011323593 0.0011463594 0.00023441712 0.0010779651 -0.0014114178
-0.00064985926 0.0005378335 -0.0032381474 0.00010967935 0.0016062721 -0.0012001656 0.0024112042 0.0008867022
0.002710527 0.00013025703 0.00079878024 0.0002829073 -0.00071006705 -0.00033346756 -0.00037758565 -0.0004443291
-0.002096517 -0.0041913744 0.0008688911 0.0030294997 0.0050988873 -0.00051825173 -0.0011086185 -0.0021164478
0.0036320302 -0.0031078875 0.0026433778 -0.0015556647 0.0022905127 -0.0027122651 0.000376867 -0.0021299436
0.0032879517 0.0033124841 -0.0017119846 0.0024433653 -0.001230682 0.0020182922 0.0016646447 0.0022159505
-0.0014689378 -0.0018599811 -0.00069754885 -0.00018830741 -0.002774434 0.0011080819 -0.0005558412 0.0006628621
-0.0011326661 -0.00053233677 -0.0035238725 -0.0006259851 0.0019781443 -0.00032084403 0.0013525904 0.0025914873
-0.0012381437 -0.0001334566 -0.0014256254 0.0027425643 -0.0024193365 0.0029606142 0.002043084 -0.0023938366
0.00041287736 0.0022327488 0.003397088 0.001785639 -0.0016528658 0.0020164542 -0.0016692214 -0.0013815464
0.0020216142 0.0015080762 0.0033839752 9.382188e-05 -0.0023794863 0.0029408664 0.0011336097 -0.0011272356
-0.0008512616 -0.0007859418 -0.00023711637 0.00014042485 -0.0010216207 -0.00021397686 -0.002856861 -0.0011464065
0.0013391405 -0.001286804 -0.00032143897 0.00089065544 -0.0014900919 0.00070768275 -0.0019417101 0.0003864853
0.004070153 0.002499121 -0.001340304 0.0029704936 -8.317618e-05 0.00096297695 0.002421818 -0.0001544936
-0.00049906364 -0.0010669752 4.640294e-06 0.0011693996 -0.00013241249 -0.0008027937 -0.0015624769 0.0009766535
-0.00248696 0.0015563564 -0.0013912321 9.664838e-05 -0.00022575057 -1.7422546e-05 -0.00024461644 0.004718112
-0.00085524487 -0.0007872837 0.0034755012 0.002330809 -0.00017942971 -0.0020897484 -0.00071880425 0.00061427907
0.000687999 -0.0003128604 0.0006946076 0.00081493583 0.0023037663 0.001260954 -0.00069224846 0.0012353264
0.004871712 -3.3504668e-05 0.0003935872 -0.0004503557 -0.0021736484 0.0004529121 -0.0020023766 -0.0003853759
0.0016914587 -1.0300207e-05 -0.00045807572 0.005482116 0.0012994648 -0.0023483646 -0.0015513576 0.0004432507
-0.003249453 0.0004526151 -0.0016364449 0.0010378677 -0.0007075103 0.0001898356 -0.0009846069 -0.0005263709
0.0039731264 0.0018221114 0.0031395836 0.0005047822 -9.689699e-05 0.004716363 0.001429821 0.00026885
-0.004774034 0.0010441316 -0.0030720518 -0.00459823 0.002573589 -0.002230596 0.001047129 -0.0025482923
-0.00035359792 -0.00042734042 -0.0020843972 0.0009773577 -0.0002731718 -0.0034298284 -0.001276805 -0.0011891465
-0.0011481056 0.0035764286 -0.0012103523 -0.00066955114 0.00058805564 0.0015084705 0.0014598812 -4.8087324e-05
0.002351482 -0.0014577579 0.001672975 0.00048243892 -0.00024842494 0.0016842764 0.0021820522 0.0013125133
0.0016787307 0.0005523537 -0.00051651883 -0.0014910159 0.0011224746 -0.0010819185 -0.003106883 -0.00012621169
00000000: b265 523a 7198 a8ba a822 723a d0b9 d0ba
00000010: c18a 5fb9 7758 1f3b 7a6e d23a c873 953a
00000020: 4382 853a 6f5b e5ba a4c9 95bb ad83 fd3a
00000030: 0941 fe3a ef8c 2d3b cff4 b6ba 1875 7dba
00000040: b520 88ba ecf2 433b 8668 3538 e5d7 fb3a
00000050: 4ac3 323b 5ea1 1cbb bb75 0bb9 12a1 fa3a
00000060: 0bb8 043b 96e0 81bb a24d b4b8 0434 ccba
00000070: 6e4b 203b 01a7 5cbb 681e 373b c568 e739
00000080: b6c1 253b 1192 87ba 81b6 9bb9 cd50 e539
00000090: a81f e339 4b87 273b 0867 303b 2612 f63a
000000a0: ceac 26bb a31e 9cba f80e a73a ac6b 94ba
000000b0: 7041 963a decd 7539 824a 8d3a 53ff b8ba
000000c0: 515b 2aba 65fd 0c3a 1937 54bb a703 e638
000000d0: 8c89 d23a e04e 9dba 4b05 1e3b 9471 683a
000000e0: 19a3 313b 9b95 0839 3c65 513a 2d53 9439
000000f0: cb23 3aba 42d5 aeb9 b0f6 c5b9 d8f4 e8b9
00000100: b865 09bb cc57 89bb 4bc6 633a 928a 463b
00000110: 9114 a73b 49db 07ba 104f 91ba 1ab4 0abb
00000120: 5b07 6e3b b3ad 4bbb 853c 2d3b 72e7 cbba
00000130: 6d1c 163b 42c0 31bb 3c96 c539 8696 0bbb
00000140: ad7a 573b 4316 593b ac64 e0ba de20 203b
00000150: d64e a1ba 5345 043b 3530 da3a 7b39 113b
00000160: 6089 c0ba 9cca f3ba b6db 36ba 6374 45b9
00000170: 47d3 35bb 0f3d 913a dfb5 11ba ecc3 2d3a
00000180: f875 94ba 848c 0bba c5f0 66bb 2619 24ba
00000190: c1a3 013b f536 a8b9 6749 b13a f1d5 293b
000001a0: 3549 a2ba 7cf0 0bb9 0ddc baba 98bc 333b
000001b0: bb8d 1ebb dd06 423b 43e5 053b eae1 1cbb
000001c0: 7677 d839 4f53 123b aea1 5e3b 1a0c ea3a
000001d0: f9a4 d8ba 7d26 043b c7c9 daba 0115 b5ba
000001e0: 0f7d 043b a4aa c53a afc5 5d3b 3dc2 c438
000001f0: 28f1 1bbb 8dbb 403b a195 943a c0bf 93ba
00000200: 3327 5fba a907 4eba 71a2 78b9 023f 1339
00000210: e7e7 85ba fa5e 60b9 2d3a 3bbb 0543 96ba
00000220: 1986 af3a faa9 a8ba cf86 a8b9 e07a 693a
00000230: 304f c3ba c983 393a fb80 feba 2ea1 ca39
00000240: eb5e 853b 4bc8 233b 24ad afba 9dac 423b
00000250: df6e aeb8 4a70 7c3a 5db7 1e3b 8fff 21b9
00000260: 98d3 02ba bfd9 8bba d2b3 9b36 8a46 993a
00000270: 35d8 0ab9 9372 52ba 06cc ccba 0e03 803a
00000280: 44fc 22bb a8fe cb3a 015a b6ba b4af ca38
00000290: 75b7 6cb9 a226 92b7 dd3f 80b9 649a 9a3b
000002a0: 8332 60ba b761 4eba 3cc5 633b 7cc0 183b
000002b0: 4c25 3cb9 29f4 08bb 236e 3cba 9207 213a
000002c0: d55a 343a 6907 a4b9 5416 363a 6ba1 553a
000002d0: c9fa 163b 9846 a53a 0278 35ba adea a13a
000002e0: e2a2 9f3b 5d87 0cb8 615a ce39 b81d ecb9
000002f0: c573 0ebb d574 ed39 4e3a 03bb 470c cab9
00000300: f0b3 dd3a 0dcf 2cb7 e229 f0b9 52a3 b33b
00000310: ce52 aa3a 05e7 19bb ec56 cbba 1a64 e839
00000320: c6f4 54bb f84c ed39 fb7d d6ba 1009 883a
00000330: 3678 39ba 9b0e 4739 ed0d 81ba 27fc 09ba
00000340: 0031 823b ead3 ee3a 79c1 4d3b 5c53 043a
00000350: 2d35 cbb8 b88b 9a3b d568 bb3a 70f4 8c39
00000360: 806f 9cbb 3edb 883a 7a54 49bb c0ac 96bb
00000370: a9a9 283b 312f 12bb d23f 893a 4001 27bb
00000380: 1c63 b9b9 a90c e0b9 629a 08bb af1a 803a
00000390: 8038 8fb9 f9c6 60bb 775a a7ba 23dd 9bba
000003a0: 087c 96ba 8462 6a3b afa4 9eba d184 2fba
000003b0: bf27 1a3a dfb7 c53a 7c59 bf3a 5fb1 49b8
000003c0: 521b 1a3b 3d12 bfba ba47 db3a dbef fc39
000003d0: 083f 82b9 f0c2 dc3a c300 0f3b a308 ac3a
000003e0: db08 dc3a d4cb 103a fe66 07ba 316e c3ba
000003f0: ff1f 933a 29cf 8dba d99c 4bbb b157 04b9

running_mean f4 [256]
0.19645953 0.3089205 0.20297904 0.16692045 0.13073152 0.13575351 0.33754537 0.28551632
0.19264844 0.18179399 0.23594604 0.12416541 0.29858404 0.14114279 0.13186292 0.26801908
0.15245208 0.26291996 0.19106731 0.3031539 0.20873734 0.36490387 0.23180564 0.20380872
0.17322738 0.24460652 0.24761702 0.26776376 0.12702203 0.49484706 0.18045574 0.3732753
0.2277614 0.1668543 0.190682 0.4410228 0.11098018 0.16271462 0.18817185 0.23866698
0.23224154 0.118126184 0.15499575 0.15114382 0.1294666 0.12478055 0.20312917 0.214269
0.24247187 0.22322102 0.28582454 0.26000503 0.2388901 0.32536355 0.120244116 0.18859476
0.27841735 0.1483188 0.30905682 0.21082148 0.14115308 0.32740372 0.21565926 0.4235026
0.31429884 0.2246497 0.30659854 0.3303189 0.20000176 0.29915756 0.21537973 0.23794416
0.2841387 0.13338332 0.23632152 0.29772508 0.2881542 0.27903682 0.26610726 0.24960655
0.14645927 0.105001375 0.23990855 0.267233 0.21807504 0.20033427 0.37006396 0.122907884
0.28513548 0.17954737 0.22739537 0.2093916 0.09887241 0.3587657 0.28401428 0.18817815
0.22045024 0.32471704 0.19613457 0.3484565 0.25279307 0.135507 0.06114669 0.21338978
0.19879323 0.14659908 0.26625222 0.29954073 0.082530044 0.17344396 0.093738794 0.18943408
0.3005555 0.25831887 0.1609667 0.33890718 0.19811568 0.10700166 0.18879728 0.25824064
0.18507633 0.19381985 0.2602337 0.18680339 0.24404496 0.15447201 0.21339189 0.24449739
0.13576925 0.3335006 0.11073752 0.19763905 0.1366539 0.23197578 0.13960451 0.19590205
0.16389336 0.22788468 0.24870399 0.35593352 0.3843711 0.21701878 0.19300093 0.22919302
0.10265564 0.13658139 0.16890898 0.26314226 0.27801806 0.1078092 0.20284986 0.12638003
0.2755084 0.3554479 0.27466 0.20385385 0.22034356 0.29489443 0.2317493 0.24832667
0.27919185 0.2237099 0.0903984 0.19898382 0.33000118 0.16823596 0.18486339 0.13436964
0.23907024 0.1931067 0.4333876 0.31018904 0.46377075 0.2011351 0.18908164 0.35069695
0.11188281 0.343477 0.17660873 0.15045227 0.18101104 0.20845243 0.17282188 0.19850901
0.17970818 0.25597665 0.16026828 0.15473318 0.15623423 0.22278164 0.23893704 0.3680065
0.116591185 0.31883568 0.15233314 0.10579761 0.16128334 0.3226552 0.17167011 0.2906081
0.19338728 0.34463066 0.19541276 0.20851211 0.20837799 0.14988703 0.27356407 0.27997473
0.27930284 0.10067147 0.17873032 0.15418251 0.1735109 0.189457 0.08247953 0.278752
0.29129767 0.15122198 0.12967774 0.21615867 0.2356441 0.12387961 0.19637387 0.2254004
0.128929 0.15160495 0.21340789 0.13867207 0.22064519 0.06268938 0.15151265 0.21339226
0.08289946 0.23071937 0.31671375 0.14865771 0.24388061 0.21440254 0.2323815 0.124855466
0.14437589 0.28384465 0.10734693 0.30721712 0.23517987 0.20341325 0.09598076 0.18762471
0.40450734 0.27486897 0.19697013 0.27558172 0.123643056 0.14939623 0.15636349 0.25185865
00000000: b02c 493e d42a 9e3e bdd9 4f3e 32ed 2a3e
00000010: 7cde 053e f802 0b3e bfd2 ac3e 322f 923e
00000020: a245 453e 3428 3a3e d79b 713e 6f4a fe3d
00000030: 02e0 983e bc87 103e 1307 073e cc39 893e
00000040: 661c 1c3e 729d 863e 26a7 433e fd36 9b3e
00000050: 3ebf 553e aed4 ba3e 755e 6d3e 3cb3 503e
00000060: 8562 313e 227a 7a3e 518f 7d3e 5518 893e
00000070: 1012 023e 985c fd3e 64c9 383e f11d bf3e
00000080: 493a 693e dbdb 2a3e 2442 433e becd e13e
00000090: 9449 e33d a99e 263e 1fb0 403e 1e65 743e
000000a0: bad0 6d3e 24ec f13d 35b7 1e3e 72c5 1a3e
000000b0: e492 043e f28c ff3d 1801 503e 5569 5b3e
000000c0: 8c4a 783e 0d94 643e 9857 923e 611f 853e
000000d0: 9b9f 743e 0d96 a63e 8c42 f63d fc1e 413e
000000e0: b88c 8e3e e2e0 173e b23c 9e3e 96e1 573e
000000f0: 6f8a 103e 76a1 a73e c8d5 5c3e 55d5 d83e
00000100: c7eb a03e 920a 663e 7cfa 9c3e 8f1f a93e
00000110: 43cd 4c3e 2e2b 993e 818c 5c3e a2a7 733e
00000120: a17a 913e a395 083e 45fe 713e 6c6f 983e
00000130: f388 933e eadd 8e3e 363f 883e dc98 7f3e
00000140: 6bf9 153e f60a d73d 96aa 753e c4d2 883e
00000150: 104f 5f3e 6d24 4d3e 0679 bd3e 21b7 fb3d
00000160: 47fd 913e 44db 373e 55da 683e c06a 563e
00000170: 9e7d ca3d 23b0 b73e 526a 913e c6b1 403e
00000180: b5bd 613e 5041 a63e 80d7 483e e468 b23e
00000190: 186e 813e 59c2 0a3e f474 7a3d da82 5a3e
000001a0: 7490 4b3e 121e 163e 3652 883e 675d 993e
000001b0: 8305 a93d 4b9b 313e 20fa bf3d 02fb 413e
000001c0: 69e2 993e 5f42 843e 74d4 243e 3e85 ad3e
000001d0: d6de 4a3e b023 db3d 1354 413e 1e38 843e
000001e0: a684 3d3e b678 463e 5a3d 853e 6349 3f3e
000001f0: ece6 793e e92d 1e3e 6783 5a3e 865d 7a3e
00000200: 1807 0b3e 97c0 aa3e 5aca e23d e461 4a3e
00000210: 00ef 0b3e 0f8b 6d3e 7cf4 0e3e 8c9a 483e
00000220: a9d3 273e 9a5a 693e 42ac 7e3e eb3c b63e
00000230: 4acc c43e 2c3a 5e3e 09a2 453e 93b1 6a3e
00000240: 1f3d d23d fedb 0b3e 7af6 2c3e 95ba 863e
00000250: 6258 8e3e 12cb dc3d e0b7 4f3e c469 013e
00000260: 700f 8d3e 44fd b53e 3ca0 8c3e 10bf 503e
00000270: bea1 613e 67fc 963e b04f 6d3e 5949 7e3e
00000280: 3cf2 8e3e 3514 653e cc22 b93d 6ac2 4b3e
00000290: eaf5 a83e 0c46 2c3e d44c 3d3e 3298 093e
000002a0: d4ce 743e c3bd 453e fbe4 dd3e 19d1 9e3e
000002b0: 5c73 ed3e 5cf6 4d3e 9e9e 413e 8d8e b33e
000002c0: d122 e53d 38dc af3e ebd8 343e 2910 1a3e
000002d0: f55a 393e 8e74 553e 38f8 303e f245 4b3e
000002e0: 6c05 383e 5f0f 833e 5e1d 243e 6072 1e3e
000002f0: defb 1f3e df20 643e e9ab 743e 596b bc3e
00000300: 5cc7 ee3d 6e3e a33e 38fd 1b3e 6bac d83d
00000310: 7627 253e 1033 a53e 4aca 2f3e 96ca 943e
00000320: 5107 463e 6e73 b03e 481a 483e 3384 553e
00000330: 0a61 553e fc7b 193e 9710 8c3e d958 8f3e
00000340: c800 8f3e d82c ce3d 1505 373e 05e2 1d3e
00000350: d7ac 313e 0401 423e 07eb a83d 95b8 8e3e
00000360: f824 953e efd9 1a3e 3eca 043e b358 5d3e
00000370: b04c 713e 98b4 fd3d 3b16 493e 5dcf 663e
00000380: f705 043e 543e 1b3e 9987 5a3e 0d00 0e3e
00000390: d0f0 613e 4a63 803d 2226 1b3e 8083 5a3e
000003a0: 31c7 a93d b341 6c3e 4e28 a23e ba39 183e
000003b0: d7bb 793e 578c 5b3e 6af5 6d3e 39b4 ff3d
000003c0: 46d7 133e 1654 913e b5d8 db3d 904b 9d3e
000003d0: fed2 703e 904b 503e 9091 c43d b120 403e
000003e0: 961b cf3e a0bb 8c3e 8ab2 493e 0c19 8d3e
000003f0: 9238 fd3d 53fb 183e c01d 203e 9ef3 803e
