statedicts/torchscript_pl_db_2022-05-02_T1_90deg_P0_R1_s2_seed_0.pt (torch, 225385 bytes, 29 tensors)

weight f4 [5]
0.99858487 0.99440134 0.9844452 1.0034683 1.0047165
00000000: 42a3 7f3f 1691 7e3f 9a04 7c3f a671 803f
00000010: 8d9a 803f

bias f4 [5]
-0.013939566 -0.0076580117 -0.00041508293 -0.0025410263 -0.0038139191
00000000: c762 64bc 0ff0 fabb 7d9f d9b9 5987 26bb
00000010: f2f2 79bb

running_mean f4 [5]
2.8107731 0.06407363 3.0902822 2.9504037 0.22031668
00000000: b5e3 3340 0939 833d 2fc7 4540 6ad3 3c40
00000010: b29a 613e

running_var f4 [5]
0.0029107523 5.62502e-08 0.0011748591 8.207638e-05 0.0001751967
00000000: 52c2 3e3b c097 7133 bbfd 993a 6c20 ac38
00000010: 02b5 3739

weight f4 [96, 5]
-0.29456437 0.2399324 -0.05558586 0.14498502 0.35073867 0.118176796 -0.36901823 -0.12624404
0.0877868 -0.38650584 0.08277853 -0.23715542 -0.08025966 0.17294393 -0.36127195 -0.27295363
0.2035 -0.44948888 0.31671408 -0.3398375 -0.00881716 0.09229466 0.17449202 -0.27993175
0.058051426 0.19197556 0.38286176 -0.3379732 -0.21899761 0.13415128 -0.015256058 -0.30203938
-0.3770341 -0.39806715 -0.31355312 -0.19887137 -0.31014243 -0.38460213 0.025517723 0.2585547
-0.21085536 0.045002412 -0.008099758 0.20640218 -0.3115513 0.022135835 0.41724014 0.32009012
-0.44323316 -0.06578586 0.0061525097 -0.14813375 -0.2954877 -0.30854127 0.29910922 -0.15140142
-0.028518744 0.1431131 -0.27865368 0.03430785 0.26697543 -0.26115823 0.1321762 -0.013236047
0.24545555 0.30610073 0.11766308 0.0044525065 -0.37312874 0.18945193 0.27287006 -0.16286966
-0.44401634 0.36234555 -0.10456168 0.091459595 -0.12539835 0.2825612 0.43772885 0.28238234
-0.13912988 0.31293556 0.21829577 0.048055448 -0.35756558 -0.19345039 -0.44290784 0.28921786
0.44530058 0.26496163 0.14059459 0.10586964 0.43043968 -0.22753754 -0.1511995 -0.40196162
-0.04386763 0.030068856 0.12280436 -0.31108776 -0.06631015 -0.36501262 -0.34858927 0.04493882
-0.45285702 0.12020057 -0.41207656 -0.31389177 -0.089569494 -0.42594352 0.36144778 0.3662782
-0.23351662 0.09422181 0.22916004 0.1428798 -0.05958492 -0.42137992 0.32590353 -0.39196125
-0.08382566 0.028096125 -0.14667363 -0.16289797 -0.3869493 0.02264156 -0.048774585 0.39596912
-0.14952646 0.3394334 0.021171108 -0.2009251 -0.10635571 -0.05075032 0.004632334 -0.08101322
0.1331757 0.37388113 0.06256864 0.15451552 0.27704245 0.09624564 0.20503135 0.23589319
0.41940704 -0.40761742 0.15293778 -0.021048015 -0.080922514 -0.17206076 0.26872468 0.40882763
-0.36550373 0.2418007 0.308337 0.07786016 0.0055415807 0.34402964 0.012368578 -0.11332109
-0.036814056 0.13991529 0.12036148 -0.031763487 0.1445867 0.1166441 -0.36224595 0.11620182
0.27242857 0.0471316 -0.04891008 0.34216803 -0.38699993 -0.20831545 -0.20320219 0.39001614
-0.43314782 0.034722272 -0.42763966 -0.004429145 0.16953728 -0.10449061 0.43359292 0.005729283
-0.22668973 0.111433595 0.23221993 -0.00515419 0.37355378 -0.2902064 0.2030801 0.25322074
0.20518386 0.01270059 0.13564351 -0.34739783 -0.34966558 -0.01142564 -0.06709542 0.32327518
0.3192275 0.3035841 -0.20246203 -0.3554871 -0.42240152 0.14856641 -0.40178397 -0.43904042
-0.2348451 -0.38906908 -0.17404905 -0.2817016 -0.23342814 0.42650104 -0.08149735 0.3787714
0.008633325 -0.054963127 -0.13868973 -0.3111442 -0.36146718 0.31021795 -0.13396525 -0.43970865
0.40768716 0.0028441756 -0.29926604 -0.34134936 -0.38098967 -0.39817423 0.40554282 0.3093432
0.058181167 -0.36477196 -0.13103366 -0.41887102 0.15409085 -0.12176905 -0.09302949 -0.13928331
0.20896405 0.24090625 0.085296765 -0.04102465 -0.03040073 -0.008295834 -0.3324969 0.4426077
-0.19503921 0.25394073 -0.24972564 0.002826521 0.15181978 -0.40979138 0.20595965 -0.342589
00000000: 24d1 96be d7b0 753e 00ae 63bd f476 143e
00000010: 0594 b33e ad06 f23d f5ef bcbe 1e46 01be
00000020: 91c9 b33d 18e4 c5be ca87 a93d dfd8 72be
00000030: 2d5f a4bd 3718 313e a3f8 b8be 94c0 8bbe
00000040: 4e62 503e 6823 e6be 5928 a23e 2eff adbe
00000050: d975 10bc fc04 bd3d 09ae 323e 3753 8fbe
00000060: 55c7 6d3d 3e95 443e 7506 c43e d30a adbe
00000070: e940 60be f45e 093e 8cf4 79bc e8a4 9abe
00000080: 9d0a c1be 75cf cbbe 098a a0be f0a4 4bbe
00000090: fdca 9ebe 92ea c4be 8b0a d13c 4861 843e
000000a0: 78ea 57be 7354 383d d9b4 04bc 185b 533e
000000b0: a783 9fbe 3656 b53c 80a0 d53e dae2 a33e
000000c0: 75ef e2be bdba 86bd fe9a c93b 60b0 17be
000000d0: 2a4a 97be 1ff9 9dbe d824 993e f908 1bbe
000000e0: 24a0 e9bc 3e8c 123e b2ab 8ebe 6386 0c3d
000000f0: 01b1 883e 88b6 85be 3359 073e 01dc 58bc
00000100: b358 7b3e 3cb9 9c3e 57f9 f03d 55e6 913b
00000110: bb0a bfbe b0ff 413e a0b5 8b3e 4ec7 26be
00000120: 1c56 e3be 5b85 b93e 6f24 d6bd 2b4f bb3d
00000130: 6d68 00be ddab 903e ff1d e03e 6b94 903e
00000140: 1078 0ebe 1739 a03e ed88 5f3e cad5 443d
00000150: d612 b7be dc17 46be d1c4 e2be 5d14 943e
00000160: 70fe e33e 0da9 873e 07f8 0f3e 2fd2 d83d
00000170: 9762 dc3e 9aff 68be 0bd4 1abe eacd cdbe
00000180: 8bae 33bd f652 f63c da80 fb3d e546 9fbe
00000190: 9ecd 87bd efe2 babe 4b7a b2be c511 383d
000001a0: e0dc e7be b72b f63d b3fb d2be 6cb6 a0be
000001b0: 3670 b7bd 4515 dabe af0f b93e d188 bb3e
000001c0: fb1e 6fbe 5df7 c03d eea8 6a3e 154f 123e
000001d0: 510f 74bd 1cbf d7be d4dc a63e 25af c8be
000001e0: caac abbd d829 e63c 9d31 16be bace 26be
000001f0: 381e c6be cb7a b93c dcc7 47bd 77bc ca3e
00000200: 771d 19be 37ca ad3e 086f ad3c 4fbf 4dbe
00000210: 06d1 d9bd 91df 4fbd d6ca 973b 42ea a5bd
00000220: 365f 083e 596d bf3e fd23 803d 5139 1e3e
00000230: 82d8 8d3e 6f1c c53d bdf3 513e fc8d 713e
00000240: 85bc d63e 3bb3 d0be b99b 1c3e e36c acbc
00000250: b4ba a5bd b230 30be 4896 893e db51 d13e
00000260: 4e23 bbbe 9a9a 773e 59de 9d3e 2675 9f3d
00000270: 2696 b53b a724 b03e 94a5 4a3c e314 e8bd
00000280: 56ca 16bd f445 0f3e 1480 f63d 6e1a 02bd
00000290: 890e 143e 1ae3 ee3d 4d78 b9be 38fb ed3d
000002a0: c27b 8b3e 110d 413d f055 48bd a630 af3e
000002b0: db24 c6be a550 55be 3c14 50be 32b0 c73e
000002c0: 8dc5 ddbe f138 0e3d 96f3 dabe 5c22 91bb
000002d0: 2e9b 2d3e 2cff d5bd e4ff dd3e b6bc bb3b
000002e0: 5a21 68be 4c37 e43d 10cb 6d3e 7be4 a8bb
000002f0: 7142 bf3e ef95 94be 3bf4 4f3e 26a6 813e
00000300: b81b 523e 2316 503c 22e6 0a3e 21de b1be
00000310: 5e07 b3be 9c32 3bbc 5369 89bd 5384 a53e
00000320: c971 a33e 606f 9b3e 3552 4fbe 6802 b6be
00000330: 0345 d8be cb21 183e a1b6 cdbe e8c9 e0be
00000340: 3c7b 70be 1034 c7be ea39 32be 313b 90be
00000350: c907 6fbe 585e da3e 15e8 a6bd 53ee c13e
00000360: ca72 0d3c 0421 61bd ae04 0ebe 4b4e 9fbe
00000370: 3a12 b9be e3d4 9e3e 302e 09be 7e21 e1be
00000380: 5fbc d03e 5965 3a3b 6639 99be 58c5 aebe
00000390: 1411 c3be 7edd cbbe 4fa3 cf3e 3b62 9e3e
000003a0: 604f 6e3d 64c3 babe b02d 06be 4376 d6be
000003b0: fec9 1d3e 0d62 f9bd 3f86 bebd 49a0 0ebe
000003c0: acfa 553e 21b0 763e 12b0 ae3d 7709 28bd
000003d0: f40a f9bc 40eb 07bc 093d aabe 7a9d e23e
000003e0: 5cb8 47be 8504 823e 14b8 7fbe 273d 393b
000003f0: a576 1b3e 2dd0 d1be 16e7 523e d367 afbe

bias f4 [96]
0.19012697 0.40545535 0.257179 -0.069270514 0.05636462 -0.28579432 0.20679355 -0.3544019
0.30903354 -0.2037945 -0.17556292 -0.36505243 -0.105347626 -0.047247905 -0.205922 0.31631437
0.26179397 -0.39361608 -0.044629727 0.14925802 0.43078765 -0.10452564 0.2739795 -0.024103295
-0.17118576 0.27209148 -0.39850762 0.37201503 0.44524765 -0.123975314 0.17622916 0.44571203
0.13710137 0.17749156 0.16562255 -0.1868725 0.10963985 -0.25075647 0.38278976 -0.21376185
0.095979735 -0.12558343 0.2195175 -0.010349407 0.2421824 -0.11366983 -0.27501994 0.1740597
-0.2622837 -0.36389008 0.1763016 -0.2714056 -0.15816975 -0.10920607 0.028037766 -0.1500836
-0.16137081 -0.110458285 0.3105359 0.1371332 -0.21776551 -0.3098039 0.012890559 0.14092918
-0.016712593 0.2598438 0.37360978 0.12419583 0.14789276 0.26286152 -0.14791395 0.076482035
0.36315367 -0.21314982 0.034745928 -0.19215083 -0.3525408 0.24210636 0.35922807 -0.24604069
0.17030537 0.1386235 0.17167144 0.25090986 0.4195028 0.33726883 -0.3922139 -0.17822556
0.236189 -0.255135 0.08993547 -0.19931486 0.09122526 0.21872202 0.13393976 0.32883412
00000000: a5b0 423e d897 cf3e f7ac 833e b3dd 8dbd
00000010: 96de 663d a253 92be b0c1 533e 2a74 b5be
00000020: a539 9e3e 81af 50be c4c6 33be 27e8 babe
00000030: 7fc0 d7bd 0587 41bd 37dd 52be f5f3 a13e
00000040: dc09 863e 0c88 c9be a9cd 36bd 18d7 183e
00000050: 3390 dc3e 8a11 d6bd 0b47 8c3e 4674 c5bc
00000060: 524b 2fbe 934f 8b3e 3109 ccbe c178 be3e
00000070: 80f7 e33e c5e6 fdbd 6b75 343e 5e34 e43e
00000080: 4d64 0c3e 59c0 353e f598 293e 815b 3fbe
00000090: dc8a e03d 2763 80be 05fd c33e 63e4 5abe
000000a0: 0691 c43d f198 00be 32c9 603e 8f90 29bc
000000b0: aafe 773e bacb e8bd 6acf 8cbe b53c 323e
000000c0: 0d4a 86be cd4f babe 6888 343e adf5 8abe
000000d0: 40f7 21be 6fa7 dfbd 75af e53c 84af 19be
000000e0: 643e 25be f437 e2bd 90fe 9e3e a56c 0c3e
000000f0: ecfd 5ebe 9e9e 9ebe ec32 533c bd4f 103e
00000100: d9e8 88bc 3f0a 853e c849 bf3e 625a fe3d
00000110: 3371 173e c995 863e c176 17be 9da2 9c3d
00000120: 47ef b93e f243 5abe bf51 0e3d 30c3 44be
00000130: 3a80 b4be bbea 773e beec b73e 17f2 7bbe
00000140: 8864 2e3e 52f3 0d3e a3ca 2f3e 4277 803e
00000150: 12c9 d63e 80ae ac3e 43d0 c8be c380 36be
00000160: 87db 713e 0ea1 82be 1630 b83d 3219 4cbe
00000170: 4fd4 ba3d aaf8 5f3e 8127 093e f25c a83e

weight f4 [96]
1.0019305 0.9990724 0.99885195 1.0029767 0.99948144 0.99783283 0.999321 0.9978007
0.99984664 0.9983832 1.0016558 1.0056175 1.0019622 0.99757403 0.9990248 1.0006894
1.0002086 0.9953242 0.99870133 1.0006291 0.9983224 1.002334 0.9982885 0.99979424
0.9955386 1.0005273 1.0 0.9992528 0.999519 0.99930525 0.9984379 0.99943143
0.9978921 0.998071 0.99885815 0.997778 0.99777275 1.0040094 1.0000322 1.0035204
0.9996144 0.9974502 0.9996398 0.99849725 0.99799925 0.99945277 1.0030242 0.99938345
0.9998139 0.9955489 1.002298 0.9991609 0.9991376 0.9989294 1.0030752 1.0037891
0.99870884 1.0006169 1.0016433 1.003072 0.99948835 0.9995375 1.0007111 0.9991466
1.0030885 1.0012034 0.9993602 0.998803 1.0021993 0.99930626 0.9994198 0.99791723
0.9997849 1.0021384 0.99824065 1.0072051 0.99748933 1.0030106 0.9966705 0.99788576
1.001535 0.999049 1.0013815 0.99960434 0.9989758 1.0011082 1.0006772 1.0013826
1.0024126 1.0016077 0.99967587 1.0024832 0.9973589 1.0001942 1.0029544 1.0008866
00000000: 423f 803f 35c3 7f3f c3b4 7f3f 8a61 803f
00000010: 04de 7f3f f971 7f3f 80d3 7f3f de6f 7f3f
00000020: f3f5 7f3f 0b96 7f3f 4236 803f 13b8 803f
00000030: 4c40 803f 0361 7f3f 17c0 7f3f 9716 803f
00000040: d606 803f 91cd 7e3f e4aa 7f3f 9d14 803f
00000050: 0f92 7f3f 7b4c 803f d68f 7f3f 84f2 7f3f
00000060: 9edb 7e3f 4711 803f 0000 803f 08cf 7f3f
00000070: 7ae0 7f3f 78d2 7f3f a099 7f3f bdda 7f3f
00000080: db75 7f3f 9581 7f3f 2bb5 7f3f 616e 7f3f
00000090: 096e 7f3f 6183 803f 0e01 803f 5b73 803f
000000a0: bbe6 7f3f e558 7f3f 65e8 7f3f 849d 7f3f
000000b0: e17c 7f3f 23dc 7f3f 1963 803f 98d7 7f3f
000000c0: cef3 7f3f 4bdc 7e3f 4d4b 803f 02c9 7f3f
000000d0: 7bc7 7f3f d6b9 7f3f c564 803f 297c 803f
000000e0: 62ab 7f3f 3714 803f d935 803f aa64 803f
000000f0: 78de 7f3f b1e1 7f3f 4d17 803f 12c8 7f3f
00000100: 3465 803f 6f27 803f 12d6 7f3f 8eb1 7f3f
00000110: 1148 803f 89d2 7f3f fad9 7f3f 8177 7f3f
00000120: e7f1 7f3f 1246 803f b38c 7f3f 19ec 803f
00000130: 765b 7f3f a762 803f cc25 7f3f 7175 7f3f
00000140: 4d32 803f adc1 7f3f 452d 803f 12e6 7f3f
00000150: e1bc 7f3f 5024 803f 3116 803f 4e2d 803f
00000160: 0e4f 803f ae34 803f c2ea 7f3f 5f51 803f
00000170: ea52 7f3f 5d06 803f cf60 803f 0d1d 803f

bias f4 [96]
-0.0009910141 0.00020777064 -0.00097595016 -0.0017266533 -0.00096062355 -0.0022589401 0.00013894775 0.00010464487
-0.00096592744 0.002017833 -0.00037290863 -0.0014085356 -0.0011738782 -0.0020375769 -0.0014389355 -0.0015178279
0.004366893 0.00069777074 0.0015683568 0.0019437482 0.0025278353 -0.00097372365 0.0019201171 0.0009567789
0.0019605139 0.0026928398 -0.00096895214 -0.002032334 0.0022329676 -0.00014279781 0.0012822466 0.001688767
-0.0009696182 0.0008936045 -4.7574154e-05 0.00010652434 0.000817107 -0.0020893891 -0.0009078576 -0.00011152276
0.00090963853 -0.0009905604 -0.00014601857 -0.00011410297 -0.001112852 -0.0005988673 -0.0001374014 0.0015397997
0.0020359484 0.00027095995 -0.0007854214 -0.0027618513 -0.002245202 0.0020702705 0.00013359617 -3.706833e-05
-0.00055124465 0.00011853131 0.0015643432 -0.0010754467 -0.00070336857 -0.0015193513 0.000753411 -0.0008426038
-0.004253236 -0.00047075274 -0.0023614464 -0.002765593 0.00018350167 -0.0017579659 0.0020677038 -0.0017040871
0.0017456606 0.0020090283 0.0013912995 0.00047216535 0.0017084032 -0.0015453246 -0.0012932144 -0.001698991
-0.00016952251 -0.0018671916 -0.0013790759 -0.00026265605 -0.00046172182 0.00024915725 0.00011943694 -0.0023485117
0.0010863992 -0.0032592225 0.00068171223 -0.0012218041 -0.002991228 -0.0016141612 -0.0009123112 0.0024970016
00000000: eae4 81ba 02dd 5939 e8d6 7fba df50 e2ba
00000010: 5bd2 7bba ba0a 14bb 81b2 1139 c974 db38
00000020: 4b36 7dba 9f3d 043b f382 c3b9 9d9e b8ba
00000030: d1dc 99ba de88 05bb aa9a bcba daf1 c6ba
00000040: 2718 8f3b 9aea 363a 5291 cd3a 5ec5 fe3a
00000050: 0aaa 253b 7d41 7fba 70ac fb3a 58d0 7a3a
00000060: f77b 003b 5b7a 303b 4701 7eba e830 05bb
00000070: fb56 123b ffbb 15b9 0e11 a83a 9e59 dd3a
00000080: fa2d 7eba c840 6a3a 5c8a 47b8 d265 df38
00000090: 1f33 563a 22ee 08bb 4bfd 6dba 53e1 e9b8
000000a0: cf74 6e3a b1d5 81ba 901c 19b9 914a efb8
000000b0: 1edd 91ba 4efd 1cba 6813 10b9 1bd3 c93a
000000c0: 8c6d 053b a10f 8e39 bde4 4dba 2d00 35bb
000000d0: 3d24 13bb 60ad 073b f315 0c39 d179 1bb8
000000e0: 6781 10ba 0394 f838 a60a cd3a 01f6 8cba
000000f0: 4462 38ba f824 c7ba 8e80 453a 2fe2 5cba
00000100: bb5e 8bbb 5dcf f6b9 7fc2 1abb f33e 35bb
00000110: 5b6a 4039 8c6b e6ba 5082 073b ad5b dfba
00000120: a6ce e43a e7a9 033b 445c b63a f68c f739
00000130: 80ec df3a 7d8c caba 1381 a9ba aeb0 deba
00000140: dac1 31b9 8ebc f4ba 1cc2 b4ba 19b5 89b9
00000150: 4113 f2b9 52a1 8239 387a fa38 7de9 19bb
00000160: 8265 8e3a ae98 55bb efb4 323a f124 a0ba
00000170: 7a08 44bb 4392 d3ba 2b28 6fba bca4 233b

running_mean f4 [96]
0.21397892 0.40836528 0.25968635 0.033618893 0.19966199 0.0703812 0.2493957 0.07508208
0.3382676 0.25782633 0.06941957 0.085353926 0.11328074 0.03578708 0.31726068 0.42152047
0.44179586 0.0009498402 0.26378828 0.34931213 0.4364952 0.013625964 0.5291768 0.20018968
0.1338447 0.27250466 0.0 0.37488577 0.5747068 0.22549765 0.58109254 0.46151373
0.1361803 0.254376 0.1657836 0.002269348 0.26647305 0.0006782236 0.37880155 0.0009251098
0.15863723 0.0129705435 0.3063539 0.0069745597 0.2553644 0.124350175 0.0015139089 0.32326484
0.0 0.022038572 0.34538922 0.06796598 0.049013764 0.15775381 0.2838046 0.10825751
0.2705413 0.3422379 0.32270405 0.169944 5.356039e-05 0.02114485 0.18975753 0.1374478
0.10809058 0.34097978 0.58956784 0.14462897 0.15184699 0.27880415 0.02495256 0.13448381
0.44848117 0.07883345 0.28098476 0.027332112 0.0502267 0.29588926 0.3907155 0.00064073317
0.17154853 0.37740812 0.23115966 0.28533882 0.41585004 0.5628387 0.1666684 0.28381184
0.23756221 0.26311308 0.18606347 0.08580012 0.16396078 0.34261122 0.14647043 0.5246842
00000000: 4a1d 5b3e 4115 d13e 9cf5 843e f7b3 093d
00000010: 3174 4c3e 0524 903d 9661 7f3e a2c4 993d
00000020: 6931 ad3e d001 843e d92b 8e3d 0ace ae3d
00000030: bcff e73d 7995 123d fe6f a23e 88d1 d73e
00000040: 1133 e23e b2fe 783a 420f 873e 0ad9 b23e
00000050: 4d7c df3e 6f3f 5f3c 2178 073f 86fe 4c3e
00000060: 960e 093e bb85 8b3e 0000 0000 07f1 bf3e
00000070: fc1f 133f dbe8 663e 7bc2 143f 874b ec3e
00000080: d972 0b3e 923d 823e 2dc3 293e 57b9 143b
00000090: 286f 883e d1ca 313a 47f2 c13e 1183 723a
000000a0: cc71 223e 6782 543c 6bda 9c3e d98a e43b
000000b0: 1fbf 823e 4eab fe3d 5a6e c63a f882 a53e
000000c0: 0000 0000 3c8a b43c dbd6 b03e bf31 8b3d
000000d0: a8c2 483d 378a 213e d64e 913e 1db6 dd3d
000000e0: 6484 8a3e ce39 af3e 7739 a53e cd05 2e3e
000000f0: 08a6 6038 f737 ad3c cc4f 423e 1ebf 0c3e
00000100: 985e dd3d e794 ae3e ebed 163f 9e19 143e
00000110: c77d 1b3e 6bbf 8e3e 5069 cc3c 20b6 093e
00000120: 539f e53e 6f73 a13d 3cdd 8f3e 98e7 df3c
00000130: 83ba 4d3d cc7e 973e dd0b c83e e0f6 273a
00000140: 6baa 2f3e a33b c13e 1eb5 6c3e ee17 923e
00000150: 4cea d43e 3216 103f 1fab 2a3e c94f 913e
00000160: 8243 733e c2b6 863e 6c87 3e3e f9b7 af3d
00000170: 56e5 273e bd6a af3e 58fc 153e b451 063f

running_var f4 [96]
0.039278124 0.002746183 0.0016793985 0.0036646267 0.060113516 0.017158287 0.08828306 0.02021293
0.08122925 0.1351394 0.015470156 0.023257123 0.025744533 0.0040461756 0.18858904 0.13891283
0.22665113 0.00027798768 0.111148275 0.17142831 0.018635057 0.0024289791 0.33253694 0.063421346
0.05131207 0.033348545 0.0 0.062046636 0.2767923 0.111403584 0.4602209 0.11440279
0.0032517184 0.054272242 0.020483816 0.0007963012 0.08330735 0.0001926504 0.020182448 0.00025294375
0.04184235 0.0028690042 0.089150794 0.0011984755 0.076252945 0.05477542 0.0006801449 0.15597893
0.0 0.0025257715 0.16938342 0.015702108 0.006742852 0.044771582 0.1204821 0.028728042
0.13754615 0.21212645 0.07861614 0.022427317 1.8433236e-06 0.0037475135 0.053861026 0.0052103302
0.020810818 0.10254723 0.41818306 0.024179563 0.0021472068 0.04224453 0.002035971 0.018799234
0.22670555 0.017498093 0.11559783 0.0031730079 0.008906453 0.0681022 0.06079318 0.0002178188
0.006175934 0.21437898 0.05962898 0.08428654 0.065515585 0.35523918 0.07200234 0.15022115
0.013383103 0.14097758 0.042710975 0.016555885 0.026010808 0.12140915 0.01462362 0.32592136
00000000: 19e2 203d 4ef9 333b 431f dc3a 3c2a 703b
00000010: 9739 763d 898f 8c3c c0cd b43d 9695 a53c
00000020: 855b a63d fc61 0a3e 8a76 7d3c b985 be3c
00000030: 33e6 d23c c895 843b 7c1d 413e 2a3f 0e3e
00000040: 3c17 683e e0be 9139 b5a1 e33d e78a 2f3e
00000050: 8ca8 983c 822f 1f3b 4842 aa3e 0de3 813d
00000060: 9b2c 523d 7c98 083d 0000 0000 9d24 7e3d
00000070: b8b7 8d3e 9027 e43d 13a2 eb3e 034c ea3d
00000080: c81a 553b 924c 5e3d adcd a73c debe 503a
00000090: 0b9d aa3d 3302 4a39 a955 a53c 899d 8439
000000a0: e262 2b3d e705 3c3b b194 b63d 2a16 9d3a
000000b0: 812a 9c3d 315c 603d c04b 323a f1b8 1f3e
000000c0: 0000 0000 6a87 253b d972 2d3e b5a1 803c
000000d0: 24f3 dc3b 6862 373d 52bf f63d 1257 eb3c
000000e0: e6d8 0c3e ad37 593e 8001 a13d 7eb9 b73c
000000f0: 1e68 f735 d898 753b 619d 5c3d 6bbb aa3b
00000100: 737b aa3c 4804 d23d 171c d63e 3814 c63c
00000110: 27b8 0c3b 9a08 2d3d ed6d 053b da00 9a3c
00000120: 8025 683e 2958 8f3c 8ebe ec3d 3df2 4f3b
00000130: 5fec 113c 2b79 8b3d 4502 793d 4a66 6439
00000140: 7d5f ca3b 2a86 5b3e 843d 743d 6c9e ac3d
00000150: 092d 863d e9e1 b53e f675 933d 93d3 193e
00000160: cd44 5b3c 6d5c 103e b4f1 2e3d 35a0 873c
00000170: 9e14 d53c 5ca5 f83d e897 6f3c 2adf a63e

weight f4 [256, 96]
-0.013988944 0.054822072 0.033549853 -0.032835014 -0.0695254 0.09198105 -0.028323878 0.075413756
0.06603894 -0.0011532755 -0.08597807 0.011251345 -0.050287172 0.025278594 -0.04134768 0.07687959
-0.08990035 -0.027395092 0.019134603 0.0120447315 0.08429197 -0.03364997 -0.0823886 0.06689189
0.031266537 0.069237806 -0.06040618 -0.057752438 -0.04279246 0.00994792 0.033597168 -0.056682598
-0.007546549 -0.019137435 0.0940986 -0.036552206 0.101454206 -0.06253033 -0.044299476 -0.07678544
0.077586375 -0.0727455 0.04111191 -0.037138306 0.10366815 0.016483206 -0.088697486 0.019738808
0.012409215 -0.09567883 0.023041312 0.096022144 0.028251113 -0.0013798596 -0.02204644 0.025918528
-0.04236159 0.10361 0.08640661 0.049638364 -0.03797951 -0.096073665 -0.059737578 0.09808578
-0.094616 -0.0988386 -0.004940696 0.03074316 -0.10027883 -0.09283486 -0.0003223831 -0.03479706
0.07293273 0.027997918 -0.08960852 -0.0884437 0.0688417 -0.016117722 -0.04711083 0.03282231
-0.017926414 0.051502436 0.028161876 -0.04559002 -0.08382345 0.054123905 -0.06250066 -0.012180421
0.011993682 -0.056476638 0.058333594 -0.06817162 0.026735224 0.009818527 0.038500465 -0.09793228
0.005321785 0.05110534 -0.064007185 0.024883542 -0.00012597264 0.08536545 -0.02180436 -0.00039179466
-0.044772852 -0.02562387 0.028350513 -0.098844215 0.076365836 0.0726787 0.041957118 0.07632685
-0.03237164 0.022967892 0.0043982654 -0.07088867 -0.038693924 -0.036101546 -0.02613901 -0.0913036
-0.072052605 -0.009279357 -0.015525976 -0.09263587 0.021603739 0.0551564 0.08441365 0.08544877
-0.07185162 -0.032971952 -0.04882193 0.017548436 0.026783606 0.023671271 0.059420828 0.052540623
-0.055257536 0.07087046 0.068515636 0.013754235 -0.08927253 -0.06303745 0.027852096 0.03458688
0.09518834 0.05108276 0.036198746 -0.0046780156 0.06833773 -0.0379357 0.040858883 -0.049789824
-0.0015493815 0.059808515 0.0468812 -0.023110464 -0.0013059272 -0.057097174 0.046922565 0.06765961
0.03467349 -0.099218026 -0.07344444 0.06807087 -0.014138665 0.062001195 0.07427064 -0.03009157
-0.060226224 -0.09730217 0.038875755 0.05164133 -0.018756572 -0.099321865 -0.065753885 -0.0040703355
0.04652143 -0.034862798 -0.0661796 -0.07181882 0.091201566 0.03628692 -0.08415155 -0.06388055
-0.08704821 0.014302836 -0.04181042 -0.00068504084 -0.016814701 -0.08973675 -0.0913516 -0.07979322
-0.046345696 0.010023935 -0.052463464 -0.0101748025 -0.00679684 0.08988241 -0.043508276 0.09153884
-0.07459632 -0.07835632 0.030910056 -0.05174279 0.04938641 -0.05605589 0.076480195 0.094760485
0.010262393 0.020353513 0.099116676 0.064608395 -0.08982289 -0.0045161727 -0.09551696 0.07405513
-0.013689098 0.0050654113 -0.062705934 -0.05075226 0.010164459 0.090255685 -0.05334504 0.013896447
0.09846428 0.088055864 -0.01880545 0.096027456 0.04096108 0.0909267 0.00020670943 -0.08646986
-0.025885161 0.030732142 0.050965488 -0.10487697 0.08464265 -0.088062264 0.056226484 0.10457126
0.025174817 -0.0072661233 0.06116809 -0.03515853 -0.08131744 -0.075588875 0.044320304 0.075063154
0.00957009 -0.09279696 -0.10360216 -0.019471856 0.052916005 -0.06866848 0.02425768 -0.060932945
00000000: e231 65bc 1c8d 603d 926b 093d 027e 06bd
00000010: 5563 8ebd 9060 bc3d 7a07 e8bc 8772 9a3d
00000020: 6c3f 873d 8129 97ba 4515 b0bd 9057 383c
00000030: ecf9 4dbd 0e15 cf3c 2f5c 29bd 0c73 9d3d
00000040: ad1d b8bd ac6b e0bc 2cc0 9c3c 4457 453c
00000050: 45a1 ac3d 8dd4 09bd 5bbb a8bd 9dfe 883d
00000060: 5711 003d 8dcc 8d3d 786c 77bd d28d 6cbd
00000070: 2647 2fbd 9afc 223c 2f9d 093d 032c 68bd
00000080: 0b49 f7bb 1cc6 9cbc c4b6 c03d c4b7 15bd
00000090: 39c7 cf3d e70f 80bd 5e73 35bd af41 9dbd
000000a0: 9be5 9e3d 98fb 94bd f664 283d 561e 18bd
000000b0: f84f d43d ca07 873c 07a7 b5bd 48b3 a13c
000000c0: 0550 4b3c 43f3 c3bd 22c1 bc3c 42a7 c43d
000000d0: e16e e73c 68dc b4ba bc9a b4bc 1853 d43c
000000e0: 5983 2dbd 7b31 d43d f3f5 b03d 9951 4b3d
000000f0: 6790 1bbd 45c2 c4bd 64af 74bd 33e1 c83d
00000100: 09c6 c1bd e46b cabd 90e5 a1bb 14d9 fb3c
00000110: fd5e cdbd 3420 bebd 8705 a9b9 5d87 0ebd
00000120: c15d 953d e45b e53c ac84 b7bd f821 b5bd
00000130: e1fc 8c3d 5009 84bc 49f7 40bd b070 063d
00000140: 6ada 92bc 38f4 523d bcb3 e63c 9abc 3abd
00000150: a1ab abbd 07b1 5d3d 5900 80bd 6390 47bc
00000160: 2681 443c 0c54 67bd 35ef 6e3d 909d 8bbd
00000170: d403 db3c e3dd 203c aab2 1d3d b890 c8bd
00000180: 5e62 ae3b d553 513d 3316 83bd 92d8 cb3c
00000190: 8617 04b9 15d4 ae3d 0f9f b2bc ca69 cdb9
000001a0: bd63 37bd 26e9 d1bc 563f e83c d66e cabd
000001b0: b165 9c3d 92d8 943d 3adb 2b3d 4051 9c3d
000001c0: 2098 04bd 2927 bc3c 531f 903b 142e 91bd
000001d0: 857d 1ebd 37df 13bd 7a21 d6bc 62fd babd
000001e0: 5190 93bd 7208 18bc aa60 7ebc e0b7 bdbd
000001f0: 53fa b03c adeb 613d 10e1 ac3d c4ff ae3d
00000200: f126 93bd 990d 07bd 81f9 47bd bdc1 8f3c
00000210: 4b69 db3c 41ea c13c 4163 733d d634 573d
00000220: ba55 62bd 8824 913d ed51 8c3d 7159 613c
00000230: 84d4 b6bd c719 81bd 142a e43c f9aa 0d3d
00000240: 1bf2 c23d 283c 513d 2345 143d 0a4a 99bb
00000250: a7f4 8b3d 7762 1bbd a55b 273d 6af0 4bbd
00000260: 9e14 cbba c6f9 743d 8006 403d 2852 bdbc
00000270: a52b abba bade 69bd e031 403d 1f91 8a3d
00000280: ca05 0e3d d232 cbbd 0a6a 96bd be68 8b3d
00000290: dca5 67bc f7f4 7d3d 351b 983d 9982 f6bc
000002a0: c6af 76bd 5c46 c7bd 2f3c 1f3d dc85 533d
000002b0: 62a7 99bc 4369 cbbd f9a9 86bd 7360 85bb
000002c0: 418d 3e3d 4bcc 0ebd 2c89 87bd bf15 93bd
000002d0: e3c7 ba3d 98a1 143d a657 acbd ced3 82bd
000002e0: 5546 b2bd 7156 6a3c 6741 2bbd 5094 33ba
000002f0: fcbe 89bc e7c7 b7bd 8c16 bbbd a16a a3bd
00000300: fcd4 3dbd 6e3b 243c eee3 56bd 37b4 26bc
00000310: 07b8 debb 4514 b83d bc35 32bd b778 bb3d
00000320: f5c5 98bd 4779 a0bd 1637 fd3c 3ff0 53bd
00000330: 6749 4a3d dc9a 65bd a6a1 9c3d c911 c23d
00000340: 9923 283c 69bc a63c affd ca3d 6851 843d
00000350: 10f5 b7bd 67fc 93bb 659e c3bd 37aa 973d
00000360: 3d48 60bc c0fb a53b f86b 80bd 9ae1 4fbd
00000370: d588 263c f9d7 b83d 5480 5abd ecad 633c
00000380: a4a7 c93d a256 b43d e30d 9abc 0baa c43d
00000390: cec6 273d c737 ba3d 24c0 5839 1c17 b1bd
000003a0: 1e0d d4bc f9c1 fb3c 30c1 503d bdc9 d6bd
000003b0: 2059 ad3d fd59 b4bd be4d 663d 7529 d63d
000003c0: 6b3b ce3c a918 eebb 648b 7a3d 6402 10bd
000003d0: c289 a6bd 57ce 9abd 3589 353d b6ba 993d
000003e0: decb 1c3c 550c bebd 5f2d d4bd 7183 9fbc
000003f0: 74be 583d 0fa2 8cbd 0bb8 c63c d394 79bd

bias f4 [256]
0.08622645 -0.029821651 -0.0135709895 0.05234159 0.067511484 0.04458642 -0.013712545 -0.057702556
-0.0068868957 -0.03421305 -0.012170839 0.018649386 -0.100266986 0.038703337 -0.08662655 -0.043733228
0.09500962 -0.038060248 -0.06935395 -0.050506312 -0.015437968 0.054135077 -0.031985335 0.032065555
-0.093661 -0.10007179 0.02096456 -0.021516448 0.07481453 0.09755757 0.0025855908 0.09527346
0.015418074 -0.052219186 -0.06680673 0.021530775 -0.06830941 -0.020546494 -0.05150057 0.0801885
-0.021103367 0.059139792 -0.011531888 -0.08991088 0.0005039942 0.064061046 0.09188267 -0.026248515
-0.031737674 0.050606564 0.09826034 -0.0415141 0.06449279 -0.036027636 0.07868043 -0.09405299
-0.032956574 0.06756467 0.01671646 0.012691369 -0.055025727 -0.0006306225 0.045534823 -0.034613535
0.051033694 -0.058223717 0.007999083 -0.08501789 -0.0011278843 0.05008829 0.08294955 0.083003804
0.012577676 0.051055163 -0.017782511 0.02578901 -0.0023246135 0.059358396 0.088123195 0.09050578
0.041184172 0.025465747 -0.055694982 -0.09980545 0.08018993 -0.011249051 -0.087679386 0.09307102
-0.028078128 -0.095294185 0.0092969155 -0.009298814 0.037543777 -0.03513188 -0.06934792 0.038022913
0.07276169 0.083777264 -0.0906252 0.0073242355 -0.042184353 0.026233533 -0.00513882 0.04618084
0.04280504 -0.068888985 0.07504837 0.09954529 0.003323938 -0.0758065 -0.010460989 0.0031374518
-0.0052420967 -0.06441581 0.052170675 0.054775707 0.068124115 0.054989252 0.05334973 0.09735639
-0.033110276 -0.005329514 -0.04222628 -0.046483513 0.07576819 -0.055461615 0.068827055 -0.08562998
0.05976131 0.0822881 -0.08656038 0.09659831 -0.06986125 -0.041671503 0.057094254 -0.09162873
-0.004440593 0.07912797 0.001576182 -0.084347524 0.019529585 -0.07441421 0.052800685 0.068286516
-0.098686285 0.08778268 -0.04622789 -0.0013422248 0.09377414 -0.02729107 0.036240876 0.06723522
-0.05119701 0.09966919 -0.080278 0.07878568 0.075191095 -0.09274016 0.02510057 0.050860863
0.08834547 0.015898185 -0.012858741 -0.008501132 -0.0704468 -0.015393461 -0.023638848 -0.09690968
0.08380323 -0.02153392 0.01865279 -0.07419814 0.045837086 0.0017754881 0.07292439 0.055072837
-0.049223624 0.07490075 0.015856938 0.02554787 0.033604246 0.00952787 0.008082012 0.055858217
-0.051812194 -0.09145096 0.019422673 0.09926699 -0.005764591 0.05824298 -0.043973003 0.043997046
0.031723876 0.07917504 -0.08724896 -0.01715954 -0.027898509 0.08560681 -0.0019835855 -0.03449726
0.06572664 -0.09554066 -0.06698677 -0.0033264447 0.001608345 0.09532093 -0.0681302 0.06437364
-0.09019643 0.0882329 -0.06843119 0.039472934 -0.045808803 -0.006752745 0.07423177 -0.05980921
0.005294505 0.04328523 -0.05971294 -0.04559906 -0.02148325 0.095109895 -0.07266746 0.040801715
-0.054180916 0.03402662 -0.016498618 -0.013605219 -0.07581056 0.097339794 0.09285528 0.09616739
0.015433453 -0.011337759 0.09395551 0.01421296 0.06258997 0.0147664705 -0.03596974 0.015642775
0.09953037 0.07070122 0.0015769383 -0.07413753 -0.07412192 0.05817931 -0.0038610678 0.086097196
-0.074481435 -0.06161627 -0.07438313 -0.04521851 -0.08385548 -0.023963107 -0.033758298 -0.059968375
00000000: 7e97 b03d 894c f4bc db58 5ebc 2364 563d
00000010: 7643 8a3d 40a0 363d 95aa 60bc 8459 6cbd
00000020: 78ab e1bb fc22 0cbd 3368 47bc 99c6 983c
00000030: c758 cdbd 6487 1e3d 4369 b1bd 9d21 33bd
00000040: 6794 c23d 10e5 1bbd 7209 8ebd b5df 4ebd
00000050: 88ef 7cbc bebc 5d3d 0e03 03bd 2c57 033d
00000060: 57d1 bfbd 70f2 ccbd debd ab3c 4343 b0bc
00000070: 5c38 993d 43cc c73d 0473 293b bb1e c33d
00000080: 179c 7c3c c9e3 55bd f8d1 88bd 4f61 b03c
00000090: cee5 8bbd 1f51 a8bc 43f2 52bd de39 a43d
000000a0: f8e0 acbc 913c 723d 3ef0 3cbc 3223 b8bd
000000b0: 7a1e 043a 7032 833d fb2c bc3d 2007 d7bc
000000c0: 5dff 01bd d448 4f3d b83c c93d b00a 2abd
000000d0: cc14 843d b791 13bd 3523 a13d db9e c0bd
000000e0: 79fd 06bd 595f 8a3d f5f0 883c 76ef 4f3c
000000f0: a862 61bd 5c50 25ba b982 3a3d ecc6 0dbd
00000100: b508 513d fe7b 6ebd 960e 033c dc1d aebd
00000110: 84d5 93ba 6129 4d3d 74e1 a93d e6fd a93d
00000120: 9912 4e3c 381f 513d a1ac 91bc 7943 d33c
00000130: 8b58 18bb ca21 733d ef79 b43d 185b b93d
00000140: bcb0 283d 8b9d d03c 6c20 64bd cd66 ccbd
00000150: 9e3a a43d f14d 38bc 4091 b3bd 059c be3d
00000160: 1a04 e6bc 9929 c3bd 1752 183c 0e5a 18bc
00000170: 81c7 193d 72e6 0fbd 4806 8ebd eabd 1b3d
00000180: 1504 953d 6a93 ab3d b499 b9bd 2400 f03b
00000190: 80c9 2cbd b5e7 d63c 8c63 a8bb 1f28 3d3d
000001a0: 5654 2f3d ab15 8dbd f6b2 993d 67de cb3d
000001b0: 6dd6 593b 7040 9bbd 9164 2bbc b59d 4d3b
000001c0: e5c5 abbb 70ec 83bd ebb0 553d 7e5c 603d
000001d0: a884 8b3d 693c 613d 3f85 5a3d c962 c73d
000001e0: a49e 07bd 34a3 aebb 77f5 2cbd 7f65 3ebd
000001f0: 5a2c 9b3d b82b 63bd 33f5 8c3d c55e afbd
00000200: 47c8 743d aa86 a83d 9246 b1bd 56d5 c53d
00000210: 6a13 8fbd bdaf 2abd aadb 693d d8a7 bbbd
00000220: 6582 91bb d80d a23d e497 ce3a 65be acbd
00000230: 82fc 9f3c 7a66 98bd 8845 583d cdd9 8b3d
00000240: 091c cabd 68c7 b33d 7559 3dbd 97ed afba
00000250: a80c c03d 8691 dfbc 5071 143d 9eb2 893d
00000260: f5b3 51bd 5c1f cc3d cb68 a4bd 635a a13d
00000270: cafd 993d 8eee bdbd b69f cd3c 7b53 503d
00000280: 78ee b43d e93c 823c 78ad 52bc 5548 0bbc
00000290: 6946 90bd db34 7cbc 42a6 c1bc 9578 c6bd
000002a0: 07a1 ab3d e767 b0bc bccd 983c 32f5 97bd
000002b0: abbf 3b3d 7fb7 e83a 6259 953d 0e94 613d
000002c0: b69e 49bd 9065 993d 69e6 813c c449 d13c
000002d0: 9ba4 093d c91a 1c3c 6a6a 043c 96cb 643d
000002e0: 0639 54bd a44a bbbd 4c1c 9f3c 7e4c cb3d
000002f0: e5e4 bcbb 3190 6e3d 091d 34bd 3f36 343d
00000300: e5f0 013d 8626 a23d 95af b2bd 2a92 8cbc
00000310: 6a8b e4bc a052 af3d 0bff 01bb 004d 0dbd
00000320: b09b 863d d2aa c3bd 5c30 89bd 7b00 5abb
00000330: 1acf d23a 9f37 c33d d987 8bbd 54d6 833d
00000340: e8b8 b8bd 73b3 b43d a725 8cbd 5fae 213d
00000350: 03a2 3bbd 2146 ddbb d406 983d 81fa 74bd
00000360: 877d ad3b da4b 313d 8e95 74bd 14c6 3abd
00000370: a4fd afbc fac8 c23d add2 94bd b31f 273d
00000380: cfec 5dbd 7f5f 0b3d 1c28 87bc 6de8 5ebc
00000390: 9142 9bbd 165a c73d e92a be3d 69f3 c43d
000003a0: 98dc 7c3c 02c2 39bc bf6b c03d 7add 683c
000003b0: 2c2f 803d 11ef 713c 0255 13bd 4725 803c
000003c0: 94d6 cb3d cdcb 903d 45b1 ce3a 6bd5 97bd
000003d0: 3ccd 97bd 6e4d 6e3d f809 7dbb ba53 b03d
000003e0: b989 98bd 5861 7cbd 2f56 98bd 0b37 39bd
000003f0: 6cbc abbd 474e c4bc 2446 0abd 66a1 75bd

weight f4 [256]
1.0008408 0.99956214 0.99918705 0.99984694 1.0015244 1.0003338 1.0014629 1.0008689
0.99979603 1.0001514 0.9996231 1.0008006 0.9990618 0.9994208 1.0000972 1.0007885
1.0003304 0.9996765 0.9993986 0.99989206 1.0010005 0.9999635 1.0005234 0.99815357
1.0001963 1.0004159 0.9986334 1.000373 1.0004706 0.9990173 0.99911535 0.9998244
1.0001451 0.998918 0.99851906 1.0000441 0.99924594 0.99820775 0.9998687 0.99904794
1.0003959 1.0022244 0.9998216 0.99998176 1.0005215 1.0006653 0.99894726 0.99995506
0.9990538 1.001203 0.9995191 1.0002377 0.99965197 1.0003216 1.000353 0.99871176
0.9983769 1.0003885 0.99877995 0.9995199 0.997916 0.99867123 0.99980867 0.9998773
1.0003266 0.99848396 0.9993017 0.9991535 1.0006908 1.0012052 1.0011992 1.0003685
0.9994895 0.9981651 0.9995667 0.999932 0.99874896 1.0010765 0.9995479 0.998998
0.99856853 0.9980824 0.9998811 0.9990999 0.99800664 1.0016173 1.0005587 0.9988562
1.0000721 1.0000126 1.0001915 0.99950284 1.0009414 1.000658 0.9991926 0.9987013
0.9988304 1.0016434 1.0004231 1.0004101 0.9987192 0.9990249 1.001202 1.0002637
0.9999255 1.002161 1.0020151 1.0008644 1.0005418 1.0015179 1.0003238 1.0005436
0.9994321 1.0014498 0.99973655 0.9991826 1.0014911 1.0003952 1.0011721 1.0004404
1.0012449 0.99927735 0.9994162 0.9993385 0.9999209 0.99995345 1.0016189 1.0007179
1.0004874 0.9997588 0.99855 1.0012625 0.9985964 0.99925673 0.99977267 0.9994986
0.9983503 1.0000536 0.9999668 0.99957514 1.0009245 1.0015357 0.99892706 1.0034105
1.0005043 1.000512 0.99836904 1.0017742 1.0006709 1.0007339 1.0017179 1.0018212
1.0005375 0.9996993 0.9998531 1.0010118 0.99802244 0.9995447 1.0013272 0.9996188
0.9985487 1.0014411 1.0009941 0.9987232 1.0008438 0.99963254 0.99933624 0.99986744
1.0009626 0.9992558 0.99995273 1.0016109 0.9992789 1.0011826 1.0006806 1.0010799
1.0006605 1.0018659 1.0003295 0.9997166 0.99848235 0.99781996 1.0012529 0.9989587
0.9973698 0.9993392 0.9994329 0.9994579 0.9999561 1.0006355 0.9986498 0.9987442
1.0003612 0.99903405 0.99970263 0.9985552 1.0006742 0.9996067 1.0008785 1.0010372
0.9996606 1.0001068 0.9988195 1.0010539 1.0005337 0.99895304 1.0004427 1.0017196
1.0019408 1.0010841 1.0001636 0.9981937 0.99954504 1.0000938 0.9994945 1.0012398
1.0011007 1.0001922 1.0005424 0.999683 1.0000015 0.9988782 1.0005127 1.0000453
1.0029563 1.0010693 1.0006572 0.9967423 0.99879044 1.0003488 1.00058 1.0008174
0.99990886 1.0006403 0.9995331 1.001101 1.0005156 0.9995136 1.0000433 0.9994235
0.99931383 1.0003653 1.0007886 1.0006926 0.9991296 1.0011328 0.99978346 0.9993219
1.0002751 0.9994053 1.000031 1.0010606 1.0002004 0.99916065 1.000498 0.99867237
00000000: 8d1b 803f 4ee3 7f3f b9ca 7f3f f8f5 7f3f
00000010: f431 803f f00a 803f f02f 803f 791c 803f
00000020: a2f2 7f3f f604 803f 4de7 7f3f 3c1a 803f
00000030: 84c2 7f3f 0bda 7f3f 2f03 803f d619 803f
00000040: d40a 803f cdea 7f3f 96d8 7f3f edf8 7f3f
00000050: c920 803f 9cfd 7f3f 2711 803f fe86 7f3f
00000060: 6f06 803f a10d 803f 70a6 7f3f 390c 803f
00000070: 6c0f 803f 99bf 7f3f 06c6 7f3f 7ef4 7f3f
00000080: c104 803f 17b9 7f3f f29e 7f3f 7201 803f
00000090: 95ce 7f3f 8b8a 7f3f 65f7 7f3f 9bc1 7f3f
000000a0: f90c 803f e448 803f 4ff4 7f3f cefe 7f3f
000000b0: 1711 803f cd15 803f 02bb 7f3f 0efd 7f3f
000000c0: fdc1 7f3f 6b27 803f 7ce0 7f3f ca07 803f
000000d0: 31e9 7f3f 8a0a 803f 910b 803f 93ab 7f3f
000000e0: a195 7f3f bb0c 803f 0bb0 7f3f 89e0 7f3f
000000f0: 6c77 7f3f eba8 7f3f 76f3 7f3f f5f7 7f3f
00000100: b40a 803f a59c 7f3f 3cd2 7f3f 86c8 7f3f
00000110: a316 803f 7e27 803f 4c27 803f 130c 803f
00000120: 8bde 7f3f bf87 7f3f 9ae3 7f3f 8bfb 7f3f
00000130: 03ae 7f3f 4623 803f 5fe2 7f3f 55be 7f3f
00000140: 30a2 7f3f 5482 7f3f 35f8 7f3f 03c5 7f3f
00000150: 5d7d 7f3f ff34 803f 4f12 803f 0ab5 7f3f
00000160: 5d02 803f 6a00 803f 4606 803f 6bdf 7f3f
00000170: d91e 803f 9015 803f 16cb 7f3f e3aa 7f3f
00000180: 59b3 7f3f da35 803f dd0d 803f 700d 803f
00000190: 10ac 7f3f 19c0 7f3f 6327 803f a408 803f
000001a0: 1efb 7f3f d046 803f 0842 803f 531c 803f
000001b0: c111 803f bd31 803f 9c0a 803f d011 803f
000001c0: c8da 7f3f 822f 803f bcee 7f3f 6eca 7f3f
000001d0: dc30 803f f30c 803f 6826 803f 6e0e 803f
000001e0: cb28 803f a4d0 7f3f bdd9 7f3f a6d4 7f3f
000001f0: d1fa 7f3f f3fc 7f3f 0c35 803f 8617 803f
00000200: f90f 803f 31f0 7f3f f9a0 7f3f 5f29 803f
00000210: 03a4 7f3f 4acf 7f3f 1af1 7f3f 24df 7f3f
00000220: e393 7f3f c201 803f d3fd 7f3f 28e4 7f3f
00000230: 4b1e 803f 5232 803f afb9 7f3f c16f 803f
00000240: 8610 803f c710 803f 1d95 7f3f 233a 803f
00000250: fc15 803f 0c18 803f 4b38 803f ad3b 803f
00000260: 9d11 803f 4bec 7f3f 5ff6 7f3f 2821 803f
00000270: 667e 7f3f 29e2 7f3f 7d2b 803f 05e7 7f3f
00000280: e3a0 7f3f 392f 803f 9320 803f 53ac 7f3f
00000290: a61b 803f ebe7 7f3f 80d4 7f3f 50f7 7f3f
000002a0: 8b1f 803f 3acf 7f3f e7fc 7f3f c934 803f
000002b0: bed0 7f3f c026 803f 4d16 803f 6323 803f
000002c0: a515 803f 243d 803f cc0a 803f 6ded 7f3f
000002d0: 8a9c 7f3f 2171 7f3f 0e29 803f c2bb 7f3f
000002e0: a153 7f3f b2d4 7f3f d6da 7f3f 79dc 7f3f
000002f0: 1ffd 7f3f d314 803f 83a7 7f3f b3ad 7f3f
00000300: d60b 803f b2c0 7f3f 83ec 7f3f 50a1 7f3f
00000310: 1816 803f 3ae6 7f3f c91c 803f fd21 803f
00000320: c2e9 7f3f 8003 803f a2b2 7f3f 8922 803f
00000330: 7d11 803f 63bb 7f3f 820e 803f 5938 803f
00000340: 993f 803f 8623 803f 5c05 803f 9f89 7f3f
00000350: 2fe2 7f3f 1303 803f dfde 7f3f a028 803f
00000360: 1124 803f 4c06 803f c611 803f 3aeb 7f3f
00000370: 0d00 803f 7bb6 7f3f cd10 803f 7c01 803f
00000380: df60 803f 0a23 803f 8915 803f 812a 7f3f
00000390: bbb0 7f3f 6e0b 803f 0113 803f c91a 803f
000003a0: 07fa 7f3f fb14 803f 67e1 7f3f 1424 803f
000003b0: e510 803f 20e0 7f3f 6b01 803f 38da 7f3f
000003c0: 08d3 7f3f f80b 803f d719 803f b216 803f
000003d0: f5c6 7f3f 1f25 803f cff1 7f3f 8fd3 7f3f
000003e0: 0409 803f 07d9 7f3f 0401 803f c122 803f
000003f0: 9106 803f fec8 7f3f 5210 803f fea8 7f3f

bias f4 [256]
0.00022804101 -0.00019624029 0.00051449746 0.00028887682 0.000397848 0.0008746803 -0.0017290338 -0.0012692984
-0.00038025205 0.00094834034 0.00034086008 0.00024185026 0.00018282562 0.0004958051 0.00035864706 -0.0007267255
0.0013761427 -0.0003487853 -0.0013629928 0.00021141376 0.0002657941 -0.00033200486 6.186638e-05 -0.0009736895
-0.0003348299 -0.00013616825 -5.1502862e-05 -0.00068830274 0.0010380019 -0.00053770375 0.0011051618 0.00021880349
3.9273127e-05 0.0014549489 -1.1551344e-05 0.0006253043 0.0012344423 0.0014778704 0.00019991018 -0.00086534093
-0.00057245494 0.00030802854 0.00033331057 -0.0007966488 0.00081601227 0.00015066998 0.0003525457 -0.00069381454
-0.0012636123 -0.0013043782 0.0005831727 0.0007151481 -0.0011940538 -0.0008098219 0.00039941084 -0.0009030485
0.0012810274 -0.00028396337 0.00041041506 0.00040972765 -0.00069600187 -0.0004997296 -0.000233759 0.0006575388
8.422956e-05 0.00046081992 -0.000451544 -0.00043853623 -0.0006657873 -0.00060280657 0.00030115616 0.00037825355
-0.0005651781 0.0010522379 0.00020559254 0.0003196038 0.0012690085 -0.00079349993 -0.0005528937 0.00033991237
-0.0011514882 0.00028032923 8.590093e-05 -0.0010452128 -0.0017301757 -0.0004889521 -0.00034370675 0.00017566889
-0.000567106 0.0006761736 -0.00037937856 0.00053310307 -0.0004324255 0.00018427281 -0.0009543713 -0.0002021183
-0.00032070553 0.000105310086 -0.0005463664 -0.00047837014 0.0014314835 -0.0009085632 0.0015083428 0.00015017841
0.00048985606 0.00013313477 -0.00022489578 -0.00033294366 0.0002355409 -0.00055655267 7.9232566e-05 0.00030959793
-0.0006038984 -0.0023201162 0.0010283007 -0.0004859226 0.00028109018 -0.00012817462 0.00018302009 0.0012795979
-0.0010097304 -0.00021901904 -0.0007277884 0.00039249964 0.00066189095 -0.0006357865 -0.00040904878 -0.0005781008
0.00085490546 -0.0011291524 0.0008648421 -0.00094712316 0.000805209 -0.00063113787 1.9409703e-05 -0.00058975193
-0.0012519527 -0.00074261887 -0.0003196982 -0.00050168927 -0.0010431504 -0.0005691 -8.064955e-06 -0.00070976885
-0.00018315905 0.0010060008 -0.0018988976 0.0013662517 -0.0021829575 -0.0007191453 -0.0008925531 -0.00077637023
-0.00012811308 -0.0011868133 0.00046210882 0.00017653505 0.00061235967 0.00015649472 3.3837074e-05 -0.00056687096
0.0012780576 0.00068606087 -0.0013593006 -8.045176e-05 0.00025075246 0.00026516555 0.000110216206 0.0014305242
-0.0011460615 0.0002963168 0.00067007483 -0.0014819107 -0.0001119071 0.00036337113 8.9027264e-05 0.00018276201
-0.0003167793 0.0001285005 0.0007519566 -0.00033824446 -0.00027978336 0.001195116 -0.0003601129 0.00036956125
0.0012051477 -0.0005155147 -0.0019540787 -0.0002016164 -4.245256e-06 0.00016562486 -0.00010054087 -0.0011760286
0.0004840053 0.000705368 0.00041916614 -0.0009967405 0.0005047888 0.00038480782 -0.0011616637 -0.00044061293
0.00020007418 0.00015709235 0.0008150066 0.00014352486 -0.00011577586 -0.0007125305 -0.0014936463 -9.657079e-06
-1.80009e-05 0.0008136952 -0.0007142208 0.00018278875 -0.0004164188 0.0005501079 -0.0009480534 0.0003624277
0.00042381563 -0.00024025353 0.0014871417 0.00088936917 -0.00078521966 0.000905084 -0.0007474525 -4.8224934e-05
-0.00075343665 6.8214096e-05 -0.0007902896 -0.000241053 0.0014300114 0.0004651173 -0.0015199259 9.575887e-05
-0.0006761403 -0.0011678516 -0.00026361868 0.00027208801 0.0006732665 -0.0009402755 0.00027786972 0.0005943218
-0.00050511886 -0.00019198604 0.0007529407 -6.716259e-05 -0.0011973022 1.1227976e-05 -0.00044879416 -0.0016013421
-0.0010496281 -5.8176025e-05 -5.6889916e-05 -0.00064967904 0.00039790693 0.00052859826 0.00016614153 -3.3300334e-05
00000000: 4b1e 6f39 dac5 4db9 57df 063a 6474 9739
00000010: 4196 d039 cd4a 653a bfa0 e2ba 965e a6ba
00000020: 915c c7b9 0b9a 783a 77b5 b239 2f99 7d39
00000030: e1b4 3f39 ebf8 013a cb08 bc39 b981 3eba
00000040: b05f b43a 2cdd b6b9 73a6 b2ba f3ae 5d39
00000050: 485a 8b39 f010 aeb9 43be 8138 323f 7fba
00000060: 1c8c afb9 63c8 0eb9 c704 58b8 376f 34ba
00000070: 900d 883a b0f4 0cba 14db 903a 9d6e 6539
00000080: 33b9 2438 fcb3 be3a a5cc 41b7 76eb 233a
00000090: 03cd a13a 1ab5 c13a fb9e 5139 0cd8 62ba
000000a0: cd10 16ba e47e a139 30c0 ae39 32d6 50ba
000000b0: a8e9 553a 2afd 1d39 e2d5 b839 1be1 35ba
000000c0: cb9f a5ba abf7 aaba 0fe0 183a c778 3b3a
000000d0: cc81 9cba 3a4a 54ba 0468 d139 8fba 6cba
000000e0: 26e8 a73a ebe0 94b9 fa2c d739 b7d0 d639
000000f0: e573 36ba 4900 03ba 341d 75b9 af5e 2c3a
00000100: 67a4 b038 349a f139 36bd ecb9 56eb e5b9
00000110: 3b88 2eba aa05 1eba 7fe4 9d39 5550 c639
00000120: 7628 14ba 3feb 893a 5494 5739 7f90 a739
00000130: dc54 a63a e102 50ba 11f0 10ba 4436 b239
00000140: 88ed 96ba 27f9 9239 b625 b438 86ff 88ba
00000150: 10c7 e2ba 052d 00ba 8a33 b4b9 c233 3839
00000160: d7a9 14ba 3e41 313a 54e7 c6b9 f1bf 0b3a
00000170: 2bb7 e2b9 5b39 4139 c62e 7aba b8ef 53b9
00000180: 5e24 a8b9 ecd9 dc38 073a 0fba c1cd fab9
00000190: 9ea0 bb3a a52c 6eba 96b3 c53a 3679 1d39
000001a0: af69 003a 189a 0b39 00d2 6bb9 f18e aeb9
000001b0: 87fb 7639 9ee5 11ba a929 a638 8851 a239
000001c0: f04e 1eba 170d 18bb 0cc8 863a 6dc3 feb9
000001d0: 495f 9339 9d66 06b9 15e9 3f39 2eb8 a73a
000001e0: ee58 84ba 7aa8 65b9 0ec9 3eba 69c8 cd39
000001f0: c082 2d3a e9aa 26ba 9975 d6b9 b08b 17ba
00000200: bc1b 603a 1100 94ba 92b6 623a 5c48 78ba
00000210: a914 533a f272 25ba 05d2 a237 9599 1aba
00000220: 9018 a4ba 4fac 42ba 2b9d a7b9 cc83 03ba
00000230: 52ba 88ba a82f 15ba b84e 07b7 c80f 3aba
00000240: 620e 40b9 c9db 833a 6ee4 f8ba cd13 b33a
00000250: f30f 0fbb 0685 3cba 39fa 69ba 5385 4bba
00000260: 1856 06b9 d98e 9bba 3247 f239 441c 3939
00000270: c386 203a bb18 2439 48ec 0d38 119a 14ba
00000280: 7f84 a73a c4d8 333a 8f2a b2ba 36b8 a8b8
00000290: 6d77 8339 eb05 8b39 e023 e738 6d80 bb3a
000002a0: 7137 96ba f85a 9b39 f6a7 2f3a ac3c c2ba
000002b0: abaf eab8 d982 be39 26b4 ba38 cea3 3f39
000002c0: 6615 a6b9 17be 0639 f41e 453a 6756 b1b9
000002d0: e3af 92b9 70a5 9c3a 89cd bcb9 acc1 c139
000002e0: 0cf6 9d3a 9b23 07ba 0010 00bb fe68 53b9
000002f0: 7972 8eb6 96ab 2d39 78d9 d2b8 f924 9aba
00000300: 17c2 fd39 72e8 383a 87c3 db39 10a5 82ba
00000310: ce53 043a 08c0 c939 f742 98ba 1102 e7b9
00000320: 01cb 5139 28b9 2439 2ba6 553a 297f 1639
00000330: b1cc f2b8 1dc9 3aba 74c6 c3ba d704 22b7
00000340: a300 97b7 294e 553a 8c3a 3bba fbaa 3f39
00000350: c952 dab9 1e35 103a c986 78ba 3904 be39
00000360: 9233 de39 91ec 7bb9 32ec c23a 8e24 693a
00000370: 33d7 4dba 2943 6d3a b0f0 43ba 2145 4ab8
00000380: 4782 45ba 2a0e 8f38 702b 4fba 2cc3 7cb9
00000390: 386f bb3a fdda f339 4038 c7ba 27d2 c838
000003a0: 023f 31ba 9912 99ba 4d36 8ab9 09a7 8e39
000003b0: 267e 303a d27c 76ba 0baf 9139 43cc 1b3a
000003c0: f469 04ba dc4f 49b9 ff60 453a a4d9 8cb8
000003d0: ccee 9cba ca5f 3c37 224c ebb9 20e4 d1ba
000003e0: ad93 89ba 0802 74b8 159d 6eb8 394f 2aba
000003f0: 2a9e d039 a191 0a3a 4736 2e39 f6ab 0bb8

running_mean f4 [256]
0.23789462 0.4376691 0.15320241 0.14338778 0.32606864 0.41625607 0.21790285 0.10398809
0.27375272 0.2491583 0.1427117 0.19115622 0.11606007 0.19128104 0.15086757 0.38283327
0.14860809 0.24100578 0.11145972 0.13384445 0.20977378 0.21883738 0.07416319 0.09875903
0.0879735 0.20099652 0.290811 0.17766765 0.19866084 0.203734 0.20826484 0.25164676
0.2017559 0.40895396 0.26594612 0.13097113 0.11057251 0.18084271 0.32311854 0.16399087
0.1880897 0.17909239 0.1276978 0.08317599 0.104866296 0.30782968 0.3870305 0.16620792
0.18819495 0.19191828 0.3047955 0.2847976 0.17002429 0.2750621 0.30734494 0.13610943
0.12069455 0.18046534 0.09485203 0.4722985 0.15517099 0.2882084 0.1264166 0.148901
0.38345528 0.09622084 0.10526015 0.16687638 0.120540075 0.2765073 0.16927005 0.22848359
0.43477485 0.16499835 0.12560454 0.1359779 0.09701155 0.2688262 0.21938352 0.30689344
0.26633766 0.38729632 0.21428022 0.39650968 0.2378275 0.3812918 0.147207 0.16287288
0.28347114 0.089601174 0.46791914 0.29915017 0.22229029 0.34613842 0.20171466 0.47454107
0.25160563 0.31621927 0.37281948 0.11908995 0.036046878 0.2663525 0.28509834 0.16817039
0.562321 0.19236201 0.2501846 0.3641762 0.2106975 0.18560994 0.101617716 0.30533382
0.247177 0.16714062 0.26124883 0.21650647 0.27938858 0.58205986 0.1276446 0.25566262
0.34122223 0.0618399 0.23429418 0.37558556 0.19456416 0.18568975 0.14110689 0.09959167
0.25797868 0.15723279 0.3033098 0.21487217 0.08842728 0.07150229 0.14079934 0.28184333
0.42064488 0.34168118 0.17112558 0.18134958 0.45699087 0.28438237 0.13988978 0.21612069
0.14304215 0.3565328 0.24963354 0.41696548 0.22480321 0.23546861 0.1063943 0.23065421
0.38823235 0.3155657 0.36514983 0.29280937 0.22561535 0.13443169 0.14016554 0.37946403
0.2287193 0.16774826 0.10571644 0.13416171 0.44887745 0.12716015 0.10263539 0.10561339
0.31483793 0.116182946 0.21625362 0.1627088 0.2975796 0.14220977 0.39989892 0.15067945
0.22895671 0.23656057 0.50493664 0.29461485 0.15895078 0.15329422 0.18680854 0.2250226
0.1195343 0.15983333 0.20086841 0.50799245 0.352817 0.26870602 0.121284984 0.23143423
0.17832881 0.28231356 0.33606407 0.062154796 0.17863964 0.14855906 0.29528984 0.117385164
0.19544053 0.1548701 0.0381172 0.10435962 0.1897837 0.3127768 0.10221095 0.1604362
0.248095 0.17564437 0.17657582 0.33948573 0.41665894 0.21442613 0.18457402 0.18352143
0.27630675 0.16586612 0.16492344 0.20356138 0.09503519 0.14165483 0.26700577 0.18576434
0.06962959 0.24231774 0.2276475 0.1537928 0.11659232 0.1810696 0.13696791 0.30294237
0.266101 0.21139987 0.306166 0.12943318 0.27546486 0.119119026 0.081635095 0.1823068
0.37700036 0.354496 0.4218366 0.13600795 0.2976572 0.17070305 0.21483406 0.24039479
0.13873987 0.33085606 0.14320785 0.07776449 0.14293495 0.24049191 0.45640004 0.15808664
00000000: a69a 733e 2a16 e03e 18e1 1c3e 3fd4 123e
00000010: 78f2 a63e 841f d53e ed21 5f3e b5f7 d43d
00000020: 5129 8c3e 5a23 7f3e 0423 123e 75be 433e
00000030: e7b0 ed3d 2ddf 433e 077d 1a3e b902 c43e
00000040: b82c 183e 38ca 763e fe44 e43d 850e 093e
00000050: f0ce 563e e816 603e dfe2 973d 2d42 ca3d
00000060: 732b b43d 08d2 4d3e 2ee5 943e 82ee 353e
00000070: bf6d 4b3e a59f 503e 6143 553e d8d7 803e
00000080: 1999 4e3e 6a62 d13e 172a 883e 4c1d 063e
00000090: d773 e23d d52e 393e cb6f a53e 39ed 273e
000000a0: 969a 403e ff63 373e 36c3 023e 2c58 aa3d
000000b0: 24c4 d63d da9b 9d3e dd28 c63e 6932 2a3e
000000c0: 2db6 403e 3a86 443e 280e 9c3e fed0 913e
000000d0: d91a 2e3e f1d4 8c3e 515c 9d3e 4560 0b3e
000000e0: b42e f73d e8cb 383e c841 c23d 1cd1 f13e
000000f0: 25e5 1e3e 0d90 933e 5a73 013e 8179 183e
00000100: 4054 c43e 6f0f c53d a292 d73d a4e1 2a3e
00000110: b7dd f63d 5d92 8d3e 2155 2d3e 9af7 693e
00000120: cf9a de3e 54f5 283e 7a9e 003e ca3d 0b3e
00000130: fead c63d 96a3 893e 13a6 603e 2321 9d3e
00000140: 695d 883e b44b c63e 466c 5b3e 5103 cb3e
00000150: 0d89 733e ae38 c33e 6fbd 163e 26c8 263e
00000160: 2123 913e d280 b73d 1993 ef3e 362a 993e
00000170: 11a0 633e 0e39 b13e 4a8e 4e3e 0cf7 f23e
00000180: 74d2 803e 7ee7 a13e 32e2 be3e 6fe5 f33d
00000190: e4a5 133d 5b5f 883e 69f8 913e dc34 2c3e
000001a0: 45f4 0f3f 8cfa 443e 3218 803e 4e75 ba3e
000001b0: 16c1 573e 8810 3e3e f31c d03d b754 9c3e
000001c0: f81b 7d3e e926 2b3e 68c2 853e dfb3 5d3e
000001d0: 050c 8f3e e001 153f 44b5 023e 36e6 823e
000001e0: aeb4 ae3e d64b 7d3d d0ea 6f3e c04c c03e
000001f0: d43b 473e 7425 3e3e 537e 103e b8f6 cb3d
00000200: c815 843e a201 213e 6c4b 9b3e 7307 5c3e
00000210: 5d19 b53d cb6f 923d b42d 103e c54d 903e
00000220: c45e d73e d6f0 ae3e 8b3b 2f3e b4b3 393e
00000230: b5fa e93e 919a 913e 443f 0f3e be4e 5d3e
00000240: a479 123e 788b b63e ef9f 7f3e 807c d53e
00000250: d032 663e af1e 713e 41e5 d93d 9e30 6c3e
00000260: 64c6 c63e d491 a13e ebf4 ba3e 1ceb 953e
00000270: b607 673e 76a8 093e 8e87 0f3e 1c49 c23e
00000280: 6435 6a3e 33c6 2b3e dc81 d83d b061 093e
00000290: 44d3 e53e 4536 023e 8132 d23d d54b d83d
000002a0: 7032 a13e 53f1 ed3d 9771 5d3e 239d 263e
000002b0: 5a5c 983e 709f 113e 8dbf cc3e b74b 1a3e
000002c0: a173 6a3e ef3c 723e 8743 013f c2d7 963e
000002d0: fec3 223e 29f9 1c3e bd4a 3f3e 536c 663e
000002e0: 66ce f43d 59ab 233e 73b0 4d3e cb0b 023f
000002f0: 6ea4 b43e d693 893e 4364 f83d 18fd 6c3e
00000300: d49b 363e 678b 903e 9710 ac3e 0796 7e3d
00000310: 4fed 363e de1f 183e 3b30 973e a267 f03d
00000320: 9021 483e 4496 1e3e c820 1c3d 7fba d53d
00000330: a956 423e 4824 a03e f953 d13d 6349 243e
00000340: 9e0c 7e3e 1edc 333e 4bd0 343e 13d1 ad3e
00000350: 5254 d53e 8692 5b3e f900 3d3e 0bed 3b3e
00000360: 1478 8d3e cfd8 293e b1e1 283e 6572 503e
00000370: cfa1 c23d f70d 113e fbb4 883e 0239 3e3e
00000380: f599 8e3d 2422 783e 6d1c 693e dc7b 1d3e
00000390: f4c7 ee3d 4f6a 393e 5141 0c3e 431b 9b3e
000003a0: 643e 883e 3579 583e cac1 9c3e 228a 043e
000003b0: bb09 8d3e adf4 f33d 4d30 a73d a2ae 3a3e
000003c0: 3106 c13e 8080 b53e f8fa d73e ab45 0b3e
000003d0: 8666 983e c8cc 2e3e 76fd 5b3e 0d2a 763e
000003e0: d311 0e3e f765 a93e 14a5 123e fd42 9f3d
000003f0: 8a5d 123e 8343 763e 44ad e93e 77e1 213e
