statedicts/torchscript_pl_db_2022-05-02_SPIRAL_REVERSE_90s_P0_R1_s2_seed_1.pt (torch, 225385 bytes, 29 tensors)

weight f4 [5]
0	0x3f80c0e5	1.0058867
1	0x3f8100f6	1.0078418
2	0x3f7dc8ad	0.9913433
3	0x3f808b91	1.0042592
4	0x3f7b866e	0.98252

bias f4 [5]
0	0x3bca5c73	0.0061755716
1	0xbc35d2aa	-0.0110975895
2	0x3caae33a	0.020860303
3	0xbb428653	-0.0029682114
4	0x3c317dfc	0.01083326

running_mean f4 [5]
0	0x402993e4	2.6496515
1	0x3d84be10	0.06481564
2	0x4040b1a7	3.010843
3	0x403b0ebe	2.9227748
4	0x3e483bb4	0.19554025

running_var f4 [5]
0	0x3ceee72e	0.02916297
1	0x357d56a7	9.437594e-07
2	0x3b4a3956	0.0030856929
3	0x3b156eda	0.0022801668
4	0x3b4623ee	0.0030233818

weight f4 [96, 5]
0	0x3ecd14b1	0.4005485
1	0x3e3db786	0.1852704
2	0xbd4f6382	-0.050632007
3	0x3eaad8c2	0.33368498
4	0xbe810423	-0.2519847
5	0xbd015917	-0.031579103
6	0x3db2cb47	0.08730178
7	0x3e0157a0	0.12631083
8	0xbe0fba06	-0.14035806
9	0x3d73fe8e	0.059568934
10	0x3e383be5	0.17991598
11	0xbcd1203f	-0.025528071
12	0xbe19ef2c	-0.15032643
13	0xbed0224e	-0.40651172
14	0xbe897a0b	-0.26850924
15	0xbee45869	-0.44598702
16	0xbdb1b7a5	-0.086776055
17	0xbeb6a233	-0.35670623
18	0xbe4ae415	-0.19813569
19	0x3eb4ede0	0.35337734
20	0xbed6b540	-0.41935158
21	0x3e973583	0.29533014
22	0xbc98857e	-0.018618342
23	0xbe766ade	-0.24064204
24	0x3ed691b2	0.41908032
25	0x3eb6d133	0.3570648
26	0xbe7c8a34	-0.24662095
27	0xbac48e0a	-0.0014995944
28	0xbe48d2a6	-0.19611606
29	0xbedbacfb	-0.4290541
30	0x3e7109a0	0.23538828
31	0x3e770306	0.24122247
32	0x3ec50861	0.38482955
33	0xbe86c730	-0.26323843
34	0xbde9c1db	-0.11413928
35	0x3e76c4b8	0.2409848
36	0xbe80d619	-0.25163344
37	0x3ec55bdb	0.38546643
38	0x3c1eca53	0.009691793
39	0x3da32366	0.07965736
40	0x3e2838fe	0.16427991
41	0x3e894659	0.26811484
42	0x3e031afa	0.1280326
43	0xbe89e944	-0.2693578
44	0x3ec8a193	0.3918577
45	0xbe449776	-0.19198403
46	0x3d64bd48	0.055844575
47	0xbee427ae	-0.44561523
48	0xbe3b73ef	-0.18305944
49	0x3eaad450	0.33365107
50	0x3d718cc1	0.058972124
51	0x3d3c5361	0.045977954
52	0xbe34df9e	-0.17663428
53	0xbec2df79	-0.3806112
54	0x3ea76927	0.32697412
55	0xbe9db701	-0.30803683
56	0x3ea5d22a	0.32386905
57	0xbe867b81	-0.262661
58	0x3eb8f08e	0.3612103
59	0x3c57f447	0.013180799
60	0xbe91f8a1	-0.2851
61	0x3ee15d26	0.4401638
62	0x3eb88a3d	0.36042967
63	0xbe747588	-0.2387296
64	0xbe855584	-0.26041806
65	0xbdf85d25	-0.12127141
66	0xbc0558d3	-0.008138853
67	0x3e9f573d	0.31121245
68	0xbe8b16f6	-0.27165955
69	0x3e5c11d4	0.21491176
70	0x3ecc6814	0.39923155
71	0x3e1d45f3	0.15358715
72	0xbe240470	-0.16017318
73	0x3edb54ee	0.42838234
74	0xbe28457b	-0.16432755
75	0x3da5ad1e	0.0808966
76	0xbea24f36	-0.31701058
77	0x3e3e19c2	0.18564513
78	0xbed78fae	-0.42101806
79	0x3e400b3f	0.1875429
80	0xbea8997e	-0.32929605
81	0xbed7bfff	-0.4213867
82	0xbe2f8765	-0.17141493
83	0x3ea6af8c	0.32555807
84	0x3e4fb010	0.20282006
85	0xbebd109e	-0.3692674
86	0x3e711d9c	0.23546451
87	0xbde6c477	-0.112679414
88	0xbe58327f	-0.21113013
89	0xbed99ba6	-0.42501563
90	0xbe5d08b3	-0.2158535
91	0x3ed718d2	0.42011124
92	0xbe8cc183	-0.27491388
93	0x3ea343e0	0.31887722
94	0xbe15598f	-0.14584945
95	0xbed41e81	-0.41429523
96	0xbe8623d5	-0.26199213
97	0x3e220800	0.15823364
98	0x3e4a74cb	0.19771115
99	0x3db0979a	0.08622666
100	0x3dfc238f	0.1231147
101	0xbe1c7423	-0.15278678
102	0x39a3b1ad	0.00031222161
103	0x3dd9a1d3	0.10626569
104	0xbd8a2e9f	-0.067471735
105	0x3eb96269	0.36207893
106	0x3ec60a29	0.38679627
107	0x3eca3ec7	0.3950102
108	0x3ed1792b	0.40912756
109	0xbedbb5c5	-0.42912117
110	0xbe1ef468	-0.15522921
111	0x3e98e7a3	0.29864225
112	0x3e992af9	0.29915598
113	0x3d15976d	0.036521364
114	0x3e07b90f	0.13254188
115	0x3d4d1341	0.05006719
116	0x3d8f2520	0.06989503
117	0xbe2bb1d4	-0.16767055
118	0xbd341f3c	-0.0439751
119	0x3e6be8cd	0.23038025
120	0x3ed5e1f6	0.41773957
121	0xbdd58f09	-0.104276724
122	0x3e98ad04	0.298195
123	0x3ede5c8e	0.4342999
124	0x3de0cd78	0.1097669
125	0x3ebf428a	0.37355453
126	0x3e71917c	0.23590654
127	0xbec59399	-0.3858917
128	0xbe87f7b7	-0.2655618
129	0x3e365683	0.17806439
130	0xbe392a48	-0.18082535
131	0xbe0ca296	-0.13733897
132	0xbdf9cc06	-0.121971175
133	0xbeba54c7	-0.36392805
134	0xbcc59de2	-0.024123136
135	0x3d94cb14	0.072652966
136	0xbd925f70	-0.071471095
137	0xbe9946d6	-0.29936856
138	0xbe9ded1b	-0.3084496
139	0x3ebec4d8	0.37259555
140	0x3ecedb9d	0.40401927
141	0xbe63f579	-0.22261609
142	0xbe9478ae	-0.2899832
143	0xbdaa5dde	-0.08318685
144	0xbe797288	-0.24360096
145	0xbee46b61	-0.44613174
146	0xbea8e01d	-0.32983485
147	0x3ebb9170	0.36634398
148	0xbde1d364	-0.11026648
149	0x3eaf2ddd	0.34214678
150	0x3e4004cf	0.18751834
151	0xbd07e392	-0.033176012
152	0xbe1d2078	-0.15344417
153	0x3e9e345a	0.30899316
154	0xbdde581c	-0.10856649
155	0xbe9a93e8	-0.3019097
156	0x3e326da6	0.1742464
157	0xbe4c1688	-0.1993047
158	0x3e55e008	0.20886242
159	0x3ded70ce	0.115937814
160	0xbebf7096	-0.37390584
161	0xbe6056e4	-0.21908146
162	0x3dd00fb6	0.101592466
163	0x3cdacc4a	0.02670874
164	0x3dcdb6d7	0.100446396
165	0xbd7a5651	-0.061117474
166	0xbdc89f18	-0.0979597
167	0xbda02955	-0.078203835
168	0x3e50e64f	0.20400356
169	0xbe3ad9a5	-0.18247087
170	0xbe1fdd8b	-0.15611856
171	0x3ed05e8f	0.40697142
172	0x3ed47c6b	0.41501173
173	0x3ea7f069	0.32800606
174	0x3ec3e6fc	0.38262165
175	0xbe96f650	-0.29484797
176	0xbdf4ae42	-0.119472995
177	0xbea62b51	-0.32454923
178	0xbe41ffc8	-0.18945229
179	0x3e6f3bfb	0.23362724
180	0x3ed64b65	0.41854396
181	0xbed962d5	-0.42458215
182	0x3e9faaa7	0.31184885
183	0xbe3d1c8b	-0.1846792
184	0x3eb403d6	0.35159177
185	0x3dce2b74	0.10066882
186	0xbe90ec1d	-0.2830514
187	0x3e9b2c0e	0.3030705
188	0xbe8c009b	-0.27344212
189	0xbe3a0fe0	-0.18170118
190	0xbe696aaf	-0.22794603
191	0x3e4c8ec3	0.19976334
192	0x3e2746c9	0.16335596
193	0xbe731ea5	-0.23742159
194	0xbe8a53be	-0.27017015
195	0x3d3591f5	0.04432865
196	0x3e5a5cf9	0.21324529
197	0x3e4ab877	0.1979693
198	0xbec674c9	-0.38760975
199	0x3dfac704	0.122449905
200	0xbecf87f3	-0.4053341
201	0xbdb19448	-0.086708605
202	0xbd092604	-0.03348352
203	0xbecf4133	-0.4047943
204	0x3e84957f	0.25895306
205	0xbea84670	-0.3286624
206	0x3db1c606	0.08680348
207	0xbe642929	-0.22281326
208	0x3e5a21d1	0.21301962
209	0x3df7752e	0.12082897
210	0x3e5a2ad6	0.21305403
211	0xbd2feb7b	-0.04294918
212	0xbe53e66c	-0.20693368
213	0xbe37cf31	-0.17950131
214	0x3ea2a9b9	0.31770113
215	0x3da5c9e2	0.08095147
216	0xbe4c8be5	-0.1997524
217	0xbe6d3d60	-0.23167944
218	0xbde0ec64	-0.10982588
219	0xbe39f360	-0.18159246
220	0xbe2d4aa8	-0.1692301
221	0x3ed5934f	0.4171395
222	0xbe75da94	-0.24009162
223	0x3ee30a2f	0.44343707
224	0x3ebec82f	0.37262103
225	0xbe892cdf	-0.26792046
226	0x3e4ba21e	0.19886062
227	0xbece7b5f	-0.403285
228	0x3d38612c	0.045014545
229	0xbe9645a5	-0.2935001
230	0xbe92b998	-0.28657222
231	0x3e088255	0.13330968
232	0x3e4d7e06	0.20067605
233	0xbde6e666	-0.11274414
234	0xbd6945de	-0.056951396
235	0x3e3028ea	0.17203107
236	0xbedd62d3	-0.4323946
237	0x3cc1e581	0.023669006
238	0xbed94ce8	-0.42441487
239	0xbe0f2cf2	-0.13981989
240	0x3ec62321	0.38698676
241	0xbe252eb3	-0.16131096
242	0xbe47e96f	-0.19522642
243	0xbed74280	-0.42042923
244	0x3edd4585	0.43217102
245	0x3e21912a	0.15778032
246	0xbeb0898e	-0.34479946
247	0xbdd26306	-0.102727935
248	0x3ebc4e35	0.36778417
249	0xbedb122a	-0.42787296
250	0x3d14c974	0.036324933
251	0xbea79719	-0.32732466
252	0xbeaed02d	-0.341432
253	0xbdc2d8ed	-0.095140316
254	0x3e3442a5	0.17603548
255	0xbee3cb68	-0.44491124

bias f4 [96]
0	0xbde27693	-0.110577725
1	0xbe80e301	-0.2517319
2	0xbd9896a0	-0.074506044
3	0x3e9e0304	0.30861676
4	0x3e6ceec6	0.2313796
5	0xbe9950fe	-0.29944605
6	0x3e96cc79	0.29452875
7	0x3dbd41cc	0.092410654
8	0x3d504719	0.050849054
9	0x3d035c26	0.0320703
10	0xbe4b1d05	-0.19835289
11	0xbebd92e7	-0.3702614
12	0x3dc9a5b0	0.098460555
13	0x3ec6dc27	0.38839838
14	0xbeb9eb9b	-0.36312565
15	0x3ecb3459	0.39688376
16	0x3e7305c4	0.23732668
17	0x3e958f5c	0.29210937
18	0x3e8d9abb	0.27657112
19	0x3eaed20e	0.34144634
20	0x3d84fabe	0.06493138
21	0xbe56bf14	-0.20971328
22	0xbe78401b	-0.24243204
23	0xbeb71196	-0.35755605
24	0x3c9307aa	0.01794799
25	0x3d7df431	0.062000457
26	0x3db3eadf	0.087850325
27	0xbe91d05b	-0.28479275
28	0x3e9f079c	0.31060493
29	0xbe7cf986	-0.2470456
30	0xbec7cba1	-0.39022544
31	0x3ee1cfa6	0.44103736
32	0x3de6858f	0.11255943
33	0x3eb834fb	0.3597792
34	0x3cb52bf3	0.022115683
35	0x3ed39d9e	0.4133119
36	0xbc2b1532	-0.010442065
37	0xbe2e7592	-0.17037037
38	0x3e56b27c	0.20966524
39	0x3d96c555	0.07361857
40	0xbe325d6a	-0.17418447
41	0xbde47df4	-0.11156836
42	0x3e49fc8a	0.19725242
43	0x3e9b8e2e	0.30381912
44	0xbeb04e45	-0.34434715
45	0xbe9e101c	-0.30871665
46	0x3e8f3a1e	0.27974027
47	0x3ea5d207	0.323868
48	0xbd935f68	-0.07195932
49	0xbe2387c4	-0.15969759
50	0x3e1bb137	0.15204321
51	0x3eb93ba6	0.3617832
52	0xbe8a3cb4	-0.26999438
53	0x3dd2d9a5	0.10295419
54	0x3e81d7b6	0.25359887
55	0x3e047709	0.12936033
56	0x3ed66301	0.4187241
57	0xbed7c1e5	-0.42140117
58	0x3e83111c	0.2559899
59	0xbd3c4bfe	-0.04597091
60	0xbe5c1ed3	-0.21496134
61	0x3dc8a967	0.09797936
62	0xbdce77e0	-0.10081458
63	0x3ec98ddd	0.39366046
64	0xbea16c6f	-0.3152804
65	0x3d721d47	0.059109952
66	0xbe216b1e	-0.15763518
67	0x3e7905b0	0.24318576
68	0x3eaee852	0.3416162
69	0x3e9ba39f	0.3039827
70	0x3e125d5f	0.14293431
71	0xbee510c9	-0.4473937
72	0x3d7fb1f8	0.062425584
73	0xbe841b65	-0.2580215
74	0x3e15e063	0.14636378
75	0x3d890d0c	0.066919416
76	0xbec2d5c9	-0.3805373
77	0xbea785dd	-0.32719317
78	0xbe68f54a	-0.2274982
79	0xbecb4244	-0.39698994
80	0xbe416349	-0.1888553
81	0xbe307b61	-0.17234565
82	0x3e812f27	0.25231287
83	0x3e59c261	0.21265556
84	0xbeacbd74	-0.3373829
85	0xbd971f22	-0.07378985
86	0x3dd6f4d0	0.10495913
87	0xbdf2a48f	-0.11847793
88	0x3de42779	0.11140341
89	0xbd026245	-0.031832
90	0xbec8f95a	-0.3925274
91	0x3ebb3d6f	0.36570308
92	0xbea6edc0	-0.32603264
93	0xbe495a62	-0.19663385
94	0x3d3f59dc	0.046716556
95	0x3e10ab1b	0.14127772

weight f4 [96]
0	0x3f7ffa10	0.9999094
1	0x3f7f5d4e	0.99751747
2	0x3f8034b5	1.0016085
3	0x3f7fca0b	0.9991767
4	0x3f7fa60f	0.9986276
5	0x3f7f5109	0.99733025
6	0x3f7f61ea	0.9975878
7	0x3f7ff56a	0.9998385
8	0x3f7fc062	0.9990293
9	0x3f801acd	1.0008179
10	0x3f802927	1.0012559
11	0x3f7fc8f9	0.99916035
12	0x3f7f66df	0.99766344
13	0x3f800226	1.0000656
14	0x3f7fd86c	0.9993961
15	0x3f80529e	1.0025213
16	0x3f801c65	1.0008665
17	0x3f7f717d	0.99782544
18	0x3f80246c	1.0011115
19	0x3f80d82a	1.0065968
20	0x3f80c7cf	1.0060977
21	0x3f8083f3	1.0040268
22	0x3f8009c7	1.0002984
23	0x3f807283	1.0034946
24	0x3f7f2eec	0.9968097
25	0x3f8044be	1.0020978
26	0x3f805ed8	1.0028944
27	0x3f7f158e	0.99642265
28	0x3f808770	1.0041332
29	0x3f7fc3dc	0.9990823
30	0x3f7ecd0a	0.99531615
31	0x3f80612f	1.0029658
32	0x3f808cd3	1.0042976
33	0x3f802d8d	1.0013901
34	0x3f7fba90	0.99894047
35	0x3f8010bf	1.000511
36	0x3f805ec2	1.0028918
37	0x3f7ff33f	0.9998054
38	0x3f80332e	1.0015619
39	0x3f800e66	1.0004394
40	0x3f7efdea	0.9960619
41	0x3f7f521f	0.9973468
42	0x3f7fd4ce	0.9993409
43	0x3f7f502e	0.9973172
44	0x3f7fa618	0.99862814
45	0x3f7fb69e	0.99888027
46	0x3f801f7a	1.0009606
47	0x3f7f8a67	0.9982056
48	0x3f803b57	1.0018109
49	0x3f7ea64b	0.9947249
50	0x3f8050c1	1.0024644
51	0x3f801a9e	1.0008123
52	0x3f7e9a8f	0.9945459
53	0x3f7f8a25	0.99820167
54	0x3f8059e9	1.0027438
55	0x3f7ea96e	0.9947728
56	0x3f802f4a	1.0014431
57	0x3f7f34fa	0.9969021
58	0x3f809f2a	1.0048573
59	0x3f7f8c72	0.9982368
60	0x3f8001eb	1.0000585
61	0x3f803606	1.0016487
62	0x3f806cb8	1.0033178
63	0x3f807986	1.0037086
64	0x3f7fa4cf	0.9986085
65	0x3f805d48	1.0028467
66	0x3f7ff8d1	0.9998904
67	0x3f7f3678	0.9969249
68	0x3f80a35e	1.0049856
69	0x3f7fa668	0.9986329
70	0x3f802b2c	1.0013175
71	0x3f7efe30	0.9960661
72	0x3f7f5943	0.9974558
73	0x3f801612	1.0006735
74	0x3f7fe7c0	0.99963
75	0x3f7f871c	0.99815536
76	0x3f7f79ef	0.9979543
77	0x3f80027c	1.0000758
78	0x3f7e45ff	0.99325556
79	0x3f80b412	1.0054953
80	0x3f7f3f6b	0.99706143
81	0x3f801c08	1.0008554
82	0x3f7fadce	0.9987458
83	0x3f80a036	1.0048892
84	0x3f808f9a	1.0043824
85	0x3f7eee18	0.9958205
86	0x3f7ec128	0.99513483
87	0x3f8076cb	1.0036253
88	0x3f7fc4ab	0.99909467
89	0x3f7fc5fd	0.9991148
90	0x3f8086f7	1.0041188
91	0x3f80a2d4	1.0049691
92	0x3f7fed8a	0.9997183
93	0x3f7eb270	0.99491024
94	0x3f7f1d80	0.9965439
95	0x3f800f9e	1.0004766

bias f4 [96]
0	0xbb43138a	-0.0029766285
1	0x3a90e366	0.0011054098
2	0xbb0e58ba	-0.0021720366
3	0x3a01114c	0.0004923537
4	0x3b0423f7	0.0020163038
5	0xbb0d4204	-0.002155424
6	0xba8830c3	-0.0010390509
7	0x38222dc2	3.8666425e-05
8	0x3aba57e3	0.0014216866
9	0xbaad847d	-0.0013238337
10	0x3b68e32a	0.003553579
11	0xba3b1601	-0.0007136763
12	0xbb83c9f9	-0.0040218798
13	0x3b14e079	0.0022716804
14	0x39ac12fe	0.00032820547
15	0xb7850b72	-1.5860165e-05
16	0xba4865be	-0.00076445553
17	0xbb0423a9	-0.0020162857
18	0x3aac3a4b	0.0013139931
19	0xba449bef	-0.00075000426
20	0xb9e4d174	-0.00043643604
21	0xb9c2ff95	-0.00037192987
22	0xbae3d9f8	-0.0017383685
23	0x3a099ab3	0.0005249187
24	0xb98e9fb5	-0.00027203342
25	0xbac99a95	-0.0015381152
26	0x3abf16fd	0.0014578995
27	0xb96754e1	-0.00022061497
28	0xba746056	-0.00093222165
29	0xba4a216f	-0.00077106705
30	0xb9b21d89	-0.0003397281
31	0x3a145391	0.00056582043
32	0xba8999ef	-0.0010498146
33	0xbadc67e3	-0.0016815629
34	0xb9ebd715	-0.00044982941
35	0xbb424681	-0.0029644074
36	0x3aaa4a30	0.001299208
37	0x3b162cf7	0.0022914985
38	0xbafc973f	-0.0019271149
39	0x3a3c1616	0.0007174922
40	0x3b867ef0	0.0041044876
41	0x3a725152	0.0009243685
42	0xba8d32d5	-0.0010772595
43	0xbb38f465	-0.0028221842
44	0x39c4712d	0.00037468356
45	0xba925af7	-0.0011166026
46	0x3937d201	0.00017530473
47	0xb9f589db	-0.00046832752
48	0xba94059e	-0.0011293178
49	0x3a303a2e	0.00067225366
50	0xba0ff67f	-0.0005491748
51	0xbab27c8f	-0.0013617444
52	0xbb2dca2f	-0.0026518216
53	0xb9ed1040	-0.0004521627
54	0xbbdc6f09	-0.0067271036
55	0x3814990d	3.542849e-05
56	0xbaeab3cc	-0.0017906367
57	0x3af62ff2	0.0018782599
58	0x3af1dce9	0.0018452677
59	0x3a8dc5aa	0.0010816355
60	0x3b288e81	0.0025719705
61	0xb87d8b29	-6.0449504e-05
62	0x3b6c6fdb	0.0036077413
63	0x3b3c47fa	0.0028729425
64	0x3794f1a3	1.7755496e-05
65	0xba3a7666	-0.00071129797
66	0x3ac19617	0.0014769462
67	0xbb2f8dac	-0.0026787324
68	0xbaa2cc8e	-0.0012420581
69	0x39f06b7a	0.00045856443
70	0x3aaf4163	0.0013370927
71	0x3a54425f	0.0008097048
72	0x39ea8591	0.00044731473
73	0xbb14bbbf	-0.0022694913
74	0x3aa14a1b	0.001230541
75	0x39bff724	0.00036614493
76	0x3934f189	0.00017256117
77	0x383a02e8	4.4348562e-05
78	0xba415b98	-0.0007376014
79	0xb9e9817f	-0.00044537705
80	0xb886c58c	-6.426414e-05
81	0x3b0c2a07	0.0021387355
82	0x3b111570	0.0022138022
83	0xba8a16d4	-0.0010535368
84	0xbab27e3b	-0.0013617942
85	0xba049a97	-0.0005058436
86	0x3ac6d4d7	0.0015169632
87	0xbb27b3df	-0.002558939
88	0x3b668be3	0.0035178594
89	0x3a824501	0.0009938778
90	0xbb10313c	-0.0022002002
91	0xbadb2ced	-0.0016721763
92	0x3972711c	0.00023121055
93	0x3b6f6426	0.00365282
94	0x3aecd6fa	0.0018069439
95	0xba72a683	-0.00092563796

running_mean f4 [96]
0	0x3e0287db	0.12747137
1	0x00000000	0.0
2	0x3e574fc8	0.21026528
3	0x3ee08d46	0.43857783
4	0x3e9d99a7	0.3078129
5	0x3c8517d0	0.016246706
6	0x3eb901b8	0.36134124
7	0x3eb3fe3e	0.3515491
8	0x3e14563e	0.14486024
9	0x3e7a9084	0.24469191
10	0x3cdf96f5	0.027293662
11	0x3cc731c5	0.024315724
12	0x3ec6e4cf	0.38846442
13	0x3ecc435a	0.39895135
14	0x3dc21b7c	0.094778985
15	0x3ed1126a	0.4083436
16	0x3e8fde9d	0.28099528
17	0x3f1a2289	0.60208946
18	0x3ea07bc0	0.31344414
19	0x3eb1548a	0.3463481
20	0x3e01af00	0.12664413
21	0x3e32b632	0.17452314
22	0x3cb1771a	0.021663237
23	0x3b755dc6	0.0037439927
24	0x3f015562	0.5052091
25	0x3e20e9b8	0.15714157
26	0x3e963875	0.29339948
27	0x3cdd6ba7	0.027028872
28	0x3e9fbdee	0.31199592
29	0x3cdc5732	0.026897047
30	0x3cdb798e	0.02679136
31	0x3edf855e	0.4365644
32	0x3e19fd8d	0.15038128
33	0x3eb69b50	0.3566537
34	0x3e9b9951	0.3039041
35	0x3eee6ade	0.46565908
36	0x3ec03810	0.37542772
37	0x3d814653	0.063122414
38	0x3ed4c68c	0.4155773
39	0x3e234088	0.15942585
40	0x3e2c2676	0.16811547
41	0x3db6adc0	0.08919859
42	0x3e734628	0.23757231
43	0x3ea00115	0.31250826
44	0x3dc33cb6	0.09533064
45	0x3e6a1624	0.22860008
46	0x3eb581f4	0.3545071
47	0x3eb252a6	0.3482868
48	0x3e018310	0.12647653
49	0x3cf58fd8	0.029975817
50	0x3e604690	0.21901917
51	0x3f0f5782	0.559929
52	0x3cb9730b	0.022637865
53	0x3eabd77b	0.33562836
54	0x3ec4e84f	0.38458487
55	0x3e517a5c	0.20456833
56	0x3ed4776f	0.4149737
57	0x3b4befba	0.003111823
58	0x3e855cc0	0.26047325
59	0x3d4f2bf9	0.050579045
60	0x3dff1746	0.12455611
61	0x3e010c00	0.12602234
62	0x3e8319b6	0.25605553
63	0x3ec77632	0.38957363
64	0x3d4b49f2	0.049631067
65	0x3e95fdcc	0.29295194
66	0x3e20e916	0.15713915
67	0x3ea0e0d8	0.31421542
68	0x3eb2d868	0.3493073
69	0x3e99afc0	0.300169
70	0x3e98f4aa	0.29874164
71	0x00000000	0.0
72	0x3e8196e0	0.2531042
73	0x3d90fb5e	0.070791945
74	0x3eabb7d8	0.335387
75	0x3e565d38	0.20933998
76	0x3e638f03	0.22222523
77	0x3c15a62a	0.009133855
78	0x3d50bb68	0.050959975
79	0x3e390c90	0.18071198
80	0x3d51c72e	0.051215343
81	0x3e38e7cc	0.18057173
82	0x3ee4d265	0.44691768
83	0x3ea3fb0f	0.3202748
84	0x3d04f2fd	0.032458294
85	0x3dac0356	0.08399074
86	0x3e7c9898	0.24667585
87	0x3d5db714	0.054129675
88	0x3e857c24	0.26071274
89	0x3e25879e	0.16165015
90	0x3db8c96f	0.090227954
91	0x3ebd4343	0.3696538
92	0x3e0595f3	0.13045482
93	0x3dfe0790	0.12403786
94	0x3f0badbd	0.5456198
95	0x3e553abe	0.2082319

running_var f4 [96]
0	0x3d326a28	0.04355827
1	0x00000000	0.0
2	0x3dfecd10	0.12441456
3	0x3e84c3f8	0.25930762
4	0x3dd0d468	0.10196763
5	0x3b05cbe6	0.0020415722
6	0x3dcf1e44	0.101131946
7	0x3e084f58	0.13311517
8	0x3c9bf14c	0.019035958
9	0x3df56e5e	0.119839415
10	0x3b92ca3a	0.0044796737
11	0x3b6eb83d	0.0036425733
12	0x3e36ed87	0.17864047
13	0x3d5416f2	0.051779695
14	0x3d2239e0	0.039605975
15	0x3ce49581	0.02790332
16	0x3de3f010	0.11129773
17	0x3f25841a	0.64654696
18	0x3dea4eff	0.114408486
19	0x3cbe4d58	0.02323024
20	0x3c9bc820	0.019016325
21	0x3d7aaae1	0.06119812
22	0x3b6f355e	0.0036500315
23	0x39a2f166	0.00031078904
24	0x3ea6326a	0.32460338
25	0x3cf11737	0.029430015
26	0x3e2e2ae0	0.17008543
27	0x3bde9bd6	0.0067934794
28	0x3d241fd2	0.04006941
29	0x3ba3e9cc	0.005002236
30	0x3bbd69f6	0.005780454
31	0x3db020fa	0.0860004
32	0x3c5803a5	0.013184463
33	0x3bc4b0da	0.0060025277
34	0x3dc8c55c	0.09803268
35	0x3e6643a8	0.22486746
36	0x3e2ff284	0.17182356
37	0x3c51e05a	0.012809837
38	0x3e647d38	0.22313392
39	0x3ca383e8	0.019960359
40	0x3d99bd5c	0.075068206
41	0x3cb8e02d	0.022567833
42	0x3d8cbcce	0.06871949
43	0x3db7e418	0.08979052
44	0x3d217178	0.039414853
45	0x3e4554f8	0.19270694
46	0x3db9edca	0.09078558
47	0x3d893537	0.06699603
48	0x3d1d0872	0.038338132
49	0x3bb76188	0.0055963434
50	0x3d597d07	0.05309775
51	0x3f01c513	0.50691336
52	0x3b6f4a1f	0.0036512685
53	0x3e188f37	0.14898382
54	0x3dd52c9d	0.104089
55	0x3d71c031	0.05902118
56	0x3d156e28	0.036482006
57	0x399eff92	0.00030326523
58	0x3cb17cfa	0.021666039
59	0x3be3fd99	0.0069577214
60	0x3cc492aa	0.023995716
61	0x3c36e654	0.011163313
62	0x3dc7a3d9	0.09748048
63	0x3c5b9f06	0.013404613
64	0x3c556367	0.013024188
65	0x3dc65a3e	0.09685181
66	0x3d4f7c84	0.050655857
67	0x3dcf797f	0.101305954
68	0x3d588803	0.052864086
69	0x3c09c863	0.008409592
70	0x3e2bf92b	0.16794269
71	0x00000000	0.0
72	0x3df8756f	0.12131774
73	0x3cd7b836	0.026332956
74	0x3dc6fa0c	0.097156614
75	0x3d8b8050	0.06811583
76	0x3e141ef4	0.14464933
77	0x3a83fc26	0.0010069653
78	0x3c4ee496	0.012627741
79	0x3e03f6c7	0.12887107
80	0x3c178ff0	0.009250626
81	0x3d8f2cba	0.06990953
82	0x3e6e7ce8	0.23289835
83	0x3e431850	0.19052243
84	0x3be20218	0.0068972223
85	0x3cc9e686	0.024646055
86	0x3dd2339c	0.1026375
87	0x3c184284	0.009293202
88	0x3d65e719	0.056128595
89	0x3d891740	0.06693888
90	0x3d0179a9	0.031610165
91	0x3e245470	0.16047835
92	0x3d825c46	0.06365256
93	0x3d0810ef	0.033219274
94	0x3eb0e618	0.34550548
95	0x3cf080c0	0.029358268

weight f4 [256, 96]
0	0x3d0cc4fa	0.03436754
1	0x3ce2c5c7	0.027682198
2	0xbda75688	-0.081708014
3	0xbda89cac	-0.08233008
4	0x3db00928	0.085954964
5	0xbdad38a8	-0.08458072
6	0xbd034dcb	-0.03205661
7	0x3d7550c6	0.059891485
8	0x3d9cdb6b	0.07659038
9	0x3d8fde67	0.07024842
10	0xbd256af7	-0.040385213
11	0x3d2519f5	0.040307958
12	0x3d309479	0.043110345
13	0xbd93fae2	-0.072255865
14	0xbd8d60de	-0.069032416
15	0x3bdb7f2e	0.0066985106
16	0x3db9b4e0	0.09067702
17	0xbd09dc66	-0.033657454
18	0x3d04028a	0.032228984
19	0x3d97075d	0.07374451
20	0x3d726d32	0.059186168
21	0x3d2512da	0.04030118
22	0xbcfb8d73	-0.030707097
23	0x3d78e9e6	0.060769938
24	0xbdc61c44	-0.0967336
25	0x3c23070e	0.009950412
26	0x3c5dbb76	0.013533464
27	0xbcd39c76	-0.025831442
28	0x3dc7d75e	0.09757875
29	0xbdc683bf	-0.09693097
30	0xbd84349d	-0.06455348
31	0x3db056ce	0.08610307
32	0xbce395bf	-0.027781365
33	0x3c9df7a6	0.019283127
34	0x3c09f66c	0.008420568
35	0x3dac7b5b	0.08421966
36	0x3ad77609	0.0016438375
37	0xbcfe1f94	-0.031020917
38	0xbd1de201	-0.038545612
39	0xbd0f23b7	-0.03494617
40	0xbd90f2e7	-0.0707758
41	0x3d14c6e1	0.03632248
42	0xbba9d5a9	-0.005182941
43	0xbd811e7c	-0.063046426
44	0xbce8099d	-0.028324896
45	0xbcab3b21	-0.020902218
46	0x3d08f035	0.033432204
47	0xbd8ea225	-0.0696452
48	0x3dcec5db	0.10096332
49	0xbdc1a2f0	-0.09454906
50	0x3dd074a6	0.10178499
51	0x3a8e27d7	0.0010845613
52	0x3d1ef339	0.038806174
53	0x3d0c176f	0.034202036
54	0xbdb4524f	-0.088047616
55	0xbdb99b6e	-0.09062849
56	0x3c8b5051	0.017006071
57	0xbcad9aa0	-0.021191895
58	0xbd482e7f	-0.048872467
59	0xbd370f02	-0.044692047
60	0xbd8c20a4	-0.06842163
61	0x3d2cbc58	0.042171806
62	0xbdaa1132	-0.08304061
63	0xbd4b079d	-0.049567807
64	0x3d5d5f5e	0.054046027
65	0x3d2b39ec	0.041803285
66	0xbd1cca88	-0.038279086
67	0xbdc35d51	-0.09539283
68	0x3d402f80	0.0469203
69	0x3dac3aa8	0.08409625
70	0xbd4956d7	-0.049155083
71	0x3db719f9	0.08940501
72	0xbd4d56a8	-0.05013147
73	0x3d90912b	0.070589386
74	0x3d33f844	0.043937936
75	0xbdaa705f	-0.08322214
76	0x3cd774a1	0.02630073
77	0xbd55df74	-0.052215055
78	0xbce57576	-0.028010111
79	0x3b801e17	0.003909837
80	0xbd98bdb3	-0.07458057
81	0x3d1c9fb8	0.038238257
82	0x3d9214f7	0.07132905
83	0xbcb103f5	-0.021608332
84	0x3d43bb20	0.04778588
85	0xbdb1e80d	-0.08686838
86	0x3c306edf	0.010768621
87	0xbd5beff3	-0.05369563
88	0x3a923718	0.0011155335
89	0xbd05ac4c	-0.03263502
90	0xbd5efa18	-0.054437727
91	0xbccf03e3	-0.025270408
92	0xbdbf5e60	-0.093441725
93	0xbd38ce57	-0.045118656
94	0xbd3fcdb9	-0.04682705
95	0x3dc9153d	0.09818504
96	0xbd583708	-0.052786857
97	0xbb2e2a30	-0.0026575439
98	0xbcce4e2a	-0.025183756
99	0xbd991fe8	-0.07476789
100	0x3d0eae59	0.03483424
101	0xbd9128b4	-0.07087842
102	0x3d0f7445	0.035022993
103	0xbd3e2d5c	-0.046429977
104	0x3d215562	0.039388068
105	0x3d922c28	0.071373284
106	0x3da73b66	0.08165626
107	0x3dcb0770	0.09913528
108	0xbc9a2fe7	-0.01882167
109	0xbdd5833d	-0.10425422
110	0xbd0b3466	-0.033985518
111	0xbdd41b01	-0.10356713
112	0x3c9d22db	0.01918166
113	0xbdb63899	-0.08897514
114	0xbc2a9361	-0.010411114
115	0x3db0f3c4	0.086402446
116	0xbbd291fa	-0.006426093
117	0xbad026d4	-0.0015880712
118	0x3dbc6b37	0.09200137
119	0xbd5877ae	-0.05284851
120	0xbdc8aa8c	-0.09798154
121	0x3d634491	0.055485312
122	0x3d9608c4	0.07325891
123	0xbc07d3f3	-0.008290279
124	0xbda33d3d	-0.07970665
125	0x3cb0a75f	0.021564184
126	0x3cf965b6	0.030444007
127	0xbd856196	-0.06512754
128	0xbd251199	-0.040299986
129	0x3bc27128	0.0059338994
130	0x3d6c1f69	0.057647143
131	0x3b75db48	0.0037514735
132	0x3dbb40f2	0.09143247
133	0x3dbd7ad8	0.09251946
134	0x3cef8f61	0.029243173
135	0xbd802af6	-0.06258194
136	0xbd3bbffb	-0.045837384
137	0xbcba99c5	-0.022778401
138	0x3bfaa83e	0.0076494506
139	0xbd71e2b4	-0.05905409
140	0xbdc320ec	-0.09527764
141	0xbce55cc4	-0.027998336
142	0xbd922e6d	-0.07137761
143	0x3d0d01f6	0.0344257
144	0xbd649c7c	-0.055813298
145	0xbcfff6b3	-0.031245565
146	0x3d396025	0.045257706
147	0x3cd3b665	0.025843808
148	0x3b9e5fe7	0.00483321
149	0x3d7d68d6	0.061867557
150	0xbd9e3887	-0.077256255
151	0x3cfa5215	0.030556718
152	0x3c471ad6	0.012152394
153	0xbdc57683	-0.09641745
154	0x3d08bb0b	0.033381503
155	0xbd91f875	-0.071274675
156	0xbcc6a425	-0.024248192
157	0xbd47948d	-0.048725653
158	0xbdcd0df3	-0.10012426
159	0x3d804d43	0.062647365
160	0x3d6b2874	0.057411626
161	0x3c67a58b	0.01413859
162	0xbd90e5a1	-0.07075048
163	0x3dc53524	0.096292764
164	0xbd130c0d	-0.035900164
165	0xbd8e0a83	-0.06935599
166	0xbd917118	-0.07101649
167	0x3c852324	0.016252108
168	0xbd7627cb	-0.060096543
169	0xbc5a1555	-0.01331075
170	0xbdcd322f	-0.100193374
171	0xbcf73dca	-0.03018083
172	0xbdbce5a3	-0.09223487
173	0xbd96cd3b	-0.07363363
174	0xbda358e7	-0.07975941
175	0xbd7e7a6b	-0.062128466
176	0x3dadd097	0.08487051
177	0xbcffdc54	-0.03123299
178	0xbd864a52	-0.06557144
179	0x3dd08d67	0.1018322
180	0x3c08fd5e	0.008361189
181	0xbdad9a29	-0.08476669
182	0xbd989c45	-0.07451681
183	0x3c56b742	0.0131052155
184	0xbd970063	-0.07373121
185	0x3d2d84bb	0.04236291
186	0xbdb54bdd	-0.088523604
187	0xbdb33116	-0.08749597
188	0x3d711bdd	0.058864463
189	0xbbd98aed	-0.0066388757
190	0x3ce5c3af	0.02804741
191	0xbcf59712	-0.029979263
192	0xbd9a1ed0	-0.07525408
193	0x3d86f0e3	0.06588914
194	0xbc9b2f10	-0.01894334
195	0x3da5c559	0.08094282
196	0xbcaec911	-0.02133611
197	0xbcb0c508	-0.021578327
198	0xbcc805a8	-0.02441676
199	0xbd813ca5	-0.06310395
200	0x3c7ec2c5	0.015549366
201	0x3ced07a3	0.028934306
202	0xbd173a69	-0.03692094
203	0xbd69d874	-0.05709119
204	0x3da494c0	0.08036184
205	0xbb35ef7b	-0.002776115
206	0x3c3d904d	0.0115700485
207	0xbd71bd7e	-0.059018604
208	0x3d96e32b	0.073675476
209	0x3dae0df7	0.08498757
210	0x3cd0c7a4	0.025485821
211	0x3dc02241	0.093815334
212	0x3d5ab88f	0.053398665
213	0x3da55fc5	0.08074907
214	0xbd583c63	-0.052791964
215	0xbd17425f	-0.03692853
216	0xbcb82187	-0.022476925
217	0xbd60080c	-0.054695174
218	0x3d597237	0.05308744
219	0xbd5d2753	-0.05399258
220	0x3d04a19f	0.032380696
221	0x3d64876b	0.055793207
222	0xbcba6342	-0.022752408
223	0x3dc44dad	0.09585128
224	0xbd2a0ce9	-0.04151622
225	0x3d388e6d	0.045057703
226	0x3d81079e	0.06300281
227	0xbd6cd768	-0.057822615
228	0xbbea74b2	-0.0071550244
229	0x3da01594	0.07816616
230	0xbda51355	-0.08060328
231	0xbd5d5bd1	-0.05404264
232	0xbdc99b97	-0.098441295
233	0x3d9c62e2	0.07636048
234	0x3d869cd8	0.06572884
235	0x3c9b2d96	0.018942636
236	0x3c591626	0.0132499095
237	0xbdcbc677	-0.099499635
238	0x3d473209	0.0486317
239	0xbd49ca99	-0.049265478
240	0x3d4fe544	0.050755754
241	0xbd896ca7	-0.06710177
242	0xbd8e67bc	-0.069533795
243	0x3d98d75c	0.074629515
244	0x3ce54e87	0.027991546
245	0xbce21ee5	-0.027602622
246	0xbd90510d	-0.07046709
247	0xbdb4ea56	-0.088337585
248	0x3d970308	0.07373625
249	0xbd023e7b	-0.031797867
250	0x3cd9fa54	0.026608624
251	0x3d77ac86	0.060467266
252	0xbcd11fe4	-0.025527902
253	0xbd3a30f2	-0.045456834
254	0xbd75aa59	-0.05997691
255	0x3b21ad4a	0.0024669939

bias f4 [256]
0	0x3da9f073	0.08297815
1	0xbdac1430	-0.08402288
2	0xbd4c9760	-0.04994905
3	0xbda57f3b	-0.08080908
4	0x3cc625fd	0.024188036
5	0x3d029fc2	0.03189064
6	0xbc394b5e	-0.011309473
7	0x3da822c6	0.082097575
8	0x3d9ee584	0.077586204
9	0x3d2867b8	0.04111454
10	0xbcfd697d	-0.03093409
11	0xbdbb0524	-0.0913184
12	0xbd834406	-0.06409459
13	0x3cacf4d1	0.021112831
14	0xbdc97bed	-0.0983809
15	0x3d264928	0.04059711
16	0xbd57eb3b	-0.052714568
17	0xbd339619	-0.043844316
18	0xbdad1f9c	-0.08453295
19	0xbd33a693	-0.04386003
20	0xbd543fef	-0.051818784
21	0x3d57d99c	0.052697763
22	0xbda8bd17	-0.08239191
23	0x3d74de03	0.05978204
24	0x3d605e76	0.054777585
25	0x3d845fd8	0.06463593
26	0x3d3b2b3c	0.04569553
27	0xbd9eb525	-0.07749394
28	0xbd7c1965	-0.061547656
29	0xbcdb805a	-0.026794601
30	0xbdbc95cc	-0.09208259
31	0x3dd36196	0.103213474
32	0x3bc17aa6	0.0059045134
33	0x3db2a841	0.08723498
34	0x3c8b4094	0.016998567
35	0xbc2ad44f	-0.010426595
36	0x3daac2df	0.0833795
37	0xbdadaf95	-0.08480755
38	0xbd165c3f	-0.036709066
39	0x3da9de9d	0.08294413
40	0xbb13038a	-0.002243253
41	0x3c3f3087	0.011669285
42	0xbdbc1557	-0.09183758
43	0xbdcc0663	-0.09962156
44	0xbc98cab0	-0.018651336
45	0x3d0b9afe	0.03408336
46	0xbd67c4fb	-0.05658434
47	0x3b973220	0.0046141297
48	0x3dcaedfe	0.09908675
49	0xbdae6f4c	-0.08517322
50	0xbcda71bc	-0.02666556
51	0x3d22ea24	0.039774075
52	0x3d84357c	0.06455514
53	0xbce5f670	-0.028071612
54	0x3d46739e	0.048450105
55	0xbd2db58e	-0.042409472
56	0x3da3b7c8	0.07994038
57	0x3caaadce	0.02083483
58	0x3d2a68d3	0.041603874
59	0x3db3948a	0.08768566
60	0xbd17f465	-0.037098307
61	0x3d71553f	0.058919188
62	0x3cd109c0	0.025517344
63	0x3cdd589a	0.027019788
64	0x3d7e3e9f	0.06207144
65	0x3d59c2ec	0.053164408
66	0xbd868579	-0.06568427
67	0xbd56d664	-0.052450553
68	0xbd0d9a69	-0.034571085
69	0x3b07b2ed	0.0020706013
70	0xbdc1e8c0	-0.09468222
71	0x3cdeb5a1	0.027186217
72	0xbd7246ff	-0.05914974
73	0xbd519da3	-0.051175725
74	0x3d9c0935	0.076189436
75	0xbd9b74a5	-0.075906076
76	0x3d03fcd8	0.032223552
77	0x3db6723c	0.08908507
78	0xbcc6a6ab	-0.024249395
79	0x3c9a6efa	0.018851746
80	0xbd816b43	-0.06319287
81	0x3cd86835	0.026416877
82	0xbc272e05	-0.010203843
83	0x3c9b838c	0.018983625
84	0xbd1682c7	-0.036745813
85	0x3b7144ae	0.0036814618
86	0xbd4583f4	-0.048221543
87	0x3da7362e	0.08164631
88	0x3c9eef3f	0.01940119
89	0xbcc74b8d	-0.024328018
90	0x3cc4d8cd	0.02402916
91	0xbd88a511	-0.06672109
92	0xbb9bfec5	-0.0047605955
93	0x3cbe4800	0.023227692
94	0xbdb527be	-0.08845471
95	0xbd4ee15a	-0.05050788
96	0xbd93fdaf	-0.07226121
97	0x3c81412f	0.015778152
98	0x3d0173e1	0.03160465
99	0xbb3db5c5	-0.0028947454
100	0x3c69aaba	0.014261896
101	0xbd0dde7c	-0.034636006
102	0xbdb1826f	-0.08667456
103	0xbd1e91f8	-0.038713425
104	0x3c7eb090	0.0155450255
105	0xbafa438d	-0.0019093618
106	0x3d04fc47	0.032467153
107	0xbda68fb2	-0.081328765
108	0x3c7257e9	0.014791467
109	0xbd329e17	-0.043607797
110	0x3d9e0fdc	0.07717869
111	0xbd2eee73	-0.04270787
112	0x3db0d88d	0.08635054
113	0x3cc04544	0.023470528
114	0x3db2f7a0	0.08738637
115	0x3cd138c7	0.025539769
116	0xbda5df2e	-0.08099209
117	0xbd4ba2ab	-0.04971568
118	0xbd001c6c	-0.031277105
119	0x3b41c26a	0.0029565343
120	0x3b69c4c6	0.0035670265
121	0xbdb433e1	-0.087989576
122	0x3ac01d3c	0.001465715
123	0xbd9f7ad7	-0.07787102
124	0xbd8fb3f2	-0.07016744
125	0xbd09df19	-0.033660028
126	0x3dabab66	0.08382301
127	0x3ceaec6f	0.028677193
128	0x3d8cfae6	0.068837926
129	0xbdb65c1c	-0.08904287
130	0x3c95b244	0.01827348
131	0x3cc6692e	0.024220075
132	0xbd80d44e	-0.06290494
133	0x3ce6eda9	0.028189497
134	0x3dc28408	0.09497839
135	0x3d608baa	0.054820694
136	0xbdcb84f8	-0.09937471
137	0x3da28d34	0.079370886
138	0x3bf122ca	0.0073588835
139	0xbd0e80fd	-0.03479098
140	0x3c70e4b3	0.014702964
141	0x3cba543b	0.022745242
142	0x3c94989c	0.018139176
143	0xbb7cb977	-0.0038562694
144	0xbd254d2e	-0.040356807
145	0x3ce3bf3f	0.027801154
146	0xbd02d4d7	-0.03194126
147	0x3b87455c	0.0041281413
148	0x3d13f209	0.036119495
149	0xbdb4ccb9	-0.0882811
150	0xbcbadb93	-0.02280978
151	0x3d45d8ae	0.048302345
152	0x3d5604dd	0.05225073
153	0xbdc1da9f	-0.09465527
154	0x3dac111b	0.084017
155	0x3c9bd7c2	0.01902378
156	0x3b8da508	0.004322652
157	0x3d1b8e57	0.037977543
158	0xbd40186e	-0.046898298
159	0xbd7caf11	-0.061690394
160	0xbdbfcb72	-0.09364976
161	0xbd1fa4e2	-0.038975604
162	0xbd96cd1a	-0.07363339
163	0xbc4a1936	-0.012335112
164	0xbd99ced1	-0.0751015
165	0x3819cc0f	3.6668087e-05
166	0xbdad27e1	-0.08454872
167	0xbd18d688	-0.037313968
168	0xbd03abad	-0.032146145
169	0x3dbb705c	0.0915229
170	0xbd71d630	-0.059042156
171	0xbdae2c5c	-0.08504555
172	0xbdb1b618	-0.0867731
173	0xbdbbd2b8	-0.09171051
174	0xbd7299c2	-0.059228666
175	0xbdbef9ea	-0.09325011
176	0xbd0e2ba2	-0.03470958
177	0x3c5f1f91	0.013618366
178	0x3da9b3b3	0.08286228
179	0xbdba455e	-0.09095262
180	0xbc283876	-0.010267368
181	0x3db8d75c	0.090254515
182	0xbdabad61	-0.08382679
183	0xbccd60d8	-0.025070593
184	0x3d22d357	0.03975233
185	0xbc220bb1	-0.009890483
186	0x3ca01253	0.019539988
187	0xbccd9dfe	-0.02509975
188	0x3d8b9cfb	0.06817051
189	0x3c889666	0.016673278
190	0xbda58f95	-0.08084027
191	0xbc5b33c9	-0.013379046
192	0xbcafa695	-0.021441737
193	0x3d836969	0.0641659
194	0x3dbe134f	0.092810266
195	0xbd8122f4	-0.06305495
196	0x3cfa434e	0.030549672
197	0x3d57e075	0.052704293
198	0x3d1010ad	0.035172153
199	0xbd96bc96	-0.07360189
200	0xbd5b3991	-0.053521696
201	0xbdb10aee	-0.08644663
202	0xbd92d9e9	-0.07170469
203	0x3d8cb002	0.06869508
204	0xbd835c05	-0.06414036
205	0xbd9b9cde	-0.075982794
206	0x3cd43b63	0.025907224
207	0xbb45cdb6	-0.0030182428
208	0xbc92389e	-0.017849263
209	0x3c14d770	0.009084567
210	0xbdaa3968	-0.083117306
211	0xbcbced61	-0.02306241
212	0xbcb55910	-0.022137195
213	0xbd9beb5a	-0.07613249
214	0xbcbb53b3	-0.02286706
215	0xbd2e2ad1	-0.0425213
216	0x3d993a89	0.07481868
217	0x3adc629d	0.0016814057
218	0x3c01cd90	0.007922545
219	0x3ca93f25	0.020659992
220	0x3d948cd4	0.07253423
221	0xbd0fd9c2	-0.03511978
222	0xbc6aff96	-0.014343163
223	0x3d2336be	0.039847128
224	0xbd52ae4d	-0.051435757
225	0xbdc58338	-0.096441686
226	0x3d279e1f	0.04092228
227	0xbcc1ad88	-0.023642316
228	0xbdaba0a1	-0.08380247
229	0xbdbf581d	-0.09342978
230	0xbd87acbf	-0.066247456
231	0x3d992875	0.0747842
232	0x3d77aaf3	0.060465764
233	0xbd9f292c	-0.07771525
234	0xbd947213	-0.072483204
235	0x3dcacc54	0.09902254
236	0x3d35b24a	0.044359483
237	0x3bbdd584	0.0057932753
238	0xbdaef0b1	-0.08542002
239	0xbd110522	-0.035405286
240	0xbd950d83	-0.07277968
241	0xbb7ff448	-0.0039055515
242	0xbd7e0603	-0.062017452
243	0xbc74c9fe	-0.014940737
244	0xbda042f4	-0.0782527
245	0xbc966267	-0.018357469
246	0x3cac098a	0.021000642
247	0xbd93f9fb	-0.07225414
248	0x3cd9abbf	0.026571153
249	0x3d8332df	0.06406187
250	0x3c59e01c	0.013298061
251	0x3d337701	0.043814663
252	0xbd63afb1	-0.055587474
253	0x3ce9f53d	0.028559322
254	0xbb8a1bb5	-0.0042147287
255	0xbd04349e	-0.032276742

weight f4 [256]
0	0x3f7fc040	0.99902725
1	0x3f7fb717	0.9988875
2	0x3f7fac00	0.99871826
3	0x3f804cb7	1.0023412
4	0x3f801277	1.0005635
5	0x3f7febb5	0.99969035
6	0x3f800885	1.00026
7	0x3f7ff008	0.99975634
8	0x3f800236	1.0000675
9	0x3f7fde6e	0.99948776
10	0x3f803ed6	1.0019176
11	0x3f7fc612	0.99911606
12	0x3f7ff7f4	0.9998772
13	0x3f7fdb5c	0.9994409
14	0x3f7ff39c	0.99981093
15	0x3f800783	1.0002292
16	0x3f7ff011	0.9997569
17	0x3f7f772a	0.99791205
18	0x3f8017c1	1.0007249
19	0x3f7feab9	0.99967533
20	0x3f7f9cf4	0.99848866
21	0x3f7fea6c	0.99967074
22	0x3f7f9875	0.99842006
23	0x3f801063	1.0005001
24	0x3f8019f1	1.0007917
25	0x3f7ffb0c	0.9999244
26	0x3f7fb828	0.99890375
27	0x3f7f9280	0.99832916
28	0x3f802d0e	1.001375
29	0x3f80199c	1.0007815
30	0x3f7fdeb7	0.9994921
31	0x3f800d72	1.0004103
32	0x3f7fd0d8	0.99928045
33	0x3f800bba	1.0003579
34	0x3f800829	1.000249
35	0x3f7fb720	0.998888
36	0x3f7fc7c4	0.99914193
37	0x3f7fc036	0.99902666
38	0x3f802754	1.0012002
39	0x3f7fdfbc	0.99950767
40	0x3f7f814a	0.99806654
41	0x3f7fa466	0.9986023
42	0x3f8023ea	1.001096
43	0x3f7fd48e	0.9993371
44	0x3f7f4e73	0.9972908
45	0x3f801991	1.0007802
46	0x3f80302a	1.0014699
47	0x3f801b5e	1.0008352
48	0x3f800c6d	1.0003792
49	0x3f801978	1.0007772
50	0x3f801e15	1.000918
51	0x3f7fd806	0.99939
52	0x3f8041de	1.0020101
53	0x3f7ef41e	0.99591243
54	0x3f801e3a	1.0009224
55	0x3f804566	1.0021179
56	0x3f8017e1	1.0007287
57	0x3f7fb7d9	0.99889904
58	0x3f8023a2	1.0010874
59	0x3f7ffe8e	0.99997795
60	0x3f800702	1.0002139
61	0x3f7f8bcc	0.9982269
62	0x3f7fd5f2	0.9993583
63	0x3f801185	1.0005347
64	0x3f7fce4a	0.9992415
65	0x3f803b17	1.0018033
66	0x3f7ee0dd	0.99561864
67	0x3f7fc44a	0.9990889
68	0x3f8014bd	1.0006329
69	0x3f7ffd8f	0.99996275
70	0x3f801a34	1.0007997
71	0x3f7fdfbe	0.9995078
72	0x3f80186f	1.0007457
73	0x3f7ffc07	0.9999394
74	0x3f802127	1.0010117
75	0x3f80119d	1.0005375
76	0x3f8017a3	1.0007213
77	0x3f7ff5b1	0.9998427
78	0x3f8020f6	1.0010059
79	0x3f80049e	1.0001409
80	0x3f80284c	1.0012298
81	0x3f7ff46c	0.99982333
82	0x3f7fcc31	0.99920946
83	0x3f803337	1.001563
84	0x3f7f65f5	0.9976495
85	0x3f7fe97c	0.99965644
86	0x3f8004bf	1.0001448
87	0x3f7fe508	0.9995885
88	0x3f801065	1.0005003
89	0x3f801e51	1.0009252
90	0x3f803f12	1.0019248
91	0x3f8039e6	1.0017669
92	0x3f801bba	1.0008461
93	0x3f7fc572	0.9991065
94	0x3f7fdbd9	0.99944836
95	0x3f8034e9	1.0016147
96	0x3f801d98	1.0009031
97	0x3f802a21	1.0012857
98	0x3f7f59f1	0.99746615
99	0x3f7f7892	0.9979335
100	0x3f801bfa	1.0008538
101	0x3f8021a9	1.0010272
102	0x3f7f7000	0.99780273
103	0x3f8015c9	1.0006648
104	0x3f7fffc8	0.99999666
105	0x3f7fc5d4	0.99911237
106	0x3f8006a6	1.0002029
107	0x3f80241c	1.001102
108	0x3f802660	1.0011711
109	0x3f801425	1.0006148
110	0x3f7fc0d2	0.99903595
111	0x3f7fc9b0	0.99917126
112	0x3f802fd0	1.0014591
113	0x3f8007c2	1.0002367
114	0x3f800b19	1.0003387
115	0x3f7f9dc6	0.9985012
116	0x3f803046	1.0014732
117	0x3f8008be	1.0002668
118	0x3f801656	1.0006816
119	0x3f7fffec	0.9999988
120	0x3f7f9dd2	0.9985019
121	0x3f7fc7cd	0.99914247
122	0x3f800928	1.0002794
123	0x3f8005c0	1.0001755
124	0x3f8018f3	1.0007614
125	0x3f7f856c	0.9981296
126	0x3f7f921c	0.9983232
127	0x3f800b14	1.0003381
128	0x3f807c0c	1.0037856
129	0x3f80129c	1.0005679
130	0x3f7fba01	0.99893194
131	0x3f8024e1	1.0011255
132	0x3f800e45	1.0004355
133	0x3f7f86e9	0.9981523
134	0x3f7ffe51	0.9999743
135	0x3f7f84bc	0.9981191
136	0x3f801cf5	1.0008837
137	0x3f8027ce	1.0012147
138	0x3f7f70da	0.9978157
139	0x3f7f6f13	0.9977886
140	0x3f7f8dd7	0.99825805
141	0x3f801c5e	1.0008657
142	0x3f8001e0	1.0000572
143	0x3f800944	1.0002828
144	0x3f8014ef	1.0006388
145	0x3f80168b	1.000688
146	0x3f7fb721	0.9988881
147	0x3f803b31	1.0018064
148	0x3f806c0d	1.0032974
149	0x3f800df5	1.0004259
150	0x3f800412	1.0001242
151	0x3f80131d	1.0005833
152	0x3f803f3c	1.0019298
153	0x3f7fb3a2	0.9988347
154	0x3f7fc9f8	0.99917555
155	0x3f7f9aba	0.9984547
156	0x3f7f70d8	0.9978156
157	0x3f800516	1.0001552
158	0x3f804033	1.0019592
159	0x3f7fe2ec	0.9995563
160	0x3f7f7561	0.9978848
161	0x3f7f9d99	0.9984985
162	0x3f7ff088	0.99976397
163	0x3f80357b	1.0016321
164	0x3f802a44	1.0012898
165	0x3f7f7deb	0.9980151
166	0x3f7ffcdc	0.9999521
167	0x3f7fe4d7	0.99958557
168	0x3f7ff881	0.9998856
169	0x3f7f87c7	0.99816555
170	0x3f8004e4	1.0001493
171	0x3f7f6dac	0.9977672
172	0x3f7ffe1c	0.99997115
173	0x3f802ba7	1.0013322
174	0x3f7fee0f	0.99972624
175	0x3f801b73	1.0008377
176	0x3f800915	1.0002772
177	0x3f7fff20	0.99998665
178	0x3f8011d2	1.0005438
179	0x3f7fb8f3	0.99891585
180	0x3f7fe5c6	0.9995998
181	0x3f7f9d5d	0.9984949
182	0x3f7fb4d2	0.99885285
183	0x3f800cd7	1.0003918
184	0x3f7f3da2	0.9970342
185	0x3f8004dc	1.0001483
186	0x3f7fa3a0	0.99859047
187	0x3f7f710e	0.9978188
188	0x3f800a82	1.0003207
189	0x3f8028a8	1.0012407
190	0x3f801f4f	1.0009555
191	0x3f7fb68b	0.99887913
192	0x3f803eb1	1.0019132
193	0x3f802b89	1.0013286
194	0x3f8009ee	1.000303
195	0x3f804b37	1.0022954
196	0x3f802b1c	1.0013156
197	0x3f80353a	1.0016243
198	0x3f7faa7c	0.99869514
199	0x3f7fda51	0.999425
200	0x3f800f41	1.0004655
201	0x3f7fd843	0.99939364
202	0x3f8001f4	1.0000596
203	0x3f7f84be	0.99811924
204	0x3f7fa158	0.99855566
205	0x3f802df0	1.0014019
206	0x3f7fe35a	0.99956286
207	0x3f7ff6b1	0.99985796
208	0x3f800a30	1.0003109
209	0x3f7f9e98	0.9985137
210	0x3f803c9c	1.0018497
211	0x3f800e88	1.0004435
212	0x3f800bfb	1.0003656
213	0x3f80367e	1.001663
214	0x3f800db9	1.0004188
215	0x3f7ff48c	0.99982524
216	0x3f7fe298	0.9995513
217	0x3f7fa799	0.9986511
218	0x3f7fa258	0.9985709
219	0x3f8007d1	1.0002385
220	0x3f80235f	1.0010794
221	0x3f7fcd6e	0.99922836
222	0x3f7fd36c	0.9993198
223	0x3f7ff4fb	0.99983186
224	0x3f80069d	1.0002018
225	0x3f803847	1.0017174
226	0x3f801c71	1.000868
227	0x3f7fced9	0.99925
228	0x3f800a9a	1.0003235
229	0x3f806382	1.0030367
230	0x3f8002b2	1.0000823
231	0x3f7fe85a	0.99963915
232	0x3f804911	1.0022298
233	0x3f800c5e	1.0003774
234	0x3f7fe46a	0.9995791
235	0x3f7fcbb3	0.99920195
236	0x3f8033c7	1.0015801
237	0x3f7fc0e6	0.99903715
238	0x3f804307	1.0020455
239	0x3f801dd1	1.0009099
240	0x3f7fa77d	0.9986494
241	0x3f802e43	1.0014118
242	0x3f7ff0f5	0.99977046
243	0x3f801f53	1.0009559
244	0x3f80483c	1.0022044
245	0x3f7fdfa4	0.99950624
246	0x3f800884	1.0002599
247	0x3f7ffc65	0.999945
248	0x3f800ff4	1.0004869
249	0x3f801904	1.0007634
250	0x3f801861	1.000744
251	0x3f7ff75b	0.9998681
252	0x3f7fc458	0.9990897
253	0x3f7fc227	0.9990563
254	0x3f7fa3d0	0.99859333
255	0x3f7fe585	0.99959594

bias f4 [256]
0	0x3a6c95a4	0.0009024984
1	0x3a30ff32	0.0006751894
2	0x3b0718f0	0.002061423
3	0x3a8efbcb	0.001090878
4	0x39d1274c	0.00039892865
5	0xba6311d1	-0.00086620176
6	0x39e67c35	0.0004396156
7	0xbac3d7fa	-0.0014941685
8	0xbad5b737	-0.0016305213
9	0xbacf3877	-0.0015809675
10	0x392ca25e	0.00016463685
11	0x39ccbf80	0.0003905259
12	0x39b609fd	0.00034721187
13	0x3a9620b0	0.0011453833
14	0x3a0846b5	0.00051985244
15	0xba595acc	-0.0008291423
16	0x3a889330	0.0010419842
17	0x3a78e90d	0.00094951765
18	0xb9c07f80	-0.0003671609
19	0x3a223525	0.0006187729
20	0x3a39daad	0.0007089775
21	0xba1831a5	-0.00058057375
22	0xba9d51c4	-0.0012002517
23	0xb9e6d35d	-0.00044026496
24	0xb907ecff	-0.00012962891
25	0xb99dce1f	-0.00030098946
26	0x3a36dec0	0.00069759414
27	0x3ace65ba	0.001574687
28	0xba30805d	-0.0006732995
29	0xb9ff5ff7	-0.0004870889
30	0x3a564d47	0.00081749674
31	0xba410321	-0.0007362832
32	0xba864fe6	-0.00102472
33	0x3a09c239	0.00052550767
34	0x39f36721	0.0004642541
35	0xba0b270e	-0.0005308249
36	0xbad77e11	-0.0016440769
37	0x39f3a476	0.00046471105
38	0x3a688d3a	0.0008871142
39	0x3a52d6e2	0.00080428843
40	0xba6e52b5	-0.0009091304
41	0xba8f4cdf	-0.0010932944
42	0x3a5b900a	0.00083756505
43	0xb92d1c01	-0.00016508998
44	0x3a3a7a69	0.00071135774
45	0xba97e345	-0.0011588117
46	0x3ac7e27f	0.0015249996
47	0xb9fcc6f1	-0.00048213408
48	0x39c6364a	0.0003780595
49	0x3a9128d2	0.0011074787
50	0x3a9c410d	0.0011921242
51	0x3b205355	0.0024463732
52	0x38834ef9	6.2612766e-05
53	0x3b859cda	0.004077536
54	0xb9e31b4e	-0.00043317158
55	0x3a100afc	0.0005494801
56	0xb8af450e	-8.357513e-05
57	0xb9159989	-0.00014266944
58	0xb9daadc2	-0.0004170966
59	0x39ffbae7	0.00048776643
60	0xba830495	-0.0009995872
61	0x3a04fed4	0.0005073373
62	0x3a23147c	0.0006221009
63	0x3a612bc8	0.0008589593
64	0x3a3227cc	0.00067960913
65	0xb9ff1316	-0.0004865161
66	0xb9366cef	-0.00017397453
67	0xba5b14ad	-0.0008357268
68	0x3a03a06b	0.00050211576
69	0xba59ae92	-0.0008303906
70	0xba9d7164	-0.0012011942
71	0x3703d040	7.856695e-06
72	0xba008d03	-0.0004903825
73	0xbab23d80	-0.0013598651
74	0x3a55e9e5	0.0008160158
75	0x3952baad	0.00020096703
76	0xb917f4b8	-0.00014491647
77	0xb9bc4ff1	-0.00035917715
78	0x3a93bea6	0.0011272028
79	0xba934e89	-0.0011238615
80	0x39ae926c	0.0003329696
81	0x3947f91f	0.00019070924
82	0x3993018b	0.00028039175
83	0x3ac26361	0.0014830643
84	0xb93f3480	-0.00018234737
85	0xba545d2c	-0.0008101042
86	0x3a040729	0.00050364673
87	0xba489ab4	-0.0007652447
88	0x39abc8cc	0.00032765267
89	0xba16a867	-0.000574714
90	0xba29bfbf	-0.0006475411
91	0x3b081511	0.002076451
92	0xb7c27881	-2.3182716e-05
93	0x3a83d56a	0.0010058109
94	0x39861826	0.00025576464
95	0xba6f9a70	-0.00091401394
96	0x3984a461	0.00025299474
97	0x3923984b	0.00015601625
98	0xba1c85c4	-0.00059708604
99	0xb8a5d321	-7.907139e-05
100	0x3a6f8cc4	0.0009138102
101	0x3a575cea	0.00082154444
102	0x372336db	9.728329e-06
103	0x3a412c31	0.0007368951
104	0xb9280c43	-0.00016026296
105	0x3a7ac78a	0.0009566477
106	0x3a88efea	0.0010447477
107	0xb96764d4	-0.00022067438
108	0xbaec9f5b	-0.0018052863
109	0xb91b7d80	-0.00014828704
110	0xb90f3c17	-0.00013659928
111	0x3a99ef00	0.0011744201
112	0xb9fa6634	-0.00047759863
113	0xb98c0e78	-0.0002671366
114	0xb9bff4fb	-0.00036612884
115	0x3a8f0ad4	0.0010913261
116	0xba9ab7f3	-0.0011804089
117	0xbad2fbad	-0.0016096734
118	0x399301f7	0.0002803949
119	0xb9f5051e	-0.00046733854
120	0xb9ee61f0	-0.00045467867
121	0x3aa82877	0.0012829442
122	0x38063f60	3.2007112e-05
123	0xba2f0d63	-0.0006677715
124	0xb78b6a84	-1.6619691e-05
125	0x3aa32e07	0.001244963
126	0xbaa78d4d	-0.00127832
127	0x39baaefd	0.0003560706
128	0x395ad504	0.00020869455
129	0x3a5728ec	0.0008207697
130	0x3997ddd8	0.0002896625
131	0xb8a1f782	-7.72318e-05
132	0xba0e74e0	-0.0005434286
133	0xb938e659	-0.00017633419
134	0x3a20368f	0.00061116455
135	0x39ca4d68	0.00038586115
136	0x3a236369	0.000623277
137	0xbb0ccb06	-0.0021483316
138	0x3a6c5270	0.00090149697
139	0x382b2dcf	4.081224e-05
140	0x3ae9c31f	0.001783464
141	0x3a760409	0.00093847566
142	0x3a49fe8d	0.00077054725
143	0xba475f40	-0.0007605441
144	0xb862db73	-5.4086977e-05
145	0xba734238	-0.0009279582
146	0x3b09ab0f	0.00210065
147	0xb9cb1c18	-0.0003874011
148	0x39dc6ddb	0.0004204352
149	0xba91b09f	-0.0011115259
150	0xba732cec	-0.0009276408
151	0x38e780e2	0.00011038945
152	0xbb307b0f	-0.0026928817
153	0xb918fbe4	-0.00014589686
154	0x371473a5	8.848413e-06
155	0x3a35c635	0.0006934137
156	0xbaa6c8b9	-0.0012724615
157	0x3967a8e6	0.00022092796
158	0x3a2132b9	0.0006149221
159	0x3a65197b	0.00087394536
160	0xba5557c8	-0.00081383856
161	0xba073b0a	-0.0005158639
162	0x3ac40f89	0.0014958243
163	0xba977285	-0.0011554515
164	0xba3a1691	-0.00070986996
165	0x386932b9	5.5598768e-05
166	0xbaed4fad	-0.001810541
167	0xb98a43f7	-0.0002637205
168	0xb9b9e2d1	-0.0003545494
169	0x3a3bbd5a	0.00071616995
170	0x3a82eda3	0.0009989034
171	0x3928e133	0.00016105622
172	0xba3c778d	-0.00071894453
173	0x3a5789ff	0.0008222162
174	0x3a2f516e	0.0006687854
175	0x3ae5cf83	0.0017533157
176	0xb999028c	-0.00029184332
177	0x37331ad9	1.0675482e-05
178	0x39df1ab1	0.0004255376
179	0x3ac6b503	0.0015160147
180	0x3998ebbb	0.00029167332
181	0xb9aaf462	-0.00032607006
182	0x3a2dadea	0.00066253415
183	0x3a9509d4	0.0011370727
184	0xba00c76d	-0.0004912529
185	0x3a1c5a4e	0.0005964384
186	0xba1eca08	-0.00060573267
187	0x3b06dcf9	0.0020578487
188	0x3ace08fd	0.0015719231
189	0xb90abb3d	-0.00013230457
190	0xb9d4e252	-0.00040604413
191	0xbaa426f2	-0.0012523814
192	0xbad376b4	-0.0016133399
193	0x3a10fa21	0.0005530436
194	0x399307d1	0.0002804385
195	0x3a9b26da	0.001183714
196	0x3a96a0ed	0.0011492051
197	0xba615920	-0.00085963495
198	0xbaa6b082	-0.0012717398
199	0xbac4e6a3	-0.0015022348
200	0xba5d1f47	-0.00084351416
201	0x38232f89	3.89065e-05
202	0xb9e166e8	-0.00042992015
203	0x3aa8500a	0.0012841236
204	0x3a613113	0.00085903815
205	0xba1e1c5b	-0.0006031447
206	0x3aaf7802	0.0013387206
207	0x38ded047	0.000106245796
208	0xb83c4b69	-4.4892924e-05
209	0x3a62c628	0.00086507434
210	0xba7cf08d	-0.0009648882
211	0xba3caaeb	-0.00071970996
212	0x39588215	0.00020647825
213	0xbaa4b3a6	-0.0012565746
214	0xb91d56fb	-0.0001500509
215	0xba588161	-0.0008259025
216	0xb9e5fc69	-0.00043866344
217	0x3a1666f2	0.0005737386
218	0x3a031006	0.0004999641
219	0x38151ba1	3.55501e-05
220	0xbab2c862	-0.0013640041
221	0xba404ebc	-0.0007335951
222	0xb9a76346	-0.00031926687
223	0x3a7006ea	0.0009156304
224	0x3a6cb899	0.0009030193
225	0xbaf6f6c7	-0.0018841856
226	0x3a982a04	0.0011609201
227	0xba698d01	-0.0008909256
228	0xb911a676	-0.00013890289
229	0x38778103	5.900954e-05
230	0xba9c1234	-0.001190728
231	0x39cadef0	0.00038694544
232	0x3abb9a67	0.0014312983
233	0x383428e3	4.2953423e-05
234	0xbabafae9	-0.0014265451
235	0xba59e9cf	-0.0008312733
236	0x3a908097	0.0011024651
237	0x3ae4a6a7	0.0017444686
238	0x39ca8b74	0.00038632343
239	0x39783822	0.00023672034
240	0xb9acd57b	-0.00032965452
241	0xbaa47fe8	-0.0012550326
242	0x3a64d87c	0.00087297685
243	0x3b1bff4c	0.0023803292
244	0xba645ad4	-0.0008711044
245	0x39f65aef	0.00046988527
246	0x394dd376	0.00019629099
247	0x3949774c	0.00019213295
248	0xb8d32177	-0.00010067497
249	0xba17c577	-0.00057896174
250	0xba48e6da	-0.0007663794
251	0x394766ed	0.00019016462
252	0x3a4697f9	0.0007575746
253	0xba94d243	-0.0011354167
254	0x398db378	0.0002702733
255	0xba20d438	-0.00061351387
