statedicts/torchscript_pl_db_analytical_db_ac_n_b-1_n_s-9_n_m-2_T0_n_t-120000_rand_phi_off_s4_seed_1.pt (torch, 231409 bytes, 29 tensors)

weight f4 [9]
0	0x3f76fa0d	0.964753
1	0x3faaf160	1.3354912
2	0x3f2fc1c8	0.6865506
3	0x3f706d15	0.93916446
4	0x3f7602da	0.960981
5	0x3fb2d16e	1.3970163
6	0x3f54fd53	0.8319904
7	0x3f553545	0.8328441
8	0x3f61a99b	0.8814942

bias f4 [9]
0	0x3c47b5be	0.012189327
1	0xbcdc4635	-0.026888946
2	0xbd7c363f	-0.06157517
3	0x3da4a1cc	0.08038673
4	0xbbea5c3a	-0.0071521075
5	0xbde92036	-0.11383097
6	0xbd004671	-0.03131718
7	0x3d48c780	0.049018383
8	0xbdad6b34	-0.08467713

running_mean f4 [9]
0	0x3fc908c3	1.5705799
1	0x3d5652b3	0.052324962
2	0x403c0a36	2.9381232
3	0x4037e7dc	2.8735266
4	0x3e87068d	0.26372185
5	0x3d55aa74	0.05216451
6	0x40352e85	2.8309643
7	0x3e9039ec	0.2816919
8	0x403642fa	2.847838

running_var f4 [9]
0	0x3d9378bc	0.07200763
1	0x35d7e88d	1.608643e-06
2	0x3c9c2d64	0.019064613
3	0x3be72af0	0.007054679
4	0x3bdc84f7	0.006729718
5	0x36303f61	2.6262935e-06
6	0x3d1c15a3	0.038106572
7	0x3c35bc43	0.011092248
8	0x3c801b25	0.015637944

weight f4 [96, 9]
0	0x3c8a4b73	0.01688168
1	0x3ddbbcb9	0.10729355
2	0x3d10fdf9	0.035398457
3	0x3da99ffe	0.08282469
4	0xbdd113ec	-0.10208878
5	0xbe973ad6	-0.29537076
6	0x3c95bacd	0.01827755
7	0xbe9513a5	-0.2911655
8	0xbded7545	-0.11594633
9	0x3e5c7b92	0.21531513
10	0xbeac556c	-0.33658922
11	0xbe6b9576	-0.23006234
12	0xbe37ae55	-0.17937596
13	0xbd905d3e	-0.070490345
14	0xbe8b7d4e	-0.27244037
15	0x3e6c4d6e	0.23076412
16	0x3d9bf630	0.07615316
17	0x3e28260e	0.16420767
18	0x3dd94906	0.10609631
19	0xbe8a5f26	-0.27025717
20	0x3e92a335	0.28640142
21	0xbe02e541	-0.12782766
22	0x3cb6c943	0.022312766
23	0x3e31c4c3	0.17360215
24	0x3e31bd8b	0.17357461
25	0xbe74cdc4	-0.23906618
26	0x3dcf90f4	0.101350695
27	0xbeb8de2c	-0.36107004
28	0x3e34029e	0.17579123
29	0x3db00edb	0.085965835
30	0xbc8cd7e5	-0.01719279
31	0x3e91c0e0	0.28467464
32	0x3dd659e6	0.104663655
33	0xbd2fabfe	-0.042888634
34	0x3de6a69e	0.112622485
35	0x3cbc8e74	0.023017146
36	0xbe6379d9	-0.2221445
37	0x3da4820c	0.08032617
38	0xbc6190ef	-0.013767465
39	0x3e7106d6	0.23537764
40	0x3ea5182f	0.32245013
41	0xbd38bca5	-0.04510178
42	0x3e1e9f7a	0.15490523
43	0x37b05f25	2.102514e-05
44	0x3e8acf9d	0.2711152
45	0xbd980756	-0.07423274
46	0xbe6b7802	-0.22994998
47	0x3c0bf676	0.008542648
48	0x3e813261	0.2523375
49	0x3d662bea	0.056194223
50	0xbc0785f7	-0.008271686
51	0x3e8fc86a	0.2808259
52	0x3dabcdb8	0.08388847
53	0xbe1d7768	-0.15377581
54	0x3e228e16	0.15874514
55	0x3e43997f	0.19101523
56	0xbc7fc15f	-0.015610068
57	0xbcd4bbd7	-0.025968475
58	0xbe8d4909	-0.27594784
59	0x3eb0ebf2	0.34555012
60	0x3e7fdc1a	0.24986306
61	0xbe02c570	-0.12770629
62	0xbead414b	-0.33838877
63	0x3e85123e	0.2599048
64	0xbe5761eb	-0.21033446
65	0x3da118f1	0.07866085
66	0x3bde3c50	0.006782092
67	0x3ea59cf5	0.3234631
68	0x3dc94e08	0.098293364
69	0xbe782a72	-0.24234942
70	0xbe2b290b	-0.16714875
71	0x3e99cf75	0.3004109
72	0x3e9435fb	0.28947434
73	0xbe56ab24	-0.20963722
74	0xbe0f808d	-0.14013882
75	0xbe120170	-0.14258361
76	0xbe9e30cd	-0.30896607
77	0xbe08426b	-0.13306586
78	0xbe968f7c	-0.29406345
79	0xbd1699c2	-0.03676773
80	0x3dad5102	0.08462717
81	0xbd86e04c	-0.0658575
82	0xbeb54ef1	-0.3541179
83	0x3e159329	0.14606918
84	0xbe0b482d	-0.13601752
85	0xbcd7618a	-0.026291627
86	0xbdb08eb4	-0.086209685
87	0x3d154aff	0.036448475
88	0xbe60ad2a	-0.21941057
89	0xbe2c1efa	-0.16808692
90	0x3e4cc7f3	0.1999815
91	0xbe82054b	-0.25394663
92	0xbdd161bc	-0.102237195
93	0x3de93a1d	0.11388037
94	0xbd1004a3	-0.035160672
95	0xbe5b3a8a	-0.2140905
96	0xbe2a1818	-0.16610754
97	0xbe22c6c1	-0.15896131
98	0xbe4efa08	-0.20212567
99	0x3e97de9c	0.29662025
100	0x3ea29752	0.31756073
101	0xbe8ba41b	-0.2727364
102	0xbe53af47	-0.20672332
103	0x3df5438c	0.11975774
104	0xbe5f7619	-0.21822394
105	0x3d01d79f	0.031699773
106	0x3c766513	0.015038746
107	0x3d74655a	0.05966697
108	0x3ea0c713	0.31401882
109	0xbdf274ac	-0.1183866
110	0xbcfb8a66	-0.030705642
111	0x3e993674	0.29924357
112	0x3e45c3e1	0.19313003
113	0xbe87d51d	-0.2652978
114	0x3e89e18b	0.26929888
115	0xbe8af7e3	-0.27142248
116	0xbdc31be8	-0.09526807
117	0xbea7ac12	-0.32748467
118	0x3e850059	0.25976828
119	0x3dd487e4	0.103774816
120	0xbe2806f7	-0.16408907
121	0xbe7e5773	-0.24838047
122	0x3eb395e6	0.350753
123	0x3d9a10b1	0.07522715
124	0xbe4673e1	-0.19380142
125	0x3d9dce41	0.077053554
126	0xbd2de664	-0.042456046
127	0xbe4b1593	-0.19832449
128	0xbe8169d5	-0.25276056
129	0x3ea850a4	0.32874024
130	0x3e2b9b7d	0.16758533
131	0xbd1f957f	-0.03896093
132	0x3e08f333	0.13374023
133	0xbea4714c	-0.3211769
134	0x3e9350c2	0.2877255
135	0xbe136ff3	-0.14398174
136	0x3e829199	0.25501707
137	0x3cfaa277	0.030595047
138	0x3d95a411	0.07306684
139	0x3e530b1f	0.20609711
140	0xbea480f2	-0.32129627
141	0xbd62fbb3	-0.05541582
142	0xbe3c47c0	-0.18386745
143	0x3dbcd61a	0.09220524
144	0xbe187e7b	-0.14891998
145	0x3e906870	0.2820468
146	0x3bf271e8	0.0073988326
147	0xbe3f4062	-0.18676904
148	0xbe26350d	-0.16231175
149	0x3eae34af	0.3402457
150	0x3e3c51e5	0.18390615
151	0x3dbafe79	0.09130568
152	0xbd9e7956	-0.07737987
153	0x3e0662e2	0.13123658
154	0x3e4ca05a	0.19983044
155	0xbda44b32	-0.08022155
156	0xbd8f5292	-0.06998171
157	0x3dd9e780	0.10639858
158	0xbea57433	-0.32315215
159	0xbb75fe38	-0.003753556
160	0x3d3f98ab	0.046776455
161	0x3e861a9b	0.26192173
162	0xbe7de7fd	-0.24795528
163	0xbe700665	-0.2343994
164	0x3e98429b	0.29738316
165	0x3ce7ee35	0.028311828
166	0xbe9cc326	-0.30617636
167	0xbea463e7	-0.3210747
168	0xbe4b93ff	-0.19880675
169	0x3d1e457f	0.038640495
170	0x3d1938c4	0.03740765
171	0xbd95c696	-0.07313268
172	0xbe333377	-0.17500101
173	0xbe586ec7	-0.21136008
174	0xbca1e6da	-0.019763399
175	0x3e61a01d	0.22033735
176	0x3e298054	0.1655286
177	0x3cc29c33	0.023756122
178	0xbe69c4ee	-0.22829029
179	0x3e0d8dc1	0.13823606
180	0x3e2cb3be	0.16865441
181	0x3e8272ed	0.25478306
182	0xbe19a84a	-0.15005603
183	0x3d79c7a0	0.060981393
184	0xbe9678dd	-0.29389086
185	0x3e5544e6	0.20827064
186	0x3cb991fd	0.02265262
187	0xbe6d3b1c	-0.2316708
188	0x3e2274ef	0.15864919
189	0xbeae4cb7	-0.34042904
190	0x3e0c3d8e	0.13695356
191	0xbe69457e	-0.22780415
192	0xbded5f65	-0.11590461
193	0x3e9ea27f	0.3098335
194	0xbd9ebd59	-0.07750959
195	0xbe6e5860	-0.232759
196	0x3e8013a4	0.25014985
197	0x3d0bb170	0.034104764
198	0x3d143e18	0.03619203
199	0xbe8f94a9	-0.28043106
200	0xbd69f4da	-0.057118274
201	0x3e06722f	0.13129495
202	0xbe002086	-0.12512407
203	0x3e7127b8	0.23550308
204	0x3d6c3d02	0.05767537
205	0x3da32640	0.0796628
206	0xbe03bce0	-0.12865019
207	0x3e0e00fd	0.13867564
208	0x3e63e977	0.22257029
209	0xbe49ea41	-0.19718267
210	0x3e49ef51	0.19720198
211	0xbca4a511	-0.020098241
212	0xbe16e743	-0.14736657
213	0xbe5c1e56	-0.21495947
214	0xbe9536ab	-0.2914327
215	0x3d8c0b9e	0.06838153
216	0xbe5b2df0	-0.21404243
217	0x3e135b15	0.14390214
218	0xbe540b8a	-0.20707527
219	0xbe5a8984	-0.2134152
220	0x3b133cbd	0.0022466623
221	0xbeb773ad	-0.3583044
222	0x3e9e16ce	0.30876774
223	0x3e064498	0.13112104
224	0xbeae3694	-0.34026015
225	0x3e26b7c6	0.16281042
226	0x3d89366a	0.06699832
227	0x3e9d1a90	0.30684328
228	0xbe89d62a	-0.26921207
229	0x3e58407c	0.21118349
230	0xbe889538	-0.26676345
231	0xbddfa133	-0.10919418
232	0xbda8d568	-0.08243829
233	0x3e2218fa	0.1582984
234	0x3e3683c9	0.1782371
235	0xbe8dcbcd	-0.2769455
236	0xbe9a2c97	-0.30112144
237	0xbea6e9d2	-0.32600266
238	0xbe7f37a4	-0.24923569
239	0x3eaf6834	0.34259188
240	0x3e3d2e61	0.18474723
241	0xbdcde01f	-0.10052513
242	0xbe63d570	-0.22249389
243	0x3e3a9999	0.18222655
244	0xbe24ce57	-0.16094337
245	0xbe2a185b	-0.16610853
246	0xbdb8ca10	-0.09022915
247	0x3e8e053d	0.27738371
248	0x3eaf9044	0.34289753
249	0x3e40459c	0.18776554
250	0x3de571eb	0.11203369
251	0x3e9b8008	0.30371118
252	0x3ca6a962	0.02034444
253	0xbd291299	-0.0412775
254	0xbe94f663	-0.29094228
255	0x3d966177	0.07342809

bias f4 [96]
0	0x3db6795a	0.08909865
1	0xbdcfd138	-0.10147327
2	0xbe8034f4	-0.250404
3	0xbdebf068	-0.11520463
4	0xbe71b80d	-0.23605366
5	0xbe636f02	-0.22210315
6	0xbdcbfe16	-0.099605724
7	0x3e78ddea	0.24303403
8	0x3e67f077	0.22650324
9	0x3e2e88a1	0.17044307
10	0x3dd0479d	0.10169909
11	0xbd867569	-0.06565363
12	0x3ea7d0ac	0.32776392
13	0xbdcbe1f2	-0.09955205
14	0x3e87c764	0.2651931
15	0x3e4e5789	0.2015058
16	0x3e1707ae	0.14749023
17	0xbe950bcf	-0.29110572
18	0x3dcaf376	0.09909718
19	0x3d07bc51	0.033138577
20	0xbe0c8191	-0.137213
21	0x3d33b43c	0.043873057
22	0x3d91264a	0.07087381
23	0x3c3b8489	0.011445173
24	0xbdc911c5	-0.098178424
25	0x3e34db86	0.17661867
26	0x3e5310f5	0.20611937
27	0x3d58e6cf	0.05295449
28	0x3e7d6f0b	0.24749391
29	0x3e57e040	0.21081638
30	0x3e73f992	0.23825672
31	0x3e6f7763	0.23385386
32	0x3db2e282	0.08734609
33	0xbeb4d643	-0.3531972
34	0xbc9067d5	-0.017627636
35	0xbdbe2a65	-0.0928543
36	0xbe5c57fb	-0.21517937
37	0x3e4db6a8	0.20089209
38	0xbe10e0f0	-0.14148307
39	0x3e3524ea	0.17689863
40	0x3daf0468	0.08545762
41	0xbd5dd51e	-0.054158323
42	0x3e828932	0.25495297
43	0x3cca4844	0.024692662
44	0xbbd08160	-0.006363079
45	0x3e4ca0e6	0.19983253
46	0xbe2e42ce	-0.17017671
47	0xbe427727	-0.18990766
48	0x3e57b2e3	0.21064334
49	0x3dfe3b4f	0.12413656
50	0x3e09a8c8	0.13443291
51	0x3e635203	0.22199254
52	0x3e098fb2	0.13433722
53	0xbe9ab3fa	-0.30215436
54	0xbd3c2a60	-0.04593885
55	0xbd09092e	-0.03345602
56	0xbd893b0b	-0.06700715
57	0xbe8541af	-0.26026675
58	0xbe603375	-0.2189463
59	0x3e001147	0.12506591
60	0xbe2b5466	-0.16731414
61	0xbbb8f368	-0.0056442507
62	0x3bb0fe5f	0.005401417
63	0xbea6bfe1	-0.32568267
64	0xbd8ac1b1	-0.06775225
65	0xbeadb3c9	-0.33926228
66	0x3e601bcc	0.21885604
67	0x3e95be15	0.29246584
68	0xbe99be6c	-0.30028093
69	0xbe7fb982	-0.2497311
70	0xbe77412e	-0.24145958
71	0x3e4ec514	0.20192367
72	0xbe6c54ed	-0.23079272
73	0x3ea04254	0.31300604
74	0xbe263fb4	-0.16235238
75	0xbd9addac	-0.07561812
76	0xbe624bd7	-0.22099243
77	0xbe9c998a	-0.3058589
78	0xbe8a934c	-0.27065504
79	0xbda5c1fe	-0.08093642
80	0x3e79104a	0.2432262
81	0x3ecaea6f	0.39631984
82	0xbe12976e	-0.14315578
83	0x3e0732ec	0.13203019
84	0x3e9a89c9	0.30183247
85	0x3e84e950	0.25959253
86	0xbe0caf2c	-0.13738698
87	0xbe1304c0	-0.1435728
88	0xbe98f175	-0.29871717
89	0xbc598b30	-0.013277814
90	0xbe07d320	-0.13264132
91	0x3e78b4f2	0.24287775
92	0x3e3d8139	0.18506326
93	0x3e161f31	0.14660336
94	0x3e51be7d	0.20482822
95	0x3e67c90c	0.22635287

weight f4 [96]
0	0x3f7c8571	0.98641115
1	0x3f8043c6	1.0020683
2	0x3f810c76	1.0081928
3	0x3f7ce863	0.98792094
4	0x3f7b7bf0	0.9823599
5	0x3f81b500	1.0133362
6	0x3f82e9cd	1.02276
7	0x3f7fa559	0.99861676
8	0x3f7f6cbe	0.997753
9	0x3f82d978	1.0222616
10	0x3f7ab264	0.9792845
11	0x3f7da48b	0.990792
12	0x3f82becd	1.0214478
13	0x3f80bc14	1.0057397
14	0x3f7f9f32	0.9985229
15	0x3f8121d6	1.0088451
16	0x3f83a012	1.0283225
17	0x3f7f43b3	0.99712676
18	0x3f8043de	1.0020711
19	0x3f801f32	1.000952
20	0x3f81139d	1.008411
21	0x3f78aca9	0.9713846
22	0x3f84ac24	1.0365033
23	0x3f7e471d	0.9932726
24	0x3f7e8f09	0.99437004
25	0x3f7db944	0.9911082
26	0x3f80954a	1.004556
27	0x3f7d5d9a	0.9897095
28	0x3f7e45ae	0.9932507
29	0x3f8493b3	1.0357574
30	0x3f802ec4	1.0014272
31	0x3f7dab9d	0.99089986
32	0x3f7b5628	0.9817834
33	0x3f7f9b59	0.99846417
34	0x3f7bea56	0.98404443
35	0x3f7e6df9	0.99386555
36	0x3f7e7cd2	0.9940921
37	0x3f7ebba2	0.99505055
38	0x3f7f989c	0.9984224
39	0x3f7ea40f	0.99469084
40	0x3f7ebcc0	0.9950676
41	0x3f80b680	1.0055695
42	0x3f802c01	1.0013429
43	0x3f7f1880	0.9964676
44	0x3f80e9c8	1.0071344
45	0x3f7e36f0	0.9930258
46	0x3f80b278	1.0054464
47	0x3f7ac3cc	0.9795501
48	0x3f7b716a	0.9821993
49	0x3f7e1c62	0.9926206
50	0x3f7eeb40	0.99577713
51	0x3f7fb84c	0.9989059
52	0x3f7b9086	0.982674
53	0x3f810591	1.0079824
54	0x3f80413c	1.0019908
55	0x3f7ec8d8	0.99525213
56	0x3f7f56ec	0.9974201
57	0x3f817714	1.0114465
58	0x3f7e16b3	0.99253386
59	0x3f7ea70e	0.99473655
60	0x3f7f9eb8	0.9985156
61	0x3f78d87a	0.9720532
62	0x3f80d550	1.0065098
63	0x3f800788	1.0002298
64	0x3f7f7073	0.9978096
65	0x3f80001b	1.0000032
66	0x3f823b72	1.0174391
67	0x3f819391	1.0123159
68	0x3f80d8b6	1.0066135
69	0x3f7cf44c	0.9881027
70	0x3f803796	1.0016963
71	0x3f7bfc48	0.98431826
72	0x3f81ccc2	1.0140612
73	0x3f813d0c	1.0096755
74	0x3f76df88	0.9643483
75	0x3f7ec0db	0.99513024
76	0x3f7bf61d	0.98422414
77	0x3f80a867	1.0051392
78	0x3f7dd416	0.9915174
79	0x3f80d61c	1.0065341
80	0x3f802e42	1.0014117
81	0x3f866a1b	1.0501131
82	0x3f7b6605	0.98202544
83	0x3f7e5f76	0.9936441
84	0x3f802820	1.0012245
85	0x3f84868b	1.0353559
86	0x3f81283b	1.0090402
87	0x3f80d944	1.0066304
88	0x3f81630b	1.010835
89	0x3f80c923	1.0061382
90	0x3f83280b	1.0246595
91	0x3f7bb781	0.9832688
92	0x3f7bc19f	0.9834232
93	0x3f803244	1.001534
94	0x3f80432c	1.0020499
95	0x3f7f36d2	0.99693024

bias f4 [96]
0	0xbc54e68b	-0.012994419
1	0x3c52a72b	0.012857239
2	0x3ae610ec	0.001755265
3	0xbc537280	-0.012905717
4	0x3b4bd120	0.003109999
5	0xbbb0d36f	-0.0053962986
6	0xbcb10ac1	-0.021611573
7	0x3ca2ed0b	0.019888422
8	0xbbb8f4b1	-0.005644404
9	0x3ca739d4	0.020413317
10	0x3b18eee1	0.0023335742
11	0xbcc6ff95	-0.024291793
12	0x367b59a8	3.7454101e-06
13	0xbb99d3a9	-0.0046944213
14	0xbabd7f58	-0.0014457507
15	0xbb6cf450	-0.0036156364
16	0xbb934981	-0.0044948463
17	0x39abd813	0.0003277665
18	0xb8afba92	-8.379402e-05
19	0x3c1e1163	0.0096477
20	0x3b35ea97	0.0027758235
21	0x3be87cab	0.0070949397
22	0xbc053d32	-0.008132266
23	0xbbf89d6f	-0.007587127
24	0x3beac5f0	0.0071647093
25	0xbbcbafe6	-0.006216037
26	0xbb7e484e	-0.0038800421
27	0xbbac50a5	-0.005258637
28	0x3c337759	0.010953748
29	0xbb0026d2	-0.0019554389
30	0x3b088361	0.002083026
31	0x3bcf0966	0.006318259
32	0xbb26de6a	-0.002546216
33	0xbb85d4d5	-0.0040842094
34	0x3b34e889	0.0027604422
35	0x3ca9abc1	0.020711781
36	0xbbd2254d	-0.006413138
37	0x3ad3b96f	0.0016153286
38	0x3b9bbefa	0.004752991
39	0x3ba2ba9c	0.004966093
40	0xbc967cda	-0.01837008
41	0xbcbe6c91	-0.023245128
42	0x3c6fc78d	0.014634979
43	0x3c650003	0.013977054
44	0xbb5452cf	-0.003239799
45	0xbbf1afc0	-0.0073756874
46	0xbcaf3c3c	-0.021391027
47	0xbb5572e8	-0.003256971
48	0x3c8618ee	0.01636931
49	0x3b170c33	0.0023048043
50	0xbce49a93	-0.027905738
51	0xbba2ed0e	-0.004972107
52	0x3a068a67	0.0005132318
53	0xbc7a5035	-0.015277912
54	0x3b64ca85	0.003491075
55	0x3b632bbc	0.003466352
56	0xbb352f3e	-0.0027646567
57	0xbc0a518d	-0.008442295
58	0x3b9ed9f5	0.00484776
59	0xbaea8071	-0.0017891062
60	0xbc17e649	-0.009271213
61	0xbb2befd9	-0.002623549
62	0xbb1aeb92	-0.0023638946
63	0xbbaf1d83	-0.0053440942
64	0xbbf2b896	-0.0074072583
65	0xbbc9d92f	-0.0061599235
66	0xbb79589f	-0.0038047207
67	0xbb522124	-0.003206321
68	0x3b5e8f23	0.0033959828
69	0x3b9f6b15	0.00486506
70	0xbc117782	-0.008878591
71	0xbab0b8d8	-0.0013482822
72	0x3c1d2b63	0.009592864
73	0xbb4297c6	-0.0029692515
74	0x3b8a3367	0.0042175534
75	0xbbe1dcaf	-0.0068927626
76	0x3b8eaf04	0.0043543596
77	0x3aa01ed6	0.0012216221
78	0xbbf714e5	-0.0075403326
79	0xbb3b653f	-0.0028594283
80	0xbb08536c	-0.0020801676
81	0xbc6f3029	-0.014598885
82	0xbb192aac	-0.0023371382
83	0xbc607115	-0.013698836
84	0x3c185e7f	0.009299873
85	0xbcaafdf2	-0.020873044
86	0x3c6cd09a	0.014454031
87	0xbc99dd6c	-0.01878234
88	0xbb4fa018	-0.0031681117
89	0x3b3c6512	0.0028746766
90	0xbc5f2dc4	-0.013621751
91	0xbc46e434	-0.012139369
92	0x3af1972d	0.0018431895
93	0xbc9de802	-0.019275669
94	0x3c861674	0.016368128
95	0x3c741915	0.014898558

running_mean f4 [96]
0	0x3e751a26	0.23935756
1	0x3dc5149a	0.0962307
2	0x3d137a7b	0.03600548
3	0x3daad946	0.08342223
4	0x3dbffcda	0.093743995
5	0x3df1cae4	0.118062764
6	0x3dce786b	0.10081562
7	0x3e56318c	0.20917338
8	0x3eb9d4fb	0.36295304
9	0x3e912f73	0.28356513
10	0x3e8c5890	0.27411318
11	0x3e2f8b67	0.17143022
12	0x3f086914	0.53285336
13	0x3da7988e	0.08183394
14	0x3ed477ac	0.41497552
15	0x3ea973d9	0.33096197
16	0x3e8c13c9	0.27358845
17	0x3ca6419f	0.020294962
18	0x3e3bfa23	0.18357138
19	0x3dfc0d84	0.123072654
20	0x3e18220b	0.14856736
21	0x3e80a8f7	0.2512891
22	0x3da6d7ff	0.08146667
23	0x3dfcc425	0.12342099
24	0x3df8f9db	0.12157031
25	0x3e36545e	0.17805621
26	0x3e96b571	0.29435304
27	0x3e39f99d	0.18161626
28	0x3e9c7829	0.30560425
29	0x3ea367cd	0.3191513
30	0x3e92c2a1	0.28664115
31	0x3ebd0c54	0.36923468
32	0x3e499eb4	0.19689447
33	0x3b617185	0.0034399938
34	0x3e0335cd	0.12813492
35	0x3eb44934	0.352121
36	0x3e5364ec	0.20643967
37	0x3ecba69c	0.3977555
38	0x3d9bcf1b	0.076078616
39	0x3ed27efe	0.41112512
40	0x3efbc449	0.4917319
41	0x3d7cb532	0.06169624
42	0x3ebe8837	0.372133
43	0x3e16071a	0.14651147
44	0x3c7cd710	0.015432134
45	0x3e726cc7	0.23674308
46	0x3dbf533e	0.09342049
47	0x3e0a8f37	0.13531195
48	0x3e5f86b3	0.21828727
49	0x3e47f5c6	0.19527349
50	0x3ea3c77b	0.3198813
51	0x3ea4452e	0.3208403
52	0x3e82dba9	0.25558212
53	0x3d3ea23f	0.04654145
54	0x3e8fa419	0.28054884
55	0x3e789152	0.24274185
56	0x3dd330d6	0.10312049
57	0x3ccef601	0.025263788
58	0x3d9f1b74	0.07768908
59	0x3ebc2cee	0.3675303
60	0x3d5ce728	0.053931385
61	0x3e37deaf	0.17956041
62	0x3df833d2	0.12119259
63	0x3c753b74	0.014967788
64	0x3dfec9fb	0.124408685
65	0x3d0aa9b0	0.033853233
66	0x3e707b3c	0.2348451
67	0x3eb8a44a	0.36062843
68	0x3dfcb417	0.12339037
69	0x3d78c22d	0.060732055
70	0x3e2004f9	0.15626897
71	0x3e693579	0.22774304
72	0x3e1e6b1d	0.15470548
73	0x3ec2decd	0.38060609
74	0x3e77e2e8	0.24207652
75	0x3c85daea	0.016339738
76	0x3e4c6096	0.1995872
77	0x3d1fca29	0.039011154
78	0x3e0bd94e	0.13657114
79	0x3e81e08d	0.2536663
80	0x3e73f67c	0.23824495
81	0x3eb3c7a6	0.35113257
82	0x3e3b8582	0.18312648
83	0x3e9de14a	0.30835944
84	0x3ec0d6cc	0.37663877
85	0x3e9a40b3	0.30127487
86	0x3e2c85b7	0.16847883
87	0x3d35f1d8	0.044420093
88	0x3d99f31f	0.07517075
89	0x3e14cec4	0.14532
90	0x3dfc2edb	0.123136245
91	0x3ea28492	0.31741768
92	0x3e4c0a20	0.19925737
93	0x3e95a0f0	0.29224348
94	0x3ed8d943	0.42353258
95	0x3e92c14f	0.28663108

running_var f4 [96]
0	0x3da4d693	0.08048739
1	0x3cff1761	0.031139078
2	0x3ba1a25d	0.0049326853
3	0x3cfaf827	0.030635906
4	0x3d1525b7	0.03641292
5	0x3d116f40	0.035506487
6	0x3cd01c0a	0.025403995
7	0x3c446e56	0.011989197
8	0x3e963cb5	0.2934319
9	0x3da85307	0.08218961
10	0x3e28a3d9	0.16468753
11	0x3dd8fc28	0.1059497
12	0x3e6c485e	0.23074481
13	0x3c8ac7b8	0.016940936
14	0x3e5b8cf0	0.21440482
15	0x3e18b39e	0.14912269
16	0x3dabcbb1	0.083884604
17	0x3b81b66b	0.0039585135
18	0x3d0b16fe	0.033957474
19	0x3d435a87	0.047693755
20	0x3da7ece7	0.081994824
21	0x3e434194	0.19067985
22	0x3ab78d03	0.0014003817
23	0x3d496465	0.04916801
24	0x3d4d8978	0.05017993
25	0x3c6736d4	0.014112193
26	0x3e2d77bf	0.16940211
27	0x3d5bb4d4	0.053639248
28	0x3d949f10	0.07256901
29	0x3de4f67f	0.11179828
30	0x3d873187	0.066012435
31	0x3e8e9269	0.27846077
32	0x3d52ff81	0.0515132
33	0x39cd9946	0.00039214845
34	0x3d5ab296	0.05339297
35	0x3e9dc1ae	0.30811828
36	0x3e0a2747	0.13491546
37	0x3e11fc24	0.1425634
38	0x3cb773c8	0.022394076
39	0x3edb0c90	0.42783022
40	0x3e9886de	0.29790395
41	0x3c130eb0	0.00897567
42	0x3e6d044c	0.2314617
43	0x3d6d4b6e	0.057933263
44	0x3a64fa73	0.00087348296
45	0x3d809c1e	0.06279777
46	0x3c9a9f07	0.018874658
47	0x3d2e5ff2	0.04257197
48	0x3cd6050f	0.026125459
49	0x3d9bd1b4	0.07608357
50	0x3daef51d	0.085428454
51	0x3d71635c	0.058932647
52	0x3e1e38a0	0.15451288
53	0x3c872d9a	0.016501237
54	0x3dac1393	0.08402171
55	0x3e3d4be9	0.18485989
56	0x3d296fec	0.041366503
57	0x3b8714ba	0.004122344
58	0x3d3132ba	0.043261267
59	0x3e1ae6b0	0.15127063
60	0x3becdb71	0.007228308
61	0x3d821079	0.06350798
62	0x3d30b021	0.04313672
63	0x3af0a159	0.0018358632
64	0x3d39a92e	0.045327358
65	0x3c289c35	0.010291149
66	0x3c31f973	0.010862696
67	0x3dedbaf1	0.11607922
68	0x3d9bab00	0.07600975
69	0x3cb7e8c2	0.022449855
70	0x3df71742	0.12064983
71	0x3d1959cd	0.037439156
72	0x3dd2944b	0.10282191
73	0x3c0ce1c8	0.008598752
74	0x3e6f560b	0.23372667
75	0x3aa4629b	0.0012541594
76	0x3dab7010	0.083709836
77	0x3c8a3ace	0.016873743
78	0x3db2267f	0.08698749
79	0x3e5594ad	0.20857497
80	0x3d23830c	0.039919898
81	0x3c73c7c0	0.014879167
82	0x3e116e8c	0.14202327
83	0x3e265fc3	0.16247468
84	0x3da3b476	0.079934046
85	0x3c613e9d	0.013747838
86	0x3de29f54	0.11065546
87	0x3bfd4b2a	0.0077299075
88	0x3d107f3b	0.035277586
89	0x3d02d66b	0.031942766
90	0x3cda7316	0.026666205
91	0x3d2f4036	0.042785846
92	0x3d8b21b1	0.067935355
93	0x3d9b0351	0.07568992
94	0x3ebf9317	0.37416908
95	0x3dc7078b	0.097182356

weight f4 [256, 96]
0	0xbdaaf61b	-0.08347722
1	0x3d8202c1	0.063481815
2	0x3c8745c9	0.016512768
3	0xbcd8a64a	-0.02644648
4	0xbddb5a9e	-0.10710643
5	0x3d8c6857	0.06855839
6	0x3da9ce33	0.082912825
7	0xbd8d9aee	-0.06914316
8	0xbdb041e2	-0.08606316
9	0x3d374bfd	0.044750202
10	0x3cf92b66	0.030416202
11	0xbd530538	-0.05151865
12	0xbda61018	-0.081085384
13	0x3c9498d6	0.018139284
14	0x3dcddb64	0.10051611
15	0xbc37449b	-0.01118579
16	0xbd7070b9	-0.05870125
17	0xbdabb6c1	-0.08384467
18	0x3d1cc1c2	0.03827072
19	0x3ce196e1	0.027537765
20	0xbdac20db	-0.08404704
21	0x3cb3e26e	0.021958556
22	0x3db4ea53	0.08833756
23	0x3c7a3744	0.015271965
24	0x3d154271	0.036440317
25	0xbc992fe1	-0.018699588
26	0xbda6bb12	-0.081411496
27	0xbd8b2a17	-0.067951374
28	0x3b9145e9	0.004433383
29	0xbd151956	-0.036401115
30	0x3c8110de	0.015755113
31	0x3ab61ce0	0.0013894103
32	0xbcff4e23	-0.031165188
33	0x3d3b4226	0.04571738
34	0xbda508ec	-0.08058342
35	0x3dbf146c	0.09330067
36	0x3da1f10b	0.079073034
37	0xbbf5da8e	-0.0075028604
38	0xbcad7e91	-0.021178516
39	0xbd6bd60a	-0.05757717
40	0xbd0d03d8	-0.034427494
41	0xbdb6e621	-0.08930612
42	0x3d3b7660	0.045767188
43	0xbda5806b	-0.080811344
44	0x3c498e22	0.0123019535
45	0x3cd2a075	0.025711277
46	0x3c406589	0.011742958
47	0x3d2698a1	0.040672902
48	0xbd652501	-0.055943493
49	0xbdb80aa9	-0.08986408
50	0x3cbefd50	0.023314148
51	0xbd8b0e64	-0.06789854
52	0x3dab3cfb	0.083612405
53	0x3d0d3b0f	0.03448015
54	0x3d82e400	0.06391144
55	0xbcc178c4	-0.023617156
56	0xbb5b7dd2	-0.0033491743
57	0x3a222ba6	0.00061863137
58	0x3d3205ae	0.043462448
59	0xbd6b21e2	-0.05740536
60	0xbdcc7f90	-0.09985268
61	0x3d97137a	0.07376762
62	0x3d416854	0.047218636
63	0x3c409c1e	0.011755971
64	0x3d85952e	0.065225944
65	0x3dae2206	0.08502583
66	0xbc9b8389	-0.01898362
67	0x3d8e4bd4	0.06948057
68	0x3daa3697	0.083111934
69	0x3d099a82	0.033594616
70	0xbc388282	-0.011261584
71	0xbca8255d	-0.020525629
72	0xbd147831	-0.036247436
73	0x3cfa0cba	0.030523647
74	0xbcfb82cb	-0.030702015
75	0x3d441ed0	0.047880948
76	0x3cd07226	0.025445055
77	0x3d8c43d9	0.068488784
78	0x3da18b62	0.07887913
79	0xbd00e719	-0.031470392
80	0x3d280d66	0.041028403
81	0x3b388cf4	0.0028160186
82	0xbccc72e6	-0.024957132
83	0x3c5b9307	0.013401753
84	0xbc8b09a3	-0.016972369
85	0x3d3c00f0	0.04589933
86	0x3d157e86	0.036497615
87	0xbd1e29ee	-0.038614206
88	0xbd91a729	-0.071119614
89	0xbdc6547d	-0.096840836
90	0xbd59d8d3	-0.053185295
91	0x3d851b7d	0.064993836
92	0x3daf37a6	0.08555536
93	0x3d25b8bb	0.040459376
94	0x3da45b40	0.08025217
95	0xbcb6157f	-0.022227047
96	0xbc5bf960	-0.013426155
97	0x3dd2747f	0.10276126
98	0xbcdb3bdd	-0.026761943
99	0xbd8d8965	-0.069109716
100	0xbb83913b	-0.0040151156
101	0xbc961e97	-0.018325133
102	0x3db23a00	0.08702469
103	0x3d31558f	0.043294486
104	0x3d93d5c3	0.07218506
105	0xbd6b1682	-0.057394512
106	0xbd899196	-0.067172214
107	0xbdab09a4	-0.08351448
108	0x3ce6c704	0.02817107
109	0xbd374d30	-0.044751346
110	0x3cde611f	0.02714592
111	0xbce28b2f	-0.027654259
112	0xbd1435b1	-0.036184017
113	0xbd04d7c3	-0.03243233
114	0x3d1948fb	0.037423115
115	0x3ae655d2	0.0017573184
116	0x3dbd2344	0.09235242
117	0xbdbec9b4	-0.093158156
118	0xbde0706d	-0.109589435
119	0xbc66566c	-0.0140586905
120	0x3bef2b90	0.007298894
121	0x3cfbd0a5	0.030739138
122	0x3cba60d9	0.022751259
123	0xbcd59c1c	-0.026075415
124	0xbd92a499	-0.07160301
125	0x3de462a6	0.11151628
126	0xbd5e02f3	-0.05420203
127	0xbd3ebead	-0.04656856
128	0x3cb15bfc	0.021650307
129	0x3a03fff4	0.00050353934
130	0xbcc50d66	-0.02405424
131	0x3d5cc955	0.053902943
132	0x3d02f1db	0.031968933
133	0x3c377410	0.011197105
134	0xbd76bb40	-0.06023717
135	0xbc326214	-0.010887641
136	0xbc275129	-0.010212221
137	0xbd47808a	-0.04870657
138	0x3d91dc20	0.07122064
139	0xbce59698	-0.02802591
140	0xbdaeda00	-0.08537674
141	0xbc690560	-0.014222473
142	0x3d5b63ce	0.053561978
143	0xbd309f0e	-0.043120436
144	0x3d8e2ea3	0.06942489
145	0xbd77af7a	-0.060470082
146	0x3b9572b4	0.004560793
147	0xbd64c2da	-0.055849887
148	0x3c9b77f8	0.018978104
149	0x3cfa983e	0.030590173
150	0x3d11d33e	0.035601847
151	0xbdc52c8c	-0.09627637
152	0x3dc81672	0.09769906
153	0x3b32cf46	0.002728419
154	0x3dac093c	0.08400199
155	0x3ba99eab	0.0051763854
156	0x3d8da951	0.0691706
157	0x3d810629	0.06300003
158	0xbc5e4b43	-0.0135677485
159	0xbd98a56f	-0.07453429
160	0xbc737a86	-0.014860755
161	0xbdbb8ce9	-0.09157736
162	0xbb7ad7f2	-0.0038275686
163	0x3d7d8558	0.061894745
164	0xbd47e3be	-0.048801176
165	0x3da3e0cb	0.0800186
166	0xbdd5640b	-0.10419472
167	0xbbb936ef	-0.0056523005
168	0x3dcd1a5b	0.100147925
169	0x3d98090e	0.07423602
170	0xbccfe0f3	-0.025375819
171	0xbd0bcd4d	-0.034131337
172	0x3da2ffad	0.079589225
173	0xbd7ede75	-0.06222387
174	0x3cb6d3eb	0.022317847
175	0xbd56de36	-0.05245801
176	0x3d83f450	0.06443083
177	0xbd25c195	-0.040467817
178	0xbcbbda5c	-0.02293127
179	0xbd263172	-0.0405745
180	0xbd801e0a	-0.062557295
181	0x3df5b1ad	0.119967796
182	0x3d798aad	0.060923267
183	0xbddc6100	-0.10760689
184	0x3d86a833	0.0657505
185	0xbd4bb5ba	-0.049733855
186	0xbae43ed5	-0.0017413745
187	0x3ce7f627	0.028315617
188	0xbdd7742a	-0.105202034
189	0xbd19bb6f	-0.037532266
190	0x3dcb2c49	0.09920556
191	0xbc6c15c7	-0.014409489
192	0xbdeb5973	-0.114916705
193	0x3cf8aa68	0.030354694
194	0x3d3e08f1	0.046395246
195	0xbd920634	-0.071300894
196	0x3d40cb2c	0.04706876
197	0xbc402c2d	-0.011729282
198	0x3c0ea5d5	0.00870653
199	0x3db6eb04	0.089315444
200	0x3db1f674	0.08689585
201	0xbd756709	-0.059912715
202	0x3d467ef1	0.048460905
203	0x3b7cf60a	0.00385988
204	0xbdb4cf73	-0.0882863
205	0x3d23e67f	0.04001474
206	0xbcaf1321	-0.021371426
207	0xbc6a5eae	-0.0143048
208	0xbd83a201	-0.06427384
209	0x3dc1737c	0.09445855
210	0xbd39563d	-0.04524826
211	0x3d90b90c	0.07066545
212	0xbd313b1a	-0.043269254
213	0xbca6df21	-0.020370068
214	0xbd9dd647	-0.07706886
215	0xbd2d2053	-0.042267155
216	0xba8946ac	-0.0010473332
217	0x3d1d4a93	0.038401198
218	0x3cc1a8fe	0.023640152
219	0x3d273c24	0.04082884
220	0xbd7567a6	-0.0599133
221	0xbdbaa4e8	-0.091134846
222	0xbd4bcfd9	-0.049758766
223	0x3d8d8bb1	0.0691141
224	0x3d40b741	0.047049765
225	0xbc932807	-0.017963422
226	0x3b5d502c	0.003376971
227	0x3c8d6b4e	0.01726308
228	0xbb14c59d	-0.0022700795
229	0x3d15029b	0.036379438
230	0xbc653c0b	-0.013991366
231	0xbda8368f	-0.08213531
232	0x3d3656a9	0.04451624
233	0x3c049bbb	0.00809377
234	0x3d1d03d5	0.038333733
235	0x3ca3e911	0.020008596
236	0x3d9ecc68	0.07753831
237	0x3d9d671c	0.07685682
238	0x3bab388b	0.0052252463
239	0xbb8c2c5c	-0.004277749
240	0xbdc23724	-0.094831735
241	0x3d807e2c	0.062740654
242	0xbd303e14	-0.043027952
243	0xbd47bc94	-0.048763826
244	0xbd041e44	-0.032255426
245	0xbdb08ee4	-0.08621004
246	0xbda7fe8f	-0.0820285
247	0x3dd4d349	0.10391862
248	0x3d92a10e	0.07159625
249	0x3d73c240	0.059511423
250	0xbd21e457	-0.039524402
251	0xbc82184a	-0.015880723
252	0xbc19d984	-0.009390239
253	0xbd6f6493	-0.058445524
254	0x3d63bec3	0.055601846
255	0xbd04d406	-0.032428764

bias f4 [256]
0	0xbd45a198	-0.04824981
1	0xbda8d829	-0.08244354
2	0xbd7455e5	-0.059652228
3	0xbd944e6d	-0.07241521
4	0xbdc179ab	-0.094470344
5	0xbcf07b6c	-0.029355727
6	0x3d6f7a2a	0.058466114
7	0x3d7b5330	0.06135863
8	0xbcadc4f5	-0.02121208
9	0x3da282ed	0.07935128
10	0xbb352213	-0.0027638718
11	0x3d759d42	0.059964426
12	0xbd9ea9ae	-0.077472076
13	0x3db673e6	0.089088246
14	0x3d87133f	0.06595468
15	0xbd2b1a07	-0.04177287
16	0xbd5d3d8b	-0.05401377
17	0x3c99119a	0.01868515
18	0x3c83af85	0.016074905
19	0xbd65324f	-0.05595618
20	0x3dc8e98d	0.09810171
21	0xbdada39e	-0.08478473
22	0x3d9254bd	0.07145069
23	0x3d002cab	0.0312926
24	0x3be101a7	0.006866652
25	0x3db9ff0d	0.0908185
26	0x3d9e83ff	0.0774002
27	0xbdfade3b	-0.12249418
28	0x3d469b34	0.048487857
29	0xbd441141	-0.047868017
30	0xbc3b73f8	-0.011441223
31	0xbdc43512	-0.09580435
32	0x3d3042e9	0.04303256
33	0x3d9f3054	0.0777289
34	0xbdca57f3	-0.09880056
35	0x3d554583	0.052068245
36	0x3d9e2b43	0.07723095
37	0x3dc4a700	0.09602165
38	0x3daf022f	0.08545338
39	0x3d48ad6c	0.048993513
40	0xbd83e54f	-0.064402215
41	0xbc00de75	-0.007865538
42	0x3d3fa3f8	0.046787232
43	0xbd8d3dfc	-0.06896588
44	0x3d515735	0.051108558
45	0xbd9a8a74	-0.07545939
46	0x3c94fc83	0.018186813
47	0xbca9fdf0	-0.02075097
48	0xbd152128	-0.036408573
49	0x3d9dce7a	0.07705398
50	0x3da16573	0.07880678
51	0xbd84928c	-0.06473264
52	0x3db3bb97	0.08776014
53	0xbd6d94f4	-0.05800338
54	0xbd797037	-0.060898032
55	0x3d6f6094	0.058441713
56	0x3d2e43af	0.042545017
57	0x3cab6af7	0.020925028
58	0xbbe63946	-0.0070258705
59	0x3c6879d2	0.0141892005
60	0xbd9e339d	-0.07724688
61	0x3db8f726	0.09031515
62	0x3d7caa45	0.06168582
63	0x3dbf0012	0.09326185
64	0xbca5a748	-0.020221367
65	0x3d7f3bb1	0.062312786
66	0x3dbce18f	0.092227094
67	0xbd3de2c4	-0.04635884
68	0xbd1598bf	-0.036522623
69	0x3da6be2a	0.0814174
70	0x3dbb559f	0.0914719
71	0x3c74047d	0.014893648
72	0xbc093454	-0.008374292
73	0x3d5c491f	0.05378067
74	0x3d109d6c	0.03530638
75	0xbccd408d	-0.025055194
76	0x3acff31e	0.0015865301
77	0xbd993c3d	-0.07482193
78	0xbcb7aa26	-0.02242
79	0xbc39bb62	-0.011336179
80	0xbc8f2519	-0.017473744
81	0x3dbceacd	0.09224472
82	0xbbaafb7b	-0.005217967
83	0xbd954220	-0.07288003
84	0x3da155b1	0.078776725
85	0x3d7eda6a	0.062220015
86	0xbd1e5d3f	-0.038663145
87	0x3d7b0541	0.061284307
88	0x3dc7cd0f	0.09755909
89	0xbd373c4a	-0.04473523
90	0x3d715728	0.05892101
91	0xbd003d18	-0.031308264
92	0x3d762169	0.060090456
93	0xbc905ad4	-0.017621435
94	0xbd4561f4	-0.04818912
95	0x3dbbb873	0.0916604
96	0x3c3c096c	0.011476856
97	0x3d240de3	0.040052306
98	0x3d1ac4dc	0.037785396
99	0x3d8eedf9	0.069789834
100	0xbd95b2be	-0.07309483
101	0x3d947589	0.072489806
102	0x3d96aa77	0.07356732
103	0x3d70d3ea	0.058795847
104	0x3dc0d4b4	0.0941557
105	0xbdd1b84e	-0.102402315
106	0xbd87168b	-0.065960966
107	0xbdbf888e	-0.093522176
108	0x3d951f42	0.072813526
109	0x3d539c8f	0.051662978
110	0xbc90ccac	-0.01767572
111	0xbd7832be	-0.060595267
112	0x3ccaa218	0.024735495
113	0xbd66ff4c	-0.056395814
114	0x3da99c0c	0.08281717
115	0xbd8978ba	-0.0671248
116	0xbcc68172	-0.024231646
117	0xbca870ed	-0.02056166
118	0xbd750457	-0.059818592
119	0xbbd8cbbd	-0.0066160844
120	0xbd17114b	-0.036881726
121	0xbd84b2e6	-0.06479435
122	0x3d480dd5	0.048841316
123	0x3db172b6	0.086644575
124	0x3c6868c1	0.0141851315
125	0x3d59d723	0.053183686
126	0x3dd93a5a	0.10606833
127	0xbdd6a61a	-0.104809
128	0xbda396dc	-0.079877585
129	0x3db992f4	0.09061232
130	0x3dbb3349	0.09140641
131	0xbd7a294c	-0.06107454
132	0x3b97b983	0.004630269
133	0xbc9ce8cc	-0.019153975
134	0x3d28a3ec	0.041171953
135	0xbdb382dd	-0.087651946
136	0x3d500128	0.050782353
137	0xbd26e101	-0.040741924
138	0x3d5eb998	0.054376215
139	0x3c96aa21	0.01839167
140	0xbc897490	-0.016779214
141	0xbd3b0658	-0.045660347
142	0x3d5cd4fc	0.053914055
143	0x3d763c51	0.060116116
144	0xbdbed01a	-0.09317036
145	0xbd866a2c	-0.065632194
146	0x3cc03cf3	0.023466563
147	0xbd0db45e	-0.03459584
148	0xbd520566	-0.05127468
149	0xbda5bfa8	-0.08093196
150	0xbdb5253a	-0.08844991
151	0xbcbf72c0	-0.023370147
152	0xbdb48897	-0.08815115
153	0xbd959dca	-0.073054865
154	0x3dc2d0b8	0.09512466
155	0xbc9b87ad	-0.018985594
156	0x3d055235	0.0325491
157	0xbcfb798f	-0.030697612
158	0xbd2cfb2b	-0.04223172
159	0x3d81b648	0.063335955
160	0x3c713c01	0.014723779
161	0x3d34e9a3	0.044168126
162	0x3c583127	0.013195313
163	0xbd9c1219	-0.07620639
164	0xbd1872bd	-0.037218798
165	0xbdc225ef	-0.094798915
166	0x3d1cde66	0.038298033
167	0x3d1eacdb	0.038739067
168	0x3d33e4fa	0.04391954
169	0xbc3c7f4e	-0.011504961
170	0x3d79c656	0.060980164
171	0xbcef554d	-0.02921548
172	0x3d290606	0.04126551
173	0xbd58fdd0	-0.05297643
174	0x3c1d3a1f	0.009596377
175	0x3dc4bb45	0.09606031
176	0x3d17ac44	0.03702952
177	0x3d38e90f	0.045144137
178	0xbdba53a8	-0.090979874
179	0x3d65338e	0.05595737
180	0xbd8cd4c3	-0.068765186
181	0xbd5a381c	-0.053276166
182	0x3c21b122	0.009868892
183	0x3d9a8e1e	0.07546638
184	0xbdc57877	-0.096421175
185	0x3d8168f6	0.06318848
186	0x3db317a6	0.08744745
187	0xbd8c2ddd	-0.06844685
188	0xbd3d7c4d	-0.04626112
189	0x3d8be685	0.068310775
190	0x3c29ea3b	0.010370786
191	0x3d899060	0.067169905
192	0x3c10f2bc	0.008846935
193	0xbd630c3c	-0.05543159
194	0xbca31715	-0.019908467
195	0xbd5997d1	-0.0531233
196	0xbd12d8d4	-0.035851315
197	0x3d94ccfd	0.07265661
198	0x3d9656b1	0.07340754
199	0xbc5db2a4	-0.013531361
200	0xbdc41e00	-0.095760345
201	0x3d4f50c4	0.050614133
202	0x3d820fe6	0.06350689
203	0xbb9eef3c	-0.0048502963
204	0xbd1a8a65	-0.03772964
205	0xbda1f048	-0.07907158
206	0x3d57bd05	0.052670497
207	0x3c8eb771	0.017421456
208	0xbda77707	-0.081769995
209	0x3d86aea0	0.06576276
210	0xbc47fa54	-0.012205679
211	0xbccca540	-0.024981141
212	0x3d9cd100	0.07657051
213	0xbd78130b	-0.060565036
214	0x3d859d7a	0.06524177
215	0x3d39d1fd	0.045366276
216	0xbd6c6eea	-0.057722963
217	0x3c0e0ea4	0.008670483
218	0xbc9ef24a	-0.019402642
219	0xbd8b75a5	-0.06809548
220	0xbd0b3496	-0.033985697
221	0x3d75f9f2	0.06005282
222	0x3d4a8ea8	0.049452454
223	0xbd8d1045	-0.06887869
224	0xbdbd8839	-0.09254498
225	0xbd5fab89	-0.054606948
226	0x3c224888	0.009904988
227	0xbce9ed9e	-0.028555688
228	0x3d84c596	0.06482999
229	0xbd80474a	-0.06263597
230	0x3d8f5147	0.06997924
231	0x3d928daa	0.071559265
232	0x3d3be4bf	0.045872446
233	0x3db1ad4b	0.08675631
234	0x3d7201a7	0.059083607
235	0x3d2bea5a	0.041971542
236	0x38dea3c8	0.000106162915
237	0xbd5c1cf2	-0.053738542
238	0x3b26f585	0.002547593
239	0xbd0927ef	-0.03348535
240	0x3d8410df	0.064485304
241	0x3d7a3b31	0.061091606
242	0xbdc5f6b6	-0.09666197
243	0xbd42a75f	-0.0475229
244	0xbd1ec3ff	-0.038761135
245	0xbca7388a	-0.020412702
246	0x3d748b98	0.05970344
247	0x3da210ec	0.07913384
248	0x3c0622ac	0.008186977
249	0x3db14a55	0.08656756
250	0x3dda8036	0.106689855
251	0xbd155032	-0.036453433
252	0xbcf8ca88	-0.030370012
253	0x3cd2843e	0.025697824
254	0x3c3eeabf	0.0116526475
255	0x3abb5843	0.0014293272

weight f4 [256]
0	0x3f805fd4	1.0029244
1	0x3f80bf4d	1.005838
2	0x3f7fc46d	0.99909097
3	0x3f7ef6c9	0.99595314
4	0x3f7e5d8b	0.99361485
5	0x3f80e148	1.006875
6	0x3f7f3cc2	0.99702084
7	0x3f801914	1.0007653
8	0x3f7c12b9	0.9846607
9	0x3f8102df	1.0079001
10	0x3f7e3c36	0.99310625
11	0x3f7eccef	0.99531454
12	0x3f7f2f95	0.9968198
13	0x3f7f5d36	0.99751604
14	0x3f7ec27d	0.99515516
15	0x3f7df027	0.9919457
16	0x3f80ca18	1.0061674
17	0x3f802a3b	1.0012888
18	0x3f818e1b	1.0121492
19	0x3f7f11f8	0.99636793
20	0x3f7ead80	0.9948349
21	0x3f810e1d	1.0082432
22	0x3f802d8c	1.00139
23	0x3f7f7db6	0.99801195
24	0x3f7f1cbb	0.99653214
25	0x3f80172d	1.0007073
26	0x3f805162	1.0024836
27	0x3f836a85	1.0266882
28	0x3f7f1905	0.9964755
29	0x3f7e7799	0.9940124
30	0x3f806658	1.0031233
31	0x3f7f91db	0.9983193
32	0x3f808423	1.0040325
33	0x3f7ff7a1	0.99987227
34	0x3f80a974	1.0051713
35	0x3f7e0e3f	0.9924049
36	0x3f7e3912	0.9930583
37	0x3f7f176c	0.99645114
38	0x3f7fbe11	0.99899393
39	0x3f7d8f26	0.9904655
40	0x3f800c24	1.0003705
41	0x3f7f83e4	0.99810624
42	0x3f81e538	1.0148077
43	0x3f7e61bf	0.993679
44	0x3f7e5414	0.99347043
45	0x3f7dcd69	0.99141556
46	0x3f81a2c6	1.01278
47	0x3f7eb10d	0.9948891
48	0x3f8075e0	1.0035973
49	0x3f8019e0	1.0007896
50	0x3f7ccf03	0.98753375
51	0x3f7ef7b8	0.9959674
52	0x3f7f0451	0.9961596
53	0x3f807e9d	1.0038639
54	0x3f80f09d	1.0073429
55	0x3f8025cb	1.0011533
56	0x3f8074ce	1.0035646
57	0x3f80dedf	1.0068015
58	0x3f7df90b	0.99208134
59	0x3f806ef9	1.0033866
60	0x3f7f4a8e	0.99723136
61	0x3f804453	1.0020851
62	0x3f80a9e3	1.0051845
63	0x3f7cc757	0.9874167
64	0x3f7e6783	0.99376696
65	0x3f81443b	1.0098947
66	0x3f800815	1.0002466
67	0x3f7f384e	0.9969529
68	0x3f807ea6	1.003865
69	0x3f7f8e88	0.9982686
70	0x3f7da5d5	0.99081165
71	0x3f7fbba9	0.9989572
72	0x3f7fec6e	0.9997014
73	0x3f80aa4f	1.0051974
74	0x3f7b3ed9	0.9814277
75	0x3f803010	1.0014668
76	0x3f82e64d	1.0226532
77	0x3f806bc0	1.0032883
78	0x3f7f78bd	0.99793607
79	0x3f7fc8a4	0.9991553
80	0x3f7ff046	0.99976003
81	0x3f80bc1a	1.0057404
82	0x3f7dabc5	0.99090225
83	0x3f7f9936	0.99843156
84	0x3f7fadd4	0.99874616
85	0x3f7d60b6	0.98975694
86	0x3f7fac5c	0.99872375
87	0x3f80e13d	1.0068737
88	0x3f7f64df	0.9976329
89	0x3f7d9ee0	0.9907055
90	0x3f7f9b42	0.9984628
91	0x3f813cc5	1.009667
92	0x3f7f3935	0.99696666
93	0x3f80fe26	1.007756
94	0x3f846407	1.0343026
95	0x3f7ebe70	0.99509335
96	0x3f808078	1.0039206
97	0x3f7f8ad0	0.99821186
98	0x3f7e3f8a	0.993157
99	0x3f809d73	1.004805
100	0x3f7fd5de	0.9993571
101	0x3f801eec	1.0009437
102	0x3f7df67d	0.99204236
103	0x3f7dbb56	0.99113977
104	0x3f81a343	1.0127949
105	0x3f809978	1.0046835
106	0x3f7d7d28	0.990191
107	0x3f7fad4f	0.9987382
108	0x3f7e91e0	0.9944134
109	0x3f7d28a0	0.98890114
110	0x3f8030c5	1.0014883
111	0x3f817826	1.0114791
112	0x3f80599a	1.0027344
113	0x3f7f599a	0.99746096
114	0x3f7e240a	0.9927374
115	0x3f801888	1.0007486
116	0x3f7fa5c6	0.99862325
117	0x3f7fe6d0	0.99961567
118	0x3f808d3f	1.0043105
119	0x3f80c678	1.0060568
120	0x3f80e784	1.0070653
121	0x3f8047da	1.0021927
122	0x3f7ff2b3	0.99979705
123	0x3f7e3c29	0.9931055
124	0x3f7ea86b	0.99475735
125	0x3f7fb8d6	0.9989141
126	0x3f7eb1a1	0.9948979
127	0x3f7ea7b2	0.9947463
128	0x3f8034e6	1.0016143
129	0x3f7de29e	0.99173915
130	0x3f81ae19	1.0131255
131	0x3f7ef217	0.9958815
132	0x3f7fa0ee	0.99854934
133	0x3f803beb	1.0018286
134	0x3f7d7dfd	0.9902037
135	0x3f8065ca	1.0031064
136	0x3f7dd6f0	0.99156094
137	0x3f806dbf	1.0033492
138	0x3f801af9	1.0008231
139	0x3f7ef3d4	0.995908
140	0x3f814390	1.0098743
141	0x3f7ed58c	0.99544597
142	0x3f7e7a1f	0.9940509
143	0x3f8044b0	1.0020962
144	0x3f80364e	1.0016572
145	0x3f7ea978	0.9947734
146	0x3f80a3ee	1.0050027
147	0x3f7e343a	0.9929844
148	0x3f7e5462	0.9934751
149	0x3f7e561f	0.9935016
150	0x3f80224a	1.0010464
151	0x3f7fa75b	0.9986474
152	0x3f7ef716	0.99595773
153	0x3f7f798a	0.9979483
154	0x3f7e78c2	0.9940301
155	0x3f7e5bc0	0.9935875
156	0x3f7ef230	0.995883
157	0x3f813546	1.0094383
158	0x3f7d187a	0.98865473
159	0x3f80ab1e	1.0052221
160	0x3f7fa377	0.998588
161	0x3f7f709a	0.9978119
162	0x3f80fd11	1.007723
163	0x3f7e1e1b	0.9926469
164	0x3f7e35e5	0.99300987
165	0x3f80bb85	1.0057226
166	0x3f804bd4	1.0023141
167	0x3f7ec5d1	0.99520594
168	0x3f7dfa00	0.99209595
169	0x3f811dbe	1.0087202
170	0x3f7f4fcb	0.9973113
171	0x3f7fdad4	0.9994328
172	0x3f810245	1.0078818
173	0x3f81a0a7	1.0127152
174	0x3f819e2b	1.0126394
175	0x3f805797	1.002673
176	0x3f7f3849	0.9969526
177	0x3f7e1726	0.9925407
178	0x3f808978	1.0041952
179	0x3f7e24d9	0.99274975
180	0x3f7e6b1b	0.9938218
181	0x3f81a484	1.0128331
182	0x3f801238	1.000556
183	0x3f80d442	1.0064776
184	0x3f7c672b	0.9859492
185	0x3f806909	1.0032054
186	0x3f7d6b37	0.9899172
187	0x3f801088	1.0005045
188	0x3f801bf0	1.0008526
189	0x3f80c5b3	1.0060333
190	0x3f804b6c	1.0023017
191	0x3f7d4013	0.98925894
192	0x3f806fb4	1.0034089
193	0x3f80a443	1.0050129
194	0x3f802dc5	1.0013968
195	0x3f7f1297	0.9963774
196	0x3f7ed42d	0.99542505
197	0x3f801d8e	1.0009019
198	0x3f7f3ed3	0.9970524
199	0x3f8036e4	1.0016751
200	0x3f7ec6ef	0.995223
201	0x3f7e4e70	0.99338436
202	0x3f7f087a	0.9962231
203	0x3f805a32	1.0027525
204	0x3f7f563b	0.9974095
205	0x3f801de5	1.0009123
206	0x3f7ee7c9	0.99572426
207	0x3f80a8b6	1.0051486
208	0x3f8098dc	1.0046649
209	0x3f805d64	1.00285
210	0x3f81a80e	1.0129411
211	0x3f7eee4f	0.9958238
212	0x3f7ed4ed	0.9954365
213	0x3f8052a1	1.0025216
214	0x3f811108	1.0083323
215	0x3f80a64d	1.0050751
216	0x3f7f732e	0.99785125
217	0x3f806cdf	1.0033225
218	0x3f801c32	1.0008605
219	0x3f7fbcc8	0.9989743
220	0x3f8118f1	1.0085737
221	0x3f80200b	1.0009779
222	0x3f8091d0	1.0044498
223	0x3f80054a	1.0001614
224	0x3f7f4865	0.9971984
225	0x3f7f3eff	0.997055
226	0x3f7d21c6	0.9887966
227	0x3f809b2f	1.0047358
228	0x3f80a481	1.0050203
229	0x3f805902	1.0027163
230	0x3f804e26	1.0023849
231	0x3f80fdf6	1.0077503
232	0x3f81727e	1.0113065
233	0x3f80d583	1.0065159
234	0x3f816453	1.0108742
235	0x3f7e8f87	0.99437755
236	0x3f80f09d	1.0073429
237	0x3f7cd67d	0.98764783
238	0x3f7ef21c	0.9958818
239	0x3f81b087	1.0131997
240	0x3f7f8aa9	0.99820954
241	0x3f8066ff	1.0031432
242	0x3f7fcf22	0.99925435
243	0x3f81084c	1.0080657
244	0x3f7e6f42	0.99388516
245	0x3f7e5598	0.99349356
246	0x3f805aee	1.002775
247	0x3f7eac3f	0.99481577
248	0x3f8107a8	1.0080462
249	0x3f802376	1.0010822
250	0x3f8040ed	1.0019814
251	0x3f7f635e	0.99761
252	0x3f7f8c0a	0.9982306
253	0x3f7ed113	0.9953777
254	0x3f806ce5	1.0033232
255	0x3f809f1a	1.0048554

bias f4 [256]
0	0xbb5c9bb5	-0.0033662145
1	0x3b117b9b	0.0022198919
2	0x3ac9fc2b	0.0015410235
3	0xbb0be206	-0.0021344437
4	0xbb0d649c	-0.002157486
5	0xbb9f46c3	-0.0048607304
6	0xbb446fe3	-0.0029973916
7	0x3a77e96c	0.0009457085
8	0xbbdee571	-0.006802254
9	0x3a256c4e	0.0006310389
10	0x3b3697a8	0.002786139
11	0xbab602b3	-0.0013886302
12	0xb99567d0	-0.0002849684
13	0xba3a09f7	-0.0007096822
14	0xba2409cc	-0.00062575634
15	0x3b12b833	0.0022387623
16	0x3b6b3566	0.0035889982
17	0xbb4c7981	-0.0031200352
18	0x3b4f5d73	0.0031641393
19	0xba231ade	-0.000622196
20	0xbab5b85f	-0.0013864151
21	0xbb3e1c11	-0.0029008428
22	0x3ad009af	0.0015872027
23	0xbb88994b	-0.0041686646
24	0xbb14126e	-0.0022593993
25	0x3a363bf7	0.00069516845
26	0x3adc6e15	0.0016817475
27	0x3bb71c1b	0.005588067
28	0xbae81a9a	-0.0017708123
29	0x3a0ea1e9	0.00054409966
30	0xbb2121de	-0.0024586837
31	0xb9dcd53f	-0.0004212055
32	0xbbcf2429	-0.0063214493
33	0xbb0569d6	-0.0020357273
34	0x3ab9873b	0.0014154682
35	0x38cb81eb	9.7039934e-05
36	0xbac088c0	-0.0014689192
37	0x3ab828a8	0.0014050202
38	0xbb53f6cc	-0.0032343147
39	0xbbb32bdf	-0.0054678763
40	0x3aebc7e4	0.0017988649
41	0x3a8f3fe5	0.0010929076
42	0x3b7519a1	0.003739931
43	0xbbcc400a	-0.00623322
44	0xbaabe557	-0.0013114613
45	0xbb17182d	-0.0023055181
46	0xb9b42092	-0.00034356542
47	0xbb0b0efa	-0.0021218644
48	0x3b269967	0.0025421025
49	0x3ac1bcf9	0.001478105
50	0xb9c93888	-0.00038379827
51	0x3ae9c454	0.0017835
52	0x3b5ea0a0	0.0033970252
53	0x3acd921f	0.0015683806
54	0xbbba319f	-0.005682185
55	0xbadeed94	-0.001700806
56	0xbb65c925	-0.0035062518
57	0x3be70066	0.007049608
58	0xbb9b9503	-0.004747988
59	0x3aa866d0	0.0012848023
60	0x3b84ffc7	0.0040588113
61	0x3a6d4f58	0.00090526557
62	0xbaa534b3	-0.0012604207
63	0xbb26678b	-0.0025391306
64	0xbc00fd59	-0.007872903
65	0x3b766036	0.0037593967
66	0xbb77ab3e	-0.0037791277
67	0x3b26ed02	0.0025470858
68	0x3b30746c	0.0026924862
69	0x3b53eeed	0.0032338456
70	0xbb7458d6	-0.0037284396
71	0xbb5385ba	-0.0032275752
72	0xbb710a1f	-0.0036779714
73	0x3aab616c	0.0013075299
74	0x3b2788d9	0.0025563745
75	0x38669e2e	5.498359e-05
76	0xbb11d7ff	-0.0022253988
77	0x3bbe741d	0.0058121816
78	0x3b40691f	0.0029359532
79	0xbae4aa4d	-0.0017445773
80	0x3a05f37c	0.00051098294
81	0x3b168662	0.0022968282
82	0xbb0845df	-0.00207936
83	0x3b8ed95f	0.0043594087
84	0xbadeed0f	-0.0017007905
85	0x39bb96d4	0.00035779795
86	0x3a5dea62	0.0008465407
87	0xbb48a888	-0.003061803
88	0x398fe62e	0.00027446583
89	0xbb2ef3d2	-0.0026695621
90	0x3b5ebb5d	0.003398619
91	0x3b113700	0.0022158027
92	0x3aed9968	0.0018127384
93	0x3778ab3c	1.48218205e-05
94	0xbb160d61	-0.0022896158
95	0x39a0719c	0.00030602224
96	0xbb237783	-0.002494306
97	0xbad71f7d	-0.0016412582
98	0x3b5283a1	0.0032121914
99	0x3b3eb138	0.002909733
100	0x39119273	0.00013882834
101	0x3b864beb	0.0040984056
102	0xbbd1ea6d	-0.0064061196
103	0xbb837dfe	-0.004012822
104	0xb9abfdcc	-0.00032804755
105	0xbb2ff261	-0.002684735
106	0xbaf9cb87	-0.0019057848
107	0x3a5694d9	0.0008185632
108	0x39673492	0.0002204946
109	0xbb698348	-0.0035631228
110	0x3a7f9eb4	0.00097511266
111	0xbad864d3	-0.001650954
112	0xbb32f562	-0.0027306904
113	0x3b24482f	0.002506744
114	0x3a820928	0.0009920942
115	0xbb7880c3	-0.0037918545
116	0x3951b967	0.00020000861
117	0x3ad9009a	0.0016555965
118	0x3a1635a8	0.00057300413
119	0xbc183d85	-0.009292011
120	0x3b541e6f	0.0032366773
121	0xbb275b4d	-0.0025536597
122	0x3b697870	0.0035624765
123	0x3b43a86d	0.0029855028
124	0xb9dd2542	-0.00042180164
125	0x3a1991c1	0.0005858206
126	0x3b581321	0.0032970386
127	0xbb8bee80	-0.004270375
128	0x3b82c04d	0.003990209
129	0x3b88d4e4	0.004175769
130	0xbb04850a	-0.00202209
131	0x39acc5fa	0.000329539
132	0xb9f3921c	-0.00046457432
133	0x3a53a02e	0.000807288
134	0x3abad891	0.0014255216
135	0x390814a9	0.00012977667
136	0xbb9d5910	-0.004801877
137	0x3a8a9ce6	0.0010575324
138	0xbb3ad3f3	-0.002850768
139	0xbbb0207c	-0.005374966
140	0xbb561c39	-0.003267063
141	0xb9f47d48	-0.00046632648
142	0xbaf3b9b6	-0.0018594775
143	0x3ab1f679	0.0013577483
144	0x3ad2559e	0.0016047244
145	0x3a777ddb	0.0009441056
146	0x3b7c1c0a	0.003846886
147	0x3b567f1d	0.0032729574
148	0xbac7f094	-0.0015254193
149	0xbb28aab7	-0.002573652
150	0xba6002f5	-0.00085453625
151	0x39abc44a	0.00032761908
152	0x3badf64d	0.0053089024
153	0xba9efa6b	-0.0012129074
154	0x3b12107c	0.0022287657
155	0xbb7600bd	-0.003753706
156	0xb9d41b54	-0.00040456152
157	0x3bd1cd35	0.0064026364
158	0x3863c667	5.4305794e-05
159	0x3a0ba040	0.00053263083
160	0xbbdcb204	-0.0067350883
161	0xbabbf6f6	-0.0014340568
162	0x3af0695b	0.0018341945
163	0xbb8fa578	-0.004383739
164	0x3b2a7d49	0.0026014617
165	0xbba245ae	-0.004952154
166	0x3b82d95a	0.0039931955
167	0xbb1f2d03	-0.0024288304
168	0xb9f3f3e5	-0.00046530287
169	0xbbad8a57	-0.0052960324
170	0xbb6facb1	-0.0036571438
171	0x399b2f99	0.00029599367
172	0xbb6a2d8c	-0.0035732714
173	0x3b1c17d8	0.0023817923
174	0xba3caed4	-0.0007197682
175	0x3ac78e93	0.0015224986
176	0x3b144f3d	0.0022630238
177	0x3b8705bb	0.004120556
178	0xbba6936e	-0.005083493
179	0xb9d73686	-0.0004104862
180	0xbbb1c0f1	-0.0054246117
181	0x3b8b61d6	0.0042536063
182	0x3b5ad8ec	0.0033393456
183	0xb84c93d4	-4.8775066e-05
184	0xba9e78a8	-0.0012090402
185	0xbc40c188	-0.011764891
186	0xbb62d926	-0.0034614294
187	0xbb158e0c	-0.0022820262
188	0xbbc96d85	-0.006147089
189	0x3b993bef	0.004676334
190	0x3b11f0b3	0.0022268712
191	0x3ab79782	0.0014006945
192	0x3b14c4ae	0.0022700238
193	0x3b214f42	0.0024613892
194	0x39a7f4ac	0.00032035017
195	0xba07f9ee	-0.0005187084
196	0x3a22c8ff	0.00062097603
197	0xbac09db2	-0.0014695434
198	0x3984c5c6	0.00025324355
199	0xbaa899ab	-0.001286318
200	0xbb85b56f	-0.0040804665
201	0x3be0778f	0.00685019
202	0x3b224a4b	0.002476352
203	0xbb1633a7	-0.002291897
204	0xbb57c0b2	-0.0032921252
205	0x3b91dd0b	0.004451399
206	0xb832ab90	-4.2598287e-05
207	0xbab2c2d0	-0.0013638381
208	0xbbb762b8	-0.005596485
209	0xbae35695	-0.0017344529
210	0xbb0d6191	-0.0021573047
211	0x3a831099	0.0009999453
212	0x3abdf0c5	0.001449131
213	0x3b313499	0.0027039407
214	0x3b1f4cf8	0.0024307352
215	0xb9ec89a2	-0.00045115972
216	0xbb1a5b69	-0.002355302
217	0x3acc927d	0.0015607622
218	0xbaffc7d1	-0.0019514506
219	0x3ad544bb	0.0016271094
220	0xbaa4cdca	-0.0012573537
221	0xbb638a63	-0.0034719936
222	0x3b60e664	0.003431701
223	0x39144e18	0.00014143472
224	0x3b4221d3	0.0029622212
225	0x395f17f2	0.00021275858
226	0xb9a983a3	-0.0003233227
227	0x3acce8de	0.0015633365
228	0x3aac095a	0.0013125346
229	0xb9e8ed9a	-0.00044427515
230	0x38408093	4.589611e-05
231	0xbb5c55dd	-0.0033620514
232	0xba28338d	-0.0006416373
233	0x3b2fabfb	0.002680539
234	0xbb359d5f	-0.0027712209
235	0x3b3ff9b4	0.0029293122
236	0xbb417037	-0.0029516348
237	0xbab840fd	-0.0014057454
238	0xba167a34	-0.00057402556
239	0xbb0699ff	-0.0020538566
240	0x3aae0db7	0.0013279234
241	0xbb807bf2	-0.0039210254
242	0x3b877e06	0.004134896
243	0xbb8432f9	-0.0040343967
244	0xbbcdf71c	-0.0062855612
245	0x3b1825a4	0.0023215795
246	0xb99d78b9	-0.0003003532
247	0x3990f621	0.000276492
248	0xbaab610d	-0.0013075188
249	0x3ac7178d	0.0015189514
250	0x3b3e187f	0.00290063
251	0xbb013dfd	-0.0019720786
252	0xbb2b9892	-0.0026183468
253	0xbbc8a258	-0.0061228685
254	0x3b13acbf	0.0022533385
255	0x39f31de2	0.00046370836
