statedicts/torchscript_pl_db_2022-04-21_SPIRAL_FORWARD_120s_P0_R1_s0_seed_2.pt (torch, 224745 bytes, 29 tensors)

weight f4 [5]
0	0x3f823aeb	1.017423
1	0x3f8095d2	1.0045722
2	0x3f7b7bec	0.98235965
3	0x3f814857	1.0100201
4	0x3f77424e	0.9658555

bias f4 [5]
0	0xbc16daf1	-0.009207473
1	0x3d9e558f	0.07731163
2	0xbceb98f3	-0.028759455
3	0xbd309199	-0.043107603
4	0xba868cc4	-0.001026534

running_mean f4 [5]
0	0x3fc7eb7d	1.561874
1	0x3d8387b4	0.06422368
2	0x40455728	3.0834446
3	0x403b4ce0	2.926567
4	0x3e488418	0.1958164

running_var f4 [5]
0	0x3bb2b498	0.0054536574
1	0x35a2c884	1.2128298e-06
2	0x3aaefa46	0.0013349734
3	0x39b7c231	0.00035049164
4	0x3a0bd875	0.0005334684

weight f4 [96, 5]
0	0x3e94b36e	0.29043144
1	0xbe86ec3a	-0.26352102
2	0xbeb99743	-0.36248216
3	0x3c76fd12	0.015074985
4	0x3e9a1f94	0.30102217
5	0x3edd22f1	0.4319072
6	0x3e50ace5	0.20378454
7	0xbee4312f	-0.44568774
8	0xbda3d701	-0.07999993
9	0xbec83c07	-0.39108297
10	0xbc297ea0	-0.010345131
11	0xbe33d588	-0.17561924
12	0x3de0cc1b	0.1097643
13	0xbe99eb42	-0.300623
14	0xbe71d429	-0.23616089
15	0x3dbda3c0	0.092597485
16	0xbeb9ef36	-0.36315316
17	0xbea32267	-0.31862184
18	0xbeae03de	-0.33987325
19	0x3e8f0e9c	0.27940834
20	0xbed08841	-0.40728953
21	0x3ee03c44	0.4379598
22	0x3eb53ae9	0.35396507
23	0xbdb9c4d8	-0.09070748
24	0xbe1e816a	-0.15479055
25	0x3dd42f37	0.10360568
26	0x3df72151	0.120669015
27	0x3cbb9db2	0.022902343
28	0xbcb33c5e	-0.021879371
29	0xbdf5e95b	-0.120074
30	0x3eb33839	0.35003832
31	0x3e711b53	0.2354558
32	0xbdae9a98	-0.0852558
33	0xbec719e7	-0.3888695
34	0xbeb837b1	-0.3597999
35	0x3e7f4b3e	0.24931046
36	0xbb6db08e	-0.0036268565
37	0xbc3909e8	-0.011293866
38	0xba7e507d	-0.0009701325
39	0x3daafd4f	0.08349096
40	0xbd83bddb	-0.064326964
41	0xbd54c26c	-0.051943228
42	0x3bf9af84	0.0076198
43	0x3e96723b	0.29384026
44	0xbd62a485	-0.05533268
45	0x3e8e86d3	0.27837238
46	0x3df9a856	0.12190311
47	0x3e792a05	0.24332435
48	0xbe9f72a2	-0.31142145
49	0x3ea9186e	0.3302645
50	0x3e56337c	0.20918077
51	0x3e314d01	0.17314531
52	0xbeac5840	-0.3366108
53	0x3ea73abe	0.32662004
54	0x3c72df1a	0.014823699
55	0x3dca789f	0.09886288
56	0x3ed20560	0.41019726
57	0xbebaa476	-0.364536
58	0xbe7fdf43	-0.24987511
59	0xbebe36a2	-0.37151057
60	0x3eb0ca0d	0.34529153
61	0x3e1a0e89	0.15044607
62	0xbe9a9009	-0.30188015
63	0x3dfee295	0.12445561
64	0x3ee33f43	0.44384202
65	0x3e469690	0.19393373
66	0x3e944633	0.28959808
67	0x3e6f60da	0.2337679
68	0xbebc99e2	-0.36836153
69	0xbeb2316b	-0.34803328
70	0x3d0b13a6	0.033954285
71	0x3d6d14dc	0.05788122
72	0x3ddb4c73	0.10707941
73	0xbedbbfa8	-0.4291966
74	0xbe2d8e21	-0.16948749
75	0xbd5f2e8e	-0.054487757
76	0x3e390874	0.18069631
77	0xbeb8b9bc	-0.36079204
78	0xbed9b16f	-0.42518184
79	0xbe49b4b7	-0.19697843
80	0xbcfb5f47	-0.03068508
81	0xbe851fc8	-0.2600081
82	0xbd9717e8	-0.07377607
83	0x3e044398	0.1291641
84	0x3d57c206	0.05267527
85	0xbea8bafe	-0.32955164
86	0xbdf7f5de	-0.12107442
87	0xbdc84a8d	-0.097798444
88	0xbed362ef	-0.41286418
89	0xbcc42558	-0.023943588
90	0xbe9ecbab	-0.3101476
91	0xbe9a5069	-0.30139473
92	0xbe0261cc	-0.12732619
93	0xbc80fac3	-0.015744573
94	0x3ec821db	0.3908833
95	0xbdf37791	-0.1188804
96	0x3ea4a233	0.32154998
97	0x3ac4bdb9	0.0015010155
98	0x3e6d1a4a	0.2315456
99	0xbe5495cc	-0.20760268
100	0xbe4299e2	-0.19004014
101	0xbebcc836	-0.368715
102	0x3bc3d456	0.00597624
103	0xbdf0a4fc	-0.11750218
104	0x3d65b8af	0.05608433
105	0x3eb24122	0.34815317
106	0xbec37323	-0.3817378
107	0x3edbd2eb	0.42934355
108	0xbc9918d5	-0.018688599
109	0x3c577368	0.013150074
110	0x3d1d2a47	0.038370397
111	0xbe9049d4	-0.28181326
112	0xbebec170	-0.37256956
113	0xbebd4a84	-0.36970913
114	0x3eb08f69	0.34484413
115	0xbdc3c7b2	-0.09559573
116	0x3de40048	0.11132866
117	0xbde649f4	-0.11244574
118	0x3eafd10b	0.34339175
119	0xbe9eed72	-0.3104053
120	0xbd773768	-0.060355574
121	0x3ec27ac9	0.37984303
122	0xbc9fccb2	-0.019506786
123	0xbe11d317	-0.1424068
124	0x3dcd1ef6	0.10015671
125	0xbeb7be73	-0.3588749
126	0xbdb854ff	-0.09000587
127	0xbec259f9	-0.3795927
128	0x3ecae175	0.39625135
129	0xbe5b7fb5	-0.21435435
130	0xbe94434d	-0.28957596
131	0xbece679f	-0.40313432
132	0xbd72e904	-0.059304252
133	0x3e0156b5	0.12630732
134	0xbea06683	-0.3132821
135	0xbdf54159	-0.11975355
136	0x3eb2fa4c	0.34956586
137	0xbde0831e	-0.109625086
138	0xbe2078dc	-0.15671104
139	0xbe1fcf0c	-0.15606326
140	0xbe7012d4	-0.23444682
141	0x3e245603	0.16048436
142	0xbe355695	-0.1770881
143	0xbee16fa9	-0.44030502
144	0xbd49e9d4	-0.04929526
145	0xbe511140	-0.20416737
146	0xbeb5338e	-0.35390896
147	0xbed6a27f	-0.4192085
148	0xbeba8fbb	-0.36437783
149	0xbeda9995	-0.426953
150	0xbe4a4ac7	-0.19755088
151	0xbe181b52	-0.14854172
152	0x3ea7e67f	0.32793042
153	0x3ecc727a	0.3993109
154	0xbe1a1f28	-0.15050948
155	0x3ebdb57e	0.3705253
156	0x3d1853e1	0.03718937
157	0xbb468d0b	-0.003029647
158	0xbe854129	-0.26026276
159	0xbd8b755e	-0.068094954
160	0xbeb0148f	-0.34390685
161	0x3eab59ab	0.3346685
162	0xbe903a02	-0.28169256
163	0x3e7fffce	0.24999925
164	0x3de7a7f7	0.113113336
165	0x3e90881c	0.28228843
166	0xbe48b09c	-0.19598621
167	0x3eac18f1	0.3361278
168	0x3d4f9305	0.050677318
169	0x3eb2f163	0.34949788
170	0xbec56c5d	-0.38559237
171	0xbe1f9513	-0.15584211
172	0xbe2cd32c	-0.1687743
173	0xbe9131e7	-0.28358385
174	0xbd97c51e	-0.07410644
175	0xbe827134	-0.25476992
176	0xbe5b31fd	-0.21405788
177	0xbdc036b2	-0.09385432
178	0xbe31bb9f	-0.17356728
179	0x3e7b5362	0.24543527
180	0xbe27475c	-0.16335815
181	0xbe85ba1b	-0.2611855
182	0xbed76a93	-0.42073497
183	0x3e99e398	0.30056453
184	0x3e8a5e5a	0.2702511
185	0xbea64907	-0.3247759
186	0x3e7bdb30	0.24595332
187	0x3e0b2717	0.1358913
188	0x3ebe3362	0.37148577
189	0x3cc71d9b	0.02430611
190	0x3ea308dc	0.31842697
191	0x3ead4885	0.3384439
192	0xbeaae707	-0.33379385
193	0x3d8bba14	0.06822601
194	0x3e498fb2	0.19683722
195	0xbe97192e	-0.29511398
196	0x3ec2b793	0.3803068
197	0x3ee06b9d	0.43832102
198	0xbe392ab5	-0.18082698
199	0x3e713e1b	0.23558848
200	0xbdf821e2	-0.12115838
201	0xbe765793	-0.24056844
202	0xbd4abaa9	-0.04949442
203	0x3e4a097a	0.19730178
204	0x3ee22e81	0.44176105
205	0x3ea2de44	0.318102
206	0x3ddd7941	0.10814143
207	0x3d1af14d	0.03782778
208	0x3e824410	0.25442553
209	0x3ed7569d	0.42058268
210	0xbd7576d8	-0.05992779
211	0x3e7f9a9c	0.24961323
212	0xbe69270b	-0.227688
213	0xbe899275	-0.2686955
214	0x3e9f253e	0.310831
215	0x3e61f6f6	0.22066864
216	0xbedf495d	-0.4361066
217	0xbed77d9d	-0.42088023
218	0x3e9834ce	0.29727787
219	0x3e27762e	0.16353676
220	0x3e136c92	0.14396885
221	0xbe9ad420	-0.30239964
222	0x3e855a32	0.26045376
223	0x3c11eff2	0.008907305
224	0xbe72f1e1	-0.23725082
225	0x3ec94716	0.39312047
226	0x3ec245c8	0.37943864
227	0x3eb3d0b6	0.3512017
228	0x3e816607	0.25273153
229	0xbdb7e63d	-0.08979461
230	0x3ebb939c	0.36636055
231	0x3ea569eb	0.32307371
232	0x3d5a13aa	0.05324141
233	0xbd9aa114	-0.075502545
234	0xbe86ec58	-0.2635219
235	0xbdc4c708	-0.09608275
236	0xbe983c4c	-0.29733503
237	0x3e32bae5	0.17454107
238	0xbd422c55	-0.04740556
239	0x3e0f4895	0.13992532
240	0xbd787912	-0.060662337
241	0x3eafb5f3	0.34318504
242	0xbea8f81b	-0.3300179
243	0x3e95ef9f	0.2928438
244	0x3e287003	0.16448979
245	0xbca73a63	-0.020413583
246	0x3dc75f0a	0.09734924
247	0x3edce65b	0.43144497
248	0x3eb48111	0.3525472
249	0xbb2709f6	-0.0025488115
250	0x3e052b58	0.13004816
251	0xbed0922e	-0.40736526
252	0x3eac9a02	0.3371125
253	0x3db6bcd0	0.08922732
254	0xbe5696c6	-0.20955953
255	0xbec6bb6c	-0.38814867

bias f4 [96]
0	0x3e44398a	0.19162574
1	0x3ce8b174	0.028404929
2	0xbee2c073	-0.44287452
3	0xbed1a64b	-0.40947184
4	0xbe42dd32	-0.19029692
5	0x3e30624a	0.17224994
6	0x3ebcae0b	0.36851534
7	0x3e63ddb4	0.22252542
8	0xbe7a782b	-0.24459903
9	0xbd827a9a	-0.06371041
10	0x3e3c03ed	0.18360873
11	0xbddbd135	-0.107332624
12	0x3ec4dbfe	0.3844909
13	0xbee268cd	-0.44220582
14	0x3ec78089	0.38965252
15	0x3dd652d4	0.10465017
16	0xbc5137bf	-0.012769639
17	0xbe5e616a	-0.21716848
18	0x3d6b190e	0.05739694
19	0xbedec87e	-0.43512338
20	0x3e64b50d	0.2233469
21	0x3d9ab695	0.07554356
22	0x3e741667	0.23836671
23	0x3e6a6044	0.22888285
24	0x3e2fe5b5	0.1717747
25	0x3ec34df4	0.3814541
26	0x3e69b383	0.22822385
27	0x3e77a677	0.24184595
28	0x3cb95c6f	0.022627084
29	0x3ea43063	0.32068166
30	0x3e6a5613	0.22884397
31	0x3e7c51be	0.24640557
32	0x3dd955f3	0.10612097
33	0xbe0b16a5	-0.13582857
34	0x3ecd73bb	0.40127358
35	0xbedd5554	-0.43229163
36	0x3ebe43bb	0.3716105
37	0xbb159ce7	-0.0022829117
38	0xbe97c2fb	-0.29640946
39	0x3e96180e	0.29315227
40	0xbdcbd8e0	-0.09953475
41	0xbdc7e068	-0.09759599
42	0xbd343c27	-0.04400268
43	0xbde86da9	-0.11349041
44	0xbe693f33	-0.22778015
45	0x3e2e5d44	0.17027766
46	0x3d99edc3	0.075160526
47	0x3e9f6996	0.31135243
48	0x3e908436	0.2822587
49	0xbdc4f04f	-0.09616148
50	0xbdc032eb	-0.09384712
51	0x3e298e5e	0.16558215
52	0x3deb1e18	0.11480349
53	0x3ec8328f	0.39101073
54	0xbe2c1105	-0.16803367
55	0x3e800bd6	0.2500903
56	0xbd1b25d0	-0.037877858
57	0xbea11ff6	-0.31469697
58	0x3e2faa1f	0.1715474
59	0xbe445e03	-0.19176488
60	0x3ee15f63	0.44018087
61	0xbe80c102	-0.25147253
62	0xbe97d56f	-0.29655024
63	0x3ec55fcb	0.38549647
64	0xbe9e0453	-0.30862674
65	0xbe5c74eb	-0.21528976
66	0xbecde1f0	-0.4021144
67	0x3ebc6aec	0.36800325
68	0x3db90b14	0.09035316
69	0x3eca23a1	0.39480308
70	0xbe914d9d	-0.28379527
71	0xbdb05133	-0.086092375
72	0x3dc81fda	0.097717
73	0x3ebad73c	0.36492336
74	0xbed13064	-0.40857232
75	0x3ed99f72	0.4250446
76	0xbdfd29e7	-0.12361508
77	0xbecea853	-0.40362796
78	0x3dcd698d	0.10029898
79	0xbe64382d	-0.22287054
80	0xbc8e9b90	-0.017408162
81	0xbcc1c05f	-0.0236513
82	0x3e7ac977	0.24490915
83	0xbe22ad7e	-0.15886495
84	0x3e4f0800	0.20217896
85	0xbed23b92	-0.41061074
86	0x3d84db1e	0.06487106
87	0x3df0e6f7	0.11762803
88	0xbcb4a7df	-0.022052703
89	0xbedc2864	-0.42999566
90	0xbd10ba0e	-0.035333686
91	0xbda55ab2	-0.080739394
92	0x3e7ae797	0.24502407
93	0xbea415b5	-0.3204781
94	0x3e702d7a	0.23454848
95	0xbe9f3b6e	-0.3110003

weight f4 [96]
0	0x3f809676	1.0045917
1	0x3f7fe2f6	0.9995569
2	0x3f802c54	1.0013528
3	0x3f7f7dee	0.9980153
4	0x3f803d67	1.0018739
5	0x3f800a2b	1.0003103
6	0x3f7f690e	0.99769676
7	0x3f801834	1.0007386
8	0x3f802325	1.0010725
9	0x3f800e05	1.0004278
10	0x3f80a88a	1.0051434
11	0x3f7f4492	0.99714005
12	0x3f7f42ae	0.9971112
13	0x3f803215	1.0015284
14	0x3f7f7fc5	0.99804336
15	0x3f7fd726	0.99937665
16	0x3f8067e1	1.0031701
17	0x3f7fb5cb	0.9988677
18	0x3f7ec576	0.9952005
19	0x3f7f5e93	0.99753684
20	0x3f8074c9	1.003564
21	0x3f7f3799	0.9969421
22	0x3f809777	1.0046223
23	0x3f7f2e59	0.99680096
24	0x3f806d4d	1.0033356
25	0x3f7fd647	0.99936336
26	0x3f7f47a3	0.99718684
27	0x3f8001dc	1.0000567
28	0x3f802eb4	1.0014253
29	0x3f802ac9	1.0013057
30	0x3f7f53f9	0.9973751
31	0x3f8031e0	1.0015221
32	0x3f7f0dde	0.99630535
33	0x3f7f8639	0.9981418
34	0x3f804a8b	1.0022749
35	0x3f804014	1.0019555
36	0x3f7fb161	0.99880034
37	0x3f7ffb79	0.9999309
38	0x3f7ee12b	0.9956233
39	0x3f8042a5	1.0020338
40	0x3f802602	1.0011599
41	0x3f803175	1.0015093
42	0x3f80926a	1.0044682
43	0x3f7fbfef	0.9990224
44	0x3f7f9fc7	0.99853176
45	0x3f7f789a	0.997934
46	0x3f80896c	1.0041938
47	0x3f805c48	1.0028162
48	0x3f7fed9d	0.99971944
49	0x3f7f4692	0.99717057
50	0x3f8055c2	1.0026171
51	0x3f8074ba	1.0035622
52	0x3f801504	1.0006413
53	0x3f800ee5	1.0004545
54	0x3f7f4c3b	0.99725693
55	0x3f8055cc	1.0026183
56	0x3f7fa654	0.9986317
57	0x3f7f8f10	0.9982767
58	0x3f7f311e	0.9968432
59	0x3f7f2895	0.996713
60	0x3f7fb6ad	0.99888116
61	0x3f7fb78f	0.99889463
62	0x3f7ccefc	0.98753333
63	0x3f7ffb9e	0.9999331
64	0x3f8000a0	1.0000191
65	0x3f807b69	1.0037662
66	0x3f7fc3c4	0.9990809
67	0x3f80aefa	1.0053399
68	0x3f800736	1.0002201
69	0x3f80ce76	1.0063007
70	0x3f7f1eca	0.99656355
71	0x3f7f629f	0.9975986
72	0x3f7f838b	0.99810094
73	0x3f7ff701	0.99986273
74	0x3f7f90e1	0.9983044
75	0x3f7f549a	0.99738467
76	0x3f7f982d	0.99841577
77	0x3f8055d7	1.0026196
78	0x3f7f93ed	0.9983509
79	0x3f80606f	1.0029429
80	0x3f7fb08f	0.9987878
81	0x3f807195	1.0034662
82	0x3f7ee497	0.9956755
83	0x3f8017a8	1.0007219
84	0x3f80e4d4	1.0069833
85	0x3f7f205f	0.9965877
86	0x3f808357	1.0040082
87	0x3f7fdd6a	0.99947226
88	0x3f802892	1.0012381
89	0x3f7fff7c	0.99999213
90	0x3f7eb1f9	0.99490315
91	0x3f80102e	1.0004938
92	0x3f7fe612	0.99960434
93	0x3f8024e3	1.0011257
94	0x3f80d131	1.006384
95	0x3f7fde87	0.99948925

bias f4 [96]
0	0x3a06d1fb	0.0005142984
1	0x3ac36ae8	0.001490918
2	0xb9e45a1f	-0.00043554694
3	0x3a1cfaef	0.000598832
4	0x3a033909	0.00050057523
5	0x3a70d291	0.000918665
6	0x3aba2d84	0.0014204239
7	0xb854d16e	-5.0739785e-05
8	0xbaa35fe3	-0.001246449
9	0xba9905ce	-0.0011674704
10	0xb9c894e2	-0.000382579
11	0xb7eff0f2	-2.860322e-05
12	0xbab318da	-0.0013664023
13	0x39bbe338	0.0003583671
14	0xba34ef84	-0.00069021457
15	0xbaf9e151	-0.0019064342
16	0xb9b83cb8	-0.00035140454
17	0x3ad75655	0.0016428927
18	0xb850170a	-4.961252e-05
19	0xb9ce420b	-0.00039340588
20	0x3a9274da	0.001117374
21	0xb9fcca0b	-0.0004821572
22	0xba29f2f6	-0.00064830424
23	0xb8d9c6fa	-0.000103844286
24	0x3b2038ea	0.0024447986
25	0x3ad22544	0.0016032835
26	0x3b0c6f07	0.0021428482
27	0x3953b2ca	0.00020189132
28	0xba9290f1	-0.0011182112
29	0xbb6e8146	-0.003639297
30	0xbb047991	-0.002021406
31	0x3ac56170	0.0015058946
32	0x3abebeb0	0.0014552679
33	0xba97a462	-0.0011569376
34	0x3af33b1d	0.0018557046
35	0x3a087674	0.0005205639
36	0x3b63c0b8	0.003475232
37	0xba03f8f4	-0.00050343503
38	0x3a201ae2	0.00061075215
39	0xbaf8f6f0	-0.0018994492
40	0xbae259b2	-0.0017269163
41	0xba3aff64	-0.0007133393
42	0xbb405a21	-0.0029350596
43	0xba0b5f57	-0.0005316636
44	0x3b0abd71	0.0021170045
45	0xbb6b48c3	-0.0035901524
46	0x3abc5e2c	0.0014371327
47	0x3ac1673d	0.0014755499
48	0x3aeabdf0	0.0017909389
49	0x39373b52	0.00017474339
50	0xb9b3b251	-0.00034274397
51	0x3a5fc274	0.00085357507
52	0xbb108978	-0.0022054594
53	0x3b252d37	0.0025203952
54	0xbb89a136	-0.004200126
55	0x3b01e993	0.001982306
56	0xba2c0d69	-0.00065632776
57	0xb940af1d	-0.00018375782
58	0x3a2e951a	0.0006659791
59	0x3af1ec6e	0.0018457302
60	0xbb0c24ac	-0.0021384163
61	0xb99ce88f	-0.00029927908
62	0x3ae3d3bd	0.0017381829
63	0x392b3da6	0.00016330797
64	0x38fd5f76	0.00012081761
65	0xbade9b03	-0.0016983453
66	0xbb2b50c7	-0.0026140676
67	0x3ae083a2	0.0017129073
68	0x39e5887b	0.0004377997
69	0xbb19423e	-0.002338543
70	0x3a4653f1	0.0007565609
71	0x3b431d59	0.0029772131
72	0xba9f6317	-0.0012160268
73	0xba2263d9	-0.0006194688
74	0xba03eac4	-0.0005032236
75	0xbac8abaf	-0.0015309955
76	0x3b6fbf65	0.0036582586
77	0xbb405d1a	-0.0029352368
78	0x39251e7b	0.00015746981
79	0xba8d08e5	-0.0010760097
80	0x3a489595	0.0007651684
81	0xbaa99e53	-0.0012940861
82	0xb8b2d4d0	-8.527341e-05
83	0xba65a589	-0.00087603234
84	0xbb5691e1	-0.003274076
85	0xbb196f0e	-0.002341214
86	0xb8e071a3	-0.00010702319
87	0xbb0f9776	-0.0021910346
88	0xb94e45bb	-0.00019671668
89	0x3a85ab81	0.0010198207
90	0xba96aa7b	-0.0011494899
91	0x3a9957f9	0.0011699192
92	0xbb391f64	-0.002824747
93	0xbabc0b3d	-0.0014346611
94	0x3b0cb2b6	0.0021468825
95	0xba44023e	-0.0007477141

running_mean f4 [96]
0	0x3e417c73	0.1889513
1	0x3ef2bdc3	0.47410402
2	0x3d1bf5be	0.038076155
3	0x3c89150b	0.016733667
4	0x3c970c1a	0.018438388
5	0x3e57d9f4	0.21079236
6	0x3f2548dc	0.645643
7	0x3e6ebf90	0.23315263
8	0x3d0429fc	0.032266602
9	0x3e023c10	0.12718225
10	0x3e7b08cc	0.24515074
11	0x3ec5cfb5	0.3863503
12	0x3eca0f34	0.39464724
13	0x3e3915be	0.180747
14	0x3eff7692	0.4989515
15	0x3ed4dde3	0.41575536
16	0x3d9c55e5	0.076335706
17	0x3d738bff	0.059459683
18	0x3e978c80	0.2959938
19	0x36860ff3	3.995368e-06
20	0x3e6733a8	0.22578299
21	0x3e8d0f89	0.27550915
22	0x3e8e0bf2	0.2774349
23	0x3e82c0c0	0.25537682
24	0x3e5cab9c	0.21549839
25	0x3ee5456a	0.4477952
26	0x3e5ac1b0	0.21362948
27	0x3ea6aed0	0.32555246
28	0x3e71f56a	0.23628774
29	0x3eff9abe	0.49922746
30	0x3ec4aa12	0.38411003
31	0x3ed37bac	0.41305292
32	0x3eafd384	0.3434106
33	0x3e27d98f	0.16391586
34	0x3ed5da88	0.4176829
35	0x3cb6247b	0.022234192
36	0x3eebc0ae	0.4604544
37	0x3e8944dd	0.2681035
38	0x3d2ac188	0.041688472
39	0x3ed414ba	0.41422063
40	0x3e756060	0.23962545
41	0x3df717dc	0.12065098
42	0x3deaf3aa	0.114722565
43	0x3d8bed14	0.068323284
44	0x3d252636	0.040319644
45	0x3e9eb6ef	0.30998942
46	0x3eab7f8c	0.33495748
47	0x3eaccede	0.33751577
48	0x3ebafe04	0.36521924
49	0x3e5403c4	0.20704561
50	0x3de9dbb6	0.1141886
51	0x3eb7d1f2	0.35902363
52	0x3e969549	0.2941077
53	0x3ed9f399	0.42568663
54	0x3e0dcefc	0.1384849
55	0x3e968002	0.29394537
56	0x3e010c44	0.12602335
57	0x3e7a31c2	0.24433044
58	0x3e613c59	0.21995677
59	0x3d728d28	0.05921665
60	0x3ef807b2	0.4844337
61	0x3da98492	0.08277239
62	0x3a3bdb46	0.0007166158
63	0x3edc454f	0.43021628
64	0x3e37b51c	0.17940181
65	0x3d555f0f	0.052092608
66	0x00000000	0.0
67	0x3f104e03	0.56369036
68	0x3e862d30	0.2620635
69	0x3eccd066	0.40002745
70	0x3ac7c452	0.0015241003
71	0x3de88da0	0.11355138
72	0x3e6c242c	0.23060673
73	0x3ecdfd2a	0.4023221
74	0x3d356e72	0.044294782
75	0x3ed036ba	0.40666753
76	0x3d8cfffd	0.068847634
77	0x3d8dab84	0.0691748
78	0x3e7eea12	0.24893978
79	0x3df9fa34	0.122059256
80	0x3e30c61f	0.17263077
81	0x3e2f6528	0.17128432
82	0x3e8e7432	0.27823025
83	0x3d922e3e	0.07137726
84	0x3e522b68	0.2052437
85	0x3962838c	0.00021602045
86	0x3e946d39	0.2898958
87	0x3e8de82c	0.27716196
88	0x3e289bdc	0.16465706
89	0x00000000	0.0
90	0x3dff3d12	0.1246282
91	0x3e3302b2	0.17481497
92	0x3e971120	0.29505253
93	0x3dba722c	0.09103808
94	0x3ece1a93	0.4025465
95	0x3df71e66	0.12066345

running_var f4 [96]
0	0x3cdb6730	0.026782602
1	0x3f174572	0.5909034
2	0x3c31bb5f	0.010847895
3	0x3b3cd0be	0.0028810943
4	0x3b0cebec	0.0021502925
5	0x3d3700a8	0.04467836
6	0x3f416550	0.75545216
7	0x3ce7ad35	0.028280834
8	0x3bc854e0	0.0061136335
9	0x3cc9e08a	0.024643201
10	0x3d1b2afa	0.037882783
11	0x3ecdcb9a	0.40194398
12	0x3d2a081c	0.04151164
13	0x3df9a41a	0.12189503
14	0x3e605eda	0.21911183
15	0x3eb8a329	0.3606198
16	0x3c4ebfea	0.012618998
17	0x3c6a82a4	0.014313374
18	0x3e1e8974	0.15482122
19	0x32b241d0	2.0751855e-08
20	0x3d083d69	0.03326169
21	0x3df5fe0a	0.12011345
22	0x3db52ad8	0.088460624
23	0x3cedb93c	0.02901899
24	0x3c7e9684	0.015538815
25	0x3e9c1e72	0.30491978
26	0x3cfd4713	0.03091768
27	0x3dd98038	0.10620159
28	0x3de086f8	0.10963243
29	0x3ed9dab9	0.42549685
30	0x3df50718	0.11964244
31	0x3e7a7a88	0.24460804
32	0x3e823550	0.254313
33	0x3d8a3442	0.06748249
34	0x3ddf9f30	0.109190345
35	0x3ba6964e	0.0050838357
36	0x3eb626f0	0.35576582
37	0x3e0ae2f6	0.13563141
38	0x3c42ea84	0.011896733
39	0x3dbb0e5a	0.09133597
40	0x3de9646c	0.11396107
41	0x3ceb29b2	0.028706405
42	0x3cf6029a	0.030030537
43	0x3cb6ac44	0.02229894
44	0x3bba41e5	0.005684125
45	0x3da18fe4	0.07888773
46	0x3e6deabd	0.23234077
47	0x3d9a0d26	0.07522039
48	0x3e4a4b24	0.19755226
49	0x3d6d74db	0.05797277
50	0x3d128382	0.035769947
51	0x3e530e48	0.20610917
52	0x3e4b5cf0	0.19859672
53	0x3dcfe50a	0.101511076
54	0x3ce68ad6	0.028142374
55	0x3db0300e	0.08602916
56	0x3cf14af4	0.029454686
57	0x3dfc83cd	0.123298265
58	0x3cd6b6bc	0.026210181
59	0x3c7c26c0	0.015390098
60	0x3df98b4f	0.12184774
61	0x3d09ae68	0.033613592
62	0x38a2a950	7.756299e-05
63	0x3e06c10f	0.13159584
64	0x3df7e812	0.12104811
65	0x3c8214ca	0.015879054
66	0x00000000	0.0
67	0x3f08be7e	0.5341567
68	0x3e21444e	0.15748712
69	0x3c224680	0.009904504
70	0x3a18cc91	0.00058288226
71	0x3d09c6ff	0.033637043
72	0x3d8caa84	0.06868461
73	0x3e2a0c66	0.16606292
74	0x3c5a2711	0.013314978
75	0x3d9dfebc	0.07714602
76	0x3cb90c3c	0.022588842
77	0x3ce1b1ec	0.02755066
78	0x3e13c3a8	0.14430106
79	0x3d1bf0d8	0.038071483
80	0x3d3f488c	0.046700045
81	0x3d658f16	0.05604466
82	0x3d6f6811	0.058448855
83	0x3c83f6d2	0.016108904
84	0x3db69403	0.0891495
85	0x37b480b8	2.1517611e-05
86	0x3db88572	0.09009828
87	0x3e0455b2	0.12923315
88	0x3d677de2	0.056516536
89	0x00000000	0.0
90	0x3d289a61	0.041162852
91	0x3d4ac7ec	0.049507067
92	0x3d0686c1	0.032843355
93	0x3cd6b495	0.026209155
94	0x3e4fdbd4	0.20298702
95	0x3d7bd5c8	0.061483175

weight f4 [256, 96]
0	0x3d5a8682	0.053350933
1	0xbb222b42	-0.0024745022
2	0xbced71c9	-0.028984921
3	0xbcfe1e84	-0.03102041
4	0x3d7e64a3	0.062107693
5	0x3d23a66c	0.039953634
6	0x3bdcc899	0.0067377803
7	0x3c02939c	0.007969763
8	0xbd2bd4c1	-0.041950945
9	0x3d4b9ca6	0.04970994
10	0x3d9b6af2	0.075887576
11	0xbd98aab1	-0.07454432
12	0xbc8af14b	-0.01696076
13	0xbcab5e40	-0.020918965
14	0x3d10e4b0	0.035374343
15	0x3da95244	0.08267644
16	0x3d4dacd4	0.05021365
17	0x3d8edcb6	0.06975691
18	0xbbc02f86	-0.0058650402
19	0xbd5cc27f	-0.053896423
20	0x3bed0fc3	0.007234545
21	0xbd0d8ed0	-0.034560025
22	0xbcd88325	-0.026429722
23	0x3d70313a	0.058640696
24	0xbc0e4a23	-0.008684668
25	0xbdcf1683	-0.10111716
26	0x3d8db5dc	0.069194525
27	0xbc99638f	-0.018724231
28	0xbd0d4bc9	-0.034496102
29	0xbcef46a0	-0.029208481
30	0xbbf47664	-0.0074604023
31	0xbca655ef	-0.020304648
32	0x3d9cbb80	0.0765295
33	0x3ca92938	0.020649537
34	0xbcd9ff5e	-0.026611026
35	0xbdbb079b	-0.0913231
36	0x3db266e4	0.08711031
37	0x3ce36bab	0.027761301
38	0x3dbf405b	0.09338447
39	0x3cbebdb3	0.023283815
40	0xbdc2ac9f	-0.09505581
41	0xbbbc8c00	-0.005753994
42	0xbdae7331	-0.08518065
43	0x3ca8ce9a	0.020606328
44	0xbd4926e2	-0.049109347
45	0xbd28c6b3	-0.04120512
46	0x3d8f8988	0.07008654
47	0xbb318fbf	-0.0027093736
48	0x3ca512a0	0.020150483
49	0x3d90ebea	0.07076247
50	0x3dc9e76f	0.098585956
51	0xbda5da89	-0.08098323
52	0xbd68de76	-0.05685278
53	0x3cdc114d	0.026863718
54	0xbd6cf96d	-0.05785506
55	0xbd1b5ac1	-0.037928347
56	0xbd63ed10	-0.055646002
57	0xbd988037	-0.0744633
58	0x3d9a0612	0.07520689
59	0x3dbe770d	0.09300051
60	0xbd80e21e	-0.062931284
61	0xbd3906e9	-0.045172606
62	0xbcb2c21a	-0.02182107
63	0xbd6dffbd	-0.05810522
64	0xbdc193e3	-0.09452035
65	0xbc1db47f	-0.009625553
66	0xbcc3b577	-0.02389024
67	0xbd6f715d	-0.05845772
68	0x3b01104e	0.0019693556
69	0xbcc01c64	-0.023451038
70	0x3d7fb011	0.06242377
71	0xbc08777d	-0.0083292695
72	0x3ad95a7b	0.0016582751
73	0x3dc095c2	0.09403564
74	0x3cd22661	0.025653066
75	0xbc513d3b	-0.012770946
76	0xbdba5853	-0.09098878
77	0x3cfbfa3d	0.030758971
78	0x3c9c00f0	0.019043416
79	0x3d97c261	0.07410122
80	0xbdd7603e	-0.105164036
81	0x3d53cd52	0.05170948
82	0x3d8acb53	0.06777062
83	0xbdc9bfb1	-0.09851015
84	0x3d9f9379	0.077918
85	0xbd916b42	-0.07100536
86	0x3dc60723	0.0966933
87	0x3a8aa29b	0.0010577025
88	0xbd7a6d8b	-0.061139625
89	0xbdc4f2e9	-0.09616644
90	0x3bc5add1	0.0060326834
91	0x3db27674	0.087139994
92	0xbda41030	-0.080109
93	0xbd8b95b7	-0.06815665
94	0x3db064b4	0.086129576
95	0x3c879856	0.016552132
96	0xbc9c8598	-0.019106671
97	0x3b92334f	0.004461683
98	0x3d11acfb	0.035565358
99	0x3d92b442	0.07163288
100	0xbd0a0f67	-0.033706095
101	0xbd88318b	-0.066500746
102	0x3da2e6fe	0.079542145
103	0xbcb10fb8	-0.02161394
104	0x3dc72088	0.09723002
105	0x3bbc875c	0.005753441
106	0x3da39afd	0.07988546
107	0xbce7939b	-0.028268626
108	0x3d10326a	0.03520433
109	0xbcc48dd7	-0.023993416
110	0xbd3da25d	-0.04629742
111	0x3dc107e0	0.0942533
112	0xbd002bdc	-0.031291828
113	0xbd9672e8	-0.073461354
114	0x3cacdac5	0.021100411
115	0x3d06d4b6	0.0329177
116	0x3dbc25c6	0.09186892
117	0x3da13c98	0.078728855
118	0xbce53497	-0.027979178
119	0xbab0af44	-0.0013479968
120	0x3dac056f	0.08399474
121	0xbcc42ed8	-0.023948118
122	0xbd8d66aa	-0.06904347
123	0xbd989d7e	-0.07451914
124	0x3dc594cb	0.09647521
125	0xbd9880c2	-0.074464336
126	0x3d66a869	0.056312952
127	0xbdadfb37	-0.08495181
128	0x3d541dab	0.051786106
129	0x3ce216ab	0.0275987
130	0x3d132edb	0.035933357
131	0xbdb1accf	-0.08675539
132	0xbc5a6fd7	-0.013332329
133	0x3b99a1fd	0.0046885
134	0x3c6b7050	0.014370039
135	0x3db00177	0.085940294
136	0x3d3d90b4	0.046280578
137	0xbc1d3531	-0.009595201
138	0x3d94f7e0	0.07273841
139	0x3dad90b3	0.08474865
140	0xbd5ed5f7	-0.05440327
141	0x3da07591	0.07834924
142	0xbd31b3c3	-0.043384325
143	0x3d9a48ae	0.07533394
144	0xbd9569e3	-0.07295587
145	0x3d917176	0.07101719
146	0xbd5e5988	-0.054284602
147	0x3d423537	0.04741403
148	0x3d81c42a	0.063362435
149	0xbd7c2bbc	-0.061565146
150	0xbcf86a49	-0.030324118
151	0x3dbf9478	0.0935449
152	0xbd720b94	-0.059093073
153	0x3d81e968	0.06343347
154	0x3c3ec89a	0.011644507
155	0x3d0c44c8	0.034245282
156	0xbc8e93b8	-0.017404422
157	0xbd38a53e	-0.045079462
158	0x3d3958fa	0.04525087
159	0x3ca2e7e0	0.019885957
160	0x3cb95b49	0.022626536
161	0xbdbb7002	-0.09152223
162	0x3da9a06c	0.08282551
163	0xbd2f8067	-0.042847063
164	0x3d994c25	0.074852265
165	0x3d64f1b0	0.055894554
166	0x3d4f9e17	0.050687876
167	0x3ccb34e1	0.024805488
168	0xbc88d250	-0.016701847
169	0xbd994ee6	-0.07485752
170	0xbd9833ed	-0.07431779
171	0xbc2c41a1	-0.010513694
172	0x3ca0c6cf	0.01962605
173	0xbdc75f0d	-0.097349264
174	0x3dc3ce09	0.095607825
175	0xbdbe77ea	-0.093002155
176	0xbd41753a	-0.047230937
177	0xbd680305	-0.056643505
178	0x3dbb19f1	0.09135807
179	0x3cba954b	0.022776267
180	0x3dbd660a	0.09247978
181	0xbd2be55a	-0.041966774
182	0x3da0952a	0.07840951
183	0x3d81cc11	0.06337751
184	0xbbdaedeb	-0.006681194
185	0xbd318dd4	-0.04334815
186	0xbc1c222f	-0.009529634
187	0xbdcb3c22	-0.09923579
188	0xbd73c2b3	-0.05951185
189	0x3d738893	0.05945642
190	0xbda7c213	-0.081913136
191	0x3c38c794	0.011278052
192	0x3d89920b	0.067173086
193	0x3c52f6d8	0.012876235
194	0x3d25128b	0.040300887
195	0x3d21400f	0.03936773
196	0xbc752539	-0.014962488
197	0xbc76d78c	-0.015066039
198	0x3bfc3fa0	0.0076980144
199	0xbcfde4ce	-0.030992892
200	0xbd54c452	-0.05194504
201	0xbcae1174	-0.021248557
202	0xbd612647	-0.054968145
203	0xbd91dee0	-0.07122588
204	0x3d1c284f	0.03812438
205	0x3d6e0c89	0.058117423
206	0x3c3a3bc3	0.011366787
207	0xbd92b368	-0.07163125
208	0xbca2c437	-0.019868953
209	0xbc61db62	-0.013785215
210	0xbcb171de	-0.021660741
211	0x3d654d72	0.05598206
212	0x3dce4132	0.10071029
213	0xbd0a8ed6	-0.033827625
214	0x3d522cff	0.051312443
215	0x3d0d8e79	0.0345597
216	0xbdcbebec	-0.09957108
217	0x3c80ed57	0.015738172
218	0x3da1def4	0.07903853
219	0x3d9a928a	0.07547481
220	0xbdc13e1b	-0.09435674
221	0xbd2239e2	-0.039605983
222	0xbc5d6ef4	-0.013515223
223	0xbd057e30	-0.032591045
224	0x3ca28821	0.019840302
225	0x3c496d58	0.012294136
226	0xbc8c7f2d	-0.017150486
227	0x3d9871e7	0.074436
228	0x3d93ee53	0.07223191
229	0x3cfde825	0.030994484
230	0x3d1e3a60	0.03862989
231	0xbd98fc81	-0.07470036
232	0x3d9c825e	0.07642053
233	0xbc90b32b	-0.017663559
234	0xbd81768e	-0.06321441
235	0x3d82a352	0.06378807
236	0x3d9edcbd	0.07756946
237	0x3c26ff65	0.010192727
238	0x3d6453fe	0.055744164
239	0x3d53b82d	0.051689316
240	0x3d45f6ea	0.04833118
241	0xbc5eac49	-0.013590881
242	0x3ca8ae10	0.020590812
243	0xbc098e18	-0.008395694
244	0xbdb28ac4	-0.08717874
245	0x3da07f5f	0.07836794
246	0xbcb0cb19	-0.02158122
247	0x3d943f7d	0.07238672
248	0xbda6abc9	-0.08138234
249	0xbd1be4ac	-0.038059875
250	0x3ca62df3	0.020285582
251	0xbd9555cb	-0.07291754
252	0x3cbf74d2	0.023371134
253	0x3d0b8b4e	0.0340684
254	0xbdac729a	-0.08420296
255	0xbce8e2fe	-0.02842855

bias f4 [256]
0	0xbdc67e8a	-0.09692104
1	0xbd650c76	-0.055920087
2	0xbda78175	-0.08178989
3	0xbd89ac03	-0.06722262
4	0xbd58c9a5	-0.05292668
5	0xbd19a0f9	-0.03750703
6	0x3d34bd12	0.044125624
7	0x3d1a2efe	0.03764247
8	0x3db44266	0.08801727
9	0xbb84b7af	-0.004050217
10	0xbcbf0aab	-0.023320517
11	0x3db99e6c	0.0906342
12	0x3bdf2488	0.006809775
13	0x3da3e47a	0.08002563
14	0x3dcb2c1c	0.099205226
15	0xbc8051b2	-0.015663955
16	0xbc2bc4d7	-0.010483942
17	0xbd8dd318	-0.069250286
18	0xbd929bd1	-0.07158626
19	0xbd6c6b6b	-0.05771963
20	0x3d2b9ad3	0.0418957
21	0xbb3797c1	-0.0028014036
22	0xbd9b4ccf	-0.075830095
23	0xbd172120	-0.036896825
24	0x3d13bccb	0.03606872
25	0x3d21f8dc	0.03954397
26	0x3d686b0a	0.056742705
27	0x3da57890	0.08079636
28	0xbd4bafb7	-0.04972812
29	0x3d921007	0.07131963
30	0xbda61914	-0.08110252
31	0xbd9e752d	-0.07737193
32	0xbca5ef59	-0.020255731
33	0xbcb789f4	-0.022404648
34	0x3d3d8eff	0.04627895
35	0xbd04aa70	-0.032389104
36	0xbc239343	-0.00998384
37	0x3dce4184	0.1007109
38	0xbd92155f	-0.071329825
39	0xbd86e297	-0.06586187
40	0x3dbcc519	0.09217281
41	0xbdc19fff	-0.09454345
42	0x3d8cc3df	0.06873297
43	0x3d47f171	0.04881424
44	0x3d56aa31	0.0524084
45	0x3cde9413	0.027170217
46	0x3d98705a	0.07443304
47	0xbb5f86d5	-0.0034107466
48	0xbda99488	-0.08280283
49	0xbd5c02d7	-0.053713646
50	0xbd8abd0a	-0.067743376
51	0xbdb6983b	-0.089157544
52	0xbd1c46c0	-0.03815341
53	0x3dc57459	0.09641332
54	0x3daa3a8f	0.083119504
55	0x3d6b84d2	0.057499714
56	0x3dcc067f	0.099621765
57	0xbd323bd0	-0.043514073
58	0xbd42c932	-0.047555156
59	0x3b44a5e1	0.0030006098
60	0x3b8d7379	0.004316744
61	0x3db1f729	0.0868972
62	0x3d94ae7b	0.07259842
63	0xbd89431a	-0.06702252
64	0x3d04adaf	0.0323922
65	0x3d941aed	0.07231698
66	0x3cbb61e4	0.022873826
67	0x3d996e61	0.07491756
68	0xbdc40b73	-0.09572496
69	0x3cafaa34	0.021443464
70	0x3cecd85f	0.028911768
71	0xbdc89c2e	-0.09795414
72	0xbd0b5c3d	-0.034023512
73	0xbd96cb08	-0.07362944
74	0x3d863f36	0.06555025
75	0xbce45a1d	-0.027875
76	0xbce67202	-0.028130535
77	0xbda3aac7	-0.079915576
78	0xbd6e01c0	-0.058107138
79	0xbd9003ef	-0.07032
80	0x3cd48cc1	0.025946023
81	0xbca78f32	-0.020454023
82	0x3dccd0f9	0.10000796
83	0xbd1c7eab	-0.038206737
84	0x3da7c3f6	0.081916735
85	0xbdb7760d	-0.08958063
86	0x3d2082c2	0.0391872
87	0x3d4e6865	0.050392527
88	0xbdb6f70d	-0.0893384
89	0x3d656869	0.056007776
90	0x3dbdba49	0.09264047
91	0x3dc1f9b7	0.094714575
92	0xbdbf3565	-0.09336356
93	0x3dacf136	0.08444445
94	0xbbc8b0aa	-0.0061245756
95	0x3a0309e8	0.00049987296
96	0xbd6ddd45	-0.058072347
97	0x3ca81a2e	0.020520296
98	0xbc23213e	-0.009956656
99	0x3dc8ee52	0.09811081
100	0xbc7aa0c7	-0.015297121
101	0x3cea3abb	0.028592458
102	0x3ce0f27d	0.027459377
103	0xbdb4d692	-0.088299885
104	0xbd74d8b2	-0.05977697
105	0xbda6c6c6	-0.08143382
106	0x3d1f6169	0.038911257
107	0x3dc05c27	0.09392577
108	0x3d2fd742	0.042929895
109	0x3d6bbead	0.05755489
110	0x3cb9d4a0	0.022684395
111	0x3d224466	0.03961601
112	0x3c0f130c	0.0087325685
113	0xbd35f72f	-0.044425186
114	0x3b7ae031	0.00382806
115	0x3c0a260f	0.008431925
116	0x3d18f543	0.037343275
117	0x3d979e92	0.07403292
118	0xbdcb5d17	-0.09929865
119	0xbd6f348c	-0.058399722
120	0x3c0f512c	0.00874738
121	0xbda2a380	-0.079413414
122	0x3d0bcd57	0.034131374
123	0x3d73ea22	0.05954946
124	0xbd3e5076	-0.046463452
125	0xbd68c2d8	-0.056826442
126	0xbdb41e60	-0.08794856
127	0x3d0be6bc	0.034155592
128	0x3cfad4b5	0.030619005
129	0x3c923b4e	0.017850544
130	0xbd38a31d	-0.045077432
131	0x3da641fe	0.08118056
132	0xbc11988a	-0.008886466
133	0x3d294dcc	0.04133396
134	0x3bd981e1	0.006637797
135	0x3d747e77	0.05969092
136	0xbd2708a2	-0.040779717
137	0x3b244ec3	0.002507136
138	0x3da12ec5	0.07870249
139	0x3d95eda9	0.07320721
140	0xbd6b6919	-0.057473276
141	0x3d25a5c4	0.04044129
142	0xbdd292f9	-0.10281939
143	0x3d4b365b	0.049612384
144	0xbd903ef9	-0.07043261
145	0xbd1840b5	-0.037171084
146	0x3db1371e	0.08653091
147	0xbd44b968	-0.04802838
148	0xbd3543b9	-0.04425404
149	0x3c497a7b	0.012297268
150	0x3dc7f9f4	0.09764472
151	0xbdb3b31d	-0.087743975
152	0xbc8a686d	-0.016895497
153	0xbda26e84	-0.079312354
154	0xbd0bba5d	-0.034113277
155	0x3dc3592a	0.09538491
156	0x3cd94ec8	0.026526824
157	0xbd4ceb59	-0.050029133
158	0xbdcf2d49	-0.10116059
159	0xbdd0170a	-0.10160644
160	0xbc73373f	-0.014844715
161	0xbd1f86ed	-0.038947035
162	0xbd86f7b5	-0.06590215
163	0xbdac9dea	-0.08428557
164	0x3da3ac37	0.07991832
165	0xbd7411ec	-0.059587404
166	0xbc188ed7	-0.009311399
167	0xbc32a009	-0.010902413
168	0xbd028c89	-0.031872306
169	0x3dc0c9d8	0.09413499
170	0x3b1d0e83	0.0023964948
171	0x3d615950	0.055016816
172	0xbcf6422d	-0.030060852
173	0x3d344dc5	0.04401948
174	0xbd8fc1bb	-0.07019373
175	0x3dba6986	0.09102158
176	0xbd7e698a	-0.06211237
177	0xbd189f50	-0.037261307
178	0x3d221a9d	0.03957616
179	0xbd0fa264	-0.035066977
180	0x3d5a325d	0.053270686
181	0xbd91cf98	-0.071196735
182	0xbd3d7373	-0.04625268
183	0xbc9e9639	-0.019358741
184	0x3db77a15	0.08958832
185	0xbdb03d66	-0.08605461
186	0xbd65b9fc	-0.05608557
187	0xbd2ee062	-0.042694457
188	0xbd5e2740	-0.05423665
189	0xbd30e8f1	-0.0431909
190	0xbd777015	-0.060409624
191	0x3c56dd03	0.013114217
192	0x3ca7e1be	0.020493384
193	0xbd15afc4	-0.036544576
194	0xbd82a612	-0.06379332
195	0xbdb6d01f	-0.08926415
196	0x3d90738b	0.07053288
197	0x3cc0867d	0.023501629
198	0xbd9d7a0e	-0.07689296
199	0xbd211eea	-0.039336123
200	0x3d9b79ae	0.07591568
201	0xbd42cdcd	-0.04755955
202	0xbce23144	-0.027611382
203	0xbd9e111c	-0.07718107
204	0x3dc33067	0.095307164
205	0xbdb45886	-0.08805947
206	0x3d0a61a5	0.033784527
207	0xbd0cdea3	-0.03439201
208	0xbd78e445	-0.06076457
209	0xbc7b2e3c	-0.015330847
210	0x3c19ad5c	0.009379711
211	0x3dc2f82b	0.095199905
212	0xbd5ec7a3	-0.054389607
213	0xbd1c634c	-0.038180634
214	0xbd41880d	-0.04724889
215	0xbd4f1b74	-0.05056329
216	0x3d64162e	0.055685215
217	0x3b080bd4	0.0020759003
218	0x3c242d05	0.010020499
219	0xbd8c0215	-0.068363346
220	0x3d86bff1	0.06579579
221	0x3d9a0e8e	0.07522307
222	0x3d30a7d3	0.0431288
223	0xbda0807d	-0.07837007
224	0xbcff091c	-0.031132273
225	0x3cf20bbd	0.029546613
226	0xbce615b7	-0.028086526
227	0x3cd36046	0.025802743
228	0x3dc16f10	0.094450116
229	0x3d8dad16	0.06917779
230	0x3d6d187a	0.05788467
231	0x3d1ef991	0.038812224
232	0x3cbd0f11	0.023078473
233	0xbda90a3f	-0.082539074
234	0x3d2e7566	0.04259243
235	0xbc830a78	-0.015996203
236	0x3c860c6f	0.01636335
237	0x3d983ae2	0.07433106
238	0x3d9e73c7	0.077369265
239	0x3ca15c90	0.019697458
240	0xbd926d54	-0.07149759
241	0x3cd5497c	0.026036017
242	0x3dcab5e8	0.09897977
243	0x3d9940ce	0.07483064
244	0x3c86483d	0.016391868
245	0xbd327a43	-0.04357363
246	0xbd1d271b	-0.038367372
247	0xbcb18ede	-0.02167457
248	0xbcd5d11a	-0.026100684
249	0x3d9ff702	0.07810785
250	0xbd88f7f3	-0.066879176
251	0xbd8c4eb0	-0.06850946
252	0xbcda7107	-0.026665224
253	0xbdc4ebe0	-0.09615302
254	0x3d08d2e0	0.03340423
255	0xbd9a6f32	-0.0754074

weight f4 [256]
0	0x3f8039d2	1.0017645
1	0x3f8027fe	1.0012205
2	0x3f801347	1.0005883
3	0x3f7ff69a	0.9998566
4	0x3f7fed4b	0.99971455
5	0x3f8020cc	1.0010009
6	0x3f7ffc7e	0.9999465
7	0x3f7ffe7d	0.99997693
8	0x3f8023ee	1.0010965
9	0x3f8000c1	1.000023
10	0x3f7fa112	0.9985515
11	0x3f7f84f2	0.99812233
12	0x3f7fda0f	0.99942106
13	0x3f7fb441	0.9988442
14	0x3f7fdbab	0.9994456
15	0x3f7f8b07	0.99821514
16	0x3f801b27	1.0008286
17	0x3f7faca9	0.99872833
18	0x3f7f124d	0.996373
19	0x3f800f68	1.0004702
20	0x3f804c19	1.0023223
21	0x3f802194	1.0010247
22	0x3f7fc72c	0.9991329
23	0x3f800f9e	1.0004766
24	0x3f800703	1.000214
25	0x3f7ff745	0.9998668
26	0x3f7fe320	0.9995594
27	0x3f8024cc	1.001123
28	0x3f7fb377	0.99883217
29	0x3f8003f0	1.0001202
30	0x3f80003c	1.0000072
31	0x3f80587d	1.0027004
32	0x3f800c62	1.0003779
33	0x3f8014b3	1.0006317
34	0x3f8018c0	1.0007553
35	0x3f804dda	1.0023758
36	0x3f803138	1.001502
37	0x3f800f28	1.0004625
38	0x3f7fb228	0.9988122
39	0x3f801c56	1.0008647
40	0x3f800403	1.0001224
41	0x3f7f9eb6	0.9985155
42	0x3f8022ee	1.001066
43	0x3f80148d	1.0006272
44	0x3f7fcc63	0.99921244
45	0x3f804699	1.0021545
46	0x3f804226	1.0020187
47	0x3f8000c9	1.000024
48	0x3f800b88	1.0003519
49	0x3f7fc392	0.9990779
50	0x3f80050e	1.0001543
51	0x3f8014ca	1.0006344
52	0x3f7fb16f	0.9988012
53	0x3f7ffe6e	0.99997604
54	0x3f8043ef	1.0020732
55	0x3f8024b8	1.0011206
56	0x3f7faffb	0.998779
57	0x3f7fd399	0.9993225
58	0x3f7fc6e5	0.99912864
59	0x3f801ead	1.0009362
60	0x3f801949	1.0007716
61	0x3f803b54	1.0018106
62	0x3f801095	1.000506
63	0x3f801426	1.0006149
64	0x3f7fcad4	0.99918866
65	0x3f7fab17	0.9987044
66	0x3f800182	1.000046
67	0x3f7fe48a	0.999581
68	0x3f80094d	1.0002838
69	0x3f7fa9bd	0.99868375
70	0x3f801d86	1.000901
71	0x3f7f9946	0.9984325
72	0x3f7fe347	0.9995617
73	0x3f806cd6	1.0033214
74	0x3f8008f1	1.0002729
75	0x3f8039d8	1.0017653
76	0x3f7f1b17	0.9965071
77	0x3f800371	1.000105
78	0x3f7f47ac	0.9971874
79	0x3f801c9b	1.000873
80	0x3f7f8e9c	0.9982698
81	0x3f7f9f21	0.99852186
82	0x3f7fe7ef	0.9996328
83	0x3f801ac7	1.0008172
84	0x3f7fb898	0.9989104
85	0x3f800b6d	1.0003487
86	0x3f803974	1.0017533
87	0x3f8004b6	1.0001438
88	0x3f800d81	1.0004121
89	0x3f7ffd22	0.99995625
90	0x3f7ff103	0.9997713
91	0x3f80184c	1.0007415
92	0x3f802e58	1.0014143
93	0x3f7fe188	0.9995351
94	0x3f7ff464	0.99982285
95	0x3f7fdeaf	0.99949163
96	0x3f7fae40	0.9987526
97	0x3f7fd119	0.9992843
98	0x3f800064	1.0000119
99	0x3f7f6699	0.99765927
100	0x3f7fd978	0.99941206
101	0x3f7f8b5e	0.9982203
102	0x3f8014ab	1.0006307
103	0x3f7fa178	0.99855757
104	0x3f7fc642	0.9991189
105	0x3f8065a5	1.003102
106	0x3f80115b	1.0005296
107	0x3f80105a	1.000499
108	0x3f7fdcfa	0.9994656
109	0x3f7f955b	0.99837273
110	0x3f7fd881	0.99939734
111	0x3f7ff4b9	0.9998279
112	0x3f808247	1.0039757
113	0x3f7ff9e3	0.9999067
114	0x3f800f63	1.0004696
115	0x3f801731	1.0007077
116	0x3f800e74	1.0004411
117	0x3f7fda65	0.9994262
118	0x3f7ff4bc	0.9998281
119	0x3f8004b6	1.0001438
120	0x3f80360b	1.0016493
121	0x3f7feb16	0.9996809
122	0x3f7f7c28	0.9979882
123	0x3f800a7b	1.0003198
124	0x3f800a24	1.0003095
125	0x3f801c91	1.0008718
126	0x3f7fbb5e	0.99895275
127	0x3f7fcae0	0.9991894
128	0x3f801cea	1.0008824
129	0x3f801bfe	1.0008543
130	0x3f7fa17b	0.99855775
131	0x3f80204f	1.000986
132	0x3f7ff4a2	0.99982655
133	0x3f7fa6ca	0.99863875
134	0x3f7fb59f	0.99886507
135	0x3f7ff76a	0.999869
136	0x3f7ff306	0.999802
137	0x3f7fc6be	0.9991263
138	0x3f800754	1.0002236
139	0x3f7fe4ce	0.99958503
140	0x3f8030fd	1.001495
141	0x3f801c19	1.0008575
142	0x3f800d78	1.000411
143	0x3f7ff4b5	0.9998277
144	0x3f7ff8fa	0.99989283
145	0x3f8031bc	1.0015178
146	0x3f7fff3d	0.9999884
147	0x3f7ff1eb	0.9997851
148	0x3f7ffe69	0.99997574
149	0x3f801541	1.0006486
150	0x3f7fd241	0.99930197
151	0x3f803f91	1.0019399
152	0x3f8008a7	1.000264
153	0x3f7fcfce	0.9992646
154	0x3f801c86	1.0008705
155	0x3f7fd1b3	0.9992935
156	0x3f7fa7fa	0.99865687
157	0x3f80042a	1.0001271
158	0x3f7fb5ba	0.9988667
159	0x3f7fd984	0.9994128
160	0x3f800657	1.0001935
161	0x3f802534	1.0011353
162	0x3f80199e	1.0007818
163	0x3f807458	1.0035505
164	0x3f800c44	1.0003743
165	0x3f7fba3d	0.9989355
166	0x3f7fbdd9	0.9989906
167	0x3f8025ca	1.0011532
168	0x3f801935	1.0007693
169	0x3f8049e9	1.0022556
170	0x3f8009e5	1.000302
171	0x3f80015c	1.0000415
172	0x3f7ffdd9	0.99996716
173	0x3f80040a	1.0001233
174	0x3f7f8d64	0.9982512
175	0x3f8006e6	1.0002105
176	0x3f7ff670	0.9998541
177	0x3f7febcb	0.99969167
178	0x3f7fdaa5	0.99943
179	0x3f80310b	1.0014967
180	0x3f7f8508	0.99812365
181	0x3f805358	1.0025434
182	0x3f80328f	1.0015429
183	0x3f7fa1ad	0.9985607
184	0x3f7f9e6c	0.9985111
185	0x3f7f6b6a	0.99773276
186	0x3f802f7f	1.0014495
187	0x3f800c86	1.0003822
188	0x3f7f51dc	0.9973428
189	0x3f7fff90	0.9999933
190	0x3f7f9c49	0.9984785
191	0x3f800ec8	1.0004511
192	0x3f7eb675	0.9949716
193	0x3f7fa844	0.9986613
194	0x3f8012f9	1.000579
195	0x3f7f8698	0.9981475
196	0x3f80372b	1.0016836
197	0x3f8010e4	1.0005155
198	0x3f7ffc7d	0.9999464
199	0x3f8006e0	1.0002098
200	0x3f802aeb	1.0013098
201	0x3f7fb589	0.99886376
202	0x3f80117e	1.0005338
203	0x3f803a49	1.0017787
204	0x3f7fe078	0.9995189
205	0x3f803f4c	1.0019317
206	0x3f7ffbb7	0.9999346
207	0x3f800b17	1.0003384
208	0x3f7f9edc	0.99851775
209	0x3f7fdb96	0.99944437
210	0x3f7fda0d	0.99942094
211	0x3f804341	1.0020524
212	0x3f801c33	1.0008606
213	0x3f800ab5	1.0003268
214	0x3f7ff844	0.999882
215	0x3f7f5026	0.9973167
216	0x3f7fc083	0.99903125
217	0x3f7ff7c6	0.9998745
218	0x3f802126	1.0010116
219	0x3f7fbfe6	0.9990219
220	0x3f7fb643	0.99887484
221	0x3f7fed86	0.99971807
222	0x3f802181	1.0010225
223	0x3f7fcf5b	0.99925774
224	0x3f7fc405	0.9990848
225	0x3f8013fa	1.0006096
226	0x3f8012f8	1.0005789
227	0x3f7ff316	0.99980295
228	0x3f7fa242	0.9985696
229	0x3f7fc21a	0.9990555
230	0x3f7fd279	0.9993053
231	0x3f8019bf	1.0007857
232	0x3f7f9cb5	0.9984849
233	0x3f80154f	1.0006503
234	0x3f7fc86a	0.9991518
235	0x3f806d70	1.0033398
236	0x3f7feff4	0.99975514
237	0x3f8018c5	1.0007559
238	0x3f8023c9	1.0010921
239	0x3f8000c1	1.000023
240	0x3f7fba69	0.99893814
241	0x3f7fb516	0.9988569
242	0x3f7fe581	0.9995957
243	0x3f7f8a84	0.99820733
244	0x3f7fcb56	0.9991964
245	0x3f7fc4d4	0.9990971
246	0x3f80542b	1.0025686
247	0x3f7ff248	0.99979067
248	0x3f800fdb	1.0004839
249	0x3f7fb34b	0.99882954
250	0x3f7fe5e2	0.9996015
251	0x3f800926	1.0002792
252	0x3f7ff42e	0.99981964
253	0x3f802cdd	1.0013691
254	0x3f7fe913	0.9996502
255	0x3f8026bb	1.001182

bias f4 [256]
0	0xba70ee7e	-0.00091908115
1	0xba2228ed	-0.0006185908
2	0x3b043007	0.0020170228
3	0x39e53174	0.0004371513
4	0x3a222f13	0.0006186824
5	0x37934947	1.7557888e-05
6	0x39cfa067	0.00039601626
7	0x3a14bbba	0.00056737254
8	0x3a632837	0.0008665355
9	0xba6c082e	-0.00090039044
10	0x39e3dabc	0.00043459784
11	0xba43e6e6	-0.0007473066
12	0xb99ef2b5	-0.0003031694
13	0x38815eb8	6.168842e-05
14	0xba759769	-0.000936857
15	0xb9f187bd	-0.00046068235
16	0x3ac80124	0.0015259129
17	0x39d5b0b5	0.00040758183
18	0xb9b5e5ca	-0.00034694216
19	0xb98069e4	-0.00024492957
20	0xba882c25	-0.0010389133
21	0xb97d648a	-0.00024165414
22	0x3856d664	5.1221243e-05
23	0x3a280cdd	0.0006410608
24	0x38fa0f2a	0.000119237535
25	0x38f58c2b	0.00011708619
26	0xb78d23ad	-1.6825123e-05
27	0x3ab01a58	0.0013435585
28	0x3a7b54a1	0.0009587501
29	0xb992bd13	-0.0002798816
30	0xb9356e59	-0.00017302613
31	0x3a14214b	0.0005650713
32	0x38596f00	5.184021e-05
33	0x383405d6	4.292078e-05
34	0x3987785a	0.00025838875
35	0x394c7493	0.00019498383
36	0xbaae2688	-0.001328663
37	0x3aa50736	0.001259065
38	0x39eaac78	0.00044760457
39	0xb674e933	-3.6494573e-06
40	0x37a1ddfd	1.9296067e-05
41	0xb97df1d5	-0.0002421805
42	0x393faeb1	0.00018280257
43	0x3987f114	0.00025928824
44	0xb92c5eae	-0.00016438469
45	0x396ff795	0.00022885048
46	0xba1cc59e	-0.0005980375
47	0xb72b4e0d	-1.0210567e-05
48	0xba6d8f16	-0.0009062154
49	0x39942452	0.0002825582
50	0xba81ddbe	-0.0009908003
51	0x39cc8fe1	0.0003901711
52	0x391762f6	0.00014437348
53	0x39cfb054	0.0003961349
54	0x3a89cad1	0.0010512715
55	0xb997eaa9	-0.000289758
56	0xb8b93ec1	-8.833176e-05
57	0x391d2df4	0.00014989806
58	0x39d64cae	0.00040874392
59	0xba208f03	-0.0006124826
60	0x3ac51582	0.0015036317
61	0xb9e6a279	-0.0004399007
62	0x3a699f87	0.0008912016
63	0x3a61c9f3	0.00086131616
64	0x38bfc321	9.143935e-05
65	0x399d7038	0.00030028983
66	0x3a4b0454	0.00077444804
67	0xba8ad678	-0.0010592481
68	0xb9a66eae	-0.0003174445
69	0x396827f5	0.0002214013
70	0x3a1a3969	0.00058831886
71	0x3a57089f	0.0008202884
72	0x39f6ec1a	0.00047096686
73	0x3a2ff3bc	0.00067120395
74	0xbac81fd0	-0.001526827
75	0x3a64b065	0.00087237946
76	0xba11a560	-0.0005555954
77	0xbac051e6	-0.0014672845
78	0x39c1b3aa	0.0003694569
79	0x39ad7977	0.0003308763
80	0xb837d8fc	-4.3832682e-05
81	0x3a4a23a5	0.0007711
82	0x38709d41	5.7366913e-05
83	0xba5bd853	-0.0008386422
84	0x3ac63386	0.0015121556
85	0xb845319f	-4.7014673e-05
86	0xba6d6f18	-0.0009057387
87	0x3a3ee1de	0.00072815816
88	0x3aa8bf21	0.0012874344
89	0x3aa8554e	0.0012842806
90	0xba125978	-0.000558279
91	0x3a29381a	0.0006455198
92	0xb8e23ffe	-0.00010788439
93	0xba8f7944	-0.0010946174
94	0x3992914a	0.0002795554
95	0x39e1a84c	0.00043040735
96	0xba28c0bd	-0.00064374116
97	0x39ca6b3e	0.00038608344
98	0xb9343a75	-0.00017187915
99	0xba38bb3c	-0.0007046943
100	0x3a665420	0.00087863393
101	0xba133d44	-0.0005616734
102	0x3a39835b	0.00070767634
103	0x3a42f19f	0.0007436517
104	0x3a1f33d4	0.00060730916
105	0xba87bfa0	-0.0010356791
106	0x396ba90c	0.00022474321
107	0xbad9a4b3	-0.001660487
108	0xba3b11a7	-0.0007136114
109	0xb96c66dc	-0.00022545032
110	0x3a26c7d7	0.0006362176
111	0xba0b7e6c	-0.00053212675
112	0xb9d4a881	-0.00040561336
113	0x3a6529b8	0.00087418733
114	0x3a3fa1a9	0.0007310161
115	0xb9b28e67	-0.00034056904
116	0x39570f53	0.00020509707
117	0x3a0149f4	0.00049319793
118	0x3a28eb19	0.00064437237
119	0x3a2d08ce	0.0006600738
120	0xb9f5ad42	-0.0004685913
121	0x39bca442	0.00035980536
122	0xb8b1d7d4	-8.480219e-05
123	0xb9f7584b	-0.00047177295
124	0xba5bb8bc	-0.00083817146
125	0x38b5ca47	8.66843e-05
126	0x39669fa8	0.00021993986
127	0x39b0c77c	0.00033717963
128	0x3a6f501b	0.0009129063
129	0x39ef56ae	0.00045650214
130	0xb87cf21f	-6.0306975e-05
131	0x388c1cee	6.681109e-05
132	0xba72be8d	-0.00092599617
133	0x3a1325fa	0.0005613264
134	0xb83f6a42	-4.563691e-05
135	0x3ac9221c	0.0015345248
136	0xba426807	-0.0007416014
137	0x3a3661fb	0.0006957349
138	0x38ce49a4	9.836562e-05
139	0x3ab87d4c	0.0014075427
140	0x3721e90f	9.650611e-06
141	0x3ad9d942	0.0016620534
142	0xb9d1f0f2	-0.00040043105
143	0xb93da208	-0.00018084806
144	0xb99d95a3	-0.00030056862
145	0x3a91e900	0.0011132061
146	0x3ac50c7c	0.0015033628
147	0x3a388648	0.00070390524
148	0xb9110363	-0.00013829539
149	0xba2a2e6d	-0.00064919033
150	0x3a2a7d0f	0.00065036205
151	0x3920a53f	0.00015320348
152	0x3a1d0341	0.00059895596
153	0xbab8168c	-0.0014044805
154	0xba158d19	-0.0005704924
155	0xba7c7aa3	-0.00096313114
156	0x3acea1ac	0.0015764735
157	0xb9d7d3b0	-0.00041165715
158	0x3a59d03d	0.0008308923
159	0x3a58f568	0.00082763145
160	0xb91ae3e2	-0.00014771477
161	0xba4cec82	-0.0007817225
162	0xba7e7747	-0.0009707105
163	0x3a86c55b	0.0010282205
164	0xb88c8fa7	-6.7024775e-05
165	0x3a28b0f4	0.00064350595
166	0x3a8db12b	0.0010810246
167	0x38f86138	0.0001184367
168	0x3a01d62d	0.0004952874
169	0x39544872	0.00020244883
170	0xba248783	-0.00062762963
171	0xb83d2414	-4.5094712e-05
172	0xba76847d	-0.00094038976
173	0x360e880f	2.1238845e-06
174	0x3a46602a	0.000756743
175	0xba16c963	-0.0005752055
176	0xb9d66a25	-0.00040896345
177	0xb8960c97	-7.1549024e-05
178	0x3ab8307e	0.0014052538
179	0xba8849a4	-0.0010397923
180	0xb931cecc	-0.00016957073
181	0xb87f1458	-6.0815684e-05
182	0xb9816038	-0.00024676486
183	0xba9154f8	-0.0011087945
184	0x3a2fd5b8	0.0006707567
185	0xb974ad21	-0.00023334149
186	0xba24a00f	-0.0006279954
187	0x3a1aa8a0	0.0005899761
188	0x3a4b2381	0.0007749126
189	0xb9ae2fbe	-0.00033223437
190	0x3aeb8863	0.0017969724
191	0x3a813bb1	0.0009859708
192	0x399e16f1	0.000301532
193	0x3a980da4	0.0011600745
194	0x39a59610	0.00031583058
195	0xba446d01	-0.00074930495
196	0x39a6c985	0.0003181213
197	0x386b9eec	5.6176374e-05
198	0xba0a0ff5	-0.000526666
199	0x39d8d1bf	0.00041355003
200	0x39af442e	0.000334294
201	0xba3f1464	-0.000728911
202	0x3a6f26ef	0.0009122928
203	0x39296c93	0.00016157543
204	0xb92e1ade	-0.00016603942
205	0x3a53a9e2	0.0008074326
206	0x3918c927	0.00014570785
207	0xb92fd0fa	-0.0001676715
208	0x3923d544	0.00015624339
209	0x3a39cb17	0.00070874527
210	0x3a71fac3	0.0009230787
211	0xba1e00ad	-0.00060273224
212	0xb9d8ea8a	-0.00041373476
213	0x39df80bb	0.00042629786
214	0xba9d62ea	-0.0012007628
215	0xbaa5a874	-0.0012638704
216	0x3994485a	0.00028282666
217	0x3a95b337	0.0011421208
218	0xb8be7fc9	-9.083708e-05
219	0x39594088	0.00020718772
220	0xb9c8debc	-0.00038312923
221	0x3a083cbd	0.0005197039
222	0x3a9bb1de	0.001187857
223	0x38fb2cda	0.00011976967
224	0xba35061f	-0.0006905514
225	0xb80b8dc5	-3.3272216e-05
226	0x3a61a8b7	0.00086082093
227	0x3897b8b3	7.234644e-05
228	0x3a0c75bc	0.000535812
229	0xb9bf5663	-0.00036494722
230	0x3a34e2b7	0.0006900238
231	0xb9b6a1ab	-0.00034834197
232	0x3a607c47	0.00085634406
233	0x3a5b5a12	0.00083676085
234	0x3a3bb4b4	0.0007160411
235	0xba8e49f3	-0.0010855779
236	0xb9135244	-0.00014049659
237	0xba4e2ed4	-0.00078652543
238	0x3a404a7b	0.0007335317
239	0x3ab82560	0.0014049225
240	0xb9947967	-0.00028319212
241	0x3a35c4cf	0.0006933929
242	0xbb06989d	-0.0020537742
243	0x39f7b341	0.00047245066
244	0xba3c2ed4	-0.0007178609
245	0x39876ae7	0.00025828855
246	0xba016b04	-0.0004936906
247	0xba2f3580	-0.00066836923
248	0x3a837a93	0.0010031037
249	0xba0a29ab	-0.0005270491
250	0x3a2552a2	0.0006306564
251	0x38d40119	0.00010109152
252	0xb9126437	-0.00013960978
253	0x3a5d6c8b	0.0008446655
254	0x39d4d3ce	0.00040593598
255	0x38bd8e83	9.038767e-05
