statedicts/torchscript_pl_db_analytical_db_n_b-3_n_s-9_n_m-3_T0_n_t-120000_random_emf_rand_phi_off_b3_seed_2.pt (torch, 228913 bytes, 29 tensors)

weight f4 [13]
0.93658674 0.83052033 0.8309022 0.8932714 0.71302897 1.22625 0.8703733 0.9451463
0.76130414 1.667205 0.92756057 0.9346348 1.0119114
00000000: 26c4 6f3f fb9c 543f 02b6 543f 6fad 643f
00000010: 1189 363f c3f5 9c3f c9d0 5e3f 1cf5 713f
00000020: d4e4 423f f966 d53f 9c74 6d3f 3a44 6f3f
00000030: 5086 813f

bias f4 [13]
-0.024402631 0.013185093 -0.019257208 0.0231817 -0.01658483 -0.16500433 -0.024871683 0.026828663
-0.04134143 -0.38649085 -0.038549133 0.028227754 0.04911093
00000000: 07e8 c7bc 4a06 583c 4bc1 9dbc 8ce7 bd3c
00000010: e9dc 87bc e5f6 28be b3bf cbbc c9c7 db3c
00000020: a255 29bd 21e2 c5be b2e5 1dbd e43d e73c
00000030: 8b28 493d

running_mean f4 [13]
1.5688672 0.26104027 2.1422865 2.5167332 0.5323985 0.16390024 2.3601716 2.6546032
0.3752012 0.057763483 2.7807693 2.8727388 0.2719918
00000000: a4d0 c83f 12a7 853e 391b 0940 2812 2140
00000010: 454b 083f 77d5 273e 0d0d 1740 05e5 2940
00000020: 5f1a c03e 6799 6c3d 20f8 3140 f4da 3740
00000030: 8242 8b3e

running_var f4 [13]
0.46665803 0.00022252547 0.23827448 0.07566333 0.06460088 4.0023482e-05 0.11585065 0.034831956
0.031835914 3.827314e-06 0.018002398 0.013408333 0.015281392
00000000: cded ee3e ba55 6939 3afe 733e 60f5 9a3d
00000010: 774d 843d e3de 2738 1b43 ed3d f4ab 0e3d
00000020: 6066 023d 606c 8036 c479 933c a0ae 5b3c
00000030: ce5e 7a3c

weight f4 [96, 13]
0.0022592752 -0.1681942 0.15366097 0.08197372 0.0037921118 -0.24673797 -0.113558955 0.026357781
-0.13778119 0.35411522 0.07175292 0.08645285 0.18676952 0.06451418 -0.13727157 -0.24295765
0.037606303 -0.23840646 -0.2766948 0.06723207 0.17949058 -0.18707524 -0.27777115 0.22539178
-0.083316214 0.15794866 0.009970912 0.25310162 0.14845696 -0.1363958 -0.0627368 0.1458457
0.19168127 -0.22663298 -0.21592706 -0.10350605 0.2769975 -0.1728414 0.067904316 0.13185602
-0.24244241 0.08802271 -0.26185107 0.18423498 0.16924013 0.17028494 -0.16442882 -0.101958305
0.16743891 -0.053966634 -0.08894966 0.13153306 -0.18781339 -0.2246841 0.028072886 -0.18722357
-0.12380044 -0.1581018 -0.21152434 0.049440723 0.057371862 0.027700702 0.26517543 -0.18810238
-0.17115185 -0.1610781 0.09453102 -0.14087687 0.12148756 -0.13401076 0.13518126 -0.23943974
-0.08132666 -0.18536226 0.156884 -0.26267666 -0.08888108 0.020640185 -0.086593844 0.1023735
-0.1169929 0.05772968 0.23109093 -0.21777166 0.23225826 -0.09862446 0.09485478 -0.0037014827
-0.11965467 0.3110023 -0.10644268 0.024549507 0.10919822 -0.15270546 -0.034738846 0.11371064
-0.21568298 0.09048776 -0.008614713 -0.1740579 0.37449354 -0.17414221 0.18059726 -0.18918675
-0.10480016 0.022225428 0.20434654 -0.22269598 -0.19819956 0.119595036 -0.26182586 -0.23658177
-0.07652562 0.27409187 -0.08018014 0.23093092 -0.033446766 -0.023410268 -0.099576905 0.0970944
-0.089689575 -0.068451345 0.26420844 0.11466731 -0.17345937 0.17831875 0.14077374 -0.048440833
0.18610547 0.09924895 0.015762456 -0.1217699 0.22543475 -0.022691308 0.1615466 0.17192389
-0.15265079 -0.16392468 -0.16017541 -0.43788737 0.17272659 0.15606613 -0.021030158 -0.17890647
-0.15943995 0.1545676 0.13053055 0.18114728 0.23382545 0.089973636 0.13899776 0.28163186
-0.2523747 0.21521226 0.017919922 -0.25160375 -0.06775835 -0.18142556 0.05633264 0.17788605
-0.07879467 -0.075353876 -0.22804856 -0.051011723 0.120963536 -0.02606639 -0.22808538 -0.06929678
0.08022664 -0.021600824 0.04097503 -0.1730736 0.17217778 -0.084333345 0.13549538 -0.1397422
0.2022275 0.04777667 0.20046861 -0.17014657 -0.102111496 0.004782048 -0.15046094 0.10396112
0.12237379 -0.07928216 0.16679583 0.20963053 -0.14310572 -0.19941817 -0.20073359 0.23866087
-0.017741341 -0.024711628 0.025184454 0.2230364 -0.17042169 -0.1091422 -0.2115795 -0.13462752
0.17252812 0.23105335 0.20425819 -0.10420732 0.07065783 0.23467927 -0.1433898 -0.0037593474
0.067678474 -0.06695114 0.2241838 0.07050189 -0.25616315 0.21677907 0.13210395 -0.06648402
-0.23310176 0.09819637 -0.0048973607 -0.18151003 0.10236822 0.20929483 -0.18910472 -0.24409647
0.107351504 0.16710803 -0.19886605 0.24971817 -0.15139697 -0.0051516723 0.04196024 -0.2681658
-0.27968562 -0.20557837 -0.05346722 0.043178637 0.1975915 -0.15219791 0.02594608 -0.3005398
-0.11977065 0.10371894 -0.10962238 0.11919968 0.16595525 0.03427815 0.13998418 0.116762064
0.014639705 0.008448027 0.17401205 0.2598991 0.06064577 0.10085457 0.2225865 -0.24104874
00000000: 5910 143b 1a3b 2cbe 4d59 1d3e d6e1 a73d
00000010: 1485 783b e1a8 7cbe 9991 e8bd 46ec d73c
00000020: 8316 0dbe 974e b53e 32f3 923d 310e b13d
00000030: 8240 3f3e 0320 843d eb90 0cbe e4c9 78be
00000040: 1109 1a3d d320 74be f1aa 8dbe f8b0 893d
00000050: 61cc 373e a790 3fbe 0538 8ebe 1acd 663e
00000060: b1a1 aabd 4bbd 213e 095d 233c 8996 813e
00000070: 1a05 183e 57ab 0bbe 277c 80bd 9358 153e
00000080: 1848 443e 7a12 68be fc1b 5dbe fbfa d3bd
00000090: 9ed2 8d3e 56fd 30be 6b11 8b3d 4405 073e
000000a0: d342 78be 4045 b43d 5811 86be 18a8 3c3e
000000b0: 494d 2d3e 2d5f 2e3e 0760 28be 84cf d0bd
000000c0: 1b75 2b3e 1e0c 5dbd 3d2b b6bd 9ab0 063e
000000d0: 2752 40be 9713 66be 1cf9 e53c 89b7 3fbe
000000e0: 168b fdbd 70e5 21be d699 58be 5b82 4a3d
000000f0: c2fe 6a3d 95ec e23c 13c5 873e e99d 40be
00000100: 6e42 2fbe a8f1 24be 7b99 c13d 0742 10be
00000110: 78ce f83d 1e3a 09be f56c 0a3e b12f 75be
00000120: 988e a6bd 9bcf 3dbe 33a6 203e 8e7d 86be
00000130: 4907 b6bd 9b15 a93c 1d58 b1bd 33a9 d13d
00000140: f999 efbd f575 6c3d 1aa3 6c3e 89ff 5ebe
00000150: 1cd5 6d3e 9ffb c9bd 3943 c23d 9394 72bb
00000160: 820d f5bd b23b 9f3e 9ffe d9bd 0c1c c93c
00000170: 51a3 df3d d25e 1cbe 524a 0ebd 20e1 e83d
00000180: 00dc 5cbe a651 b93d ba24 0dbc 3c3c 32be
00000190: 9ebd bf3e 5652 32be 7dee 383e 2cba 41be
000001a0: 77a1 d6bd 1a12 b63c 3840 513e 6a0a 64be
000001b0: d3f4 4abe 3eee f43d 0a0e 86be 7e42 72be
000001c0: 77b9 9cbd c555 8c3e 7c35 a4bd 2879 6c3e
000001d0: 7aff 08bd e4c6 bfbc faee cbbd 6ed9 c63d
000001e0: 2baf b7bd 3830 8cbd 5446 873e b2d6 ea3d
000001f0: 559f 31be 3199 363e fe26 103e e569 46bd
00000200: 6f92 3e3e 0943 cb3d 4420 813c 7f62 f9bd
00000210: 5ed8 663e 1fe3 b9bc 796c 253e d10c 303e
00000220: 7d50 1cbe dfdb 27be 0605 24be c632 e0be
00000230: 3ddf 303e cdcf 1f3e 7047 acbc 4233 37be
00000240: 3a44 23be f846 1e3e cda9 053e ac7e 393e
00000250: f06f 6f3e 1944 b83d 6e55 0e3e 0d32 903e
00000260: 4237 81be 9a60 5c3e cdcc 923c 35d2 80be
00000270: e4c4 8abd 9fc7 39be 0ebd 663d c327 363e
00000280: 1a5f a1bd 2253 9abd 9085 69be abf1 50bd
00000290: bbbb f73d 2f89 d5bc 378f 69be 78eb 8dbd
000002a0: dd4d a43d 36f4 b0bc 6fd5 273d 353a 31be
000002b0: 5f4f 303e f6b6 acbd 4dbf 0a3e 9418 0fbe
000002c0: ba14 4f3e 78b1 433d a547 4d3e e73a 2ebe
000002d0: d51f d1bd bab2 9c3b 6f12 1abe 91e9 d43d
000002e0: 1c9f fa3d af5e a2bd 87cc 2a3e 63a9 563e
000002f0: 4e8a 12be 4734 4cbe 1b8d 4dbe 8463 743e
00000300: 4a56 91bc 0a70 cabc a14f ce3c a763 643e
00000310: 0683 2ebe f285 dfbd 4ca8 58be ccdb 09be
00000320: 36ab 303e 4099 6c3e 0f29 513e a66a d5bd
00000330: 0db5 903d c34f 703e c7d4 12be 625f 76bb
00000340: 039b 8a3d ae1d 89bd 7090 653e 4b63 903d
00000350: d127 83be 55fb 5d3e 4246 073e c628 88bd
00000360: 3ab2 6ebe 2e1b c93d 0a7a a0bb c4dd 39be
00000370: 6ea6 d13d 6251 563e aba4 41be 6df4 79be
00000380: 1bdb db3d 5e1e 2b3e 8ba3 4bbe 1fb6 7f3e
00000390: cf07 1bbe 5ccf a8bb 80de 2b3d 074d 89be
000003a0: f432 8fbe 2383 52be 7200 5bbd 15dc 303d
000003b0: 6d55 4a3e c5d9 1bbe e08c d43c 5ae0 99be
000003c0: 514a f5bd 986a d43d b381 e0bd f61e f43d
000003d0: 2cf0 293e 3f67 0c3d 0358 0f3e f320 ef3d
000003e0: 60db 6f3c 9869 0a3c 3730 323e 7f11 853e
000003f0: b367 783d d78c ce3d b7ed 633e 7bd5 76be

bias f4 [96]
-0.11277439 -0.2055908 -0.08622365 -0.12145563 0.2157451 -0.12005162 -0.06184208 0.053433284
0.1544146 0.31521326 -0.2134354 -0.23178416 0.24987695 0.07266853 0.035765033 -0.17667998
-0.0071721156 0.044161163 -0.05300948 0.1292658 0.06644005 -0.15010428 0.13597015 0.007611904
0.051715683 0.28892192 0.10620744 -0.121150464 -0.23132278 0.15663634 0.25199288 -0.033307105
0.024810335 -0.03827488 -0.060210146 0.13340177 -0.15056755 0.21918835 0.044593595 0.120815806
0.037671193 0.04999496 -0.26017147 0.06955396 0.2414879 -0.14796175 0.04857317 0.22929749
0.15147911 0.23943126 0.25345504 -0.24708083 0.27855304 -0.12925887 0.20432259 -0.15915717
0.13896315 -0.10571072 -0.23520835 -0.21907988 -0.20416698 -0.18850383 -0.13686828 0.109257445
-0.10782337 -0.10332641 0.21179444 0.27551115 -0.18632613 -0.0329212 -0.23547487 -0.216872
-0.22171612 -0.06868469 -0.14008887 0.21603 0.27708107 -0.058719516 -0.13205138 0.19453947
0.17423394 0.2654365 0.12938797 -0.1556591 0.07108244 -0.0736452 0.12190402 -0.07317518
-0.14457224 -0.0026385374 -0.06300719 0.15658449 0.0108438935 0.16365089 0.1364296 0.09352174
00000000: 42f6 e6bd 6586 52be 0696 b0bd bbbd f8bd
00000010: 49ec 5c3e a0dd f5bd 1f4e 7dbd dcdc 5a3d
00000020: dc1e 1e3e a263 a13e cf8e 5abe d458 6dbe
00000030: bedf 7f3e 3dd3 943d 5b7e 123d 99eb 34be
00000040: 1104 ebbb 56e2 343d 7820 59bd 415e 043e
00000050: b911 883d f0b4 19be c23b 0b3e 476d f93b
00000060: d3d3 533d 93ed 933e 4983 d93d bc1d f8bd
00000070: e1df 6cbe 4765 203e 3605 813e 086d 08bd
00000080: 0b3f cb3c 1fc6 1cbd ea9e 76bd 799a 083e
00000090: 612e 1abe e972 603e c6a7 363d 476e f73d
000000a0: 1c4d 1a3d 84c7 4c3d 3235 85be 4e72 8e3d
000000b0: 9b48 773e 4983 17be a9f4 463d f6cc 6a3e
000000c0: 571d 1b3e 782d 753e dcc4 813e c202 7dbe
000000d0: 819e 8e3e 705c 04be f139 513e 19fa 22be
000000e0: 5b4c 0e3e dd7e d8bd 75da 70be 7a56 60be
000000f0: 2611 51be 2607 41be 3327 0cbe 5ec2 df3d
00000100: 80d2 dcbd cc9c d3bd a4e0 583e cc0f 8d3e
00000110: 47cc 3ebe 61d8 06bd 5320 71be b213 5ebe
00000120: 8d09 63be 8faa 8cbd 7573 0fbe f836 5d3e
00000130: 92dd 8d3e e083 70bd 7a38 07be 5b35 473e
00000140: 626a 323e 4be7 873e 487e 043e 1965 1fbe
00000150: ac93 913d 4bd3 96bd d1a8 f93d dedc 95bd
00000160: bf0a 14be 50eb 2cbb ea09 81bd af57 203e
00000170: 96aa 313c 1994 273e 33b4 0b3e 5388 bf3d

weight f4 [96]
1.0069852 1.0212873 0.9924921 0.9878435 0.9940872 1.0018957 0.9923079 0.99725974
0.99313956 1.0277787 1.0262817 0.9820555 1.000287 1.0214517 1.0090886 0.9987108
0.98665 0.98736125 1.010937 1.0001678 1.0015434 0.9937777 0.9942603 0.9841803
0.9984063 1.0195358 0.99997014 0.9866921 0.98972696 0.9939075 1.0037444 0.9871492
1.0188383 0.9774642 0.98199815 1.0212191 0.9945498 0.99451977 0.9977745 0.9785031
0.9990309 1.0106663 1.0006596 1.0143113 1.0117246 1.0063668 0.9943457 0.98733693
0.99529463 1.0031691 0.9982829 0.98783046 1.0955296 0.99236614 1.0021933 1.0075389
0.9936097 1.0057586 1.0181147 0.994992 0.9731594 1.0012467 0.9958634 0.98917
1.0180379 0.9930048 0.98126006 0.99630946 0.99551743 0.9975729 0.99431896 0.9957694
1.0232338 0.9894233 0.9865351 1.0267171 1.0092347 1.0096424 1.0309539 1.004371
0.990872 1.0026768 0.99668705 0.97700757 1.0073876 0.99505687 0.9934488 1.003714
0.9797313 0.9887901 0.9983244 1.003112 0.9839243 0.99959457 0.99018735 0.9840075
00000000: e4e4 803f 8bb9 823f f613 7e3f 50e3 7c3f
00000010: 807c 7e3f 1e3e 803f e407 7e3f 6a4c 7f3f
00000020: 653e 7e3f 418e 833f 335d 833f fd67 7b3f
00000030: 6809 803f eebe 823f d129 813f 83ab 7f3f
00000040: 1895 7c3f b5c3 7c3f 6266 813f 8005 803f
00000050: 9332 803f 3768 7e3f d887 7e3f 3df3 7b3f
00000060: 8e97 7f3f 2680 823f 0bfe 7f3f da97 7c3f
00000070: bf5e 7d3f b970 7e3f b27a 803f cfb5 7c3f
00000080: 4b69 823f 183b 7a3f 3b64 7b3f 4fb7 823f
00000090: d19a 7e3f d998 7e3f 266e 7f3f 2e7f 7a3f
000000a0: 7dc0 7f3f 835d 813f 9d15 803f f4d4 813f
000000b0: 3180 813f a1d0 803f 718d 7e3f 1dc2 7c3f
000000c0: a1cb 7e3f d867 803f 788f 7f3f 75e2 7c3f
000000d0: 503a 8c3f b50b 7e3f df47 803f 09f7 803f
000000e0: 355d 7e3f b3bc 803f 9551 823f ccb7 7e3f
000000f0: f920 793f da28 803f e7f0 7e3f 3f3a 7d3f
00000100: 114f 823f 9035 7e3f dc33 7b3f 230e 7f3f
00000110: 3bda 7e3f f060 7f3f b08b 7e3f beea 7e3f
00000120: 53f9 823f d84a 7d3f 908d 7c3f 776b 833f
00000130: 9a2e 813f f63b 813f 4cf6 833f 3b8f 803f
00000140: caa9 7d3f b757 803f e226 7f3f 2b1d 7a3f
00000150: 14f2 803f 0cbc 7e3f a952 7e3f b379 803f
00000160: accf 7a3f 5921 7d3f 3092 7f3f f965 803f
00000170: 77e2 7b3f 6ee5 7f3f eb7c 7d3f eae7 7b3f

bias f4 [96]
-0.0023874647 -0.004715014 0.013411326 -0.00019765724 0.00036411383 0.0051979097 0.0011769998 -0.0027584683
-0.00090555765 -0.011279872 -0.007827921 0.005170183 0.008231798 -0.00062743237 -0.004518008 0.0006733538
0.003376319 -0.0106473295 0.00093118614 0.0036462499 -0.0013640412 -0.0023973356 1.2235237e-06 -0.0074678324
-0.0026078192 -0.0011968698 0.002137029 -0.0059775193 -0.0014367438 -0.0011425897 -0.00031488642 -0.003165576
-0.009529937 0.0054456587 0.00045848626 0.0047843154 0.0034048103 0.0002857259 0.0007642571 -0.0037028035
-0.0005031963 0.0032773153 0.0040823612 -0.0020783327 -0.0023285935 -0.012183792 0.0048130685 0.0003522538
-0.005620901 0.006702336 -0.0044779857 0.0005297751 0.0029007266 0.005740448 0.0026266302 -0.0021455293
-0.001227415 -0.0049084555 -0.003245677 0.00028185072 0.004212962 -0.0060538617 -0.005710547 0.00063199364
-0.008557966 0.0011954224 -0.0033330952 0.003966327 0.00060335256 -0.0075199134 0.0010561576 0.0030647642
-0.0052554496 0.0029318184 -0.0015229854 -0.007825127 -0.008682943 -0.0071811113 -0.0145768905 0.002842832
0.0047451123 -0.0054836194 0.0062353862 -0.0049242163 0.0027071058 -0.006596484 0.006508059 -0.008455035
-0.0019331602 0.0030651453 0.0085241925 -5.283097e-05 0.007186573 -0.010266031 0.008529981 0.010407355
00000000: 0377 1cbb 6780 9abb 2ebb 5b3c 3642 4fb9
00000010: 88e6 be39 3a53 aa3b 8f45 9a3a 6bc7 34bb
00000020: f262 6dba 36cf 38bc ae40 00bc a36a a93b
00000030: aade 063c 467a 24ba cc0b 94bb 0284 303a
00000040: 3c45 5d3b 2372 2ebc d81a 743a ecf5 6e3b
00000050: a1c9 b2ba 9e1c 1dbb f437 a435 b8b4 f4bb
00000060: f2e7 2abb 49e0 9cba 660d 0c3b 11df c3bb
00000070: 1f51 bcba f3c2 95ba 5717 a5b9 8d75 4fbb
00000080: 7423 1cbc 7f71 b23b fc60 f039 bfc5 9c3b
00000090: 3d23 5f3b 7bcd 9539 6d58 483a bcaa 72bb
000000a0: efe8 03ba 3ac8 563b 54c5 853b a334 08bb
000000b0: 519b 18bb 879e 47bc f2b6 9d3b b4ae b839
000000c0: 892f b8bb 459f db3b 11bc 92bb 9be0 0a3a
000000d0: 1e1a 3e3b 5e1a bc3b 8b23 2c3b 029c 0cbb
000000e0: 37e1 a0ba 1cd7 a0bb 6db5 54bb 5dc5 9339
000000f0: e30c 8a3b 795f c6bb 8a1f bbbb 60ac 253a
00000100: b636 0cbc b8af 9c3a 0f70 5abb f6f7 813b
00000110: 4e2a 1e3a 9b69 f6bb c56e 8a3a 36da 483b
00000120: e835 acbb c023 403b e99e c7ba f634 00bc
00000130: e742 0ebc 874f ebbb e9d3 6ebc ce4e 3a3b
00000140: e37c 9b3b efaf b3bb 3652 cc3b 525b a1bb
00000150: b369 313b 5227 d8bb 8e41 d53b fd86 0abc
00000160: 1862 fdba 9be0 483b 0ea9 0b3c d296 5db8
00000170: 587d eb3b db32 28bc 55c1 0b3c 9c83 2a3c

running_mean f4 [96]
0.033310294 0.24659501 0.20675726 0.07271741 0.32340282 0.13902995 0.14759716 0.09605177
0.22596577 0.22083934 0.107967645 0.17598636 0.37328163 0.13377586 0.1821363 0.11865817
0.2501566 0.28096607 0.11492531 0.40365097 0.36175123 0.22063094 0.34779197 0.17899135
0.17932129 0.3221815 0.2586897 0.094910264 0.26993254 0.22445667 0.46260548 0.2391581
0.39657786 0.20967622 0.26532832 0.4692955 0.08297871 0.332129 0.14825368 0.2345871
0.28173724 0.18761256 0.26996613 0.21116312 0.23217835 0.118099466 0.4288876 0.20481509
0.24435794 0.45173553 0.27947095 0.085477285 0.19696146 0.3273343 0.312002 0.1698896
0.31657943 0.23898666 0.27646777 0.11419801 0.10105914 0.15818502 0.18357748 0.28646824
0.07830353 0.15155807 0.32376203 0.24236664 0.12804149 0.2745118 0.12004384 0.05623016
0.19433431 0.1684777 0.20404597 0.35445246 0.35320583 0.15831767 0.175031 0.4377175
0.2353531 0.39128023 0.25405833 0.111406 0.23362598 0.17401911 0.2888972 0.30820465
0.091857664 0.2725946 0.18149725 0.16033483 0.1468808 0.18848406 0.23913053 0.26118386
00000000: 6070 083d 6783 7c3e 2db8 533e deec 943d
00000010: 0e95 a53e de5d 0e3e b623 173e cab6 c43d
00000020: 9263 673e b523 623e 241e dd3d c535 343e
00000030: c51e bf3e 8afc 083e f081 3a3e 0e03 f33d
00000040: 8714 803e c9da 8f3e f65d eb3d 57ab ce3e
00000050: 7537 b93e 14ed 613e ca11 b23e 8249 373e
00000060: 00a0 373e f9f4 a43e fa72 843e 5060 c23d
00000070: 9934 8a3e f8d7 653e a0da ec3e dce5 743e
00000080: 410c cb3e 5db5 563e 1dd9 873e 8047 f03e
00000090: bef0 a93d d00c aa3e d0cf 173e 9a37 703e
000000a0: dd3f 903e 821d 403e 0039 8a3e 253b 583e
000000b0: 29c0 6d3e 22de f13d 2897 db3e 0cbb 513e
000000c0: f838 7a3e e149 e73e d116 8f3e b70e af3d
000000d0: 44b0 493e 5d98 a73e babe 9f3e 8af7 2d3e
000000e0: b316 a23e ebb8 743e 2f8d 8d3e a5e0 e93d
000000f0: 18f8 ce3d 41fb 213e bcfb 3b3e f7ab 923e
00000100: 9a5d a03d 0a32 1b3e 23c4 a53e f62e 783e
00000110: 4f1d 033e d08c 8c3e 8bd9 f53d 9951 663d
00000120: 93ff 463e 6b85 2c3e 6df1 503e cb7a b53e
00000130: 65d7 b43e 071e 223e 543b 333e 821c e03e
00000140: 6700 713e e255 c83e ef13 823e d428 e43d
00000150: a63b 6f3e 1132 323e 55ea 933e 00cd 9d3e
00000160: df1f bc3d 8591 8b3e 6ada 393e d02e 243e
00000170: ec67 163e f701 413e a2de 743e e4b9 853e

running_var f4 [96]
0.0070324624 0.10158509 0.07744345 0.025775328 0.14175127 0.063419215 0.0617179 0.029199658
0.096327074 0.026508668 0.03135038 0.09004657 0.16104771 0.028427247 0.081271455 0.048450645
0.11531117 0.16493748 0.029769836 0.21523887 0.21030493 0.15233234 0.14137217 0.06601572
0.08013832 0.18343976 0.08020388 0.03181269 0.15383685 0.07687807 0.15879965 0.13866766
0.21343912 0.08398017 0.20632406 0.32802078 0.028054694 0.17953095 0.043426875 0.09167029
0.09108492 0.065652065 0.21973804 0.07459183 0.07810842 0.04205584 0.33354098 0.06375411
0.1061188 0.26655313 0.10563801 0.040340226 0.008669227 0.25554365 0.056593392 0.10157761
0.13099219 0.12452788 0.17148858 0.057378933 0.03875813 0.057274118 0.08156772 0.13589765
0.019115768 0.05319519 0.13503556 0.05436672 0.046430137 0.14387968 0.052675914 0.018452154
0.087036036 0.05328413 0.12597884 0.07453902 0.18064953 0.043615296 0.052876808 0.1975788
0.08476296 0.18211757 0.059075788 0.037449002 0.070989504 0.066631064 0.098731324 0.1527034
0.024200873 0.14118378 0.07242359 0.0454376 0.049515672 0.06612074 0.09805605 0.12134092
00000000: 9270 e63b d80b d03d ac9a 9e3d c826 d33c
00000010: 3f27 113e efe1 813d e9cb 7c3d 1f34 ef3c
00000020: 2147 c53d b528 d93c 4269 003d 566a b83d
00000030: b1e9 243e 42e0 e83c a671 a63d 2f74 463d
00000040: 4328 ec3d 5fe5 283e dfdf f33c 9467 5c3e
00000050: 2d5a 573e 02fd 1b3e dec3 103e 4033 873d
00000060: 8f1f a43d a2d7 3b3e ef41 a43d 064e 023d
00000070: 6887 1d3e 4072 9d3d 609c 223e e5fe 0d3e
00000080: c98f 5a3e ccfd ab3d 9d46 533e 57f2 a73e
00000090: f5d2 e53c f6d6 373e 61e0 313d a2bd bb3d
000000a0: bb8a ba3d 9774 863d 0203 613e 9ac3 983d
000000b0: 4ff7 9f3d bf42 2c3d e2c5 aa3e 8491 823d
000000c0: d054 d93d a779 883e be58 d83d cb3b 253d
000000d0: 6009 0e3c 9ed6 823e 79ce 673d ec07 d03d
000000e0: d122 063e 7908 ff3d b49a 2f3e 2c06 6b3d
000000f0: d8c0 1e3d 4498 6a3d fa0c a73d c128 0b3e
00000100: ac98 9c3c 33e3 593d c346 0a3e a3af 5e3d
00000110: 872d 3e3d 3255 133e b3c2 573d f928 973c
00000120: f33f b23d 7640 5a3d 9900 013e eaa7 983d
00000130: 31fc 383e f4a5 323d 5a95 583d 1952 4a3e
00000140: 3498 ad3d 077d 3a3e 74f9 713d 2064 193d
00000150: f262 913d de75 883d a633 ca3d 485e 1c3e
00000160: e940 c63c 7b92 103e d252 943d c71c 3a3d
00000170: f2d0 4a3d 4f6a 873d 9cd1 c83d 9781 f83d

weight f4 [256, 96]
0.044763915 -0.07357776 0.011496539 0.06200241 0.039571013 -0.09522047 0.06454318 0.042261567
-0.042541157 0.051284265 -0.095307186 0.050916348 -0.047436655 -0.045918044 0.019701043 -0.03842863
-0.06290012 -0.07051019 -0.010398922 0.0751399 0.060114667 -0.091700345 0.021570036 0.0609038
0.09390177 0.05754031 0.06862025 0.0488007 0.046237983 -0.054213613 0.06547107 0.047116414
-0.051025875 0.07024504 0.077720456 0.072916485 -0.057270657 0.008642015 -0.016586317 0.0071366057
0.092485115 0.0332785 0.022785347 -0.037953336 0.054515064 -0.04764511 0.05929671 -0.01761042
0.09241398 -0.07346299 0.077652596 0.02134352 0.112199664 0.09102579 0.020713454 -0.056501932
0.06759039 -0.06558317 0.02571682 -0.09343736 -0.07863081 -0.009353713 -0.060541976 -0.048708778
-0.07918927 -0.046933938 0.001582779 0.04073881 0.0748612 0.082422085 0.082402006 0.004499488
-0.07601285 0.040573217 -0.09927277 0.03708102 0.041017514 0.026116764 -0.0916051 0.097165674
0.00036629572 0.035725065 -0.08422252 -0.046415523 -0.054803465 -0.0021351362 -0.09164467 0.04930581
0.06873007 0.08592411 0.08368131 -0.005185173 -0.064106576 0.0946586 -0.099591635 0.08107138
-0.074187905 -0.058315407 0.041116394 -6.350937e-05 -0.07875956 -0.034575675 0.06458905 0.042481013
-0.025896909 -0.054891348 -0.010174783 0.08269175 0.0046655694 -0.0243204 0.022760382 0.05519886
-0.028018517 -0.04179723 0.026603095 -0.030428043 0.04402829 -0.022065451 -0.036154706 -0.05011584
-0.06181528 0.012933464 0.071204394 -0.022961205 -0.045589913 -0.02484985 -0.08673543 -0.078735165
0.10537228 0.0037894316 -0.087215394 0.013524368 -0.044859663 0.016155733 0.043588188 -0.05806186
-0.05672066 0.046236355 -0.046549078 0.00887519 -0.10835577 -0.066580564 -0.09123103 0.07824411
0.031325128 -0.06937314 -0.05974358 -0.05157517 -0.08509105 0.10471998 -0.023657357 0.00804937
-0.07703081 -0.0252543 0.052801684 0.023409484 0.0009455913 0.014496763 0.081362076 -0.07383951
0.033790447 0.012005692 0.059791755 -0.0018837117 -0.00579147 -0.0658184 0.090014406 0.056733385
-0.08406505 0.08160363 -0.008994084 0.020173045 -0.043874692 0.065816104 0.0053857276 0.022117516
0.070734076 -0.095369816 -0.023559334 -0.0785882 -0.046510585 0.044982746 0.000950235 0.08374702
-0.050020635 0.08710671 0.079284646 -0.08016065 -0.031368818 -0.048974384 0.083466746 0.06838063
0.025949268 -0.047999695 -0.06733321 0.047484685 0.020786082 -0.0960767 0.008366771 -0.08571821
-0.022281205 0.077093825 -0.037319865 -0.08393643 0.0041927625 0.080494955 0.02967159 -0.008913586
-0.08108183 -0.040801425 -0.09347774 -0.007939502 -0.0033434639 -0.024856806 0.016656764 -0.08007637
0.019591805 -0.04385623 -0.004026274 0.02057116 -0.07019381 -0.08129808 0.0028653422 -0.084852554
-0.028508643 -0.041430723 0.043510985 -0.021558214 0.004355766 -0.025445553 -0.050136566 0.072585225
0.017104184 0.07443504 0.06067589 0.040287748 -0.045991816 0.01491822 0.07756393 -0.06507888
0.055765662 0.060803168 -0.018412067 0.010692875 -0.015378199 0.0041616224 -0.055674586 -0.0037054091
0.04901037 0.0012608675 0.03956284 -0.029133005 -0.050904024 -0.036924675 -0.06352787 0.019225366
00000000: 5e5a 373d f0af 96bd fb5b 3c3c 3df6 7d3d
00000010: 3715 223d f302 c3bd 372f 843d 771a 2d3d
00000020: a33f 2ebd 730f 523d 6a30 c3bd a98d 503d
00000030: f04c 42bd 8f14 3cbd 1564 a13c 5767 1dbd
00000040: c7d1 80bd a667 90bd 3d60 2abc f3e2 993d
00000050: cc3a 763d 64cd bbbd a5b3 b03c 4376 793d
00000060: 924f c03d 63af 6b3d c688 8c3d 3ee3 473d
00000070: 0a64 3d3d 180f 5ebd b215 863d 24fd 403d
00000080: 8200 51bd a2dc 8f3d e72b 9f3d 3d55 953d
00000090: a394 6abd 3d97 0d3c 07e0 87bc 30da e93b
000000a0: d668 bd3d 094f 083d 56a8 ba3c f574 1bbd
000000b0: 304b 5f3d 8527 43bd 1be1 723d ba43 90bc
000000c0: 8a43 bd3d c473 96bd 5308 9f3d 9bd8 ae3c
000000d0: f0c8 e53d bb6b ba3d 43af a93c 926e 67bd
000000e0: d56c 8a3d 7850 86bd 15ac d23c 165c bfbd
000000f0: 3109 a1bd 5140 19bc ddfa 77bd db82 47bd
00000100: fc2d a2bd cd3d 40bd 4075 cf3a bddd 263d
00000110: d450 993d e9cc a83d 62c2 a83d 7170 933b
00000120: a0ac 9bbd 1a30 263d 864f cbbd 45e2 173d
00000130: fb01 283d d3f2 d53c 749b bbbd ccfe c63d
00000140: 610b c039 7254 123d db7c acbd 341e 3ebd
00000150: 9979 60bd a4ed 0bbb 33b0 bbbd e4f4 493d
00000160: 5ac2 8c3d fbf8 af3d 1b61 ab3d 62e8 a9bb
00000170: 4f4a 83bd 5edc c13d b3f6 cbbd c008 a63d
00000180: d4ef 97bd 23dc 6ebd aa69 283d 5530 85b8
00000190: b14c a1bd 399f 0dbd 4447 843d 9200 2e3d
000001a0: c125 d4bc c0d5 60bd 22b4 26bc 4b5a a93d
000001b0: a2e1 983b 933b c7bc fb73 ba3c 3318 623d
000001c0: 1787 e5bc 9233 2bbd bcee d93c 3b44 f9bc
000001d0: 0257 343d 9bc2 b4bc f516 14bd 4446 4dbd
000001e0: 0532 7dbd e1e6 533c 9cd3 913d 2319 bcbc
000001f0: 7dbc 3abd ea91 cbbc 58a2 b1bd e73f a1bd
00000200: 6ccd d73d 1d58 783b fc9d b2bd 5095 5d3c
00000210: c4be 37bd 0759 843c 8789 323d 46d2 6dbd
00000220: ec53 68bd 5562 3d3d 3faa 3ebd 3f69 113c
00000230: a1e9 ddbd 645b 88bd 56d7 babd 733e a03d
00000240: c74e 003d 8113 8ebd afb5 74bd 7c40 53bd
00000250: 3744 aebd 6e77 d63d 13cd c1bc 81e1 033c
00000260: 54c2 9dbd 1be2 cebc 9446 583d 3fc5 bf3c
00000270: 8fe1 773a d583 6d3c 29a1 a63d 2b39 97bd
00000280: da67 0a3d 86b3 443c 33e8 743d e0e6 f6ba
00000290: 5fc6 bdbb cccb 86bd 7959 b83d 4461 683d
000002a0: 4c2a acbd ce1f a73d ec5b 13bc f141 a53c
000002b0: f3b5 33bd 98ca 863d c27a b03b cb2f b53c
000002c0: 07dd 903d 4051 c3bd 81ff c0bc daf2 a0bd
000002d0: e281 3ebd d43f 383d 3119 793a 8f83 ab3d
000002e0: 70e2 4cbd 0165 b23d fd5f a23d 442b a4bd
000002f0: 977c 00bd 5d99 48bd 9df0 aa3d 250b 8c3d
00000300: 8f93 d43c 549b 44bd fee5 89bd 4d7f 423d
00000310: 9347 aa3c dcc3 c4bd c814 093c 078d afbd
00000320: 1387 b6bc 5ee3 9d3d b7dc 18bd dde6 abbd
00000330: 7163 893b 8ada a43d d611 f33c 4a0a 12bc
00000340: 3b0e a6bd 651f 27bd 4271 bfbd af14 02bc
00000350: 041e 5bbb 80a0 cbbc c473 883c 14ff a3bd
00000360: fe7e a03c 97a2 33bd d6ee 83bb d984 a83c
00000370: c6c1 8fbd 9c7f a6bd 77c8 3b3b 2dc7 adbd
00000380: f58a e9bc 43b3 29bd 9338 323d da9a b0bc
00000390: d0ba 8e3b 3173 d0bc 005c 4dbd 90a7 943d
000003a0: 131e 8c3c 6671 983d 4887 783d c404 253d
000003b0: ea61 3cbd 8d6b 743c d6d9 9e3d 1348 85bd
000003c0: 896a 643d be0c 793d e7d4 96bc 2b31 2f3c
000003d0: d7f4 7bbc 385e 883b 090b 64bd 73d6 72bb
000003e0: 19bf 483d b143 a53a a50c 223d 57a8 eebc
000003f0: bd80 50bd 543e 17bd e61a 82bd 847e 9d3c

bias f4 [256]
-0.006771265 -0.09010683 0.09794767 0.042552415 0.04852055 0.031592995 -0.059802234 -0.03415098
-0.023895383 -0.088381834 -0.074743964 -0.10103561 -0.0895729 -0.06308626 -0.04630099 0.017637353
0.035709303 0.07303734 0.06275486 0.09458879 0.08323131 -0.091613196 0.06708082 -0.0013070165
-0.048849996 -0.103740215 0.062094398 -0.014151975 -0.05454235 -0.044860408 0.07172932 0.056737762
-0.070114926 0.03269502 -0.094662465 0.013135323 -0.014808536 0.09403345 0.0410743 -0.09195647
0.09616405 0.05955977 0.094068706 -0.02076036 -0.010101384 -0.047074687 0.10485647 0.06308167
-0.017269887 -0.079196215 0.061028104 0.0030081612 0.055683482 0.0025931462 0.04480035 0.050170816
-0.083704025 0.049465504 0.08980306 0.011175893 -0.08279809 -0.033098813 0.07416957 0.07606674
-0.049274087 0.06405872 0.019686656 0.059777807 -0.033257585 -0.0012460157 0.015645662 0.054219235
0.07037247 0.028110586 -0.04182286 0.028013198 -0.043282628 -0.038343847 0.009383067 -0.093691856
0.036217615 -0.0680844 0.05612883 0.034058046 0.022847526 -0.0330514 0.10572646 0.07206804
0.038923994 0.014972586 -0.024814922 -0.01659089 0.01325001 0.062304713 0.10051549 0.0069588744
0.0946753 0.027132977 -0.06860785 -0.009253488 -0.00025319736 -0.08445769 -0.07639528 0.022906361
-0.016425872 0.002438102 0.08789284 0.068953685 -0.044848226 0.073866986 0.03454533 -0.037391786
-0.021794489 0.10144109 0.07641532 -0.038788896 0.048661154 -0.062834576 -0.057116285 -0.006386726
-0.0777088 0.013716015 0.07407448 0.07103233 -0.08858158 -0.05421364 -0.056381576 -0.02877748
-0.07984096 0.07898546 0.002079983 0.08159805 -0.0054048663 -0.10464275 -0.034621686 0.008745536
-0.09208069 0.050569136 0.08982519 -0.06317464 -0.0970094 0.032362625 -0.057477094 0.055545762
-0.065172695 0.055028982 -0.09963318 -0.037859075 -0.049577475 -0.08259695 -0.03231565 0.086115494
0.087169565 0.096937455 -0.046623874 -0.029144045 -0.019151967 -0.06522203 0.044691075 -0.029752107
0.04074209 -0.08104425 -0.080624856 -0.08248408 0.04252813 0.0823594 -0.07855979 0.028990265
0.06322923 0.06819809 -0.011423581 0.014806721 0.054745648 0.111838296 -0.059920557 -0.090792
-0.08331092 0.062117144 -0.04982402 -0.01641667 0.05610126 0.036161307 -0.08730837 -0.10133019
0.094694 0.047164865 0.049811482 -0.06195337 -0.04981804 0.06944271 0.016715698 0.043772027
0.08152076 0.06321774 -0.03265631 0.052983623 0.06597291 0.061446633 0.06407732 -0.026585655
0.016687207 -0.039230395 0.02285557 -0.03632079 0.079606645 -0.05847912 0.0809779 0.099867016
0.0753321 0.0080638435 0.0675743 -0.090227365 0.05659545 0.0674526 -0.050422296 -0.106274866
-0.0106549505 0.068385124 -0.08033747 -0.0584644 0.07987564 0.07435601 0.03838876 -0.057363454
0.07114446 0.032435156 0.02087009 -0.0922725 -0.03699469 0.017871108 0.09254241 0.047146197
0.06373189 0.063489296 0.05972031 -0.025108842 0.07525659 0.0030800607 0.057667688 0.07282424
0.077155896 0.03964705 0.080914676 -0.08881508 0.002417502 -0.019569838 -0.054669295 -0.04565459
0.0782761 0.090590276 -0.011544241 -0.016085451 0.0787867 0.0151749 -0.019795012 0.046297364
00000000: 7de1 ddbb ee89 b8bd ca98 c83d 714b 2e3d
00000010: 7cbd 463d a867 013d 30f3 74bd e6e1 0bbd
00000020: 40c0 c3bc 8901 b5bd 5d13 99bd c2eb cebd
00000030: ff71 b7bd 5e33 81bd 1ba6 3dbd 367c 903c
00000040: eb43 123d 9a94 953d 9f85 803d c4b7 c13d
00000050: 2d75 aa3d b39f bbbd ab61 893d 3250 abba
00000060: ef16 48bd c075 d4bd b256 7e3d afdd 67bc
00000070: cd67 5fbd 8cbf 37bd d2e6 923d db65 683d
00000080: 6a98 8fbd 37eb 053d 65de c1bd 8a35 573c
00000090: 809f 72bc 9c94 c03d 863d 283d ac53 bcbd
000000a0: a8f1 c43d f2f4 733d 18a7 c03d a111 aabc
000000b0: 4680 25bc 63d1 40bd fdbe d63d f630 813d
000000c0: 9479 8dbc a031 a2bd 9bf8 793d 9224 453b
000000d0: 5d14 643d c6f1 293b 9280 373d ea7f 4d3d
000000e0: 046d abbd 579c 4a3d abea b73d 181b 373c
000000f0: 0c92 a9bd 9f92 07bd 37e6 973d e1c8 9b3d
00000100: a0d3 49bd 3831 833d e945 a13c 93d9 743d
00000110: 1b39 08bd 5951 a3ba 552b 803c fd14 5e3d
00000120: 711f 903d 2c48 e63c 724e 2bbd ef7b e53c
00000130: 2049 31bd 700e 1dbd 6fbb 193c 84e1 bfbd
00000140: ec58 143d d56f 8bbd 58e7 653d 7380 0b3d
00000150: bc2a bb3c e860 07bd 1d87 d83d 6998 933d
00000160: c46e 1f3d 944f 753c aa48 cbbc 9ee9 87bc
00000170: 9216 593c 3a33 7f3d 11db cd3d 4507 e43b
00000180: 20e5 c13d fa45 de3c 4682 8cbd f19b 17bc
00000190: 93bf 84b9 27f8 acbd 2175 9cbd 1fa6 bb3c
000001a0: 8d8f 86bc 90c8 1f3b 2901 b43d 9737 8d3d
000001b0: c6b2 37bd 9347 973d 677f 0d3d 2128 19bd
000001c0: 5b8a b2bc 59c0 cf3d a37f 9c3d 1be1 1ebd
000001d0: eb50 473d 6aaf 80bd c4f2 69bd be47 d1bb
000001e0: cb25 9fbd 23b9 603c 5cb4 973d 6679 913d
000001f0: 426a b5bd 1f0f 5ebd 5ef0 66bd c0be ebbc
00000200: a883 a3bd 21c3 a13d 5350 083b e11c a73d
00000210: 4e1b b1bb f04e d6bd 78cf 0dbd 7049 0f3c
00000220: cd94 bcbd 9521 4f3d 45f6 b73d b561 81bd
00000230: ddac c6bd ac8e 043d 1a6d 6bbd f483 633d
00000240: 4379 85bd 1266 613d 7b0c ccbd 1e12 1bbd
00000250: c011 4bbd 9728 a9bd 6a5d 04bd 525d b03d
00000260: f585 b23d 2587 c63d adf8 3ebd 7ebf eebc
00000270: 96e4 9cbc 2193 85bd fd0d 373d b1ba f3bc
00000280: 2ee1 263d 87fa a5bd a51e a5bd 6aed a8bd
00000290: fa31 2e3d 0cac a83d f5e3 a0bd fe7c ed3c
000002a0: 547e 813d 71ab 8b3d f929 3bbc e497 723c
000002b0: f93c 603d 7a0b e53d 426f 75bd 28f1 b9bd
000002c0: ea9e aabd 8c6e 7e3d 4614 4cbd 417c 86bc
000002d0: 6fca 653d e11d 143d bbce b2bd 3486 cfbd
000002e0: eeee c13d f22f 413d 2007 4c3d d1c2 7dbd
000002f0: 000e 4cbd fb37 8e3d 5cef 883c 4c4a 333d
00000300: 5bf4 a63d 4d78 813d 9fc2 05bd 5b05 593d
00000310: ce1c 873d 77af 7b3d f83a 833d 29ca d9bc
00000320: 9cb3 883c 0db0 20bd 9b3b bb3c 1cc5 14bd
00000330: cf08 a33d cd87 6fbd bed7 a53d 1487 cc3d
00000340: b747 9a3d 361e 043c 6564 8a3d 20c9 b8bd
00000350: a1d0 673d 9724 8a3d 9c87 4ebd a3a6 d9bd
00000360: 1a92 2ebc 800d 8c3d f987 a4bd 5e78 6fbd
00000370: d795 a33d f747 983d 883d 1d3d f1f5 6abd
00000380: 30b4 913d bada 043d c0f7 aa3c 5df9 bcbd
00000390: be87 17bd 6e66 923c e086 bd3d 5f1c 413d
000003a0: dd85 823d ad06 823d 499d 743d 0fb1 cdbc
000003b0: 2120 9a3d d8da 493b f434 6c3d e024 953d
000003c0: e903 9e3d f264 223d 98b6 a53d aee4 b5bd
000003d0: f46e 1e3b ed50 a0bc e9ec 5fbd 4f00 3bbd
000003e0: 384f a03d 6587 b93d 0e24 3dbc a3c5 83bc
000003f0: ec5a a13d 25a0 783c 2629 a2bc 4ea2 3d3d

weight f4 [256]
1.0018182 1.0000291 0.99924535 0.99843776 0.99469507 0.9923156 0.9987622 1.0000417
0.9966591 1.0047947 0.9995188 1.000188 1.0030975 0.99059033 0.99762625 0.9934813
1.0028068 1.0004741 1.0022658 1.0111699 1.0002551 1.0004321 1.0040975 1.0003008
0.99653286 1.003281 1.0030882 0.9973405 1.0041723 0.9978779 0.9949282 0.9954798
1.0027827 1.0056716 0.9984513 1.0032992 0.9999021 0.9972211 1.0079825 1.0019562
1.0038396 0.9968849 0.9997153 1.0002167 1.0122321 1.0004084 0.9999189 0.9991599
0.99560213 1.0013359 1.0041022 0.9961842 0.99903184 0.99289525 0.9926895 0.9996905
0.99900144 0.9983597 0.9944826 1.0015273 0.9965499 1.0058733 0.99882287 0.99965197
0.9991334 0.9989623 1.0048388 0.99843216 0.99466795 0.99776083 1.0029169 1.0010754
0.99927205 0.99587184 0.9980944 1.0035608 0.9946251 0.99550945 1.0023118 0.9968542
1.0005991 0.999837 0.9911586 0.9969428 0.9973067 0.9971174 1.0031888 0.9962641
1.0038931 0.9926189 1.0037347 1.0003494 0.9991886 1.0022203 0.9990354 1.0104431
0.9983049 0.9968003 1.0011863 1.0029277 1.001968 0.9946511 0.99716413 1.0024208
0.995871 0.999115 0.9971428 0.99792904 0.9974772 0.99357384 0.99983144 1.0005056
0.99969274 0.9963891 0.99772686 1.0033493 1.0005245 0.99601644 0.99935824 0.9973988
1.0074 0.9981071 0.99531615 0.9933813 0.99741906 1.0018715 0.9948166 0.9996228
0.99944425 0.99935013 1.0017179 0.9971542 0.99821806 1.0017989 0.99577993 0.9951273
1.0014393 1.001212 0.99993235 1.0009356 0.998042 0.99698627 1.0025874 1.0037627
0.99976164 0.9956539 1.0017642 1.0064992 0.99678624 0.9970627 1.006545 1.002757
0.9989886 1.0029864 0.99425924 1.0009853 1.0012739 0.9992467 1.012916 1.0038506
0.99772924 1.0041006 1.0005255 0.9994749 0.99908 0.9986581 0.9949143 0.99506074
1.0056595 0.9947616 1.0071404 1.0007945 1.0033431 1.0095619 1.001751 0.9950111
1.00609 1.0003144 0.99869806 1.0000015 1.0032468 0.9951914 1.0080588 1.0006987
1.0010772 1.0009142 1.0049257 0.99390894 0.9976799 1.0000334 1.0082166 1.0046993
0.99766475 1.0068343 1.0009614 0.99889785 1.0018601 0.99794537 0.9990312 0.9983174
0.99972945 0.9985638 1.0001606 1.0009669 1.0026054 1.0013279 0.9997391 0.99255
1.0030196 0.9954215 1.0025412 1.0000125 0.9980245 0.9985534 0.99913293 1.001218
1.0010184 1.0038022 1.0028726 1.0057296 1.0034739 1.0071442 1.0006022 0.9972638
0.99517614 0.99595857 0.99754286 0.99552006 0.9930929 1.0024936 1.00151 0.9976213
1.0052514 1.0030801 1.0072651 1.0047643 1.0007834 0.99436647 1.0001025 1.0025574
0.9973133 1.0051945 0.9987469 0.996333 1.0077311 0.9997642 0.99992293 1.0037644
1.0036498 1.0021313 0.9993741 0.9981055 1.0016347 0.99815893 0.99832153 1.0015155
00000000: 943b 803f f400 803f 8bce 7f3f 9e99 7f3f
00000010: 56a4 7e3f 6508 7e3f e1ae 7f3f 5e01 803f
00000020: 0d25 7f3f 1d9d 803f 77e0 7f3f 2906 803f
00000030: 8065 803f 5497 7d3f 6f64 7f3f ca54 7e3f
00000040: f95b 803f 890f 803f 3f4a 803f 046e 813f
00000050: 5c08 803f 290e 803f 4486 803f db09 803f
00000060: c71c 7f3f 836b 803f 3265 803f b551 7f3f
00000070: b888 803f ed74 7f3f 9db3 7e3f c4d7 7e3f
00000080: 2f5b 803f d9b9 803f 819a 7f3f 1c6c 803f
00000090: 96f9 7f3f e249 7f3f 9205 813f 1a40 803f
000000a0: d17d 803f d933 7f3f 58ed 7f3f 1a07 803f
000000b0: d290 813f 620d 803f affa 7f3f f1c8 7f3f
000000c0: c8df 7e3f c62b 803f 6c86 803f ed05 7f3f
000000d0: 8dc0 7f3f 622e 7e3f e620 7e3f b7eb 7f3f
000000e0: 8fbe 7f3f 8094 7f3f 6996 7e3f 0c32 803f
000000f0: e51d 7f3f 75c0 803f dbb2 7f3f 31e9 7f3f
00000100: 35c7 7f3f febb 7f3f 8f9e 803f 4099 7f3f
00000110: 8fa2 7e3f 416d 7f3f 955f 803f 3d23 803f
00000120: 4bd0 7f3f 75f1 7e3f 1d83 7f3f ae74 803f
00000130: c09f 7e3f b5d9 7e3f c14b 803f d631 7f3f
00000140: a213 803f 51f5 7f3f 92bc 7d3f a537 7f3f
00000150: 7e4f 7f3f 1643 7f3f 7e68 803f 2a0b 7f3f
00000160: 927f 803f 461c 7e3f 617a 803f 730b 803f
00000170: d3ca 7f3f c148 803f c9c0 7f3f 3356 813f
00000180: e990 7f3f 4e2e 7f3f df26 803f ef5f 803f
00000190: 7d40 803f 74a1 7e3f 2646 7f3f 534f 803f
000001a0: 67f1 7e3f 00c6 7f3f c044 7f3f 4778 7f3f
000001b0: aa5a 7f3f db5a 7e3f f4f4 7f3f 9110 803f
000001c0: ddeb 7f3f 5b13 7f3f 076b 7f3f c06d 803f
000001d0: 3011 803f effa 7e3f f1d5 7f3f 8755 7f3f
000001e0: 7cf2 803f f283 7f3f 0acd 7e3f 3d4e 7e3f
000001f0: db56 7f3f 533d 803f 4dac 7e3f 48e7 7f3f
00000200: 94db 7f3f 69d5 7f3f 4b38 803f 7f45 7f3f
00000210: 388b 7f3f f23a 803f 6feb 7e3f aac0 7e3f
00000220: 2a2f 803f b727 803f 91fb 7f3f a81e 803f
00000230: ae7f 7f3f 7e3a 7f3f c954 803f 4c7b 803f
00000240: 61f0 7f3f 2de3 7e3f cf39 803f f7d4 803f
00000250: 622d 7f3f 803f 7f3f 77d6 803f 575a 803f
00000260: b8bd 7f3f dc61 803f c687 7e3f 4920 803f
00000270: be29 803f a2ce 7f3f 3ba7 813f 2d7e 803f
00000280: 2f6b 7f3f 5e86 803f 3811 803f 96dd 7f3f
00000290: b5c3 7f3f 0fa8 7f3f b4b2 7e3f 4dbc 7e3f
000002a0: 73b9 803f b2a8 7e3f fae9 803f 091a 803f
000002b0: 8c6d 803f 5339 813f 6039 803f 0cb9 7e3f
000002c0: 8fc7 803f 4d0a 803f adaa 7f3f 0d00 803f
000002d0: 646a 803f ddc4 7e3f 1208 813f e516 803f
000002e0: 4c23 803f f51d 803f 68a1 803f d170 7e3f
000002f0: f367 7f3f 1801 803f 3e0d 813f fd99 803f
00000300: f566 7f3f f2df 803f 811f 803f c5b7 7f3f
00000310: f43c 803f 5979 7f3f 82c0 7f3f bb91 7f3f
00000320: 45ee 7f3f e1a1 7f3f 4305 803f af1f 803f
00000330: 6055 803f 832b 803f e7ee 7f3f c217 7e3f
00000340: f262 803f f2d3 7e3f 4553 803f 6900 803f
00000350: 897e 7f3f 32a1 7f3f 2dc7 7f3f e927 803f
00000360: 5f21 803f 977c 803f 215e 803f bfbb 803f
00000370: d571 803f 1aea 803f bc13 803f ae4c 7f3f
00000380: ddc3 7e3f 24f7 7e3f f85e 7f3f 67da 7e3f
00000390: 563b 7e3f b651 803f 7b31 803f 1c64 7f3f
000003a0: 14ac 803f ee64 803f 10ee 803f 1e9c 803f
000003b0: ac19 803f cd8e 7e3f 5c03 803f cd53 803f
000003c0: ed4f 7f3f 37aa 803f e0ad 7f3f ae0f 7f3f
000003d0: 55fd 803f 8cf0 7f3f f3fa 7f3f 5a7b 803f
000003e0: 9977 803f d745 803f fbd6 7f3f d883 7f3f
000003f0: 9135 803f 5887 7f3f 0092 7f3f a931 803f

bias f4 [256]
-0.008002559 -0.0004405258 0.0020558257 -0.0027027589 0.0030411412 0.003672598 0.0017513084 -0.0059286393
-0.0031667596 -0.008537818 -0.0037437666 -0.0057225837 0.0058641275 -0.0043344293 -0.0046402067 -0.001227707
0.0040669604 -0.0014856692 -0.005108247 -0.008644071 -0.0050240373 -0.0032168499 -0.008669871 0.005507085
-0.007228689 -0.0023614941 -0.0012784057 0.001405807 0.0011428379 0.006357954 0.0012361816 0.0027669964
-0.0052538365 -0.0026056466 -0.0024957897 -0.0041854186 0.0013199988 0.0028308313 -0.0042613195 0.0018410393
0.004083847 0.00021143659 0.0027101776 -0.0024093403 -1.7244882e-05 -0.00054509944 0.0074609895 -0.0007020724
0.006135419 -0.00523099 -0.005842043 -0.000761217 0.005296064 0.001274147 -0.0047939233 -0.002214655
-0.00080557377 -0.008503589 -0.0031142544 -0.0059904796 -0.0018490133 0.0055649355 -0.00049492245 -0.0047011133
0.0038367454 0.002615275 -0.004898966 -0.0035893423 -0.0014066045 -0.004605417 0.00530004 -0.0036770597
-0.0052899662 -0.005453548 -0.0031967587 -0.008364683 0.0010403169 0.0063068336 0.011741265 -0.0039640316
-0.0006756441 -0.008100648 -0.004441131 -0.0043097585 -0.0010322598 -0.0009720082 -0.003645818 -0.007859612
-0.0014296268 -0.0040942333 -0.003965022 0.0003303986 -0.0004978338 0.0028812273 0.004382041 0.004304822
0.0038833548 0.0059487647 -0.0005292603 0.004268076 0.0025311033 -0.0024563784 0.0034953423 0.0034860515
0.008375266 0.0036504748 -0.0035138181 -0.00094420236 -0.0009864308 -0.002045136 0.0007516291 -0.003983987
-0.0061431574 0.0057110735 -0.0098463725 -0.006216813 0.0009235612 0.0015410114 -0.006243261 0.006186316
9.812049e-05 -0.005102392 0.0055168895 -0.0058469772 0.0057859225 -0.004438796 0.002219871 -0.005030176
-0.0020657163 0.001997856 -0.0032400812 0.0012926846 0.0067720534 -0.0034028462 6.245117e-05 0.0011632831
0.00816725 -0.0025709036 0.0034786009 0.0016193319 0.0019999396 0.0002991165 0.0024160992 0.00095797033
-0.0011721186 0.0020939445 -0.0028263575 -0.005972901 -0.0035657743 -0.0041308375 0.008030552 -0.0022715516
0.007966527 -0.0031469977 0.006248117 0.002477074 -0.0018638332 0.0012274988 -0.008129365 -0.00022500908
0.0030228575 0.0016175077 -0.0034490922 0.005663054 0.002686545 -0.0019153131 -0.0014847076 -0.002561658
0.00036459084 0.0001413164 -0.0011171835 0.0019638308 -0.0015460062 0.0014010462 0.0054564183 0.005779142
0.007102397 0.0035964206 -0.00229786 -0.0020255246 -0.005283189 -0.0065749087 -0.008964627 0.0013090831
-0.0015691391 0.0031086022 -0.00010236429 -0.007622228 0.0044422806 -0.0017908271 0.005423946 -0.0004478687
-0.0027420565 -0.000612756 0.0053145406 -0.00033202718 -0.0015962032 -0.0022916563 0.00078668975 -0.001019475
0.0005399193 -0.0012006119 -0.002941493 0.0027404248 -0.004336245 -0.008461845 0.0039314665 0.0012826229
-0.00012575678 0.0016216383 -0.0033892505 0.0022826963 -0.0060029333 0.00078460434 0.0033091872 0.0077759665
-0.0012137116 -0.0021852932 -0.0042854967 -0.006441238 0.0054286704 0.007474325 -0.002355506 -0.008312013
-0.0024381063 0.001647597 -0.0054034777 0.0018160266 -0.00072858925 -0.002190656 -0.0039169304 0.0012221171
0.0055344296 0.0023253344 -0.0018668898 -0.005864069 0.0005993101 0.004857333 0.0020668022 0.0005344356
0.006008432 0.003271484 -0.0050201546 -0.0005953293 -0.0025099113 -0.0009153006 0.0016318564 0.0031729937
0.0051511065 0.0038575842 0.0024228052 -0.0031970744 -0.0022448853 -0.0058577918 9.871e-05 0.0066785514
00000000: 2a1d 03bc 5ff6 e6b9 08bb 063b c520 31bb
00000010: e24d 473b f8af 703b 298c e53a 0845 c2bb
00000020: 6989 4fbb 34e2 0bbc fb59 75bb 8384 bbbb
00000030: de27 c03b d407 8ebb e00c 98bb 03eb a0ba
00000040: 2344 853b c9ba c2ba 1563 a7bb dd9f 0dbc
00000050: aea0 a4bb c9d1 52bb 130c 0ebc c774 b43b
00000060: a3de ecbb 4cc3 1abb 2d90 a7ba 0e43 b83a
00000070: 47cb 953a 6256 d03b 5f07 a23a 7f56 353b
00000080: 6028 acbb 7fc3 2abb 6790 23bb d625 89bb
00000090: cf03 ad3a 7885 393b 8aa2 8bbb 074f f13a
000000a0: cbd1 853b 14b5 5d39 3c9d 313b 06e6 1dbb
000000b0: 1aa9 90b7 01e5 0eba 517b f43b 480b 38ba
000000c0: a00b c93b b968 abbb 9c6e bfbb 688c 47ba
000000d0: 9b8a ad3b 4701 a73a 5816 9dbb bf23 11bb
000000e0: 242d 53ba a352 0bbc 8518 4cbb c94b c4bb
000000f0: 975a f2ba 105a b63b afbd 01ba cc0b 9abb
00000100: e871 7b3b 0965 2b3b 8187 a0bb 2c3b 6bbb
00000110: d15d b8ba 0ae9 96bb f5ab ad3b d3fa 70bb
00000120: 7457 adbb adb3 b2bb b680 51bb 060c 09bc
00000130: 3e5b 883a 8ea9 ce3b 6f5e 403c b5e4 81bb
00000140: b51d 31ba 95b8 04bc e886 91bb e038 8dbb
00000150: e44c 87ba 5ece 7eba adee 6ebb 9ac5 00bc
00000160: 5162 bbba eb28 86bb 04ed 81bb 5939 ad39
00000170: 1081 02ba f9d2 3c3b 3997 8f3b 770f 8d3b
00000180: e27f 7e3b dbed c23b 0fbe 0aba 37db 8b3b
00000190: dee0 253b 31fb 20bb 1d12 653b 3d76 643b
000001a0: 6938 093c ce3c 6f3b 1648 66bb 5984 77ba
000001b0: 204b 81ba b007 06bb fa08 453a 1b8c 82bb
000001c0: 8a4c c9bb f523 bb3b ae52 21bc 68b6 cbbb
000001d0: 251b 723a c3fb c93a 4594 ccbb 94b6 ca3b
000001e0: 09c6 cd38 f731 a7bb 06c7 b43b 0098 bfbb
000001f0: d697 bd3b 5273 91bb 417b 113b 2dd4 a4bb
00000200: f860 07bb 76ee 023b 8b57 54bb 4c6f a93a
00000210: 1ae8 dd3b 4902 5fbb 37f8 8238 4e79 983a
00000220: eecf 053c 9b7c 28bb 3df9 633b c33f d43a
00000230: 6b11 033b bdd2 9c39 6b57 1e3b 4d20 7b3a
00000240: c6a1 99ba 8f3a 093b 693a 39bb 53b8 c3bb
00000250: c4af 69bb fa5b 87bb 9492 033c 50de 14bb
00000260: 0986 023c dc3d 4ebb 01bd cc3b 6856 223b
00000270: dd4b f4ba 06e4 a03a 0731 05bc 6af0 6bb9
00000280: 221b 463b 8d02 d43a 2a0a 62bb 2491 b93b
00000290: bf10 303b 3e0b fbba 859a c2ba 7de1 27bb
000002a0: 8e26 bf39 552e 1439 756e 92ba 9db3 003b
000002b0: 5ca3 caba 4fa3 b73a c1cb b23b f55e bd3b
000002c0: 39bb e83b edb1 6b3b b297 16bb aabe 04bb
000002d0: 9a1e adbb 5572 d7bb 5fe0 12bc 8a95 ab3a
000002e0: 92ab cdba b1b9 4b3b 69ac d6b8 e2c3 f9bb
000002f0: 8d90 913b 30ba eaba 5bbb b13b ebcf eab9
00000300: 13b4 33bb 5ca1 20ba 9925 ae3b ef13 aeb9
00000310: b137 d1ba 9d2f 16bb db39 4e3a e89f 85ba
00000320: 5f89 0d3a da5d 9dba 10c6 40bb b398 333b
00000330: 0f17 8ebb 8da3 0abc 88d3 803b af1d a83a
00000340: 94dd 03b9 278d d43a 301e 5ebb 4a99 153b
00000350: 41b4 c4bb e8ad 4d3a f3de 583b 89cd fe3b
00000360: 6715 9fba 2337 0fbb 5a6d 8cbb 0511 d3bb
00000370: fde2 b13b 2feb f43b d55e 1abb 1c2f 08bc
00000380: a3c8 1fbb 2ef4 d73a a80f b1bb be07 ee3a
00000390: ccfe 3eba 1c91 0fbb 9859 80bb 722f a03a
000003a0: 295a b53b a364 183b 6db2 f4ba 6027 c0bb
000003b0: 051b 1d3a 432a 9f3b 3073 073b 5e19 0c3a
000003c0: 61e2 c43b 6566 563b 1c80 a4bb df0f 1cba
000003d0: 537d 24bb c9f0 6fba 04e4 d53a 00f2 4f3b
000003e0: 9dca a83b 86cf 7c3b edc7 1e3b 0286 51bb
000003f0: ed1e 13bb b8f2 bfbb 8702 cf38 c0d7 da3b

running_mean f4 [256]
0.3211786 0.23886672 0.2358403 0.3763354 0.3442413 0.33278108 0.28445804 0.28418
0.14878507 0.13520738 0.282471 0.16035193 0.18393625 0.3126017 0.30034748 0.21920474
0.2535857 0.35137537 0.32662407 0.2695821 0.4910148 0.15655468 0.5016048 0.2177888
0.23744777 0.2395044 0.2525202 0.24206367 0.16561438 0.24725801 0.23290126 0.23801921
0.1680749 0.39987555 0.15391482 0.2346743 0.22211105 0.2675265 0.2377781 0.118677124
0.32096758 0.32983416 0.20792793 0.18037783 0.3172994 0.23110755 0.2795507 0.20599361
0.20413549 0.12857915 0.23396759 0.2123608 0.2153275 0.26675522 0.20032313 0.40339255
0.27840668 0.2891343 0.39168134 0.2791528 0.20701656 0.29007873 0.25654462 0.38386858
0.1741548 0.41100958 0.1651424 0.3944325 0.35833716 0.16405915 0.24119174 0.23492694
0.2624792 0.30412707 0.16861828 0.42986012 0.35709006 0.2435574 0.31562424 0.13590474
0.31792307 0.27947092 0.23143603 0.2627233 0.25757268 0.20207152 0.29025638 0.32734117
0.3279398 0.36355224 0.3409316 0.17771907 0.17958066 0.36026347 0.32786456 0.36710528
0.25592422 0.22085284 0.13840349 0.39071456 0.27634376 0.16119556 0.149723 0.3666922
0.26560992 0.1811042 0.3119001 0.33425143 0.13871214 0.23924673 0.17987648 0.21428743
0.25461376 0.26726913 0.30706513 0.4098408 0.3368359 0.09396422 0.26454765 0.11191662
0.29361385 0.23212002 0.26710123 0.18816525 0.22419317 0.25883794 0.2142978 0.39581272
0.26690006 0.21818279 0.27097723 0.30383524 0.43853474 0.29573214 0.29345238 0.251262
0.21996161 0.28282365 0.3180527 0.19461714 0.24888287 0.3147678 0.21381417 0.3011113
0.15885009 0.2235484 0.2408285 0.38895386 0.21906035 0.30567497 0.31193048 0.3638475
0.26212707 0.2844828 0.20029074 0.1989912 0.27948105 0.32811767 0.27960688 0.26385045
0.2814984 0.1655205 0.19729906 0.13457572 0.24994786 0.255191 0.1627836 0.20873548
0.35365984 0.27658 0.4926375 0.3146933 0.23109916 0.31212738 0.28289402 0.20753387
0.18235853 0.3091121 0.24146268 0.2684291 0.22132602 0.41369483 0.32009172 0.21029218
0.33426717 0.33635145 0.30468383 0.22789593 0.20184574 0.27581057 0.44323856 0.21903694
0.2988538 0.36424887 0.2728875 0.3751419 0.23958522 0.24521089 0.21888533 0.2290828
0.2993398 0.17726399 0.2888607 0.16994889 0.22793677 0.24881668 0.27785408 0.302041
0.28598878 0.1986099 0.29407525 0.20054641 0.22110833 0.2295276 0.23489062 0.25184643
0.31085435 0.32431105 0.34417394 0.256237 0.41623062 0.18830553 0.25667423 0.16402213
0.27517092 0.2177333 0.19355479 0.18116483 0.2506478 0.329377 0.33198866 0.22359873
0.2824536 0.3216103 0.24702543 0.22723578 0.279426 0.3187419 0.2149857 0.5047133
0.24931805 0.3117698 0.2996624 0.21863545 0.26647323 0.19619057 0.2638867 0.2047433
0.42915833 0.3680582 0.20195252 0.23553114 0.35758585 0.23947886 0.14709501 0.2734997
00000000: 8571 a43e 7a99 743e 1f80 713e 09af c03e
00000010: 6540 b03e 4862 aa3e 7ca4 913e 0a80 913e
00000020: 1d5b 183e ce73 0a3e 0aa0 903e 4c33 243e
00000030: c959 3c3e 540d a03e 25c7 993e 3577 603e
00000040: fcd5 813e 79e7 b33e 453b a73e aa06 8a3e
00000050: 4b66 fb3e df4f 203e 2c69 003f 0704 5f3e
00000060: 8225 733e a440 753e 544a 813e 8adf 773e
00000070: d196 293e 3431 7d3e ab7d 6e3e 4fbb 733e
00000080: d41b 2c3e 7dbc cc3e d99b 1d3e 764e 703e
00000090: 1471 633e 3cf9 883e 1a7c 733e fe0c f33d
000000a0: dd55 a43e 06e0 a83e 0feb 543e f7b4 383e
000000b0: 1175 a23e 75a7 6c3e 4521 8f3e fdef 523e
000000c0: e508 513e 41aa 033e 3395 6f3e 1c75 593e
000000d0: d07e 5c3e 2494 883e 8221 4d3e 7889 ce3e
000000e0: 528b 8e3e 6909 943e 758a c83e 1eed 8e3e
000000f0: 26fc 533e 3385 943e d159 833e 6c8a c43e
00000100: a355 323e d96f d23e 171b 293e 0ef3 c93e
00000110: f877 b73e 1fff 273e f8fa 763e b090 703e
00000120: ac63 863e 8bb6 9b3e 45aa 2c3e a016 dc3e
00000130: 82d4 b63e 1c67 793e 8099 a13e 9d2a 0b3e
00000140: d0c6 a23e d016 8f3e 91fd 6c3e ab83 863e
00000150: 91e0 833e d6eb 4e3e 7c9c 943e 4399 a73e
00000160: bae7 a73e 8523 ba3e 968e ae3e fdfb 353e
00000170: fee3 373e 7474 b83e dddd a73e 39f5 bb3e
00000180: 8008 833e 3f27 623e a5b9 0d3e bd0b c83e
00000190: ee7c 8d3e 7310 253e fc50 193e 14bf bb3e
000001a0: 06fe 873e 6173 393e 5fb1 9f3e 0123 ab3e
000001b0: 8e0a 0e3e 18fd 743e 8a31 383e 2a6e 5b3e
000001c0: bc5c 823e 80d7 883e a437 9d3e a7d6 d13e
000001d0: c175 ac3e 5070 c03d ca72 873e 8a34 e53d
000001e0: 8e54 963e dfb0 6d3e 7ec1 883e 64ae 403e
000001f0: e592 653e 6886 843e e270 5b3e f7a7 ca3e
00000200: 20a7 883e 4f6b 5f3e 87bd 8a3e 4b90 9b3e
00000210: a087 e03e 346a 973e 643f 963e 6aa5 803e
00000220: 9e3d 613e 43ce 903e ced7 a23e b749 473e
00000230: 27db 7e3e 3f29 a13e 1af2 5a3e 432b 9a3e
00000240: 99a9 223e dfe9 643e bf9b 763e f624 c73e
00000250: 5b51 603e 6e81 9c3e 5ab5 9f3e 384a ba3e
00000260: 8535 863e bba7 913e 0419 4d3e 59c4 4b3e
00000270: 2418 8f3e 0aff a73e a228 8f3e 6817 873e
00000280: 8f20 903e 357e 293e c408 4a3e 38ce 093e
00000290: 55f2 7f3e 65a8 823e beb0 263e c1be 553e
000002a0: e712 b53e e59b 8d3e fb3a fc3e 7b1f a13e
000002b0: 42a5 6c3e 29cf 9f3e 7cd7 903e c283 543e
000002c0: 32bc 3a3e f143 9e3e fe41 773e 8a6f 893e
000002d0: 4aa3 623e cfcf d33e 10e3 a33e d556 573e
000002e0: 1125 ab3e 4236 ac3e 85ff 9b3e 8d5d 693e
000002f0: a6b0 4e3e 0b37 8d3e 2af0 e23e 384b 603e
00000300: 5e03 993e d47e ba3e e9b7 8b3e 9912 c03e
00000310: d455 753e 9018 7b3e 7a23 603e ae94 6a3e
00000320: 1143 993e b184 353e 8de5 933e 1507 2e3e
00000330: 4268 693e cdc9 7e3e e442 8e3e 1ea5 9a3e
00000340: 1f6d 923e 6560 4b3e 0891 963e 0a5c 4d3e
00000350: 396a 623e 4809 6b3e 2b87 703e 04f2 803e
00000360: 4d28 9f3e 190c a63e 9137 b03e 7f31 833e
00000370: 2e1c d53e 2ad3 403e ce6a 833e 6bf5 273e
00000380: 34e3 8c3e 7af5 5e3e 3a33 463e 4683 393e
00000390: e954 803e 1aa4 a83e 6bfa a93e 11f7 643e
000003a0: c29d 903e 1baa a43e 3cf4 7c3e 7fb0 683e
000003b0: ed10 8f3e 2332 a33e 3625 5c3e e434 013f
000003c0: 3b4d 7f3e 4ba0 9f3e 5a6d 993e f9e1 5f3e
000003d0: 2e6f 883e 2ee6 483e 281c 873e 3aa8 513e
000003e0: a4ba db3e 2072 bc3e a4cc 4e3e 132f 713e
000003f0: 7e15 b73e f239 753e 13a0 163e 2708 8c3e
