statedicts/torchscript_pl_db_2022-05-02_RAND_200mBar_200s_P0_R1_s2_seed_0.pt (torch, 225321 bytes, 29 tensors)

weight f4 [5]
1.0039362 1.0111076 0.97597384 1.0131176 0.9958778
00000000: fb80 803f f96b 813f 6cd9 793f d6ad 813f
00000010: d9f1 7e3f

bias f4 [5]
0.010526453 -0.009907314 -0.0059595937 -0.001232944 -0.0048700008
00000000: 2577 2c3c 4952 22bc b248 c3bb bc9a a1ba
00000010: 8794 9fbb

running_mean f4 [5]
2.6601884 0.064763695 3.042584 2.9243217 0.19187737
00000000: 8740 2a40 d4a2 843d b2b9 4240 1628 3b40
00000010: 807b 443e

running_var f4 [5]
0.01879118 5.890611e-07 0.0022725544 0.0015583865 0.0019952476
00000000: f6ef 993c f81f 1e35 23ef 143b c642 cc3a
00000010: b3c2 023b

weight f4 [96, 5]
-0.40710554 0.105140515 0.31246975 -0.1013515 0.05320913 0.14621828 -0.010174172 0.34572288
0.061366707 -0.44069153 -0.36871842 -0.4437269 0.017940504 0.2418759 -0.05405505 0.40291822
-0.08035389 0.089479834 0.4050039 0.2267569 -0.010554512 0.43042094 -0.2648254 0.16973247
0.28468525 -0.26905486 -0.42264304 0.15076572 -0.16165084 -0.21707857 0.08846828 -0.326233
0.399043 -0.045739915 -0.14850546 0.37359187 0.12505506 0.08716583 -0.21535563 0.4235319
-0.120838664 0.3692781 -0.020162273 0.23428196 0.31519052 -0.32198358 -0.30005345 -0.4334523
0.33293876 0.3937578 -0.17225155 -0.21804972 0.08404603 0.23478004 0.1049533 -0.09732999
-0.2863732 0.37505552 -0.29334506 -0.4347534 -0.2015269 0.094721854 0.14483763 0.16879769
-0.2843459 -0.17408091 -0.197686 -0.21451816 -0.37939477 0.089930676 -0.13085118 -0.43088135
-0.26242518 -0.26761964 -0.19357964 -0.27460837 -0.077543214 0.17364466 -0.3575419 -0.036764316
-0.12271522 -0.22951022 -0.10572484 -0.18313614 0.023516543 -0.32638657 0.0855711 0.40754896
0.36418477 -0.20538466 0.1322302 -0.42331114 0.35218602 -0.45897102 -0.40823427 -0.4047082
-0.41130155 0.060256768 -0.11541857 0.11346792 -0.028165516 -0.009209865 -0.16121998 -0.26567882
-0.37408572 0.22027545 -0.23008208 -0.09933446 0.21688573 -0.110615894 -0.12193793 -0.29538456
-0.38537574 0.21387 -0.09654265 0.273498 0.026530745 -0.010500425 -0.41243777 -0.0053751953
-0.10338229 -0.25625983 -0.10649675 0.02346875 -0.336548 0.07560453 0.31117672 0.0864396
0.4268818 0.20971242 -0.35231954 -0.17623346 -0.09917559 0.13667898 -0.011315113 0.35998723
0.05154879 -0.27840135 -0.16925992 -0.37883943 -0.12469119 0.22000073 0.0016904748 -0.42755386
-0.38644812 0.14581999 -0.38951614 -0.36847857 -0.28410164 0.41080022 -0.11693922 -0.18546425
-0.29907015 0.29234412 -0.06601897 0.09323708 0.105911076 0.12926762 0.28717414 0.02014741
0.050283104 -0.030096017 -0.3449851 -0.09915307 0.42741156 -0.31774586 -0.28235352 -0.44210044
0.026115233 -0.41948992 -0.22844858 0.41570213 0.1694794 0.23943703 0.07513911 -0.379575
-0.20885998 -0.36232764 -0.27658045 0.15402189 -0.12563288 0.43786383 -0.32417408 -0.38342607
0.43883747 -0.38466597 0.38070145 0.13252795 -0.40158644 0.3929283 -0.122045286 -0.18448414
-0.34801328 -0.37921056 0.0985871 -0.43828747 0.18522651 -0.10679332 0.15948834 -0.11065012
0.17086096 -0.01574272 0.14858548 -0.172228 -0.2977951 0.057622246 -0.28570583 -0.27968597
-0.42846012 -0.13992651 -0.3097708 0.3517525 0.32256716 0.09379881 0.35382465 0.21384066
-0.42586386 -0.063738406 -0.06349654 -0.26384914 0.12724356 -0.13815646 -0.21333328 -0.011942266
-0.2993641 0.36453354 0.2819923 0.4326071 -0.08543868 0.13939853 -0.0021702792 -0.36955792
0.20645604 -0.29087114 -0.13644122 -0.17092906 -0.45452586 0.022918725 0.05929107 -0.021480115
0.34021086 0.015265381 -0.06470079 -0.2445662 -0.26511848 -0.06346649 -0.26185843 -0.29467738
-0.057197616 -0.07671322 -0.26900482 0.25729492 0.38198984 -0.30092382 0.19993304 -0.21885473
00000000: 2370 d0be e953 d73d 09fc 9f3e 6091 cfbd
00000010: d1f1 593d 3fba 153e 92b1 26bc 9702 b13e
00000020: a85b 7b3d 52a2 e1be a9c8 bcbe 2c30 e3be
00000030: f7f7 923c 51ae 773e d468 5dbd 4c4b ce3e
00000040: 9590 a4bd 3441 b73d ac5c cf3e f632 683e
00000050: d5ec 2cbc 2260 dc3e 3297 87be 59ce 2d3e
00000060: 44c2 913e 8fc1 89be ab64 d8be 5462 1a3e
00000070: cc87 25be d849 5ebe dc2e b53d 0308 a7be
00000080: 5d4f cc3e c759 3bbd d111 18be 6f47 bf3e
00000090: 6f0e 003e 0084 b23d 3086 5cbe 2cd9 d83e
000000a0: 437a f7bd 0512 bd3e 5a2b a5bc 9ce7 6f3e
000000b0: a760 a13e 08db a4be 9ba0 99be 76ed ddbe
000000c0: f376 aa3e 9f9a c93e b662 30be 6d48 5fbe
000000d0: 5320 ac3d 2e6a 703e c1f1 d63d f254 c7bd
000000e0: 829f 92be 4707 c03e 5331 96be ff97 debe
000000f0: 115d 4ebe 88fd c13d 5150 143e 4dd9 2c3e
00000100: c995 91be 4442 32be 336e 4abe a6aa 5bbe
00000110: 0840 c2be 932d b83d dafd 05be 7b9c dcbe
00000120: 985c 86be 7105 89be be39 46be 7899 8cbe
00000130: face 9ebd e8cf 313e bb0f b7be 2e96 16bd
00000140: 1e52 fbbd ba04 6bbe 4486 d8bd 0a88 3bbe
00000150: c4a5 c03c 241c a7be e73f af3d 42aa d03e
00000160: 6d76 ba3e 5b50 52be 5b67 073e 3dbc d8be
00000170: ba51 b43e 40fe eabe 1504 d1be ea35 cfbe
00000180: 1e96 d2be cdcf 763d 9260 ecbd de61 e83d
00000190: 5ebb e6bc f9e4 16bc da16 25be 0e07 88be
000001a0: 2a88 bfbe e38f 613e a39a 6bbe de6f cbbd
000001b0: 4b17 5e3e 968a e2bd 98ba f9bd a53c 97be
000001c0: f84f c5be bd00 5b3e 27b8 c5bd ee07 8c3e
000001d0: 0157 d93c f909 2cbc 0b2b d3be 6822 b0bb
000001e0: 18ba d3bd 7d34 83be f81a dabd 8941 c03c
000001f0: 0550 acbe 8cd6 9a3d 8e52 9f3e 3f07 b13d
00000200: 4090 da3e dabe 563e 3a63 b4be 8b76 34be
00000210: 921c cbbd 93f5 0b3e 0663 39bc 3f50 b83e
00000220: d324 533d 9f8a 8ebe 7952 2dbe 3ef7 c1be
00000230: 185e ffbd df47 613e ec92 dd3a 57e8 dabe
00000240: 87dc c5be d651 153e a96e c7be 39a9 bcbe
00000250: c575 91be 6854 d23e d47d efbd 57ea 3dbe
00000260: b91f 99be 21ae 953e f434 87bd 15f3 be3d
00000270: e8e7 d83d bb5e 043e 7d08 933e 2e0c a53c
00000280: a8f5 4d3d ec8b f6bc e3a1 b0be c410 cbbd
00000290: b0d5 da3e 96af a2be a490 90be fd5a e2be
000002a0: 9def d53c 62c7 d6be 6dee 69be e9d6 d43e
000002b0: 028c 2d3e fb2e 753e 89e2 993d a857 c2be
000002c0: 64df 55be 0283 b9be f49b 8dbe eab7 1d3e
000002d0: e8a5 00be b02f e03e 25fa a5be 6c50 c4be
000002e0: 4eaf e03e f0f2 c4be 4deb c23e 68b5 073e
000002f0: bd9c cdbe e62d c93e e1f2 f9bd 69e9 3cbe
00000300: cc2e b2be e327 c2be 09e8 c93d 3767 e0be
00000310: 05ac 3d3e 75b6 dabd e950 233e 889c e2bd
00000320: 2df6 2e3e e0f6 80bc cb26 183e 895c 30be
00000330: 9978 98be 4e05 6c3d 0948 92be 0033 8fbe
00000340: 205f dbbe e548 0fbe 479a 9ebe e718 b43e
00000350: 8627 a53e 9719 c03d 8128 b53e 0cf9 5a3e
00000360: d40a dabe 4889 82bd 790a 82bd 3c17 87be
00000370: 234c 023e e378 0dbe 0a74 5abe 7ea9 43bc
00000380: 4046 99be 24a4 ba3e 4b61 903e ae7e dd3e
00000390: 7afa aebd 7dbe 0e3e 3e3b 0ebb b236 bdbe
000003a0: 3669 533e 10ed 94be 3fb7 0bbe 0708 2fbe
000003b0: 9db7 e8be 0dc0 bb3c 31db 723d 11f7 afbc
000003c0: 1e30 ae3e a61b 7a3c d981 84bd 906f 7abe
000003d0: 9cbd 87be b8fa 81bd 4f12 86be f4df 96be
000003e0: 0c48 6abd d21b 9dbd 00bb 89be 29bc 833e
000003f0: 2c94 c33e b012 9abe 3fbb 4c3e 741b 60be

bias f4 [96]
0.29785678 0.31898797 -0.3644453 0.22885893 0.41573462 -0.32414424 -0.031516705 -0.27544895
-0.11537369 0.06488695 0.239452 -0.12744907 -0.40518475 0.23888606 0.24889745 -0.079777
0.38526607 0.3488525 -0.09838977 0.019614756 0.07985541 -0.09447903 -0.103947796 -0.19632922
-0.25163087 0.22275187 -0.13733087 -0.20460303 0.39279917 0.08556213 0.32451794 0.40481314
-0.06656579 0.066442594 0.41789657 -0.30652237 -0.13829836 0.06627105 -0.030114034 0.11945698
0.23371631 -0.1853518 0.03730446 0.4050506 -0.25176919 -0.29945913 -0.36796957 0.2668892
-0.40593356 -0.22007461 0.3071424 -0.2831183 0.3601949 -0.19729738 0.08092662 0.06131355
-0.0068142535 0.2782545 0.38033298 -0.28808022 0.25325933 0.11875326 -0.009181842 -0.31934518
0.13413738 0.32487172 -0.38127005 -0.4127234 -0.43932313 0.114952795 -0.099547304 -0.14279798
0.4164267 -0.10859294 -0.29474425 0.037424743 -0.23721166 -0.13329239 0.24006417 0.112920515
-0.29584247 0.42622602 0.30247542 -0.29026616 0.19134471 0.17952004 -0.31877938 -0.31154868
-0.37327334 0.196647 0.05935254 0.19119795 -0.19152306 0.339 0.056180093 -0.35615787
00000000: af80 983e 6452 a33e 9398 babe ff59 6a3e
00000010: 2bdb d43e 3cf6 a5be a917 01bd a507 8dbe
00000020: 0b49 ecbd 73e3 843d e832 753e 0282 02be
00000030: 6074 cfbe 8c9e 743e f9de 7e3e 2062 a3bd
00000040: 9841 c53e cb9c b23e 9380 c9bd 20af a03c
00000050: 3c8b a33d 397e c1bd 95e2 d4bd 870a 49be
00000060: c3d5 80be 1119 643e 77a0 0cbe 7583 51be
00000070: f91c c93e 333b af3d 3727 a63e ab43 cf3e
00000080: a553 88bd 0e13 883d 8af6 d53e 80f0 9cbe
00000090: 169e 0dbe 1eb9 873d b5b1 f6bc dca5 f43d
000000a0: 5453 6f3e ddcc 3dbe 90cc 183d cb62 cf3e
000000b0: e4e7 80be b552 99be 8266 bcbe b4a5 883e
000000c0: 86d6 cfbe 3d5b 61be c541 9d3e e2f4 90be
000000d0: 776b b83e 5308 4abe dbbc a53d eb23 7b3d
000000e0: 1a4a dfbb 6077 8e3e 01bb c23e 407f 93be
000000f0: 35ab 813e e934 f33d 706f 16bc 3681 a3be
00000100: 4f5b 093e 9655 a63e d435 c3be 7b50 d3be
00000110: f6ee e0be 5f6c eb3d 75df cbbd a239 12be
00000120: e135 d53e fa65 debd b8e8 96be b04a 193d
00000130: 9de7 72be cd7d 08be 62d3 753e df42 e73d
00000140: aa78 97be 4c3a da3e 0fde 9a3e c49d 94be
00000150: deef 433e 1ad4 373e 0d37 a3be 4f83 9fbe
00000160: af1d bfbe d55d 493e a61b 733d 65c9 433e
00000170: 9f1e 44be 6891 ad3e 191d 663d 535a b6be

weight f4 [96]
0.9975263 0.99902683 0.9936895 1.0014665 0.99896926 0.9999055 1.0026295 1.0004358
1.0016773 0.99974895 0.9997803 1.0004141 0.9976014 1.0014262 1.000649 0.99750453
1.0004028 0.99994993 0.9994937 1.0001119 1.0000604 0.998547 0.99648964 0.99813706
0.9988241 1.0001906 0.997542 1.001395 1.0046518 0.9976701 1.0010003 0.99676883
1.0025127 0.9986427 0.9970488 0.9996945 0.99942935 0.9973766 0.99243 0.99877214
1.000249 1.0015221 1.0032325 1.0032775 0.9976795 0.9938675 0.9935954 1.0081091
1.005335 1.0026433 1.0000999 0.99153244 0.9986932 1.0009856 1.0063074 1.00037
1.0062671 0.9998263 1.0002884 0.9940571 0.9991985 1.0015482 1.0064274 0.9960546
1.0019547 0.9999778 1.0012208 1.0024794 1.000018 0.99644244 1.0010672 0.99932015
1.0003119 1.0019422 1.0047462 1.0025868 1.005474 1.0010344 0.9998789 0.9985077
1.0038854 0.9994149 0.996084 0.9994233 0.99715585 0.9965423 1.0014416 1.0006015
0.9983716 0.9968007 1.0020459 1.003366 0.9998484 0.99895203 1.0079689 1.0014755
00000000: e25d 7f3f 39c0 7f3f 6f62 7e3f 0e30 803f
00000010: 73bc 7f3f cff9 7f3f 2a56 803f 480e 803f
00000020: f636 803f 8cef 7f3f 9af1 7f3f 920d 803f
00000030: ce62 7f3f bc2e 803f 4415 803f 755c 7f3f
00000040: 330d 803f b8fc 7f3f d2de 7f3f ab03 803f
00000050: fb01 803f c7a0 7f3f f219 7f3f e985 7f3f
00000060: f0b2 7f3f 3f06 803f ea5e 7f3f b62d 803f
00000070: 6e98 803f 4f67 7f3f c720 803f 3e2c 7f3f
00000080: 5652 803f 0ca7 7f3f 973e 7f3f fbeb 7f3f
00000090: 9ada 7f3f 1354 7f3f e40f 7e3f 88af 7f3f
000000a0: 2908 803f e031 803f ec69 803f 666b 803f
000000b0: ec67 7f3f 1a6e 7e3f 455c 7e3f b809 813f
000000c0: d1ae 803f 9e56 803f 4603 803f 12d5 7d3f
000000d0: 5caa 7f3f 4c20 803f aece 803f 200c 803f
000000e0: 5ccd 803f 9ef4 7f3f 7309 803f 877a 7e3f
000000f0: 79cb 7f3f bb32 803f 9dd2 803f 6ffd 7e3f
00000100: 0d40 803f 8cfe 7f3f 0128 803f 3f51 803f
00000110: 9700 803f da16 7f3f f822 803f 72d3 7f3f
00000120: 380a 803f a43f 803f 869b 803f c454 803f
00000130: 5fb3 803f e521 803f 10f8 7f3f 339e 7f3f
00000140: 517f 803f a8d9 7f3f 5cff 7e3f 35da 7f3f
00000150: 9b45 7f3f 651d 7f3f 3d2f 803f b613 803f
00000160: 4895 7f3f 552e 7f3f 0a43 803f 4c6e 803f
00000170: 11f6 7f3f 52bb 7f3f 2005 813f 5930 803f

bias f4 [96]
0.0014165462 0.0004325311 -0.00037375698 0.00019318562 -0.0012108093 -0.0005959221 5.7329133e-05 -0.0008551766
-6.33352e-05 -0.0008255423 -7.651638e-05 -0.0018788881 0.0016896582 0.0015999775 -0.00035891944 0.001136996
0.0009097605 0.0017466003 0.0017697777 -0.002216864 0.00260143 -0.0042951717 0.0006450525 -0.0027671934
0.0026754818 -4.0768977e-05 -0.0025136806 -0.001060968 -0.0022459088 0.0012847276 7.2728355e-05 0.0029375723
0.0019368384 0.000109049164 0.00094362575 0.00044344514 -0.00037093135 -0.0017441524 0.0030931882 0.0005545472
-0.0013522947 -0.00178573 -0.00052252307 0.0024091376 1.4847554e-05 0.00024523068 0.0030652613 0.0013016067
-0.0009648316 0.0007437187 -0.00047555548 -0.00078636187 0.0022826141 -0.002113336 -0.0020272352 -0.0026249501
-0.00268112 -0.001414778 -0.0002993324 -0.001462825 0.0011192958 0.0042442335 -0.00063379126 0.0006867938
-0.0017765677 0.0005090704 0.0026141086 -0.0006654592 0.003041436 -0.00022412692 0.0035930893 0.0021365457
-0.0004401133 0.0011263525 -0.0020664579 -0.0021386102 -0.0029610083 0.0021484324 0.0034009693 0.0023225113
0.0028036253 0.001400708 -0.0028906153 0.00050077 0.0028164694 0.0007676846 -0.0023107065 0.0009266631
0.001899635 -0.0007354881 -0.0017947747 0.00028747463 0.001230327 0.0013683412 -0.0014685256 0.0027696274
00000000: 67ab b93a 57c5 e239 d0f4 c3b9 df91 4a39
00000010: 05b4 9eba a837 1cba b074 7038 ee2d 60ba
00000020: d4d2 84b8 3569 58ba 6b77 a0b8 0645 f6ba
00000030: 8577 dd3a 56b6 d13a 5a2d bcb9 4107 953a
00000040: fe7c 6e3a 2eee e43a e3f7 e73a ce48 11bb
00000050: c17c 2a3b 83be 8cbb be18 293a cd59 35bb
00000060: 2357 2f3b 5bff 2ab8 90bc 24bb 2e10 8bba
00000070: 1930 13bb 4e64 a83a bd85 9838 4984 403b
00000080: 83dd fd3a 53b1 e438 a75d 773a 337e e839
00000090: 9079 c2b9 0b9c e4ba 16b7 4a3b 085f 113a
000000a0: 7b3f b1ba 280f eaba eef9 08ba 9fe2 1d3b
000000b0: c219 7937 4e92 8039 8de2 483b ac9a aa3a
000000c0: c1ec 7cba 1ef6 423a fa53 f9b9 da23 4eba
000000d0: e997 153b e57f 0abb 5ddb 04bb 5b07 2cbb
000000e0: bbb5 2fbb 1270 b9ba b7ef 9cb9 43bc bfba
000000f0: 56b5 923a 3613 8b3b 0325 26ba f409 343a
00000100: b8db e8ba 2373 053a 7751 2b3b 3672 2eba
00000110: d452 473b 9d03 6bb9 097a 6b3b 4a05 0c3b
00000120: 02bf e6b9 1ea2 933a 696d 07bb ed27 0cbb
00000130: 7a0d 42bb b7cc 0c3b cce2 5e3b 4635 183b
00000140: 07bd 373b f697 b73a 7a70 3dbb 1b46 033a
00000150: 8494 383b 713e 493a 396f 17bb 4feb 723a
00000160: 2cfd f83a c5cd 40ba a53e ebba 31b8 9639
00000170: ec42 a13a e959 b33a 8b7b c0ba a382 353b

running_mean f4 [96]
0.35113135 0.36198068 0.00044194015 0.59362364 0.4119435 0.060736176 0.15023136 0.117568955
0.09043817 0.22850809 0.28367934 0.20287247 0.0011436908 0.36350748 0.4020309 0.19209966
0.3866712 0.36254203 0.18993615 0.13120374 0.35477936 0.102713816 0.10116548 0.016798235
0.087752104 0.4189435 0.06395783 0.104003385 0.62389725 0.17527157 0.33701187 0.47138852
0.116578795 0.4227509 0.41159177 0.19867927 0.14747375 0.21240114 0.25110215 0.26875827
0.28159186 0.19771639 0.14011165 0.41282588 0.05568611 0.14257887 0.0006325562 0.27038723
0.00833171 0.082956225 0.34753102 0.0455327 0.39579242 0.027968593 0.14793277 0.2680558
0.11798471 0.2772888 0.44419906 0.0045842044 0.29019648 0.2687228 0.11765756 0.24779865
0.23987085 0.6854596 0.092698686 0.21151781 0.0 0.20370176 0.012498388 0.066394575
0.41283935 0.0067154407 0.016862445 0.31205714 0.08791357 0.0959273 0.39485985 0.16279034
0.08053884 0.62544185 0.35141167 0.009603605 0.2587028 0.34419006 0.36159903 0.16026749
0.2225666 0.42142734 0.096975684 0.36256886 0.10442959 0.33883554 0.13482909 0.12735127
00000000: 7dc7 b33e 8855 b93e 34b4 e739 b8f7 173f
00000010: 42ea d23e 7fc6 783d 40d6 193e fec7 f03d
00000020: a637 b93d 06fe 693e 6b3e 913e cdbd 4f3e
00000030: e5e7 953a a71d ba3e fed6 cd3e c6b5 443e
00000040: c4f9 c53e 1c9f b93e 9f7e 423e 465a 063e
00000050: a4a5 b53e 9f5b d23d d92f cf3d 749c 893c
00000060: 60b7 b33d c37f d63e 53fc 823d baff d43d
00000070: bbb7 1f3f 647a 333e d28c ac3e d659 f13e
00000080: ddc0 ee3d ce72 d83e 28bc d23e 9472 4b3e
00000090: 5c03 173e af7f 593e 7690 803e af9a 893e
000000a0: cf2c 903e 2a76 4a3e 6e79 0f3e ea5d d33e
000000b0: 1e17 643d 3200 123e 21d2 253a 3270 8a3e
000000c0: b981 083c f4e4 a93d 96ef b13e 7f80 3a3d
000000d0: 4ea5 ca3e 641e e53c b07b 173e 9c3e 893e
000000e0: f8a1 f13d ccf8 8d3e 0f6e e33e 1837 963b
000000f0: a294 943e 0996 893e 72f6 f03d eebe 7d3e
00000100: b4a0 753e 487a 2f3f cfd8 bd3d 2098 583e
00000110: 0000 0000 3297 503e 0ac6 4c3c e1f9 873d
00000120: ae5f d33e 330d dc3b 1c23 8a3c f4c5 9f3e
00000130: 080c b43d 8875 c43d 122b ca3e 83b2 263e
00000140: 8cf1 a43d f51c 203f 3bec b33e 7058 1d3c
00000150: b274 843e ae39 b03e 8223 b93e 291d 243e
00000160: 80e8 633e 53c5 d73e 309b c63d a0a2 b93e
00000170: 2edf d53d da7b ad3e a310 0a3e 5f68 023e

running_var f4 [96]
0.063577175 0.07635619 9.161938e-05 0.413025 0.09454677 0.016825639 0.04165662 0.0314745
0.019927386 0.13769668 0.042726763 0.051947393 0.0002510703 0.21623892 0.2911766 0.07037258
0.09424705 0.069952756 0.043034606 0.026369901 0.28330588 0.026606362 0.031677913 0.0023062723
0.03741069 0.17830046 0.015947822 0.053965915 0.55001765 0.061177988 0.05797036 0.1254949
0.04614831 0.4568579 0.019663502 0.14968652 0.07410466 0.06149468 0.17577215 0.13388003
0.045063525 0.13981795 0.019845951 0.010560348 0.01969321 0.04555294 0.00013403961 0.0017955907
0.0017278359 0.03408005 0.06055985 0.0063892473 0.15212262 0.004507255 0.033453166 0.103227004
0.030806808 0.0142377615 0.09280084 0.00061433844 0.12433666 0.14754349 0.023398234 0.104259156
0.054438934 0.6069623 0.051459115 0.1132816 0.0 0.056878347 0.0013384323 0.02096136
0.021715362 0.00060217665 0.002345315 0.25728938 0.015496269 0.03377834 0.2982346 0.029984344
0.023224596 0.2798077 0.14257598 0.0010423796 0.054801803 0.2041295 0.4117841 0.048104033
0.19500817 0.32389238 0.006908551 0.12851599 0.020165056 0.025538886 0.014371941 0.051570356
00000000: c034 823d a260 9c3d c823 c038 0378 d33e
00000010: bda1 c13d ecd5 893c 22a0 2a3d 68eb 003d
00000020: c23e a33c 5c00 0d3e 4202 2f3d cac6 543d
00000030: 16a2 8339 bc6d 5d3e 1915 953e 801f 903d
00000040: 9904 c13d 6443 8f3d 0e45 303d b105 d83c
00000050: 780d 913e 96f5 d93c b3c0 013d d424 173b
00000060: f43b 193d 6594 363e 02a5 823c 5d0b 5d3d
00000070: f5cd 0c3f c595 7a3d 5472 6d3d bc81 003e
00000080: 0306 3d3d 47e9 e93e 5a15 a13c 6c47 193e
00000090: 2fc4 973d d8e1 7b3d 9dfd 333e d917 093e
000000a0: 8894 383d 702c 0f3e fa93 a23c 4f05 2d3c
000000b0: a853 a13c b895 3a3d fc8c 0c39 075a eb3a
000000c0: 8d78 e23a 8697 0b3d 9b0d 783d e45c d13b
000000d0: 08c6 1b3e 98b1 933b 3006 093d ae68 d33d
000000e0: 8f5e fc3c 8045 693c 5e0e be3d 8e0b 213a
000000f0: 38a4 fe3d a415 173e a7ad bf3c d385 d53d
00000100: 5cfb 5e3d e261 1b3f cbc6 523d 2f00 e83d
00000110: 0000 0000 45f9 683d 566e af3a 28b7 ab3c
00000120: 6ae4 b13c 64db 1d3a dbb3 193b 6fbb 833e
00000130: 10e4 7d3c 285b 0a3d 35b2 983e baa1 f53c
00000140: 8241 be3c f442 8f3e 70ff 113e 75a0 883a
00000150: db77 603d 5307 513e 5ed5 d23e bc08 453d
00000160: 39b0 473e 39d5 a53e 2061 e23b b299 033e
00000170: 3031 a53c ed36 d13c 4a78 6b3c 703b 533d

weight f4 [256, 96]
-0.022439191 0.04797021 0.019223591 -0.017113922 -0.07181868 -0.052012954 0.08470389 -0.05944022
0.07317109 -0.035074584 -0.0025266674 -0.08914612 -0.034989737 0.09238125 -0.083386816 0.059582926
-0.079369724 0.007468007 -0.08549331 -0.07376448 -0.07521835 -0.034916 0.019245524 -0.072971955
0.035190865 0.059910774 0.091000006 0.10000723 0.074887425 -0.030742174 -0.0052840835 0.08574495
0.05174396 -0.01863882 0.06845265 -0.079181194 0.09483153 0.06558577 -0.065680996 -0.076284006
0.084287345 0.11012786 0.0049319174 -0.035518523 0.06461183 0.042624943 -0.010046404 0.08100555
0.0733423 0.033470646 0.05434099 -0.0929528 -0.04970603 0.011654124 0.03396815 -0.015322386
0.04485733 0.037014324 -0.0990335 0.03940963 -0.008788372 -0.06370039 0.0013167324 -0.026897717
-0.05615544 -0.09377359 0.092253655 -0.061636012 0.013684492 0.08082306 -0.013812243 -0.06670915
-0.094066195 0.016322011 -0.04948444 0.015467122 0.04248365 -0.021192243 0.07639151 -0.020103367
-0.03910813 -0.07039453 0.037210584 -0.062488463 0.018023701 -0.0069603897 0.07913571 -0.051275924
-0.04170501 -0.006433293 -0.059365287 0.036353596 -0.040356666 0.03292395 0.055834148 0.06085454
-0.015953569 0.054539986 -0.05456583 -0.10237688 -0.006906677 -0.073048994 -0.0759977 0.026469488
0.08699623 -0.03792933 -0.0037707135 -0.07450015 0.017302798 0.030546116 -0.013607444 0.07849988
-0.080495045 -0.011760832 -0.057918712 0.09256253 0.087331824 0.09916428 0.0994525 0.04077981
-0.076197594 -0.06947933 0.03111437 -0.08866959 0.065373495 0.04577559 0.02805235 -0.08797885
0.077076726 -0.007982173 -0.039892852 0.05921574 0.015824141 -0.041467138 0.027248641 -0.06437972
0.09292538 0.091806896 0.049396053 0.047532782 -0.099886 -0.05403409 -0.098874666 -0.052554946
-0.08307188 0.07982785 0.056457024 0.058996107 -0.04532873 0.08204308 -0.0075237886 -0.027438348
0.061799254 0.06690742 -0.072051674 0.09444957 -0.009220663 0.030147064 -0.097654276 0.011760551
-0.05004758 -0.064037405 -0.03880257 -0.0014153651 -0.029074747 -0.06646828 0.07966319 0.03626633
-0.090146355 0.025265377 0.027133334 0.0062427525 0.027713764 -0.003600595 0.047491062 -0.06819278
-0.044478323 0.077225775 -0.060226228 0.053512603 0.095006555 -0.08900655 -0.043655366 0.08769995
-0.0004920759 0.020110985 0.016919589 0.042342354 -0.040499307 0.014452926 0.07153847 -0.009548814
-0.09330064 0.035437256 -0.02639893 -0.021262027 0.053842478 0.02030172 -0.06145219 -0.047572557
-0.01623243 -0.023645587 -0.022509247 -0.06704482 0.07729672 0.053895906 0.021030119 0.02438804
0.012745831 0.07503241 0.02609166 0.017898055 -0.055519983 0.034285758 -0.09308766 0.035379495
-0.08864538 -0.042843413 0.05655603 -0.06044305 0.0818086 -0.053603165 0.09627831 0.031001773
-0.041857067 0.06288637 -0.09152274 -0.06218863 -0.061028574 0.015975421 0.011930986 -0.08722191
0.09839616 0.0019248839 -0.05494885 0.0017931011 -0.04486569 0.028618941 0.041313402 -0.029672746
0.009456814 0.06279129 -0.06572844 -0.019572536 -0.0135084 -0.06707135 0.009176788 0.00414603
-0.08044651 0.020283507 0.096927784 0.05735372 -0.055010643 0.093503475 -0.07016743 -0.051949803
00000000: 65d2 b7bc 697c 443d cb7a 9d3c 7f32 8cbc
00000010: ac15 93bd 890b 55bd 3c79 ad3d 9777 73bd
00000020: b9da 953d 5eaa 0fbd 7296 25bb 3e92 b6bd
00000030: 6651 0fbd 6132 bd3d b5c6 aabd 3a0d 743d
00000040: 988c a2bd 2fb6 f43b 1e17 afbd d511 97bd
00000050: 140c 9abd 1404 0fbd caa8 9d3c 5272 95bd
00000060: 4c24 103d 0065 753d 365e ba3d 97d0 cc3d
00000070: 945e 993d 03d7 fbbc 1b26 adbb 0c9b af3d
00000080: 79f1 533d 70b0 98bc e730 8c3d c029 a2bd
00000090: 0837 c23d d551 863d c283 86bd ca3a 9cbd
000000a0: d89e ac3d b78a e13d ec9b a13b df7b 11bd
000000b0: 3553 843d 7e97 2e3d ac99 24bc 3de6 a53d
000000c0: 7d34 963d 8418 093d a894 5e3d 0a5e bebd
000000d0: 8d98 4bbd f0f0 3e3c 3022 0b3d bf0a 7bbc
000000e0: 52bc 373d 559c 173d 13d2 cabd fe6b 213d
000000f0: 1bfd 0fbc 5a75 82bd 3596 ac3a 9a58 dcbc
00000100: 3f03 66bd 5e0c c0bd 7cef bc3d 0b76 7cbd
00000110: eb34 603c 8f86 a53d bf4c 62bc cf9e 88bd
00000120: c7a5 c0bd bdb5 853c 32b0 4abd d069 7d3c
00000130: 5603 2e3d 5b9b adbc 2773 9c3d d1af a4bc
00000140: d92f 20bd 022b 90bd 206a 183d e7f3 7fbd
00000150: 71a6 933c fb13 e4bb e711 a23d b406 52bd
00000160: dfd2 2abd 60ce d2bb 0429 73bd 82e7 143d
00000170: 084d 25bd 44db 063d 59b2 643d 9c42 793d
00000180: 0fb1 82bc 5265 5f3d 6b80 5fbd f8aa d1bd
00000190: 6851 e2bb b69a 95bd afa4 9bbd 8ad6 d83c
000001a0: 142b b23d c95b 1bbd 131e 77bb 8993 98bd
000001b0: 99be 8d3c d93b fa3c c2f1 5ebc 8cc4 a03d
000001c0: 96da a4bd 81b0 40bc 2c3c 6dbd 6c91 bd3d
000001d0: 07db b23d a416 cb3d c1ad cb3d bb08 273d
000001e0: 7c0d 9cbd 2e4b 8ebd 90e3 fe3c 6798 b5bd
000001f0: 8ae2 853d 2f7f 3b3d 0bce e53c 412e b4bd
00000200: 67da 9d3d a9c7 02bc b066 23bd 348c 723d
00000210: a1a1 813c 72d9 29bd 8b38 df3c 84d9 83bd
00000220: a94f be3d 4105 bc3d 8453 4a3d bcb1 423d
00000230: 0891 ccbd da52 5dbd cd7e cabd db43 57bd
00000240: 9721 aabd c97c a33d 7b3f 673d e7a5 713d
00000250: 9eaa 39bd 3406 a83d 1d8a f6bb 63c6 e0bc
00000260: 3721 7d3d c206 893d d48f 93bd c76e c13d
00000270: 4412 17bc faf6 f63c f7fe c7bd 53af 403c
00000280: b1fe 4cbd 0b26 83bd 72ef 1ebd c683 b9ba
00000290: 2a2e eebc 8620 88bd 7426 a33d 018c 143d
000002a0: a79e b8bd 56f9 ce3c ba46 de3c 0190 cc3b
000002b0: fa07 e33c f6f7 6bbb fd85 423d a8a8 8bbd
000002c0: e72e 36bd 8c28 9e3d c7af 76bd 0830 5b3d
000002d0: cc92 c23d 1149 b6bd f8cf 32bd 089c b33d
000002e0: a8fe 00ba cbbf a43c f39a 8a3c 2d6f 2d3d
000002f0: 9ae2 25bd f7cb 6c3c c382 923d a172 1cbc
00000300: 6814 bfbd a826 113d 9242 d8bc b42d aebc
00000310: ee89 5c3d cb4f a63c 4bb5 7bbd 71db 42bd
00000320: dff9 84bc 64b4 c1bc 5065 b8bc cb4e 89bd
00000330: be4d 9e3d f4c1 5c3d 5b47 ac3c 6dc9 c73c
00000340: e4d3 503c 98aa 993d 2dbe d53c f19e 923c
00000350: ec68 63bd 396f 0c3d bea4 bebd 17ea 103d
00000360: b68b b5bd 937c 2fbd 4ca7 673d 2293 77bd
00000370: 448b a73d fe8e 5bbd 902d c53d 6ef7 fd3c
00000380: 5172 2bbd 92ca 803d 4670 bbbd 81b9 7ebd
00000390: 19f9 79bd e3de 823c 2f7a 433c 67a1 b2bd
000003a0: ed83 c93d 634c fc3a 0c12 61bd 7d06 eb3a
000003b0: 16c5 37bd 4572 ea3c 3e38 293d 4214 f3bc
000003c0: c1f0 1a3c b898 803d a29c 86bd 9556 a0bc
000003d0: 5652 5dbc b45c 89bd 3d5a 163c 6cdb 873b
000003e0: 24c1 a4bd 9929 a63c 1382 c63d bceb 6a3d
000003f0: d752 61bd c07e bf3d f1b3 8fbd 51c9 54bd

bias f4 [256]
-0.036080953 -0.01205019 0.04249649 -0.09086252 0.012732362 -0.097483195 0.0040902607 0.03195292
0.04681689 0.058079217 0.04948418 0.05929367 -0.049861666 -0.08469199 0.09650301 0.014876539
0.02202178 -0.03694607 -0.023103362 -0.03239477 -0.064311236 -0.08235645 0.038794108 0.05147594
0.048434205 0.093089744 0.07358589 -0.07378931 0.0018791945 -0.015846867 -0.060244784 -0.010711238
-0.08620067 -0.09219254 -0.08771743 0.048049696 0.045735713 -0.09195598 -0.06255168 -0.09178933
-0.058909897 0.007977023 0.07394369 0.04883384 -0.012545217 0.016617304 0.056422796 0.093949765
0.10122023 -0.00085644587 -0.0034959272 0.019654924 -0.08959029 -0.007430131 0.015338477 0.08538695
0.09364222 0.058195725 -0.061626982 -0.097681694 0.0016266032 0.04892681 0.07335075 -0.041801825
-0.03500159 0.0052641593 0.012364823 0.008588852 0.055826638 -0.01846402 0.0032428917 -0.06525893
-0.043877866 -0.007173442 0.08447689 0.07272573 0.06987481 0.047665168 -0.0552577 -0.033900656
-0.045500226 -0.01371244 0.020212458 0.07108395 0.025291726 -0.030463787 -0.07327631 -0.07602413
0.04624468 -0.023824662 -0.08651882 0.022923231 0.074455544 -0.06745801 -0.0023724923 -0.008511382
0.043373443 0.06842956 -0.005634715 0.011794855 -0.029936777 -0.024042238 -0.043811638 0.016198533
0.04081718 -0.0582773 -0.09522908 -0.054245822 0.04086594 0.053399604 -0.09090471 0.00484888
-0.07381861 -0.05894374 -0.037065078 -0.009403429 0.0703138 -0.0052528707 -0.068854414 0.08996333
0.051273443 -0.07091696 -0.032735646 0.101273105 0.048898377 0.06876758 0.026617013 0.0297952
0.06866907 -0.0502709 0.09264663 -0.024035696 -0.093149155 0.0036723244 0.1000366 0.077491984
-0.055103578 -0.049486145 0.02103554 -0.06809129 0.039083287 -0.009679207 0.07408972 0.053278826
0.0035158764 0.07911863 -0.045657743 -0.04181206 -0.02339207 0.00810073 0.008144301 -0.028360456
-0.07921426 -0.011049776 -0.07587891 -0.056461398 0.01944157 -0.04381825 0.01472997 0.0160025
-0.026141744 0.06781531 0.05320585 -0.058936987 -0.101068266 -0.10196454 -0.014626161 -0.0150120715
0.04725234 0.034322936 0.04502077 0.0027707517 0.02925673 -0.035071768 0.0925989 0.0885074
0.009068622 -0.091320515 0.01764518 -0.010527654 0.03757086 -0.056477036 0.06633861 0.06856749
-0.08239471 -0.059229523 -0.06466269 -0.016822567 -0.0005473966 0.005010407 0.022181721 -0.09460682
-0.012166924 0.017158847 -0.030321479 0.053245623 -0.04718092 -0.011451522 0.048784196 0.08016692
-0.023663562 0.020290751 0.04942526 0.07026553 -0.05528569 0.02603026 0.054029167 0.08731984
0.04858338 -0.08162015 0.09213458 0.067774326 -0.0065824767 0.07226468 0.02783561 0.011984026
0.09776461 -0.0570033 -0.07793292 0.02564289 0.065487824 0.06338752 0.050416894 -0.0017841728
-0.0924502 -0.043875966 -0.037956163 -0.095261455 -0.07219313 0.022199497 0.03664652 0.07482377
-0.016248975 -0.046437643 -0.09002967 -0.019417737 -0.038722366 -0.025222078 -0.063781865 -0.021371271
0.082927756 0.009216943 -0.06402492 0.01508216 0.06289577 0.018256342 0.0033306025 -0.06123507
0.037940264 -0.073676325 -0.07368796 -0.012466442 0.007267658 -0.074255235 0.0768787 -0.039671514
00000000: 9fc9 13bd 296e 45bc cd10 2e3d 2116 babd
00000010: 669b 503c 45a5 c7bd 9807 863b 11e1 023d
00000020: 11c3 3f3d 79e4 6d3d ecaf 4a3d ebdd 723d
00000030: bf3b 4cbd fe72 adbd 5fa3 c53d babc 733c
00000040: 0567 b43c c354 17bd 4343 bdbc 61b0 04bd
00000050: 9cb5 83bd 80aa a8bd 92e6 1e3d 6fd8 523d
00000060: f262 463d d6a5 be3d 33b4 963d da1e 97bd
00000070: 4e4f f63a 4ad1 81bc 3cc3 76bd 307e 2fbc
00000080: fa89 b0bd 71cf bcbd 32a5 b3bd c2cf 443d
00000090: 5f55 3b3d 6b53 bcbd 181b 80bd 0bfc bbbd
000000a0: 814b 71bd 0fb2 023c ca6f 973d fe05 483d
000000b0: 748a 4dbc 0321 883c 971b 673d bc68 c03d
000000c0: 8d4c cf3d 1c83 60ba ed1b 65bb 5d03 a13c
000000d0: 1d7b b7bd 7578 f3bb 3c4e 7b3c 5adf ae3d
000000e0: 7ec7 bf3d a45e 6e3d 936c 7cbd 570d c8bd
000000f0: bf33 d53a 7b67 483d eb38 963d 6438 2bbd
00000100: d45d 0fbd f87e ac3b d495 4a3c 42b8 0c3c
00000110: 79aa 643d db41 97bc b286 543b 79a6 85bd
00000120: 47b9 33bd 310f ebbb 3802 ad3d 3af1 943d
00000130: 861a 8f3d 8d3c 433d e655 62bd 6adb 0abd
00000140: 725e 3abd 24aa 60bc 9994 a53c 7694 913d
00000150: 9830 cf3c 318f f9bc e411 96bd 8ab2 9bbd
00000160: 106b 3d3d f02b c3bc c730 b1bd 80c9 bb3c
00000170: 267c 983d 6d27 8abd d17b 1bbb 5373 0bbc
00000180: 5aa8 313d cc24 8c3d 6aa3 b8bb 353f 413c
00000190: f93d f5bc 3af4 c4bc d573 33bd c9b2 843c
000001a0: ea2f 273d 2eb4 6ebd 7707 c3bd de30 5ebd
000001b0: 0b63 273d 8bb9 5a3d 402c babd 5be3 9e3b
000001c0: 362e 97bd fe6e 71bd 8dd1 17bd d710 1abc
000001d0: ae00 903d 4620 acbb 8b03 8dbd b23e b83d
000001e0: 1a04 523d e93c 91bd d015 06bd 4668 cf3d
000001f0: aa49 483d 04d6 8c3d ec0b da3c 1015 f43c
00000200: 5fa2 8c3d dce8 4dbd 84bd bd3d 82e6 c4bc
00000210: fcc4 bebd 61ab 703b fddf cc3d 1eb4 9e3d
00000220: 4ab4 61bd fcb1 4abd ba52 ac3c 7273 8bbd
00000230: cc15 203d 8995 1ebc 5abc 973d e63a 5a3d
00000240: 9e6a 663b f308 a23d 9d03 3bbd 1f43 2bbd
00000250: baa0 bfbc edb8 043c ad6f 053c 3054 e8bc
00000260: 163b a2bd 1f0a 35bc 6766 9bbd 1144 67bd
00000270: ed43 9f3c c47a 33bd f955 713c ad17 833c
00000280: 3627 d6bc c1e2 8a3d 61ee 593d e967 71bd
00000290: e1fc cebd c9d2 d0bd 91a2 6fbc 31f5 75bc
000002a0: ab8b 413d 3596 0c3d b367 383d 8095 353b
000002b0: cfab ef3c 6aa7 0fbd 7ea4 bd3d 5e43 b53d
000002c0: 8f94 143c 4006 bbbd a08c 903c 2e7c 2cbc
000002d0: e7e3 193d 7754 67bd 8adc 873d 1d6d 8c3d
000002e0: 8fbe a8bd a89a 72bd df6d 84bd 7bcf 89bc
000002f0: 2a7f 0fba 572e a43b 71b6 b53c 38c1 c1bd
00000300: c757 47bc b690 8c3c c064 f8bc 1518 5a3d
00000310: c840 41bd 2a9f 3bbc f0d1 473d 8e2e a43d
00000320: 16da c1bc ca38 a63c 2472 4a3d 60e7 8f3d
00000330: 3f73 62bd 693d d53c b04d 5d3d bfd4 b23d
00000340: 5eff 463d 7728 a7bd 0eb1 bc3d 44cd 8a3d
00000350: d1b1 d7bb 81ff 933d 8107 e43c a658 443c
00000360: d038 c83d 4b7c 69bd 4b9b 9fbd 0a11 d23c
00000370: 7b1e 863d 51d1 813d f281 4e3d e8da e9ba
00000380: 8856 bdbd 49b7 33bd ec77 1bbd 7018 c3bd
00000390: fed9 93bd b8db b53c a91a 163d 343d 993d
000003a0: 921c 85bc 6635 3ebd 7a61 b8bd f211 9fbc
000003b0: 589b 1ebd 889e cebc 11a0 82bd ce12 afbc
000003c0: 07d6 a93d a902 173c 7f1f 83bd 2a1b 773c
000003d0: 7fcf 803d 538e 953c 3d46 5a3b a0d1 7abd
000003e0: 4067 1b3d 9de3 96bd b7e9 96bd 0c40 4cbc
000003f0: 8925 ee3b 2113 98bd 9472 9d3d 997e 22bd

weight f4 [256]
0.9993195 0.99991673 1.0004998 0.99917376 0.9990491 0.9990773 0.99755245 1.0003961
1.0053602 0.99903774 0.99863446 0.9963613 0.9995706 0.9991149 1.0017858 0.99985814
1.0006626 0.99991727 0.9978268 1.0010463 0.9974165 0.9979491 1.0024346 1.0023726
1.0006523 0.99947566 1.0010684 0.9998132 0.99985015 1.0008485 0.9988279 1.0015445
0.9981072 1.0001792 0.9986706 1.0014875 1.0014576 1.0002407 0.9976079 1.0013213
1.0006529 1.0006245 1.0010699 1.0015521 0.9993001 0.9990432 0.99957067 0.9995619
0.9987989 0.9968524 0.9994105 1.0042324 1.0011096 1.001548 0.9990053 1.0005237
1.0009953 0.9996484 1.0015725 0.9999544 0.9984714 0.9999775 0.99820393 1.0002601
1.0009967 0.9994129 0.99921834 1.0000417 0.9995696 0.9981358 0.99951315 0.9992443
0.99711925 1.0009683 1.0010011 1.0002759 0.99933827 0.9987605 0.9999067 1.0007079
1.0000098 0.99962085 0.999419 0.99783516 1.0001943 1.0005206 1.0011629 0.999274
0.99979633 1.0000927 1.0008191 1.0021185 0.999263 0.99753743 1.0010568 0.99919295
1.000344 1.0022235 1.0009551 0.9997652 1.0033286 1.000655 1.0005028 1.0001497
0.99916905 0.9997183 0.9999239 0.99985147 1.0003694 1.0012044 1.0015785 1.0004371
0.9988909 0.99889946 0.99974334 0.99824464 1.0018693 1.0003209 1.000255 0.99852884
1.0016966 1.0003159 1.0009589 0.99879205 0.99916583 0.9984299 0.99914783 0.999986
1.000609 1.0007291 1.0006559 1.0010126 0.99940836 0.9982938 0.99967974 0.99955916
1.0012685 0.99843085 1.0003219 0.99844396 0.99876595 0.9983938 1.0000114 0.99921644
0.998015 1.0024511 0.9973373 1.0018244 1.0018384 1.0003104 0.99972963 1.0003573
1.001404 1.0008079 0.9986512 0.99909234 0.99802387 1.0013568 0.9991985 1.0013878
1.0002874 1.0012691 1.0018613 1.0033792 1.0003403 0.99980384 0.99880606 0.9984379
0.9984232 1.0002328 0.9993969 0.99982464 0.9991687 1.0011315 1.0008276 0.99898267
1.0016917 1.0009773 0.9974983 1.0009794 0.9994083 0.99831426 1.0003985 1.0007098
0.9977 0.9988388 1.0003711 1.0007582 1.0001849 1.0011278 0.9994101 1.0003113
1.00062 0.9982404 1.0007753 1.0019209 1.0018893 0.9999547 1.0013238 1.0011299
0.9985951 1.0016308 1.0016971 0.99878776 1.0025886 0.998728 0.9993963 0.9984982
0.99898285 0.99937516 1.0003433 1.0017047 1.0014234 0.99881715 1.0005513 1.0001296
1.0024874 0.99891603 0.9995878 0.999733 1.0008218 1.0000839 0.9992447 0.9981641
0.99831384 1.0003816 1.0031259 0.9999894 0.9993364 1.0025114 1.0009341 1.0005066
1.0025868 0.9990065 1.0028354 1.000553 0.99685955 0.9990717 0.99959594 0.9968868
0.99980277 0.9995742 1.000324 1.0001516 0.99908143 1.0015286 1.000077 1.0008638
0.9999608 1.0006689 0.99762505 1.0001116 0.9996046 1.0007896 0.99867713 1.0002569
00000000: 67d3 7f3f 8bfa 7f3f 6110 803f dac9 7f3f
00000010: afc1 7f3f 88c3 7f3f 995f 7f3f fb0c 803f
00000020: a5af 803f f0c0 7f3f 82a6 7f3f 8911 7f3f
00000030: dce3 7f3f fec5 7f3f 843a 803f b4f6 7f3f
00000040: b615 803f 94fa 7f3f 9471 7f3f 4922 803f
00000050: b056 7f3f 9879 7f3f c74f 803f bf4d 803f
00000060: 6015 803f a3dd 7f3f 0223 803f c2f3 7f3f
00000070: 2ef6 7f3f ce1b 803f 2fb3 7f3f 9c32 803f
00000080: f483 7f3f df05 803f e0a8 7f3f be30 803f
00000090: c32f 803f e307 803f 3b63 7f3f 4c2b 803f
000000a0: 6515 803f 7714 803f 0f23 803f dc32 803f
000000b0: 22d2 7f3f 4cc1 7f3f dde3 7f3f 4ae3 7f3f
000000c0: 49b1 7f3f b831 7f3f 5ed9 7f3f b08a 803f
000000d0: 5c24 803f ba32 803f d0be 7f3f 2911 803f
000000e0: 9d20 803f f5e8 7f3f 8733 803f 03fd 7f3f
000000f0: d29b 7f3f 87fe 7f3f 4b8a 7f3f 8608 803f
00000100: a920 803f 86d9 7f3f c6cc 7f3f 5e01 803f
00000110: cbe3 7f3f d485 7f3f 18e0 7f3f 79ce 7f3f
00000120: 3543 7f3f bb1f 803f ce20 803f 0a09 803f
00000130: a2d4 7f3f c5ae 7f3f e3f9 7f3f 3217 803f
00000140: 5200 803f 27e7 7f3f ecd9 7f3f 2072 7f3f
00000150: 5e06 803f 0f11 803f 1b26 803f 6cd0 7f3f
00000160: a7f2 7f3f 0a03 803f d71a 803f 6b45 803f
00000170: b3cf 7f3f 9d5e 7f3f a122 803f 1ccb 7f3f
00000180: 460b 803f dc48 803f 4c1f 803f 9df0 7f3f
00000190: 126d 803f 7715 803f 7a10 803f e804 803f
000001a0: 8bc9 7f3f 8aed 7f3f 03fb 7f3f 44f6 7f3f
000001b0: 1b0c 803f 7727 803f b933 803f 530e 803f
000001c0: 50b7 7f3f e0b7 7f3f 2eef 7f3f f68c 7f3f
000001d0: 413d 803f 840a 803f 5b08 803f 969f 7f3f
000001e0: 9837 803f 5a0a 803f 6c1f 803f d6b0 7f3f
000001f0: 55c9 7f3f 1a99 7f3f 27c8 7f3f 15ff 7f3f
00000200: f513 803f e417 803f 7e15 803f 2e21 803f
00000210: 3ad9 7f3f 2f90 7f3f 03eb 7f3f 1ce3 7f3f
00000220: 9129 803f 2a99 7f3f 8c0a 803f 069a 7f3f
00000230: 20af 7f3f bc96 7f3f 6000 803f a6cc 7f3f
00000240: e97d 7f3f 5150 803f 7f51 7f3f c83b 803f
00000250: 3e3c 803f 2c0a 803f 48ee 7f3f b50b 803f
00000260: 022e 803f 791a 803f 9ba7 7f3f 84c4 7f3f
00000270: 7e7e 7f3f 762c 803f 79cb 7f3f 7a2d 803f
00000280: 6b09 803f 9629 803f fe3c 803f bb6e 803f
00000290: 270b 803f 25f3 7f3f c1b1 7f3f a099 7f3f
000002a0: aa98 7f3f a107 803f 7ad8 7f3f 82f4 7f3f
000002b0: 85c9 7f3f 1425 803f 1e1b 803f 54bd 7f3f
000002c0: 6f37 803f 0620 803f 0c5c 7f3f 1820 803f
000002d0: 39d9 7f3f 8691 7f3f 0f0d 803f 4217 803f
000002e0: 4469 7f3f e6b3 7f3f 290c 803f d818 803f
000002f0: 0f06 803f f524 803f 57d9 7f3f 330a 803f
00000300: 5114 803f af8c 7f3f 6819 803f f23e 803f
00000310: e93d 803f 08fd 7f3f 612b 803f 0625 803f
00000320: eea3 7f3f 7035 803f 9c37 803f 8eb0 7f3f
00000330: d354 803f a3ac 7f3f 70d8 7f3f 949d 7f3f
00000340: 57bd 7f3f 0dd7 7f3f 400b 803f dc37 803f
00000350: a42e 803f 7bb2 7f3f 1112 803f 3f04 803f
00000360: 8251 803f f6b8 7f3f fce4 7f3f 80ee 7f3f
00000370: ee1a 803f c002 803f 80ce 7f3f af87 7f3f
00000380: 7f91 7f3f 810c 803f 6e66 803f 4eff 7f3f
00000390: 83d4 7f3f 4b52 803f 9c1e 803f 9a10 803f
000003a0: c454 803f e4be 7f3f e95c 803f 1f12 803f
000003b0: 3032 7f3f 2ac3 7f3f 85e5 7f3f f933 7f3f
000003c0: 13f3 7f3f 18e4 7f3f 9e0a 803f f804 803f
000003d0: cdc3 7f3f 1732 803f 8602 803f 4e1c 803f
000003e0: 6efd 7f3f eb15 803f 5b64 7f3f a803 803f
000003f0: 16e6 7f3f e019 803f 4ea9 7f3f 6b08 803f

bias f4 [256]
0.0013446201 -0.00062343857 -0.000318076 0.0007851687 -8.027233e-05 -1.285249e-06 0.0011110872 -8.6612345e-05
-0.001015148 0.00015252964 0.0017056266 -0.001298745 0.00096327654 -0.00030776454 0.0005778291 -0.0012818594
9.4763025e-05 0.00019761678 0.0016690381 -0.0008012537 0.0007371777 -0.0002495323 -0.0011680872 0.000533214
-0.0003221999 -0.0007814182 0.00085001776 -0.0010860559 0.00083590264 -0.00090715755 0.0006259183 0.00014317164
0.00061505195 0.00014769296 0.0010848516 -0.000824992 -0.00032307862 -0.0014531218 -0.0016695166 0.0003239699
0.0011188653 0.00093581364 0.000536602 -0.0013291127 -0.0008040289 0.00069136283 -0.00054101844 -0.0015119324
0.0007033343 -0.0018514238 3.4863642e-05 0.0018941622 0.00035356297 0.00079036294 -0.0010218716 0.0008107744
0.0016330335 0.00012101886 -0.0009508122 0.0008828629 0.0010708641 3.007564e-05 0.0017249533 0.00013419855
-0.00032179896 0.0011681285 -0.0007273086 0.0013772657 0.0007346889 0.0008022716 0.00020802296 -0.0007597414
0.00037232807 1.6522446e-05 -0.001548627 -0.0005831025 0.0011838899 -0.00038400613 0.0017917542 -0.00046994127
0.0003438875 -0.0005762188 -0.00060082844 -0.00064638164 0.00044832606 0.00077653653 -0.0014148229 0.00026516026
0.000526175 -4.4100244e-07 0.00093640795 -0.0011018352 0.001420501 -0.0017680177 7.031629e-05 0.0010418626
-0.00035574837 0.0005536348 0.00062963064 0.00088197895 -0.00023489397 -0.0012025282 -0.000379372 -0.00047783114
-0.00035521018 -0.0008769841 -0.0010114699 -0.0013109866 -5.547517e-05 0.0005091712 0.0010639828 0.00058756856
-0.0011563504 0.00035159528 -0.0003505347 2.6805496e-05 -0.0018660612 -0.0013743449 -0.00035889752 -0.0018487935
0.00028403322 4.0195984e-05 0.0005901083 -0.00012465783 -0.00017901776 -0.00065355893 -5.710815e-05 -0.0016741225
-0.0019733412 0.00018036876 -0.001485367 0.0007386931 -0.0020768612 0.00028062906 -0.00033352937 -0.00030085605
0.00011540439 7.5101025e-06 -0.00024182665 -0.001293369 -0.0011371946 -9.139737e-05 -0.0010352081 -0.00076508144
5.0917002e-05 -0.00020028077 -0.002331142 -0.0017324183 -0.00014022576 0.0007519702 -0.0009132315 -0.001102617
-0.00047671166 0.00051905616 0.0009344596 0.0003098426 0.0002740655 -0.0003337797 -0.0006112464 0.0008268106
0.00040764856 -0.0027535884 0.0003102067 0.0009786887 -0.00029014135 -0.00027515303 0.0005722436 -0.00065626093
0.001212911 -6.190523e-05 0.00045504243 0.00020155858 -0.001056654 0.0012409304 -0.0019094355 -0.00049365737
0.00060475874 0.00051515095 -0.0014506733 0.00050848 -0.00037727362 0.001259445 -0.00083695026 0.0014110244
0.0015525337 -0.0001640353 0.00049286254 -0.0021391571 -0.00013093605 -0.0018745152 0.0012588232 0.00013587339
0.0006904149 2.6326463e-05 -0.0006156205 -0.0007607307 -0.00014097699 0.0010635639 -0.00060887757 -0.0010826905
0.0001811181 0.00013599168 -0.0006861159 -0.00013770457 -0.00034989233 -0.00027963845 0.0007034585 0.0015423282
0.000928492 -0.00078750507 -0.0019367601 0.002512062 0.0012500163 0.0024301335 0.00025742457 0.00036600378
-0.00054376817 0.0007094311 -6.183434e-05 0.0018272259 0.0012153216 0.00026328515 0.00044380268 0.00028021415
-0.00037126135 -8.946392e-05 0.00017449414 -0.00040691844 0.00016343892 4.527797e-05 0.0010507419 -0.00022647652
-4.3861528e-05 -0.0006057959 0.0008525237 -0.0004967486 -0.00096135243 0.0005519382 -0.00028632022 0.00026509148
0.0010415651 0.00089062226 0.0022940214 -0.00023581383 4.157612e-05 -7.945453e-05 -8.793404e-05 -0.0005995055
0.00026676708 -0.0009863668 -0.0005469897 -0.0016636044 -0.0006728884 0.0002353361 0.0008958868 8.299441e-05
00000000: f73d b03a 416e 23ba 70c3 a6b9 c8d3 4d3a
00000010: e157 a8b8 d280 acb5 e6a1 913a a6a3 b5b8
00000020: b70e 85ba 5df0 1f39 558f df3a a73a aaba
00000030: 6584 7c3a 755b a1b9 7479 173a 1004 a8ba
00000040: 83bb c638 5a37 4f39 a0c3 da3a 3a0b 52ba
00000050: 283f 413a a9d3 82b9 811a 99ba 63c7 0b3a
00000060: f0ec a8b9 16d8 4cba bad3 5e3a fd59 8eba
00000070: 7a20 5b3a 50ce 6dba ab14 243a 5820 1639
00000080: 703b 213a 07de 1a39 9431 8e3a 4744 58ba
00000090: e162 a9b9 ad76 beba aed3 daba 81da a939
000000a0: e4a6 923a 6451 753a c0aa 0c3a 9f35 aeba
000000b0: 77c5 52ba 933c 353a 22d3 0dba 082c c6ba
000000c0: f75f 383a 79ab f2ba 8d3a 1238 8945 f83a
000000d0: 6b5e b939 5c30 4f3a 52f0 85ba 268a 543a
000000e0: 830b d63a 81cb fd38 ed3f 79ba ed6f 673a
000000f0: 3d5c 8c3a f24a fc37 d417 e23a a6b7 0c39
00000100: 20b7 a8b9 e31b 993a dba8 3eba 5e85 b43a
00000110: 2398 403a 894f 523a bd20 5a39 6229 47ba
00000120: 0735 c339 af99 8a37 4dfb caba 59db 18ba
00000130: c12c 9b3a 6e54 c9b9 4bd9 ea3a 7362 f6b9
00000140: cd4b b439 640d 17ba ea80 1dba f071 29ba
00000150: 4e0d eb39 7c90 4b3a 9471 b9ba 3505 8b39
00000160: 02ef 093a eac2 ecb4 4679 753a 746b 90ba
00000170: 1b30 ba3a d4bc e7ba c576 9338 1c8f 883a
00000180: bd83 bab9 cd21 113a cc0d 253a 9b34 673a
00000190: df4d 76b9 279e 9dba 73e6 c6b9 6985 fab9
000001a0: 813b bab9 68e5 65ba 4c93 84ba 69d5 abba
000001b0: 03ae 68b8 e779 053a 5775 8b3a 0f07 1a3a
000001c0: ae90 97ba 5256 b839 f9c7 b7b9 5ddc e037
000001d0: a096 f4ba 5d23 b4ba 692a bcb9 3753 f2ba
000001e0: 4bea 9439 1c98 2838 7fb1 1a3a 95b6 02b9
000001f0: b7b6 3bb9 9953 2bba 6987 6fb8 3b6e dbba
00000200: 2c53 01bb 5f21 3d39 a5b0 c2ba dba4 413a
00000210: f31b 08bb 6521 9339 8edd aeb9 37bc 9db9
00000220: 4305 f238 4aff fb36 d992 7db9 4386 a9ba
00000230: eb0d 95ba 97ac bfb8 d2af 87ba bf8f 48ba
00000240: b78f 5538 7602 52b9 13c6 18bb 5012 e3ba
00000250: 9109 13b9 de1f 453a ee65 6fba b085 90ba
00000260: 28ef f9b9 4511 083a 86f6 743a 5f72 a239
00000270: 73b0 8f39 27ff aeb9 0d3c 20ba 52be 583a
00000280: aab9 d539 8c75 34bb 3da3 a239 5847 803a
00000290: 1d1e 98b9 6a42 90b9 9e02 163a ed08 2cba
000002a0: 8afa 9e3a 1ed3 81b8 c392 ee39 7859 5339
000002b0: 6d7f 8aba b7a6 a23a 0646 faba c968 01ba
000002c0: ac88 1e3a 320b 073a 8524 beba 844b 053a
000002d0: cfcc c5b9 f613 a53a c866 5bba 1ff2 b83a
000002e0: 637e cb3a e400 2cb9 7233 013a 1a31 0cbb
000002f0: e14b 09b9 4bb2 f5ba 19ff a43a 3c79 0e39
00000300: f6fc 343a a6d7 dc37 9861 21ba c66b 47ba
00000310: 39d3 13b9 4867 8b3a 159d 1fba 11e9 8dba
00000320: 85ea 3d39 fd98 0e39 75dc 33ba ca64 10b9
00000330: c171 b7b9 709c 92b9 4d68 383a f227 ca3a
00000340: 0b66 733a 9270 4eba e3da fdba 68a1 243b
00000350: 96d7 a33a e042 1f3b f1f6 8639 32e4 bf39
00000360: aa8b 0eba 1df9 393a 0fad 81b8 877f ef3a
00000370: 6d4b 9f3a 8909 8a39 30ae e839 b5e9 9239
00000380: dba5 c2b9 949e bbb8 6af8 3639 ab57 d5b9
00000390: cd60 2b39 dae8 3d38 0cb9 893a 547a 6db9
000003a0: f5f7 37b8 46ce 1eba e67b 5f3a 3c38 02ba
000003b0: 4503 7cba f2af 103a 401d 96b9 fafb 8a39
000003c0: 2085 883a a678 693a 4b57 163b cb44 77b9
000003d0: 0562 2e38 d3a0 a6b8 3a69 b8b8 2228 1dba
000003e0: dfdc 8b39 fa48 81ba db63 0fba 4d0d daba
000003f0: c764 30ba 8ec4 7639 f2d9 6a3a 490d ae38

running_mean f4 [256]
0.15320562 0.22114585 0.22556815 0.11193881 0.14184383 0.12066118 0.25564462 0.29407644
0.17885701 0.28766716 0.17459983 0.40835828 0.18927848 0.40870774 0.29008797 0.35245657
0.35828185 0.13960879 0.15039662 0.38524875 0.1911556 0.3010098 0.21683891 0.16445352
0.3670768 0.2062435 0.4251914 0.11979909 0.16811171 0.17232396 0.18989205 0.26873118
0.20324951 0.10614589 0.1141816 0.19391133 0.260295 0.12905717 0.27059138 0.15355572
0.16010359 0.22372518 0.16091613 0.20198023 0.277664 0.25151846 0.24099825 0.251175
0.40351045 0.18402195 0.33448538 0.3640887 0.12175369 0.16101721 0.23024188 0.3086732
0.323665 0.33712453 0.3131629 0.09941842 0.4425885 0.3196642 0.18854722 0.23307663
0.24069495 0.2129032 0.16284913 0.1376675 0.21448226 0.15694484 0.121013656 0.19031115
0.15221384 0.28130454 0.19461022 0.17364775 0.2455336 0.2564419 0.33417374 0.2032142
0.14924097 0.23664258 0.1942212 0.28534865 0.17142412 0.13684985 0.26244104 0.10597268
0.27740315 0.1932618 0.18247029 0.20201813 0.20590393 0.3200562 0.3062842 0.29009712
0.13105263 0.32129633 0.117204025 0.30747485 0.1305969 0.14135358 0.18049876 0.41142985
0.16329537 0.18722461 0.08351555 0.13104907 0.34135562 0.16753791 0.08369948 0.2056388
0.15737087 0.14715779 0.25496268 0.15332663 0.19270287 0.22685379 0.09960814 0.23418713
0.3351332 0.3979138 0.118006766 0.24385303 0.19747981 0.21783295 0.23512799 0.37486812
0.2466953 0.21424879 0.15886238 0.30554202 0.3835851 0.19638006 0.2892939 0.17606957
0.13983694 0.22022364 0.18655124 0.10166203 0.28387386 0.20857492 0.34811276 0.24306218
0.23056301 0.4203272 0.12757817 0.15120962 0.18018037 0.24959233 0.2874248 0.1778341
0.23306684 0.2817998 0.31455463 0.20725735 0.11143985 0.10339118 0.25950873 0.1243951
0.27210584 0.31820267 0.15090205 0.1485103 0.21525957 0.08438279 0.2786666 0.27027655
0.18891595 0.32128406 0.35738212 0.18435094 0.48961902 0.16449799 0.19955286 0.2431131
0.11413276 0.17321968 0.3536127 0.31007802 0.12431471 0.38332927 0.26672682 0.24380496
0.25469536 0.19411702 0.25839716 0.23564264 0.17776501 0.27419508 0.3858816 0.10531098
0.1456787 0.28512555 0.11769239 0.3947461 0.17311686 0.1922489 0.1746395 0.3411867
0.23791042 0.36603597 0.329159 0.23719868 0.17885733 0.18048058 0.19618066 0.36197513
0.22165802 0.25770235 0.27542633 0.22211519 0.30282053 0.21403252 0.20149384 0.24353531
0.20559879 0.17138821 0.08356685 0.20428878 0.24533507 0.31291705 0.15793511 0.097626835
0.14333116 0.33270156 0.119523495 0.17539713 0.13630024 0.17762882 0.32026702 0.17936316
0.3749071 0.15532318 0.31378073 0.15091613 0.20328617 0.13660607 0.14039323 0.30157188
0.1985765 0.43124968 0.20655786 0.13693419 0.20526959 0.1699062 0.1679509 0.19467811
0.18875876 0.08976927 0.15025038 0.23947556 0.20562938 0.1252093 0.3293427 0.159059
00000000: efe1 1c3e 0f74 623e 56fb 663e 2d40 e53d
00000010: 823f 113e 351d f73d dae3 823e 3091 963e
00000020: 4b26 373e 1c49 933e 4cca 323e 5614 d13e
00000030: 38d2 413e 2442 d13e 6986 943e 3075 b43e
00000040: b870 b73e 9bf5 0e3e 9201 1a3e 533f c53e
00000050: 4bbe 433e f51d 9a3e 050b 5e3e 8166 283e
00000060: 7ef1 bb3e 7f31 533e b0b2 d93e 3a59 f53d
00000070: 7a25 2c3e b175 303e 1073 423e 2297 893e
00000080: a420 503e 0463 d93d 0bd8 e93d b190 463e
00000090: 6345 853e 9027 043e f48a 8a3e b63d 1d3e
000000a0: 32f2 233e 3718 653e 33c7 243e e8d3 4e3e
000000b0: fa29 8e3e 07c7 803e 3fc8 763e 029a 803e
000000c0: ec98 ce3e 4070 3c3e ab41 ab3e d669 ba3e
000000d0: 005a f93d b2e1 243e 87c4 6b3e 6a0a 9e3e
000000e0: 6bb7 a53e 969b ac3e e356 a03e e29b cb3d
000000f0: f69a e23e 07ab a33e 8612 413e a4ab 6e3e
00000100: bd78 763e 4c03 5a3e ecc1 263e b6f8 0c3e
00000110: 3da1 5b3e 26b6 203e 02d6 f73d ede0 423e
00000120: f2dd 1b3e 2607 903e e747 473e b7d0 313e
00000130: 296d 7b3e 5a4c 833e d218 ab3e 6217 503e
00000140: a0d2 183e 6f52 723e ece1 463e 3819 923e
00000150: ce89 2f3e 5e22 0c3e ac5e 863e 3408 d93d
00000160: c907 8e3e 6ce6 453e 7ed9 3a3e d7dd 4e3e
00000170: 7bd8 523e 68de a33e 48d1 9c3e 9c87 943e
00000180: a932 063e f480 a43e aa08 f03d 586d 9d3e
00000190: 32bb 053e febe 103e abd4 383e efa6 d23e
000001a0: e736 273e cfb7 3f3e 330a ab3d ba31 063e
000001b0: 2ac6 ae3e 0f8f 2b3e a26a ab3d fa92 523e
000001c0: d425 213e 88b0 163e 788a 823e a801 1d3e
000001d0: e753 453e 5c4c 683e 5aff cb3d c0ce 6f3e
000001e0: 9496 ab3e 5cbb cb3e 88ad f13d 9cb4 793e
000001f0: 2638 4a3e 9a0f 5f3e 64c5 703e b7ee bf3e
00000200: b19d 7c3e 0964 5b3e d2ac 223e 0170 9c3e
00000210: 4465 c43e db17 493e 541e 943e 954b 343e
00000220: 6a31 0f3e 4e82 613e 4a07 3f3e 2f34 d03d
00000230: ea57 913e aa94 553e d63b b23e 4be5 783e
00000240: b618 6c3e 2035 d73e daa3 023e b2d6 1a3e
00000250: 3481 383e 2295 7f3e 5829 933e 241a 363e
00000260: 13a9 6e3e 1048 903e 4e0d a13e 453b 543e
00000270: 933a e43d c1be d33d 54de 843e dcc2 fe3d
00000280: 7551 8b3e 76eb a23e 1186 1a3e 1613 183e
00000290: 016d 5c3e e2d0 ac3d 63ad 8e3e b061 8a3e
000002a0: 2f73 413e 587f a43e cafa b63e 7ec6 3c3e
000002b0: 58af fa3e 2972 283e 9657 4c3e a4f2 783e
000002c0: 70be e93d 8060 313e b90c b53e 8cc2 9e3e
000002d0: b698 fe3d bc43 c43e 6b90 883e 02a8 793e
000002e0: 6e67 823e 9dc6 463e a24c 843e 4e4c 713e
000002f0: 0808 363e 4c63 8c3e 4692 c53e 48ad d73d
00000300: cc2c 153e fafb 913e b508 f13d 291c ca3e
00000310: 8c45 313e e5dc 443e b2d4 323e 06b0 ae3e
00000320: ca9e 733e 1169 bb3e 8787 a83e 36e4 723e
00000330: 6026 373e e7cf 383e 95e3 483e ce54 b93e
00000340: 52fa 623e 90f1 833e ae04 8d3e 2a72 633e
00000350: 4b0b 9b3e 572b 5b3e 6754 4e3e 5261 793e
00000360: 7d88 523e 6480 2f3e 1925 ab3d 1431 513e
00000370: 1e39 7b3e aa36 a03e beb9 213e 94f0 c73d
00000380: 67c5 123e dc57 aa3e bcc8 f43d 4e9b 333e
00000390: 4a92 0b3e 54e4 353e 0afa a33e faaa 373e
000003a0: d3f3 bf3e 0a0d 1f3e dea7 a03e c289 1a3e
000003b0: 402a 503e 76e2 0b3e 3ec3 0f3e a167 9a3e
000003c0: a357 4b3e c2cc dc3e e783 533e 7a38 0c3e
000003d0: 3132 523e e4fb 2d3e 52fb 2b3e b359 473e
000003e0: fa49 413e f3d8 b73d 3cdb 193e 1539 753e
000003f0: 8290 523e de36 003e 9b9f a83e 5de0 223e
