statedicts/torchscript_pl_db_2022-05-02_T3_P0_R1_s1_seed_2.pt (torch, 225385 bytes, 29 tensors)

weight f4 [5]
1.0029583 1.0201247 0.9755019 0.9754138 1.016583
00000000: f060 803f 7293 823f 7eba 793f b8b4 793f
00000010: 641f 823f

bias f4 [5]
-0.0015378083 -0.007550923 0.004530997 -0.009294463 0.0021376389
00000000: 4990 c9ba bc6d f7bb c278 943b ce47 18bc
00000010: a117 0c3b

running_mean f4 [5]
2.6329799 0.0648488 2.9862156 2.92129 0.20162462
00000000: be82 2840 73cf 843d 281e 3f40 6af6 3a40
00000010: af76 4e3e

running_var f4 [5]
0.041406896 4.4632299e-07 0.003848641 0.0025326568 0.003415425
00000000: 479a 293d 2a9e ef34 7b39 7c3b eefa 253b
00000010: 53d5 5f3b

weight f4 [96, 5]
-0.19811401 -0.24744536 0.14798963 0.13534151 -0.24577159 0.13256097 -0.18555988 0.40831232
-0.23465165 0.13833566 0.43762788 0.28522298 0.31829855 0.0361353 0.20803522 -0.36220148
-0.11139751 -0.40074316 -0.011248727 0.3338483 -0.34674704 0.00035635568 0.1283263 -0.40495527
-0.13047272 -0.32216927 -0.43284222 -0.30516365 -0.09530813 0.09610622 0.41364524 -0.43891093
-0.3768921 -0.13533334 0.20010486 0.13392486 -0.09082369 -0.28564999 -0.24047944 -0.08851734
-0.15321535 -0.43824512 -0.3938342 -0.4075069 -0.14198478 -0.21645218 0.4369939 0.18193093
0.36409953 -0.11236676 0.12800506 -0.093396775 -0.24165446 -0.4050192 -0.37183368 -0.24634616
-0.17842472 -0.2050364 -0.19282354 0.23016998 -0.13339925 -0.27918378 0.014532836 -0.14515878
-0.24245232 -0.4183376 -0.10064074 -0.2149431 0.33708325 -0.14250234 0.34158975 -0.25264424
0.23743318 0.2822295 -0.2280131 -0.22971469 -0.034057885 -0.010311991 -0.13471168 0.27706403
0.113385655 -0.29827055 0.16618606 0.25992075 0.19834207 0.1643092 -0.1397491 0.09788378
0.44246304 -0.25990865 -0.21952373 -0.16320777 -0.36250126 -0.43541986 0.28177822 0.31193325
0.14992395 -0.21182564 -0.35518825 -0.17807716 -0.37195674 0.228376 -0.29463127 -0.022671722
-0.20955433 0.13124466 -0.35038292 -0.25871754 0.21686807 -0.3737178 -0.10783489 0.10390873
0.2887302 0.022731898 0.22647004 0.24383019 0.37030417 0.10488891 -0.3938658 0.11829739
-0.34740633 0.24650155 -0.30077985 -0.40904203 0.41471988 0.3636501 -0.18933055 0.35133696
0.012494697 -0.4009557 0.023403656 0.2547745 -0.44583338 -0.25970602 -0.41273856 -0.13261819
-0.06641995 -0.43020678 -0.07149127 0.1123284 -0.029237252 0.39571092 0.11136242 -0.4253563
0.23335187 -0.18716086 -0.09366762 0.05161404 0.17050782 -0.37509108 -0.1381886 -0.3328286
0.155593 -0.37248012 -0.25145504 0.10299909 0.36577228 -0.034865852 -0.43924475 -0.12720703
-0.32808062 0.066656485 -0.43027046 0.26391935 0.096763805 -0.046092812 -0.26129445 0.38474226
0.12733458 0.19655329 -0.032154117 -0.24377353 -0.059016276 0.34227803 0.1909557 0.32541963
-0.16157229 -0.38465217 -0.18999746 -0.2178479 0.4471628 0.33947375 0.018181235 -0.14929752
-0.20494457 0.052239884 -0.34763786 -0.021080019 -0.3751711 0.1265576 -0.3206095 -0.068270355
-0.14313605 -0.36026728 0.2408898 -0.30055836 -0.2034637 -0.27567476 0.06455413 -0.30493763
0.24977498 0.22302584 -0.3742876 0.3264 0.07326189 -0.37681973 -0.025209626 -0.1679371
-0.22926994 0.36619237 0.03193117 -0.09332021 0.3244813 0.18617664 -0.43115136 -0.23594365
0.04089621 -0.298025 -0.37053162 0.28227141 -0.40681767 -0.102228336 0.26860622 0.25577834
-0.34366208 0.042858433 -0.3696828 0.2907074 0.09548069 -0.2141069 0.022381235 0.3714138
-0.007714362 -0.16826868 -0.14374445 0.27457485 0.16163518 -0.057781316 0.21767546 0.23107682
-0.32696372 0.08335658 0.3279438 -0.43729162 -0.3806489 0.368851 0.13594256 0.13017356
-0.1923616 -0.42498413 0.4604653 -0.24262637 -0.39150888 0.0019093418 -0.22585402 0.16837195
00000000: 66de 4abe 5162 7dbe 988a 173e f796 0a3e
00000010: 8cab 7bbe 10be 073e 6903 3ebe 500e d13e
00000020: 8648 70be dda7 0d3e c310 e03e bf08 923e
00000030: 07f8 a23e 9c02 143d 2f07 553e 7972 b9be
00000040: 6124 e4bd 352e cdbe 954c 38bc 2aee aa3e
00000050: d488 b1be 40d5 ba39 f867 033e 4c56 cfbe
00000060: a49a 05be 5ff3 a4be 7f9d ddbe 693e 9cbe
00000070: e930 c3bd 56d3 c43d 4fc9 d33e efb8 e0be
00000080: 00f8 c0be d394 0abe 4ae8 4c3e 9923 093e
00000090: c501 babd b740 92be 3e40 76be 9448 b5bd
000000a0: 7ce4 1cbe aa61 e0be a3a4 c9be bfa4 d0be
000000b0: 7564 11be a4a5 5dbe aabd df3e 1a4c 3a3e
000000c0: 416b ba3e 8b20 e6bd c213 033e cf46 bfbd
000000d0: 4474 77be ad5e cfbe fc60 bebe 2b42 7cbe
000000e0: f8b4 36be 10f5 51be 8973 45be aeb1 6b3e
000000f0: d099 08be 2df1 8ebe 221b 6e3c 81a4 14be
00000100: 6c45 78be 5930 d6be bb1c cebd 0b1a 5cbe
00000110: 2d96 ac3e 22ec 11be dae4 ae3e 965a 81be
00000120: af21 733e 6380 903e 447c 69be 543a 6bbe
00000130: 4880 0bbd a0f3 28bc dcf1 09be 56db 8d3e
00000140: bd36 e83d ebb6 98be ae2c 2a3e 5514 853e
00000150: 2f1a 4b3e ac40 283e 631a 0fbe 4b77 c83d
00000160: 848a e23e bf12 85be d4ca 60be f01f 27be
00000170: c499 b9be 5aef debe 3c45 903e b7b5 9f3e
00000180: aa85 193e d2e8 58be 3cdb b5be dc59 36be
00000190: 1d71 bebe 66db 693e e9d9 96be 0cba b9bc
000001a0: 6995 56be 0065 063e 6465 b3be a076 84be
000001b0: aa12 5e3e f157 bfbe 8ad8 dcbd 1ace d43d
000001c0: 72d4 933e 3f38 ba3c c3e7 673e 9fae 793e
000001d0: 8298 bd3e ffcf d63d c7a8 c9be e745 f23d
000001e0: 3edf b1be e76a 7c3e d1ff 99be f56d d1be
000001f0: 2a56 d43e 5930 ba3e dedf 41be 70e2 b33e
00000200: 8fb6 4c3c 114a cdbe 06b9 bf3c ce71 823e
00000210: 4644 e4be 30f8 84be 7852 d3be 10cd 07be
00000220: 2f07 88bd 1044 dcbe 046a 92bd 6f0c e63d
00000230: f682 efbc 9f9a ca3e fb11 e43d 4dc8 d9be
00000240: cbf3 6e3e 19a7 3fbe cfd4 bfbd 3e69 533d
00000250: 9a99 2e3e f00b c0be 5081 0dbe 8368 aabe
00000260: c553 1f3e b7b5 bebe b7be 80be 30f1 d23d
00000270: 8146 bb3e 7fcf 0ebd b0e4 e0be 8f42 02be
00000280: 2ffa a7be 3283 883d 694c dcbe 7020 873e
00000290: 1a2c c63d d1cb 3cbd 63c8 85be f0fc c43e
000002a0: ff63 023e 4445 493e 09b4 03bd c59f 79be
000002b0: 0dbb 71bd 113f af3e e489 433e 679d a63e
000002c0: 3573 25be 21f1 c4be b28e 42be 8513 5fbe
000002d0: 86f2 e43e 81cf ad3e d0f0 943c 73e1 18be
000002e0: fddc 51be 7df9 553d 97fd b1be 01b0 acbc
000002f0: 6d16 c0be 5198 013e ee26 a4be 54d1 8bbd
00000300: 4292 12be f474 b8be d1ab 763e c9e2 99be
00000310: ca58 50be 3e25 8dbe f534 843d c920 9cbe
00000320: 03c5 7f3e e360 643e a0a2 bfbe e71d a73e
00000330: 540a 963d 84ee c0be 6b84 cebc b4f7 2bbe
00000340: bdc5 6abe 917d bb3e 42ca 023d ab1e bfbd
00000350: 6a22 a63e 17a5 3e3e dfbf dcbe 369b 71be
00000360: c982 273d bc96 98be 52b6 bdbe e185 903e
00000370: 684a d0be 175d d1bd c186 893e 61f5 823e
00000380: 7af4 afbe 538c 2f3d 1047 bdbe 9ad7 943e
00000390: 618b c33d d73e 5bbe da58 b73c f329 be3e
000003a0: c2c8 fcbb a04e 2cbe bf31 13be 1395 8c3e
000003b0: b183 253e 1aac 6cbd 51e6 5e3e 679f 6c3e
000003c0: ca67 a7be dbb6 aa3d 40e8 a73e b0e4 dfbe
000003d0: 6ae4 c2be 0ada bc3e 8734 0b3e 384c 053e
000003e0: 70fa 44be 8597 d9be 1cc2 eb3e 0c73 78be
000003f0: da73 c8be e142 fa3a 4746 67be b269 2c3e

bias f4 [96]
-0.034409255 -0.3289302 -0.37618467 0.10938398 -0.14258432 0.29989403 0.13191196 0.243498
0.009101687 -0.32310113 0.040714182 0.042106595 -0.37990645 -0.34850952 0.13413656 0.1350932
-0.08785929 -0.36627746 -0.4413131 0.22505692 -0.4238068 -0.27193165 0.18049769 0.26519725
0.10681743 -0.30220217 0.37017414 0.13430497 -0.12950806 -0.16719952 0.031267807 -0.10218601
0.16651218 0.31762466 -0.09662877 0.3300242 0.4069363 0.34485412 0.17869928 0.44584912
-0.015999373 -0.17833918 0.041673876 0.3680555 0.35204643 -0.14308734 0.3423472 -0.14749722
-0.21262191 0.17202976 -0.41115287 0.24126463 0.29066718 0.3104098 0.03830364 -0.21209827
0.16950446 0.08310447 0.06505316 0.42786896 0.2532629 0.3929872 0.24052617 0.35575843
-0.15938793 0.3014348 -0.2572135 -0.2548613 0.29008883 0.037818424 -0.19775654 -0.35942742
-0.19865257 -0.27203768 0.19076383 -0.43823832 -0.24644941 -0.08920856 0.1936853 0.19502182
-0.3414044 0.0776469 -0.1439895 -0.208457 -0.021521086 0.25174177 0.3637722 0.42345622
0.2847309 0.3174551 0.15536399 0.15975782 -0.17846872 -0.20693725 -0.2933902 -0.00794731
00000000: b8f0 0cbd 8a69 a8be 479b c0be b504 e03d
00000010: a001 12be b68b 993e ee13 073e 8a57 793e
00000020: 3e1f 153c 836d a5be eac3 263d f777 2c3d
00000030: 1983 c2be d76f b2be 185b 093e df55 0a3e
00000040: 92ef b3bd b888 bbbe caf3 e1be 5275 663e
00000050: 34fd d8be a03a 8bbe 63d4 383e efc7 873e
00000060: 19c3 da3d 3eba 9abe 7787 bd3e 3e87 093e
00000070: c39d 04be 5a36 2bbe ac12 003d e646 d1bd
00000080: 2b82 2a3e b39f a23e 4ee5 c5bd eff8 a83e
00000090: f459 d03e b890 b03e f2fc 363e 5646 e43e
000000a0: 1e11 83bc 8c9e 36be 3ab2 2a3d c571 bc3e
000000b0: 6e3f b43e 7d85 12be 2248 af3e 8309 17be
000000c0: 8fb9 59be 9228 303e a182 d2be 130e 773e
000000d0: 54d2 943e 09ee 9e3e 47e4 1c3d 4a30 59be
000000e0: 9492 2d3e ad32 aa3d 973a 853d a411 db3e
000000f0: adab 813e 9e35 c93e 7e4c 763e f825 b63e
00000100: 9736 23be a955 9a3e 7db1 83be 2e7d 82be
00000110: 8686 943e 7ee7 1a3d b180 4abe df06 b8be
00000120: 946b 4bbe 8648 8bbe 9857 433e c660 e0be
00000130: 3c5d 7cbe fab2 b6bd 7055 463e cdb3 473e
00000140: 8fcc aebe 5705 9f3d fc71 13be c075 55be
00000150: fd4c b0bc 4ce4 803e 5a40 ba3e 41cf d83e
00000160: 40c8 913e 7a89 a23e bd17 1f3e 8e97 233e
00000170: 81c0 36be 5ce7 53be 3e37 96be 6f35 02bc

weight f4 [96]
1.0025474 0.99936783 1.0052099 0.99965316 1.0004139 0.9989313 0.9968587 1.0012693
1.0015874 0.9981361 0.99584144 1.0004946 1.0014378 1.003076 1.0027552 1.0001996
0.99840605 0.9953315 0.9999908 1.004157 0.99801 1.0004894 0.99828756 0.99555916
1.0015506 0.99681157 1.0030766 1.0035331 0.99994236 1.0019808 1.0037464 1.0007007
0.9992032 1.0000838 1.0027256 0.9997215 1.0035211 0.9993076 0.998341 0.9991849
0.9997048 1.0042795 0.9999256 0.99988014 0.995917 1.000549 0.9992782 1.0002233
0.9996225 0.9981842 0.99979633 0.9965592 1.0003077 0.9970049 1.0030508 0.9995103
0.9978094 1.000261 0.9982033 1.0004398 1.0008702 1.0001307 1.0050056 1.0027332
0.99858606 0.9990976 0.99680686 0.9994353 0.9986233 0.9964448 1.0007403 0.9996924
0.9993674 1.0024703 1.0012641 1.0056888 1.0032204 0.99906546 0.9992294 0.99934536
1.0037136 0.998482 0.99958163 0.99865335 0.9978733 1.0007114 1.0004395 0.9943786
0.9986382 0.9993284 0.998011 0.9990299 0.9997946 0.9975079 1.0018528 1.0010794
00000000: 7953 803f 92d6 7f3f b8aa 803f 45e9 7f3f
00000010: 900d 803f f6b9 7f3f 2232 7f3f 9829 803f
00000020: 0434 803f d985 7f3f 77ef 7e3f 3510 803f
00000030: 1d2f 803f cb64 803f 485a 803f 8a06 803f
00000040: 8a97 7f3f 0cce 7e3f 66ff 7f3f 3788 803f
00000050: 957d 7f3f 0910 803f c68f 7f3f f7dc 7e3f
00000060: cf32 803f 0b2f 7f3f d064 803f c673 803f
00000070: 39fc 7f3f e840 803f c37a 803f f616 803f
00000080: c8cb 7f3f bf02 803f 5059 803f c0ed 7f3f
00000090: 6173 803f 9fd2 7f3f 4793 7f3f 95ca 7f3f
000000a0: a7ec 7f3f 3b8c 803f 20fb 7f3f 25f8 7f3f
000000b0: 6bf4 7e3f fd11 803f b2d0 7f3f 5107 803f
000000c0: 43e7 7f3f 0089 7f3f a7f2 7f3f 811e 7f3f
000000d0: 150a 803f b73b 7f3f f863 803f e8df 7f3f
000000e0: 7070 7f3f 8d08 803f 408a 7f3f 690e 803f
000000f0: 841c 803f 4804 803f 06a4 803f 9059 803f
00000100: 56a3 7f3f dcc4 7f3f bc2e 7f3f feda 7f3f
00000110: c7a5 7f3f 0217 7f3f 4218 803f d7eb 7f3f
00000120: 8bd6 7f3f f250 803f 6c29 803f 69ba 803f
00000130: 8769 803f c1c2 7f3f 7fcd 7f3f 19d5 7f3f
00000140: b079 803f 849c 7f3f 95e4 7f3f bfa7 7f3f
00000150: a074 7f3f 5017 803f 670e 803f 998f 7e3f
00000160: c1a6 7f3f fcd3 7f3f a67d 7f3f 6cc0 7f3f
00000170: 8af2 7f3f ae5c 7f3f b63c 803f 5f23 803f

bias f4 [96]
8.062039e-06 0.0021105877 -0.000383543 -0.001465063 0.00013168559 -0.00023283604 0.0012671372 -0.0015943074
-0.00015982507 -0.002418169 0.0013536916 0.001692403 7.453005e-05 -0.0003516056 0.0005689544 -0.0028136459
-0.0024541975 -0.0004935448 0.00086651463 -0.0027121701 0.0006806787 0.0015840901 -0.00016103964 0.0016458292
-0.0018738934 4.752019e-05 -0.0017639856 -0.0012173523 -0.00034729522 -0.0012917387 -0.0010565271 0.0005431017
0.002123718 -0.00031884876 -0.0004046359 0.0020273335 0.00088660227 -0.0015072121 0.0005156269 0.0016787882
-0.00067209516 -0.0019725952 -0.000733846 -0.0007135413 -0.0011088519 0.0023251462 0.00063977204 -0.0016382067
-0.000104151004 -0.001176956 0.0017719322 0.0009997544 -0.00041646085 0.0014476392 0.0020899328 0.0006618356
-5.3352444e-05 -0.00054275093 -0.0028168624 -0.003237302 -0.001994062 -0.0009965595 -0.0007251027 -0.0021680926
-0.00090542226 -0.0001810907 0.0016205884 0.0005078007 -0.0012312776 -0.0015560129 -0.00029147262 -0.00035909584
0.00045503146 -0.0018199541 -0.0013871455 -0.0014890907 0.0012330043 0.0012587431 0.0013802246 -0.00018675515
0.0022469852 0.0020099327 -0.001006945 -0.0027488333 -0.0005587372 0.0009207983 0.000734855 0.0033646363
0.0026604002 0.0015293288 0.0015372178 -0.0014186421 0.00077675754 -0.0006990732 -0.0017242321 -0.00028700987
00000000: 3242 0737 c951 0a3b 4516 c9b9 5b07 c0ba
00000010: 1515 0a39 7325 74b9 1216 a63a 14f8 d0ba
00000020: b796 27b9 257a 1ebb 5a6e b13a 9fd3 dd3a
00000030: 044d 9c38 b457 b8b9 e225 153a 2565 38bb
00000040: 9ad6 20bb 3b61 01ba d026 633a aabe 31bb
00000050: 936f 323a 3ea1 cf3a c0dc 28b9 ddb8 d73a
00000060: 6e9d f5ba 6a50 4738 8935 e7ba 918f 9fba
00000070: 2d15 b6b9 8f4f a9ba 2b7b 8aba f05e 0e3a
00000080: 132e 0b3b 282b a7b9 5025 d4b9 03dd 043b
00000090: df6a 683a a58d c5ba 232b 073a c90a dc3a
000000a0: 8b2f 30ba a846 01bb 925f 40ba f20c 3bba
000000b0: e556 91ba 7b61 183b 60b6 273a 18b9 d6ba
000000c0: a56b dab8 1744 9aba 2e40 e83a 310a 833a
000000d0: 6e58 dab9 b6be bd3a 41f7 083b 097f 2d3a
000000e0: c0c6 5fb8 6647 0eba 1c9b 38bb ea28 54bb
000000f0: cfae 02bb fd9e 82ba d214 3eba 8f16 0ebb
00000100: dc59 6dba 2ae3 3db9 ec69 d43a ee1d 053a
00000110: d262 a1ba 21f3 cbba cbd0 98b9 0745 bcb9
00000120: 4a91 ee39 878b eeba e1d0 b5ba 982d c3ba
00000130: c29c a13a 69fc a43a a7e8 b43a b4d3 43b9
00000140: 2842 133b 13b9 033b 78fb 83ba c525 34bb
00000150: 3878 12ba ba61 713a 49a3 403a 3b81 5c3b
00000160: 1c5a 2e3b c273 c83a 787c c93a bbf1 b9ba
00000170: 519f 4b3a 0242 37ba a1ff e1ba d079 96b9

running_mean f4 [96]
0.045810692 0.05895853 0.094707325 0.39011338 0.14385363 0.39677337 0.2049824 0.32643127
0.3137782 0.012202146 0.3671298 0.21365501 0.025516242 0.109871365 0.36593962 0.2140888
0.19882002 0.024344401 0.13245918 0.407691 0.13778527 0.013517347 0.25291562 0.35536867
0.36353514 0.18850516 0.57259375 0.2868046 0.040162805 0.031197686 0.24127187 0.23113655
0.3972821 0.41746652 0.20065765 0.41365066 0.53498065 0.35578606 0.30497932 0.47026193
0.13724627 0.19278601 0.22095054 0.43820444 0.37187892 0.08899217 0.37671492 0.10570624
0.22610845 0.4775097 0.055972703 0.44652238 0.4250514 0.37386814 0.2500141 0.22337145
0.2618142 0.33724722 0.21326022 0.55160576 0.26510668 0.5421463 0.24727145 0.3584076
0.1038521 0.37054667 0.34497347 0.08679355 0.49140212 0.12423585 0.1454096 0.018112684
0.017365133 0.019153578 0.3120997 0.012183136 0.076486334 0.19856213 0.35519314 0.3523547
0.08545108 0.34378472 0.07998465 0.19833241 0.2545817 0.32634988 0.367331 0.5264595
0.2949392 0.4617024 0.21043216 0.23758547 0.16561829 0.11325287 0.042713128 0.25549433
00000000: fea3 3b3d 807e 713d eaf5 c13d f1bc c73e
00000010: 5e4e 133e e125 cb3e e8e6 513e 0022 a73e
00000020: 89a7 a03e 83eb 473c 70f8 bb3e 61c8 5a3e
00000030: 7007 d13c 3d04 e13d 705c bb3e 183a 5b3e
00000040: 7a97 4b3e e96d c73c 61a3 073e e0bc d03e
00000050: 9517 0d3e dd77 5d3c 287e 813e e2f2 b53e
00000060: 4721 ba3e 7f07 413e 8195 123f 0dd8 923e
00000070: c181 243d 4a92 ff3c f90f 773e 0faf 6c3e
00000080: 8f68 cb3e 2cbe d53e 3379 4d3e 05ca d33e
00000090: 7ef4 083f 9729 b63e 4026 9c3e 2cc6 f03e
000000a0: 498a 0c3e b269 453e dc40 623e 555c e03e
000000b0: ea66 be3e 8741 b63d c7e0 c03e 837c d83d
000000c0: f988 673e 277c f43e a243 653d 959e e43e
000000d0: 56a0 d93e a56b bf3e d901 803e 7cbb 643e
000000e0: 830c 863e abab ac3e e360 5a3e 0936 0d3f
000000f0: 10bc 873e 1aca 0a3f ba34 7d3e 3381 b73e
00000100: 69b0 d43d 4bb8 bd3e 5da0 b03e d1c0 b13d
00000110: 0f99 fb3e 5e6f fe3d 41e6 143e 0d61 943c
00000120: 5341 8e3c f7e7 9c3c 88cb 9f3e c79b 473c
00000130: dea4 9c3d df53 4b3e e0db b53e d667 b43e
00000140: fa00 af3d 8d04 b03e fece a33d a717 4b3e
00000150: 8858 823e 5517 a73e cf12 bc3e 0dc6 063f
00000160: 4502 973e 4264 ec3e 877b 573e 9b49 733e
00000170: d797 293e 1ff1 e73d f6f3 2e3d 27d0 823e

running_var f4 [96]
0.0053507085 0.012904517 0.023241982 0.37001032 0.06497091 0.24421233 0.048834175 0.105788626
0.16387166 0.00090135785 0.25209755 0.12461603 0.004599514 0.048674528 0.10207273 0.08311919
0.07979882 0.0024421422 0.067273654 0.22534561 0.042504232 0.0017035482 0.057210654 0.10301423
0.31797507 0.056487095 0.416829 0.16893287 0.004696945 0.0048903804 0.088064045 0.10230555
0.3119131 0.17506808 0.076427326 0.20215875 0.24154548 0.038013555 0.18275994 0.21131362
0.032177575 0.15028717 0.05450937 0.2980387 0.057840787 0.018646203 0.1101945 0.029789979
0.115925506 0.2315566 0.013167019 0.29115522 0.20689897 0.19305724 0.10063636 0.12205434
0.08251289 0.107543714 0.07956617 0.21067281 0.05582476 0.1964979 0.02415441 0.034485903
0.02820714 0.08848795 0.20967272 0.020341825 0.30153194 0.022548217 0.06193941 0.0016012511
0.0022017327 0.0018885323 0.11093298 0.001021205 0.011511017 0.0639744 0.11137448 0.10047352
0.021880167 0.11249894 0.01334843 0.12996092 0.107761644 0.12885892 0.071637385 0.2058352
0.07652074 0.1763227 0.047876056 0.05572921 0.08092052 0.041824583 0.008047134 0.065214634
00000000: ff54 af3b 786d 533c f865 be3c fe71 bd3e
00000010: 780f 853d cc12 7a3e 5806 483d b5a7 d83d
00000020: f9cd 273e 1a49 6c3a ee12 813e b036 ff3d
00000030: 85b7 963b f15e 473d 820b d13d 653a aa3d
00000040: 906d a33d 590c 203b c5c6 893d 00c1 663e
00000050: eb18 2e3d 9849 df3a b855 6a3d 20f9 d23d
00000060: a1cd a23e 035f 673d 9c6a d53e bdfc 2c3e
00000070: d5e8 993b 7c3f a03b ec5a b43d 9285 d13d
00000080: 13b3 9f3e 0c45 333e ee85 9c3d b402 4f3e
00000090: b357 773e 1ab4 1b3d 6c25 3b3e 9962 583e
000000a0: a2cc 033d e1e4 193e 3845 5f3d 8798 983e
000000b0: 76ea 6c3d ecbf 983c a7ad e13d 1d0a f43c
000000c0: 5a6a ed3d 2c1d 6d3e 7bba 573c 4c12 953e
000000d0: 53dd 533e ccb0 453e 701a ce3d a0f7 f93d
000000e0: 85fc a83d e13f dc3d 97f3 a23d 9dba 573e
000000f0: 81a8 643d bf36 493e 78df c53c 1741 0d3d
00000100: a912 e73c 2c39 b53d 72b4 563e e6a3 a63c
00000110: 6562 9a3e 0ab7 b83c 2eb4 7d3d 12e1 d13a
00000120: f24a 103b a188 f73a d530 e33d f4d9 853a
00000130: b498 3c3c 0305 833d 4e18 e43d 10c5 cd3d
00000140: 093e b33c d865 e63d 60b3 5a3c 7a14 053e
00000150: 23b2 dc3d 98f3 033e 9fb6 923d 76c6 523e
00000160: e8b6 9c3d f08d 343e af19 443d 5044 643d
00000170: a8b9 a53d 4150 2b3d 20d8 033c 408f 853d

weight f4 [256, 96]
0.05146972 -0.07667324 -0.07075868 0.083370954 0.06886367 -0.07971126 -0.0800554 -0.03705079
-0.07297621 0.014953175 -0.03137623 0.028445376 0.006719585 0.05272567 -0.026304256 0.017973814
-0.0163879 0.024478924 -0.00086001295 0.065422125 -0.05123996 0.039331786 -0.01978534 0.052737985
-0.07624858 -0.07489841 -0.023198167 0.04919899 0.0425711 0.026924785 -0.045288846 0.06879815
-0.061645694 0.02518739 0.057557028 0.09524451 0.0070202025 -0.0425425 0.0439464 0.09143561
-0.0861953 -0.0997942 -0.012655795 -0.050612476 -0.04595802 -0.07029063 0.017048676 -0.0469142
0.055340502 0.09083887 -0.093409084 0.0054528965 0.09394691 0.10102039 -0.023253638 0.06019527
0.050501365 0.06985605 -0.008375147 -0.021795234 -0.044640392 0.013694786 0.026338408 -0.040441547
-0.0771084 0.094874874 -0.060661983 -0.007971583 -0.04812433 -0.023935897 -0.100689106 -0.04604864
0.034658026 0.0691124 0.096345626 -0.03673542 -0.061813153 -0.08893318 -0.03549724 -0.08772315
-0.060116135 -0.033274405 0.10182587 -0.066292375 -0.073589094 -0.02253659 0.059862252 -0.016629739
-0.0007842704 0.07275503 0.058457147 0.08161609 -0.059667975 0.07735788 -0.10096502 -0.06636241
-0.0014778982 0.0351438 -0.008404437 0.092748694 -0.008288517 -0.047668055 -0.018157559 -0.013075491
0.011951441 0.05800617 -0.08544737 0.009940663 0.08621453 -0.021858312 0.049420837 -0.01813049
0.10272454 -0.000433405 0.062170833 -0.031520516 -0.09625402 -0.042472247 0.07156868 0.0020291458
-0.018921485 0.081466764 -0.06561207 -0.07326673 0.0418695 0.1008787 0.032520525 -0.033152148
0.039450347 0.0496032 -0.08677502 0.09051722 0.0091759395 -0.042008486 -0.101665005 0.021984918
-0.02806986 0.017856563 -0.0784195 0.036496527 -0.07592268 0.081636764 0.0074858526 0.05042698
0.06207793 0.09229453 0.015514946 0.082809046 -0.08455995 0.07091397 0.074640125 -0.052051377
-0.05106176 0.085745335 0.079939835 -0.0838752 0.0023794975 -0.07536191 0.051975925 -0.08801773
-0.052869175 0.07857876 0.08757517 0.08773789 0.011902438 -0.08985477 0.0652664 0.085512474
0.07610987 0.06669864 -0.007032624 0.05156004 0.023146432 -0.04685802 0.067778625 -0.0373502
0.060612917 -0.007464911 -0.011761799 0.040280446 -0.014280559 0.04274527 -0.087143704 -0.09781684
0.015623991 -0.020157002 -0.042470332 -0.09080832 0.0070162006 -0.0492546 0.09258364 -0.07732826
-0.03751248 -0.021777226 0.017854713 -0.09374715 0.055056695 -0.095935866 -0.05364108 0.019588336
-0.016649628 0.011428293 -0.10175824 -0.07265557 0.066747844 0.038641497 0.04513125 0.05699923
0.073254816 0.052023586 -0.032173388 -0.050818693 -0.07012223 0.031083452 -0.0041949614 -0.049386796
0.061633345 0.0051822145 -0.011387079 -0.026911683 -0.075979695 0.08446662 -0.098926626 -0.09315673
0.020817941 -0.046765096 0.07845394 -0.0036845389 -0.047551483 -0.0025890295 -0.016459353 -0.016686248
-0.0085339965 -0.0677013 -0.034132205 -0.099859685 -0.06734584 0.0053985617 0.06646443 -0.001428712
0.080809884 -0.079741895 0.035686467 0.02446526 -0.04274198 0.04164869 -0.06229345 0.006593443
0.03293837 -0.046512168 -0.072788775 0.06545259 -0.081602015 0.10075436 -0.037839662 -0.0147835575
00000000: ead1 523d dc06 9dbd ede9 90bd 64be aa3d
00000010: 6508 8d3d a83f a3bd 16f4 a3bd 92c2 17bd
00000020: 8d74 95bd 29fe 743c 5d84 00bd 4706 e93c
00000030: f72f dc3b dff6 573d 067c d7bc d23d 933c
00000040: eb3f 86bc 0688 c83c 7e72 61ba 09fc 853d
00000050: fee0 51bd 5e1a 213d de14 a2bc c903 583d
00000060: 3728 9cbd 5664 99bd 150a bebc e184 493d
00000070: 095f 2e3d 5e91 dc3c cc80 39bd 0be6 8c3d
00000080: 3280 7cbd c955 ce3c ebc0 6b3d 8e0f c33d
00000090: ba09 e63b 0b41 2ebd 2401 343d 9842 bb3d
000000a0: 2987 b0bd e760 ccbd 405a 4fbc 074f 4fbd
000000b0: 7a3e 3cbd 89f4 8fbd aaa9 8b3c 1b29 40bd
000000c0: b9ac 623d bb09 ba3d 434d bfbd 36ae b23b
000000d0: 3d67 c03d c7e3 ce3d 6a7e bebc 518f 763d
000000e0: 85da 4e3d b010 8f3d ea37 09bc eb8b b2bc
000000f0: d8d8 36bd 1860 603c a5c3 d73c 09a6 25bd
00000100: 02eb 9dbd c24d c23d b378 78bd 3e9b 02bc
00000110: 041e 45bd 3715 c4bc 1736 cebd 809d 3cbd
00000120: 93f5 0d3d cd8a 8d3d db50 c53d e177 16bd
00000130: ca2f 7dbd 9922 b6bd 8e65 11bd 32a8 b3bd
00000140: 563c 76bd be4a 08bd 158a d03d 4cc4 87bd
00000150: e1b5 96bd a89e b8bc 1f32 753d 173b 88bc
00000160: 7f97 4dba 9700 953d c370 6f3d 5626 a73d
00000170: 6866 74bd cf6d 9e3d c0c6 cebd 04e9 87bd
00000180: 09b6 c1ba f2f2 0f3d c4b2 09bc 07f3 bd3d
00000190: 8fcc 07bc 943f 43bd 29bf 94bc 963a 56bc
000001a0: facf 433c e197 6d3d 08ff aebd 2ade 223c
000001b0: 3e91 b03d 3410 b3bc 816d 4a3d 6586 94bc
000001c0: 3e61 d23d a23a e3b9 d8a6 7e3d a81b 01bd
000001d0: d420 c5bd 61f7 2dbd 9a92 923d 6bfb 043b
000001e0: 3b01 9bbc 0cd8 a63d 9f5f 86bd de0c 96bd
000001f0: 5a7f 2b3d 7e99 ce3d 3e34 053d 8cca 07bd
00000200: b096 213d ba2c 4b3d 1ab7 b1bd 1861 b93d
00000210: ae56 163c 1711 2cbd be35 d0bd b719 b43c
00000220: c3f2 e5bc ed47 923c 679a a0bd 627d 153d
00000230: 5a7d 9bbd 2d31 a73d e24b f53b 858c 4e3d
00000240: 6d45 7e3d ea04 bd3d 6632 7e3c ca97 a93d
00000250: c42d adbd 583b 913d ecdc 983d d333 55bd
00000260: 2326 51bd 409b af3d 7fb7 a33d c3c6 abbd
00000270: 58f1 1b3b 5857 9abd b5e4 543d a442 b4bd
00000280: 598d 58bd e7ed a03d 9c5a b33d ecaf b33d
00000290: 7102 433c c705 b8bd 64aa 853d 2a21 af3d
000002a0: 7edf 9b3d 4c99 883d ed71 e6bb 9f30 533d
000002b0: 969d bd3c 32ee 3fbd 85cf 8a3d 86fc 18bd
000002c0: 4045 783d 369c f4bb 90b4 40bc 1cfd 243d
000002d0: 01f9 69bc aa15 2f3d 6678 b2bd 3254 c8bd
000002e0: c5fb 7f3c 4c20 a5bc 5ff5 2dbd b6f9 b9bd
000002f0: 28e8 e53b 31bf 49bd 7e9c bd3d 475e 9ebd
00000300: b0a6 19bd 2766 b2bc 0c44 923c 81fe bfbd
00000310: 2183 613d 067a c4bd c0b6 5bbd b877 a03c
00000320: cd64 88bc bc3d 3b3c a066 d0bd 72cc 94bd
00000330: 18b3 883d 8c46 1e3d 8cdb 383d 0678 693d
00000340: 9f06 963d af16 553d 3ec8 03bd 4327 50bd
00000350: 3e9c 8fbd b9a2 fe3c e375 89bb cf49 4abd
00000360: 3f73 7c3d 91cf a93b df90 3abc e475 dcbc
00000370: 3e9b 9bbd d6fc ac3d 0b9a cabd f5c8 bebd
00000380: 638a aa3c c28c 3fbd 76ac a03d 4e78 71bb
00000390: 58c5 42bd b5ac 29bb c4d5 86bc 99b1 88bc
000003a0: 2dd2 0bbc fba6 8abd 36ce 0bbd 3c83 ccbd
000003b0: 9eec 89bd 6be6 b03b 811e 883d 9f43 bbba
000003c0: a77f a53d b84f a3bd f92b 123d 5e6b c83c
000003d0: 3712 2fbd d197 2a3d 6b27 7fbd cf0d d83b
000003e0: 62ea 063d 8b83 3ebd 4812 95bd 020c 863d
000003f0: f51e a7bd 4d58 ce3d c3fd 1abd bc36 72bc

bias f4 [256]
0.099334106 0.004841484 -0.03801837 -0.005783678 -0.045519155 0.09860744 -0.04328701 0.071828485
0.07795012 0.03503625 0.03788339 0.07017194 -0.054581326 -0.0962336 -0.04905994 0.0058737276
-0.04658459 -0.038006928 -0.070162944 0.025505332 0.089248195 -0.051354796 0.040068198 0.036110785
-0.050829913 0.0048844167 -0.09911117 -0.042712238 -0.03168402 0.032822132 -0.066744134 0.09818764
-0.00022091698 0.01879413 -0.07049665 0.09100886 -0.04225832 0.05621367 -0.015704239 -0.013612503
-0.092288546 -0.049366526 -0.035582013 0.005271098 -0.024042884 -0.045051742 -0.045651466 -0.008599681
0.011949774 -0.06378824 -0.041438524 0.06235856 -0.025119567 -0.08137466 0.00022822803 0.09998811
0.00034617423 -0.01613207 0.040172815 -0.032882974 -0.05361606 -0.023286492 -0.031660147 0.071352296
0.09052762 -0.037421327 0.01861527 0.053965364 -0.020754818 0.03871837 0.08060709 0.09953003
-0.031417128 -0.042099845 -0.08638509 0.048341285 0.061262894 0.05489791 -0.035973635 0.07722421
-0.07948885 0.054930773 -0.049901187 -0.07696621 0.079569034 0.00989703 0.08954893 0.0051490497
0.10230198 0.0390934 0.09316536 0.009134218 0.052667186 0.09634022 -0.09433099 -0.09709611
0.07740575 0.0018441429 -0.013946754 0.09736132 0.063980296 -0.049095504 0.102667764 -0.08239383
0.016798023 -0.06507734 -0.0070429114 -0.033802465 0.04955358 -0.024608508 -0.039110724 -0.024143964
0.02762481 -0.08079813 -0.008205195 0.050770324 -0.0074601257 -0.08092206 -0.08389769 0.007578145
-0.0674577 -0.043606386 0.05398027 0.04174166 0.080683276 0.09767381 -0.07959299 0.043762326
-0.10173616 0.05381826 0.012704529 0.10120864 0.05354154 0.04349517 -0.009459956 0.034400817
-0.0493938 0.08161663 -0.05373654 0.06644261 -0.06683143 0.0973616 0.0390834 -0.08817847
0.055711422 0.020327436 0.029109161 -0.064350456 0.027237741 0.058652308 -0.020973118 -0.07155994
-0.01759501 0.04063991 0.07322308 0.037329752 -0.02922744 -0.087054774 -0.084044054 -0.046687964
-0.035782076 0.027540144 -0.09061023 0.086064406 -0.08441457 0.046382725 0.095322475 -0.068046294
0.024053333 0.043864306 0.036967956 0.092065156 -0.0378448 -0.06354506 -0.0976208 -0.016091494
0.03255003 -0.094228 0.09821832 -0.08488401 -0.06995113 -0.070037454 0.05833971 -0.0903539
0.033050872 -0.04150675 0.09244941 0.073171325 0.08492473 -0.09348348 0.053920574 -0.06571938
0.08331024 -0.009048509 0.011890386 -0.09954967 -0.034437057 0.07725862 -0.020340439 -0.016960125
-0.0044778483 0.09873932 0.047541767 0.052638553 -0.07553896 -0.08987288 -0.017645268 0.03715037
0.08569448 0.087615095 0.027816946 0.10061571 -0.021352485 -0.00695118 0.052983828 0.018015252
0.064555615 -0.10270886 0.08521393 -0.015762696 0.06353986 -0.024459226 0.0860123 -0.041214902
-0.10027466 0.094321266 -0.005128929 -0.0704719 -0.06942847 0.095287785 -0.064891696 -0.04726673
-0.08022996 0.041195273 -0.03963123 -0.0828715 -0.088832244 0.005497677 0.046996407 0.10236041
0.092153385 0.053463507 -0.06105104 0.03989734 0.08224352 -0.041097876 -0.032574628 0.051043637
-0.056438904 0.089207835 0.0904572 0.08372246 -0.013291523 -0.06968461 0.030724619 0.056025397
00000000: ae6f cb3d 50a5 9e3b 26b9 1bbd 0285 bdbb
00000010: 4b72 3abd b3f2 c93d b84d 31bd d01a 933d
00000020: 50a4 9f3d 2c82 0f3d 9d2b 1b3d 4eb6 8f3d
00000030: ab90 5fbd 1f16 c5bd 13f3 48bd 6678 c03b
00000040: 7ccf 3ebd 27ad 1bbd 97b1 8fbd 8ff0 d03c
00000050: c2c7 b63d 6859 52bd 8d1e 243d e7e8 133d
00000060: 0733 50bd 750d a03b ccfa cabd 07f3 2ebd
00000070: 1ac7 01bd 8070 063d 26b1 88bd 9a16 c93d
00000080: f3a5 67b9 26f6 993c 8c60 90bd da62 ba3d
00000090: 0f17 2dbd 4e40 663d 2da6 80bc fa06 5fbc
000000a0: c701 bdbd 8e34 4abd 72be 11bd 2db9 ac3b
000000b0: 95f5 c4bc 2d88 38bd 08fd 3abd ade5 0cbc
000000c0: fcc8 433c 69a3 82bd 71bb 29bd b06b 7f3d
000000d0: 8dc7 cdbc c2a7 a6bd 7f50 6f39 91c6 cc3d
000000e0: b87e b539 6727 84bc 408c 243d 4cb0 06bd
000000f0: 849c 5bbd 50c3 bebc 12ae 01bd 2721 923d
00000100: 8b66 b93d 1b47 19bd 0d7f 983c c90a 5d3d
00000110: 0206 aabc 2797 1e3d 5415 a53d 66d6 cb3d
00000120: 3faf 00bd e370 2cbd abea b0bd 8301 463d
00000130: cdee 7a3d a2dc 603d 1759 13bd ba27 9e3d
00000140: 0dcb a2bd 17ff 603d 3065 4cbd 76a0 9dbd
00000150: 17f5 a23d 2727 223c 6e65 b73d 5cb9 a83b
00000160: b383 d13d 6720 203d 7bcd be3d b0a7 153c
00000170: 8cb9 573d 054e c53d 9b30 c1bd 53da c6bd
00000180: e886 9e3d 2bb7 f13a ed80 64bc 5f65 c73d
00000190: 1a08 833d 5e18 49bd 7a43 d23d 19be a8bd
000001a0: 029c 893c 4547 85bd 39c8 e6bb 7474 0abd
000001b0: b2f8 4a3d c897 c9bc 9132 20bd 90c9 c5bc
000001c0: 6d4d e23c 7d79 a5bd 156f 06bc 8bf4 4f3d
000001d0: 1274 f4bb 77ba a5bd 8dd2 abbd 1652 f83b
000001e0: 4327 8abd 9c9c 32bd 6a1a 5d3d 4ef9 2a3d
000001f0: 463d a53d 3509 c83d a601 a3bd 2040 333d
00000200: 0c5b d0bd 8970 5c3d a826 503c 7a46 cf3d
00000210: 604e 5b3d fe27 323d eefd 1abc dfe7 0c3d
00000220: 2751 4abd 9f26 a73d d91a 5cbd 1013 883d
00000230: ebde 88bd 8565 c73d ea15 203d ea96 b4bd
00000240: a931 643d b985 a63c 5676 ee3c 2cca 83bd
00000250: af21 df3c 673d 703d d1cf abbc 058e 92bd
00000260: 6923 90bc 0976 263d fbf5 953d 15e7 183d
00000270: 626e efbc c649 b2bd 4a1f acbd e13b 3fbd
00000280: 3a90 12bd de9b e13c db91 b9bd 8942 b03d
00000290: 8ce1 acbd d0fb 3d3d 6e38 c33d db5b 8bbd
000002a0: 7f0b c53c 0fab 333d b66b 173d a88c bc3d
000002b0: 2603 1bbd ea23 82bd 6aed c7bd 4fd2 83bc
000002c0: 2e53 053d 9cfa c0bd b026 c93d abd7 adbd
000002d0: 8a42 8fbd cc6f 8fbd 9ff5 6e3d 770b b9bd
000002e0: 5a60 073d fb02 2abd 1e56 bd3d d9da 953d
000002f0: 04ed ad3d 4474 bfbd d2db 5c3d e297 86bd
00000300: 8f9e aa3d 3340 14bc e5cf 423c b3e0 cbbd
00000310: df0d 0dbd c439 9e3d fea0 a6bc f6ef 8abc
00000320: eaba 92bb d737 ca3d 28bb 423d 869b 573d
00000330: 2cb4 9abd 460f b8bd cf8c 90bc fd2a 183d
00000340: 9680 af3d 8b6f b33d 5de0 e33c 9c0f ce3d
00000350: 68eb aebc b9c6 e3bb 9205 593d b994 933c
00000360: bc35 843d 0659 d2bd a484 ae3d c520 81bc
00000370: 3021 823d b75e c8bc 3727 b03d f5d0 28bd
00000380: cd5c cdbd 822b c13d 9310 a8bb 9253 90bd
00000390: 8430 8ebd 3e26 c33d f0e5 84bd c29a 41bd
000003a0: 9b4f a4bd 60bc 283d 5b54 22bd 88b8 a9bd
000003b0: aeed b5bd db25 b43b 4e7f 403d 56a2 d13d
000003c0: eaba bc3d 8dfc 5a3d a810 7abd 656b 233d
000003d0: 4a6f a83d 3f56 28bd f96c 05bd 2213 513d
000003e0: 7b2c 67bd 99b2 b63d a041 b93d ae76 ab3d
000003f0: b0c4 59bc ceb6 8ebd 32b2 fb3c e37a 653d

weight f4 [256]
1.0012393 0.9995754 1.0002998 1.0008191 1.0004646 0.99974203 1.0007335 0.99937165
1.0001135 1.0023417 0.999288 1.0008838 0.99954814 1.0008365 0.99910617 1.0003277
0.99885094 1.000354 0.999147 0.9995716 0.9989385 0.99997765 1.0002292 1.0004853
0.9996271 0.9996682 0.9991492 1.0008974 0.9971989 0.99944913 0.99965745 1.0005591
1.0009094 0.99788886 1.0007873 0.9994339 0.999718 0.9983625 1.0007486 1.0014331
0.999531 0.9989324 1.0000392 1.0014225 1.0014206 0.9995388 1.0008421 1.0007279
1.0011436 1.0006348 1.0008119 0.99756837 1.0007812 0.99841064 0.9994714 1.0011065
1.0009456 0.9999403 1.0004628 1.0000103 1.0008271 1.001228 1.0001507 1.0008904
1.0008149 0.99900925 1.0002527 1.0018339 1.0017114 1.0004406 1.0002792 1.0003725
1.0010177 1.0009084 1.0004106 1.0005953 1.0004717 0.99910396 0.99805987 1.0005997
0.99831414 1.0002214 0.9990252 1.0009269 0.99811274 0.9997014 1.000234 1.0008464
1.0000138 0.99993944 1.00084 0.9982158 0.9993334 1.0006683 1.0007633 0.9989683
1.0001748 0.9992412 0.9993791 0.999866 0.99858934 1.0007799 0.9971035 0.9991042
0.9976613 0.9996767 1.0012488 0.99999636 0.9989345 1.000513 1.0004361 0.99944425
0.99589306 0.99857575 1.0001186 0.99860793 0.9993163 0.9992173 0.9984636 1.0018063
1.0007484 1.0014923 1.0012072 0.998598 0.99760735 0.999151 0.9999224 0.9990589
1.0020932 1.0008496 1.0017978 1.0003787 1.0009522 0.99730754 0.9994857 1.0008491
0.9984489 0.9997155 0.9997134 1.0007282 1.0007721 1.0002515 0.99928725 0.99979734
0.99847096 1.000298 1.0016567 1.0009066 0.9984486 1.0010947 1.0008355 0.99951184
0.99934745 1.0006934 1.0006859 0.9993942 0.9996263 0.9990332 1.0009207 0.999621
1.0015883 0.9987794 1.0007119 0.9980738 0.9988056 1.0012424 0.9981152 0.99867874
1.0006515 1.0007238 0.99934685 1.0002238 0.998443 1.0014843 0.99988854 0.99903023
1.0003062 1.0000777 1.0014094 1.0003363 0.9994551 1.001121 0.9980745 1.0018381
1.0000168 0.99948555 1.0022949 1.0017457 1.001052 1.0002651 0.9990231 1.0018477
0.9990289 1.0013688 1.000266 0.9993412 1.0000865 0.997792 1.0009385 0.99977076
1.0006826 0.9992267 1.0008937 1.000121 0.99941695 0.99973875 1.0017849 1.0003896
0.9999985 1.0006762 1.000367 0.9996973 0.9991597 0.9991879 1.001824 1.0017679
0.99995524 0.99986535 0.9996875 0.99841577 0.99948514 0.99914205 0.9999281 0.9997568
1.0001432 0.99838084 0.9991687 0.9990316 1.0006363 1.0008978 0.9985108 1.0003688
1.0019047 1.001957 1.0011934 1.0000142 0.99907434 1.0011804 0.9999753 0.9990293
1.0007697 0.99834174 0.99847907 0.99994594 1.0017248 1.0024334 0.99908835 1.0006998
1.0012054 1.0014176 0.997913 1.00049 0.99814653 0.9999344 1.0005653 1.0019119
00000000: 9c28 803f 2ce4 7f3f d309 803f d71a 803f
00000010: 390f 803f 18ef 7f3f 0918 803f d2d6 7f3f
00000020: b803 803f bc4c 803f 57d1 7f3f f61c 803f
00000030: 63e2 7f3f 691b 803f 6cc5 7f3f bd0a 803f
00000040: b2b4 7f3f 9a0b 803f 19c8 7f3f ede3 7f3f
00000050: 6fba 7f3f 89fe 7f3f 8307 803f e70f 803f
00000060: 90e7 7f3f 41ea 7f3f 3ec8 7f3f 681d 803f
00000070: 6d48 7f3f e6db 7f3f 8de9 7f3f 5212 803f
00000080: cd1d 803f a575 7f3f cc19 803f e6da 7f3f
00000090: 85ed 7f3f af94 7f3f 8818 803f f62e 803f
000000a0: 43e1 7f3f 09ba 7f3f 4901 803f 9d2e 803f
000000b0: 8d2e 803f c6e1 7f3f 981b 803f da17 803f
000000c0: 7925 803f cd14 803f 9b1a 803f a460 7f3f
000000d0: 9919 803f d797 7f3f 5cdd 7f3f 4224 803f
000000e0: fc1e 803f 16fc 7f3f 2a0f 803f 5600 803f
000000f0: 1a1b 803f 3d28 803f f004 803f 2d1d 803f
00000100: b41a 803f 12bf 7f3f 4808 803f 183c 803f
00000110: 1438 803f 700e 803f 2609 803f 350c 803f
00000120: 5921 803f c41d 803f 740d 803f 8213 803f
00000130: 750f 803f 47c5 7f3f da80 7f3f a713 803f
00000140: 8491 7f3f 4107 803f 1ec0 7f3f 5f1e 803f
00000150: 5184 7f3f 6eec 7f3f ab07 803f bc1b 803f
00000160: 7400 803f 08fc 7f3f 861b 803f 128b 7f3f
00000170: 50d4 7f3f e615 803f 0319 803f 63bc 7f3f
00000180: ba05 803f 45ce 7f3f 4fd7 7f3f 38f7 7f3f
00000190: 8da3 7f3f 8e19 803f 2d42 7f3f 4bc5 7f3f
000001a0: bb66 7f3f d0ea 7f3f ec28 803f c3ff 7f3f
000001b0: 2cba 7f3f cf10 803f 4a0e 803f 94db 7f3f
000001c0: d9f2 7e3f a9a2 7f3f e303 803f c5a4 7f3f
000001d0: 31d3 7f3f b4cc 7f3f 4f9b 7f3f 303b 803f
000001e0: 8618 803f e630 803f 8f27 803f 1ea4 7f3f
000001f0: 3263 7f3f 5cc8 7f3f eafa 7f3f 53c2 7f3f
00000200: 9744 803f d71b 803f e93a 803f 690c 803f
00000210: 341f 803f 8c4f 7f3f 4bde 7f3f d31b 803f
00000220: 599a 7f3f 5bed 7f3f 38ed 7f3f dd17 803f
00000230: 4d19 803f 3e08 803f 4ad1 7f3f b8f2 7f3f
00000240: cb9b 7f3f c409 803f 4936 803f b51d 803f
00000250: 549a 7f3f df23 803f 611b 803f 02e0 7f3f
00000260: 3cd5 7f3f b916 803f 7a16 803f 4cd8 7f3f
00000270: 82e7 7f3f a4c0 7f3f 2b1e 803f 29e7 7f3f
00000280: 0c34 803f 02b0 7f3f 5417 803f c481 7f3f
00000290: b9b1 7f3f b628 803f 7a84 7f3f 69a9 7f3f
000002a0: 5915 803f b817 803f 32d5 7f3f 5507 803f
000002b0: f699 7f3f a330 803f b2f8 7f3f 72c0 7f3f
000002c0: 090a 803f 8c02 803f 2f2e 803f 050b 803f
000002d0: 4adc 7f3f bc24 803f cf81 7f3f 3b3c 803f
000002e0: 8d00 803f 49de 7f3f 334b 803f 3439 803f
000002f0: 7922 803f b008 803f fabf 7f3f 8c3c 803f
00000300: 5cc0 7f3f da2c 803f b708 803f d3d4 7f3f
00000310: d602 803f 4c6f 7f3f c11e 803f faf0 7f3f
00000320: 5e16 803f 52cd 7f3f 491d 803f f703 803f
00000330: cad9 7f3f e1ee 7f3f 7d3a 803f c40c 803f
00000340: e7ff 7f3f 2816 803f 070c 803f 2aec 7f3f
00000350: eec8 7f3f c7ca 7f3f c53b 803f ee39 803f
00000360: 11fd 7f3f 2df7 7f3f 85eb 7f3f 2d98 7f3f
00000370: 42de 7f3f c6c7 7f3f 4afb 7f3f 10f0 7f3f
00000380: b104 803f e395 7f3f 85c9 7f3f 89c0 7f3f
00000390: da14 803f 6b1d 803f 679e 7f3f 160c 803f
000003a0: 6a3e 803f 2140 803f 1b27 803f 7700 803f
000003b0: 56c3 7f3f ae26 803f 62fe 7f3f 62c0 7f3f
000003c0: 3919 803f 5393 7f3f 539c 7f3f 75fc 7f3f
000003d0: 8538 803f bd4f 803f 41c4 7f3f ee16 803f
000003e0: 8027 803f 742e 803f 3a77 7f3f 0e10 803f
000003f0: 8886 7f3f b3fb 7f3f 8612 803f a63e 803f

bias f4 [256]
-0.00067960576 0.00042325107 -0.0008207969 -0.00042887175 8.285414e-05 -0.0007889488 -1.484707e-05 -0.00070034154
-0.00014979547 -0.0007342022 0.0016501589 8.120107e-05 0.0003689064 0.00027364603 0.0015718148 -0.00019841916
0.00040751346 0.0003248398 -0.00032013733 0.0012371007 0.00084938307 0.0004713275 -0.00065793673 -8.851558e-05
0.0013837813 0.000300862 9.080375e-05 -0.0007016988 0.0011845027 9.026067e-05 -0.00029513182 0.00036747265
-0.00035538196 -0.00030181083 -0.00021867192 0.00035598653 -0.0010810108 0.00087743043 -0.00038626464 -0.00030571508
-0.0005585449 0.00044591347 -0.00037183307 -0.0004501123 -0.00021632202 9.405825e-05 -0.00030593883 -0.00049531186
-0.0009424245 -0.00040305042 -5.9292543e-05 0.0020872985 0.0006312713 0.00011732838 -0.00064187654 -0.00040551173
0.00015478618 0.00042619926 -0.00012672944 -0.00034930353 -0.00084476033 0.0004855036 -0.00014579626 -0.00048501915
-0.0008892738 -0.000577575 -0.000446163 1.1763777e-05 -0.00067436846 -0.00017656956 0.00030884484 0.00062675314
-2.6029076e-05 -0.0007568821 -0.00055828993 -0.0010225762 -0.00023948055 0.0005591287 -0.0005598594 -0.00042338614
0.0009880274 -0.0011582953 -0.0009168368 0.00030188938 0.0013166788 0.0002232205 3.8205108e-05 0.000393313
-0.0005502236 -0.00097414106 0.00016130292 -0.00034442637 -1.18861335e-05 0.00041991295 0.0011797317 0.00050429394
-0.0006319528 -0.0005523892 -0.0010043901 -0.00046912293 0.00028132278 -0.00020539349 0.00048848055 0.0019629928
-0.00027784897 0.0009537464 -0.0007959548 -0.00088389264 0.0008285685 0.0005220279 -0.0007418186 -0.0005584673
-0.00014763101 0.00021548237 -0.0006983381 -0.00014716889 0.00010871233 0.00033335254 0.0010454772 -0.00011641235
-0.00078508555 0.00012306469 0.0007767665 -0.0008953143 0.00085083395 0.00027698115 0.0006228351 0.00029513694
0.00051002105 -0.0013913707 -0.00059623545 -4.7591802e-05 7.7368655e-05 -0.000120351826 0.0003348192 -0.0006540012
0.00065496453 -0.00016813174 -0.0007357815 -0.00012793463 0.00024917227 0.0012292279 0.00034684996 -0.00031225095
0.0006160717 0.00045887943 -0.00019261615 0.00037974567 9.854013e-05 0.0018155741 -0.00053641596 -0.00068325736
0.0003109167 -3.6559006e-05 -0.000734663 -0.0004239215 -0.00025577212 0.00055657845 -0.0011316601 0.00013969452
0.00015651247 -0.000852593 2.9074257e-05 -0.00050541526 -0.001993314 8.547619e-05 0.00053884665 0.0013808517
-0.0003115515 8.430272e-05 -0.00062384165 0.00012420853 0.00032445713 0.00027796146 -2.071268e-05 0.000644287
8.541228e-05 0.0006441198 0.0016436579 0.00037009481 0.00014018887 0.0002591085 0.0014241398 0.00025683924
0.00014970508 0.00095065334 -0.0013105086 -0.000276482 1.0623701e-06 -0.00021689836 1.5318834e-05 0.00013020395
-0.00033470674 0.00025663376 0.00056717114 0.00035766367 -1.529146e-05 -0.0012757549 0.00036562726 0.0003002723
-0.00035921644 -0.00073259947 0.0005616819 0.00020999445 0.0002502666 0.0005012187 -6.0507547e-05 -0.0004633577
-0.00094236975 0.00042807817 0.0006175523 0.0012649869 -0.0003442583 0.0006463702 -0.0007681738 0.00058051915
0.0010372662 -0.0005696424 0.000918512 -0.00057156733 -0.00029449587 0.0007542274 0.00034192277 -0.0009542295
-0.00096840825 0.000290935 0.00061278045 0.00034452 -0.00018226373 -0.00020668395 -6.3126005e-05 -0.0015530386
-3.0556068e-05 1.8866253e-05 -0.0004506215 -0.0010049649 -0.001179713 -0.0005335359 -0.00095431163 7.697593e-05
-0.0006640097 -0.00038751223 -0.00039101273 -0.0007149304 0.000663844 0.00041219633 0.00064111414 0.00027962105
0.00036208375 -0.0017525355 -8.929524e-05 0.00082789373 0.0015125903 -0.00012024491 -6.7627174e-05 -0.00050706224
00000000: 9227 32ba cce7 dd39 bf2a 57ba 31da e0b9
00000010: fac1 ad38 75d1 4eba ae17 79b7 2097 37ba
00000020: 6a12 1db9 7a77 40ba 254a d83a 7e4a aa38
00000030: c769 c139 2678 8f39 5a05 ce3a bd0e 50b9
00000040: 88a7 d539 434f aa39 1bd8 a7b9 3626 a23a
00000050: 22a9 5e3a 821c f739 6379 2cba 71a1 b9b8
00000060: ff5f b53a 04bd 9d39 e46d be38 36f2 37ba
00000070: 5141 9b3a 544a bd38 ecbb 9ab9 58a9 c039
00000080: 8f52 bab9 5d3c 9eb9 4c4b 65b9 b4a3 ba39
00000090: b4b0 8dba 5c03 663a 9083 cab9 6248 a0b9
000000a0: 506b 12ba 7ec9 e939 97f2 c2b9 0dfd ebb9
000000b0: 80d4 62b9 2341 c538 6a66 a0b9 d1d7 01ba
000000c0: 0a0d 77ba 8350 d3b9 e2b0 78b8 0fcb 083b
000000d0: e67b 253a 320e f638 9b43 28ba dd9a d4b9
000000e0: 194e 2239 7f73 df39 ade2 04b9 ba22 b7b9
000000f0: e872 5dba 318b fe39 e3e0 18b9 2b4a feb9
00000100: 281e 69ba 6768 17ba fcea e9b9 0a5d 4537
00000110: 1ac8 30ba 8825 39b9 74ec a139 b14c 243a
00000120: 0459 dab7 7f69 46ba 345a 12ba f707 86ba
00000130: 121d 7bb9 7e92 123a 87c3 12ba edf9 ddb9
00000140: b380 813a f1d1 97ba e057 70ba e846 9e39
00000150: 6994 ac3a 4c10 6a39 6c3e 2038 9435 ce39
00000160: e13c 10ba 805d 7fba 6c23 2939 2094 b4b9
00000170: 8e6a 47b7 c327 dc39 3aa1 9a3a 9832 043a
00000180: a2a9 25ba 36ce 10ba bda5 83ba 9df4 f5b9
00000190: 817e 9339 e55e 57b9 600d 003a 8ea5 003b
000001a0: 42ac 91b9 d604 7a3a 9fa7 50ba 08b5 67ba
000001b0: 4a34 593a b3d8 083a 9b76 42ba 1b66 12ba
000001c0: 66cd 1ab9 1cf3 6139 ad10 37ba 5951 1ab9
000001d0: 7dfc e338 d2c5 ae39 6508 893a 6822 f4b8
000001e0: 33ce 4dba ed0a 0139 eb9f 4b3a 87b3 6aba
000001f0: 800a 5f3a c837 9139 c245 233a 9cbc 9a39
00000200: efb2 053a a75e b6ba af4c 1cba 4f9d 47b8
00000210: fb40 a238 6565 fcb8 ac8a af39 4771 2bba
00000220: edb1 2b3a 854c 30b9 76e1 40ba 3126 06b9
00000230: 56a3 8239 0b1e a13a 6ad9 b539 9db5 a3b9
00000240: df7f 213a c195 f039 01f9 49b9 9a18 c739
00000250: 54a7 ce38 8ff8 ed3a 449e 0cba a01c 33ba
00000260: 8802 a339 ef56 19b8 6696 40ba c841 deb9
00000270: 2719 86b9 59e7 113a 3654 94ba f67a 1239
00000280: 7f1d 2439 8c80 5fba 7ee4 f337 d87d 04ba
00000290: 42a2 02bb ae41 b338 6341 0d3a b2fd b43a
000002a0: bc57 a3b9 aecb b038 4e89 23ba f93d 0239
000002b0: e61b aa39 5bbb 9139 24c0 adb7 5ee5 283a
000002c0: 5e1f b338 26da 283a 0270 d73a 4909 c239
000002d0: aaff 1239 f4d8 8739 34aa ba3a 61a8 8639
000002e0: 27fa 1c39 4435 793a 5fc5 abba c9f4 90b9
000002f0: c296 8e35 366f 63b9 f280 8037 5b87 0839
00000300: 947b afb9 cd8c 8639 36ae 143a ce84 bb39
00000310: 2946 80b7 3b37 a7ba a9b1 bf39 de6d 9d39
00000320: 3755 bcb9 eb0b 40ba d63d 133a f531 5c39
00000330: 3736 8339 3864 033a 7cc9 7db8 d1ee f2b9
00000340: 5d09 77ba ae6f e039 3ce3 213a ebcd a53a
00000350: 917d b4b9 2b71 293a 455f 49ba fb2d 183a
00000360: e1f4 873a 0e54 15ba 4cc8 703a 3cd5 15ba
00000370: 9166 9ab9 58b7 453a 1944 b339 4225 7aba
00000380: c7dc 7dba a288 9839 00a3 203a b1a0 b439
00000390: 0c1e 3fb9 4db9 58b9 8462 84b8 548f cbba
000003a0: 5429 00b8 f842 9e37 6541 ecb9 07b9 83ba
000003b0: 9aa0 9aba fddc 0bba c52a 7aba 236e a138
000003c0: f010 2eba 032b cbb9 d700 cdb9 2b6a 3bba
000003d0: d105 2e3a 0e1c d839 7110 283a 1a9a 9239
000003e0: 0fd6 bd39 55b5 e5ba 0444 bbb8 0207 593a
000003f0: 1c42 c63a ff2b fcb8 10d3 8db8 5fec 04ba

running_mean f4 [256]
0.36293957 0.19940993 0.16185473 0.29989496 0.2941913 0.37065846 0.26382804 0.25607648
0.20339027 0.28475782 0.27295882 0.28963935 0.38948378 0.27915865 0.17369628 0.27877578
0.2788632 0.12354983 0.32098198 0.18552804 0.2188865 0.10198724 0.45263293 0.35542148
0.1842887 0.19188061 0.11631532 0.32009545 0.396685 0.2598933 0.30580083 0.26106176
0.3834003 0.20435096 0.23960264 0.20530029 0.22093211 0.31430057 0.067792885 0.25562012
0.13143338 0.42006576 0.2755819 0.22009437 0.16666739 0.41404036 0.26188552 0.2620128
0.298754 0.14478439 0.23287986 0.3660249 0.22864197 0.12414852 0.16387407 0.29334697
0.13751502 0.31552684 0.2648919 0.21280663 0.15106064 0.15547103 0.2010745 0.41911286
0.2290637 0.33544672 0.2778662 0.16809177 0.16897562 0.24412766 0.32604524 0.2698442
0.3175192 0.12763555 0.16079919 0.29017368 0.39239857 0.24191895 0.295866 0.24412452
0.33939916 0.34799844 0.22556317 0.1421237 0.17546366 0.19395646 0.2725997 0.28981015
0.4567047 0.19305845 0.3082262 0.1412062 0.19715065 0.34499502 0.29190364 0.16082188
0.3278597 0.24550197 0.14929977 0.22717331 0.17872794 0.20456402 0.37390465 0.10156872
0.43984622 0.17875223 0.20866741 0.28882274 0.20309457 0.22048245 0.28548524 0.11484559
0.17922556 0.50512654 0.171825 0.19691181 0.29304814 0.10332995 0.27425498 0.43666014
0.21107306 0.35019517 0.35807902 0.23096736 0.24388587 0.36916536 0.24181134 0.30754873
0.22629975 0.2566247 0.2339473 0.26238817 0.18519896 0.29249913 0.41633815 0.17658877
0.24053237 0.26019317 0.39376128 0.24511777 0.286623 0.20426302 0.21571903 0.16207875
0.19395481 0.4826632 0.30632898 0.22223458 0.4426436 0.16287829 0.20331946 0.11298769
0.28688052 0.2046717 0.31779006 0.21920098 0.249681 0.11720505 0.13497068 0.26150978
0.103549846 0.19170511 0.22405088 0.25305447 0.19880085 0.36091167 0.37480447 0.2651775
0.36494032 0.30081147 0.27560496 0.21898973 0.13920426 0.14700787 0.20603058 0.23147883
0.3573662 0.092079565 0.32627466 0.1669149 0.1846537 0.14330274 0.1907067 0.1672806
0.23435336 0.14422497 0.36724275 0.26755476 0.1774882 0.37107173 0.26490244 0.14107898
0.2889023 0.12134352 0.42408028 0.27067587 0.17515749 0.37469184 0.28640652 0.23137057
0.278583 0.24327967 0.2146082 0.13927682 0.14045225 0.18787785 0.22421254 0.2686946
0.2172332 0.20492032 0.2225897 0.4046197 0.22194265 0.37237024 0.24382615 0.18975762
0.19822335 0.059468884 0.23175156 0.2511969 0.20781101 0.1030676 0.22098328 0.33558887
0.17579173 0.16360131 0.19384134 0.1931802 0.17896096 0.31717765 0.20250615 0.33856803
0.22362725 0.39334807 0.14280882 0.12076053 0.07271212 0.13914128 0.16726238 0.21320975
0.19782667 0.41879103 0.16529846 0.5201504 0.27456892 0.3140369 0.22246067 0.47594136
0.23100968 0.25243348 0.33914882 0.48405692 0.21363214 0.1900493 0.17755295 0.43210453
00000000: 37d3 b93e 1e32 4c3e 3fbd 253e d58b 993e
00000010: 3ea0 963e f2c6 bd3e 7814 873e 751c 833e
00000020: 8a45 503e c7cb 913e 42c1 8b3e 9c4b 943e
00000030: 6b6a c73e e2ed 8e3e 70dd 313e b3bb 8e3e
00000040: 28c7 8e3e b107 fd3d c057 a43e 10fb 3d3e
00000050: c823 603e b0de d03d 81bf e73e cef9 b53e
00000060: 2db6 3c3e 5a7c 443e ba36 ee3d 8de3 a33e
00000070: 4c1a cb3e bc10 853e ed91 9c3e e3a9 853e
00000080: 0b4d c43e 6141 513e 655a 753e 3d3a 523e
00000090: 073c 623e 01ec a03e ffd6 8a3d a4e0 823e
000000a0: 7996 063e dc12 d73e 1219 8d3e 6b60 613e
000000b0: dbaa 2a3e 19fd d33e dc15 863e 8b26 863e
000000c0: 49f6 983e 5c42 143e 0f78 6e3e 9e67 bb3e
000000d0: 1f21 6a3e 9441 fe3d 9bce 273e 9331 963e
000000e0: bdd0 0c3e bc8c a13e e99f 873e fbe9 593e
000000f0: a4af 1a3e cc33 1f3e 79e6 4d3e f695 d63e
00000100: ad8f 6a3e acbf ab3e 7b44 8e3e 4020 2c3e
00000110: f207 2d3e 9afc 793e 67ef a63e 0529 8a3e
00000120: e091 a23e e5b2 023e 8ba8 243e a591 943e
00000130: 77e8 c83e 9ab9 773e c07b 973e c7fb 793e
00000140: bac5 ad3e da2c b23e 08fa 663e e088 113e
00000150: bfac 333e 869c 463e 3092 8b3e ff61 943e
00000160: 33d5 e93e 1db1 453e d3cf 9d3e 5c98 103e
00000170: dce1 493e 30a3 b03e 6574 953e 7eae 243e
00000180: 3add a73e de64 7b3e 0ae2 183e 1fa0 683e
00000190: 7504 373e 3b79 513e 6e70 bf3e 4303 d03d
000001a0: 8633 e13e d30a 373e e9ac 553e 93e0 933e
000001b0: 06f8 4f3e 27c6 613e 1f2b 923e 2a34 eb3d
000001c0: e886 373e f94f 013f e5f2 2f3e 40a3 493e
000001d0: 680a 963e a79e d33d 266b 8c3e eb91 df3e
000001e0: 8923 583e c84c b33e 2256 b73e b582 6c3e
000001f0: 38bd 793e 3e03 bd3e 649d 773e 0777 9d3e
00000200: 1fbb 673e 5064 833e e28f 6f3e be57 863e
00000210: cca4 3d3e 72c2 953e 462a d53e b0d3 343e
00000220: 1e4e 763e 0a38 853e 149b c93e 2700 7b3e
00000230: 40c0 923e 532a 513e 73e5 5c3e f9f7 253e
00000240: 179c 463e a21f f73e 27d7 9c3e 7691 633e
00000250: 2fa2 e23e 91c9 263e fa32 503e 1766 e73d
00000260: 01e2 923e 7595 513e 61b5 a23e 3976 603e
00000270: 60ac 7f3e 3409 f03d c135 0a3e 9ce4 853e
00000280: f111 d43d 584e 443e 986d 653e 5b90 813e
00000290: 7392 4b3e 6ac9 b83e 5fe6 bf3e 58c5 873e
000002a0: 75d9 ba3e f603 9a3e 181c 8d3e d83e 603e
000002b0: 908b 0e3e 3b89 163e aef9 523e c908 6d3e
000002c0: b4f8 b63e 3694 bc3d 790d a73e bdeb 2a3e
000002d0: dc15 3d3e f4bd 123e 9e48 433e 9b4b 2b3e
000002e0: 54fa 6f3e b6af 133e 3e07 bc3e f0fc 883e
000002f0: 77bf 353e 1dfd bd3e 4ba1 873e 0277 103e
00000300: 01eb 933e f482 f83d 0d21 d93e 0796 8a3e
00000310: 7c5c 333e 9cd7 bf3e e0a3 923e 68ec 6c3e
00000320: 6ea2 8e3e 4e1e 793e 41c2 5b3e 959e 0e3e
00000330: b7d2 0f3e 0d63 403e f997 653e 5792 893e
00000340: 6172 5e3e a2d6 513e 8eee 633e 502a cf3e
00000350: ef44 633e 50a7 be3e 90ad 793e d24f 423e
00000360: 10fb 4a3e a595 733d 4850 6d3e e19c 803e
00000370: 69cc 543e 1b15 d33d 7149 623e 4ed2 ab3e
00000380: bf02 343e 1a87 273e 587e 463e 08d1 453e
00000390: 8b41 373e 1c65 a23e c65d 4f3e ca58 ad3e
000003a0: 8bfe 643e eb64 c93e 7a3c 123e 4c51 f73d
000003b0: 18ea 943d 0d7b 0e3e d446 2b3e a853 5a3e
000003c0: 1393 4a3e c76b d63e 0044 293e 9428 053f
000003d0: 4c94 8c3e 72c9 a03e bbcc 633e 96ae f33e
000003e0: cd8d 6c3e f63e 813e eaa4 ad3e 4fd6 f73e
000003f0: 62c2 5a3e 499c 423e 71d0 353e ce3c dd3e
