statedicts/torchscript_pl_db_2022-05-02_SPIRAL_FORWARD_90s_P0_R1_s2_seed_1.pt (torch, 225385 bytes, 29 tensors)

weight f4 [5]
000000 0d a2 81 3f e7 70 80 3f cf 43 81 3f 18 8f 7f 3f
       1.0127579 1.0034455 1.0098819 0.9982772
000010 73 5f 7a 3f
       0.97801894

bias f4 [5]
000000 3f bb 1e bd 72 97 03 b8 68 60 ce 36 08 50 52 3c
       -0.03875279 -3.137388e-05 6.1505016e-06 0.012836464
000010 1f 43 0c 3b
       0.0021402312

running_mean f4 [5]
000000 91 35 29 40 b7 c0 84 3d ce 7e 40 40 a2 06 3b 40
       2.6438944 0.0648207 3.0077395 2.9222798
000010 90 53 48 3e
       0.19563127

running_var f4 [5]
000000 68 91 e8 3c 6c eb 77 35 04 84 5d 3b 72 17 1b 3b
       0.028389648 9.2357254e-07 0.0033800611 0.0023665098
000010 08 7f 52 3b
       0.0032119174

weight f4 [96, 5]
000000 8c 45 0d be fe d6 3c 3d 08 41 4a 3e 2d e9 a8 bc
       -0.13796061 0.04610347 0.1975137 -0.020619
000010 32 cb 0d be 09 15 d1 be 08 f0 89 be 45 31 e2 be
       -0.13847044 -0.4083636 -0.26940942 -0.44178215
000020 10 31 b4 bd 8a 8f b7 be fc d0 56 be 47 f8 b5 3e
       -0.087984204 -0.358517 -0.20978159 0.35540983
000030 d9 3c d7 be 1a b1 93 3e 8d 70 af bc d9 5d 7e be
       -0.4203861 0.28846055 -0.021415973 -0.24840488
000040 1c 94 d5 3e 19 43 c8 3e 1c 0b 7f be 73 e0 c8 3c
       0.4171456 0.3911369 -0.24906582 0.024521088
000050 a9 2e 46 be fc 4a d4 be 69 ba 77 3e c2 0d 73 3e
       -0.19353737 -0.4146346 0.24192204 0.23735717
000060 ad f2 bf 3e 0a c4 83 be 40 fe f7 bd 32 c9 70 3e
       0.37489834 -0.25735503 -0.12109041 0.2351425
000070 e1 d4 7f be 37 db cb 3e 27 ba 09 3c 96 78 a2 3d
       -0.2498355 0.39815685 0.008406199 0.07933156
000080 49 52 3d 3e 88 52 87 3e 05 bd e0 3d 6e 11 87 be
       0.1848842 0.26430154 0.109735526 -0.26380485
000090 60 42 cd 3e e2 90 47 be b3 0a 66 3d 39 2e e3 be
       0.40089703 -0.19488862 0.056162547 -0.44371203
0000a0 2f 44 43 be 31 cb a5 3e 36 26 8b 3d dc 2a 3b 3d
       -0.19068979 0.32381585 0.067943975 0.04569517
0000b0 6f 5c 29 be 42 bf b7 be ae 40 ab 3e ac d4 9d be
       -0.16539167 -0.35888106 0.33447784 -0.30826318
0000c0 b2 5e a8 3e 3e 13 81 be 65 c5 ba 3e 3b ba 8a 3c
       0.32884747 -0.25209993 0.36478725 0.016934505
0000d0 87 4c 94 be d1 cd e0 3e ce 76 b8 3e 44 92 81 be
       -0.28964636 0.43907025 0.3602814 -0.25306904
0000e0 8f 33 84 be ca 8c d5 bd 6a dd d2 bb a3 dc 9c 3e
       -0.25820586 -0.10427244 -0.006435086 0.30637082
0000f0 a6 26 8c be 5f 1e 5e 3e 74 26 cc 3e 64 0e 1e 3e
       -0.27373236 0.21691273 0.39873087 0.15435177
000100 fe 95 29 be 65 1e d6 3e 04 dd 29 be 41 85 c9 3d
       -0.16561124 0.41820064 -0.16588217 0.09839869
000110 ca 72 a3 be 96 8d 33 3e 59 5d e2 be 63 da 24 3e
       -0.31923515 0.1753448 -0.44211844 0.16098933
000120 24 bf a4 be 34 8e d7 be 45 13 2f be 65 13 a8 3e
       -0.3217708 -0.4210068 -0.17097194 0.32827297
000130 44 a5 50 3e 6f b2 bb be 2f 62 79 3e d3 43 d1 bd
       0.20375544 -0.36659572 0.2435386 -0.102180146
000140 7d ac 4f be f7 9b db be ae 64 59 be b6 12 e0 3e
       -0.20280643 -0.4289243 -0.21229813 0.43764275
000150 f5 33 82 be e7 14 9f 3e 0c 15 1d be dd 6f d1 be
       -0.25430265 0.31070635 -0.1534006 -0.40905657
000160 ec 76 8e be 3b ec 14 3e a8 90 49 3e 3c af b2 3d
       -0.27825105 0.1454324 0.19684088 0.087248296
000170 05 91 da 3d 83 6e 24 be ea be 58 bc cd 4d eb 3d
       0.106721915 -0.16057782 -0.013229111 0.11489449
000180 58 9a 70 bd d7 40 b8 3e 2c f9 c6 3e ea 41 cb 3e
       -0.058740944 0.3598697 0.38861978 0.39698726
000190 7f 7b cd 3e 7e f5 dd be 91 2d 15 be ae 93 97 3e
       0.40133283 -0.43351358 -0.14568163 0.29604858
0001a0 c7 07 96 3e 90 2c 32 3d 97 7c 0f 3e aa 42 6b 3d
       0.2930281 0.04349953 0.14012371 0.057436623
0001b0 ad 66 8b 3d c8 8f 24 be 7b d0 33 bd 2f 1c 67 3e
       0.06806693 -0.16070473 -0.043899994 0.22569345
0001c0 dc 3c d8 3e 0e cf cb bd c4 ed 9a 3e 3a 2f de 3e
       0.42233932 -0.09951602 0.30259526 0.43395406
0001d0 89 4b de 3d af e4 bb 3e 81 ee 68 3e a4 7b cb be
       0.10854251 0.3669791 0.22747232 -0.39742768
0001e0 c3 ea 8a be b1 1b 33 3e 5b 83 35 be 39 96 0a be
       -0.27132234 0.17491032 -0.1772589 -0.13533868
0001f0 40 01 f9 bd 83 7f bc be a5 21 b6 bc a2 f1 96 3d
       -0.121584415 -0.36816034 -0.02223284 0.073703066
000200 ea 87 95 bd cb 20 94 be fd 3f a1 be 6c 17 c0 3e
       -0.07301314 -0.2893127 -0.31494132 0.3751787
000210 28 86 bd 3e 66 a7 61 be 2e 95 9e be c7 b1 c4 bd
       0.37016416 -0.22036514 -0.3097319 -0.09604221
000220 02 1b 83 be dc c8 e2 be 6d 8b aa be 3e 37 c0 3e
       -0.25606543 -0.4429387 -0.33309498 0.37542146
000230 c3 cd ea bd f9 50 af 3e 29 fd 26 3e 19 93 25 bd
       -0.11465027 0.34241465 0.1630751 -0.040423486
000240 f1 e6 2c be dd 04 9f 3e 19 85 e2 bd 40 56 98 be
       -0.16884972 0.31058398 -0.110605426 -0.29753304
000250 df 39 31 3e 54 a4 54 be f3 80 66 3e 14 a6 f2 3d
       0.17307232 -0.20765811 0.22510128 0.11848083
000260 14 90 c5 be 2e 40 5d be 2c 80 9c 3d 50 14 bc 3c
       -0.38586485 -0.21606514 0.07641634 0.022958905
000270 d2 c7 a9 3d 75 4b 34 bd 6e 42 cf bd 4e 24 55 bd
       0.08290066 -0.044017274 -0.10120092 -0.052036576
000280 53 e8 5a 3e f6 89 36 be 6e e6 17 be 3b 90 d0 3e
       0.21377687 -0.17826065 -0.14833996 0.4073504
000290 d0 2d d5 3e 0b 37 a9 3e 14 28 c4 3e 7b 54 96 be
       0.41636515 0.33049807 0.38311827 -0.29361328
0002a0 5d 88 f4 bd 65 9c a6 be 04 69 42 be b7 b0 6c 3e
       -0.11940072 -0.32541195 -0.18985373 0.23114286
0002b0 de 1b d7 3e 2e b4 d4 be c2 7e a4 3e 43 fe 35 be
       0.42013448 -0.41543716 0.3212796 -0.17772774
0002c0 06 ed b6 3e d0 f8 d9 3d dc 3a 91 be 66 80 96 3e
       0.3572771 0.1064316 -0.2836522 0.29394835
0002d0 f7 b1 8f be 18 a7 3e be 95 fc 6b be 89 af 4b 3e
       -0.28065464 -0.18618429 -0.23045571 0.1989118
0002e0 73 bb 2d 3e 36 8f 7d be 85 55 8a be b6 e0 d9 3d
       0.16966037 -0.24761662 -0.2701837 0.10638563
0002f0 3f 81 4f 3e 82 24 53 3e f7 fc b9 be 9f 52 1b 3e
       0.20264147 0.20619395 -0.3632581 0.15168236
000300 73 f9 ce be d5 8c b5 bd d5 67 08 bd 74 b2 ce be
       -0.4042469 -0.08864752 -0.033302147 -0.40370524
000310 9c 92 85 3e e5 a9 a8 be 19 54 ad 3d 20 f6 67 be
       0.26088417 -0.3294212 0.08463306 -0.22652483
000320 8e 97 58 3e 98 b8 04 3e ea 09 43 3e 68 fc 84 bd
       0.21151564 0.12961042 0.1904675 -0.06493455
000330 0b 39 5b be cd 4f 35 be 34 d7 a6 3e bf fb cf 3d
       -0.21408479 -0.17706223 0.32586062 0.10155439
000340 e2 d7 51 be 12 fe 64 be c1 31 9b bd 93 13 30 be
       -0.20492509 -0.22362545 -0.07577849 -0.17194967
000350 4a 3d 1c be 4e cd da 3e dc f1 77 be 8e 40 ec 3e
       -0.15257755 0.4273476 -0.24213356 0.46143
000360 d0 7b bb 3e 8e 09 80 be 09 78 4b 3e 4c ca cd be
       0.366179 -0.2500729 0.19870009 -0.40193403
000370 63 ad 6f 3d f0 18 97 be ef cb 91 be 90 8c 11 3e
       0.058514964 -0.29511213 -0.284759 0.14213777
000380 f6 68 4b 3e 18 b9 e8 bd c2 25 67 bd 8c 7f 29 3e
       0.19864258 -0.11363429 -0.056432493 0.16552562
000390 64 6b da be d7 76 99 3c 3e 9b db be c7 0f 1a be
       -0.42660058 0.018733425 -0.42891878 -0.15045081
0003a0 5b 8d ca 3e 8e 66 20 be 51 25 46 be fd 55 d6 be
       0.3956097 -0.15664122 -0.19350173 -0.4186248
0003b0 57 63 de 3e d5 46 26 3e eb 0d b0 be c5 67 d5 bd
       0.43435165 0.16237958 -0.3438562 -0.10420183
0003c0 dd 4d bc 3e 34 76 dc be 30 ce d5 3c f2 7d a9 be
       0.36778155 -0.43058932 0.026099294 -0.331039
0003d0 9e 11 a9 be d0 c8 c8 bd 17 f2 34 3e a4 5b e2 be
       -0.33021253 -0.09803927 0.17670475 -0.4421054
0003e0 2f c5 7e be 82 6c b7 be 26 e0 bb bd 65 3f 56 be
       -0.24879907 -0.35824972 -0.09173612 -0.2092262
0003f0 65 7f 78 3e 47 f5 d8 3b d8 ba 5b bd 17 9a c8 be
       0.24267347 0.006621036 -0.053644985 -0.3918006

bias f4 [96]
000000 14 48 6f 3d 6f 3d 1b 3d 60 41 5e be 52 65 b2 be
       0.05841835 0.037900385 -0.21704626 -0.34842926
000010 79 4e df 3d 33 97 c6 3e 33 c8 b8 be 70 ad cc 3e
       0.10903639 0.3878723 -0.3609024 0.39976072
000020 3c d9 71 3e b5 46 97 3e f6 92 8b 3e 77 ee ac 3e
       0.23618025 0.29546133 0.2726056 0.33775684
000030 74 b0 5e 3d 8b b8 53 be d9 91 84 be e3 bc ba be
       0.054367498 -0.20675866 -0.25892523 -0.36472234
000040 e0 4e 1f 3d 53 be 8b 3d 54 e1 db 3d 89 6d 93 be
       0.03889358 0.06823411 0.10736337 -0.28794506
000050 7b 74 9e 3e ca b3 75 be 39 3e c7 be a8 78 de 3e
       0.30948243 -0.23994365 -0.3891466 0.43451428
000060 30 6f e3 3d 80 d7 b7 3e d8 97 ef 3c 2a 65 d0 3e
       0.11105192 0.359066 0.02924721 0.40702182
000070 b8 71 7b bc e4 32 2b be fb 40 55 3e 74 11 b4 3d
       -0.015346937 -0.16718632 0.2082557 0.087923914
000080 ae d7 31 be 40 e6 d7 bd 6a b5 51 3e 9c 16 9c 3e
       -0.17367432 -0.105419636 0.2047936 0.30486
000090 66 a7 ae be 1c 76 97 be 5e be 90 3e f8 1a a4 3e
       -0.3411209 -0.29582298 0.2827024 0.32051826
0000a0 e4 9d 80 bd fc cb 28 be 30 47 14 3e 0e a2 b8 3e
       -0.06280115 -0.16484064 0.14480281 0.36061138
0000b0 c6 9f 91 be 0b 62 d2 3d a8 75 7d 3e de 47 ff 3d
       -0.2844221 0.102726065 0.24751914 0.124648795
0000c0 65 f6 d5 3e f9 35 d4 be e4 4e 83 3e 50 1c 23 bd
       0.41789547 -0.41447428 0.25646126 -0.039821923
0000d0 b0 66 50 be eb d9 d8 3d bc f9 d7 bd 8b fd c8 3e
       -0.20351672 0.105884396 -0.1054568 0.39255938
0000e0 4f 8f a1 be 84 d5 80 3d 29 4f 27 be 91 a6 7b 3e
       -0.31554648 0.06290725 -0.16338791 0.24575259
0000f0 3f 34 ae 3e 0d 24 9a 3e 34 18 19 3e b2 2b cf be
       0.34024236 0.3010563 0.14950639 -0.40463024
000100 09 62 38 3d f4 3d 83 be ad c2 11 3e b9 34 82 3d
       0.04501537 -0.25633204 0.14234419 0.06357712
000110 d4 a2 c6 be f4 33 a0 be d0 5c 6d be 4a 3c c8 be
       -0.38796103 -0.31289637 -0.23179936 -0.39108497
000120 c1 10 26 be 3b ab 2c be 06 1e 80 3e 8e c0 53 3e
       -0.16217329 -0.16862194 0.25022906 0.20678923
000130 7f 69 b4 be 27 e4 64 bd 57 0b e1 3d 48 35 01 be
       -0.35236737 -0.055881646 0.10988491 -0.12617981
000140 a8 32 f0 3d 06 90 e8 bc 50 5a cc be 3f ad be 3e
       0.11728412 -0.028388988 -0.39912653 0.3724155
000150 ef 8a a5 be b2 24 4e be ea 58 60 3d 5d a9 16 3e
       -0.3233256 -0.20131186 0.054772295 0.14713044
000160 aa 9f 13 3e b7 44 f1 3d 35 9f bc be 09 22 bd be
       0.14416376 0.117806844 -0.36840215 -0.3694003
000170 e0 67 c1 3e 39 28 d0 be 20 2f 09 be 63 1a 87 3e
       0.37774563 -0.40655687 -0.13396883 0.2638732

weight f4 [96]
000000 17 6b 80 3f a4 43 7f 3f 77 34 80 3f a0 03 80 3f
       1.0032681 0.99712586 1.0016011 1.0001106
000010 fd 82 80 3f 4a b8 7f 3f 49 a8 7f 3f 65 76 7f 3f
       1.0039974 0.9989058 0.9986616 0.9979003
000020 b6 3e 7f 3f e9 dd 7e 3f 9e 17 80 3f 46 7a 80 3f
       0.99705064 0.9955736 1.0007207 1.0037315
000030 33 e3 7f 3f ea 13 80 3f 6e 88 80 3f 71 6c 80 3f
       0.99956053 1.0006077 1.0041635 1.0033094
000040 02 24 80 3f f3 da 7f 3f 5c 03 80 3f bf 8c 7e 3f
       1.0010989 0.99943465 1.0001025 0.9943351
000050 bd 5a 7f 3f c8 00 80 3f bc de 7f 3f 68 8a 80 3f
       0.9974783 1.0000238 0.9994924 1.0042238
000060 1c 42 7f 3f 4d aa 7f 3f 04 c9 7f 3f 75 9f 7f 3f
       0.9971025 0.99869233 0.999161 0.9985269
000070 df e8 7e 3f 76 c1 7f 3f ad 68 80 3f 48 46 7f 3f
       0.99574083 0.9990457 1.0031945 0.99716616
000080 70 02 80 3f 46 62 80 3f 4b a5 7f 3f 20 94 80 3f
       1.0000744 1.0029991 0.9986159 1.0045204
000090 89 d4 7f 3f c4 e7 7f 3f 72 6b 7f 3f a3 b6 7f 3f
       0.9993368 0.9996302 0.99773324 0.99888057
0000a0 f2 6a 80 3f 9d 2d 80 3f 79 2e 7f 3f 51 9f 80 3f
       1.0032637 1.001392 0.99680287 1.004862
0000b0 de 49 7f 3f d3 3e 80 3f cf 05 80 3f 7a 46 80 3f
       0.9972209 1.0019172 1.0001773 1.0021508
0000c0 eb b5 80 3f 1a 27 80 3f 08 82 7f 3f 53 f0 7e 3f
       1.0055517 1.0011933 0.99807787 0.99585456
0000d0 f0 7f 80 3f 2e 5d 80 3f f3 8b 80 3f 6f ea 7f 3f
       1.0039043 1.0028436 1.0042709 0.9996709
0000e0 e9 29 80 3f d3 2e 80 3f d6 b7 7f 3f 28 80 80 3f
       1.001279 1.001429 0.99889886 1.003911
0000f0 8f 48 80 3f 88 65 80 3f 89 36 7f 3f 25 07 80 3f
       1.0022143 1.0030985 0.9969259 1.000218
000100 af 87 80 3f 78 25 80 3f e4 c7 7f 3f 6a a8 7f 3f
       1.0041407 1.0011435 0.99914384 0.99866354
000110 8c fd 7e 3f c1 39 80 3f 50 54 80 3f 42 30 80 3f
       0.9960563 1.0017625 1.002573 1.0014727
000120 e0 ef 7e 3f 94 3f 80 3f 8f a5 7f 3f 42 2a 80 3f
       0.9958477 1.0019403 0.99862 1.0012896
000130 bd bc 7d 3f c1 32 80 3f ba 21 7f 3f 86 34 80 3f
       0.99116117 1.0015489 0.9966084 1.0016029
000140 64 9a 7f 3f 24 39 80 3f 9e 33 7f 3f 6d e2 7f 3f
       0.99844956 1.0017438 0.99688137 0.99954873
000150 96 f8 7f 3f 6e 21 80 3f 0e 36 7f 3f de 14 80 3f
       0.9998869 1.0010202 0.99691856 1.0006368
000160 63 ae 7e 3f 31 09 80 3f b1 c6 7e 3f e0 97 80 3f
       0.99484843 1.0002805 0.9952193 1.0046349
000170 29 40 80 3f ee 72 7f 3f f3 ef 7f 3f 60 a7 7e 3f
       1.001958 0.99784744 0.9997551 0.99474144

bias f4 [96]
000000 af fc 2a 3b a4 ce e4 ba 40 d7 e5 39 b7 a0 40 ba
       0.0026090553 -0.0017456603 0.00043838657 -0.0007348167
000010 74 6f 9c bb d2 dc 17 bb db fe b7 3a b1 72 9e 3a
       -0.0047740284 -0.002317239 0.0014037745 0.0012088624
000020 fc 8f 98 3a f0 d6 aa ba 7b 5c be 3a d2 d7 c9 ba
       0.001163959 -0.0013034027 0.0014523411 -0.0015399402
000030 15 24 16 3b 8d 73 f5 b9 f7 05 ab b9 a1 fa 95 ba
       0.002290969 -0.00046816134 -0.00032620106 -0.0011442491
000040 5a 5b 89 3b 9f 82 fe ba 4b 31 59 3a 57 0b 16 3b
       0.004191798 -0.001941759 0.00082852383 0.0022894943
000050 a7 f5 96 3b f5 3d c5 3a 05 fc d8 ba 0f c1 8b ba
       0.0046069208 0.0015048372 -0.00165546 -0.0010662394
000060 ab 98 03 3b 84 a3 35 ba e2 bd 52 bb d7 8d 74 ba
       0.002008001 -0.0006928968 -0.0032156636 -0.0009328997
000070 b2 37 2e 3b 7f 22 22 3b 96 0a 01 3b 70 d9 4b 3b
       0.002658349 0.00247398 0.0019690148 0.0031104945
000080 8f eb 66 3a 90 34 24 bb e2 ac 07 3b c4 85 e2 3a
       0.00088089047 -0.0025055744 0.0020702411 0.0017282297
000090 f5 a7 f5 3a c7 78 8f 39 24 07 21 ba f1 ac 1c 3a
       0.0018742072 0.00027365072 -0.00061427266 0.0005976698
0000a0 03 6a c6 ba 3b 9a 9f 3b 44 39 ac ba 47 0f 61 3b
       -0.0015137795 0.0048706806 -0.0013139625 0.0034341381
0000b0 e2 f2 5c 3a 99 ab ca 38 a5 f4 8e 3a ba 9a d6 ba
       0.00084285263 9.664073e-05 0.001090665 -0.0016373016
0000c0 47 47 0a bb 67 9d c6 39 2c cd ba 39 53 13 d7 3a
       -0.0021099614 0.00037882777 0.0003562955 0.0016408957
0000d0 43 38 cd 37 90 02 95 38 8b ad 9a 37 81 a9 b9 3a
       2.4464103e-05 7.105351e-05 1.8439043e-05 0.0014164896
0000e0 56 c3 3d 3a 6b dc 6b 3a 74 9f 9e b9 8f 6d 57 39
       0.0007238885 0.00089973834 -0.0003025491 0.00020544812
0000f0 b5 1f 84 3a 82 8f 2b 3b e3 b5 e3 3a cd 97 81 3a
       0.001008025 0.0026178067 0.0017372932 0.0009887159
000100 7f a2 ef 39 f6 94 93 b9 ab 61 1b 3b c3 4d 1f 3b
       0.000457067 -0.0002814901 0.0023709338 0.0024307824
000110 df 98 54 ba 19 4d 60 3b 85 df 53 3b 74 af 25 bb
       -0.0008109938 0.0034225641 0.0032329273 -0.002528158
000120 99 16 ea b9 83 cb f8 b9 6d 38 8d 3a a9 56 4d 3b
       -0.00044648795 -0.00047453874 0.0010774262 0.003133217
000130 b7 2a 95 3a 57 e5 0f 3b 5f 98 ca 3a ee c1 93 3a
       0.0011380528 0.0021956766 0.0015456787 0.0011273006
000140 fb d7 9c 3b 83 56 e2 ba 6e 43 83 39 fa a1 23 3b
       0.004786489 -0.0017268214 0.00025036506 0.0024968372
000150 fe f9 9f ba 68 b8 4e ba e1 1b 77 3b 4e 0b 12 bb
       -0.0012205241 -0.0007885755 0.0037705826 -0.002228457
000160 06 33 96 3a ae 89 e9 39 84 22 db 3a 46 41 0a ba
       0.0011459298 0.00044543803 0.001671866 -0.0005274009
000170 62 b2 12 3b ca cf 2b bb 02 d3 ad ba 6b dd a1 3b
       0.0022384156 -0.0026216381 -0.0013261738 0.004939725

running_mean f4 [96]
000000 86 56 1c 3e 26 00 e8 3e 57 6c 03 3e be 25 40 3d
       0.15267381 0.45312613 0.12834297 0.046910994
000010 45 61 b4 3e ce 45 cb 3e f5 ce 10 3d e2 70 0e 3f
       0.3523046 0.39701694 0.03535362 0.55640996
000020 1f e1 97 3e e4 17 d7 3e 5c 19 12 3f 5c a5 b2 3e
       0.2966394 0.42010415 0.57069945 0.34891784
000030 a6 ea 36 3e 1b 5e 88 3d 26 d4 d7 3e 52 fd 25 3d
       0.17862949 0.06658574 0.42154044 0.04052479
000040 21 dc ef 3d ce fd 26 3e bf 36 06 3e 8e b1 99 3e
       0.11711908 0.16307756 0.13106821 0.30018276
000050 19 cf 18 3f ab d0 d4 37 21 8e 0d 3d 9a c8 0a 3f
       0.59691006 2.5369538e-05 0.034559373 0.54212344
000060 6e 1b ac 3e 27 2c fb 3e b5 02 be 3e aa 9a ee 3e
       0.33614677 0.49057123 0.3711144 0.46602374
000070 f7 d0 19 3e d1 c1 50 3d 3f d6 85 3e b2 ee ee 3d
       0.1502112 0.050966088 0.2614002 0.11666621
000080 34 bd ac 3e dc a3 02 3e e9 c2 8e 3e 61 9a a6 3e
       0.337381 0.1275782 0.2788308 0.32539657
000090 11 17 20 3d ea 14 75 3c 6e d2 fe 3e 49 30 04 3f
       0.039084498 0.0149586 0.4976992 0.5163618
0000a0 5e af 93 3d 72 60 4a 3e af af 23 3e 91 3f b0 3e
       0.07211183 0.19763353 0.15984987 0.34423497
0000b0 b7 e0 b5 3d 63 1a 7e 3e 5d 1f d9 3e 97 13 e5 3e
       0.088807516 0.24814753 0.4240674 0.44741508
0000c0 ce 0b d6 3e 8e d0 89 3e 32 bf 88 3e 92 58 c7 3e
       0.4180588 0.26916927 0.2670837 0.3893476
0000d0 d8 01 28 3d f1 ed e2 3e 82 ef 54 3c e1 b9 d1 3e
       0.041017383 0.4432216 0.012996556 0.40962127
0000e0 eb d8 10 3e 80 26 7f 3e 68 76 0d 3e 34 20 bc 3e
       0.14145248 0.2491703 0.138147 0.3674332
0000f0 a4 71 f6 3e d6 c9 b8 3e 08 1e c6 3e 40 a5 51 3e
       0.48133576 0.3609149 0.38694787 0.20473194
000100 f3 aa f0 3d e9 11 c8 3e 0c 3d d7 3e 5f e5 41 3e
       0.11751356 0.39076164 0.42038763 0.18935154
000110 c2 77 31 38 41 bb 3b 3e 6a 28 e6 3d bd 4c 85 3d
       4.231162e-05 0.1833315 0.11238177 0.06508777
000120 76 c6 ee 3b 09 4c 17 3e 8e bb 8a 3e 54 71 95 3e
       0.007286842 0.14775099 0.27096218 0.29188025
000130 e4 9d 9d 3c 50 c0 35 3e 88 87 a3 3e 4c 35 f3 3d
       0.019240327 0.17749143 0.3193934 0.118754
000140 f7 4a 21 3e 7e 87 af 3d 33 d7 bc 3b 10 a9 db 3e
       0.15751253 0.08570765 0.0057629584 0.42902422
000150 c4 c6 7e 3e ea d2 f6 3d a6 77 8b 3e bf d3 8a 3e
       0.2488051 0.120519474 0.27239722 0.27114674
000160 0e af 76 3e 14 4c 03 3e 90 ee f9 39 57 ee c1 3d
       0.24090216 0.1282199 0.00047670724 0.09469288
000170 24 db dd 3e 00 00 00 00 c4 24 5b 3e 46 a0 b2 3e
       0.43331254 0.0 0.21400744 0.34887904

running_var f4 [96]
000000 90 e1 ad 3c 8a 11 00 3f db f3 3f 3d e6 f1 c6 3b
       0.02122572 0.5002676 0.046863418 0.006071317
000010 53 8e dc 3d cd fb f2 3c d9 4e 89 3b fd 7c 00 3f
       0.10769334 0.029661084 0.0041903076 0.50190717
000020 74 c9 b3 3d b6 86 7f 3e 1e ca f6 3e ac 70 71 3d
       0.087786585 0.24953732 0.48201078 0.058945343
000030 9e 20 3d 3d 6c 02 61 3c ea 41 07 3f f8 97 31 3c
       0.046173684 0.013733488 0.5283495 0.010839455
000040 42 c6 cd 3c 50 f6 0b 3d 72 5b 72 3c 0c 39 13 3e
       0.02511895 0.03417045 0.01479231 0.1437723
000050 d4 f9 df 3e 66 99 e0 35 25 b8 0c 3c 16 38 71 3e
       0.4374529 1.6733945e-06 0.008588825 0.23556551
000060 9a ca 6f 3e e0 be 8c 3e f2 ab 37 3e e6 07 44 3e
       0.2341713 0.27489376 0.17936686 0.19143638
000070 d2 be 04 3d 3d bc 4c 3c a9 34 84 3d 37 4c b0 3c
       0.032408543 0.012496051 0.06455357 0.021520717
000080 2a e5 70 3e e2 ad 84 3d f0 e1 77 3d e2 e8 41 3d
       0.23524919 0.06478478 0.060518205 0.047341235
000090 5e bf 3c 3c e5 97 d7 3a bf 0a d1 3e d1 20 e1 3e
       0.011520235 0.0016448466 0.4082851 0.4397035
0000a0 ba 12 36 3c 86 8b cb 3d 4b 7e e7 3c 8c c0 35 3d
       0.011112863 0.09938721 0.028258463 0.04437308
0000b0 1c ca 05 3d 7a de 8d 3d c9 2e 14 3e 92 97 a6 3e
       0.03266345 0.069272 0.14470972 0.32537514
0000c0 fd c6 81 3d 2a b6 92 3e cd dd 29 3d ec 4a b5 3e
       0.06336782 0.28654605 0.04147129 0.35408723
0000d0 aa 5f e7 3b 25 0a e9 3e 9a f2 9d 3a 0d d8 11 3e
       0.0070609646 0.45515552 0.001205045 0.14242573
0000e0 fe 79 9c 3d d2 d6 d0 3d ce e8 58 3d b8 d0 43 3e
       0.07640456 0.10197224 0.052956395 0.19122589
0000f0 79 91 20 3e a7 71 b9 3d 9f e3 42 3e 76 90 e1 3d
       0.15680493 0.090548806 0.19032143 0.11013882
000100 ca ba 63 3c be b3 e4 3e 4d 5c 9a 3e 41 50 58 3d
       0.013899514 0.44668382 0.30148545 0.05281091
000110 ae 2f 9c 36 d1 e5 fe 3d a4 e2 fb 3c df 50 c3 3c
       4.654713e-06 0.12446178 0.03074772 0.023842273
000120 83 6b 41 3a 2b 66 28 3d 53 50 82 3d 8e 3e f6 3d
       0.0007378386 0.04111306 0.06362977 0.1202365
000130 c1 59 89 3b 22 4c 93 3d 96 26 e0 3d 92 59 20 3d
       0.0041916077 0.071922556 0.1094486 0.03914792
000140 7a 6d 19 3d 46 7c 86 3c 36 c8 23 3a d9 b8 11 3e
       0.03745792 0.01641668 0.00062477903 0.1423067
000150 6c dc 77 3e be f4 42 3d 8a ff 12 3e 1a de 88 3d
       0.24205178 0.047596686 0.14355293 0.066829875
000160 66 16 3b 3d bd 02 8b 3c 2d 1f 10 39 92 41 cd 3c
       0.045675658 0.01696908 0.00013744524 0.02505568
000170 2a 43 05 3e 00 00 00 00 51 df 04 3e bb 85 39 3e
       0.13013902 0.0 0.12975813 0.1811742

weight f4 [256, 96]
000000 49 26 a5 3d 8a 63 90 3d a7 9f 21 bd 2b cd 2c 3d
       0.08063943 0.070502356 -0.039458897 0.04218785
000010 c8 b5 14 3d a7 bc 92 bd 16 3d 9d bd 60 cf 1a 3c
       0.036306173 -0.07164889 -0.07677667 0.009448856
000020 9e ac bc 3d 4d e1 08 bd 20 c4 d9 3c df e9 8f 3d
       0.092126116 -0.03341799 0.026582778 0.07027029
000030 88 4a 74 3d 32 7e 2e 3d e1 20 fe bc f9 c5 53 3d
       0.05964139 0.042600818 -0.031021537 0.051702473
000040 49 f7 d1 bd 0f 22 8b 3b 7a 8c 9e 3c 7c a9 f8 bc
       -0.10252244 0.0042460035 0.019354094 -0.030354254
000050 55 15 b6 3d e7 62 c5 bd 2c 5a 86 bd 14 1b b3 3d
       0.088907875 -0.09638005 -0.06560168 0.08745399
000060 d0 e1 df bc 9c 9d a0 3c 1c 77 40 3c 7e 6b a8 3d
       -0.027329355 0.019606404 0.011747148 0.082236275
000070 44 53 46 3b 63 91 13 bd 8d 8c 21 bd e4 00 f8 bc
       0.0030262033 -0.036027323 -0.03944068 -0.030273862
000080 5e 47 9e bd 23 48 14 3d df a8 8b bb 4d 65 81 bd
       -0.07728456 0.036201607 -0.0042620744 -0.0631815
000090 6a 6a fb bc c2 3a f2 bc b0 81 0f 3d d4 41 8d bd
       -0.03069039 -0.029569034 0.03503579 -0.06897321
0000a0 3b b0 d5 3d 2a b0 be bd ba 45 bb 3d d7 08 53 3b
       0.10434004 -0.093109444 0.09144159 0.0032201314
0000b0 53 eb 04 3d 31 30 16 3d 66 fb ae bd e7 5e b8 bd
       0.032450985 0.036667053 -0.08544044 -0.09002476
0000c0 8b d1 ca 3c fe b6 bb bc 7d 2f 34 bd 97 4b 37 bd
       0.024758121 -0.022914406 -0.0439906 -0.044749822
0000d0 10 5a 8b bd 1d 13 37 3d 72 80 a9 bd 02 ac 3f bd
       -0.068042874 0.044695962 -0.08276452 -0.0467949
0000e0 ec b5 41 3d 0f d5 1b 3d 66 39 2c bd a8 88 c5 bd
       0.047292635 0.038044985 -0.042046927 -0.09645206
0000f0 c7 9d 3b 3d 25 65 aa 3d a0 51 63 bd 8d a9 ac 3d
       0.045804765 0.08320073 -0.055497766 0.08430777
000100 a8 17 6c bd 37 c0 92 3d f7 aa 1f 3d 5b a4 ae bd
       -0.057639748 0.07165568 0.038981404 -0.08527442
000110 c0 e4 d8 3c 4f 21 57 bd 8b 57 dc bc 4f 5b 16 bb
       0.026476264 -0.052522 -0.026897212 -0.0022942608
000120 c0 85 92 bd 38 02 0b 3d e9 e5 88 3d 59 c7 d5 bc
       -0.07154417 0.033937663 0.06684477 -0.026096033
000130 5d a8 41 3d cf 93 bc bd 26 b8 e2 3b fe 74 58 bd
       0.047279704 -0.0920788 0.006918925 -0.052845947
000140 34 d4 8d 3a 67 31 0f bd 16 bb 5c bd f6 3e b1 bc
       0.0010820688 -0.034959223 -0.053889357 -0.021636467
000150 23 29 c0 bd f8 43 4c bd 47 52 40 bd 03 2f d4 3d
       -0.09382846 -0.049869508 -0.046953466 0.10360529
000160 cb 50 3f bd 59 cd 17 bc d3 9c e2 bc c6 3f a2 bd
       -0.04670791 -0.009265267 -0.02766267 -0.0792232
000170 09 94 f5 3c 48 0c 9a bd 3f fa 1f 3d ac 21 3c bd
       0.029977815 -0.07521874 0.039057013 -0.04593055
000180 52 ad 38 3d d9 b0 87 3d f5 0e a0 3d b6 10 bd 3d
       0.045087166 0.06625528 0.07815353 0.09231703
000190 cb 83 c3 bc c9 0c ca bd 0d 80 0b bd d1 c5 c8 bd
       -0.023866555 -0.0986572 -0.034057666 -0.098033555
0001a0 28 33 97 3c 1e 0a bc bd 5a e4 93 bc f5 a5 a9 3d
       0.01845701 -0.09181617 -0.018053222 0.08283607
0001b0 cf d5 66 bb e0 43 32 3b de 2e c2 3d dd 20 55 bd
       -0.0035222655 0.0027201101 0.094815955 -0.052033294
0001c0 74 b7 c8 bd 20 57 48 3d eb c9 8b 3d 58 4d 19 bc
       -0.09800616 0.048911214 0.06825622 -0.009356819
0001d0 e3 09 a6 bd 10 15 b4 3c 69 58 f6 3c 2c d4 8e bd
       -0.081073545 0.0219827 0.030071454 -0.06974062
0001e0 b9 63 39 bd b7 0e 1d 3b 84 1d 7d 3d 67 43 22 bb
       -0.04526112 0.002396507 0.061795726 -0.0024759413
0001f0 ca 33 c6 3d ab c9 bf 3d e2 18 b6 3c d7 15 7e bd
       0.09677847 0.09364637 0.022228662 -0.062032547
000200 e3 6d 50 bd f9 da e3 bc 9e e1 18 3c 55 2a 80 bd
       -0.050886046 -0.027814375 0.009331135 -0.06258074
000210 3f 01 d1 bd de 21 00 bd 0d 87 98 bd 31 90 0d 3d
       -0.10205316 -0.0312823 -0.07447634 0.03456134
000220 37 fd 6e bd 30 7a f6 bc f6 43 27 3d 7e ea 97 3c
       -0.058346953 -0.03008756 0.040836297 0.018544432
000230 f0 a0 0d bb 6f 4e 6e 3d dd 6f 8e bd be 45 e5 3c
       -0.0021610819 0.05818027 -0.0695493 0.027987357
000240 0d 57 e7 3b 0c a4 c3 bd 94 68 04 3d 30 7d 8d bd
       0.007059938 -0.09552774 0.032326296 -0.06908643
000250 ad ac d9 bc 87 d5 45 bd 51 92 cc bd 83 a1 87 3d
       -0.026571596 -0.04829934 -0.09988845 0.06622603
000260 59 5c 6a 3d 70 ef 34 3c 76 c1 8b bd ef 1f b9 3d
       0.057216976 0.0110434145 -0.06824009 0.09039294
000270 f7 2c 0e bd ca 52 8c bd 16 2b 9d bd 60 a8 66 3c
       -0.03471085 -0.06851728 -0.076742336 0.01407823
000280 b7 d1 7b bd 71 17 5d bc 92 ae cf bd 1e 5c d8 bc
       -0.061479297 -0.013494358 -0.101407185 -0.026411112
000290 a2 25 c4 bd ac 7b 91 bd 3f 08 b0 bd 3a ec 87 bd
       -0.095774904 -0.07103667 -0.08595323 -0.066368535
0002a0 56 62 9c 3d ae a6 04 bd 66 c8 8e bd 03 38 c3 3d
       0.076359436 -0.03238552 -0.06971817 0.09532168
0002b0 d3 eb 80 3c ce 5a aa bd 1a 86 a2 bd cd 3a 4d 3c
       0.01573745 -0.08318101 -0.07935734 0.012526226
0002c0 c5 51 96 bd 1b c5 32 3d f7 e5 b1 bd 0b 1c bb bd
       -0.07339815 0.043645006 -0.086864404 -0.09136208
0002d0 18 15 70 3d f1 ec 4e bb 88 a6 f8 3c 20 f3 fb bc
       0.058613867 -0.0031574334 0.030352846 -0.03075558
0002e0 18 64 94 bd 35 29 88 3d 67 f6 99 bc 4b 25 9b 3d
       -0.07245654 0.066484846 -0.018794252 0.075754724
0002f0 73 9e d2 bc 4b 99 b1 bc 6b b1 b5 bc ab a0 7a bd
       -0.02571032 -0.021679541 -0.022179326 -0.06118838
000300 3f 1c 81 3c 35 bc c9 3c 85 3c 2a bd c8 2b 89 bd
       0.01576054 0.024625877 -0.041561622 -0.06697804
000310 33 2a ad 3d 7b 99 f4 bb 58 25 a4 3c 73 17 7b bd
       0.084553145 -0.0074645854 0.020037338 -0.06130166
000320 08 51 8f 3d ce fe a8 3d 6d 74 d8 3c 30 bf bd 3d
       0.06997877 0.08251725 0.026422704 0.09264982
000330 3e ed 65 3d a8 d2 aa 3d 10 79 57 bd 8a 8f 0b bd
       0.056134455 0.08340961 -0.05260569 -0.034072436
000340 46 ef 7d bc 64 27 4f bd d7 9a 4f 3d 9d 7d 52 bd
       -0.015498942 -0.050574675 0.050684776 -0.051389325
000350 c8 91 20 3d 55 3d 64 3d 7c aa a7 bc e8 c8 c0 3d
       0.039201528 0.055722553 -0.020467035 0.0941332
000360 bb df 49 bd d2 ab 2b 3d 10 3c 86 3d 17 9c 7f bd
       -0.04928563 0.041911907 0.06554425 -0.06240472
000370 1e 2d a1 bb f7 61 a9 3d 67 5c a7 bd 18 e7 61 bd
       -0.0049187085 0.082706384 -0.08171921 -0.05515203
000380 ee 17 c6 bd 4b 5f 8f 3d 74 1a 83 3d 01 96 52 3c
       -0.09672533 0.070005976 0.0640153 0.0128531465
000390 97 cd 8e 3c ee f9 c9 bd d5 f7 37 3d 5e 11 50 bd
       0.017432017 -0.098621234 0.044914085 -0.050797813
0003a0 65 9a 4b 3d 33 86 89 bd f9 7c 83 bd 01 7b 98 3d
       0.04970779 -0.067150496 -0.06420321 0.07445336
0003b0 82 f3 f5 3c 86 2b 09 bd cf 56 8f bd bd 16 bc bd
       0.03002334 -0.033488773 -0.06998979 -0.091840245
0003c0 35 f4 8b 3d 35 52 11 bd 97 41 a9 3c 05 f9 74 3d
       0.06833688 -0.03547879 0.020661158 0.059807796
0003d0 91 6f d4 bc 9e 10 4a bd e6 9a 6f bd 59 03 a6 3b
       -0.025932105 -0.049332254 -0.058497332 0.005066317
0003e0 de cb 1a bc 04 62 a2 3b 75 b9 ed 3c 43 39 be bd
       -0.00944802 0.004955532 0.029019097 -0.092882656
0003f0 28 50 5c 3d 1f 41 72 bc 94 30 ab bd 60 b2 07 bd
       0.05378738 -0.014786034 -0.08358875 -0.033129096

bias f4 [256]
000000 a6 43 9a 3d 7a 40 32 3d cc 86 e3 bc ab 21 b7 bd
       0.07532434 0.04351852 -0.027774237 -0.089419685
000010 04 bd 7d bd 65 73 9e 3c 0b 2e c1 bd ff 5d 22 3d
       -0.061947837 0.019342134 -0.0943261 0.039640423
000020 5b 3d 4e bd d2 1e 40 bd b9 a0 af bd 52 5d 40 bd
       -0.050351482 -0.046904393 -0.08575577 -0.046963997
000030 e2 d8 48 bd 22 46 53 3d 45 1a a8 bd 9d 10 6f 3d
       -0.04903496 0.051580556 -0.082081355 0.058365453
000040 cb d3 6a 3d b1 2d 7d 3d 3d 68 37 3d 8e 45 a8 bd
       0.057330888 0.061811153 0.044777144 -0.082163915
000050 51 53 70 bd 05 50 f4 bc e5 bb ca bd 6b c9 cc 3d
       -0.058673207 -0.029823313 -0.09899119 0.09999355
000060 ad 8a cc 3b 73 c5 b1 3d 96 fc 76 3c e4 03 01 bc
       0.0062421174 0.086802386 0.01507487 -0.007874463
000070 8d 5a ae 3d 5d 02 b2 bd 13 29 11 bd 7b 76 a7 3d
       0.08513365 -0.08691857 -0.035439562 0.08176895
000080 a7 06 66 bb d9 c8 96 3c 21 43 b2 bd c3 f8 ce bd
       -0.003509918 0.018406319 -0.0870421 -0.10106041
000090 85 2c ba bc 1f c3 03 3d d9 29 65 bd 20 c0 c6 ba
       -0.022726307 0.032168504 -0.055948112 -0.0015163459
0000a0 0d 16 ca 3d e0 96 b1 bd 82 f0 be bc fe c6 26 3d
       0.09867487 -0.08671355 -0.023308042 0.040717117
0000b0 9f 35 7f 3d ad ea e5 bc 60 af 42 3d 61 90 24 bd
       0.062306996 -0.028066004 0.047530532 -0.040176753
0000c0 f8 eb a4 3d ac a0 9d 3c 2f b4 34 3d 2f e3 b1 3d
       0.0805282 0.019241653 0.04411715 0.0868591
0000d0 a8 4e 14 bd 0c d8 7b 3d 9f a6 c9 3c f2 7d f2 3c
       -0.036207825 0.061485335 0.024615584 0.029601071
0000e0 e6 ab 77 3d f6 1f 6a 3d cb 8a 8d bd 12 31 60 bd
       0.06046667 0.057159387 -0.06911238 -0.054734297
0000f0 5a ed 02 bd fe 6e b5 3b 5e 9d c1 bd 29 b7 05 3d
       -0.031964637 0.005536913 -0.094538435 0.03264538
000100 5d 95 65 bd ec ef 5d bd fd 08 a7 3d f3 4d a3 bd
       -0.056050647 -0.054183885 0.08156011 -0.07973852
000110 b1 3e f4 3c 59 b8 b6 3d 77 48 01 bd b7 3c 95 3c
       0.02981505 0.0892188 -0.03156325 0.018217428
000120 ac e8 86 bd 02 48 e9 3c b1 fd 32 bc 73 08 8e 3c
       -0.065873474 0.028476719 -0.010924743 0.017338013
000130 57 3a 1c bd db f7 44 3b 6d 9c 4a bd ce d5 a5 3d
       -0.038141575 0.003005496 -0.049465586 0.08097421
000140 d9 ba 97 3c ca d9 af bc b1 37 ca 3c 9e 4e 84 bd
       0.018521713 -0.021466155 0.024684759 -0.064603075
000150 56 22 b7 bb 40 64 ce 3c 7b 21 ae bd 19 37 40 bd
       -0.00558881 0.025194287 -0.0850248 -0.046927545
000160 0e 34 8b bd 00 61 5c 3c 8d 90 05 3d fb 78 9c bb
       -0.06797038 0.013450861 0.032608557 -0.004775164
000170 82 2a 24 3c e3 49 0f bd 37 b5 b3 bd 41 d8 16 bd
       0.0100199 -0.034982573 -0.08774798 -0.03682733
000180 60 fe 6b 3c 78 1b 84 bb 44 5d 02 3d 6e 29 9e bd
       0.014403909 -0.004031595 0.031827226 -0.07722746
000190 c2 c6 59 3c b1 09 44 bd e6 95 94 3d 19 a1 3c bd
       0.013292016 -0.047860805 0.07255153 -0.046052072
0001a0 45 b5 ae 3d 59 ea de 3c 56 4b b4 3d 48 b6 c1 3c
       0.08530668 0.027211355 0.08803432 0.023646489
0001b0 3b 4f a4 bd a3 09 54 bd ea 4c f4 bc a6 50 fe 38
       -0.080229245 -0.051767003 -0.029821832 0.00012126686
0001c0 3e 68 8f 3b be 54 b7 bd 40 b4 ae 3a c5 ba 9e bd
       0.0043764403 -0.0895171 0.0013328865 -0.07750467
0001d0 2c 47 8f bd 4b 1f 14 bd 47 19 ab 3d e1 30 f3 3c
       -0.06995997 -0.036162656 0.08354431 0.029686393
0001e0 d2 62 8b 3d a8 05 ae bd 20 bf 7a 3c 2b 19 c6 3c
       0.06805958 -0.084971726 0.015304357 0.024181923
0001f0 93 2b 85 bd 24 b7 cf 3c 15 10 c4 3d 5a 0e 5c 3d
       -0.06502452 0.025355883 0.0957338 0.053724624
000200 53 4c c9 bd 8e 99 9d 3d 91 f3 33 3c a6 57 03 bd
       -0.09829011 0.07695304 0.010983364 -0.03206601
000210 ab c0 61 3c c3 3b c4 3c 04 32 99 3c e8 35 48 ba
       0.013778846 0.023954278 0.018700607 -0.0007637427
000220 38 81 26 bd 5e e5 e2 3c dc 05 1d bd 83 f6 3d bb
       -0.040650576 0.027697261 -0.038335666 -0.0028986044
000230 09 d1 21 3d 7f 83 b5 bd d5 dd ac bc 69 c8 51 3d
       0.039505992 -0.088629715 -0.021101872 0.051216517
000240 53 75 3f 3d f6 6a c3 bd 97 24 b4 3d ed bb a8 3c
       0.04674275 -0.095418856 0.087960415 0.020597422
000250 68 7a 8b 3b da e3 29 3d 35 80 3f bd 06 37 88 bd
       0.0042565353 0.04147706 -0.046753127 -0.0665112
000260 b2 6f c9 bd fb 7e 24 bd cb ec 9b bd c7 69 44 bc
       -0.09835757 -0.04016016 -0.07613524 -0.01198811
000270 fe 29 99 bd 37 d6 97 3b 23 a5 a7 bd 0d e8 1a bd
       -0.074787125 0.0046336907 -0.08185794 -0.037818957
000280 ee 66 06 bd 9b 93 bd 3d 7c 45 7c bd 4a 3c b4 bd
       -0.032813005 0.09256669 -0.061589703 -0.08800562
000290 5e 73 ac bd 93 23 be bd c5 b6 77 bd c2 26 ca bd
       -0.08420442 -0.09284129 -0.060477037 -0.09870674
0002a0 bb 1c 13 bd c0 60 92 3c 8b 62 a8 3d 13 b5 b8 bd
       -0.03591607 0.0178684 0.082219206 -0.09018912
0002b0 89 5d 30 bc d0 91 ba 3d cb a5 ac bd 60 f3 bc bc
       -0.010764488 0.09109843 -0.0843006 -0.023065269
0002c0 43 4c 23 3d 72 2a 30 bc 2f 23 ae 3c 4a 74 cc bc
       0.03986765 -0.010752307 0.021257011 -0.024957795
0002d0 57 d1 90 3d c8 1a 8b 3c a9 a7 a3 bd 07 29 48 bc
       0.070711784 0.016980544 -0.07990963 -0.012216813
0002e0 01 77 bc bc 49 2c 85 3d c7 6c bf 3d e2 07 81 bd
       -0.023005964 0.06502587 0.093469195 -0.06300332
0002f0 e9 c6 00 3d 3a 6d 53 3d bd 82 f4 3c 1f 5e 91 bd
       0.031439696 0.05161784 0.029847497 -0.0709803
000300 48 45 58 bd a2 b0 b5 bd c6 cf 8d bd 20 94 8e 3d
       -0.052800447 -0.08871581 -0.06924395 0.06961846
000310 50 bd 86 bd 08 89 9e bd d6 8d e8 3c 9c 17 0a 3c
       -0.06579077 -0.077409804 0.028387945 0.0084284805
000320 39 a5 a9 bc 96 b7 35 3c 3a b4 ae bd 33 5f c5 bc
       -0.020708667 0.011091134 -0.08530469 -0.024093246
000330 69 39 8e bc ed c2 9a bd 45 a6 ce bc f2 32 24 bd
       -0.01736136 -0.075567104 -0.025225768 -0.040087648
000340 ae bd 94 3d 7a 02 d0 3a b6 4f 96 3b fb 78 b3 3c
       0.07262741 0.0015869879 0.004587139 0.021908274
000350 c4 51 97 3d 5e b4 fc bc 7c 75 75 bc 05 de 28 3d
       0.073886424 -0.030847725 -0.014981624 0.04122736
000360 48 fa 45 bd f0 23 b7 bd 1b 71 25 3d b7 9d cf bc
       -0.04833439 -0.089424014 0.04039107 -0.025343759
000370 2d 5d aa bd 36 5f c4 bd 74 45 8e bd 3e a1 95 3d
       -0.08318553 -0.095884725 -0.06946841 0.07306145
000380 5d fa 73 3d e9 9d 99 bd f7 be 90 bd 16 70 d0 3d
       0.059564937 -0.07500822 -0.07067674 0.10177629
000390 dc e0 2f 3d 4a e6 db 3b 06 d8 a8 bd 2f 11 0c bd
       0.042939052 0.006710802 -0.08244328 -0.034196075
0003a0 dc fa 94 bd ba 84 91 ba f8 af 7f bd 38 b5 9f bc
       -0.0727441 -0.0011102178 -0.062423676 -0.019495592
0003b0 3c 18 94 bd 6e 52 b1 bc 0a a0 8d 3c a3 a8 98 bd
       -0.07231185 -0.02164575 0.017288227 -0.0745404
0003c0 f0 30 e0 3c ac 58 81 3d b8 55 77 3c cd a1 40 3d
       0.027367085 0.06315741 0.015096121 0.047029305
0003d0 ce db 68 bd bb 91 ea 3c 41 4e a0 bb f2 9d ea bc
       -0.056850247 0.028633943 -0.004892141 -0.028639767
0003e0 73 1b 62 bd c4 62 95 bd 0e af 77 3d 3e a5 87 bb
       -0.05520196 -0.07294229 0.06046968 -0.0041395715
0003f0 14 c5 8a 3d e4 21 08 bd 23 37 c9 3d e0 b9 81 3c
       0.06775871 -0.033235446 0.098249696 0.015835702

weight f4 [256]
000000 e7 99 7f 3f 5a aa 7f 3f 29 4d 7f 3f c8 20 80 3f
       0.9984421 0.9986931 0.9972711 1.0010004
000010 2f a3 7f 3f 36 c7 7f 3f c8 3a 80 3f 01 f3 7f 3f
       0.99858373 0.99913347 1.0017939 0.9998017
000020 71 22 80 3f 13 1e 80 3f a9 24 80 3f 4b c5 7f 3f
       1.0010511 1.0009178 1.0011188 0.9991042
000030 52 83 7f 3f bb f7 7f 3f 63 2e 80 3f 50 d1 7f 3f
       0.99809754 0.9998738 1.0014156 0.9992876
000040 6e f9 7f 3f f4 42 80 3f b5 de 7f 3f 77 65 80 3f
       0.99989974 1.0020432 0.999492 1.0030965
000050 25 0e 80 3f 90 70 7f 3f fc e7 7f 3f e9 27 80 3f
       1.0004317 0.9978113 0.99963355 1.001218
000060 38 06 80 3f 6e b3 7f 3f 39 d5 7f 3f a3 b3 7f 3f
       1.0001898 0.9988316 0.99934727 0.9988348
000070 a6 32 80 3f f3 ef 7f 3f b2 ed 7f 3f 3e 30 80 3f
       1.0015457 0.9997551 0.9997207 1.0014722
000080 58 75 7f 3f 7d 09 80 3f d3 64 7f 3f 99 44 7f 3f
       0.9978843 1.0002896 0.9976322 0.99714047
000090 93 4c 80 3f b6 fe 7f 3f 2f 0d 80 3f d6 0c 80 3f
       1.0023369 0.99998033 1.0004023 1.0003917
0000a0 21 2a 80 3f 10 36 7f 3f ab ac 7f 3f a0 41 80 3f
       1.0012857 0.9969187 0.99872845 1.0020027
0000b0 da 0a 80 3f 9f 1e 80 3f 28 03 80 3f 64 dc 7f 3f
       1.0003312 1.0009345 1.0000963 0.99945664
0000c0 30 ea 7f 3f ca 7c 7f 3f 42 3d 80 3f 4d 00 80 3f
       0.99966717 0.9979979 1.0018694 1.0000092
0000d0 e1 0c 80 3f d7 cb 7f 3f a6 9b 7f 3f 4a 1f 80 3f
       1.000393 0.9992041 0.99846876 1.0009549
0000e0 0a 21 80 3f a5 ff 7e 3f 24 d8 7f 3f c7 d4 7f 3f
       1.0010083 0.9960883 0.9993918 0.9993405
0000f0 8e d9 7f 3f 39 c5 7f 3f 0b 36 80 3f d5 36 80 3f
       0.9994134 0.9991031 1.0016493 1.0016733
000100 1d 1c 80 3f e4 d4 7f 3f 4a 17 80 3f f2 4c 80 3f
       1.000858 0.9993422 1.0007107 1.0023482
000110 d6 cd 7f 3f fc 06 80 3f ca f3 7f 3f 4d a8 7f 3f
       0.99923456 1.0002131 0.9998137 0.9986618
000120 54 17 80 3f 35 dd 7f 3f c3 46 80 3f e7 47 80 3f
       1.0007119 0.9994691 1.0021595 1.0021943
000130 46 2a 80 3f e8 40 80 3f 75 17 80 3f ac aa 7f 3f
       1.0012901 1.0019808 1.0007159 0.998698
000140 7c 01 80 3f 42 10 80 3f c0 ec 7f 3f 96 0a 80 3f
       1.0000453 1.0004961 0.99970627 1.000323
000150 9c b9 7f 3f 2a d7 7f 3f db 16 80 3f 1f 01 80 3f
       0.9989259 0.9993769 1.0006975 1.0000342
000160 7a 25 80 3f d3 2a 80 3f 75 59 80 3f e4 0e 80 3f
       1.0011437 1.0013069 1.00273 1.0004544
000170 f4 41 80 3f 0f 20 80 3f ab bf 7f 3f 06 1a 80 3f
       1.0020127 1.0009784 0.9990184 1.0007942
000180 01 34 80 3f 41 85 7f 3f 40 db 7f 3f 01 86 7f 3f
       1.001587 0.99812704 0.99943924 0.9981385
000190 d1 f1 7f 3f 5c 94 7f 3f f5 11 80 3f a4 2e 7f 3f
       0.9997836 0.99835753 1.000548 0.9968054
0001a0 65 0e 80 3f b3 11 80 3f c6 f9 7f 3f f3 2b 80 3f
       1.0004393 1.0005401 0.999905 1.0013412
0001b0 cf 06 80 3f 73 15 80 3f c0 18 80 3f a4 76 7f 3f
       1.0002078 1.0006546 1.0007553 0.99790406
0001c0 34 33 80 3f 34 41 80 3f 84 e8 7f 3f 4e 89 7f 3f
       1.0015626 1.0019898 0.99964166 0.99818885
0001d0 c7 e2 7f 3f b4 22 80 3f 9d 2b 80 3f 16 22 80 3f
       0.9995541 1.001059 1.001331 1.0010402
0001e0 00 07 80 3f ac 04 80 3f 10 ed 7f 3f 78 bb 7f 3f
       1.0002136 1.0001426 0.99971104 0.9989543
0001f0 62 0c 80 3f ff 01 80 3f 1b 06 80 3f ae 8d 7f 3f
       1.0003779 1.0000609 1.0001863 0.9982556
000200 2b f8 7f 3f 51 ed 7f 3f fa e2 7f 3f 03 26 80 3f
       0.9998805 0.9997149 0.99955714 1.00116
000210 47 38 80 3f 3c 05 80 3f 4b 0e 80 3f 08 31 80 3f
       1.0017174 1.0001597 1.0004362 1.0014963
000220 d6 12 80 3f bb 07 80 3f de 3c 80 3f 0d 2a 80 3f
       1.0005748 1.0002359 1.0018575 1.0012833
000230 e9 aa 7f 3f c8 d0 7f 3f 31 1f 80 3f 63 23 80 3f
       0.99870163 0.9992795 1.0009519 1.0010799
000240 94 d2 7f 3f 5b 79 7f 3f 84 26 80 3f 0e 64 80 3f
       0.9993069 0.9979455 1.0011754 1.0030534
000250 0c 84 7f 3f cf 1d 80 3f 8d 27 80 3f 61 84 7f 3f
       0.9981086 1.0009097 1.001207 0.9981137
000260 a7 e5 7f 3f 3e eb 7f 3f eb b1 7f 3f 3d e2 7f 3f
       0.99959797 0.99968326 0.99880856 0.9995459
000270 bc c3 7f 3f 74 a8 7f 3f d2 af 7f 3f 1b d8 7f 3f
       0.9990804 0.99866414 0.99877656 0.99939126
000280 c4 38 80 3f 2a fa 7f 3f 28 ea 7f 3f ed d9 7f 3f
       1.0017323 0.99991095 0.9996667 0.99941903
000290 cd b0 7f 3f 5f c0 7f 3f 8b 6b 7f 3f 8a 2b 80 3f
       0.9987915 0.9990291 0.9977347 1.0013287
0002a0 3d 60 80 3f 52 06 7f 3f b3 ce 7f 3f 61 d3 7f 3f
       1.002937 0.9961902 0.9992477 0.99931914
0002b0 27 84 7f 3f 86 08 80 3f b3 60 80 3f f1 26 80 3f
       0.99811023 1.0002601 1.002951 1.0011884
0002c0 1d 05 80 3f db 02 80 3f 39 65 80 3f 40 2e 80 3f
       1.000156 1.0000871 1.0030891 1.0014114
0002d0 40 3b 80 3f 32 da 7f 3f 1e ef 7f 3f 75 18 80 3f
       1.0018082 0.99942315 0.9997424 1.0007464
0002e0 50 2b 80 3f a2 fd 7f 3f b0 1f 80 3f c4 26 80 3f
       1.0013218 0.9999639 1.000967 1.001183
0002f0 35 0b 80 3f 9f 13 80 3f 38 b1 7f 3f eb 0b 80 3f
       1.000342 1.0005988 0.9987979 1.0003637
000300 b7 b5 7f 3f 45 34 80 3f bd 20 80 3f 2c e6 7f 3f
       0.9988665 1.0015951 1.0009991 0.9996059
000310 0f aa 7f 3f a8 57 7f 3f 22 8d 7f 3f d7 62 80 3f
       0.99868864 0.9974313 0.99824727 1.0030164
000320 ba 57 7f 3f 26 1b 80 3f b1 01 80 3f 61 b6 7f 3f
       0.99743235 1.0008285 1.0000516 0.99887663
000330 00 1e 80 3f 31 33 80 3f 65 d5 7f 3f 2b 28 80 3f
       1.0009155 1.0015622 0.9993499 1.0012258
000340 ca 96 7f 3f fa 87 80 3f 08 2e 80 3f 42 57 80 3f
       0.9983946 1.0041497 1.0014048 1.0026629
000350 b2 5c 80 3f 28 b9 7f 3f f3 9d 7f 3f e7 d7 7f 3f
       1.0028288 0.998919 0.99850386 0.99938816
000360 00 52 7f 3f d7 dd 7f 3f 7f 38 80 3f a7 14 80 3f
       0.997345 0.99947876 1.0017241 1.0006303
000370 35 91 7f 3f 1e c7 7f 3f b9 d2 7f 3f 9d fe 7f 3f
       0.99830943 0.99913204 0.9993091 0.99997884
000380 bd 5e 7f 3f b6 1f 80 3f c7 de 7f 3f 03 ce 7f 3f
       0.99753934 1.0009677 0.99949306 0.99923724
000390 73 be 7f 3f 06 dd 7f 3f cd 0d 80 3f 38 c2 7f 3f
       0.9989998 0.9994663 1.0004212 0.9990573
0003a0 36 a4 7f 3f e5 fe 7f 3f 45 30 7f 3f 81 a9 7f 3f
       0.9985994 0.99998313 0.9968303 0.9986802
0003b0 66 5f 7f 3f 09 15 80 3f 92 97 7f 3f 29 1b 80 3f
       0.9975494 1.000642 0.9984065 1.0008289
0003c0 2a 1f 80 3f f4 d6 7f 3f 16 c5 7f 3f e1 22 80 3f
       1.000951 0.9993737 0.99910104 1.0010644
0003d0 9e d4 7f 3f 78 42 80 3f 55 07 80 3f 12 0e 80 3f
       0.99933803 1.0020285 1.0002238 1.0004294
0003e0 80 f9 7f 3f 57 04 80 3f 29 9d 7f 3f 1d e3 7f 3f
       0.9999008 1.0001324 0.9984918 0.9995592
0003f0 88 f2 7f 3f 68 ed 7f 3f 44 05 80 3f f9 c8 7f 3f
       0.9997945 0.9997163 1.0001607 0.99916035

bias f4 [256]
000000 50 61 98 3a a5 20 16 39 24 02 ff 39 2b c1 24 ba
       0.0011625681 0.00014317276 0.00048638985 -0.0006284888
000010 10 74 91 3a 0a c5 9c 3a a9 3a d7 b9 85 7b e5 3a
       0.0011097211 0.0011960578 -0.000410517 0.0017508125
000020 c4 0a b4 38 e9 b6 0e ba 53 f6 85 3a c5 a6 1c b9
       8.585074e-05 -0.0005444126 0.0010220505 -0.00014939446
000030 29 9e 7f 38 52 e8 d1 b8 dc 5f f3 b8 e8 76 3b 3a
       6.0944036e-05 -0.0001000917 -0.00011604998 0.00071512023
000040 36 66 c6 38 ce 45 15 ba 5e 94 e0 3a e8 1d 9d b9
       9.460414e-05 -0.00056943006 0.0017134061 -0.00029967655
000050 d6 9d 0a 3a 7d 71 ea b9 37 cf a4 39 a4 ab f0 38
       0.00052878016 -0.00044716513 0.00031434905 0.00011476062
000060 28 6d 7e b9 ac f2 aa 39 d4 be 14 3a 83 43 97 ba
       -0.00024263992 0.0003260573 0.00056741876 -0.0011540506
000070 75 4a 83 39 8d 85 9f ba a9 6c 54 3a 99 e7 b8 3a
       0.00025041742 -0.0012170539 0.000810335 0.0014107107
000080 97 b0 90 39 d4 ab ce 39 c5 2f 4a ba 14 ed ad 3a
       0.0002759739 0.00039419404 -0.00077128067 0.0013269507
000090 ca af e2 39 67 ca eb b9 97 86 56 3a 9c 62 02 3b
       0.00043237052 -0.00044973494 0.00081835076 0.0019895202
0000a0 5b 6b 98 38 29 70 56 ba 62 0d 17 39 b8 19 0f ba
       7.267921e-05 -0.00081801653 0.00014405468 -0.00054588495
0000b0 1c d2 2b b9 6f 17 86 ba e0 0f bd b9 22 5c 3b 3a
       -0.00016386103 -0.0010230372 -0.00036060717 0.0007147213
0000c0 06 1d f9 39 59 67 7f 3a 8e 6e 67 3a cb 51 cd 3a
       0.00047514605 0.0009742878 0.00088284246 0.0015664635
0000d0 ec ea 06 39 c9 2e 2c 3a d7 9a 80 ba 09 8c a3 39
       0.00012866751 0.0006568251 -0.0009811771 0.00031194117
0000e0 96 89 3e b8 32 75 ff 38 a0 90 f5 ba a3 a1 82 b9
       -4.5427667e-05 0.00012181177 -0.0018735118 -0.0002491596
0000f0 b4 1c 88 ba 6e 00 c2 39 07 11 a6 39 da b6 88 39
       -0.0010384531 0.00037002884 0.00031674674 0.00026076176
000100 2a ee 1f ba 75 fb 9e 3a eb e0 b5 ba 9d fa 80 ba
       -0.0006100858 0.0012129383 -0.0013876235 -0.0009840314
000110 2c 08 6b 3a 99 f8 3b 3b d9 bf ff b9 7a 29 af 37
       0.0008965756 0.0028682111 -0.00048780328 2.088094e-05
000120 1f 6c c7 3a 8a bc 9e 39 5d b3 03 ba 65 8d 08 ba
       0.0015214718 0.0003027658 -0.00050239806 -0.00052090577
000130 0c ef af 3a 01 17 b0 37 dd e7 54 3a 39 fa 14 bb
       0.0013422682 2.0991547e-05 0.00081217085 -0.0022732152
000140 ec d1 98 ba 4e bc a2 3a 2b e0 d1 b8 34 c5 f9 ba
       -0.0011659241 0.0012415738 -0.00010007651 -0.0019055963
000150 90 0c 4c 3a 16 f2 94 3a ad 52 cc 3a e5 4b e0 b9
       0.00077838544 0.0011363651 0.0015588604 -0.00042781155
000160 1b 5e b0 3a c0 44 c7 3a de a5 ad ba 5a bc 1a 3a
       0.001345578 0.0015202984 -0.0013248285 0.00059027004
000170 c5 e9 d6 b8 76 b0 19 bb ef e7 89 ba 52 c9 fe 39
       -0.00010247858 -0.0023451126 -0.0010521392 0.0004859665
000180 b7 93 34 bb a3 0c c2 39 6a 32 ea ba b4 96 50 39
       -0.0027553865 0.0003701198 -0.0017867808 0.00019892567
000190 04 81 32 3a 7c f9 a2 ba 16 e8 1f bb 11 75 33 3b
       0.0006809386 -0.0012433971 -0.0024399809 0.002738301
0001a0 0e fc a3 b9 a5 c5 f6 3a 88 8a 87 b8 cd 16 65 ba
       -0.00031277578 0.0018827213 -6.463105e-05 -0.00087390543
0001b0 aa 84 13 3a 40 14 bc 3a ab 6a b2 3a f4 76 60 3a
       0.00056273735 0.0014349297 0.0013612112 0.0008562647
0001c0 02 16 13 3a 27 dd 20 3a 41 ca ac b9 60 c6 d3 ba
       0.00056108844 0.000613647 -0.00032957087 -0.0016157143
0001d0 b1 2e db 38 6d d0 2f ba 41 a0 21 3a 7e 35 36 3a
       0.00010451431 -0.0006706778 0.0006165542 0.000695072
0001e0 9e 9d 1a 39 dd 42 32 ba e6 c8 42 3a da fb 8d 39
       0.00014745301 -0.00068001245 0.0007430449 0.0002708126
0001f0 f0 3f b5 39 03 d5 ee b8 87 6b ad 38 ed d2 a1 b9
       0.00034570647 -0.00011388401 8.2693114e-05 -0.00030865465
000200 80 bd 7b 3a f6 00 e6 b6 03 90 13 ba e0 6b 9c 39
       0.0009603128 -6.854646e-06 -0.00056290644 0.00029835012
000210 8b b6 b1 ba 77 b7 61 3a 24 86 02 bb da 6d 19 3b
       -0.001355843 0.0008610407 -0.001991638 0.0023411424
000220 7a e8 50 3a ef 7f 28 3a 64 79 cc b9 f7 e6 9a 3a
       0.0007969212 0.0006427755 -0.00039000355 0.00118181
000230 a6 11 3f ba d9 a9 71 39 a5 73 ed 38 e1 bf 45 ba
       -0.00072887016 0.00023046824 0.00011322581 -0.0007543546
000240 83 ba e4 ba b0 75 0c 3a 23 1b 46 3a 96 54 57 39
       -0.0017450604 0.0005358113 0.0007557144 0.00020535509
000250 66 4b 39 39 98 e8 f5 38 46 cd 35 3a a4 a5 11 3b
       0.00017671063 0.00011725834 0.000693519 0.0022223974
000260 11 44 e3 ba a3 e6 fb 39 4b 3f ff 39 ac a4 38 ba
       -0.0017339011 0.00048046288 0.00048684547 -0.0007043581
000270 b1 a1 e0 3a ae 63 f1 3a 40 cb 82 39 ca e2 99 b9
       0.0017138032 0.0018416548 0.00024946965 -0.00029351405
000280 42 e1 79 b9 e5 64 cb 39 84 b7 c4 3a 69 9f 2a ba
       -0.00023830406 0.0003879435 0.0015008305 -0.00065087393
000290 08 eb 9d b9 a0 48 15 3a 27 1c 96 ba 07 56 9d b8
       -0.00030120485 0.0005694721 -0.0011452482 -7.502367e-05
0002a0 ee 72 fa 38 58 ae a7 3a 29 43 ad ba 76 6a 70 38
       0.00011942336 0.0012793047 -0.0013218868 5.731961e-05
0002b0 91 17 79 3a 81 e2 e0 39 46 ca 5f 3a c0 e3 98 39
       0.0009502108 0.00042893368 0.0008536916 0.00029161386
0002c0 64 c2 17 37 76 b4 8f ba 2c b8 a2 ba 6b 3c df b8
       9.0455615e-06 -0.0010963816 -0.0012414507 -0.00010644722
0002d0 30 82 62 3a e6 22 a2 ba d9 87 ad ba 68 43 5c ba
       0.0008640615 -0.001237002 -0.0013239338 -0.00084023783
0002e0 65 88 97 b9 ea 2b 0c ba e7 ad 8d b9 27 f1 e2 b9
       -0.00028902586 -0.000534712 -0.00027023183 -0.00043285752
0002f0 f8 cc ce 39 31 ee 61 39 2e 13 3c ba 7b e5 46 3a
       0.00039444095 0.00021546405 -0.0007174489 0.0007587296
000300 99 78 9d 3a 5a 87 b8 ba 91 01 b2 b9 28 dc 31 ba
       0.001201409 -0.0014078424 -0.00033951973 -0.000678482
000310 77 62 12 39 6b 24 44 3a 18 b4 21 ba 29 e4 9c ba
       0.00013960326 0.00074822333 -0.00061684987 -0.0011969852
000320 1d be 92 b9 3a 39 4d b7 ad 2b 2e 3a 2e 2c 1f 3a
       -0.00027988935 -1.2232276e-05 0.00066440814 0.0006071952
000330 f9 cd 07 3b 4f d8 08 ba cd ce 1c 3a 03 12 7e ba
       0.0020722135 -0.0005220221 0.00059817435 -0.0009692015
000340 73 82 51 3a 07 2b a6 ba 72 ab 3a 39 60 cd 2c 39
       0.0007992156 -0.0012677618 0.0001780221 0.00016479706
000350 2e 20 e1 36 df 11 74 3a 1a ec a5 39 af a5 54 3a
       6.7092687e-06 0.00093105243 0.00031647162 0.0008111847
000360 3d 69 9e 38 b7 39 4d 3a 62 41 d4 ba bb e2 06 3b
       7.553629e-05 0.00078287296 -0.0016193802 0.002058192
000370 d1 ef 56 3a a2 bb 93 b9 04 de c8 36 a7 02 d2 3a
       0.00081991876 -0.00028177822 5.9863105e-06 0.0016022519
000380 20 ad 00 ba e9 19 6d 3a 54 68 8b 39 a7 45 0c ba
       -0.000490861 0.00090446934 0.00026589877 -0.0005350955
000390 f6 64 a9 35 f8 c4 6c 3a fd 0f 04 ba fe c7 93 ba
       1.2620865e-06 0.0009032036 -0.0005037783 -0.0011274812
0003a0 ca 5d 50 39 c4 01 cc ba 87 5a 48 3a b9 84 15 ba
       0.00019871365 -0.0015564491 0.0007642884 -0.0005703676
0003b0 03 96 c8 ba 04 67 05 bb b8 de 55 ba 66 e4 eb b9
       -0.0015303496 -0.0020355592 -0.0008158493 -0.00044992863
0003c0 58 6b 05 b9 bf 21 69 b9 e9 e9 12 ba 12 aa 05 b9
       -0.00012723857 -0.00022233183 -0.00056043133 -0.00012747225
0003d0 ea 17 80 ba 15 70 2c 3b 4d 14 96 ba cb 73 8c b9
       -0.0009772752 0.0026311923 -0.0011450142 -0.00026789153
0003e0 24 9f 24 3a 0b 78 94 39 f8 df 54 39 25 43 82 3a
       0.00062798173 0.000283182 0.0002030133 0.0009938224
0003f0 1b 72 f5 b9 f0 1f 06 ba 0d ec 03 ba 75 e5 09 ba
       -0.00046815057 -0.00051164534 -0.0005032428 -0.0005260327
