statedicts/torchscript_pl_db_2022-04-21_SPIRAL_FORWARD_90s_P0_R1_s0_seed_0.pt (torch, 224745 bytes, 29 tensors)

weight f4 [5]
000000 e3 3d 79 3f 3d fc 84 3f 8d 22 7b 3f 9a 6f 7e 3f
       0.97360057 1.0389477 0.98099595 0.9938904
000010 2d 29 80 3f
       1.0012566

bias f4 [5]
000000 a4 33 c0 3c 7b 49 f7 bc 5a ab 10 bd ad 54 16 3c
       0.023462124 -0.030186405 -0.035319664 0.009175462
000010 38 c5 45 bd
       -0.048283786

running_mean f4 [5]
000000 c2 0c c8 3f 0c 7e 84 3d 89 29 42 40 99 fa 3a 40
       1.5628893 0.06469354 3.033785 2.9215453
000010 89 ec 45 3e
       0.19328512

running_var f4 [5]
000000 e5 b2 a5 3c b6 2c b7 35 ed 59 5d 3b b3 bf be 3a
       0.020226905 1.3647575e-06 0.0033775524 0.001455298
000010 a1 a7 03 3b
       0.0020088928

weight f4 [96, 5]
000000 12 31 96 be fa 27 6f bd d6 e8 a3 bd b2 42 8c be
       -0.29334313 -0.058387734 -0.08003394 -0.27394634
000010 44 74 86 3e d4 0b c2 3e 62 1d 9d be af 13 45 3e
       0.2626058 0.3789965 -0.3068648 0.1924579
000020 1d dd 57 be 0d ae 42 bd 50 76 d8 3e 7a 68 5f 3d
       -0.21080442 -0.04752927 0.42277765 0.054542996
000030 7d 8e d8 be f4 83 d2 3e 87 dd c3 bc e5 e4 60 be
       -0.4229621 0.41116297 -0.023909343 -0.21962316
000040 d0 95 76 be 61 c4 c0 3e 5e 75 17 3b 02 3c 81 3e
       -0.24080586 0.37649825 0.0023110728 0.25241095
000050 69 71 9d 3e f2 6f 28 be be b7 db 3c a9 ba 99 be
       0.30750588 -0.16448954 0.026821014 -0.30025223
000060 7c 03 b7 3e 5a b7 71 be c4 e5 97 3e ae 48 00 3e
       0.35744846 -0.236051 0.29667485 0.12527725
000070 28 b5 84 3e b5 cb a6 be 83 af eb bb b1 68 75 3e
       0.2591946 -0.3257729 -0.0071925535 0.23965718
000080 09 77 c6 3a 07 d5 37 bc f3 82 59 3e 34 82 aa be
       0.0015141676 -0.011220223 0.2124136 -0.33302462
000090 af 4c ac bd d7 3c 4c 3e a1 c6 65 3e f4 48 d3 3e
       -0.08413064 0.19945084 0.22439052 0.41266596
0000a0 f8 97 c9 bd 05 e3 d6 3d e7 52 63 be 45 8b 98 bd
       -0.09843439 0.10492519 -0.22199593 -0.074484386
0000b0 20 70 60 be 8c 1f ab 3e 41 c6 b2 bb db d1 41 3e
       -0.21917772 0.33422506 -0.0054557626 0.1892771
0000c0 f4 87 72 3e df 50 97 3d 60 1f 2a 3d 80 60 f8 bc
       0.23684675 0.07388472 0.041533828 -0.030319452
0000d0 24 97 c4 be e1 f6 87 3d 4f 03 db bd 0a 08 c0 be
       -0.3839656 0.06638885 -0.106939904 -0.37506133
0000e0 d9 c8 d5 3e 57 d5 53 bd ab 0b 68 be fb cb de be
       0.41754797 -0.05171713 -0.22660701 -0.43515
0000f0 d0 0e d4 be 8c 6b 2e 3e e6 78 53 be 72 e4 3f be
       -0.4141755 0.17033213 -0.20651588 -0.18739489
000100 9e d9 83 be 39 71 ba 3e a2 9d d8 bd 59 ae 90 3e
       -0.25751966 0.36414507 -0.10576941 0.28258017
000110 5b 07 b8 3e a0 82 b0 be 07 e3 ac 3e 4c 3f a7 bd
       0.35943112 -0.3447466 0.33766958 -0.0816637
000120 86 f0 d9 3e 22 d1 67 3e ed 97 df be c0 b1 9d 3d
       0.42566317 0.22638372 -0.43670598 0.07699919
000130 31 62 21 3e 48 de 20 be d9 80 b0 3e bc 52 ba be
       0.15760113 -0.15709794 0.34473303 -0.36391246
000140 25 b3 12 be 54 eb db 3e 07 6e dd 3e 48 8a 61 3e
       -0.1432615 0.4295298 0.43248007 0.22025406
000150 45 44 8a be de 92 c5 be 49 5e b9 be fb c0 f0 bd
       -0.2700521 -0.38588613 -0.36204746 -0.11755558
000160 22 75 7e 3e f2 c0 0d 3e b6 4a 60 bd c3 7c cd 3e
       0.2484937 0.13843134 -0.05475875 0.40134248
000170 58 8b b4 3e ba f5 54 be 86 b3 47 be 01 2f c8 3a
       0.3526256 -0.20796862 -0.19502077 0.0015272797
000180 48 2c c2 3d 01 14 0e 3c b9 00 30 3e f7 27 9e 3e
       0.09481102 0.0086717615 0.17187776 0.30889866
000190 c4 5b b2 bd 40 6b 5f 3e 73 b5 74 3d 7e eb 2d 3e
       -0.08708909 0.21818256 0.059743356 0.16984364
0001a0 85 97 3d 3e c9 b5 01 be a5 1a 55 be 43 08 33 3e
       0.18514831 -0.12667002 -0.20810945 0.1748362
0001b0 64 83 92 be f8 9c 70 3e 9e 31 8f be 41 4b 99 3e
       -0.28615868 0.23497379 -0.27967542 0.29940227
0001c0 e3 4e 4b 3e b2 8a d3 bd 3f 0b 85 3e 0e b2 1a be
       0.19854312 -0.103291884 0.25985143 -0.15106985
0001d0 89 ad d4 3d fb fc fe 3d 48 40 38 3d b7 6e ad 3d
       0.10384662 0.12450596 0.04498318 0.08468383
0001e0 8c 9c 90 38 6b fa 0b be e1 40 84 3e 70 f9 28 3e
       6.895614e-05 -0.13669746 0.2583075 0.16501403
0001f0 9f 5e 1f 3e 3a 4f 91 3e 80 a7 7b be 60 7b f8 bd
       0.15563439 0.28380758 -0.24575615 -0.12132907
000200 af a7 6a bc e3 7d b4 3e 3d 37 b8 be 4f 61 86 be
       -0.014322205 0.35252294 -0.35979643 -0.26246116
000210 39 86 e8 bd 6d fd bf be b0 82 b1 be 4d a1 9d 3e
       -0.11353726 -0.37498036 -0.3467002 0.30787125
000220 aa e8 b0 3c c2 28 b8 be 90 3e 9c bd 7f 77 8b bc
       0.021595318 -0.35968596 -0.0762912 -0.017024754
000230 fc f4 1b be 60 cc c0 be 28 20 7f 3e 9f 39 72 bd
       -0.15230173 -0.37655926 0.2491461 -0.059136983
000240 fb a7 dd 3e ea 30 b0 be 67 6e 77 be e1 3a c7 bc
       0.4329222 -0.34412318 -0.24163209 -0.024320068
000250 7f 38 9e be b5 3f a8 3e 0d 95 ab 3e 45 5e cb 3e
       -0.30902478 0.32861105 0.33512154 0.3972036
000260 a3 38 8c be 4a f8 ae 3e c2 e1 a9 3e 77 5d 3e be
       -0.2738696 0.34173805 0.33180052 -0.18590342
000270 23 70 19 3d 7a 34 4e 3e 32 8a b0 3e ee 0a cb be
       0.037460458 0.20137206 0.34480435 -0.39656776
000280 22 91 e3 3e 75 f6 e5 bd f8 47 3d 3e 69 30 8d be
       0.44446665 -0.112286486 0.18484485 -0.27575997
000290 7b c1 af be fa e2 9a be 7e 19 87 3e 40 5c 63 be
       -0.343273 -0.30251294 0.26386636 -0.2220316
0002a0 d1 a2 84 3e 97 72 0a 3e 75 7d 37 3e 0a 27 c5 bd
       0.2590547 0.13520275 0.17918952 -0.09626587
0002b0 04 8b 0e be 97 ef 58 be af b4 7e be 10 cf d2 3e
       -0.13920218 -0.21185146 -0.24873613 0.411736
0002c0 ff 6d c3 bc ce 89 45 be db 47 d5 be 5a ee a3 3c
       -0.023856161 -0.1929085 -0.41656384 0.020011116
0002d0 0b 1b e5 be a5 31 4c bb d3 6c 8c 3e 64 e3 83 be
       -0.44747195 -0.003115752 0.27426776 -0.25759423
0002e0 54 6a 80 3e dc 64 00 be 64 14 ae be e7 6c e6 be
       0.25081122 -0.12538475 -0.33999932 -0.4500496
0002f0 d7 c1 54 3e e8 4a b4 be ba 01 5d 3e fe 76 7b 3d
       0.20777069 -0.352134 0.2158269 0.061392777
000300 8d 2f 77 3e 6d 9c ac be d8 ef c8 3e bb 76 dd be
       0.24139233 -0.33713093 0.39245486 -0.43254647
000310 06 7c b2 be f1 27 8f 3e a3 a1 64 3c b5 cf 80 be
       -0.34860247 0.2796016 0.013954553 -0.25158468
000320 26 60 c8 bd 51 a0 cb be 60 d1 c5 be 81 28 bd bd
       -0.09783964 -0.3977075 -0.38636303 -0.09236241
000330 98 3e b0 3e 9b f5 0c 3e fe 45 a6 3d 92 19 d2 bd
       0.34422755 0.13765566 0.08118819 -0.102587834
000340 5d 4f d6 3e 2f fe 51 3c 95 75 2c 3e c4 15 ce 3b
       0.41857424 0.01281695 0.16841729 0.0062892158
000350 e6 c3 a9 3d e6 e3 15 3e 68 44 ac 3e 70 21 6f 3e
       0.08289318 0.14637718 0.3364594 0.23352599
000360 56 23 44 3d 25 cd 3e 3e 5b 6a f4 bd 80 3e a5 3e
       0.04788526 0.18632944 -0.11934348 0.32274246
000370 dd f2 02 3e dd cd ac 3e 41 c4 86 bd bb c8 ba be
       0.12787957 0.3375081 -0.06580401 -0.3648127
000380 0e 26 b0 3d 6c db 45 3e 71 9f bb 3e 7b 0a 32 3e
       0.08601008 0.19321984 0.36645082 0.1738681
000390 58 0a 21 3e 84 02 b2 3e 57 51 16 be f3 78 ca 3e
       0.15726602 0.34767544 -0.14679466 0.39545402
0003a0 b5 be 6e 3e c5 c5 99 3e 1e 97 a2 3e cb c3 c1 be
       0.23314936 0.300337 0.31755918 -0.3784469
0003b0 2d da 81 3e a4 34 cd 3e 18 56 9e be 09 10 00 bd
       0.25361767 0.40079224 -0.3092506 -0.031265292
0003c0 b9 0b 7f be 93 04 db bd f6 ee d1 3d c8 5c 7d 3e
       -0.24906816 -0.10694232 0.10250656 0.24742424
0003d0 fb 16 09 be 6e 64 d8 be 9f d0 79 3e b8 e8 7d 3e
       -0.13387673 -0.42264122 0.24395989 0.24795806
0003e0 fd c3 a5 bd df c0 c4 3e 3f 8a af 3e b8 70 ec bd
       -0.080940224 0.384284 0.3428516 -0.11544937
0003f0 24 3e 22 3d b8 78 a4 3d 7d e1 ad bd 34 9f de bd
       0.039610043 0.08030838 -0.08490274 -0.10870209

bias f4 [96]
000000 2e 35 eb bd 01 34 74 3e 62 63 96 3e ab 93 a6 be
       -0.114847526 0.23847963 0.29372698 -0.32534537
000010 06 93 da 3e ea 5a 3d bd 1e 99 ed 3d ae 00 e6 be
       0.42690295 -0.04622928 0.116014704 -0.44922394
000020 51 67 4a 3d 43 d6 65 be f9 a9 8b be d6 14 3a be
       0.049414936 -0.22445016 -0.27278116 -0.18172011
000030 f8 30 ab bb c6 ae 04 be 77 11 91 be 23 a9 a6 3e
       -0.0052243434 -0.12957296 -0.28333637 0.32550916
000040 06 16 09 3e 2d 81 d6 be 5c 9a bd 3d 23 d6 dd 3d
       0.13387308 -0.41895428 0.09257957 0.10831859
000050 a8 c4 80 3c 65 82 e5 3d 73 5b 3a bd 63 50 48 3e
       0.015718773 0.112065114 -0.04549737 0.19561915
000060 b8 42 a2 be 59 c7 55 be 8a 9b ad 3e f2 9d 8c be
       -0.31691527 -0.20876826 0.3390773 -0.27464253
000070 cf 21 61 3e 62 28 d4 3e 98 8c ca be c8 4e 53 be
       0.21985553 0.4143706 -0.3956039 -0.20635521
000080 39 62 c4 3e 30 88 ce bc 95 88 b8 3d e9 05 7a 3d
       0.38356188 -0.025211424 0.09010426 0.061040793
000090 21 92 39 3e f4 98 3d be 5d 4a 81 3d 0f db 9a 3e
       0.1812215 -0.18515378 0.06313012 0.30245253
0000a0 07 e6 27 bd 2c e7 cd be 7e 55 17 3e f2 1d 03 be
       -0.040990856 -0.40215433 0.14778706 -0.12804392
0000b0 17 a3 c7 bd a3 62 6f 3e 37 b7 9c 3d 44 a2 87 be
       -0.09747904 0.2337747 0.07652133 -0.26490986
0000c0 a7 92 57 be 71 0b 8a bd e3 a9 c1 bd 3e a4 da bd
       -0.21052037 -0.067404635 -0.094562314 -0.10675858
0000d0 2c 4d 9c be 59 80 a4 3e e7 1b 72 3e d6 79 b2 3d
       -0.30527627 0.32129171 0.23643456 0.087146446
0000e0 fd 46 eb 3d bc 59 3b 3d 5b 7a ac 3e a9 38 d3 3d
       0.11488149 0.045739874 0.336871 0.103135414
0000f0 a4 17 8e 3d 8c 85 78 be 3b d5 0a 3e 7b bd db be
       0.06938103 -0.24269694 0.13557903 -0.42918
000100 46 68 10 3e 29 02 c4 be 5d 42 3e be be 20 6f 3e
       0.14102277 -0.38282898 -0.18580003 0.23352334
000110 17 ee 96 be 2d 49 b5 3e df 89 80 be 92 49 d8 3e
       -0.29478523 0.3540739 -0.25105187 0.4224363
000120 fc 87 0f 3e 78 51 47 be e5 34 8b 3e 88 a5 cd be
       0.14016718 -0.19464672 0.27188793 -0.40165353
000130 e7 85 93 be 45 f6 8d be 12 18 6c 3d 92 5b 56 3d
       -0.28813097 -0.2772695 0.057640143 0.052333422
000140 73 89 bd be b4 ee da 3e 75 2e 65 3b 64 b5 73 be
       -0.37018928 0.4276024 0.0034970318 -0.23799664
000150 ce 0a 88 3b 4f 97 44 be 10 17 01 3e b9 92 23 3e
       0.0041516786 -0.19198345 0.12606454 0.15973939
000160 e6 4c fb bd c3 89 e9 3c d3 38 87 3e 51 e0 9b be
       -0.122705266 0.028508073 0.2641054 -0.30444577
000170 f6 44 d1 bd b8 63 88 bd cc c7 94 be 26 80 07 3d
       -0.102182314 -0.06659645 -0.29058683 0.033081196

weight f4 [96]
000000 93 eb 7e 3f 69 a8 7f 3f 8a 75 7f 3f c5 5c 80 3f
       0.9957821 0.9986635 0.99788725 1.0028311
000010 de 66 7f 3f c0 bb 7f 3f 70 71 80 3f 0b ed 7f 3f
       0.9976634 0.9989586 1.0034618 0.99971074
000020 77 5d 80 3f 3a b4 7f 3f dd c7 7f 3f 33 7f 7f 3f
       1.0028523 0.9988438 0.9991434 0.99803466
000030 b8 15 80 3f 22 76 80 3f 52 bb 7e 3f 3c 9d 7f 3f
       1.0006628 1.0036051 0.9950458 0.99849296
000040 22 8e 7f 3f 61 de 80 3f 9e bf 7f 3f 36 c9 7f 3f
       0.9982625 1.0067865 0.9990176 0.999164
000050 6c 17 80 3f 91 84 7f 3f bb 2e 80 3f cd 0c 7f 3f
       1.0007148 0.99811655 1.0014261 0.9962891
000060 3a 5f 7f 3f 8e 29 80 3f 90 b5 7e 3f 73 07 7f 3f
       0.9975468 1.0012681 0.9949579 0.9962074
000070 b4 f3 7f 3f ff 3b 7f 3f cc 25 7f 3f 14 39 80 3f
       0.99981236 0.9970092 0.9966705 1.0017419
000080 e2 7a 7f 3f aa 19 80 3f 9a 7a 7f 3f 0f 8f 80 3f
       0.9979688 1.0007832 0.9979645 1.0043658
000090 12 34 7e 3f ba 3c 7f 3f 10 7e 80 3f ea 5c 80 3f
       0.99298203 0.99702036 1.0038471 1.0028355
0000a0 54 d2 7f 3f 61 a4 7e 3f 45 9c 80 3f 8a f0 7f 3f
       0.9993031 0.9946957 1.004769 0.9997641
0000b0 44 18 80 3f 3f 16 80 3f cc 8e 80 3f 69 a3 80 3f
       1.0007405 1.0006789 1.0043578 1.0049869
0000c0 df 07 80 3f 34 17 80 3f a5 af 7f 3f c2 b6 80 3f
       1.0002402 1.0007081 0.9987739 1.0055773
0000d0 18 3a 80 3f 6c f1 7f 3f 4e dc 7e 3f 4a 11 80 3f
       1.0017729 0.99977756 0.9955491 1.0005276
0000e0 02 94 7f 3f 02 55 80 3f 8c ee 7f 3f 12 91 7f 3f
       0.99835217 1.0025942 0.9997337 0.99830735
0000f0 4e 62 80 3f 4b bb 7f 3f c5 ae 80 3f dd e5 7f 3f
       1.003 0.9989516 1.0053335 0.9996012
000100 6a 54 80 3f 60 18 80 3f 6c 3a 80 3f cf a6 7f 3f
       1.0025761 1.0007439 1.0017829 0.99863905
000110 1d 0e 7f 3f 88 c1 7e 3f ed 82 80 3f 8f 59 80 3f
       0.9963091 0.99514055 1.0039955 1.0027331
000120 04 49 80 3f 7a a7 7f 3f a1 45 7f 3f 61 1d 80 3f
       1.0022283 0.99864924 0.9971562 1.0008966
000130 b8 f1 7f 3f 3c 21 80 3f dc aa 7f 3f ea 24 80 3f
       0.9997821 1.0010142 0.99870086 1.0011265
000140 b2 66 7f 3f 09 ff 7f 3f c1 be 7e 3f 34 47 7f 3f
       0.99766076 0.9999853 0.9950982 0.9971802
000150 8d 03 80 3f 8c e4 7f 3f 15 1e 80 3f 6f 63 80 3f
       1.0001084 0.9995811 1.000918 1.0030345
000160 99 c4 80 3f c3 da 7f 3f 8e 0a 80 3f 64 ea 80 3f
       1.0059997 0.9994318 1.0003221 1.007153
000170 9e 31 80 3f d9 93 7f 3f e1 c9 7f 3f fd 96 7f 3f
       1.0015142 0.9983497 0.9991742 0.99839765

bias f4 [96]
000000 70 27 b9 3b b8 78 eb b9 ab c0 24 3b 99 5e d5 ba
       0.0056504533 -0.00044912635 0.0025139253 -0.0016278803
000010 36 91 62 3a 3b f6 1c 3b fe d1 44 3a cd f4 fe 3a
       0.0008642854 0.0023950476 0.0007508098 0.0019451618
000020 a8 e8 da 3a ca 3b 74 3a 72 f3 88 3a c0 9f 42 3a
       0.0016701417 0.00093167706 0.0010448529 0.00074243173
000030 29 0d 75 bb 9f 61 fe b9 ca bb 71 ba eb 6d 51 3b
       -0.0037391877 -0.0004851939 -0.0009221403 0.0031956385
000040 b8 39 4a 3b 44 fd 4f ba b4 20 d4 3a c6 56 d2 3a
       0.0030857157 -0.0007934163 0.0016184063 0.0016047589
000050 8e 1f a9 ba b5 55 69 bb e1 1a c5 ba 74 18 00 bb
       -0.0012903081 -0.0035604064 -0.0015037918 -0.0019545825
000060 0c 99 38 bb 1c c4 9a ba ec 81 71 bb 5c bb ef 3a
       -0.0028167395 -0.0011807713 -0.003685112 0.001829009
000070 06 31 60 3b 41 a1 83 3a fc c9 9b 3a 74 d9 37 3b
       0.0034208908 0.0010042564 0.0011885758 0.0028053196
000080 4a 60 20 3b 5d b5 1e 3b f9 aa 3e 3b 04 78 94 bb
       0.0024471455 0.0024216988 0.0029093607 -0.0045309085
000090 8a 76 e1 ba eb 5f 89 3a e6 7b 52 3a ac 31 3e 3a
       -0.0017201465 0.0010480856 0.00080293266 0.00072553265
0000a0 89 20 6a 3a bb 9f ac 3a 45 48 57 ba 1c b5 23 bb
       0.000893124 0.0013170162 -0.0008212368 -0.0024979776
0000b0 f9 99 22 3b 2f 5d 0e bb 7d cf 35 3a 8c 69 f6 ba
       0.0024811013 -0.0021723022 0.000693552 -0.0018799766
0000c0 87 d6 1c ba 4d 53 b1 ba 8f 9a 0b bb 83 67 f0 b9
       -0.0005982895 -0.0013528854 -0.002130184 -0.0004585349
0000d0 df 95 a7 39 a5 52 7d ba 9e 82 78 39 d4 66 f5 b9
       0.00031964385 -0.0009663499 0.00023699782 -0.00046806654
0000e0 73 64 06 bb 3e 5d 58 bb 48 49 26 3b 1a 14 9c ba
       -0.002050665 -0.003301456 0.002537327 -0.0011907846
0000f0 fe fa 92 b9 02 37 4d b9 58 4b 82 ba fe 60 27 b9
       -0.00028034294 -0.00019570815 -0.0009940667 -0.00015962493
000100 ba f4 72 bb 0b 38 cd 39 22 4c dd b9 b3 b7 67 b9
       -0.0037072138 0.00039142402 -0.00042209128 -0.0002209831
000110 5a e3 81 bb f1 51 36 ba 18 24 af b8 7e c5 cd 3a
       -0.00396387 -0.0006954959 -8.351373e-05 0.0015699116
000120 9b a3 3f 3a 59 56 b0 ba 01 e7 68 3a bf 86 65 3a
       0.0007310451 -0.0013453468 0.000888452 0.00087557355
000130 8e 0a 56 bb 8e cf 4c 3b a0 8d 22 3b 34 67 03 3b
       -0.00326601 0.0031251642 0.0024803653 0.0020050528
000140 ab cd ca 3a 5f c9 0b bb 2c 5a 78 3b a5 f9 33 3b
       0.0015472671 -0.0021329743 0.0037895544 0.0027462032
000150 73 93 31 bb 36 ce 02 bb 71 b1 9b 3a 44 e0 49 bb
       -0.0027095943 -0.0019959337 0.0011878443 -0.0030803839
000160 ba 4f 2e bb 44 8d 7a 3a da 8f a4 b9 61 c5 87 3a
       -0.0026597814 0.00095577934 -0.00031387695 0.0010358506
000170 a3 88 9f ba f1 78 4e 3b 69 5d 84 b9 cd 46 0d 3a
       -0.0012171458 0.0031505192 -0.00025246598 0.0005389273

running_mean f4 [96]
000000 f2 35 b6 3d 60 a6 c1 3e 77 17 b6 3e 42 f2 f9 3d
       0.08897008 0.37822247 0.35564777 0.1220441
000010 52 b2 d5 3e 61 59 22 3d f9 7b fc 3d 9b 41 38 3e
       0.4173761 0.03963602 0.123283334 0.17993777
000020 39 12 4f 3e 04 74 48 3d 29 9a 8c 3d 04 c0 23 3e
       0.20221795 0.048938766 0.06865341 0.15991217
000030 a1 94 45 3e e6 e9 16 3e f6 60 08 3e fe c8 b6 3e
       0.19294979 0.14737663 0.13318238 0.3570022
000040 f2 ac 5e 3e aa b7 1a 3e 78 c4 5d 3e ea 03 74 3e
       0.21745661 0.15109125 0.21656978 0.23829618
000050 64 4e 1e 3e b7 15 26 3e b8 e7 f2 3d 86 47 79 3e
       0.15459591 0.16219221 0.11860603 0.2434369
000060 5d 12 87 3d 31 5f 0e 3c ee f1 d1 3e f3 b0 18 3e
       0.065952994 0.008689688 0.4100489 0.14911251
000070 c7 09 e1 3e 4d 52 e7 3e 90 ba 7c 3c f3 b9 b5 3c
       0.43952772 0.45179978 0.015425339 0.022183394
000080 14 f6 20 3f 51 35 6c 3e 8e f6 9f 3e 78 1b bd 3e
       0.62875485 0.23067214 0.31242794 0.3693502
000090 08 f7 a3 3e a7 08 da 3d 25 da f9 3d be af c5 3e
       0.32024407 0.106461816 0.12199811 0.38610643
0000a0 7e 23 3b 3e 4a a5 3a 3c 22 40 7e 3e 5a f9 28 3d
       0.18275258 0.011391947 0.24829152 0.041253425
0000b0 ff de 30 3e f8 7e 91 3e b5 ab a5 3e a2 3f 80 3c
       0.17272566 0.28417182 0.32357565 0.015655342
0000c0 6e 07 84 3d 62 9d 69 3e 1e 79 c6 3d 9a bf 95 3d
       0.064467296 0.22813943 0.0969107 0.07311936
0000d0 4d 4f 37 3e 6e 38 be 3e c2 61 82 3e 35 87 de 3e
       0.17901345 0.37152427 0.25465208 0.4346253
0000e0 12 ca 2c 3e fe 53 2d 3e 10 0f b9 3e 84 84 32 3e
       0.16873959 0.16926572 0.36144304 0.17433363
0000f0 87 52 39 3e af ba 54 3e 36 47 1a 3e a4 99 2e 3d
       0.18097888 0.20774339 0.15066227 0.042626992
000100 57 e7 c9 3e b9 19 21 3d 0f 05 8e 3e 4b c6 ba 3e
       0.3943431 0.03933117 0.27738234 0.3647941
000110 4c 18 09 3d cb 63 08 3f 90 34 ed 3d 28 2c 03 3f
       0.033470437 0.5327727 0.11582291 0.5123925
000120 20 a0 9e 3e 20 c7 35 3e 82 e8 8e 3e 77 4a 97 3b
       0.3098154 0.17751741 0.27911764 0.004617031
000130 16 df 9d 3d 9b e5 90 3d df b6 75 3e 82 e0 2c 3e
       0.07708566 0.07075044 0.23995541 0.16882518
000140 29 4e 0e 3c a4 f9 ec 3e c0 1e 27 3e 36 e4 40 3e
       0.008685627 0.4628421 0.16320324 0.18837056
000150 ba b3 72 3e 59 23 54 3e 4c a1 b3 3e de 19 50 3e
       0.23701373 0.20716609 0.35083997 0.20322368
000160 eb 41 b9 3c 1a 3b 9a 3e fe 12 da 3e 4c cd 42 3d
       0.02261444 0.30123216 0.42592615 0.047559068
000170 8e fd 3a 3e a4 1b 88 3e 63 ca 95 3d 8c a3 db 3d
       0.18260786 0.26583588 0.07313993 0.107245535

running_var f4 [96]
000000 56 b8 e7 3c 79 c6 fd 3d 1c 8e bd 3d 6c ba 01 3d
       0.02828614 0.12391371 0.09255621 0.031671926
000010 f7 6b 29 3d a8 e9 5e 3b ad 21 55 3c 64 3e a7 3d
       0.04136273 0.0034013782 0.013008517 0.08166197
000020 1e f0 ad 3d de 01 c2 3b 76 a9 b3 3c 03 2f a2 3d
       0.08493064 0.0059206327 0.021931391 0.07919123
000030 9b 67 90 3d 44 c7 fb 3c 51 54 fa 3c 66 9f 75 3d
       0.07051011 0.030734666 0.030557783 0.059966467
000040 b7 05 5b 3d 77 a3 9d 3d 07 9e 2e 3d 15 63 8b 3d
       0.053472247 0.07697194 0.042631175 0.06806008
000050 03 00 19 3d fd 38 c9 3c 6d 19 9b 3c a5 83 0b 3d
       0.037353527 0.024563307 0.018933022 0.034061093
000060 79 84 36 3c 68 b7 8a 3a 7a 7f 29 3e 43 34 bf 3d
       0.011139982 0.0010583224 0.16552535 0.0933614
000070 b6 70 21 3e 13 ff 0c 3e 34 5e 2f 3b 2e 26 0c 3b
       0.15765652 0.13769178 0.002675903 0.0021385062
000080 af 5d e4 3e a7 40 ef 3d fa db 63 3e ea 63 a9 3e
       0.44602725 0.11682253 0.22251883 0.3308404
000090 56 18 99 3d e6 5e ef 3c 93 79 c9 3c a5 93 b8 3d
       0.07475345 0.029220056 0.024594104 0.09012536
0000a0 31 8b b2 3d 4c da d0 3a 6e 02 64 3d 2f 02 af 3b
       0.08717955 0.0015934198 0.05566638 0.0053408365
0000b0 9d 1b b4 3d a1 aa 7f 3d 06 6e f8 3d 98 8b c5 3a
       0.08794329 0.062418584 0.1213036 0.0015071509
0000c0 5b 11 3a 3c 24 ce 8e 3d f2 cf b0 3c b7 1e 8d 3c
       0.011356677 0.06972912 0.021583531 0.01722656
0000d0 c0 62 b1 3d b7 78 b2 3d d4 d8 c8 3c 1e ce e2 3e
       0.08661413 0.08714431 0.024517454 0.4429788
0000e0 1c d1 22 3d 22 b7 05 3d e8 12 57 3d 74 7a d5 3c
       0.039750203 0.032645352 0.052508265 0.026059367
0000f0 21 44 08 3d eb 21 25 3e 53 70 73 3c c6 96 2d 3c
       0.033268098 0.1612622 0.014858323 0.010595029
000100 ac 37 11 3e b0 ff 24 3c 48 66 70 3e 52 b4 e6 3d
       0.14181393 0.010070726 0.23476517 0.11264862
000110 34 10 24 3c de 88 d0 3e dc e5 43 3d 27 fc 3f 3e
       0.010013629 0.4072942 0.047826633 0.18748532
000120 4a 2f 49 3e fb 5e e6 3d 27 80 1d 3d fc 73 bb 39
       0.19646946 0.11248585 0.038452294 0.00035753835
000130 a9 fe aa 3c fd ad d8 3c 72 49 e9 3d d5 66 ee 3c
       0.020873385 0.026450152 0.11390962 0.029101769
000140 fc 9c aa 3a 7e ba da 3d 96 be 63 3d 76 91 07 3e
       0.0013016756 0.10680102 0.05560168 0.13239083
000150 13 79 8a 3d 7c ac 06 3e cc fd f4 3d 1e 34 dd 3c
       0.06761374 0.13151735 0.119624704 0.02700239
000160 ba 1a 9b 3b e9 09 d8 3d 6b 48 97 3e 92 df 8a 3c
       0.0047334107 0.10548765 0.29547438 0.01695231
000170 5c de e0 3d dc 5b 11 3e d3 a4 ec 3c 0c b0 b2 3c
       0.10979912 0.14195198 0.028887188 0.021812461

weight f4 [256, 96]
000000 c2 2d ac 3b 8b 47 ae bd 98 07 9f 3c e8 db c9 3d
       0.005254478 -0.085097395 0.0194128 0.09856397
000010 42 0a 52 3d 56 be 5f bd b1 e9 c1 3d a7 77 8d bd
       0.051279314 -0.054624878 0.09468401 -0.069075875
000020 e3 bd 4d bd 99 74 36 3d 11 36 a9 3d 95 06 cc 3d
       -0.05022992 0.04454479 0.082622655 0.09962193
000030 90 fe b9 3d d8 4d 6e bd 8e 76 b0 3c bf e0 84 bd
       0.09081757 -0.058179706 0.021540906 -0.064881794
000040 de 56 fd 3a ab 18 af 3d 5b a7 45 3d b1 e3 be bd
       0.0019328257 0.08549627 0.048255306 -0.093207724
000050 89 4d 2f bd 17 b9 ad bd 03 a3 4a 3d a5 90 3a bc
       -0.042798553 -0.08482569 0.049471866 -0.011387025
000060 ab a5 96 bd 31 f6 12 bd 00 dc 11 3d a9 1f 20 3c
       -0.073558174 -0.035879318 0.0356102 0.009773173
000070 ad e5 c6 3d 67 34 a5 3a 3d f1 01 3d 4f 87 f6 bc
       0.09711776 0.0012604118 0.031724203 -0.030093817
000080 cf 86 25 3c 45 86 a1 3b 78 ea b2 3d 13 09 2c 3d
       0.010102942 0.0049293363 0.087361276 0.04200084
000090 a6 f5 66 bd 04 73 b5 bd 71 f1 cb bd 1d 56 11 bd
       -0.056386612 -0.08859828 -0.09958161 -0.035482515
0000a0 3e 99 6a 3c ae a8 c5 3d 31 7a 1a bc c3 8d 1e 3d
       0.014318762 0.09651314 -0.009428547 0.038709413
0000b0 68 78 56 3d a4 af a0 bd 4d de a9 bd 5e ca 1c 3d
       0.052360922 -0.07846001 -0.08294354 0.03827893
0000c0 b4 5c 47 3d f4 0d 3d bd fa 6e 5f 3c 5e ca ca bd
       0.048672393 -0.046155885 0.013637299 -0.0990188
0000d0 8e 82 1a 3b f1 c2 c2 3c d4 b0 57 ba 58 e3 7e bc
       0.0023576352 0.023774596 -0.00082279486 -0.015557133
0000e0 71 09 25 3d f2 41 ff bc a4 44 99 3d 7a f5 b5 bd
       0.040292207 -0.031159375 0.07483795 -0.088847116
0000f0 57 2c 67 bd e8 77 af bd 48 20 b9 bd 1c ee 99 3d
       -0.05643877 -0.08567792 -0.0903936 0.07516119
000100 6d 8d c2 bc 35 20 a3 bd 8c 83 a9 3c 9d 9f a3 bd
       -0.023749078 -0.079651274 0.02069261 -0.07989428
000110 77 0f c2 3b e3 30 4f 3d 36 e2 a7 bc e4 f5 4b 3d
       0.0059222537 0.05058373 -0.020493608 0.049795046
000120 f2 ad 9a 3c b8 70 a6 bd 38 d5 86 3c 11 ab 88 3d
       0.018881772 -0.08126968 0.016459092 0.06673253
000130 12 bb b9 bc c0 7b 2f 3c 56 ed 74 3c 26 51 db 3b
       -0.02267221 0.010710657 0.014949163 0.0066930233
000140 c9 67 dc 3c 03 1e cc bd cb 2f a4 3d 82 58 35 3d
       0.026904957 -0.09966662 0.08016928 0.04427386
000150 1f d6 5f 3c aa df a5 3c 65 bd a5 bd 9b f9 ec bc
       0.01366189 0.020248253 -0.08092765 -0.028927615
000160 d2 26 fe bb 6c be ad 3c 0f ae 5e bd 27 9f 38 3c
       -0.0077560926 0.021208964 -0.054365214 0.011268414
000170 3f 17 04 bd 10 90 93 3d 9f e9 b0 bd c6 c1 0c 3c
       -0.03224873 0.07205212 -0.0863831 0.008591121
000180 66 49 88 3d c3 00 97 bd fe 86 b8 3a 80 17 42 3d
       0.06654625 -0.07373192 0.0014078317 0.047385693
000190 eb 72 35 3d 78 c7 2d 3c ad d9 21 3d 19 f1 90 bd
       0.044299047 0.010606639 0.039514232 -0.07077236
0001a0 b3 5a b2 3d 5c e9 25 3b 0c 88 8c 3d 59 ca cf 3c
       0.08708706 0.0025316095 0.068618864 0.025365042
0001b0 79 a6 4d bc 90 63 43 3d bf 9b cf 3d 29 77 d8 3d
       -0.012551897 0.047702372 0.10137128 0.10569603
0001c0 29 f9 b0 bd ff ed 9e 3b db 29 8b bd 5c a3 73 3d
       -0.086412735 0.0048501487 -0.06795093 0.059481964
0001d0 52 47 96 3d a4 04 94 bd 63 a9 bd bb 77 35 8f 3d
       0.07337822 -0.07227448 -0.0057880147 0.069926195
0001e0 fc 01 8a 3d 97 54 9d bd ad ee 8c 3d 00 fb 4e bc
       0.0673866 -0.0768215 0.06881461 -0.012633085
0001f0 86 03 b1 bd 9f ee 79 3c be e2 43 3d f0 d2 71 3d
       -0.0864325 0.015254646 0.04782366 0.059039056
000200 31 1a 82 bd 78 fb 98 bd 1b 11 83 bd b5 46 80 3d
       -0.06352652 -0.07469839 -0.06399747 0.06263486
000210 fb 42 b9 bd 41 fb 21 ba f5 d2 e5 bc 2c 6c 30 3d
       -0.09045979 -0.00061791023 -0.028054694 0.04307191
000220 d9 b0 8c 3c 44 6c 52 bd 18 6e 95 3c dc 31 c2 3d
       0.017174171 -0.05137278 0.018240973 0.09482166
000230 6a 8b ab 3c 4d ca 4c bd fb 2e 6b 3b 57 4c bf bd
       0.020940501 -0.049997617 0.0035886157 -0.093407325
000240 e4 4e 86 bd e3 9f 98 bc 89 26 64 bd 4c b2 ae 3d
       -0.06558016 -0.018630927 -0.055700812 0.08530101
000250 8d fb a1 3c 22 34 a7 3d fb 22 b5 bc 7a 98 24 bc
       0.01977327 0.081642404 -0.022111407 -0.010046119
000260 3d 7a 01 3d da f5 be bc ac 86 02 bd ce 4e cd bd
       0.031610716 -0.02331059 -0.031866714 -0.100247964
000270 01 22 9a 3d f3 ce c8 3d 21 0e d5 bd 9a 50 d2 bc
       0.07526017 0.098050974 -0.104030855 -0.0256732
000280 ea 29 9e bd f5 3f 16 bd 8d 91 aa 3d cc 4d 74 3d
       -0.07722838 -0.036682088 0.08328543 0.059644505
000290 0a 7a ff bb fa 91 31 3d 95 2d f2 3c 98 0a 77 3d
       -0.0077965306 0.043352105 0.02956275 0.060312837
0002a0 43 05 9b bd 0a 46 12 3d e3 2a bb bd 21 6d 89 bd
       -0.07569363 0.035711326 -0.09139039 -0.06710268
0002b0 33 d8 1e bd 3f dd b8 bb 47 a3 c1 bd 97 d3 93 3b
       -0.038780402 -0.005641609 -0.09454971 0.0045113075
0002c0 34 22 76 3c b2 11 1a bd 9b ab f5 3c b8 92 c3 3d
       0.015022803 -0.03761453 0.029989054 0.09549469
0002d0 4d 7f 86 bc dc 26 54 bd cf da b8 bd d4 24 99 bd
       -0.016418124 -0.05179487 -0.090261094 -0.074777275
0002e0 35 13 68 bd 98 35 8c bd d2 54 2c bd 15 f8 68 3d
       -0.056658942 -0.0684616 -0.04207308 0.056877214
0002f0 85 c1 1b 3d 0e 8b cb 3d 3f ad ca 3d 29 45 f8 bc
       0.03802635 0.09938632 0.09896325 -0.030306416
000300 51 ba 24 bd 99 1c 6b 3c fb 62 ab bd d4 dd 69 3d
       -0.040216748 0.01435008 -0.083684884 0.057096317
000310 4f b7 97 bc 95 a9 ae bd 89 1b a1 bd 70 6d 90 bd
       -0.018520026 -0.08528439 -0.0786658 -0.070521235
000320 f4 6b ea 3c 88 3d 9d 3d 50 7b a7 3d c2 1d dd bc
       0.02861593 0.07677752 0.08177817 -0.026991729
000330 b1 a8 6d bd 02 d4 3e bd c4 1a 8f bd 79 7a d9 bc
       -0.058022205 -0.046588905 -0.06987527 -0.026547657
000340 70 b9 bb bd 31 b0 5e 3d 23 2b c2 bd a5 b7 84 bd
       -0.09166229 0.054367248 -0.09480884 -0.0648034
000350 d6 88 8a 3d 06 db 99 bd 43 90 c6 3c b2 58 9c 3d
       0.06764381 -0.075124785 0.024238711 0.07634105
000360 f8 eb d0 3d 27 ef 4d 3d ea 02 d4 bc 01 ba 6c 3d
       0.102012575 0.0502769 -0.025880296 0.057794575
000370 14 0a 2b bb 3e 1a 01 bd fe 09 5f ba 49 43 bd 3c
       -0.0026098536 -0.031519167 -0.0008508264 0.023103373
000380 a7 69 8d 3d 8c 19 2d 3d 1a 12 49 3d d9 b4 77 3c
       0.06904917 0.04226069 0.04908953 0.015118801
000390 34 9a 8e bb fc cf 2f 3d 27 e3 cd 3c 03 ab c5 bd
       -0.0043518785 0.04292296 0.025132729 -0.096517585
0003a0 6a d5 84 3c f3 ca 3b bd c1 4d 61 bd a1 18 23 3d
       0.016215045 -0.045847844 -0.055005793 0.03981841
0003b0 b9 db af 3c a7 60 75 3c f0 8a 4a bd a2 b4 4b 3d
       0.021467077 0.014976657 -0.049448907 0.04973281
0003c0 48 c4 c3 3d 5f 02 4c 3c f9 9a 22 3d 23 43 b6 bd
       0.09558922 0.012451737 0.039698575 -0.08899524
0003d0 80 4f 76 3d 8e 2f 19 3d 6c de 39 3d f3 0d 33 3d
       0.06013441 0.037398867 0.045378134 0.043714475
0003e0 3e b1 dc bc ea ef f9 bb f3 bd c3 3d d2 ca 9a 3d
       -0.026939984 -0.007627477 0.09557714 0.07558216
0003f0 fd 30 93 bd 17 09 a4 3d 7f 51 d0 3d 19 a9 39 3c
       -0.07187078 0.08009546 0.10171794 0.01133182

bias f4 [256]
000000 4b 91 78 bd 75 0e 1b 3d 82 c5 94 bd df 96 92 bd
       -0.060685437 0.037855584 -0.07264234 -0.071576826
000010 0f 48 26 bc 1e 97 d3 3b d5 8b 8b bd 82 9a 9f 3d
       -0.010149016 0.0064572236 -0.0681378 0.07793142
000020 81 f3 27 bd 21 a4 b3 bc cb 03 ca bc 14 4b 24 3c
       -0.041003708 -0.021928849 -0.024660012 0.010027666
000030 d6 04 a7 3d 0f 99 24 bd 67 9c 43 39 d4 70 0d bc
       0.08155219 -0.04018503 0.00018654914 -0.008632857
000040 b1 18 9e ba 48 83 c8 3d 3d 19 44 3d 71 05 88 3c
       -0.0012061802 0.09790665 0.04787563 0.016604157
000050 60 3f d0 3c 9f ff c3 3d b3 6a c5 bd be 07 c1 3d
       0.025420845 0.0957024 -0.09639492 0.09425305
000060 c8 27 9c bd 72 14 76 3c 51 71 37 bd fc 72 a1 3d
       -0.07624775 0.015019523 -0.0447858 0.0788326
000070 80 b6 92 bd 3c 17 52 3d 8a 5e 94 bd 61 64 de bc
       -0.07163715 0.05129169 -0.072445944 -0.027147474
000080 d4 f2 d4 3b b0 58 82 bd a3 12 d7 bc 0d 36 26 3d
       0.006498674 -0.06364572 -0.026254004 0.04057889
000090 17 de 70 bd b8 f5 6f bd f3 36 1f 3d 26 fe b1 3d
       -0.05880555 -0.058583945 0.038870763 0.08691053
0000a0 17 7b 94 bc f7 eb a5 bd 87 dc c4 bd 08 ad 85 bc
       -0.0181251 -0.08101647 -0.09612375 -0.01631786
0000b0 64 a5 e7 bc 24 2f d1 bd 4b 01 9b 3c c9 d2 b5 3d
       -0.028277107 -0.102140695 0.018921515 0.08878095
0000c0 16 32 6c 3d cb b6 9d 3d 40 59 33 bd a3 c1 ad bd
       0.057664953 0.077008806 -0.043786287 -0.08484199
0000d0 34 6e 90 bd 48 8b 2b bb a4 4c 35 3c 69 bb 38 3d
       -0.070522696 -0.0026175547 0.011065636 0.045100603
0000e0 98 ab 0b 3c 64 cf 0f bd 6d 33 d5 bc 81 cf 05 3d
       0.008524798 -0.035109892 -0.026025498 0.032668594
0000f0 15 87 30 bd f5 0a fa bc d7 01 90 3d c9 a6 ab 3d
       -0.043097574 -0.030522803 0.07031601 0.08381421
000100 aa 19 bb 3c 99 cd c4 3d 2a 97 80 3c 51 d7 8a 3d
       0.022839386 0.09609527 0.01569708 0.067793496
000110 31 78 6e 3c fa 57 38 3d 43 fd 1d 3d 89 b5 09 bd
       0.014555023 0.045005776 0.038571607 -0.03362039
000120 83 f8 8a 3d dd 4c b4 bd d8 b1 0c 3b fb 2d e0 3a
       0.06785681 -0.08803723 0.0021468308 0.0017103547
000130 0a c6 a9 bb e3 d0 f3 bc b2 db 87 bd af 4f 84 3d
       -0.005181079 -0.02976269 -0.066337004 0.06460511
000140 77 22 b7 bd 11 71 be bd ff 56 b4 bd 89 a3 10 3d
       -0.089421205 -0.092989095 -0.08805656 0.03531221
000150 14 d7 45 bb 6e 0c 2a bd 87 b7 b4 3d 5d e2 cc bd
       -0.003018801 -0.04151576 0.088240676 -0.10004113
000160 04 fe 1a bc c6 fb 89 3d 19 94 6d 3d 70 3a a0 bd
       -0.009459976 0.06737475 0.058002565 -0.07823646
000170 5b 88 0e bd 95 26 cf 3d 11 bd 31 bd 73 a6 87 bd
       -0.034798007 0.10114781 -0.0433932 -0.066235445
000180 03 11 a0 3d 07 6a a7 3d ce 99 02 3d e6 3d 47 bd
       0.07815745 0.0817452 0.03188496 -0.048643015
000190 21 19 59 3d bc 76 90 bd f3 20 9c bd 92 a5 08 bd
       0.05300248 -0.07053897 -0.07623472 -0.033361025
0001a0 62 36 b7 bd 5f 93 ba 3c 42 70 90 3d c7 b4 ac 3d
       -0.089459196 0.02277535 0.070526615 0.08432918
0001b0 26 27 40 bd e7 9e 44 3c cb 59 44 bd 3a ee 8d 3d
       -0.046912335 0.012000776 -0.047937196 0.06930204
0001c0 ad 06 23 3c 04 79 c2 3d 96 71 51 bd 6a 05 bf bc
       0.009950322 0.09495738 -0.051133715 -0.023318011
0001d0 59 1e 2d 3c 5b ec b2 bd d0 a9 c5 bb 37 19 12 bc
       0.0105663175 -0.087364875 -0.006032206 -0.0089171445
0001e0 a7 86 85 3d 60 eb 85 3c 1c 65 96 3d 41 8c 8c bd
       0.065198235 0.016347587 0.07343504 -0.06862689
0001f0 cc 80 ca 3c 80 5a 70 bd d0 30 3b bd 95 f6 4d 3d
       0.024719618 -0.058680058 -0.045700848 0.050283987
000200 b2 ad c0 bd 13 1e c1 3d 9c 63 a7 bd 4d 82 57 3d
       -0.0940813 0.09429564 -0.08173296 0.0526145
000210 24 1a 8d 3c 95 bb 9c 3d 27 c2 e7 3c bf f5 c7 bc
       0.017224379 0.07652966 0.028290821 -0.024409173
000220 83 f2 22 bd ae 7b 1a 3d a5 f1 1a bd d3 07 e5 bc
       -0.03978206 0.037715606 -0.037828106 -0.027957832
000230 b1 9d 3e 3d ce a6 09 bd 5d 17 91 bb a4 16 62 bd
       0.046537105 -0.033606343 -0.004427834 -0.055197373
000240 c2 75 db bc 71 9a 10 bd 1e a6 c0 bc 03 e9 a3 ba
       -0.02678955 -0.035303537 -0.02351671 -0.0012505356
000250 06 c2 41 3d 81 0b 92 bd cf 91 34 bd e4 8d c2 bc
       0.047304176 -0.071311004 -0.044084366 -0.0237493
000260 9c f9 1a bd 95 e0 79 bc 72 22 6f 3d 41 98 ab 3d
       -0.037835702 -0.015251298 0.05838246 0.083786495
000270 bc f6 d6 bc 37 ff 5f 3d de be a9 bc 66 84 26 3d
       -0.026240699 0.05468675 -0.020720895 0.04065361
000280 51 e5 06 bd 3d 8c 13 3b 3f c7 a1 bd 36 78 3a bc
       -0.032933537 0.0022514008 -0.07899331 -0.0113812
000290 cb 27 21 bd ac 59 74 3d 18 c0 50 bc 3e 52 a7 bd
       -0.03934459 0.05965583 -0.012741111 -0.08169983
0002a0 6a f7 2b 3d f3 82 92 bd 7b 1c ae 3d da 13 26 3c
       0.041984 -0.07153883 0.08501526 0.010136569
0002b0 9c 79 08 3d ca 12 37 bd e7 cc bd bd ed b1 8b 3d
       0.0333191 -0.044695653 -0.09267598 0.06821046
0002c0 14 94 36 bd ff 22 9b 3d f5 9a 87 bd 9a ad 58 bc
       -0.044574812 0.07575034 -0.066213526 -0.013224984
0002d0 0f 63 ed 3c f2 2e cf 3d c3 e5 f4 bc f6 81 2b 3d
       0.028977899 0.10116376 -0.029894715 0.041871987
0002e0 71 ff a0 3d 21 e6 be bd 26 4a be 3d f1 e8 88 3c
       0.078612216 -0.09321237 0.092914864 0.016712638
0002f0 8e fd 4a bd 45 3f 39 3b 4c c7 09 3d 43 ca 35 3d
       -0.049558215 0.0028266471 0.03363733 0.044382345
000300 ef 62 bd bd 9d 24 25 3d f7 95 33 3d f4 97 9e bd
       -0.09247386 0.04031812 0.04384419 -0.077438265
000310 cf 3c d3 3c 70 10 ba 3d fc 04 d8 b9 e1 a2 2c bd
       0.025785832 0.090851665 -0.00041202444 -0.04214752
000320 d0 8d f0 bc 39 81 c8 bd 9e 27 71 3d 04 81 9a bc
       -0.029364496 -0.09790272 0.058875673 -0.018860348
000330 c4 7a b6 bd 91 37 f1 bc 20 83 91 bd 46 50 32 3d
       -0.089101344 -0.029445441 -0.07105088 0.043533586
000340 d7 ba ba 3d 7c 20 cc bd b3 bd 3b 3c 15 7c 54 bd
       0.09117668 -0.099671334 0.011458802 -0.051876146
000350 b3 32 5c bd 61 a8 d3 3b 40 09 80 bd 34 d3 c3 3d
       -0.053759288 0.0064592813 -0.06251764 0.09561768
000360 98 93 c4 3c cb a3 c8 b9 01 05 a3 bb ef 28 b4 3d
       0.02399616 -0.00038269008 -0.0049749617 0.0879687
000370 73 d4 e0 3c 93 36 aa bd 64 88 62 bc ab 35 24 bd
       0.027445054 -0.083111905 -0.013826463 -0.040090244
000380 c3 17 25 bd af d6 63 bd 07 ce 7b 3d f6 9c 6c bc
       -0.040305864 -0.05562466 0.06147578 -0.014441719
000390 e0 79 cc 3d 33 76 29 bd 74 ac a4 bd d9 40 2b 3d
       0.09984183 -0.04137249 -0.08040705 0.04180989
0003a0 a8 3f 89 bd 93 9a a1 3d ff 7b 91 3d de 72 02 bd
       -0.067015946 0.07890811 0.071037285 -0.031847827
0003b0 3a 56 c2 bc f3 1f 05 3d f5 4a 92 bc e7 94 9d bd
       -0.023722757 0.032501172 -0.017858008 -0.076944165
0003c0 de 11 91 bd 39 7f 9a 3d 25 6f 99 bc a1 82 19 bd
       -0.07083486 0.07543797 -0.018729756 -0.037478093
0003d0 09 73 8c bc db 07 1b 3d 0b 81 a6 bb 5a 5e 51 bd
       -0.017144697 0.03784929 -0.005081301 -0.05111537
0003e0 f0 1d 72 ba f7 66 92 3d fc 8f c0 bd 1b 4a 06 3d
       -0.00092360284 0.07148545 -0.09402463 0.032785516
0003f0 76 cb d9 bc 80 2e 9b bd 4a 78 1d bb 26 24 02 3d
       -0.026586276 -0.075772285 -0.0024027997 0.031772755

weight f4 [256]
000000 b4 af 7f 3f 65 e3 7f 3f a7 21 80 3f 4a 93 7f 3f
       0.99877477 0.9995635 1.001027 0.9983412
000010 d8 ed 7f 3f 04 03 80 3f e1 2a 7f 3f cd 00 80 3f
       0.99972296 1.000092 0.99674803 1.0000244
000020 ae 93 7f 3f 3e c2 7f 3f bd f7 7f 3f ab 16 80 3f
       0.99834716 0.99905765 0.99987394 1.0006918
000030 5c f3 7f 3f 2e c4 7f 3f 22 2b 80 3f 47 8a 7f 3f
       0.9998071 0.9990872 1.0013163 0.9982037
000040 85 f4 7f 3f 64 c0 7f 3f 55 d0 7f 3f 6f 0e 80 3f
       0.9998248 0.9990294 0.99927264 1.0004405
000050 d3 1d 80 3f 74 5d 80 3f d7 e3 7f 3f 59 ed 7f 3f
       1.0009102 1.002852 0.9995703 0.9997154
000060 cf 0d 80 3f 13 8d 7f 3f 79 7b 80 3f 95 10 80 3f
       1.0004214 0.9982464 1.0037681 1.000506
000070 06 cd 7f 3f ed 16 80 3f 75 b5 7f 3f bf 83 7f 3f
       0.99922216 1.0006996 0.99886256 0.99810404
000080 52 28 80 3f 33 07 80 3f 47 33 80 3f 8a eb 7f 3f
       1.0012305 1.0002197 1.0015649 0.9996878
000090 64 f5 7f 3f da 33 80 3f 55 87 7f 3f dc 2c 80 3f
       0.9998381 1.0015824 0.99815875 1.001369
0000a0 f9 e4 7f 3f 14 c6 7f 3f 06 98 7f 3f 95 51 7f 3f
       0.9995876 0.9991162 0.99841344 0.9973386
0000b0 5d e1 7f 3f 39 a7 7f 3f 90 25 80 3f c5 ec 7f 3f
       0.9995325 0.99864537 1.0011463 0.99970657
0000c0 41 07 80 3f c6 6f 80 3f aa 54 80 3f 5b 28 80 3f
       1.0002214 1.003411 1.0025837 1.0012316
0000d0 7b 1d 80 3f b1 52 7f 3f 6f 34 80 3f e1 06 80 3f
       1.0008997 0.9973555 1.0016001 1.0002099
0000e0 22 d5 7f 3f 88 92 7f 3f 77 05 80 3f 6d fb 7f 3f
       0.9993459 0.99832964 1.0001668 0.9999302
0000f0 65 e5 7f 3f 17 19 80 3f 45 cb 7f 3f c8 07 80 3f
       0.99959403 1.0007657 0.9991954 1.0002375
000100 3a c5 7f 3f 4f a5 7f 3f 99 1f 80 3f bc e9 7f 3f
       0.9991032 0.99861616 1.0009643 0.99966025
000110 be 07 80 3f 86 16 80 3f 8b 42 80 3f 8d ae 7f 3f
       1.0002363 1.0006874 1.0020307 0.9987572
000120 c9 37 80 3f e8 a9 7f 3f 18 0c 80 3f a3 c9 7f 3f
       1.0017024 0.9986863 1.0003691 0.9991705
000130 39 be 7f 3f 1c 95 7f 3f 79 fa 7f 3f 8c 24 80 3f
       0.9989963 0.998369 0.99991566 1.0011153
000140 cf 00 80 3f b8 1e 80 3f 54 1f 80 3f 45 fd 7f 3f
       1.0000247 1.0009375 1.000956 0.99995834
000150 2a 17 80 3f 63 fa 7f 3f ff fc 7f 3f 60 02 80 3f
       1.0007069 0.99991435 0.99995416 1.0000725
000160 91 35 80 3f 64 fc 7f 3f fb ef 7f 3f bc 30 80 3f
       1.0016347 0.9999449 0.99975556 1.0014873
000170 67 31 80 3f 88 40 80 3f a8 1d 80 3f 42 84 7f 3f
       1.0015076 1.0019693 1.000905 0.99811184
000180 e4 d7 7f 3f ef 16 80 3f 33 0c 80 3f 3e 3a 80 3f
       0.999388 1.0006999 1.0003723 1.0017774
000190 98 06 80 3f 37 0e 80 3f e0 0e 80 3f c7 51 80 3f
       1.0002012 1.0004338 1.000454 1.0024956
0001a0 de f4 7f 3f 06 c2 7f 3f e8 d4 7f 3f 53 eb 7f 3f
       0.9998301 0.9990543 0.99934244 0.9996845
0001b0 f5 8d 7f 3f 85 71 7f 3f 6b c5 7f 3f 4f 01 80 3f
       0.99825984 0.9978259 0.9991061 1.0000399
0001c0 38 76 7f 3f 1e 80 7f 3f 47 c1 7f 3f 85 da 7f 3f
       0.9978976 0.99804866 0.9990429 0.9994281
0001d0 b6 c1 7f 3f 7e fa 7f 3f 13 07 80 3f 8b 07 80 3f
       0.99904954 0.99991596 1.0002159 1.0002302
0001e0 e0 4f 80 3f c3 c4 7f 3f 45 f5 7f 3f 7c 27 80 3f
       1.0024376 0.9990961 0.99983627 1.001205
0001f0 1e 04 80 3f 3e 14 80 3f c9 a8 7f 3f 10 3f 80 3f
       1.0001256 1.0006177 0.9986692 1.0019245
000200 ec 0f 80 3f 62 0e 80 3f 31 a4 7f 3f 38 ca 7f 3f
       1.0004859 1.0004389 0.9985991 0.99917936
000210 5a 48 80 3f 22 f4 7f 3f cd a3 7f 3f 38 55 80 3f
       1.002208 0.9998189 0.99859315 1.0026007
000220 a7 11 80 3f 11 22 80 3f 4a fe 7f 3f e2 1d 80 3f
       1.0005387 1.0010396 0.9999739 1.000912
000230 91 07 80 3f 3d 7b 7f 3f b8 93 7f 3f d0 78 7f 3f
       1.0002309 0.9979742 0.99834776 0.9979372
000240 8f 16 80 3f f5 02 80 3f 14 15 80 3f cc 12 80 3f
       1.0006884 1.0000902 1.0006433 1.0005736
000250 0c 35 80 3f cc b6 7f 3f 36 13 80 3f 7b ca 7f 3f
       1.0016189 0.998883 1.0005863 0.99918336
000260 d4 15 80 3f a8 f2 7f 3f a9 22 80 3f 87 fc 7f 3f
       1.0006661 0.9997964 1.0010577 0.999947
000270 05 fc 7f 3f 47 f3 7f 3f 17 af 7f 3f 71 1c 80 3f
       0.99993926 0.99980587 0.9987654 1.000868
000280 da 08 80 3f f9 32 80 3f d9 21 80 3f c0 ea 7f 3f
       1.0002701 1.0015556 1.001033 0.99967575
000290 d5 b2 7f 3f 1c f2 7f 3f 91 de 7f 3f 2a 09 80 3f
       0.9988225 0.99978805 0.99948984 1.0002797
0002a0 97 34 80 3f 01 d9 7f 3f 9b fd 7f 3f 2a 15 80 3f
       1.0016049 0.99940497 0.99996346 1.0006459
0002b0 d1 d5 7f 3f e6 f7 7f 3f 2a b3 7f 3f 0f 99 7f 3f
       0.9993563 0.9998764 0.9988276 0.99842924
0002c0 20 ac 7f 3f 03 e3 7f 3f 7d bc 7f 3f 74 c6 7f 3f
       0.99872017 0.9995577 0.99896985 0.9991219
0002d0 53 25 80 3f 3b 31 80 3f cc 04 80 3f 86 c6 7f 3f
       1.001139 1.0015024 1.0001464 0.999123
0002e0 a3 13 80 3f ba 11 80 3f d9 1c 80 3f 43 3e 7f 3f
       1.0005993 1.000541 1.0008804 0.9970438
0002f0 b7 65 7f 3f 42 ef 7f 3f fe b8 7f 3f 14 10 80 3f
       0.9976458 0.99974453 0.9989165 1.0004907
000300 e8 49 80 3f 28 f4 7f 3f 4a de 7f 3f 3e 65 80 3f
       1.0022554 0.9998193 0.9994856 1.0030897
000310 63 36 80 3f 21 bb 7f 3f 4d 95 7f 3f bb 04 80 3f
       1.0016598 0.9989491 0.9983719 1.0001444
000320 89 64 7f 3f 96 20 80 3f c6 e3 7f 3f 24 ca 7f 3f
       0.9976278 1.0009944 0.9995693 0.9991782
000330 c4 e3 7f 3f ea fd 7f 3f 47 f8 7f 3f b7 19 80 3f
       0.9995692 0.9999682 0.99988216 1.0007848
000340 0b e4 7f 3f 28 e0 7f 3f fc ea 7f 3f 18 22 80 3f
       0.9995734 0.9995141 0.9996793 1.0010405
000350 3a fd 7f 3f bc 72 80 3f 8b 01 80 3f a6 32 80 3f
       0.9999577 1.0035014 1.0000471 1.0015457
000360 eb 94 7f 3f fc d6 7f 3f 03 1f 80 3f a3 c4 7f 3f
       0.99836606 0.99937415 1.0009464 0.9990942
000370 fb 2e 80 3f d3 0f 80 3f 41 c9 7f 3f 0b 1e 80 3f
       1.0014337 1.0004829 0.99916464 1.0009168
000380 c3 0f 80 3f 82 bc 7f 3f bc 8d 7f 3f 38 c4 7f 3f
       1.000481 0.99897015 0.99825644 0.9990878
000390 a5 1c 80 3f 92 bd 7f 3f 83 da 7f 3f 6c 28 80 3f
       1.0008742 0.99898636 0.999428 1.0012336
0003a0 13 8b 7f 3f df c2 7f 3f ea 17 80 3f e5 bb 7f 3f
       0.99821585 0.99906725 1.0007298 0.9989608
0003b0 8a e0 7f 3f cc 20 80 3f 66 1f 80 3f 6c 2c 80 3f
       0.99951994 1.0010009 1.0009582 1.0013556
0003c0 70 3a 7f 3f 91 da 7f 3f 0d 16 80 3f 26 2e 80 3f
       0.99698544 0.9994288 1.0006729 1.0014083
0003d0 d6 d3 7f 3f 71 2d 80 3f e6 08 80 3f 1c aa 7f 3f
       0.9993261 1.0013868 1.0002716 0.9986894
0003e0 01 c6 7f 3f a6 e4 7f 3f e9 62 80 3f ac 19 80 3f
       0.99911505 0.99958265 1.0030185 1.0007834
0003f0 cd a3 7f 3f fc 46 80 3f 3a 0a 80 3f c8 43 80 3f
       0.99859315 1.0021663 1.0003121 1.0020685

bias f4 [256]
000000 5b 5f 5e ba c1 c5 0c ba 6d 76 76 ba 27 cd 93 37
       -0.0008482837 -0.0005370044 -0.0009401802 1.7619297e-05
000010 89 5d 9c 39 61 1c 6e 3a d8 57 f9 ba e6 51 7d ba
       0.00029824328 0.0009083208 -0.0019023372 -0.0009663388
000020 8f 7f 78 39 2b 45 4f 3a 9a 90 02 3a b6 f3 0d ba
       0.00023698642 0.000790673 0.0004980654 -0.0005415039
000030 3a 90 27 3a 2c d5 92 38 e8 76 fa b9 c1 86 15 38
       0.0006392036 7.001529e-05 -0.00047772308 3.5649868e-05
000040 c0 53 56 38 81 07 0a 3a f7 6c 44 3a b7 78 c2 38
       5.1099574e-05 0.00052654004 0.00074930437 9.273126e-05
000050 4a f7 9c ba 57 e3 86 3a dc f8 0d ba 02 ef 6e ba
       -0.0011975553 0.0010291141 -0.0005415806 -0.00091145944
000060 22 e6 e4 39 27 9d 59 3a f7 5a 0a bb d6 30 11 ba
       0.0004365901 0.00083013106 -0.0021111348 -0.0005538588
000070 49 c1 c0 b9 66 bd 05 3b a2 df ad b8 f4 2b e4 39
       -0.00036765102 0.002040708 -8.290938e-05 0.00043520296
000080 15 3d bc b9 0f 6a 86 b9 43 7f 81 3a dd d6 13 ba
       -0.00035903664 -0.00025637491 0.0009879846 -0.0005639622
000090 bc 4a 3c ba 62 53 b7 ba d0 10 bf b9 17 76 74 39
       -0.0007182767 -0.0013986642 -0.00036442885 0.00023313645
0000a0 2e fc 56 3a 84 05 81 3a 91 28 35 ba 8d 3c 0e bb
       0.000820103 0.0009843563 -0.0006910647 -0.0021703572
0000b0 e6 ba 0a b8 31 e1 93 b9 b4 b7 6e 3a 8b 29 64 39
       -3.3075827e-05 -0.00028205806 0.00091063534 0.0002175925
0000c0 3e 29 07 bb f6 10 7d ba 64 a5 0d 3a 43 f9 8a 3a
       -0.0020623947 -0.00096537115 0.0005403368 0.001060285
0000d0 0a c6 c5 39 a9 9f c0 b9 f5 19 9d b9 b4 4a 2e ba
       0.0003772232 -0.0003674005 -0.00029964713 -0.0006648705
0000e0 c3 3c 0f bb 00 6d fb 39 a1 57 aa ba f2 06 f1 ba
       -0.0021856285 0.00047955662 -0.0012996086 -0.0018388911
0000f0 fc 32 81 3a fa 45 2a 3a 2e 24 7e 3a 8f fc 0b 3a
       0.0009857113 0.00064954127 0.0009694722 0.00053400634
000100 eb 5e c5 b8 09 da 02 3b 1c 11 94 3a ae c9 90 39
       -9.411372e-05 0.0019966385 0.0011296603 0.00027616083
000110 35 25 b1 b9 ee 95 30 39 f5 a0 0f 3a ac e4 86 ba
       -0.00033787792 0.00016840521 0.00054790016 -0.0010291538
000120 05 ba 92 ba 75 34 69 38 14 59 f2 39 f6 df b0 b9
       -0.0011194354 5.5600383e-05 0.00046224205 -0.000337362
000130 96 5e 0b 3b 41 58 bc 3a a6 88 81 3a 51 7d 09 bb
       0.0021266094 0.0014369563 0.0009882643 -0.0020979235
000140 55 6e 9c 3a eb e6 c7 39 09 03 ea 3a fc 58 7b ba
       0.0011934737 0.00038128285 0.0017853688 -0.000958815
000150 b5 ec 0c bb 7c 8b 83 3a f8 96 b5 ba 3f ba d7 b9
       -0.0021503393 0.0010036076 -0.0013854196 -0.0004114676
000160 c9 8b 86 ba 58 5a 82 3a b6 79 93 b9 2c f1 2c ba
       -0.0010265048 0.0009945137 -0.00028128707 -0.00065972167
000170 50 f5 7d b7 2e 91 11 ba a0 0d b2 ba 62 28 b9 36
       -1.5137091e-05 -0.00055529445 -0.0013584383 5.518131e-06
000180 dc 46 f9 b9 9f 8f 7f b8 b3 7a 79 3a ed f0 87 ba
       -0.00047545775 -6.0930495e-05 0.000951688 -0.0010371484
000190 9b 6b 8c ba 81 89 bc 39 b6 c5 09 3b 74 d4 8a 3a
       -0.0010713221 0.00035960603 0.0021022386 0.001059188
0001a0 bb 32 04 3b 99 72 0e bb bd 8c 21 b9 b4 6e 62 b9
       0.002017184 -0.0021735786 -0.00015406586 -0.0002159428
0001b0 53 eb cf b9 ee 60 ca 39 88 92 5d ba ec 56 94 39
       -0.00039657447 0.0003860066 -0.0008452316 0.00028293522
0001c0 e4 5e 01 ba b9 cd a8 ba 0d dc 42 ba 63 0d be ba
       -0.0004935099 -0.0012878693 -0.0007433303 -0.0014499839
0001d0 7a 29 0d 3b b0 0a 83 3a 78 87 39 38 3c e5 22 b9
       0.0021539615 0.0009997692 4.4233602e-05 -0.0001553492
0001e0 66 5b 1a b9 ce b1 7b 3a 19 08 65 ba 6a 80 6d b8
       -0.00014720633 0.0009601385 -0.00087368634 -5.6624798e-05
0001f0 f9 e2 b0 b9 df 02 2d 3a cf c4 98 ba 42 f0 04 b9
       -0.00033738444 0.0006599854 -0.0011655333 -0.00012678004
000200 58 21 eb ba bf 9f cc 3a 42 9e b8 ba 78 47 7e 3a
       -0.0017939014 0.0015611573 -0.001408525 0.0009699981
000210 42 b4 72 ba 5e 2f e9 b9 32 17 22 3a 1a df 2c ba
       -0.0009258428 -0.00044476514 0.0006183266 -0.0006594524
000220 c6 00 10 3a 1f 1f aa ba c8 be 8f ba a7 6f a1 b8
       0.00054932793 -0.0012979246 -0.0010966891 -7.697875e-05
000230 5b 90 8a ba 7b ea 00 3a 93 8b 14 bb c5 40 fc b9
       -0.0010571586 0.0004917753 -0.00226662 -0.00048113443
000240 7b 74 ba 39 2c e8 92 ba be a4 16 3a 44 15 d1 b9
       0.0003556347 -0.0011208109 0.00057465944 -0.0003987943
000250 e1 58 8e b9 f7 15 96 b8 33 34 bb 3a c6 78 c8 3a
       -0.0002715057 -7.156649e-05 0.0014282524 0.0015294782
000260 39 2d ca 38 df c0 fb 39 17 6a a0 b8 73 82 3b 3a
       9.640534e-05 0.0004801815 -7.649155e-05 0.00071529223
000270 40 54 13 38 38 1d ab 3a 90 5d 85 3a c6 b8 3e ba
       3.5125995e-05 0.0013054973 0.0010174979 -0.0007275458
000280 31 98 2e 3b c6 7b 91 b9 70 32 28 3a eb 98 0e 3b
       0.0026641006 -0.00027748774 0.0006416207 0.0021758627
000290 ea dd ca ba 95 f7 d5 b9 98 12 31 39 ba df 72 3a
       -0.0015477512 -0.0004081099 0.00016886962 0.0009264905
0002a0 27 89 8c 39 6b e8 72 39 22 64 f8 b9 df 46 3c 3a
       0.00026805067 0.00023165501 -0.0004737685 0.00071821915
0002b0 f4 59 f1 38 9c b3 ae 3a 36 c3 ad 39 1c 1b 8e b9
       0.000115085306 0.0013328674 0.00033142575 -0.0002710455
0002c0 3d c1 c7 b8 c6 ca b1 3a 30 e5 60 3a 17 75 4a b8
       -9.525053e-05 0.001356446 0.00085790735 -4.82696e-05
0002d0 3a 5d fb b8 aa cf 49 3a 0a 4d 1e 3a d5 62 99 b9
       -0.000119859775 0.0007698486 0.00060387014 -0.0002925607
0002e0 53 71 9c b9 0b 62 1f b9 c8 ca 6a ba 07 16 9e 3a
       -0.00029839072 -0.00015199945 -0.00089566084 0.0012061008
0002f0 9c c3 97 3a b4 ea 17 bb 05 bc b1 38 fa b5 29 ba
       0.0011578682 -0.0023180665 8.475039e-05 -0.0006473955
000300 cb 61 90 3a 6f 9c 34 3b e1 50 cd ba 6f 28 b7 b7
       0.0011015473 0.0027559062 -0.0015664363 -2.1834128e-05
000310 91 5f 2e ba 41 2e f4 b9 c2 e9 fb 3a b6 fd ee 39
       -0.0006651814 -0.00046573768 0.0019219446 0.00045583927
000320 69 63 3a 3a 77 d7 65 39 06 fe 09 ba 7a 4c 4b ba
       0.000711015 0.00021919409 -0.00052639877 -0.00077552313
000330 67 ec a4 ba 1f 48 36 ba f8 31 a0 3a d1 7b 5a 39
       -0.001258266 -0.0006953496 0.0012221923 0.00020836225
000340 50 a9 16 bb d3 08 0e ba a5 6a ce b9 0a 6c 1c 3a
       -0.0022989102 -0.0005418185 -0.00039370838 0.0005967027
000350 45 13 79 39 39 00 5b ba 8e 2d 18 3a 86 17 f4 39
       0.00023753669 -0.000835422 0.0005805128 0.00046556833
000360 90 0c 6b b8 98 31 1b ba 3e cd 8f 3a 0d 82 d6 b9
       -5.6040066e-05 -0.0005920171 0.0010971201 -0.00040914156
000370 a0 3c d1 39 a7 e7 35 3a 3e 96 32 3a 2a b0 ad 3a
       0.00039908756 0.0006939121 0.0006812549 0.0013251354
000380 4c aa 30 ba b1 e7 ec 38 22 b3 af b9 1c f9 78 3a
       -0.00067392434 0.00011296513 -0.00033512065 0.00094975694
000390 48 13 73 ba e8 3d fe b9 90 53 22 b9 fb 96 81 ba
       -0.00092725875 -0.0004849278 -0.00015480653 -0.0009886915
0003a0 20 81 70 ba 94 3f b7 39 17 7b 14 ba a0 03 b6 3a
       -0.00091745146 0.0003495185 -0.0005664094 0.0013886578
0003b0 94 2e 58 3a 60 fa 84 ba 44 bd 2e 3a 14 03 52 39
       0.0008246687 -0.0010145418 0.0006665776 0.00020028307
0003c0 7a 75 90 3a 24 8e 47 bb 2d 66 a8 3a 1b 9a 6a ba
       0.0011021339 -0.0030449713 0.0012847834 -0.0008949355
0003d0 db 0c 95 3a 49 6f f9 ba 06 79 2b 38 55 d8 c8 ba
       0.0011371629 -0.0019030358 4.088229e-05 -0.0015323261
0003e0 03 8b 45 3a 42 f8 2b ba 59 2b 50 3a 8d 5d 9c 39
       0.0007535668 -0.00065601256 0.00079410296 0.0002982434
0003f0 61 ef ba 38 e8 9f 38 3a ad 4c 8d ba 1b f2 ea 39
       8.913759e-05 0.0007042871 -0.0010780297 0.0004481234
