statedicts/torchscript_pl_db_2022-04-21_T2_P0_R1_s1_seed_1.pt (torch, 224745 bytes, 29 tensors)

weight f4 [5]
000000 fc 5d 82 3f ce 39 7f 3f ce 38 7d 3f 13 40 7f 3f
       1.0184932 0.9969758 0.989148 0.99707144
000010 8d f1 7a 3f
       0.9802483

bias f4 [5]
000000 2d c4 79 ba b4 e6 0e bb a3 80 a7 3b 7c a9 f7 bc
       -0.00095278287 -0.002180499 0.0051117702 -0.030232184
000010 60 96 8a 3c
       0.016917408

running_mean f4 [5]
000000 f1 f5 e0 3f 47 ce 84 3d e0 0d 3d 40 45 cc 3e 40
       1.7575055 0.06484657 2.9539719 2.9812176
000010 c3 76 88 3e
       0.26653108

running_var f4 [5]
000000 77 7a 7c 3c 7d dd a5 34 af b0 47 3b c3 05 fd 3a
       0.015410057 3.08948e-07 0.0030470302 0.0019304085
000010 78 09 ba 3a
       0.0014193496

weight f4 [96, 5]
000000 43 f9 c3 be 55 ae 6d be 80 1a 90 3e 6e 40 cb 3e
       -0.3827611 -0.23211034 0.28145218 0.39697593
000010 78 45 e3 3e e2 32 ed 3b 0f f1 c1 be 98 c3 dd 3e
       0.44388938 0.0072387317 -0.37879226 0.4331329
000020 7a ec 98 be 0e e2 30 3e 55 9d 62 3e 29 8b 0d 3e
       -0.29867917 0.17273733 0.2213033 0.13822617
000030 86 7f 19 3e 32 b8 d5 be b7 85 1b be 48 11 94 be
       0.14990053 -0.41742092 -0.15187727 -0.28919435
000040 91 63 9e 3e 77 79 81 be 70 4f 24 bc 91 7b cb 3e
       0.30935338 -0.25287983 -0.010028705 0.3974271
000050 25 8d ae 3e f9 c6 a4 be 4a fd bc be a9 1e b5 3e
       0.3409206 -0.32183054 -0.36911994 0.35374954
000060 a7 bd 02 3e 68 92 ae be 5c 7b c6 3e e1 56 a5 be
       0.12767659 -0.34096074 0.3876599 -0.32292846
000070 e2 7e c6 3e 82 1d a4 3e 47 99 a2 3e af 3a ae bd
       0.3876868 0.32053763 0.31757566 -0.08507287
000080 60 ac 26 3d 00 83 c0 be 9a 85 7f 3e 17 09 05 3d
       0.040691733 -0.37599945 0.24953309 0.032479372
000090 41 22 aa 3e 96 7a 44 be 16 fb db 3e 9b f9 97 3e
       0.3322926 -0.19187388 0.42965 0.2968262
0000a0 b9 ef 04 be 06 75 f8 3d ea 88 a6 be ec 63 93 be
       -0.12982072 0.121316954 -0.32526332 -0.28787172
0000b0 97 14 97 be d3 ea 87 be 19 da fc 3d eb 70 3f be
       -0.29507896 -0.26546344 0.12346286 -0.18695419
0000c0 88 06 1e be a7 da 9d 3e bd d0 78 3d 74 63 63 be
       -0.15432179 0.3083088 0.060745943 -0.22205907
0000d0 7a 4a e3 bd 28 0d c9 bd 3e e3 61 3e a5 51 a0 3e
       -0.1109819 -0.098169625 0.22059342 0.3131229
0000e0 3a c1 b6 3e b8 1f 9c be 25 8a 3d bd 67 72 da 3d
       0.35694295 -0.3049295 -0.046274323 0.10666352
0000f0 43 e1 34 be f9 2a 96 3e d9 25 3f bd 52 3d 3c 3d
       -0.17664056 0.2932966 -0.046666954 0.045956917
000100 02 24 c4 be 25 c4 a4 3e d0 c4 97 be 15 42 35 bc
       -0.38308722 0.32180896 -0.29642344 -0.011063118
000110 d4 71 ba be 22 ca ae 3e de f6 23 3d 36 b1 51 3e
       -0.3641497 0.3413859 0.040030353 0.20477757
000120 70 11 b6 be 0b 28 c8 3c 10 23 2f 3e d6 a4 a1 3e
       -0.3556018 0.024433156 0.17103219 0.31571072
000130 d0 78 a8 3e 1e 26 a5 bd 34 9c 37 bd 23 87 17 3e
       0.32904673 -0.08063911 -0.0448267 0.14797644
000140 28 41 24 be 78 46 39 be fc 49 d3 be 86 05 e1 be
       -0.1604048 -0.18093288 -0.41267383 -0.43949527
000150 34 9e 6f be 81 1d ad 3d 3b b0 2b 3d fd 81 9f 3c
       -0.23400193 0.08452893 0.041916113 0.019471163
000160 d2 0c 72 3d 77 39 90 bd c5 30 e4 be 69 e8 cb 3e
       0.059094258 -0.070422105 -0.44568458 0.39825752
000170 47 f2 a6 be 54 62 2b bb 5d 41 38 3e fe 1e e0 3d
       -0.32606718 -0.0026151137 0.17993684 0.10943411
000180 4c 43 47 be df ef c4 be ef e7 b9 3e fe 82 73 3c
       -0.19459265 -0.38464257 0.36309764 0.014862774
000190 7b cf d2 3e 0a d8 55 3e a4 cb 3c 3e 69 af cb 3d
       0.4117392 0.20883194 0.18437058 0.09945566
0001a0 00 2e c3 bd 77 d4 86 be 7e 91 5d 3d 17 50 db 3e
       -0.09530258 -0.26333973 0.05409383 0.4283454
0001b0 05 82 89 3e 9f a9 cf 3e 69 ed d6 3e 72 31 b3 3e
       0.2685701 0.40559098 0.41978005 0.3499866
0001c0 f3 35 7e be 46 45 78 be d7 d5 8d bc aa 2e 69 be
       -0.24825267 -0.24245176 -0.01731388 -0.22771707
0001d0 8f 1b f8 bd fc a8 20 be ed bf c8 3e e6 5f e1 bc
       -0.121146314 -0.15689462 0.39208928 -0.027511548
0001e0 c3 9d dc 3e c0 f9 b1 be 3a 05 e0 be 35 d8 7b 3d
       0.43089113 -0.34760857 -0.43753988 0.061485488
0001f0 d1 50 b7 3d 50 e3 32 be ea 99 66 be ef 0d 08 3e
       0.089509614 -0.17469525 -0.22519651 0.13286565
000200 f8 b7 50 3c 06 f7 8b bd 99 88 66 3e 13 6f 43 be
       0.012739174 -0.06834225 0.22513045 -0.1908534
000210 fe ba b4 3e d7 9f 9b be 42 e7 6d be 46 4d 22 3e
       0.35298914 -0.30395386 -0.23232749 0.1584979
000220 53 15 8d 3e 8e fc 4c bc 86 b7 b2 be 71 9a 77 bc
       0.27555332 -0.012511386 -0.34905642 -0.015112505
000230 2b cf 18 be f0 bb 11 be d5 1a b1 bd 5d 10 d6 3d
       -0.14922778 -0.14231849 -0.08647696 0.1045234
000240 3d 3c dc bd 5e 7f ab be 74 9e 66 be 20 e9 c2 be
       -0.10753677 -0.3349561 -0.22521383 -0.38068485
000250 51 cc d8 be cf 09 6f 3e 1a 59 7d 3e 06 02 ad 3e
       -0.4234338 0.23343585 0.24741021 0.33790606
000260 63 10 22 3d 22 36 3d be 89 e8 8a be 91 1d 62 3e
       0.03956641 -0.18477681 -0.27130535 0.22081591
000270 04 bc 8a be 19 e2 ab 3e a1 c5 77 be cf 82 d5 be
       -0.2709657 0.33570936 -0.24196483 -0.41701362
000280 7e 81 a6 be 81 b5 ba 3e f6 6e aa 3e cc d5 e9 3d
       -0.3252067 0.36466601 0.3328778 0.11417732
000290 7d 5f 65 3c 89 9a c5 3e 09 b5 8a 3e bd 8c 85 3e
       0.013999817 0.38594463 0.27091244 0.26083937
0002a0 a3 a7 9d be 56 0f 8e 3d c4 99 cd 3e 05 92 a1 be
       -0.3079196 0.06936519 0.40156376 -0.31556717
0002b0 f8 a8 e5 3e f3 63 96 be 27 b1 06 be a8 98 f3 3a
       0.44855475 -0.2937313 -0.13153516 0.0018584924
0002c0 c2 b4 ee 3d 6b 5e 04 3e 74 47 87 be 0b 2c 52 3e
       0.116555706 0.12926643 -0.26421702 0.20524614
0002d0 22 09 ef 3d 2c eb 42 bd 4a f3 e2 be 4f 4a e0 3e
       0.11671664 -0.04758756 -0.4432624 0.43806693
0002e0 0a 2b 2e be 55 50 70 be 68 41 e3 3e a6 cb 6a be
       -0.17008606 -0.23468144 0.44385839 -0.22929248
0002f0 f6 d5 99 3e 65 66 8b 3e bf 72 94 be 95 8a b8 be
       0.30046052 0.27226558 -0.28993794 -0.3604323
000300 12 bf 7a be 72 8e 10 3e a7 14 d8 3e e4 2d 09 3d
       -0.2448695 0.14116839 0.42203256 0.03349103
000310 07 cc 02 be f1 7a 1a be 26 a6 a8 be e1 28 e3 3e
       -0.12773143 -0.15085961 -0.3293926 0.44367126
000320 c5 11 04 3b d1 e3 b4 be b9 2b 9e be 5f ba 8d 3e
       0.0020152193 -0.3533006 -0.30892733 0.27681252
000330 28 d5 5f 3e 70 d2 95 3e cf f5 34 bd 5a 07 ad bd
       0.21858656 0.29262114 -0.044179734 -0.08448668
000340 95 17 0c 3e 51 47 76 bc 4f a5 10 be 4b a9 da 3d
       0.13680871 -0.015031652 -0.1412556 0.10676821
000350 23 c5 82 be ce c8 9f be 98 0c c9 bd ae ec a2 be
       -0.25541028 -0.3120789 -0.09816855 -0.31821197
000360 f5 4e 3e 3c e2 ec 8e 3d 27 b9 e0 3e 8e 95 04 3e
       0.0116155045 0.069787756 0.4389126 0.12947676
000370 3c 20 6d 3b c9 70 a6 be a7 4f 3f be a9 0f 94 bd
       0.0036182543 -0.32507923 -0.18682729 -0.072295494
000380 65 a2 a1 be 6d e2 c4 3d da ea a5 3e 15 79 7e 3e
       -0.3156921 0.096135 0.3240574 0.24850877
000390 27 bc 46 be 4d ca e3 bd b2 8b e6 3e a1 5e 91 bd
       -0.19407712 -0.1112257 0.45028454 -0.07098127
0003a0 eb 91 cb be 1e e8 19 bc 7b c7 7f 3c 2a 58 22 be
       -0.39759764 -0.00939372 0.015611525 -0.15853944
0003b0 af e9 3b bd f7 c5 b8 be 38 4f 03 3e b0 17 a4 be
       -0.045877155 -0.36088535 0.12823188 -0.32049322
0003c0 cc a4 1b 3e 4e e4 ab 3e 35 47 94 be 71 2f 32 be
       0.15199584 0.3357262 -0.28960577 -0.1740091
0003d0 9c 15 41 3d 2c b0 f4 bc e7 32 82 3e 36 e4 9e bc
       0.04713975 -0.029869162 0.2542946 -0.019395929
0003e0 06 bc d8 3d 97 0c c4 bd 4a 8c 10 3e 85 40 0a 3e
       0.105827376 -0.09572714 0.14116016 0.13501175
0003f0 97 6f b9 be 4c 13 73 3e be fb b6 bd 89 ba cf 3e
       -0.3621795 0.2373783 -0.08934735 0.40572003

bias f4 [96]
000000 44 25 c0 be 57 93 94 be 29 a3 97 3d 84 e0 23 3d
       -0.3752843 -0.2901866 0.07404167 0.040009037
000010 33 0a 6b be de 71 98 bd 17 c0 33 bc c5 25 a4 3e
       -0.2295311 -0.074435934 -0.010971091 0.32060066
000020 22 9f d5 be 83 33 4e be ec 1f 9d bd 4a c7 97 bd
       -0.4172297 -0.20136838 -0.07672104 -0.07411058
000030 d2 66 71 be 72 24 65 3e 70 5e 2c be d7 93 3c 3d
       -0.23574379 0.22377184 -0.168329 0.04603943
000040 27 ee 81 be 10 e8 e2 3e eb a7 84 be 78 1a c5 bd
       -0.25377008 0.44317675 -0.2590936 -0.09624189
000050 04 58 b7 3e 36 a4 7a 3e 5b 21 cf be 6e 9c 91 3e
       0.35809338 0.24476704 -0.40455136 0.2843966
000060 0b 2e 7e be ab 00 71 bd 59 af 3c 3e 46 85 d7 3c
       -0.24822251 -0.058838528 0.18426265 0.026308667
000070 60 3e b0 3e a3 ac 17 be 0d 6c 9f be b7 49 dc 3c
       0.34422588 -0.1481195 -0.31137124 0.026890619
000080 04 40 1c 3e c6 ad aa 3e 57 4e 67 be d1 5f fe bc
       0.15258795 0.33335704 -0.22588478 -0.031051548
000090 8b de 88 be f9 52 a5 be 89 ab b2 be d1 7a 97 be
       -0.26732287 -0.32289866 -0.34896496 -0.2958589
0000a0 93 75 88 be 32 0e 1b 3e 05 96 5d bd d4 61 8f 3e
       -0.26652202 0.15142134 -0.054098148 0.28004324
0000b0 c3 a4 b0 3e bc 3a af be ba ed ab 3d c2 32 7e 3e
       0.34500703 -0.34224498 0.08394952 0.2482405
0000c0 35 fa b9 be 66 41 22 be 86 01 a7 3e 2a 91 aa be
       -0.36323705 -0.1584526 0.3261835 -0.33313876
0000d0 78 21 cd 3e 78 7a 17 3d 78 cf a1 3d ac fc be 3e
       0.40064597 0.03698203 0.079009 0.37302148
0000e0 9c 55 d6 be ab 36 c3 3e 17 dc d4 be a8 36 56 3e
       -0.4186219 0.38127646 -0.41574165 0.20919287
0000f0 c8 1d a2 bc a4 24 b3 3e 46 73 c5 bb 97 77 e5 be
       -0.019789591 0.34988892 -0.0060257046 -0.44817802
000100 2b 52 6f 3d 9d 89 98 3e ee 1c b7 bd 3a 84 d4 be
       0.05842797 0.2979249 -0.08941065 -0.4150713
000110 f9 8d 87 bd 72 69 f6 3c d8 74 c5 3d 2b f5 11 3e
       -0.06618876 0.030079577 0.09641427 0.1425368
000120 22 28 7b bd 08 e9 b9 bc 65 c8 c9 bd f9 80 2e 3e
       -0.06131757 -0.022694126 -0.09852675 0.17041387
000130 24 e5 d1 3d 00 c2 39 3e 03 4f 2c bd 2e af 2f bd
       0.10248783 0.18140411 -0.04206754 -0.042891674
000140 a2 1f a8 3e 22 30 5d 3d 99 1a d5 be 91 87 c5 3d
       0.32836634 0.05400098 -0.41621855 0.09644998
000150 cb 91 d3 3e 7d 01 af bd 4d bb 89 3e 23 b6 a8 be
       0.4132217 -0.08545206 0.26900712 -0.3295146
000160 60 78 84 bd e4 87 98 3e 0b a6 5e be bd a1 e5 bd
       -0.06468272 0.29791176 -0.21743028 -0.1121249
000170 d9 ad 84 bb 69 26 73 bd 5b e6 05 be e6 51 9d 3e
       -0.0040490446 -0.059362803 -0.13076155 0.30726546

weight f4 [96]
000000 88 c5 7f 3f 54 ed 7f 3f 82 d2 7f 3f e0 66 80 3f
       0.99910784 0.9997151 0.99930584 1.0031395
000010 d1 05 80 3f 57 6b 80 3f cb 7c 80 3f c9 0e 80 3f
       1.0001775 1.0032758 1.0038084 1.0004512
000020 dd 47 80 3f 1d 97 7f 3f ac 22 80 3f 25 4a 80 3f
       1.0021931 0.99839956 1.0010581 1.0022627
000030 ec 5a 7f 3f f3 fd 7f 3f 0a 45 7f 3f 23 bf 7f 3f
       0.9974811 0.9999687 0.9971472 0.99901026
000040 ee 1b 80 3f 97 58 7f 3f 7e ef 7f 3f 09 f8 7f 3f
       1.0008523 0.9974455 0.9997481 0.99987847
000050 0f 1f 7f 3f ef 13 80 3f cb 03 80 3f 67 a2 7f 3f
       0.99656767 1.0006083 1.0001158 0.9985718
000060 d8 e0 7f 3f 00 f8 7f 3f c3 0b 80 3f ca 93 80 3f
       0.9995246 0.9998779 1.0003589 1.0045102
000070 3a 8e 80 3f 0e 65 80 3f 00 38 80 3f bb 31 80 3f
       1.0043404 1.003084 1.001709 1.0015177
000080 76 2e 80 3f 8b 0f 7f 3f 6d 06 80 3f cd 7f 7e 3f
       1.0014179 0.9963309 1.0001961 0.9941376
000090 5c 2c 7f 3f f0 50 80 3f f2 74 7f 3f fb 62 7f 3f
       0.9967706 1.00247 0.9978782 0.9976041
0000a0 ef f8 7f 3f a5 1a 80 3f a2 b3 7f 3f 10 6e 80 3f
       0.9998922 1.0008131 0.9988347 1.0033588
0000b0 ed f0 7f 3f ad 0b 80 3f 96 2a 80 3f 5d 98 7f 3f
       0.99977 1.0003563 1.0012996 0.9984186
0000c0 6c 44 80 3f d4 03 80 3f 2f 8d 7f 3f fe 2c 80 3f
       1.0020881 1.0001168 0.99824804 1.001373
0000d0 34 04 80 3f 3d 75 7f 3f ff 66 7f 3f ed 62 80 3f
       1.0001283 0.99788266 0.99766535 1.003019
0000e0 b7 95 7f 3f 6a 3a 7f 3f be c5 7f 3f ec 10 80 3f
       0.9983782 0.9969851 0.99911106 1.0005164
0000f0 fc 04 80 3f 0e 23 80 3f 25 ca 7f 3f 28 7a 7f 3f
       1.0001521 1.0010698 0.99917823 0.9979577
000100 88 34 80 3f fc da 7f 3f 0d 4d 80 3f 5e ff 7e 3f
       1.0016031 0.9994352 1.0023514 0.9960841
000110 d6 53 80 3f 6b 0b 80 3f 38 fa 7f 3f 17 1b 80 3f
       1.0025585 1.0003484 0.9999118 1.0008267
000120 22 b7 7f 3f 7e c8 7f 3f 84 55 80 3f d7 5f 80 3f
       0.99888813 0.999153 1.0026097 1.0029248
000130 05 8a 7f 3f 11 9e 7f 3f 7a aa 7f 3f c5 ef 7f 3f
       0.99819976 0.99850565 0.998695 0.99975234
000140 94 21 80 3f c5 a8 80 3f 40 d2 7e 3f ed 73 7f 3f
       1.0010247 1.0051504 0.99539566 0.99786264
000150 25 ba 7f 3f 2a 57 7f 3f 9e 54 80 3f 7c 5c 80 3f
       0.9989341 0.99742377 1.0025823 1.0028224
000160 7c 34 7f 3f 18 8a 7f 3f 70 67 80 3f ec 69 80 3f
       0.9968946 0.9982009 1.0031567 1.0032325
000170 e7 23 80 3f 72 4a 80 3f 9f 7f 7f 3f 4f 94 7f 3f
       1.0010957 1.0022719 0.9980411 0.99835676

bias f4 [96]
000000 79 d2 8e 36 63 c7 2d ba 68 98 26 b9 a1 af 75 ba
       4.256432e-06 -0.0006629137 -0.0001588777 -0.0009372179
000010 93 4b 99 3a ae 23 b1 39 76 a8 83 3a 5d 62 31 3a
       0.0011695497 0.00033786654 0.0010044712 0.00067666714
000020 d1 fc bd 3a 8e 63 22 3a d7 c2 06 3b a8 d2 01 bb
       0.0014494901 0.00061946444 0.002056291 -0.0019809399
000030 5c 95 46 3b 21 36 28 bb c9 2f 23 bb b5 55 1b b9
       0.0030301427 -0.002566703 -0.0024900308 -0.0001481388
000040 0b 5a 0d 39 2f 7b 48 3b fc 04 fa ba da 54 35 39
       0.00013480351 0.0030591001 -0.0019074972 0.00017293115
000050 e3 89 97 ba b8 5c b5 ba 3b 55 be ba 76 5e 48 3a
       -0.0011561479 -0.0013836836 -0.001452125 0.00076434703
000060 e9 41 a5 3a f7 4a 36 bb 16 6e 0a 3b 78 9d aa ba
       0.0012608144 -0.0027815679 0.0021122745 -0.00130169
000070 d6 98 e4 ba 9e 62 9c 3a 3a 3e 05 bb 9e b6 a2 3a
       -0.0017440568 0.0011931246 -0.002033128 0.0012414043
000080 f9 9f ed b9 b6 5d df b9 4e 44 26 3b 5a 09 33 ba
       -0.00045323352 -0.00042603695 0.0025370303 -0.00068297016
000090 50 dc 2c ba a6 ab 17 3b c7 ad 24 bb e9 e3 18 3b
       -0.00065941084 0.0023143082 -0.0025127993 0.0023329204
0000a0 9f 1a 56 3a 0f 4a 48 3a fa 59 84 b9 af 4d 6c ba
       0.0008167419 0.000764043 -0.0002524404 -0.00090142613
0000b0 e9 62 77 b9 e3 20 9f 3a 8e 04 c3 3a df d6 3e 38
       -0.00023592603 0.0012140538 0.0014878677 4.5499644e-05
0000c0 e8 43 ab b8 45 55 58 bb 50 45 23 bb 99 4f e8 ba
       -8.166564e-05 -0.003300981 -0.002491314 -0.0017723917
0000d0 64 59 0e ba b7 65 07 3b 86 71 ba 37 08 db 81 ba
       -0.00054301904 0.0020659992 2.2225791e-05 -0.0009907195
0000e0 dd 57 f0 ba dd b4 4b ba 3c fb 9b 3a e6 0c 8d 3a
       -0.0018336732 -0.0007770786 0.0011900435 0.001076129
0000f0 95 a1 c9 ba 70 a1 7b 3a cc f8 ac 3a 9a 97 81 b8
       -0.0015383238 0.0009598946 0.0013196706 -6.179437e-05
000100 d8 b4 2c b8 0d 83 83 b9 54 67 70 3a 07 1e 2c 3b
       -4.117642e-05 -0.00025083908 0.00091706705 0.0026263015
000110 55 99 e0 ba 8f 76 a4 3a 11 70 1d bb 6b 3f 19 3b
       -0.001713554 0.001254754 -0.0024023096 0.0023383747
000120 81 96 1b 3b 5b 9b 7a ba c5 da 2c b9 9f 67 e6 b9
       0.002374083 -0.0009559893 -0.00016484696 -0.00043946222
000130 5e 44 e5 3a 36 85 24 ba 85 4c 27 bb ca e9 a1 ba
       0.0017491688 -0.00062759535 -0.0025527787 -0.0012353
000140 90 44 ac b8 f6 4a fe b8 e1 b4 75 ba c4 7a b8 ba
       -8.21437e-05 -0.000121256264 -0.00093729614 -0.0014074673
000150 71 ad 07 ba 58 89 63 3a 83 ee 39 3a f2 b5 41 bb
       -0.0005175686 0.00086798286 0.0007092731 -0.002955791
000160 10 c1 5b ba 05 e2 ce ba 91 80 28 ba 40 b1 e1 3a
       -0.00083829556 -0.0015783912 -0.00064278493 0.0017218962
000170 0b 01 ce 3a 6f 1b 03 ba 8b 1e 78 ba 0e 0f b5 3a
       0.0015716864 -0.00050013413 -0.00094650005 0.0013813691

running_mean f4 [96]
000000 a7 72 9d 3e 65 db ca 3d a7 d1 d1 3e 1a 22 a1 3e
       0.30751535 0.099051274 0.40980265 0.3147133
000010 9f be 37 3e 74 dd d8 3e 20 01 5f 3e f0 d1 02 3f
       0.1794381 0.42356455 0.21777773 0.5110159
000020 ce 05 c2 3c 10 3e c8 3d 29 87 8a 3d 28 45 4c 3e
       0.023684409 0.097774625 0.06764061 0.19948256
000030 25 fe 1c 3d 8a 06 a7 3e b5 69 eb 3d 4a 38 50 3e
       0.03832831 0.32622176 0.114947714 0.20333973
000040 89 7d 98 3d 38 5e e1 3e c6 70 21 3e 46 17 5f 3e
       0.07445819 0.44017196 0.15765676 0.21786222
000050 59 45 d2 3e e8 26 f7 3e ad 14 24 3e ac f8 d4 3e
       0.41068533 0.4827187 0.16023512 0.41595972
000060 b8 a5 1f 3e 15 da cb 3d ae a7 f7 3e 55 68 84 3e
       0.1559056 0.09953705 0.48370117 0.2586085
000070 b2 59 ad 3e f0 2a 83 3d 7f ec 27 3e c6 cf df 3e
       0.33857495 0.06404674 0.1639881 0.43713206
000080 bf 60 9a 3e e7 69 04 3f a3 52 91 3e 31 e6 77 3d
       0.30151936 0.51724094 0.2838336 0.060522262
000090 bf 02 d6 3d 54 a3 54 3e 05 e9 83 3e 1b 60 8e 3c
       0.104497425 0.2076543 0.25763717 0.017379811
0000a0 cb f6 4d 3e 9c e4 59 3e 76 72 b0 3d c5 8d fe 3e
       0.20113675 0.21278614 0.08615582 0.49717537
0000b0 58 9a af 3e 8d cf c1 3d 70 1a af 3e cc 06 7d 3e
       0.34297442 0.09463415 0.34199858 0.24709624
0000c0 7b 5e 2d 3d fb 2f 91 37 ac 08 d0 3e b8 00 62 3d
       0.04232643 1.730769e-05 0.40631616 0.055176467
0000d0 d2 92 f9 3e 04 c7 92 3e a5 d2 09 3e bc aa c3 3e
       0.48744828 0.28667462 0.13459261 0.38216197
0000e0 e2 a5 48 3e 1e 4d fc 3e 00 00 00 00 92 8f b1 3e
       0.1959453 0.49277586 0.0 0.34679848
0000f0 ea 85 90 3e 0c 25 b5 3e cb 26 60 3d 05 3b c5 3c
       0.28227168 0.35379827 0.054724496 0.024075994
000100 c0 09 a7 3e 65 2f b6 3e 44 d2 ac 3e 7d 8f 5d 3d
       0.32624626 0.35583034 0.3375417 0.05409192
000110 4d b2 d0 3d 28 99 35 3e f4 a9 4a 3e ca 11 17 3f
       0.10190258 0.17734206 0.19791394 0.5901152
000120 f0 41 41 3e 57 91 67 3e bb da a1 3d 15 f1 90 3e
       0.1887281 0.22614037 0.07903048 0.2830893
000130 d1 f9 87 3e 77 b2 ff 3e 1a e5 12 3e ea df 99 3e
       0.26557782 0.49940845 0.14345208 0.30053645
000140 db 6c a5 3e 95 db ee 3e ef db 1b 3a 14 6d 59 3e
       0.32309613 0.46651903 0.00059455534 0.21233016
000150 d8 ec 1f 3f 6b a6 79 3e d1 ba dd 3e c6 f6 08 3d
       0.6247077 0.2437989 0.43306592 0.033438466
000160 55 35 49 3e 68 4c ee 3e e0 98 1e 3d 54 d5 5a 3e
       0.19649251 0.46542668 0.03872001 0.2137044
000170 9a b4 0b 3e d8 de 7c 3d ab 0b 0e 3e aa 9a 9c 3e
       0.13643113 0.061735958 0.13871638 0.3058675

running_var f4 [96]
000000 a6 af 30 3e ed 7b 2f 3d d2 4a 44 3e ea d9 20 3e
       0.17254505 0.042842794 0.19169167 0.15708128
000010 8a cc 53 3d 58 7a a7 3e ba 0a 86 3d ea 5f 9e 3e
       0.051708736 0.32710528 0.06545015 0.30932552
000020 44 f0 26 3b e8 b6 be 3c 3f 1b d9 3b de 28 5c 3d
       0.00254728 0.023280576 0.0066255624 0.05374991
000030 2d 7c af 3b 5e 0a d8 3d c0 f2 aa 3c e8 5b 52 3d
       0.005355379 0.105488524 0.020867705 0.05135718
000040 cb 54 73 3c ae 92 f3 3b e5 6f 7e 3d 4d 47 9c 3d
       0.014851759 0.007433257 0.06211843 0.07630787
000050 9f 4c f4 3d 04 0a 82 3e 16 6d 6f 3d 1c 3c 69 3e
       0.11928677 0.25398266 0.05845364 0.22776836
000060 c2 14 13 3d fd 4a da 3c 41 9e 87 3e 89 f8 b4 3d
       0.035908468 0.026647085 0.26487926 0.08836467
000070 7c d1 17 3d a9 e1 36 3c d4 29 50 3d fe f9 84 3e
       0.037065014 0.0111622 0.05082114 0.2597198
000080 2c 13 11 3e 4a 71 66 3e 78 f9 f1 3d 62 8a 8e 3b
       0.1416747 0.22504154 0.118151605 0.0043499926
000090 aa 0e d9 3c 7b ff cf 3d d8 96 0e 3e cf 5d e9 3a
       0.02649625 0.10156151 0.1392473 0.0017804446
0000a0 28 b5 a3 3d d0 6c 0e 3d 47 e9 77 3c f4 d6 9e 3e
       0.07993537 0.03477174 0.015131301 0.3102337
0000b0 03 51 72 3d 1e b9 a9 3c a1 b6 00 3e 83 58 bd 3c
       0.05915929 0.020718154 0.12569667 0.023113495
0000c0 28 a6 c2 3b 69 cd 1c 35 db b2 a9 3d 0d a5 00 3c
       0.0059402175 5.841344e-07 0.08286067 0.007851851
0000d0 aa 35 e2 3d ce 24 32 3e 06 da 4e 3d 0e 6e 30 3d
       0.11045392 0.17396852 0.050500892 0.043073706
0000e0 5d 44 f7 3d 98 7f 85 3e 00 00 00 00 e6 15 57 3e
       0.12073586 0.2607391 0.0 0.21004447
0000f0 3b 09 fc 3d 93 ce 7b 3d ca c1 3f 3b d3 90 18 3b
       0.12306448 0.0614763 0.0029259794 0.0023279681
000100 b6 dc 18 3e 22 6c c8 3d 15 2c 3f 3e db a6 8c 3c
       0.14927945 0.0978625 0.1866916 0.017169407
000110 49 f5 aa 3c d0 9e 93 3d 46 ed 2f 3d 42 10 d1 3e
       0.020868914 0.072080255 0.04295089 0.40832716
000120 bc e6 79 3d 4d 1b 13 3e 73 f2 b2 3c b3 e3 c5 3d
       0.06101106 0.14365883 0.021844124 0.09662571
000130 eb 98 2e 3e 59 32 8b 3e ff e2 d7 3c 9e b5 15 3e
       0.17050521 0.2718685 0.026353357 0.14620063
000140 5c d7 17 3d ce ef bc 3e 19 b3 0b 39 4b 74 cc 3d
       0.037070617 0.36901706 0.00013322792 0.099831186
000150 bf 8c ef 3e f9 a1 b9 3d c3 1d 5a 3e c9 a9 a7 3b
       0.46787068 0.09064097 0.21300416 0.0051166755
000160 87 f5 9f 3d 7a 07 70 3e 6b 46 73 3b d6 8a a1 3d
       0.078105025 0.23440352 0.003712083 0.07887809
000170 57 8e ae 3c d3 9d 2f 3c ab c1 68 3d 60 62 9b 3d
       0.021308107 0.010718781 0.05682532 0.07587123

weight f4 [256, 96]
000000 0f b9 a3 bc 23 59 d0 bc b2 0b 9a 3d 58 9f b5 3c
       -0.019985704 -0.025433129 0.07521762 0.022170708
000010 16 ac 3f bd a4 23 79 3d 3f 97 52 bd cc 8a d0 3d
       -0.046794973 0.060825005 -0.05141377 0.101827234
000020 8a 94 a9 3d da ed 06 3c 49 50 eb 3c e0 44 2a bd
       0.08280285 0.008235419 0.028724806 -0.04156959
000030 52 fe a2 bd 76 98 96 bd c0 fb 06 3d 79 e7 48 3d
       -0.07958664 -0.07353298 0.03295493 0.049048875
000040 e9 eb 35 bb 73 5d 06 bd 04 d2 0c bd c6 7f 62 bd
       -0.0027759022 -0.032803964 -0.034379974 -0.055297635
000050 df a1 80 bd 3a f8 8a 3d a6 be b5 bd a4 06 99 3d
       -0.062808745 0.06785627 -0.08874254 0.0747197
000060 53 1b 67 3d e3 5b dc bc b5 ef 5a bc 80 62 13 bd
       0.056422543 -0.026899284 -0.013362815 -0.03598261
000070 53 3b ae bd 24 1c d5 3b d4 c7 a3 bd 26 30 40 3b
       -0.08507409 0.0065035988 -0.079970986 0.0029325574
000080 41 a9 0d bd 3f 5a a4 bd ee 8c c1 bd b1 85 b9 3d
       -0.03458524 -0.080250256 -0.09450708 0.09058703
000090 14 78 a5 3d bd ad bd 3d 48 4c 18 3d 99 e2 36 3d
       0.08079544 0.092616536 0.037182122 0.044649694
0000a0 53 30 4b 3d 73 17 9b 3d 52 a3 66 3c 56 e4 2e 3c
       0.049606632 0.07572832 0.014077025 0.010674557
0000b0 e3 83 98 3d c0 1f 3a 3d 45 a7 7d bd b5 0b 8c 3d
       0.074470304 0.045440435 -0.0619271 0.068381704
0000c0 c9 ee c8 3d 85 ac 18 bd 52 4a c4 bd 79 48 8b bc
       0.0981117 -0.037273902 -0.09584488 -0.017002331
0000d0 10 53 89 bd 53 3f d1 3d 6b 57 a0 bc 56 90 5b bd
       -0.06705296 0.10217156 -0.019572934 -0.053604446
0000e0 f9 98 87 3d c0 51 21 3d a5 b6 f3 3c d6 f5 bc 3d
       0.06620974 0.039384604 0.029750178 0.09226577
0000f0 9c 93 d1 bd b6 8d 4d 3d 4f 83 4c bd 01 21 0b 3d
       -0.102332324 0.050183974 -0.049929913 0.03396702
000100 40 c9 1a bd 3e fe bb 3d 01 36 ae bc 31 94 4c 3c
       -0.037789583 0.09179352 -0.021265985 0.012486503
000110 97 f5 a0 bd 3f 86 7f 3d 63 05 d1 bd ed dd 62 3d
       -0.078593425 0.062383886 -0.102061056 0.055387426
000120 ae 13 96 3d 6e f2 a8 3d a0 0d 84 3d 62 4e 09 bd
       0.07327972 0.08249365 0.06447911 -0.033522017
000130 0e 55 b2 3c 88 ee c8 3c ef 1a c7 bd 35 54 5f 3d
       0.021769073 0.024527803 -0.09721934 0.054523665
000140 9b 9a a8 bd d3 6a 15 3d a7 05 c4 3d 0e 3a df bc
       -0.08232614 0.03647883 0.095713906 -0.027249362
000150 84 bd 64 3c 0b 12 be 3d 07 7b aa 3d 04 d7 ae 3d
       0.0139612 0.09280785 0.08324247 0.08537105
000160 a1 89 8e bd c7 97 a4 3c fd 01 b0 bd 7c 26 90 3c
       -0.069598444 0.020091904 -0.08594129 0.017596476
000170 b8 7c c4 bd a3 af 12 3c 0f c9 57 3d 83 57 ba bd
       -0.09594101 0.008953008 0.05268198 -0.09098723
000180 41 0d 55 bc 59 06 20 bd 7c ca b2 3d 57 9f 41 bc
       -0.013003648 -0.039068554 0.08730027 -0.011817775
000190 96 bc 69 3d c3 cd 9a bd 43 c5 73 3c 39 23 90 3d
       0.057064615 -0.07558777 0.014878574 0.07037968
0001a0 1b ed e8 3b eb c0 0b bd 3a ae 47 bd 76 02 8b 3d
       0.0071083433 -0.034119528 -0.04875014 0.06787579
0001b0 fc b5 22 3d c6 45 a2 3b 32 85 5f 3d 10 81 5a bd
       0.039724335 0.0049521653 0.054570384 -0.05334574
0001c0 dd 21 9d bd 9a 33 a6 bc 65 a1 9c 3d 41 9f d3 bd
       -0.076724745 -0.020288277 0.07647971 -0.1033311
0001d0 90 c4 47 bd 87 8f e6 3c c3 b2 31 3d 87 4b 4e 3d
       -0.04877144 0.028144611 0.04338337 0.050364997
0001e0 57 cb cf 3c d1 42 b4 bd b2 c4 ef bc ab 73 87 3d
       0.025365515 -0.08801807 -0.029268596 0.06613859
0001f0 02 b7 87 3c 2c 94 6c 3d 0c ac a1 3d c2 ff 7b 3d
       0.016566757 0.057758495 0.078941435 0.061523207
000200 03 ab 20 bd ec d8 3c bd 96 17 65 bc 2d 08 55 3b
       -0.03922559 -0.04610531 -0.013982674 0.0032506094
000210 e9 86 4a bc 4b b8 95 bc a2 98 68 3c c1 b5 6e 3d
       -0.012361267 -0.018276354 0.014196547 0.058278803
000220 c3 1a 94 bd ca 48 4a 3d 0f 14 cc bd c3 a9 f3 3b
       -0.07231667 0.049385823 -0.099647634 0.0074360087
000230 72 fb bc bd 97 7c ca 3d 02 8c b4 bd 38 84 77 bd
       -0.09227647 0.09887045 -0.08815767 -0.060428828
000240 c5 9a 94 3d 81 4d 58 3d 67 c9 9e 3d 31 4c a3 3c
       0.072560824 0.05280829 0.07753258 0.019933792
000250 e5 69 c3 bd 23 b6 8d bd a3 9b 97 3d 9d f4 c9 bd
       -0.09541682 -0.069195054 0.07402732 -0.098611094
000260 43 3b bc 3d 35 5f a4 bc f1 07 a4 3c 2a 77 42 bb
       0.09190991 -0.02006493 0.020023318 -0.0029673078
000270 e4 70 b4 bc 5e c7 a4 bc e8 4a 13 3d c5 42 42 bc
       -0.022026487 -0.020114597 0.035960108 -0.011856739
000280 a1 b3 85 3c 14 ee b0 3d 09 dc 47 3c 1d 5c 9d bd
       0.016321005 0.0863916 0.012198457 -0.07683585
000290 0f 3a 99 bd 8b 0a 8b 3d 8d a7 0f 3d dc 8d be 3c
       -0.07481777 0.0678912 0.0350719 0.023261003
0002a0 a9 40 5f bd e0 04 a7 bd 58 41 b9 3d 21 49 ca bd
       -0.054505024 -0.08155227 0.090456665 -0.098772295
0002b0 d9 81 49 bd ef 4f 33 3d 7e 25 ab 3d 83 8a 06 bd
       -0.049196098 0.043777402 0.083567604 -0.03284694
0002c0 a7 fb cc bd f3 b4 bd 3c bf 05 c9 ba 17 fa 56 bc
       -0.100089364 0.023157572 -0.0015336795 -0.0131211495
0002d0 5a 64 b4 bd 65 8b 97 3d 34 97 39 3c 01 af fa 3c
       -0.08808203 0.07399634 0.011327554 0.030601026
0002e0 35 4e 84 3d 42 57 b4 3d 56 97 97 bc d9 c1 43 3c
       0.06460229 0.088057056 -0.01850478 0.011948072
0002f0 1f 2a 91 bd 18 d3 98 bd ed d2 4c bd a6 13 8c 3c
       -0.07088112 -0.07462138 -0.050005842 0.017099213
000300 a9 28 81 bd 5a 1a 65 3d 49 a6 0d 3d c9 91 01 bd
       -0.063065834 0.055933334 0.03458241 -0.031633172
000310 19 cc 4e 3d b3 8c a0 3d ed e2 11 bd 54 f4 70 3d
       0.05048761 0.07839336 -0.035616804 0.05882676
000320 24 70 82 3d f2 48 c7 3d a8 d3 9a bd 4b dd a3 3d
       0.063690454 0.0973071 -0.075599015 0.08001193
000330 9f 32 bc 39 71 cb b0 3b 52 73 03 ba 20 1f 8a bd
       0.0003589587 0.005395346 -0.00050144375 -0.06744218
000340 e4 0c 1a bd 4e 45 ad bd c4 36 3f bc 35 f3 d8 3c
       -0.03760995 -0.084604844 -0.011670772 0.026483158
000350 47 60 97 bd 06 93 26 3d ab 89 cf bd 54 a7 52 3d
       -0.0739141 0.040667556 -0.1013368 0.051429108
000360 c6 75 d0 bd ad 29 94 bb 47 9a 96 3d 65 c3 bf bd
       -0.101787135 -0.0045215697 0.07353645 -0.093634404
000370 60 32 a1 bd 03 68 43 bd b5 4b 29 bd a5 fc 67 bd
       -0.078709364 -0.047706615 -0.041331965 -0.056637425
000380 d4 f3 b6 3d d0 75 99 bd d0 5f 38 3d e4 c2 99 bd
       0.08933225 -0.07493174 0.04501325 -0.075078756
000390 e3 9f 06 bd 10 f6 a3 bd 98 f3 c3 bd b4 56 65 bd
       -0.032867324 -0.08005917 -0.09567946 -0.05599089
0003a0 a2 e8 a4 3b bf 67 5c 3d b5 37 21 3d 91 54 2e 3d
       0.005032615 0.053809877 0.039359767 0.042561118
0003b0 8f b0 ae 3d ca 79 a9 bb 7e b0 c8 3d 8f fb b2 bd
       0.0852977 -0.005171989 0.09799288 -0.08739387
0003c0 b7 e4 47 bd ed 1f a8 bd 21 5c 8f bd 54 e7 9a bd
       -0.048802104 -0.08209214 -0.06999994 -0.075636536
0003d0 87 15 c6 bd 16 60 c3 3d 95 b0 97 3c 3e 27 4b 3d
       -0.09672075 0.09539811 0.018516818 0.04959797
0003e0 f7 67 0c bd 50 7b cf 3c 84 32 60 bd 2b 77 d2 bd
       -0.034278836 0.025327355 -0.054735675 -0.10276636
0003f0 73 10 08 3c 7e 94 7b 3d 7b 3e 8e bc a1 85 00 3d
       0.008304703 0.06142091 -0.017363777 0.03137744

bias f4 [256]
000000 34 37 83 3d 96 00 08 3d 52 86 e0 bc 64 b7 0b bd
       0.064070135 0.033203684 -0.027407799 -0.03411044
000010 8f 91 4c bd f0 7d 86 bd 76 e4 41 bb 1d 59 0a bd
       -0.049943503 -0.065669894 -0.0029585636 -0.03377639
000020 33 8f ac 3d f2 54 97 bd c3 74 a3 bd 02 c7 b6 3d
       0.084257506 -0.07389249 -0.07981255 0.089246765
000030 24 6d 4a bd 95 2e 76 3d be e0 20 3d 59 26 4f bc
       -0.04942049 0.060103018 0.03927683 -0.01264342
000040 ef ea a1 3d d4 27 e0 3a 7a 08 3b bd eb f9 89 3c
       0.07906138 0.0017101713 -0.04566238 0.016842803
000050 53 06 48 3d 50 02 7d 3d b7 10 1b bb 4e 58 39 3d
       0.048834156 0.061769783 -0.0023661086 0.04525023
000060 66 93 77 3d 5a 51 64 bc 7c a4 4b bd 1d ea cb bd
       0.060443304 -0.013935411 -0.04971741 -0.09956763
000070 61 74 99 3d 79 0e cd bc 2c f7 9a 3b 6a c7 16 3d
       0.07492901 -0.025031315 0.004729172 0.03681127
000080 37 41 47 3c 48 d8 cf bd 8c 46 68 3d 06 5c a1 bd
       0.0121615445 -0.10148674 0.056707904 -0.0787888
000090 54 6b 54 3d c9 e7 18 3d 26 e5 9e 3d 75 a3 b7 3c
       0.05186017 0.037330423 0.0775855 0.02241681
0000a0 28 49 ca bc ee 8c 25 bd 3d 79 96 bd ad ae 93 bd
       -0.024693087 -0.040417604 -0.07347343 -0.07211051
0000b0 e6 08 51 bd 68 4e bc 3d 5b 99 13 bc e3 ef 8b 3c
       -0.051033877 0.09194642 -0.009008731 0.01708216
0000c0 60 38 26 bc 2d 59 64 bd 15 62 6f 3d 6a 7f 09 3b
       -0.010145277 -0.055749107 0.058443148 0.0020980486
0000d0 89 9c 3f 3d 44 56 a5 bd 4d 00 e0 3c 5b d5 b0 3d
       0.046780143 -0.080730945 0.027343893 0.08634444
0000e0 71 98 8a bc 7d 44 61 3d 1b a9 0b bd b3 69 c8 bd
       -0.016918393 0.054996956 -0.03409682 -0.097857855
0000f0 00 d5 82 bd 61 87 00 bd e1 67 af 3d 26 de be 3d
       -0.06388283 -0.031379107 0.08564735 0.09319715
000100 7e 71 ee 3c 01 e6 86 3c e3 5d ad bb b7 7e 96 bd
       0.029106852 0.016467096 -0.005290733 -0.07348388
000110 da d8 72 3b fc 80 60 3d 24 8b 95 bd da e5 a5 3d
       0.0037055523 0.05481051 -0.073019296 0.08100481
000120 3d 89 9e 3c 25 b6 80 bd 3c 51 c4 bd 6d 3c 01 bd
       0.01935255 -0.06284741 -0.09585807 -0.031551767
000130 75 32 c9 bd 73 de ef 3c 23 97 68 bd a2 41 cf bd
       -0.09824077 0.029280877 -0.05678476 -0.1011994
000140 ff b0 c7 3d c2 ec 3b 3d 0f ba 45 bd 19 37 c9 3d
       0.09750556 0.045880087 -0.048273142 0.09824962
000150 18 07 96 bc 55 ac ae bc d4 3a ae bd 72 9e 56 3d
       -0.01831393 -0.021322409 -0.08507314 0.0523972
000160 d3 98 11 bd 45 bc a5 3c 32 45 17 3b 74 fb 08 3d
       -0.035546135 0.020231375 0.0023082015 0.03344293
000170 86 6e 31 3c 2a 54 84 3d fc e9 1a bd ff cd 34 3d
       0.0108295735 0.064613655 -0.0378208 0.044141766
000180 de 2c 1a bc ac 76 94 bd 01 45 5a bd f6 30 95 bd
       -0.009410111 -0.07249197 -0.053288464 -0.07284729
000190 95 14 a5 bd ad a1 0b 3d 8b 9a fa 3c d1 d8 79 bc
       -0.08060566 0.034089733 0.03059127 -0.015249447
0001a0 c7 f1 9c 3d 98 13 b0 3c 6a 40 a3 bc 6e 74 9c 3d
       0.07663303 0.021493718 -0.019928176 0.07639395
0001b0 3a 62 c5 3d a5 67 ad 3d 78 41 93 3d 05 79 a9 bd
       0.09637876 0.08467034 0.071902215 -0.08275036
0001c0 73 e7 bb bd e7 f3 6a 3c de 27 91 3d f1 26 7a bd
       -0.09175005 0.014340377 0.07087682 -0.061072294
0001d0 f6 3f 20 3d b1 58 b5 3d 8d 60 48 3d 36 a2 8a bd
       0.039123498 0.08854807 0.048920203 -0.067692205
0001e0 7e bf 69 3d 5d 2a 8f 3c ca 26 c1 3d 85 64 97 3d
       0.057067387 0.017476255 0.094312266 0.073922195
0001f0 fc 06 75 3d 8b 17 cf 3d 4c 27 d0 ba 67 95 18 3d
       0.059821114 0.10111912 -0.0015880852 0.037251856
000200 c5 d5 a3 bd 49 24 92 3d e8 c1 c6 bd 85 74 c4 bc
       -0.07999758 0.07135827 -0.097049534 -0.023981342
000210 37 99 9c bb 74 de 92 3c a4 34 9a bd ba dd 7c 3d
       -0.004779007 0.01792834 -0.07529572 0.061734892
000220 3f 72 75 3d 3d 1a d4 3c f6 f7 75 bd 59 c1 8c bd
       0.059923407 0.025891418 -0.060050927 -0.06872816
000230 59 70 ab bd 7b b7 a9 bd d6 44 95 bd 3e 05 89 bc
       -0.08371038 -0.08286949 -0.0728852 -0.016726132
000240 28 10 9b 3c dc ee c7 3d e4 c6 0d 3d 63 a2 a5 bd
       0.018928602 0.09762356 0.034613505 -0.080876134
000250 dd e5 85 bd bd 59 bf 3d 9f 6e d6 bc d2 7e 41 3a
       -0.065379836 0.09343288 -0.026175795 0.00073812634
000260 56 93 fa bc 07 59 a5 bd 24 35 20 bc e0 7a 39 3c
       -0.030587833 -0.08073621 -0.009778295 0.0113208
000270 c7 b9 e7 bb 07 72 ae bd 91 1b a4 bd 39 d6 23 bc
       -0.007071707 -0.08517843 -0.080130704 -0.009999805
000280 86 87 91 bc 7e 1d 9d bd 35 46 7c bc e6 c6 31 3c
       -0.017764818 -0.07671641 -0.015397598 0.010850644
000290 0d eb 6b 3d f7 52 a3 bd 64 26 80 3d 9e a6 95 bd
       0.05759721 -0.07974809 0.062573224 -0.0730717
0002a0 d1 98 15 3d 0b 05 43 3d 07 5c 98 3c 3b d7 c1 bd
       0.03652269 0.04761223 0.01859857 -0.0946488
0002b0 b9 f6 2a bd 3a 58 39 bd 7b 62 12 bb 80 af 85 3d
       -0.0417392 -0.045250155 -0.002233653 0.065276146
0002c0 66 6e 40 3d fb bb 16 3d 4e 04 a7 3d 83 7b 81 3d
       0.046980284 0.036800366 0.08155118 0.06322386
0002d0 57 e7 c9 3d 15 d6 33 3d 6b db 4c bd 24 c4 c8 3b
       0.09858578 0.043905336 -0.05001394 0.0061268974
0002e0 5d a7 ad bd 6f eb 87 bd a8 1d a0 bd 23 0f 8e 3d
       -0.08479188 -0.06636702 -0.078181565 0.06936481
0002f0 83 18 ec bc 41 a7 be 3d 36 48 0b bd 9d 41 b2 bd
       -0.028820282 0.09309245 -0.034004413 -0.08703921
000300 99 11 35 bd c6 4c ba 3d 10 42 a5 3d 19 aa 9b bd
       -0.044206236 0.090966746 0.08069241 -0.07600803
000310 ef 0e b1 bd 95 7c a9 3d 83 27 cb 3c 52 ef aa ba
       -0.086454265 0.08275715 0.024799114 -0.0013041294
000320 34 73 cb bd da 6d 17 bc cb 8d 04 bd b2 65 22 3c
       -0.099340826 -0.009242499 -0.032361787 0.009911941
000330 4f 7a 32 3d 0a c0 2c bb 9f cd a5 3c b3 c4 92 3d
       0.043573674 -0.0026359581 0.02023965 0.07166424
000340 30 57 9f bc e1 dd 80 3d 88 b1 4c bd 92 a4 3a bd
       -0.019450754 0.0629232 -0.049973994 -0.045567103
000350 34 6b 26 3d db 11 41 3d 6d 13 c2 3d 0b f1 93 bd
       0.04062958 0.04713617 0.094763614 -0.0722371
000360 0a c6 67 bd 88 cc b7 3d 9a a8 87 39 50 89 cd 3c
       -0.05658535 0.08974558 0.00025874824 0.02508989
000370 cb 94 ed bc d0 29 58 3d ac 66 b4 3d b2 a9 aa bd
       -0.029001614 0.05277425 0.088086456 -0.08333148
000380 de 94 a1 3d 68 8e c3 3d b2 d0 4a bd a1 fd 44 3c
       0.07889722 0.09548646 -0.049515434 0.0120233605
000390 5e 29 a7 3d c7 0f cd bd ef 11 59 bd 0b 82 83 bc
       0.08162187 -0.10012775 -0.05299562 -0.01605322
0003a0 62 3f 7a 3d c0 1d 92 bd 0c 9e 9e bd 1c 14 8a 3d
       0.061095603 -0.071345806 -0.07744989 0.06742117
0003b0 3d 26 bb bd e8 6a c9 3d 35 e9 1f bd bb 50 b7 3c
       -0.09138153 0.09834844 -0.039040763 0.022377362
0003c0 f8 92 ac bc 39 26 f0 3c 8f ea 54 bd bb c8 0c bc
       -0.021066174 0.029315101 -0.051981505 -0.00859278
0003d0 34 d7 fc ba 37 be 03 3d a7 11 97 bd 44 fb a0 bd
       -0.001929021 0.032163825 -0.07376414 -0.07860425
0003e0 0f 9a c6 bd 63 2e 96 3d a1 ce 11 bd b0 8e de bc
       -0.09697353 0.07333066 -0.035597447 -0.027167648
0003f0 23 ac 83 3d b0 62 83 3d db 15 e9 3b c2 46 da 3b
       0.06429317 0.064153075 0.007113201 0.006661267

weight f4 [256]
000000 36 f9 7f 3f ed f6 7f 3f 68 f6 7f 3f a8 20 80 3f
       0.9998964 0.99986154 0.9998536 1.0009966
000010 64 92 7f 3f d0 ee 7f 3f 05 13 80 3f 2a 12 80 3f
       0.9983275 0.99973774 1.0005804 1.0005543
000020 f6 14 80 3f f5 0a 80 3f 5a d9 7f 3f 30 32 80 3f
       1.0006397 1.0003344 0.9994103 1.0015316
000030 76 b3 7f 3f 13 b3 7f 3f 8b ca 7f 3f 9d 1f 80 3f
       0.9988321 0.9988262 0.9991843 1.0009648
000040 9d 0b 80 3f d4 4a 80 3f df 06 80 3f b6 d8 7f 3f
       1.0003544 1.0022836 1.0002097 0.9994005
000050 cd a3 7f 3f 04 fd 7f 3f b6 ca 7f 3f 1a 4e 80 3f
       0.99859315 0.99995446 0.9991869 1.0023835
000060 6d 09 80 3f b7 27 80 3f 9c 0a 80 3f 38 0d 80 3f
       1.0002877 1.001212 1.0003238 1.0004034
000070 49 06 80 3f 3a 09 80 3f 12 20 80 3f ed b3 7f 3f
       1.0001918 1.0002816 1.0009787 0.9988392
000080 bf d7 7f 3f 99 b6 7f 3f 01 14 80 3f 4e dc 7f 3f
       0.9993858 0.99887997 1.0006105 0.99945533
000090 7e e9 7f 3f 76 ed 7f 3f 1d 27 80 3f 25 09 80 3f
       0.99965656 0.9997171 1.0011936 1.0002791
0000a0 71 1b 80 3f 57 29 80 3f 0b 08 80 3f a2 24 80 3f
       1.0008374 1.0012616 1.0002455 1.001118
0000b0 a8 0f 80 3f 57 93 7f 3f e8 cb 7f 3f 72 e0 7f 3f
       1.0004778 0.998342 0.9992051 0.9995185
0000c0 42 b7 7f 3f a3 46 80 3f 7b 0d 80 3f 53 36 80 3f
       0.99889004 1.0021557 1.0004114 1.0016578
0000d0 ff 1c 80 3f 3f e6 7f 3f cf b0 7f 3f 8f 0f 80 3f
       1.0008849 0.999607 0.99879164 1.0004748
0000e0 74 b9 7f 3f e1 18 80 3f c2 1c 80 3f 8a 01 80 3f
       0.99892354 1.0007592 1.0008776 1.000047
0000f0 e5 c7 7f 3f 6d 07 80 3f df 10 80 3f 36 21 80 3f
       0.9991439 1.0002266 1.0005149 1.0010135
000100 31 af 7f 3f 4a e5 7f 3f 4c 18 80 3f f8 73 7f 3f
       0.99876696 0.9995924 1.0007415 0.9978633
000110 ed af 7f 3f 2b d4 7f 3f be 2e 80 3f ef 38 80 3f
       0.99877816 0.9993312 1.0014265 1.0017375
000120 2c 0f 80 3f f3 91 7f 3f 23 c4 7f 3f fd f0 7f 3f
       1.000463 0.99832076 0.99908656 0.99977094
000130 d4 9b 7f 3f 0c f0 7f 3f b7 d8 7f 3f 2d ea 7f 3f
       0.9984715 0.9997566 0.99940056 0.999667
000140 85 ac 7f 3f 82 5d 7f 3f 8c c3 7f 3f 47 01 80 3f
       0.9987262 0.99752057 0.99907756 1.000039
000150 09 02 80 3f 85 d4 7f 3f 00 28 80 3f 61 01 80 3f
       1.0000621 0.99933654 1.0012207 1.0000421
000160 23 16 80 3f 1d 2a 80 3f 67 f4 7f 3f 1c e8 7f 3f
       1.0006756 1.0012852 0.99982303 0.99963546
000170 a7 09 80 3f 71 09 80 3f 49 06 80 3f 51 c4 7f 3f
       1.0002946 1.0002881 1.0001918 0.9990893
000180 6d 26 80 3f 3d bc 7f 3f c5 04 80 3f 49 b3 7f 3f
       1.0011727 0.99896604 1.0001456 0.9988294
000190 b2 3a 80 3f 77 12 80 3f 7b ed 7f 3f 50 2d 80 3f
       1.0017912 1.0005635 0.9997174 1.0013828
0001a0 b8 18 80 3f 02 18 80 3f 5d 03 80 3f 79 bd 7f 3f
       1.0007544 1.0007327 1.0001026 0.9989849
0001b0 a7 97 7f 3f eb f4 7f 3f 2f 14 80 3f 89 fb 7f 3f
       0.9984078 0.9998309 1.000616 0.9999319
0001c0 80 ff 7f 3f 9f c6 7f 3f 99 00 80 3f a5 25 80 3f
       0.9999924 0.99912447 1.0000182 1.0011488
0001d0 ab f4 7f 3f 51 a3 7f 3f 82 08 80 3f e7 0e 80 3f
       0.9998271 0.99858576 1.0002596 1.0004548
0001e0 d5 02 80 3f af 70 7f 3f 9c 9d 7f 3f 3d 0c 80 3f
       1.0000864 0.99781317 0.9984987 1.0003735
0001f0 10 23 80 3f ad ea 7f 3f 45 48 80 3f 52 0d 80 3f
       1.00107 0.9996746 1.0022055 1.0004065
000200 6a b0 7f 3f 7a 27 80 3f 4f 0b 80 3f 64 e7 7f 3f
       0.9987856 1.0012047 1.0003451 0.9996245
000210 20 43 80 3f 6f 8e 7f 3f 52 35 80 3f fb f4 7f 3f
       1.0020485 0.9982671 1.0016272 0.99983186
000220 a7 d8 7f 3f c4 0d 80 3f 8d 86 7f 3f d9 09 80 3f
       0.9993996 1.0004201 0.99814683 1.0003005
000230 78 21 80 3f ba c0 7f 3f 3b 1a 80 3f 23 32 80 3f
       1.0010214 0.9990345 1.0008005 1.00153
000240 f4 c1 7f 3f 82 17 80 3f bf 02 80 3f e6 23 80 3f
       0.99905324 1.0007174 1.0000838 1.0010955
000250 6a 0c 80 3f 26 26 80 3f 42 cc 7f 3f 78 7c 7f 3f
       1.0003788 1.0011642 0.9992105 0.997993
000260 e6 b3 7f 3f d8 1a 80 3f 7b 43 80 3f d4 0b 80 3f
       0.9988388 1.0008192 1.0020593 1.000361
000270 af fa 7f 3f 50 09 80 3f f3 ba 7f 3f 6f 58 80 3f
       0.9999189 1.0002842 0.99894637 1.0026988
000280 32 0c 80 3f d4 4b 80 3f 10 e8 7f 3f 19 08 80 3f
       1.0003722 1.0023141 0.99963474 1.0002471
000290 ff d1 7f 3f e9 d8 7f 3f 3f c3 7f 3f 8b b4 7f 3f
       0.99929804 0.99940354 0.99907297 0.9988486
0002a0 a1 f7 7f 3f de ec 7f 3f 4e fc 7f 3f 46 06 80 3f
       0.99987227 0.99970806 0.9999436 1.0001915
0002b0 5f fa 7f 3f a2 05 80 3f 6e a4 7f 3f 81 09 80 3f
       0.9999141 1.0001719 0.99860275 1.00029
0002c0 3a c6 7f 3f fb ff 7f 3f 38 09 80 3f e6 8a 7f 3f
       0.99911845 0.9999997 1.0002813 0.9982132
0002d0 15 b2 7f 3f 56 c6 7f 3f 7f 01 80 3f 77 23 80 3f
       0.99881107 0.9991201 1.0000457 1.0010823
0002e0 ad e1 7f 3f f0 17 80 3f 9f de 7f 3f eb 97 7f 3f
       0.9995373 1.0007305 0.9994907 0.99841183
0002f0 2a fa 7f 3f 7f 68 7f 3f bb e8 7f 3f f0 c6 7f 3f
       0.99991095 0.99768823 0.99964494 0.9991293
000300 62 03 80 3f 6e f6 7f 3f 7f 14 80 3f a3 aa 7f 3f
       1.0001032 0.99985397 1.0006255 0.99869746
000310 a1 f7 7f 3f 64 38 80 3f 48 74 7f 3f 80 0b 80 3f
       0.99987227 1.0017209 0.99786806 1.000351
000320 26 4c 80 3f 2a 06 80 3f 8c 2f 80 3f 55 90 7f 3f
       1.0023239 1.0001881 1.001451 0.9982961
000330 bd f4 7f 3f f0 90 7f 3f bb 0d 80 3f 9e db 7f 3f
       0.99982816 0.9983053 1.000419 0.99944484
000340 a2 36 80 3f e8 02 80 3f 4c 03 80 3f cf b4 7f 3f
       1.0016673 1.0000887 1.0001006 0.99885267
000350 87 a7 7f 3f a4 f8 7f 3f 67 80 7f 3f c0 c3 7f 3f
       0.99865 0.9998877 0.998053 0.99908066
000360 d0 0a 80 3f cf 1a 80 3f 2d 2c 80 3f 12 17 80 3f
       1.00033 1.0008181 1.0013481 1.000704
000370 3b 45 80 3f b1 e6 7f 3f 1b 14 80 3f 24 03 80 3f
       1.0021127 0.9996138 1.0006136 1.0000958
000380 26 ee 7f 3f 38 0c 80 3f 4a 12 80 3f 92 15 80 3f
       0.9997276 1.0003729 1.0005581 1.0006583
000390 af 0b 80 3f f2 fb 7f 3f be c1 7f 3f f7 0e 80 3f
       1.0003566 0.99993813 0.99905 1.0004567
0003a0 45 11 80 3f 12 3d 80 3f 4c 2a 80 3f 35 27 80 3f
       1.000527 1.0018637 1.0012908 1.0011965
0003b0 db f1 7f 3f c9 9f 7f 3f 89 5f 80 3f 0f f9 7f 3f
       0.9997842 0.9985319 1.0029155 0.9998941
0003c0 8d 69 7f 3f 0b f4 7f 3f b5 0e 80 3f 66 bc 7f 3f
       0.9977043 0.99981755 1.0004488 0.9989685
0003d0 71 13 80 3f 63 eb 7f 3f eb a1 7f 3f d7 d5 7f 3f
       1.0005933 0.99968547 0.9985644 0.9993567
0003e0 eb df 7f 3f 2d a8 7f 3f 97 9f 7f 3f 83 04 80 3f
       0.99951047 0.9986599 0.9985289 1.0001377
0003f0 63 40 80 3f 76 e2 7f 3f aa c7 7f 3f dc 46 80 3f
       1.0019649 0.99954927 0.9991404 1.0021625

bias f4 [256]
000000 7c 71 b4 b8 cf b5 ea 39 07 0f 02 bb 0d da 6d 3a
       -8.604207e-05 0.00044767416 -0.0019845383 0.00090733246
000010 cf 7e 8d 3a 7c 55 ea b8 d8 08 2d ba 06 de 8f b9
       0.0010795238 -0.00011173912 -0.0006600744 -0.00027440506
000020 65 81 e6 b9 ef 1e 0c 3a aa c0 17 39 d2 01 0e ba
       -0.00043965425 0.00053451856 0.00014472255 -0.00054171414
000030 26 e2 33 b9 2d 1a 68 38 80 af 27 3a 0c b0 eb ba
       -0.00017155017 5.533749e-05 0.0006396696 -0.0017981543
000040 47 41 4d 39 aa b1 03 bb 13 b4 9d ba ba 6e aa 39
       0.00019574641 -0.002009491 -0.0012031816 0.00032507424
000050 9a 2d c6 39 92 8a ab 39 77 6b 94 3a 7c 7a 74 ba
       0.0003779948 0.00032718905 0.0011323531 -0.0009326113
000060 f4 4d fb b9 7f 9d a0 ba 0e e7 e0 39 f2 9f 77 b9
       -0.0004793253 -0.0012253969 0.00042896759 -0.0002361534
000070 f5 33 36 39 df 7e 43 3a ed 79 00 b9 99 6d 96 b9
       0.00017376228 0.0007457565 -0.00012252452 -0.00028691886
000080 e3 2b 3b 39 a3 b0 19 39 ea 35 66 3a 7f 35 0b 3b
       0.00017850059 0.0001465702 0.00087818375 0.0021241603
000090 a7 dd 5b 3a 08 6a 43 3a f8 9b b1 b8 3f 8e 3a b9
       0.0008387216 0.00074544596 -8.469069e-05 -0.00017791333
0000a0 fd e0 03 b9 0a e1 37 b9 3b c0 22 38 8e be 62 39
       -0.00012576948 -0.00017536074 3.880284e-05 0.00021624027
0000b0 b3 8d e8 b9 b5 fd 12 3a 71 96 31 ba 01 e6 31 ba
       -0.00044356062 0.00056072633 -0.00067744317 -0.00067862874
0000c0 aa 3c bc b9 f7 80 12 bb a4 9f 9b ba ba e5 49 3a
       -0.00035903353 -0.00223547 -0.0011873138 0.00077017734
0000d0 35 49 07 bb df 7e 12 3a e3 13 b8 38 5e 8f d8 39
       -0.0020643 0.0005588363 8.777508e-05 0.00041305547
0000e0 dc 20 c1 3a 45 3a 80 b8 45 72 36 39 81 85 b4 3a
       0.0014734524 -6.114369e-05 0.00017399441 0.0013772697
0000f0 02 22 e8 38 a6 b7 8b 3a 72 c7 57 3a a1 2a 48 ba
       0.000110689565 0.001065959 0.0008231319 -0.0007635747
000100 7e 4f 86 ba 34 b8 0b b9 43 94 5b 3a 2e 7a aa b9
       -0.0010247079 -0.00013324694 0.000837628 -0.00032515958
000110 09 76 9a 39 73 49 ee 39 c1 56 96 39 da 5d 8a b9
       0.00029461112 0.0004544962 0.00028674866 -0.00026391336
000120 eb e3 81 39 f6 92 0e 39 25 4e 91 b7 e1 f8 13 ba
       0.0002477461 0.00013596923 -1.7321736e-05 -0.0005644691
000130 86 8a 1f 3a cb 68 1e ba 02 bf dd 39 6f c9 ce 38
       0.000608601 -0.0006042837 0.00042294717 9.8603654e-05
000140 49 e1 1d 39 c7 54 85 3a e6 86 5c b8 b9 46 a5 39
       0.00015056612 0.001017236 -5.257772e-05 0.00031523945
000150 79 61 b7 3a b6 d5 8f ba fc df 13 b9 82 e1 e3 39
       0.0013990841 -0.0010973725 -0.00014102453 0.0004346483
000160 be b2 4b ba d9 0e be b8 ff 9b 2d ba 42 4f 7b b9
       -0.000777047 -9.0626716e-05 -0.00066226715 -0.00023966751
000170 1f 92 da 3a 57 25 f0 39 f6 0c f6 b7 ed ef fa 39
       0.0016675628 0.00045804188 -2.933152e-05 0.00047862474
000180 17 dd a7 b7 94 e9 8e 3a f2 e2 23 38 18 3d ac 39
       -2.0010904e-05 0.0010903352 3.9073588e-05 0.00032851915
000190 65 f1 bf b9 1b 88 2b ba 51 d4 78 ba b7 45 d4 39
       -0.00036610212 -0.00065434136 -0.0009492087 0.00040487733
0001a0 49 65 6f 3a 00 fe a8 39 2f 28 97 39 42 f7 9c 3a
       0.0009132219 0.00032232702 0.00028830903 0.0011975544
0001b0 7d 64 71 38 c4 91 ac 38 c5 6c f7 b8 6a d8 ab b9
       5.7552465e-05 8.22875e-05 -0.00011798138 -0.00032776903
0001c0 0f bd 65 ba 14 20 5d 39 3a 1b 53 38 0b c2 af 38
       -0.00087638287 0.00021088152 5.0331677e-05 8.3807936e-05
0001d0 30 d7 47 ba 47 30 d0 3a cf 4c 51 ba 4b 10 88 39
       -0.0007623313 0.0015883528 -0.00079841627 0.0002595208
0001e0 f9 cd b9 b8 bb 84 8c ba 92 b8 89 39 e3 d2 06 3a
       -8.859853e-05 -0.0010720709 0.00026268192 0.0005143119
0001f0 68 3a 62 39 24 c7 e2 3a 8b 80 32 b7 dd 20 f3 38
       0.00021574798 0.001730178 -1.06395555e-05 0.00011593264
000200 33 2b c8 b7 da 42 1a ba 15 56 46 ba f1 31 a9 ba
       -2.3861974e-05 -0.00058845954 -0.0007565928 -0.001290856
000210 c9 30 36 ba 30 88 35 b8 3e 3e d4 3a 44 0d 92 3a
       -0.00069500186 -4.3280597e-05 0.0016192866 0.001114287
000220 ab 1c 14 b6 ad a2 b5 b9 59 bf 10 ba ef c5 69 ba
       -2.2070406e-06 -0.00034644213 -0.0005521677 -0.0008917739
000230 31 c7 db 39 4c 19 1a b8 41 2e b9 3a 7f 8d 1b ba
       0.00041919344 -3.674002e-05 0.0014128165 -0.00059338653
000240 61 ea 4b ba 57 48 0f 3a ef 6e cc b9 bf 7d 66 ba
       -0.00077787606 0.00054657966 -0.00038992564 -0.00087925413
000250 66 10 73 b9 c4 6d 3c 3a b3 3f d0 39 f1 00 a8 ba
       -0.00023180395 0.0007187987 0.0003972031 -0.0012817663
000260 b5 05 96 b8 bd d5 a6 3a e6 59 58 ba b6 dc 90 39
       -7.1536204e-05 0.0012728494 -0.0008253142 0.00027630263
000270 5c 82 89 ba 28 b8 45 b9 a0 dc 9d b8 be 7f 28 b9
       -0.0010491121 -0.00018855988 -7.527438e-05 -0.00016069316
000280 bd d7 e6 38 a5 bb 45 3a f9 fa 2d 3a 35 5c b6 3a
       0.00011007439 0.0007542915 0.0006636824 0.0013912978
000290 3e a5 35 b9 6c 91 0c 3a 7d 4d af 38 e9 90 8a 3a
       -0.00017323063 0.0005362246 8.3590836e-05 0.0010571751
0002a0 f7 1f 87 3a 60 cc 42 ba fa 0a 73 b9 ba d9 87 3a
       0.0010309209 -0.0007430967 -0.00023178375 0.001036457
0002b0 42 7f 24 ba 6f f1 aa b9 50 08 59 b9 95 4d 03 bb
       -0.00062750664 -0.0003260481 -0.0002069783 -0.0020035256
0002c0 f0 6b 7f b9 7a 88 7d b9 4d e0 26 b9 20 2d 49 3a
       -0.00024358905 -0.00024178802 -0.00015914552 0.00076742657
0002d0 51 e3 85 3a 4f d2 1f ba a9 52 8b b9 c9 1b cd 3a
       0.001021484 -0.0006096707 -0.00026573733 0.0015648539
0002e0 98 92 aa 3a 61 f6 84 ba 41 e2 5e ba 01 84 ee ba
       0.0013013659 -0.0010144227 -0.00085023424 -0.0018197299
0002f0 2f 01 7a 3a fd 19 3b 37 9e f7 b3 39 0a 7d 12 ba
       0.00095369195 1.1152119e-05 0.0003432603 -0.000558809
000300 fd 6e a1 39 b2 96 c5 b8 f3 a5 53 ba e6 36 a4 3a
       0.00030791006 -9.421761e-05 -0.00080737396 0.0012528568
000310 5b 05 88 b9 3c ef be 39 09 8c 56 ba f5 d5 95 ba
       -0.00025943932 0.00036417868 -0.0008184319 -0.0011431562
000320 ce ba 2d 3a a8 c6 12 ba 2e 27 8f b7 dd 97 dc b9
       0.00066272623 -0.000559906 -1.7065173e-05 -0.00042074817
000330 48 1f c0 b9 38 00 b6 b8 76 7f c4 39 86 32 57 38
       -0.000366444 -8.678477e-05 0.00037479 5.1307048e-05
000340 cd 51 04 b9 14 84 15 ba d7 01 e0 b8 73 32 7e b9
       -0.00012618974 -0.000570358 -0.00010681495 -0.00024242121
000350 7f 4a 54 b7 97 f2 1c ba 48 9c ed b9 74 26 ae 39
       -1.265353e-05 -0.00059870764 -0.000453206 0.00033216516
000360 ad db d2 b9 d1 88 22 3a cb 9b aa ba 7e 05 1c ba
       -0.00040217993 0.0006200197 -0.0013016401 -0.0005951746
000370 a5 fb 6d ba 4b ed 63 3a cf d7 84 3a 83 03 b6 3a
       -0.00090783305 0.0008694722 0.0010135117 0.0013886545
000380 bc 5f 90 3a cb 95 91 39 70 80 3c ba 0b 35 a6 3a
       0.0011014859 0.0002776816 -0.00071907695 0.0012680603
000390 bf e1 c0 b5 61 6d da b7 5d 13 b6 3a db b3 47 ba
       -1.4370816e-06 -2.6038559e-05 0.0013891269 -0.0007618048
0003a0 12 59 b6 b9 1e d1 1a ba bb a2 c8 b9 6e ee b9 3a
       -0.00034780108 -0.00059057947 -0.00038268216 0.0014185437
0003b0 14 2d 33 ba fb 95 22 b9 6d 50 98 39 83 af 1c 3a
       -0.0006835025 -0.00015505396 0.0002905162 0.0005977081
0003c0 7a dd 04 3b 19 49 a3 37 bf c2 3a ba 2f c2 a3 b8
       0.0020273612 1.9465153e-05 -0.00071243563 -7.808615e-05
0003d0 52 b6 1c 3a 46 2c 49 3a 57 39 80 3a 29 a8 28 3a
       0.00059780956 0.0007674139 0.0009782714 0.0006433749
0003e0 94 4a 95 ba 8c f9 76 3a 13 6a 80 3a f2 62 4a 3a
       -0.0011390024 0.00094213407 0.0009797238 0.00077204325
0003f0 d7 60 b2 39 22 cf a7 3a 7d 31 14 3a fb f1 59 3a
       0.00034022957 0.0012802819 0.0005653126 0.0008313951
