statedicts/torchscript_pl_db_analytical_db_n_b-3_n_s-9_n_m-3_T0_n_t-120000_rand_phi_off_rand_psi_s_rand_d_s_r_b2_seed_0.pt (torch, 228657 bytes, 29 tensors)

weight f4 [13]
0.22826275 0.9449452 0.5395524 0.7680087 0.5410848 1.5112709 0.84458023 1.1552109
0.94295794 1.4772243 0.7718418 1.1077039 0.92434776
00000000: b6bd 693e eee7 713f 1b20 0a3f 389c 443f
00000010: 8984 0a3f 5371 c13f 6936 583f f3dd 933f
00000020: b165 713f b015 bd3f 6d97 453f 3ec9 8d3f
00000030: 0ea2 6c3f

bias f4 [13]
0.029941747 0.088503316 0.08000394 -0.068154275 -0.043306325 0.43402237 0.047091275 -0.2809666
-0.003061757 0.22886012 0.0054694745 0.2714527 0.017594019
00000000: 6548 f53c 3a41 b53d 1bd9 a33d 7894 8bbd
00000010: f961 31bd 2e38 de3e c8e2 403d dbda 8fbe
00000020: c2a7 48bb 4f5a 6a3e 4739 b33b d9fb 8a3e
00000030: 5521 903c

running_mean f4 [13]
1.5730575 0.16392201 2.34596 2.6286497 0.37478384 0.057811882 2.7448492 2.8285675
0.27375424 0.057814457 2.744458 0.31337696 2.8679118
00000000: f359 c93f 2cdb 273e 3524 1640 cc3b 2840
00000010: abe3 bf3e 27cc 6c3d 9cab 2f40 4007 3540
00000020: 8429 8c3e dace 6c3d 33a5 2f40 f272 a03e
00000030: de8b 3740

running_var f4 [13]
0.4077957 4.0831033e-05 0.12594195 0.04714875 0.031573966 4.224845e-06 0.030123768 0.029480042
0.015999146 4.221714e-06 0.03025411 0.029456241 0.016072825
00000000: 99ca d03e fd41 2b38 edf6 003e 0c1f 413d
00000010: b453 013d 24c3 8d36 1fc6 f63c 2180 f13c
00000020: a410 833c 3fa8 8d36 78d7 f73c 374e f13c
00000030: 28ab 833c

weight f4 [96, 13]
0.054106332 -0.08249995 -0.065446384 0.035949282 -0.031770006 -0.1566021 -0.104425445 0.054513264
-0.16012697 -0.26087514 -0.044425882 -0.100043595 0.146786 0.09771177 -0.014828416 0.056033716
0.12013438 0.08182004 0.056927077 -0.16167128 -0.28150964 0.11782814 0.2884731 -0.04569539
-0.18963137 -0.006177045 -0.046312958 0.027239123 0.05620043 -0.21968023 -0.055706643 -0.14795732
-0.019861486 0.11446152 0.23170803 0.21528824 0.13038227 0.08070705 -0.19117464 0.1203696
-0.09478393 0.021537814 -0.20627418 0.08755336 0.14554906 0.035808783 0.24044642 -0.26353535
0.16137761 -0.034040395 -0.117684394 0.16042618 0.19920279 0.04430832 0.17280447 0.11512
0.10030975 -0.16610466 -0.13303709 -0.07708612 -0.094821826 -0.35233343 0.2507961 0.2751017
-0.06963481 0.042595062 -0.2280484 0.12417151 0.22761883 0.037281446 -0.027251273 0.025072135
0.012162013 -0.19350305 0.053825118 0.19474767 -0.123567276 0.07838612 0.15911625 0.117113076
-0.15448919 -0.0680658 -0.056862347 -0.01784791 -0.09584911 0.08102681 0.31850043 -0.005732966
-0.15643214 -0.1486168 0.15134045 -0.0066080666 -0.20327155 0.14031883 -0.03054864 -0.07479606
0.41199973 -0.031111632 0.050919138 0.11553224 0.2253547 0.040165216 -0.016543137 -0.08674133
-0.13748516 -0.009452134 -0.07962068 0.18683375 0.020571174 0.26501137 0.10879984 -0.13519557
-0.043953642 0.20960617 -0.04729774 0.23762889 0.12777719 -0.101843715 0.15768899 0.101566985
-0.1818817 -0.030174624 0.1962558 -0.08739467 -0.34248456 0.284917 0.22207355 0.15871464
0.053653713 -0.06818788 -0.25955385 0.0867661 -0.06788415 -0.0474483 0.09839291 -0.14507195
-0.15062617 -0.20920186 -0.0027650378 0.111257635 -0.29170638 0.09447814 -0.04979599 -0.22077882
-0.059253387 0.25049946 0.23388125 0.17299159 -0.12718834 -0.08245648 0.2682853 -0.166529
-0.109343685 0.21438996 -0.25905427 -0.10050491 0.041724283 -0.02474736 -0.04912981 -0.18001549
0.018691916 -0.23989734 -0.23237608 -0.027180595 0.2212062 0.21952659 0.27659675 0.27656078
-0.15475549 0.09711751 -0.21198703 0.022733103 0.09252871 -0.092002444 -0.25129813 -0.10799647
0.17393856 -0.26680538 0.0773572 -0.21467552 -0.14312485 0.017117664 0.06708755 -0.083753005
0.022980597 0.0986768 -0.018355176 0.251716 0.12408794 -0.29005656 0.25031728 0.16564797
0.041968953 -0.16755301 0.023475992 -0.19931757 -0.27084464 0.28885615 0.23914802 0.13281672
0.15326412 0.01780739 0.15282921 -0.045584526 -0.018185096 -0.15539593 -0.07043112 0.25337398
-0.23770098 0.25096792 0.0945132 0.009252755 -0.16188072 0.0017711946 0.17763424 0.28715622
0.1304062 0.32405 -0.0938733 -0.24360843 0.13823617 0.10603002 -0.04256529 0.14934422
0.21640919 0.27956763 -0.08762795 0.08885742 -0.23439728 0.25716296 0.057656925 0.21893762
0.02521339 -0.009654201 0.04878803 0.03706242 -0.014243644 0.0981111 0.08064091 0.13144584
0.08255919 -0.2885518 0.17080872 0.32958347 -0.06261695 0.08808146 0.042134825 -0.0008560277
0.10612846 0.09403128 -0.16737953 0.11279974 0.11477804 0.31899214 -0.004888046 0.39402974
00000000: 9a9e 5d3d bcf5 a8bd c108 86bd 8e3f 133d
00000010: 4421 02bd 4d5c 20be 02dd d5bd 4d49 5f3d
00000020: 53f8 23be 6d91 85be eaf7 35bd a8e3 ccbd
00000030: 124f 163e 1c1d c83d e2f2 72bc 9c83 653d
00000040: 0409 f63d 4491 a73d 5e2c 693d 288d 25be
00000050: 0822 90be e14f f13d bfb2 933e 172b 3bbd
00000060: ba2e 42be cf68 cabb a8b2 3dbd 9524 df3c
00000070: 6c32 663d dbf3 60be a62c 64bd 2082 17be
00000080: 8eb4 a2bc cd6a ea3d df44 6d3e 8574 5c3e
00000090: ee82 053e bd49 a53d 49c3 43be 5684 f63d
000000a0: 141e c2bd 1270 b03c 8a39 53be 2d4f b33d
000000b0: d00a 153e 3bac 123d 9637 763e 1bee 86be
000000c0: 2c40 253e f16d 0bbd 8404 f1bd c346 243e
000000d0: d1fb 4b3e a47c 353d a8f3 303e 09c4 eb3d
000000e0: 336f cd3d 5717 2abe e03a 08be 54df 9dbd
000000f0: f231 c2bd 0c65 b4be 5968 803e 21da 8c3e
00000100: b29c 8ebd 2978 2e3d 8585 69be a24d fe3d
00000110: e914 693e 6eb4 183d 103e dfbc 1464 cd3c
00000120: 2e43 473c aa25 46be ba77 5c3d ef6b 473e
00000130: d710 fdbd e788 a03d 5fef 223e fbd8 ef3d
00000140: 6a32 1ebe 1566 8bbd 7ee8 68bd c835 92bc
00000150: 8a4c c4bd 62f1 a53d 7d12 a33e 9bdb bbbb
00000160: bf2f 20be 012f 18be fef8 1a3e 7b88 d8bb
00000170: 6b26 50be bdaf 0f3e 2441 fabc ad2e 99bd
00000180: a1f1 d23e d2dd febc 9690 503d 2b9c ec3d
00000190: 62c3 663e 4884 243d 7985 87bc 70a5 b1bd
000001a0: e9c8 0cbe 20dd 1abc 2b10 a3bd 5951 3f3e
000001b0: e184 a83c 92af 873e 73d2 de3d b570 0abe
000001c0: bc08 34bd 00a3 563e 46bb 41bd fd54 733e
000001d0: 06d8 023e 7093 d0bd 3979 213e 5a02 d03d
000001e0: 323f 3abe c630 f7bc 48f7 483e fafb b2bd
000001f0: 235a afbe a4e0 913e 4067 633e 1786 223e
00000200: ffc3 5b3d 16a6 8bbd 3ee4 84be 6db2 b13d
00000210: d806 8bbd 2659 42bd 3982 c93d be8d 14be
00000220: bf3d 1abe 0339 56be a335 35bb 0bdb e33d
00000230: 8a5a 95be c17d c13d e1f6 4bbd d813 62be
00000240: aeb3 72bd 7741 803e 917e 6f3e b524 313e
00000250: a93d 02be f1de a8bd b15c 893e 9486 2abe
00000260: 95ef dfbd 0b89 5b3e c3a2 84be 85d5 cdbd
00000270: 15e7 2a3d faba cabc 573c 49bd fb55 38be
00000280: ca1f 993c a6a7 75be fff3 6dbe d7a9 debc
00000290: e183 623e 94cb 603e 179e 8d3e 6099 8d3e
000002a0: 3978 1ebe 8ce5 c63d 2113 59be c63a ba3c
000002b0: b17f bd3d c76b bcbd 26aa 80be 412d ddbd
000002c0: f31c 323e b79a 88be 746d 9e3d e6d3 5bbe
000002d0: 528f 12be 583a 8c3c 3365 893d b286 abbd
000002e0: ce41 bc3c 1017 ca3d 985d 96bc ebe0 803e
000002f0: d121 fe3d 4b82 94be 9629 803e 9f9f 293e
00000300: a3e7 2b3d 0493 2bbe b950 c03c e819 4cbe
00000310: 26ac 8abe f4e4 933e 38e3 743e 1b01 083e
00000320: 45f1 1c3e cee0 913c 437f 1c3e d7b6 3abd
00000330: e9f8 94bc 1c20 1fbe 313e 90bd 3cba 813e
00000340: e367 73be de7e 803e 2390 c13d de98 173c
00000350: 0fc4 25be 6e27 e83a c0e5 353e 2406 933e
00000360: 3489 053e e2e9 a53e a540 c0bd 7d74 79be
00000370: c88d 0d3e 4426 d93d f158 2ebd b1ed 183e
00000380: 5f9a 5d3e 7d23 8f3e 4876 b3bd e1fa b53d
00000390: d705 70be ddaa 833e ab29 6c3d 2f31 603e
000003a0: 508c ce3c a72c 1ebc f5d5 473d c4ce 173d
000003b0: 2c5e 69bc 79ee c83d 1027 a53d bd99 063e
000003c0: cb14 a93d 10bd 93be 7be8 2e3e 2abf a83e
000003d0: 513d 80bd 0d64 b43d 9195 2c3d 0c67 60ba
000003e0: e159 d93d 7993 c03d 8a65 2bbe 8d03 e73d
000003f0: c010 eb3d f052 a33e e72b a0bb 44be c93e

bias f4 [96]
0.32242727 -0.2638866 0.1609947 0.08845877 -0.20755187 0.056167185 -0.104576185 0.14554106
0.06010816 -0.24655578 0.15771365 0.15922932 -0.021151507 0.37307686 0.16829054 0.21357569
-0.075254805 0.052875623 0.08141558 -0.021154601 0.10016838 0.006239065 -0.1721966 -0.065523945
-0.025724066 -0.17062354 -0.13697524 -0.1706313 0.20344336 0.22353269 0.15769517 -0.1881693
-0.08976286 0.0035048528 0.117500365 0.15385297 0.19184351 0.058931638 0.28078446 0.10141925
0.40507957 0.07169864 -0.019842193 -0.14653563 0.01051418 -0.12827267 -0.17564398 0.13205402
-0.11477271 -0.02563065 0.20947511 0.09808159 0.1969804 -0.092578486 0.33639672 -0.21441083
0.015577088 0.103348464 0.17797585 -0.084044166 -0.1893444 0.14203216 0.0275912 0.18551056
-0.009677166 -0.16766004 -0.09054738 0.05695881 -0.05504606 0.034171235 0.044191122 0.08954128
-0.030454975 0.2843334 -0.08190759 0.23676896 0.30437598 0.16583642 -0.021582346 0.008662471
0.012899961 0.22018126 0.0018249059 0.019865265 -0.04576299 -0.19046034 0.03415276 0.14604172
0.011038364 0.1473093 0.07399045 -0.16519573 -0.17185432 0.09236068 0.3110772 -0.15523809
00000000: 3015 a53e 251c 87be cbdb 243e df29 b53d
00000010: 7a88 54be 900f 663d 0a2c d6bd b708 153e
00000020: f933 763d 1e79 7cbe b07f 213e 030d 233e
00000030: ed45 adbc ee03 bf3e 5b54 2c3e 96b3 5a3e
00000040: 311f 9abd 1c94 583d 36bd a63d 6a4c adbc
00000050: 1425 cd3d 1271 cc3b 4e54 30be 6b31 86bd
00000060: 47bb d2bc f0b7 2ebe 3d43 0cbe f9b9 2ebe
00000070: 7553 503e c1e5 643e d87a 213e 74af 40be
00000080: 97d5 b7bd acb1 653b 08a4 f03d a28b 1d3e
00000090: a072 443e 4d62 713d fbc2 8f3e e5b4 cf3d
000000a0: 9766 cf3e bdd6 923d 188c a2bc 700d 16be
000000b0: ab43 2c3c e959 03be 04dc 33be 2b39 073e
000000c0: f40d ebbd 5ef7 d1bc a580 563e 00df c83d
000000d0: 3bb5 493e ca99 bdbd 313c ac3e 838e 5bbe
000000e0: 0b37 7f3c 5ca8 d33d 4d3f 363e 591f acbd
000000f0: 80e3 41be e170 113e f106 e23c 7bf6 3d3e
00000100: fa8c 1ebc 13af 2bbe e870 b9bd a44d 693d
00000110: fa77 61bd 23f7 0b3d c001 353d 6b61 b73d
00000120: b67c f9bc 2694 913e 2bbf a7bd 9073 723e
00000130: 2bd7 9b3e 06d1 293e 76cd b0bc 09ed 0d3c
00000140: 5c5a 533c 3277 613e ae31 ef3a 7bbc a23c
00000150: f971 3bbd 0908 43be c4e3 0b3d f68b 153e
00000160: 41da 343c 40d8 163e 4e88 973d 1229 29be
00000170: 94fa 2fbe 9927 bd3d 8345 9f3e bcf6 1ebe

weight f4 [96]
1.0280344 1.0159053 0.9752835 0.99277467 0.9774354 0.9893558 0.99687177 1.0849748
1.033288 1.00246 0.95744103 0.9552026 0.9799595 1.0181624 1.0232449 0.9889953
0.96705484 0.9665559 1.0386902 1.0456308 0.9967663 1.0561529 1.0194526 0.99954015
0.97752666 1.0404093 0.99319845 0.98798287 0.98993504 1.00529 0.9851847 0.9830564
0.9902879 0.9967042 0.9788021 0.9968927 1.0240957 0.9993573 1.0206865 1.0080965
1.0479456 0.98961616 1.0057946 0.9809076 0.980276 0.99482256 0.96845514 0.9910904
0.9922259 0.9997184 1.0323687 1.0065693 0.99391234 0.98032904 1.0315884 0.9965608
1.0493212 1.0163444 1.0377464 0.98171407 0.9887581 0.9433433 0.9999341 0.981053
1.0024531 0.94093746 1.0138925 0.9786307 0.96281976 0.96731985 0.991214 0.9976587
0.99667704 0.9932846 0.9479192 0.9775299 1.0589119 0.9895403 0.96675855 1.023177
1.0051969 1.022993 1.0108278 1.0008111 0.99520457 1.0015198 1.0207404 1.0386611
1.0049368 0.9845153 0.98884946 0.9759387 0.97092295 0.9819425 1.0212849 1.0203953
00000000: a296 833f 2f09 823f 2eac 793f 7b26 7e3f
00000010: 3539 7a3f 6c46 7d3f fd32 7f3f 74e0 8a3f
00000020: c842 843f 9c50 803f db1a 753f 2888 743f
00000030: a0de 7a3f 2553 823f b0f9 823f cc2e 7d3f
00000040: e890 773f 3570 773f cdf3 843f 3bd7 853f
00000050: 142c 7f3f 0530 873f 6c7d 823f dde1 7f3f
00000060: 303f 7a3f 222c 853f 4142 7e3f 72ec 7c3f
00000070: 626c 7d3f 58ad 803f 1135 7c3f 96a9 7b3f
00000080: 8283 7d3f 0228 7f3f c692 7a3f 5c34 7f3f
00000090: 9115 833f e1d5 7f3f dba5 823f 4e09 813f
000000a0: 1523 863f 7c57 7d3f e1bd 803f c31c 7b3f
000000b0: 5ef3 7a3f b1ac 7e3f adec 773f 1ab8 7d3f
000000c0: 8402 7e3f 8ced 7f3f a824 843f 43d7 803f
000000d0: 0a71 7e3f d8f6 7a3f 170b 843f 9c1e 7f3f
000000e0: 2850 863f 9317 823f e0d4 843f 9d51 7b3f
000000f0: 401f 7d3f f27e 713f aefb 7f3f 4a26 7b3f
00000100: 6250 803f 47e1 703f 3bc7 813f 8b87 7a3f
00000110: 5b7b 763f 46a2 773f 33c0 7d3f 9066 7f3f
00000120: 3a26 7f3f e647 7e3f d5aa 723f 663f 7a3f
00000130: 6d8a 873f 8352 7d3f 7d7d 773f 77f7 823f
00000140: 4baa 803f 6ff1 823f ce62 813f 941a 803f
00000150: bac5 7e3f cd31 803f 9fa7 823f d9f2 843f
00000160: c5a1 803f 3209 7c3f 3d25 7d3f 1ed7 793f
00000170: 688e 783f 9560 7b3f 77b9 823f 509c 823f

bias f4 [96]
-0.008601991 -0.0021458731 0.014633653 -0.010282295 0.0038079945 0.0070211766 -0.004117228 -0.040415134
-0.0016785916 -0.013811403 0.007242847 0.012089965 -0.006947526 0.017521318 -0.00093813933 -0.009105492
-0.01058627 0.0053983144 -0.017363837 -0.03700662 -0.008883884 -0.006661324 -0.009156287 0.013496312
-0.009676593 0.0075392323 -0.0027219574 -0.021715231 -0.0006335449 -0.007877147 -0.013312033 0.006999141
-0.0005384134 -0.003019547 -0.012955064 -0.0043778904 -0.020738713 -0.00678336 -0.003916927 0.0044719256
-0.026215706 0.005405408 -0.020772066 -0.00922157 -0.00078743184 -0.0011614818 -0.018787833 -0.018006127
-0.008957073 -0.013409795 -0.05159826 -0.004992348 0.004257365 0.003548086 -0.013296168 -0.014735379
-0.039391696 -0.009004636 -0.0052211466 -0.0047997828 0.012894212 -0.0037899066 -0.016602596 -0.012817567
-0.0004953975 -0.017287562 -0.017471509 0.00759107 -0.0013827007 -0.0045011137 -0.010405398 -0.025672875
-0.0035143269 0.014992958 0.00049527735 -0.0134211285 -0.073321156 -0.013760034 0.019403547 -0.010645078
0.017401896 0.0050243977 0.002238719 -0.015897557 0.009919432 0.01508084 0.006165597 -0.011070894
0.0029956389 0.009360879 -0.015101892 -0.0039637485 0.0058640908 0.009465998 -0.0111091975 -0.018820742
00000000: 5eef 0cbc c7a1 0cbb fdc1 6f3c 1277 28bc
00000010: 8c8f 793b e611 e63b d0e9 86bb 578a 25bd
00000020: 3004 dcba 3949 62bc 6755 ed3b fd14 463c
00000030: 12a8 e3bb de88 8f3c 77ed 75ba 342f 15bc
00000040: 0972 2dbc 58e4 b03b 9b3e 8ebc 4194 17bd
00000050: b68d 11bc 3c47 dabb 4004 16bc a31f 5d3c
00000060: 938a 1ebc aa0b f73b de62 32bb 24e4 b1bc
00000070: 7b14 26ba 260f 01bc b71a 5abc 0d59 e53b
00000080: 5024 0dba 98e3 45bb 7a41 54bc 6874 8fbb
00000090: 3ce4 a9bc f346 debb 9159 80bb 3b89 923b
000000a0: 52c2 d6bc d91f b13b 2e2a aabc 1116 17bc
000000b0: a86b 4eba dd3c 98ba f1e8 99bc 9681 93bc
000000c0: b0c0 12bc c2b4 5bbc b258 53bd da96 a3bb
000000d0: 5e81 8b3b 0187 683b 2cd8 59bc a96c 71bc
000000e0: 3059 21bd 2e88 13bc 2716 abbb 7f47 9dbb
000000f0: 3f42 533c 1560 78bb 2b02 88bc c600 52bc
00000100: 90dd 01ba a59e 8dbc 6920 8fbc 83be f83b
00000110: bd3b b5ba 147e 93bb 677b 2abc ec4f d2bc
00000120: 9f50 66bb 06a5 753c 80d5 013a 4be4 5bbc
00000130: 6729 96bd c471 61bc 30f4 9e3c b168 2ebc
00000140: 6c8e 8e3c b4a3 a43b 79b7 123b 983b 82bc
00000150: 1d85 223c a115 773c c708 ca3b b262 35bc
00000160: 7b52 443b 5f5e 193c ed6d 77bc 55e2 81bb
00000170: 8f27 c03b 4617 1b3c 5a03 36bc f52d 9abc

running_mean f4 [96]
0.1942673 0.13321087 0.24791121 0.19516481 0.042275574 0.13517703 0.06240737 0.3599526
0.39598364 0.23972198 0.28391647 0.19338718 0.25281245 0.2319265 0.399183 0.27828667
0.169998 0.20000353 0.38137934 0.19203682 0.29206166 0.021876276 0.17857069 0.28513256
0.10287547 0.2156607 0.20150104 0.09413476 0.18142094 0.15189861 0.40558982 0.05028358
0.2147005 0.08299809 0.15845114 0.39264435 0.14625403 0.26656398 0.5364941 0.277523
0.301285 0.06611773 0.081700355 0.10895419 0.17198707 0.1714269 0.01927159 0.3808612
0.20484594 0.24764149 0.121514864 0.19652905 0.38169572 0.16331515 0.33115485 0.15494543
0.28888592 0.29679242 0.28463808 0.11458768 0.17000927 0.26561534 0.2915507 0.29606777
0.23843026 0.09358609 0.2554917 0.22194426 0.13138422 0.2445021 0.093710765 0.15530093
0.29182658 0.40158394 0.21380885 0.36267328 0.19501202 0.5163545 0.14754505 0.18896481
0.09355513 0.46019506 0.2606213 0.10693486 0.15061791 0.13515775 0.25778818 0.11513735
0.27690375 0.16434254 0.23936886 0.081365384 0.086599655 0.23513058 0.19960389 0.25744525
00000000: 02ee 463e 6e68 083e 70dc 7d3e 49d9 473e
00000010: 2729 2d3d d96b 0a3e df9e 7f3d b54b b83e
00000020: 5ebe ca3e ae79 753e 805d 913e 4a07 463e
00000030: a270 813e 247e 6d3e b761 cc3e 977b 8e3e
00000040: f513 2e3e bacd 4c3e 2744 c33e 4da5 443e
00000050: 1b89 953e e035 b33c 3cdb 363e e5fc 913e
00000060: 60b0 d23d 29d6 5c3e 4a56 4e3e bac9 c03d
00000070: 69c6 393e 4f8b 1b3e 78a9 cf3e 28f6 4d3d
00000080: 73da 5b3e e7fa a93d 0441 223e ae08 c93e
00000090: 9ec3 153e 137b 883e ad57 093f 7f17 8e3e
000000a0: 0742 9a3e bc68 873d 8452 a73d 6023 df3d
000000b0: 611d 303e 898a 2f3e 74df 9d3c 3d00 c33e
000000c0: 22c3 513e bb95 7d3e c9dc f83d e93e 493e
000000d0: 9f6d c33e 163c 273e 218d a93e 04aa 1e3e
000000e0: dbe8 933e 2df5 973e 15bc 913e f2ac ea3d
000000f0: e916 2e3e bcfe 873e 2246 953e 3296 973e
00000100: 1027 743e 10aa bf3d cfcf 823e 5b45 633e
00000110: 9689 063e c25e 7a3e 6eeb bf3d 3507 1f3e
00000120: 4b6a 953e 699c cd3e b5f0 5a3e 50b0 b93e
00000130: 3bb1 473e cf2f 043f 0d16 173e fe7f 413e
00000140: d599 bf3d b09e eb3e 2870 853e aa00 db3d
00000150: 953b 1a3e cb66 0a3e d0fc 833e 22cd eb3d
00000160: 54c6 8d3e 6949 283e 1c1d 753e e5a2 a63d
00000170: 295b b13d 12c6 703e f664 4c3e ddcf 833e

running_var f4 [96]
0.037786648 0.062104322 0.100422524 0.0520336 0.012923019 0.038588338 0.015378027 0.058051445
0.17812426 0.14036481 0.113774836 0.08475371 0.18046996 0.05504667 0.15713684 0.0824543
0.06707176 0.07854995 0.13063246 0.03680858 0.11503691 0.0028322756 0.07729184 0.19144754
0.032560036 0.07868242 0.084611244 0.050235227 0.05898996 0.03934826 0.18893386 0.017881697
0.114136755 0.0223331 0.06341635 0.17091452 0.04617881 0.08213833 0.17046453 0.106944725
0.028944397 0.014572135 0.021854626 0.03941315 0.048194446 0.049575493 0.0030748947 0.17312773
0.10736142 0.08573977 0.031722207 0.08230305 0.18338862 0.08450507 0.033825208 0.071074724
0.06914306 0.096091315 0.036624048 0.042960938 0.10728733 0.100123845 0.08422029 0.10087348
0.07823542 0.026907675 0.07887007 0.08007616 0.057507217 0.14215048 0.016984612 0.035231497
0.13653877 0.08631968 0.11890537 0.15891914 0.04363895 0.22550508 0.069960855 0.048415992
0.025591655 0.12631433 0.0952027 0.03808889 0.06683049 0.05278305 0.06304723 0.0172563
0.14713123 0.027309371 0.1372429 0.02799222 0.023775484 0.11501961 0.029406594 0.118233025
00000000: 2cc6 1a3d 1a61 7e3d 53aa cd3d 2f21 553d
00000010: 12bb 533c ce0e 1e3d 1ff4 7b3c 5ac7 6d3d
00000020: 3566 363e cbbb 0f3e c802 e93d 5a93 ad3d
00000030: 1ecd 383e 9e78 613d 7be8 203e cddd a83d
00000040: eb5c 893d ccde a03d 84c4 053e 98c4 163d
00000050: 7998 eb3d b39d 393b 2f4b 9e3d d30a 443e
00000060: ac5d 053d 4024 a13d a948 ad3d 74c3 4d3d
00000070: 759f 713d a42b 213d e177 413e a37c 923c
00000080: 88c0 e93d e8f3 b63c 6ee0 813d 3704 2f3e
00000090: fe25 3d3d 2438 a83d 418e 2e3e d605 db3d
000000a0: cd1c ed3c f7bf 6e3c 7908 b33c af6f 213d
000000b0: 8a67 453d ac0f 4b3d 2c84 493b 6548 313e
000000c0: 4ee0 db3d 5598 af3d 25ef 013d 808e a83d
000000d0: 3aca 3b3e fe10 ad3d 4d8c 0a3d a08f 913d
000000e0: e09a 8d3d 86cb c43d 1903 163d cff7 2f3d
000000f0: 76b9 db3d bb0d cd3d b07b ac3d c196 ce3d
00000100: e439 a03d 7c6d dc3c a286 a13d f8fe a33d
00000110: b08c 6b3d e58f 113e 5023 8b3c e74e 103d
00000120: d2d0 0b3e 5fc8 b03d a984 f33d b3bb 223e
00000130: c1be 323d ceea 663e a347 8f3d d94f 463d
00000140: 97a5 d13c 8b58 013e a2f9 c23d 1903 1c3d
00000150: 6dde 883d 0a33 583d e81e 813d 165d 8d3c
00000160: 92a9 163e e7b7 df3c 6789 0c3e f14f e53c
00000170: cec4 c23c 678f eb3d 19e6 f03c 2824 f23d

weight f4 [256, 96]
0.006377203 -0.049161095 0.060050324 0.02371173 0.01412304 -0.055510394 0.00047407515 0.052838013
-0.027785126 -0.04019049 -0.048293196 -0.058774658 -0.056473777 -0.043912973 0.025931166 -0.10329098
-0.04303968 -0.013111619 0.06992305 0.062262435 0.0001621727 -0.018117052 0.059597395 -0.10155948
-0.006320398 0.051040072 -0.01732072 -0.037850954 -0.07921591 -0.02137707 -0.10855615 0.11517485
0.088121936 0.039344944 0.017141605 0.07765023 -0.044977665 -0.0013494641 0.045240633 0.10651318
-0.03180812 0.04377633 -0.032328375 0.061928075 0.03121296 0.05792852 0.025771253 -0.06553813
-0.05379252 0.07286146 0.07819232 -0.08775231 -0.044377826 0.075471655 0.04624325 0.08913309
-0.06781912 0.00109039 0.1440587 0.03108988 0.06707326 0.046864204 0.071159735 -0.059244953
0.06915108 -0.012591253 -0.01157983 0.054997813 0.06897099 -0.037482865 -0.0916485 -0.009915681
-0.028556494 0.082950026 -0.09207937 -0.0054980703 0.0021660274 0.02238632 -0.055490147 -0.087719575
0.013265317 0.050891645 0.11343263 0.07513926 0.058091015 0.048952665 0.010762046 0.0882206
0.044688266 0.055969145 -0.036572702 0.067543164 -0.025769439 0.024114741 -0.070784375 -0.06316666
0.039426442 -0.022140067 0.029312266 -0.034766454 0.04062739 0.09308727 -0.08362919 0.07309792
-0.0680508 0.06970759 -0.051344845 0.02916933 0.051602937 -0.05513197 -0.073832184 -0.060438104
-0.029184813 0.07322907 -0.042181473 0.02391171 0.0923804 -0.05432374 0.06968125 -0.037977576
0.06724708 0.062804714 -0.008674668 0.005217614 -0.075842075 0.02987327 -0.0011406356 0.08080121
-0.05969883 0.07012959 0.0016546729 -0.08118596 -0.06485914 0.080408484 -0.0026114786 -0.07640195
0.005468389 -0.05933429 0.0267783 -2.4173763e-05 -0.0109259095 0.10280739 -0.024454687 -0.041296363
0.091518 0.000735462 -0.024787005 -0.027878184 0.024279514 0.043885235 0.087519385 0.08456412
-0.049497586 -0.03597642 0.0062980494 0.03975744 -0.031509355 -0.07690111 -0.044665292 0.041037384
-0.0061423476 0.048354197 -0.0021113548 0.04400797 0.05586264 0.044203326 -0.05274093 0.013497866
0.050496195 0.03792922 -0.019970149 -0.056073587 0.114254326 0.01632424 -0.008812359 0.07622517
0.07493214 -0.100866824 -0.08513257 -0.08522949 -0.06661196 0.08833395 -0.07739493 0.037479263
0.058363196 -0.031692185 -0.004339488 0.057806384 -0.060715046 -0.080499046 0.0866508 -0.05284285
-0.078434356 -0.034962755 -0.05503601 0.08493501 0.003683603 0.00055085466 -0.02686558 0.00789141
0.081676975 -0.014312121 0.0886315 0.065488376 -0.046661817 -0.03343307 0.09291247 0.10017784
-0.10358304 -0.020135088 0.0057375203 0.07315631 -0.022476442 -0.015944025 0.08211686 -0.06772702
-0.079970516 -0.054103266 0.050091412 0.036904346 -0.062748834 0.026112065 0.041701328 0.021960313
-0.11150606 -0.022131503 0.021055005 0.06505168 -0.0709255 -0.07434542 0.043697435 -0.04069984
-0.10381657 -0.011373456 0.11028947 -0.041262537 -0.030557947 0.06556219 0.03541305 0.04499496
-0.08405432 0.025187405 -0.038886398 -0.03332336 0.031326953 -0.020650491 -0.046358116 -0.014404629
0.068241954 -0.07805296 -0.03413794 0.045356415 -0.065499686 0.0850266 0.08000056 0.060674816
00000000: dbf7 d03b 255d 49bd 54f7 753d 1a3f c23c
00000010: 5364 673c de5e 63bd 4a8d f839 ac6c 583d
00000020: a29d e3bc c99e 24bd 16cf 45bd b2bd 70bd
00000030: 0c51 67bd 17de 33bd 996d d43c 398a d3bd
00000040: 604a 30bd 1ed2 56bc d133 8f3d e506 7f3d
00000050: e70c 2a39 366a 94bc 661c 743d 6bfe cfbd
00000060: 571b cfbb 650f 513d 2fe4 8dbc 9a09 1bbd
00000070: f33b a2bd f71e afbc b052 debd cbe0 eb3d
00000080: 4679 b43d 2a28 213d 8d6c 8c3c 1507 9f3d
00000090: 803a 38bd 80e0 b0ba 3e4e 393d 9523 da3d
000000a0: 3b49 02bd cf4e 333d c26a 04bd 4ba8 7d3d
000000b0: 52b2 ff3c 7546 6d3d 3c1e d33c db38 86bd
000000c0: 8c55 5cbd 6438 953d 4c23 a03d 7cb7 b3bd
000000d0: 86c5 35bd e290 9a3d 9069 3d3d 698b b63d
000000e0: c0e4 8abd 6beb 8e3a 2084 133e 34b0 fe3c
000000f0: b55d 893d aef4 3f3d 32bc 913d d6aa 72bd
00000100: 159f 8d3d 8b4b 4ebc 54b9 3dbc 6345 613d
00000110: aa40 8d3d a287 19bd 35b2 bbbd 6175 22bc
00000120: 4fef e9bc b4e1 a93d 1c94 bcbd 2829 b4bb
00000130: e9f3 0d3b 8463 b73c a349 63bd 52a6 b3bd
00000140: c656 593c c273 503d 5e4f e83d 9de2 993d
00000150: d8f0 6d3d 9782 483d 4b53 303c 00ad b43d
00000160: 0b0b 373d e73f 653d 42cd 15bd 1254 8a3d
00000170: 6e1a d3bc 478c c53c 66f7 90bd 865d 81bd
00000180: 9f7d 213d 165f b5bc 4720 f03c 4567 0ebd
00000190: e868 263d 8aa4 be3d c845 abbd 5db4 953d
000001a0: 385e 8bbd dac2 8e3d f94e 52bd 85f4 ee3c
000001b0: 9a5d 533d 10d2 61bd 5435 97bd f28d 77bd
000001c0: fd14 efbc 1ff9 953d 7bc6 2cbd 7ee2 c33c
000001d0: ef31 bd3d 9282 5ebd 0bb5 8e3d 608e 1bbd
000001e0: d6b8 893d c29f 803d 3220 0ebc 85f8 aa3b
000001f0: 1753 9bbd cab8 f43c 6181 95ba 1b7b a53d
00000200: c386 74bd 1aa0 8f3d 9ce1 d83a d344 a6bd
00000210: ded4 84bd 34ad a43d 5725 2bbb a078 9cbd
00000220: 2c30 b33b 8308 73bd 2a5e db3c c3c8 cab7
00000230: 9602 33bc ae8c d23d 3255 c8bc 6026 29bd
00000240: ca6d bb3d 05cc 403a 1e0e cbbc ca60 e4bc
00000250: d5e5 c63c 01c1 333d 5d3d b33d f42f ad3d
00000260: fbbd 4abd 035c 13bd de5f ce3b b3d8 223d
00000270: f40f 01bd 547e 9dbd f4f2 36bd d116 283d
00000280: bf45 c9bb 0d0f 463d a85e 0abb b341 343d
00000290: 39d0 643d 8c0e 353d e006 58bd 2726 5d3c
000002a0: 19d5 4e3d ab5b 1b3d 7098 a3bc 6bad 65bd
000002b0: 2cfe e93d 6aba 853c b661 10bc f11b 9c3d
000002c0: 0676 993d 4493 cebd fc59 aebd cd8c aebd
000002d0: da6b 88bd 6ee8 b43d 3c81 9ebd db83 193d
000002e0: 3f0e 6f3d aacf 01bd 4432 8ebb 63c6 6c3d
000002f0: 57b0 78bd afdc a4bd fa75 b13d bf71 58bd
00000300: 31a2 a0bd 1b35 0fbd 706d 61bd 68f2 ad3d
00000310: 9a68 713b 3b67 103a 3415 dcbc f94a 013c
00000320: 4246 a73d 637d 6abc 6f84 b53d c51e 863d
00000330: 7620 3fbd 1df1 08bd e548 be3d 0a2a cd3d
00000340: 5823 d4bd 57f2 a4bc cf01 bc3b fad2 953d
00000350: 8420 b8bc 0b9d 82bc e22c a83d 77b4 8abd
00000360: 95c7 a3bd 639b 5dbd a72c 4d3d 0329 173d
00000370: 7682 80bd f8e8 d53c 03cf 2a3d 1de6 b33c
00000380: 4a5d e4bd 204d b5bc 8c7b ac3c d139 853d
00000390: 6341 91bd 6942 98bd 15fc 323d e0b4 26bd
000003a0: c89d d4bd bb57 3abc 72df e13d e802 29bd
000003b0: a954 fabc 7845 863d 460d 113d a34c 383d
000003c0: ac24 acbd d155 ce3c 5847 1fbd 137e 08bd
000003d0: b150 003d 382b a9bc 02e2 3dbd 6501 6cbc
000003e0: 70c2 8b3d 3bda 9fbd 39d4 0bbd a6c7 393d
000003f0: b324 86bd 6d22 ae3d 55d7 a33d 2886 783d

bias f4 [256]
-0.07388283 -0.07226231 -0.08164339 -0.0389686 0.048129663 0.12193866 -0.08004424 -0.037422504
0.04868033 -0.09281353 0.038021374 0.06607145 -0.070816785 0.102821484 0.00072745926 0.0412172
0.018944772 0.024432385 0.06289756 0.015095816 -0.04133283 -0.036093276 -0.043047767 -0.0699356
0.07847001 0.06084542 -0.054801177 0.025243437 -0.06756428 0.10245169 0.03760889 0.026048997
0.09317496 0.04870669 -0.005252899 0.041432694 0.038538933 0.07034701 0.08169884 0.103362374
-0.09531512 -0.05000377 -0.053618714 0.029390914 -0.05278407 0.01778045 0.09435963 0.04189468
0.10755991 -0.029778196 -0.084715925 -0.06436205 -0.07766779 0.042570055 0.0052500023 0.07349279
0.08966469 -0.08417883 0.070952825 0.019321334 0.10015568 -0.053761084 -0.0523833 -0.10256176
-0.04834982 0.01805332 0.03917871 -0.019852716 0.03809252 -0.04241853 -0.073907 0.08717012
0.018323593 -0.03275943 -0.029734794 0.0650315 -0.06815636 -0.07632123 -0.0414157 0.00367147
0.032367032 0.037487444 -0.0747095 0.006906316 0.027446758 -0.06021612 -0.06382309 -0.023134548
0.04363784 -0.09502364 0.048554562 0.06448376 0.030334929 0.080059834 -0.010585304 0.02867993
0.08928183 -0.007604499 0.06948344 -0.09143701 0.022588179 0.076707795 -0.03922523 -0.017430155
-0.057214163 0.014459871 -0.052136138 -0.025799418 -0.09602515 0.051120587 -0.0368594 0.047532607
-0.0745274 0.0435195 -0.03218346 -0.085530296 0.052870344 0.003619448 0.10815545 0.048747655
0.041587707 0.041239105 0.10518561 -0.09757356 0.0413149 0.06572322 0.028847337 0.020142002
0.079780854 -0.081177644 0.010473172 -0.01767992 0.05216552 -0.023523554 -0.003985326 0.070995666
0.06838563 -0.084948175 0.012270237 -0.099624984 0.028159345 -0.01727854 0.017599622 -0.098310895
-0.107180625 0.04461096 -0.008063149 -0.03684933 0.041811667 -0.079223 -0.055019442 -0.060009703
-0.095345825 0.1007742 -0.023990475 -0.06572907 0.079777166 -0.08702185 0.028040433 0.092128366
0.021270137 0.047104005 0.09397537 0.106224686 0.068067536 0.0845893 0.021060769 -0.07212722
0.0112929465 -0.011284572 0.036044676 0.10639439 -0.05144708 -0.025872827 -0.052205127 -0.10769394
-0.048170593 0.013796855 -0.014225197 0.034768842 -0.015919004 -0.06059172 0.0755321 0.07900962
0.0318945 -0.022813594 0.046181656 0.06980457 -0.00069904054 0.028268117 -0.075817354 0.07457543
-0.053993195 -0.09272063 -0.043882888 0.07778207 -0.029448293 -0.025964934 -0.018269239 0.06522142
0.093739755 -0.06751718 0.030543383 0.035686124 -0.0730564 -0.08628907 0.031477198 0.012128615
-0.0016612166 -0.022951026 0.021267673 -0.048528146 0.058354665 -0.09596392 -0.015136559 0.009198179
-0.035987336 -0.011438331 0.122473426 -0.037397675 0.052429214 0.094611205 0.01505034 -0.12158265
0.02662273 0.08252465 0.07266899 -0.030767482 0.027021317 -0.020271404 -0.034963183 0.058482774
-0.06784463 -0.07115984 -0.02463724 0.076438904 -0.046182103 -0.09577376 -0.08442629 -0.0023018043
0.0288152 -0.052470136 -0.06422718 -0.042653993 -0.012863143 -0.04730671 0.065347806 0.08303938
-0.04945032 -0.08241921 -0.041143294 0.00032884508 0.027870229 0.078716345 -0.06255292 0.069386445
00000000: e24f 97bd 43fe 93bd a634 a7bd 8a9d 1fbd
00000010: 9c23 453d faba f93d 3cee a3bd 5748 19bd
00000020: 0765 473d 0515 bebd 4dbc 1b3d 7850 873d
00000030: 6408 91bd 1294 d23d f7b2 3e3a 5ed3 283d
00000040: 1132 9b3c 6d26 c83c 70d0 803d 7154 773c
00000050: 9d4c 29bd 8bd6 13bd db52 30bd 653a 8fbd
00000060: e2b4 a03d 0c39 793d 3377 60bd 53cb ce3c
00000070: 245f 8abd 31d2 d13d c80b 1a3d b564 d53c
00000080: 83d2 be3d ab80 473d 8320 acbb 54b5 293d
00000090: 00db 1d3d 1812 903d b951 a73d a7af d33d
000000a0: 9334 c3bd c1d0 4cbd 4c9f 5bbd 37c5 f03c
000000b0: 1c34 58bd 4ea8 913c 9f3f c13d c299 2b3d
000000c0: 5f48 dc3d 67f1 f3bc 8b7f adbd 40d0 83bd
000000d0: 4a10 9fbd f05d 2e3d 3608 ac3b 6383 963d
000000e0: 1fa2 b73d f365 acbd b74f 913d c647 9e3c
000000f0: 6c1e cd3d 9534 5cbd df8f 56bd e60b d2bd
00000100: 760a 46bd 8ee4 933c db79 203d 2aa2 a2bc
00000110: e706 1c3d 0dbf 2dbd 8e5c 97bd 3f86 b23d
00000120: 5c1b 963c c12e 06bd 6296 f3bc 3c2f 853d
00000130: 9095 8bbd 4e4e 9cbd 82a3 29bd 0c9d 703b
00000140: 4b93 043d 6f8c 193d 4b01 99bd 614e e23b
00000150: 06d8 e03c 2ea5 76bd aeb5 82bd aa84 bdbc
00000160: 97bd 323d c19b c2bd 26e1 463d 1010 843d
00000170: f580 f83c 69f6 a33d fc6d 2dbc 2cf2 ea3c
00000180: 64d9 b63d 292f f9bb 554d 8e3d 5443 bbbd
00000190: d80a b93c fa18 9d3d a3aa 20bd afc9 8ebc
000001a0: 6659 6abd 18e9 6c3c b48c 55bd 4d59 d3bc
000001b0: d5a8 c4bd d263 513d e2f9 16bd 8db1 423d
000001c0: d2a1 98bd 8141 323d ced2 03bd 822a afbd
000001d0: 938e 583d 4334 6d3b 9b80 dd3d 9fab 473d
000001e0: df57 2a3d 56ea 283d 8e6b d73d a6d4 c7bd
000001f0: d039 293d e599 863d 4051 ec3c d700 a53c
00000200: 2564 a33d 7740 a6bd ab97 2b3c 7bd5 90bc
00000210: 83ab 553d 78b4 c0bc 5697 82bb 2d66 913d
00000220: c40d 8c3d 4ff9 adbd 1b09 493c 2f08 ccbd
00000230: 6dae e63c ba8b 8dbc 152d 903c 3957 c9bd
00000240: 8481 dbbd fbb9 363d 4c1b 04bc 53ef 16bd
00000250: b642 2b3d ab3f a2bd 115c 61bd bccc 75bd
00000260: ac44 c3bd b462 ce3d ac87 c4bc f69c 86bd
00000270: 3662 a33d 8338 b2bd 0db5 e53c ccad bc3d
00000280: b63e ae3c 21f0 403d 2976 c03d 548c d93d
00000290: fe66 8b3d 283d ad3d a287 ac3c 70b7 93bd
000002a0: 0d06 393c ede2 38bc 95a3 133d 4de5 d93d
000002b0: 2cba 52bd 40f3 d3bc 0bd5 55bd a48e dcbd
000002c0: 874e 45bd 340c 623c cd10 69bc c669 0e3d
000002d0: 9268 82bc 062f 78bd 93b0 9a3d cccf a13d
000002e0: cfa3 023d 93e3 babc fa28 3d3d b3f5 8e3d
000002f0: d13f 37ba 8a92 e73c 2146 9bbd 01bb 983d
00000300: f827 5dbd 50e4 bdbd 8bbe 33bd 354c 9f3d
00000310: 8c3d f1bc 6ab4 d4bc 5fa9 95bc cf92 853d
00000320: a1fa bf3d 7346 8abd 1e36 fa3c 9d2b 123d
00000330: 989e 95bd 53b8 b0bd 3cee 003d 19b7 463c
00000340: 2ebd d9ba ca03 bcbc 8b39 ae3c 73c5 46bd
00000350: 4d05 6f3d bb88 c4bd 54ff 77bc f5b3 163c
00000360: 7567 13bd d667 3bbc 59d3 fa3d 4e2e 19bd
00000370: 04c0 563d 85c3 c13d b495 763c 5300 f9bd
00000380: e917 da3c af02 a93d 7bd3 943d 160c fcbc
00000390: cf5b dd3c 3710 a6bc 8e35 0fbd a28b 6f3d
000003a0: 20f2 8abd 40bc 91bd 0ad4 c9bc 008c 9c3d
000003b0: 7229 3dbd 0825 c4bd b1e7 acbd ded9 16bb
000003c0: db0d ec3c edea 56bd 8a89 83bd f4b5 2ebd
000003d0: efbf 52bc aec4 41bd 12d5 853d 8d10 aa3d
000003e0: 6b8c 4abd 67cb a8bd df85 28bd d768 ac39
000003f0: 1b50 e43c 0936 a13d bf1b 80bd 7b1a 8e3d

weight f4 [256]
1.0085226 0.99069804 0.9978519 0.99919146 1.0053811 1.0021756 0.99606264 1.0060855
1.0021554 1.0020826 0.99676764 1.0032996 0.99495786 0.9913251 0.99865156 1.0065477
1.0027106 0.9954221 0.9974565 0.9979035 1.0012329 1.0001822 0.99904525 1.0005674
0.9930872 1.0067611 0.9984499 0.99370646 1.0050852 1.0000098 0.99622744 0.9972188
1.001891 0.99851876 1.0052459 1.0020329 0.9930854 1.0035094 0.9937518 1.0015095
1.0138813 0.9991541 0.9980797 1.0002217 1.006742 1.000125 1.0029877 1.0021101
0.992358 1.0239176 0.99058235 1.0023928 1.0017306 1.00917 0.99711394 0.99252087
0.99919784 0.9940588 1.0057881 0.99885416 0.99692464 1.0050526 0.9987572 1.0020121
0.99972373 1.0098829 0.99854565 1.0059357 0.99984324 1.0009272 1.0055182 1.0061543
0.9986461 1.0007699 0.9939879 0.99626595 1.0035709 1.0081869 1.0126562 0.9926167
0.99090666 0.9988639 1.00667 1.0017316 1.005175 0.9994271 0.99677503 0.9941596
0.9890164 0.9984429 0.99825764 0.9913498 1.0027227 0.9939799 1.0015256 1.0009501
1.0057898 0.99709743 0.9923546 1.0008227 0.9963842 0.9952553 1.0068986 1.0004425
0.99573207 0.98933315 0.99748796 0.9968072 1.0038209 0.9912931 1.0060827 0.9963797
0.99672604 1.0007166 1.0004838 0.99760604 0.98990124 1.0116274 0.99329466 1.0008888
1.002125 0.9948449 1.006419 0.9980498 0.99868524 0.99778503 1.0049984 0.9927246
1.0100148 0.99533623 0.9977571 1.0038488 1.0056423 1.0122638 0.99772006 1.0033627
1.0000919 0.9982526 0.99172914 0.9993463 1.0064485 1.0057528 1.0017412 0.9969782
0.99759364 0.99787426 1.001368 1.004752 0.9957428 1.0042378 0.99408734 1.0095371
1.002472 0.9903159 0.99925965 1.0031914 0.99291146 1.0071422 0.9951701 0.9937893
0.99194014 0.99471116 1.001302 1.006457 0.9971443 1.0040221 1.0011163 1.0040888
0.9949822 1.0029538 1.0042251 0.99443513 0.9858196 1.0055894 1.007559 1.013714
1.0011034 1.0023519 1.0117468 1.0037936 1.0037313 1.0009227 0.9992975 1.0058025
1.0154895 1.0002886 0.9976807 0.9945831 0.99847364 1.0006655 0.99561715 0.99415565
1.000204 0.99628675 0.99676275 0.9956785 1.0034685 1.0026885 0.99467486 0.99707794
1.0025452 0.9851396 0.998255 1.0033958 1.0070263 0.99508685 0.99350005 0.9994546
0.9950031 0.99985725 0.99740356 0.9985999 0.9934429 1.0012648 1.0012565 0.9978513
0.9987877 1.0090282 1.0011842 0.99769527 1.0025336 0.99361527 1.0047101 1.0043446
1.0029185 0.9988757 0.9969753 0.9866443 0.99342275 0.9982158 1.0012298 0.99589556
1.0021833 0.98093617 1.0096265 1.0114244 1.0035534 1.0009482 0.9991988 1.0006372
0.9916527 1.0074909 1.0037315 0.9966839 0.99749434 0.9934612 0.9993171 0.9945374
1.0005226 0.9993819 0.9983008 0.9979423 1.0042342 1.0008854 0.99859256 0.9971689
00000000: 4517 813f 639e 7d3f 3973 7f3f 03cb 7f3f
00000010: 54b0 803f 4a47 803f f6fd 7e3f 69c7 803f
00000020: a146 803f 3e44 803f 2a2c 7f3f 1f6c 803f
00000030: 8fb5 7e3f 7bc7 7d3f a1a7 7f3f 8ed6 803f
00000040: d258 803f fcd3 7e3f 4f59 7f3f 9b76 7f3f
00000050: 6628 803f f805 803f 6ec1 7f3f 9812 803f
00000060: f63a 7e3f 8cdd 803f 6a9a 7f3f 8c63 7e3f
00000070: a2a6 803f 5200 803f c308 7f3f bb49 7f3f
00000080: f73d 803f ed9e 7f3f e6ab 803f 9d42 803f
00000090: d83a 7e3f ff72 803f 8566 7e3f 7731 803f
000000a0: ddc6 813f 90c8 7f3f 2782 7f3f 4407 803f
000000b0: ecdc 803f 1904 803f e761 803f 2545 803f
000000c0: 2d0b 7e3f bb0f 833f ce96 7d3f 684e 803f
000000d0: b538 803f 7c2c 813f dc42 7f3f d915 7e3f
000000e0: 6ecb 7f3f a37a 7e3f aabd 803f e8b4 7f3f
000000f0: 7436 7f3f 90a5 803f 8dae 7f3f ef41 803f
00000100: e5ed 7f3f d843 813f b0a0 7f3f 80c2 803f
00000110: baf5 7f3f 621e 803f d2b4 803f aac9 803f
00000120: 45a7 7f3f 3a19 803f fe75 7e3f 490b 7f3f
00000130: 0375 803f 450c 813f b89e 813f 211c 7e3f
00000140: 0fac 7d3f 8bb5 7f3f 90da 803f be38 803f
00000150: 93a9 803f 74da 7f3f a62c 7f3f 3e81 7e3f
00000160: 2e30 7d3f f499 7f3f d08d 7f3f 1ac9 7d3f
00000170: 3859 803f 7775 7e3f fe31 803f 221f 803f
00000180: b8bd 803f c741 7f3f f30a 7e3f f51a 803f
00000190: 0913 7f3f 0dc9 7e3f 0ee2 803f 800e 803f
000001a0: 4ce8 7e3f f044 7d3f 5f5b 7f3f c22e 7f3f
000001b0: 347d 803f 62c5 7d3f 51c7 803f bd12 7f3f
000001c0: 7029 7f3f 7b17 803f da0f 803f 1c63 7f3f
000001d0: 2b6a 7d3f 027d 813f 8f48 7e3f 201d 803f
000001e0: a245 803f 28ae 7e3f 56d2 803f 3180 7f3f
000001f0: d6a9 7f3f d76e 7f3f caa3 803f 3323 7e3f
00000200: 2a48 813f 5bce 7e3f 026d 7f3f 1e7e 803f
00000210: e3b8 803f dc91 813f 956a 7f3f 306e 803f
00000220: 0303 803f 7b8d 7f3f f6e1 7d3f 29d5 7f3f
00000230: 4ed3 803f 82bc 803f 0e39 803f f739 7f3f
00000240: 4c62 7f3f b074 7f3f d42c 803f b79b 803f
00000250: 00e9 7e3f dd8a 803f 827c 7e3f 8338 813f
00000260: 0151 803f 5885 7d3f 7bcf 7f3f 9368 803f
00000270: 722f 7e3f 09ea 803f 78c3 7e3f fa68 7e3f
00000280: caef 7d3f 64a5 7e3f aa2a 803f 95d3 803f
00000290: d944 7f3f cc83 803f 9424 803f fb85 803f
000002a0: 27b7 7e3f ca60 803f 738a 803f 4d93 7e3f
000002b0: ac5e 7c3f 27b7 803f b1f7 803f 61c1 813f
000002c0: 2824 803f 114d 803f eb80 813f 4f7c 803f
000002d0: 447a 803f 3c1e 803f f6d1 7f3f 23be 803f
000002e0: 8ffb 813f 7509 803f 0168 7f3f ff9c 7e3f
000002f0: f89b 7f3f cf15 803f c4e0 7e3f fc80 7e3f
00000300: af06 803f a60c 7f3f d82b 7f3f c9e4 7e3f
00000310: a871 803f 1958 803f 03a3 7e3f 8040 7f3f
00000320: 6753 803f 1c32 7c3f a48d 7f3f 466f 803f
00000330: 3de6 803f 03be 7e3f 0556 7e3f 42dc 7f3f
00000340: 86b8 7e3f a5f6 7f3f d755 7f3f 3ea4 7f3f
00000350: 4652 7e3f 7229 803f 2c29 803f 2f73 7f3f
00000360: 8db0 7f3f d627 813f ce26 803f f568 7f3f
00000370: 0553 803f 925d 7e3f 579a 803f 5d8e 803f
00000380: a25f 803f 51b6 7f3f c639 7f3f b994 7c3f
00000390: f450 7e3f 128b 7f3f 4c28 803f 03f3 7e3f
000003a0: 8b47 803f a21e 7b3f 713b 813f 5b76 813f
000003b0: 7074 803f 121f 803f 7ecb 7f3f e114 803f
000003c0: f4dc 7d3f 76f5 803f 467a 803f ad26 7f3f
000003d0: ca5b 7f3f 7953 7e3f 3fd3 7f3f 019a 7e3f
000003e0: 2011 803f 7ed7 7f3f a490 7f3f 2679 7f3f
000003f0: bf8a 803f 031d 803f c3a3 7f3f 7646 7f3f

bias f4 [256]
0.0020254478 0.014756336 -0.009300164 0.0026939332 0.0015471318 -0.006601392 0.009141709 -0.011271205
-0.0046493663 -0.00496687 0.002555691 0.0052759526 -0.0040374226 -0.0065032216 0.010876124 -0.009366611
-0.0073345085 0.011043884 -0.0027665123 0.0036708415 0.009840739 0.0026158097 0.00370229 -0.00078736374
0.007264446 0.009733312 0.013925999 0.002215554 0.002006104 0.0055326177 -0.0047540097 3.4747725e-05
-0.0013568184 -0.0049421825 0.009327489 0.0039624902 -0.0067419526 0.003556975 -0.004995332 -0.009228572
0.006293605 -0.009316442 -0.008208526 0.0050999974 -0.007560498 -0.008826237 -0.00017223907 -0.0030660252
0.007389686 -0.024905704 0.001820532 -0.004034989 0.0027274112 0.013242473 0.004181295 0.003755837
0.0045648064 0.00782744 -0.0045744297 -0.0044245967 -0.00079822226 -0.006943637 0.009259858 -0.005943288
0.0013395648 0.0095246425 -0.009606627 -0.00680368 -0.0016427186 -0.0090571 -0.010469238 -0.0043809363
0.0052019744 -0.008901457 -0.006637611 -0.014274264 0.0034185555 -0.0057948236 -0.01089823 -0.0031079098
0.0017326678 0.001698588 0.012613601 0.0012834565 -0.005087892 0.0057852976 -0.0039839875 -0.0044859108
0.0058777407 0.006916862 0.0020173886 0.008579141 0.012947095 0.003010676 0.0044200155 0.007984765
-0.018459795 -0.0076595047 0.002310997 -0.0068116677 0.0032988077 0.0059758704 -0.012203387 0.0034872536
0.0019123541 -0.002215513 0.0008657423 -0.0050107418 -0.0035575798 -0.0055108108 -0.008581169 0.006323037
0.0021375872 -0.0076129367 -0.014052255 -0.005533743 0.010049595 -0.0045256834 0.0015665218 -0.007879286
-0.002488356 0.0045956993 0.008761915 0.005279929 -0.011026475 -0.011863716 -0.0039111264 0.00991324
-0.0029092014 -0.00071648764 -0.0026149163 0.0004950755 0.0033145708 -0.008131042 0.0014188607 0.004551798
0.00607839 -0.0073349113 0.0031248035 0.0008385564 0.006587305 -0.01528329 0.007925092 -0.005648586
0.0016493032 -0.0061307386 -0.0045224773 -0.006412786 -0.0052099386 0.005688262 0.004456126 0.0047099264
0.003999947 0.0038817623 -0.00078716525 0.0072901067 -0.00853561 0.010457586 0.0046987087 0.008266485
-0.011095878 0.0006572185 -0.008778272 0.009897714 -0.007904722 -0.0026344887 0.0024022993 0.012395526
-0.005033252 0.0039952993 0.0053480174 -0.019068707 0.0013713458 -0.0081942 -0.012629894 0.003206427
0.007165659 -0.0060353046 0.008524414 -0.006693082 -0.00024021365 -0.0073101204 -0.005725632 -0.009823534
-0.011840576 0.0001266083 0.004193538 0.009562609 0.00719949 0.008498729 -0.011474921 -0.013272932
0.006022764 0.0019806786 -0.0060285456 0.0021540034 -0.01276721 -0.0065377364 0.0037505873 -0.0030813853
-0.01223332 -0.008284002 0.011519098 0.00093098526 0.0016667625 0.0040219096 0.0089361165 0.005421972
-0.0043598213 -0.007925388 0.008965948 -0.011355805 0.0010103354 -0.008951774 -0.01308587 0.0052333353
-0.008279681 -0.006381277 -0.022713376 -0.0062132813 0.0031101773 0.0025330167 -0.00432034 -0.014327536
0.004013271 0.00075737044 0.010129331 0.0017642967 -0.013875362 0.0014450346 0.0016292979 -0.005360015
-0.008303755 0.00012770385 0.004550983 -0.0034438036 0.007984556 -0.0074570384 0.0028390514 0.012524035
-0.0064545246 0.0015301943 -0.0024503616 0.004762328 -0.008156587 -0.0015525991 0.0072492887 -0.013089703
0.0047827014 -0.016890883 -0.00095963123 0.0038202705 -0.015642941 0.0007946994 0.010479859 0.0026841436
00000000: 60bd 043b 8fc4 713c b75f 18bc b38c 303b
00000010: 21c9 ca3a 7d50 d8bb 1bc7 153c dcaa 38bc
00000020: b659 98bb 20c1 a2bb 617d 273b e6e1 ac3b
00000030: 5b4c 84bb fa18 d5bb c531 323c 6a76 19bc
00000040: 5156 f0bb 68f1 343c 604e 35bb 8092 703b
00000050: 0d3b 213c 016e 2b3b 1ea2 723b 1667 4eba
00000060: 970a ee3b 7878 1f3c e029 643c d432 113b
00000070: d778 033b f64a b53b 86c7 9bbb 16be 1138
00000080: 45d7 b1ba 08f2 a1bb 53d2 183c c7d7 813b
00000090: 99eb dcbb 231c 693b e2af a3bb 7033 17bc
000000a0: 963a ce3b fda3 18bc 0e7d 06bc e11d a73b
000000b0: 0ebe f7bb ec9b 10bc 139b 34b9 5eef 48bb
000000c0: 2e25 f23b 0c07 ccbc eb9e ee3a f137 84bb
000000d0: 5ebe 323b f5f6 583c 3f03 893b 7d24 763b
000000e0: 5f94 953b aa3e 003c 19e5 95bb 35fc 90bb
000000f0: ca3f 51ba 7387 e3bb a9b6 173c eabf c2bb
00000100: 5694 af3a 3f0d 1c3c 1d65 1dbc 68f1 debb
00000110: 7d50 d7ba 3b64 14bc 2b87 2bbc f58d 8fbb
00000120: 5375 aa3b 6bd7 11bc 5180 d9bb 9ade 69bc
00000130: d809 603b 81e2 bdbb 7d8e 32bc 13ae 4bbb
00000140: af1a e33a 28a3 de3a 47a9 4e3c a739 a83a
00000150: 55b8 a6bb 9892 bd3b 1c8c 82bb 8cfe 92bb
00000160: 109a c03b d8a6 e23b 2a36 043b 878f 0c3c
00000170: 0d20 543c c34e 453b c7d5 903b 88d2 023c
00000180: ff38 97bc 95fc fabb 1974 173b 6934 dfbb
00000190: cf30 583b 3cd1 c33b b7f0 47bc 688a 643b
000001a0: f5a7 fa3a 2432 11bb fbf2 623a 2631 a4bb
000001b0: 4926 69bb 0894 b4bb 0898 0cbc 7b31 cf3b
000001c0: c316 0c3b f175 f9bb 6e3b 66bc 6754 b5bb
000001d0: 0ea7 243c 2f4c 94bb c053 cd3a 1f18 01bc
000001e0: b013 23bb 8597 963b 238e 0f3c 4103 ad3b
000001f0: 63a8 34bc 0860 42bc e828 80bb 246b 223c
00000200: 4da8 3ebb acd2 3bba 045f 2bbb f4c7 013a
00000210: 4539 593b 1038 05bc 11f9 b93a 4027 953b
00000220: 3b2d c73b b259 f0bb 81c9 4c3b 91d2 5b3a
00000230: 52da d73b c466 7abc 3fd8 013c c617 b9bb
00000240: 6f2d d83a 5de4 c8bb 4a31 94bb 5922 d2bb
00000250: 22b8 aabb 9a64 ba3b b204 923b ba55 9a3b
00000260: fd11 833b 2a65 7e3b c459 4eba d9e1 ee3b
00000270: f1d8 0bbc 4b56 2b3c a0f7 993b 2770 073c
00000280: 7ccb 35bc 3049 2c3a bed2 0fbc 052a 223c
00000290: cf82 01bc 63a7 2cbb e56f 1d3b 9b16 4b3c
000002a0: faed a4bb 00eb 823b 6c3e af3b fa35 9cbc
000002b0: bbbe b33a f740 06bc 9ded 4ebc eb22 523b
000002c0: e8cd ea3b cec3 c5bb fca9 0b3c a451 dbbb
000002d0: dce1 7bb9 bc89 efbb 159e bbbb e3f2 20bc
000002e0: fafe 41bc 28c2 0439 f269 893b 7dac 1c3c
000002f0: b3e9 eb3b 413e 0b3c 4f01 3cbc b676 59bc
00000300: 9b5a c53b 46ce 013b 1b8b c5bb 2e2a 0d3b
00000310: 8f2d 51bc 823a d6bb 6acc 753b 11f1 49bb
00000320: 436e 48bc 9fb9 07bc 99ba 3c3c 5d0d 743a
00000330: 4577 da3a 39ca 833b ca68 123c ccaa b13b
00000340: d5dc 8ebb 7dd9 01bc e9e5 123c b30d 3abc
00000350: 3b6d 843a 76aa 12bc 1e66 56bc 667c ab3b
00000360: 80a7 07bc 081a d1bb 6711 babc c898 cbbb
00000370: 1ed4 4b3b f800 263b a491 8dbb 0bbe 6abc
00000380: c281 833b 458a 463a 7ef5 253c f93f e73a
00000390: 7d55 63bc 5167 bd3a 2a8e d53a 11a3 afbb
000003a0: 790c 08bc 3ee8 0539 6a20 953b 70b1 61bb
000003b0: a8d1 023c 2c5a f4bb 610f 3a3b 9c31 4d3c
000003c0: 7a80 d3bb cd90 c83a 3f96 20bb 4e0d 9c3b
000003d0: 35a3 05bc 9580 cbba 718b ed3b 3276 56bc
000003e0: 35b8 9c3b c05e 8abc c38f 7bba 815d 7a3b
000003f0: a025 80bc 6053 503a b7b3 2b3c 75e8 2f3b

running_mean f4 [256]
0.21918479 0.18678828 0.2372562 0.23449557 0.33844876 0.47913447 0.18645744 0.19917849
0.19416897 0.36933357 0.20066287 0.3965174 0.1332144 0.38434353 0.2700633 0.45133084
0.28430796 0.236045 0.42279994 0.49431258 0.3058326 0.27361363 0.28495374 0.20812935
0.27647442 0.25757173 0.24638896 0.24787822 0.15072536 0.3346381 0.43632466 0.230205
0.3104102 0.2795586 0.37347442 0.30509192 0.34514293 0.21326949 0.31349748 0.3759942
0.23189116 0.15787102 0.27140948 0.217173 0.16627108 0.25113755 0.3122789 0.26969793
0.31070438 0.1758953 0.18546966 0.2111603 0.35191438 0.17737874 0.31076705 0.21879828
0.32867166 0.24006663 0.2676382 0.19975862 0.45051727 0.24075092 0.17658655 0.30933
0.17411083 0.3386896 0.32457218 0.17185466 0.24655038 0.21926259 0.28915682 0.4191949
0.2519002 0.3491896 0.1413934 0.30246145 0.25030404 0.19576016 0.117023595 0.15914318
0.26761585 0.25400037 0.20410289 0.16050473 0.31229138 0.21078995 0.29451278 0.24104984
0.37794685 0.18690756 0.42731237 0.19673406 0.26759666 0.31427228 0.32838026 0.32933423
0.25009814 0.3290403 0.30463713 0.35344514 0.24003698 0.29752293 0.1811373 0.3245207
0.19353978 0.34723648 0.18830232 0.2531485 0.26959547 0.19745031 0.33924997 0.29937628
0.29494572 0.30996963 0.13641301 0.3336168 0.35443607 0.32482466 0.38867497 0.23747033
0.28211895 0.1752651 0.34026238 0.25303587 0.3602086 0.3552757 0.4164844 0.21858928
0.24421437 0.20886572 0.2596594 0.40167716 0.2985946 0.28710812 0.2328475 0.47517022
0.3004228 0.28421053 0.33598927 0.17801794 0.36068732 0.32628903 0.27418673 0.15736611
0.32677606 0.40984318 0.30414662 0.23371617 0.24097218 0.23503086 0.1600311 0.26423746
0.28226435 0.2577873 0.1493144 0.24643214 0.3042626 0.15453315 0.35063967 0.32124746
0.29099137 0.29499587 0.20383051 0.37659937 0.31060028 0.30715835 0.231863 0.12225459
0.24971178 0.24364392 0.33149022 0.3460013 0.30199602 0.256165 0.3268686 0.07154406
0.27848393 0.2899241 0.34250236 0.20654683 0.12890184 0.29535568 0.2415689 0.42351463
0.17706962 0.34408236 0.20959781 0.28150707 0.24574344 0.34539765 0.17214647 0.28231832
0.2463326 0.34554136 0.2376082 0.31021908 0.18333448 0.23243594 0.33731112 0.26691622
0.29153684 0.16296564 0.18210758 0.35365304 0.36928245 0.18474841 0.19160062 0.2777731
0.36538532 0.31402698 0.33039162 0.14740206 0.26539722 0.14998032 0.29527628 0.33014286
0.2599013 0.18914275 0.21918377 0.24594331 0.2652846 0.3361219 0.24973351 0.13569818
0.31138334 0.31391174 0.27491853 0.36977622 0.26842546 0.19363905 0.24949354 0.30645943
0.13110483 0.21582225 0.41065934 0.24915849 0.23592028 0.22807527 0.22448519 0.21694182
0.27990928 0.2642782 0.2420548 0.19740057 0.22965534 0.25908867 0.2913638 0.20508346
0.1802229 0.1350898 0.35229883 0.23093957 0.22916605 0.383473 0.22589561 0.23413566
00000000: fa71 603e 6d45 3f3e 4af3 723e 9b1f 703e
00000010: 2849 ad3e 1d51 f53e b3ee 3e3e 72f5 4b3e
00000020: 3bd4 463e 4a19 bd3e 917a 4d3e 5404 cb3e
00000030: 5b69 083e adc8 c43e bd45 8a3e d614 e73e
00000040: d090 913e c8b5 713e 3c79 d83e 8a16 fd3e
00000050: 1796 9c3e 1617 8c3e 75e5 913e dc1f 553e
00000060: 0e8e 8d3e 71e0 833e 634d 7c3e cad3 7d3e
00000070: c057 1a3e af55 ab3e f265 df3e dcba 6b3e
00000080: 16ee 9e3e 4e22 8f3e 0a38 bf3e 0235 9c3e
00000090: 93b6 b03e 5163 5a3e be82 a03e 5082 c03e
000000a0: e074 6d3e f1a8 213e 2ff6 8a3e 9962 5e3e
000000b0: f742 2a3e 1a95 803e 05e3 9f3e d915 8a3e
000000c0: a514 9f3e e61d 343e c2eb 3d3e 683a 583e
000000d0: 1f2e b43e c6a2 353e dc1c 9f3e a80c 603e
000000e0: a747 a83e 07d4 753e e007 893e 868d 4c3e
000000f0: 33aa e63e 6987 763e 1bd3 343e 8060 9e3e
00000100: 1c4a 323e b968 ad3e 532e a63e abfa 2f3e
00000110: b477 7c3e 5f86 603e 5d0c 943e b7a0 d63e
00000120: 10f9 803e fbc8 b23e 6ec9 103e 3adc 9a3e
00000130: da27 803e 5a75 483e 11aa ef3d 6ef6 223e
00000140: f204 893e 560c 823e 5900 513e 5a5b 243e
00000150: a8e4 9f3e 52d9 573e 61ca 963e c5d5 763e
00000160: 4082 c13e b264 3f3e b0c8 da3e a774 493e
00000170: 6e02 893e 4ce8 a03e 7521 a83e 7f9e a83e
00000180: dd0c 803e f877 a83e 66f9 9b3e c3f6 b43e
00000190: 41cc 753e ed54 983e 0e7c 393e 9427 a63e
000001a0: 4b2f 463e fbc8 b13e 53d2 403e ae9c 813e
000001b0: 6b08 8a3e 6a30 4a3e 2cb2 ad3e d947 993e
000001c0: 2003 973e 57b4 9e3e daaf 0b3e d2cf aa3e
000001d0: a578 b53e 6b4f a63e 6800 c73e 6c2b 733e
000001e0: e571 903e b278 333e df36 ae3e eb8d 813e
000001f0: 436d b83e b2e6 b53e 713d d53e ded5 5f3e
00000200: 5513 7a3e e5e0 553e 14f2 843e a1a8 cd3e
00000210: 64e1 983e d6ff 923e 936f 6e3e 8349 f33e
00000220: 04d1 993e 0b84 913e c906 ac3e 564a 363e
00000230: 02ac b83e 5b0f a73e 3462 8c3e 9524 213e
00000240: 314f a73e f7d6 d13e 1bb9 9b3e 4b53 6f3e
00000250: 69c1 763e eeab 703e 31df 233e 224a 873e
00000260: f484 903e b2fc 833e e0e5 183e b558 7c3e
00000270: 4fc8 9b3e f03d 1e3e 0b87 b33e 8c7a a43e
00000280: d2fc 943e b309 973e f2b8 503e a2d1 c03e
00000290: 0007 9f3e dc43 9d3e 7f6d 6d3e 9d60 fa3d
000002a0: 72b4 7f3e cb7d 793e 16b9 a93e 1527 b13e
000002b0: 399f 9a3e 0f28 833e 525b a73e b185 923d
000002c0: 7295 8e3e ee70 943e 785c af3e 0381 533e
000002d0: d8fe 033e dc38 973e d65d 773e e9d6 d83e
000002e0: bd51 353e 902b b03e cfa0 563e b221 903e
000002f0: 2ba4 7b3e f6d7 b03e 2a47 303e 078c 903e
00000300: 9d3e 7c3e ccea b03e 904f 733e 09d5 9e3e
00000310: 09bc 3b3e b003 6e3e 0bb4 ac3e 3ea9 883e
00000320: 5144 953e 77e0 263e 697a 3a3e 0312 b53e
00000330: 9712 bd3e b02e 3d3e f432 443e 4738 8e3e
00000340: c913 bb3e 25c8 a03e 1729 a93e 91f0 163e
00000350: 25e2 873e 7194 193e 742e 973e 7c08 a93e
00000360: c811 853e a3ae 413e b671 603e 90d8 7b3e
00000370: 62d3 873e 2b18 ac3e 24ba 7f3e 77f4 0a3e
00000380: a36d 9f3e 0ab9 a03e 1fc2 8c3e 4f53 bd3e
00000390: 106f 893e 5149 463e 3c7b 7f3e 40e8 9c3e
000003a0: 5840 063e 8200 5d3e f141 d23e 6723 7f3e
000003b0: 1695 713e 908c 693e 72df 653e ff25 5e3e
000003c0: 4550 8f3e 794f 873e 37dd 773e 6023 4a3e
000003d0: c52a 6b3e 45a7 843e a32d 953e 6601 523e
000003e0: 5a8c 383e fb54 0a3e 8360 b43e 6c7b 6c3e
000003f0: 81aa 6a3e 9356 c43e 2e51 673e 42c1 6f3e
