statedicts/torchscript_pl_db_analytical_db_n_b-2_n_s-6_n_m-2_T0_n_t-60000_b1_seed_0.pt (torch, 227241 bytes, 29 tensors)

weight f4 [9]
00000000: 0d2c 423f 52ea b33f ed86 243f 29c7 6d3f
00000010: 09b6 623f e4c2 b53f bbaf 4b3f 55cc 733f
00000020: 4a97 7d3f
0.75848466 1.4055884 0.6426838 0.9288202 0.88559014 1.4200101 0.7956502 0.9523366
0.99058974

bias f4 [9]
00000000: ae33 9a3d baa9 773d 6079 1d3d 9508 2a3d
00000010: 31be 57bd 73f5 41bd 7d27 1cbd a498 f9ba
00000020: d9a2 153d
0.07529388 0.0604646 0.03844583 0.04151209 -0.052671615 -0.04735322 -0.038123596 -0.0019042683
0.036532257

running_mean f4 [9]
00000000: 884b c93f 9490 6c3d b2fb 3140 82dc 3740
00000010: 544f 8b3e b791 6c3d 12fc 3140 6171 893e
00000020: 79a2 3740
1.5726175 0.057755068 2.7809873 2.8728337 0.2720896 0.057756152 2.7810102 0.26844314
2.8692915

running_var f4 [9]
00000000: c64f 863e 2027 8036 e084 933c 1b49 5b3c
00000010: 0205 7a3c cdb1 8036 a694 933c 0d21 5b3c
00000020: d502 7b3c
0.26232737 3.819252e-06 0.018007696 0.013384129 0.015259983 3.835396e-06 0.018015217 0.013374579
0.015320499

weight f4 [96, 9]
00000000: b2f2 1b3e 34ae c63e f3d5 9b3c d1fe 803e
00000010: 3bc0 b0bc 4a27 9b3e 11d4 f63d d16e a0ba
00000020: 975b fbbc df50 97be a802 7ebe 7c72 f93c
00000030: 88e9 07be 3ba2 b6be d942 c5bd b129 b93d
00000040: 06cd b33e fd2e 5bbd a13e fd3d 2b47 1e3e
00000050: 443c 8a3e 53fc 9abe 415b ad3e 0d46 b5bc
00000060: 6a85 32be 15d7 803d e738 333e 7c26 923d
00000070: 997e af3e a367 62bd 3741 75be 6f9b 263e
00000080: 1334 8e3d 8031 8f3d b0c5 473e ef1a 353c
00000090: 07f4 033e e770 ab3e 0498 df3b 0f30 b93d
000000a0: ebb6 063e 0762 5bbe db09 be3b a2fa 27be
000000b0: 9d31 213e 67aa d93d 44e5 a7bc 7670 08be
000000c0: 8875 59be 34d1 a1be 7c64 b23d 908e fb3d
000000d0: 92c2 7a3e 1424 e43d c5ac 213e 6f79 873e
000000e0: 4d95 02be ca0d 67be 72f0 213e c60d d83b
000000f0: 853f 9dbe a6b7 143e 64f6 743c 5e94 6abe
00000100: a69c 87bd c92d 6f3e c3e3 55bd a13c c2bd
00000110: 53d9 2dbb f4e6 5c3e d072 30be d8c8 83be
00000120: d614 92be 1199 4b3e 2d96 3abd 1f29 04be
00000130: 819f 4cbe 6056 0cbe fe24 39be a5fb a23e
00000140: 26bd 1dbe 8d8e 89bd 89db ce3d 2599 a13e
00000150: 8589 a8bd 1fcd 8c3d d331 783e 3500 34bd
00000160: d581 68bb 0ba5 80be 1bf2 5abe dfe1 37be
00000170: 6bd5 4b3e 988d 6fbc 07bd b1bd 40d3 d6bd
00000180: ad9f 4a3e 0b9d 68be 0bc3 9dbe c443 7cbe
00000190: 28e9 a93e bfcc 393e e5d2 25bd b5b7 e4bc
000001a0: a3cd b63e 372f 40bd 6dbb cb3c 5a33 333e
000001b0: e916 13be f657 783d 0678 48bd 08be a33e
000001c0: f783 18bc 6e2e 05be fbbf 063d a33f 04be
000001d0: 7f32 c73c 0c88 69be ee4d 30be 47e6 85be
000001e0: 19a0 96be cf3b 39bd 005f 693e 2a17 98be
000001f0: c14d ff3d d5b3 9f3e bd31 123e 8294 b53d
00000200: 6f84 3abe e11b d9bd 0a22 74be 629f 583e
00000210: 95de f3bc 7771 963e 12b1 76be 416d cb3d
00000220: a05f 72be dffd 663c 25c3 3c3b d8ea 04be
00000230: d728 8fbd b74f 39be d469 60be bfd9 18be
00000240: 4501 893d d1bc 813e 8170 8bbe 2bfe dc3d
00000250: d824 3fbe 1483 173d e4c6 3a3e 8ac9 203d
00000260: 3217 7fbe 26a5 38be 200b 913e 13bd 913e
00000270: 043e 3d3d b492 113e 5b65 3dbd cd67 8abe
00000280: 0c97 a73e a963 69be d206 883e 0dd5 6cbd
00000290: 8f8f af3d 8a57 1a3e 9e47 46be 45c3 04be
000002a0: f8ec 61be 49e8 b9be 8b17 1f3e 6b9b 81bd
000002b0: 0fa0 a4be 6f1b 11be abe0 a33e ed53 1d3e
000002c0: 9304 8ebe ad96 8fbd 16b0 8d3e 435d 4e3d
000002d0: 35f1 35bd 55e1 14be 295d b1bd 8ae8 d03d
000002e0: 8960 86be c0ee d5be c92c 203d ba5c b2ba
000002f0: c168 813d a8b8 33bc 8d6e 22be c689 6b3c
00000300: c6a9 9ebc 4ebf 71bd 8903 efbd fe4b 6cbb
00000310: 0afe 623c f1bc b53c 6572 11bd a69f 0b3d
00000320: 0bb5 06be 048e 813e ab6e 54bd a41e f03d
00000330: d36b 9e3c 5c46 9fbd 601b a7be f41f 683d
00000340: b0c7 933e 8281 b83c 5a23 58bd 6688 88be
00000350: 9563 ecbd c7f8 a23e 7ec0 4f3e 0b4b 9ebe
00000360: cdbd 823e 3731 abbe 4411 853e 8eb2 7a3e
00000370: 0e14 c8bb a8c0 0d3e 22d2 90bd 27a7 0a3e
00000380: e06b 633b 14eb 013e c2e4 b23e 6016 30bd
00000390: ea5e 2f3d cd79 12be 10e4 c23e 3feb 223e
000003a0: 7d60 3a3e f81f 00be e51c 9e3e 61a0 1e3e
000003b0: 08c2 aabd 76ee 243d 0c82 203e 4f9a b43d
000003c0: 8cd1 8fbe 8188 9fbd effe a3be 884e 0bbd
000003d0: 930c 3cbe 6b70 89bd 47c9 a4bd 67fd 7e3d
000003e0: 93a9 98be d5c9 753e 7aaa cc3d d750 78be
000003f0: b436 263e fe81 a9be feba 813e 3811 30be
0.152293 0.3880478 0.019022917 0.2519441 -0.021576038 0.30303413 0.12052167 -0.0012240057
-0.030683322 -0.29553887 -0.24805701 0.030450098 -0.13272679 -0.35670647 -0.09631891 0.09041155
0.35117358 -0.05351161 0.12365461 0.15456836 0.26999104 -0.30270633 0.33858684 -0.02212813
-0.17433706 0.06291024 0.17502175 0.071362466 0.34276274 -0.055274617 -0.23950659 0.1627023
0.06943526 0.06991863 0.19509006 0.011053785 0.12886058 0.33484575 0.0068235416 0.090423696
0.13155715 -0.21424113 0.0057995147 -0.16404203 0.15741582 0.10628205 -0.020495065 -0.1332415
-0.21236241 -0.31604922 0.08710572 0.12283051 0.24488285 0.11139694 0.15788563 0.26459834
-0.12752266 -0.22563854 0.15814379 0.006593439 -0.30712524 0.14523181 0.014951322 -0.2290816
-0.06621675 0.2335731 -0.052219164 -0.0948422 -0.002652724 0.21572477 -0.17231297 -0.2573917
-0.28531522 0.19882609 -0.045553375 -0.12906311 -0.19982721 -0.13704824 -0.18080518 0.31832615
-0.15404186 -0.067166425 0.10100467 0.31562153 -0.08229355 0.06875061 0.24237756 -0.04394551
-0.0035477777 -0.25125918 -0.21381418 -0.17957257 0.19905631 -0.014621161 -0.08678632 -0.104895115
0.19787474 -0.22716157 -0.30812868 -0.24635226 0.33185697 0.1814451 -0.040484328 -0.02791963
0.35703763 -0.046920028 0.024869645 0.17500058 -0.14364208 0.06063076 -0.04894259 0.3198092
-0.009308807 -0.13005993 0.03289793 -0.129149 0.02431607 -0.22805804 -0.17217228 -0.2615225
-0.2941902 -0.045223054 0.22790146 -0.29705173 0.12466002 0.31191888 0.14276786 0.08866216
-0.18214582 -0.106010206 -0.2384111 0.2115455 -0.029769221 0.29383442 -0.24090984 0.09932948
-0.2366929 0.0140986135 0.0028802839 -0.12980211 -0.069902115 -0.18096815 -0.2191537 -0.14926814
0.06689695 0.25339368 -0.2723427 0.10790666 -0.18666399 0.03699024 0.18239933 0.039254703
-0.24911192 -0.18031749 0.283288 0.28464565 0.04620172 0.14216119 -0.04623924 -0.2703232
0.32732427 -0.22791924 0.26567703 -0.05782037 0.085723035 0.15072456 -0.19363257 -0.12965114
-0.22063053 -0.36310032 0.15536325 -0.06328472 -0.32153365 -0.14170621 0.32007346 0.15364046
-0.27737865 -0.07011161 0.27673405 0.05038191 -0.044419486 -0.14539082 -0.08660347 0.10200603
-0.26245525 -0.41783714 0.03910521 -0.0013607957 0.06318808 -0.010969318 -0.15862484 0.0143761095
-0.019368064 -0.059020333 -0.11670596 -0.0036056037 0.013854513 0.02218482 -0.035509486 0.0340878
-0.13155 0.25303662 -0.051863354 0.11724594 0.019338524 -0.07777092 -0.32638073 0.056671098
0.28863287 0.022522692 -0.05276809 -0.26666564 -0.11542431 0.31830427 0.20288274 -0.30916628
0.25535432 -0.33435985 0.25989735 0.24482176 -0.0061059063 0.13843024 -0.0707133 0.13540326
0.003470175 0.12687331 0.34940153 -0.04299009 0.042815126 -0.14304276 0.38064623 0.15910052
0.1820087 -0.12512195 0.3088142 0.15490867 -0.0833779 0.040266477 0.15674609 0.088184945
-0.2808956 -0.07789708 -0.32030436 -0.03401044 -0.18364172 -0.06710895 -0.08046203 0.062253382
-0.29816875 0.24002774 0.09993453 -0.24249588 0.16231805 -0.3310699 0.25337976 -0.17194068

bias f4 [96]
00000000: 5495 133d 2688 583b be98 1dbe e46c 4dbe
00000010: 49d9 ec3d 7ce8 533e 5d28 41be 3d77 71be
00000020: 63aa 083e b520 84be 81a3 77be 90c0 8e3e
00000030: 4ddb 7b3e ca38 403e 93e3 433d bd97 fc3d
00000040: b94f 4b3e ada9 34bd 3316 79be 07cb 273e
00000050: 2bde 03be 7d47 a43e 6a4e 94be bdd5 52be
00000060: f121 85be bfe9 533e a39b 7ebe 6454 84be
00000070: 019b 9f3d ab70 573e 255d 903e a7dd 3ebd
00000080: 30e8 953e ed58 873e eeb4 b5bc 20ec 41bb
00000090: 202b 3bbe 0e21 9b3e cb34 713e 6f63 eb3d
000000a0: 607c 113e 5314 babd 5e80 5c3e 8e67 053b
000000b0: 7941 29be 8fbc 8bbe 1622 803e 275e 833e
000000c0: d963 7bbe d958 473d 4885 9d3e 3ad6 4fbd
000000d0: 8882 f6bb 75fa ce3d a90b 8e3e 4d5a 943e
000000e0: 2c90 883d 1a2f 843e 4242 d43e dbdb 92be
000000f0: 7898 80be 537c eebc a3da 88bd 80c7 3e3b
00000100: c87e 613d 918a 293e 7ccb a73d 3ace 133e
00000110: b55e 6c3e 3ca8 19bd e4ab f93a e910 90be
00000120: 43ec 04bd 3b6b eb3d 890d 77be bd21 e03d
00000130: e10d 8c3e af12 e5bd 5b23 de3c f0a6 883c
00000140: 25e1 af3e 4536 903e abfd e23d 0d78 573e
00000150: 37cc 8fbe 0cee 7e3e 7248 a93e 3f5e 123e
00000160: 3bc7 a2bd 312a 52be 208a 38be b67f 31be
00000170: 1f08 5c3e c72d 1e3e bf83 77be 9fa8 68be
0.036031082 0.0033040135 -0.15390298 -0.2006107 0.11564881 0.20694155 -0.18863054 -0.23580642
0.13346247 -0.25806203 -0.24183466 0.2788129 0.24595375 0.18771663 0.047824454 0.12333629
0.1985463 -0.044107128 -0.24324875 0.16386043 -0.12877719 0.3208579 -0.28966075 -0.20589347
-0.26002458 0.20694636 -0.24864058 -0.25845635 0.077932365 0.21039073 0.28196064 -0.046598103
0.29278708 0.26435032 -0.022181 -0.0029590204 -0.1827817 0.30298656 0.23555295 0.11493575
0.14207602 -0.09085908 0.21533343 0.0020355913 -0.16528882 -0.27292296 0.25026006 0.2565777
-0.24549808 0.048668716 0.30765748 -0.05074141 -0.0075228848 0.10106365 0.2774327 0.28975144
0.066681236 0.25817186 0.414568 -0.2868336 -0.25116324 -0.029112017 -0.06682327 0.002911061
0.05505255 0.16556765 0.081931084 0.14434138 0.23083003 -0.037513956 0.001904842 -0.281379
-0.03245188 0.11495062 -0.24126257 0.10943935 0.2735434 -0.11185204 0.027116468 0.016681165
0.3435146 0.28166404 0.110835396 0.2104189 -0.2808549 0.24895495 0.33063084 0.14293765
-0.079481564 -0.20523907 -0.1802144 -0.17333874 0.21487473 0.1544715 -0.24171351 -0.22720574

weight f4 [96]
00000000: a1c3 7f3f e333 7e3f bb68 7f3f cb22 7e3f
00000010: ef96 803f e550 833f d886 803f 94f6 7b3f
00000020: 9eeb 803f 3cd7 803f c837 7e3f 9ce5 823f
00000030: a642 7f3f 9939 803f 9642 803f 01f0 7c3f
00000040: a2f2 803f 9d46 7f3f 036c 7b3f 1fcc 7e3f
00000050: bcf8 813f 0d15 873f 89b9 703f db77 7e3f
00000060: 442d 7d3f d726 873f fe10 7d3f b9c9 7d3f
00000070: c5c9 7e3f ba69 773f dc87 833f 40bd 7c3f
00000080: 29a1 7b3f e59e 793f f72e 7d3f 842f 823f
00000090: 3094 793f f7ae 813f ce2a 803f fa3b 7c3f
000000a0: fcf1 843f 887c 803f 273e 803f 1e09 7d3f
000000b0: 6436 7a3f b09d 803f ab6e 823f ee3d 7f3f
000000c0: 2607 7c3f be4b 773f 0852 7c3f 298b 7c3f
000000d0: c72d 803f e3a5 803f 2fef 7a3f d100 823f
000000e0: 9493 803f 6c3f 7a3f 512e 843f 2c54 813f
000000f0: 3414 803f f797 7d3f abd8 813f acc5 803f
00000100: 0e0f 803f ceb2 793f 9690 783f b597 843f
00000110: 3c5e 7e3f 7a7a 813f cc4f 813f eb90 7f3f
00000120: 6aca 7e3f 19fd 793f 7f4c 7b3f 0ca3 7f3f
00000130: dfa0 7e3f 49c6 833f b9c6 7c3f 6b8f 7c3f
00000140: 58ff 7c3f 5f46 813f 8ce9 7e3f d68d 7c3f
00000150: 0211 7d3f 0ab5 803f 4cc2 8b3f 6a07 803f
00000160: 0cd5 7d3f 6cea 813f 4212 823f 0804 7f3f
00000170: bb5a 803f 476c 803f c32b 803f 23d0 803f
0.9990788 0.9929792 0.9976918 0.9927184 1.0046061 1.0259062 1.0041151 0.98423123
1.0071905 1.0065684 0.99303865 1.0226321 0.9971107 1.0017577 1.002032 0.98803717
1.0074046 0.9971712 0.9821169 0.99530214 1.0154033 1.0553299 0.94033104 0.99401635
0.98897195 1.0558728 0.98854053 0.9913593 0.99526626 0.966457 1.0275836 0.9872627
0.98292786 0.9750808 0.9889979 1.0170751 0.9749174 1.013152 1.0013063 0.98529017
1.0386348 1.0038004 1.0018967 0.98842037 0.97739244 1.0048122 1.0190023 0.9970387
0.9844841 0.9659995 0.9856267 0.9864984 1.001397 1.0050625 0.98021215 1.0156499
1.0045037 0.97753024 1.0326635 1.0103812 1.0006166 0.99060005 1.0144247 1.0060325
1.0004594 0.9753846 0.9709562 1.0358797 0.9936254 1.0115502 1.0102477 0.998305
0.9952761 0.9765182 0.981636 0.99858165 0.9946422 1.0294887 0.98740727 0.9865634
0.98827124 1.00996 0.99575114 0.98653924 0.98854077 1.0055249 1.091867 1.0002263
0.9915321 1.0149665 1.0161822 0.99615526 1.0027689 1.0033044 1.0013355 1.0063518

bias f4 [96]
00000000: e58b 2cbb 605a 21bc 46f2 af3b 042b 7b3b
00000010: fca3 573c 43b0 813b 4a1c 44bc 9b18 453c
00000020: 9afc 42bb c6ca d1ba bc7a e1ba d336 00bc
00000030: 7979 4abc c4cb a9ba aae8 78bb 7928 24ba
00000040: 5fee 003b 7aef a33b 7031 2fbb da88 92bb
00000050: c023 59bb 900f 14bc 17ae 063c a455 a63b
00000060: a620 2f3c 300c 073b b22d a0ba 85a7 94bb
00000070: 4785 e23b 26e5 5f3b f15f d7b9 9430 d03b
00000080: 1ac3 42bc 8a85 503a a450 883b 0726 c33b
00000090: 8861 073c 2c09 5fbc 18e5 ba3a 1ab2 8a3b
000000a0: 2ede 81bc 89e9 e73b f511 ebbb eedd 6abc
000000b0: 05c9 a039 2733 6abb 2223 c939 bbfe 3c3c
000000c0: f44c 24bc 1637 a13a bd07 bcbb 66d5 9cbb
000000d0: edcf 7fbb 21a1 013b 5724 493b 8416 1abc
000000e0: 9e95 69ba 220a ed3a 614e 01bc 73a4 adba
000000f0: 3ca7 00bb 37d3 133b 182d 063a 47d5 8fbb
00000100: e093 d1bb b16e 0dbb da39 3bbc 2f61 86bc
00000110: 3f06 56bc 7bf8 09bc 0397 933b 51f6 003c
00000120: e137 2dbc e7e0 253c 4277 13b8 d834 7038
00000130: 18f0 c0ba 498e 623b 38fa 1a3b c1b4 393b
00000140: c557 f63b 66e9 88bb b6d9 693c 8783 9639
00000150: c362 b83a b13d 3e3b 3fe5 293c f971 a23a
00000160: 2747 cebb 8055 f6ba bf4b 043b f6dd 823a
00000170: ee5f 5dbc 3fa8 0dba b5be 4e3c 0e61 11bb
-0.00263285 -0.009848207 0.0053694574 0.00383252 0.0131616555 0.0039577796 -0.011969635 0.012029792
-0.0029752613 -0.0016005866 -0.0017202715 -0.007825571 -0.012358063 -0.0012954404 -0.0037980475 -0.00062621344
0.001967333 0.005002913 -0.0026732348 -0.0044718804 -0.003313288 -0.0090369135 0.008220217 0.005076127
0.010688936 0.002060663 -0.001222065 -0.0045365714 0.0069128606 0.0034163683 -0.00041079478 0.006353447
-0.011887336 0.0007954469 0.0041600037 0.005955461 0.008262999 -0.013613027 0.0014258949 0.004232657
-0.015853014 0.0070774 -0.0071737715 -0.014335139 0.0003066735 -0.0035736056 0.00038363884 0.011535342
-0.010028113 0.0012299742 -0.005738227 -0.0047861813 -0.0039033846 0.0019779878 0.0030691826 -0.009404782
-0.00089105393 0.0018084685 -0.007892222 -0.0013247862 -0.001963093 0.0022556314 0.0005118414 -0.0043894383
-0.006395802 -0.002158087 -0.011427367 -0.016403763 -0.013063013 -0.008421059 0.004504086 0.007871226
-0.010572405 0.010124422 -3.51586e-05 5.7269674e-05 -0.0014719991 0.0034569672 0.0023647677 0.0028336497
0.007517787 -0.004178214 0.014273098 0.00028708225 0.0014067519 0.002902847 0.010369598 0.0012393586
-0.006295103 -0.0018793792 0.002018675 0.0009984362 -0.013511641 -0.0005403794 0.01261871 -0.0022183093

running_mean f4 [96]
00000000: 3c53 293e b566 243e 923d 853d 4182 ae3d
00000010: 2120 493e 447a b93e 5327 df3d 4e05 b73d
00000020: 7d98 983e 1560 933c b640 0a3e 7c78 cd3e
00000030: 0832 983e 2e7e b83e bd59 543e ea8c 793e
00000040: 33b4 843e c4a0 2c3e e426 a93d f208 b73e
00000050: a32a 8c3d 21b7 a33e 537b 1c3d 157f 0c3e
00000060: 0062 fc3d 00fb a63e bbf0 e33d 3dfc 3a3d
00000070: 2162 893e 32f1 b73e 4f82 ce3e 5f09 2c3e
00000080: 7a12 be3e c765 af3e 2c8a 8c3e 1770 673e
00000090: 8da9 813d 2cdb a43e 1eb4 883e b69a a93e
000000a0: e0fd 403e 2750 043e bae0 bb3e 9304 423e
000000b0: ce09 d83d 115f bb3d 6870 db3e cb8a 903e
000000c0: 5002 983d 6ace 543e ca96 ba3e 4863 4f3e
000000d0: cc13 4a3e 1545 263e 73c6 b83e fe75 b13e
000000e0: 1e95 713e 8231 de3e f307 db3e d7bd a03d
000000f0: 48e1 0d3e a62d 073e 15c6 2b3e 39a7 883e
00000100: ab14 7a3e d017 813e 966f 5d3e aa25 8f3e
00000110: c849 773e 986d 083e 80c4 1f3e 4eba d93d
00000120: 4cba 2c3e 8cbd af3e 6c9c a03d 0d6b 813e
00000130: b414 e73e 5a07 d73d 33cf 3e3e 1c17 073e
00000140: c120 ba3e c918 a73e f46c 863e 6efe 823e
00000150: 80ff 3e3d 9db6 a43e 1de1 a63e 3640 813e
00000160: a3f6 f43d 97a1 9c3d 3ea9 dc3d 34f3 453e
00000170: 83e3 8e3e aa4f 9b3e 4e75 7f3d 3ef2 913d
0.16535658 0.16054805 0.06505884 0.08520938 0.19641162 0.36226094 0.108961724 0.08936559
0.2980384 0.017990151 0.13501248 0.40130985 0.2972567 0.36033767 0.20737357 0.2437016
0.2591873 0.16858202 0.08259371 0.35749012 0.0684407 0.31975654 0.03820355 0.13720353
0.123233795 0.32613373 0.111299 0.04565071 0.2683268 0.35926205 0.40333793 0.1680045
0.37123471 0.34257337 0.27449167 0.22601353 0.06331167 0.32198465 0.26699919 0.33125848
0.18846846 0.129212 0.3669489 0.18947057 0.10548745 0.09148992 0.42859197 0.2823089
0.07422316 0.20781866 0.36443168 0.20252717 0.19734114 0.1623729 0.36088905 0.34660333
0.2359204 0.43397146 0.42779502 0.07848709 0.13855469 0.13201007 0.16774781 0.2669008
0.24421947 0.2521348 0.21624598 0.27958423 0.24149239 0.13323057 0.15602303 0.10631238
0.16867942 0.343243 0.07842335 0.25276986 0.45132983 0.10499449 0.18633728 0.1319241
0.36353114 0.32636097 0.26255 0.2558474 0.046630383 0.32170573 0.32593623 0.25244302
0.11961105 0.07648008 0.10774468 0.19331056 0.27907953 0.30334216 0.06236773 0.07126282

running_var f4 [96]
00000000: 8df9 203d b269 593d d19f 893c 0c8c e13c
00000010: 1ab7 123d f947 323e d11a 303d d796 d33c
00000020: 6d02 0b3e a3a3 573b 6a14 513d 9c32 353e
00000030: 3faf a03d 186b 6a3e 5cac b23d 6472 cd3d
00000040: ace0 933d 909f 833d 19e8 023d afc6 603e
00000050: cf82 813c 433a 093c 2ba5 263c 5c55 5c3d
00000060: 067f 463d 3be7 ef3d 01b8 443d 3ac0 2a3c
00000070: 0d96 da3d feba 1e3e 789d 843e a02f 6e3d
00000080: 48bf f93d fd6f 253e 4058 103e 75c6 d33d
00000090: 2551 893c e59c d03d 7e57 a03d e52c 3a3e
000000a0: 55ec 043d 1e5a 2a3d 88d6 363e a1e0 bb3d
000000b0: 7192 173d fab8 0a3d c3ad 773e 2017 763d
000000c0: 1557 d03c 94e9 aa3d 0dc7 e83d f6d6 9f3d
000000d0: 785a ad3d 7c34 0f3d a42d 053e 9e88 c03d
000000e0: 99ac cd3d 9e34 4c3e 29fe 1b3d d1ee f93c
000000f0: b8ac 7c3d 5d31 1e3d 6ef7 793d 20d3 1f3e
00000100: 961f e23d 178c 9b3d 5bfa 703d 5458 e63d
00000110: a1a8 4e3d e25f 443d eccb 343d 4f6e 2b3d
00000120: 8e72 9d3d 7972 513e 506d d23c 6a4f ea3d
00000130: 5204 673e 0f7b 043d d05c 5f3d 261e 2b3d
00000140: b08e 8c3d 5f58 ff3d 9eac 013e a934 8e3d
00000150: 78a6 6d3c 6912 e13d 7d37 f33c 2696 613d
00000160: 7ec7 4a3d 17d3 ab3c 2124 223d eb32 c63d
00000170: 7acd a23d 193e ef3d d2f1 a13c 2256 c63c
0.03930049 0.053079315 0.01679984 0.0275326 0.03581915 0.17410268 0.042994324 0.025828762
0.13575144 0.0032903932 0.05104486 0.17695087 0.078459255 0.22892416 0.08724281 0.10031584
0.07220587 0.064269185 0.031959627 0.21950792 0.015809445 0.008375707 0.010171215 0.053792343
0.048460983 0.117140256 0.048027042 0.010421807 0.10673151 0.1550102 0.2590139 0.058150887
0.12194687 0.16156001 0.14096165 0.10340587 0.016762326 0.10186175 0.07829188 0.18181188
0.032451946 0.04158985 0.17855275 0.09173704 0.03700489 0.033867814 0.24187379 0.060080647
0.025432149 0.08345333 0.11366091 0.078046724 0.08464521 0.034962162 0.13005692 0.09401058
0.10042686 0.19941947 0.038084183 0.030509384 0.061688155 0.038621295 0.061026983 0.15607882
0.11041181 0.075950794 0.058832508 0.11247316 0.050453786 0.047943003 0.044139788 0.041853245
0.07687865 0.20453824 0.02568689 0.11440928 0.22560242 0.03234392 0.054531872 0.0417768
0.06863153 0.12468027 0.12663504 0.06943638 0.014505021 0.109898396 0.029689545 0.055074833
0.049506657 0.020974679 0.039585236 0.096776806 0.07949348 0.11681766 0.01976863 0.024210993

weight f4 [256, 96]
00000000: beaf a93d 65b6 cc3d 61fb 91bc 6e6c a53c
00000010: 1e6e 623d 639f c53c 5616 a63d 0975 433d
00000020: 117e a93d 7dd7 593d 7b4b 7bbd 08a4 8dbb
00000030: d46d d53c 945d 3b3d 68df 7abd 620e 4fbd
00000040: 55a1 b8bd 9619 99bd f4e6 c1bd e29a bc3c
00000050: aaaa 6e3d 21fe c0bd be19 2dbd 6ec0 d6bd
00000060: 9328 6ebd 4955 9ebc ecd4 e3bb b1d8 32bd
00000070: 9083 f9bb d07d 22b9 a841 423c 5b57 af3d
00000080: cc99 d83d d5dd 5ebc 63e7 9d3d 36a0 bcbc
00000090: 7b50 1f3d b05a e83d e0ae 723d 43b1 bd3d
000000a0: 4fff 943d a924 ba3d 7e4c 14bd a207 623d
000000b0: 365d bcbd e186 a8bd fb9c a4bd d102 113d
000000c0: 7a7a 913d 593f 87bd 2546 c6bd 90c5 63bd
000000d0: 4dab 063d aaa7 333d 81c3 a93a af1a 10bd
000000e0: 2b52 f43b 01fb cc3b 1ab4 93bd 0bce 1cbd
000000f0: 29c5 483d fcc3 66bd a828 86bc 6d01 8dbd
00000100: ee92 403d 5141 a4bd 5bad 103d 8030 873d
00000110: 53ae 213d e691 b83d 5dab 8c3d 2089 bc3c
00000120: 12aa a7bd 95e4 06bd c95a b7bc 22ed a33d
00000130: 7286 80bc 010e 16bd c21c 3d3d 388c deba
00000140: aed1 89bd 6f3e 8abd c887 a3bb 73ce 813d
00000150: 92af 47ba f10d 593d 7929 663d d7a4 9c3d
00000160: 6304 fbbc 43b4 3c3d ebac 1ebd 64f4 a9bd
00000170: 99a7 a13d 7fd8 133d 9ae1 8fbc 5d3f c0bd
00000180: 4a38 5dbd 05bd 5dbd c060 18bd 28d7 873d
00000190: 14cd 33bc 1ca0 b23c 00da 81bd ae3d 94bd
000001a0: c98c 223d 435e 95bd 2c69 30bd 1737 d8bd
000001b0: 5417 513c 2de8 5a3d 5bb1 81bc 4d4b 50bc
000001c0: 13e6 4fbd fed1 bc3d 62d7 143d e261 f1bc
000001d0: 79b5 913c 2eba 5b3d 9241 60bd 266c a0bd
000001e0: 3676 ac3d c9df e6bc 05b1 0f3d 1d88 f43c
000001f0: c7b2 46bd a1f3 2abc 275c 9a3d 567e b5bd
00000200: a9a3 5dbc 8f22 c93d 6ecb 8dbd cf89 983d
00000210: b363 533c 69e5 af3d c832 513d 6422 a0bd
00000220: b870 03bd 2b3a 13bd bf57 6fbd caef bc3d
00000230: ab30 6d3d 844e 28bd c624 af3b a26b a43c
00000240: fe22 d53d f6b0 143d 57ec cb3c 7efe 8bbd
00000250: 0d14 a93d a8da 72bd 1aa4 24bd 1fb7 563d
00000260: cb2b 753d 2795 62bd 4355 533c 890e 3e3d
00000270: 9080 c6bd 6938 aebc 0b46 773d 8213 f2bc
00000280: 936a 903d 72c3 613c a566 bebd 6a80 5bbd
00000290: 4253 eabc b967 ae3d 7fc3 6bbd 79f5 ee3c
000002a0: 4b99 55bd a489 35bc 8eda 5cbd e072 c6bd
000002b0: 38df 913c 4352 6c3d 8596 c2bc c046 adbd
000002c0: bf2e b53d c938 ca3c 9ea6 683d 3c15 3c3d
000002d0: f79f a0bd b7a5 8e3d 8fbc b7bd ada2 69bb
000002e0: b025 a2bc acf9 2e3d 03b1 6b3d d742 003c
000002f0: 3766 a3bb 8210 c33d ff30 cd3c c20e 92bd
00000300: a17e 503d ac4f 08bd 008c 25bc 12db dd3c
00000310: d1f9 4bbd 93f0 1a3d 629f 3a3d 3e10 3cbd
00000320: b0d0 5f3c 28ba abbd e2ef 4abd bf5a b53d
00000330: 7269 31bc b8ac 9f3d 5aba 323d a389 44bd
00000340: ce0a de3d 3e11 d93c 3ccf adbc 1ec6 8e3d
00000350: b1fd 873c f533 29bd 1d35 b0bd 3541 31bd
00000360: ec25 edbc 24a5 463d 4a25 09bc d5c4 99bb
00000370: f216 d5bd e6cb b43d 5433 bc3d 43c0 5cbd
00000380: e239 06bd 9975 c13d e7fc d33d e8ed f83c
00000390: f526 6dbd 3035 a8bd df02 9d3d 2c96 883c
000003a0: 8a88 c8bd 63a7 33bc 9ebe a0bd afc8 44bc
000003b0: 9273 9cbd b061 36bd 9e9c f03d 0d91 263d
000003c0: 0592 383d 9cb8 60bc 2ddf 3e3d 0b7d 15bd
000003d0: ba39 173d e28e a43d 7db7 96bd 1b75 7d3d
000003e0: 9a76 ef3c 98f1 b03c 17be 98bd 2d7c dfbc
000003f0: 5edf d63a 7da6 843d 1092 673d 2b5b 29bd
0.08285473 0.099957265 -0.017820062 0.020193305 0.055280797 0.024123853 0.08109729 0.047719035
0.082759984 0.05318402 -0.06135128 -0.0043225326 0.026053347 0.04574354 -0.061248213 -0.050550826
-0.09015147 -0.07475583 -0.09467879 0.023023073 0.058268227 -0.09423471 -0.042260878 -0.10485922
-0.058144163 -0.019327777 -0.0069528725 -0.043663684 -0.0076145604 -0.00015496393 0.011856474 0.085615836
0.105762094 -0.013602694 0.07710149 -0.023025613 0.03889511 0.11345422 0.059248805 0.092623256
0.07275259 0.090890236 -0.03620576 0.05518306 -0.09197466 -0.08228851 -0.08037754 0.035403077
0.07103439 -0.066038795 -0.09681348 -0.055608332 0.03287821 0.04386107 0.0012951941 -0.035181697
0.0074560842 0.006255508 -0.07212086 -0.038282435 0.04901615 -0.05633925 -0.016376808 -0.068850376
0.047015123 -0.080202706 0.035321575 0.066010475 0.03947289 0.09012203 0.068686225 0.023014605
-0.08186735 -0.032932837 -0.022382157 0.08004214 -0.015689109 -0.03663445 0.046170004 -0.0016979044
-0.06729446 -0.067501895 -0.0049905516 0.06338205 -0.00076174096 0.05299181 0.056191895 0.07648628
-0.03064174 0.04607035 -0.038739126 -0.08298567 0.07893295 0.03609514 -0.01756363 -0.093870856
-0.05400876 -0.05413534 -0.037201643 0.06632835 -0.010974187 0.021804862 -0.06340408 -0.07238327
0.039685044 -0.072933696 -0.04306905 -0.105573826 0.0127619095 0.053444076 -0.01583164 -0.012713266
-0.050756525 0.0921974 0.036338218 -0.02946562 0.017786728 0.05364435 -0.054750033 -0.07833128
0.084209844 -0.028182881 0.03508093 0.02985006 -0.04851034 -0.010434062 0.07537108 -0.08861987
-0.013527789 0.09821045 -0.06923567 0.0744816 0.012902188 0.085886784 0.05107382 -0.078190595
-0.03208992 -0.035944145 -0.05843329 0.09225424 0.05790774 -0.041090503 0.00534496 0.020070855
0.10407065 0.036301576 0.024892969 -0.0683565 0.082557775 -0.059290558 -0.040195562 0.05242073
0.059856217 -0.055318024 0.012898746 0.04640058 -0.0969249 -0.021267133 0.060369533 -0.029550318
0.070515774 0.013779508 -0.09296922 -0.053589262 -0.028604154 0.08515877 -0.057559486 0.029169785
-0.052148145 -0.011080179 -0.053919367 -0.096898794 0.017806634 0.05769564 -0.023753414 -0.0846076
0.08846807 0.02468528 0.056799524 0.04591869 -0.07843011 0.06965201 -0.089715116 -0.003564994
-0.019793361 0.042718574 0.05754186 0.007828436 -0.00498655 0.09524633 0.025047777 -0.07131721
0.050902013 -0.033279106 -0.010104179 0.027082 -0.04979879 0.037827086 0.045562156 -0.045913927
0.013660595 -0.08385116 -0.049545176 0.08855199 -0.010828363 0.07796615 0.04363475 -0.047982823
0.108419046 0.02649748 -0.021216981 0.069713816 0.016600462 -0.041309316 -0.086038806 -0.043275077
-0.028948747 0.048497334 -0.008370707 -0.0046926537 -0.10404767 0.08827953 0.091894776 -0.053894293
-0.032770045 0.09446258 0.10350972 0.03038688 -0.05789848 -0.0821327 0.07666563 0.01667317
-0.09791668 -0.010965201 -0.07848857 -0.012010737 -0.07639231 -0.044526756 0.11748622 0.040665675
0.04506113 -0.013715889 0.046599556 -0.036496203 0.036920287 0.08035065 -0.07359216 0.06187926
0.029231358 0.021599576 -0.07458132 -0.027280891 0.0016393473 0.064770676 0.05653578 -0.04134671

bias f4 [256]
00000000: cf27 ae3d cc7a bb3d 8d06 c43d 834a 0aba
00000010: 323f 9c3b 617a 81bd 1007 c0bd 7432 5a3c
00000020: 9b0a 8e3c 7800 c2bd b88c cabb 0f0f b5bd
00000030: 7002 bf3c 7479 6f3d 74bd a93b 6a58 7ebd
00000040: eb62 8abd 9ddd bd3d a4dc f6b9 b9a6 533d
00000050: 3342 f3bc f72e 8e3d 52b9 063d dfb0 be3c
00000060: fe37 c03d 3db8 ca3d da92 d9bd 7cb4 81bd
00000070: da0d 34bd 7877 efbc b283 3b3b d817 9d3d
00000080: b822 8cbd e930 0d3d 0dcb d9bd 67f6 3f3d
00000090: 3a89 8f3d d0b2 54bd 6e00 dcbb ef44 963d
000000a0: fa96 37bd d5a6 433c d431 b5bd 4c0c abbd
000000b0: b059 a73b d356 aa3d e890 a2bd d6fc 853d
000000c0: 0129 7dbd 4f42 aa3c ca2d ffbc 3deb ea3c
000000d0: b455 9c3d 4b78 85bd e1bf 343d bdb5 3a3d
000000e0: 4549 1a3d 6352 1bbd 58c4 133d 6a62 4c3d
000000f0: 0f05 cebd ff60 b7bd fe5c 223d 184e 5b3d
00000100: 70c2 80bd 2976 063d 851a c83d f13a d9bc
00000110: f908 6fbc 7548 c73d e019 683d 5f52 a8bd
00000120: 9d91 09bd 7913 713d 0748 bb3d 0a67 d33d
00000130: e24e cabb 1e3b e33c 845b 803d a85e aabd
00000140: 7fb0 c9bc 54a5 1e3d 3541 843b 2d66 7bbd
00000150: 95d6 fabc 2c33 3fbd 75be ebbc f5d2 8e3c
00000160: b381 b43c c526 91bb 3390 c03d fc0e 933b
00000170: ad9e 47bd 9d22 1dbc 176f 15bd e82d bebc
00000180: 5d60 d8bb f655 653d 8520 883c 572b c2bd
00000190: 131f f83c 5d5f 9d3d 371a 4e3d 4fff db3c
000001a0: ed2b 563c 661b 763d 2832 28bd 4b82 76bd
000001b0: 3e63 21bd ca36 533d 5349 bebd a674 94bd
000001c0: e7b7 643d ed83 b5bd dbd1 b53c c7db 003d
000001d0: e15e 7dbd 6c21 cc3c d627 8c3d 4167 cf3d
000001e0: c0ec 3abc 7cbc 3a3d 84e1 8fbb b79d b23d
000001f0: 76e7 5b3d 74ef 893d dbf9 cdb9 f21f c7bd
00000200: 3bc2 37bb 8b0f 9ebc 0e6a aabd e67d 683d
00000210: 0e03 b03d 48b6 be3d 3cd6 28bd 3bfc c43b
00000220: 85d1 973d 47f2 75bd 0042 d6bb 2d33 38bc
00000230: 14ab 033d 18e4 1d3d b14e 86bd b045 6cbd
00000240: 36a4 8cbd 1c2d 5ebd 1ef6 a0bd fa8a 193d
00000250: 2a3b adbd ef24 c6bd d310 593d 4dd9 353c
00000260: e134 c33d 4454 07bc 9922 bf3d c961 16bd
00000270: 6f5a 093c 67d8 783d 1623 a4bd e0b9 75bd
00000280: f2f1 05bc c466 58bd ed2f 8bbd c189 fcbb
00000290: f380 30bd 417b fd3c da92 3abb c2bc 913d
000002a0: e8d7 8cbd 6f94 dc3d 9838 e33c bda2 86bc
000002b0: 088c c53d f529 c0bd f008 1cbc 942b 603c
000002c0: bdaf 3f3b e318 883d 70a7 83bd 3d7d 85bd
000002d0: a439 b7bd bce8 e53b 439d 2b3c 90d6 c7bd
000002e0: 1911 94bd c1c5 87bd 1322 4ebd f2f5 4d3d
000002f0: 19e6 6bbd e76c f33a 485c 3ebc 58ae 743d
00000300: 05b3 903c 57db 80bb 0e68 1dbd d681 b83c
00000310: fbd7 373d 9c41 99bd b600 703d 3920 21bd
00000320: 0d4c 523c cded c2bd b76e 8abd 5651 b63d
00000330: 3087 bc3b b390 bcbd 383f e9bc 40d6 803a
00000340: b5d5 6f3d 207d bb3c f121 e3bd 1ddf 4bbd
00000350: d38f a1bd 8f94 753d faab 06bd 9a49 a7bb
00000360: d0c1 ae3d 5570 2fbd 1123 4fbd 3726 973c
00000370: 6da3 d6bc 9e62 11bd ae0b 943d 637a c73d
00000380: 3996 75bd cde4 ccbd b3e0 3f3d f839 42bd
00000390: 0af7 43bd b0c2 db3d 6455 333d a53d 253d
000003a0: ef2f 323d a8fa 1bbc 9333 e93b c740 793b
000003b0: 8dcd 08bd 3152 a2bd 11bf 003d 1c92 49bc
000003c0: 1ef4 e03c 1248 6a3b fcf5 6abd 56b3 c9bd
000003d0: 5b48 b3bd c4e4 a3bd d63c 86bd da40 163d
000003e0: ec8d 80bd 5eb1 363d 628b 883d 5504 b83c
000003f0: 1365 7bbd 9314 9f3c 315e 9fbd a0e7 2cbd
0.08503687 0.09154281 0.09571562 -0.00052753853 0.0047682757 -0.0632217 -0.09376347 0.013317693
0.017339041 -0.09472746 -0.0061813258 -0.08840763 0.023316592 0.058465436 0.0051800553 -0.062096037
-0.06757148 0.09270785 -0.00047085166 0.05167267 -0.029694652 0.069425516 0.03289158 0.023277698
0.0938568 0.09898422 -0.10623713 -0.06333253 -0.043958522 -0.029231772 0.0028612432 0.076705635
-0.068425596 0.034470472 -0.10634432 0.046865847 0.07008596 -0.05192834 -0.0067139184 0.07337367
-0.044821717 0.011941631 -0.088473946 -0.08351955 0.005107127 0.08317342 -0.07937795 0.06542365
-0.061806682 0.020783572 -0.031149764 0.028676623 0.07633534 -0.06517085 0.044128302 0.045583475
0.03766753 -0.037920367 0.03607592 0.049898542 -0.100595586 -0.089540474 0.039639466 0.053541273
-0.06287086 0.03282753 0.09770683 -0.026517363 -0.014589542 0.09730617 0.0566653 -0.08218836
-0.033586133 0.05885646 0.091445975 0.103223875 -0.0061739543 0.02773815 0.06267455 -0.083188355
-0.024620293 0.038731888 0.0040360936 -0.06137674 -0.030619899 -0.04667966 -0.02877734 0.017434577
0.022034502 -0.0044296705 0.09402504 0.0044878703 -0.04873531 -0.009590772 -0.036482897 -0.02321525
-0.0066032843 0.055990182 0.016617069 -0.09480923 0.030288255 0.07684205 0.05031797 0.026855139
0.013071996 0.060084723 -0.041063458 -0.06018285 -0.039401285 0.051565923 -0.09291329 -0.072488114
0.055839445 -0.088630535 0.022194793 0.031459596 -0.06185806 0.02491828 0.068435356 0.10127116
-0.011408985 0.04558991 -0.004390897 0.08721488 0.053687535 0.06735125 -0.00039286804 -0.0972289
-0.0028039354 -0.01929452 -0.083210096 0.05676069 0.08594333 0.09312111 -0.041219935 0.0060115135
0.074130096 -0.060045507 -0.0065386295 -0.01124267 0.032145575 0.038547605 -0.06557978 -0.057683647
-0.06867258 -0.05424224 -0.07859443 0.037486054 -0.0845855 -0.09675013 0.05299456 0.011099172
0.0953157 -0.008259837 0.09332771 -0.03671435 0.008383377 0.060753252 -0.080145046 -0.059991717
-0.00817536 -0.05283238 -0.067962505 -0.007706851 -0.043091726 0.030942561 -0.0028468878 0.07116081
-0.06877118 0.10770499 0.027736947 -0.016435022 0.096458495 -0.09383003 -0.009523615 0.013682265
0.0029249035 0.06645372 -0.064284205 -0.06518028 -0.08946541 0.0070162695 0.010474506 -0.097577214
-0.072298236 -0.066295154 -0.050325464 0.05028338 -0.057592485 0.0018571884 -0.011618681 0.05973658
0.017663488 -0.0039323973 -0.038429312 0.022522848 0.04488371 -0.07483217 0.058594428 -0.03933737
0.012835515 -0.09518013 -0.067593984 0.08902232 0.0057534203 -0.09207287 -0.028472528 0.0009829476
0.058553416 0.022886813 -0.11090458 -0.049773324 -0.078887604 0.05995613 -0.032878853 -0.0051052095
0.085330606 -0.042831738 -0.05057055 0.01845084 -0.026200974 -0.03549444 0.0722879 0.0974014
-0.059957717 -0.10004578 0.04684515 -0.047418565 -0.047843017 0.10730493 0.043782607 0.040341992
0.043502744 -0.00952021 0.007116744 0.0038032995 -0.033399154 -0.07925833 0.031432215 -0.012302902
0.027460154 0.0035748524 -0.057363495 -0.09848659 -0.08754035 -0.08002618 -0.06554572 0.03668294
-0.062770694 0.044602744 0.0666721 0.022463003 -0.06137569 0.01941899 -0.077816375 -0.042213082

weight f4 [256]
00000000: 3c31 813f 0a4e 7d3f 1252 7e3f 542b 7b3f
00000010: 9751 803f 6c7d 803f df1b 7d3f 9d7b 7e3f
00000020: 7a10 813f 91a1 7e3f d2ae 803f 98dc 803f
00000030: ae2c 803f 9b1e 803f 19c1 803f 6cd6 7c3f
00000040: 5e42 7f3f 5ce8 803f 48e8 813f bff3 7c3f
00000050: 2ae2 823f 738a 823f 4909 7f3f dcdc 803f
00000060: 3e43 823f d250 7e3f 7d16 7f3f 1eff 7c3f
00000070: 62d4 803f 4408 7d3f 4b77 813f 3481 7c3f
00000080: f772 813f 5f49 803f 1b3b 813f 499f 7f3f
00000090: fd02 7f3f 1f39 803f d699 813f 119c 7f3f
000000a0: ec09 803f 430f 803f 8d66 803f deed 803f
000000b0: 1d4f 7f3f c97a 803f d220 7f3f e780 7f3f
000000c0: 6903 803f 6001 7f3f b01e 803f d09e 7d3f
000000d0: d86b 7d3f 03cb 823f 887e 813f c10b 813f
000000e0: ff2f 7f3f b1df 7d3f a26e 803f a937 813f
000000f0: c744 813f f6bb 7f3f fc6f 7f3f ad08 813f
00000100: b535 803f 4f25 803f e32d 7e3f fa18 803f
00000110: ecda 803f 08a4 7e3f fab1 7f3f 8ee7 7e3f
00000120: 183d 813f 9963 7f3f acdd 7e3f 29c7 803f
00000130: f206 813f 95b3 7d3f fdc9 803f fb92 7f3f
00000140: 6f4e 7d3f 3837 7f3f 10b0 7d3f feda 7f3f
00000150: 86c3 803f 8bd2 813f 7848 813f 3966 813f
00000160: a541 7f3f 258d 7f3f 9f1a 7d3f faa4 7f3f
00000170: 3d3e 7f3f 8e62 7d3f e0ef 7f3f 984f 813f
00000180: 532f 7f3f d90f 803f 22bd 7e3f 5822 7f3f
00000190: 5a59 7e3f bbf4 7a3f 6773 7d3f c34b 803f
000001a0: c72d 7f3f af3f 813f b18b 7d3f 1cee 7e3f
000001b0: 4092 803f a9c6 7f3f f287 7e3f 45fc 7d3f
000001c0: 4361 803f 41e0 7f3f b215 803f 9366 7c3f
000001d0: a5aa 7e3f 942d 803f efb4 833f 03ec 7e3f
000001e0: 1960 813f 0560 803f 86ac 7f3f 1882 7b3f
000001f0: 3814 803f e739 7e3f fd64 7e3f 51a1 803f
00000200: 64fc 7f3f ee43 7f3f 574c 813f f7d2 7e3f
00000210: 8936 7d3f 7366 803f 1963 803f 1031 803f
00000220: 838f 7a3f f661 803f 5f36 7f3f 9508 7c3f
00000230: 1eef 7b3f d2d8 7e3f e37d 803f 1742 813f
00000240: 1731 803f 91b7 7e3f f29c 803f 4e2d 813f
00000250: a41f 813f cdb4 7f3f 0bbc 813f bb4c 7d3f
00000260: 2601 7e3f 5eab 7d3f ff25 803f 7cbb 803f
00000270: a99d 7d3f 31f6 813f 372e 813f 20e1 803f
00000280: e276 813f d143 803f eae3 7d3f 1e52 803f
00000290: 652e 823f 859f 7c3f c1b6 7e3f 9aa8 803f
000002a0: 18b5 783f 1408 7f3f f11a 7f3f ca8c 803f
000002b0: a3ba 803f cf9e 823f 03ef 7a3f 34c5 7e3f
000002c0: 84c1 803f 72e9 803f 3a3b 803f c05f 813f
000002d0: cd20 7f3f 2aa5 7f3f e019 7d3f ae79 7f3f
000002e0: 674b 7f3f acd2 7e3f 5895 803f e596 803f
000002f0: 4024 823f d8ba 7f3f b099 7e3f 455d 7e3f
00000300: aefa 7f3f 6c18 803f e435 813f 8966 803f
00000310: 68a1 7c3f bd0f 813f 5f05 7f3f 0b3f 7c3f
00000320: 8427 813f d5c8 813f 7aac 803f 28ae 7e3f
00000330: 321f 803f 9650 7e3f 18c7 7d3f 7a96 7f3f
00000340: 69d6 7a3f 5884 803f bc47 823f 1fb4 7e3f
00000350: 48c4 7d3f ca3c 803f dec0 813f 2546 7f3f
00000360: 494d 803f db8a 803f d4e9 803f 729a 7b3f
00000370: be75 7e3f d45d 7e3f 63c7 803f 26f5 803f
00000380: f626 803f d5fa 7e3f 1db8 7f3f 68e9 7f3f
00000390: 33f1 803f ca1a 813f f9ce 7f3f ee40 803f
000003a0: 59e3 803f bf14 7e3f 3d1d 813f df34 7d3f
000003b0: 610e 803f a7cc 803f 3c51 7f3f 96c3 7f3f
000003c0: 05a7 803f 6629 7d3f 162b 813f d00d 7f3f
000003d0: ddda 7e3f c9b9 793f 2740 813f b3fa 7e3f
000003e0: 9558 803f 0b35 7d3f b09e 803f 6981 803f
000003f0: 6c50 7f3f e2f6 813f 345d 7f3f 1680 7e3f
1.009315 0.98947203 0.9934398 0.9811299 1.0024899 1.0038276 0.9887065 0.9940737
1.0083153 0.9946528 1.0053351 1.006732 1.0013635 1.000934 1.0058929 0.9876468
0.99710643 1.007091 1.0149012 0.9880943 1.022527 1.0198501 0.99623543 1.0067401
1.0176771 0.9934207 0.9964369 0.9882678 1.0064814 0.9884074 1.011453 0.9863465
1.011321 1.0022391 1.0096163 0.99852425 0.99613935 1.0017432 1.0125072 0.99847513
1.0003028 1.0004658 1.0031296 1.0072591 0.9973009 1.0037471 0.99659455 0.99806064
1.0001041 0.99611473 1.0009365 0.99070454 0.9899268 1.0218204 1.0116739 1.0081712
0.9968261 0.9916945 1.0033762 1.0095111 1.0099114 0.9989618 0.9978025 1.0080773
1.001639 1.0011386 0.9928877 1.0007622 1.006681 0.9946904 0.99880946 0.99572074
1.0096769 0.9976135 0.99556994 1.0060779 1.0080245 0.99102145 1.0061642 0.9983365
0.98947805 0.9969363 0.99096775 0.9994353 1.0059669 1.0142378 1.0100241 1.0109321
0.9970954 0.99824744 0.98868746 0.9986111 0.99704343 0.9897851 0.99975395 1.0102415
0.99681586 1.0004836 0.99507344 0.9966178 0.9935509 0.9802968 0.99004215 1.0023121
0.99679226 1.009756 0.9904128 0.99582076 1.0044632 0.99912506 0.99426186 0.9921306
1.0029682 0.9995156 1.0006621 0.98594016 0.9947913 1.0013909 1.0289592 0.99578875
1.0107452 1.0029303 0.99872625 0.9824538 1.000617 0.993071 0.99372846 1.004923
0.9999449 0.9971303 1.0101422 0.99540657 0.9891134 1.0031265 1.0030242 1.0014973
0.9787523 1.0029895 0.9969234 0.98450595 0.9841174 0.9954959 1.0038418 1.0098294
1.0014981 0.9949885 1.0047896 1.0091951 1.0087781 0.99885255 1.0135511 0.98945206
0.992205 0.9908961 1.0011595 1.0057216 0.99068695 1.0153257 1.0092229 1.0068703
1.0114405 1.0020696 0.99175894 1.002506 1.0170408 0.9868091 0.9949761 1.0051453
0.9715133 0.996217 0.99650484 1.0042965 1.0056957 1.0204715 0.9802095 0.9951966
1.0059056 1.0071242 1.0018075 1.0107346 0.99659425 0.99861395 0.9886761 0.99795043
0.9972443 0.9954021 1.0045576 1.0046049 1.0167313 0.99894476 0.9945326 0.9936107
0.9999188 1.0007453 1.0094571 1.0031291 0.98683786 1.0082928 0.9961757 0.98533696
1.0090184 1.0139414 1.0052636 0.9948449 1.000952 0.99341714 0.9913192 0.99838984
0.97983414 1.0040388 1.0178142 0.9949359 0.99127626 1.0018551 1.0136983 0.9971641
1.0023586 1.0042375 1.0071359 0.9828254 0.9939841 0.9936192 1.0060848 1.0074813
1.001189 0.9960149 0.9989031 0.99965525 1.0073608 1.00863 0.9992519 1.0019815
1.0069381 0.99250406 1.0087048 0.989088 1.0004388 1.0062455 0.9973333 0.99907815
1.005097 0.98891294 1.0091274 0.9963045 0.9955271 0.9754911 1.0097703 0.99601287
1.0027033 0.9890906 1.0048428 1.0039493 0.9973209 1.0153468 0.9975159 0.99414194

bias f4 [256]
00000000: 4963 803b ce0a d03a dadc 6539 1798 4d3b
00000010: f8f6 c13a 1b00 803a 1b14 403b c3b6 2f3c
00000020: 5bbf 673b d101 a43b 9060 14bc d20a 153a
00000030: 8874 413b e55e c23b 459b e6bb a557 bcbb
00000040: 5f65 dfba dfc1 0a3c 5a21 f038 155d dc3b
00000050: c5ea 9cba a94a 2abc 78bc 1b3b adc2 05bb
00000060: fa31 8cbb 9859 093c d996 01bc 3cc9 0b3b
00000070: 52f0 8abb 2abe 98bb a098 8abb 2a2d 953b
00000080: 3989 083c 84d4 84bb de42 9f3b ca7f f13b
00000090: 0764 fdb9 2d7d ee3b 02a0 013c 71ea cd3b
000000a0: 0dc6 a13b e885 5f3b acf5 c33b fd39 8bbc
000000b0: eadd 2fbc 5118 d3bb 8c7a 1dbb a77a c0bb
000000c0: e63a 763b 097c ff3b 8718 c7bb a540 833b
000000d0: b104 be3a c6fa 8aba 81ff 3ebb a774 bfba
000000e0: be01 bd37 4fea 3dbb 9786 abbb ef8b 0d3b
000000f0: 56a9 a33a 1633 943a 72d1 c3b9 ec31 903b
00000100: 6dbf 2aba fbd8 cc3b 8ed4 803b 6969 70bc
00000110: 5a66 86bb 279e 413b 8b72 e4ba abd2 bebb
00000120: eac2 62bb c108 a03b 7574 6fbb ed84 c9bb
00000130: d0fc 083b 641f e63a b7ee 0b3b 05ff 04bb
00000140: 6a1b a139 fbef 923a ce84 023c d62f 263c
00000150: 600a 76bb 1d9a acb9 9fcf 05bb 5256 513a
00000160: ba15 1439 9cad d039 eb35 e6bb 3bfd bfbb
00000170: 8b80 4f3b 9a49 15bb 9c97 52bc 4d19 89bb
00000180: 34b4 cab9 d2ab 183b 547f 9c3b 0aae f8bb
00000190: 2943 d43b fb80 09bb 822c 73b8 5c0b 08bb
000001a0: e431 7f3a 52e6 963a eabd e73b a440 26bb
000001b0: 8269 0c3c 763e 99bb 0b80 9739 c515 073c
000001c0: ab35 413c d833 bcbb 761a b2bb f8b5 883a
000001d0: b7ae 413b fc31 15bc 8d09 943b 4560 f63a
000001e0: 1ae9 cfbb b114 1abb 2469 47bb 8816 0eba
000001f0: 1d88 a939 b056 55bb c7cc 203c 3df4 b8bb
00000200: b725 933a f396 40bb df8b 79bb acea ea3b
00000210: af1a 12bb 4e04 f2ba 83e8 bcbb 59dd adba
00000220: 5d02 7b39 b241 bfba 8a6c 44bb 40ce 2dbb
00000230: 883b 4bbb 8155 93bb 5bd5 cb3b e573 d7bb
00000240: 2313 2b3c 2ea6 753a 34d0 84bb d511 90ba
00000250: 77f9 edbb fdca 9d3b e01c ccba 82ce a539
00000260: 54c4 e1bb fedb 173a d9a8 52bb d43d 64ba
00000270: 2b34 06bc 5179 183b 1405 b2bb 8025 a53b
00000280: c549 a33b 436d 3cbc 6122 003b a7e7 49bb
00000290: a2ce 93bb b385 033a 8389 223a c690 b13a
000002a0: 1ea5 13bb 0d39 a5bb 4045 74b9 8df3 d4ba
000002b0: 0305 703b c69d 31bb e140 23bc 84f3 2ebb
000002c0: 0e0b 213c 2ce0 193b 5e61 fbbb ecd4 22bc
000002d0: 1f5f ad39 dae0 693b 60a4 5dbb b513 a9bb
000002e0: 7898 9fba 200d 36bb 5bd3 20bc a788 45bb
000002f0: d92d 50ba 0be1 95ba c1f5 63bc 8bab 2a3c
00000300: 04c8 33bc 2377 f4ba fd78 993b 0574 283c
00000310: d7ca 08bb 1ecb 863b b339 90ba d821 6e3b
00000320: 9428 9cba f3ed 9bbb eb95 583b dce8 19bb
00000330: 3131 ceb9 2dca 2dbb f45a 24bb be3e 11bc
00000340: 4baa c6bb 3da7 95bb 2351 51bb 41f2 023c
00000350: 5c73 193b 727e c5bb c76f b8bb 5745 673b
00000360: 5daf 813b 02a2 aa3b a962 843b c6de 413a
00000370: accd 22bb 3cd6 f23a 3c1c a0ba 5367 95bb
00000380: 0a02 14bc efa7 31bb 5977 0abc dee1 8f3a
00000390: 6eee b8ba 20fa c33a 817e 583b e790 f63b
000003a0: e567 18bc a120 f03a 81c3 d139 4f13 0fbb
000003b0: 30b9 073b 0c73 5ebb f78b d139 63fd cfbb
000003c0: 8e38 533b 34c3 0ebc 3c2b 4ebb da86 cc3b
000003d0: 4d71 713b da9a 1bba 9e36 cabb 6607 7b3b
000003e0: 1a5b 03bc b85c fe3b 4a3f f33b 80a1 89bb
000003f0: 4128 913b 7b63 eaba ec2a 3c3b 6598 2fbb
0.0039180857 0.0015872361 0.00021921415 0.003137117 0.0014798334 0.0009765656 0.0029308859 0.010724726
0.003536186 0.0050050993 -0.009056225 0.0005685511 0.002951892 0.0059317225 -0.0070375525 -0.0057477527
-0.0017043761 0.008469074 0.00011450304 0.0067249634 -0.0011971822 -0.010393777 0.002376346 -0.0020410225
-0.0042784186 0.008383177 -0.0079095 0.0021329662 -0.004240074 -0.004661341 -0.00422962 0.004552503
0.008333498 -0.004053654 0.004860266 0.00736997 -0.00048330447 0.0072781057 0.007911684 0.006284051
0.0049369396 0.0034106914 0.005980214 -0.016995424 -0.010734061 -0.0064421077 -0.0024029342 -0.0058739963
0.0037571727 0.0077967686 -0.006075922 0.004005509 0.0014497248 -0.0010603301 -0.0029143991 -0.0014606909
2.2531367e-05 -0.002897877 -0.00523455 0.00215983 0.0012486379 0.0011306729 -0.00037349347 0.0044004824
-0.000651351 0.006251452 0.0039315885 -0.014673569 -0.0041015567 0.002954373 -0.0017429156 -0.0058234534
-0.003460104 0.004883856 -0.003653792 -0.006149879 0.002090264 0.0017556963 0.0021352002 -0.0020293605
0.00030728738 0.0011210436 0.007966233 0.010143241 -0.0037542805 -0.0003292122 -0.0020417941 0.000798558
0.00014122474 0.000398022 -0.0070254705 -0.005859045 0.003166231 -0.0022779466 -0.012853529 -0.0041839243
-0.00038662704 0.0023295772 0.004775921 -0.0075891064 0.0064777327 -0.002098142 -5.7977166e-05 -0.0020758724
0.00097349123 0.0011512733 0.0070722 -0.0025368119 0.008570077 -0.0046766354 0.00028896364 0.008244936
0.011792581 -0.005743485 -0.0054352833 0.0010430207 0.00295536 -0.0091061555 0.00451774 0.0018797001
-0.0063449265 -0.0023510868 -0.003042766 -0.00054202275 0.00032335604 -0.003255289 0.009814448 -0.00564435
0.001122645 -0.0029386848 -0.0038077754 0.0071690883 -0.0022293737 -0.0018464418 -0.0057650222 -0.0013264819
0.00023938106 -0.0014591722 -0.002997192 -0.002652064 -0.0031010825 -0.004496277 0.0062205023 -0.006575095
0.010441574 0.0009370771 -0.00405314 -0.0010991642 -0.0072624045 0.004815458 -0.001557257 0.00031625113
-0.006889859 0.0005792974 -0.0032144098 -0.0008706723 -0.008191149 0.002326567 -0.0054327343 0.0050398707
0.0049831592 -0.011500659 0.0019551741 -0.0030808242 -0.0045107165 0.0005017176 0.00062003004 0.0013547174
-0.0022528837 -0.0050422014 -0.00023295451 -0.00162469 0.003662408 -0.0027102097 -0.009964199 -0.002669544
0.009829296 0.0023479564 -0.007671519 -0.00993846 0.00033068002 0.0035687 -0.00338199 -0.00515982
-0.0012176177 -0.002777882 -0.009816016 -0.0030141266 -0.0007941402 -0.0011434866 -0.013913573 0.010416876
-0.01097298 -0.0018651228 0.0046836124 0.010281567 -0.0020872855 0.004113569 -0.0011003524 0.003633609
-0.0011913949 -0.0047585904 0.0033048342 -0.0023484742 -0.00039328032 -0.0026518211 -0.0025078626 -0.008865057
-0.006062781 -0.0045670555 -0.003193923 0.007992328 0.0023414707 -0.0060270363 -0.0056285593 0.0035289133
0.0039576725 0.005207301 0.0040400815 0.00073955616 -0.0024841828 0.0018526982 -0.0012215446 -0.0045594363
-0.009033689 -0.0027108153 -0.008451306 0.0010977348 -0.0014109144 0.0014951862 0.0033034387 0.007524598
-0.009302114 0.0018320271 0.00040009248 -0.0021831577 0.0020709746 -0.0033943085 0.00039967868 -0.0063473447
0.0032229754 -0.008713532 -0.0031458875 0.0062416615 0.0036841214 -0.00059358554 -0.0061710617 0.003830397
-0.008017326 0.007762518 0.007423316 -0.0042001605 0.0044298475 -0.0017882431 0.0028712107 -0.0026793715

running_mean f4 [256]
00000000: 06fc 9c3e 2b7b 893e 9ef4 be3e b9e0 653e
00000010: 0a6b 983e 1dd4 8b3e 0304 3f3e 1c9f a93e
00000020: 8896 9a3e dbcf 913e 7ba9 5c3e c6ce 983e
00000030: 3605 953e d2b7 743e bf11 863e 2c26 9c3e
00000040: 14ae 963e 927a 8b3e 31a0 c23e e833 8c3e
00000050: e87e 783e fe6f 9d3e 68f7 513e 4e6a af3e
00000060: b2d7 bb3e e95e f83e 9623 643e 3bd3 843e
00000070: 01f0 a13e 74e8 a23e d79a a23e 7e4d 8f3e
00000080: af83 683e 690c a53e 4f9e bc3e 3746 8e3e
00000090: 2ff6 913e bdb6 ae3e b97a 323e 28f1 a93e
000000a0: 8c5f a13e 9456 bf3e 290e 6e3e 0dac 983e
000000b0: a3a7 8e3e 3099 b23e f3b8 8f3e cc9c a13e
000000c0: 32b2 983e 4639 4a3e 42ba 9b3e 675e 8b3e
000000d0: ebee 973e daa8 5d3e c7b6 df3e 23a7 bd3e
000000e0: fb1d 9e3e aeeb 4c3e 6009 633e daa5 ca3e
000000f0: 89f2 433e a457 2f3e 07df c23e b892 ab3e
00000100: bf80 493e 8ebd c53e 3cd9 8e3e 658b 493e
00000110: 4e60 8e3e f5e0 ae3e fe9a c63e 7a68 5c3e
00000120: d75a 9e3e a818 923e 6622 d23e b651 803e
00000130: 71f9 943e 4627 973e b74e b23e 55a7 6b3e
00000140: dcad 733e 3dd6 d13e 2d9c bf3e b15b 923e
00000150: 75a6 d63e 3e59 aa3e 39e9 a23e fbaf 8f3e
00000160: ac51 943e 72f9 a13e 0448 d33e 99a7 b53e
00000170: 9bd0 683e 7632 a33e 1fbe d23e 4bd5 8c3e
00000180: 8931 e23e b116 e13e 971f b83e 64ae 963e
00000190: 0193 bf3e 9d3c 9a3e aa28 823e 66c0 733e
000001a0: dfb9 ae3e 20dc d53e 9569 8b3e 740e 4b3e
000001b0: b1b0 403e fdc9 9b3e 637a 693e fc2b 393e
000001c0: b318 793e f570 7b3e 96d1 3d3e 9f08 8a3e
000001d0: 4115 283e 6978 4f3e 1141 993e af98 c83e
000001e0: 6eb4 903e 1c4e c53e 6beb 893e b60c c13e
000001f0: da7c 713e b1ca b83e a233 813e 7d75 6f3e
00000200: 4c0b 983e e582 7b3e 9e80 713e 6097 a73e
00000210: 675c a63e 7ad7 cc3e c916 333e 8f1a 943e
00000220: 992d 983e b4ef a33e d58d 283e 29d1 9e3e
00000230: 0ca9 823e 27fc 603e 351a 943e 00fa 833e
00000240: ad33 193e 233c 713e 047d 513e 8e88 883e
00000250: cd55 8c3e e03f 3e3e e19d a63e 01fb ce3e
00000260: d364 8b3e 99b9 8f3e 0a64 923e e3ae a73e
00000270: 4cf2 ba3e 5fb8 983e 9213 a83e 29a4 583e
00000280: 8f06 643e 2ffc 793e c19d 6a3e 353a 943e
00000290: 2966 fe3e 5bae 683e 0cfc 873e 862b b33e
000002a0: bd22 7e3e d085 b93e b7bf 863e 0c1d 8b3e
000002b0: 3af3 b33e 7f07 e93e 4667 c53e fb3e ab3e
000002c0: 3cf7 963e 50b5 9d3e 3f04 e13e 2c3a bd3e
000002d0: cf08 533e c902 9c3e 4ad6 823e 6a3a 853e
000002e0: 5788 6d3e ae33 953e a894 523e 727d 9d3e
000002f0: e337 d63e b3fe ae3e 1092 9b3e f63d 833e
00000300: 25c1 8e3e 896e d13e 79d4 523e 70b8 783e
00000310: a3f3 ce3e 822b 3e3e 1abf 913e ad32 713e
00000320: 6992 a73e 61c8 523e acbc 8e3e cac4 e63e
00000330: f927 8b3e 8faf 903e d0fc 943e 0430 d53e
00000340: 271b cd3e f8e0 ba3e 4776 4d3e 488a 993e
00000350: 3f03 763e 1def dc3e 6cce 873e 239a 953e
00000360: 528d c33e 1182 aa3e d12d b73e bd0f 833e
00000370: 2d07 683e bb79 8f3e f688 9a3e c587 b23e
00000380: 40f6 453e d6f4 803e b8a2 8f3e f013 063f
00000390: ccb4 5a3e 63bb 123f 7b85 bb3e 8e59 983e
000003a0: 7596 aa3e d92f 963e 144c ab3e c5bd 663e
000003b0: 9445 633e 20ff 7b3e 2665 6a3e ef76 943e
000003c0: 0242 9e3e 2c51 063f 5805 af3e 1754 5a3e
000003d0: 4909 ae3e a223 8d3e acc5 b63e def4 6c3e
000003e0: 8772 c53e 24f2 ab3e 4953 753e 12af a53e
000003f0: a06e 593e faf0 cf3e dce7 443e a47d 983e
0.3066103 0.26851782 0.37296003 0.22449006 0.29769164 0.27310267 0.18653874 0.33129203
0.3019297 0.28478894 0.21549027 0.29845256 0.29105538 0.23898247 0.26185414 0.30497873
0.29429686 0.2724195 0.3801284 0.2738335 0.24267161 0.30749506 0.20504534 0.34260792
0.36688 0.4850991 0.222792 0.25942406 0.3162842 0.31817973 0.31758758 0.2798881
0.22706483 0.3223603 0.3683953 0.27787945 0.28508136 0.34123793 0.17429627 0.331918
0.3151821 0.3737074 0.23247589 0.29818764 0.27862272 0.34882498 0.28070793 0.3156494
0.29823452 0.1974841 0.3041554 0.2722046 0.29674467 0.21646443 0.43694136 0.37041578
0.30882248 0.2001178 0.22171545 0.3957966 0.19135489 0.17123276 0.3806078 0.33510375
0.19678019 0.3862118 0.27900112 0.19682081 0.2780785 0.34156004 0.38790125 0.2152423
0.3092868 0.28534436 0.4104187 0.2506234 0.2909656 0.2952215 0.3482568 0.23013051
0.23796791 0.40983763 0.3742384 0.2858558 0.41923872 0.3327121 0.3181856 0.2806395
0.2896856 0.31635624 0.4126588 0.3547943 0.22735827 0.31874436 0.41160676 0.2750648
0.44178417 0.43962625 0.359616 0.29429924 0.37416843 0.3012437 0.2542165 0.23803863
0.34126183 0.41769505 0.2722899 0.19829732 0.18817402 0.30427542 0.22800593 0.18083185
0.24325828 0.24554808 0.18536982 0.26959702 0.16414358 0.20260777 0.29932454 0.39178988
0.28262657 0.38536155 0.26937422 0.3770501 0.23582783 0.3609214 0.25234705 0.23384662
0.2969612 0.24561651 0.2358422 0.32732677 0.32492372 0.40008146 0.1748916 0.28926513
0.29722288 0.32018816 0.16460355 0.31018952 0.25519598 0.21971188 0.28926244 0.25776672
0.14961119 0.23558097 0.20457846 0.26666683 0.2740921 0.18579054 0.32542327 0.40425876
0.2722536 0.28071287 0.2859195 0.32750615 0.36512983 0.29828164 0.3282743 0.21156372
0.22268127 0.24412607 0.22911741 0.28950658 0.49687317 0.22722761 0.26559484 0.34994143
0.24817939 0.36234903 0.26318142 0.27170599 0.35146505 0.45513532 0.38555354 0.33446488
0.294855 0.30802393 0.43948552 0.36958444 0.20608829 0.30470875 0.25554115 0.2602113
0.23196541 0.2914099 0.2056452 0.3075977 0.41839513 0.34178695 0.30384874 0.2563321
0.27881733 0.40904644 0.20588864 0.24289107 0.40420255 0.18571284 0.2846611 0.23554488
0.3272889 0.20584251 0.2787832 0.45072013 0.27178934 0.2825894 0.2909913 0.41638196
0.40059778 0.36499763 0.2006465 0.29988313 0.24024676 0.4315118 0.26524675 0.2921916
0.38193756 0.33302358 0.35777143 0.25597945 0.22658987 0.2802256 0.30182618 0.3486921
0.19332218 0.25186795 0.28053832 0.5237417 0.21358031 0.5731718 0.36625275 0.29755825
0.33317915 0.2933338 0.3345648 0.22533329 0.2219451 0.24609041 0.22890148 0.2899699
0.30909735 0.5246761 0.34183764 0.2132114 0.3399146 0.27566248 0.35697687 0.23140284
0.3856394 0.33583176 0.23957552 0.3236013 0.21233606 0.40613538 0.19229072 0.29783356
