statedicts/torchscript_pl_db_2022-05-02_T3_P0_R1_s1_seed_1.pt (torch, 225385 bytes, 29 tensors)

weight f4 [5]
0	0x3f819309	1.0122997
1	0x3f81344b	1.0094084
2	0x3f7cae1f	0.9870319
3	0x3f7d2396	0.98882425
4	0x3f7fbd08	0.99897814

bias f4 [5]
0	0x3b90fef4	0.004424924
1	0xbcc69f8b	-0.024245998
2	0xbc050da2	-0.008120926
3	0xba6636e4	-0.0008781983
4	0x38c83642	9.5468495e-05

running_mean f4 [5]
0	0x4028915b	2.6338718
1	0x3d84d923	0.06486728
2	0x403f22a9	2.9864905
3	0x403ad9d2	2.9195447
4	0x3e4c81ff	0.19971465

running_var f4 [5]
0	0x3d292192	0.04129178
1	0x34ee3d91	4.437575e-07
2	0x3b81dcd3	0.003963092
3	0x3b23e7c6	0.0025009974
4	0x3b5fcf2b	0.0034150581

weight f4 [96, 5]
0	0x3e330380	0.17481804
1	0xbe5c95a7	-0.21541463
2	0xbdd922de	-0.106023535
3	0xbe502702	-0.2032738
4	0xbd3b1251	-0.045671765
5	0xbbc567f6	-0.006024356
6	0xbc327ed4	-0.010894496
7	0xbe9751ab	-0.29554495
8	0xbebe49f0	-0.37165785
9	0xbe913303	-0.2835923
10	0x3d925f0d	0.07147036
11	0x3d4a3da1	0.04937518
12	0xbe664e11	-0.22490717
13	0xbd9acfab	-0.07559141
14	0xbc8c3d5b	-0.0171191
15	0x3ea36ddb	0.3191975
16	0xbece5bbe	-0.4030437
17	0xbe4774f4	-0.19478208
18	0xbd9342ef	-0.07190501
19	0xbda0bdb9	-0.07848687
20	0xbe7265db	-0.23671667
21	0x3e647e69	0.22313847
22	0xbe2da75e	-0.16958377
23	0x3d331365	0.043719668
24	0xbe831342	-0.2560063
25	0x3ee384ae	0.44437164
26	0xbe86dbfb	-0.26339707
27	0xbdc656d1	-0.09684528
28	0x3eb6c28e	0.35695308
29	0x3e782a1b	0.24234812
30	0xbece91fc	-0.40345752
31	0x3e9172a7	0.28407785
32	0xbe720d9f	-0.23638009
33	0xbd4c5e1c	-0.049894437
34	0x3e3ea3a6	0.18617114
35	0x3cfd47cb	0.030918023
36	0x3eaf6caf	0.34262607
37	0xbe289e30	-0.16466594
38	0xbe9e619c	-0.30933845
39	0x3cf1ba0d	0.029507661
40	0x3e21bb77	0.15794168
41	0x3eac10dd	0.33606616
42	0xbe695b2d	-0.22788687
43	0xbd4e2ee1	-0.050337676
44	0xbe831b43	-0.25606737
45	0xbea66fcb	-0.32507166
46	0xbeb34879	-0.3501623
47	0xbea1850f	-0.31546828
48	0xbe88e28a	-0.26735336
49	0x3e197b11	0.14988352
50	0xbd88cfd7	-0.06680267
51	0x3e90941e	0.28238004
52	0x3ead5b04	0.33858502
53	0xbeb3e1a5	-0.3513309
54	0x3da714a2	0.08158232
55	0x3e936f58	0.28795886
56	0xbebec2c7	-0.37257978
57	0xbdef11f3	-0.116733454
58	0x3ea8a217	0.32936165
59	0xbe9ce493	-0.30643138
60	0x3ecd91ef	0.401504
61	0x3d26a3d0	0.040683568
62	0x3d9c94af	0.07645547
63	0x3ebd6b2e	0.36995834
64	0xbed6afef	-0.41931102
65	0x3ec3a61a	0.38212663
66	0xbecdbace	-0.40181583
67	0x3e530cd0	0.20610356
68	0xbc9c963a	-0.019114602
69	0x3eb53bf6	0.3539731
70	0xba6791f2	-0.0008833698
71	0xbee1451f	-0.43998048
72	0x3d46c1ee	0.04852479
73	0x3e980e61	0.2969847
74	0xbdb4d97f	-0.088305466
75	0xbed7892d	-0.42096844
76	0xbd832d02	-0.06405069
77	0x3d1763c6	0.036960386
78	0x3de8562a	0.113445595
79	0x3e13fed7	0.14452682
80	0xbd96d473	-0.0736474
81	0xbca28e98	-0.019843385
82	0xbdd6f1ac	-0.10495314
83	0x3e250374	0.16114599
84	0x3dd3ce11	0.103420384
85	0x3e3fcb08	0.18729794
86	0xbd24e125	-0.040253777
87	0xbd270f3f	-0.040786024
88	0x3ea63bcc	0.32467496
89	0x3d517cf8	0.05114457
90	0xbed0d92b	-0.40790686
91	0x3db97385	0.09055237
92	0x3ed335c9	0.41251972
93	0xbda11042	-0.07864429
94	0x3e8bf345	0.27334037
95	0xbeabec50	-0.3357873
96	0xbd83e602	-0.06440355
97	0x3e8f6adf	0.28011224
98	0xbe6d0afe	-0.23148724
99	0xbdf2caf0	-0.118551135
100	0xbb4130f1	-0.0029478634
101	0xbd82e7f1	-0.063918956
102	0xbe08753a	-0.13325968
103	0x3e9ac4ad	0.30228177
104	0xbdb43cfa	-0.08800693
105	0xbdff8311	-0.12476171
106	0x3eab8e91	0.33507207
107	0x3dc711f1	0.09720219
108	0xbe575dd4	-0.21031886
109	0x3e894e15	0.26817384
110	0xbe604904	-0.21902853
111	0x3ee4dd91	0.44700292
112	0x3ebf0ce8	0.37314534
113	0x3d30c062	0.04315222
114	0x3df82a26	0.12117414
115	0xbe36ac09	-0.17839064
116	0xbeb11e9f	-0.34593675
117	0xbea39f5c	-0.3195752
118	0x3e124e51	0.14287688
119	0x3e60381a	0.21896401
120	0x3996b90b	0.00028748097
121	0xbe15b512	-0.14619854
122	0xbe0de9fd	-0.1385879
123	0xbe7db9bf	-0.24777888
124	0xbe8c067b	-0.27348694
125	0x3e966893	0.2937666
126	0xbec6be6e	-0.3881716
127	0x3ea45bf9	0.3210142
128	0x3e832f86	0.25622195
129	0xbde3a3a1	-0.11115194
130	0xbd691cac	-0.05691211
131	0xbe1a0547	-0.15041076
132	0xbec163b9	-0.37771395
133	0x3d1cc94b	0.038277905
134	0xbeae262f	-0.34013507
135	0x3be97e74	0.00712567
136	0xbe1f2201	-0.15540315
137	0xbeb19bbf	-0.34689137
138	0xbed4312b	-0.41443762
139	0x3ecb650a	0.39725524
140	0x3eae34dc	0.34024704
141	0x3ed0baa0	0.40767384
142	0x3e34454b	0.17604558
143	0x3e513dfb	0.204338
144	0x3e61c7fc	0.22048944
145	0x3ea97722	0.33098704
146	0x3d8eb3dc	0.06967899
147	0x3d47382d	0.048637558
148	0x3ea66489	0.32498577
149	0x3e4e1f43	0.20129113
150	0xbe8cd107	-0.27503225
151	0x3e994211	0.29933217
152	0x3edd6395	0.43240038
153	0xbe2bf2c6	-0.1679183
154	0xbed8b84a	-0.423281
155	0xbd931401	-0.0718155
156	0xbe9490b9	-0.29016665
157	0x3ee0e602	0.43925482
158	0xbde5c3ae	-0.112189636
159	0xbe7ba723	-0.24575476
160	0x3e925cf5	0.28586546
161	0x3e2f6464	0.1712814
162	0x3e02ab08	0.12760556
163	0x3ed1d0c2	0.40979582
164	0xbede3f2d	-0.43407574
165	0x3e551b5e	0.20811221
166	0xbe58af95	-0.21160729
167	0x3e0e7276	0.13910851
168	0xbe24035c	-0.16016906
169	0x3ed4cfa8	0.4156468
170	0xbdaf99f3	-0.08574285
171	0x3d30a3e7	0.04312506
172	0xbeb4e952	-0.3533426
173	0x3e8943be	0.26809496
174	0xbee4fd63	-0.4472457
175	0x3e7e1dee	0.24816105
176	0x3ea2b4ac	0.31778467
177	0x3eb72330	0.35769033
178	0x3e851097	0.2598922
179	0xbe1c2a85	-0.15250595
180	0x3da7c204	0.081913024
181	0x3de91216	0.11380403
182	0xbedb79ea	-0.4286645
183	0x3e75c8d9	0.24002399
184	0xbeb82961	-0.3596907
185	0x3e1999d0	0.15000081
186	0x3eddb380	0.4330101
187	0xbe017060	-0.12640524
188	0x3d7c68a6	0.061623238
189	0x3ed559f7	0.416702
190	0x3ebf152b	0.37320837
191	0x3ebee987	0.37287542
192	0xbe9d3181	-0.3070183
193	0x3db8c956	0.09022777
194	0xbebdb38b	-0.37051043
195	0x3d88547d	0.0665674
196	0xbed7a775	-0.42119947
197	0x3d509170	0.05091995
198	0x3e545cb3	0.20738487
199	0xbed32cc9	-0.41245106
200	0xbd91f6e9	-0.071271725
201	0xbe3b8e8d	-0.18316098
202	0x3ebf19ef	0.37324473
203	0xbd785b19	-0.060633752
204	0x3e86f91f	0.2636194
205	0xbea80b6e	-0.3282122
206	0x3d7373e2	0.059436686
207	0x3ea72d1f	0.32651612
208	0x3d249e12	0.04018981
209	0xbe12f2db	-0.14350455
210	0xbe368da2	-0.17827466
211	0x3e9c1920	0.3048792
212	0x3e3de35b	0.1854376
213	0x3cf22557	0.02955882
214	0x3e84fd92	0.2597471
215	0xbe7398f5	-0.23788817
216	0xbead27a2	-0.338193
217	0xbdca3c98	-0.098748386
218	0x3ea714db	0.326331
219	0xbedd12fb	-0.43178543
220	0xbe6c8687	-0.23098193
221	0x3ddf9c82	0.10918523
222	0x3e22dd4b	0.15904729
223	0x3e64a751	0.22329451
224	0x3e0c22f2	0.13685206
225	0xbec9f1d5	-0.39442316
226	0xbe144248	-0.1447841
227	0x3e8e80b8	0.2783258
228	0x3da0c368	0.07849771
229	0x3e784f39	0.24248971
230	0x3eaa261d	0.33232203
231	0x3e835054	0.25647223
232	0xbe3f020c	-0.18653125
233	0xbe5daee0	-0.21648741
234	0xbda52101	-0.080629356
235	0xbc3bad41	-0.011454881
236	0xbd22b335	-0.039721686
237	0xbda8ead5	-0.08247916
238	0x3d76e990	0.060281336
239	0x3e91e67d	0.2849616
240	0xbe9d0f24	-0.30675614
241	0x3e6862ab	0.22693889
242	0xbee29a7b	-0.44258484
243	0x3cf0cd09	0.029394643
244	0xbed10252	-0.40822083
245	0x3edce558	0.43143725
246	0xbec2948f	-0.38003966
247	0xbe80cb73	-0.2515522
248	0x3e962127	0.29322168
249	0x3e70bc18	0.23509252
250	0x3eb58ed6	0.35460538
251	0x3dfc237b	0.12311455
252	0xbeccf7ac	-0.4003271
253	0xbe9fd63c	-0.31218135
254	0x3e9d2468	0.30691838
255	0xbede8403	-0.43460092

bias f4 [96]
0	0xbe95fe31	-0.29295495
1	0x3e10c1c6	0.14136419
2	0xbc14ca86	-0.0090814885
3	0x3eabfaa8	0.33589673
4	0x3e8d031b	0.27541432
5	0xbd4b8b0e	-0.04969316
6	0x3e32f5e0	0.17476606
7	0xbecac6a0	-0.39604664
8	0x3d9dfe24	0.07714489
9	0xbe8bf46d	-0.2733492
10	0x3eb503c0	0.35354424
11	0xbe99d826	-0.3004772
12	0xbec740bb	-0.38916573
13	0xbec1a19c	-0.3781861
14	0xbe07a0fc	-0.13245004
15	0x3cce6bbd	0.025197858
16	0xbd3537cd	-0.04424267
17	0x3e3f007d	0.1865253
18	0xbecbc0bd	-0.39795485
19	0xbe84aedb	-0.25914654
20	0xbd944476	-0.072396204
21	0xbcbe443f	-0.023225902
22	0xbdb440fd	-0.08801458
23	0x3e5087d4	0.20364314
24	0x3e6d246b	0.23158424
25	0xbdab6705	-0.08369259
26	0xbc933606	-0.017970096
27	0xbd8be07e	-0.06829928
28	0x3d2f7e46	0.042845033
29	0xbe3e40b8	-0.18579376
30	0xbd935057	-0.07193058
31	0xbea362f6	-0.3191144
32	0x3ec0615a	0.37574273
33	0x3e9cd2c9	0.30629566
34	0xbe98b933	-0.29828796
35	0x3d162ff1	0.036666814
36	0xbe885f49	-0.26635197
37	0xbdb7f516	-0.08982293
38	0xbecb4de1	-0.39707854
39	0xbd35c2dd	-0.04437529
40	0xbe55844b	-0.20851247
41	0xbecfaa7c	-0.40559757
42	0x3ee17445	0.4403402
43	0x3dee7a2e	0.11644398
44	0x3e9c1221	0.3048258
45	0x3d93d854	0.07218996
46	0x3cb709ee	0.022343602
47	0xbe4d7aef	-0.20066427
48	0x3e35c7fb	0.17752068
49	0x3e944f67	0.2896683
50	0xbca9efee	-0.02074429
51	0xbe6dedfa	-0.23235312
52	0x3eb77b80	0.3583641
53	0xbd25c5a3	-0.040471684
54	0xbe90baf8	-0.28267646
55	0x3e824454	0.25442755
56	0x3ee0db15	0.43917146
57	0x3ed7c9b4	0.42146075
58	0x3ebc5d52	0.36789948
59	0x3ed02654	0.40654242
60	0xbee82cda	-0.4534672
61	0x3e181e04	0.148552
62	0x3ec84154	0.3911234
63	0xbe92a3fd	-0.28640738
64	0x3dee1f7f	0.11627101
65	0xbe0c0345	-0.13673122
66	0xbd016cb7	-0.03159782
67	0x3e501ce0	0.20323515
68	0x3d093fc5	0.03350808
69	0xbe2603be	-0.16212365
70	0xbdaacc42	-0.0833974
71	0x3e2d521e	0.16925856
72	0xbe68910c	-0.22711581
73	0x3e9688f4	0.29401362
74	0xbed5789c	-0.4169358
75	0xbe9df2d8	-0.30849338
76	0x3dfe79b0	0.12425554
77	0x3c86aa7f	0.01643872
78	0x3e8306e3	0.25591192
79	0x3e4432d1	0.1916001
80	0x3cb34d1f	0.02188736
81	0x3d8964ed	0.06708703
82	0x3ea7a5a5	0.32743564
83	0xbed81bfc	-0.4220885
84	0xbe1f3327	-0.15546857
85	0x3e935af8	0.2878034
86	0xbeb07afb	-0.34468827
87	0x3e59a1bb	0.21253102
88	0x3e986337	0.29763195
89	0x3e10019c	0.14063114
90	0xbe9e5f93	-0.30932292
91	0xbe7e3c90	-0.2482779
92	0x3dd5c0b5	0.104371466
93	0xbe5325ce	-0.2061989
94	0x3e33e2ab	0.17566936
95	0x3e05f573	0.13081913

weight f4 [96]
0	0x3f7f30ba	0.99683726
1	0x3f7efd98	0.99605703
2	0x3f8074d2	1.0035651
3	0x3f800bc4	1.000359
4	0x3f806876	1.0031879
5	0x3f7fefb5	0.9997514
6	0x3f8084e9	1.0040561
7	0x3f7fbacd	0.9989441
8	0x3f7fb143	0.99879855
9	0x3f7fa3a9	0.998591
10	0x3f7f5089	0.9973226
11	0x3f800d81	1.0004121
12	0x3f7f2af7	0.99674934
13	0x3f80370a	1.0016797
14	0x3f7fd0f9	0.9992824
15	0x3f7f7e69	0.9980226
16	0x3f80639b	1.0030397
17	0x3f7f0820	0.9962177
18	0x3f7f5d9a	0.997522
19	0x3f7eed8d	0.99581224
20	0x3f806ad7	1.0032605
21	0x3f8003bd	1.0001141
22	0x3f7f6daf	0.9977674
23	0x3f7fa8b9	0.99866825
24	0x3f803253	1.0015358
25	0x3f7f2823	0.9967062
26	0x3f801a10	1.0007954
27	0x3f80ba37	1.0056828
28	0x3f7f69e9	0.9977098
29	0x3f80d4f9	1.0064994
30	0x3f800042	1.0000079
31	0x3f801af9	1.0008231
32	0x3f7fdaf5	0.99943477
33	0x3f802dd8	1.001399
34	0x3f80333e	1.0015638
35	0x3f7ff8d7	0.99989074
36	0x3f802460	1.0011101
37	0x3f7fac6d	0.99872476
38	0x3f80612b	1.0029653
39	0x3f8019c4	1.0007863
40	0x3f802003	1.0009769
41	0x3f804a27	1.002263
42	0x3f7fdd63	0.99947184
43	0x3f7f9232	0.9983245
44	0x3f7fc5da	0.9991127
45	0x3f7ed2db	0.9954049
46	0x3f800d3c	1.0004039
47	0x3f7fd847	0.9993939
48	0x3f8009d4	1.0002999
49	0x3f7f39ea	0.99697745
50	0x3f805407	1.0025643
51	0x3f7ecbd9	0.99529797
52	0x3f803466	1.0015991
53	0x3f808771	1.0041333
54	0x3f80092e	1.0002801
55	0x3f80838f	1.0040148
56	0x3f7f6587	0.99764293
57	0x3f7f7fc1	0.9980431
58	0x3f800df1	1.0004255
59	0x3f7f473c	0.9971807
60	0x3f801198	1.0005369
61	0x3f806752	1.0031531
62	0x3f7f28af	0.99671453
63	0x3f7f6b99	0.99773556
64	0x3f80931f	1.0044898
65	0x3f7fbe61	0.9989987
66	0x3f7f69af	0.99770635
67	0x3f7fd13e	0.99928653
68	0x3f7efb1c	0.9960191
69	0x3f7f23d5	0.9966405
70	0x3f7fc0e2	0.9990369
71	0x3f7fd8f4	0.9994042
72	0x3f7fbb0f	0.99894804
73	0x3f802d55	1.0013834
74	0x3f7fc100	0.9990387
75	0x3f8043c3	1.0020679
76	0x3f8043c7	1.0020684
77	0x3f8071bb	1.0034708
78	0x3f7f0cd6	0.9962896
79	0x3f7fa25c	0.99857116
80	0x3f80644d	1.0030609
81	0x3f8003dd	1.0001179
82	0x3f802276	1.0010517
83	0x3f801ec6	1.0009391
84	0x3f802f8d	1.0014511
85	0x3f7f670f	0.9976663
86	0x3f807066	1.0034301
87	0x3f803aa7	1.0017899
88	0x3f7f6e54	0.9977772
89	0x3f803e5a	1.0019028
90	0x3f7f4ece	0.9972962
91	0x3f802c1b	1.001346
92	0x3f805081	1.0024568
93	0x3f807eb1	1.0038663
94	0x3f7f88a9	0.998179
95	0x3f7fc0a7	0.9990334

bias f4 [96]
0	0x3a056c76	0.00050897093
1	0x3a15b4e7	0.00057108555
2	0x39eb7466	0.00044909416
3	0xba49ac3f	-0.0007693208
4	0x3a8de69c	0.0010826173
5	0xba53c228	-0.0008077943
6	0xb92722b8	-0.00015939295
7	0xb981b7b1	-0.00024741658
8	0xb9e3d379	-0.00043454373
9	0x3b2c1454	0.0026257234
10	0x3a70a69a	0.0009180099
11	0xb9e22a03	-0.0004313738
12	0xb8e8ee26	-0.00011106981
13	0xbb20c077	-0.002452878
14	0x3ad3eaba	0.0016167976
15	0x39ea036c	0.00044634508
16	0xba845bb8	-0.0010098135
17	0x3ad4112e	0.0016179436
18	0xba4403b4	-0.00074773584
19	0xbab5232d	-0.0013819687
20	0x386017c3	5.342789e-05
21	0xba23c283	-0.0006246941
22	0x3934172b	0.00017174768
23	0xbb4acace	-0.0030943635
24	0x3ac561ca	0.0015059051
25	0x38fc5c07	0.00012033438
26	0xbaa104c7	-0.0012284749
27	0xbb241dd0	-0.0025042184
28	0xb93bea31	-0.00017920953
29	0xbaad7762	-0.0013234431
30	0x3a45bd05	0.000754312
31	0x39ba94d1	0.0003558756
32	0xbaa8bb59	-0.0012873217
33	0xbac12cc5	-0.0014738074
34	0x39d01bec	0.00039693655
35	0x39f547a4	0.00046783418
36	0x3a05a133	0.0005097568
37	0x3b21d935	0.0024696116
38	0xba28842c	-0.00064283866
39	0xb898225c	-7.254325e-05
40	0xba9584f7	-0.0011407424
41	0x39e906e7	0.00044446366
42	0x3b42dd62	0.0029734005
43	0xbac04a46	-0.0014670573
44	0x382fc687	4.1908144e-05
45	0x3ad0d75d	0.0015933324
46	0x3a456738	0.00075303344
47	0xba10707a	-0.00055099244
48	0xb8332415	-4.271053e-05
49	0x3b3a0faa	0.0028390684
50	0xbaa5dcb9	-0.0012654281
51	0x3b01f350	0.0019828863
52	0x3b09982b	0.002099524
53	0x38a0aab4	7.6611905e-05
54	0x3ae20341	0.0017243401
55	0x3a85088c	0.0010149642
56	0xba9ab547	-0.0011803292
57	0xbad83607	-0.0016495594
58	0xbb50d341	-0.0031864198
59	0xba7df765	-0.0009688049
60	0x3a4f6f21	0.0007912983
61	0x390f3d5e	0.00013660404
62	0xb78d4dd9	-1.684476e-05
63	0xba8b1ebc	-0.0010614018
64	0xba8d8562	-0.0010797197
65	0x3b37d148	0.0028048325
66	0xb980d636	-0.00024573662
67	0xb8e18210	-0.00010753062
68	0xba7e639d	-0.00097041746
69	0x3ade4fab	0.0016960999
70	0xb9d94edc	-0.0004144822
71	0xb9b1215f	-0.00033784934
72	0xb9bda9c2	-0.0003617537
73	0x39e9437a	0.00044491497
74	0x3b16c502	0.002300561
75	0xbb28650e	-0.0025695
76	0x3a6b7c83	0.0008983092
77	0x3944d3e9	0.0001877096
78	0x3b54a894	0.0032449113
79	0xba5c3fcd	-0.0008401841
80	0xba3a1786	-0.0007098842
81	0xba0d92d3	-0.00054006017
82	0x3a378bf9	0.00070017535
83	0xba6b4ab1	-0.00089756685
84	0xbaef3204	-0.0018249159
85	0xbaf66d1f	-0.0018800831
86	0x3a2aaf57	0.0006511113
87	0xb9a89be9	-0.0003215962
88	0xba0a282e	-0.00052702695
89	0x3a83cc75	0.001005544
90	0x3ac12d44	0.0014738222
91	0xba4e01b3	-0.00078585296
92	0xba787d61	-0.0009479132
93	0x3a8a2c7c	0.0010541822
94	0x3aa0a7be	0.0012257022
95	0xb894b12d	-7.0901915e-05

running_mean f4 [96]
0	0x3cb058de	0.02152675
1	0x3ec50246	0.38478297
2	0x3dcda54e	0.10041295
3	0x3eb322e5	0.3498756
4	0x3ea69123	0.32532606
5	0x3e826a1d	0.25471583
6	0x3eb8a01a	0.36059648
7	0x3d0b69d6	0.03403648
8	0x3e659ff8	0.22424304
9	0x3e38c0d4	0.18042308
10	0x3ec2b784	0.38030636
11	0x3cbd375c	0.023097686
12	0x3d572724	0.05252756
13	0x3dd4dd3d	0.1039376
14	0x3db4c937	0.08827441
15	0x3e743606	0.23848733
16	0x3df5b31a	0.119970515
17	0x3e8881cf	0.26661536
18	0x3cb0ca5d	0.02158087
19	0x3d21e013	0.039520334
20	0x3d90f04a	0.070770815
21	0x3d77f7c5	0.060539026
22	0x3d9b6b59	0.07588834
23	0x3eb89337	0.36049816
24	0x3eaedc15	0.34152284
25	0x3e882a13	0.265946
26	0x3e47f985	0.19528778
27	0x3e288204	0.16455847
28	0x3e84d23a	0.2594164
29	0x3e256837	0.16153036
30	0x3e6e456e	0.23268673
31	0x3d83a5d1	0.06428111
32	0x3ef8488f	0.48492858
33	0x3ebd9066	0.3702423
34	0x3d595bba	0.053065993
35	0x3e8eddff	0.27903745
36	0x3d36dff7	0.044647183
37	0x3df0e22d	0.117618896
38	0x3da98a01	0.08278275
39	0x3dc3c149	0.095583506
40	0x3db0baa7	0.08629351
41	0x3be49082	0.0069752345
42	0x3ee0ff20	0.43944645
43	0x3e29e91d	0.16592832
44	0x3ebe7055	0.37195078
45	0x3e8d8ccf	0.2764649
46	0x3e624c88	0.22099507
47	0x3da503c9	0.080573626
48	0x3ed73f89	0.4204066
49	0x3ed58397	0.41701958
50	0x3e131f2c	0.1436736
51	0x3e020291	0.12696292
52	0x3eb84c26	0.35995597
53	0x3dfee718	0.124464214
54	0x3cfa35d3	0.030543244
55	0x3eb4692f	0.352365
56	0x3f01b3c5	0.5066493
57	0x3f0dd557	0.55403656
58	0x3f026561	0.5093594
59	0x3ee40b0e	0.44539684
60	0x3ca599ef	0.020215003
61	0x3ed9d750	0.42547083
62	0x3ee1cf82	0.44103628
63	0x3c0d34f9	0.008618587
64	0x3eb17375	0.346584
65	0x3db5048c	0.08838758
66	0x3eaba82f	0.3352675
67	0x3ea46fa8	0.32116437
68	0x3edd1b42	0.4318486
69	0x3e8543ea	0.26028377
70	0x3d86d1c1	0.06582976
71	0x3e84ff61	0.2597609
72	0x3dc60339	0.096685834
73	0x3ea303b7	0.31838772
74	0x3de7cbcc	0.11318168
75	0x3d56b8b8	0.052422255
76	0x3ec639cf	0.3871598
77	0x3e96544e	0.29361194
78	0x3eb9d224	0.36293137
79	0x3e7f1eac	0.24914044
80	0x3e2ce8c0	0.16885662
81	0x3e36b50b	0.178425
82	0x3ed3ae6c	0.4134401
83	0x3d507d5e	0.05090081
84	0x3e1e9fb7	0.15490614
85	0x3eba3d64	0.36374962
86	0x3d9cbbaf	0.07652985
87	0x3ed63c34	0.41842806
88	0x3ef7aca9	0.48373917
89	0x3eba11e6	0.3634178
90	0x3a3aa392	0.0007119711
91	0x3dd6b18a	0.10483082
92	0x3e82a67f	0.2551765
93	0x3d8d3bd7	0.06896179
94	0x3f054c21	0.5206929
95	0x3ed367dc	0.41290176

running_var f4 [96]
0	0x3aee3cbf	0.0018176063
1	0x3e6eaee3	0.23308901
2	0x3c5bc9c2	0.013414802
3	0x3db099ec	0.08623108
4	0x3e038bbb	0.12846272
5	0x3e17acb9	0.14811982
6	0x3e86fa6c	0.26362932
7	0x3bf09b4b	0.007342731
8	0x3db52689	0.088452406
9	0x3dd26977	0.10274022
10	0x3daafca9	0.08348972
11	0x3b224a1a	0.0024763406
12	0x3c033324	0.008007798
13	0x3cf1e0fc	0.029526226
14	0x3cc32214	0.02381996
15	0x3dd4f3c0	0.10398054
16	0x3cedb563	0.029017156
17	0x3db11c50	0.08647978
18	0x3b7caf18	0.0038556512
19	0x3b846715	0.0040406086
20	0x3c5ec62b	0.013597052
21	0x3c346825	0.011011158
22	0x3cadbfd6	0.021209639
23	0x3e7154e8	0.23567545
24	0x3e1dab16	0.15397295
25	0x3d9b51b3	0.07583942
26	0x3d928309	0.07153899
27	0x3dade342	0.084906116
28	0x3d9408f8	0.07228273
29	0x3d82cb96	0.06386487
30	0x3daf3ffa	0.085571244
31	0x3ca3c8f8	0.01999329
32	0x3dd72f19	0.1050703
33	0x3da6c912	0.0814382
34	0x3c872f68	0.016502097
35	0x3d93f987	0.07225328
36	0x3c537a8b	0.0129076345
37	0x3cd61c88	0.026136652
38	0x3cab9648	0.020945683
39	0x3c14ed52	0.009089785
40	0x3c91139f	0.017709551
41	0x3a3fbcc8	0.00073142024
42	0x3dc07660	0.09397578
43	0x3cbffe18	0.023436591
44	0x3de37f52	0.11108269
45	0x3da29deb	0.07940277
46	0x3da0525a	0.07828207
47	0x3c82a032	0.015945528
48	0x3e90de7c	0.28294742
49	0x3e47f51e	0.19527099
50	0x3cef0f3e	0.029182073
51	0x3d59dc4d	0.05318861
52	0x3c7e51da	0.015522445
53	0x3cf8d82c	0.030376516
54	0x3bc99e49	0.0061529023
55	0x3ddf14d0	0.108926415
56	0x3e6e5505	0.2327462
57	0x3e8908c5	0.26764503
58	0x3e8e23e2	0.2776175
59	0x3ddccadf	0.10780882
60	0x3b50b060	0.003184341
61	0x3e200dee	0.15630314
62	0x3e05f52d	0.13081808
63	0x3a10fab3	0.0005530521
64	0x3e395388	0.18098271
65	0x3cad0632	0.021121118
66	0x3e43586f	0.19076703
67	0x3dbd2896	0.09236257
68	0x3e3d1ddc	0.18468422
69	0x3e717633	0.23580246
70	0x3c441cdc	0.011969771
71	0x3d868ef5	0.06570236
72	0x3c9b06af	0.018924085
73	0x3d89b409	0.06723792
74	0x3d117ad1	0.035517517
75	0x3c10b0f4	0.008831251
76	0x3ebc2c02	0.36752325
77	0x3e07d8e7	0.13266335
78	0x3e4c263f	0.19936465
79	0x3d6a60d9	0.057221267
80	0x3cbdc246	0.023163926
81	0x3d68cb22	0.056834348
82	0x3e3c9c37	0.18418966
83	0x3c5e2eae	0.013560934
84	0x3d760e18	0.060072035
85	0x3e1142ae	0.14185593
86	0x3cd7bb3b	0.026334396
87	0x3ea410b7	0.32044002
88	0x3e8f1bf6	0.2795102
89	0x3e5e3025	0.21698053
90	0x39383a89	0.00017569413
91	0x3cd6cfc6	0.026222121
92	0x3dc670ce	0.096894845
93	0x3c9daeb6	0.019248348
94	0x3f0ce41f	0.55035585
95	0x3e54dd2b	0.20787494

weight f4 [256, 96]
0	0x3c9e85b1	0.019350858
1	0x3dc1c46d	0.09461293
2	0xbdc205d3	-0.09473767
3	0xbdca7856	-0.098862335
4	0x3d8d7312	0.069067135
5	0xbcf6d17b	-0.030129185
6	0xbdc80860	-0.097672224
7	0xbce6d636	-0.028178316
8	0x3da25fbe	0.079284176
9	0xbc6401aa	-0.013916412
10	0x3d44e6e1	0.048071746
11	0x3d717b6d	0.0589556
12	0xbd071d57	-0.032986965
13	0x3d6d884c	0.05799131
14	0x3d168860	0.03675115
15	0xbd87a747	-0.066237025
16	0xbcaa9f49	-0.020827906
17	0x3d85ee93	0.06539645
18	0x3d2a69c2	0.041604765
19	0x3c7e0d7a	0.015506143
20	0xbc39409d	-0.011306909
21	0xbd967253	-0.07346024
22	0xbd08b49d	-0.03337537
23	0x3d85dd15	0.06536309
24	0xbbab797f	-0.0052329893
25	0xbd673d85	-0.056455154
26	0x3c8ed287	0.017434372
27	0xbdaaf98d	-0.08348379
28	0xbc1a3bf0	-0.009413704
29	0xbaec91ea	-0.0018048857
30	0xbdc59368	-0.09647256
31	0xbd8d06fc	-0.06886098
32	0xbd8fa7f6	-0.07014458
33	0xbd8b64d1	-0.068063386
34	0x3db5bdc9	0.08874089
35	0x3d266479	0.040623162
36	0xbd87db56	-0.06633632
37	0xbd3a1d42	-0.04543806
38	0x3d9c3cc2	0.07628776
39	0x3db00ce7	0.08596211
40	0x3c9786c1	0.018496873
41	0x3bb8d190	0.005640216
42	0xbd9d39c3	-0.07677033
43	0x3d809b5a	0.06279631
44	0xbcdd540f	-0.027017621
45	0x3c598294	0.013275761
46	0xbcaab189	-0.020836608
47	0x3d0df639	0.034658644
48	0x3cdaff7d	0.026733154
49	0xbcb1679d	-0.021655852
50	0xbc7e2068	-0.015510656
51	0xba64a6d8	-0.00087223714
52	0xbda146ff	-0.078748696
53	0xbbb29ded	-0.005450955
54	0xbd9d13ae	-0.07669769
55	0x3da6820e	0.08130275
56	0x3d547813	0.051872324
57	0xbbddaf87	-0.0067653093
58	0x3d941f7e	0.07232569
59	0x3c221d76	0.009894719
60	0x3db5579f	0.08854603
61	0x3cb7343e	0.022363778
62	0x3d44f702	0.048087128
63	0x3c81a627	0.015826298
64	0xbd680356	-0.056643806
65	0xbdc66a5e	-0.09688257
66	0xbd256ff7	-0.04038998
67	0x3daa88cd	0.08326874
68	0x3d4abe98	0.04949817
69	0xbd0b0df3	-0.03394885
70	0xbd775ff3	-0.06039424
71	0x3dcf68bd	0.10127399
72	0x3c7ca2cd	0.015419674
73	0xbdb6417a	-0.088992074
74	0xbd136620	-0.035986066
75	0x3c0a83c2	0.008454265
76	0xbc359bc4	-0.011084501
77	0xbd1d9b24	-0.03847803
78	0x3d02723c	0.031847224
79	0xbd8ae6dd	-0.06782315
80	0x3d352504	0.044224754
81	0xbd93257a	-0.071848825
82	0x3da80b3f	0.0820527
83	0x3da56151	0.08075202
84	0x3dd44d47	0.10366302
85	0xbdc86ce3	-0.097863935
86	0xbd2072de	-0.039172046
87	0xbc9b48ad	-0.018955553
88	0xbdbbf0fe	-0.09176825
89	0x3d3fb0d6	0.046799503
90	0xbd2979e8	-0.041376024
91	0xb8a5e672	-7.910737e-05
92	0x3d47a37d	0.0487399
93	0xbda3e186	-0.080019996
94	0x3c51a072	0.012794601
95	0xbd23ad6b	-0.039960306
96	0x3d908875	0.07057277
97	0x3db136ff	0.08653068
98	0xbcc5e3ca	-0.02415647
99	0xbd92a4a2	-0.071603075
100	0x3d7ba474	0.06143613
101	0xbd938560	-0.07203174
102	0x3dcf4fac	0.10122618
103	0x3da75881	0.08171178
104	0x3d224c4e	0.03962355
105	0xbd39e643	-0.04538561
106	0x3d9518e7	0.0728014
107	0x3d9dbe34	0.07702294
108	0xbcbce7ff	-0.023059843
109	0xbd766b28	-0.060160786
110	0x3b45019e	0.0030060778
111	0x3dada362	0.084784284
112	0x3dba2788	0.09089571
113	0xbdbf92d9	-0.09354181
114	0x3dbfc670	0.09364021
115	0xbd86d7e9	-0.0658415
116	0x3c9c60ad	0.019089067
117	0xbd1e61db	-0.03866754
118	0xbd66292b	-0.056191605
119	0xbc41c62b	-0.011827032
120	0x3a278e86	0.0006391782
121	0xbdabd862	-0.08390881
122	0xbd0f6b15	-0.03501423
123	0x3d9be459	0.07611913
124	0xbb959b37	-0.004565622
125	0xbd577c21	-0.052608613
126	0x3dac5279	0.08414168
127	0xbdc58b56	-0.09645717
128	0xbd084751	-0.033271138
129	0x3dae73a7	0.08518153
130	0x3c2f01e7	0.010681606
131	0xbd21cc0b	-0.03950123
132	0xbd5f4c00	-0.05451584
133	0xbcc07e94	-0.023497857
134	0xbd7298a5	-0.059227604
135	0xbc542cf0	-0.012950167
136	0x3dc5d030	0.09658849
137	0x3d61dd1d	0.05514251
138	0xbcdadb52	-0.026715908
139	0x3d8779e4	0.06615046
140	0xbdb80e43	-0.08987095
141	0x3bc72321	0.0060771857
142	0x3da5124a	0.08060129
143	0x3cc5064f	0.02405086
144	0xbda584a2	-0.08081938
145	0x3c99b9f7	0.018765433
146	0x3d791dfd	0.060819615
147	0xbb6af83a	-0.003585352
148	0x3d83558f	0.064128034
149	0xbdb5c55d	-0.08875535
150	0x3d9120b1	0.070863135
151	0xbdc33de9	-0.09533293
152	0x3d3af952	0.045647927
153	0xbdb0f077	-0.08639615
154	0xbd035b4a	-0.032069482
155	0xbc469bd1	-0.01212211
156	0xbc79fe93	-0.015258449
157	0xbc6a7c5b	-0.014311875
158	0xbda3c69b	-0.07996865
159	0xbd90f623	-0.07078197
160	0x3d81face	0.06346665
161	0x3cd3ae86	0.025840055
162	0x3bc5d110	0.006036885
163	0xbc58d071	-0.01323329
164	0x3cacfc57	0.021116419
165	0x3cd2fa80	0.025754213
166	0xbccba4e4	-0.0248589
167	0x3c622aa4	0.013804112
168	0x3bf99b17	0.007617365
169	0x3db31fda	0.087463096
170	0xbdbf853f	-0.093515866
171	0xbd86e995	-0.06587521
172	0xbd2bd354	-0.041949585
173	0x3d42bd63	0.047543894
174	0xbd865de6	-0.065608785
175	0xbd3d2641	-0.04617906
176	0xbd4660a3	-0.048432004
177	0xbc4f713d	-0.012661275
178	0xbdcc10dc	-0.09964153
179	0x3c97a99b	0.018513491
180	0x3d9ef4a2	0.07761504
181	0x3d82baaf	0.06383263
182	0xbda2e879	-0.07954497
183	0xbcd98f18	-0.02655749
184	0x3d4dd361	0.050250415
185	0x3d03515e	0.03206002
186	0x3d34a88a	0.044106044
187	0x3d208fe0	0.03919971
188	0xbcf229eb	-0.029561004
189	0x3d903ff1	0.07043446
190	0x3dcb9e72	0.099423304
191	0x3d24c658	0.040228218
192	0xbca1740e	-0.01970866
193	0x3d36b0e3	0.044602286
194	0x3d99ad1b	0.075037204
195	0xbdaeb7a3	-0.0853112
196	0x3d1193c2	0.035541303
197	0xbd6adc77	-0.057339158
198	0x3c6c1e16	0.01441147
199	0xbd8b937d	-0.068152405
200	0xbcaac8d2	-0.020847712
201	0x3c1267d6	0.008935889
202	0xbd7c6b95	-0.061626036
203	0xbd95ba84	-0.07310966
204	0x3d3ee6cf	0.046606835
205	0xbd65c67f	-0.056097504
206	0x3d787f19	0.060668085
207	0xbd303825	-0.043022294
208	0x3dad0818	0.084488094
209	0xbbb6c8d5	-0.0055781403
210	0xbd79ce60	-0.06098783
211	0xbb780877	-0.0037846842
212	0xbd2630db	-0.040573936
213	0x3cf30ae1	0.029668273
214	0x3d240ee2	0.040053256
215	0xbdb59c81	-0.088677414
216	0x3c85d4a8	0.016336754
217	0x3d450a87	0.048105743
218	0xbd2e6dab	-0.042585056
219	0x3c28f40d	0.0103120925
220	0x3d3d044c	0.046146676
221	0xbdb327b3	-0.087478064
222	0x3d9d6ec0	0.076871395
223	0xbda75565	-0.081705846
224	0xbd1e9e0f	-0.038724955
225	0x3ccadd7b	0.024763813
226	0xbc8bfc83	-0.01708818
227	0xbdd46696	-0.10371129
228	0xbd902df0	-0.07040012
229	0xbbd8fa15	-0.006621609
230	0xbd29662e	-0.04135721
231	0xbc9b83d7	-0.018983765
232	0x3d75bdcd	0.05999546
233	0xbd4a015c	-0.049317703
234	0x3c3ac176	0.011398664
235	0xbdaf050d	-0.08545885
236	0xbd3a28f3	-0.04544921
237	0x3da487a0	0.08033681
238	0x3d1dc6ba	0.0385196
239	0xbb407218	-0.002936488
240	0xbd0cdf2c	-0.03439252
241	0xbdb1872e	-0.086683616
242	0x3d53490b	0.05158333
243	0xbd0c56ed	-0.034262586
244	0xbb324c58	-0.002720615
245	0xbd81a13b	-0.063295804
246	0xbd03b056	-0.03215059
247	0x3af347a6	0.0018560782
248	0xbc01feb0	-0.007934257
249	0xbc848864	-0.016178317
250	0xbc80c7a9	-0.015720205
251	0x3d041d28	0.032254368
252	0x3c7a362f	0.015271707
253	0x3db1ecc1	0.08687735
254	0x3c30c1a3	0.010788354
255	0xbdbc4fe1	-0.09194923

bias f4 [256]
0	0x3d4c68bb	0.049904566
1	0xbd7c1888	-0.061546832
2	0xbd82aa8c	-0.063801855
3	0xbdc188cd	-0.09449921
4	0x3dcd7f81	0.10034085
5	0xbda09af1	-0.07842053
6	0x3d6e5092	0.058182307
7	0xbc06038f	-0.008179559
8	0xbdc857e4	-0.09782389
9	0x3d109c51	0.035305325
10	0xbcc1a75a	-0.02363937
11	0xbbc67b6d	-0.006057194
12	0x3d62e2a6	0.05539193
13	0xbce1c04b	-0.027557513
14	0x3cdf4486	0.027254354
15	0xbd42e93e	-0.04758572
16	0x3cbcbe87	0.02304007
17	0xbd59b704	-0.053153053
18	0x3d2c8797	0.042121496
19	0xbd1f525f	-0.038896915
20	0xbda1c4f4	-0.07898894
21	0xbd205e12	-0.039152212
22	0x3db71eae	0.089413986
23	0x3d65a767	0.05606785
24	0x3d71d474	0.0590405
25	0xb8d6309c	-0.000102133694
26	0x3d8656d1	0.06559528
27	0xbd70ed19	-0.058819864
28	0xbd373e75	-0.044737298
29	0xbd076406	-0.033054374
30	0xbcccd8db	-0.025005748
31	0x3d56fe0a	0.052488364
32	0xbd50f0c5	-0.051010866
33	0xbd9728c4	-0.07380822
34	0xbd7e72c7	-0.06212118
35	0x3d86c141	0.06579829
36	0xbd91bf99	-0.071166225
37	0x3db393fa	0.08768459
38	0xbdd09d8c	-0.101863
39	0xbd0d964b	-0.03456716
40	0xbd093b2f	-0.033503707
41	0xbd9b9658	-0.07597035
42	0xbd93066d	-0.0717896
43	0xbd1ea079	-0.038727257
44	0xbd900753	-0.07032647
45	0x3dcd5372	0.100256816
46	0xbd71b8f3	-0.059014272
47	0xbd52e43a	-0.051487185
48	0xbd8f3c2c	-0.06993899
49	0x3cf686f9	0.030093657
50	0xbd4f6c24	-0.05064024
51	0xbc8a3113	-0.016869104
52	0xbdcb7a7b	-0.09935471
53	0x3cd355c4	0.025797732
54	0xbc0f88af	-0.008760615
55	0x3bb50485	0.0055242204
56	0xbdabccef	-0.08388697
57	0x3d7826ba	0.060583808
58	0xbbf48eb2	-0.0074632997
59	0x3d2c9b52	0.042140312
60	0xbd500105	-0.050782222
61	0xbd683b0f	-0.056696948
62	0xbd902a66	-0.07039337
63	0xbd5e9626	-0.05434241
64	0xbb5fcc49	-0.0034148863
65	0xbd8536d8	-0.06504601
66	0x3d9e3e78	0.07726759
67	0x3d642468	0.055698782
68	0x3d66682c	0.05625169
69	0x3ce9b06b	0.028526505
70	0x3d56d419	0.052448366
71	0xbd171ce7	-0.036892798
72	0xbdaab383	-0.083350204
73	0x3d540476	0.051762067
74	0x3db8eb5e	0.09029268
75	0x3c166d41	0.009181322
76	0x3d91b263	0.07114103
77	0x3dad7bc9	0.08470876
78	0x3c0d5a73	0.008627522
79	0x3c96d5dd	0.018412525
80	0xbda13263	-0.07870939
81	0xbdc33e69	-0.09533388
82	0xbd4da5b3	-0.05020685
83	0x3bfb211f	0.0076638605
84	0x3d34395a	0.044000007
85	0x3da18760	0.07887149
86	0xbd9aba3f	-0.07555055
87	0x3d60ab83	0.054851066
88	0xbafaebb8	-0.0019143736
89	0x3d92266b	0.07136234
90	0x3c0212ff	0.007939099
91	0x3d05811f	0.032593843
92	0xbd58784f	-0.05284911
93	0xbda51230	-0.080601096
94	0xbdcb1c27	-0.09917479
95	0xbdd178c2	-0.10228111
96	0x3b3e47cf	0.00290345
97	0xbd7b6f02	-0.061385162
98	0xbda78ed5	-0.0818154
99	0x3c174eeb	0.009235124
100	0xbb1aa0c2	-0.0023594354
101	0xbd809245	-0.06277899
102	0xbcebd636	-0.028788667
103	0xbd4da152	-0.050202675
104	0x3cd82856	0.026386421
105	0x3c9b604c	0.018966816
106	0xbd7c70c1	-0.061630968
107	0x3ce81580	0.028330564
108	0x3dc037df	0.093856566
109	0x3c84ec6f	0.016226022
110	0x3d992634	0.0747799
111	0xbdb93c30	-0.09044683
112	0xbc55bdfb	-0.013045783
113	0xbcf6ba3e	-0.030118104
114	0xbc142ffc	-0.0090446435
115	0xbd4246bf	-0.04743075
116	0x3d0bf686	0.03417065
117	0xbda0e5bf	-0.078563206
118	0xbd769439	-0.06019995
119	0xbbb377ec	-0.0054769423
120	0xbbe6e74c	-0.0070466157
121	0xbdc0f1ea	-0.094211414
122	0x3dd16989	0.10225207
123	0x3d8a9272	0.067662135
124	0xbd8d8661	-0.06910396
125	0x3c0a09ad	0.008425158
126	0x3dc5b943	0.096544765
127	0x39e9a186	0.00044561567
128	0xbdb392e8	-0.087682545
129	0x3cc4ae36	0.024008851
130	0xbdce68ee	-0.100786075
131	0xbd5b03f6	-0.053470574
132	0x3d0a2feb	0.033737104
133	0x3d80d9b6	0.06291525
134	0xbd358ff5	-0.04432674
135	0x3db6e2fe	0.08930014
136	0xbdcf6c1a	-0.101280406
137	0x3d268300	0.040652275
138	0x3dbc888e	0.09205733
139	0x3dc38877	0.09547513
140	0xbca1e27d	-0.019761318
141	0x3dd15c11	0.102226384
142	0xbcf081b2	-0.029358719
143	0xbd40a32d	-0.047030617
144	0x3daf5bc5	0.085624255
145	0xbdc0e3c4	-0.09418443
146	0x3cf470d3	0.029838955
147	0xbc27d8b1	-0.010244534
148	0xbd92b247	-0.0716291
149	0xbd22b7b3	-0.03972597
150	0x3c6c1897	0.01441016
151	0xbd8b1982	-0.067919746
152	0xbdc6ffa8	-0.09716731
153	0x3d802a7a	0.06258102
154	0xbd1fe489	-0.039036307
155	0x3d23456a	0.03986112
156	0xbd1973b5	-0.037463862
157	0xbd2ddf12	-0.042449065
158	0x3dbcd14b	0.09219607
159	0xbdc10eed	-0.09426675
160	0xbd7c2ee6	-0.061568163
161	0x3d9b248d	0.07575331
162	0xbdb5bc8f	-0.08873855
163	0xbbd06da9	-0.0063607288
164	0x3dd01f02	0.10162164
165	0xbdb848a9	-0.08998234
166	0xbd726b8e	-0.059184603
167	0xbd33d3f8	-0.04390332
168	0x3d350bd4	0.044200733
169	0xbd7618e2	-0.060082324
170	0xbdc42f25	-0.095793046
171	0xbcba18b9	-0.022716867
172	0x3d49e631	0.049291793
173	0x3c76da18	0.015066646
174	0x3d7b1953	0.061303448
175	0xbd9693fc	-0.073524445
176	0xbd0ce158	-0.034394592
177	0x3dc9f415	0.09861008
178	0x3d3991c1	0.045305017
179	0xbd89f196	-0.06735532
180	0x3c921fc6	0.017837416
181	0xbc8d0eb7	-0.01721893
182	0xbcba1dd9	-0.02271931
183	0x3daca5f2	0.08430089
184	0xbca0f5ee	-0.019648518
185	0xbdc63c32	-0.0967945
186	0x3d8143e9	0.06311781
187	0x3dbf7895	0.09349171
188	0xbc987a2a	-0.01861294
189	0xbc341bca	-0.010992954
190	0x3d9f3ef1	0.07775677
191	0x3cbaa9f8	0.022786126
192	0x3ce87a33	0.028378582
193	0xbd097dee	-0.03356736
194	0xbd9162b4	-0.07098904
195	0xbdcfe872	-0.10151757
196	0x3d672922	0.05643571
197	0xbd365108	-0.04451087
198	0x3d8eba6d	0.06969152
199	0x3c0d75e7	0.008634067
200	0xbce5b3fe	-0.028039929
201	0xbd867339	-0.06564946
202	0x3cfc69ae	0.03081211
203	0xbd58e14e	-0.052949242
204	0xbdb226d0	-0.08698809
205	0x3d6d5075	0.057938058
206	0xbdba1e7d	-0.090878464
207	0xbd887420	-0.06662774
208	0x3db1ac5e	0.086754546
209	0xbdbc5531	-0.091959365
210	0xbbc30229	-0.0059511852
211	0xbd5d01ae	-0.05395668
212	0xbd9a9d64	-0.07549551
213	0x3ce1a61d	0.02754503
214	0x3dcb021f	0.09912514
215	0x3d327fdf	0.04357898
216	0x3cb8e4e1	0.022570075
217	0xbdb34339	-0.08753056
218	0x3d56e868	0.052467734
219	0x3dbeadb8	0.09310478
220	0xbb3f541e	-0.0029194425
221	0xbcdc5ef2	-0.026900742
222	0xbd8a6c85	-0.0675898
223	0xbd891d87	-0.06695085
224	0x3d12247a	0.035679318
225	0xbd886343	-0.06659558
226	0x3d6323ce	0.055454068
227	0x3c9f606d	0.01945516
228	0x3d4e4454	0.05035813
229	0x3d18c4c7	0.037297036
230	0x3b26c94f	0.002544958
231	0xbd967a9e	-0.07347606
232	0x3daf0646	0.085461184
233	0x3cfe231d	0.031022603
234	0x3d81967f	0.06327533
235	0x3d8c6594	0.06855312
236	0xbc202069	-0.009773352
237	0x3da94f87	0.08267122
238	0xbd8aa021	-0.067688234
239	0x3cc82424	0.024431296
240	0x3d30d362	0.04317034
241	0x3dc2ddb6	0.09514944
242	0x3d9244da	0.07142039
243	0xbda04934	-0.078264624
244	0xbdbcc897	-0.09217947
245	0x3d3451c6	0.044023298
246	0xbcd9a5b0	-0.026568264
247	0xbd554510	-0.052067816
248	0xbd96d486	-0.073647544
249	0xbd0b148b	-0.03395514
250	0xbce10211	-0.027466806
251	0x3c8a4ec6	0.016883265
252	0xbcb45c28	-0.0220166
253	0xbc6de87c	-0.014520761
254	0xbced806a	-0.028991897
255	0x3dd2e66f	0.10297858

weight f4 [256]
0	0x3f7ffa98	0.9999175
1	0x3f7ff544	0.9998362
2	0x3f80081d	1.0002476
3	0x3f801208	1.0005503
4	0x3f7f992f	0.99843115
5	0x3f7f4e50	0.9972887
6	0x3f8010d5	1.0005137
7	0x3f7ff356	0.99980676
8	0x3f7fe05c	0.9995172
9	0x3f80348c	1.0016036
10	0x3f7fb82f	0.99890417
11	0x3f8021f2	1.0010359
12	0x3f7fd1d4	0.9992955
13	0x3f802925	1.0012556
14	0x3f801be0	1.0008507
15	0x3f80143b	1.0006174
16	0x3f802125	1.0010115
17	0x3f7fcf53	0.99925727
18	0x3f800283	1.0000767
19	0x3f800ff1	1.0004865
20	0x3f7f8f21	0.9982777
21	0x3f7f5144	0.99733377
22	0x3f802d86	1.0013893
23	0x3f80122b	1.0005544
24	0x3f800480	1.0001373
25	0x3f7fe9be	0.9996604
26	0x3f7fbf55	0.99901325
27	0x3f7fca5a	0.9991814
28	0x3f8006b4	1.0002046
29	0x3f7ffd38	0.99995756
30	0x3f8013b1	1.0006009
31	0x3f7fcdff	0.999237
32	0x3f801b00	1.000824
33	0x3f7f4057	0.9970755
34	0x3f7fda8a	0.9994284
35	0x3f8003cd	1.000116
36	0x3f7fef48	0.9997449
37	0x3f7ffa79	0.99991566
38	0x3f7fccf9	0.9992214
39	0x3f7ff150	0.9997759
40	0x3f7febb3	0.99969023
41	0x3f7ffcba	0.99995005
42	0x3f800c5d	1.0003773
43	0x3f7fd237	0.9993014
44	0x3f800ac8	1.000329
45	0x3f7fd590	0.99935246
46	0x3f80098c	1.0002913
47	0x3f7f711a	0.99781954
48	0x3f8002f4	1.0000901
49	0x3f800805	1.0002447
50	0x3f7fc7c6	0.99914205
51	0x3f7ff9e1	0.9999066
52	0x3f800f34	1.000464
53	0x3f7f845a	0.9981133
54	0x3f8029eb	1.0012792
55	0x3f801338	1.0005865
56	0x3f8029b9	1.0012733
57	0x3f7fa66a	0.998633
58	0x3f8015c8	1.0006647
59	0x3f80363c	1.0016551
60	0x3f7f6a96	0.9977201
61	0x3f800597	1.0001706
62	0x3f800323	1.0000957
63	0x3f805670	1.0026379
64	0x3f7fdae5	0.9994338
65	0x3f802163	1.0010189
66	0x3f801648	1.00068
67	0x3f7fe33e	0.9995612
68	0x3f7ff031	0.9997588
69	0x3f7fe6f3	0.99961776
70	0x3f7fe0fa	0.9995266
71	0x3f7fbe58	0.99899817
72	0x3f8008d2	1.0002692
73	0x3f802fad	1.001455
74	0x3f7fc627	0.9991173
75	0x3f803b02	1.0018008
76	0x3f804403	1.0020756
77	0x3f7fc70e	0.9991311
78	0x3f8016c4	1.0006948
79	0x3f8025b8	1.0011511
80	0x3f7f9629	0.998385
81	0x3f802d00	1.0013733
82	0x3f801d5d	1.0008961
83	0x3f80166e	1.0006845
84	0x3f801d0a	1.0008862
85	0x3f8008ca	1.0002682
86	0x3f801036	1.0004947
87	0x3f80301d	1.0014683
88	0x3f7fbfc7	0.99902004
89	0x3f80156b	1.0006536
90	0x3f8010ab	1.0005087
91	0x3f80215a	1.0010178
92	0x3f7ff4b2	0.9998275
93	0x3f8018c7	1.0007561
94	0x3f80068b	1.0001997
95	0x3f7ffdf9	0.99996907
96	0x3f80031f	1.0000952
97	0x3f8002c4	1.0000844
98	0x3f801aa0	1.0008125
99	0x3f7fb664	0.9988768
100	0x3f7fc7ea	0.9991442
101	0x3f8023ec	1.0010962
102	0x3f800752	1.0002234
103	0x3f8004f5	1.0001513
104	0x3f801cb8	1.0008764
105	0x3f7f556a	0.99739707
106	0x3f80192a	1.000768
107	0x3f7feb3d	0.9996832
108	0x3f801b4a	1.0008328
109	0x3f802c62	1.0013545
110	0x3f802041	1.0009843
111	0x3f80292d	1.0012566
112	0x3f7f7e09	0.9980169
113	0x3f80176c	1.0007148
114	0x3f7fd0ec	0.99928164
115	0x3f7fd24f	0.9993028
116	0x3f7ff5ff	0.99984735
117	0x3f8041e9	1.0020114
118	0x3f803b28	1.0018053
119	0x3f7f6df9	0.9977718
120	0x3f7facea	0.9987322
121	0x3f8048ae	1.002218
122	0x3f804185	1.0019995
123	0x3f8023b0	1.0010891
124	0x3f800072	1.0000136
125	0x3f7f516b	0.9973361
126	0x3f7fe531	0.99959093
127	0x3f7fe262	0.9995481
128	0x3f7f8e63	0.9982664
129	0x3f800425	1.0001265
130	0x3f7ffc06	0.9999393
131	0x3f801df9	1.0009147
132	0x3f8007a7	1.0002335
133	0x3f80121f	1.000553
134	0x3f7fee5a	0.9997307
135	0x3f80103e	1.0004957
136	0x3f801b0c	1.0008254
137	0x3f8018e1	1.0007592
138	0x3f7fc365	0.99907523
139	0x3f7ffa37	0.9999117
140	0x3f802958	1.0012617
141	0x3f7ff599	0.9998413
142	0x3f801929	1.0007678
143	0x3f7fd8b6	0.9994005
144	0x3f7fff5a	0.9999901
145	0x3f8003c4	1.0001149
146	0x3f7fe312	0.99955857
147	0x3f7fddc5	0.9994777
148	0x3f7fda84	0.99942803
149	0x3f7fe121	0.99952894
150	0x3f8004df	1.0001487
151	0x3f8021a5	1.0010267
152	0x3f7fb0eb	0.9987933
153	0x3f7fe912	0.9996501
154	0x3f7fee00	0.99972534
155	0x3f7f781d	0.99792653
156	0x3f80209f	1.0009955
157	0x3f800941	1.0002824
158	0x3f800a20	1.000309
159	0x3f7fe19f	0.99953645
160	0x3f7ff84f	0.99988264
161	0x3f7fcc5f	0.9992122
162	0x3f7fd87a	0.9993969
163	0x3f7fb8ed	0.9989155
164	0x3f803823	1.0017132
165	0x3f7fe9fa	0.99966395
166	0x3f802cf2	1.0013716
167	0x3f80131e	1.0005834
168	0x3f8004c6	1.0001457
169	0x3f8017c8	1.0007257
170	0x3f8024c0	1.0011215
171	0x3f7fb876	0.9989084
172	0x3f801696	1.0006893
173	0x3f7fc2fe	0.9990691
174	0x3f7f8292	0.9980861
175	0x3f80125e	1.0005605
176	0x3f7fde92	0.9994899
177	0x3f7f7c0d	0.9979866
178	0x3f7fb099	0.9987884
179	0x3f8016e2	1.0006983
180	0x3f7faa0a	0.99868834
181	0x3f8011fa	1.0005486
182	0x3f801c8e	1.0008714
183	0x3f801ffe	1.0009763
184	0x3f7fd2b0	0.9993086
185	0x3f801ee6	1.000943
186	0x3f802580	1.0011444
187	0x3f7f83af	0.9981031
188	0x3f7fdd5d	0.9994715
189	0x3f8055a6	1.0026138
190	0x3f800057	1.0000104
191	0x3f804352	1.0020545
192	0x3f800ec5	1.0004507
193	0x3f7fcd18	0.99922323
194	0x3f7f3819	0.99694973
195	0x3f7fba9c	0.9989412
196	0x3f7ff65f	0.9998531
197	0x3f7fd4e4	0.9993422
198	0x3f7fb5f1	0.99886996
199	0x3f800fba	1.0004799
200	0x3f80398b	1.0017561
201	0x3f7fe9f2	0.9996635
202	0x3f804887	1.0022134
203	0x3f800ef8	1.0004568
204	0x3f7fa1d0	0.9985628
205	0x3f7fd1f6	0.9992975
206	0x3f7ffb4c	0.99992824
207	0x3f7f8988	0.9981923
208	0x3f7fe44f	0.99957746
209	0x3f802663	1.0011715
210	0x3f800a87	1.0003213
211	0x3f7fa43e	0.9985999
212	0x3f7fd874	0.99939656
213	0x3f7fe90b	0.9996497
214	0x3f7ff19c	0.9997804
215	0x3f80316f	1.0015086
216	0x3f800256	1.0000713
217	0x3f800132	1.0000365
218	0x3f801f93	1.0009636
219	0x3f8021be	1.0010297
220	0x3f7fdd82	0.9994737
221	0x3f7fcebd	0.9992483
222	0x3f8007e1	1.0002404
223	0x3f802b4a	1.0013211
224	0x3f7f8b11	0.99821573
225	0x3f7fdbfe	0.99945056
226	0x3f7fc37f	0.9990768
227	0x3f800356	1.0001018
228	0x3f7fed06	0.99971044
229	0x3f7fefac	0.99975085
230	0x3f7ff284	0.99979424
231	0x3f7fa699	0.9986358
232	0x3f7fac5c	0.99872375
233	0x3f80057f	1.0001677
234	0x3f80049e	1.0001409
235	0x3f801818	1.0007353
236	0x3f7fdad4	0.9994328
237	0x3f80197e	1.000778
238	0x3f7ffb7b	0.99993104
239	0x3f7ffbed	0.99993783
240	0x3f7ffe8d	0.9999779
241	0x3f80146e	1.0006235
242	0x3f7fe575	0.999595
243	0x3f801e93	1.000933
244	0x3f7f87f0	0.998168
245	0x3f7fee0e	0.9997262
246	0x3f802eef	1.0014323
247	0x3f8009df	1.0003012
248	0x3f7fd18f	0.99929136
249	0x3f800c5e	1.0003774
250	0x3f7fdb30	0.9994383
251	0x3f802b4a	1.0013211
252	0x3f7ff895	0.9998868
253	0x3f7fcf1e	0.9992541
254	0x3f800ca9	1.0003864
255	0x3f80238f	1.0010852

bias f4 [256]
0	0xba2f5bee	-0.0006689419
1	0x3a50802a	0.0007953668
2	0x39c02c04	0.00036653888
3	0x36a53d3c	4.924512e-06
4	0x382681a0	3.9698207e-05
5	0x3a623515	0.00086291257
6	0x37a0e404	1.9179664e-05
7	0x3a31cc4a	0.00067824556
8	0x38561566	5.1041505e-05
9	0x386d625f	5.659682e-05
10	0x3a854457	0.0010167462
11	0x3851bb51	5.0003935e-05
12	0x3ab2ea49	0.0013650145
13	0xba3568ce	-0.0006920219
14	0xb9da07ef	-0.0004158611
15	0xba57f94b	-0.00082387467
16	0x38f2ce5c	0.00011577897
17	0x3a0f8ecc	0.00054762955
18	0x3a12e7db	0.0005604007
19	0xba143f45	-0.000565518
20	0x3a50ed93	0.00079699716
21	0x3a2ff53e	0.0006712264
22	0x35a44298	1.2238334e-06
23	0xb9f488fd	-0.0004664137
24	0xb91edfcb	-0.00015151424
25	0xb9b7f9d4	-0.00035090616
26	0x3aac5724	0.0013148529
27	0x398109d9	0.00024612134
28	0xb9c36af7	-0.00037272993
29	0xba102360	-0.00054984353
30	0xba9c1011	-0.0011906644
31	0x3a1553d1	0.00056963885
32	0xba5dda40	-0.0008463003
33	0x395937ab	0.0002071547
34	0xb9aa9b86	-0.000325408
35	0x39835820	0.00025051925
36	0xb78378f2	-1.5672736e-05
37	0xba15bab4	-0.000571172
38	0xb9495caa	-0.00019203374
39	0x39656a88	0.00021878828
40	0xba842007	-0.0010080346
41	0xb9b1fafe	-0.00033947075
42	0x37ca7fbe	2.4139761e-05
43	0x393e1eed	0.00018131333
44	0xb9bd865f	-0.00036149003
45	0xb9f32c43	-0.0004638155
46	0xba0eb8e6	-0.0005444422
47	0xba1305cd	-0.00056084694
48	0xba870925	-0.0010302408
49	0x39ade2a8	0.00033166003
50	0x39e7e94a	0.00044233567
51	0xba177a86	-0.000577845
52	0x39eb1660	0.00044839364
53	0x3a6b4fa4	0.0008976406
54	0x3aa5ca1a	0.0012648732
55	0x3a14269d	0.0005651506
56	0xba57b6a9	-0.00082288176
57	0xb9e51117	-0.00043691017
58	0x39405873	0.00018343497
59	0x391738c6	0.00014421632
60	0x376c0d7f	1.40698385e-05
61	0x3a2cc8e1	0.00065912126
62	0x3a38b04c	0.0007045313
63	0xb9c35c02	-0.0003726185
64	0x3aaaff67	0.0013046087
65	0x3a7c7edc	0.00096319406
66	0xb8dff729	-0.00010679506
67	0x39ebd6ea	0.00044982816
68	0xb9bc6de8	-0.0003594004
69	0xb9a31e2e	-0.00031112268
70	0x39ee9a9e	0.00045510096
71	0x39d3d358	0.0004040252
72	0xb8bf108e	-9.110673e-05
73	0xb8a4165a	-7.824293e-05
74	0x39691af3	0.00022230651
75	0xb9de81db	-0.0004243989
76	0x3a451c05	0.0007519129
77	0x39492a47	0.00019184603
78	0xbadce8e8	-0.001685408
79	0xba5590c8	-0.0008146879
80	0xb99aae7e	-0.00029503176
81	0xba245960	-0.00062694214
82	0x37d40422	2.5274294e-05
83	0x3ab5439c	0.0013829353
84	0x39858e37	0.00025473695
85	0xb7089237	-8.140275e-06
86	0x3983b3df	0.00025120281
87	0x388773c0	6.458862e-05
88	0x379b3e6a	1.8506504e-05
89	0x3aae26d3	0.0013286717
90	0xb842dcfd	-4.6459016e-05
91	0xb8bf81ec	-9.1317896e-05
92	0x39c55429	0.00037637472
93	0x3988b09f	0.00026071534
94	0xb9c35492	-0.00037256308
95	0xba3a252f	-0.00071008777
96	0x39ea09dd	0.00044639307
97	0xb97f9887	-0.00024375516
98	0x39c86750	0.00038223946
99	0x3a2001ac	0.0006103765
100	0x3a4df07d	0.0007855965
101	0x3a1288d1	0.0005589845
102	0x37f712e3	2.945349e-05
103	0xb94da3f3	-0.000196114
104	0x3980c810	0.0002456312
105	0xb9c717b9	-0.00037973913
106	0xb9a8f45c	-0.0003222552
107	0x3911bb3c	0.00013898028
108	0x38f67e78	0.00011753751
109	0xba2ff43c	-0.0006712114
110	0x392fb621	0.00016757149
111	0x3980db78	0.0002457758
112	0x3a174072	0.0005769796
113	0xba259c3e	-0.00063175324
114	0xb91a9244	-0.00014741073
115	0x3956bed6	0.00020479722
116	0x3a2409f4	0.00062575866
117	0xb9c65247	-0.00037826804
118	0x38dc1881	0.00010494982
119	0xba362403	-0.0006948115
120	0xbab1ef52	-0.0013575351
121	0x39cf65ab	0.00039557865
122	0x3a14d0ac	0.00056768465
123	0xba49f760	-0.0007704403
124	0xb97fde42	-0.00024401493
125	0x3a37e995	0.00070157024
126	0x39ec94d9	0.00045124328
127	0xb9c664a8	-0.00037840498
128	0xb8231704	-3.8883663e-05
129	0x39082455	0.00012983505
130	0xba227281	-0.0006196872
131	0x38b85e3a	8.791355e-05
132	0x392a4abe	0.00016240307
133	0xb921f051	-0.00015443681
134	0xb9a98da6	-0.00032339728
135	0xba19fc3d	-0.0005874073
136	0x39a98b9a	0.00032338203
137	0x3a45119a	0.00075175765
138	0x39acceae	0.00032960385
139	0x39ff38e0	0.00048679765
140	0xb957d297	-0.00020582449
141	0xb96a62e1	-0.00022352814
142	0x3a8dc29d	0.0010815446
143	0x3a0587ca	0.00050937815
144	0x3a48d68b	0.0007661364
145	0x38176207	3.60925e-05
146	0xb9b85207	-0.0003515633
147	0x39a2b55c	0.0003103417
148	0x38aacb46	8.144094e-05
149	0x3a9594d0	0.0011412147
150	0xb97e26f5	-0.0002423784
151	0xb9bd2ad5	-0.00036080802
152	0xb92d530b	-0.00016529502
153	0x39688d2a	0.00022177832
154	0x3a92eea8	0.0011210041
155	0xba3b0bff	-0.00071352714
156	0x390ec6a7	0.00013616179
157	0xba8249e0	-0.0009940229
158	0x3a287bf4	0.0006427162
159	0x398210e8	0.00024808128
160	0x39d3798d	0.00040335619
161	0xba5cdbf0	-0.0008425107
162	0xb97fa6d9	-0.0002438085
163	0x38404d0e	4.584813e-05
164	0x3a51ead3	0.0008007709
165	0x3a0b5c90	0.0005316222
166	0x3a2b8bb9	0.00065439526
167	0xb9ed71b0	-0.00045288866
168	0x3a01bbf9	0.00049489696
169	0xb9e27b5f	-0.00043197998
170	0x38de080e	0.00010587285
171	0x39f215fc	0.00046174217
172	0x39887587	0.00026027506
173	0x39f02f43	0.0004581158
174	0x3a00f217	0.00049188867
175	0xba0b673d	-0.0005317813
176	0x39aa3908	0.00032467418
177	0xb8f3565f	-0.00011603231
178	0xba8aed1b	-0.0010599227
179	0xba24f531	-0.000629264
180	0xba32c64b	-0.0006819709
181	0x3a36ebc7	0.00069778826
182	0xb9d03697	-0.00039713524
183	0x3a6a48a8	0.0008937218
184	0x3a0db4ab	0.0005405645
185	0xba865af9	-0.0010250501
186	0xb90db9a7	-0.00013515969
187	0xb9e4ea3b	-0.00043662064
188	0x392287fe	0.00015500185
189	0xb9675160	-0.00022060191
190	0x3a3122d7	0.00067572057
191	0xb85299fa	-5.0211303e-05
192	0xb946c477	-0.0001895594
193	0xba0fdce4	-0.00054879324
194	0xba8e0881	-0.0010836275
195	0xb82acfae	-4.0724575e-05
196	0x39591b1f	0.00020704836
197	0xba1ecb46	-0.0006057512
198	0xba93183f	-0.0011222436
199	0xb9f67aaf	-0.00047012183
200	0xba00e723	-0.00049172546
201	0x3ac9ef1e	0.0015406345
202	0xba6202ce	-0.0008621634
203	0xb9ea0e05	-0.00044642403
204	0x3a538f9e	0.0008070412
205	0x37e11a81	2.6834432e-05
206	0x39fe4a5f	0.00048502066
207	0x398ce0a3	0.00026870248
208	0x395e6b94	0.00021211646
209	0x399daf6c	0.00030076073
210	0x3a8517e8	0.0010154219
211	0xb92eba04	-0.0001666323
212	0xb9856ae0	-0.00025447365
213	0x38c16fa2	9.2237504e-05
214	0x3a485283	0.000764169
215	0x3a848a5b	0.0010112034
216	0x3a103d38	0.00055022864
217	0xb978d92b	-0.00023732024
218	0xb8feca38	-0.0001214933
219	0x39384784	0.00017574249
220	0xba35b8f7	-0.0006932164
221	0x39bdff42	0.0003623907
222	0x391afc27	0.00014780519
223	0xb96ba96e	-0.00022474464
224	0x38068506	3.2071977e-05
225	0xb7c7295f	-2.3741914e-05
226	0x3a31cc7e	0.0006782486
227	0x38da5eef	0.00010412733
228	0xba31248a	-0.0006757459
229	0x39903620	0.00027506147
230	0x3948728c	0.00019116158
231	0xb7de0054	-2.6464615e-05
232	0xba363655	-0.0006950845
233	0x39c01b6d	0.00036641528
234	0xb97c4fca	-0.00024062317
235	0xb9bfd8bb	-0.00036591836
236	0xba345b54	-0.0006880064
237	0xb9f5f1c7	-0.0004691018
238	0xb9dbee7e	-0.00041948626
239	0xb9ff8ed7	-0.00048743814
240	0x39b23f73	0.0003399808
241	0xb9af6615	-0.00033454658
242	0xb9ab11fa	-0.00032629055
243	0x39d23290	0.00040091993
244	0x39eea8df	0.00045520716
245	0xba59700d	-0.000829459
246	0x3a58b4c0	0.000826668
247	0xb9cbc339	-0.0003886463
248	0x3533a818	6.6927305e-07
249	0xb997035a	-0.00028803461
250	0xb97ace5f	-0.00023918737
251	0xbaa6d99e	-0.001272965
252	0x3a0782da	0.000516934
253	0x37dec4a9	2.655604e-05
254	0x39d36222	0.0004031817
255	0xba872a8e	-0.0010312365
