statedicts/torchscript_pl_db_2022-05-02_T3_90deg_P0_R1_s0_seed_0.pt (torch, 225385 bytes, 29 tensors)

weight f4 [5]
000000 e0 17 81 3f 4f 35 85 3f 35 dc 7f 3f 2e d2 7c 3f
       1.0085411 1.0406893 0.99945384 0.9875821
000010 d0 56 78 3f
       0.97007465

bias f4 [5]
000000 17 f3 94 3c 7d b8 87 bc 51 c0 de 3b 13 37 0c 3d
       0.01818232 -0.016567463 0.0067978282 0.03423221
000010 f3 91 88 ba
       -0.0010419473

running_mean f4 [5]
000000 51 15 28 40 cd d2 83 3d f2 0f 3f 40 a9 e3 3c 40
       2.626301 0.064366914 2.9853482 2.9513953
000010 df 08 73 3e
       0.23733853

running_var f4 [5]
000000 01 84 2c 3d 25 70 50 34 7b eb 9e 3b bf 5d e3 3a
       0.042118076 1.9412307e-07 0.004849849 0.0017346664
000010 46 ae 33 3b
       0.0027417107

weight f4 [96, 5]
000000 9c b5 45 3e ae 24 c5 3e 2b 5f ab be 97 6c 5a be
       0.1930756 0.38504547 -0.33471045 -0.21330486
000010 b3 eb 0c 3e 52 c2 38 bc 65 e8 9b be a6 e9 c1 be
       0.13761787 -0.011276798 -0.3045074 -0.37873572
000020 89 80 cb be 5d 8e 9e be e9 70 45 be 68 0b 9f be
       -0.39746502 -0.3096799 -0.19281353 -0.3106339
000030 a1 8a c7 be a6 ef 12 3d 50 65 85 3e c2 6b 50 be
       -0.38972953 0.035873078 0.26053858 -0.20353606
000040 3c a2 76 3d d8 af e6 3b 79 b7 41 3e bc 6c a7 be
       0.060213313 0.007040005 0.18917646 -0.32700145
000050 17 81 c1 3c d1 0f d6 3e 99 d9 a4 3e cc 56 e1 be
       0.023621125 0.41808942 0.32197264 -0.44011533
000060 ca 18 88 bd 81 d3 c8 3b 32 2d 1f be 4c 23 93 be
       -0.06645353 0.006128729 -0.15544584 -0.28737867
000070 6a 52 a3 be 6b cc 95 3e 17 a4 03 be 3b a3 02 bd
       -0.31898814 0.2925752 -0.12855564 -0.03189395
000080 4a ab 21 3e 94 a1 8b be 70 d4 00 3d c7 b7 86 3e
       0.15787998 -0.27271712 0.031452596 0.26312086
000090 c6 c7 93 be 8c eb e4 3d 6b bb c6 bc f0 94 77 3e
       -0.28863353 0.111777395 -0.02425929 0.24177909
0000a0 9c da 96 3e 78 af f0 3d b9 ed 4d 3c 47 68 c6 be
       0.2946366 0.11752218 0.0125688845 -0.38751432
0000b0 05 0a 35 3e 0f 72 82 3e 38 39 23 be 25 e8 e6 be
       0.17679603 0.25477645 -0.15939796 -0.45098987
0000c0 94 7f bd 3e f3 64 bc bd 93 b6 b8 3d dc 4a 00 be
       0.37011397 -0.09198942 0.09019198 -0.12528557
0000d0 de 37 91 3e 7a bd df 3e f9 d8 8e 3e 3d 88 1d be
       0.28362936 0.43699247 0.27899912 -0.15384002
0000e0 09 c5 a1 3e 68 16 5c 3e 81 47 4b 3d 6f 0f b5 be
       0.31595638 0.21492922 0.04962874 -0.35363337
0000f0 b1 dc 4d be 6a 43 e2 be 12 b9 94 3e 18 65 e3 3e
       -0.20103718 -0.44192058 0.29047447 0.44413066
000100 8c 9a 88 3e 75 f9 10 3e 55 a2 d2 3d 52 f9 dc 3e
       0.2668041 0.1415766 0.10284869 0.43158966
000110 dd fd 67 be 90 c2 19 be a6 1c cc be c7 ca 28 bd
       -0.22655435 -0.15015626 -0.39865607 -0.04120901
000120 d2 91 75 3d f8 2c ea 3d b9 d7 a6 be 4c 27 89 bd
       0.05995352 0.11434358 -0.32586458 -0.066969484
000130 08 53 c0 be 60 38 bd be 23 31 95 3d f4 54 d7 be
       -0.37563348 -0.36957073 0.07284763 -0.42057002
000140 e2 6b ec 3d 27 f6 d5 be f2 56 a0 be b8 bc b5 bd
       0.115440145 -0.41789362 -0.31316334 -0.08873886
000150 e1 44 d7 be 34 e7 bd 3e 7f b6 be 3e f6 0d 64 be
       -0.42044738 0.37090456 0.37248608 -0.2227095
000160 c0 a0 b8 3d 5c 46 5f 3e 8f c3 19 3e ed 60 60 bd
       0.09015036 0.21804184 0.15016006 -0.054779936
000170 c4 75 d9 be f3 2a 9e 3e 46 4e cd be 86 b7 c6 bd
       -0.4247266 0.30892143 -0.4009878 -0.09702973
000180 fa fd 18 3d 90 cf 14 be 9a 56 26 be 3a 3b c5 be
       0.037351586 -0.14532304 -0.16243973 -0.3852175
000190 87 1f 17 3d f6 6c 51 bd f3 f0 c9 3e 94 1b 25 be
       0.0368953 -0.051129304 0.39441642 -0.16123801
0001a0 5b 53 ab 3e 08 6f ad 3c 4f bf 4d be 06 d1 d9 bd
       0.33462033 0.021171108 -0.2009251 -0.10635571
0001b0 91 df 4f bd d6 ca 97 3b f8 98 68 bd ac 65 05 3e
       -0.05075032 0.004632334 -0.056786507 0.13027066
0001c0 d9 c3 bf 3e 63 f7 8a 3d 74 46 24 3e 38 f6 95 3e
       0.37454107 0.067854665 0.160425 0.29289412
0001d0 f2 f8 c9 3d 25 f0 42 3e e7 41 67 3e c1 c2 d4 3e
       0.09861936 0.1903692 0.22583733 0.41554835
0001e0 ec 26 be be 64 3c 00 3e 0f 3a 00 3d ba f2 08 be
       -0.3713907 0.12523037 0.03130537 -0.13373843
0001f0 d9 b7 65 be 0d 6d 88 3e c1 0a d3 3e 6f 87 bc be
       -0.22433414 0.266457 0.41219142 -0.36822078
000200 e9 ae 71 3e 88 7f 9c 3e da 0e 98 3d 43 a1 44 3b
       0.23601879 0.3056605 0.07424708 0.0030003346
000210 47 ce ad 3e 89 59 26 3c 6a 74 e6 bd d0 90 97 bc
       0.3394644 0.010153183 -0.11252673 -0.01850167
000220 1a de 13 3e 64 97 b5 3d 72 4e fc bc ec 4a fd 3d
       0.14440194 0.08866766 -0.030799124 0.12367806
000230 2a be 00 3e c6 cd bb be 9a 71 ce 3d ec 6a 8d 3e
       0.12572542 -0.3668043 0.100802615 0.27620637
000240 f2 ae 6e 3d 88 a9 49 bd 07 6f b7 3e 1e a5 cb be
       0.05827231 -0.049233943 0.35826895 -0.39774412
000250 21 a9 37 be 1d ba 3d be b5 91 c5 3e 0e b8 de be
       -0.17935611 -0.18528028 0.38587728 -0.43499798
000260 fb 6e 2f 3d 67 c8 db be 82 af 18 bc 21 b4 28 3e
       0.04283045 -0.42926332 -0.009319188 0.16474964
000270 5e c9 da bd dd 30 de 3e e5 4d 20 3b 37 8c 67 be
       -0.10682939 0.43396655 0.0024460491 -0.22612081
000280 9c 5a f8 3d f1 c4 74 3e 9b 7a db 3c cc 99 c4 3e
       0.12126657 0.23903252 0.026791861 0.38398588
000290 e3 26 8d be 1b 47 41 3e 9e 09 81 3e cd 96 6a 3e
       -0.2756873 0.18874781 0.2520265 0.22909088
0002a0 ad b4 27 ba f1 fd 02 3e da 31 b6 be 08 55 b1 be
       -0.0006397467 0.12792183 -0.3558491 -0.34635186
0002b0 aa 9f f3 bc bf ca 69 bd 5b 99 a9 3e 5c 75 a6 3e
       -0.02973922 -0.05707812 0.33124813 0.32511413
0002c0 1d 2a 9b 3e a7 e9 53 be 50 41 b3 be f1 ed d5 be
       0.30305567 -0.206946 -0.35010767 -0.41783097
0002d0 2f c9 21 3e b2 ad d1 be d3 53 e4 be d8 dc 65 be
       0.15799402 -0.40952832 -0.44595203 -0.22447526
0002e0 1d c7 bf be 0a ae 36 be 14 45 8f be 81 09 6b be
       -0.374566 -0.17839828 -0.2798239 -0.22952844
0002f0 9c b6 d9 3e 4d d4 ad bd 82 cd bd 3e 29 5d f0 3b
       0.42522132 -0.08487759 0.37070853 0.0073353243
000300 b3 1c 5e bd 2f f4 05 be a1 6d a4 be f3 cf b6 be
       -0.05422659 -0.1308143 -0.3211489 -0.35705528
000310 2f 2f a0 3e ef ec 0b be 3d 61 df be e4 f6 d1 3e
       0.31285998 -0.13664602 -0.43628874 0.41008675
000320 22 69 2b 3c 6b f2 97 be 60 41 af be df 06 c2 be
       0.010462077 -0.29677138 -0.34229565 -0.37895867
000330 a3 da cb be 50 c0 d0 3e b6 7c 9d 3e a9 c6 09 3d
       -0.39815244 0.40771723 0.3075921 0.033636723
000340 2a ab c2 be 21 3d ec bd 6b 11 d6 be 23 58 27 3e
       -0.38021213 -0.11535097 -0.41810164 0.16342215
000350 78 65 ed bd 1d b2 d0 bd b7 e0 11 be ce 27 53 3e
       -0.11591619 -0.101902224 -0.14245878 0.20620653
000360 04 a9 75 3e 5c 1c d2 3d 4c 64 79 bd f2 27 44 bd
       0.23990256 0.10259315 -0.060886666 -0.047889657
000370 82 16 bc bb f6 33 b0 be 82 16 d8 3e e0 f4 3d be
       -0.005739988 -0.34414643 0.42204672 -0.18550444
000380 fd a9 8b 3e 30 da 69 be 9b b0 5e 3b 5d da 2b 3e
       0.27278128 -0.22837138 0.0033979777 0.16782518
000390 fc 26 de be ab b3 34 3e 00 ee ae be 05 51 7b 3d
       -0.43389118 0.17646663 -0.34165955 0.061356563
0003a0 43 32 b6 bd 53 9e 83 3e 47 e6 de 3e d6 f1 07 3e
       -0.088963054 0.2570673 0.43535063 0.13275847
0003b0 88 e1 8d bc 89 19 44 be a4 f4 09 3e e5 11 7d be
       -0.017319456 -0.19150366 0.13472229 -0.24713857
0003c0 b7 61 3c 3e 2c 8f 48 be 98 ae 95 3e f2 d1 b2 3e
       0.1839665 -0.19585866 0.29234767 0.349258
0003d0 f9 65 90 3e e9 3d fe 3b b1 e6 53 3e e6 d2 d0 be
       0.282028 0.007758845 0.2069347 -0.40785903
0003e0 80 bd b9 3e 7d f2 eb bd bc a7 3d 3e 0a 0c 95 bd
       0.3627739 -0.1152086 0.18521017 -0.07277687
0003f0 46 08 1b be fa 87 62 be 5f c6 8b 3e cb e2 79 be
       -0.15139875 -0.22122183 0.27299783 -0.24402921

bias f4 [96]
000000 42 fe 8d 3e b0 09 cb be 48 1e c1 3e 2f 47 e4 3e
       0.27733046 -0.39655828 0.37718415 0.4458556
000010 f7 29 fe bd c3 8d 32 3e 09 4d e3 3e 81 cc d9 3d
       -0.12410348 0.1743689 0.4439471 0.10634709
000020 72 e8 33 3e 29 b1 2b 3e 10 fe 3d be 0a ed e4 3d
       0.1756914 0.167668 -0.18553948 0.11178024
000030 9e 5c 6d be d2 9a c3 3e 2f df 32 be 49 bd da 3d
       -0.23179862 0.38204056 -0.1746795 0.106806345
000040 60 da 07 be 6a 07 63 3e 87 27 93 ba 76 52 79 3e
       -0.13266897 0.22170797 -0.001122699 0.24347863
000050 db 32 ee bd 3f 5d 86 be f0 fd 2c 3e 47 f3 83 be
       -0.11630794 -0.26243016 0.16893744 -0.25771543
000060 79 f5 c7 be 7e 13 33 3e 5f 4b 8d be f3 3a 45 be
       -0.39054468 0.17487904 -0.27596566 -0.19260769
000070 5b d1 b8 bd da f2 13 3c 8c 01 25 be 8d 86 28 be
       -0.090243064 0.009030068 -0.16113871 -0.16457577
000080 35 86 da bd 6d 50 9f 3e 57 1b 09 3e 47 fb 5e be
       -0.10670129 0.31116048 0.13389336 -0.21775542
000090 4c be 9d be a5 f5 3c 3c 3b ae 11 3e 9a 73 21 bc
       -0.30809247 0.011533176 0.1422662 -0.009854222
0000a0 0c 93 86 3e 35 1f c0 3e 88 9f f8 3d 3f 64 19 3e
       0.26284063 0.3752381 0.12139803 0.14979647
0000b0 df d5 85 3e 95 b8 14 be 7f 99 9c 3d 74 3a b9 3e
       0.26139733 -0.14523537 0.076464646 0.3617741
0000c0 fb 47 55 be 34 96 10 3d 5d e3 37 be ce a9 b6 be
       -0.2082824 0.035299495 -0.17957826 -0.35676426
0000d0 9c 39 78 3e 02 ff b6 3e 21 7c 68 be 48 21 23 3e
       0.24240726 0.3574143 -0.22703601 0.15930665
0000e0 58 9a 0b 3e 1b a7 35 3e 19 5c 7b 3e 0a a0 d1 3e
       0.13633096 0.17739527 0.24546851 0.40942413
0000f0 2f c5 ac 3e 47 43 c8 be 45 23 2a be 9b 4b 70 3e
       0.3374419 -0.3911383 -0.16615017 0.23466341
000100 b2 a4 7f be bb fb b3 3d 2a e8 4d be 5c 35 b5 3d
       -0.2496517 0.08788248 -0.20108095 0.08848068
000110 64 19 64 3e f0 fc 11 3e 81 59 a7 3e 6e 0c 52 bd
       0.22275311 0.14256644 0.32685474 -0.051281385
000120 ea 64 7a 3e 4c 83 1e 3e 67 9f 0e be 64 0a ae be
       0.24452558 0.15479773 -0.13927995 -0.33992302
000130 3e 54 cd 3e 29 ac 05 be 88 54 ae 3e 88 a2 8e 3e
       0.40103334 -0.13053955 0.34048867 0.27858377
000140 95 8c 99 bc e7 71 ac be 34 4e 12 3d 57 47 53 be
       -0.018743793 -0.3368065 0.03571911 -0.20632683
000150 7b dd e1 3d dc 08 38 be 1c 06 ae 3e 6c 39 cb be
       0.11028572 -0.1797213 0.33989036 -0.39692247
000160 3c 66 fd bd 77 90 a5 3d c7 52 2e 3d 97 04 bb 3e
       -0.12373015 0.08084195 0.04255941 0.3652694
000170 3e ba 11 be 35 a1 b8 be 66 ae 95 3e 21 3a 01 3e
       -0.14231202 -0.3606049 0.29234618 0.1261983

weight f4 [96]
000000 91 66 7f 3f 6a 13 80 3f 16 53 80 3f 38 5e 7f 3f
       0.9976588 1.0005925 1.0025356 0.9975314
000010 f9 75 80 3f b6 85 7f 3f da f5 7f 3f 0c 2d 81 3f
       1.0036002 0.998134 0.99984515 1.0091872
000020 28 11 80 3f 5d 76 7e 3f bd 0f 80 3f 7e 18 80 3f
       1.0005236 0.9939936 1.0004803 1.0007474
000030 d1 72 80 3f d1 69 7f 3f ef 54 80 3f c6 42 80 3f
       1.0035039 0.9977084 1.002592 1.0020378
000040 e4 f8 7f 3f 4b 4c 80 3f e0 32 80 3f a1 3f 80 3f
       0.9998915 1.0023283 1.0015526 1.0019418
000050 6a 03 7f 3f 00 00 80 3f c4 e4 7f 3f 55 a9 7f 3f
       0.99614584 1.0 0.99958444 0.99867755
000060 49 f1 7f 3f b3 14 80 3f 80 0d 80 3f 8b d0 7f 3f
       0.99977547 1.0006317 1.000412 0.99927586
000070 9d 3c 80 3f 15 f3 80 3f a1 48 80 3f 17 df 7f 3f
       1.0018498 1.0074183 1.0022165 0.99949783
000080 3b 6f 7f 3f 1b 61 7f 3f 5c 47 7f 3f a5 97 7f 3f
       0.997791 0.99757546 0.9971826 0.99840766
000090 0a d3 7f 3f 8b 78 7f 3f b2 44 80 3f d4 e6 7f 3f
       0.99931395 0.9979331 1.0020964 0.9996159
0000a0 a7 db 7e 3f 61 65 7f 3f 59 b9 80 3f 16 1d 80 3f
       0.9955391 0.99764067 1.0056564 1.0008876
0000b0 ae 78 80 3f e8 35 80 3f ad 8a 7f 3f 7d eb 7e 3f
       1.0036829 1.0016451 0.9982098 0.99578077
0000c0 97 47 80 3f db d6 7f 3f b4 a6 7e 3f 15 c1 80 3f
       1.0021847 0.9993722 0.9947312 1.0058924
0000d0 17 56 7f 3f 4d 3f 80 3f 43 fa 7e 3f 59 36 80 3f
       0.9974074 1.0019318 0.9960062 1.0016586
0000e0 f5 b6 7f 3f 23 2b 80 3f 50 0e 80 3f 06 15 7f 3f
       0.99888545 1.0013164 1.0004368 0.99641454
0000f0 76 76 7f 3f 23 19 80 3f 88 e1 7f 3f 37 45 80 3f
       0.9979013 1.0007671 0.9995351 1.0021123
000100 d3 37 80 3f 2d 8e 80 3f 44 f5 7d 3f 2c 18 80 3f
       1.0017036 1.0043389 0.9920237 1.0007377
000110 7f 4f 7f 3f 8e 2b 7f 3f 2a 82 7f 3f cd 35 80 3f
       0.99730676 0.99675834 0.9980799 1.0016419
000120 6e 09 80 3f 0e 2e 80 3f db ed 7f 3f ce 17 7e 3f
       1.0002878 1.0014055 0.99972314 0.99255073
000130 ad 09 80 3f b9 30 81 3f 5e 13 80 3f 06 76 7f 3f
       1.0002953 1.0092994 1.000591 0.99789464
000140 02 1d 7f 3f 9f 71 80 3f 02 ae 7f 3f 1a 4f 80 3f
       0.9965364 1.0034674 0.9987489 1.002414
000150 05 53 80 3f f2 83 7f 3f 93 3f 80 3f 2f 55 7f 3f
       1.0025336 0.9981071 1.0019401 0.99739355
000160 a0 3a 80 3f 70 b3 7f 3f e4 b3 7f 3f e9 f8 7f 3f
       1.0017891 0.99883175 0.99883866 0.9998918
000170 7d 07 80 3f a1 49 7f 3f 75 54 80 3f b5 ac 7e 3f
       1.0002285 0.99721724 1.0025774 0.9948228

bias f4 [96]
000000 08 a0 20 3b c8 36 53 3a 3b d3 c3 3a 4e 7c 63 ba
       0.0024509449 0.0008057174 0.0014940271 -0.00086778856
000010 9e a5 c7 b9 ce 62 a2 b9 22 20 2c bb ac 7a 85 bb
       -0.00038079632 -0.00030972663 -0.002626427 -0.0040734615
000020 13 af 2c bb 5e 06 a0 b9 8e 96 92 3a 6f 2a e7 3a
       -0.002634947 -0.00030522322 0.0011183785 0.0017636548
000030 89 8c d1 b9 a5 2a d8 ba 2e c8 21 3b df b7 4a bb
       -0.00039968293 -0.0016492201 0.0024685967 -0.003093235
000040 52 3f cd ba 01 bf b6 3a 19 48 1d 3a ad ae 44 3b
       -0.001565913 0.0013942422 0.0005999818 0.0030011341
000050 07 ad 55 37 3d 85 be b9 e9 28 d0 ba ce 35 05 39
       1.2736075e-05 -0.00036338894 -0.0015881333 0.00012703912
000060 92 c8 71 bb 86 f1 c0 ba 27 e6 a2 39 a8 b4 21 3a
       -0.003689323 -0.0014720417 0.00031070525 0.00061685825
000070 b0 82 a2 ba 65 57 86 ba cc f7 8b 3a f7 08 71 ba
       -0.0012398567 -0.0010249434 0.0010678708 -0.0009194756
000080 aa b0 cb 3a e4 ea 95 3b 3f f9 e5 38 a3 99 2e 3b
       0.0015540321 0.0045751203 0.000109659966 0.0026641868
000090 f5 74 7f 3b 9f e6 e2 3a c9 71 e5 3a c7 82 33 39
       0.0038979624 0.0017311162 0.0017505224 0.00017119489
0000a0 d5 7c 4f bb 03 4f 44 3a a6 03 d7 ba c3 3e 76 bb
       -0.00316601 0.00074885803 -0.0016404286 -0.003757403
0000b0 c6 33 f7 ba 88 27 6c 3b 9d 5a 25 3b f6 54 18 bb
       -0.0018860034 0.0036034305 0.0025231012 -0.0023244
0000c0 54 29 97 3a 22 5b 2d 3a aa 27 1e 3b 7e 7a e3 3a
       0.0011532702 0.0006613006 0.0024132528 0.0017355231
0000d0 60 2f 3e ba ec 2d 99 38 88 c2 59 3a 1e d5 2c bb
       -0.0007254984 7.304162e-05 0.00083068805 -0.0026372145
0000e0 75 2a 90 39 9f 07 fa 38 d1 7c d7 3a 5f 02 d6 3a
       0.00027497453 0.000119223485 0.0016440396 0.0016327611
0000f0 cb 09 49 3a e0 4a 81 b4 82 bd 53 3a 7f d2 f6 b8
       0.0007669001 -2.40826e-07 0.000807725 -0.00011769402
000100 d7 78 46 ba 9b 96 78 3b 8f 20 1f 3b 80 bb 00 bb
       -0.0007571107 0.0037931565 0.002428088 -0.0019643009
000110 29 5f 5f ba b4 d0 1c b9 80 e9 21 bb f4 8d 24 3a
       -0.0008520955 -0.00014955067 -0.0024705827 0.0006277256
000120 55 ba 3a 3a 35 fb 8a 39 58 ab 83 ba 92 da dd ba
       0.00071231026 0.00026508575 -0.0010045571 -0.0016926101
000130 7a 04 0e ba 0a 6e a5 3a ef ca ea 3a 54 f9 3c bb
       -0.0005417537 0.0012621295 0.0017913262 -0.0028835135
000140 9c 5b 60 3b f7 79 2d 3b d8 e0 53 38 52 2a ff 3a
       0.003423429 0.0026470402 5.0515722e-05 0.0019467568
000150 c0 cf 95 3a ad 5b ec 39 e2 90 9f ba 07 9d a7 ba
       0.0011429712 0.00045081732 -0.0012173916 -0.0012787887
000160 cc 47 b1 3a a4 b1 e9 3a 0f c3 d2 3b f3 08 95 3a
       0.0013525425 0.001782943 0.006431944 0.0011370465
000170 2a c2 fd ba b3 88 8a 38 b1 45 3b 3b fb 5b 3c 3b
       -0.0019360234 6.605815e-05 0.0028575475 0.0028741348

running_mean f4 [96]
000000 b4 62 9b 3e da 84 83 3d cb c5 10 3f dc e8 e5 3e
       0.30348742 0.06421824 0.5655181 0.4490422
000010 a9 7a 96 3e 20 e1 77 3e 14 38 de 3e 77 31 29 3e
       0.29390457 0.24206972 0.4340216 0.16522776
000020 41 28 9d 3e a9 9d 9d 3e 59 dd 16 3e 81 66 73 3e
       0.30694774 0.30784348 0.14732875 0.23769571
000030 ce 1c 66 3e bd 7b 1a 3f 81 62 c7 3c a6 82 2f 3e
       0.22471926 0.6034506 0.024338963 0.17139682
000040 00 5c eb 3d 30 42 7a 3e 95 66 d1 3d 6a 07 94 3e
       0.11492157 0.24439311 0.10224644 0.28911906
000050 e5 3c 8f 3d 00 00 00 00 44 eb 3f 3e c7 b0 25 3d
       0.069940366 0.0 0.1874209 0.04045179
000060 07 34 19 3a e5 fb af 3e 07 1f ab 3d 00 00 00 00
       0.00058442395 0.34371868 0.08355527 0.0
000070 63 4b a3 3d d6 b2 0b 3e 40 75 83 3e f6 fc 7b 3e
       0.07973363 0.13642439 0.25675392 0.24608216
000080 27 f8 cb 3c 03 34 af 3e 33 0d b7 3e 8c 1f a0 3e
       0.024898602 0.3421937 0.35752258 0.31274068
000090 1a 26 b4 3d ff 5b a7 3e c9 09 cb 3e 95 00 3e 3e
       0.0879633 0.32687375 0.39655903 0.1855491
0000a0 d6 4b bf 3e 6b 82 19 3f e9 ea 46 3e b4 30 86 3e
       0.37362546 0.5996463 0.19425549 0.26209033
0000b0 8f ae 94 3e 27 35 0b 3d ac 8d 00 3f 0c 1a bc 3e
       0.29039428 0.033986237 0.50216174 0.36738622
0000c0 e9 be c6 3d 4e 8d 87 3e 44 d5 06 3c 10 63 93 3c
       0.09704382 0.26474994 0.008229557 0.017991573
0000d0 92 88 89 3e 2e c0 c3 3e f8 05 ae 3c 7c 49 26 3e
       0.26862007 0.3823256 0.02124308 0.1623897
0000e0 6f 62 ff 3e af c6 84 3e d2 cb 91 3e b7 a7 d4 3e
       0.49879786 0.25932834 0.28475815 0.41534206
0000f0 15 c9 ca 3e 94 0b 3c 3e 1d b9 33 3d 6b 0f 78 3e
       0.39606538 0.18363792 0.04387771 0.24224631
000100 49 bc 1c 3d b3 6b 0b 3e f0 ad 21 3c 2a 78 5c 3e
       0.0382655 0.13615303 0.00986813 0.21530214
000110 a0 7e 8e 3e fd cf 5c 3e ae a0 b5 3e 66 56 f2 3d
       0.27830982 0.21563716 0.3547415 0.118328854
000120 c7 d2 fb 3e ed d0 8e 3e f2 b9 ed 3d f9 43 8f 39
       0.49184248 0.27893773 0.11607732 0.0002732573
000130 e8 2d c9 3e bd 9d b2 3d 1f 88 f0 3e d6 eb a7 3e
       0.39292836 0.087214924 0.46978852 0.32797116
000140 08 eb d3 3e 2f bc 8f 3c 13 f4 8c 3e 96 98 e8 3d
       0.41390252 0.017545788 0.27529964 0.113572285
000150 1a c8 36 3e 9b ef ce 3d cf 90 ed 3e ef c0 fc 3d
       0.1784977 0.10104295 0.46399543 0.12341487
000160 ba 90 08 3e 47 4c 32 3e 18 f5 fa 3d a1 ad da 3e
       0.13336459 0.1741191 0.12253779 0.42710593
000170 cd 19 59 3e 75 b8 ad 38 bb 06 aa 3e 2a 9b dc 3e
       0.21201248 8.283641e-05 0.3320826 0.4308713

running_var f4 [96]
000000 49 42 37 3d ae a4 74 3c 90 77 d4 3e d2 4f 7c 3c
       0.04474095 0.014931841 0.4149747 0.01539989
000010 60 cd f4 3d f7 af 69 3d c7 ef 80 3d c2 41 90 3c
       0.11953235 0.05705258 0.06295734 0.01760948
000020 36 9b f4 3d f4 b4 e0 3d ad 4b 13 3d ca 20 88 3d
       0.11943667 0.10972014 0.035960842 0.06646879
000030 89 e3 94 3d a6 b1 ad 3e be 28 05 3b 4c d2 86 3c
       0.072699614 0.33924598 0.0020318474 0.0164577
000040 d3 1d 0a 3d 69 ea 22 3d d7 74 43 3c ba bd cf 3d
       0.03371985 0.039774332 0.011929712 0.10143609
000050 3f 3e b4 3c 00 00 00 00 7a fb 6f 3d 3c c6 a5 3b
       0.022002338 0.0 0.058589436 0.005059032
000060 f3 2c 2c 38 7d 62 1a 3e fe 93 b4 3c 00 00 00 00
       4.1049858e-05 0.15076633 0.022043224 0.0
000070 5a fc 41 3c a6 72 bd 3c b5 d0 f8 3d 71 e3 c6 3d
       0.01183995 0.023125958 0.12149183 0.0971135
000080 8b bd 1a 3b ec 00 86 3d 0c 61 41 3e cb 32 4c 3e
       0.0023611512 0.065431446 0.18884677 0.19941251
000090 41 50 df 3c 02 de 29 3e 78 fe 5e 3e ff 89 ce 3d
       0.027259948 0.16588596 0.2177676 0.100849144
0000a0 0d e8 41 3e d0 f2 d0 3e 0f 5e 8f 3d e2 e2 8f 3d
       0.18936177 0.4081025 0.07000362 0.07025696
0000b0 f8 30 9c 3d 09 9a 8f 3b 19 a3 c2 3e 32 8b 9c 3c
       0.076265275 0.004382376 0.3801506 0.019109342
0000c0 e1 af a4 3c 6d 36 eb 3d cc b5 10 3a b3 b9 eb 3a
       0.020103397 0.1148499 0.0005520254 0.001798442
0000d0 e5 c9 61 3d 6b 48 1a 3e 05 3e 3c 3b f5 78 1b 3c
       0.055124182 0.15066688 0.002872349 0.009489288
0000e0 ff 0d b8 3e d7 27 a6 3d 07 56 d6 3d 00 87 01 3e
       0.35948178 0.081130676 0.10465627 0.12649155
0000f0 d3 f3 e6 3d 49 b2 86 3d 76 71 25 3c b4 bc 2d 3c
       0.112769745 0.06576974 0.010097852 0.010604072
000100 fe 9a a1 3b a2 a8 72 3c 44 70 95 3a c3 92 98 3d
       0.0049318066 0.014810713 0.0011401256 0.074498676
000110 8f 19 44 3d 11 60 50 3d 7e 9a d2 3d a7 a6 49 3c
       0.047875937 0.050872866 0.10283373 0.012307799
000120 d0 c8 77 3e 72 53 b5 3d f7 db 08 3d 6f 1e e2 37
       0.24197698 0.088538066 0.0334129 2.6955471e-05
000130 5f da 8d 3d 7d 09 9f 3c bf 47 95 3e 54 7f d6 3d
       0.069264166 0.019413704 0.291563 0.10473505
000140 d0 16 8d 3e 4a a2 da 3a 91 26 e1 3d 68 7b 1b 3d
       0.27556467 0.0016680446 0.10993684 0.037959486
000150 98 3e 2c 3d 4a ac a8 3c 50 08 27 3e 4b f3 10 3d
       0.04205188 0.020589966 0.16311765 0.035388272
000160 69 41 0a 3d 18 25 53 3d a9 a8 75 3c 6f ef 09 3e
       0.033753786 0.051549047 0.014993825 0.13470243
000170 f6 81 d7 3d 68 4e 1f 37 42 82 66 3d 62 a0 57 3e
       0.10522835 9.495394e-06 0.056276567 0.21057275

weight f4 [256, 96]
000000 05 3c 89 3d de b7 78 bd 6b d7 72 bd 3f b7 f2 bc
       0.06700901 -0.060722224 -0.05928747 -0.029628394
000010 59 d8 68 3c 5b 12 10 3d bd ff 46 bd b7 d6 a3 bc
       0.014211738 0.035173755 -0.048583735 -0.019999845
000020 67 e7 9e bc 04 54 ac 3d b6 f8 14 bd 91 17 d9 3d
       -0.01939745 0.08414462 -0.03637 0.10600198
000030 a8 b5 81 bd 79 ad 21 bd 51 30 8e bd 1f de 93 3d
       -0.06333476 -0.039472077 -0.069428094 0.072201006
000040 d1 50 98 bd a2 c4 06 3d ab 08 40 bd 43 ce d3 3d
       -0.074372895 0.032902367 -0.046883266 0.10342076
000050 0a 48 bd 3c 63 85 b5 bd 34 fc bd 3c 42 b6 2a 3c
       0.02310564 -0.08863332 0.023191549 0.01041943
000060 c3 ee c9 bd 4c 60 8f 3c 33 bb d5 3d e0 1d fc 3c
       -0.09859993 0.017501973 0.10436096 0.030775964
000070 b0 0f 74 bb 76 79 de bb 89 99 c8 3c 32 9f 21 bd
       -0.0037240796 -0.0067893816 0.024487274 -0.03945846
000080 a1 68 c2 3d d5 2c b5 3d 1d d6 50 3d 33 47 1c bd
       0.09492613 0.08846442 0.050985444 -0.03815384
000090 37 8b c6 bd c0 e3 73 bd b1 88 c7 3d 27 82 a5 bd
       -0.09694522 -0.05954337 0.09742869 -0.08081465
0000a0 d9 83 c7 bd 03 7e ec bb 3b a6 36 3d d6 68 cd bd
       -0.09741945 -0.00721717 0.044592123 -0.100297615
0000b0 d6 d0 c1 bd 2f 6e 46 3c 00 91 03 bd 04 25 6b 3d
       -0.094636604 0.012111231 -0.032120705 0.057408348
0000c0 bf 1e fc 3c 04 d1 b5 bd 81 8b bf bd 62 57 8f 3d
       0.03077638 -0.08877757 -0.0935278 0.06999089
0000d0 a9 69 a8 bb a5 36 52 bd bc fb 15 3d 61 27 93 bc
       -0.005139549 -0.051321644 0.036617026 -0.017963113
0000e0 99 1f 43 3d 7f 9b ba 3c 0f b0 2d bd f6 72 ae bd
       0.047637556 0.022779224 -0.04240423 -0.08518021
0000f0 6a c0 50 3d 83 44 6c bd c8 b3 57 bb 19 07 83 3b
       0.05096475 -0.057682525 -0.0032913554 0.003998649
000100 89 d7 58 bd 6a b2 6e 3d 31 2d a0 bd 93 3c e6 3c
       -0.052939925 0.058275618 -0.078211196 0.028105056
000110 45 ea df 3b e7 19 d2 3c 81 aa c2 bd a6 a5 b8 3a
       0.006833347 0.025647117 -0.09505177 0.0014087453
000120 52 64 4c 3d 7a 3a 7f bd dc 6d be 3c 6f 6b ca 3a
       0.04990036 -0.062311627 0.023245744 0.0015443395
000130 2e f8 d5 3d fe e8 7f bc 36 84 64 3b 4a 95 48 bd
       0.10447727 -0.0156195145 0.0034868843 -0.0489705
000140 e3 fa d5 bc 9d ac cf 3c 3c ea d4 bd 43 49 a2 3d
       -0.026120609 0.025350863 -0.10396239 0.0792413
000150 b9 4b b5 3d 98 3d 53 3d ab 92 ac 3d ad 55 d2 bc
       0.088523336 0.051572412 0.08426412 -0.025675619
000160 77 b5 98 3c de 92 21 3c d1 92 78 bd b2 5f 15 bd
       0.018641217 0.009861676 -0.06068689 -0.036468215
000170 cd db 0a bd c2 d7 cd bc 54 b0 c3 bd 9a 5b 94 bd
       -0.033901025 -0.025127295 -0.09555116 -0.07244034
000180 23 9a b2 bb 89 26 58 bc 1d 1f c1 bd 08 6a 9a 3c
       -0.0054505034 -0.013192781 -0.094297625 0.018849388
000190 0c 41 6e 3d e0 c3 b2 3d dd db b3 3d 64 e1 90 bd
       0.058167502 0.087287664 0.0878217 -0.0707424
0001a0 a2 82 f3 bc ac 04 48 bd 6b 44 67 3c fb 5d f3 3c
       -0.029725377 -0.04883258 0.014115433 0.0297079
0001b0 7f 32 8b 3c 30 48 7f 3d f7 e3 6d 3d dd 6e 5e bd
       0.016991852 0.062324703 0.058078732 -0.054304946
0001c0 0f e7 92 3d 5c b4 92 3d df 61 8d 3c 1a e5 b2 bd
       0.07172977 0.07163307 0.017258583 -0.08735104
0001d0 71 77 79 bd d1 00 e9 3c 13 e8 10 3d 17 83 c0 3d
       -0.060904924 0.028442772 0.035377573 0.094000034
0001e0 b9 0b 65 3d ee e2 19 3d 7f 79 54 ba 86 88 8d 3d
       0.055919383 0.037569933 -0.00081052625 0.069108054
0001f0 d5 1c 29 bd 01 d8 32 3d 51 7b 3f bd 53 3f 12 3b
       -0.041287262 0.04366303 -0.046748463 0.0022315576
000200 1a f8 7a 3d b8 7d 4a 3d 38 6a d7 bc 8c b2 2f 39
       0.061271764 0.0494363 -0.026295766 0.00016755814
000210 d6 90 60 bd 44 87 35 3d fd 8f 90 3d 8c fc 0f 3d
       -0.054825626 0.044318452 0.070587136 0.035152957
000220 95 2c c6 bd 2c 2d 90 bd 88 48 87 3d a8 89 45 bc
       -0.09676472 -0.07039866 0.06605631 -0.012056746
000230 94 8b 85 3d 52 e5 a1 3d 51 ea fe bc 95 bc 72 bd
       0.06520763 0.079050675 -0.03111759 -0.059261877
000240 de 33 c9 bd 20 06 21 3d 0c ec 7a 3d cd 35 57 bc
       -0.09824346 0.039312482 0.061260268 -0.013135386
000250 64 c7 c8 bd fc c8 7d bd 84 d3 98 bb 0f ef 44 3d
       -0.09803656 -0.06195925 -0.0046638865 0.048079547
000260 86 90 04 bd bb 48 88 bd 4c fd 8c bd 98 d7 b6 3d
       -0.03236439 -0.06654497 -0.0688425 0.0892784
000270 42 c0 27 3d db e2 a2 bd f8 ba 6b bd b1 58 b1 bd
       0.040954836 -0.079534255 -0.057551354 -0.08659495
000280 ca 89 86 3c 03 1f 1d bd c5 a9 d3 38 db 30 77 bc
       0.016423125 -0.038359653 0.00010092886 -0.015087332
000290 a1 33 b5 bd 9f 12 be bd ba 9e 9f bd 36 ed 2c bd
       -0.08847738 -0.092808954 -0.077939466 -0.04221841
0002a0 97 e4 9b 3c 96 d0 3e bd 42 97 4b bb 57 a0 27 bc
       0.019029899 -0.04658564 -0.0031065498 -0.010231099
0002b0 6b 31 bd 3d 6f 6b 47 bd f8 b4 c2 3d ff 9e 97 bd
       0.09237941 -0.04868644 0.09507173 -0.07403373
0002c0 1a b0 b0 bd 23 17 1e 3d 76 03 79 bd 69 2d 51 3d
       -0.08627339 0.038596284 -0.060794316 0.051068697
0002d0 fe 33 62 bd 24 cb aa 3d 16 41 bf 3d 06 cc 08 3c
       -0.055225365 0.08339527 0.09338586 0.008349424
0002e0 4f 78 9d 3c 6c d9 c5 3d d9 11 7f 3d 21 aa b0 bd
       0.019222407 0.096606106 0.06227288 -0.086261995
0002f0 4d f3 7e bb 9e a1 ba bd 11 78 a5 3d 04 ed 86 bc
       -0.0038902343 -0.09112857 0.080795415 -0.01647044
000300 e9 9d d9 ba 91 26 7f bd 7a 17 65 bd be fd 0b 3c
       -0.0016602847 -0.06229264 -0.055930592 0.008544384
000310 18 94 ac 3d 5e e5 59 bd 79 8f c3 3b 29 e9 c5 3d
       0.08426684 -0.053197257 0.005968031 0.096636124
000320 bc a5 b9 3d e7 4b 81 bc ba 98 c9 3d be d3 14 3d
       0.090648144 -0.015783263 0.098435834 0.036334746
000330 63 cd bc 3d 8b b0 23 3b f0 4b bd bd e2 e7 03 bd
       0.09218862 0.0024977054 -0.092429996 -0.032203563
000340 eb 70 fc 3c ea 7b 77 3d 6f 96 c6 bd 8d 0d 9c 3d
       0.030815562 0.060420908 -0.09696662 0.07619772
000350 a9 63 b8 bd 60 f1 74 3d 2b 11 d2 3d 88 79 04 3d
       -0.09003384 0.059800506 0.10257181 0.032342464
000360 3f d3 9b bc 02 57 74 3d ed de f4 bc d7 4f 99 bd
       -0.019021628 0.05965329 -0.029891456 -0.07485931
000370 0e cc 8a bd 19 93 2d 3d 63 f1 9d 3d fb a4 92 3b
       -0.067772016 0.04237661 0.077120565 0.0044752336
000380 6f 45 c5 bd 5a 51 c8 bd 4c f8 cd bc f3 0f 61 3d
       -0.09632384 -0.097811416 -0.025142811 0.05494685
000390 dc 9e 8a bd ee 2e e3 3c eb 71 67 bd ae ac 9f 3d
       -0.06768581 0.027732339 -0.056505125 0.07796608
0003a0 5d 6d ef bc e1 c3 b5 bc 96 cc c5 bd 71 3c bb bd
       -0.029226953 -0.022188129 -0.09658162 -0.09142388
0003b0 2a 79 f8 3b d4 b9 76 3c f5 93 5f 3d c0 43 b2 bd
       0.0075828033 0.015058953 0.054584462 -0.087043285
0003c0 24 4a b8 3c 32 4e 5e bc 4c ab 6f 3d 0d 75 3d bd
       0.02249629 -0.013568448 0.05851297 -0.046254206
0003d0 0d e3 cf 3c 07 55 28 3d f6 4b 55 3d 59 a9 0d bd
       0.025376821 0.041096713 0.052074395 -0.03458533
0003e0 b6 5b 04 3d 01 bf 96 bc 1e 6d d3 3c bf 73 7f bd
       0.032314025 -0.018401625 0.025808867 -0.062366243
0003f0 d2 fd a0 bd c6 19 aa bd 40 88 86 bd 78 21 38 bd
       -0.078609124 -0.08305697 -0.065689564 -0.044953793

bias f4 [256]
000000 46 e7 cb bd 0e f0 aa 3c f2 47 ba bc 6b 54 97 3d
       -0.09956221 0.02086642 -0.022739384 0.07389148
000010 09 9a c3 3d 2b dc 79 39 ca 5d c1 3d 83 ac 50 3c
       0.09550864 0.0002382851 0.09441717 0.0127364425
000020 9c 27 59 bd 46 f6 8e bd c6 2a 9e 3c 24 98 85 bd
       -0.05301629 -0.06980567 0.019307505 -0.06523159
000030 52 73 9c bc 27 bb 5e bd 13 77 a7 3d c3 6d 87 bc
       -0.019097958 -0.0543777 0.081770085 -0.01653183
000040 0e be 79 3d 0d d3 ca bb df a6 b3 bd 20 36 c0 ba
       0.060972266 -0.00618971 -0.087720625 -0.0014664568
000050 d6 41 89 3d b7 39 ba 3d aa 15 b8 bc 3e d8 f5 bc
       0.0670201 0.090930395 -0.022471268 -0.030010339
000060 a9 43 4a 3d ae ab c8 3d 3d 07 1c bd 36 70 87 3d
       0.049380932 0.0979837 -0.03809284 0.066131994
000070 90 c3 17 bd 5d 42 9c 3d ca 5c c9 bd df 4a 10 bd
       -0.037051737 0.07629845 -0.09832151 -0.035227653
000080 ff 48 8d 3d b0 a2 af 3c e1 45 6a 3c b8 29 7a bd
       0.068986885 0.02143988 0.014298887 -0.061074942
000090 19 54 e5 3a 1d 5a 1e 3d ef 08 16 bd 77 76 5f 3d
       0.0017496377 0.038660157 -0.036629613 0.054556336
0000a0 d9 35 63 bd df 21 01 3c 9d e8 af bd e6 02 a7 bb
       -0.055471275 0.007881611 -0.08589289 -0.005096781
0000b0 9e 1f 54 3d 2d 16 aa 3d e6 7c a8 3d 10 b2 49 3c
       0.051787965 0.08305011 0.082269475 0.01231052
0000c0 be 0e 47 3d 56 96 68 bc 82 85 b1 3c 5d 37 68 ba
       0.048598044 -0.014195999 0.021670107 -0.00088583474
0000d0 99 c4 75 3d 33 3d b5 3d de 25 b7 3d 17 fc 20 3d
       0.060001943 0.088495634 0.089427695 0.03930291
0000e0 96 c6 ca 3c ab 26 68 bd 3b 37 d2 bd 43 e6 a2 3d
       0.024752896 -0.0566775 -0.102644406 0.07954075
0000f0 02 41 6b bc 57 04 b8 bd 1e 87 c0 3d b6 71 d7 bc
       -0.014358761 -0.08985203 0.094007716 -0.026299339
000100 1a 2d bf bd 8d b9 16 3c 08 dd 15 bc 3b b6 10 3d
       -0.09334774 0.009199512 -0.009146936 0.03533004
000110 0a 8b 21 bd a7 cd 8e bd ec f0 13 3d 5a c9 95 3d
       -0.03943924 -0.06972819 0.036118433 0.073137954
000120 79 cf a8 3d 19 64 c0 bd 44 ed 08 3c 47 11 28 bd
       0.08242697 -0.09394092 0.00835735 -0.041032102
000130 2f 43 cf 3c 97 7c d0 bb 11 42 29 3d 23 0a 25 3d
       0.02530059 -0.0063625085 0.04132277 0.04029287
000140 e9 b0 92 bd 25 77 9c 3d 92 87 cb 3d 58 ab 90 3b
       -0.07162649 0.076399125 0.09937967 0.004414957
000150 e1 29 96 bd c4 27 75 bc e9 db 70 3b 5c 1a 0f bc
       -0.073322065 -0.014963094 0.003675217 -0.008734312
000160 cd 1e 80 bd 02 12 4d 3d 12 5e 69 3d d7 21 91 3d
       -0.06255875 0.050066 0.056974478 0.070865326
000170 c0 ec 5f 3d 2b 9b 51 3d 18 03 cb 3d 2b f0 00 bd
       0.05466914 0.05117337 0.099126995 -0.031479042
000180 49 ef a1 bb 52 78 26 bd a4 0c 35 bd 8f b6 9a 3d
       -0.004941855 -0.04064209 -0.04420151 0.075543515
000190 ff 38 60 bd 15 d6 8a 3d 90 7b b3 bd 9e 7b 7e 3d
       -0.054741856 0.06779114 -0.08763802 0.06212961
0001a0 0a c7 ad 3d 45 a2 b2 bd f3 be c6 3d 96 3c 8f bd
       0.08485229 -0.08722357 0.097043894 -0.06993978
0001b0 93 60 22 bd f5 0f 6e 3d ba 70 bf bd 12 4b 4d bb
       -0.03964288 0.058120687 -0.09347673 -0.0031325263
0001c0 a0 0e a3 3d 33 ea ba 3a 05 3e aa bd 19 0e ac 3c
       0.07961774 0.0014260471 -0.083126105 0.021002816
0001d0 c5 bb 9b bd 19 d1 4c 3d 14 d9 92 3d ce da c7 bd
       -0.076041736 0.0500041 0.071703106 -0.097585306
0001e0 5b dc bd 3d fd b1 39 bd 08 a8 41 bb 54 2a c0 3d
       0.09270545 -0.04533576 -0.0029549617 0.093830734
0001f0 77 08 e7 bc 54 ab 1e 3d 14 e9 8d 3d 2e 24 4c bd
       -0.028202279 0.03873761 0.06929222 -0.04983919
000200 cc 5f ce 3d 08 b5 a2 bd 15 e7 9f 3d 1d 51 90 3d
       0.100768656 -0.07944685 0.07807747 0.07046721
000210 7d 9d bb bd b3 fe cb 3c 26 19 43 3d 7f cb b1 3d
       -0.09160898 0.024901723 0.047631405 0.08681392
000220 ab 09 53 3c ff 7a 45 bc 85 ec 8e bc 5c a8 8b bd
       0.012880723 -0.01205325 -0.017446766 -0.068192214
000230 42 bc 18 bc fd 22 c0 bc 53 0d ce bd db 56 af 3d
       -0.009322228 -0.023454184 -0.10061135 0.08561488
000240 2f 19 bc bc be 61 91 3c 3a b7 9a bd 6e d9 47 3d
       -0.022961227 0.017746802 -0.07554479 0.04879134
000250 c8 f1 fa ba fc 18 96 3d 37 a2 6a 3d 5f 81 49 bd
       -0.0019145543 0.07328984 0.057283606 -0.049195644
000260 25 4c 98 3d 64 7b 75 3c 3f a8 db 3c 39 a0 14 3d
       0.074363984 0.014983032 0.026813624 0.036285613
000270 89 6c 92 3c c0 e9 df 3b e4 fb 73 3d 7e 1f 40 bd
       0.01787402 0.006833285 0.059566393 -0.046905033
000280 30 18 b8 bd 96 b3 b9 3c 46 d3 d1 3d 8c 7e c5 bb
       -0.089889884 0.022668641 0.10245375 -0.0060270485
000290 4e 0a 70 3d 90 9b 3e bd 10 38 40 3d 0f b8 f1 3c
       0.058603577 -0.046535075 0.046928465 0.029506711
0002a0 46 5b a1 3d a9 e8 ad bd a9 7e 37 bc ef 43 c9 bc
       0.07878737 -0.08491642 -0.011199632 -0.024568526
0002b0 39 0f b6 3d 04 95 80 bb b5 bc 0b bd e9 b2 87 3d
       0.08889622 -0.003924014 -0.034115512 0.06625921
0002c0 d5 94 c0 bd a5 78 76 bd 0e c6 93 bb 8c 67 74 3b
       -0.094033875 -0.06017365 -0.004509694 0.0037293164
0002d0 1c d7 c5 3d 93 e7 98 bd c5 28 8e 3d ed 5c b8 bd
       0.096601695 -0.07466044 0.0694137 -0.09002099
0002e0 08 b6 b8 3d 6c 1f 94 bd c2 a6 1b 3d cc a8 3b bd
       0.09019095 -0.07232556 0.03800083 -0.045815274
0002f0 01 e4 13 bc 56 b5 99 3d 90 cb 7a bd 8f eb a4 3b
       -0.009026528 0.0750529 -0.06122929 0.0050329636
000300 49 8a 3a 3d 27 14 81 bd 40 65 46 bd 57 f9 c9 bc
       0.045542035 -0.06302672 -0.048436403 -0.024655027
000310 61 2d c2 3d b4 01 90 bd aa 03 31 3d dc 6e 65 bd
       0.094813116 -0.07031575 0.043216385 -0.056013927
000320 ae c9 00 3d 0f 69 a5 bc 66 03 8b bc ab 9b 99 bd
       0.031442337 -0.020191697 -0.016969394 -0.075003944
000330 5e 23 b1 3d 7c 12 bb 3d 6f 18 c2 3d 2e a4 82 3c
       0.08649324 0.09134385 0.094773166 0.015947428
000340 24 16 43 bc 80 77 be 3d d7 21 6a 3c df cc 82 3d
       -0.011907134 0.093001366 0.014290295 0.06386732
000350 e2 da 89 3c 4b e0 0e bd 9e 88 60 3c 6d e8 ca 3d
       0.016828004 -0.03488187 0.013704447 0.09907613
000360 65 07 93 3d 70 3d 87 3a b3 ec 92 bd 91 1e 9a bd
       0.07179145 0.0010317992 -0.07174053 -0.07525361
000370 21 4c 6f 3d 22 2e 2f bb 96 b2 b1 3d 45 dd 9a bd
       0.05842221 -0.0026730378 0.08676641 -0.07561735
000380 f4 c0 7f bd 92 f6 9f bd c1 46 36 bd 85 97 a6 bd
       -0.062439874 -0.078107014 -0.04450107 -0.08134369
000390 0c 89 c7 bc c4 a6 0d bd ef ba 8b bd 75 fd f8 bb
       -0.024357341 -0.03458287 -0.06822764 -0.007598574
0003a0 01 59 1b bd 0a 19 b4 3d 06 9e a5 3d 81 78 ba bd
       -0.037926678 0.08793838 0.08086781 -0.091050155
0003b0 62 cf c5 bd 85 86 47 bd 29 43 18 3d a2 3b a4 bd
       -0.09658696 -0.048712272 0.037173424 -0.080191866
0003c0 f2 8d b7 3d c9 19 84 3d 47 44 3f bd 89 a4 55 3d
       0.08962621 0.06450231 -0.046695974 0.052158866
0003d0 39 ad 60 3d 0a 62 8d 3d af d6 84 3c 89 22 0f bc
       0.054852698 0.06903465 0.01621565 -0.008736261
0003e0 01 f4 52 3d 48 42 be 3d 89 99 bd 3d 52 91 8e bd
       0.05150223 0.09289986 0.092578 -0.069613114
0003f0 ff 43 c0 3d 00 19 58 bd d1 b2 fe bc 57 a1 9d 3d
       0.09387969 -0.052758217 -0.031091126 0.07696789

weight f4 [256]
000000 0f e9 7f 3f f2 6b 7f 3f 06 f7 7f 3f e7 22 80 3f
       0.99964994 0.99774086 0.999863 1.0010651
000010 bb ce 7f 3f c6 31 80 3f 8a 5b 7f 3f fc b7 7f 3f
       0.9992482 1.001519 0.9974905 0.9989011
000020 1f 75 80 3f a6 e8 7f 3f 56 34 80 3f 32 42 80 3f
       1.0035743 0.9996437 1.0015972 1.0020201
000030 01 ea 7f 3f 85 07 80 3f 30 d3 7f 3f 46 99 7f 3f
       0.99966437 1.0002295 0.9993162 0.9984325
000040 14 63 7f 3f fb 2b 7f 3f 80 c2 7f 3f f2 18 80 3f
       0.99760556 0.99676484 0.9990616 1.0007613
000050 d6 eb 7f 3f 62 b9 7f 3f dc b4 7f 3f fd e6 7f 3f
       0.9996923 0.99892247 0.99885345 0.99961835
000060 09 0f 80 3f fd 80 7f 3f 4e 14 80 3f 32 29 80 3f
       1.0004588 0.99806195 1.0006196 1.0012572
000070 1e b3 7f 3f 45 01 80 3f dd 0e 80 3f b7 b4 7f 3f
       0.99882686 1.0000387 1.0004536 0.99885124
000080 80 6b 7f 3f 3a 2a 80 3f 06 1e 80 3f f0 7f 7f 3f
       0.99773407 1.0012887 1.0009162 0.9980459
000090 ad 11 80 3f 06 f4 7f 3f 8c 21 80 3f 81 2b 80 3f
       1.0005394 0.99981725 1.0010238 1.0013276
0000a0 ca ad 7f 3f ae 8b 7f 3f e2 19 80 3f 98 2b 80 3f
       0.99874556 0.9982251 1.0007899 1.0013304
0000b0 c2 07 80 3f a4 08 80 3f 4f 28 80 3f ff 20 80 3f
       1.0002367 1.0002637 1.0012301 1.001007
0000c0 f8 36 7f 3f a6 07 80 3f 84 eb 7f 3f c8 1d 80 3f
       0.9969325 1.0002334 0.99968743 1.0009089
0000d0 ac 16 80 3f b7 a1 7f 3f ca 19 80 3f 38 e5 7f 3f
       1.0006919 0.9985613 1.000787 0.99959135
0000e0 a9 f9 7f 3f 0b 75 7f 3f ad d2 7f 3f 82 20 7f 3f
       0.99990326 0.9978797 0.9993084 0.9965898
0000f0 de 0f 80 3f df fb 7f 3f 7e 70 7f 3f 5e 0a 80 3f
       1.0004842 0.999937 0.99781024 1.0003164
000100 fb a5 7f 3f 8e ed 7f 3f bb 11 80 3f 86 78 7f 3f
       0.9986264 0.99971855 1.0005411 0.9979328
000110 82 5d 7f 3f d9 a7 7f 3f b3 d9 7f 3f f2 d8 7f 3f
       0.99752057 0.9986549 0.9994156 0.9994041
000120 78 a0 7f 3f 19 11 80 3f ed eb 7f 3f 46 b8 7f 3f
       0.9985423 1.0005218 0.9996937 0.99890554
000130 e1 d4 7f 3f 40 1f 80 3f 12 be 7f 3f 5d 2c 80 3f
       0.999342 1.0009537 0.998994 1.0013539
000140 f9 33 80 3f 78 35 80 3f c4 11 80 3f 99 c1 7f 3f
       1.0015861 1.0016317 1.0005422 0.9990478
000150 37 20 80 3f f6 02 80 3f 94 28 80 3f 28 35 80 3f
       1.0009831 1.0000904 1.0012383 1.0016222
000160 d5 a2 7f 3f 58 cd 7f 3f a9 18 80 3f e3 81 7f 3f
       0.99857837 0.99922705 1.0007526 0.99807566
000170 62 48 80 3f 59 9d 7f 3f 92 0d 7f 3f 23 fa 7f 3f
       1.002209 0.9984947 0.9963008 0.99991053
000180 ce 8e 7f 3f 87 cc 7f 3f df 1c 80 3f cd 4b 80 3f
       0.9982728 0.9992146 1.0008811 1.0023133
000190 9d 1c 80 3f 8f b2 7f 3f 59 5b 7f 3f 26 4e 80 3f
       1.0008732 0.99881834 0.9974876 1.0023849
0001a0 9c 85 7f 3f 49 31 80 3f be 47 80 3f 24 20 80 3f
       0.99813247 1.0015041 1.0021894 1.0009809
0001b0 f3 dd 7f 3f 52 4a 80 3f a2 54 7f 3f 11 2e 80 3f
       0.9994804 1.0022681 0.99738514 1.0014058
0001c0 87 6e 80 3f 76 0e 80 3f 4e f9 7f 3f 2e 6e 80 3f
       1.003373 1.0004413 0.99989784 1.0033624
0001d0 7a 63 7f 3f b0 53 7f 3f 58 17 80 3f 8c f6 7f 3f
       0.99761164 0.9973707 1.0007124 0.99985576
0001e0 dd af 7f 3f bb 8f 7f 3f c3 08 80 3f eb f4 7f 3f
       0.9987772 0.9982869 1.0002674 0.9998309
0001f0 4a 15 80 3f 26 55 7f 3f 60 a8 7f 3f 77 35 80 3f
       1.0006497 0.997393 0.99866295 1.0016316
000200 5a bb 7f 3f 72 03 80 3f d1 53 80 3f 4f 92 7f 3f
       0.9989525 1.0001051 1.0025579 0.99832624
000210 eb 3a 80 3f c5 d4 7f 3f 43 da 7e 3f db 83 7f 3f
       1.001798 0.99934036 0.9955179 0.9981057
000220 3a 9c 7f 3f cc 48 80 3f 89 7f 80 3f 55 07 80 3f
       0.9984776 1.0022216 1.0038921 1.0002238
000230 ef 34 80 3f f8 9e 7f 3f 2f ff 7f 3f df 16 80 3f
       1.0016154 0.9985194 0.99998754 1.000698
000240 c0 33 80 3f 17 57 80 3f b0 d0 7f 3f 14 63 80 3f
       1.0015793 1.0026578 0.99927807 1.0030236
000250 f7 b1 7f 3f f2 c4 7f 3f af c3 7f 3f 42 40 80 3f
       0.9988093 0.9990989 0.99907964 1.001961
000260 38 13 80 3f 7c e6 7f 3f ef 9b 7f 3f c5 2c 80 3f
       1.0005865 0.99961066 0.9984731 1.0013663
000270 88 28 80 3f 77 25 80 3f 86 2e 80 3f 44 42 80 3f
       1.0012369 1.0011433 1.0014198 1.0020223
000280 56 03 80 3f 85 ad 7f 3f a3 ef 7f 3f d5 05 80 3f
       1.0001018 0.99874145 0.9997503 1.000178
000290 aa c0 7f 3f 8b fb 7f 3f 1d 23 80 3f fb d3 7f 3f
       0.9990336 0.999932 1.0010716 0.9993283
0002a0 03 e6 7f 3f b2 3a 80 3f 4c b6 7f 3f d2 94 7f 3f
       0.99960345 1.0017912 0.9988754 0.99836457
0002b0 46 15 80 3f 94 fa 7f 3f ac 22 80 3f 1c 37 80 3f
       1.0006492 0.99991727 1.0010581 1.0016818
0002c0 5b 46 80 3f 28 86 7f 3f 80 00 80 3f 9f 8f 7f 3f
       1.0021471 0.9981408 1.0000153 0.99828523
0002d0 0e b8 7f 3f 02 11 80 3f 7d 03 80 3f 66 ec 7f 3f
       0.9989022 1.000519 1.0001065 0.9997009
0002e0 ba 0e 80 3f b3 3d 80 3f af 17 7f 3f 53 05 80 3f
       1.0004494 1.0018829 0.99645513 1.0001625
0002f0 e7 32 80 3f b7 e8 7f 3f fd c9 7f 3f dd f8 7f 3f
       1.0015534 0.9996447 0.99917585 0.9998911
000300 81 d7 7f 3f e6 67 7f 3f f4 bb 7f 3f 9c 15 80 3f
       0.9993821 0.9976791 0.9989617 1.0006595
000310 99 a3 7f 3f 36 a0 7f 3f 5c 9e 7f 3f e2 44 80 3f
       0.99859005 0.9985384 0.9985101 1.0021021
000320 e1 1c 80 3f 27 72 7f 3f 2d 24 80 3f cc 65 80 3f
       1.0008813 0.9978356 1.001104 1.0031066
000330 24 ff 7f 3f 6f 25 80 3f 3e 39 80 3f aa a7 7f 3f
       0.9999869 1.0011424 1.0017469 0.9986521
000340 55 a1 7f 3f 14 53 80 3f ba 42 80 3f e4 02 80 3f
       0.9985555 1.0025353 1.0020363 1.0000882
000350 4b 9b 7f 3f 4a 70 80 3f f7 00 80 3f 7b 2c 80 3f
       0.99846333 1.0034268 1.0000294 1.0013574
000360 8d f4 7f 3f 13 1d 80 3f 76 cd 7f 3f 5e 06 80 3f
       0.9998253 1.0008873 0.99922884 1.0001943
000370 de 47 80 3f cb b7 7f 3f 7c 3d 80 3f bd dd 7f 3f
       1.0021932 0.9988982 1.0018764 0.9994772
000380 31 22 80 3f 61 d4 7f 3f 3d 5a 80 3f c0 77 7f 3f
       1.0010434 0.9993344 1.0027539 0.997921
000390 ef 53 80 3f 7e cc 7f 3f 80 08 80 3f a0 1d 80 3f
       1.0025615 0.99921405 1.0002594 1.0009041
0003a0 83 97 7f 3f 9f 22 80 3f df 0b 80 3f 80 a9 7f 3f
       0.99840564 1.0010566 1.0003623 0.9986801
0003b0 33 82 7f 3f 69 22 80 3f d2 a8 7f 3f 54 9b 7f 3f
       0.99808043 1.0010501 0.99866974 0.99846387
0003c0 42 27 80 3f a8 5d 80 3f ca 2c 80 3f 50 c8 7f 3f
       1.001198 1.0028582 1.0013669 0.9991503
0003d0 41 87 7f 3f b7 05 80 3f e7 bb 7f 3f 0b 1a 80 3f
       0.99815756 1.0001744 0.9989609 1.0007948
0003e0 90 08 80 3f cf 59 80 3f be 29 80 3f 78 03 80 3f
       1.0002613 1.0027407 1.0012739 1.0001059
0003f0 29 35 80 3f 18 f4 7f 3f c5 e0 7f 3f 65 32 80 3f
       1.0016223 0.9998183 0.99952346 1.0015379

bias f4 [256]
000000 7f 49 64 ba 0b 6a dc 39 9c 3a 38 38 6b 46 a4 ba
       -0.00087084615 0.00042040678 4.3923603e-05 -0.0012533193
000010 03 15 74 3a f2 15 06 3b 1a 85 b8 b9 d7 a0 1c 39
       0.00093109923 0.0020459858 -0.00035194383 0.00014937237
000020 16 44 79 3a 5b a5 17 bb 2f 5f ed 39 d4 aa bf 39
       0.0009508742 -0.002313933 0.0004527508 0.00036557636
000030 b4 fd b0 ba 1e 26 ae 3a 6e 53 a0 3a fd d1 9e ba
       -0.0013503344 0.0013286506 0.0012231895 -0.0012117025
000040 d2 f6 8f 3a b0 78 ba b9 5f 22 b3 3a 22 66 c2 b9
       0.0010983592 -0.00035566604 0.001366686 -0.00037078658
000050 5c 4b 41 b7 23 b2 26 ba 30 b9 aa 39 7d 40 ac b9
       -1.1521242e-05 -0.0006358942 0.00032562902 -0.00032854444
000060 56 a7 ae ba 55 e8 ae 3a 13 67 2b b9 01 36 de b9
       -0.0013325016 0.0013344387 -0.00016346229 -0.00042383376
000070 01 46 27 ba 50 d0 05 39 8b 9c da ba 36 68 77 b8
       -0.0006380976 0.00012761471 -0.0016678734 -5.8986443e-05
000080 e3 87 62 39 7a ab 26 ba a6 bb 06 bb 57 5f a0 3a
       0.00021603661 -0.00063579495 -0.0020558625 0.0012235445
000090 e6 ae e0 b8 de ee 19 3a ab 2f d8 39 ea 5a 95 ba
       -0.0001071373 0.0005872081 0.00041234246 -0.0011394892
0000a0 4f e1 ca 3a a2 a4 99 b9 fb 7b 52 3a fc cb fa b8
       0.0015478524 -0.00029305095 0.0008029339 -0.00011958924
0000b0 f8 e9 d5 3a bf fa 6e 39 25 c1 89 ba 54 42 ba 3a
       0.0016320338 0.00022790859 -0.0010509832 0.0014210441
0000c0 ce 79 1f 3b cf 2d 7b 3a 62 3c 3b 38 e0 99 21 3b
       0.0024334076 0.0009581716 4.464051e-05 0.0024658367
0000d0 0d 28 03 bb d3 43 1b b9 c8 c2 88 ba 7f ef 05 ba
       -0.0020012886 -0.00014807218 -0.0010434026 -0.0005109235
0000e0 c8 7d c5 39 f2 f9 d3 3a 78 02 ae ba 1d 5d 40 bb
       0.00037668482 0.0016172512 -0.0013275882 -0.0029352375
0000f0 45 a9 0e bb 7e a9 c1 ba 55 e8 48 b9 1b 3c c6 38
       -0.0021768373 -0.0014775244 -0.00019160037 9.452571e-05
000100 c1 0b 19 b9 13 fe af ba 28 fd 95 3a cb a3 f1 39
       -0.00014595596 -0.001342716 0.0011443244 0.00046089137
000110 ba 94 0b bb 28 aa bf 3a 47 e2 07 ba 71 00 19 ba
       -0.0021298365 0.0014622854 -0.0005183559 -0.00058365526
000120 b1 cc c3 b9 69 43 b1 ba cc e8 60 3a 4e a4 9f b9
       -0.00037345805 -0.0013524118 0.00085796113 -0.0003044926
000130 0c 48 8d b9 be 73 01 ba 66 05 15 3a 4d b2 60 38
       -0.00026947295 -0.00049382064 0.00056847034 5.3571817e-05
000140 b1 c4 2f ba 18 08 46 39 ee c9 73 3a 69 0b 8e 3a
       -0.00067050295 0.00018885767 0.0009299804 0.0010837141
000150 46 2f 8b 3a 95 03 b8 3a bf a6 bd ba 0a e6 35 3a
       0.0010618947 0.0014039153 -0.001446925 0.00069388805
000160 72 48 fb 37 3d ab c4 3a 9b 4c 64 3a 35 92 5d 3a
       2.9955267e-05 0.0015004646 0.0008708925 0.00084522675
000170 77 cf 80 ba 5d 44 87 ba 88 b3 c1 ba 03 0b 18 bb
       -0.0009827454 -0.0010320056 -0.0014778236 -0.0023199923
000180 fb bf 7e 39 b0 c7 b0 b9 72 12 43 37 01 65 27 3a
       0.00024294846 -0.00033718115 1.16272e-05 0.0006385595
000190 87 98 c7 39 0f 04 00 3b c7 4f 00 39 70 13 f1 39
       0.0003806988 0.001953367 0.0001223675 0.00045981584
0001a0 93 ec 50 ba 94 2e 15 3b 6b 25 7b ba 89 be 91 3a
       -0.00079698226 0.0022763358 -0.0009580466 0.0011119406
0001b0 f4 56 5c 3a 29 6b 6d 3a 38 99 db 39 f3 a8 29 37
       0.0008405291 0.00090568006 0.00041885092 1.01125215e-05
0001c0 a5 73 22 bb e3 fd a4 ba 88 0b c1 3a 4c f0 36 3a
       -0.0024788168 -0.0012587871 0.0014728168 0.0006978556
0001d0 60 53 cf ba 69 fe 32 3a e9 3e a4 3a 32 7d 0a 3a
       -0.0015817694 0.0006828071 0.0012530956 0.0005282938
0001e0 a2 bf 19 bb 7d 0e a3 ba a0 bb 3b 3b 92 9a 71 ba
       -0.002346017 -0.0012440231 0.0028645769 -0.0009216453
0001f0 c5 af 76 39 df cb ee ba af 95 6e ba 5c de f1 3a
       0.00023525867 -0.0018218717 -0.0009101284 0.0018453109
000200 0e 94 39 bb bd 17 5a ba 55 ce c7 39 21 f6 33 ba
       -0.0028317007 -0.00083195773 0.00038109967 -0.0006864984
000210 cd a0 60 b9 56 81 54 3a 2a f3 e2 ba 40 84 0f bb
       -0.00021422208 0.0008106431 -0.00173149 -0.0021898896
000220 ba 71 12 b8 8d b5 bb ba fc ad 41 ba 3c d3 88 3a
       -3.491503e-05 -0.0014321074 -0.00073882914 0.0010438929
000230 da 6b 71 38 11 5d 59 3a 5c 2a 18 3b 8f b5 1c bb
       5.7559322e-05 0.0008291761 0.0023218608 -0.0023911928
000240 00 c8 87 3a cb d6 a0 b9 89 14 64 b9 6f ff 2e ba
       0.0010359287 -0.0003067761 -0.00021751424 -0.0006675636
000250 27 d9 b4 3a b9 25 d7 ba e8 c3 b2 3a d1 58 a2 3a
       0.0013797627 -0.001641444 0.0013638707 0.0012386088
000260 c0 e9 f0 39 b8 15 46 ba c6 cd 00 bb 65 61 65 ba
       0.00045950525 -0.0007556337 -0.00196539 -0.00087501697
000270 19 e2 db b8 22 2d 61 ba a2 ac c5 39 38 8b 72 b9
       -0.00010484848 -0.0008589794 0.0003770339 -0.00023130781
000280 5a a9 40 ba ac e6 d4 38 b9 84 fe 36 e0 ad 4b ba
       -0.0007349454 0.00010151914 7.585241e-06 -0.0007769745
000290 02 42 0b 3b 51 ab e9 b9 b3 e2 42 39 23 94 a3 b8
       0.002124906 -0.00044568864 0.00018585734 -7.800038e-05
0002a0 6c ed 2c 3a 2f f7 05 ba 9c 21 65 3a ef e8 df 3a
       0.0006596658 -0.00051103806 0.0008740665 0.001708297
0002b0 66 aa f2 3a 08 ac 66 ba 1c a5 9b 3a 99 c8 a3 38
       0.0018513917 -0.00087994384 0.0011874768 7.80981e-05
0002c0 58 dc 97 3a 84 86 24 ba 6b d6 83 ba 3b 07 26 3b
       0.0011586053 -0.0006276148 -0.0010058408 0.00253339
0002d0 f4 b4 a7 3a 2f 44 9d ba aa c2 a1 ba 8c 5b fd b8
       0.0012795017 -0.001199847 -0.001234134 -0.00012081032
0002e0 8d 6f 5b ba 47 84 1f 3a 71 ea b0 ba e4 b6 d8 3a
       -0.00083708094 0.00060850795 -0.0013497603 0.0016533998
0002f0 be 33 a4 b9 a8 bb cc b9 29 9d d4 b8 4b b5 80 3a
       -0.00031319069 -0.00039049727 -0.00010138221 0.0009819655
000300 74 bf f9 3a 1a ca fe b9 8a f4 01 ba c3 6b 17 ba
       0.001905425 -0.00048597233 -0.00049573986 -0.00057762506
000310 8d cc e2 b9 4b 53 78 ba 67 21 13 ba 7c c9 dd 38
       -0.0004325848 -0.0009472861 -0.00056125823 0.000105756306
000320 46 bb be ba e2 23 ab 3a 3e de 59 3a 7a b7 88 ba
       -0.0014551661 0.0013056959 0.000831101 -0.0010430657
000330 3b c2 6c 39 da b1 ac ba e9 99 6d 3a 42 01 aa ba
       0.0002257907 -0.0013175562 0.0009063767 -0.0012970346
000340 db 92 55 3a 2e 69 42 ba bb 02 41 3a 7d 61 93 3a
       0.00081471883 -0.00074161857 0.00073627726 0.0011244264
000350 b9 5f f1 39 c1 1f 6d 38 49 fd f8 37 58 17 97 b9
       0.0004603842 5.6534776e-05 2.9681849e-05 -0.00028818357
000360 ce 5b 78 38 a6 ed 2a 3a f0 7e 51 3a 91 6b 6e 3a
       5.9213307e-05 0.0006520398 0.00079916324 0.0009095008
000370 7b c6 03 bb 95 62 c8 ba de b5 cc ba 76 9d 82 b9
       -0.0020107317 -0.0015288169 -0.0015618165 -0.0002491285
000380 2a cc 60 3a 1c 39 20 ba 56 79 b9 39 71 ba a1 3a
       0.00085753447 -0.00061120256 0.00035376352 0.0012338889
000390 df e9 72 bb b2 de 85 3a a6 5e 14 bb 06 0a f1 3a
       -0.0037065668 0.0010213463 -0.0022639423 0.0018389828
0003a0 5d 12 cc ba d6 f3 de ba c6 66 71 ba da 01 9c 3a
       -0.0015569438 -0.0017009925 -0.0009208735 0.0011902407
0003b0 8b bb 28 ba 51 8a ba 3a 20 f8 5f ba 5e 75 88 b8
       -0.00064366375 0.0014231895 -0.00085437484 -6.506847e-05
0003c0 b3 81 3b 3b 72 3c 59 ba 70 89 aa ba 93 33 0f ba
       0.0028611242 -0.00082869 -0.001301093 -0.0005462702
0003d0 ce b7 ce b9 5c fe ea 39 2e 95 15 3a 8e 10 6d 3a
       -0.00039428327 0.0004482147 0.00057061284 0.00090432994
0003e0 1d 03 66 39 3b 34 51 39 b9 57 cb 3a 15 47 9b 39
       0.00021935669 0.0001995125 0.0015513814 0.00029616864
0003f0 4a d8 2a ba ce f1 77 b9 55 f2 2b 3a 3b f8 4b 3a
       -0.0006517215 -0.00023645835 0.00065592426 0.00077808247
