statedicts/torchscript_pl_db_analytical_db_ac_n_b-1_n_s-9_n_m-2_T0_n_t-120000_rand_phi_off_b1_seed_0.pt (torch, 231857 bytes, 29 tensors)

weight f4 [9]
00000000: 55bf 1d3f 1e2b 9b3f 2e85 563f d1db 873f
00000010: f58b 803f 5dcf 923f d215 503f 721b 8a3f
00000020: 5505 893f
0.61620075 1.2122533 0.83796966 1.0613958 1.0042711 1.1469532 0.81283295 1.0789626
1.0704752

bias f4 [9]
00000000: 9155 ffbb 566a 613d f24b abbc 5e58 e1bc
00000010: 03d2 6a3c f997 8f3d e7c8 a13d 93b9 d83d
00000020: 84a0 123d
-0.0077921827 0.05503305 -0.020910237 -0.027507957 0.014332297 0.07011408 0.07899647 0.105822705
0.03579761

running_mean f4 [9]
00000000: 3c09 c93f 96b3 aa3d 0325 2e40 a07a f33f
00000010: a350 973f d837 ad3d 6264 2c40 8cfe 8e3f
00000020: 0942 fc3f
1.5705943 0.083350345 2.721009 1.9021797 1.1821483 0.08457917 2.6936269 1.1171432
1.9707652

running_var f4 [9]
00000000: 36a1 163e 96cc ff3a 100f 823e ba18 b53f
00000010: 1240 bd3f 211c 0b3b 1cba db3d 83a0 bb3f
00000020: f31a b33f
0.14709935 0.0019515927 0.25402117 1.4148171 1.4785178 0.0021226483 0.10728857 1.4658359
1.3992599

weight f4 [96, 9]
00000000: 7a41 683d 6d56 9f3e a1cb 363e 374f 7a3d
00000010: ec1c 05be b950 5c3c 243e 963e 8ce1 d93c
00000020: 65b0 f93d e677 32be b9ed 24be 950a a63e
00000030: 1e1f 2c3b 1faf 77be a111 93be b95e 5abe
00000040: d64b 07be f5d9 e2bd f85e a2be 4251 4fbe
00000050: ca94 8cbd acca 353e d96b 383e 4b84 97be
00000060: 16a5 a0be 2fc6 86be c3a3 483d 06a3 3abc
00000070: 11bd 75bd 363a 973c 0cb6 573d bfef bd3c
00000080: 161c c2bd d81a debc 9689 2cbe e277 82be
00000090: 9961 2dbe 3c5d 7a3e ed3e 493e df20 3abc
000000a0: 2d92 a0be 249d 1dbe 1841 90be 30fd 6bbd
000000b0: 00e4 95be 7e80 babc 887d 3fbe 1d97 1b3e
000000c0: e975 443e aa5b 123e 03b3 06be d11c a03e
000000d0: 6061 e0bd 4dc1 d8bd eab0 063e 03f2 28be
000000e0: f6d5 94be a879 7cbe 604d 863e cf01 a2be
000000f0: 6e25 813e b5c4 e73d cedc ab3e f579 6dbe
00000100: 815a 963e a87b 58be 8be9 56be 289b 373e
00000110: b735 383d 216f 9dbe 2f0e d5bc cbb5 aabe
00000120: 144b 3ebd b235 333e 31f0 513d a8b5 75be
00000130: 7675 563e 6109 443e ca84 95be dad3 acbd
00000140: 84c8 b43d f56a 41be 5aae 8bbe 92db 9cbe
00000150: 7ea6 73be 1b6a 35be 6017 a3bd e188 8f3e
00000160: 8027 f6bd d27a c13d 1be9 fc3d 07a1 733e
00000170: 5c7f 6cbc 140e 9bbe 8428 8bbe b0bb 493e
00000180: 815f 8ebc e125 06be 3195 36be 4b04 2bbe
00000190: 42b6 0c3e 6393 92bd 95ac abbe f8bb 2a3e
000001a0: bf39 6cbd 22d0 20be 7a7d 6f3e 42e2 8dbe
000001b0: 197c 5c3d 7067 b03e 321f dfbd 651c 413c
000001c0: 9132 41bd 41be 813d 9d9d 383d 7f9c acbe
000001d0: eb99 963d c95c 163e 7855 b23e d46d 913e
000001e0: eb29 c03b ce5d 8c3d 8fb9 23bd d452 81be
000001f0: a4b0 983d 6661 e3bc 1b2a e3bc e46c 4cbd
00000200: baef 73bc f8ac 2c3e 4de8 e8bc 0ca1 abbd
00000210: 46ad 45be c2da d73d 350c 69be 326a 72bd
00000220: 918c b6be 0c51 9c3e 7a4e 683e 2acb 913d
00000230: ec7d 72be 91a5 7a3e 8f09 613e e564 98be
00000240: f523 603b 9f67 b9be 054e 8d3e b6ee 253e
00000250: acaf 99be b7ad 993e b1f3 833e 439a 443e
00000260: c01c a7bd d532 503b 5896 a23e f0cf 3fbe
00000270: 4cdb 8c3e 4fe6 c83d 3c69 cd3d b8c0 85be
00000280: 4cb0 3fbe ddc3 c93d 9a99 203d bc32 b0bd
00000290: af34 13be 9141 12be 53e1 333e 1ccf 45be
000002a0: d359 42be 1735 97be 14df 803c ac5b 443d
000002b0: 69ee fabd ec74 593e 5755 fbbd 424e 2abe
000002c0: 36b6 8cbe 6f20 c43d 4927 b83e 8287 713e
000002d0: 0399 a43e 3754 a93e 3ffc ff3d 30e8 0fbe
000002e0: 1c3c 7a3d 5bf2 98be 6b7a a2bd f65a c9bd
000002f0: d9f7 093e 014b 5a3e 7fab 59bd bf5d b63d
00000300: 8858 b73d 5496 883e 2e6e 92be 383b 963e
00000310: ebc7 97be 86c2 923e 9d9e 70be 77ca 5fbe
00000320: be9a e5bd 9eed 5dbc e214 91bd a6ee d3bd
00000330: 8f18 9e3e 8e07 88be 361b dfbd a3c6 8f3e
00000340: 2550 9cbd 18fc 6abe 0699 ab3e e8a7 16be
00000350: 18ec 0cbe 97bb 2c3d 1aa3 79bd 85e2 4e3e
00000360: 29a2 9a3e 6a01 9ebd 2fb7 db3d 32a0 213c
00000370: 7b57 5ebe 7bda aa3e ed81 3bbe 8838 7dbb
00000380: f672 533d 0b38 3f3e 8dd3 0abe d936 983e
00000390: 8a51 77be c096 08be b931 593e 6bf4 4e3e
000003a0: ee30 17be 1d59 93be 6099 393d f2b3 083e
000003b0: 31b9 52be 5437 8b3d 71dc 87be 5e9e 19be
000003c0: 7ef5 9bbe 2d5e e1bd d53e 4ebd 4622 2ebe
000003d0: 60b0 193e fa57 54be 2520 c2bd 59cf 65be
000003e0: f786 d0bd 396a 3ebe 2078 83be ad6c ac3e
000003f0: 776e 923e 08dc 3ebd fd0f 37be d71c 6d3e
0.05670307 0.31120625 0.17851116 0.0611107 -0.12999314 0.01344698 0.29344285 0.026596807
0.12191848 -0.1742855 -0.16106309 0.32429948 0.0026263664 -0.24187897 -0.28724387 -0.21325196
-0.13212523 -0.11076728 -0.3171308 -0.20245841 -0.06864317 0.17753094 0.1800989 -0.2959312
-0.3137595 -0.26323077 0.0489843 -0.011391407 -0.05999476 0.018460374 0.052663848 0.023185609
-0.09478013 -0.02711241 -0.1684936 -0.25482088 -0.16931762 0.24449629 0.1965291 -0.011360376
-0.31361523 -0.15391976 -0.28174663 -0.057614505 -0.29275513 -0.022766348 -0.1870023 0.15194364
0.19185604 0.1429278 -0.13154225 0.31271985 -0.10956073 -0.10583744 0.13153425 -0.1649857
-0.2906949 -0.24655783 0.26230907 -0.31642005 0.2522387 0.11316816 0.33566898 -0.23191054
0.29365924 -0.21140921 -0.20987527 0.17930281 0.0449731 -0.30748847 -0.02600774 -0.33341822
-0.04645832 0.17500952 0.051254455 -0.23995078 0.20943245 0.19144203 -0.29202873 -0.08438845
0.08827308 -0.18888457 -0.27281457 -0.3063627 -0.2379398 -0.17716257 -0.07963443 0.28034118
-0.12019253 0.09447254 0.12349149 0.23791896 -0.014434662 -0.30284178 -0.27179348 0.19700503
-0.017379524 -0.13100387 -0.1783035 -0.16700856 0.13741401 -0.07157018 -0.33530107 0.16673267
-0.05767226 -0.15704396 0.2338771 -0.27711684 0.053829286 0.34453917 -0.10894622 0.011786555
-0.047167365 0.06335116 0.045072187 -0.33713147 0.07353576 0.14683832 0.34830832 0.28404105
0.005864372 0.06853829 -0.039971884 -0.25258505 0.074555665 -0.027756404 -0.027730038 -0.049908534
-0.014888698 0.16862857 -0.028431082 -0.08380327 -0.1930438 0.105397716 -0.22758563 -0.059183307
-0.3565412 0.30530584 0.22686186 0.071188286 -0.23680848 0.24477221 0.21976303 -0.29764476
0.003420112 -0.3621187 0.27598587 0.16204342 -0.3001684 0.30015346 0.2577186 0.19199471
-0.081597805 0.003176858 0.31755328 -0.18731666 0.2751106 0.09809553 0.100298375 -0.26123595
-0.18719596 0.09851811 0.039208986 -0.08603427 -0.14375566 -0.14282824 0.17566423 -0.19317287
-0.18979578 -0.29532692 0.015731372 0.047938988 -0.122525044 0.21236008 -0.12272137 -0.16631415
-0.27482766 0.09576499 0.35967472 0.23586848 0.3214799 0.33072063 0.12499284 -0.14053416
0.06109248 -0.29872403 -0.079335056 -0.098318025 0.13473453 0.21317674 -0.053142067 0.089045994
0.08952433 0.2667719 -0.28599685 0.29342055 -0.29644713 0.28664035 -0.23498006 -0.21854578
-0.11211155 -0.013545422 -0.07084061 -0.10348253 0.30878112 -0.26568264 -0.10893862 0.28081235
-0.07632474 -0.22947729 0.33515185 -0.14712489 -0.13761938 0.042171087 -0.06094656 0.20203598
0.30201843 -0.077151135 0.10728299 0.009864854 -0.21713059 0.33369812 -0.18311282 -0.0038638432
0.051623307 0.18673722 -0.13557263 0.29729345 -0.24152198 -0.13338757 0.21210374 0.20210426
-0.14764759 -0.28778926 0.045312285 0.13349894 -0.20578457 0.067976624 -0.2653537 -0.15001819
-0.30460733 -0.11004291 -0.05035289 -0.17005262 0.15008688 -0.20736685 -0.09478787 -0.22442378
-0.101819925 -0.18595208 -0.25677586 0.33676663 0.28599903 -0.046596557 -0.17877193 0.23155533

bias f4 [96]
00000000: 0976 84be 91e0 0a3e 7e34 823e 7107 1a3d
00000010: 6c3a d03d b665 943e 3535 a0be 9f8d 1bbe
00000020: 9d1a 34be 0eb9 62be aabe 5d3d 91f8 4abe
00000030: 8565 a13e 1edd d13d 37e6 72bc 7a1a e6bd
00000040: b736 403d 91d4 543e d6e1 03be 89f4 f13b
00000050: 7a69 9c3d 2150 66be 2ede 163e 4c0c a2be
00000060: e2fe a6be 27ca 4cbe 5ed9 7e3a 2482 003e
00000070: c495 973e b05f 983e 9246 84be b01e 193e
00000080: 0cc8 03be 4d07 333e 601e 5a3e 8e73 893e
00000090: ec8a b6bd ef06 623e aef9 75bd d1c8 9c3e
000000a0: ea97 813e c947 3e3d 93d1 143d 4888 13be
000000b0: ffe7 78be 9be0 38be b00d 42be 4627 7d3e
000000c0: 574c 18be 3ed0 58be 5664 9dbe e769 043e
000000d0: 6028 fcbd 74ae 9bbe 473c a9be 68c1 ac3e
000000e0: d7f3 bebe 1302 19be c103 ecbd 3a3f b9bd
000000f0: 5e91 143e a0d8 923e 3ed8 793e b236 f1bd
00000100: 6857 a6bd 0968 393d b239 acbc 4117 113e
00000110: bbbf 92be db9c b4bd 5693 32bd 77a9 57be
00000120: 2c13 a8be 03a9 9abd acf6 0c3b 9eac 983e
00000130: 7577 78bd 715b 67be 2e69 803e 78c0 f03d
00000140: 3e44 90be 5435 b0bd 86c7 743c 5583 3f3e
00000150: ce90 053e af4f 53be f7de adbc 40a3 a9be
00000160: af53 6dbe efb0 6fbe 8f9f 94bd f238 4fbd
00000170: 2ef6 5cbe 2831 9cbc 5a5b 663e 4fa2 fd3d
-0.25871304 0.13562228 0.25430673 0.037604753 0.10167393 0.2898385 -0.31290594 -0.15190743
-0.17588277 -0.22140905 0.05413691 -0.19821383 0.31522766 0.10247253 -0.014825395 -0.11235519
0.04692718 0.20784213 -0.12879118 0.007383887 0.076373056 -0.22491504 0.14733192 -0.31650007
-0.32616335 -0.1999899 0.0009721721 0.12549645 0.2960645 0.29760504 -0.2583509 0.14953113
-0.1286928 0.17483254 0.2130065 0.26845974 -0.08913216 0.22072957 -0.060052566 0.3062196
0.25311214 0.04645518 0.036332678 -0.14407456 -0.2430725 -0.1805443 -0.18950534 0.24722013
-0.14872871 -0.21173188 -0.30740613 0.12931024 -0.123123884 -0.30406535 -0.330538 0.33741307
-0.3729541 -0.14942198 -0.115241535 -0.09045263 0.14508578 0.28680897 0.24398896 -0.117780104
-0.0812214 0.04526523 -0.021023605 0.14169027 -0.28661904 -0.0881898 -0.04359754 -0.2106074
-0.32827127 -0.07551768 0.0021509333 0.29819196 -0.060660798 -0.22593476 0.25080246 0.117554605
-0.28177065 -0.086039215 0.014940148 0.18702443 0.1304352 -0.20635866 -0.021224482 -0.33132362
-0.23176454 -0.23407339 -0.07256996 -0.050591417 -0.21578285 -0.019066408 0.22495785 0.123844735

weight f4 [96]
00000000: 3665 7e3f 3a43 803f cced 803f d47e 843f
00000010: 7012 803f 9f1d 7f3f 7860 803f 9456 7e3f
00000020: a2f5 7f3f 2e8b 7c3f cdc5 803f b92b 803f
00000030: 21d3 813f a80b 7f3f d43b 7d3f fbc4 803f
00000040: 3b5b 803f 065e 803f 54c2 803f 0115 813f
00000050: 4075 7c3f 4695 803f 387d 7d3f 5f2c 803f
00000060: 4876 7e3f f45e 803f 26a1 7f3f 7480 7e3f
00000070: 9059 7f3f 5e76 813f b8cf 7e3f b7a1 7f3f
00000080: c97d 7e3f 9a42 803f c0ac 803f c718 803f
00000090: 95cb 803f ee3b 803f c4fa 813f 1bb3 803f
000000a0: 8c29 813f 2c10 7f3f 00a4 7f3f 801e 803f
000000b0: ac27 803f d4f9 7e3f e12b 7e3f b80b 7e3f
000000c0: 27a6 7d3f 421a 803f 3208 803f b2b3 803f
000000d0: da9e 7e3f be66 803f ac1d 813f cf2b 813f
000000e0: 76b1 863f 2f06 7f3f fa9e 7d3f 44ee 803f
000000f0: ce06 7f3f 4603 803f 249a 7e3f 1d02 803f
00000100: 0c33 7c3f bc6a 7f3f 6ff6 7f3f 2578 813f
00000110: ed47 7f3f 3851 7c3f ff63 7e3f 69c7 7e3f
00000120: 40bc 7f3f 22c4 7f3f 28f6 7e3f 9fcd 7f3f
00000130: 8f2a 7d3f 7879 803f 1fbe 7e3f 6d8d 7e3f
00000140: 67e1 803f f947 7e3f 92de 7e3f 4140 7f3f
00000150: a48c 7d3f 85ef 7e3f 688c 7f3f aeb9 7c3f
00000160: 3cff 803f 2610 803f 625f 813f b545 7f3f
00000170: c11a 7e3f a43b 803f cf18 803f de05 7d3f
0.99373186 1.0020516 1.007257 1.0351205 1.0005627 0.99654573 1.002944 0.9935086
0.9998418 0.9864987 1.0060364 1.0013343 1.0142556 0.9962716 0.98919415 1.0060114
1.0027841 1.0028694 1.0059304 1.0084535 0.9861641 1.0045555 0.99019194 1.0013541
0.9939923 1.0028977 0.9985527 0.99414754 0.99746037 1.0114248 0.99535704 0.9985613
0.9941068 1.0020325 1.0052719 1.0007561 1.0062128 1.0018289 1.0154653 1.0054659
1.0090804 0.9963405 0.9985962 1.0009308 1.0012107 0.9959996 0.99285704 0.9923663
0.99081653 1.0008013 1.0002501 1.0054839 0.9946114 1.0031354 1.008718 1.0091494
1.0522907 0.9961881 0.99070704 1.0072713 0.9961976 1.0000999 0.9945395 1.0000645
0.9851539 0.9977224 0.999854 1.011479 0.99719125 0.9856143 0.9937133 0.99523026
0.9989662 0.9990865 0.99594355 0.9992313 0.98893064 1.0037069 0.9950885 0.9943455
1.0068787 0.9932857 0.99558365 0.9970742 0.99042726 0.9958423 0.9982362 0.98720825
1.0077891 1.0004928 1.0107234 0.9971574 0.99259573 1.0018201 1.0007571 0.9883708

bias f4 [96]
00000000: ca5d 8bbb d21c 09bc fab9 34bc 5012 a2bc
00000010: 9d19 9d3b ec27 073b 818a 8bbb 6289 afba
00000020: f1c5 4b3b 368f 31ba 4790 dcbb f531 2f3b
00000030: 0beb 723c 4db9 dcbb 7f3f f53a 930d 5cba
00000040: b35e a9ba e019 8cbb 9872 f7bb 063e 96ba
00000050: b552 85ba d239 4fbb 267c 43bb d4d3 41b9
00000060: 3e10 123b 5db6 21ba f452 7e3a ccc9 6cbb
00000070: bdf2 15ba ee3b 9fbb b222 413b 4530 183b
00000080: 05bb b83a 8020 c7bb 42d6 323b 8849 c1bb
00000090: 40ba 90bc 383b 173c 442f b9bb bb99 f13a
000000a0: 542c 7abb e7f8 50ba 7323 f43b 0b86 5a3b
000000b0: a006 6ebb eb3a df3a 1abd a33b 8714 45ba
000000c0: 70bb b33b 6fc0 91bb 3b7c 9fbb 45c4 0f3b
000000d0: 095d bebb 10c6 4f3b f7f5 abbb c5f1 53bb
000000e0: 755b 3bbb 5b95 09bc f111 80b9 2391 953a
000000f0: 529e 933b e2f6 903b 679e 24bb 0fae 0ebb
00000100: 5ca2 f639 1cca b8bb aa45 12bb 1833 ca3b
00000110: 8bd2 54bb 1510 6fbb 8a5b b3ba a92d 71bb
00000120: 1550 7ebb c51c 08bc 21f8 783b d756 fa3b
00000130: 86a8 3ebb f2b7 3bbb 8176 643a 34fa 5e3b
00000140: 7296 bcbb 043a 3cbb c257 4a3b 1120 433b
00000150: 0164 19b9 e142 253b b53f 1dba c429 923a
00000160: 99cf 25bb 26b8 4a3a beba 793b d515 a0bb
00000170: 76a1 80bb 2f4b 143b d623 1639 5802 ba3b
-0.004253124 -0.008368688 -0.011030668 -0.019784123 0.004794313 0.002062316 -0.0042584543 -0.0013392384
0.0031093324 -0.0006773354 -0.0067310664 0.0026732658 0.014826546 -0.0067359568 0.001871094 -0.00083943567
-0.0012921899 -0.0042755455 -0.0075515024 -0.0011462576 -0.0010171743 -0.0031620157 -0.0029828637 -0.00018484826
0.0022287513 -0.0006168837 0.0009701692 -0.0036131022 -0.000572007 -0.004859439 0.0029470143 0.002322213
0.0014093822 -0.0060768723 0.0027288352 -0.005898658 -0.017666936 0.009230427 -0.0056513865 0.0018432656
-0.0038173394 -0.00079716597 0.007450515 0.0033344056 -0.0036319867 0.0017031109 0.004996908 -0.00075180124
0.005484991 -0.0044479887 -0.0048671043 0.0021937054 -0.0058094305 0.0031703748 -0.005247827 -0.003234015
-0.0028588448 -0.0083974255 -0.0002442743 0.0011411052 0.0045049572 0.004423962 -0.002511883 -0.0021771227
0.00047041744 -0.0056393277 -0.0022319355 0.0061706416 -0.0032474126 -0.0036478091 -0.0013683897 -0.0036800897
-0.0038805057 -0.00830764 0.0037989693 0.0076397466 -0.0029092147 -0.0028643575 0.0008715168 0.0034023644
-0.005755239 -0.0028721103 0.0030875062 0.0029773752 -0.00014628471 0.0025216865 -0.0005998568 0.0011151363
-0.002530074 0.0007733129 0.0038105692 -0.004885415 -0.0039254976 0.002262782 0.00014318465 0.005676549

running_mean f4 [96]
00000000: 7ab5 d83d 761b 783e c759 ac3e ef2e 6f3d
00000010: 86c0 ac3e 53ba b73e 233e 1d3d d31f 943e
00000020: bf49 9a3e 5543 a03d 1a9e 4d3e bfa3 753e
00000030: f927 9f3e 21d4 693e a024 473e 699f 3d3e
00000040: a9c3 6f3e b1d1 6c3e cf3d d13d 9259 453e
00000050: d611 0d3e abc9 513e 1a9f 823e a344 103e
00000060: ec9c 3e3d e78d 093e eda2 743e 87fb 523e
00000070: 9858 ac3e e5c9 823e 3d97 263e c8b4 473e
00000080: c4c5 8b3e 9d3e b83e e6ee 4d3e 05ab c33e
00000090: 625d f43d 2f89 c33e c2b0 053e f6d1 f33e
000000a0: ff7f c53e 17f9 b33e e899 563e 061a 593e
000000b0: 3f0b 813e 17f6 cf3d a59f f63d c35f b13e
000000c0: 5a2f 1d3e 5f6c 013e 4231 1b3d fb34 b23e
000000d0: 5119 6d3d 748d 3e3d c9e6 cf3d 2f52 ba3e
000000e0: c2c9 013e beb7 a33e ada5 0a3e a25a 5c3e
000000f0: 6f23 853e 65ad 043f 2b7e a13e 7cef 403e
00000100: 2bc8 cf3d 2a78 ee3e e0bd c73d a798 2d3e
00000110: ab20 dd3d 1564 0a3e ac06 1d3e a035 093d
00000120: 5d99 293e 76e2 d23e 5e25 b43e a011 b53e
00000130: 16d2 903d 526e a33e 9d05 393f c5ce 6a3e
00000140: d220 913d 43f6 a63d 43eb 573e c2cb 943e
00000150: 720c ae3e d5fd 513d 7719 7e3e 3f41 3f3d
00000160: 7f9f 363d 1ea2 663e df4c d73d 4729 923c
00000170: 2998 203e ef1a d33e e838 983e aac8 3f3e
0.10581489 0.24229226 0.33662245 0.05839437 0.33740634 0.35884342 0.038389336 0.2893053
0.3013439 0.078253426 0.20079842 0.23988245 0.31085184 0.22834827 0.19447565 0.18517841
0.23414482 0.23126866 0.10216867 0.1927245 0.13776335 0.20487086 0.2551201 0.14088683
0.04653637 0.13433038 0.23890276 0.20603763 0.33661342 0.25544658 0.1626863 0.19502556
0.2729932 0.3598527 0.20110664 0.38216415 0.11931874 0.381906 0.13055709 0.47621125
0.38574216 0.35150978 0.20957148 0.21201333 0.25203893 0.1015436 0.120421685 0.34643373
0.15350094 0.12638997 0.037888773 0.34806046 0.05788547 0.04652162 0.10151441 0.36390826
0.12674621 0.31976122 0.13539763 0.21518949 0.26003596 0.5182708 0.3154157 0.18841356
0.10145601 0.46576053 0.09753013 0.16952763 0.107972465 0.13514741 0.15334576 0.033498406
0.1656241 0.411884 0.3518476 0.3536501 0.07071321 0.31920105 0.7227419 0.22930439
0.07086338 0.081524394 0.21085839 0.29061705 0.3399387 0.051267464 0.24814402 0.046693083
0.0445857 0.2252278 0.10512709 0.017841948 0.15683044 0.41231486 0.29730916 0.18728891

running_var f4 [96]
00000000: f58e 383d 2e8d c83d c31c fb3d 4c3d 6b3b
00000010: 8257 5f3e 177a ea3d 9835 1c3c 7d2e 403e
00000020: 8bb8 503e e16e 413c 37cc 103d aae5 e33d
00000030: f4fe 2e3c c360 be3d 51c9 933d 4840 623d
00000040: ca16 723d 1710 823d f80e f23c 9fe3 2c3d
00000050: b04c 393d 9899 853d d345 ae3d 2dad 1c3d
00000060: 2680 1e3c e048 523d 1f93 d23d 2dde 563d
00000070: 0a37 5a3d 4ec7 4c3c 5247 703d 88a3 9d3d
00000080: 2bc5 2b3e deb6 323e 0611 6a3c 65bc 073e
00000090: 836f db3c 16af 363e 57e6 993c 07c9 c53e
000000a0: 04fb 863e 34a7 363e 4f93 cd3d 25d5 d23d
000000b0: a91d 273e 6d1e 433d 9c60 0c3d bf9d c53d
000000c0: 20d8 493d 4a63 893d 14be 453c 2e53 3b3e
000000d0: 8a68 753c 8be4 293c 18f5 593c 0a10 d43c
000000e0: 9a65 613c 151e 443e a066 be3c b1ee d23d
000000f0: 395d c53d 1a3a 0a3f 6673 913d 2910 df3d
00000100: b3ca 933c ca81 3b3e 7af4 b13c 7115 563c
00000110: 941b c93c ec3c 813d fe68 283d 4d96 c13b
00000120: 6cb0 ba3d 7acc b33e 9533 c53d a4e9 e63d
00000130: 0f14 9a3c b46a 5b3e cb51 863f 1b95 043e
00000140: 2240 103c cb8c 553c 5ce6 7b3d 79f7 103e
00000150: 8f0a 0a3e b63b 2b3c 6e2c 753d 46eb 9b3c
00000160: b0ac 323b cb6d fa3d 670f ad3c 2036 5b3a
00000170: 88f0 9d3d 3fb9 2f3e 6fa5 be3d ca2f 373d
0.04505821 0.09792553 0.12261345 0.003589469 0.21810725 0.11449068 0.009534262 0.18767734
0.20382898 0.011806221 0.035351004 0.11127789 0.010680903 0.092957996 0.072161324 0.055237085
0.059103765 0.06350725 0.029548153 0.042209264 0.04523915 0.06523436 0.08509412 0.03825109
0.009674108 0.05133903 0.10281967 0.052457977 0.053275146 0.01249869 0.058661766 0.07697207
0.16774432 0.17452571 0.014286285 0.1325546 0.026786571 0.17840227 0.018786592 0.38629934
0.26363385 0.1783722 0.100378625 0.1029456 0.16319908 0.04763644 0.03427182 0.09649228
0.04927838 0.06708391 0.012069244 0.1829345 0.014978537 0.01036943 0.013303064 0.025886554
0.013757134 0.191521 0.023242295 0.10299433 0.096369214 0.53994906 0.07102089 0.10891754
0.01804099 0.1831123 0.02172302 0.0130666355 0.024549283 0.06310448 0.041115753 0.00590781
0.09115681 0.3511694 0.09628979 0.11275032 0.018808393 0.21427423 1.0493711 0.12947504
0.008804353 0.013034056 0.061498985 0.14156903 0.1348059 0.010451248 0.059856825 0.019033086
0.0027263574 0.122279726 0.021125508 0.0008362252 0.07711893 0.1716051 0.09308898 0.04472331

weight f4 [256, 96]
00000000: 8f34 ab3d 7b0f 84bd d38e b8bd 19ac b5bc
00000010: b45b 63bd 2b7d aabd 42b8 41bd 5b91 c63d
00000020: e375 b83d e10e ac3d 9fce c6bd af06 81bd
00000030: a61d 6f3c 860b b2bd 52c3 3c3d eb57 753d
00000040: f0b4 7cbc 1ef3 b4bd 474a 17bc a550 6cbd
00000050: 0ddd ef3c 0f24 c4bd ce2f c33b fd8c a13d
00000060: 601c 30bd 7b3e ab3d 6f5c ad3d 4986 7a3d
00000070: 5434 b2bd 773f ad3c 1004 92bd c4fc b13d
00000080: b4aa fabb e0b9 7bbc 00fb 3c3d c6c9 a4bd
00000090: b8b9 333d e06f 9cbc ce2d b53c 1a05 44bd
000000a0: 4414 3d3d 1759 01bd 782f 91bb e27d 49bc
000000b0: 825b 9bbb 4f89 1ebd 91ef 313c c0c6 29bc
000000c0: 6283 9ebd 8969 a33c 60fd d4bd 4202 dd3d
000000d0: 8de3 07bc 72f1 bd3b 4bca bfbd 72d2 9f3b
000000e0: 2331 ccbd ad90 3a3c a439 043d ef13 153c
000000f0: 0dd2 8b3b b52b 52bd 3b66 aebc d857 32bd
00000100: 2e85 d43d ed74 42bc c90c a9bd b223 a9bd
00000110: f95d 823d f9e6 89bd f39f 2d3c be41 babc
00000120: 0f22 b93c 2210 7a3c 5172 fd3c 31ff b33d
00000130: 3777 c43d 6e80 593d a2ea 2ebd a5fe 60bd
00000140: 3b3f 2dbd c070 a43d 9e0c 7d3d 780f d63c
00000150: 99bb adbd 72ba b03d 78b8 703b 2820 733d
00000160: f2ce 2cbd 1e9b a93d 7167 c1bd b2bc a7bd
00000170: 0eeb 32bd 0921 413d 8a6a a03d 3b62 243d
00000180: 8081 363d b214 4c3d aeb7 8dbd ead8 ee3c
00000190: 6c09 b93d 153c f73c 935d 8dbd 1b70 2bbd
000001a0: 6918 60bd 15a8 8fbb 5ec3 e3bb fa90 a83d
000001b0: 4df1 d5bd 0a51 a43d 904d 033d 5952 cebb
000001c0: e0d7 dc3c e40d aebd ca8c 9fbd 9bba 15bd
000001d0: 59b2 94bd f07c e73c 792d 913d 8f33 34bd
000001e0: 7b5b 87ba 6df5 a8bd 55f9 82bd 7d45 953c
000001f0: a9a5 a1bd c9eb a4bc b848 29bc b606 343d
00000200: 4886 573d b618 20bc cf5f 8d3d 67a5 bfbc
00000210: ea04 c9bc 5de8 3fbd 31e2 afbd 8515 973d
00000220: d8a4 a1bd 55b1 ab3d c042 c2bd b9c8 883c
00000230: deea 673c 6eef 6bbd d9db b5bd 160b b3bd
00000240: 78a8 abbd 77aa 22bd d64e 5f3d 21f6 92bd
00000250: ac21 f93b 401a 363d bae1 bfbd df6f 583c
00000260: 7af1 913b 25b0 f1bc 87bc ac3c 479d 47bd
00000270: c8ff 40bb 5d3d 29bd dd31 bebd 1548 9dbd
00000280: 7fbf 093d c0c6 59bd efa6 bbbd cf27 8abd
00000290: c6bd b73d 775d 58bd f60f a33b f5be bdbc
000002a0: b8b6 a5bd 420d 033d d7d0 b83c ddae b0bd
000002b0: 4671 1dbd 2ca3 89bc 48b9 98bd 7b5d 3c3d
000002c0: 9658 453d c22f 8bbd bacc 123d d57d 623d
000002d0: aafd 593d 855c 723d 589c 17bd 4c95 bd3d
000002e0: be75 ca3d c684 763d adee 97bd a010 3cbd
000002f0: 9d0c a13d eec0 93bd 4c55 163d 0019 8d3d
00000300: 4dbe ccbd 9d69 b5bd a500 613d 4062 233d
00000310: 2bc7 c3bc d878 533d fb35 323d e86b 5abd
00000320: 2e17 8dbd e5cc ad3d 41bb b3b8 acc7 a1bc
00000330: 48e5 83bc 31bb 57bd 48dc 02bd ebf4 b03d
00000340: 138f 303d 34ef 833d e8a0 533d 3479 bd3d
00000350: 0974 a63d 16b5 c3bd 98ec 06bd 648f 583d
00000360: 52c7 7dbd 189c 2e3d ae92 adbd ece9 d63b
00000370: 8de1 b83d bd0b 553d 6433 323d 819e 9abd
00000380: 8a40 73bd b110 e6bb b4cf c53b b97f a3bc
00000390: 4e72 093d 4533 b2bb a17c e33d 1923 a63d
000003a0: 3e08 c83d 4d6a 9b3d ae35 b8bd fee5 c23d
000003b0: 016a 87bc 9224 163d d18b 613d 191d 83bd
000003c0: c059 b73c f1eb 803d 3646 69bd 2e63 bbbd
000003d0: 2416 a03d fea9 b6bd 8b5d 413d 6b74 a8bd
000003e0: 6b75 1c3d f16a 5c3c ca67 093d 9c43 82bd
000003f0: 77d2 1abd 44d9 603d 4bd2 d3bd 62de 1fbc
0.08359634 -0.06448265 -0.090116166 -0.02217679 -0.055507377 -0.08324655 -0.047294863 0.09695693
0.0900686 0.084012754 -0.097073786 -0.06300103 0.014594471 -0.08693604 0.04608471 0.0598983
-0.015423998 -0.088354334 -0.009234018 -0.057694096 0.02928021 -0.0957719 0.0059566265 0.078882195
-0.04299581 0.083615266 0.08464896 0.06116322 -0.08701387 0.021148426 -0.07129681 0.08690789
-0.007649744 -0.01536414 0.04613781 -0.08046298 0.043878287 -0.019096315 0.022116568 -0.047856428
0.046161905 -0.031579103 -0.0044307075 -0.012298079 -0.004741133 -0.038705166 0.01086034 -0.010362327
-0.07739903 0.019947784 -0.1039989 0.10791446 -0.008293998 0.005796605 -0.09364756 0.004877382
-0.099703096 0.011387032 0.032281533 0.009098991 0.0042669834 -0.051311214 -0.021288982 -0.043540806
0.103769645 -0.011868698 -0.08254392 -0.082587615 0.0636558 -0.06733508 0.010597217 -0.022736426
0.022599248 0.015262635 0.0309383 0.08788908 0.09593051 0.053100996 -0.042704232 -0.054930348
-0.04229663 0.08029318 0.06177961 0.026130423 -0.08483047 0.086293116 0.0036731046 0.05935684
-0.042189546 0.082815394 -0.09443558 -0.08190288 -0.043681197 0.047150645 0.07832821 0.040132742
0.044557095 0.049824424 -0.069198 0.029156167 0.09035 0.030180017 -0.069026135 -0.04185496
-0.05471078 -0.0043840506 -0.00695078 0.08230777 -0.10446415 0.080232695 0.03205639 -0.0062964377
0.026958406 -0.08498743 -0.07790525 -0.036554914 -0.072605796 0.028257817 0.07088751 -0.043994483
-0.0010326946 -0.08249936 -0.063952126 0.018221611 -0.07892925 -0.020131962 -0.010332279 0.043951713
0.052618295 -0.009771517 0.0690304 -0.0233943 -0.024538476 -0.04685246 -0.085880645 0.073771514
-0.078927696 0.08383433 -0.09485388 0.016697275 0.014155118 -0.057601385 -0.08879823 -0.08742349
-0.08381742 -0.03971335 0.054518543 -0.071758516 0.007602891 0.044458628 -0.09369226 0.013210266
0.004453835 -0.029502938 0.02108599 -0.048733976 -0.0029449333 -0.041318286 -0.092868544 -0.07679764
0.03362989 -0.05316806 -0.091626994 -0.06745874 0.08971743 -0.05282351 0.004976268 -0.023162344
-0.080914915 0.031995066 0.02256052 -0.086271025 -0.038438104 -0.01680144 -0.074572146 0.045987587
0.048180185 -0.067962185 0.035839774 0.055295784 0.05322043 0.059170265 -0.037014335 0.09256992
0.09885739 0.060185216 -0.07418571 -0.045914292 0.07863734 -0.07214533 0.03670244 0.06889534
-0.099972345 -0.08858035 0.054932255 0.03988862 -0.023898682 0.051628917 0.04350851 -0.053325564
-0.06889187 0.08486346 -8.570264e-05 -0.019748531 -0.01610054 -0.052668754 -0.031948358 0.086404644
0.043105196 0.06442109 0.051667124 0.09251633 0.08127601 -0.09556024 -0.032940477 0.052871123
-0.061957665 0.04262933 -0.084752426 0.0065586474 0.090273954 0.052013148 0.04350604 -0.075497635
-0.05938772 -0.0070210327 0.006036723 -0.019958364 0.033556275 -0.0054382407 0.111077555 0.08112163
0.09767197 0.07588635 -0.089946136 0.09516524 -0.016530039 0.03665597 0.05506498 -0.06402034
0.022381663 0.06295002 -0.056951724 -0.091497764 0.07816723 -0.08919142 0.04720835 -0.0822533
0.038197916 0.013453231 0.033546247 -0.06360552 -0.03779837 0.0548947 -0.103428446 -0.00975761

bias f4 [256]
00000000: fa3a 4c3d cd58 90bb dbe8 2dbd 12ff 54bc
00000010: 8f8d eaba f3a4 ae3d 31fc acbd 6982 f33c
00000020: 2b98 a83d d106 77bc 69a1 243d cf52 363d
00000030: 9187 6b3d df55 82bd 05a9 4b3d 3159 69bd
00000040: 5190 2dbc 9db6 c4bd 3b0c 833c d131 8ebd
00000050: 7595 34bd 3121 efbc d88c 143c 87ff a33d
00000060: 25dc b3bc 2117 603c fc4b efbc 1679 273d
00000070: a6df cdbd 7189 033d c2fb af3c e8c5 23bd
00000080: 3801 453d 47e4 003d 1304 84bd 5373 b53d
00000090: aa32 9cbd 0bfd 873c e17a 1bbc ac42 8e3d
000000a0: a180 95bd 6767 813d 132c ecbc 9e47 50bc
000000b0: 15bf 86bd a546 e7bc 5896 a73d f2ce d43b
000000c0: 7fb0 c0bd 6c04 a23d d18e 7d3d ff18 c63d
000000d0: 12b5 8d3c 14c1 a0bd 777d a5bd f8c7 543c
000000e0: 74b6 56bd 5669 08bd 4831 c13d 6ea2 ae3d
000000f0: 9feb 84bd 0a8b a7bd 78d7 e4bc 7862 523d
00000100: ef28 b13d 3d65 65bc db44 c8bd a234 533c
00000110: fa49 9f3c 04bf 9e3c 897d 55bd 94a9 2dbd
00000120: 16ae 15bd ef28 9dbd 0585 543d a8da 9fbd
00000130: 08b2 0c3c f557 17bd 9b8d 973d e738 5e3d
00000140: ebb2 a3bd 4932 143d 171d 53bd c511 abbb
00000150: 6501 713d 7c0e b23d 7626 0abd 8aae 44bd
00000160: 5a41 823d 6fb0 08bc f286 933b 82af 293b
00000170: fbc0 bd3c 84b1 963d 43e6 18bd e9bc 9dbd
00000180: dc09 a73d 2a42 283d d75c 563d 6ec5 003d
00000190: 52a8 bebd cfe9 ef3c a392 2dbd 33a8 9f3d
000001a0: 4569 d73d d356 8e3d 289c 5dbd 05a6 643b
000001b0: ac58 af3d 2d28 89bd 2752 8d3d cbb5 14bd
000001c0: e059 713d a240 8d3c bd0d 7cbd ba26 adbd
000001d0: 3aa6 303d ba12 d2bd c7b9 a53d b9b5 9abd
000001e0: ab15 fbbc 92df 553d 0e9b 813d af58 84bd
000001f0: e508 cb3c e380 9e3c 269a d83d 5a37 1cbd
00000200: 44d7 b43d ddbd dcbc 3e12 a9bd e4d6 a73b
00000210: 7a05 393c 1ddf e73c 2cd8 ecba 2df2 7dbd
00000220: b5dd 1d3d 6fc5 5d3d 3747 6e3d 2c4d a5ba
00000230: 3758 9c3d caf5 0a3a b526 a83d 9bad 653c
00000240: 136c c23d 6626 003d 2f2c 8d3d 928a fabb
00000250: beaa a13d 22fa 34bc d414 953d accf a6bc
00000260: 6f5e 84bd 23d7 d73d dfae 593d fb95 a13d
00000270: ac4f b0bd 0540 a43d 3cbe 99bd 751c f8bc
00000280: aff1 67bd 22d7 18bc 6192 74bb b0a9 a83c
00000290: be73 38bd b94d f23c 167e b2bc 68cb 503d
000002a0: d074 8d3d cee6 b5bd 1ce8 67bd f0f2 273c
000002b0: bd2d 2a3d d599 953d b8a4 4a3d aa08 a63d
000002c0: 60e2 d03d 9698 623d 14f5 be3d 3790 593c
000002d0: cb22 98bd 5476 9c3d 32ae a8bc 6010 38bd
000002e0: 338f b3bd 380c 2cbd 3b59 7ebc d874 a33d
000002f0: 8555 c9bd 85f7 2dbd dc7b a23d 37d3 8d3c
00000300: a506 a83d 84f4 babd c840 a5bd 5abd 863d
00000310: 425d 383d 6f6c c53d 1853 8d3c afe2 a9bd
00000320: 51ed 613d ac40 13bb dd2e 963d 158c 95bd
00000330: c874 fc3c ebd3 1ebc 1951 973d 1f39 b13d
00000340: 918f 953d 9d89 a5bd 1c19 e6bc 9827 583d
00000350: c15b 83bc 64f9 c2bd 2601 a5bd ff60 cabd
00000360: 97b2 9bbd 76b8 85bd e2ce 9ebd 4726 c0bd
00000370: 7f8d bb3d e24c f43c f63f 20bd fdf4 a3bc
00000380: ef6f 633c c86d ac3d e68e a9bd 1ac6 5dbd
00000390: 9a75 083d a410 683d cdc9 c9bc aba3 98bd
000003a0: 3600 9c3d 2245 c73d b0d2 bb3d 6e2c cc3c
000003b0: 4ca9 91bc c772 91bd 8264 2abd 1940 bcbd
000003c0: 30b6 62bc 040e 2e3d a9dc 8f3d 1f61 21bd
000003d0: 3189 dfbc f926 27bd ad3d 803d 5820 303d
000003e0: 2a26 a33b 08ad 9cbd e0b8 d13d 6dbf ff3c
000003f0: c287 5bbd 27d2 d7bc 0209 a8bd 6455 cb3d
0.049860932 -0.004405117 -0.042458396 -0.013000267 -0.0017894971 0.08527555 -0.08446539 0.02972527
0.08232149 -0.015077309 0.040192995 0.044512566 0.057502333 -0.06364035 0.049721736 -0.056969825
-0.01059349 -0.09605143 0.015997043 -0.069430955 -0.044087846 -0.029190632 0.009066783 0.08007722
-0.021955559 0.013677389 -0.029211037 0.04088696 -0.10052423 0.032113496 0.021482352 -0.03998366
0.048096865 0.031467702 -0.064460896 0.08859887 -0.07626851 0.016600152 -0.009489746 0.069463104
-0.07299925 0.063185506 -0.02882961 -0.012712387 -0.06579415 -0.028231928 0.08182973 0.0064943964
-0.09408664 0.07911 0.06190378 0.096727364 0.017298255 -0.07849327 -0.08080571 0.012987129
-0.052420095 -0.03330358 0.09433228 0.08527075 -0.06490254 -0.081808165 -0.027934775 0.05136344
0.086503856 -0.014001188 -0.09778758 0.012890967 0.019444454 0.019378193 -0.052121673 -0.04239805
-0.036542974 -0.07673823 0.05188467 -0.07805377 0.008587368 -0.036949117 0.07400056 0.054253485
-0.0799311 0.03618077 -0.051541414 -0.005220624 0.05883922 0.08694169 -0.033728085 -0.048018016
0.06360121 -0.008342846 0.0045021707 0.0025891964 0.02316331 0.07358077 -0.03732897 -0.077020474
0.081561774 0.041078724 0.052334633 0.031438284 -0.09309448 0.029286293 -0.04237617 0.07795753
0.105181254 0.06950154 -0.054104 0.0034888994 0.08561835 -0.06697116 0.06900435 -0.036306184
0.058923602 0.017242733 -0.06153654 -0.08454652 0.043127276 -0.10257478 0.08092075 -0.07554192
-0.03064998 0.052215166 0.063284025 -0.064622276 0.024784515 0.019348567 0.105762765 -0.038138725
0.08830121 -0.026946003 -0.082554325 0.0051220525 0.01129281 0.02830463 -0.0018069795 -0.061998535
0.038541514 0.054143365 0.058173385 -0.00126115 0.07634013 0.00053009077 0.08210508 0.014018442
0.0949327 0.03128662 0.06893193 -0.0076459134 0.078938946 -0.011045964 0.07279363 -0.020362698
-0.06463324 0.10539081 0.053145286 0.07889935 -0.08608946 0.08020023 -0.075069875 -0.030287007
-0.05662697 -0.009328635 -0.0037318694 0.020588726 -0.045032255 0.029578077 -0.021788638 0.050975233
0.06907046 -0.08881913 -0.05661784 0.010250792 0.041547526 0.07304732 0.049473494 0.08107121
0.101994276 0.0553213 0.09324089 0.013279012 -0.07428511 0.07639757 -0.020590875 -0.04493749
-0.087675475 -0.04200384 -0.015524204 0.079812706 -0.09830765 -0.04247238 0.079337806 0.01731263
0.08204392 -0.09128669 -0.08068997 0.06579085 0.045010813 0.09639823 0.017251536 -0.082951896
0.055157963 -0.0022468967 0.07333157 -0.07302109 0.030817404 -0.00969408 0.07388515 0.08653473
0.07302774 -0.08082888 -0.028088145 0.052772135 -0.016034963 -0.09520224 -0.0805686 -0.09881782
-0.07602423 -0.06529324 -0.077543035 -0.09382301 0.091578476 0.029821817 -0.039123498 -0.02001428
0.0138816675 0.084193766 -0.08279209 -0.054144002 0.03331528 0.056656495 -0.024632359 -0.07453092
0.07617228 0.09729983 0.09171045 0.02492353 -0.017780922 -0.0710197 -0.041599758 -0.09191913
-0.013837382 0.042493835 0.070245095 -0.039399263 -0.027287098 -0.04080865 0.06261764 0.042999595
0.0049789147 -0.076501906 0.1024034 0.031219209 -0.053596266 -0.026345326 -0.08204843 0.09928396

weight f4 [256]
00000000: 7eb1 7f3f 364f 803f 7b09 803f 05b5 7f3f
00000010: a5e4 7f3f 3027 803f 911d 7f3f 0725 803f
00000020: 9b8c 7f3f 3a18 803f a903 803f e557 803f
00000030: 4177 803f 2bba 7f3f d03c 803f 93cd 7f3f
00000040: 2232 803f e137 7f3f 786d 7f3f b061 7f3f
00000050: 3ca8 7f3f 9113 803f 8f11 803f ee06 803f
00000060: 9373 803f d0c5 7f3f 9a9d 7f3f bd17 803f
00000070: 7b03 803f 5a38 803f 4a11 803f a260 803f
00000080: f7c6 7f3f 8c45 803f 7c3d 7f3f 1904 803f
00000090: 7dab 7f3f 2017 803f 8184 7f3f 6a9a 7f3f
000000a0: e12a 803f 62c0 7f3f e72a 803f e807 7f3f
000000b0: 050f 803f aed7 7f3f da2f 803f 5603 803f
000000c0: d9bd 7f3f 8c14 803f 1101 803f ee57 7f3f
000000d0: 8459 803f 29e2 7f3f 7d08 7f3f 2129 803f
000000e0: ed35 803f 30af 7f3f 43c8 7f3f 3ae0 7f3f
000000f0: b344 803f 8520 7f3f 5b01 803f 4525 803f
00000100: d8a5 7f3f 940f 803f 9e7e 7f3f 2e50 7f3f
00000110: 4228 803f c89e 7f3f 414d 7f3f 8525 803f
00000120: 9207 803f cf9b 803f 50d8 7f3f a012 803f
00000130: ec48 803f 91c0 7f3f 6245 803f fd6c 7f3f
00000140: eb16 7f3f 3c23 803f 3038 803f 9c54 7f3f
00000150: ec57 7f3f 5fee 7f3f 2452 7f3f fd19 803f
00000160: 8b91 7f3f f614 7f3f 952e 803f cdc9 803f
00000170: 5ad3 7f3f 5d10 803f 231e 813f 6606 803f
00000180: 0306 803f af10 803f d4b2 7f3f aa73 803f
00000190: 0d13 803f 4c34 803f 21c2 7f3f 29ad 7f3f
000001a0: ef80 7f3f f4a1 7f3f 3d1a 803f e4b4 7f3f
000001b0: b893 7f3f bc23 7f3f 9f95 803f 56fd 7e3f
000001c0: b11c 803f 236a 7f3f 8099 7f3f ac46 7f3f
000001d0: ca71 803f 2ed2 7f3f 8a59 803f 3905 7f3f
000001e0: 749c 7f3f 73c3 7f3f f031 803f 3358 7f3f
000001f0: cb87 7f3f 7891 7f3f f631 7f3f 9062 803f
00000200: 5c43 7f3f 37b9 7f3f 09ec 7f3f 23cc 7f3f
00000210: 3586 7f3f 825b 803f e36f 803f 4da8 7f3f
00000220: 2e86 7f3f 8915 803f e964 803f 1e98 7f3f
00000230: 105b 7f3f f716 803f 2942 803f d837 803f
00000240: 2544 803f 4e26 803f 3d9b 803f 6f45 803f
00000250: 3616 803f 7a29 803f 9f46 803f 2b31 803f
00000260: ded1 7f3f fe31 7f3f 150a 803f a554 803f
00000270: 78eb 7f3f 5c0f 803f 12b6 7f3f d9d0 7f3f
00000280: 786a 7f3f a9c0 7f3f 8232 803f ee01 803f
00000290: a808 803f fa0d 803f 1903 803f bb24 803f
000002a0: fa4b 803f 6734 803f 3061 803f f6a4 803f
000002b0: 6a09 803f 8b68 803f 3384 803f 19c7 7f3f
000002c0: 41f4 7f3f 3e5a 7f3f 50e3 7f3f a949 803f
000002d0: 3ca9 7e3f 058a 803f 7cf8 7f3f be71 803f
000002e0: fc0f 803f c52b 803f 7bf9 7f3f e9b5 7f3f
000002f0: 9a58 7f3f f6e6 7f3f 9211 803f c648 803f
00000300: a379 7f3f 7593 7f3f a603 803f 0d3c 803f
00000310: d9ce 7f3f 236d 7f3f d0ec 7f3f af26 7f3f
00000320: b00f 803f fab7 7f3f c41c 803f b5f2 7f3f
00000330: b87c 7f3f f74c 803f 19d0 7f3f f9d2 7e3f
00000340: a74e 7f3f ace9 7f3f ba2c 7f3f 840e 803f
00000350: cf73 7f3f 1174 7f3f 9e56 7f3f 9abd 7f3f
00000360: c8d9 7f3f 7177 7f3f a342 7f3f ca79 803f
00000370: 6fe9 7f3f 5533 803f a1dc 7f3f 4429 803f
00000380: d6af 7f3f 0a5d 803f c44b 803f 7651 7f3f
00000390: f927 803f dff3 7f3f 403d 803f 52eb 7f3f
000003a0: 5e08 803f bb82 803f 2702 803f 4a43 7f3f
000003b0: 7024 803f 83a7 7f3f 070d 803f 7ae5 7f3f
000003c0: 2729 803f c7dd 7f3f fb20 803f a5d2 7f3f
000003d0: c210 7f3f 21fe 7e3f 80ff 7f3f 1034 803f
000003e0: 1e33 803f 9868 803f 57e0 7f3f bbe9 803f
000003f0: d400 803f 1066 7f3f 6ada 7f3f fb30 803f
0.99880207 1.0024173 1.0002893 0.9988559 0.9995826 1.0011959 0.9965449 1.00113
0.9982392 1.0007393 1.0001117 1.0026823 1.0036393 0.99893445 1.0018559 0.99923056
1.0015299 0.9969464 0.9977641 0.99758434 0.9986608 1.0005971 1.0005358 1.0002115
1.003527 0.9991121 0.99849856 1.0007244 1.0001062 1.0017197 1.0005276 1.002949
0.9991297 1.0021224 0.9970319 1.000125 0.99871045 1.0007057 0.9981156 0.9984499
1.0013086 0.9990293 1.0013093 0.9962144 1.0004584 0.99938476 1.0014603 1.0001018
0.9989906 1.000627 1.0000325 0.99743545 1.0027318 0.9995447 0.9962233 1.0012552
1.0016457 0.9987669 0.9991495 0.9995152 1.0020965 0.99658996 1.0000414 1.0011374
0.9986243 1.0004754 0.9980258 0.9973172 1.0012286 0.99851656 0.99727255 1.001145
1.000231 1.0047549 0.9993944 1.0005684 1.0022254 0.9990321 1.0021174 0.9977568
0.99644345 1.0010753 1.0017147 0.9973848 0.99743533 0.999731 0.9973471 1.0007931
0.99831456 0.9964136 1.0014216 1.0061585 0.9993187 1.0004994 1.0087322 1.0001953
1.0001835 1.0005091 0.99882245 1.0035298 1.0005814 1.001596 0.9990559 0.99873596
0.9980611 0.99856496 1.0008007 0.9988539 0.99834776 0.996639 1.0045661 0.9960531
1.0008756 0.99771327 0.998436 0.9971721 1.0034726 0.99930084 1.0027325 0.99617344
0.99848104 0.99907607 1.001524 0.99743956 0.9981658 0.9983134 0.9968561 1.0030079
0.9971216 0.9989199 0.99969536 0.9992086 0.9981416 1.0027926 1.0034145 0.9986618
0.99814117 1.0006572 1.0030795 0.9984149 0.99748325 1.0007008 1.002019 1.0017042
1.0020796 1.001169 1.0047375 1.002119 1.0006778 1.0012658 1.0021552 1.0015005
0.99929607 0.9968566 1.0003077 1.0025831 0.9996867 1.0004687 0.9988719 0.9992805
0.99771833 0.9990335 1.0015414 1.0000589 1.0002642 1.0004265 1.0000945 1.0011209
1.0023186 1.0015992 1.0029659 1.0050342 1.0002873 1.0031904 1.0040344 0.99913174
0.99982077 0.99747074 0.99956226 1.0022479 0.9947698 1.004212 0.9998853 1.0034711
1.0004878 1.0013357 0.9999005 0.9988695 0.9974457 0.99961793 1.0005362 1.0022209
0.9979498 0.99834377 1.0001113 1.0018326 0.99925 0.99775904 0.9997072 0.996684
1.0004787 0.998901 1.0008779 0.99979717 0.9979968 1.0023488 0.99926907 0.9954067
0.9972939 0.9996593 0.9967762 1.000443 0.99786085 0.9978648 0.9974154 0.99898684
0.9994168 0.9979163 0.99711055 1.0037167 0.99965566 1.0015665 0.9994603 1.0012593
0.9987768 1.0028393 1.0023122 0.99733675 1.0012199 0.9998149 1.0018692 0.99968445
1.0002553 1.0039896 1.0000657 0.9971205 1.001112 0.9986498 1.0003976 0.9995953
1.0012559 0.9994778 1.0010065 0.99930793 0.99634945 0.9960652 0.9999924 1.0015888
1.00156 1.003192 0.9995169 1.0071329 1.0000253 0.9976511 0.9994265 1.0014948

bias f4 [256]
00000000: 9639 be3a ec92 09bb c12f a23a 7a6a 8f3a
00000010: 2ed4 37ba a829 043b 1d88 50ba e041 00bb
00000020: 8b70 e9ba bc09 1bbb a8ab 2dbb 28f2 8fba
00000030: 74df 8fbb d6d2 843a 5a39 98bb 1693 a6ba
00000040: 6df1 5939 f839 49bb 03b6 21bb 9095 8f3a
00000050: c576 733b c4dc f5ba 7073 943a c9a4 983a
00000060: 92fd dd3a e871 133b 1d4b d7ba 56b6 e23a
00000070: 15f8 0bba d82c 293b 55a2 6d3a d3ff 3fbb
00000080: 3a9d 2abb b291 74bb fcd0 acb9 a18b bd3a
00000090: ce94 a2ba e4c2 ab3a daa8 003b b58e a6ba
000000a0: e24f 28ba 881b b33a 52d2 1c3a 4705 1cbb
000000b0: 8d3b 67bb e161 513b 2642 2a3b 04f1 31bb
000000c0: 2c14 443b e3f7 953a 435c 0f3b 3c0e f73a
000000d0: cefb 2b3b 63f9 863b 3443 97bb d525 20ba
000000e0: 52a0 163a 3b7f dd3a 95a9 9dba 0f6f 7d3a
000000f0: afa3 31bb a37a 543b 7a27 5537 ee26 4cbb
00000100: 90ee 1e3b 3249 b7ba cfba 3a3b e8be 2f3a
00000110: b630 a839 4515 223a d22a 49bb ff48 09bb
00000120: 7cb8 02b8 57cd 9cbb a6f5 a73a e9d2 f83a
00000130: 591c 38bb 41c9 dcba b126 cb3a f864 ba3a
00000140: 0bcd 0639 6114 b7ba 34c8 a039 f941 2a3b
00000150: 5b5a 003a cf9b 043b 2194 533a cddf ad3a
00000160: 4942 14ba 8f04 04bb 2771 623a f3e7 463a
00000170: 7353 a3ba 588f a53a 87ad aeb9 d0b3 7d3a
00000180: 8956 773a f09f e4b9 3dc1 0539 0de9 faba
00000190: 7d72 93ba 1f4f f7b9 8270 823a 4504 b0ba
000001a0: edbf 36b9 c1ec 12b9 55a9 5bbb 4d4b 50bb
000001b0: 179c aa3a 2208 533b 554c abb9 21cd 94ba
000001c0: e12b 333a dfba 01b8 9b3a c7ba dc28 a3ba
000001d0: 0bb0 35bb 4af1 823b 8c0c 473a 783c 62ba
000001e0: 0e5c 24b9 8d75 38ba 7727 2abb b79a b2ba
000001f0: 1afd 6839 e56f a1bb e914 21bb 8e78 8fb9
00000200: 8248 283b 3b07 963a 329b 2e3b b7bd 27bb
00000210: 8c0e fa39 cf4c 2e3a bfc6 d4b9 05fa 173a
00000220: 6f09 073b 29b9 2eba 5891 8aba 8979 623b
00000230: ca70 c6ba 484d 043b 52b6 0abb e800 3eba
00000240: f606 f2ba 1703 20bb 4cfc e53a 696b b137
00000250: 9c08 063a d8df 303b 9610 e2ba c819 de39
00000260: f34c 42ba 9b30 c8ba 1041 163a 0355 343b
00000270: b02e c839 2775 c93a 8a5a 29b9 dce2 d7b8
00000280: d76a 30ba 0a3d 5837 c3a2 72ba a333 3ebb
00000290: b839 b939 9c42 2f3b b783 9a3a dcef 0fbb
000002a0: 2b13 cdba f324 f3b9 ef60 f43a 4e52 003b
000002b0: b0f5 1a3a 5b62 43b9 7119 b5ba f05c 11bb
000002c0: 92ce 003a 4341 32b8 af67 eaba cd68 ecba
000002d0: 0168 e13a 4a7c b7bb 761a cc3a 0cdd 17ba
000002e0: fc3b aeba c2c1 293b cd04 413b d4bd 04ba
000002f0: c616 bdba 2eb3 263b 82cd 1bbb 9be0 af3a
00000300: c0de 5539 3d3d 39b9 22d6 2bba 9f08 573b
00000310: a60c bcb9 f4ad 4f3b 3e2b cab9 3459 5dba
00000320: 8640 fc39 413a 78b9 c2c5 303b 82db 6bbb
00000330: 8c34 f03a 9efa 1cb9 0325 673b ea99 fc3a
00000340: 2c86 f53a 5570 a63a dc54 c9ba ee2a 17bb
00000350: 7b9a 8c3a 732e ef3a b8a2 c7ba f93c b338
00000360: fe6b 9ab9 34e0 10bb b0a6 23bb 9ac0 bdba
00000370: 1e03 193b 1bae 8e3a 76e0 db3a 87fd 02ba
00000380: 743a d73a 6aa1 923a 4fe7 803b 83e0 b73a
00000390: 3e79 0aba 68e7 0fba c3cb d1ba 863a 72b9
000003a0: 1cdd c939 7c5b 43ba dfb1 a8ba 17c4 b83a
000003b0: 71be ceb9 adec cc39 7f90 51b9 41b3 433a
000003c0: b29b fbba c840 1bb9 ab8f 373b 336c 7239
000003d0: bfca a6ba 5b8c 8338 f8be 173b ccab 953a
000003e0: 9ac6 59bb 83fe 83b8 89ea 04bb 37d9 83ba
000003f0: 7aa0 10bb 0c02 003a 65f0 27bb 86e8 e73a
0.0014513012 -0.0020992113 0.0012373851 0.0010941767 -0.0007012513 0.002016643 -0.0007954853 -0.0019570515
-0.001781003 -0.0023656925 -0.002650002 -0.0010982202 -0.0043906514 0.0010133635 -0.0046455087 -0.001270863
0.00020784671 -0.0030704718 -0.0024675138 0.0010954607 0.003714965 -0.001875781 0.0011325907 0.001164579
0.0016936532 0.0022498313 -0.0016425584 0.0017296772 -0.00053393963 0.0025814082 0.0009065022 -0.002929677
-0.0026033656 -0.0037318286 -0.00032962102 0.0014461168 -0.0012403966 0.0013104347 0.0019631893 -0.0012707325
-0.0006420595 0.0013664821 0.0005982268 -0.0023806856 -0.0035283298 0.003194921 0.002597937 -0.0027151713
0.002991925 0.0011441674 0.002187506 0.0018848847 0.0026242617 0.0041190847 -0.0046161655 -0.0006109153
0.00057459355 0.001689888 -0.0012028689 0.0009667733 -0.002710562 0.003242173 1.2704981e-05 -0.0031151134
0.002425108 -0.0013983606 0.0028492694 0.00067041675 0.0003207975 0.0006182979 -0.003069569 -0.002094805
-3.116623e-05 -0.0047852206 0.0012814298 0.0018983755 -0.0028093068 -0.0016844646 0.0015499202 0.0014220765
0.0001285562 -0.0013967865 0.0003066674 0.0025979264 0.00048962765 0.002023447 0.0008071084 0.001326555
-0.0005655629 -0.0020144319 0.0008638077 0.0007587664 -0.0012460783 0.0012631221 -0.00033317154 0.0009677978
0.0009435197 -0.00043606712 0.00012755855 -0.0019142941 -0.001124933 -0.0004717046 0.0009951743 -0.0013429007
-0.0001742837 -0.00014011843 -0.0033517678 -0.0031783164 0.0013016489 0.0032200892 -0.00032672533 -0.0011352637
0.00068348466 -3.0930034e-05 -0.0015199961 -0.001244809 -0.0027723338 0.003996049 0.0007593117 -0.00086302264
-0.00015674552 -0.00070365594 -0.0025963464 -0.0013626431 0.00022219532 -0.004926669 -0.0024579114 -0.00027364906
0.0025677984 0.0011446247 0.0026642797 -0.0025595257 0.00047694554 0.00066490186 -0.00040583868 0.00057974487
0.0020604988 -0.0006665164 -0.001057188 0.0034557304 -0.0015139815 0.0020187665 -0.00211658 -0.000724806
-0.0018465209 -0.0024415904 0.0017546504 2.1150061e-05 0.0005112977 0.002698889 -0.0017247375 0.00042362348
-0.0007411979 -0.0015273275 0.0005731741 0.0027516491 0.00038181758 0.0015369997 -0.00016150824 -0.00010294255
-0.00067297876 1.2888815e-05 -0.0009255821 -0.0029022477 0.00035328954 0.0026742583 0.0011788522 -0.0021963036
-0.0015645971 -0.000463761 0.0018644611 0.0019580307 0.0005911244 -0.0001863329 -0.0013816786 -0.002218064
0.0004913594 -4.2499287e-05 -0.0017883683 -0.0018036604 0.0017197133 -0.005599533 0.0015571851 -0.00057931314
-0.0013293023 0.0025902842 0.0029452324 -0.0005063687 -0.0014426343 0.002543639 -0.0023773615 0.0013418378
0.00020396244 -0.00017665788 -0.00065550406 0.0032811535 -0.00035867578 0.0031689378 -0.0003856066 -0.0008443773
0.0004811326 -0.00023672824 0.0026973342 -0.003598899 0.0018326207 -0.00014970682 0.0035269863 0.0019271944
0.0018732003 0.0012698272 -0.0015360373 -0.002306636 0.0010727191 0.0018248096 -0.0015230989 8.546742e-05
-0.0002945363 -0.0022106292 -0.002497118 -0.0014476955 0.0023347805 0.0010885628 0.0016775269 -0.0004996885
0.0016420619 0.0011187021 0.003933824 0.0014028702 -0.0005282349 -0.00054894993 -0.001600616 -0.0002310072
0.00038502447 -0.0007452292 -0.0012870393 0.0014096525 -0.00039433272 0.0003908625 -0.00019985622 0.00074653706
-0.0019196181 -0.00014806085 0.0028009217 0.00023119226 -0.0012725218 6.27271e-05 0.0023154598 0.0011418997
-0.0033229948 -6.293973e-05 -0.0020281395 -0.0010059242 -0.0022068308 0.00048831175 -0.0025625464 0.0017693199

running_mean f4 [256]
00000000: 717a 593e c2ab 4e3e 2a75 cb3e 668a 963e
00000010: 0e68 003e c653 813e 0071 ef3d 1de7 a13e
00000020: 1edb 293e 5e0f 593e fd38 533e ec51 813e
00000030: 5ae5 8e3e 96df 8c3e d014 813e 868d 473e
00000040: fe46 863e 7320 d53d 0bde 303e 27ba 3f3e
00000050: 8276 6f3e eed3 053e 9d85 573e fede 563e
00000060: 6bed 313e 72ec 483e 0fa1 813e dd2e db3e
00000070: eb9e 8c3e 7532 973e 0fb5 1e3e 26f0 453e
00000080: 5a9b a63e 955e 4e3e 3bd5 863e 6bd2 2f3e
00000090: 82a2 2c3e b2bb 703e 75aa ec3e da1b 643e
000000a0: f4bd d73d 7141 af3e 8843 893e 349f 853e
000000b0: 7d1e 843e 1f3c 403e a898 483e bb9d be3e
000000c0: f5ef 5e3e 8083 b23e dc6f 2c3e dcc7 903e
000000d0: 5daa 463e 96fe 1e3e c328 8a3e 3a96 863e
000000e0: e0b5 373e 5761 483e fc73 8c3e 29d0 3e3e
000000f0: a18c 9d3e 35b5 523e a920 4d3e b5ad c43e
00000100: 3e6c a63e ada6 933e c48f 6d3e 6ce6 063e
00000110: c0fd 7f3e e1ee 3e3e aa29 2e3e 7575 623e
00000120: 77ea 673e 718e 4b3e d096 843e d661 123e
00000130: 7281 a93e 8f5b 633e bc62 993e bb5b 823e
00000140: 7908 ef3d 5b84 8a3e 4daa a03e 5a84 7e3e
00000150: e2b8 a53e 70e3 ac3e 828d 743e e750 a43e
00000160: d51b 923e 3938 6e3e 03f0 473e edd6 b33d
00000170: c226 883e 7e51 863e 5e0a cf3d e7c0 343e
00000180: 98a7 df3e cfd5 9f3e 1417 323e 9ada 793e
00000190: 9c6e 233e 88c2 273e 6e4c fd3d 40a2 693e
000001a0: 2c3f ce3e 9963 ac3e 3f74 083e 3b02 553e
000001b0: b4de a73e 5f5a 753e fc3d 9b3e fec8 7f3e
000001c0: 773b 793e 2b73 2e3e 7143 1a3e 55f8 453e
000001d0: 971e 743e fdf9 403e 485e 843e 15c9 683e
000001e0: 4a8b 5a3e 1274 bb3e 78c8 4d3e 860f 603e
000001f0: b647 473e b5a2 313e 6b7b 8b3e feb1 f13d
00000200: 67f2 963e c67c 693e 185a 483e a84d 213e
00000210: a4d0 923e 7229 ba3e 6fa7 363e 1276 813e
00000220: 5b48 0e3e 5aa0 7a3e f0f2 943e 9838 ca3e
00000230: 59a2 a23e 91c0 973e ef4d 1e3e 58f2 1f3e
00000240: e29b 873e 1644 d63e 6913 c83e 6087 513e
00000250: 359b 8a3e cb73 623e 21f1 963e 7b8b c43e
00000260: b39e 3d3e 81bc 653e 6f90 783e ed25 5c3e
00000270: a58d c53d 508f 7e3e cb90 c63e ba35 483e
00000280: 02cc c33d bc22 913e 7f60 6e3e b69d bc3e
00000290: 8712 683e 03c2 8b3e 6251 843e 257b a93e
000002a0: 89cb 8d3e aa31 263e 13a9 893e 47d4 703e
000002b0: 84ec 993e 1586 263e cb97 1e3e 59a1 903e
000002c0: 7449 bf3e 441c 463e 0c94 9f3e 40cf 473e
000002d0: 1260 533e d2b2 ac3e cd87 833e 9254 3c3e
000002e0: 96da 6c3e 4158 0c3e 5840 613e 1e30 6e3e
000002f0: 8534 293e dc2e 923e 3209 873e 9580 283e
00000300: 3dc3 573e 2573 343e 42a5 8a3e dcfc a83e
00000310: 2f0c 843e 0115 b23e 371b 4a3e fcf8 2c3e
00000320: fd6d 063f 892a bb3e 6fd5 b43e c774 663e
00000330: c0d5 863e fe06 7c3e a7a1 b73e 2520 963e
00000340: 31b0 8f3e 71eb a23e 059b a53e 346f 903e
00000350: 8c07 8e3e 42d6 8c3e bcc6 5e3e dbcc 963e
00000360: 81e9 053f 5d5f 973d 3f89 173e 53c7 023e
00000370: c3f1 513e 4f8d b83e a506 803e e02d e93e
00000380: 6616 5d3e 02d6 713e 32fb 813e 5fad 923e
00000390: e333 453e c7d4 6e3e 8b42 343e 9aed 1a3e
000003a0: 26d6 873e 4d6b 793e 4473 6c3e e543 8e3e
000003b0: ee2c 823e d159 b23e 85ab 543e ab0c 133e
000003c0: 1a8b 903e 8286 5d3e fa53 663e 21a4 ab3e
000003d0: 01de 283e e595 803e 1df3 803e ade8 423e
000003e0: 9eca 7d3e a449 1c3e fb4c 8b3e 0c7f 4b3e
000003f0: 8f78 843e 8f59 243e 74c4 2d3e 5527 9c3e
0.21238114 0.20182708 0.39737827 0.29402465 0.12539694 0.25259227 0.11691475 0.31621638
0.16587493 0.21197268 0.20627208 0.25257814 0.27909356 0.27514333 0.2521119 0.1948758
0.26226038 0.1040658 0.17272203 0.18723355 0.23385051 0.13069126 0.21047063 0.20983502
0.17375724 0.19621447 0.2531819 0.4280919 0.27464995 0.29530683 0.15498756 0.1932989
0.325404 0.20153268 0.26334557 0.17170112 0.16858867 0.235091 0.46223798 0.2227625
0.105342776 0.34229615 0.26809335 0.26098025 0.2580451 0.18772934 0.19589484 0.37229714
0.21771224 0.34865952 0.16839546 0.2827748 0.19400926 0.15526804 0.26984224 0.2628649
0.17940474 0.19568382 0.2743224 0.18634094 0.30771354 0.20576937 0.2003199 0.38413778
0.32504457 0.288381 0.23199373 0.13173836 0.24999142 0.18645813 0.17008081 0.22115119
0.22648035 0.19878556 0.2589631 0.14295134 0.3310657 0.22202896 0.2995814 0.2546061
0.11671538 0.27054104 0.3137993 0.24855176 0.32367617 0.3376727 0.23882106 0.32092974
0.2853686 0.23263635 0.19525151 0.08781228 0.2659207 0.2623405 0.10109399 0.17651711
0.4368255 0.3121781 0.17391616 0.24399796 0.15960163 0.16382802 0.123680934 0.228158
0.4028257 0.33669737 0.13325594 0.20801632 0.32787097 0.23960255 0.30320728 0.24979016
0.2433909 0.1703612 0.1506479 0.19333012 0.23839794 0.18845363 0.2585318 0.22732957
0.21342197 0.36611992 0.20096004 0.21880922 0.1946095 0.17347224 0.27242598 0.118015274
0.29481813 0.22801504 0.19565618 0.1575228 0.28674805 0.36359745 0.17837308 0.25285393
0.13894789 0.24475232 0.29091597 0.39496303 0.31764486 0.29639104 0.15459417 0.1561979
0.26486117 0.4184882 0.3907731 0.20461798 0.2707154 0.22114484 0.29480842 0.38387665
0.1851757 0.2243519 0.24273847 0.21498843 0.09646157 0.24859357 0.38782343 0.19551745
0.09560396 0.28346813 0.23278998 0.36839074 0.22663318 0.27296457 0.2584334 0.33101764
0.27694348 0.16229883 0.26886806 0.23518477 0.3006326 0.16262086 0.15487592 0.28248098
0.37360728 0.1934672 0.31167638 0.19512653 0.20642117 0.3373018 0.25689545 0.18391636
0.23130259 0.13705541 0.21997201 0.23260543 0.16523941 0.28551376 0.26374203 0.164553
0.21070571 0.17622049 0.27079207 0.33005416 0.25790545 0.3478165 0.19736944 0.16891855
0.5251158 0.3655589 0.35319087 0.22505485 0.26334953 0.24612042 0.35865518 0.293214
0.2806411 0.31820253 0.32344833 0.2820984 0.27740133 0.27507216 0.21755499 0.29453167
0.52309424 0.07391236 0.14798449 0.12771349 0.20502381 0.3604531 0.2500507 0.45542812
0.21590576 0.23616794 0.2538696 0.28647897 0.19258074 0.23323356 0.17603509 0.151297
0.2653057 0.24357338 0.23090845 0.27786174 0.25424904 0.3483415 0.20768555 0.14360301
0.28231126 0.21633342 0.22492972 0.33523658 0.16490938 0.2511436 0.2518548 0.19034071
0.24784324 0.15262467 0.2720717 0.19872683 0.2587323 0.16049789 0.16969472 0.30498758
